maml_mini_imagenet_5way_1shot_best.pt (torch, 487026 bytes, 10 tensors)

net.layer1.0.weight f4 [64, 3, 3, 3]
000000 d7 ed a4 bc 37 72 7a bb ca d9 a8 3d 74 75 e0 3c
       -0.020132942 -0.003821505 0.08244665 0.027399756
000010 27 6e 6d bd e3 28 03 bc 50 a5 a9 3d c4 50 bd 3d
       -0.057966378 -0.008005354 0.08283484 0.092439204
000020 4b 05 cb bd 9b 19 a6 3d 51 2a ab 3d af b4 66 3c
       -0.09913119 0.081103526 0.083576806 0.014081164
000030 cd e0 7e bd 76 0b 9e 3d b7 11 07 bd 7e ce e7 bc
       -0.062226105 0.0771703 -0.03297588 -0.028296705
000040 7c 91 24 3d 54 d1 ba bd 0d 8d 82 3d 09 7e 84 3c
       0.040177807 -0.091219574 0.063745596 0.01617338
000050 ae a6 c6 bd 6f e2 14 b9 c2 fe 35 3d 33 55 9c 3d
       -0.096997604 -0.00014198733 0.04443241 0.07633438
000060 37 24 02 bc 68 df d6 bb de 59 67 bd 45 f7 b8 3b
       -0.007943205 -0.006557394 -0.05648219 0.005644711
000070 e7 f4 af 3c 33 a7 a6 bd 1f a2 97 3d 26 59 1c bd
       0.021479083 -0.081373595 0.07403969 -0.038170956
000080 38 d3 2b bd 7a 82 88 bd 11 3b 2f bc 94 44 06 3c
       -0.04194948 -0.066655114 -0.010695235 0.008195061
000090 cf cc 3b 3d 9c 71 bf 3d ce 9d 22 bc b1 a9 c2 3d
       0.045849618 0.09347841 -0.009925319 0.09505022
0000a0 e6 80 12 bd 3d a6 37 bc fe 85 91 bd 78 fc 40 bc
       -0.03576746 -0.011209068 -0.07105635 -0.011778943
0000b0 3e a4 56 bd 12 b4 43 3d aa bf 0d bd 04 64 84 bc
       -0.052402727 0.04777915 -0.034606613 -0.016160972
0000c0 78 0c 17 bd af 84 e4 3c 29 83 9b bc 94 4e c7 3d
       -0.036877126 0.0278953 -0.01898344 0.097317845
0000d0 d3 7f e2 ba 2d 47 5a bd 87 89 a3 bd 3b 7e 50 3c
       -0.0017280526 -0.053290535 -0.07985216 0.012725408
0000e0 d4 d7 bd bc da b2 9b 3c 21 f6 ad 3c e3 3d 32 bd
       -0.023174204 0.019006182 0.021235527 -0.04351605
0000f0 a2 da 6c bd 75 13 f1 3c be 4b 3b 3d 39 47 c6 bd
       -0.057825692 0.029428223 0.04572653 -0.096815534
000100 61 a7 0f 3d bc 85 d9 3c f8 1e 1e 3d df 6a c1 bd
       0.035071734 0.026553027 0.038603753 -0.09444212
000110 d4 83 e8 bb 4f 02 a5 3d 62 5a 25 bc 1e d3 cb 3d
       -0.0070957933 0.08057081 -0.01009235 0.09952377
000120 05 d9 2b bd 28 e7 25 3c 29 a9 97 bb 23 bd bb bc
       -0.041955013 0.010125913 -0.0046283198 -0.022917336
000130 8e ec 3c 3d fc db 15 3d 55 3d 42 3d f9 51 0e bd
       0.046124034 0.036586747 0.047421772 -0.034746144
000140 06 aa 1d 3b bb f9 86 3d 0f 13 96 3d 48 35 db bb
       0.002405764 0.06590601 0.07327854 -0.006689701
000150 60 e9 f7 bc 57 cb b6 3d 53 5f 48 bc 03 56 4d bd
       -0.030262649 0.08925503 -0.012229758 -0.050130855
000160 fe 69 10 bd f3 62 f6 bc 31 ce c3 3c f6 40 b6 3d
       -0.035257332 -0.03007648 0.02390203 0.08899109
000170 96 ec 04 bc 15 f1 41 3d 4b ea 78 bb fd 92 b0 bd
       -0.008113047 0.047349054 -0.0037981446 -0.08621786
000180 91 74 f6 bb da d6 a9 3d fa 3e 9c bc 53 a6 dd bc
       -0.00752122 0.08292933 -0.019072998 -0.027056849
000190 3a 3c 72 3d bf cc 21 bd 4a 22 52 bd 2d 5e 32 3d
       0.059139468 -0.0395019 -0.05130223 0.043546844
0001a0 1f 06 91 bd 15 03 be bd 14 cc 8b bd 77 c8 42 bd
       -0.07081246 -0.092779316 -0.06826034 -0.04755446
0001b0 d6 b5 eb bb 3e 41 0a 3d 95 32 00 bc e0 70 07 3d
       -0.0071933074 0.033753626 -0.00782456 0.03306663
0001c0 27 ae 86 3d 38 35 b3 3d d5 d3 8c 3c 5f f8 8a ba
       0.06576186 0.08750385 0.017190853 -0.0010602585
0001d0 8b 5d c2 3d 85 08 91 3c e1 8b 8b 3c 6b 92 16 bd
       0.09490498 0.017704258 0.017034473 -0.03676073
0001e0 b1 a5 f1 3c af 20 8a bc 4e af 36 bc 4d c4 5a 3d
       0.029497953 -0.016861288 -0.011150194 0.053409863
0001f0 96 98 11 bc 93 d0 a0 bd 9f f4 ba bd e3 af b0 3c
       -0.008886477 -0.078522824 -0.09128689 0.021568244
000200 08 16 a0 3d 44 2e 5a 3d b3 b2 34 3c 28 37 79 bd
       0.07816702 0.05326678 0.011028933 -0.060843617
000210 67 98 38 bd 4d 52 c6 bd b3 bb bf bd d4 17 21 bd
       -0.045067217 -0.096836664 -0.09361973 -0.039329365
000220 4f 79 72 bd 30 7e b7 bd e2 75 59 bd 6f e0 a2 3d
       -0.05919772 -0.08959615 -0.053090937 0.079529636
000230 e9 15 67 bd a9 f2 83 bb 38 07 7b 3d 86 28 b2 bd
       -0.05641738 -0.00402673 0.06128618 -0.086991355
000240 c0 23 19 bd 92 cc 75 bd c2 25 93 bc a8 57 1b bc
       -0.03738761 -0.060009547 -0.01796234 -0.009481348
000250 d5 15 5d 3d 73 ff 0d 3d 60 a1 55 bd a9 c9 4d 3d
       0.0539759 0.034667443 -0.052155852 0.050241146
000260 cf ec bd 3d 68 6b 85 bc bc fb 31 bc 4f e3 40 3d
       0.09273683 -0.016286567 -0.010863241 0.04709178
000270 32 60 74 3b cf 06 ca bd 7d fd 71 bd 67 51 84 3d
       0.0037288782 -0.0986458 -0.059079636 0.06460839
000280 07 50 8e bd 39 84 34 bd e0 31 34 bd a5 61 b5 3d
       -0.06948858 -0.04407141 -0.043992877 0.08856515
000290 25 a1 a4 3d 75 60 9f bd 51 71 41 bd 14 8d b2 3d
       0.080385484 -0.077820696 -0.047227208 0.08718315
0002a0 6a d3 18 3c 8f 2f 9a bd df 10 88 bd 9a b8 5c bd
       0.009327749 -0.07528602 -0.06643843 -0.053886987
0002b0 59 ce 7b 3d 20 e4 56 bd 83 5f 5c 3d 25 1d 20 3d
       0.061476085 -0.05246365 0.053802025 0.039090294
0002c0 6f 98 db 3c a4 ac 07 3d 2d 20 02 3c f7 0a e2 3c
       0.026806084 0.033123627 0.007942242 0.02759312
0002d0 65 34 29 3c 23 52 36 bc a0 b0 5c 3d d8 0e 9f bd
       0.010327433 -0.011127981 0.05387938 -0.07766503
0002e0 dd 1c 33 3c a1 e6 10 3c 6a 50 03 3c 75 ef 91 bd
       0.0109321745 0.008844049 0.008014778 -0.07125751
0002f0 9f ff 7d bc 0a 1f 6d bd c8 79 4f 3b c3 d4 a8 bd
       -0.015502839 -0.05789093 0.003165828 -0.08243706
000300 14 cf 9a 3d 5a 68 b9 bd d6 cf 10 ba 51 f9 4e 3d
       0.07559028 -0.090531066 -0.0005524134 0.050530735
000310 02 32 bf 3d cb 5d 86 3d c6 56 79 bc ce 9a 9f bd
       0.0933571 0.06560858 -0.015218442 -0.077931985
000320 9c af c2 bd c1 23 26 3c d7 9d 8e 3c 93 e9 c3 3b
       -0.09506151 0.01014036 0.017409248 0.005978772
000330 61 ac 06 bd 24 02 e0 3c 61 db 55 3d 81 17 ad 3d
       -0.032879237 0.02734477 0.05221117 0.08451749
000340 a3 0c 57 bd 4b 4b a5 3d d6 67 90 3d e4 79 b5 3d
       -0.052502286 0.080710016 0.07051055 0.088611394
000350 3f 5d be 3c d4 ec 61 3d 2c 39 ae bd 40 06 73 bd
       0.023237823 0.055157498 -0.085069984 -0.059332132
000360 64 1c 85 bd 16 7d b9 bc 8d ee 06 b9 cf 94 bc bc
       -0.06499556 -0.022642653 -0.00012868103 -0.023020176
000370 db c6 6b 3d 1f 83 a2 3d 37 40 47 3d 17 1d b1 3b
       0.05756269 0.079351656 0.048645224 0.005405079
000380 81 3a 9a bd 2c 88 3f 3d c4 cf 7b bd 54 2b 2d bd
       -0.0753069 0.046760723 -0.061477438 -0.04227765
000390 f4 6a 8f 3d 28 e5 5c 3d 1e 12 7a 3d 11 ab a2 3d
       0.070028216 0.053929478 0.061052434 0.079427846
0003a0 7b 0c 4c bd 52 2f 03 bd d9 3e a3 3d 66 50 e4 bc
       -0.04981659 -0.03202755 0.079709716 -0.027870368
0003b0 66 b8 91 3d ad 57 b4 bc ef 5e 0e bd 1b bb 7c bd
       0.07115249 -0.022014463 -0.034758504 -0.061701875
0003c0 0d 51 63 bc 81 9d 68 bd e0 89 a3 3d c1 28 1f 3d
       -0.0138743045 -0.056790832 0.07985282 0.038857225
0003d0 30 43 fe bc ce 4b 97 3d 5a 4c b5 bd a7 d7 a1 3b
       -0.031037897 0.073875055 -0.088524535 0.004939038
0003e0 c6 0a 94 3c 2e 67 57 bd ae c2 f2 3c f4 7d 69 3d
       0.018071543 -0.052588634 0.029633846 0.057004884
0003f0 af a7 ac 3d 52 53 92 3c 99 9f 68 bd cc 1d 73 bd
       0.084304206 0.017861996 -0.05679283 -0.05935459

net.layer1.0.bias f4 [64]
000000 d5 70 22 be c7 20 42 be 6f f0 13 3e cc 3b a5 3d
       -0.15863355 -0.18957816 0.14447187 0.08068046
000010 54 33 c5 3d be ab ac bd d3 ba 08 bc 58 5d 93 bd
       0.09628931 -0.08431195 -0.008345324 -0.07195538
000020 8e b8 00 bc 1c 9b 52 3d c5 85 c7 3d c0 60 32 bc
       -0.007856501 0.051417455 0.097423114 -0.010887325
000030 c4 c2 c9 bc 07 fb 48 3d e7 de 5d bd 18 2f 2e 3e
       -0.024629004 0.049067523 -0.054167654 0.17010152
000040 ee 58 2e bd 8c 90 b5 b9 91 f7 3e be ac 11 01 be
       -0.04256528 -0.00034630706 -0.18649127 -0.12604398
000050 ba 0c 33 bd 02 8a c2 3d 04 1d 8c bd a4 8c ed bd
       -0.04371331 0.09498979 -0.06841472 -0.11599091
000060 65 7e 23 be 6b 36 57 3c c7 26 61 bd 2d 52 0b 3e
       -0.15966184 0.013135533 -0.05496862 0.13605566
000070 d6 c6 84 3d 7d 8c cf 3d a9 c8 c9 bd 3b f6 ce bd
       0.064832374 0.10134218 -0.09852726 -0.101055585
000080 54 7b 6e 3c 88 0b ff 3d 6b fa f9 bd 1b 65 13 be
       0.014555771 0.12453371 -0.122059666 -0.14394037
000090 3e 2b fc 3d 05 ac 9e 3d 49 ad 30 bd 18 91 78 3d
       0.12312935 0.07747654 -0.043134008 0.060685247
0000a0 0c 10 2a 3e 84 e3 2e be f5 9d 50 3d e8 cb 38 3e
       0.16607684 -0.17078978 0.05093189 0.18046534
0000b0 bd 3a f2 3c 7d 48 27 be 81 54 d7 bd 5b 2a 13 be
       0.029569024 -0.16336246 -0.10514165 -0.14371626
0000c0 f1 44 24 be 5b 01 30 bd bf 90 18 3e 46 cd af bc
       -0.16041924 -0.042970043 0.14898966 -0.021460187
0000d0 96 b6 e8 3d 2c 1c 7e bd 9f c2 be 3d 5f 1a 8e 3d
       0.113629505 -0.062038586 0.09314465 0.06938624
0000e0 f9 9c 8c bd 6d f8 87 bd 82 5a 5b 3d 7f c7 43 3e
       -0.06865878 -0.0663918 0.05355311 0.1911907
0000f0 31 45 10 bd 9a d5 c9 bd cc 44 eb bb 56 5a ac 3d
       -0.035222236 -0.098551944 -0.007179832 0.08415668

net.layer2.0.weight f4 [64, 64, 3, 3]
000000 49 00 5d 3a 31 02 6f 3d 7e 56 0f bd 3a 4a bf bc
       0.00084305234 0.0583517 -0.034994595 -0.023350824
000010 c0 b4 33 3d 1a 0b 60 3d 5c d2 6c 3c a0 b8 97 3c
       0.04387355 0.054698087 0.01445445 0.018520653
000020 f1 5b 86 bd 83 8f 7e bd cb 2f 2e 3b 6c 4e 0f bc
       -0.06560505 -0.062148582 0.002657878 -0.008746725
000030 14 16 36 3d d0 bf 00 bd 90 09 fd 3c 2d aa 65 3b
       0.04445465 -0.031432927 0.030888349 0.003504406
000040 13 6b 05 3d 13 6b da 3b 6c 61 73 3d c0 9a f3 bc
       0.032572817 0.0066655963 0.05941908 -0.029736876
000050 58 11 5e bd 2e fa 30 3d 34 31 93 3d 51 a0 01 bd
       -0.05421576 0.04320734 0.07187119 -0.03164703
000060 71 d1 95 bc 14 51 82 bd c7 78 9a bb 3c ea 71 bd
       -0.018288346 -0.06363121 -0.004714105 -0.059061274
000070 e7 00 18 3c 8c 7a 92 3d 5b 1a 46 3d 16 ab 47 bd
       0.009277559 0.0715228 0.04836498 -0.048747145
000080 2e b7 51 bd c1 5e f7 3c b8 bf e9 bc 28 a8 72 bd
       -0.051200084 0.03019655 -0.028533801 -0.059242398
000090 40 52 46 3d bb 62 03 bc fa ef 7e bd 99 51 da 3b
       0.048418283 -0.008019145 -0.06224058 0.006662559
0000a0 77 81 83 bd 7f 78 06 bd 1c 1b e6 bc 51 46 06 3d
       -0.06421178 -0.032829758 -0.028089099 0.032781903
0000b0 88 bb 73 3d 79 74 73 bd f4 3f 38 bd 16 6e cf bc
       0.059505016 -0.05943725 -0.044982865 -0.025321048
0000c0 69 c7 bb 3c e7 33 90 bd e2 e3 65 3d 77 c7 a2 bc
       0.022922235 -0.070411496 0.05612553 -0.019870503
0000d0 8f 2e 54 bd d8 45 02 3d 0e 3e 3d bd 81 20 1a 3d
       -0.051802214 0.03180489 -0.046201758 0.037628654
0000e0 01 64 50 3d 3d bf a7 3b 86 2b 0d bd d7 62 87 3b
       0.05087662 0.005119233 -0.034465335 0.0041316557
0000f0 08 e0 1a bc 5b 67 4e 3d a9 8e 16 bc b0 ab 8f 3d
       -0.009452827 0.050391536 -0.009189286 0.07015169
000100 1a 4a 0e 3d be d0 27 3c 7d 00 87 bd b8 33 34 bd
       0.034738638 0.010242639 -0.0659189 -0.043994635
000110 26 b8 00 3d 0f e1 89 bd 7a 39 8e bd 68 8a ad bc
       0.031425618 -0.0673238 -0.069445565 -0.021184161
000120 b1 61 0e bd 8b e2 ec 3c e6 3b e0 3c cc 1a 9b bb
       -0.034761135 0.028916618 0.027372312 -0.004733419
000130 f6 2c 54 3d 4d 21 10 3a a3 d7 f6 3b 17 bb 0c 3c
       0.05180069 0.0005498126 0.00753303 0.008589528
000140 67 77 98 3b 5f 70 a8 bc 78 97 4f 3c cf c4 03 3d
       0.0046529057 -0.020561395 0.01267039 0.032170113
000150 71 6a a5 bc 4a 67 e1 3c ac e9 8e 3d 82 b4 93 bd
       -0.020192357 0.027515072 0.06978163 -0.072121635
000160 c3 aa 4d 3d b9 a8 92 bd 7b 8b c3 bb 9a 7d 17 3d
       0.05021168 -0.071610875 -0.005967555 0.036985017
000170 ae a6 9f bc 9d 55 b6 38 d4 f7 18 bc 3c 44 8d bd
       -0.019488659 8.694383e-05 -0.009336431 -0.0689778
000180 72 6c 4f bd 8e 18 8c bd a4 6f 6a 3d 85 6b 9f bb
       -0.05064053 -0.06840621 0.057235375 -0.0048651122
000190 b5 40 07 3c 03 2f 81 bc a0 b0 d8 3c 83 47 4a 3d
       0.008255173 -0.015769487 0.026451409 0.049384605
0001a0 11 c8 50 3d 39 e4 6c 3c e8 17 86 3d f2 9e dd 3c
       0.05097205 0.014458709 0.065475285 0.02705333
0001b0 4c 7c 68 3d a8 6b 10 bd b2 68 11 3d 20 63 35 3b
       0.056759164 -0.03525892 0.035500236 0.0027677491
0001c0 80 06 11 bd f0 58 21 bc b4 b4 8e 3a 59 23 89 bd
       -0.03540659 -0.0098478645 0.0010887594 -0.06696195
0001d0 73 66 47 bd 80 25 80 bd 2c e8 4b bd 35 0b 11 bd
       -0.048681688 -0.062571526 -0.049781963 -0.03541108
0001e0 f8 d2 57 bd 24 6e 5b 3d 13 c5 65 bc 93 ca 13 bc
       -0.05269143 0.053571835 -0.014024037 -0.009020465
0001f0 cf 88 76 3d e1 9e 3d 3d bf 77 7b 3c a3 2a 49 bd
       0.060189065 0.046294097 0.015348374 -0.049112927
000200 d7 dd 59 3d 04 ca 89 bd 1a f8 67 3d 55 0d fc bc
       0.05319008 -0.067279845 0.056633092 -0.030768076
000210 50 86 bc bc b6 31 ea bc ae 8b 42 bd 2d c0 14 bd
       -0.023013264 -0.028588157 -0.04749649 -0.036316086
000220 f5 5e 33 bd 42 fe 41 bd bb 44 30 3d c7 14 0f bc
       -0.04379173 -0.04736162 0.043034296 -0.008732981
000230 92 88 25 3c eb 60 75 3d 81 80 49 bd 09 b4 f1 bb
       0.010103362 0.05990688 -0.049194816 -0.007376198
000240 42 3f 4e 3d 64 a1 50 bc 01 8b 6e bd dc 32 2d bd
       0.050353296 -0.012733791 -0.058238033 -0.04228483
000250 db f5 28 3d 27 78 33 bd a5 d9 83 3d 81 84 88 3d
       0.04125009 -0.043815758 0.06437997 0.06665898
000260 42 b5 9f bc 9d 29 8a 3c f7 da 5f 3d 1e 9a 31 3c
       -0.01949561 0.016865546 0.05465218 0.010839967
000270 97 bd 10 3d e5 0b 3a 3d aa 96 5e bd 4f 47 49 bd
       0.035337057 0.0454215 -0.054342903 -0.04914027
000280 e0 f3 02 bd 02 71 61 bd 73 00 49 bc 64 4f 53 3d
       -0.03197086 -0.055039413 -0.0122681735 0.051589385
000290 be 67 27 bd 2b 23 01 3d ee 95 1b bd df f1 85 3d
       -0.04087042 0.03152768 -0.03798478 0.06540274
0002a0 db 21 3e 3d d3 12 12 3d 2c 6a 81 bd 01 a0 1f bc
       0.046419006 0.035662483 -0.06319079 -0.009742738
0002b0 a7 72 0d 3d f4 0a 77 bd 5b 25 bb 3c 7d 18 92 3d
       0.03453317 -0.06031318 0.02284496 0.07133577
0002c0 59 d1 93 bc 65 7f 64 3b ff 64 84 3d be 98 ed bc
       -0.01804416 0.0034865972 0.06464576 -0.029003497
0002d0 f2 48 4f bd 90 2f 88 3d 1b 56 0b 3c b0 9a 77 bd
       -0.050606675 0.06649697 0.008504416 -0.060450256
0002e0 c5 41 38 3d 09 63 86 3d e5 58 44 bd a4 e0 85 bd
       0.044984598 0.06561858 -0.04793634 -0.065369874
0002f0 68 6c 23 3d ba c7 d5 bc 13 30 6f 3c aa d3 a7 3b
       0.039898306 -0.026096214 0.014598864 0.005121668
000300 eb 88 12 bd 3f de 92 3d d8 a7 7a bd bb da 84 bd
       -0.035775106 0.07171296 -0.061195225 -0.06487032
000310 f3 a7 50 3d 22 4a 93 bd 22 e7 c1 ba 69 88 6e bd
       0.05094142 -0.07191874 -0.0014793614 -0.05823556
000320 56 ba 39 3d d5 b2 4a 3c 20 e0 83 bb bf 82 4a bd
       0.04534372 0.012371738 -0.0040245205 -0.049441095
000330 0d bf 2b bd b7 f1 84 bb 9a c8 25 3d 71 83 d1 3c
       -0.041930247 -0.004057135 0.04047451 0.025575371
000340 b9 63 47 bd e0 03 3c bd e6 82 22 bd 1a 8c 31 bd
       -0.048679087 -0.045902133 -0.039675616 -0.043346502
000350 25 13 42 bd bf 98 8c bd 40 7a ab 3b b1 02 48 bd
       -0.04738154 -0.068650715 0.005233079 -0.04883069
000360 bc c3 0f bd 71 87 8d 3d 68 24 7a bc 2b f3 b8 bc
       -0.035098776 0.06910599 -0.015267469 -0.022576889
000370 40 3a 25 3d 6e b0 04 3d 42 41 7d bc a0 05 84 bd
       0.040338755 0.03239482 -0.015457453 -0.064463854
000380 14 3d b6 3a 19 d0 f9 bc eb b6 7b bd 5b 59 89 bd
       0.0013903701 -0.030494737 -0.06145374 -0.06706496
000390 7d 4f 88 3d 06 21 92 3d 83 11 8b bb 34 ec 0c bd
       0.06655786 0.07135205 -0.004244031 -0.03440495
0003a0 e7 2d 82 bd 16 fa 02 3d 05 77 83 bd 29 4e 3d 3d
       -0.063564114 0.03197678 -0.064191855 0.046217117
0003b0 cd c2 0b 3d 82 fe 8a 3d ba 97 be bb e6 b4 a2 bb
       0.034121323 0.06786825 -0.005816427 -0.0049654124
0003c0 48 fa 4c 3c 46 f0 06 bd 45 7a e3 bc bf 4e 28 3d
       0.012510844 -0.032943986 -0.027768264 0.041090723
0003d0 59 56 4f bd 7b 07 09 bd c5 b7 3d bd e7 53 f9 bc
       -0.050619457 -0.0334544 -0.046317834 -0.030435516
0003e0 e7 89 bb 3c d7 7c 2b bd eb c4 69 bc 9c 56 5c bd
       0.022892905 -0.041867103 -0.01426814 -0.053793535
0003f0 b8 7e ae bc fd 6b 6e 3c 00 bb dc 3a 85 6c 38 3d
       -0.021300659 0.014552114 0.0016840398 0.045025367

net.layer2.0.bias f4 [64]
000000 d0 68 b7 bc 33 bf 0b 3d 5b c5 ce 3c 0b 82 18 3d
       -0.022388846 0.03411789 0.02524059 0.037233394
000010 ab 8c bf bc d0 4c 2a 3d bb ef 09 3c c3 ca a1 bc
       -0.023382505 0.04157716 0.008418973 -0.019750005
000020 f8 75 aa bc a6 76 82 3c bb 04 21 3c c6 5a b0 bc
       -0.020808205 0.015925717 0.009827788 -0.02152766
000030 96 fb 43 3b 26 4c e3 3c ce 6f ff 3c b8 e5 21 3d
       0.0029904596 0.027746271 0.031181242 0.039525717
000040 67 b3 1b 3d 23 48 ca 3c 1b 26 cc bc a0 61 f7 bb
       0.03801289 0.0246926 -0.024920514 -0.0075494796
000050 f8 b4 fc bc 10 a3 38 3c 46 1e 9c bc c0 93 b9 bc
       -0.030848011 0.011269346 -0.019057404 -0.02265346
000060 56 33 71 3c f0 e3 69 3c a8 4b aa bc 78 21 da bc
       0.014721712 0.014275536 -0.020788029 -0.026627287
000070 1f f8 23 bd 6f f6 1a bd 46 64 7a bc a6 c2 66 bc
       -0.04003155 -0.037832674 -0.015282696 -0.014084494
000080 16 8d f1 3c 40 49 dd 3b e4 b2 1f bd 9b b4 b6 bc
       0.02948622 0.006753117 -0.038988963 -0.022302916
000090 d6 8c df bc a0 0c 03 bd eb be 8a 3c eb 58 64 bb
       -0.027288835 -0.031994462 0.01693674 -0.0034843038
0000a0 e0 67 26 3d 56 c6 d8 3b fe 9e fb bc 2b 2c df 3b
       0.040626407 0.0066154404 -0.030715462 0.006810685
0000b0 56 fd 54 39 f0 1e 4d bc e8 e7 9d bc ab aa 42 bb
       0.0002031227 -0.012519583 -0.01927562 -0.0029703777
0000c0 10 e2 06 bd f6 e9 db bc 1b db 50 3c 50 22 e8 3c
       -0.032930434 -0.02684496 0.012747551 0.028336674
0000d0 a3 69 b9 3c 5e 61 ff bc 4f 20 12 bd 6b 59 5f 3c
       0.02263338 -0.031174358 -0.035675343 0.013632159
0000e0 80 38 4a bc 70 2c df 3c 86 6b 6e 3c fe b6 0e bd
       -0.012342572 0.02724287 0.014552003 -0.034842484
0000f0 a6 9a 79 bc 76 ed 80 bc 9e a3 24 3d 0b d4 33 bc
       -0.015234625 -0.01573823 0.0401951 -0.010975848

net.layer3.0.weight f4 [64, 64, 3, 3]
000000 0d 27 28 bd 4e 89 89 bd 14 af 15 3d 45 7c 13 bd
       -0.041052867 -0.06715642 0.03654392 -0.036007185
000010 09 70 db 3c fd 1a 86 3d 42 37 88 3d 9c df 87 bd
       0.026786821 0.06548116 0.066511646 -0.06634447
000020 aa 44 43 3d d1 02 29 3d af 92 72 bd 8b a3 5f bd
       0.047672905 0.04126245 -0.05922192 -0.054599326
000030 35 3c 9a 3c 6c 65 38 3d 24 f5 33 3d c4 ca d7 bc
       0.018827537 0.0450186 0.043934956 -0.026341803
000040 0b 2d 70 3d 8a 77 31 3d 96 c1 87 bd ee d3 b9 3a
       0.058636706 0.043326892 -0.066287205 0.001417754
000050 46 f4 32 3c 24 e0 20 bd 80 28 04 3d 15 05 2b bc
       0.010922497 -0.039276257 0.032265186 -0.010438223
000060 4d e7 0b 3d 37 ce d8 3c 83 c3 20 3d 59 f3 0e ba
       0.034156132 0.026465518 0.039248955 -0.0005453132
000070 ae 6e 40 3d 02 be ee bb f5 9c 23 3c 4d 41 6a 3d
       0.046980552 -0.0072858343 0.009986152 0.057191182
000080 eb d8 ad 3c 75 c2 08 3d 80 54 3f 3d e0 ea 72 3d
       0.021221599 0.033388574 0.046711445 0.059306026
000090 a6 00 86 3d b8 27 80 bd ad 70 00 3a ef ff 44 3d
       0.065430924 -0.06257576 0.00048996025 0.04809564
0000a0 a0 64 9d 3c 03 27 81 3d a4 38 86 3b e2 a3 79 3d
       0.01921302 0.06306269 0.0040961076 0.060947306
0000b0 4d 03 87 bd f1 9e 8c 3a 99 39 bb bc 39 ec 3b 3d
       -0.065924264 0.001072852 -0.022854613 0.045879576
0000c0 22 8b 91 bd c2 91 39 3d f1 8e 4b bd f0 17 dd bc
       -0.071066156 0.04530502 -0.049696866 -0.026988953
0000d0 49 9d 49 bd 52 9f 19 bd 5a f2 d7 3c cc b1 a7 bc
       -0.049222264 -0.037505455 0.02636068 -0.020470522
0000e0 23 f9 80 3d e8 95 aa 3c d4 c6 1c bd 5f 4c 79 3c
       0.06297519 0.020823434 -0.038275555 0.015215962
0000f0 40 05 8a bc 4e ba 7f 3d 75 6a 8c 3c 99 b5 28 3d
       -0.016848207 0.062433533 0.017140606 0.04118881
000100 fd 2e 30 bd 84 89 06 bd 0f 72 29 3c 18 b5 8e bd
       -0.04301356 -0.03284599 0.010342135 -0.06968135
000110 3e 58 e2 3c 71 b5 92 3d 61 64 00 bd 8a c5 db 3c
       0.027629968 0.071635135 -0.03134573 0.026827592
000120 15 31 2e 3d dc 5a 6f bd 1a 7e 4f bc bb 8a 3b bd
       0.042527277 -0.05843626 -0.012664342 -0.0457866
000130 df 4d 6d bd 20 39 32 bd 86 73 4a 3d 3c 37 5f 3d
       -0.05793559 -0.04351151 0.049426578 0.054496035
000140 e7 5d 26 bb 32 db 17 bd a2 5c 54 bd 46 c9 c1 3c
       -0.002538556 -0.037074275 -0.051846154 0.023655545
000150 20 0c f1 bc e5 86 0f bd 0b 53 5c bc 18 6e 3c 3d
       -0.029424727 -0.035040755 -0.013447533 0.04600343
000160 f0 40 88 bd a4 71 17 bd 6e 98 63 3d de 06 0d bd
       -0.06653011 -0.03697361 0.05556529 -0.034430377
000170 ff 04 2e bb aa 56 38 bd 2e 1e 2a 3c 2f ee 91 bd
       -0.002655327 -0.045004524 0.010383172 -0.07125508
000180 75 06 0e bd a3 72 0c bd d2 43 65 bd dc ba aa 3b
       -0.034674127 -0.034289014 -0.05597288 0.0052102637
000190 84 1d ef bc bc 25 71 3d 58 3d 71 3d 05 e2 d1 3b
       -0.029188879 0.058873877 0.058896393 0.0064051175
0001a0 df b2 1a bc 1a bf 7a bc 39 51 8d bd 5b 23 c2 bc
       -0.00944206 -0.015304351 -0.069002576 -0.0236985
0001b0 04 d9 4f 3d bc c4 1d 3d ed 65 53 3b 03 02 05 bd
       0.05074407 0.0385177 0.0032256797 -0.03247262
0001c0 86 00 af 3c db 6a 0a 3d 1e ec 47 3d b6 d2 20 3d
       0.021362554 0.03379331 0.048809163 0.03926345
0001d0 9f ae 99 bc 38 e6 3a bd bf 22 5e 3d e9 73 3c bd
       -0.018760024 -0.04562971 0.054232355 -0.046008978
0001e0 d9 4f 57 3d 56 aa cb 3b 9f 25 04 3c ed 99 bc 3c
       0.052566383 0.006215374 0.00806561 0.023022616
0001f0 11 c9 0a bd 06 52 20 bd da ef ed bc 8d d4 51 3d
       -0.033883158 -0.039140724 -0.029045034 0.051228095
000200 bc 94 38 3d 18 63 2f 3d 21 e4 89 bd 68 bf 1e bd
       0.04506372 0.042819113 -0.06732965 -0.038756758
000210 60 cf 17 bd e6 6f 90 bd b9 42 29 3d 2c 50 22 bd
       -0.037063003 -0.07052593 0.041323397 -0.03962724
000220 53 70 c2 3b 99 55 a1 3c 33 72 be bb 55 f2 07 3d
       0.0059338002 0.019694136 -0.0058119535 0.03319009
000230 01 6f 3c bd 7b 4a d8 bc da c5 b5 ba a8 d1 a2 bc
       -0.0460043 -0.026402703 -0.0013868168 -0.019875363
000240 68 df 60 3d 90 43 c3 3a 32 82 4f 3d 88 0e 81 3d
       0.054900557 0.0014897455 0.050661273 0.063016
000250 ea ce 54 bb 53 20 26 3d 8b e5 42 3d 4c 89 f8 3b
       -0.0032471963 0.04055817 0.04758219 0.0075847264
000260 47 e6 06 3d b5 88 27 bd d6 16 c0 3c df 6e 0e 3d
       0.032934453 -0.04090186 0.023448389 0.034773704
000270 8b 1a cd 37 75 76 4e 3d 0b 4c 39 3d 5b d1 0d 3d
       2.4450264e-05 0.05040594 0.045238536 0.034623485
000280 03 60 40 3d d3 0b 3f bd c8 0b 86 3d 96 f1 99 3c
       0.046966564 -0.046642136 0.06545216 0.018791955
000290 57 ff 23 3d 78 59 55 bd 49 b2 d8 3c 8c 98 17 3c
       0.040038433 -0.052087277 0.0264522 0.009252679
0002a0 b1 04 59 3d 26 f9 4b bd 92 46 4d bd c9 5a 7a 3d
       0.05298299 -0.049798153 -0.05011613 0.061121736
0002b0 58 fa 6b bd 05 12 7f bd 6a 30 7c 3d 89 d1 ff bc
       -0.057611793 -0.062273044 0.06156961 -0.031227844
0002c0 39 b4 23 3d 02 bc 50 bd 8e e5 d1 ba 83 dd d5 bb
       0.039966796 -0.05096055 -0.0016013847 -0.0065266504
0002d0 69 35 76 bd 20 5b 49 bd 82 01 1c 3d a0 46 87 3d
       -0.06010953 -0.04915917 0.038087375 0.066052675
0002e0 bf bb 6e bd af 86 ae 3b c0 ab 05 bd 96 c9 e2 bc
       -0.058284517 0.005326114 -0.032634497 -0.027684014
0002f0 7d 38 ac 3b e1 af 84 3c 81 b8 02 3d 56 e0 2e bd
       0.0052557574 0.016197147 0.031914238 -0.042694412
000300 50 9b b9 bc 9d a0 1b bd f0 1b 85 3d 14 7e 32 3d
       -0.022657067 -0.03799497 0.06499469 0.04357727
000310 de de d8 3c f8 e9 c8 bc 1a bb 51 3d 0d de 2d bd
       0.026473459 -0.024525627 0.051203825 -0.042448092
000320 6c 0f 52 3d c3 03 0d bd 66 3a 79 3d 3e ac 67 3d
       0.05128424 -0.034427416 0.06084671 0.056560747
000330 1c 70 29 3d fd 80 1e 3d 96 47 89 3d c7 d0 1a 3d
       0.04136668 0.03869723 0.06703107 0.03779676
000340 3e da 80 3d 8d 27 7f bc a4 f0 85 bd d8 d5 04 bd
       0.062916264 -0.0155733945 -0.06540039 -0.0324305
000350 60 fd c8 bc 67 80 aa 3b b6 9b d2 3c 0e 20 5b bc
       -0.024534881 0.005203295 0.025709014 -0.013374342
000360 d4 d6 c9 bc 3d ac 82 3d 9e 4e 24 3d 04 47 5b 3d
       -0.02463857 0.06380508 0.040114038 0.053534523
000370 7e b6 d2 bc d3 8b f9 3c f1 09 32 3c 11 8d 73 3b
       -0.025721785 0.030462181 0.010866628 0.003716294
000380 d4 f5 4f 3c 1a 86 1f bd d1 8d b6 bc 14 2d 86 3d
       0.012692887 -0.03894625 -0.02228442 0.06551567
000390 f3 38 3f bc c1 c6 9a 3c 8f aa 2d 3d 3c 97 2a 3d
       -0.011671293 0.018893601 0.042398985 0.041648135
0003a0 4b d1 69 3c a4 97 8f bd bc 5e a8 bc 8b 88 93 bd
       0.014271091 -0.07011345 -0.020552985 -0.07203778
0003b0 9d 7f 34 3d 8a 9c e9 3b 61 e2 84 3d 33 30 be 3c
       0.044067014 0.0071292566 0.06488491 0.023216343
0003c0 15 e9 84 bc aa 75 3b bd b4 ad 8a 3d 95 26 03 bd
       -0.016224423 -0.04576651 0.067714125 -0.032019217
0003d0 21 93 f4 3c a1 3a 56 bd b7 16 7b 3c 87 63 05 3b
       0.029855313 -0.052302007 0.01532524 0.0020353512
0003e0 16 f2 43 bd 23 ba 38 bd b9 60 8e bd da 3c 2a bd
       -0.047838293 -0.04509939 -0.06952042 -0.04156194
0003f0 ce 61 2c 3d e7 d5 c3 3c f3 b6 17 3d c8 7e a1 bc
       0.04208546 0.023905708 0.03703971 -0.019713774

net.layer3.0.bias f4 [64]
000000 02 0f 1e 3d 9b 5c d4 3c f8 23 80 bc cb e2 9e 3c
       0.03858853 0.025923064 -0.015642151 0.019395253
000010 93 ed be bc 80 95 88 bb d6 ca 02 3b 1e 15 d8 3c
       -0.023306644 -0.0041682124 0.0019957325 0.026377257
000020 0b 7b 08 3d 36 62 8f 3c 66 62 15 bd 36 3f 02 3d
       0.033320468 0.017502885 -0.036470793 0.031798564
000030 2b 66 d6 3b ee 85 aa bc 6e 44 01 bd f0 2d 70 3c
       0.006542941 -0.020815816 -0.0315594 0.01465939
000040 d8 2d 15 3d 54 b1 08 bd 86 42 fb bc cb 8f e9 bc
       0.036420673 -0.03337224 -0.03067137 -0.028510949
000050 a0 89 4a bc f8 04 d8 bc 00 ac e6 b9 70 b4 5a bc
       -0.012361914 -0.026369557 -0.00043997169 -0.013348684
000060 4b 9a 92 bc 00 de 7b 3c f4 3d 00 bd fb 02 61 3c
       -0.017895838 0.015372753 -0.031309083 0.013733621
000070 0b 92 fa bb c2 fd 0b bd c6 b7 f7 3c a0 86 91 3c
       -0.007646804 -0.03417755 0.030238997 0.01776439
000080 c3 1d f9 bc 56 41 9e ba c6 84 26 3c 6f 15 19 bd
       -0.0304097 -0.0012073915 0.010163492 -0.037373956
000090 c3 b5 03 3d 46 ea 5a 3c d6 31 14 bd 38 0a cd 3c
       0.032155763 0.013361519 -0.03618034 0.025029287
0000a0 6b 78 d6 3c 96 93 c3 bb e3 6b fd bc 66 e6 f6 bc
       0.026180467 -0.0059685213 -0.030935233 -0.03013916
0000b0 a8 b4 fd bc d8 00 98 3c 08 82 88 3c 0b b4 cc 3b
       -0.030969933 0.01855509 0.016663566 0.0062470487
0000c0 06 5d 78 3c f8 14 83 3c 93 32 b1 3c e8 9f a8 3c
       0.015158897 0.01600121 0.021630561 0.020584062
0000d0 d0 63 e8 3c f2 d9 19 bd bb 3e 02 bd 76 35 8c bc
       0.028367907 -0.037561364 -0.031798106 -0.017115336
0000e0 56 19 97 3c 6b c6 6d bb 20 8a 0e bd 9e 14 88 3c
       0.018444698 -0.0036281596 -0.034799695 0.016611394
0000f0 53 ec 26 bd c6 90 04 3c d3 f1 29 bd e0 3e f5 bc
       -0.04075272 0.008091157 -0.041490387 -0.029937208

net.layer4.0.weight f4 [64, 64, 3, 3]
000000 b2 80 58 bd 74 9c 8d 3d c1 b5 2f 3d 31 2a 31 3d
       -0.05285711 0.06914607 0.042897943 0.043253127
000010 ab 04 8f 3d 55 70 67 3d d1 99 ed bc 87 ed 1d 3c
       0.06983312 0.056503613 -0.02900401 0.00963915
000020 51 12 ce 3c ba f3 68 3d dc aa a6 bc 93 d1 6d bd
       0.025155218 0.05687306 -0.020345144 -0.058061194
000030 37 85 d5 ba bc 22 84 3d d6 aa 91 bd de d6 1b 3d
       -0.0016290311 0.064519376 -0.071126625 0.03804671
000040 69 98 8c bd f7 a5 13 bd 75 2a 04 3c 69 11 63 3d
       -0.068650074 -0.03604695 0.008066763 0.055436525
000050 b9 ee 92 3d 3a dd 46 bd c2 82 5b bd 87 c1 b9 bb
       0.07174439 -0.04855082 -0.053591497 -0.005668822
000060 9a c7 e5 bc 5d 20 91 bc 8a 77 19 3d 5d 4c 89 bd
       -0.028049279 -0.017715627 0.037467517 -0.06704018
000070 5f 94 31 bd ac 96 98 3c a8 18 36 3d ef 96 d7 3a
       -0.04335439 0.018626533 0.044457108 0.001644818
000080 83 01 37 3d 2d 63 2f bc ed c9 97 3c e2 b3 63 bd
       0.044679176 -0.010704798 0.018528903 -0.05559147
000090 75 e9 89 bd d6 87 2d 3d 98 fe 83 3d 14 69 22 bd
       -0.067339815 0.04236587 0.06445044 -0.03965099
0000a0 c3 91 1f bd d5 fb 7c bd a0 d9 98 3a 38 d3 7d 3c
       -0.03895737 -0.061763603 0.0011661537 0.015492253
0000b0 f0 93 63 bd 6b bd 83 bd 9d ed 3e bd 8d 4e 7d bd
       -0.055561006 -0.06432613 -0.046613324 -0.06184249
0000c0 c5 8a bc 3b e4 38 51 3c 8c 1c e7 3c 68 43 26 3d
       0.0057538473 0.012769911 0.028211854 0.040591627
0000d0 2b 53 a9 bc e8 a8 2e bd 0c 85 3a bd 24 79 d2 bc
       -0.02066954 -0.04264155 -0.04553704 -0.02569253
0000e0 b2 94 31 bd 6f 26 35 bd e7 dd 1f bd a3 2e 6b 3d
       -0.043354698 -0.044226106 -0.039029982 0.057417523
0000f0 e6 22 93 3d a8 97 f3 bc 70 31 a5 bc 9f da 4d 3c
       0.07184391 -0.029735401 -0.020165175 0.01256433
000100 21 b3 38 bc 78 17 8d 3d 70 8f e9 3c e2 9a 59 3d
       -0.011273176 0.06889242 0.02851078 0.053126223
000110 73 18 b2 3c 8f 64 d7 bb dc b9 56 3d 26 a8 27 bd
       0.021740174 -0.006573267 0.052423343 -0.040931843
000120 09 0a 3f bd 5a 09 d2 3b fe e7 8e 3d 70 6e 7f 3d
       -0.04664043 0.006409806 0.06977843 0.06236118
000130 61 e3 f2 3c d5 e2 08 3d b7 3a 77 bd fa 99 55 bd
       0.029649438 0.03341945 -0.06035873 -0.052148797
000140 9e ab 7a bd b6 ab 02 bd 95 45 d8 b8 20 37 8c 3d
       -0.061198823 -0.031902038 -0.00010312643 0.06846452
000150 73 42 9a 3c c1 8d e0 3b a4 d8 55 bd ac ef 96 3b
       0.018830514 0.006852836 -0.052208558 0.004606208
000160 23 1b 1f bd 86 b6 83 3d a9 f5 54 3d cb 9f 3f bc
       -0.03884424 0.06431298 0.051992092 -0.011695812
000170 7f 62 d0 3c 7f 86 7d bd df 57 e0 bc 58 0c 1c 3c
       0.025437592 -0.061895844 -0.02738565 0.009524427
000180 c7 0e 00 3c 60 b3 6e 3d 15 fd 93 bc a2 2c 92 3d
       0.007816023 0.058276534 -0.018065015 0.07137419
000190 9d 8c 8a bd dc c0 8a 3c c1 71 f8 3c ec 10 23 3d
       -0.06765101 0.016937666 0.03032768 0.03981106
0001a0 76 06 86 3d ae 5e b6 bc 55 8f b8 3c 24 fa 4f bc
       0.06544201 -0.022261944 0.022529284 -0.0126939155
0001b0 2b 36 85 bd d8 eb 10 3c 67 f1 f9 3c 11 12 2e 3d
       -0.06504472 0.008845292 0.030510617 0.0424977
0001c0 96 23 ee 3c f9 21 8d bd 9c 44 3e bd 68 c4 58 3d
       0.029069703 -0.068912454 -0.04645215 0.052921683
0001d0 b0 4a 31 3d 43 10 b9 bc 5c 3b e3 3b 2e 18 ff 3c
       0.04328412 -0.022590762 0.0069345664 0.03113946
0001e0 6c f7 6e 3c b3 99 fc bc 98 93 6f 3d 96 99 be 3c
       0.014585357 -0.030835008 0.058490366 0.023266595
0001f0 73 96 06 3d b9 b6 80 3d 7c 59 25 bd d3 58 7f 3d
       0.032858323 0.062848516 -0.040368542 0.06234057
000200 da 40 44 bd c0 f7 73 bc f4 b4 6e 3c b1 5d 2a bd
       -0.04791341 -0.014890611 0.01456951 -0.041593257
000210 78 84 10 bd 63 ad 53 bd 0b 58 2f 3d a1 d1 38 3d
       -0.035282582 -0.051679026 0.042808574 0.045121793
000220 33 2f 66 bc d1 a2 7e bd 53 bf 2c 3d c6 19 d6 bc
       -0.014049339 -0.062166993 0.04217465 -0.026135337
000230 db cb 82 bd 84 da 14 bd d8 2f 60 3d 5d 27 a9 3c
       -0.063865386 -0.036341205 0.054733127 0.020648653
000240 bd a7 09 3d b1 6c c6 bc 91 38 86 3d c7 d1 87 bd
       0.033607233 -0.02422175 0.06553758 -0.06631809
000250 5a 70 72 3d b7 36 36 bd e9 b3 1c 3d 99 72 4c bd
       0.059189178 -0.044485774 0.038257513 -0.049913976
000260 fa b6 8b bd c5 07 65 3d 79 97 a6 3c 25 4e 26 bd
       -0.068220094 0.055915613 0.0203359 -0.04060187
000270 f3 06 51 3d b8 26 53 bd 57 46 5a 3d d5 74 cb bc
       0.051032018 -0.051550597 0.053289738 -0.024835983
000280 8e 6f b0 bc ed 30 5f bc 8a 05 09 3d f0 16 52 3d
       -0.021537568 -0.013622505 0.033452548 0.051291406
000290 8e af 12 bd 56 f2 f6 3c 12 e4 60 3d 53 b5 48 bd
       -0.035811953 0.030144852 0.054905005 -0.04900105
0002a0 13 7c 95 bb e7 50 4c 3c 79 2d 81 3d 91 46 27 3d
       -0.00456191 0.0124704605 0.06307501 0.04083878
0002b0 9a e5 c7 bc 10 e3 91 bd a0 fc 82 bd 72 8e 4b 3d
       -0.024401475 -0.07123387 -0.06395841 0.049696393
0002c0 75 c1 3b 3d a1 36 f7 3c 38 f4 31 3c 87 11 c7 bc
       0.045838792 0.030177416 0.010861449 -0.02430035
0002d0 16 31 74 3d 93 f6 43 bd 20 75 84 bd d8 18 62 bd
       0.059617124 -0.047842573 -0.06467652 -0.055199474
0002e0 56 8c 88 3d d1 b5 b6 bc 09 35 39 bd 29 73 ad 3c
       0.06667392 -0.022303494 -0.045216594 0.021173077
0002f0 bb e3 03 bc d7 3a 8b 3d 69 aa 4f 3d 84 3c 99 3c
       -0.008049901 0.06798332 0.050699625 0.018705614
000300 27 99 90 bd 28 88 19 3d 7e 1f 88 bb 99 a5 fb bc
       -0.070604615 0.037483364 -0.004154145 -0.030718612
000310 4e 50 3c 3d 2b 7c 91 bd 6c 43 88 3d 3d 91 46 3d
       0.045975022 -0.07103761 0.06653485 0.048478354
000320 c0 a7 f5 bc 55 cf 56 bd 20 32 37 bd 8f f4 de 3c
       -0.029987216 -0.05244382 -0.044725537 0.027216224
000330 51 2b 38 3d c6 05 65 3d 38 9d 36 bd 6e e6 f8 bc
       0.044963185 0.05591371 -0.04458353 -0.030383315
000340 d3 13 f6 3c 9b 57 7d bd 4c 19 e5 3c d9 1a 31 3c
       0.03003875 -0.061851125 0.027966164 0.010809624
000350 76 c0 80 bd d7 c1 8e 3d ec af 27 bc 65 4c 89 3d
       -0.06286709 0.06970566 -0.010234814 0.06704024
000360 6b 0b 07 3d 26 a9 07 bd c4 f1 49 bd 64 18 ad bc
       0.032969873 -0.033120297 -0.04930283 -0.021129794
000370 26 a1 12 3c a8 f4 04 3d d4 76 d0 bc f8 f6 82 bd
       0.008949554 0.032459885 -0.025447287 -0.06394762
000380 28 36 4c bd 4c 59 8a bd c0 8d 1b bd 1f 52 30 bd
       -0.049856335 -0.06755313 -0.03797698 -0.043047067
000390 4c de e0 bc 93 f2 15 bc 07 da 5d 3d d2 11 ab 3c
       -0.02744975 -0.0091520725 0.054163005 0.02088252
0003a0 77 1c 03 3d 9f ae 3b 3d b4 e8 8a 3d 52 31 3b bd
       0.032009568 0.04582083 0.06782666 -0.045701332
0003b0 84 45 3b bd fa 7e 8a bd 00 f4 92 3b 9d 36 af bc
       -0.045720592 -0.067625 0.0044846535 -0.021388346
0003c0 7f 0f 3d bd 01 c2 2e 3d 95 66 46 bd 18 fa 83 3d
       -0.046157356 0.042665485 -0.048437674 0.06444186
0003d0 c6 84 17 3d db a2 56 3d 02 9b 3e 3d 96 88 80 bd
       0.036991857 0.052401405 0.046534546 -0.06276052
0003e0 32 3c d5 bc 57 d2 d2 3b 86 13 6e bd e7 71 b6 b9
       -0.02602968 0.006433766 -0.058124088 -0.0003479861
0003f0 ee 60 09 bc 22 e4 3e 3d 4e 0a 66 3a 4b 93 05 3d
       -0.008384926 0.046604283 0.0008775339 0.032611173

net.layer4.0.bias f4 [64]
000000 16 d8 c8 3c ff 7d 0c 3d 18 d5 8b 3c de e1 bc 3c
       0.0245171 0.034299847 0.017069384 0.02305692
000010 20 6a 24 3c 00 cc 75 39 f0 8e 5f 3c 7b a6 a7 3c
       0.010035068 0.00023441017 0.013644919 0.020465126
000020 1a 5e 17 bd 0b e4 44 3c c0 b4 0a 3b a8 72 e9 bc
       -0.036954977 0.01201726 0.0021164864 -0.028497055
000030 6e 7b a4 3c 0a c0 05 bd db 57 fe bc 60 ef a6 3c
       0.020078387 -0.032653846 -0.031047752 0.020377815
000040 80 83 ff bb 80 3c 26 bb 56 b4 00 3d 56 c5 d8 bb
       -0.0077976584 -0.002536565 0.03142198 -0.006615321
000050 f6 8f fe 3c 50 e9 79 3c 0e f9 e6 bc 80 d2 e2 3a
       0.031074505 0.01525338 -0.02819493 0.0017305166
000060 16 e5 b4 3b da 58 28 bd cb fb 31 3c 7e 0b be 3c
       0.0055204732 -0.04110036 0.010863255 0.02319884
000070 f4 65 24 3d db 7d da 3c e0 a8 f3 3b eb ce 34 3b
       0.040136293 0.02667134 0.007435903 0.0027589153
000080 33 1a a0 3c 4b 6a 7c 3c f6 6a df bb cb ae e5 3c
       0.019543743 0.015406202 -0.0068181707 0.02803745
000090 e0 7c 1e 3c f6 22 ac bc 48 7f cd bc 10 f7 91 bc
       0.009673327 -0.021012764 -0.025085106 -0.017818004
0000a0 34 62 1e 3d 93 42 0d bd 5e 6f c6 3c f8 eb e7 3c
       0.038667873 -0.03448732 0.024223026 0.02831076
0000b0 80 16 0b 3d cb a1 1b 3d af a6 28 3d bf aa 01 3d
       0.033957005 0.037996095 0.041174587 0.031656977
0000c0 26 05 08 bc 00 0d 56 3a e2 f6 0c bd 4e ec 02 bd
       -0.008302009 0.00081653893 -0.034415133 -0.03196364
0000d0 f6 e1 0b 3d 70 88 14 bd 58 cb b7 3c 00 16 f8 3c
       0.03415104 -0.03626293 0.022435829 0.030283928
0000e0 a0 23 8d bb 0b b2 e9 3b 60 dc 51 bc b3 a6 ec 3c
       -0.0043072253 0.00713182 -0.012808889 0.028888082
0000f0 de 09 00 bd 63 86 e7 bc 0b 29 48 bc d6 ee 6d bc
       -0.03125941 -0.028262323 -0.012216817 -0.014522275

net.classifier.weight f4 [5, 1600]
000000 d1 86 b8 bc 54 f9 a3 bc 67 7b 2a bc 20 65 66 3d
       -0.022525223 -0.02001635 -0.010405398 0.056248784
000010 52 5c 1d 3d b6 a6 77 bc 60 e8 68 3d 20 54 6c 3d
       0.03841812 -0.015115431 0.056862235 0.057697415
000020 e5 01 4e bc ab de 92 3c 19 34 c5 bc f1 0c 79 bd
       -0.012573694 0.017928442 -0.024072694 -0.060803358
000030 a4 20 2a bc e1 ce 13 bd 0c 62 6b bd 9e 33 ae bc
       -0.010383759 -0.036085967 -0.05746655 -0.021264847
000040 a7 fc 88 3c 8b fe 1a bd c3 16 a8 bc 79 c7 11 bd
       0.016722037 -0.037840407 -0.020518666 -0.035590623
000050 09 aa cf 3c 68 b6 d7 3b a2 09 bd bb 8e 67 4b 3c
       0.025349634 0.006583024 -0.0057689706 0.012414826
000060 1d 21 51 3d 95 03 17 3d d9 83 14 bd d1 de fc bc
       0.05105697 0.03686865 -0.036258552 -0.030867966
000070 d8 dc 3d bd 16 44 ab 3c 39 a2 c1 bc be b7 36 3d
       -0.04635319 0.02090649 -0.023636924 0.044608824
000080 2c 7f cd 3c af 97 0b bd 04 9d 6c 3c 97 b6 2a 3c
       0.025085054 -0.034080204 0.014441732 0.010419509
000090 e3 0a a9 3c ec 36 d6 3c d9 07 da bb d5 02 63 3d
       0.020635074 0.026149236 -0.0066537675 0.055422623
0000a0 e6 c6 6d bc ec 1e 8a 3c 31 b3 e0 bc e3 5f 8e bc
       -0.014512753 0.016860448 -0.027429195 -0.017379707
0000b0 3f 29 75 bc fe a0 12 bd be 9b 2f 3d b8 c4 57 3d
       -0.014963447 -0.035798065 0.042873137 0.05267784
0000c0 5f ee 9a 3b ca d8 9c bb 0d 72 39 3d db 86 46 bc
       0.004728123 -0.0047865855 0.045274783 -0.012117113
0000d0 2d 01 23 3d 2d d7 5b bd 64 14 61 bd f8 03 53 3d
       0.039796043 -0.053672004 -0.054951087 0.051517457
0000e0 74 ab 2c 3d 9f 24 86 3c 57 ff 43 bd d4 cf 77 bd
       0.042155698 0.016374884 -0.047850933 -0.060500935
0000f0 8a 7f 06 3d e8 19 71 3d c9 cf 6c bd cc 16 5e bd
       0.032836474 0.058862597 -0.057815347 -0.05422096
000100 43 9c ad bc 26 2c 58 bd 97 20 10 3d 7b d4 a1 bb
       -0.021192675 -0.05277648 0.03518733 -0.0049386597
000110 de 2d 5f bd 8a 14 32 ba ce 50 3c bd 35 3f d4 bb
       -0.0544871 -0.00067932217 -0.0459755 -0.0064772614
000120 38 89 be 3c cb 0b 80 3c b0 26 95 bc ca 98 78 3d
       0.02325879 0.015630623 -0.018206924 0.060692586
000130 02 ad 77 3c e8 db d7 bc c1 32 1f 3d 19 e6 75 3d
       0.015116932 -0.026349977 0.038866762 0.06003389
000140 f5 29 fd bb c8 09 66 3d 2d de a9 bc 1d b4 2c 3b
       -0.007725949 0.056161672 -0.020735824 0.0026352473
000150 8c 79 06 3c 01 9d 74 bd 6f cb 16 bd 5c 4a 64 3d
       0.00820769 -0.059720043 -0.036815103 0.055734977
000160 e4 f7 14 bd de 28 35 bd 5c bf 2e 3d a6 1b 11 3d
       -0.03636922 -0.044228427 0.042662963 0.03542676
000170 7c 66 0f 3d bc 20 2f bd dd ee 37 3d 2d d4 1f 3c
       0.035009846 -0.042755827 0.044905532 0.0097551765
000180 06 e6 52 3d 5b 06 e7 bc 7e 0e 0e 3d e8 aa d2 bc
       0.0514889 -0.028201273 0.03468179 -0.02571626
000190 b8 58 25 bd 06 1c 22 3d f3 e2 6a 3d 3a da b6 3c
       -0.040367812 0.039577506 0.057345342 0.022320855
0001a0 f9 50 39 bd 1b 5c 2e bd 46 ea 02 bd 49 60 8e 3c
       -0.045243237 -0.042568307 -0.0319617 0.017379897
0001b0 8e df 58 3b 72 29 dd 3c cc 7f fb bc 2f 04 b1 bc
       0.0033092233 0.026997302 -0.030700587 -0.02160844
0001c0 2b 57 99 3c 79 d0 df 3c 08 3e 6c 3c cb aa 6e bd
       0.018718323 0.027321087 0.014419086 -0.05826835
0001d0 b3 40 4b 3c b7 28 24 3d e0 7c 5c 3d e7 af 34 3d
       0.012405562 0.04007789 0.053830028 0.044113066
0001e0 40 56 1d 3b d8 3e 2d 3c e8 db 1c 3d a9 12 07 bd
       0.0024007708 0.010574065 0.038295656 -0.03297678
0001f0 f0 e7 b7 3c e2 e4 e7 bc 5e 18 04 3d f5 d0 95 3c
       0.022449464 -0.028307382 0.0322498 0.018288115
000200 75 e4 ed 3c eb f9 d5 3c 98 55 70 bd 08 8c d7 bc
       0.0290396 0.026120147 -0.05867538 -0.02631189
000210 eb 76 2d 3d 20 e6 82 bc 8b 24 9c 3b 32 c8 0f bc
       0.042349737 -0.015978873 0.0047650984 -0.008775758
000220 1f 51 fe bc 2b 7c d6 bb 56 07 57 bd 31 97 aa 3c
       -0.03104454 -0.0065455637 -0.05249723 0.020824047
000230 92 58 dd 3c 20 2c 70 3d a5 5c 6b 3d b5 85 a9 3c
       0.027019773 0.05863583 0.0574614 0.02069364
000240 76 df 3e bd 60 d5 da 3c 3c 35 2a 3d f0 9d c5 3c
       -0.046599828 0.026713073 0.041554675 0.024123162
000250 7b 1e e9 3b 8e db b4 3b 73 21 c3 3b c7 5c 0d bd
       0.0071142293 0.005519337 0.005954915 -0.034512307
000260 3f 24 6b bd 5c 2d dc bb 71 f7 23 3d 45 75 64 bd
       -0.057407614 -0.0067192744 0.0400309 -0.0557759
000270 31 b9 3f bd 5a a5 60 3d 25 fa 4d 3a 32 3b 99 3c
       -0.04680747 0.05484519 0.0007857404 0.018704984
000280 43 17 46 bd 87 7b ce bc b1 0c 71 3b d7 eb bb bc
       -0.048362028 -0.025205387 0.0036781246 -0.022939606
000290 9b b2 34 bd 00 a4 68 bd 97 de b4 bc 6a ca 85 bc
       -0.044115644 -0.056797028 -0.022078795 -0.01633187
0002a0 b6 91 f6 3c 75 ca a3 3c ce e6 81 3c 4a 8e 58 bd
       0.030098777 0.019994 0.015857127 -0.052870072
0002b0 a8 e6 3a 3c 3f 17 03 bd b0 0f 95 bb 23 32 72 bd
       0.011407532 -0.03200459 -0.0045489892 -0.059129845
0002c0 a5 12 e6 3c 3b 5e 4e 3c 70 ce 19 3d 87 bf 4a 3d
       0.028085062 0.0125957085 0.03755039 0.04949906
0002d0 3d d2 27 bd 71 1a 51 3d 77 e3 eb 3c 89 fb 59 bd
       -0.040971983 0.051050607 0.028794987 -0.0532184
0002e0 08 e4 6f 3d 25 4b f9 bc 54 9c 06 3d 5c b4 57 bd
       0.058567077 -0.03043134 0.03286393 -0.05266224
0002f0 4c ec 23 3c b8 fd b6 3c b4 6f 58 bd 66 7e f1 3c
       0.010005068 0.02233778 -0.052840903 0.029479217
000300 ab 0c 4d bc fa 0b 41 bd 85 f6 92 bc d9 a0 17 bd
       -0.012515227 -0.047130562 -0.017939815 -0.03701863
000310 54 0c 48 3d a8 da 2c 3d 37 05 0f bc 74 c0 4b 3c
       0.048839882 0.042200714 -0.008729271 0.012436021
000320 77 b4 a9 3c 72 fe ed bc e6 a3 1b 3b 1a 0a 5c bd
       0.020715935 -0.029051993 0.0023748814 -0.05372057
000330 81 b5 71 3d d1 46 d0 3a b0 c4 19 bc 48 9c b1 bc
       0.059010986 0.0015890246 -0.009385273 -0.021680966
000340 5c 6b 30 3d 16 02 5a 3d aa 12 46 3d 78 b7 22 3d
       0.043071136 0.053224646 0.048357643 0.03972575
000350 21 85 03 3c 95 9b 02 3d fc c3 76 3d b3 51 13 bd
       0.008027346 0.031886656 0.0602455 -0.035966586
000360 3b 6a 07 3c 6b 46 4c 3d 18 7d 0b bc 45 fd 2a 3d
       0.008265073 0.049871843 -0.008513711 0.041745443
000370 bc ff 2f bd b4 2f 29 3d e4 7c 3d 3d 0f 09 ca 3c
       -0.042968497 0.04130526 0.046261683 0.024662523
000380 5c 23 38 3d 92 23 8e 3c 43 20 60 bc 97 14 60 3d
       0.044955596 0.017350946 -0.013679567 0.054707136
000390 ef 53 a6 3b 8f 3b 6f bd dd b0 f7 3b 0f 89 30 bc
       0.0050759236 -0.05840641 0.0075589255 -0.010774865
0003a0 3b f7 41 3d 95 86 91 bc ed d6 5a 3d 76 5f 3c bd
       0.047354918 -0.017764369 0.053427625 -0.045989476
0003b0 93 c6 71 bd 8a f3 38 bd 6a c1 31 bd de bd df 3c
       -0.059027266 -0.045154132 -0.043397345 0.027312215
0003c0 e4 66 ac bb 24 2e 8e bc 7f ee 7e bc d5 36 28 bb
       -0.005261289 -0.017355986 -0.015559792 -0.0025667448
0003d0 52 74 64 3b 48 82 3e 3d 92 30 01 3b bc 6c 34 3c
       0.0034859371 0.046510965 0.0019712788 0.011012252
0003e0 d7 e8 62 3d 92 3e 17 bc d9 7e 3f 3d 26 33 03 bd
       0.055397835 -0.0092312265 0.04675183 -0.0320312
0003f0 1a 41 02 3d 28 1e 51 3c c2 bd 41 3c dc 20 19 bd
       0.031800367 0.0127635375 0.011825027 -0.037384853

net.classifier.bias f4 [5]
000000 f8 bf c6 3c b3 eb 51 3c df 92 8d bc 03 67 72 bc
       0.02426146 0.012812543 -0.017281948 -0.014795068
000010 67 3a 81 bc
       -0.015774919
