old_mp/maml_omniglot_step10000_k_5_n_way20.pt (torch, 466228 bytes, 26 tensors)

net.layer1.0.weight f4 [64, 1, 3, 3]
-0.15787569 0.021367876 0.09040243 -0.07199552 0.043334145 0.09792595 0.1787717 0.09852349
-0.0035873705 0.017921519 -0.039697547 -0.01606763 0.2233375 -0.06670146 -0.028979316 0.14639921
0.1167474 -0.092754155 -0.04849727 -0.024619017 0.025664467 -0.09518465 0.110721305 -0.0021841344
0.16495532 0.2266671 -0.013367867 -0.044145387 -0.039329745 -0.049735293 0.011843186 -0.017999215
-0.086605996 0.015217178 -0.074274905 0.2721145 -0.0013238391 0.14212415 0.17835097 0.05984205
-0.06328686 0.09056895 0.07363942 0.12386079 0.19568928 -0.0155369155 0.012067705 -0.16813809
-0.02102888 -0.0650418 0.31797117 -0.0013974397 -8.0304635e-05 -0.15138845 0.04094096 -0.099712946
-0.030223245 0.2039901 -0.1383784 -0.029628044 0.010805332 0.19865412 0.10576356 0.24477105
0.05352197 -0.084942244 0.04101557 -0.017095003 -0.040952172 -0.009996113 -0.09792489 0.12051097
0.24906902 0.044324588 -0.12776561 -0.03412177 -0.053045444 -0.089097105 -0.118498735 -0.10548397
0.049232155 0.037469935 0.19493291 0.18316743 0.20632708 -0.14647254 -0.06977964 0.14071849
-0.11730931 0.020782039 -0.012445061 0.03993636 -0.011692317 0.047382947 -0.21405306 -0.042882755
0.16427442 0.088654086 0.14890046 0.09537346 0.015499576 -0.18749882 0.09990101 0.14364041
0.1991181 -0.13041523 -0.025268612 -0.003531404 -0.04231909 0.06282716 -0.018074786 0.18762305
0.09628014 -0.19031912 -0.13926265 0.13572381 0.18313189 0.10725115 0.011109921 0.085293055
-0.17168483 0.09431821 -0.16240805 -0.0041488856 0.11055628 0.043745752 -0.1265897 -0.042448297
-0.113178425 -0.07546333 0.1534747 -0.05025588 -0.1659855 -0.04623315 -0.15430288 0.18432453
0.2714543 -0.062154103 -0.012501908 -0.027809614 -0.008620585 -0.06122775 -0.012852151 -0.03318594
0.19896078 -0.067628205 -0.006136762 0.21338183 -0.07025449 0.04096566 0.05468807 -0.077186294
-0.036774162 0.0158961 -0.1245349 0.11085213 0.097900935 -0.10476468 0.09187631 -0.02664059
-0.10760673 0.14422384 0.13675629 0.14688128 0.13874207 0.061791662 -0.14243454 0.038132135
-0.100398146 -0.005030848 -0.063781984 0.003958634 -0.023105217 0.0014162611 -0.1813572 -0.015129634
-0.14582567 -0.1614205 -0.1288447 -0.12166474 -0.070728764 0.026254954 0.18738395 0.03316932
-0.07744407 0.082987905 0.032594446 -0.14803676 0.21730852 0.15872036 -0.02710432 -0.052105654
0.14368884 0.032128327 -0.03731726 -0.12966023 0.19358726 -0.054307315 0.061573617 -0.15194246
-0.14441971 0.048391607 -0.11125439 -0.07579442 0.08572387 0.02514868 -0.19300391 -0.011889255
0.04454519 0.11940848 0.08426661 0.093762256 0.040709924 0.13693765 -0.08746286 -0.14948705
-0.05052091 0.03649869 -0.0031159364 -0.0045001726 -0.10910412 -0.13586567 0.08594604 0.15713993
0.15271342 0.1461044 -0.106135294 -0.022455571 -0.0022419093 0.2650786 -0.09318855 -0.13765717
-0.020264404 0.18101346 0.020287147 -0.09635809 0.042756528 -0.06790155 0.07968994 0.022431985
0.031008875 0.0069613676 -0.02785194 -0.051757604 -0.067322634 0.2048065 0.064078756 -0.019016068
-0.067563675 0.087832056 0.10843223 -0.07279429 0.038217902 0.14556439 0.0335609 0.11843502
00000000: 2aaa 21be af0b af3c e924 b93d 6372 93bd
00000010: 257f 313d 678d c83d ee0f 373e afc6 c93d
00000020: 171a 6bbb 26d0 923c e599 22bd 43a0 83bc
00000030: 96b2 643e c69a 88bd 0866 edbc ade9 153e
00000040: 4319 ef3d e4f5 bdbd 13a5 46bd d2ad c9bc
00000050: 4a3e d23c 2bf0 c2bd dac1 e23d b223 0fbb
00000060: 0cea 283e 6c1b 683e e604 5bbc cbd1 34bd
00000070: 3a18 21bd 3cb7 4bbd ec09 423c 1773 93bc
00000080: 7c5e b1bd 7851 793c 711d 98bd 9752 8b3e
00000090: ab84 adba fe88 113e a3a1 363e f01c 753d
000000a0: 8b9c 81bd 377c b93d 44d0 963d baaa fd3d
000000b0: c562 483e 8c8e 7ebc a0b7 453c 642c 2cbe
000000c0: c244 acbc a334 85bd 1ecd a23e 4c2a b7ba
000000d0: 3969 a8b8 9305 1bbe b5b1 273d 4d36 ccbd
000000e0: bd96 f7bc c8e2 503e 11b3 0dbe 83b6 f2bc
000000f0: d908 313c fc6b 4b3e 919a d83d 43a5 7a3e
00000100: da39 5b3d 33f6 adbd f1ff 273d d20a 8cbc
00000110: 77bd 27bd bdc6 23bc d88c c8bd 75ce f63d
00000120: f30b 7f3e b38d 353d fdd4 02be 45c3 0bbd
00000130: 2e46 59bd 8b78 b6bd 77af f2bd fb07 d8bd
00000140: a8a7 493d 137a 193d 7e9c 473e 3e90 3b3e
00000150: 6847 533e e6fc 15be a1e8 8ebd 8218 103e
00000160: dd3f f0bd 183f aa3c 5ee6 4bbc 4f94 233d
00000170: 2291 3fbc 9f14 423d ba30 5bbe d4a5 2fbd
00000180: 8e37 283e 4690 b53d 5d79 183e 2953 c33d
00000190: eff1 7d3c b1ff 3fbe e798 cc3d 7916 133e
000001a0: 9de5 4b3e 928b 05be 1f00 cfbc 216f 67bb
000001b0: c856 2dbd 87ab 803d 9311 94bc 4220 403e
000001c0: 862e c53d 04e3 42be de9a 0ebe 2ffb 0a3e
000001d0: ed86 3b3e 7ea6 db3d 6306 363c 20ae ae3d
000001e0: 26ce 2fbe e829 c13d 4c4e 26be 60f3 87bb
000001f0: 556b e23d bf2e 333d bba0 01be 44de 2dbd
00000200: 17ca e7bd 858c 9abd 7928 1d3e 1cd9 4dbd
00000210: 1af8 29be f95e 3dbd 9301 1ebe 92bf 3c3e
00000220: 0ffc 8a3e 4d95 7ebd cdd4 4cbc fdd0 e3bc
00000230: 5b3d 0dbc f3c9 7abd d491 52bc fbed 07bd
00000240: 60bc 4b3e a880 8abd e416 c9bb c480 5a3e
00000250: 96e1 8fbd 9ccb 273d 9900 603d d913 9ebd
00000260: 81a0 16bd 8a38 823c 270c ffbd 7106 e33d
00000270: 4980 c83d dd8e d6bd a629 bc3d 5e3d dabc
00000280: eb60 dcbd 6aaf 133e d709 0c3e 0c68 163e
00000290: 6712 0e3e 4119 7d3d 5cda 11be 7130 1c3d
000002a0: 8b9d cdbd d0d9 a4bb 21a0 82bd 6eb7 813b
000002b0: 2747 bdbc d6a1 b93a b4b5 39be 49e2 77bc
000002c0: 5353 15be 6a4b 25be ddef 03be 5d2b f9bd
000002d0: 3eda 90bd a114 d73c 94e1 3f3e 8edc 073d
000002e0: ff9a 9ebd 90f5 a93d c181 053d f396 17be
000002f0: 2086 5e3e 9787 223e e109 debc bd6c 55bd
00000300: 2b23 133e fe98 033d fcd9 18bd a7c5 04be
00000310: bd3b 463e 5971 5ebd 9e34 7c3d ce96 1bbe
00000320: c3e2 13be 4736 463d 57d9 e3bd 1b3a 9bbd
00000330: ff8f af3d 9b04 ce3c d1a2 45be 26cb 42bc
00000340: 0475 363d 6f8c f43d f993 ac3d 6d06 c03d
00000350: 73bf 263d 6239 0c3e ba1f b3bd 2213 19be
00000360: 04ef 4ebd a67f 153d bd34 4cbb 2f76 93bb
00000370: fb71 dfbd 5f20 0bbe 7a04 b03d 4ae9 203e
00000380: e860 1c3e 649c 153e 765d d9bd bff4 b7bc
00000390: ffec 12bb 62b8 873e a3d9 bebd 00f6 0cbe
000003a0: 8901 a6bc 985b 393e 3b31 a63c 6457 c5bd
000003b0: 7821 2f3d f80f 8bbd 7b34 a33d 48c3 b73c
000003c0: 5306 fe3c 2f1c e43b c029 e4bc c8ff 53bd
000003d0: 73e0 89bd ccb8 513e b93b 833d 96c7 9bbc
000003e0: d35e 8abd 4be1 b33d b811 de3d 2c15 95bd
000003f0: 608a 1c3d d50e 153e 2777 093d 0f8e f23d

net.layer1.0.bias f4 [64]
-0.30510196 -0.13929835 0.08968437 0.2315534 -0.07574857 0.17856644 -0.12323331 0.2915604
0.1809098 0.064360075 -0.29295507 -0.13761936 0.07861372 0.00058830745 -0.09461092 0.09276377
-0.24307382 -0.36913958 -0.21507934 0.2857042 0.063053854 0.2621993 0.21095249 -0.23278873
-0.11223884 0.07213505 0.17209743 -0.22713676 -0.16293101 0.055287212 -0.27782848 -0.12523927
-0.31077063 0.054507937 0.3880626 -0.16152725 -0.26573116 -0.2849724 0.12165389 -0.047269028
0.19682242 0.17411497 -0.028679986 0.18831578 0.017035464 0.094376914 0.08187737 0.24118553
-0.1972748 -0.006325687 0.20170276 0.08531681 -0.1543863 0.3074013 0.24208504 -0.11657555
0.030180093 0.17106532 0.32081497 0.19265448 0.043445915 0.030306075 0.07310783 0.2825223
00000000: 5336 9cbe 3aa4 0ebe 70ac b73d 561c 6d3e
00000010: 1122 9bbd 1fda 363e bf61 fcbd 6847 953e
00000020: 6b40 393e 37cf 833d 35fe 95be 17ec 0cbe
00000030: 3b00 a13d a538 1a3a 5fc3 c1bd eefa bd3d
00000040: 58e8 78be ddff bcbe c23d 5cbe d247 923e
00000050: 6122 813d fd3e 863e ee03 583e 2b60 6ebe
00000060: 7add e5bd 8bbb 933d 4f3a 303e 8a96 68be
00000070: 63d7 26be d874 623d 893f 8ebe b93e 00be
00000080: 541d 9fbe b743 5f3d 24b0 c63e 6667 25be
00000090: ea0d 88be e7e7 91be ad25 f93d 2b9d 41bd
000000a0: d18b 493e 324b 323e 4af2 eabc dad5 403e
000000b0: f58d 8b3c af48 c13d 53af a73d 57f9 763e
000000c0: 6802 4abe b547 cfbb 2b8b 4e3e 94ba ae3d
000000d0: 7117 1ebe b463 9d3e 24e5 773e 29bf eebd
000000e0: 3e3c f73c bf2b 2f3e dc41 a43e 3747 453e
000000f0: 58f4 313d 7244 f83c 8fb9 953d c3a6 903e

net.layer1.1.weight f4 [64]
1.1776919 0.84158856 0.8083654 0.6324182 1.305957 0.68393886 1.2150218 0.88324165
0.6405996 1.3860362 1.1262463 1.282836 1.3606666 1.1641669 0.56341213 0.86251414
0.7902379 0.999654 1.1652582 0.4217745 0.9917004 0.97338194 0.4901495 1.1870496
0.8203124 1.3047767 1.4956834 0.9516529 0.9858445 1.0958987 0.9957695 0.8596383
1.3530751 0.84181434 1.0645438 1.1951824 0.6484216 1.1357383 1.1003126 0.8402001
1.0610079 1.2167107 0.7722993 0.69662416 0.5763971 0.51617557 1.6571136 1.3894697
1.1677433 1.1376417 1.1683999 0.5574907 1.4165992 0.7873608 0.9238545 0.6255181
1.3762871 1.0855781 0.56651497 0.84242886 0.56533074 0.99715215 0.53932595 0.99532443
00000000: 9cbe 963f 5972 573f 09f1 4e3f 29e6 213f
00000010: 9929 a73f 9e16 2f3f d685 9b3f 201c 623f
00000020: 56fe 233f a269 b13f d728 903f f833 a43f
00000030: 532a ae3f 6c03 953f c73b 103f bacd 5c3f
00000040: 084d 4a3f 53e9 7f3f 2e27 953f d4f2 d73e
00000050: 14e0 7d3f 8f2f 793f e0f4 fa3e 3ef1 973f
00000060: feff 513f ec02 a73f 8e72 bf3f 869f 733f
00000070: 4e60 7c3f 6946 8c3f c0ea 7e3f 4111 5c3f
00000080: 9131 ad3f 2581 573f f942 883f bdfb 983f
00000090: f5fe 253f df5f 913f 0bd7 8c3f 5b17 573f
000000a0: 1bcf 873f 2dbd 9b3f 68b5 453f f655 323f
000000b0: c38e 133f 1524 043f 4c1c d43f 25da b13f
000000c0: 9d78 953f 3e9e 913f 218e 953f b6b7 0e3f
000000d0: 1f53 b53f 7a90 493f ba81 6c3f f421 203f
000000e0: 2d2a b03f 39f4 8a3f 2007 113f 6ba9 573f
000000f0: 84b9 103f 5d45 7f3f 4411 0a3f 95cd 7e3f

net.layer1.1.bias f4 [64]
-0.43989182 -0.14755425 -0.15675677 -0.51440084 -0.0026636887 -0.63490885 -0.47663948 -0.15834104
-0.68657416 -0.15170221 -0.2842778 -0.22826727 -0.20096885 -0.3767223 -0.59571284 -0.09395756
0.07486957 -0.3093826 -0.29505405 -0.5748562 -0.15123269 -0.1882136 -0.42766488 -0.43723089
0.19232664 -0.2671137 -0.2620407 -0.20928639 -0.26121798 -0.2998721 -0.05426725 -0.14176826
0.0669033 -0.22565976 -0.3222829 -0.21825436 -0.80613226 -0.22998555 -0.2308674 -0.080740355
-0.17106494 -0.5111972 -0.19223522 -0.6378153 -0.771554 -0.7005631 -0.4562919 -0.30908722
-0.21100815 -0.5723372 -0.37426987 -0.7299992 -0.06560293 -0.17328033 -0.07393257 -0.78475094
-0.46230865 -0.06355995 -0.55763537 -0.115978405 -0.22391267 -0.061476365 -0.6881445 -0.050462827
00000000: 8039 e1be 7618 17be d984 20be c6af 03bf
00000010: 4891 2ebb 6389 22bf 170a f4be 2724 22be
00000020: 53c3 2fbf d357 1bbe dc8c 91be e5be 69be
00000030: c7ca 4dbe bfe1 c0be a380 18bf d26c c0bd
00000040: 3855 993d 6567 9ebe 5311 97be c729 13bf
00000050: bedc 1abe 11bb 40be e4f6 dabe badc dfbe
00000060: 46f1 443e 20c3 88be 332a 86be 2c4f 56be
00000070: 5dbe 85be d688 99be 5647 5ebd b32b 11be
00000080: 9904 893d 5a13 67be 4402 a5be 127e 5fbe
00000090: af5e 4ebf 5581 6bbe 8168 6cbe 335b a5bd
000000a0: a62b 2fbe d2dd 02bf 4fd9 44be dd47 23bf
000000b0: 9084 45bf 1a58 33bf 189f e9be ae40 9ebe
000000c0: 8512 58be b184 12bf 4da0 bfbe 3ae1 3abf
000000d0: d45a 86bd 6670 31be f669 97bd 70e5 48bf
000000e0: b8b3 ecbe b82b 82bd 31c1 0ebf 1686 edbd
000000f0: 5d49 65be a4ce 7bbd 3d2a 30bf 1cb2 4ebd

net.layer1.1.running_mean f4 [64]
0.0 0.0 0.0 0.0 0.0 0.0 0.0 0.0
0.0 0.0 0.0 0.0 0.0 0.0 0.0 0.0
0.0 0.0 0.0 0.0 0.0 0.0 0.0 0.0
0.0 0.0 0.0 0.0 0.0 0.0 0.0 0.0
0.0 0.0 0.0 0.0 0.0 0.0 0.0 0.0
0.0 0.0 0.0 0.0 0.0 0.0 0.0 0.0
0.0 0.0 0.0 0.0 0.0 0.0 0.0 0.0
0.0 0.0 0.0 0.0 0.0 0.0 0.0 0.0
00000000: 0000 0000 0000 0000 0000 0000 0000 0000
00000010: 0000 0000 0000 0000 0000 0000 0000 0000
00000020: 0000 0000 0000 0000 0000 0000 0000 0000
00000030: 0000 0000 0000 0000 0000 0000 0000 0000
00000040: 0000 0000 0000 0000 0000 0000 0000 0000
00000050: 0000 0000 0000 0000 0000 0000 0000 0000
00000060: 0000 0000 0000 0000 0000 0000 0000 0000
00000070: 0000 0000 0000 0000 0000 0000 0000 0000
00000080: 0000 0000 0000 0000 0000 0000 0000 0000
00000090: 0000 0000 0000 0000 0000 0000 0000 0000
000000a0: 0000 0000 0000 0000 0000 0000 0000 0000
000000b0: 0000 0000 0000 0000 0000 0000 0000 0000
000000c0: 0000 0000 0000 0000 0000 0000 0000 0000
000000d0: 0000 0000 0000 0000 0000 0000 0000 0000
000000e0: 0000 0000 0000 0000 0000 0000 0000 0000
000000f0: 0000 0000 0000 0000 0000 0000 0000 0000

net.layer1.1.running_var f4 [64]
1.0 1.0 1.0 1.0 1.0 1.0 1.0 1.0
1.0 1.0 1.0 1.0 1.0 1.0 1.0 1.0
1.0 1.0 1.0 1.0 1.0 1.0 1.0 1.0
1.0 1.0 1.0 1.0 1.0 1.0 1.0 1.0
1.0 1.0 1.0 1.0 1.0 1.0 1.0 1.0
1.0 1.0 1.0 1.0 1.0 1.0 1.0 1.0
1.0 1.0 1.0 1.0 1.0 1.0 1.0 1.0
1.0 1.0 1.0 1.0 1.0 1.0 1.0 1.0
00000000: 0000 803f 0000 803f 0000 803f 0000 803f
00000010: 0000 803f 0000 803f 0000 803f 0000 803f
00000020: 0000 803f 0000 803f 0000 803f 0000 803f
00000030: 0000 803f 0000 803f 0000 803f 0000 803f
00000040: 0000 803f 0000 803f 0000 803f 0000 803f
00000050: 0000 803f 0000 803f 0000 803f 0000 803f
00000060: 0000 803f 0000 803f 0000 803f 0000 803f
00000070: 0000 803f 0000 803f 0000 803f 0000 803f
00000080: 0000 803f 0000 803f 0000 803f 0000 803f
00000090: 0000 803f 0000 803f 0000 803f 0000 803f
000000a0: 0000 803f 0000 803f 0000 803f 0000 803f
000000b0: 0000 803f 0000 803f 0000 803f 0000 803f
000000c0: 0000 803f 0000 803f 0000 803f 0000 803f
000000d0: 0000 803f 0000 803f 0000 803f 0000 803f
000000e0: 0000 803f 0000 803f 0000 803f 0000 803f
000000f0: 0000 803f 0000 803f 0000 803f 0000 803f

net.layer2.0.weight f4 [64, 64, 3, 3]
-0.061258025 -0.12231705 0.08350047 -0.042241357 -0.005585574 0.09406865 0.11856307 0.06799002
-0.15319158 -0.07993255 -0.03594322 -0.007954306 0.043107297 0.15292923 -0.071274616 0.0060744616
0.041163746 0.033064682 0.013805036 0.029415667 0.0667706 0.030242534 -0.012072216 0.01913978
-0.007437233 0.06068269 0.016975986 -0.04130063 0.0012362972 -0.059575867 -0.045838725 -0.07696354
-0.13220605 0.054277457 -0.10654417 -0.06081961 -0.037604008 -0.117633544 -0.03986787 -0.008278336
-0.15338531 -0.03798049 -0.20093714 -0.078614995 -0.15918145 -0.065899186 -0.017775254 -0.055302195
-0.08436688 -0.07837897 -0.058803767 -0.025206145 -0.07738914 0.031035958 -0.20393643 -0.06506957
-0.047448587 0.10034966 0.28863406 -0.019298868 0.16773164 0.020275945 0.081344046 0.013838003
-0.0074579525 -0.042464998 0.007375405 0.07206728 0.048172828 0.161093 0.057680115 -0.103015974
-0.15693864 -0.115506984 -0.12852988 -0.06540255 -0.18367258 -0.03970173 -0.0177389 -0.19969997
-0.14685513 0.13150448 0.28905982 0.20096853 -0.16806671 0.06659201 0.049771637 0.055535734
0.026130622 0.27157277 -0.06968809 0.16861002 0.082111515 -0.033272322 0.19770907 0.073772445
0.038169138 -0.007178545 0.0044191335 -0.04239024 0.11274125 0.14944255 0.018166643 0.27738503
0.024809238 0.04034581 -0.024407692 -0.06731658 -0.06213195 0.21930802 0.2527208 0.20415483
0.14994262 -0.08318749 0.052271456 0.091218375 0.10070777 0.01128336 0.056633856 0.14196613
0.05237626 0.14559865 0.032024298 0.15194497 0.10999411 0.04809306 -0.15353656 -0.13534254
-0.0249262 -0.05419183 -0.05732685 -0.028587779 -0.09232973 -0.108927935 -0.091213174 -0.08925431
-0.030584604 0.04809568 0.049121883 -0.049103357 -0.03562278 0.10433392 0.016393892 -0.0872217
-0.030229367 0.031514388 0.0129361795 0.08608286 0.053531263 -0.0070341816 0.039304417 0.054549742
-0.0039055902 -0.050353695 -0.028664488 0.06857005 -0.038064793 0.03031543 0.001538263 0.15070386
-0.010183628 0.07726079 0.030059338 0.13840638 0.1049738 0.022002138 0.13081226 0.014908439
0.119643986 -0.01199157 0.056987643 -0.18210782 -0.14988086 -0.005384013 -0.19698246 -0.12557551
-0.1509997 -0.11608155 -0.2119582 -0.084894344 -0.09104933 -0.028198242 0.20355722 0.059076935
0.08329112 0.001681045 0.14937824 -0.00845664 -0.05115365 -0.12796065 -0.025313474 0.043488286
0.066383064 0.16903959 -0.12800774 0.11612044 -0.035617657 -0.035920758 -0.07474351 -0.13405564
-0.038981855 -0.23070973 -0.0031938655 -0.092222854 -0.20926917 -0.16376007 -0.09762611 -0.0024189597
0.22801477 0.046016984 -0.044915766 -0.078764796 -0.08955152 0.16563617 -0.089947954 0.09081721
-0.055736937 0.09981166 0.03153042 0.08294951 0.09907666 -0.075813025 0.07691314 -0.018308086
-0.02449717 -0.07794103 0.0015482625 0.13176233 0.08482516 0.13403183 -0.12421501 0.10355949
0.08067773 0.014627871 0.0054394924 0.05449988 0.025963219 0.06378228 0.09836573 0.08997183
0.1385993 0.029783266 0.11479484 0.03087175 0.009687039 -0.01498488 0.023558322 0.04484759
-0.04754654 0.094190545 0.06711483 0.06419348 0.035865378 0.0919278 0.06413476 -0.02526315
00000000: b2e9 7abd 5d81 fabd 4b02 ab3d 4605 2dbd
00000010: 3107 b7bb 10a7 c03d 32d1 f23d 5a3e 8b3d
00000020: 41de 1cbe adb3 a3bd 3339 13bd c752 02bc
00000030: 4791 303d 7b99 1c3e 6df8 91bd 470c c73b
00000040: 519b 283d d56e 073d 852e 623c 20f9 f03c
00000050: 06bf 883d 31bf f73c 8bca 45bc 07cb 9c3c
00000060: 08b4 f3bb 6a8e 783d 3911 8b3c d92a 29bd
00000070: 400b a23a d305 74bd 63c1 3bbd 0f9f 9dbd
00000080: 0661 07be 0a52 5e3d d433 dabd fc1d 79bd
00000090: a906 1abd dbe9 f0bd 7e4c 23bd dca1 07bc
000000a0: 0a11 1dbe 6e91 1bbd 77c2 4dbe e600 a1bd
000000b0: 7600 23be 27f6 86bd 699d 91bc 8e84 62bd
000000c0: 8bc8 acbd 2785 a0bd 38dc 70bd 1e7d cebc
000000d0: 337e 9ebd 1f3f fe3c b6d4 50be 3243 85bd
000000e0: 7359 42bd 1f84 cd3d d8c7 933e a918 9ebc
000000f0: d8c1 2b3e bd19 a63c b597 a63d cbb8 623c
00000100: d761 f4bb c7ef 2dbd 62ad f13b 0398 933d
00000110: df50 453d 90f5 243e fc41 6c3d 0afa d2bd
00000120: 86b4 20be ed8e ecbd 569d 03be c6f1 85bd
00000130: aa14 3cbe 489e 22bd 2b51 91bc 267e 4cbe
00000140: 3161 16be 1ca9 063e a6ff 933e b2ca 4d3e
00000150: ae19 2cbe 6461 883d 58dd 4b3d 7079 633d
00000160: e30f d63c 960b 8b3e a1b8 8ebd 1ba8 2c3e
00000170: 152a a83d 8f48 08bd 3f74 4a3e 0216 973d
00000180: 3e57 1c3d 003a ebbb 61ce 903b 63a1 2dbd
00000190: e2e4 e63d 7807 193e 36d2 943c 6905 8e3e
000001a0: be3c cb3c a641 253d a4f2 c7bc 46dd 89bd
000001b0: 127e 7ebd 4892 603e 9f64 813e f70d 513e
000001c0: 8f8a 193e 345e aabd 981a 563d b3d0 ba3d
000001d0: e03f ce3d d8dd 383c e7f8 673d 925f 113e
000001e0: 7d88 563d d017 153e e92b 033d 7697 1b3e
000001f0: 9844 e13d 3afd 443d b038 1dbe 3c97 0abe
00000200: 0832 ccbc 41f8 5dbd 8fcf 6abd eb30 eabc
00000210: 5f17 bdbd 9c15 dfbd f9cd babd f7ca b6bd
00000220: 908c fabc faff 443d 0734 493d 9a20 49bd
00000230: 31e9 11bd 06ad d53d 7c4c 863c 4aa1 b2bd
00000240: 94a3 f7bc 3b15 013d 45f2 533c 364c b03d
00000250: 9943 5b3d fe7e e6bb abfd 203d 8d6f 5f3d
00000260: eef4 7fbb ad3f 4ebd cad1 eabc 746e 8c3d
00000270: d4e9 1bbd 1158 f83c 8b9f c93a 1d52 1a3e
00000280: 3bd9 26bc e83a 9e3d 003f f63c 67ba 0d3e
00000290: 81fc d63d d43d b43c a6f3 053e 8642 743c
000002a0: e807 f53d 4a78 44bc e06b 693d 797a 3abe
000002b0: 5e7a 19be 606c b0bb c5b5 49be de96 00be
000002c0: aa9f 1abe 2abc edbd 920b 59be 16dd adbd
000002d0: 1278 babd 0000 e7bc 4e71 503e a8fa 713d
000002e0: 8994 aa3d 8356 dc3a 9cf6 183e b88d 0abc
000002f0: 7d86 51bd 1e08 03be 345e cfbc c620 323d
00000300: d8f3 873d b718 2d3e 7614 03be 8ed0 ed3d
00000310: d2e3 11bd a521 13bd 2013 99bd e245 09be
00000320: 70ab 1fbd 2c3f 6cbe 2c50 51bb 56df bcbd
00000330: a84a 56be b8b0 27be 33f0 c7bd 6987 1ebb
00000340: b47c 693e 4e7c 3c3d 98f9 37bd 704f a1bd
00000350: ca66 b7bd 879c 293e a236 b8bd 60fe b93d
00000360: 6a4c 64bd 0e6a cc3d 0b26 013d 6fe1 a93d
00000370: b4e8 ca3d dc43 9bbd a384 9d3d d7fa 95bc
00000380: 4aae c8bc 8c9f 9fbd 12ef ca3a b4ec 063e
00000390: d0b8 ad3d a43f 093e 7064 febd ff16 d43d
000003a0: 5e3a a53d bda9 6f3c c53d b23b 443b 5f3d
000003b0: d1b0 d43c 49a0 823d f973 c93d 2743 b83d
000003c0: faec 0d3e 09fc f33c 8f19 eb3d c1e6 fc3c
000003d0: 63b6 1e3c 2483 75bc 62fd c03c 1bb2 373d
000003e0: 29c0 42bd f9e6 c03d 8073 893d df77 833d
000003f0: 93e7 123d a444 bc3d 1659 833d aaf4 cebc

net.layer2.0.bias f4 [64]
0.008625426 -0.037167214 -0.033595473 -0.028366355 0.0026039763 0.0048209024 0.028281748 -0.01485768
-0.026151638 -0.027924055 0.03618913 -0.0032165924 0.030664429 -0.015140877 -0.020255763 -0.019177714
-0.04526194 0.02964638 -0.013664654 -0.030423878 0.042926796 -0.0011065931 0.0055145007 0.0093760835
0.03875694 -0.0009842016 -0.003661361 -0.019913582 -0.0017847897 0.030932661 -0.01238133 -0.028355248
0.0040538 -0.0066932947 -0.0016769381 0.0053201145 -0.0409213 0.014612587 0.030303258 0.016721878
0.032571472 0.017244142 -0.042204257 0.024434961 -0.034295466 0.018540263 0.025934856 0.016574208
0.041053705 -0.033409495 0.013775206 0.01354866 0.028211696 0.021968098 0.03233945 0.025298143
-0.038359217 -0.031866852 0.02415079 0.0038347815 0.024991281 0.027675867 0.022874655 -0.031936597
00000000: a951 0d3c a63c 18bd 689b 09bd 8f60 e8bc
00000010: 79a7 2a3b a9f8 9d3b 20af e73c a06d 73bc
00000020: f63b d6bc fdc0 e4bc 0e3b 143d 77cd 52bb
00000030: f833 fb3c 7111 78bc 6aef a5bc 951a 9dbc
00000040: 9664 39bd f7dc f23c b7e1 5fbc 7f3b f9bc
00000050: 02d4 2f3d 1a0b 91ba fcb2 b43b 259e 193c
00000060: 99bf 1e3d 5300 81ba 72f3 6fbb cf21 a3bc
00000070: 9bef e9ba 7e66 fd3c 10db 4abc 4449 e8bc
00000080: bdd5 843b 6d53 dbbb b5cc dbba 5b54 ae3b
00000090: 189d 27bd a269 6f3c 8a3e f83c 52fc 883c
000000a0: aa69 053d 9643 8d3c 5fde 2cbd d42b c83c
000000b0: 6779 0cbd c0e1 973c 5675 d43c a2c6 873c
000000c0: ee27 283d 65d8 08bd 67b1 613c 33fb 5d3c
000000d0: 371c e73c 71f6 b33c 5f76 043d 0d3e cf3c
000000e0: 8e1e 1dbd d186 02bd e1d7 c53c f550 7b3b
000000f0: 84ba cc3c 80b8 e23c a163 bb3c f3cf 02bd

net.layer2.1.weight f4 [64]
1.1036946 0.8025026 0.8103157 1.0383266 1.012704 0.99847156 1.0284925 0.84698886
1.0269562 0.9454099 0.89932674 0.87685245 0.87250584 0.89398575 1.2678975 1.0217085
1.5246067 1.0192193 0.78056103 1.0262891 0.7251585 0.8542841 0.99540895 0.9344298
0.74054974 0.83862567 0.86429995 1.1270242 1.1646694 0.9504335 0.9495214 0.7319834
0.9251922 1.0686228 0.86069703 1.187877 0.92734027 1.1444254 1.1097965 1.0142596
0.99798125 1.1999125 0.9907671 0.6805535 1.0368534 1.0791397 0.7174961 0.9872072
1.0355576 1.0850426 1.0569546 0.94231385 0.7514862 0.8127487 1.0104178 0.87695926
0.96227145 0.9802359 0.7697366 0.7505569 0.9734127 0.806026 1.3255501 0.87061495
00000000: dd45 8d3f cf70 4d3f da70 4f3f e3e7 843f
00000010: 49a0 813f d59b 7f3f a4a5 833f 43d4 583f
00000020: 4d73 833f 6206 723f 473a 663f 6779 603f
00000030: 8b5c 5f3f 40dc 643f 774a a23f 58c7 823f
00000040: 5026 c33f c775 823f d9d2 473f 715d 833f
00000050: fda3 393f 5db2 5a3f 1fd3 7e3f cb36 6f3f
00000060: ab94 3d3f 2cb0 563f c342 5d3f 5442 903f
00000070: e313 953f 9c4f 733f d613 733f 4463 3b3f
00000080: 65d9 6c3f a2c8 883f a456 5c3f 5b0c 983f
00000090: 2c66 6d3f 887c 923f d00d 8e3f 42d3 813f
000000a0: b37b 7f3f bc96 993f eaa2 7d3f c138 2e3f
000000b0: 9db7 843f 4021 8a3f d3ad 373f 9cb9 7c3f
000000c0: 278d 843f ade2 8a3f 4a4a 873f 7b3b 713f
000000d0: 6661 403f 4c10 503f 5f55 813f 6780 603f
000000e0: 6c57 763f bdf0 7a3f 750d 453f 7f24 403f
000000f0: 9331 793f b857 4e3f a0ab a93f 9fe0 5e3f

net.layer2.1.bias f4 [64]
-0.38366273 -0.29559767 -0.5319264 -0.53873545 -0.45910013 -0.29978248 -0.11901013 -0.59643304
-0.30182442 -0.41373888 -0.5645119 -0.12811044 -0.41092485 -0.5911145 -0.45083123 -0.338015
-0.22380745 -0.28121543 -0.35064352 -0.048752453 -0.34070498 -0.65015477 -0.42688635 -0.15251206
-0.76075405 -0.5236097 -0.29865912 -0.28541297 -0.23725033 -0.34082094 -0.21235766 -0.72922015
-0.3282841 -0.25290805 -0.70719117 -0.45631257 -0.26715213 -0.30159977 -0.27644923 -0.32758817
-0.29585612 -0.20713684 -0.41718498 -0.17816497 -0.43075278 -0.45674795 -0.808022 -0.26403818
-0.34202132 -0.43934333 -0.65441686 -0.27645636 -0.7243626 -0.59827465 -0.38374582 -0.68535876
-0.20252874 -0.18282552 -0.5738667 -0.58902144 -0.32065174 -0.56636786 -0.39190438 -0.57955545
00000000: 716f c4be 9458 97be 542c 08bf 91ea 09bf
00000010: 2c0f ebbe 177d 99be 95bb f3bd d6af 18bf
00000020: bb88 9abe 95d5 d3be da83 10bf 622f 03be
00000030: be64 d2be 4853 17bf 5ad3 e6be 4d10 adbe
00000040: c82d 65be 78fb 8fbe 8c87 b3be a7b0 47bd
00000050: e270 aebe 8b70 26bf d990 dabe 1f2c 1cbe
00000060: c7c0 42bf 490b 06bf d9e9 98be a621 92be
00000070: c0f1 72be 1580 aebe 4974 59be 2cae 3abf
00000080: db14 a8be 2a7d 81be 7b0a 35bf cda1 e9be
00000090: 2ac8 88be 496b 9abe c18a 8dbe a3b9 a7be
000000a0: 747a 97be ae1b 54be 4599 d5be e170 36be
000000b0: a18b dcbe deda e9be 88da 4ebf 0330 87be
000000c0: 6b1d afbe 9cf1 e0be dd87 27bf b08b 8dbe
000000d0: d46f 39bf 8728 19bf 557a c4be ac73 2fbf
000000e0: b263 4fbe 9d36 3bbe eee8 12bf 1cca 16bf
000000f0: 772c a4be 7cfd 10bf b1a7 c8be bf5d 14bf

net.layer2.1.running_mean f4 [64]
0.0 0.0 0.0 0.0 0.0 0.0 0.0 0.0
0.0 0.0 0.0 0.0 0.0 0.0 0.0 0.0
0.0 0.0 0.0 0.0 0.0 0.0 0.0 0.0
0.0 0.0 0.0 0.0 0.0 0.0 0.0 0.0
0.0 0.0 0.0 0.0 0.0 0.0 0.0 0.0
0.0 0.0 0.0 0.0 0.0 0.0 0.0 0.0
0.0 0.0 0.0 0.0 0.0 0.0 0.0 0.0
0.0 0.0 0.0 0.0 0.0 0.0 0.0 0.0
00000000: 0000 0000 0000 0000 0000 0000 0000 0000
00000010: 0000 0000 0000 0000 0000 0000 0000 0000
00000020: 0000 0000 0000 0000 0000 0000 0000 0000
00000030: 0000 0000 0000 0000 0000 0000 0000 0000
00000040: 0000 0000 0000 0000 0000 0000 0000 0000
00000050: 0000 0000 0000 0000 0000 0000 0000 0000
00000060: 0000 0000 0000 0000 0000 0000 0000 0000
00000070: 0000 0000 0000 0000 0000 0000 0000 0000
00000080: 0000 0000 0000 0000 0000 0000 0000 0000
00000090: 0000 0000 0000 0000 0000 0000 0000 0000
000000a0: 0000 0000 0000 0000 0000 0000 0000 0000
000000b0: 0000 0000 0000 0000 0000 0000 0000 0000
000000c0: 0000 0000 0000 0000 0000 0000 0000 0000
000000d0: 0000 0000 0000 0000 0000 0000 0000 0000
000000e0: 0000 0000 0000 0000 0000 0000 0000 0000
000000f0: 0000 0000 0000 0000 0000 0000 0000 0000

net.layer2.1.running_var f4 [64]
1.0 1.0 1.0 1.0 1.0 1.0 1.0 1.0
1.0 1.0 1.0 1.0 1.0 1.0 1.0 1.0
1.0 1.0 1.0 1.0 1.0 1.0 1.0 1.0
1.0 1.0 1.0 1.0 1.0 1.0 1.0 1.0
1.0 1.0 1.0 1.0 1.0 1.0 1.0 1.0
1.0 1.0 1.0 1.0 1.0 1.0 1.0 1.0
1.0 1.0 1.0 1.0 1.0 1.0 1.0 1.0
1.0 1.0 1.0 1.0 1.0 1.0 1.0 1.0
00000000: 0000 803f 0000 803f 0000 803f 0000 803f
00000010: 0000 803f 0000 803f 0000 803f 0000 803f
00000020: 0000 803f 0000 803f 0000 803f 0000 803f
00000030: 0000 803f 0000 803f 0000 803f 0000 803f
00000040: 0000 803f 0000 803f 0000 803f 0000 803f
00000050: 0000 803f 0000 803f 0000 803f 0000 803f
00000060: 0000 803f 0000 803f 0000 803f 0000 803f
00000070: 0000 803f 0000 803f 0000 803f 0000 803f
00000080: 0000 803f 0000 803f 0000 803f 0000 803f
00000090: 0000 803f 0000 803f 0000 803f 0000 803f
000000a0: 0000 803f 0000 803f 0000 803f 0000 803f
000000b0: 0000 803f 0000 803f 0000 803f 0000 803f
000000c0: 0000 803f 0000 803f 0000 803f 0000 803f
000000d0: 0000 803f 0000 803f 0000 803f 0000 803f
000000e0: 0000 803f 0000 803f 0000 803f 0000 803f
000000f0: 0000 803f 0000 803f 0000 803f 0000 803f

net.layer3.0.weight f4 [64, 64, 3, 3]
0.045686983 -0.041640688 -0.0223255 -0.04030207 -0.011438642 0.028131505 0.00064934173 -0.00037037054
-0.08711757 0.0051824325 0.0031654604 0.0047562607 0.02431796 -0.046222508 0.071229234 0.031290196
-0.05558406 -0.043250926 -0.019766483 -0.03685028 0.05715064 0.013571565 0.025167948 -0.008010899
-0.015714183 -0.056233574 0.016054032 -0.06146211 -0.063142225 -0.06781312 0.022910738 0.025679482
-0.05321078 0.020129755 -0.0039055222 -0.038444225 -0.0036884088 -0.038115025 -0.054856215 0.0830747
0.038814444 -0.01861335 0.03560553 -0.026042853 -0.10943043 -0.004520887 -0.0046366295 0.017490132
0.023676516 0.014937756 -0.03444197 -0.012272313 0.010498049 0.009470096 0.045119327 0.003962957
-0.045691546 -0.030892752 0.0597519 -0.011435953 0.027353223 -0.04926155 -0.09959599 0.046244822
-0.022703534 0.0025269608 -0.047923774 0.044232085 0.05796006 -0.06203919 -0.016233947 -0.002797567
-0.06378089 -0.013775327 0.050796457 -0.043986246 0.106437474 0.03772322 -0.02776887 -0.03549043
-0.0043296395 0.09041209 0.080308415 0.010296219 0.022749748 0.05033753 0.01732725 -0.09272827
-0.035391238 -0.018794447 0.049696557 -0.051570844 0.023351246 0.036132913 -0.002814322 -0.0030063984
-0.0024666383 -0.02497776 -0.07362075 0.033082724 0.021383516 0.07053518 -0.022088006 -0.048510734
0.0380086 -0.05151762 -0.012732215 0.00089375983 -0.008024113 0.036585584 0.042508695 0.033156548
0.01564708 0.011705003 -0.019716434 -0.016941505 0.026778502 0.041396257 0.06201651 -0.03799164
-0.022560425 0.06057452 -0.036997102 0.0017429835 0.05719787 0.006746017 0.04995772 0.04043673
0.04269696 0.09847801 0.21550514 0.106171645 -0.052342426 -0.007868514 -0.07312091 -0.016735455
0.012960165 -0.051374085 -0.0048010168 -0.02810533 0.04337635 -0.087805726 0.014043918 -0.035355624
0.03736487 0.1213038 0.048111055 0.20835812 0.29605135 0.13211007 0.027885975 0.17171119
-0.021939736 -0.0143492585 0.004832908 -0.017052032 -0.062277976 0.016486857 -0.06397325 0.0021385108
0.01319472 -0.06647057 -0.052033175 -0.0292877 -0.064888336 -0.049331024 -0.03506212 0.03805375
0.04347605 -0.11282507 -0.10273112 0.031295445 0.0047274376 0.03301246 -0.021984411 0.018665181
-0.022554196 0.015992604 -0.03260306 -0.07008184 0.02022681 -0.035716478 0.010916401 0.060412526
-0.025370097 0.023501368 0.022377044 -0.034992695 0.03081358 -0.008301282 0.018622762 -0.051617928
-0.013056096 0.04853021 -0.023461008 -0.037304908 0.015726317 0.03031383 0.03368273 0.020401899
-0.039746422 0.093350776 0.050247733 -0.04414232 0.06555768 0.050547976 -0.037739195 -0.0043361066
0.056832016 -0.041724987 0.08587646 0.004296682 -0.021918532 -0.043947402 -0.09608294 -0.046652514
-0.09826066 -0.07952108 -0.06653114 0.05328717 0.010114927 0.06358627 0.018224051 -0.07150365
-0.026720917 -0.061903056 0.034547582 -0.013182832 -0.029340614 -0.052098848 0.03279648 0.005319043
0.005463902 -0.017671442 -0.02062302 0.024948675 0.0010963655 -0.0656505 -0.05475593 0.01822649
0.08195347 0.018713305 0.02644235 -0.035370596 0.012774543 -0.0021618558 0.009229437 0.0061165625
-0.036426358 -0.022636307 -0.049640957 -0.038147107 -0.070898354 -0.04843939 -0.025236819 -0.04927964
00000000: 4622 3b3d 6d8f 2abd f8e3 b6bc c913 25bd
00000010: 2469 3bbc 0b74 e63c 9638 2a3a 4b2e c2b9
00000020: b26a b2bd 65d1 a93b 9d73 4f3b 68da 9b3b
00000030: 7536 c73c d053 3dbd a2e0 913d 262a 003d
00000040: 1cac 63bd e227 31bd 52ed a1bc 52f0 16bd
00000050: ca16 6a3d 455b 5e3c 032d ce3c 2540 03bc
00000060: 08bb 80bc 2d55 66bd bf83 833c b2bf 7bbd
00000070: b650 81bd 9be1 8abd 4daf bb3c c75d d23c
00000080: 8cf3 59bd 28e7 a43c caf3 7fbb b177 1dbd
00000090: 3bb9 71bb 801e 1cbd e9b0 60bd 1123 aa3d
000000a0: e5fb 1e3d 067b 98bc 1bd7 113d d257 d5bc
000000b0: 101d e0bd f323 94bb deee 97bb 7747 8f3c
000000c0: 41f5 c13c 7dbd 743c 0613 0dbd d011 49bc
000000d0: 0200 2c3c 7628 1b3c 0bcf 383d b1db 813b
000000e0: 0f27 3bbd cc12 fdbc 69be 743d dd5d 3bbc
000000f0: de13 e03c 7bc6 49bd fbf8 cbbd 366b 3d3d
00000100: c3fc b9bc 5e9b 253b b84b 44bd b42c 353d
00000110: 8767 6d3d ce1c 7ebd 0efd 84bc 6357 37bb
00000120: 8e9f 82bd e9b1 61bc f20f 503d ec2a 34bd
00000130: e4fb d93d aa83 1a3d 8b7b e3bc 6a5e 11bd
00000140: a6df 8dbb f929 b93d bd78 a43d 79b1 283c
00000150: ae5d ba3c ba2e 4e3d e1f1 8d3c 52e8 bdbd
00000160: 67f6 10bd d0f6 99bc 9e8e 4b3d f33b 53bd
00000170: 1d4b bf3c 1b00 143d 7d70 38bb ff06 45bb
00000180: 53a7 21bb 299e ccbc 7ac6 96bd c081 073d
00000190: 7c2c af3c c074 903d e8f1 b4bc 31b3 46bd
000001a0: e8ae 1b3d 2404 53bd c89a 50bc 354b 6a3a
000001b0: 9277 03bc c4da 153d 991d 2e3d 29cf 073d
000001c0: 4e2e 803c 57c6 3f3c 5c84 a1bc e9c8 8abc
000001d0: 975e db3c 1f8f 293d 0605 7e3d 1f9d 1bbd
000001e0: a4d0 b8bc fd1c 783d 468a 17bd d274 e43a
000001f0: 5048 6a3d b10d dd3b 77a0 4c3d fca0 253d
00000200: 02e3 2e3d d7ae c93d 61ad 5c3e 8570 d93d
00000210: 0365 56bd f1ea 00bc 6ac0 95bd cb18 89bc
00000220: df56 543c a26d 52bd d951 9dbb 263d e6bc
00000230: 66ab 313d 7dd3 b3bd 7618 663c 0fd1 10bd
00000240: e80b 193d 206e f83d 1910 453d d55b 553e
00000250: 0b94 973e dd47 073e 2171 e43c 0fd5 2f3e
00000260: f6ba b3bc 2719 6bbc 5f5d 9e3b b4b0 8bbc
00000270: 3117 7fbd 720f 873c 6804 83bd 4226 0c3b
00000280: ab2e 583c b921 88bd bd20 55bd c2ec efbc
00000290: 2de4 84bd 540f 4abd 4c9d 0fbd 40de 1b3d
000002a0: f113 323d d510 e7bd b264 d2bd a72f 003d
000002b0: 9fe8 9a3b 1338 073d a718 b4bc b9e7 983c
000002c0: 94c3 b8bc ec02 833c c98a 05bd 1187 8fbd
000002d0: b2b2 a53c 714b 12bd b4da 323c 2073 773d
000002e0: f3d4 cfbc f185 c03c 1050 b73c 8054 0fbd
000002f0: c36c fc3c 1a02 08bc c38e 983c 526d 53bd
00000300: 3ce9 55bc 9dc7 463d 4d31 c0bc 08cd 18bd
00000310: 7ad4 803c b654 f83c e7f6 093d e221 a73c
00000320: 25cd 22bd b12e bf3d 91d0 4d3d 94ce 34bd
00000330: 1b43 863d 650b 4f3d 6a94 1abd e615 8ebb
00000340: b0c8 683d d2e7 2abd ffdf af3d 2ecb 8c3b
00000350: 7e8e b3bc 3102 34bd 22c7 c4bd b516 3fbd
00000360: e33c c9bd f3db a2bd 7a41 88bd a643 5a3d
00000370: 14b9 253c 8539 823d 9b4a 953c 8170 92bd
00000380: d3e5 dabc 0f8e 7dbd c481 0d3d cefc 57bc
00000390: ba5b f0bc 9a65 55bd 9a55 063d 5e4b ae3b
000003a0: 880a b33b b3c3 90bc 9cf1 a8bc 2a61 cc3c
000003b0: ecb3 8f3a c573 86bd c147 60bd b84f 953c
000003c0: 39d7 a73d a54c 993c a19d d83c c2e0 10bd
000003d0: 514c 513c ecad 0dbb 1137 173c 726d c83b
000003e0: ce33 15bd c76f b9bc 5154 4bbd 2440 1cbd
000003f0: 2833 91bd 6268 46bd 72bd cebc 73d9 49bd

net.layer3.0.bias f4 [64]
-0.025893964 0.039186895 0.03220614 0.03465044 0.038853716 0.014418433 -0.009524592 0.03815082
-0.02761001 0.00638461 0.03698491 0.035007205 0.004768597 -0.0013922129 -0.021929832 0.019433536
0.020516494 0.033318494 0.014227501 -0.03147563 0.00019855893 0.03495737 0.0046073897 -0.021540398
0.037522815 -0.01172476 0.037857458 0.015667338 0.039330572 0.012113214 -0.028370256 -0.02146664
-0.027375417 -0.009534686 0.011846026 0.021411851 -0.007933965 -0.01694822 -0.038474984 0.019912422
0.011852495 -0.013993296 -0.0033960086 0.0142244585 -0.00289731 0.009144693 -0.028561052 0.020110672
0.032240387 -0.026163975 -0.04132768 0.042490337 0.0046237395 -0.023061793 -0.015693521 0.012779896
0.034304757 0.029126734 -0.031382434 -0.012543313 0.039876115 -0.019916154 0.022944769 0.011149216
00000000: 941f d4bc 7082 203d 96ea 033d 9fed 0d3d
00000010: 1325 1f3d 4b3b 6c3c 090d 1cbc 0944 1c3d
00000020: 632e e2bc fe35 d13b 7d7d 173d b763 0f3d
00000030: e441 9c3b ea7a b6ba 31a6 b3bc 1433 9f3c
00000040: 3512 a83c f978 083d 771a 693c 97ec 00bd
00000050: 4234 5039 762f 0f3d 96f9 963b 7d75 b0bc
00000060: 86b1 193d 3519 40bc 6c10 1b3d ca58 803c
00000070: 1819 213d 8076 463c bd68 e8bc cfda afbc
00000080: 6942 e0bc 5f37 1cbc d615 423c e867 af3c
00000090: 76fd 01bc fed6 8abc f297 1dbd 601f a33c
000000a0: f830 423c 2344 65bc 928f 5ebb b40d 693c
000000b0: cce0 3dbb 9fd3 153c def8 e9bc 23bf a43c
000000c0: 7f0e 043d d555 d6bc 3747 29bd 590a 2e3d
000000d0: bd82 973b 16ec bcbc b38f 80bc c562 513c
000000e0: 2583 0c3d 309b ee3c de8a 00bd 7882 4dbc
000000f0: 2355 233d 3427 a3bc abf6 bb3c 34ab 363c

net.layer3.1.weight f4 [64]
0.747766 0.72148407 0.63915986 0.62794113 0.7061252 0.67067295 0.74515367 0.8652143
0.6571697 1.2790852 0.81349057 0.7096042 0.9019376 0.646534 1.2613647 0.7325472
1.2206336 0.9775421 0.73643017 1.0616475 1.0483038 1.2975084 0.6305862 0.6351378
0.6525486 0.645573 0.72371835 0.65804696 0.6335335 0.95035464 0.7274068 0.8121314
1.1620069 1.1846057 0.62909496 0.6193897 0.6534526 0.6682759 0.6403954 0.6519155
1.2853725 1.5482188 0.5361904 1.1839648 0.7132164 1.0750347 1.2715104 0.72692573
1.1750649 1.4182057 0.68695694 0.9144558 1.2230642 0.6063289 0.6723572 0.64646196
0.6437125 0.66394144 0.6851338 0.5866757 0.69157356 1.1348504 0.6556591 0.74191743
00000000: 986d 3f3f 2eb3 383f fb9f 233f c0c0 203f
00000010: 9fc4 343f 39b1 2b3f 64c2 3e3f af7e 5d3f
00000020: 463c 283f 10b9 a33f eb40 503f 9fa8 353f
00000030: 62e5 663f 4183 253f 6674 a13f 3788 3b3f
00000040: b93d 9c3f 3340 7a3f b086 3c3f 11e4 873f
00000050: d22e 863f c114 a63f 196e 213f 6498 223f
00000060: 6d0d 273f 4644 253f 9b45 393f c475 283f
00000070: 402f 223f 714a 733f 5537 3a3f d8e7 4f3f
00000080: a4bc 943f 29a1 973f 5e0c 213f 5390 1e3f
00000090: ab48 273f 2114 2b3f f4f0 233f efe3 263f
000000a0: 1687 a43f 092c c63f c643 093f 298c 973f
000000b0: 5a95 363f bd9a 893f dac0 a23f ce17 3a3f
000000c0: 8768 963f c487 b53f 69dc 2f3f c619 6a3f
000000d0: 5e8d 9c3f 5f38 1b3f 9a1f 2c3f 887e 253f
000000e0: 58ca 243f 11f8 293f ee64 2f3f 6130 163f
000000f0: f70a 313f c742 913f 46d9 273f 4dee 3d3f

net.layer3.1.bias f4 [64]
-0.25478026 -0.24537261 -0.29855907 -0.29900432 -0.31504193 -0.30049616 -0.31722134 -0.19565159
-0.27119878 -0.2734986 -0.1455133 -0.25410348 -0.2500701 -0.30573684 -0.16666107 -0.27319354
-0.38626626 -0.15835515 -0.29899576 -0.109238796 -0.30224103 0.038464658 -0.1445513 -0.3234937
-0.30508423 -0.29873046 -0.2911328 -0.3038367 -0.2921418 -0.39734915 -0.24744523 -0.33522144
-0.05387948 -0.14039634 -0.30399212 -0.3187013 -0.3353468 -0.34190375 -0.30930957 -0.32609752
-0.1157643 -0.12270499 -0.4190934 -0.08516495 -0.27042776 -0.11905959 -0.34606865 -0.5528533
-0.37525994 -0.07942713 -0.2723135 -0.13907184 -0.030434249 -0.3313294 -0.32596603 -0.32891092
-0.2968868 -0.30755624 -0.26647335 -0.47408816 -0.39088616 -0.24906442 -0.27818012 -0.29254156
00000000: 8f72 82be f542 7bbe bcdc 98be 1817 99be
00000010: 2d4d a1be a2da 99be d66a a2be e458 48be
00000020: 91da 8abe 0208 8cbe 7001 15be da19 82be
00000030: 3009 80be 8a89 9cbe 33a9 2abe 06e0 8bbe
00000040: b1c4 c5be da27 22be f915 99be 97b8 dfbd
00000050: 56bf 9abe 1e8d 1d3d 4205 14be f7a0 a5be
00000060: 0034 9cbe 33f3 98be 5c0f 95be 7c90 9bbe
00000070: 9c93 95be 5971 cbbe 4862 7dbe 25a2 abbe
00000080: bbb0 5cbd 0fc4 0fbe dba4 9bbe d12c a3be
00000090: 93b2 abbe 020e afbe d35d 9ebe 41f6 a6be
000000a0: d515 edbd c14c fbbd 6993 d6be f66a aebd
000000b0: 8275 8abe 84d5 f3bd e92f b1be cb87 0dbf
000000c0: 1222 c0be b1aa a2bd ad6c 8bbe d968 0ebe
000000d0: 3f51 f9bc 02a4 a9be 05e5 a6be 0367 a8be
000000e0: 8c01 98be 0378 9dbe 326f 88be afbb f2be
000000f0: 3b22 c8be be0a 7fbe a06d 8ebe 02c8 95be

net.layer3.1.running_mean f4 [64]
0.0 0.0 0.0 0.0 0.0 0.0 0.0 0.0
0.0 0.0 0.0 0.0 0.0 0.0 0.0 0.0
0.0 0.0 0.0 0.0 0.0 0.0 0.0 0.0
0.0 0.0 0.0 0.0 0.0 0.0 0.0 0.0
0.0 0.0 0.0 0.0 0.0 0.0 0.0 0.0
0.0 0.0 0.0 0.0 0.0 0.0 0.0 0.0
0.0 0.0 0.0 0.0 0.0 0.0 0.0 0.0
0.0 0.0 0.0 0.0 0.0 0.0 0.0 0.0
00000000: 0000 0000 0000 0000 0000 0000 0000 0000
00000010: 0000 0000 0000 0000 0000 0000 0000 0000
00000020: 0000 0000 0000 0000 0000 0000 0000 0000
00000030: 0000 0000 0000 0000 0000 0000 0000 0000
00000040: 0000 0000 0000 0000 0000 0000 0000 0000
00000050: 0000 0000 0000 0000 0000 0000 0000 0000
00000060: 0000 0000 0000 0000 0000 0000 0000 0000
00000070: 0000 0000 0000 0000 0000 0000 0000 0000
00000080: 0000 0000 0000 0000 0000 0000 0000 0000
00000090: 0000 0000 0000 0000 0000 0000 0000 0000
000000a0: 0000 0000 0000 0000 0000 0000 0000 0000
000000b0: 0000 0000 0000 0000 0000 0000 0000 0000
000000c0: 0000 0000 0000 0000 0000 0000 0000 0000
000000d0: 0000 0000 0000 0000 0000 0000 0000 0000
000000e0: 0000 0000 0000 0000 0000 0000 0000 0000
000000f0: 0000 0000 0000 0000 0000 0000 0000 0000

net.layer3.1.running_var f4 [64]
1.0 1.0 1.0 1.0 1.0 1.0 1.0 1.0
1.0 1.0 1.0 1.0 1.0 1.0 1.0 1.0
1.0 1.0 1.0 1.0 1.0 1.0 1.0 1.0
1.0 1.0 1.0 1.0 1.0 1.0 1.0 1.0
1.0 1.0 1.0 1.0 1.0 1.0 1.0 1.0
1.0 1.0 1.0 1.0 1.0 1.0 1.0 1.0
1.0 1.0 1.0 1.0 1.0 1.0 1.0 1.0
1.0 1.0 1.0 1.0 1.0 1.0 1.0 1.0
00000000: 0000 803f 0000 803f 0000 803f 0000 803f
00000010: 0000 803f 0000 803f 0000 803f 0000 803f
00000020: 0000 803f 0000 803f 0000 803f 0000 803f
00000030: 0000 803f 0000 803f 0000 803f 0000 803f
00000040: 0000 803f 0000 803f 0000 803f 0000 803f
00000050: 0000 803f 0000 803f 0000 803f 0000 803f
00000060: 0000 803f 0000 803f 0000 803f 0000 803f
00000070: 0000 803f 0000 803f 0000 803f 0000 803f
00000080: 0000 803f 0000 803f 0000 803f 0000 803f
00000090: 0000 803f 0000 803f 0000 803f 0000 803f
000000a0: 0000 803f 0000 803f 0000 803f 0000 803f
000000b0: 0000 803f 0000 803f 0000 803f 0000 803f
000000c0: 0000 803f 0000 803f 0000 803f 0000 803f
000000d0: 0000 803f 0000 803f 0000 803f 0000 803f
000000e0: 0000 803f 0000 803f 0000 803f 0000 803f
000000f0: 0000 803f 0000 803f 0000 803f 0000 803f

net.layer4.0.weight f4 [64, 64, 3, 3]
-0.014966008 0.06877652 -0.0065802825 0.03451383 0.010050828 -0.0154976025 0.015291147 -0.06605257
-0.06482964 0.059422106 -0.029757584 -0.025665391 -0.054305192 -0.036231875 0.0057848934 -0.03588769
0.023851916 -0.025918256 -0.033164706 -0.05005446 -0.0021540308 -0.020100469 -0.060965147 -0.017800486
0.019641051 -0.031596392 0.08225648 0.05005291 0.030684216 -0.030725487 -0.04265993 -0.05727088
0.06105049 -0.004438405 0.058163453 0.058238953 0.0347056 -0.023200206 0.024273677 0.0114155235
-0.050461162 0.05975556 0.056011926 -0.0043143253 0.06459225 0.031086225 0.016518813 0.030934764
0.035534408 -0.0104732495 -0.017033106 -0.05521505 0.04521917 -0.003070364 0.012618233 -0.035349414
0.010022122 -0.04677602 -0.0023730607 0.044655908 -0.0017006365 -0.022045378 0.040767606 -0.052809235
-0.074830435 0.016647834 -0.060822118 0.011168618 -0.02093619 0.0134358695 -0.023989243 -0.007358604
0.024913758 0.020167435 -0.008171948 -0.055191886 0.0109314155 0.032093715 -0.015187577 0.025042057
0.05002908 -0.03384743 -0.07957537 -0.007531568 -0.05331612 0.0012319447 0.009475595 -0.025786495
-0.00041182857 0.013477522 0.09009323 0.094056986 0.08868206 0.080626875 0.023714654 0.018639348
0.015612028 -0.025216877 -0.08351773 -0.014303282 -0.032162044 -0.026957983 -0.022349427 0.011284235
-0.025471598 -0.00038547243 -0.06356515 -0.07948405 0.021805145 -0.06416965 -0.020899547 -0.03638584
-0.020563414 -0.041476674 -0.020659113 0.0062613566 0.0017131027 -0.022627495 -0.044784598 0.040325988
0.042592786 0.04934201 -0.016075892 0.0027918916 -0.01751698 -0.041089367 0.027751112 -0.021383088
-0.050639007 -0.02526381 0.008066058 0.008214983 -0.020169456 -0.01068337 0.026656875 0.008744412
-0.002931945 0.03116178 0.025067661 -0.051220793 -0.03032336 0.024023358 0.046170983 0.06617416
-0.02059677 -0.0057060085 -0.005070113 -0.013846949 0.021462325 -0.0017400656 0.01142516 -0.0016302381
0.014113674 0.0012279289 -0.00032350846 -0.008936204 0.021296225 -0.023947546 -0.008856358 -0.026490487
0.0015400159 0.020770282 -0.02922187 -0.031533685 0.06121547 -0.010129072 0.0506632 0.045915585
0.027965333 0.04876503 0.017422717 0.06835271 -0.06207254 -0.0642298 -0.080449946 -0.014579813
-0.0002268959 0.0054613343 0.027654076 0.019496836 -0.078865565 -0.090408 -0.06607464 -0.070241675
-0.011291139 -0.012444825 0.021999808 -0.017616643 0.017094824 -0.011727238 -0.047710203 -0.03848368
-0.03308715 0.0020439208 -0.0023030539 -0.03398682 -0.005045573 0.019110441 0.026836388 0.0024406381
0.03155198 -0.01828543 -0.019508302 -0.016135465 0.0044171517 0.023199344 -0.06961515 0.03336625
-0.05191436 -0.0147053525 0.011307425 -0.056973692 -0.060860343 0.031382777 0.0327183 0.03371098
0.022197632 -0.053552818 -0.032821957 0.0146898385 -0.0070037725 -0.051791187 0.04492751 -0.027368562
0.05191469 -0.045027178 0.031880956 0.062786505 -0.020123316 0.04566851 0.02307929 0.0470855
0.035088878 0.06880871 0.035259508 0.05072119 -0.026110567 -0.07810445 -0.025971206 0.020551404
-0.041256513 0.0372209 0.037055776 0.054857116 -0.006584401 0.016871538 -0.094038256 -0.05515397
-0.022759931 -0.0005410953 0.03130254 0.0898087 -0.07426952 0.028688056 -0.04444982 0.05050593
00000000: fd33 75bc b4da 8c3d 699f d7bb 605e 0d3d
00000010: 3aac 243c a8e9 7dbc b887 7a3c 9246 87bd
00000020: 67c5 84bd 9864 733d 2dc6 f3bc 3a40 d2bc
00000030: 1f6f 5ebd e067 14bd 348f bd3b f8fe 12bd
00000040: 1865 c33c 8652 d4bc b7d7 07bd e805 4dbd
00000050: a42a 0dbb bda9 a4bc 97b6 79bd 53d2 91bc
00000060: 45e6 a03c 386b 01bd 1676 a83d 4804 4d3d
00000070: 775d fb3c 04b4 fbbc 2ebc 2ebd df94 6abd
00000080: 1410 7a3d 0a70 91bb cd3c 6e3d f88b 6e3d
00000090: 7627 0e3d 5c0e bebc 97d9 c63c 2d08 3b3c
000000a0: 5db0 4ebd 3fc2 743d c36c 653d 2f5f 8dbb
000000b0: f148 843d 8aa8 fe3c 7652 873c e76a fd3c
000000c0: 878c 113d fe97 2bbc 0389 8bbc 2d29 62bd
000000d0: bd37 393d 2938 49bb b5bc 4e3c 8cca 10bd
000000e0: d433 243c 3698 3fbd 5a85 1bbb 1de9 363d
000000f0: e4e7 deba 8298 b4bc effb 263d 7f4e 58bd
00000100: b340 99bd 0a61 883c 9d20 79bd 94fc 363c
00000110: 5f82 abbc 1f22 5c3c 1785 c4bc 7220 f1bb
00000120: f017 cc3c 2d36 a53c a2e3 05bc e310 62bd
00000130: ae19 333c b374 033d 51d5 78bc 0025 cd3c
00000140: 4beb 4c3d 9aa3 0abd 69f8 a2bd 5fcb f6bb
00000150: 0162 5abd 3479 a13a 873f 1b3c 333e d3bc
00000160: b2ea d7b9 d3d0 5c3c cd82 b83d f3a0 c03d
00000170: f19e b53d b41f a53d 3c45 c23c 8cb1 983c
00000180: 97c9 7f3c a093 cebc 580b abbd 5058 6abc
00000190: 59bc 03bd fdd6 dcbc 2516 b7bc 83e1 383c
000001a0: d0a9 d0bc 3c19 cab9 722e 82bd 89c8 a2bd
000001b0: b4a0 b23c 616b 83bd 8735 abbc 5209 15bd
000001c0: 9b74 a8bc 72e3 29bd 4d3d a9bc 112c cd3b
000001d0: 308a e03a 4c5d b9bc 0e70 37bd dd2c 253d
000001e0: c675 2e3d d91a 4a3d 97b1 83bc 2bf8 363b
000001f0: c57f 8fbc 534d 28bd 4d56 e33c 962b afbc
00000200: d96a 4fbd 0df6 cebc 8027 043c 2398 063c
00000210: 6a3a a5bc 4d09 2fbc 855f da3c b944 0f3c
00000220: e025 40bb fd46 ff3c b25a cd3c e5cc 51bd
00000230: b268 f8bc a2cc c43c c91d 3d3d 5186 873d
00000240: 8fba a8bc 78f9 babb 3123 a6bb 50de 62bc
00000250: c2d1 af3c ea12 e4ba 9830 3b3c b7ad d5ba
00000260: 0a3d 673c 75f2 a03a 929c a9b9 2869 12bc
00000270: 6c75 ae3c a52d c4bc 421a 11bc 9402 d9bc
00000280: 5cda c93a 7026 aa3c b462 efbc 7729 01bd
00000290: 13bd 7a3d 68f4 25bc 3784 4f3d fb11 3c3d
000002a0: 8e17 e53c d7bd 473d 16ba 8e3c 81fc 8b3d
000002b0: c73f 7ebd ea8a 83bd f1c2 a4bd 2be0 6ebc
000002c0: e8ea 6db9 fef4 b23b cd8a e23c d4b7 9f3c
000002d0: 4584 a1bd d427 b9bd 2452 87bd deda 8fbd
000002e0: 78fe 38bc 61e5 4bbc f138 b43c c750 90bc
000002f0: 720a 8c3c 9a23 40bc c66b 43bd 10a1 1dbd
00000300: 6486 07bd 4df3 053b d5ee 16bb c435 0bbd
00000310: 5655 a5bb 808d 9c3c fcd7 db3c 1df3 1f3b
00000320: a63c 013d 53cb 95bc e0cf 9fbc 862e 84bc
00000330: c1bd 903b 8d0c be3c 6392 8ebd 0dab 083d
00000340: 27a4 54bd b8ee 70bc c742 393c 3f5d 69bd
00000350: b248 79bd 3a8b 003d a003 063d 8614 0a3d
00000360: cfd7 b53c 335a 5bbd 5170 06bd a6ad 703c
00000370: e77f e5bb ff22 54bd e905 383d 0934 e0bc
00000380: 7fa4 543d 6b6e 38bd 9b95 023d 3696 803d
00000390: a7d9 a4bc e70e 3b3d c710 bd3c badc 403d
000003a0: 5bb9 0f3d 95eb 8c3d 466c 103d 06c1 4f3d
000003b0: d4e5 d5bc 3af5 9fbd 91c1 d4bc 6b5b a83c
000003c0: 97fc 28bd f174 183d ccc7 173d dbb1 603d
000003d0: f5c1 d7bb 2e36 8a3c 2197 c0bd 21e9 61bd
000003e0: 0973 babc 4ad8 0dba 1837 003d a0ed b73d
000003f0: 9e1a 98bd 3703 eb3c 0411 36bd 4edf 4e3d

net.layer4.0.bias f4 [64]
-0.02388366 -0.02747874 -0.04379757 -0.029797513 -0.034929425 -0.018298043 -0.018973757 -0.03059429
0.01074759 -0.0013791342 0.021652512 -0.0009882505 0.002093915 -0.02239398 -0.056951743 -0.053259693
-0.0059346496 -0.010837725 0.016475104 0.010307 -0.021774055 0.006520067 -0.007881083 -0.045233313
-0.0019624624 -0.02062964 -0.048232306 -0.025427591 0.029846966 0.009910253 0.01285842 -0.017909849
0.01610766 -0.039385263 -0.026617607 0.020259704 -0.0022694774 0.012257117 0.010034783 -0.0050406526
-0.013615488 -0.021136187 -0.004469996 -0.013703237 -0.008046976 -0.010172586 -0.02713138 0.024753775
0.03165019 -0.0385583 -0.0010025665 -0.020588242 -0.00059864804 0.013346308 -0.02709824 0.008802888
0.04281951 -0.00730209 -0.06618055 -0.019016724 -0.040713474 -0.0076511595 -0.036438685 -0.03684479
00000000: aaa7 c3bc 181b e1bc 1565 33bd ea19 f4bc
00000010: 2812 0fbd c7e5 95bc da6e 9bbc e0a0 fabc
00000020: a916 303c 11c4 b4ba 9c60 b13c 2f88 81ba
00000030: 103a 093b 9473 b7bc 3b46 69bd d626 5abd
00000040: 7377 c2bb b790 31bc ccf6 863c b1de 283c
00000050: 815f b2bc 49a6 d53b a81f 01bc 9146 39bd
00000060: a89c 00bb 7eff a8bc 3d8f 45bd 864d d0bc
00000070: a081 f43c 9d5e 223c 1fac 523c adb7 92bc
00000080: 36f4 833c 7152 21bd 2b0d dabc aef7 a53c
00000090: 83bb 14bb 13d2 483c ee68 243c 0f2c a5bb
000000a0: 7f13 5fbc cc25 adbc 0b79 92bb 8b83 60bc
000000b0: 77d7 03bc ebaa 26bc a142 debc 6ec8 ca3c
000000c0: a1a3 013d 4fef 1dbd 8d68 83ba aca8 a8bc
000000d0: 97ee 1cba 79aa 5a3c 21fd ddbc fd39 103c
000000e0: 8363 2f3d 5f46 efbb ab89 87bd f6c8 9bbc
000000f0: 2cc3 26bd 94b6 fabb bb40 15bd 90ea 16bd

net.layer4.1.weight f4 [64]
1.6938072 1.8119922 1.8396614 1.9667281 2.006657 1.688133 1.5881561 1.8156621
1.6435707 1.7511872 1.9221841 1.7334627 1.6277997 1.5981861 2.3627868 1.6709213
1.9013022 1.68528 1.6978852 1.6029809 1.6741394 1.7305341 1.8250844 1.8044052
1.7759329 1.9514657 1.8211247 1.3887564 0.65919185 1.5677418 1.859983 1.9544972
1.7586218 1.7441484 1.8466004 1.7609507 1.7947611 1.6379199 1.5938482 2.3580146
1.5898021 1.6236309 1.641197 1.8938633 1.9594955 1.7959677 2.0627844 2.0452726
1.8691797 2.0061014 1.4579451 1.7679769 1.6791136 1.8515167 1.1283708 1.8229347
1.6325306 1.7659531 1.7470702 1.696355 1.6709615 1.8530895 2.5006325 1.9146292
00000000: adce d83f 5cef e73f 067a eb3f bfbd fb3f
00000010: 116d 0040 be14 d83f b348 cb3f 9e67 e83f
00000020: 8660 d23f e726 e03f 210a f63f 1be2 dd3f
00000030: be5b d03f 5d91 cc3f e637 1740 c0e0 d53f
00000040: df5d f33f 41b7 d73f 4d54 d93f 7a2e cd3f
00000050: 334a d63f 2482 dd3f 5e9c e93f c0f6 e63f
00000060: c551 e33f a1c9 f93f 9d1a e93f c5c2 b13f
00000070: ccc0 283f c3ab c83f ec13 ee3f f72c fa3f
00000080: 851a e13f 4140 df3f 675d ec3f d566 e13f
00000090: bbba e53f 5ca7 d13f 3803 cc3f b6e9 1640
000000a0: a37e cb3f 23d3 cf3f be12 d23f 1d6a f23f
000000b0: c0d0 fa3f 45e2 e53f a904 0440 bfe5 0240
000000c0: 4841 ef3f f763 0040 f29d ba3f 114d e23f
000000d0: 32ed d63f 80fe ec3f 746e 903f ed55 e93f
000000e0: c3f6 d03f c00a e23f ff9f df3f 2922 d93f
000000f0: 11e2 d53f 0932 ed3f 5d0a 2040 9212 f53f

net.layer4.1.bias f4 [64]
0.10335695 0.093522035 0.09206416 0.0936583 0.027082086 0.20088397 0.0173894 0.15156586
0.13072693 0.15312374 0.25889206 0.241766 0.053921416 0.10914414 0.20714787 0.15486127
-0.034375418 0.13842346 0.18181732 0.09378276 0.1373676 0.11980729 0.00817307 0.051055092
0.19669974 0.0067339144 0.033186696 -0.26538065 -0.28359535 0.023745697 0.07833801 0.09344373
0.08208299 0.052953284 0.104512066 0.23623739 0.10043841 0.1088511 0.13929215 0.21374027
0.1746566 0.08042348 0.06822918 0.07924657 0.05675231 0.13351633 0.038757578 0.12565087
0.19646701 0.07344846 -0.28813228 0.19152133 0.053703655 -0.060827468 0.04993207 0.04760617
0.11394291 -0.008013545 0.1072842 0.090292886 0.1488533 0.15773562 0.19565392 0.09936933
00000000: cfac d33d 7b88 bf3d 228c bc3d eccf bf3d
00000010: 40db dd3c 87b4 4d3e 3774 8e3c 1534 1b3e
00000020: 48dd 053e 78cc 1c3e 808d 843e 8291 773e
00000030: b4dc 5c3d f686 df3d 921e 543e f493 1e3e
00000040: 3dcd 0cbd e1be 0d3e 522e 3a3e 2d11 c03d
00000050: 18aa 0c3e 865d f53d 57e8 053c 251f 513d
00000060: a86b 493e 2ba8 dc3b c6ee 073d f9df 87be
00000070: 6933 91be 5686 c23c ae6f a03d 6d5f bf3d
00000080: 201b a83d 8be5 583d 6c0a d63d 37e8 713e
00000090: a7b2 cd3d 53ed de3d 9aa2 0e3e bbde 5a3e
000000a0: 2ed9 323e 11b5 a43d bebb 8b3d 074c a23d
000000b0: 1c75 683d 81b8 083e 44c0 1e3d 9faa 003e
000000c0: a62e 493e 256c 963d 1386 93be 2b1e 443e
000000d0: 5df8 5b3d 3926 79bd 9285 4c3d b0fe 423d
000000e0: e75a e93d 3e4b 03bc d2b7 db3d 7aeb b83d
000000f0: 006d 183e 7285 213e 8059 483e 2682 cb3d
