old_mp/maml_omniglot_step13000_k_1_n_way5.pt (torch, 462290 bytes, 26 tensors)

net.layer1.0.weight f4 [64, 1, 3, 3]
0	0x3e93ab73	0.28841743
1	0x3e4c3311	0.19941355
2	0xbd5023f1	-0.050815526
3	0xbed72502	-0.42020422
4	0x3e8717b2	0.26385266
5	0x3d5a5c25	0.053310532
6	0xbd9e8b47	-0.07741409
7	0x3e71784e	0.23581049
8	0xbb513e6a	-0.003192807
9	0xbd76b20e	-0.0602284
10	0xbe95cc3a	-0.29257375
11	0xbc2f2b7e	-0.010691522
12	0xbe80d075	-0.2515904
13	0x3ecdbf7d	0.40185156
14	0x3ec8f917	0.3925254
15	0x3d886313	0.06659522
16	0xbdce9adc	-0.10088131
17	0xbed908e6	-0.423896
18	0xbdafd576	-0.08585636
19	0xbdcbf9d4	-0.0995976
20	0x3d4833ef	0.048877653
21	0x3e746ef7	0.23870455
22	0xbf040c8b	-0.5158164
23	0x3e8ae4dc	0.2712773
24	0x3e894d1e	0.26816648
25	0x3eb0e0e7	0.34546587
26	0x3e8e5136	0.27796334
27	0x3f099c53	0.53754157
28	0x3e57db93	0.21079855
29	0x3efd561f	0.49479768
30	0xbe8ea6cf	-0.2786164
31	0xbd78eb13	-0.06077106
32	0xbea77f62	-0.32714373
33	0x3d01d261	0.031694774
34	0x3e566609	0.20937361
35	0xbd36fcc8	-0.044674665
36	0x3e1d3242	0.15351203
37	0x3f0ea57b	0.55721253
38	0x3e5f5590	0.21809983
39	0xbe2c0605	-0.16799171
40	0xbdb850e8	-0.08999807
41	0xbe826a6c	-0.25471818
42	0xbe9a1b7a	-0.30099088
43	0xbed070e4	-0.4071113
44	0xbd44a4ad	-0.04800861
45	0x3db0095f	0.085955374
46	0x3e9a7639	0.30168322
47	0x3e9ab345	0.30214897
48	0xbe2a70a0	-0.16644526
49	0xbe240375	-0.16016944
50	0xbef347df	-0.4751577
51	0x3dbf6cb0	0.09346902
52	0x3e3fff86	0.18749818
53	0x3eab1bc6	0.33419627
54	0xbdbadb4f	-0.09123861
55	0xbe597338	-0.21235359
56	0x3e87d0e1	0.2652655
57	0x3e9528ac	0.29132593
58	0xbe505107	-0.2034341
59	0x3e52c015	0.20581086
60	0xbd0454ca	-0.032307424
61	0xbe520db9	-0.20513047
62	0x3ea6fe48	0.32615876
63	0xbcfe1c3d	-0.031019324
64	0x3e3b0cd9	0.1826662
65	0xbe401c29	-0.18760742
66	0x3e747d8a	0.23876014
67	0x3e4c19ea	0.1993176
68	0x3e93546a	0.2877534
69	0x3db54949	0.08851869
70	0xbecc0a7c	-0.3985175
71	0x3e282ee4	0.16424137
72	0x3d0b9353	0.034076046
73	0x3e59e134	0.21277314
74	0xbe243643	-0.16036324
75	0xbe991061	-0.2989531
76	0x3e919828	0.28436399
77	0xbd9ffb23	-0.078115724
78	0x3e7f6bcf	0.2494347
79	0xbdebbeda	-0.115110114
80	0x3e7d8e13	0.24761228
81	0xbdfa5a82	-0.12224294
82	0xbda81474	-0.08207026
83	0xbdab1125	-0.083528794
84	0xbe572ffb	-0.21014397
85	0x3dde7cc0	0.10863638
86	0xbe4e37e5	-0.2013851
87	0xbecd3d34	-0.40085757
88	0x3f14d82f	0.5814237
89	0xbe898457	-0.2685878
90	0x3cb868d0	0.022510916
91	0xbdfca104	-0.12335399
92	0xbe979bc3	-0.29611024
93	0xbdaf0fbc	-0.08547923
94	0x3f25f868	0.6483216
95	0x3dba17ae	0.09086548
96	0xbe8638fa	-0.26215345
97	0xbe71c694	-0.23610908
98	0x3c5f3219	0.013622784
99	0x3e84416d	0.25831166
100	0x3ee071ca	0.43836814
101	0x3e0c31a6	0.13690814
102	0x3e1832b3	0.1486309
103	0xbef73450	-0.482821
104	0x3ebc780c	0.36810338
105	0x3cc68331	0.024232479
106	0xbe4086b4	-0.18801385
107	0x3e0a7687	0.13521777
108	0xbdb2fcb6	-0.08739607
109	0x3e388292	0.18018559
110	0xbe06f3dc	-0.13178962
111	0x3d13cab5	0.03608199
112	0xbe49dd41	-0.19713308
113	0xbeb4a5b6	-0.35282677
114	0x3ed2214c	0.41041028
115	0x3e81c1d7	0.253432
116	0x3eec398a	0.4613765
117	0xbe2e3fd8	-0.17016542
118	0xbca7cf10	-0.020484477
119	0xbe5ecbeb	-0.21757476
120	0x3ed9b2d6	0.42519253
121	0x3eb106af	0.34575412
122	0x3eb7263f	0.35771367
123	0x3ebe1a11	0.37129262
124	0xbcffe0bf	-0.031235097
125	0x3eadf978	0.33979392
126	0x3dadc283	0.08484366
127	0x3ec7fe53	0.3906122
128	0x3e404090	0.18774629
129	0x3ec3dfe1	0.38256744
130	0xbe92201c	-0.28540123
131	0xbe8a77d6	-0.27044553
132	0x3ea733c5	0.32656685
133	0xbce7878c	-0.028262876
134	0x3cff9ae7	0.031201793
135	0xbda3df20	-0.08001542
136	0x3e939142	0.2882176
137	0xbe040d43	-0.12895684
138	0x3e270c88	0.16313374
139	0xbebbe84b	-0.36700663
140	0x3e456486	0.19276628
141	0xbe44ddac	-0.19225186
142	0x3ef4c224	0.47804368
143	0xbe7c0d0d	-0.24614353
144	0xbcc892a5	-0.024483988
145	0xbd354d55	-0.044263203
146	0xbed74d88	-0.4205134
147	0xbdfdcd3d	-0.12392662
148	0xbe8401f6	-0.25782746
149	0xbeba177f	-0.3634605
150	0xbed7add6	-0.42124814
151	0xbea4a804	-0.32159436
152	0x3cb62df5	0.02223871
153	0xbe8414bb	-0.25797066
154	0x3e974c00	0.2955017
155	0x3f1f1fb5	0.62157756
156	0xbd4aaa25	-0.04947867
157	0x3e15eb54	0.14640552
158	0xbc4b8faf	-0.012424394
159	0xbe68d7e1	-0.22738601
160	0xbe0cf8e7	-0.13766824
161	0x3ebbb1b7	0.36659023
162	0x3e8e41e0	0.27784634
163	0xbee271e5	-0.4422752
164	0x3d8e3510	0.069437146
165	0x3e851b8d	0.25997582
166	0x3e183fb9	0.14868058
167	0x3ebfebcb	0.37484583
168	0xbd983d4f	-0.07433569
169	0x3e1f84cc	0.15578002
170	0xbe117d2a	-0.14207903
171	0x3ee45dea	0.446029
172	0xbd67ca58	-0.056589454
173	0xbaf3ef2f	-0.0018610711
174	0xbe1892c0	-0.1489973
175	0xbeed3403	-0.46328744
176	0x3e45a3d4	0.19300777
177	0x3c9921af	0.01869282
178	0x3e6dffa3	0.23242049
179	0x3ecab3c6	0.3959028
180	0xbea77e40	-0.3271351
181	0xbdd7c763	-0.10536077
182	0x3df625db	0.12018939
183	0xbddcec1f	-0.10787224
184	0xbca7413f	-0.020416854
185	0x3ee4b49a	0.44669038
186	0x3eecc2b0	0.46242285
187	0x3eb4d856	0.353213
188	0xbe021d01	-0.12706377
189	0xbcc98005	-0.024597177
190	0x3e45e362	0.19325021
191	0x3e153ce2	0.14574006
192	0xbe59250a	-0.21205536
193	0xbee92fa6	-0.45544165
194	0x3edc2d13	0.4300314
195	0x3e7534aa	0.23945871
196	0x3ec0fa45	0.3769094
197	0x3de0bb4d	0.10973225
198	0xbe0e686d	-0.13907023
199	0x3deb39b9	0.11485619
200	0x3ec1bf09	0.3784106
201	0xbd90f1d2	-0.070773736
202	0xbea20841	-0.31646922
203	0x3e46988c	0.1939413
204	0x3eefd0da	0.4683903
205	0x3becbbb1	0.007224523
206	0xbe8de672	-0.27714878
207	0x3d2249a1	0.039621
208	0xbe5e3a07	-0.21701823
209	0x3e571840	0.21005344
210	0x3d8566a8	0.06513721
211	0xbed5f499	-0.41788176
212	0x3ebfeeca	0.3748687
213	0x3e3019c3	0.17197327
214	0x3efa619a	0.4890259
215	0x3d047a6e	0.03234332
216	0x3e2f9ee6	0.17150459
217	0xbec7c8c2	-0.39020354
218	0x3eaad940	0.33368874
219	0xbdfa44ec	-0.12220177
220	0xbe268b71	-0.1626413
221	0xbcaa084b	-0.020755908
222	0xbdcd2000	-0.10015869
223	0x3f03109a	0.51197207
224	0xbe9db530	-0.30802298
225	0xbeb1803e	-0.34668154
226	0x3eea78d2	0.45795304
227	0xbdc930b5	-0.09823743
228	0xbe69885d	-0.22805925
229	0x3ecc675c	0.39922607
230	0xbe103d85	-0.14085968
231	0xbe27b1ae	-0.16376373
232	0x3e82cffc	0.25549304
233	0xbdfc9bb1	-0.12334383
234	0x3de06eee	0.10958658
235	0x3eb4be00	0.35301208
236	0x3df743c5	0.12073473
237	0xbe2914e0	-0.1651187
238	0xbef8b0c2	-0.48572356
239	0x3ec28618	0.3799293
240	0xbbdc8679	-0.0067298976
241	0x3e705b76	0.2347239
242	0x3e1e49c3	0.15457825
243	0x3eeb154d	0.4591469
244	0x3e695fe8	0.22790492
245	0xbea1d60a	-0.3160861
246	0x3dd2998a	0.102831915
247	0xbb337781	-0.0027384462
248	0xbe2db969	-0.1696526
249	0x3e3bb87b	0.18332092
250	0x3e0be193	0.13660268
251	0xbe99d28e	-0.30043453
252	0xbddb7d8d	-0.10717306
253	0x3dbfd251	0.093662865
254	0xbd9ae104	-0.075624496
255	0xbbb4255b	-0.005497617

net.layer1.0.bias f4 [64]
0	0xbea85aff	-0.32881925
1	0xbd0d0258	-0.034426063
2	0x3d8a3790	0.06748879
3	0x3ee0b4ce	0.43887943
4	0xbcab33c8	-0.020898715
5	0x3f2665c1	0.64999014
6	0x3da5664d	0.08076153
7	0x3e932c52	0.2874475
8	0x3e95abc1	0.292326
9	0x3e11abfa	0.1422576
10	0x3be45517	0.0069681513
11	0xbe0ca0be	-0.13733193
12	0x3bdf771e	0.00681962
13	0xbe56da35	-0.20981677
14	0xbda8c7af	-0.082412116
15	0x3f2976b1	0.66196734
16	0xbdaa5d64	-0.08318594
17	0xbe8a8f00	-0.27062225
18	0xbe7cbfc4	-0.24682528
19	0x3e9c32f6	0.3050763
20	0x3daeba89	0.085316725
21	0x3eab2920	0.33429813
22	0x3e752e1f	0.23943375
23	0xbe94615d	-0.28980532
24	0xbeeea350	-0.46608973
25	0x3dd194e4	0.10233477
26	0x3defda1f	0.11711525
27	0xbe333679	-0.17501248
28	0xbde15462	-0.11002423
29	0x3e01acd3	0.12663583
30	0xbe925eb9	-0.28587893
31	0xbdb8ab57	-0.090170555
32	0xbeb52467	-0.35379335
33	0xbb56afe3	-0.0032758645
34	0x3efae35c	0.49001586
35	0xbd9c04b7	-0.07618087
36	0xbebafd8d	-0.3652157
37	0xbea7c8d9	-0.32770422
38	0x3e1ae88c	0.15127772
39	0x3d3d3228	0.04619041
40	0x3ea3464a	0.31889564
41	0x3eebce98	0.46056056
42	0xbcb7c8f5	-0.022434691
43	0x3e8c05f9	0.27348307
44	0x3d68bc53	0.056820225
45	0x3e871c42	0.26388747
46	0x3e6c3606	0.23067483
47	0x3e88b27f	0.26698682
48	0xbe37501b	-0.17901652
49	0x3ef96045	0.4870626
50	0x3d8e4eb7	0.069486074
51	0x3e19ea0a	0.15030685
52	0xbe3c775c	-0.18404907
53	0x3e86cbd5	0.26327386
54	0x3f072542	0.52791226
55	0xbdb28cf1	-0.08718289
56	0x3da9d722	0.082929865
57	0x3e961f80	0.29320908
58	0x3f14a8b0	0.58069897
59	0x3e45a105	0.19299705
60	0x3d59440c	0.05304341
61	0x3db46afb	0.088094674
62	0x3db567bc	0.088576764
63	0x3ebd2bcd	0.3694748

net.layer1.1.weight f4 [64]
0	0x3f99207b	1.1963037
1	0x3f280eba	0.6564747
2	0x3fa2a884	1.2707677
3	0x3f494074	0.7861397
4	0x3ee4fbff	0.44723508
5	0x3f2104a9	0.62897736
6	0x3f3ee5c4	0.74569345
7	0x3fae7547	1.362954
8	0x3fab7ab9	1.3396827
9	0x3eef0a03	0.46687326
10	0x3f11b57b	0.5691754
11	0x3fb82e5e	1.438915
12	0x3f498702	0.7872163
13	0x3fa2f591	1.2731191
14	0x3fa1c1a8	1.2637224
15	0x3edcf7e5	0.4315788
16	0x3f327075	0.69702846
17	0x3f5165cc	0.81795955
18	0x3fb47294	1.4097466
19	0x3f42955c	0.76009154
20	0x3f5a14fc	0.8518827
21	0x3fc0015d	1.5000416
22	0x3ebe0e7e	0.37120432
23	0x3f922842	1.1418536
24	0x3ee7f6e1	0.4530554
25	0x3f1f28b7	0.621715
26	0x3fc6a59d	1.5519291
27	0x3f3d1f1c	0.73875594
28	0x3fc582ea	1.5430577
29	0x3ed38ac5	0.4131681
30	0x3f0a69bc	0.5406759
31	0x3f453a54	0.77042127
32	0x3f10acb7	0.5651354
33	0x3fab2fb8	1.3373938
34	0x3f901b2b	1.1258291
35	0x3f94a95b	1.1614183
36	0x3f7dafc0	0.990963
37	0x3fa6299d	1.2981449
38	0x3fc03654	1.501658
39	0x3ef773c7	0.4833052
40	0x3f737ebd	0.9511526
41	0x3f4e6d60	0.80635643
42	0x3f107c2a	0.5643946
43	0x3f9ecc93	1.2406181
44	0x3ee5e089	0.4489787
45	0x3fa4d976	1.2878864
46	0x3f905d36	1.1278446
47	0x3e82f2cd	0.25575867
48	0x3f1fb891	0.62391
49	0x3f48dae6	0.7845901
50	0x400164c4	2.0217752
51	0x3f13c53c	0.5772283
52	0x3f8ca113	1.0986656
53	0x3f37b341	0.71757895
54	0x3f99d2d0	1.201746
55	0x3f6ea30d	0.93217546
56	0x3f04b279	0.5183483
57	0x3f3d21d9	0.7387977
58	0x3f1f3c3e	0.622013
59	0x3f87bb9e	1.0604131
60	0x3f06e3e9	0.52691513
61	0x3f9ab751	1.2087194
62	0x3f1d4420	0.61432076
63	0x3fc12e8f	1.5092334

net.layer1.1.bias f4 [64]
0	0xbf0be2be	-0.54642856
1	0xbfa504f3	-1.2892135
2	0xbf2d4723	-0.6768667
3	0xbe656694	-0.22402412
4	0xbf0b6833	-0.5445587
5	0xbea90c27	-0.33017084
6	0xbe866d7f	-0.26255414
7	0xbefadf95	-0.48998705
8	0xbf0956ac	-0.53647876
9	0xbf66b204	-0.9011538
10	0xbf39e52f	-0.7261533
11	0xbf2c27af	-0.6724805
12	0xbe9496e1	-0.2902136
13	0xbed90ef7	-0.4239423
14	0xbf14a81a	-0.58069
15	0x3d0ab76e	0.03386634
16	0xbfbd0e10	-1.4769917
17	0xbe8d52c8	-0.2760222
18	0xbf09841f	-0.53717226
19	0xbebdd811	-0.37078908
20	0xbeb49820	-0.35272312
21	0xbf627bbc	-0.88470054
22	0x3dc0791b	0.09398099
23	0xbf0dc869	-0.55383927
24	0xbf97834d	-1.1836945
25	0x3d95da2e	0.07317005
26	0xbf6a6009	-0.9155279
27	0xbdb2079d	-0.08692858
28	0xbe9bc37b	-0.30422577
29	0xba815f0b	-0.0009870244
30	0xbf085331	-0.5325194
31	0xbea67d86	-0.32517642
32	0xbf91ed24	-1.1400495
33	0xbf3491c5	-0.70534927
34	0xbef29a62	-0.4738341
35	0x3a7cc561	0.0009642449
36	0xbee6a517	-0.4504783
37	0xbf0687d3	-0.52551
38	0xbf549291	-0.8303614
39	0xbf8d5a36	-1.1043155
40	0xbe83daf7	-0.25752994
41	0xbe8988d3	-0.268622
42	0x3dd2a842	0.10285999
43	0xbedf495b	-0.43610653
44	0x3f0a1833	0.53943175
45	0xbeff5387	-0.49868414
46	0x3e87b7d7	0.26507446
47	0x3f6ab1b7	0.9167742
48	0xbfa479ad	-1.2849633
49	0xbe44be58	-0.19213235
50	0xbf5329a4	-0.82485414
51	0xbfa0a4d3	-1.25503
52	0xbe7d6273	-0.24744587
53	0xbf78f1f9	-0.9724422
54	0xbef3b532	-0.4759918
55	0xbe866d38	-0.26255202
56	0xbf8ef9d0	-1.1169987
57	0xbeffc65a	-0.49956018
58	0xbe8abecf	-0.270987
59	0xbebd3c31	-0.36959985
60	0xbebe13df	-0.37124535
61	0xbee3fac6	-0.44527262
62	0xbd0c7c2b	-0.034298103
63	0xbf2f3b0e	-0.68449485

net.layer1.1.running_mean f4 [64]
0	0x00000000	0.0
1	0x00000000	0.0
2	0x00000000	0.0
3	0x00000000	0.0
4	0x00000000	0.0
5	0x00000000	0.0
6	0x00000000	0.0
7	0x00000000	0.0
8	0x00000000	0.0
9	0x00000000	0.0
10	0x00000000	0.0
11	0x00000000	0.0
12	0x00000000	0.0
13	0x00000000	0.0
14	0x00000000	0.0
15	0x00000000	0.0
16	0x00000000	0.0
17	0x00000000	0.0
18	0x00000000	0.0
19	0x00000000	0.0
20	0x00000000	0.0
21	0x00000000	0.0
22	0x00000000	0.0
23	0x00000000	0.0
24	0x00000000	0.0
25	0x00000000	0.0
26	0x00000000	0.0
27	0x00000000	0.0
28	0x00000000	0.0
29	0x00000000	0.0
30	0x00000000	0.0
31	0x00000000	0.0
32	0x00000000	0.0
33	0x00000000	0.0
34	0x00000000	0.0
35	0x00000000	0.0
36	0x00000000	0.0
37	0x00000000	0.0
38	0x00000000	0.0
39	0x00000000	0.0
40	0x00000000	0.0
41	0x00000000	0.0
42	0x00000000	0.0
43	0x00000000	0.0
44	0x00000000	0.0
45	0x00000000	0.0
46	0x00000000	0.0
47	0x00000000	0.0
48	0x00000000	0.0
49	0x00000000	0.0
50	0x00000000	0.0
51	0x00000000	0.0
52	0x00000000	0.0
53	0x00000000	0.0
54	0x00000000	0.0
55	0x00000000	0.0
56	0x00000000	0.0
57	0x00000000	0.0
58	0x00000000	0.0
59	0x00000000	0.0
60	0x00000000	0.0
61	0x00000000	0.0
62	0x00000000	0.0
63	0x00000000	0.0

net.layer1.1.running_var f4 [64]
0	0x3f800000	1.0
1	0x3f800000	1.0
2	0x3f800000	1.0
3	0x3f800000	1.0
4	0x3f800000	1.0
5	0x3f800000	1.0
6	0x3f800000	1.0
7	0x3f800000	1.0
8	0x3f800000	1.0
9	0x3f800000	1.0
10	0x3f800000	1.0
11	0x3f800000	1.0
12	0x3f800000	1.0
13	0x3f800000	1.0
14	0x3f800000	1.0
15	0x3f800000	1.0
16	0x3f800000	1.0
17	0x3f800000	1.0
18	0x3f800000	1.0
19	0x3f800000	1.0
20	0x3f800000	1.0
21	0x3f800000	1.0
22	0x3f800000	1.0
23	0x3f800000	1.0
24	0x3f800000	1.0
25	0x3f800000	1.0
26	0x3f800000	1.0
27	0x3f800000	1.0
28	0x3f800000	1.0
29	0x3f800000	1.0
30	0x3f800000	1.0
31	0x3f800000	1.0
32	0x3f800000	1.0
33	0x3f800000	1.0
34	0x3f800000	1.0
35	0x3f800000	1.0
36	0x3f800000	1.0
37	0x3f800000	1.0
38	0x3f800000	1.0
39	0x3f800000	1.0
40	0x3f800000	1.0
41	0x3f800000	1.0
42	0x3f800000	1.0
43	0x3f800000	1.0
44	0x3f800000	1.0
45	0x3f800000	1.0
46	0x3f800000	1.0
47	0x3f800000	1.0
48	0x3f800000	1.0
49	0x3f800000	1.0
50	0x3f800000	1.0
51	0x3f800000	1.0
52	0x3f800000	1.0
53	0x3f800000	1.0
54	0x3f800000	1.0
55	0x3f800000	1.0
56	0x3f800000	1.0
57	0x3f800000	1.0
58	0x3f800000	1.0
59	0x3f800000	1.0
60	0x3f800000	1.0
61	0x3f800000	1.0
62	0x3f800000	1.0
63	0x3f800000	1.0

net.layer2.0.weight f4 [64, 64, 3, 3]
0	0xbe8a488e	-0.2700848
1	0xbd4a0abc	-0.049326643
2	0x3de2a6c4	0.11066964
3	0x3cf24053	0.029571688
4	0xbe4b68b9	-0.19864167
5	0xbcecdd55	-0.028914133
6	0xbd2b3b1f	-0.04180443
7	0xbec7ce27	-0.3902447
8	0xbeea0d4e	-0.45713276
9	0x3eed56b0	0.463552
10	0xbde5b742	-0.11216594
11	0xbe92844f	-0.28616568
12	0xbd8ca38b	-0.06867131
13	0x3cc90e82	0.02454305
14	0xbd71b3c9	-0.059009347
15	0x3dc176b3	0.09446468
16	0x3df80d60	0.12111926
17	0x3ef7f112	0.4842611
18	0xbe04b7c1	-0.12960722
19	0xbe1db613	-0.15401487
20	0xbe53079e	-0.20608374
21	0xbe8084f7	-0.25101444
22	0x3d75f99a	0.06005249
23	0xbde5173d	-0.11186073
24	0xbde9ae56	-0.11410205
25	0x3db8742b	0.09006532
26	0x3e875055	0.26428476
27	0xbe89d6ea	-0.2692178
28	0xbf0fd33c	-0.56181693
29	0xbe8c785d	-0.2743558
30	0xbf15eeab	-0.58567303
31	0xbf716996	-0.94301736
32	0xbf410c1d	-0.7540911
33	0xbd665eb2	-0.056242652
34	0x3d1f9ab7	0.038965907
35	0x3b2d8081	0.00264743
36	0x3d56c705	0.052435894
37	0xbe5e3718	-0.21700704
38	0xbed1ffdf	-0.41015527
39	0xbd999efb	-0.07501026
40	0xbd5a6a83	-0.053324234
41	0xbdc47dad	-0.09594283
42	0x3e93e9fc	0.28889453
43	0x3df1f1f0	0.11813724
44	0x3e891e30	0.26780844
45	0xbf3f5730	-0.7474241
46	0xbf1a7b01	-0.6034394
47	0xbdeb4474	-0.11487666
48	0xbee28334	-0.44240725
49	0xbeb9b612	-0.3627172
50	0xbf37d05f	-0.71802324
51	0xbda8e87c	-0.08247468
52	0x3e83c4f8	0.25736213
53	0x3bb218d6	0.0054350896
54	0xbe690d23	-0.22758918
55	0xbf1180ad	-0.5683697
56	0x3e94d200	0.29066467
57	0xbe7753f6	-0.24153122
58	0xbf079984	-0.5296862
59	0x3e3eafee	0.186218
60	0xbf0f878d	-0.5606621
61	0xbf71831b	-0.94340676
62	0xbe970e57	-0.29503128
63	0xbe975227	-0.29554865
64	0x3cd5c563	0.026095098
65	0xbc966e66	-0.018363189
66	0x3dc0f741	0.0942216
67	0x3e0050db	0.12530844
68	0xbdbd4b74	-0.09242907
69	0x3efddd4e	0.49582905
70	0x3ec0fb0e	0.3769154
71	0x3e4a68ed	0.19766589
72	0xbe2721e5	-0.16321523
73	0xbd539782	-0.05165816
74	0xbf054ff3	-0.5207512
75	0xbcfa7d5e	-0.030577358
76	0xbd53a417	-0.05167016
77	0xbd667e12	-0.056272574
78	0xbdcb7138	-0.09933704
79	0x3e0b75fd	0.13619228
80	0x3e05582c	0.13021916
81	0xbcce79ef	-0.025204627
82	0x3ddce475	0.10785762
83	0xbe3b96ae	-0.18319198
84	0x3dce34ed	0.100686885
85	0xbd34f985	-0.044183273
86	0x3b4548a9	0.0030103123
87	0x3c8ca0a4	0.017166443
88	0x3eb58087	0.3544962
89	0xbe221a10	-0.15830255
90	0x3de1089b	0.109879695
91	0x3d582b1b	0.052775484
92	0x3dd306f1	0.10304058
93	0x3d79a37e	0.060946934
94	0x3e2d27c7	0.16909705
95	0x3deb2bef	0.11482989
96	0x3e3b0690	0.18264222
97	0x3d749b5e	0.059718482
98	0x3d70dac7	0.058802392
99	0x3e3d7c75	0.18504508
100	0x3e19fffa	0.15039054
101	0x3e15d681	0.14632608
102	0x3e0bc91a	0.13650933
103	0x3e8f7c77	0.28024647
104	0x3eab3f6e	0.3344683
105	0x3ddcb12c	0.1077598
106	0x3d39a443	0.045322668
107	0x3e12bdfb	0.14330284
108	0xbec5694d	-0.385569
109	0xbe0b4873	-0.13601856
110	0xbeee55e8	-0.46549916
111	0x3e83e033	0.25756988
112	0x3e1925b5	0.1495579
113	0xbee98976	-0.45612687
114	0x3dca8511	0.09888662
115	0x3e8e69a0	0.2781496
116	0xbeaf9f0a	-0.34301025
117	0x3e86ab37	0.26302502
118	0x3e14e0ae	0.14538833
119	0x3e10e03b	0.14148037
120	0x3dca897f	0.098895065
121	0x3c8bbda1	0.017058196
122	0x3e4fdf04	0.20299917
123	0xbeca31a8	-0.3949101
124	0xbe8271ed	-0.25477543
125	0xbe9bf5e0	-0.30461025
126	0x3dcb9085	0.09939674
127	0xbe327fed	-0.17431612
128	0xbec4b8b2	-0.3842216
129	0xbf02cdbd	-0.5109518
130	0xbf2730e1	-0.6530896
131	0xbf18dc8f	-0.59711546
132	0xbe80ff93	-0.25194988
133	0xbebfb823	-0.37445173
134	0xbec70094	-0.3886763
135	0xbe3c2387	-0.18372928
136	0xbda17c61	-0.078850515
137	0xbd3e4c4d	-0.046459485
138	0xbe9cab95	-0.30599657
139	0xbd277fe0	-0.040893435
140	0x3e002abf	0.12516306
141	0xbe782acb	-0.24235074
142	0x3e7d6180	0.24744225
143	0x3e98cf0f	0.29845473
144	0x3e761c80	0.2403431
145	0xbda8f66d	-0.08250127
146	0xbeccfa0d	-0.40034524
147	0xbeab7d54	-0.33494055
148	0x3e78ffb4	0.24316293
149	0xbe933c57	-0.28756973
150	0x3eb4df82	0.35326773
151	0x3ebe5d0c	0.37180364
152	0x3e9198d4	0.2843691
153	0xbe3db0eb	-0.1852452
154	0xbddc97ba	-0.10771127
155	0x3e7cfc8d	0.24705715
156	0xbdffed36	-0.12496416
157	0xbe84eab9	-0.2596033
158	0xbd60b9af	-0.05486458
159	0xbe0fb9d9	-0.14035739
160	0xbeec3322	-0.4613276
161	0xbe9f192e	-0.31073898
162	0x3ba426a2	0.005009488
163	0xbe39c0c4	-0.1813994
164	0xbca705af	-0.020388452
165	0x3e776a72	0.241617
166	0x3e4e81b6	0.20166668
167	0x3e34d52e	0.17659447
168	0x3e89cbe4	0.2691337
169	0x3ea010e5	0.3126289
170	0x3ebce6b3	0.3689476
171	0x3c43fbf5	0.011961927
172	0xbd8ced0f	-0.06881153
173	0xbe8e4b75	-0.27791944
174	0xbdfe5b25	-0.12419728
175	0xbe7a08be	-0.24417397
176	0x3d08490b	0.033272784
177	0xbeb8508d	-0.35998955
178	0x3ef40f3f	0.47667882
179	0x3d306268	0.043062598
180	0x3ea8c3cc	0.3296188
181	0xbe149562	-0.1451011
182	0xbed11e81	-0.40843585
183	0xbe2edd70	-0.17076659
184	0xbe19e884	-0.15030104
185	0xbe1579a4	-0.14597183
186	0xbf26a060	-0.6508846
187	0xbe36f1f6	-0.17865738
188	0xbd8be5cb	-0.06830939
189	0x3de7e40a	0.11322792
190	0xbde080e0	-0.10962081
191	0xbef6726a	-0.48134166
192	0x3e1fa5a5	0.15590532
193	0xbec2be4f	-0.3803582
194	0xbf12437e	-0.57134235
195	0xbe6f5123	-0.23370795
196	0xbe6652e5	-0.22492559
197	0x3db90c7a	0.09035583
198	0x3dca4828	0.09877044
199	0xbe9761b2	-0.29566723
200	0x3de57a83	0.11205008
201	0x3dc10106	0.09424023
202	0xbd254463	-0.04034842
203	0x3e61758c	0.22017497
204	0x3d598ccb	0.053112786
205	0xbe1b0f2b	-0.15142505
206	0xbe1fcf00	-0.15606308
207	0xbd239992	-0.039941378
208	0xbf1f19f0	-0.6214895
209	0xbf5306dd	-0.8243235
210	0xbf24ea76	-0.6442026
211	0xbed675c3	-0.4188672
212	0xbf581e2f	-0.84421057
213	0xbf12b720	-0.57310677
214	0xbed5f647	-0.41789457
215	0x3c8a1ba4	0.016858883
216	0x3d3a3a81	0.04546595
217	0xbe4d802a	-0.20068422
218	0x3d1a3c31	0.03765506
219	0xbe94a83c	-0.29034603
220	0xbe95daa5	-0.29268375
221	0x3ecb4c5d	0.39706698
222	0x3db385f7	0.08765786
223	0x3eb82385	0.359646
224	0xbdaa1053	-0.08303895
225	0xbea0a65d	-0.31376925
226	0xbdd9158b	-0.10599812
227	0xbe724ac3	-0.23661332
228	0xbeae719e	-0.34071058
229	0xbe765388	-0.24055302
230	0xbd553bbe	-0.052058928
231	0xbe2cb040	-0.16864109
232	0xbee0bff6	-0.43896455
233	0xbebed87c	-0.3727454
234	0xbdf40816	-0.11915605
235	0xbe30d8cb	-0.172702
236	0xb9b884fa	-0.0003519429
237	0xbdb3e76c	-0.087843746
238	0xbf7a7fb5	-0.97851115
239	0xbf6773e3	-0.90411204
240	0xbe869bee	-0.2629084
241	0xbebd73fb	-0.3700255
242	0xbd8cb754	-0.068709046
243	0xbed03267	-0.40663454
244	0x3d59563f	0.053060766
245	0xbe761633	-0.24031906
246	0xbe1fb560	-0.15596533
247	0xbe1414f6	-0.14461121
248	0x3d554eb2	0.052077003
249	0xbdfb2321	-0.1226256
250	0xbeb79e79	-0.35863093
251	0x3e504f85	0.20342834
252	0xbe9655c5	-0.29362312
253	0xbe0ea19f	-0.13928841
254	0x3e638f2f	0.22222589
255	0xbd2a5ad2	-0.04159052

net.layer2.0.bias f4 [64]
0	0x3cb03b08	0.021512523
1	0xbcfca83f	-0.030841945
2	0xbce93669	-0.028468328
3	0xbd044484	-0.032291904
4	0x3b95135b	0.0045494265
5	0x3bc36a10	0.0059635714
6	0x3cbd74cb	0.02312698
7	0xbc85fc26	-0.016355585
8	0xbcd41ba6	-0.02589209
9	0xbc700db8	-0.014651708
10	0x3d4cf53f	0.050038572
11	0x3aa88ca2	0.0012859295
12	0x3d04f277	0.032457795
13	0xbbebd419	-0.007196915
14	0xbc2b1e25	-0.010444199
15	0xbca42d97	-0.02004127
16	0xbd2a9a76	-0.04165121
17	0x3ced1879	0.028942334
18	0xbbd9c0b2	-0.0066452855
19	0xbbff06dd	-0.0077828006
20	0x3d28ca77	0.04120871
21	0x3c47f5ec	0.012204628
22	0x3b55a574	0.0032599838
23	0x3bfdbf28	0.007743735
24	0x3d0b37d7	0.0339888
25	0x3b724a66	0.0036970614
26	0x3b3b2e04	0.0028561363
27	0xbca10902	-0.019657616
28	0x3b9706dc	0.004608972
29	0xbbd76366	-0.0065731285
30	0xbc202d6d	-0.009776455
31	0xbcfe9952	-0.031078968
32	0x3a01c66c	0.00049505266
33	0x3bd10832	0.006379151
34	0xbc7d02d6	-0.015442571
35	0x3bd835d7	0.006598215
36	0xbcd638ed	-0.026150191
37	0x3c53d9dc	0.01293036
38	0x3d23bfd6	0.03997787
39	0x3a52cf4f	0.00080417556
40	0x3cf25f70	0.029586524
41	0x3ca78558	0.020449325
42	0xbd1f6c6d	-0.038921762
43	0x3cd31f9f	0.025771914
44	0xba8c35fe	-0.0010697243
45	0x3c66cb4a	0.014086554
46	0x3cedd8d3	0.029034054
47	0x3c9834dd	0.018579895
48	0x3d447449	0.04796246
49	0xbc3292ae	-0.010899229
50	0x3ced7e8a	0.028991003
51	0x3ca9e0ed	0.020737136
52	0x3ce1c3cd	0.027559185
53	0x3cd364ce	0.025804903
54	0x3d18c407	0.03729632
55	0x3cd6ed17	0.0262361
56	0xbce7e72e	-0.028308477
57	0xbcf1071e	-0.029422339
58	0x3ce20db9	0.027594434
59	0x3baf4020	0.0053482205
60	0x3d2b2e4a	0.04179219
61	0x3cf5163e	0.029917832
62	0x3ce46ff6	0.027885418
63	0xbd1f5bf4	-0.038906053

net.layer2.1.weight f4 [64]
0	0x3f65ac5e	0.89716136
1	0x3f917f14	1.1366906
2	0x3f2f65c6	0.6851467
3	0x3f270d56	0.65254724
4	0x3f66f10b	0.9021155
5	0x3f4e886b	0.8067691
6	0x3f6b1b0c	0.91838145
7	0x3f288498	0.6582732
8	0x3f3b214c	0.7309768
9	0x3f6c075f	0.9219875
10	0x3f901f6d	1.125959
11	0x3f574853	0.84094733
12	0x3f4a8ee1	0.79124266
13	0x3f5d3e5d	0.86423284
14	0x3f871dbe	1.0555952
15	0x3f138823	0.57629603
16	0x3f441dd1	0.76607996
17	0x3f6b0b18	0.918138
18	0x3efa3789	0.48870495
19	0x3f73ea25	0.9527915
20	0x3f229ef7	0.6352381
21	0x3fb0eb10	1.3821735
22	0x3f5e496a	0.8683077
23	0x3f8717b1	1.0554105
24	0x3f926ba8	1.1439104
25	0x3f3f4781	0.7471848
26	0x3f5a262b	0.8521449
27	0x3f4f5141	0.8098336
28	0x3f438e3d	0.76388913
29	0x3fc45331	1.5337888
30	0x3f33c218	0.7021804
31	0x3f58b137	0.8464541
32	0x3f9098b7	1.1296605
33	0x3f92bcae	1.146383
34	0x3f4f5bdc	0.8099954
35	0x3f5800fd	0.8437651
36	0x3f876139	1.0576545
37	0x3f58cf17	0.84690994
38	0x3f432cce	0.7624024
39	0x3f234e2a	0.63791144
40	0x3f9221de	1.1416585
41	0x3fa42791	1.2824575
42	0x3f44ea3a	0.769199
43	0x3f3f82be	0.7480887
44	0x3f9b8302	1.2149355
45	0x3f8fb895	1.1228205
46	0x3f7a44b0	0.9776106
47	0x3f358355	0.7090352
48	0x3f310855	0.6915334
49	0x3f7c6aab	0.9860026
50	0x3f700da1	0.93770796
51	0x3f545836	0.829471
52	0x3f981ed1	1.1884404
53	0x3f5c356c	0.86019015
54	0x3f4c5073	0.79810256
55	0x3f71af28	0.9440789
56	0x3f71b9bf	0.9442405
57	0x3f301f8a	0.68798125
58	0x3f4f6b5c	0.8102319
59	0x3f2e40a3	0.6806738
60	0x3f3112fc	0.6916959
61	0x3f8b5765	1.0886046
62	0x3f6a93d6	0.9163183
63	0x3f56796d	0.8377903

net.layer2.1.bias f4 [64]
0	0xbeb1f0d6	-0.34754056
1	0xbf1b5457	-0.6067557
2	0x3e9fb39c	0.3119172
3	0xbe8a96fe	-0.27068323
4	0xbefe1540	-0.49625587
5	0xbeada5da	-0.33915597
6	0xbf49c3b1	-0.78814226
7	0xbeec4e0a	-0.4615329
8	0xbf0540a1	-0.5205174
9	0xbf4767cf	-0.77892774
10	0xbf16b297	-0.58866256
11	0xbf2ded0a	-0.6793982
12	0xbfbd1c4d	-1.4774262
13	0xbe32b7fe	-0.17453
14	0xbf1d702a	-0.61499274
15	0x3edc4a38	0.43025374
16	0xbf9161ab	-1.1357931
17	0xbef1ee13	-0.4725195
18	0xbd1ff582	-0.039052494
19	0xbf1abfc9	-0.6044889
20	0xbf11db14	-0.5697491
21	0xbf332c89	-0.6998983
22	0xbecc8f5a	-0.3995312
23	0xbf969066	-1.1762817
24	0xbf8cb879	-1.0993797
25	0xbf9b535e	-1.2134817
26	0xbf98445b	-1.189586
27	0xbf88a43a	-1.0675118
28	0xbf93d617	-1.154971
29	0xbf30ef13	-0.691148
30	0xbf2e4611	-0.6807566
31	0xbf32960c	-0.69760203
32	0xbf217b12	-0.63078415
33	0xbf38aef9	-0.7214199
34	0xbf8c3dce	-1.0956361
35	0xbf6d1693	-0.9261257
36	0xbf772c54	-0.96552014
37	0xbf938794	-1.152575
38	0xbf104c53	-0.5636646
39	0xbf73e21a	-0.9526688
40	0xbf38f454	-0.72247815
41	0xbf4ea747	-0.80723995
42	0xbf9df18a	-1.2339337
43	0xbebaad93	-0.36460552
44	0xbf1ff37d	-0.6248091
45	0xbf82946c	-1.0201545
46	0xbf1fc2b6	-0.6240648
47	0xbf2d7a56	-0.67764795
48	0xbe75a747	-0.23989592
49	0xbf22c468	-0.6358094
50	0xbf776b70	-0.9664831
51	0xbec55efe	-0.38549036
52	0xbf59b1ff	-0.85037225
53	0xbf923456	-1.1422222
54	0xbf765150	-0.96217823
55	0xbf9002a3	-1.1250805
56	0xbef904d6	-0.48636502
57	0xbee0abce	-0.43881077
58	0xbef734ec	-0.48282564
59	0xbf341b85	-0.7035449
60	0xbf2a4f11	-0.66526896
61	0xbf1669a9	-0.58754975
62	0xbf154b72	-0.58318245
63	0xbf50b6ba	-0.8152882

net.layer2.1.running_mean f4 [64]
0	0x00000000	0.0
1	0x00000000	0.0
2	0x00000000	0.0
3	0x00000000	0.0
4	0x00000000	0.0
5	0x00000000	0.0
6	0x00000000	0.0
7	0x00000000	0.0
8	0x00000000	0.0
9	0x00000000	0.0
10	0x00000000	0.0
11	0x00000000	0.0
12	0x00000000	0.0
13	0x00000000	0.0
14	0x00000000	0.0
15	0x00000000	0.0
16	0x00000000	0.0
17	0x00000000	0.0
18	0x00000000	0.0
19	0x00000000	0.0
20	0x00000000	0.0
21	0x00000000	0.0
22	0x00000000	0.0
23	0x00000000	0.0
24	0x00000000	0.0
25	0x00000000	0.0
26	0x00000000	0.0
27	0x00000000	0.0
28	0x00000000	0.0
29	0x00000000	0.0
30	0x00000000	0.0
31	0x00000000	0.0
32	0x00000000	0.0
33	0x00000000	0.0
34	0x00000000	0.0
35	0x00000000	0.0
36	0x00000000	0.0
37	0x00000000	0.0
38	0x00000000	0.0
39	0x00000000	0.0
40	0x00000000	0.0
41	0x00000000	0.0
42	0x00000000	0.0
43	0x00000000	0.0
44	0x00000000	0.0
45	0x00000000	0.0
46	0x00000000	0.0
47	0x00000000	0.0
48	0x00000000	0.0
49	0x00000000	0.0
50	0x00000000	0.0
51	0x00000000	0.0
52	0x00000000	0.0
53	0x00000000	0.0
54	0x00000000	0.0
55	0x00000000	0.0
56	0x00000000	0.0
57	0x00000000	0.0
58	0x00000000	0.0
59	0x00000000	0.0
60	0x00000000	0.0
61	0x00000000	0.0
62	0x00000000	0.0
63	0x00000000	0.0

net.layer2.1.running_var f4 [64]
0	0x3f800000	1.0
1	0x3f800000	1.0
2	0x3f800000	1.0
3	0x3f800000	1.0
4	0x3f800000	1.0
5	0x3f800000	1.0
6	0x3f800000	1.0
7	0x3f800000	1.0
8	0x3f800000	1.0
9	0x3f800000	1.0
10	0x3f800000	1.0
11	0x3f800000	1.0
12	0x3f800000	1.0
13	0x3f800000	1.0
14	0x3f800000	1.0
15	0x3f800000	1.0
16	0x3f800000	1.0
17	0x3f800000	1.0
18	0x3f800000	1.0
19	0x3f800000	1.0
20	0x3f800000	1.0
21	0x3f800000	1.0
22	0x3f800000	1.0
23	0x3f800000	1.0
24	0x3f800000	1.0
25	0x3f800000	1.0
26	0x3f800000	1.0
27	0x3f800000	1.0
28	0x3f800000	1.0
29	0x3f800000	1.0
30	0x3f800000	1.0
31	0x3f800000	1.0
32	0x3f800000	1.0
33	0x3f800000	1.0
34	0x3f800000	1.0
35	0x3f800000	1.0
36	0x3f800000	1.0
37	0x3f800000	1.0
38	0x3f800000	1.0
39	0x3f800000	1.0
40	0x3f800000	1.0
41	0x3f800000	1.0
42	0x3f800000	1.0
43	0x3f800000	1.0
44	0x3f800000	1.0
45	0x3f800000	1.0
46	0x3f800000	1.0
47	0x3f800000	1.0
48	0x3f800000	1.0
49	0x3f800000	1.0
50	0x3f800000	1.0
51	0x3f800000	1.0
52	0x3f800000	1.0
53	0x3f800000	1.0
54	0x3f800000	1.0
55	0x3f800000	1.0
56	0x3f800000	1.0
57	0x3f800000	1.0
58	0x3f800000	1.0
59	0x3f800000	1.0
60	0x3f800000	1.0
61	0x3f800000	1.0
62	0x3f800000	1.0
63	0x3f800000	1.0

net.layer3.0.weight f4 [64, 64, 3, 3]
0	0x3eb300f5	0.34961668
1	0x3c2c53fe	0.010518072
2	0xbe094b41	-0.13407613
3	0x3e8e4e89	0.27794293
4	0x3dde10a5	0.108430184
5	0x3da3dfdb	0.080016814
6	0xbcf75966	-0.030193996
7	0xbe58573c	-0.21127027
8	0xbe841c55	-0.25802866
9	0xbe5bfe6a	-0.2148377
10	0x3ebf05ae	0.3730902
11	0xbe0119d1	-0.12607504
12	0x3ecfb374	0.405666
13	0x3f05a1f9	0.52200276
14	0x3eb2f8d3	0.34955463
15	0x3d21fb68	0.0395464
16	0x3e082f6e	0.13299343
17	0xbe4d0c2b	-0.20024173
18	0xbe6fda7a	-0.23423186
19	0x3e0103df	0.12599133
20	0xbde0cbb5	-0.10976354
21	0xbe572b0a	-0.21012512
22	0x3dd0e67a	0.1020021
23	0xbe8e19a5	-0.2775394
24	0xbe9ca202	-0.30592352
25	0x3e124a24	0.14286095
26	0xbcaf1c5b	-0.021375826
27	0x3e5dd5d9	0.21663608
28	0x3d69c44b	0.057071965
29	0x3d326b34	0.043559268
30	0xbca1d7da	-0.019756246
31	0x3e6f21a4	0.23352677
32	0x3d80d755	0.06291071
33	0x3e0e9dbf	0.13927363
34	0xbcea5858	-0.028606579
35	0x3d4ae7fa	0.049537636
36	0x3c9058ce	0.01762047
37	0x3e899b1b	0.2687615
38	0xbca5e9fa	-0.02025317
39	0xbd6f00ae	-0.058350258
40	0x3e436d0e	0.1908457
41	0xbddf8314	-0.10913673
42	0x3b9f299b	0.0048572547
43	0x3e0fd47d	0.14045902
44	0xbd1d4915	-0.038399775
45	0xbdaa711a	-0.08322354
46	0x3e75e4a1	0.24012996
47	0x3dad09cb	0.084491335
48	0x3bed460a	0.0072410153
49	0x3d09eeb0	0.033674896
50	0xbe5a4732	-0.21316221
51	0xbe627bd7	-0.22117554
52	0xbda4e1b9	-0.08050866
53	0xbe39a7a7	-0.1813036
54	0xbdb8e9da	-0.09028979
55	0x3e3ab758	0.18234003
56	0x3d0f7cd5	0.03503116
57	0xbd9bc6c4	-0.07606271
58	0x3e4eb396	0.20185694
59	0xbd70075e	-0.058600776
60	0xbc7d1e31	-0.015449093
61	0x3db31a6b	0.08745273
62	0xbe3f3afe	-0.18674847
63	0xbce7b883	-0.028286224
64	0xbc7535f7	-0.0149664795
65	0xbdff77c3	-0.124740146
66	0xbc89aace	-0.016805079
67	0x3e8ba684	0.2727548
68	0xbdab3e58	-0.083615005
69	0xbe992181	-0.29908374
70	0xbde1d930	-0.11027753
71	0x3c42bca3	0.011885795
72	0x3e195aa9	0.1497599
73	0x3d733703	0.059378635
74	0x3cf97650	0.030451924
75	0xbd876ff1	-0.06613148
76	0x3d658f8c	0.0560451
77	0xbd9700e2	-0.07373215
78	0xbe09d505	-0.13460167
79	0xbe0c623a	-0.13709345
80	0xbeaeab19	-0.34114912
81	0xbc748bbf	-0.014925896
82	0x3e1df840	0.15426731
83	0x3e41536f	0.18879484
84	0xbd7a039a	-0.06103859
85	0x3da79eac	0.08184561
86	0x3dd34042	0.103149906
87	0xbde38b3b	-0.111105405
88	0xbe06e611	-0.13173701
89	0xbe228e6d	-0.15874644
90	0x3db33c7e	0.08751772
91	0x3b980e5c	0.0046403836
92	0x3dfb76ec	0.12278542
93	0xbc4c179a	-0.012456799
94	0xbcf4c2f5	-0.029878119
95	0xbe0f8061	-0.14013816
96	0xbe2e40fd	-0.17016979
97	0xbe871ce2	-0.26389223
98	0xbec560ac	-0.38550317
99	0xbd70eb12	-0.05881793
100	0x3e8beb31	0.27327874
101	0xbc6e0318	-0.014527105
102	0xbd402c4f	-0.046917256
103	0x3df03256	0.11728351
104	0xbd88bab9	-0.066762395
105	0x3cce8772	0.02521107
106	0x3e013837	0.126191
107	0xbd80f094	-0.06295887
108	0xbe24cd9d	-0.1609406
109	0xbe889ee1	-0.26683715
110	0xbe5caf4e	-0.21551248
111	0xbdc43856	-0.09581058
112	0xbdf2138b	-0.11820134
113	0xbe71d7ca	-0.23617473
114	0xbe31aa14	-0.17350036
115	0xbe82736f	-0.25478694
116	0xbe77e771	-0.24209382
117	0x3dd0fa97	0.10204046
118	0xbd3ab765	-0.045585055
119	0xbe51b284	-0.20478255
120	0xbc144fd6	-0.0090522375
121	0xbd9ec9c9	-0.07753331
122	0xbe6c8b4d	-0.23100014
123	0xbe8ff6c2	-0.2811795
124	0xbe9f24ee	-0.31082863
125	0xbebec2c6	-0.37257975
126	0xbe35d515	-0.17757066
127	0x3e06de0e	0.13170645
128	0xbd8af058	-0.06784123
129	0xbdd947f5	-0.10609428
130	0x3de40cc2	0.11135246
131	0xbda34526	-0.079721734
132	0xbe61d71b	-0.22054712
133	0x3e0c32ae	0.13691208
134	0xbd71ba48	-0.059015542
135	0x3bf9a304	0.00761831
136	0xbde128fd	-0.10994146
137	0xbea9285d	-0.33038607
138	0x3d313eab	0.043272655
139	0x3e65c4fb	0.22438423
140	0x3e286308	0.16444027
141	0xbd63ff52	-0.055663414
142	0x3dc43990	0.09581292
143	0x3dd821cb	0.105533205
144	0xbe7c2795	-0.24624474
145	0xbdebd931	-0.11516035
146	0xbd4d0964	-0.050057784
147	0xbe4e0fd5	-0.20123227
148	0xbd4f4fe9	-0.050613318
149	0xbdde51dd	-0.10855458
150	0xbe5d619e	-0.21619269
151	0x3d94d9e8	0.07268125
152	0x3dc3e1e2	0.09564568
153	0xbe356947	-0.17715941
154	0x3e95bf33	0.29247436
155	0xbe30b514	-0.17256576
156	0xbd972d88	-0.07381731
157	0x3e910d0f	0.28330275
158	0xbd1829b8	-0.03714916
159	0xbd8c0f88	-0.068389
160	0x3e65d87e	0.22445866
161	0xbe194dce	-0.14971086
162	0x3c63f327	0.0139129525
163	0xbd35ec15	-0.0444146
164	0xbe7b2cf0	-0.24528861
165	0xbc10f5c9	-0.008847662
166	0xbe2e3aa0	-0.17014551
167	0xbcdf2848	-0.027240887
168	0xbdcd37c9	-0.10020406
169	0xbde30aec	-0.110860676
170	0xbd9705ea	-0.07374175
171	0x3da958de	0.08268903
172	0xbd81e9cd	-0.06343422
173	0xbe3d4825	-0.18484552
174	0xbd7b4f66	-0.061355017
175	0xbeabdfaa	-0.3356908
176	0xbe2aa2ee	-0.16663715
177	0xbe86a889	-0.26300457
178	0xbe5707ad	-0.20999022
179	0xbe16070f	-0.1465113
180	0xbdf6264c	-0.12019023
181	0xbe08ea93	-0.13370733
182	0xbf128e0e	-0.5724801
183	0x3e0937d5	0.13400204
184	0xbe1f295d	-0.15543123
185	0xbea7544b	-0.32681498
186	0x3df483b4	0.11939183
187	0xbe218579	-0.15773572
188	0xbeb96ac1	-0.3621426
189	0x3d194d24	0.037427083
190	0x3e9d050c	0.30667913
191	0xbdfd0c1a	-0.12355824
192	0x3e591d2e	0.21202537
193	0x3ec506cf	0.38481757
194	0x3d4ff161	0.050767306
195	0x3da7a418	0.08185595
196	0x3e574eab	0.21026103
197	0xbdf6c6c1	-0.12049628
198	0xbd6314a5	-0.05543961
199	0x3e0303eb	0.12794463
200	0x3cfa57fa	0.030559529
201	0xbe0f9cf3	-0.14024715
202	0xbe3cd00b	-0.18438737
203	0xbd322204	-0.04348947
204	0xbe9c849f	-0.30569932
205	0xbd3e552e	-0.046467952
206	0xbe5a99e9	-0.21347775
207	0xbdabe339	-0.08392949
208	0x3db46fbe	0.08810376
209	0xbd82775b	-0.063704215
210	0xbd2bb27e	-0.04191827
211	0xbe13e9e8	-0.14444697
212	0xbe7b88f6	-0.24563965
213	0xbdb10b1f	-0.08644699
214	0xbd8511ae	-0.06497513
215	0xbe81c781	-0.25347522
216	0x3e0b8532	0.13625029
217	0xbe3b4275	-0.1828707
218	0xbdf9758f	-0.12180626
219	0x3dc1f1a3	0.09469917
220	0xbda2d49a	-0.07950707
221	0xbe42d1ba	-0.19025317
222	0xbcc3a85b	-0.02388399
223	0xbd050fea	-0.03248588
224	0x3d5b4d6c	0.053540632
225	0x3d8972e3	0.06711366
226	0xbe3974c1	-0.18110944
227	0xbdfdc559	-0.12391157
228	0xbd5b8ee8	-0.053603083
229	0xbebe97cc	-0.37225187
230	0xbe7ce4fc	-0.24696726
231	0xbcab6ace	-0.020924952
232	0xbebed18f	-0.37269256
233	0xbebd0611	-0.3691869
234	0x3d978ade	0.07399534
235	0xbed50f43	-0.41613206
236	0xbea7d8e8	-0.32782674
237	0x3df85d38	0.12127155
238	0xbe6a03fd	-0.22853084
239	0xbe83ffcd	-0.25781098
240	0xbdd4c0d6	-0.10388343
241	0xbd3c2752	-0.045935936
242	0xbe402cd9	-0.18767108
243	0xbdddbe39	-0.10827298
244	0x3c8b025a	0.016968895
245	0xbe560915	-0.20901902
246	0x3dbab9a2	0.09117438
247	0xbd28e7fd	-0.041236866
248	0xbe2ffd6a	-0.17186514
249	0xbe347543	-0.17622857
250	0x3e76e919	0.24112357
251	0x3da4ed48	0.0805307
252	0xbe927784	-0.28606808
253	0xbeb40613	-0.35160884
254	0xbea9157d	-0.33024207
255	0xbc1327ba	-0.0089816395

net.layer3.0.bias f4 [64]
0	0xbcb43df9	-0.022002207
1	0x3d26a9bd	0.04068922
2	0x3cd22e3b	0.02565681
3	0x3d4a5f6b	0.049407404
4	0x3d28eca0	0.04124129
5	0x3c8e67bc	0.017383449
6	0xbc07d932	-0.0082915295
7	0x3d3a5875	0.045494515
8	0xbce93bed	-0.028470958
9	0xbb65fada	-0.0035092146
10	0x3d36b73e	0.044608347
11	0x3d072085	0.032989997
12	0x3ad3cdc6	0.0016159348
13	0x3b063b17	0.0020481998
14	0xbcb4ed3b	-0.022085777
15	0x3c9ffa7e	0.019528624
16	0x3cba7e2e	0.022765245
17	0x3cffb041	0.031211974
18	0x3c4c0eda	0.012454713
19	0xbd252f0d	-0.040328074
20	0xbb5b6925	-0.003347942
21	0x3cd60376	0.026124697
22	0x3c37be6c	0.011214834
23	0xbc9737c3	-0.018459206
24	0x3d0c2e5f	0.03422391
25	0xbc37dd7a	-0.011222238
26	0x3d187503	0.037220966
27	0x3c746de4	0.014918778
28	0x3d428e1f	0.04749882
29	0x3c69b88b	0.01426519
30	0xbcff6610	-0.031176597
31	0xbca9ba0b	-0.020718595
32	0xbd025220	-0.0318166
33	0x3ba3a0fa	0.004993555
34	0x3d0bf73e	0.034171335
35	0x3d51cf9e	0.05122339
36	0x3ab7e674	0.0014030472
37	0xbc7efc57	-0.015563092
38	0xbd255e50	-0.040373147
39	0x3ca25078	0.019813761
40	0x3c708cec	0.014682036
41	0xbb29696d	-0.0025850192
42	0xbb900863	-0.004395531
43	0x3c433b8e	0.011916054
44	0xbb7af2d8	-0.0038291719
45	0x3c177d6f	0.009246214
46	0xbca1d613	-0.019755399
47	0x3c950e5a	0.01819532
48	0x3ca4c0f8	0.020111546
49	0xbcdfc96c	-0.027317725
50	0xbd251d4e	-0.04031115
51	0x3d851961	0.06498981
52	0xbb26a95b	-0.0025430534
53	0xbca537a7	-0.020168139
54	0xbc6f7c98	-0.014617108
55	0x3c69ae7c	0.014262792
56	0x3d265c7f	0.040615555
57	0x3d4adee6	0.04952898
58	0x3e628c11	0.22123744
59	0xbc919f1b	-0.017776063
60	0x3d20004f	0.039062794
61	0xbcbd1a97	-0.023083968
62	0x3cb8d94b	0.02256455
63	0x3c5b132c	0.01337127

net.layer3.1.weight f4 [64]
0	0x3ee121b5	0.4397103
1	0x3eb1d8df	0.34735772
2	0x3f9b6d43	1.2142719
3	0x3f77e134	0.9682801
4	0x3eb273d5	0.34853998
5	0x3f872fc4	1.0561452
6	0x3efbe88d	0.4920086
7	0x3f8edd62	1.1161311
8	0x3f08dc92	0.53461564
9	0x3f88441d	1.0645787
10	0x3fa33a29	1.2752124
11	0x3f9142b9	1.1348487
12	0x3eff366d	0.4984621
13	0x3eb69082	0.35657126
14	0x3ef72884	0.48273098
15	0x3eced6f9	0.40398386
16	0x3f559539	0.8343082
17	0x3ed9a512	0.4250875
18	0x3f9febb5	1.2493807
19	0x3ecda12c	0.40162027
20	0x3ea4d5f4	0.32194483
21	0x3ef4356e	0.47697014
22	0x3f9f0a4f	1.2425021
23	0x3ee19b12	0.44063622
24	0x3f9ac856	1.2092388
25	0x3edb8749	0.42876652
26	0x3ed2fc74	0.4120823
27	0x3eb6e62f	0.3572249
28	0x3f5e4ca5	0.868357
29	0x3eb3c63d	0.3511218
30	0x3f200f9f	0.62523836
31	0x3f93351f	1.1500586
32	0x3f9cdc3f	1.2254714
33	0x3f91902f	1.1372126
34	0x3fa0547f	1.2525786
35	0x3f92ebf7	1.1478261
36	0x3f5e3297	0.86795944
37	0x3ed329b7	0.41242763
38	0x3ef1dec1	0.4724026
39	0x3f809ad9	1.0047256
40	0x3efe4831	0.49664453
41	0x3ecc2aad	0.3987631
42	0x3ec10199	0.3769653
43	0x3f972f90	1.181139
44	0x3ee1053c	0.43949306
45	0x3ec0494e	0.37555927
46	0x3ed26027	0.41088983
47	0x3ec7779a	0.38958436
48	0x3f8aabde	1.08337
49	0x3f80b93d	1.005653
50	0x3edc0893	0.42975292
51	0x3eff4a2a	0.4986127
52	0x3f77b2a7	0.96756977
53	0x3f9781a9	1.1836444
54	0x3ee7e809	0.45294216
55	0x3ee14187	0.43995306
56	0x3f6a41a3	0.91506404
57	0x3f8b7874	1.0896134
58	0x3f46a495	0.7759488
59	0x3ecedf13	0.40404567
60	0x3f7b51b9	0.98171574
61	0x3f87940c	1.0592055
62	0x3ee2808b	0.44238696
63	0x3ed4bbf6	0.41549653

net.layer3.1.bias f4 [64]
0	0xbf254c2f	-0.6456937
1	0xbef99301	-0.48744968
2	0xbece4b0e	-0.40291637
3	0xbe907567	-0.2821457
4	0xbf1004fb	-0.562576
5	0x3e8d6609	0.2761691
6	0xbee4ef6a	-0.44713908
7	0xbc07ab18	-0.008280538
8	0xbf1c97fe	-0.6116942
9	0xbe865969	-0.2624009
10	0x3de156bb	0.11002871
11	0x3e0b5ae9	0.13608898
12	0xbee2cdba	-0.44297582
13	0xbedd8d27	-0.43271753
14	0xbed8a16c	-0.42310655
15	0xbeedc689	-0.46440533
16	0xbca72505	-0.020403394
17	0xbf02f3fe	-0.5115355
18	0xbf33c7ab	-0.70226544
19	0xbef5da36	-0.48018044
20	0xbf0c88cd	-0.5489624
21	0xbef27532	-0.47355038
22	0xbeed1531	-0.4630523
23	0xbeeb06e5	-0.45903698
24	0xbe02998f	-0.1275389
25	0xbee85cf5	-0.4538342
26	0xbee0e445	-0.43924156
27	0xbefff7ab	-0.49993643
28	0x3cc6ef2e	0.024283972
29	0xbf0adefa	-0.54246485
30	0xbf146bde	-0.5797709
31	0xbe247ad1	-0.16062476
32	0xbf2a9f19	-0.66649014
33	0xbdf8029a	-0.12109871
34	0x3c0f3957	0.008741698
35	0x3e83d386	0.25747317
36	0xbea98f52	-0.33117157
37	0xbee498c3	-0.44647798
38	0xbee8c7bb	-0.45464882
39	0xbe487baf	-0.19578432
40	0xbeec0695	-0.46098772
41	0xbefcd535	-0.49381414
42	0xbf07f005	-0.53100616
43	0x3cd843d9	0.02639954
44	0xbee8068a	-0.4531749
45	0xbf1e3e56	-0.6181387
46	0xbeeb42f6	-0.45949525
47	0xbeed6efb	-0.46373734
48	0xbde177cd	-0.11009178
49	0xbe13a8e6	-0.14419898
50	0xbf05bd83	-0.52242297
51	0xbed98062	-0.4248076
52	0xbe1c8913	-0.15286665
53	0xbe64a953	-0.22330217
54	0xbf00165e	-0.5003413
55	0xbeecd082	-0.4625283
56	0x3e1f66f2	0.15566614
57	0x3e858613	0.26078853
58	0xbf1b5b27	-0.6068596
59	0xbefc7403	-0.4930726
60	0x3e0e485c	0.1389479
61	0xbf6fd2d8	-0.936811
62	0xbedb4f41	-0.42833903
63	0xbefdbdfe	-0.49559015

net.layer3.1.running_mean f4 [64]
0	0x00000000	0.0
1	0x00000000	0.0
2	0x00000000	0.0
3	0x00000000	0.0
4	0x00000000	0.0
5	0x00000000	0.0
6	0x00000000	0.0
7	0x00000000	0.0
8	0x00000000	0.0
9	0x00000000	0.0
10	0x00000000	0.0
11	0x00000000	0.0
12	0x00000000	0.0
13	0x00000000	0.0
14	0x00000000	0.0
15	0x00000000	0.0
16	0x00000000	0.0
17	0x00000000	0.0
18	0x00000000	0.0
19	0x00000000	0.0
20	0x00000000	0.0
21	0x00000000	0.0
22	0x00000000	0.0
23	0x00000000	0.0
24	0x00000000	0.0
25	0x00000000	0.0
26	0x00000000	0.0
27	0x00000000	0.0
28	0x00000000	0.0
29	0x00000000	0.0
30	0x00000000	0.0
31	0x00000000	0.0
32	0x00000000	0.0
33	0x00000000	0.0
34	0x00000000	0.0
35	0x00000000	0.0
36	0x00000000	0.0
37	0x00000000	0.0
38	0x00000000	0.0
39	0x00000000	0.0
40	0x00000000	0.0
41	0x00000000	0.0
42	0x00000000	0.0
43	0x00000000	0.0
44	0x00000000	0.0
45	0x00000000	0.0
46	0x00000000	0.0
47	0x00000000	0.0
48	0x00000000	0.0
49	0x00000000	0.0
50	0x00000000	0.0
51	0x00000000	0.0
52	0x00000000	0.0
53	0x00000000	0.0
54	0x00000000	0.0
55	0x00000000	0.0
56	0x00000000	0.0
57	0x00000000	0.0
58	0x00000000	0.0
59	0x00000000	0.0
60	0x00000000	0.0
61	0x00000000	0.0
62	0x00000000	0.0
63	0x00000000	0.0

net.layer3.1.running_var f4 [64]
0	0x3f800000	1.0
1	0x3f800000	1.0
2	0x3f800000	1.0
3	0x3f800000	1.0
4	0x3f800000	1.0
5	0x3f800000	1.0
6	0x3f800000	1.0
7	0x3f800000	1.0
8	0x3f800000	1.0
9	0x3f800000	1.0
10	0x3f800000	1.0
11	0x3f800000	1.0
12	0x3f800000	1.0
13	0x3f800000	1.0
14	0x3f800000	1.0
15	0x3f800000	1.0
16	0x3f800000	1.0
17	0x3f800000	1.0
18	0x3f800000	1.0
19	0x3f800000	1.0
20	0x3f800000	1.0
21	0x3f800000	1.0
22	0x3f800000	1.0
23	0x3f800000	1.0
24	0x3f800000	1.0
25	0x3f800000	1.0
26	0x3f800000	1.0
27	0x3f800000	1.0
28	0x3f800000	1.0
29	0x3f800000	1.0
30	0x3f800000	1.0
31	0x3f800000	1.0
32	0x3f800000	1.0
33	0x3f800000	1.0
34	0x3f800000	1.0
35	0x3f800000	1.0
36	0x3f800000	1.0
37	0x3f800000	1.0
38	0x3f800000	1.0
39	0x3f800000	1.0
40	0x3f800000	1.0
41	0x3f800000	1.0
42	0x3f800000	1.0
43	0x3f800000	1.0
44	0x3f800000	1.0
45	0x3f800000	1.0
46	0x3f800000	1.0
47	0x3f800000	1.0
48	0x3f800000	1.0
49	0x3f800000	1.0
50	0x3f800000	1.0
51	0x3f800000	1.0
52	0x3f800000	1.0
53	0x3f800000	1.0
54	0x3f800000	1.0
55	0x3f800000	1.0
56	0x3f800000	1.0
57	0x3f800000	1.0
58	0x3f800000	1.0
59	0x3f800000	1.0
60	0x3f800000	1.0
61	0x3f800000	1.0
62	0x3f800000	1.0
63	0x3f800000	1.0

net.layer4.0.weight f4 [64, 64, 3, 3]
0	0x3e628f72	0.22125033
1	0x3e819c82	0.25314718
2	0x3e04900e	0.12945578
3	0x3d3c1e44	0.0459273
4	0x3eaefd2c	0.3417753
5	0x3d6f725b	0.058458667
6	0xbdbb6267	-0.09149628
7	0x3c4ca17f	0.012489676
8	0x3de81268	0.11331636
9	0x3d80e309	0.062933035
10	0x3d801b1e	0.06255172
11	0x3d860b5b	0.06545135
12	0xbd17760c	-0.036977813
13	0x3d121a23	0.035669457
14	0xbce2bce7	-0.027677966
15	0xbd71a977	-0.058999505
16	0x3cca88b2	0.024723385
17	0xbd9fcc4c	-0.078026384
18	0xbab47f4d	-0.0013770849
19	0x3c3e175e	0.011602251
20	0x3c45f949	0.01208336
21	0xbb915d1d	-0.004436149
22	0x3c14a378	0.009072177
23	0x3b14f77c	0.002273052
24	0x3b2e5fd9	0.0026607423
25	0x3c102308	0.008797415
26	0xbb571f37	-0.0032825002
27	0x3c765b04	0.015036348
28	0x3bb0f50a	0.0054003047
29	0x3be74b73	0.007058555
30	0xbc48def5	-0.012260188
31	0x3c46c1dd	0.012131182
32	0xbc173bab	-0.009230535
33	0x3c337b8c	0.010954749
34	0xb8320195	-4.243998e-05
35	0x3bc969e9	0.0061466587
36	0xbd08f481	-0.033436302
37	0xbcc42850	-0.023945004
38	0xbdad1223	-0.08450725
39	0xbe0fd9d6	-0.14047942
40	0xbda16609	-0.0788079
41	0xbdb3e47e	-0.08783816
42	0xbe04bd62	-0.12962869
43	0xbd986c27	-0.074425034
44	0x3b965c44	0.0045886356
45	0x3c38bc82	0.0112754125
46	0xbb6f1b9b	-0.003648496
47	0x3b68af04	0.0035504708
48	0xbcf89299	-0.03034334
49	0x3b3a1cf8	0.0028398614
50	0x3bc06ddb	0.005872471
51	0xbc4eaf73	-0.012615073
52	0x3c2c4861	0.010515303
53	0xbb99ed3b	-0.0046974695
54	0x3c68c36f	0.014206751
55	0x3ce84b6b	0.028356275
56	0xbc667211	-0.0140652815
57	0x3c5fd7bf	0.013662278
58	0x3c74a876	0.014932742
59	0x3ccbb091	0.024864467
60	0x3d63fe7e	0.055662625
61	0x3d8090b6	0.062776014
62	0xbd2f97c0	-0.04286933
63	0x39fd2df4	0.00048290158
64	0xbbaee193	-0.005336949
65	0xbc7819a5	-0.015142833
66	0x3b1bdf54	0.0023784237
67	0xbc02e4e9	-0.007989147
68	0xbb8acf0f	-0.004236109
69	0x3b918bfe	0.004441737
70	0xbb4df2c8	-0.0031425226
71	0x3b213418	0.00245977
72	0x3e1e4109	0.15454496
73	0xbdbbfb0b	-0.09178742
74	0xbda2070c	-0.079115
75	0xbb00029a	-0.00195328
76	0x3c13730d	0.008999598
77	0x3e005087	0.12530719
78	0xbc98d9b7	-0.018658502
79	0x3cf43451	0.029810103
80	0xbda36706	-0.079786345
81	0x3bb0e5e5	0.0053984993
82	0x3b657aee	0.0035015899
83	0xbbd074bb	-0.0063615716
84	0xbbe85e9e	-0.0070913574
85	0xbbb46ea4	-0.0055063535
86	0xbb9c62c5	-0.0047725164
87	0xbb806e7c	-0.0039194208
88	0x3c3b1902	0.011419537
89	0xbb6328f9	-0.0034661873
90	0x3c903e34	0.017607786
91	0xbbdf132c	-0.0068077054
92	0xbb28d791	-0.0025763253
93	0xbb8a5262	-0.0042212466
94	0xbb8360de	-0.00400935
95	0x3acf40f6	0.0015812207
96	0x3b9d15d6	0.004793863
97	0xbb8e3d45	-0.0043408
98	0xbb82edc9	-0.0039956314
99	0x3b892d6c	0.004186323
100	0xbb86d83b	-0.004115132
101	0xbb88c935	-0.0041743764
102	0xbc12423d	-0.008926925
103	0x3c4755e9	0.012166479
104	0x3b5e0cc2	0.0033882116
105	0x3c6af6e1	0.014341087
106	0x3b9eb284	0.004843058
107	0x3b837efc	0.0040129405
108	0xbd97cea6	-0.07412462
109	0xbbef0729	-0.0072945547
110	0x3cf177c0	0.029476047
111	0x3d0954f5	0.033528287
112	0xbbed6645	-0.0072448575
113	0x3c8e3010	0.017356902
114	0xbdbdf560	-0.09275317
115	0x3cf9fe36	0.030516725
116	0x3c950fd0	0.018196017
117	0x3caf73b6	0.02141748
118	0xbcbf515c	-0.023354225
119	0xbda1b1af	-0.078952186
120	0xbc4c5ee8	-0.012473799
121	0x3a345b26	0.0006880037
122	0x3ca54764	0.020175643
123	0x3da726c0	0.08161688
124	0x3d289135	0.041154105
125	0xbacb9606	-0.0015532381
126	0x3d785d64	0.06063594
127	0x3c0937dc	0.008375134
128	0x3cd11b8c	0.02552583
129	0xbcd1be1c	-0.025603347
130	0x3d180745	0.037116308
131	0x3c59418e	0.013260258
132	0xbd26e995	-0.040750105
133	0x3d006e64	0.031355277
134	0xbd760268	-0.06006089
135	0xbd0f0a63	-0.034922015
136	0xbd8703bb	-0.065925084
137	0xbd7e4fb1	-0.06208772
138	0xbbd9090c	-0.006623393
139	0xbd6660ca	-0.05624465
140	0x3d4856f0	0.048911035
141	0x3c4d4a93	0.012529987
142	0xbc34a0f6	-0.011024704
143	0xbd1ca0fb	-0.03823946
144	0xbc335691	-0.010945932
145	0x3c860f21	0.016364636
146	0x3c0c852e	0.008576674
147	0x3c17ae6d	0.009257895
148	0xbadd5d63	-0.0016888793
149	0xbbef8971	-0.0073100855
150	0x3c8435de	0.016138967
151	0xbaa6090c	-0.0012667491
152	0x3c45a4f8	0.012063257
153	0x3be4522a	0.0069678025
154	0x3c9e5811	0.019329103
155	0xbc8ced23	-0.01720292
156	0x3e59b09a	0.21258774
157	0xbdbbfa19	-0.09178562
158	0xbe002e92	-0.12517765
159	0xbd3744cb	-0.04474334
160	0xbc77f450	-0.015133932
161	0xbda15dd0	-0.078792214
162	0x3bf20fa3	0.007387118
163	0x3bf4843d	0.007462053
164	0xbb503514	-0.0031769918
165	0x3b95f001	0.00457573
166	0xb8b1fd5d	-8.48721e-05
167	0xbbe67d33	-0.007033968
168	0x3ba8523a	0.0051367553
169	0x3c6530a0	0.013988644
170	0x3cbcf187	0.023064388
171	0xba4961f3	-0.0007682137
172	0x3d58e122	0.05294908
173	0xbd5b02e6	-0.05346956
174	0xbcfb454b	-0.03067269
175	0x3ccc0df0	0.02490899
176	0x3d97e66e	0.07416998
177	0x3b93d39e	0.0045113107
178	0xbbbe3797	-0.0058049667
179	0x3d0afc11	0.033931796
180	0xbcbafb50	-0.022824913
181	0xbd0d0f5a	-0.03443847
182	0xbdbafa56	-0.09129779
183	0x3e33c394	0.17555076
184	0xbe0f6750	-0.14004254
185	0xbdc9a3fc	-0.09845731
186	0x3d8fcb6f	0.07021224
187	0xbdb56580	-0.0885725
188	0xbdab18a2	-0.08354308
189	0x3d52b620	0.05144322
190	0x3c95b1c9	0.018273251
191	0xbc99e18d	-0.018784309
192	0x3d7a18c0	0.06105876
193	0xbd1cbd43	-0.03826643
194	0xbd7c4242	-0.061586626
195	0x3d402fe7	0.046920683
196	0x3c7d67ec	0.015466671
197	0xbca9d360	-0.020730674
198	0xbb263f91	-0.0025367478
199	0xbc81822a	-0.015809137
200	0xbc42e4ce	-0.011895372
201	0x3c1e4d4c	0.009661984
202	0x3c3448c9	0.011003681
203	0xbc041ea2	-0.008063944
204	0xbc212e46	-0.009837693
205	0xbbe09515	-0.0068537095
206	0x3bc77000	0.0060863495
207	0xbcbd83e6	-0.023134183
208	0x3d55ea6e	0.052225523
209	0x3da93373	0.08261766
210	0x3d127913	0.035759997
211	0xbca0f7f9	-0.019649493
212	0x3daf2e7f	0.0855379
213	0x3d798a15	0.0609227
214	0x3d4ef564	0.05052699
215	0x3dd7276a	0.105055645
216	0x3ceaf24f	0.028679995
217	0xbbd97b2e	-0.0066369986
218	0xbb17b5f7	-0.002314923
219	0x3c1b7392	0.009488003
220	0x3c1576fc	0.009122606
221	0xbb94e109	-0.004543428
222	0x3ab3aca6	0.001370807
223	0xbc399aad	-0.0113283815
224	0xbbdc8a97	-0.0067303884
225	0x3c9e4561	0.019320192
226	0xbdb0a906	-0.08625989
227	0x3d8065bd	0.06269405
228	0xbd370ec1	-0.044691805
229	0xbd6d5134	-0.05793877
230	0xbce1f2a2	-0.027581517
231	0xbd507ef8	-0.050902337
232	0xbd310d19	-0.04322538
233	0xbd1265fe	-0.0357418
234	0x3e0931dc	0.13397926
235	0x3d0a12d2	0.033709355
236	0x3ce04c42	0.027380113
237	0xbc9c50cd	-0.019081498
238	0x3d3e7e3d	0.04650711
239	0xbc875a6d	-0.01652261
240	0x3da51652	0.08060898
241	0xbd473a19	-0.04863939
242	0xbd9c746a	-0.07639392
243	0x3d4f6b0b	0.050639194
244	0xbcd31ef5	-0.025771597
245	0x3d3d02a3	0.046145093
246	0xbd350ff7	-0.04420468
247	0xbdd7183e	-0.10502671
248	0xbacc2d90	-0.0015577544
249	0x3cd17ba5	0.025571654
250	0xbd906210	-0.07049954
251	0xbd343364	-0.043994322
252	0x3c221a93	0.009894031
253	0xbac0fccb	-0.0014723776
254	0x3b695c7a	0.00356081
255	0xba200c0c	-0.0006105311

net.layer4.0.bias f4 [64]
0	0xbd63795c	-0.05553566
1	0xbce5a5de	-0.028033193
2	0xbd718289	-0.05896238
3	0xbcc25e46	-0.023726594
4	0xbdd89c52	-0.10576691
5	0x3c4089a2	0.011751564
6	0xbcd42509	-0.025896566
7	0xbcf02988	-0.029316679
8	0x3c4d1e56	0.01251944
9	0x3a879996	0.0010345455
10	0x3d1927d5	0.037391502
11	0xbc26e8a2	-0.0101873
12	0xbce7c436	-0.028291803
13	0xbd1fbb7c	-0.03899716
14	0xbd0a7b74	-0.03380914
15	0xbce103c0	-0.027467608
16	0x3bbefcd8	0.005828481
17	0x3d7ee9a8	0.06223455
18	0x3cd64caf	0.026159612
19	0xbd1f0f4d	-0.03883295
20	0xbb8ad19b	-0.0042364127
21	0x3cc047cb	0.023471734
22	0xbae8d6ca	-0.0017764207
23	0xbdcf139a	-0.101111606
24	0x3c81806b	0.015808305
25	0x3cb9d946	0.022686612
26	0xbd8c5e42	-0.06853916
27	0xbcc2e937	-0.023792846
28	0x3cf9b915	0.030483762
29	0x3cd1e291	0.02562073
30	0x3b9f0306	0.0048526553
31	0x3bd9c372	0.0066456133
32	0x3cd50047	0.026001109
33	0xbd8f523f	-0.06998109
34	0x3d7acc03	0.061229717
35	0x3d9a76d0	0.07542193
36	0x3c968ab7	0.018376691
37	0x3ce8bcb5	0.028410295
38	0x3c95ef69	0.018302636
39	0x3cabedeb	0.020987472
40	0xbc494d48	-0.012286492
41	0xbc6abc68	-0.014327146
42	0xbd4eec4b	-0.050518315
43	0xbd2f752c	-0.042836353
44	0x3b7fa0fa	0.0039005862
45	0xbc9589a3	-0.018254107
46	0xbc1faae4	-0.009745333
47	0x3ca606c6	0.020266902
48	0x3d20de94	0.039274767
49	0xbcf92633	-0.030413723
50	0x3ae61f75	0.0017556982
51	0xbc97b27b	-0.018517723
52	0x3bb66d30	0.0055672154
53	0x3cbda39d	0.023149306
54	0xbc67a5d3	-0.014138657
55	0x3c20a339	0.00980454
56	0x3d3eedde	0.046613567
57	0x3c25d122	0.010120662
58	0x3d1c62ee	0.038180284
59	0xbce24b2e	-0.02762374
60	0xbcf71163	-0.030159658
61	0x3c403c43	0.0117331175
62	0xbc8307cc	-0.015994929
63	0xbcc9ff1f	-0.024657784
