old_mp/maml_omniglot_step3000_k_5_n_way20.pt (torch, 466194 bytes, 26 tensors)

net.layer1.0.weight f4 [64, 1, 3, 3]
0	0xbdc23945	-0.094835795
1	0x3dc82b41	0.09773875
2	0xbc828675	-0.015933255
3	0xbda74074	-0.0816659
4	0x3da8e102	0.08246042
5	0x3d019326	0.031634472
6	0x3e11a0a3	0.14221434
7	0x3cf27b81	0.029599907
8	0xbbc83194	-0.006109426
9	0xbd84181b	-0.0644991
10	0x3c30d19b	0.010792161
11	0x3d8805af	0.06641709
12	0x3dbed21d	0.0931742
13	0xbdb66341	-0.0890565
14	0xbcc6c5af	-0.024264185
15	0x3d9d5fac	0.076842636
16	0x3de1cac5	0.11025003
17	0xbda66d27	-0.08126288
18	0xbd9a0831	-0.07521094
19	0xbdaa5a2c	-0.0831798
20	0xbd327238	-0.04356596
21	0xbd9cb92f	-0.076525085
22	0x3d328203	0.04358102
23	0x3da8753d	0.082254864
24	0x3e0ebe2f	0.13939737
25	0x3dd98a1b	0.10622045
26	0xbd33e97b	-0.043923836
27	0xbc095fdd	-0.008384672
28	0xbc050968	-0.008119918
29	0xbca23bcf	-0.01980391
30	0xbc3e83f6	-0.011628142
31	0xbc250a99	-0.010073327
32	0xbd429a44	-0.0475104
33	0x3d20ecb6	0.039288245
34	0xbc69bbd8	-0.014265977
35	0x3e43b53a	0.19112101
36	0x3d85f349	0.065405436
37	0x3d0c3713	0.03423221
38	0x3d846c83	0.064660095
39	0x3d5aa11f	0.053376313
40	0xbd6781f5	-0.05652042
41	0x3d3dc1f8	0.04632756
42	0x3db10d76	0.086451456
43	0x3d4278d1	0.0474785
44	0x3da6db4d	0.08147297
45	0x3b6a09ca	0.00357114
46	0xbabefc88	-0.001457111
47	0xbdc79611	-0.0974542
48	0xbca67716	-0.020320456
49	0xbd4d48e1	-0.05011833
50	0x3e5cb246	0.21552381
51	0xbd830647	-0.06397682
52	0x3c63c164	0.013901088
53	0xbd3a7886	-0.045525096
54	0x3cc27861	0.023739042
55	0xbcfdb0bf	-0.030968068
56	0xbb933f1f	-0.0044936086
57	0x3db46434	0.08808175
58	0xbd7d4582	-0.061833866
59	0xbc94d4f6	-0.018167954
60	0x3c9e2a32	0.01930723
61	0x3db592d4	0.08865896
62	0x3d509f96	0.050933443
63	0x3d1920f8	0.037384957
64	0xbd950282	-0.07275869
65	0xbe085816	-0.13314852
66	0xbdbf16ac	-0.09330496
67	0xbd0bde02	-0.03414727
68	0xbd5461e8	-0.051851183
69	0xbc98e124	-0.018662043
70	0xbdf556a4	-0.11979416
71	0x3c7448f8	0.014909975
72	0x3e107f0e	0.14110968
73	0x3d22a58c	0.03970866
74	0xbdba33d0	-0.09091914
75	0xbd433737	-0.04766008
76	0xbd1ed628	-0.038778454
77	0xbd58ff0d	-0.05297761
78	0xbdc9126a	-0.09817965
79	0xbd759461	-0.05995596
80	0x3d331004	0.043716446
81	0x3e130c6b	0.14360206
82	0xbc4af026	-0.012386357
83	0x3d3aa30c	0.04556565
84	0x3cf0effd	0.02941131
85	0xbd847161	-0.06466938
86	0xbd43ef19	-0.047835443
87	0x3df12981	0.11775494
88	0xbca9d7af	-0.020732729
89	0x3cc78848	0.024356976
90	0xbbc183ab	-0.0059055886
91	0x3cd044b8	0.025423393
92	0xbbcf4566	-0.0063254116
93	0x3c8375fe	0.016047474
94	0xbe064a97	-0.13114391
95	0xbbd93bcb	-0.0066294423
96	0x3d9fe9c8	0.07808262
97	0x3d80fbf4	0.06298056
98	0x3db47fba	0.088134244
99	0x3d88e523	0.06684329
100	0x3d6f4f28	0.0584251
101	0xbdce47eb	-0.10072311
102	0x3d4ad714	0.04952152
103	0x3d8bde52	0.068295136
104	0x3e2e96b8	0.17049682
105	0xbd9b5f5c	-0.07586548
106	0xbb588456	-0.0033037863
107	0xbc4ce3ee	-0.012505515
108	0xbd0030fc	-0.031296715
109	0x3d900dd3	0.07033887
110	0xbd1c92fe	-0.03822612
111	0x3dbb619d	0.09149478
112	0x3da11d43	0.07866909
113	0xbdd31fd0	-0.10308802
114	0xbdedb429	-0.116066284
115	0x3e1a09b2	0.15042761
116	0x3db181e1	0.086673506
117	0x3dba99c4	0.0911136
118	0x3d02250c	0.031773612
119	0x3dc886c9	0.09791333
120	0xbd98393b	-0.07432791
121	0xbbd2e488	-0.0064359345
122	0xbdaa2b63	-0.083090566
123	0xbc2f3c56	-0.010695538
124	0x3d45e669	0.04831544
125	0xbbd4b157	-0.006490867
126	0x3d545475	0.051838357
127	0xbdaf0499	-0.08545799
128	0xbdae9854	-0.08525148
129	0xbcc6534c	-0.02420964
130	0x3bcfdd11	0.006343492
131	0xbcf85bfa	-0.030317295
132	0xbe1b71f2	-0.15180185
133	0xbdc46258	-0.0958907
134	0xbdb6e6c5	-0.089307345
135	0x3e4bc68a	0.19899955
136	0x3e1546b7	0.14577757
137	0xbd52cd87	-0.051465537
138	0xbca364a0	-0.019945443
139	0xbd4bc8f3	-0.049752187
140	0x3c612b2f	0.013743206
141	0xbd280964	-0.04102458
142	0xbb231383	-0.0024883456
143	0xbd2074ff	-0.039174076
144	0x3dc9aae6	0.098470494
145	0xbd0e4716	-0.03473576
146	0x3bf49cae	0.0074649667
147	0x3de5c935	0.11220018
148	0xbd9ff1ff	-0.07809829
149	0x3c03c584	0.008042697
150	0x3db8bc2f	0.09020268
151	0xbda98255	-0.08276812
152	0x3c050fec	0.008121472
153	0x3c6ad6f3	0.014333474
154	0xbda6daed	-0.081472255
155	0x3dc87bbd	0.09789226
156	0x3d934cec	0.07192406
157	0xbdada591	-0.08478845
158	0x3d5742c4	0.052553907
159	0xbcb6db0e	-0.02232125
160	0xbd845eda	-0.06463404
161	0x3de3b696	0.1111881
162	0x3dd95d8b	0.10613545
163	0x3db0fa8c	0.08641538
164	0x3df4d11c	0.11953947
165	0x3d0c3829	0.034233246
166	0xbdb3c357	-0.087774925
167	0x3b9bc500	0.004753709
168	0xbd41d8bb	-0.04732583
169	0x3bb2b1f1	0.005453341
170	0xbd068eda	-0.032851078
171	0xbd258845	-0.04041316
172	0xbdf3aeb1	-0.11898554
173	0xbd35e32a	-0.044406094
174	0xbe089d26	-0.13341197
175	0xbd964da2	-0.07339026
176	0xbdb98349	-0.09058244
177	0xbd7f1faa	-0.062286057
178	0x3c9e2eb7	0.019309385
179	0xbd37793f	-0.044793364
180	0xbd3114a8	-0.04323259
181	0x3d166658	0.036718696
182	0x3da8a250	0.08234084
183	0xbcbb7613	-0.02288345
184	0xbce0273d	-0.02736246
185	0x3d962952	0.073321
186	0x3bad9261	0.0052969907
187	0xbde7cf46	-0.11318831
188	0x3e0fc60b	0.14040391
189	0x3de4ea60	0.11177516
190	0xbda49db3	-0.08037891
191	0xbd4e8918	-0.05042371
192	0x3df75e00	0.12078476
193	0xbc45da5d	-0.012075988
194	0xbcacb890	-0.0210841
195	0xbc94665f	-0.01811522
196	0x3e2be62d	0.16787024
197	0xbd454ba0	-0.048167825
198	0x3e04c16b	0.12964408
199	0xbdc5d8e5	-0.0966051
200	0xbdf3cf56	-0.119047806
201	0x3cab2ab1	0.02089438
202	0xbdbe04f1	-0.09278286
203	0x3d79f104	0.061020866
204	0x3ce1a761	0.027545633
205	0x3d2375a2	0.039907105
206	0xbd814455	-0.063118614
207	0xbce2f184	-0.027703054
208	0x3d9276f7	0.07151597
209	0x3dd4df85	0.103941955
210	0x3d979c01	0.07402802
211	0x3c0786bb	0.008271868
212	0xbd56f597	-0.052480306
213	0x3d9f8319	0.07788677
214	0xbcd302dd	-0.025758201
215	0xbd76b297	-0.06022891
216	0xbcccc067	-0.024994088
217	0xbc92f608	-0.017939582
218	0xbb9228a8	-0.004460413
219	0x3d6dfcfe	0.0581026
220	0xbdbd5b58	-0.09245938
221	0xbd906e11	-0.070522435
222	0x3d951dea	0.07281096
223	0x3dd64407	0.10462194
224	0x3de68fd9	0.112579055
225	0x3db51c99	0.08843345
226	0xbd5c81a6	-0.05383458
227	0xbd3f5782	-0.046714313
228	0x3d18650b	0.037205737
229	0x3e2d202c	0.16906804
230	0xbd5b1bf0	-0.05349344
231	0xbd99f7d8	-0.075179756
232	0xbcf3a6b7	-0.029742582
233	0x3e173529	0.14766373
234	0x3bceb8b8	0.0063086413
235	0xbdf3422e	-0.11877857
236	0x3dfd2e83	0.12362387
237	0xbd8420a4	-0.06451538
238	0x3de58077	0.11206143
239	0x3d23f222	0.040025838
240	0x3d8ad9d0	0.06779826
241	0x3d291ba5	0.04128613
242	0xbd754185	-0.059876937
243	0xbd0dc74c	-0.034613892
244	0xbd97fe4c	-0.0742155
245	0x3e1cee0a	0.1532518
246	0xbc6d99a1	-0.01450196
247	0xbc710395	-0.014710327
248	0x3b8dc89d	0.0043268935
249	0x3d9a81dc	0.075443
250	0x3de33c52	0.110954896
251	0xbc950c8d	-0.018194461
252	0x3d85659a	0.065135196
253	0x3d821580	0.06351757
254	0xbdbabb1b	-0.09117719
255	0x3de5c234	0.11218682

net.layer1.0.bias f4 [64]
0	0xbe94d15f	-0.29065987
1	0xbdcd76d7	-0.100324325
2	0x3dcded70	0.10055053
3	0x3e93d79e	0.2887544
4	0xbce5e255	-0.028062025
5	0x3e1fc3d7	0.1560205
6	0xbd840cf7	-0.06447785
7	0x3e94ee25	0.2908794
8	0x3e4bc49e	0.19899222
9	0x3dcce7b6	0.10005133
10	0xbe970318	-0.29494548
11	0xbe1d3d62	-0.15355447
12	0xbd5a4cee	-0.053296022
13	0xbdf4e56d	-0.11957822
14	0xbdc8bf93	-0.09802165
15	0x3d8e304a	0.06942804
16	0xbe251edc	-0.16125053
17	0xbe92f338	-0.28701186
18	0xbdb58b53	-0.088644646
19	0x3e987522	0.29776865
20	0x3d9a1989	0.07524402
21	0x3e98379f	0.29729936
22	0x3e5658cc	0.20932311
23	0xbe959486	-0.29214877
24	0xbe027ac9	-0.12742151
25	0x3e1a6042	0.15075782
26	0x3e0b25ec	0.13588685
27	0xbe5402ed	-0.20704241
28	0xbd87cacd	-0.06630478
29	0x3da2f703	0.0795727
30	0xbe6fb6b4	-0.2340954
31	0xbe04b89e	-0.12961051
32	0xbe8a9c66	-0.27072448
33	0xbe45f0b6	-0.19330105
34	0x3e8cd1f9	0.27503946
35	0xbd9cba40	-0.07652712
36	0xbe80b15f	-0.25135323
37	0xbe8bad94	-0.27280867
38	0x3e3df618	0.18550909
39	0x3d7b50ee	0.061356477
40	0x3e51eace	0.20499727
41	0x3e8297cc	0.25506437
42	0x3a934b13	0.0011237584
43	0x3e35d49f	0.1775689
44	0xbd32fabb	-0.043696146
45	0x3dd5a25c	0.10431358
46	0x3e0b3ad1	0.13596655
47	0x3ea4a954	0.32160437
48	0xbe835070	-0.25647306
49	0x3dee872a	0.11646874
50	0x3e796f55	0.24358876
51	0x3d94a6f0	0.07258403
52	0xbe075097	-0.13214336
53	0x3ea9e367	0.33181307
54	0x3e8337f0	0.25628614
55	0xbe092ba9	-0.13395561
56	0x3d36dc8c	0.044643924
57	0x3e51f22e	0.2050254
58	0x3eaedb2b	0.34151587
59	0x3e8e30fd	0.2777175
60	0x3d75f6ab	0.060049694
61	0x3cfb18e0	0.03065151
62	0x3d6d818c	0.057984874
63	0x3e97aca3	0.296239

net.layer1.1.weight f4 [64]
0	0x3f98f3e8	1.1949434
1	0x3f69723a	0.9118992
2	0x3f66be72	0.90134346
3	0x3f6b694a	0.91957533
4	0x3fa03792	1.2516959
5	0x3f4ef3d7	0.8084082
6	0x3f98131e	1.1880834
7	0x3f514e9d	0.8176058
8	0x3f519d97	0.8188109
9	0x3f88ef9e	1.0698125
10	0x3f86f562	1.0543635
11	0x3f8dc60c	1.1076064
12	0x3f8ee6af	1.1164149
13	0x3f8008d5	1.0002695
14	0x3f4f76d1	0.81040674
15	0x3f64a46f	0.89313406
16	0x3f6706d5	0.902448
17	0x3f8ae8c3	1.0852283
18	0x3f97921e	1.1841466
19	0x3f300889	0.68763024
20	0x3f85dbe2	1.0457728
21	0x3f7ec4d1	0.9951907
22	0x3f3e54de	0.7434825
23	0x3f980264	1.187573
24	0x3f7f23bd	0.9966391
25	0x3f93688d	1.1516281
26	0x3fa1ac7c	1.2630763
27	0x3f86d219	1.0532867
28	0x3f626b0d	0.88444597
29	0x3f9558c7	1.1667718
30	0x3f8bfc1a	1.093631
31	0x3f6f190b	0.9339759
32	0x3faf4565	1.3693053
33	0x3f84b3c3	1.0367359
34	0x3f80581f	1.0026892
35	0x3f8bb23b	1.0913767
36	0x3f473c30	0.77826214
37	0x3fa2bc2b	1.2713674
38	0x3f8fd305	1.1236273
39	0x3f70ded8	0.9409003
40	0x3f8215a2	1.0162852
41	0x3fa7f795	1.3122431
42	0x3f745fd0	0.954587
43	0x3f4873bf	0.78301615
44	0x3f371e17	0.7153029
45	0x3f4b5c33	0.7943756
46	0x3f84219b	1.0322756
47	0x3fa4e98d	1.2883774
48	0x3f870cf7	1.0550832
49	0x3f879a42	1.0593951
50	0x3f82e5f7	1.022643
51	0x3f3dd936	0.7415956
52	0x3f9c3548	1.220376
53	0x3f46f67c	0.77719855
54	0x3f96633a	1.1749032
55	0x3f468291	0.7754298
56	0x3fa0821c	1.2539706
57	0x3f747498	0.9549041
58	0x3f494b34	0.78630376
59	0x3f79878e	0.97472465
60	0x3f692d97	0.9108519
61	0x3f959698	1.1686583
62	0x3f508567	0.81453556
63	0x3f832656	1.0246074

net.layer1.1.bias f4 [64]
0	0xbe84bef5	-0.2592694
1	0xbe11e135	-0.14246066
2	0xbe14faa3	-0.14548735
3	0x3d2d509b	0.0423132
4	0xbd0112e8	-0.03151217
5	0xbe8f91f4	-0.2804104
6	0xbe9663a7	-0.29372904
7	0xbe777099	-0.24164046
8	0xbeb1ea80	-0.34749222
9	0x3c2ad258	0.010426126
10	0xbe2b177c	-0.16708177
11	0xbe200ba5	-0.15629442
12	0xbdf54247	-0.11975532
13	0xbdad03e7	-0.0844801
14	0xbe75da50	-0.24009061
15	0xbd65794e	-0.05602389
16	0x3d38e6fd	0.045142163
17	0xbe4600d6	-0.19336256
18	0xbdfb5618	-0.122722805
19	0xbead9e21	-0.33909705
20	0xbb01bf87	-0.0019797997
21	0xbd86806e	-0.06567465
22	0xbdf04815	-0.117324986
23	0xbe9a2d46	-0.30112666
24	0xbcb73ca9	-0.022367792
25	0xbe28df8d	-0.16491528
26	0xbd8f9683	-0.0701113
27	0xbe2f5931	-0.17123868
28	0xbda45d0e	-0.08025561
29	0xbddc519c	-0.10757753
30	0xbdd7fa28	-0.105457604
31	0xbe032ed2	-0.1281083
32	0xbc80d1e9	-0.015725093
33	0x3d980860	0.074234724
34	0xbe7278db	-0.23678915
35	0xbdd29259	-0.1028182
36	0xbecc8bed	-0.39950505
37	0xbe94c04c	-0.2905296
38	0xbe125391	-0.1428969
39	0xbe686dc3	-0.22698121
40	0xbdfa267e	-0.12214373
41	0xbe92a7b6	-0.28643578
42	0xbd372802	-0.04471589
43	0xbea80769	-0.32818154
44	0xbeb7c3fe	-0.35891718
45	0xbe74f207	-0.23920451
46	0x3a7f5428	0.0009740018
47	0xbe7f274a	-0.24917331
48	0xbe338d08	-0.17534268
49	0xbe3c59b1	-0.1839359
50	0xbea64763	-0.3247634
51	0xbe780259	-0.24219646
52	0xbc046819	-0.008081459
53	0xbe6ea94a	-0.23306766
54	0xbd332305	-0.04373457
55	0xbee77027	-0.45202753
56	0xbdf22e53	-0.11825242
57	0xbdf47efb	-0.11938282
58	0xbeace534	-0.33768618
59	0xbe57ecd9	-0.21086444
60	0xbc2fe78f	-0.01073636
61	0xbd58ece7	-0.052960303
62	0xbea067bb	-0.3132914
63	0xbd34ac3b	-0.044109564

net.layer1.1.running_mean f4 [64]
0	0x00000000	0.0
1	0x00000000	0.0
2	0x00000000	0.0
3	0x00000000	0.0
4	0x00000000	0.0
5	0x00000000	0.0
6	0x00000000	0.0
7	0x00000000	0.0
8	0x00000000	0.0
9	0x00000000	0.0
10	0x00000000	0.0
11	0x00000000	0.0
12	0x00000000	0.0
13	0x00000000	0.0
14	0x00000000	0.0
15	0x00000000	0.0
16	0x00000000	0.0
17	0x00000000	0.0
18	0x00000000	0.0
19	0x00000000	0.0
20	0x00000000	0.0
21	0x00000000	0.0
22	0x00000000	0.0
23	0x00000000	0.0
24	0x00000000	0.0
25	0x00000000	0.0
26	0x00000000	0.0
27	0x00000000	0.0
28	0x00000000	0.0
29	0x00000000	0.0
30	0x00000000	0.0
31	0x00000000	0.0
32	0x00000000	0.0
33	0x00000000	0.0
34	0x00000000	0.0
35	0x00000000	0.0
36	0x00000000	0.0
37	0x00000000	0.0
38	0x00000000	0.0
39	0x00000000	0.0
40	0x00000000	0.0
41	0x00000000	0.0
42	0x00000000	0.0
43	0x00000000	0.0
44	0x00000000	0.0
45	0x00000000	0.0
46	0x00000000	0.0
47	0x00000000	0.0
48	0x00000000	0.0
49	0x00000000	0.0
50	0x00000000	0.0
51	0x00000000	0.0
52	0x00000000	0.0
53	0x00000000	0.0
54	0x00000000	0.0
55	0x00000000	0.0
56	0x00000000	0.0
57	0x00000000	0.0
58	0x00000000	0.0
59	0x00000000	0.0
60	0x00000000	0.0
61	0x00000000	0.0
62	0x00000000	0.0
63	0x00000000	0.0

net.layer1.1.running_var f4 [64]
0	0x3f800000	1.0
1	0x3f800000	1.0
2	0x3f800000	1.0
3	0x3f800000	1.0
4	0x3f800000	1.0
5	0x3f800000	1.0
6	0x3f800000	1.0
7	0x3f800000	1.0
8	0x3f800000	1.0
9	0x3f800000	1.0
10	0x3f800000	1.0
11	0x3f800000	1.0
12	0x3f800000	1.0
13	0x3f800000	1.0
14	0x3f800000	1.0
15	0x3f800000	1.0
16	0x3f800000	1.0
17	0x3f800000	1.0
18	0x3f800000	1.0
19	0x3f800000	1.0
20	0x3f800000	1.0
21	0x3f800000	1.0
22	0x3f800000	1.0
23	0x3f800000	1.0
24	0x3f800000	1.0
25	0x3f800000	1.0
26	0x3f800000	1.0
27	0x3f800000	1.0
28	0x3f800000	1.0
29	0x3f800000	1.0
30	0x3f800000	1.0
31	0x3f800000	1.0
32	0x3f800000	1.0
33	0x3f800000	1.0
34	0x3f800000	1.0
35	0x3f800000	1.0
36	0x3f800000	1.0
37	0x3f800000	1.0
38	0x3f800000	1.0
39	0x3f800000	1.0
40	0x3f800000	1.0
41	0x3f800000	1.0
42	0x3f800000	1.0
43	0x3f800000	1.0
44	0x3f800000	1.0
45	0x3f800000	1.0
46	0x3f800000	1.0
47	0x3f800000	1.0
48	0x3f800000	1.0
49	0x3f800000	1.0
50	0x3f800000	1.0
51	0x3f800000	1.0
52	0x3f800000	1.0
53	0x3f800000	1.0
54	0x3f800000	1.0
55	0x3f800000	1.0
56	0x3f800000	1.0
57	0x3f800000	1.0
58	0x3f800000	1.0
59	0x3f800000	1.0
60	0x3f800000	1.0
61	0x3f800000	1.0
62	0x3f800000	1.0
63	0x3f800000	1.0

net.layer2.0.weight f4 [64, 64, 3, 3]
0	0xbd197729	-0.037467156
1	0xbdb29b65	-0.087210454
2	0xbde23e54	-0.110470444
3	0xbd287fb8	-0.041137427
4	0xbddaf592	-0.1069137
5	0xbdfb990b	-0.1228505
6	0x3d88f4f7	0.06687348
7	0x3e0236bd	0.12716193
8	0x3daa63b3	0.08319797
9	0xbda00dd7	-0.0781514
10	0xbd93ae4a	-0.072109774
11	0xbc625f90	-0.013816729
12	0xbd2c906a	-0.04212991
13	0xbbe579aa	-0.007003029
14	0x3b5c26e6	0.0033592521
15	0xbd82226d	-0.063542224
16	0x3b3d70ff	0.0028906462
17	0xbd8d7e87	-0.06908899
18	0xbd895de9	-0.06707365
19	0xbd39eadb	-0.04538999
20	0xbd8f565a	-0.06998892
21	0x3cfafcd7	0.030638142
22	0xbd7606c8	-0.06006506
23	0xbd625458	-0.055256218
24	0xbc253c6a	-0.010085205
25	0x3b6154c1	0.0034382793
26	0x3b94d8b5	0.004542435
27	0x3c509145	0.012729947
28	0xbba85c92	-0.0051379884
29	0x3c0db494	0.00864901
30	0x3d3bd0d7	0.045853462
31	0xbd8a09db	-0.06740161
32	0xbdacc472	-0.084359065
33	0x3d1a1d55	0.03762563
34	0x3c9c099e	0.019047555
35	0xbc1e0eaf	-0.0096470555
36	0x3d3ea40d	0.04654317
37	0x3d570728	0.05249706
38	0x3e0db64f	0.13839076
39	0x3dafd8c0	0.08586264
40	0x3c982f38	0.018577203
41	0x3a00f9de	0.00049200456
42	0x3d62536b	0.055255335
43	0x3c33e13c	0.010978993
44	0xbd6e19d7	-0.05813011
45	0xbdc88e2a	-0.09792741
46	0xbd26eb4c	-0.04075174
47	0xbd95cc46	-0.07314353
48	0xbd9bc4c2	-0.07605888
49	0xbdb1227c	-0.086491555
50	0xbdab643a	-0.08368726
51	0xbcc25528	-0.023722246
52	0xbdb47fa4	-0.08813408
53	0xbb6a4c01	-0.0035750868
54	0xbd797ddf	-0.060911056
55	0xbda62db5	-0.08114187
56	0xbde4cc94	-0.11171833
57	0xbc81f986	-0.015866052
58	0x3d4ce61d	0.05002414
59	0xbdd8bb8d	-0.105826475
60	0x3d592c67	0.05302086
61	0xbce5f73c	-0.028071992
62	0x3c491040	0.012271941
63	0x3d34ea5f	0.044168826
64	0x3d257431	0.040394012
65	0x3a4eab85	0.0007883835
66	0xbc866b92	-0.016408715
67	0x3d1de6b6	0.0385501
68	0xbd79d654	-0.060995415
69	0x3d358e66	0.044325255
70	0xbd399b86	-0.045314334
71	0xbdc9c571	-0.09852112
72	0xbc83238d	-0.016008163
73	0x3cfbb701	0.030726912
74	0xbd190105	-0.037354488
75	0x3d9c7f16	0.07641427
76	0xbd890c93	-0.066918515
77	0xbd1e3c4b	-0.03863172
78	0xbc3e103d	-0.011600551
79	0xbd1b600b	-0.03793339
80	0xbd296851	-0.04135925
81	0x3b9254ab	0.0044656596
82	0x3bcc8068	0.006240893
83	0x3ddde0fb	0.10833927
84	0xbd095a12	-0.033533163
85	0x3c815f97	0.015792651
86	0xbcd9c02c	-0.026580893
87	0x3d829a43	0.06377079
88	0xbc1cd21d	-0.009571579
89	0x3d1bdba3	0.03805126
90	0x3d08656f	0.03329986
91	0x3d9a02ea	0.07520087
92	0xbd5ac57d	-0.053410996
93	0xbc7de09b	-0.015495445
94	0x3d0e0254	0.03467019
95	0xbcafc43d	-0.021455878
96	0x3e04c5f4	0.12966138
97	0xbc734004	-0.0148468055
98	0xbda160f6	-0.07879822
99	0x3e112c4c	0.14177054
100	0x3dd7eb0a	0.10542877
101	0xbca89cb1	-0.020582529
102	0x3cb2d721	0.021831097
103	0xbc4eda72	-0.012625324
104	0xbd795678	-0.06087348
105	0xbdc8347c	-0.097756356
106	0xbd98fdac	-0.07470259
107	0xbe02e201	-0.12781526
108	0xbde2c8cd	-0.11073456
109	0xbd22d7bb	-0.039756518
110	0xbd17f202	-0.03709603
111	0xbcc7c420	-0.024385512
112	0xbcf53f23	-0.029937332
113	0x3ced29ed	0.028950656
114	0xbe2e1bc4	-0.17002779
115	0xbd2135fd	-0.039358128
116	0xbdcb996f	-0.099413745
117	0x3df7777b	0.12083336
118	0x3e0c3e34	0.13695604
119	0x3d25bf82	0.04046584
120	0x3cbff446	0.023431908
121	0x3cd13477	0.025537712
122	0xbd258d51	-0.040417973
123	0x3d56c0ec	0.05243008
124	0x3d2d871d	0.042365182
125	0xbda55eef	-0.08074748
126	0xbc98be9e	-0.01864558
127	0xbcff791b	-0.031185677
128	0x3d07ab53	0.033122372
129	0x3d9c6981	0.07637311
130	0x3c0be830	0.0085392445
131	0x3cf40253	0.029786265
132	0xbb97f211	-0.004637011
133	0x3cda043f	0.026613353
134	0x3ccc607b	0.02494835
135	0xbc1681b1	-0.009186194
136	0xbd4366d6	-0.047705494
137	0xbb8d6e60	-0.0043161362
138	0x3d033809	0.03203586
139	0xbd452479	-0.048130486
140	0xbda887bd	-0.08229015
141	0xbd83c4a9	-0.06433994
142	0x3c934656	0.017977875
143	0xbddf688b	-0.10908612
144	0xbd4e48f8	-0.050362557
145	0x3d40be9b	0.047056776
146	0xbc993d0d	-0.01870587
147	0x3c53184b	0.01288421
148	0x3d6d607d	0.057953347
149	0x3d3a2ad9	0.04545102
150	0xbcafcc40	-0.021459699
151	0x3b4e764c	0.0031503616
152	0x3b741185	0.0037241888
153	0xbdaba944	-0.08381894
154	0xbcf2a985	-0.029621849
155	0x3d952f61	0.072844274
156	0xbc1c3b3a	-0.009535605
157	0x3b81c263	0.0039599403
158	0xbc9c227b	-0.01905941
159	0x3d55da5f	0.052210208
160	0x3c8f4821	0.017490448
161	0xbcfd52a7	-0.0309232
162	0x3e722de0	0.23650312
163	0x3d880db2	0.06643237
164	0x3c88a3aa	0.016679604
165	0x3caffa14	0.021481551
166	0xbbbd0b5e	-0.0057691773
167	0xbd8c7b91	-0.06859506
168	0x3c654187	0.013992674
169	0x3c885f1a	0.01664691
170	0xbd6f18db	-0.058373313
171	0xbcb44286	-0.022004377
172	0xbc95c019	-0.018280076
173	0x3d66ecef	0.0563783
174	0xbd6d1d07	-0.05788901
175	0x3c96e783	0.01842094
176	0xbdb1fb2e	-0.08690487
177	0xbcf2fe5e	-0.029662307
178	0xbdc054e9	-0.09391195
179	0xbd454eb9	-0.04817078
180	0xbcb3408d	-0.021881366
181	0xbcb2fdbe	-0.02184951
182	0xbc73c8e7	-0.014879442
183	0x3d737136	0.05943414
184	0xbc98ad9a	-0.018637467
185	0xbc0db412	-0.008648889
186	0xbd8047a6	-0.06263666
187	0xbd3cdad5	-0.046107132
188	0xbddbb9b1	-0.10728777
189	0xbd771214	-0.060319975
190	0x3d8acc25	0.06777219
191	0xbc9e20b9	-0.019302713
192	0x3b3ee83c	0.0029130122
193	0x3dae267a	0.085034326
194	0xbd7de5fe	-0.061986916
195	0x3cf15464	0.029459186
196	0xbcc271ea	-0.02373596
197	0xbcec78c1	-0.028866174
198	0xbd17d7e4	-0.037071124
199	0xbdd79312	-0.10526098
200	0xbd57722b	-0.052599113
201	0xbdbad76a	-0.09123118
202	0x3c3f2680	0.011666894
203	0xbd578b0a	-0.052622832
204	0x3c12f211	0.008968846
205	0x3b4d837a	0.0031358884
206	0xbd5a4497	-0.05328807
207	0xbc970744	-0.018436082
208	0x3d812c08	0.063072264
209	0x3d026534	0.031834796
210	0xbd118392	-0.035525866
211	0xb6b7c68d	-5.4769394e-06
212	0xbd1879e0	-0.037225604
213	0xbb92c176	-0.0044786287
214	0xbd8e69d9	-0.069537826
215	0xbc757408	-0.014981277
216	0xbd486bb6	-0.048930846
217	0xbd17ba8c	-0.03704314
218	0x3b9c2c0c	0.004765993
219	0x3db1d9fb	0.086841546
220	0xbb8142e0	-0.0039447397
221	0xbdee4a41	-0.116352566
222	0x3e02808d	0.1274435
223	0xbc270f6d	-0.010196549
224	0xbd953cf3	-0.07287016
225	0x3dd34776	0.103163645
226	0x3bfd215c	0.007724924
227	0xbd16ce41	-0.036817793
228	0x3d7baf9f	0.061446782
229	0x3d96ca6d	0.073628284
230	0xbda24d0c	-0.07924852
231	0xbd8c4e58	-0.068508804
232	0xbcc4bd53	-0.024016058
233	0x3cc8df92	0.02452067
234	0xbd118ad1	-0.035532776
235	0xbbd42c62	-0.0064750174
236	0xbb9f3509	-0.004858617
237	0x3d5fad02	0.054608352
238	0x3c4f4003	0.012649539
239	0xbc617033	-0.013759661
240	0x3da672ad	0.081273414
241	0x3d6707d7	0.05640396
242	0x3bc092ea	0.0058768885
243	0x3d91212d	0.07086406
244	0x3d9743b9	0.07385964
245	0xbdad04bc	-0.08448169
246	0x3de24cea	0.110498264
247	0x3d8a7b74	0.06761828
248	0x3caca5f0	0.021075219
249	0x3e37cf06	0.17950067
250	0x3d4e88ff	0.05042362
251	0xbd449d1c	-0.048001394
252	0x3ba3e7d3	0.005002001
253	0xbd41b864	-0.04729499
254	0xbce6ba99	-0.028165149
255	0xbcc581d6	-0.024109762

net.layer2.0.bias f4 [64]
0	0x3bc5f99d	0.006041719
1	0xbd097020	-0.033554196
2	0xbd08b8dd	-0.033379424
3	0xbd11705d	-0.03550755
4	0x3b5d4f49	0.0033769181
5	0x3bba6854	0.0056887064
6	0x3cd25602	0.025675777
7	0xbc81294f	-0.015766768
8	0xbcdfbda7	-0.027312113
9	0xbcde58f6	-0.02714203
10	0x3d2210a0	0.039566636
11	0xbb42469e	-0.0029644142
12	0x3cf09f56	0.029372852
13	0xbc81b6d1	-0.015834244
14	0xbc919143	-0.017769461
15	0xbcd43e00	-0.02590847
16	0xbd2497d7	-0.04018387
17	0x3cc057c9	0.02347936
18	0xbc4056d0	-0.011739448
19	0xbce731d4	-0.028222002
20	0x3d2a25f2	0.041540094
21	0xba23873e	-0.0006238109
22	0x3bb70f2f	0.005586527
23	0x3c224320	0.009903699
24	0x3d2244ee	0.039616518
25	0xb9e9a4cb	-0.00044564003
26	0xbbb1d4dd	-0.0054269866
27	0xbc9bec97	-0.019033713
28	0xbaab0f56	-0.0013050835
29	0x3cb30d9f	0.021857081
30	0xbc67df33	-0.014152336
31	0xbcef7ed3	-0.02923528
32	0x3b69df53	0.003568609
33	0xbba05796	-0.0048932536
34	0xbaf806ac	-0.0018922887
35	0x3a959c91	0.0011414458
36	0xbd164913	-0.036690783
37	0x3c83e1bc	0.01609885
38	0x3d09772d	0.03356092
39	0x3860f269	5.3631524e-05
40	0x3d04b889	0.03240255
41	0x3c9960e2	0.018722955
42	0xbd26a221	-0.040681962
43	0x3cb4edc5	0.022086034
44	0xbd09526d	-0.033525873
45	0x3c9cc0fc	0.01913499
46	0x3cd3ad4f	0.025839476
47	0x3c7f1083	0.015567902
48	0x3d2ea503	0.042637836
49	0xbd09607d	-0.033539284
50	0x3c949e4b	0.018141886
51	0x3c7bb414	0.015362758
52	0x3cedc683	0.029025322
53	0x3cb4b5d6	0.022059362
54	0x3d02d1e1	0.031938437
55	0x3cdf93f9	0.027292239
56	0xbd26f6f7	-0.040762868
57	0xbd0ec8e1	-0.03485954
58	0x3cb77365	0.022393892
59	0x3afb4b76	0.0019172269
60	0x3cc260f1	0.023727866
61	0x3cd8d578	0.026468977
62	0x3cc60c0f	0.024175672
63	0xbd0c4f8e	-0.034255557

net.layer2.1.weight f4 [64]
0	0x3f8741b3	1.0566925
1	0x3f82ce42	1.0219195
2	0x3f5152d7	0.8176703
3	0x3f98d27c	1.1939235
4	0x3f88bd89	1.0682842
5	0x3f75128e	0.9573144
6	0x3f63c9d6	0.8897985
7	0x3f5932a4	0.84842896
8	0x3f8fd1a5	1.1235853
9	0x3f8feffd	1.1245114
10	0x3f9b4602	1.213074
11	0x3f6160e5	0.88038474
12	0x3f75dac9	0.96036965
13	0x3f72f4a3	0.94904536
14	0x3f8b8c63	1.0902218
15	0x3f58cbf3	0.846862
16	0x3f91ce89	1.1391155
17	0x3f8e0cc2	1.1097643
18	0x3f714e53	0.9426014
19	0x3f9528c0	1.1653061
20	0x3f86a14d	1.0517975
21	0x3f79bc63	0.9755308
22	0x3f72515c	0.94655395
23	0x3f7e2a6c	0.9928348
24	0x3f68f4f2	0.90998757
25	0x3f65aecc	0.89719844
26	0x3f8273ba	1.0191567
27	0x3f8d319f	1.1030768
28	0x3f7e5056	0.9934133
29	0x3f6d02ab	0.92582196
30	0x3f5e9bc5	0.86956435
31	0x3f67f179	0.90602833
32	0x3f6633ce	0.899228
33	0x3f743cf4	0.9540551
34	0x3f63b4a0	0.88947487
35	0x3f83ef2f	1.0307368
36	0x3f9f04ac	1.2423301
37	0x3f64a84f	0.8931932
38	0x3f6c0dd4	0.922086
39	0x3f902ba7	1.1263322
40	0x3f622f68	0.88353586
41	0x3f818633	1.0119079
42	0x3f83ee38	1.0307074
43	0x3f5a5091	0.85279185
44	0x3f69788e	0.91199577
45	0x3f72c4f3	0.9483177
46	0x3f7fbe15	0.9989942
47	0x3f82a7b9	1.0207435
48	0x3f7fa18f	0.99855894
49	0x3f894f22	1.0727274
50	0x3f8232fe	1.0171812
51	0x3f6385a0	0.8887577
52	0x3f54c5a8	0.831141
53	0x3f6182ce	0.8809022
54	0x3f5f1aac	0.87150073
55	0x3f6ac2f0	0.917037
56	0x3f67fa6f	0.90616506
57	0x3f7742cc	0.965863
58	0x3f5ce8fc	0.86293006
59	0x3f549fc7	0.830563
60	0x3f87c26c	1.0606208
61	0x3f65001b	0.89453286
62	0x3f9a2d35	1.2045046
63	0x3f83a090	1.0283375

net.layer2.1.bias f4 [64]
0	0xbe7f8c2a	-0.24955812
1	0x3d37d805	0.044883747
2	0xbe9a2e9b	-0.30113682
3	0xbe334cbf	-0.17509745
4	0xbdbe3efc	-0.09289357
5	0xba905348	-0.0011011148
6	0xbddc0faa	-0.10745175
7	0xbeb17be2	-0.34664828
8	0xbe4fa3b8	-0.20277297
9	0xbe6054d5	-0.21907361
10	0xbd824bb5	-0.06362096
11	0xbe9afc02	-0.30270392
12	0xbe708b57	-0.23490654
13	0xbeb422bc	-0.3518275
14	0xbddd95fb	-0.10819622
15	0xbe90117d	-0.28138342
16	0xbe052fd1	-0.13006522
17	0x3e1a57d8	0.15072572
18	0xbd4a66f7	-0.0494146
19	0x3e2a43fe	0.166275
20	0xbe83f954	-0.2577616
21	0xbec8ea6a	-0.39241344
22	0xbda9dd5d	-0.08294175
23	0xbd81b677	-0.063336305
24	0xbe053d04	-0.13011557
25	0xbc3e8104	-0.011627439
26	0xbe07f6ff	-0.13277815
27	0x3ddd4935	0.10804979
28	0xbdc6dd2c	-0.09710154
29	0xbe3ae5d1	-0.1825173
30	0xbd6bca37	-0.057565894
31	0xbeafc1de	-0.34327596
32	0xbdd0d87e	-0.101975426
33	0xbed14cef	-0.40879008
34	0xbe891a6e	-0.26777977
35	0xbe6d8680	-0.23195839
36	0xbd6387e9	-0.055549536
37	0xbd85d3c2	-0.0653453
38	0xbde7c042	-0.11315967
39	0x3d3a0b40	0.045420885
40	0xbe0b53dc	-0.13606209
41	0xbe19a36f	-0.15003751
42	0xbe25ae41	-0.16179754
43	0xbe470912	-0.19437054
44	0xbdfdbb35	-0.123892225
45	0xbe5a6576	-0.21327767
46	0xbcc5c4ef	-0.024141757
47	0xbe51b146	-0.2047778
48	0xbe179d64	-0.14806134
49	0xbbc2a045	-0.005939516
50	0xbd8ffefe	-0.07031058
51	0xbe68013b	-0.2265672
52	0xbe766da0	-0.24065256
53	0xbe979918	-0.2960899
54	0xbe14ee57	-0.14544044
55	0xbe7c77e3	-0.24655108
56	0x3d8674aa	0.06565221
57	0xbdcb0295	-0.09912602
58	0xbddd8da6	-0.10818033
59	0x3bf8d780	0.007594049
60	0xbd94e06a	-0.07269366
61	0xbcfe91d8	-0.031075403
62	0xbe1a89fc	-0.150917
63	0xbe37aa95	-0.17936166

net.layer2.1.running_mean f4 [64]
0	0x00000000	0.0
1	0x00000000	0.0
2	0x00000000	0.0
3	0x00000000	0.0
4	0x00000000	0.0
5	0x00000000	0.0
6	0x00000000	0.0
7	0x00000000	0.0
8	0x00000000	0.0
9	0x00000000	0.0
10	0x00000000	0.0
11	0x00000000	0.0
12	0x00000000	0.0
13	0x00000000	0.0
14	0x00000000	0.0
15	0x00000000	0.0
16	0x00000000	0.0
17	0x00000000	0.0
18	0x00000000	0.0
19	0x00000000	0.0
20	0x00000000	0.0
21	0x00000000	0.0
22	0x00000000	0.0
23	0x00000000	0.0
24	0x00000000	0.0
25	0x00000000	0.0
26	0x00000000	0.0
27	0x00000000	0.0
28	0x00000000	0.0
29	0x00000000	0.0
30	0x00000000	0.0
31	0x00000000	0.0
32	0x00000000	0.0
33	0x00000000	0.0
34	0x00000000	0.0
35	0x00000000	0.0
36	0x00000000	0.0
37	0x00000000	0.0
38	0x00000000	0.0
39	0x00000000	0.0
40	0x00000000	0.0
41	0x00000000	0.0
42	0x00000000	0.0
43	0x00000000	0.0
44	0x00000000	0.0
45	0x00000000	0.0
46	0x00000000	0.0
47	0x00000000	0.0
48	0x00000000	0.0
49	0x00000000	0.0
50	0x00000000	0.0
51	0x00000000	0.0
52	0x00000000	0.0
53	0x00000000	0.0
54	0x00000000	0.0
55	0x00000000	0.0
56	0x00000000	0.0
57	0x00000000	0.0
58	0x00000000	0.0
59	0x00000000	0.0
60	0x00000000	0.0
61	0x00000000	0.0
62	0x00000000	0.0
63	0x00000000	0.0

net.layer2.1.running_var f4 [64]
0	0x3f800000	1.0
1	0x3f800000	1.0
2	0x3f800000	1.0
3	0x3f800000	1.0
4	0x3f800000	1.0
5	0x3f800000	1.0
6	0x3f800000	1.0
7	0x3f800000	1.0
8	0x3f800000	1.0
9	0x3f800000	1.0
10	0x3f800000	1.0
11	0x3f800000	1.0
12	0x3f800000	1.0
13	0x3f800000	1.0
14	0x3f800000	1.0
15	0x3f800000	1.0
16	0x3f800000	1.0
17	0x3f800000	1.0
18	0x3f800000	1.0
19	0x3f800000	1.0
20	0x3f800000	1.0
21	0x3f800000	1.0
22	0x3f800000	1.0
23	0x3f800000	1.0
24	0x3f800000	1.0
25	0x3f800000	1.0
26	0x3f800000	1.0
27	0x3f800000	1.0
28	0x3f800000	1.0
29	0x3f800000	1.0
30	0x3f800000	1.0
31	0x3f800000	1.0
32	0x3f800000	1.0
33	0x3f800000	1.0
34	0x3f800000	1.0
35	0x3f800000	1.0
36	0x3f800000	1.0
37	0x3f800000	1.0
38	0x3f800000	1.0
39	0x3f800000	1.0
40	0x3f800000	1.0
41	0x3f800000	1.0
42	0x3f800000	1.0
43	0x3f800000	1.0
44	0x3f800000	1.0
45	0x3f800000	1.0
46	0x3f800000	1.0
47	0x3f800000	1.0
48	0x3f800000	1.0
49	0x3f800000	1.0
50	0x3f800000	1.0
51	0x3f800000	1.0
52	0x3f800000	1.0
53	0x3f800000	1.0
54	0x3f800000	1.0
55	0x3f800000	1.0
56	0x3f800000	1.0
57	0x3f800000	1.0
58	0x3f800000	1.0
59	0x3f800000	1.0
60	0x3f800000	1.0
61	0x3f800000	1.0
62	0x3f800000	1.0
63	0x3f800000	1.0

net.layer3.0.weight f4 [64, 64, 3, 3]
0	0xbd687034	-0.05674763
1	0xbd1c3e67	-0.03814545
2	0x3cae63e8	0.021287873
3	0xbdcf94eb	-0.10135826
4	0xbd2d5139	-0.042313788
5	0x3d00c1aa	0.031434692
6	0xbccd64b6	-0.025072437
7	0x3d388402	0.045047767
8	0xbd53bfcb	-0.05169658
9	0x3d3ea145	0.046540517
10	0x3cbc43fc	0.022981636
11	0x3c78f807	0.015195853
12	0xbc2f726d	-0.010708434
13	0x3c19e1ee	0.009392245
14	0x3d6c5a54	0.05770333
15	0x3cd3388e	0.025783803
16	0x3d056b10	0.032572806
17	0x3cb720d8	0.022354528
18	0xbbd249e8	-0.0064175017
19	0xbd5af122	-0.05345262
20	0x3c9db93b	0.019253364
21	0x3ba2b620	0.0049655586
22	0x3cc445b0	0.02395901
23	0xbcad0d01	-0.021124365
24	0xbd672b72	-0.056437917
25	0xbd2bca54	-0.041941002
26	0x3c6dd1ee	0.014515383
27	0xbd81fc1d	-0.06346915
28	0xbdb12dac	-0.08651289
29	0xbcf3694a	-0.029713292
30	0x3d26c0f7	0.04071137
31	0x3cbc5d42	0.022993688
32	0xbc2c616e	-0.010521276
33	0x3d34fb25	0.044184823
34	0x3cbc1d0f	0.022963075
35	0x3c8c3b1b	0.017118027
36	0x3d02c1f4	0.03192325
37	0x3c0955b5	0.008382251
38	0xbd3adc30	-0.045620143
39	0xbce9d8e0	-0.028545797
40	0xbb3bbdb5	-0.002864701
41	0x3c6d8ae4	0.014498446
42	0xbd9a1a2c	-0.07524523
43	0xbcb56662	-0.022143546
44	0x3bbf4628	0.0058372207
45	0x3c1a6163	0.009422633
46	0x3d2deba8	0.042461067
47	0x3d57622d	0.052583862
48	0x3d455202	0.048173912
49	0x3db02be4	0.086021215
50	0x3c99f156	0.018791836
51	0xbd5c7255	-0.053819973
52	0x3d1c51c0	0.0381639
53	0x3d45c0bc	0.04827951
54	0x3ce52538	0.027971849
55	0xbd967dfd	-0.07348249
56	0x3a82bfeb	0.0009975409
57	0xbd216ff5	-0.03941341
58	0xbcbbe57b	-0.022936573
59	0x3cafd67f	0.021464584
60	0x3d1fc8a0	0.03900969
61	0xbd8f024e	-0.069828615
62	0xbd0c7f4c	-0.034301087
63	0x3d5b5169	0.053544436
64	0xbc892f88	-0.016746297
65	0x3c02d2d1	0.007984833
66	0xbca61ccf	-0.020277409
67	0x3d82ff4b	0.063963495
68	0x3d4744a2	0.048649438
69	0xbd11918b	-0.03553919
70	0xbc5416c9	-0.0129448855
71	0xbc2c75a4	-0.010526095
72	0xbd8e26e4	-0.069410115
73	0xbd92f992	-0.07176508
74	0x3dda5a0e	0.10661708
75	0xbd3a7661	-0.04552305
76	0x3cfe48b6	0.03104053
77	0x3dd042dd	0.10169003
78	0xbcfa324d	-0.030541563
79	0xbdb810ca	-0.08987577
80	0x3dcabb8e	0.098990545
81	0x3dd2758c	0.102763265
82	0x3d3a0373	0.045413446
83	0x3ca316bb	0.0199083
84	0x3d66354c	0.05620317
85	0xbbde9403	-0.0067925467
86	0x3cfb0065	0.030639837
87	0xbcfec969	-0.0311019
88	0xbd37929b	-0.04481755
89	0x3cc571a0	0.024102032
90	0x3b66f7de	0.0035242955
91	0xbcd24dff	-0.025671957
92	0x3d75db2a	0.060023464
93	0xbd82cfac	-0.063872665
94	0xbd62185d	-0.055199016
95	0x3ca51883	0.02015329
96	0xbd80982c	-0.062790245
97	0xbd449ec8	-0.048002988
98	0xbd420df6	-0.047376595
99	0x3cd19152	0.02558199
100	0xbc19a7c8	-0.009378381
101	0x3d6d38e9	0.057915602
102	0xbab29a5b	-0.0013626324
103	0xbc508c4a	-0.01272876
104	0x3d85e82a	0.065384224
105	0xbb20e8ea	-0.002455289
106	0x3d00daa4	0.031458512
107	0x3d20d10d	0.039261866
108	0x3d41c371	0.047305528
109	0x3d4ae990	0.04953915
110	0x3d63e44b	0.05563764
111	0x3df2657b	0.11835762
112	0x3d7dc543	0.0619557
113	0x3d517950	0.051141083
114	0xbcebabed	-0.028768504
115	0xbda8b19d	-0.08237002
116	0xbd6bb2fd	-0.057543743
117	0x3cecad96	0.028891366
118	0x3d2c36b3	0.042044353
119	0xbc85b271	-0.016320439
120	0xbcc8c4f2	-0.024507973
121	0x3beab268	0.007162381
122	0xbd506b11	-0.050883356
123	0xbd4fba3e	-0.050714724
124	0xbc9f63c5	-0.019456754
125	0xbd75be00	-0.05999565
126	0x3d18fcc5	0.037350435
127	0xbd45427a	-0.0481591
128	0x3d94869f	0.072522394
129	0x3da22cfd	0.07918737
130	0x3d3886fc	0.045050606
131	0x3dd05f0f	0.10174381
132	0xbd94aae3	-0.072591566
133	0xbdd9efc5	-0.106414355
134	0xb963b902	-0.00021717328
135	0xbca1eeb6	-0.019767147
136	0xbc7d88fc	-0.015474554
137	0xbd0f07c5	-0.03491952
138	0xbd8d4c67	-0.06899338
139	0xbda43196	-0.0801727
140	0x396d85f5	0.00022651984
141	0xbd84639b	-0.06464311
142	0x3d08d842	0.033409365
143	0xbba65805	-0.0050764107
144	0x3d62eac4	0.05539967
145	0xbc031263	-0.007999989
146	0x3da4c29e	0.08044933
147	0x3e2d1b43	0.16904931
148	0x3e1fe102	0.15613177
149	0x3e2d6010	0.16931176
150	0x3c890385	0.016725311
151	0x3c3dd036	0.011585286
152	0xbc092359	-0.008370244
153	0xb8a74f61	-7.977966e-05
154	0x3cb48a44	0.022038586
155	0xbc37d75e	-0.011220781
156	0xbdbfc2ee	-0.09363352
157	0x3c393cab	0.011305968
158	0xbd1ecff3	-0.038772535
159	0xbc899f71	-0.01679966
160	0x3cb3a455	0.021928946
161	0xbc2f9390	-0.010716334
162	0xbcc1d23e	-0.023659822
163	0x3beb1028	0.007173557
164	0xbc6bdaf9	-0.014395469
165	0xbd99f284	-0.07516959
166	0xbc58f1fc	-0.013241287
167	0x3d414e7e	0.047193997
168	0x3ccebb7a	0.02523588
169	0xbcbfbb85	-0.023404846
170	0xbc6c9513	-0.014439839
171	0x3cfa20fc	0.030533306
172	0xb9973b20	-0.00028845016
173	0x3d9d7f1c	0.0769026
174	0xbd7e2327	-0.062045243
175	0xbd44f73c	-0.048087344
176	0xbca121d6	-0.019669455
177	0x3c269a8c	0.010168683
178	0xbdac3758	-0.084089935
179	0xbc212c55	-0.00983723
180	0x3db685ab	0.08912214
181	0xbd280b04	-0.04102613
182	0x3da5b295	0.080907024
183	0x3dba4de7	0.0909689
184	0xbd17a454	-0.03702195
185	0x3d9f12a8	0.0776723
186	0x3c393bad	0.011305732
187	0xbd9f7b01	-0.07787133
188	0x3da742e8	0.08167058
189	0xbcc703fa	-0.024293888
190	0xbd1804a8	-0.037113816
191	0xbd7e985b	-0.062157016
192	0xbd1140e1	-0.035462264
193	0x3caa3963	0.020779317
194	0xbd0ef60e	-0.034902625
195	0xbd6ce6cb	-0.05783729
196	0xbd1ee1f9	-0.038789723
197	0xbbe02f01	-0.006841541
198	0x3d723296	0.059130274
199	0x3cf00aa5	0.02930195
200	0xbc2350ac	-0.009967964
201	0x3da4958b	0.080363356
202	0x3dc003e0	0.09375739
203	0x3d05fba5	0.03271069
204	0x3cf52288	0.029923692
205	0x3d4d6c8e	0.050152354
206	0xbb9ffe02	-0.004882575
207	0xbd3aed61	-0.04563654
208	0x3cbe213d	0.023209209
209	0xbbd1c92e	-0.0064021563
210	0x3d71b017	0.059005823
211	0xbcbf2210	-0.023331672
212	0x3bc361d5	0.00596259
213	0x3d0873e8	0.03331366
214	0xbd08b9c0	-0.03338027
215	0x3d574a0f	0.052560862
216	0xbd965fa3	-0.0734246
217	0xbd81885a	-0.06324835
218	0xbd469a88	-0.048487216
219	0x3c9faadf	0.019490657
220	0xbcd1dc81	-0.02561784
221	0x3c9b4de5	0.018958041
222	0xbce341ec	-0.027741395
223	0xbe098e44	-0.13433176
224	0xbdc95a21	-0.09831644
225	0xbcb8d1af	-0.022560922
226	0x3d7e3578	0.06206271
227	0x39a0616a	0.00030590157
228	0xbc9fc824	-0.019504614
229	0x3c84c37e	0.0162065
230	0x3d0e37bf	0.034721132
231	0x398cfe42	0.00026892318
232	0x3d3e799a	0.046502687
233	0x3cd3a159	0.025833772
234	0x3cc2964b	0.023753306
235	0x3c214c27	0.009844816
236	0x3c0044e9	0.007828929
237	0xbd00ca55	-0.03144296
238	0xbd56ce85	-0.052443046
239	0xbc8ce028	-0.01719673
240	0x3d1cf320	0.0383178
241	0xbd20bd49	-0.039243016
242	0x3c83e389	0.016099708
243	0xbd6f8dbd	-0.05848478
244	0xbb5822f6	-0.0032979823
245	0xbc500d28	-0.012698449
246	0xbd42a989	-0.047524963
247	0x3cc46099	0.023971843
248	0x3ca9032b	0.020631393
249	0x3c9d23a3	0.019182032
250	0x3dbceccc	0.09224853
251	0x3e046b86	0.12931642
252	0xbd167e97	-0.03674182
253	0xbd1be922	-0.03806413
254	0xba317df4	-0.00067707826
255	0xbdcd0794	-0.10011211

net.layer3.0.bias f4 [64]
0	0xbcb507f1	-0.022098513
1	0x3d2030d7	0.039109077
2	0x3d032668	0.03201905
3	0x3d06e0b3	0.032929134
4	0x3d229180	0.03968954
5	0x3c515165	0.012775754
6	0xbc4e388c	-0.012586724
7	0x3d18aeb8	0.037276
8	0xbcd983c6	-0.026552092
9	0x3c108c7e	0.008822558
10	0x3d0c15df	0.034200545
11	0x3d0c60b0	0.034271896
12	0xbaab62bb	-0.0013075689
13	0xba9e88e1	-0.0012095236
14	0xbca45490	-0.020059854
15	0x3c9b5165	0.01895971
16	0x3cabd156	0.020973843
17	0x3cf8d403	0.030374533
18	0x3c7721d2	0.015083747
19	0xbd335652	-0.043783493
20	0xbb0f6e7c	-0.0021885922
21	0x3cae2bbd	0.02126109
22	0x3b0bd542	0.0021336828
23	0xbcd0cb67	-0.025487615
24	0x3d134e4d	0.035963345
25	0xbc30bb48	-0.010786839
26	0x3d236daf	0.039899524
27	0x3c7492f7	0.014927617
28	0x3d1c1047	0.03810146
29	0x3c2d72b0	0.010586426
30	0xbcea8e5e	-0.02863234
31	0xbcc08a4b	-0.023503443
32	0xbcc4c5b1	-0.024020048
33	0xbc1c0cb3	-0.009524512
34	0x3c385055	0.011249621
35	0x3cb29601	0.021800043
36	0xbc15eb4b	-0.0091503365
37	0xbc83cca7	-0.016088797
38	0xbd1ff097	-0.039047804
39	0x3ca19796	0.019725602
40	0x3c8cb72e	0.01717719
41	0xba41aa93	-0.0007387783
42	0xbb949b70	-0.004535131
43	0x3c50870e	0.012727512
44	0xbb6539fa	-0.0034977184
45	0x3c1b3547	0.0094731515
46	0xbcb6ce07	-0.022315038
47	0x3c59f999	0.013304138
48	0x3d00c653	0.031439137
49	0xbcc608b5	-0.024174074
50	0xbd24da86	-0.040247463
51	0x3d13e604	0.036108032
52	0x3a3d9040	0.0007231273
53	0xbcb7a84d	-0.02241912
54	0xbc74094a	-0.014894793
55	0x3c85ba39	0.01632415
56	0x3d0c88e6	0.034310244
57	0x3ce0b19e	0.027428444
58	0xbd043da0	-0.032285333
59	0xbcaa92d1	-0.02082196
60	0x3d22ef6c	0.03977911
61	0xbcc78f7d	-0.024360413
62	0x3cc1ef1c	0.023673587
63	0x3c30fb75	0.0108021395

net.layer3.1.weight f4 [64]
0	0x3f5098d6	0.8148321
1	0x3f4a4649	0.79013497
2	0x3f4bfc75	0.79682094
3	0x3f52f40e	0.8240365
4	0x3f7f3be1	0.9970074
5	0x3f53faf8	0.8280482
6	0x3f6fa558	0.9361167
7	0x3f4e200b	0.80517644
8	0x3f4a4a3f	0.7901954
9	0x3f512a6f	0.81705374
10	0x3f4c890b	0.7989661
11	0x3f493680	0.78598785
12	0x3f74c311	0.9561015
13	0x3f4e394f	0.80556196
14	0x3f7e2c56	0.992864
15	0x3f4dc240	0.80374527
16	0x3f47d7a5	0.7806342
17	0x3f5f8001	0.87304693
18	0x3f527add	0.82218724
19	0x3f8da702	1.1066592
20	0x3f60ecef	0.8786153
21	0x3fd9e23c	1.7022166
22	0x3f82e272	1.0225356
23	0x3fbee627	1.4913987
24	0x3f3fb5aa	0.7488657
25	0x3f55e0bf	0.8354606
26	0x3f955456	1.1666362
27	0x3f4a8ff8	0.7912593
28	0x3f55289a	0.8326508
29	0x3f7ce996	0.98793924
30	0x3f4db91a	0.8036057
31	0x3f7ad3c0	0.97979355
32	0x3fc15646	1.5104454
33	0x3f7d523a	0.9895359
34	0x3f496011	0.7866221
35	0x3f4f1945	0.80897933
36	0x3f52a4fd	0.82283
37	0x3f4c584d	0.79822236
38	0x3f90ee92	1.1322806
39	0x3f4498c1	0.76795584
40	0x3f883891	1.0642263
41	0x3f8bfa98	1.093585
42	0x3f59a7f9	0.8502193
43	0x3f535bb0	0.8256178
44	0x3f4a9863	0.79138774
45	0x3f8b013f	1.0859755
46	0x3f7f837a	0.9980999
47	0x3f469212	0.77566636
48	0x3fb92405	1.4464117
49	0x3f91fb56	1.1404827
50	0x3f47122d	0.7776211
51	0x3f6f03ef	0.9336538
52	0x3f51cfce	0.8195771
53	0x3f514673	0.8174812
54	0x3f4633ef	0.77422994
55	0x3f62067a	0.8829113
56	0x3f4b94c7	0.7952389
57	0x3f4969a9	0.7867685
58	0x3f4307dc	0.7618387
59	0x3f8eb23c	1.1148143
60	0x3f372f8b	0.7155692
61	0x3f974cda	1.1820328
62	0x3f49d178	0.7883525
63	0x3f52dbfa	0.8236691

net.layer3.1.bias f4 [64]
0	0xbe0d1a17	-0.13779484
1	0xbe39ddac	-0.18150967
2	0xbe49b36c	-0.1969735
3	0xbe222c7f	-0.15837286
4	0xbbd32645	-0.006443771
5	0xbe2b3b2f	-0.16721795
6	0xbe21eaaa	-0.15812173
7	0xbe915e16	-0.28392094
8	0xbe556c47	-0.20842086
9	0xbe35f0b9	-0.1776761
10	0xbdd54792	-0.104140416
11	0xbe2fd8f5	-0.17172606
12	0xbe49b8c7	-0.19699393
13	0xbe411dae	-0.18858978
14	0xbe0608b1	-0.13089253
15	0xbe4402d5	-0.19141705
16	0xbe16e2f6	-0.14735016
17	0xbddf9c92	-0.10918535
18	0xbe225771	-0.15853669
19	0xbd94e568	-0.07270318
20	0xbe0d384a	-0.13791004
21	0x3e6fc9e4	0.23416859
22	0xbe1a3bfc	-0.15061945
23	0x3dcaf07f	0.09909152
24	0xbe5f120d	-0.2178423
25	0xbe537b1a	-0.20652428
26	0xbe638c27	-0.22221433
27	0xbe584df6	-0.2112349
28	0xbe10e28a	-0.14148918
29	0xbe178e40	-0.14800358
30	0xbe3e1a57	-0.18564735
31	0xbe116e26	-0.14202175
32	0xbbbdce3c	-0.0057924073
33	0xbd8361bb	-0.06415125
34	0xbe528592	-0.20558766
35	0xbe339e73	-0.17540912
36	0xbe52d0b8	-0.20587432
37	0xbe64e6dd	-0.22353692
38	0xbdc4d5bb	-0.09611078
39	0xbe5d8215	-0.21631654
40	0xbd8fa8b4	-0.070145994
41	0x3c3fa378	0.011696689
42	0xbe6c9634	-0.23104173
43	0xbe3b9f4a	-0.18322483
44	0xbe42db37	-0.19028936
45	0xbd57bf8f	-0.05267292
46	0x3aa4e72b	0.00125811
47	0xbe84ffe1	-0.2597647
48	0x3dffdb6e	0.12493025
49	0x3c8b12ca	0.016976733
50	0xbe5546a1	-0.20827724
51	0xbe262f91	-0.16229083
52	0xbe46cbf0	-0.19413733
53	0xbe3f21f5	-0.18665297
54	0xbe4ca1df	-0.19983624
55	0xbda596fc	-0.080854386
56	0xbe196fad	-0.14984007
57	0xbe6d9a53	-0.23203401
58	0xbe37b3bb	-0.17939655
59	0x3cc0f200	0.023552895
60	0xbe98b596	-0.2982604
61	0x3d8c56cf	0.06852495
62	0xbe320496	-0.17384562
63	0xbe53500a	-0.20636001

net.layer3.1.running_mean f4 [64]
0	0x00000000	0.0
1	0x00000000	0.0
2	0x00000000	0.0
3	0x00000000	0.0
4	0x00000000	0.0
5	0x00000000	0.0
6	0x00000000	0.0
7	0x00000000	0.0
8	0x00000000	0.0
9	0x00000000	0.0
10	0x00000000	0.0
11	0x00000000	0.0
12	0x00000000	0.0
13	0x00000000	0.0
14	0x00000000	0.0
15	0x00000000	0.0
16	0x00000000	0.0
17	0x00000000	0.0
18	0x00000000	0.0
19	0x00000000	0.0
20	0x00000000	0.0
21	0x00000000	0.0
22	0x00000000	0.0
23	0x00000000	0.0
24	0x00000000	0.0
25	0x00000000	0.0
26	0x00000000	0.0
27	0x00000000	0.0
28	0x00000000	0.0
29	0x00000000	0.0
30	0x00000000	0.0
31	0x00000000	0.0
32	0x00000000	0.0
33	0x00000000	0.0
34	0x00000000	0.0
35	0x00000000	0.0
36	0x00000000	0.0
37	0x00000000	0.0
38	0x00000000	0.0
39	0x00000000	0.0
40	0x00000000	0.0
41	0x00000000	0.0
42	0x00000000	0.0
43	0x00000000	0.0
44	0x00000000	0.0
45	0x00000000	0.0
46	0x00000000	0.0
47	0x00000000	0.0
48	0x00000000	0.0
49	0x00000000	0.0
50	0x00000000	0.0
51	0x00000000	0.0
52	0x00000000	0.0
53	0x00000000	0.0
54	0x00000000	0.0
55	0x00000000	0.0
56	0x00000000	0.0
57	0x00000000	0.0
58	0x00000000	0.0
59	0x00000000	0.0
60	0x00000000	0.0
61	0x00000000	0.0
62	0x00000000	0.0
63	0x00000000	0.0

net.layer3.1.running_var f4 [64]
0	0x3f800000	1.0
1	0x3f800000	1.0
2	0x3f800000	1.0
3	0x3f800000	1.0
4	0x3f800000	1.0
5	0x3f800000	1.0
6	0x3f800000	1.0
7	0x3f800000	1.0
8	0x3f800000	1.0
9	0x3f800000	1.0
10	0x3f800000	1.0
11	0x3f800000	1.0
12	0x3f800000	1.0
13	0x3f800000	1.0
14	0x3f800000	1.0
15	0x3f800000	1.0
16	0x3f800000	1.0
17	0x3f800000	1.0
18	0x3f800000	1.0
19	0x3f800000	1.0
20	0x3f800000	1.0
21	0x3f800000	1.0
22	0x3f800000	1.0
23	0x3f800000	1.0
24	0x3f800000	1.0
25	0x3f800000	1.0
26	0x3f800000	1.0
27	0x3f800000	1.0
28	0x3f800000	1.0
29	0x3f800000	1.0
30	0x3f800000	1.0
31	0x3f800000	1.0
32	0x3f800000	1.0
33	0x3f800000	1.0
34	0x3f800000	1.0
35	0x3f800000	1.0
36	0x3f800000	1.0
37	0x3f800000	1.0
38	0x3f800000	1.0
39	0x3f800000	1.0
40	0x3f800000	1.0
41	0x3f800000	1.0
42	0x3f800000	1.0
43	0x3f800000	1.0
44	0x3f800000	1.0
45	0x3f800000	1.0
46	0x3f800000	1.0
47	0x3f800000	1.0
48	0x3f800000	1.0
49	0x3f800000	1.0
50	0x3f800000	1.0
51	0x3f800000	1.0
52	0x3f800000	1.0
53	0x3f800000	1.0
54	0x3f800000	1.0
55	0x3f800000	1.0
56	0x3f800000	1.0
57	0x3f800000	1.0
58	0x3f800000	1.0
59	0x3f800000	1.0
60	0x3f800000	1.0
61	0x3f800000	1.0
62	0x3f800000	1.0
63	0x3f800000	1.0

net.layer4.0.weight f4 [64, 64, 3, 3]
0	0xbd13d3ab	-0.036090534
1	0x3d834288	0.06409174
2	0xbc7caff4	-0.01542281
3	0xbb783324	-0.003787228
4	0xbc735425	-0.014851605
5	0xbca8936e	-0.020578112
6	0xbbb2a4cc	-0.005451774
7	0xbce7340e	-0.028223064
8	0xbd8eb80c	-0.06968698
9	0x3d682892	0.056679316
10	0xbd357f4f	-0.044310864
11	0xbd0b9bdf	-0.034084197
12	0xbd968f75	-0.07351581
13	0xbc965751	-0.018352183
14	0x3d20b188	0.039231807
15	0xbd7923dc	-0.060825214
16	0x3c462c03	0.012095454
17	0xbbec35e4	-0.0072085727
18	0xbd32d5cf	-0.043660935
19	0xbd3599f8	-0.04433629
20	0x3c2fc3ae	0.010727806
21	0xbbd5307f	-0.0065060253
22	0xbcb6c08a	-0.022308607
23	0xba65b2e5	-0.0008762314
24	0x3cf0c8d8	0.029392645
25	0xbd13ceb7	-0.03608581
26	0x3d2e6bb7	0.042583194
27	0x3d4e5d64	0.050382033
28	0x3d628842	0.055305727
29	0xb9e94c14	-0.00044497906
30	0xbd309ba9	-0.0431172
31	0x3cb3fa6c	0.021969996
32	0x3d821ee8	0.06353551
33	0x3c843b68	0.016141608
34	0x3d06abfc	0.03287886
35	0x3c574d94	0.013141055
36	0x3cd090d6	0.025459688
37	0xbc345763	-0.011007163
38	0xbb4df1fb	-0.003142475
39	0x3b81516c	0.003946474
40	0xbd1a9f0f	-0.037749346
41	0xbd39133b	-0.045184355
42	0x3bec7b0b	0.0072168163
43	0xbc954946	-0.018223416
44	0x3c317fd6	0.010833701
45	0x3d4bffde	0.04980456
46	0x3ca2fb47	0.019895209
47	0x3d0e3ab7	0.034723964
48	0x3cbc0e77	0.022956116
49	0xbd7db2ad	-0.061937977
50	0xbdc4d5fa	-0.09611125
51	0xbd119655	-0.03554376
52	0x3cb125ed	0.02162453
53	0xbcf1a8eb	-0.029499492
54	0x3ca1125e	0.019662078
55	0xb9bdfa96	-0.0003623559
56	0xbaa6e864	-0.0012734053
57	0xbcd159fe	-0.025555607
58	0x3bf7f8bd	0.0075674937
59	0x3cd99176	0.026558619
60	0x3bc8819b	0.006118966
61	0xbb955bc5	-0.004558059
62	0x3d29bac5	0.041437883
63	0x3cbb05d7	0.022829933
64	0x3c374699	0.011186265
65	0x3d2b48fe	0.041817658
66	0x3c3e89f7	0.011629573
67	0x3d458ab3	0.048227977
68	0xbc845d24	-0.016157694
69	0xbd27cec2	-0.040968664
70	0xbd2204fc	-0.039555535
71	0x3cdfe7d4	0.027332224
72	0x3c8b018e	0.016968515
73	0x3c2b3a79	0.010450953
74	0xbcdfde59	-0.027327703
75	0xbd756281	-0.059908394
76	0xbb6a4edd	-0.0035752573
77	0x3d2b265b	0.041784626
78	0xbcfee587	-0.031115307
79	0x3b0d7ec7	0.0021590458
80	0x3c82740a	0.015924472
81	0x3cf56851	0.029956969
82	0xbcddbfc8	-0.027068987
83	0x3da34215	0.079715885
84	0xbc3c9835	-0.011510898
85	0xbd6e575c	-0.05818878
86	0xbd0c6266	-0.034273528
87	0x3d514acf	0.051096734
88	0xbd4c8d95	-0.04993971
89	0xbbc285b6	-0.0059363497
90	0x3ca207b5	0.019779066
91	0x3d966f2b	0.07345422
92	0x3c877a50	0.016537815
93	0x3c8bde36	0.017073732
94	0x3c150922	0.009096416
95	0xb9afd1e6	-0.00033534988
96	0xbb083341	-0.0020782503
97	0x3c7929e7	0.015207744
98	0xbcb30d45	-0.021856913
99	0x3ada8420	0.0016671456
100	0xbc5219d7	-0.0128235435
101	0xbca8c28c	-0.02060058
102	0xbcc008c6	-0.023441684
103	0xbb449077	-0.0029993334
104	0xbccb274b	-0.02479901
105	0xbc96f6c4	-0.018428214
106	0xbd3a0a85	-0.04542019
107	0xbd76a4d8	-0.0602158
108	0x3d5788ef	0.052620824
109	0x3bf0c662	0.007347868
110	0xbd240c72	-0.04005093
111	0xbd018d7f	-0.03162908
112	0xbcf6931b	-0.030099442
113	0x3d1cecf3	0.03831191
114	0x3c86ed7b	0.016470661
115	0xbbdef9d2	-0.0068046832
116	0x3cc6a49d	0.024248416
117	0x3b69a239	0.003564967
118	0xbd52a00f	-0.051422175
119	0x3d881598	0.06644744
120	0xbd2aebc7	-0.04172876
121	0xb9cb4d9e	-0.00038777007
122	0xbd2278c0	-0.039665937
123	0x3bdf74bf	0.006819337
124	0xbd066829	-0.03281418
125	0xbcbf4033	-0.023346042
126	0x3cd3736e	0.025811877
127	0xbd1e7047	-0.038681295
128	0xbc14d2ac	-0.009083431
129	0x3c0d2b2a	0.008616248
130	0xbb41b57c	-0.0029557636
131	0x3cf8358a	0.030298967
132	0xbc002618	-0.007821582
133	0x3cc26ff2	0.02373502
134	0xbb52da45	-0.0032173556
135	0xbb0c5117	-0.0021410638
136	0x3d039d6c	0.03213255
137	0x3d8b2f88	0.06796175
138	0x3d4861bb	0.048921328
139	0xbcda9aa3	-0.026685065
140	0xbca39112	-0.019966636
141	0x3d325353	0.043536495
142	0x3d538622	0.05164159
143	0x3d946aa4	0.072469026
144	0x3d162f8a	0.03666643
145	0x3d1952df	0.037432548
146	0x3c3153d4	0.010823209
147	0x3d71fe26	0.059080265
148	0xbcf006bb	-0.029300084
149	0x3aefeb93	0.001830446
150	0xbacb41f8	-0.0015507331
151	0x3d133bc2	0.03594566
152	0xbc053544	-0.008130375
153	0x3b349192	0.0027552587
154	0x3d5df435	0.054187972
155	0x3c5c612c	0.013450902
156	0xbd3fccea	-0.04682628
157	0xbcf30f49	-0.029670374
158	0xbd47cede	-0.04878127
159	0xbd22e4b5	-0.039768893
160	0x3cfc20ec	0.030777417
161	0xbd05a648	-0.03262928
162	0xbcf9f9d8	-0.030514643
163	0xbce03e1a	-0.027373362
164	0x3d99776f	0.07493483
165	0x3b78d331	0.0037967677
166	0x3d12ee48	0.035871774
167	0x3d7fc798	0.062446207
168	0x3d492d50	0.04911548
169	0x3cba1d8c	0.022719167
170	0x3cc7f14e	0.024407055
171	0x3d3fef1f	0.046858903
172	0xbcc559d9	-0.024090694
173	0xbc70a14f	-0.0146868965
174	0xbbcf3f0f	-0.006324656
175	0x3d143f84	0.036193386
176	0xbaaa167a	-0.0012976669
177	0x3b0e15b2	0.0021680412
178	0xbd288ead	-0.04115169
179	0xbc7563be	-0.014977394
180	0xbcba4829	-0.022739487
181	0x3ba6ac8c	0.005086487
182	0xbcb38cf8	-0.021917805
183	0xbc7f8d6d	-0.015597683
184	0xbc149127	-0.00906781
185	0xbc0afdd5	-0.00848337
186	0x3c43c525	0.011948858
187	0xbd80cb9f	-0.06288838
188	0x3c6c4733	0.014421272
189	0xbc837b6d	-0.016050065
190	0x3bea2d1c	0.0071464907
191	0x3c8ba250	0.01704517
192	0x3cd75c37	0.026289089
193	0x3a342e48	0.00068733515
194	0xbbfa6fc3	-0.0076427176
195	0xbc9036d2	-0.017604265
196	0xbb45abc8	-0.0030162204
197	0xbc196baa	-0.009364048
198	0x3d0b4427	0.034000542
199	0x3d7ef2f7	0.062243428
200	0x3c2519d9	0.010076963
201	0x3d2516b8	0.04030487
202	0x3c22f700	0.009946585
203	0xbcf3f6ff	-0.029780863
204	0xbd437134	-0.04771538
205	0x3ce996ea	0.028514344
206	0xbd01300f	-0.031539973
207	0xbaa47aeb	-0.001254884
208	0x3b1f9587	0.00243506
209	0xbc2680d3	-0.01016255
210	0x3d0e7c10	0.034786284
211	0xba037771	-0.00050150516
212	0xbcca8a7b	-0.024724236
213	0xbbe63f4e	-0.0070265895
214	0x3d2daa59	0.042398784
215	0x3c59fe2e	0.01330523
216	0x3d0ac632	0.03388042
217	0xbd5cd285	-0.053911705
218	0xbd123d92	-0.03570325
219	0xbb15d5fd	-0.0022863143
220	0xbd618380	-0.05505705
221	0xbd8f4240	-0.06995058
222	0x3d45a647	0.048254278
223	0xbd4cfaac	-0.050043747
224	0x3c926c36	0.017873865
225	0xbcb28df9	-0.021796213
226	0x3d37c5a4	0.04486622
227	0x3d6d955e	0.058003776
228	0xbba24ee5	-0.0049532526
229	0x3d3b0f31	0.045668785
230	0x3d398db9	0.045301173
231	0x3d7c7da2	0.06164325
232	0x3d87995f	0.0662105
233	0x3c853499	0.016260432
234	0xbbe1f03b	-0.006895093
235	0x3ca9f828	0.020748213
236	0x3c0d1aca	0.008612344
237	0xbccf6f9f	-0.02532178
238	0xbc89669f	-0.016772566
239	0xbc44fd04	-0.012023214
240	0xbd2ea8c3	-0.042641412
241	0x3cf3728c	0.029717706
242	0x3c59ed9b	0.013301278
243	0x3d1ccbb0	0.03828019
244	0xbc88caf1	-0.016698333
245	0x3d37990e	0.0448237
246	0xbd6c6dee	-0.057722025
247	0xbd38698c	-0.045022532
248	0xbd151f88	-0.036407024
249	0x3d785144	0.060624376
250	0x3d34cbc4	0.04413964
251	0x3d133833	0.035942268
252	0xbcd0ca0c	-0.025486968
253	0x3c8db33e	0.017297383
254	0xbcd8cc8c	-0.026464723
255	0x3d6a2485	0.057163734
