old_mp/maml_step500_k_1_n_way5.pt (torch, 143452 bytes, 26 tensors)

net.layer1.0.weight f4 [32, 3, 3, 3]
-0.13220154 -0.27420795 -0.14751956 0.08002707 0.05333014 -0.0018251319 0.13111177 0.24335776
0.11725927 -0.14589958 -0.24952197 -0.04260608 0.088541284 -0.07540045 -0.06786843 0.0632801
0.22461748 0.1498904 -0.118889734 -0.25048926 -0.11324543 0.13070348 0.03383681 -0.121195816
-0.07833671 0.22803427 0.21759638 -0.008307573 0.15124562 0.2118389 0.007814613 0.3348041
0.062356368 0.16147687 0.12167694 -0.07588208 -0.16457887 -0.12305741 -0.10888766 0.056547064
-0.10418497 -0.08806698 -0.108381905 -0.2618294 -0.20971395 0.036392257 -0.035799626 0.08036863
0.023753483 0.18647619 0.15926792 0.023450445 0.059334192 -0.06089937 -0.17107484 -0.007827847
0.2191511 0.0016149088 0.056158323 -0.14526026 0.09544002 0.0793295 -0.12187157 -0.28426334
-0.17169824 0.26308376 0.13046427 -0.018744545 -0.21245725 0.16078642 0.14538546 -0.065048255
-0.0773222 -0.050366893 0.4213072 0.15959553 0.16998054 -0.10700188 -0.026630633 -0.07209292
-0.29801884 0.19812079 0.19442539 0.12072423 0.28519866 0.40118232 0.18254346 0.008745753
0.21520652 0.036309447 -0.058265585 0.027778886 0.08937629 -0.074286416 0.005399419 -0.022554632
0.08119636 0.004179796 -0.10759762 -0.15621626 0.016491845 -0.19787069 0.060375787 -0.047621448
-0.05254026 -0.16137631 -0.2515196 -0.03692413 0.07066121 -0.014782074 -0.026664985 0.05578183
0.071808904 -0.050206 0.029582823 -0.045661654 -0.1508383 0.19708848 0.10108698 0.106286116
0.022673942 0.011216952 -0.06654102 0.01356955 0.0002616894 0.13282329 -0.5000511 -0.3795355
-0.108970925 -0.29312015 -0.18766809 0.04353197 -0.11483949 -0.031730548 0.12662993 -0.1534308
-0.1260996 -0.15142876 -0.022416119 0.13625008 0.06433422 -0.09935447 0.02729379 0.027318701
0.24195752 0.20882733 0.027014308 0.11427188 0.17472284 0.19876085 0.0058775605 0.17078538
0.10067666 0.039923042 0.20567785 -0.11826449 0.054553058 0.3179804 -0.02893091 -0.019986589
0.047990307 0.03572123 0.19871238 -0.24525526 0.0067941737 0.040567216 0.04706959 -0.20096546
0.24594328 -0.09738779 0.011179105 0.14748609 -0.19348939 0.23180895 -0.1589705 0.14270198
-0.10301407 -0.09663875 -0.18856981 0.044638094 0.074879095 -0.1918984 0.11444712 -0.08050909
0.14275903 0.118130416 0.012441201 -0.16671385 0.09473435 0.036271486 0.019004725 -0.13728572
-0.22183557 -0.072960354 0.1333052 -0.18430437 -0.1305199 0.17769936 0.17876692 -0.055515915
-0.07759388 -0.14082561 0.13044776 0.22469662 -0.09058912 0.0794299 0.26143909 0.19649777
-0.11314198 0.021751685 -0.2215461 -0.008413854 0.08165563 -0.208184 -0.056862883 0.23106194
0.34098127 -0.20078464 -0.08542992 0.3793807 -0.16148058 -0.05571084 0.06054322 -0.2699353
-0.0772006 -0.04499028 -0.047556184 0.19294432 0.034591824 -0.11414312 0.25457773 -0.13291182
0.06466567 -0.03078268 -0.0985288 -0.17949039 -0.023200203 -0.12639633 -0.046474017 0.107276924
0.054452177 0.04325371 0.18812642 0.3718812 0.10327495 -0.1235158 0.15424958 0.05125163
-0.20215826 0.008397609 -0.26910526 -0.11434983 -0.038811605 0.1113692 -0.118410714 0.032711104
00000000: d75f 07be fc64 8cbe 5e0f 17be 3ce5 a33d
00000010: b470 5a3d 4439 efba 2a42 063e c732 793e
00000020: a125 f03d b366 15be b082 7fbe b783 2ebd
00000030: 2255 b53d 8d6b 9abd 9afe 8abd ff98 813d
00000040: 2002 663e de7c 193e 767c f3bd 2140 80be
00000050: 38ed e7bd 22d7 053e 7898 0a3d 8335 f8bd
00000060: ff6e a0bd d181 693e 96d1 5e3e 7d1c 08bc
00000070: 22e0 1a3e 4cec 583e dd08 003c 716b ab3e
00000080: 6469 7f3d 315a 253e c231 f93d 1068 9bbd
00000090: 5d87 28be 8605 fcbd 7e00 dfbd e59d 673d
000000a0: ee5e d5bd 765c b4bd 55f7 ddbd 810e 86be
000000b0: 41bf 56be 0c10 153d a1a2 12bd 4f98 a43d
000000c0: aa96 c23c 9df3 3e3e 2117 233e 261b c03c
000000d0: 6908 733d 9e71 79bd 3e2e 2fbe 5f40 00bc
000000e0: 2569 603e 59ab d33a 4506 663d 1bbf 14be
000000f0: 0f76 c33d 8177 a23d cd97 f9bd f78a 91be
00000100: aad1 2fbe eab2 863e 6d98 053e 298e 99bc
00000110: 658e 59be 32a5 243e eddf 143e 0538 85bd
00000120: 1a5b 9ebd 844d 4ebd 94b5 d73e 036d 233e
00000130: 610f 2e3e cd23 dbbd 7c28 dabc 74a5 93bd
00000140: ed95 98be 2de0 4a3e 7317 473e 443e f73d
00000150: 8f05 923e c567 cd3e acec 3a3e 594a 0f3c
00000160: 195f 5c3e 37b9 143d e5a7 6ebd 8c90 e33c
00000170: eb0a b73d 7a23 98bd 9ced b03b 7ec4 b8bc
00000180: 474a a63d acf6 883b 245c dcbd 28f7 1fbe
00000190: e819 873c 9d9e 4abe 9a4c 773d b50e 43bd
000001a0: 7534 57bd d53f 25be 2dc7 80be c23d 17bd
000001b0: d3b6 903d 8330 72bc 8770 dabc 7d7b 643d
000001c0: 8c10 933d cfa4 4dbd ad57 f23c b707 3bbd
000001d0: 5b75 1abe 90d1 493e b106 cf3d 89ac d93d
000001e0: b4be b93c 4fc7 373c a946 88bd d152 5e3c
000001f0: 5b33 8939 d402 083e 5903 00bf 7a52 c2be
00000200: 262c dfbd d813 96be 102c 40be 944e 323d
00000210: f730 ebbd e4f7 01bd 47ab 013e f71c 1dbe
00000220: 4120 01be 2410 1bbe 02a2 b7bc 2485 0b3e
00000230: a9c1 833d 5b7a cbbd 3a97 df3c 78cb df3c
00000240: b6c3 773e d5d6 553e 1c4d dd3c 6007 ea3d
00000250: 8bea 323e f787 4b3e 8d98 c03b 5de2 2e3e
00000260: 912f ce3d 5886 233d 379d 523e a734 f2bd
00000270: 0773 5f3d 54ce a23e 8400 edbc eaba a3bc
00000280: 7c91 443d 6d50 123d 427b 4b3e 3224 7bbe
00000290: a9a1 de3b cf29 263d 0bcc 403d e4c9 4dbe
000002a0: 8ed8 7b3e 4073 c7bd 9128 373c 9806 173e
000002b0: 1522 46be 535f 6d3e 2ac9 22be 7820 123e
000002c0: 0af9 d2bd 89ea c5bd 7218 41be 6fd6 363d
000002d0: 365a 993d 0481 44be 4063 ea3d f3e1 a4bd
000002e0: 6c2f 123e 5cee f13d 2ed6 4b3c 09b7 2abe
000002f0: 1504 c23d 6991 143d ccaf 9b3c a194 0cbe
00000300: dd28 63be 3d6c 95bd 2981 083e 49ba 3cbe
00000310: 02a7 05be d2f6 353e ad0e 373e a864 63bd
00000320: 8ae9 9ebd 9734 10be 1994 053e df16 663e
00000330: ca86 b9bd 25ac a23d 58db 853e b636 493e
00000340: fbb6 e7bd 9730 b23c fbdc 62be 43da 09bc
00000350: 113b a73d 302e 55be 0ee9 68bd 809b 6c3e
00000360: 1995 ae3e 7d9a 4dbe e2f5 aebd 303e c23e
00000370: 2a5b 25be 0d31 64bd 2bfc 773d f634 8abe
00000380: 591b 9ebd ba47 38bd 46ca 42bd 3293 453e
00000390: 28b0 0d3d dec3 e9bd 0358 823e 091a 08be
000003a0: 6f6f 843d f52b fcbc 78c9 c9bd 54cc 37be
000003b0: 5a0e bebc 0a6e 01be 8a5b 3ebd 01b4 db3d
000003c0: 3f09 5f3d cd2a 313d 36a4 403e 3667 be3e
000003d0: d181 d33d daf5 fcbd 9af3 1d3e 3bed 513d
000003e0: 9302 4fbe 2096 093c 2ac8 89be 3e30 eabd
000003f0: ebf8 1ebd 8915 e43d 5181 f2bd 14fc 053d

net.layer1.0.bias f4 [32]
-0.06933469 -0.055699196 -0.16294417 0.024006309 0.18413438 -0.18231294 0.1391397 -0.04697468
-0.06336465 0.11979964 0.12064841 0.054798506 0.06748275 0.0014339626 -0.021433117 0.10475818
-0.03822166 -0.06020521 -0.13823259 -0.035291616 0.11795395 0.05538132 0.08112172 -0.17086214
0.15808484 0.11081736 0.112428136 -0.06311494 -0.13128369 -0.08955306 -0.100207165 -0.17563327
00000000: 59ff 8dbd d724 64bd d6da 26be e1a8 c43c
00000010: b98d 3c3e 3eb0 3abe a37a 0e3e 8668 40bd
00000020: 53c5 81bd 8359 f53d 8316 f73d 6674 603d
00000030: 6534 8a3d cdf3 bb3a 8194 afbc 758b d63d
00000040: 518e 1cbd bd99 76bd d88c 0dbe f18d 10bd
00000050: d791 f13d 86d7 623d 2523 a63d 7cf6 2ebe
00000060: fee0 213e 36f4 e23d b940 e63d 6842 81bd
00000070: 3b6f 06be 9867 b7bd 6a39 cdbd 35d9 33be

net.layer1.1.weight f4 [32]
1.3737229 0.71130025 1.1242671 0.72439766 0.8450604 0.68880135 0.85646737 1.0571649
0.8540761 1.0212004 0.8724498 0.82013273 1.188514 0.76944953 1.0887096 0.70212513
1.1994236 0.9069021 1.2650753 1.118283 1.2431966 0.60480005 1.0390208 0.94274896
0.7614114 1.1125137 0.7694729 0.6806211 0.9113243 1.1449174 0.8165294 1.0709122
00000000: 27d6 af3f c617 363f fce7 8f3f 2072 393f
00000010: e155 583f 4955 303f 7241 5b3f 2e51 873f
00000020: bba4 5a3f b2b6 823f df58 5f3f 38f4 513f
00000030: 3a21 983f a5fa 443f d65a 8b3f 79be 333f
00000040: b686 993f bc2a 683f fded a13f e623 8f3f
00000050: 1121 9f3f 2dd4 1a3f a2fe 843f ff57 713f
00000060: dceb 423f d966 8e3f 2dfc 443f 2f3d 2e3f
00000070: 8d4c 693f a78c 923f 1208 513f a713 893f

net.layer1.1.bias f4 [32]
0.19241533 -0.0045233406 0.45696038 -0.11056933 -0.43096992 -0.16764843 -0.068954736 0.70285267
0.06685064 -0.13500264 0.058987338 -0.21354662 0.26425067 0.021225415 0.40275064 -0.20047624
0.3406888 -0.087428845 0.31392992 0.6437229 0.35646504 -0.32203162 -0.15614109 -0.12277173
-0.28467697 0.38277397 -0.3296143 -0.29907185 -0.0106142815 0.711349 -0.38428438 0.5959532
00000000: 8608 453e 8838 94bb b6f6 e93e 2c72 e2bd
00000010: 17a8 dcbe 08ac 2bbe 2438 8dbd 27ee 333f
00000020: fde8 883d 223e 0abe b59c 713d f7ab 5abe
00000030: dd4b 873e ece0 ad3c 5535 ce3e a549 4dbe
00000040: c36e ae3e e50d b3bd 6cbb a03e 06cb 243f
00000050: 9682 b63e 54e1 a4be 73e3 1fbe bf6f fbbd
00000060: 2ec1 91be f3fa c33e 35c3 a8be f21f 99be
00000070: 86e7 2dbc f81a 363f ecc0 c4be 6490 183f

net.layer1.1.running_mean f4 [32]
0.0 0.0 0.0 0.0 0.0 0.0 0.0 0.0
0.0 0.0 0.0 0.0 0.0 0.0 0.0 0.0
0.0 0.0 0.0 0.0 0.0 0.0 0.0 0.0
0.0 0.0 0.0 0.0 0.0 0.0 0.0 0.0
00000000: 0000 0000 0000 0000 0000 0000 0000 0000
00000010: 0000 0000 0000 0000 0000 0000 0000 0000
00000020: 0000 0000 0000 0000 0000 0000 0000 0000
00000030: 0000 0000 0000 0000 0000 0000 0000 0000
00000040: 0000 0000 0000 0000 0000 0000 0000 0000
00000050: 0000 0000 0000 0000 0000 0000 0000 0000
00000060: 0000 0000 0000 0000 0000 0000 0000 0000
00000070: 0000 0000 0000 0000 0000 0000 0000 0000

net.layer1.1.running_var f4 [32]
1.0 1.0 1.0 1.0 1.0 1.0 1.0 1.0
1.0 1.0 1.0 1.0 1.0 1.0 1.0 1.0
1.0 1.0 1.0 1.0 1.0 1.0 1.0 1.0
1.0 1.0 1.0 1.0 1.0 1.0 1.0 1.0
00000000: 0000 803f 0000 803f 0000 803f 0000 803f
00000010: 0000 803f 0000 803f 0000 803f 0000 803f
00000020: 0000 803f 0000 803f 0000 803f 0000 803f
00000030: 0000 803f 0000 803f 0000 803f 0000 803f
00000040: 0000 803f 0000 803f 0000 803f 0000 803f
00000050: 0000 803f 0000 803f 0000 803f 0000 803f
00000060: 0000 803f 0000 803f 0000 803f 0000 803f
00000070: 0000 803f 0000 803f 0000 803f 0000 803f

net.layer2.0.weight f4 [32, 32, 3, 3]
-0.07900881 0.028169118 0.059989177 -0.14470486 -0.04067422 -0.06404022 -0.13495645 -0.33108974
-0.018106539 0.17307912 0.055396426 0.19501409 0.07417328 0.2632609 0.031112729 -0.21615003
-0.07856986 -0.07252816 -0.1223325 0.042723853 0.11731394 -0.08667583 -0.004329657 -0.087230764
0.16042566 -0.022670617 -0.13009891 0.07164695 0.25406945 0.30063194 0.16502018 0.27129075
0.30876923 -0.12175549 0.009014015 0.15784873 -0.18597288 -0.13188964 0.015784401 -0.03723468
-0.124540485 0.068299204 -0.115688995 -0.044350993 0.021213043 0.12209239 -0.10736622 -0.07512292
-0.07339352 -0.0216982 -0.08926776 -0.09353294 -0.08286293 0.027959932 -0.10139282 -0.16378316
-0.14965606 -0.092543654 -0.029291866 -0.054249063 0.010053122 0.06971369 0.07261856 0.15206918
0.025989456 -0.040815547 0.080282584 0.14348857 0.022167156 -0.041676827 0.064195246 0.087734915
-0.16946441 -0.08436648 0.0016064014 -0.14782256 -0.04330131 0.1749496 -0.031212915 0.024273619
0.07991175 -0.025205445 -0.16184503 -0.10405146 0.0429343 -0.0024537232 0.15314245 -0.10054173
-0.054973803 0.03551133 0.109883375 0.11491967 0.06214584 0.19607887 -0.016221987 0.0005821784
0.28515604 0.08730244 0.029141383 0.12922604 0.074634194 0.0824567 0.1980397 0.10791301
0.06104834 0.27572966 0.22724263 0.18202266 -0.19664584 -0.05551475 0.03006469 -0.340068
-0.13443038 0.08121373 -0.32298818 -0.13338509 0.054241817 0.1542196 -0.09028434 -0.15195626
0.09918387 -0.055461947 0.028875785 0.046670265 0.014041378 0.07412539 -0.07238684 0.014435712
-0.03618215 0.14842077 -0.09948346 -0.056232926 -0.19682801 -0.055653162 -0.044470944 -0.026121438
-0.06762908 -0.061846998 0.11823644 -0.022729969 -0.0534337 -0.036210567 0.0991477 0.1137274
0.1620812 0.049416002 0.10309191 -0.07616703 0.0677495 0.1311716 -0.2573183 0.17174791
0.14301425 -0.02537839 0.09531609 0.2694165 0.12089441 0.18046957 0.12993197 0.05435884
-0.01342527 0.10595588 0.03735422 -0.025199348 -0.051882338 0.08395412 0.113433346 0.03186554
-0.14301819 0.018325714 0.046814654 -0.10391858 -0.0028556406 -0.12993628 -0.09641185 -0.040401343
-0.1164738 -0.05893564 -0.04585258 -0.019607509 0.070664376 0.06887812 -0.038476896 0.035976943
0.017028168 0.09234656 -0.15138991 0.09722975 0.10727526 -0.24243934 -0.1321049 -0.07462169
-0.15006758 -0.058415942 -0.22588013 -0.05024536 -0.02166784 -0.035415765 0.12036462 0.073411815
-0.022891616 0.06748516 0.03840545 0.043014992 0.103242956 0.12535775 -0.014556528 -0.13477504
-0.08066247 0.04381707 -0.026404444 -0.037775356 0.061123252 -0.024199089 -0.06104785 -0.06899255
0.040486075 -0.10392406 0.05094109 0.071592934 -0.10597838 0.08834007 -0.052356817 -0.05830551
-0.014659445 -0.22439918 0.053865608 0.13349128 -0.21873643 -0.08748837 0.1826516 -0.18423992
-0.10887107 -0.11155057 -0.04006928 -0.05556033 0.015009625 -0.12838449 -0.04273845 0.15060946
-0.12020251 -0.05932516 0.08517923 -0.0038020555 -0.0006490631 -0.10810347 0.011755817 -0.12133909
-0.11419668 -0.1587052 -0.16220546 -0.09355251 0.053167287 -0.017351968 0.0012493232 -0.1677323
00000000: 5fcf a1bd ecc2 e63c 36b7 753d 832d 14be
00000010: 039a 26bd 8527 83bd 0632 0abe 9884 a9be
00000020: 2a54 94bc a73b 313e 5de7 623d c6b1 473e
00000030: 29e8 973d 22ca 863e 1fe0 fe3c 6f56 5dbe
00000040: 3ce9 a0bd a589 94bd 7689 fabd 35ff 2e3d
00000050: 4a42 f03d 1983 b1bd ccdf 8dbb 0ba6 b2bd
00000060: a046 243e bbb7 b9bc a638 05be a3bb 923d
00000070: 6415 823e 6eec 993e 0dfb 283e 9fe6 8a3e
00000080: 0017 9e3e f15a f9bd 85af 133c 19a3 213e
00000090: ad6f 3ebe 140e 07be 4a4e 813c 6483 18bd
000000a0: 150f ffbd 74e0 8b3d 5aee ecbd 63a9 35bd
000000b0: fac6 ad3c 930b fa3d d2e2 dbbd 0cda 99bd
000000c0: 584f 96bd 6cc0 b1bc 04d2 b6bd 338e bfbd
000000d0: 0ab4 a9bd 3a0c e53c 0aa7 cfbd c6b6 27be
000000e0: 703f 19be 8787 bdbd 7ff5 efbc 4434 5ebd
000000f0: dab5 243c 0dc6 8e3d 0ab9 943d 06b8 1b3e
00000100: d7e7 d43c 342e 27bd 326b a43d abee 123e
00000110: e597 b53c 52b5 2abd cc78 833d 5dae b33d
00000120: 1488 2dbe 55c8 acbd e38d d23a cc5e 17be
00000130: b75c 31bd fd25 333e 3ab2 ffbc 78d9 c63c
00000140: c6a8 a33d a67b cebc b4ba 25be ef18 d5bd
00000150: e0db 2f3d a5ce 20bb 60d1 1c3e d3e8 cdbd
00000160: 362c 61bd 5474 113d 890a e13d 015b eb3d
00000170: a38c 7e3d e6c8 483e f9e3 84bc 559d 183a
00000180: f9ff 913e 9fcb b23d e9b9 ee3c d553 043e
00000190: d0d9 983d 0fdf a83d ebca 4a3e 7f01 dd3d
000001a0: d30d 7a3d 702c 8d3e 4bb2 683e 2664 3a3e
000001b0: 875d 49be 6f63 63bd 3a4a f63c 651d aebe
000001c0: 1ea8 09be 6253 a63d b55e a5be 1a96 08be
000001d0: ab2c 5e3d beeb 1d3e ffe6 b8bd 6c9a 1bbe
000001e0: ea20 cb3d 112c 63bd e98c ec3c 5229 3f3d
000001f0: cf0d 663c 0dcf 973d 8d3f 94bd c483 6c3c
00000200: bc33 14bd 9dfb 173e fcbd cbbd 7f54 66bd
00000210: 488d 49be 92f4 63bd 2a27 36bd a0fc d5bc
00000220: 1d81 8abd 4753 7dbd f225 f23d 3334 babc
00000230: 4cdd 5abd 8851 14bd f30d cb3d e9e9 e83d
00000240: 9df8 253e 6f68 4a3d da21 d33d 76fd 9bbd
00000250: 40c0 8a3d d951 063e 39bf 83be afde 2f3e
00000260: 5472 123e 57e6 cfbc 1535 c33d f6f0 893e
00000270: 7d97 f73d 04cd 383e e30c 053e 60a7 5e3d
00000280: aaf5 5bbc 65ff d83d bd00 193d dd6e cebc
00000290: 9382 54bd 23f0 ab3d be4f e83d 7185 023d
000002a0: 5c73 12be cf1f 963c b9c0 3f3d 44d3 d4bd
000002b0: b325 3bbb 040e 05be 9373 c5bd e17b 25bd
000002c0: d189 eebd 7f66 71bd eacf 3bbd ed9f a0bc
000002d0: 7cb8 903d f90f 8d3d f399 1dbd 8f5c 133d
000002e0: a87e 8b3c 3120 bd3d f505 1bbe 6420 c73d
000002f0: 22b3 db3d 0542 78be 8246 07be 42d3 98bd
00000300: 51ab 19be 8e45 6fbd 1f4d 67be 14ce 4dbd
00000310: c180 b1bc 1f10 11bd ba81 f63d ef58 963d
00000320: 3387 bbbc a935 8a3d 084f 1d3d 7d30 303d
00000330: 0b71 d33d c85d 003e 817e 6ebc 7802 0abe
00000340: 5d32 a5bd 8779 333d 224e d8bc 55ba 1abd
00000350: 605c 7a3d 2b3d c6bc 4f0d 7abd f74b 8dbd
00000360: bad4 253d 23d6 d4bd 9ba7 503d 519f 923d
00000370: 310b d9bd a3eb b43d 1a74 56bd c2d1 6ebd
00000380: 2b2e 70bc e6c8 65be 2fa2 5c3d f0b1 083e
00000390: 71fc 5fbe 1a2d b3bd 0509 3b3e 64a9 3cbe
000003a0: ccf7 debd a074 e4bd af1f 24bd 3b93 63bd
000003b0: eeea 753c 3977 03be 830e 2fbd 5e39 1a3e
000003c0: bc2c f6bd f0fe 72bd 7372 ae3d e82b 79bb
000003d0: e325 2aba 5a65 ddbd 789b 403c a180 f8bd
000003e0: f3df e9bd 9e83 22be 3019 26be 7598 bfbd
000003f0: f1c5 593d b725 8ebc 55c0 a33a 04c2 2bbe

net.layer2.0.bias f4 [32]
-0.029499384 -0.03609736 -0.008869551 -0.018595656 -0.032247204 -0.04565444 -0.0505777 -0.008344934
0.0044300635 0.04701808 0.048277166 -0.027088994 -0.023320135 -0.028720228 0.03861984 0.04564809
0.018670578 -0.018074896 0.046007257 -0.014178886 0.035616636 0.062987156 0.01646611 -0.03592254
-0.056536183 -0.050247595 -0.05860329 -0.030011747 -0.017271547 -0.022997653 0.021886118 0.04828033
00000000: b1a8 f1bc d3da 13bd 9851 11bc eb55 98bc
00000010: a515 04bd 2600 3bbd 902a 4fbd 31b9 08bc
00000020: 112a 913b 0896 403d 47be 453d bde9 ddbc
00000030: de09 bfbc af46 ebbc d62f 1e3d 7ef9 3a3d
00000040: 0af3 983c ce11 94bc 1b72 3c3d 8f4e 68bc
00000050: c0e2 113d 69ff 803d efe3 863c 8323 13bd
00000060: 7c92 67bd 6cd0 4dbd 010a 70bd 32db f5bc
00000070: 0f7d 8dbc 9365 bcbc 844a b33c 98c1 453d

net.layer2.1.weight f4 [32]
0.85923713 1.1064069 0.80618143 0.9237729 1.1965966 0.9246065 0.99738365 0.8858396
0.9916701 1.0233186 1.0612864 0.9882874 0.99220717 1.020572 0.99747264 0.92822707
1.0544852 1.0922282 0.9588425 0.8449593 0.9767637 0.8369152 1.1225724 1.0757812
0.98921156 0.92551327 1.1807184 1.1383158 0.9475254 0.83672565 1.0252153 1.1511929
00000000: f7f6 5b3f be9e 8d3f e861 4e3f 617c 6c3f
00000010: 142a 993f 03b3 6c3f 8954 7f3f 62c6 623f
00000020: 17de 7d3f 1bfc 823f 3cd8 873f 6700 7d3f
00000030: 4a01 7e3f 1aa2 823f 5e5a 7f3f 4aa0 6d3f
00000040: 5ff9 863f 22ce 8b3f b476 753f 414f 583f
00000050: 300d 7a3f 1340 563f 74b0 8f3f 33b3 893f
00000060: f83c 7d3f 70ee 6c3f c821 973f 55b4 913f
00000070: 0691 723f a733 563f 413a 833f 4a5a 933f

net.layer2.1.bias f4 [32]
-0.06609354 -0.23012854 -0.14949775 -0.20943041 -0.29027632 -0.15415631 0.046623044 0.1672975
-0.102753565 -0.27725318 -0.26035103 -0.14331807 -0.13851748 -0.11150285 -0.52492434 -0.07473166
-0.20905311 -0.41609514 -0.115421064 -0.15350111 0.04647257 -0.016747126 -0.33607507 -0.28500298
-0.29736504 -0.2555943 -0.084958926 -0.34202147 0.033293538 -0.14349374 -0.21702227 -0.08668907
00000000: 0d5c 87bd d1a6 6bbe f015 19be ed74 56be
00000010: 199f 94be 27db 1dbe cef7 3e3d 0950 2b3e
00000020: 7670 d2bd 21f4 8dbe bb4c 85be f9c1 12be
00000030: 87d7 0dbe 9b5b e4bd 7161 06bf ea0c 99bd
00000040: 0512 56be 6c0a d5be e161 ecbd 652f 1dbe
00000050: 065a 3e3d 4531 89bc 0812 acbe e9eb 91be
00000060: 3b40 98be 42dd 82be f2fe adbd 701d afbe
00000070: ce5e 083d 06f0 12be 163b 5ebe 0a8a b1bd

net.layer2.1.running_mean f4 [32]
0.0 0.0 0.0 0.0 0.0 0.0 0.0 0.0
0.0 0.0 0.0 0.0 0.0 0.0 0.0 0.0
0.0 0.0 0.0 0.0 0.0 0.0 0.0 0.0
0.0 0.0 0.0 0.0 0.0 0.0 0.0 0.0
00000000: 0000 0000 0000 0000 0000 0000 0000 0000
00000010: 0000 0000 0000 0000 0000 0000 0000 0000
00000020: 0000 0000 0000 0000 0000 0000 0000 0000
00000030: 0000 0000 0000 0000 0000 0000 0000 0000
00000040: 0000 0000 0000 0000 0000 0000 0000 0000
00000050: 0000 0000 0000 0000 0000 0000 0000 0000
00000060: 0000 0000 0000 0000 0000 0000 0000 0000
00000070: 0000 0000 0000 0000 0000 0000 0000 0000

net.layer2.1.running_var f4 [32]
1.0 1.0 1.0 1.0 1.0 1.0 1.0 1.0
1.0 1.0 1.0 1.0 1.0 1.0 1.0 1.0
1.0 1.0 1.0 1.0 1.0 1.0 1.0 1.0
1.0 1.0 1.0 1.0 1.0 1.0 1.0 1.0
00000000: 0000 803f 0000 803f 0000 803f 0000 803f
00000010: 0000 803f 0000 803f 0000 803f 0000 803f
00000020: 0000 803f 0000 803f 0000 803f 0000 803f
00000030: 0000 803f 0000 803f 0000 803f 0000 803f
00000040: 0000 803f 0000 803f 0000 803f 0000 803f
00000050: 0000 803f 0000 803f 0000 803f 0000 803f
00000060: 0000 803f 0000 803f 0000 803f 0000 803f
00000070: 0000 803f 0000 803f 0000 803f 0000 803f

net.layer3.0.weight f4 [32, 32, 3, 3]
-0.19739799 -0.1792955 -0.032728966 -0.11106 -0.19642068 -0.17857824 -0.00034268352 -0.0019347756
-0.23232275 0.017852524 -0.069701076 0.13824415 -0.096162744 0.052612983 0.22728501 0.001126028
0.24809606 0.021916652 -0.15925945 -0.21698788 0.03665028 -0.10377687 -0.008011262 0.025986183
-0.10842424 0.113566756 -0.022100788 -0.08709734 -0.12227771 0.011436232 -0.17808935 0.13250431
-0.09561579 -0.060153544 0.0463245 0.06894363 -0.051221594 0.0881737 0.27409765 -0.0983576
0.023279797 0.06530694 0.0036389183 -0.045108907 0.044558294 -0.06679416 -0.02026364 -0.05357263
-0.016599827 -0.11138775 -0.15763177 -0.057658955 -0.12795216 -0.100205496 0.09233836 0.13585374
-0.01684028 0.08878538 -0.138986 -0.021982774 -0.15530059 -0.092452206 0.11544762 -0.09809784
0.053106986 -0.08277524 -0.109197356 -0.0394025 0.03612242 -0.009102938 -0.19136587 -0.07429078
-0.17761531 -0.13219284 -0.13647805 -0.03828504 -0.0149609605 -0.1499964 -0.024331992 -0.02488358
0.035366092 -0.080133155 0.035106968 -0.07838218 -0.05331925 -0.15866648 0.0335075 -0.041747626
-0.02304151 -0.021870172 -0.0967128 -0.13824873 -0.015872633 0.021722255 0.019706849 0.09729611
0.07548002 0.17126943 0.10220869 0.08522974 -0.015334242 0.040859018 0.037353005 0.17278956
0.030281076 -0.07215348 -0.04038286 -0.13040736 -0.098276146 -0.12768652 -0.0637218 -0.21551295
-0.001101425 -0.050130367 -0.10317833 0.009617105 -0.06586233 0.16376178 0.20482364 0.1050636
-0.04381276 0.026172297 0.09779569 -0.072100274 0.11019632 0.05932596 -0.1820717 0.012855828
-0.046114795 -0.11759237 -0.13730687 -0.10997499 -0.21146171 0.053124495 -0.11216321 -0.08160228
0.08196292 0.0701244 -0.013812152 -0.087377995 -0.14509158 0.06662895 -0.043452594 -0.18593885
0.038460027 -0.11480968 0.016993955 0.054401197 0.036600262 0.056631237 -0.0070975106 -0.0998791
-0.002791747 -0.22938485 -0.2897061 -0.29221186 -0.2965484 -0.36035657 -0.3468519 -0.21677089
-0.27064747 -0.19352853 0.071926564 0.2641626 0.2468401 -0.017591855 -0.028597053 0.13155429
-0.08349273 -0.0007582902 -0.041462157 -0.038177185 0.04828606 -0.062319614 -0.10674813 -0.00091804645
0.02156739 -0.17775305 0.0005070405 -0.012990099 -0.042324238 0.1383546 0.106031656 -0.00037117896
0.035805836 0.26086703 0.022981413 0.108381584 -0.043548476 0.069849856 0.20422994 0.062728494
-0.080746174 0.2290087 0.00084880734 -0.026806172 0.0018566631 0.24431272 -0.0312134 -0.10028882
-0.11399953 0.0047198473 -0.004860761 -0.058350414 -0.054452445 -0.0080733355 -0.15203282 -0.106421955
-0.10427377 0.112228446 -0.1313624 -0.05940246 -0.056867644 0.11261489 0.010031277 -0.20701016
-0.17832376 -0.13606171 -0.10129593 -0.20829731 -0.17630164 -0.038626473 -0.1058285 0.011184295
-0.054725163 0.025464531 -0.005318751 -0.054505363 0.033277154 0.09697667 -0.01848521 -0.0069578364
0.020179385 0.023843676 -0.09673365 -0.10209191 0.003759222 -0.14174958 0.016019635 0.10513472
-0.06884117 -0.012993232 -0.077080205 -0.04886047 -0.110509165 -0.026178006 0.13304932 0.12572284
-0.0613269 0.19916393 0.07761306 -0.06655587 -0.086604565 -0.076443925 0.047545843 -0.05172669
00000000: b322 4abe 3d99 37be cf0e 06bd 6d73 e3bd
00000010: 8122 49be 37dd 36be 34aa b3b9 4c98 fdba
00000020: 04e6 6dbe 753f 923c 70bf 8ebd e08f 0d3e
00000030: f9f0 c4bd b680 573d 67bd 683e 3b97 933a
00000040: e50c 7e3e 8d8a b33c e914 23be 1232 5ebe
00000050: 9b1e 163d f888 d4bd ab41 03bc fae0 d43c
00000060: 870d debd b095 e83d b60c b5bc 1760 b2bd
00000070: bc6c fabd 095f 3b3c 0e5d 36be 36af 073e
00000080: 36d2 c3bd 9063 76bd c2be 3d3d 5132 8d3d
00000090: bccd 51bd 6a94 b43d 8756 8c3e b66f c9bd
000000a0: 46b5 be3c a5bf 853d eb7a 6e3b 1ec4 38bd
000000b0: c282 363d 60cb 88bd efff a5bc f96e 5bbd
000000c0: 5cfc 87bc 431f e4bd 396a 21be cc2b 6cbd
000000d0: e405 03be 8a38 cdbd e51b bd3d 3e1d 0b3e
000000e0: a0f4 89bc 1cd5 b53d 5952 0ebe 3815 b4bc
000000f0: 1e07 1fbe 9557 bdbd cd6f ec3d 85e7 c8bd
00000100: b686 593d 1186 a9bd dda2 dfbd 8464 21bd
00000110: 1af5 133d 7d24 15bc 6af5 43be c425 98bd
00000120: cae0 35be 8f5d 07be e7c0 0bbe c6d0 1cbd
00000130: d11e 75bc a898 19be e353 c7bc a6d8 cbbc
00000140: 09dc 103d da1c a4bd 53cc 0f3d d686 a0bd
00000150: 4965 5abd 7779 22be 293f 093d 8fff 2abd
00000160: 8cc1 bcbc 1329 b3bc 5c11 c6bd 1391 0dbe
00000170: 5307 82bc dff2 b13c 4270 a13c 2f43 c73d
00000180: 4595 9a3d 4161 2f3e ca52 d13d ee8c ae3d
00000190: 793c 7bbc c95b 273d 77ff 183d bfef 303e
000001a0: 0510 f83c 34c5 93bd 7f68 25bd 8289 05be
000001b0: 0145 c9bd 41c0 02be 9380 82bd 6daf 5cbe
000001c0: b15d 90ba 8055 4dbd 294f d3bd 1091 1d3c
000001d0: d4e2 86bd 2bb1 273e 4abd 513e 962b d73d
000001e0: 0275 33bd 4967 d63c 1b49 c83d 4fa9 93bd
000001f0: 9cae e13d c7ff 723d 0171 3abe 40a1 523c
00000200: dee2 3cbd 45d4 f0bd 2c9a 0cbe 913a e1bd
00000210: 6b89 58be 1299 593d d3b5 e5bd 191f a7bd
00000220: 2ddc a73d 629d 8f3d 5d4c 62bc 3cf3 b2bd
00000230: e392 14be c274 883d 59fb 31bd c166 3ebe
00000240: 4388 1d3d 5621 ebbd e836 8b3c cad3 5e3d
00000250: 28ea 153d 28f6 673d 3c92 e8bb 6a8d ccbd
00000260: bef5 36bb dde3 6abe 5c54 94be cb9c 95be
00000270: 31d5 97be a880 b8be 9296 b1be 30f9 5dbe
00000280: 4e92 8abe 582c 46be 3c4e 933d 5240 873e
00000290: a7c3 7c3e cb1c 90bc 5e44 eabc 2bb6 063e
000002a0: 3dfe aabd fec7 46ba 39d4 29bd ae5f 1cbd
000002b0: 9bc7 453d da42 7fbd c39e dabd 0ea9 70ba
000002c0: 18ae b03c e504 36be e9ea 043a 6dd4 54bc
000002d0: 2e5c 2dbd d4ac 0d3e 2027 d93d cc9a c2b9
000002e0: 24a9 123d 5d90 853e 8443 bc3c 2af7 dd3d
000002f0: e35f 32bd 710d 8f3d a721 513e cc77 803d
00000300: 405e a5bd 4281 6a3e 7f82 5e3a 9e98 dbbc
00000310: 475b f33a 1d2d 7a3e 3fb3 ffbc 3a64 cdbd
00000320: 9678 e9bd f3a8 9a3b 0547 9fbb d800 6fbd
00000330: 8709 5fbd 0646 04bc 7eae 1bbe c1f3 d9bd
00000340: 7c8d d5bd 07d8 e53d dd83 06be fe4f 73bd
00000350: 0cee 68bd a3a2 e63d 3a5a 243c 79fa 53be
00000360: 819a 36be c353 0bbe 3e74 cfbd e44b 55be
00000370: 6b88 34be cb36 1ebd 9dbc d8bd 553e 373c
00000380: 7e27 60bd fe9a d03c eb48 aebb 0441 5fbd
00000390: a04d 083d b49b c63d 4c6e 97bc 90fe e3bb
000003a0: 3d4f a53c d053 c33c 4b1c c6bd 9015 d1bd
000003b0: 485d 763b cd26 11be 9c3b 833c df50 d73d
000003c0: 99fc 8cbd 91e1 54bc 3adc 9dbd eb21 48bd
000003d0: a152 e2bd 4273 d6bc 153e 083e 7dbd 003e
000003e0: ea31 7bbd a1f1 4b3e 99f3 9e3d 724e 88bd
000003f0: bc5d b1bd a28e 9cbd 6ebf 423d 5edf 53bd

net.layer3.0.bias f4 [32]
0.055639435 -0.022957329 -0.011093305 0.02566074 0.049117006 0.04894533 -0.051430713 -0.05898245
-0.007263549 -0.0038587966 -0.017217722 -0.014256163 -0.043184612 0.006854178 0.046526805 -0.004242017
-0.029204855 0.0020457203 0.04504344 0.01372303 0.014392365 -0.0129883755 0.031627096 0.023155328
0.008983734 -0.042331547 0.044222187 0.020794647 0.016804323 0.05156752 -0.012440808 -0.029472053
00000000: 2de6 633d 0211 bcbc b2c0 35bc 7936 d23c
00000010: ea2e 493d e67a 483d 03a9 52bd 9597 71bd
00000020: 1103 eebb dde3 7cbb 2e0c 8dbc ae92 69bc
00000030: 59e2 30bd 0399 e03b e492 3e3d 9e00 8bbb
00000040: 053f efbc 7e11 063b 787f 383d 8fd6 603c
00000050: f4cd 6b3c 32cd 54bc 6a8b 013d 3eb0 bd3c
00000060: 8330 133c d863 2dbd 5322 353d 8959 aa3c
00000070: 38a9 893c 7738 533d 88d4 4bbc 606f f1bc

net.layer3.1.weight f4 [32]
1.0994222 1.1976993 0.92086214 1.0293859 0.905669 0.96070004 1.2250559 0.9970237
0.937548 0.956661 0.9666359 1.1394448 0.76382303 0.9715378 0.84561926 0.81844795
0.88139045 1.1018745 0.922797 1.0355977 1.0538052 1.1470699 0.8016046 0.9452031
1.065349 0.9557036 0.95488775 1.008539 1.1499455 0.86835456 0.93877685 0.95115405
00000000: deb9 8c3f 364e 993f 9fbd 6b3f ebc2 833f
00000010: ecd9 673f 70f0 753f a2ce 9c3f f23c 7f3f
00000020: 2503 703f bce7 743f 7375 773f 54d9 913f
00000030: e889 433f b4b6 783f 817a 583f ce85 513f
00000040: cea2 613f 390a 8d3f 6d3c 6c3f 778e 843f
00000050: 17e3 863f 30d3 923f f635 4d3f d5f8 713f
00000060: 5b5d 883f fea8 743f 8673 743f ce17 813f
00000070: 6a31 933f 7c4c 5e3f ae53 703f d57e 733f

net.layer3.1.bias f4 [32]
-0.12424358 -0.24720438 -0.20769782 -0.35990736 0.12987617 -0.19175705 -0.042090785 -0.019272726
-0.033154532 -0.05430793 -0.15832594 -0.009091291 -0.32792175 -0.30915394 0.06016214 0.01031818
-0.4492227 -0.21497236 -0.3402132 -0.39517143 -0.42342904 -0.33180055 0.18369876 0.17845953
-0.22985892 -0.22381476 -0.109499626 -0.2135174 -0.19689219 -0.19625878 -0.2195043 -0.36027187
00000000: 6b73 febd 2523 7dbe bdae 54be c745 b8be
00000010: 42fe 043e f65b 44be 6367 2cbd d6e1 9dbc
00000020: 0ccd 07bd fe71 5ebd 3220 22be a3f3 14bc
00000030: 5ce5 a7be 6d49 9ebe 936c 763d 950d 293c
00000040: 8500 e6be b721 5cbe 6d30 aebe e953 cabe
00000050: b1cb d8be c3e1 a9be 871b 3c3e 18be 363e
00000060: 2360 6bbe b22f 65be 5741 e0bd 4ea4 5abe
00000070: 1b9e 49be 10f8 48be bcc5 60be 8e75 b8be

net.layer3.1.running_mean f4 [32]
0.0 0.0 0.0 0.0 0.0 0.0 0.0 0.0
0.0 0.0 0.0 0.0 0.0 0.0 0.0 0.0
0.0 0.0 0.0 0.0 0.0 0.0 0.0 0.0
0.0 0.0 0.0 0.0 0.0 0.0 0.0 0.0
00000000: 0000 0000 0000 0000 0000 0000 0000 0000
00000010: 0000 0000 0000 0000 0000 0000 0000 0000
00000020: 0000 0000 0000 0000 0000 0000 0000 0000
00000030: 0000 0000 0000 0000 0000 0000 0000 0000
00000040: 0000 0000 0000 0000 0000 0000 0000 0000
00000050: 0000 0000 0000 0000 0000 0000 0000 0000
00000060: 0000 0000 0000 0000 0000 0000 0000 0000
00000070: 0000 0000 0000 0000 0000 0000 0000 0000

net.layer3.1.running_var f4 [32]
1.0 1.0 1.0 1.0 1.0 1.0 1.0 1.0
1.0 1.0 1.0 1.0 1.0 1.0 1.0 1.0
1.0 1.0 1.0 1.0 1.0 1.0 1.0 1.0
1.0 1.0 1.0 1.0 1.0 1.0 1.0 1.0
00000000: 0000 803f 0000 803f 0000 803f 0000 803f
00000010: 0000 803f 0000 803f 0000 803f 0000 803f
00000020: 0000 803f 0000 803f 0000 803f 0000 803f
00000030: 0000 803f 0000 803f 0000 803f 0000 803f
00000040: 0000 803f 0000 803f 0000 803f 0000 803f
00000050: 0000 803f 0000 803f 0000 803f 0000 803f
00000060: 0000 803f 0000 803f 0000 803f 0000 803f
00000070: 0000 803f 0000 803f 0000 803f 0000 803f

net.layer4.0.weight f4 [32, 32, 3, 3]
-0.11226429 -0.06947076 -0.08442925 -0.088364944 -0.020052169 -0.13697128 -0.10309351 -0.014695936
-0.16508369 0.3305474 0.22201815 0.32607958 0.17485546 0.12906995 0.16141431 0.3053696
0.1491776 0.2330878 -0.06346125 -0.021794748 0.036464933 -0.06849671 0.003524064 -0.03997671
-0.060605153 -0.060929026 0.001228599 0.021700062 0.024690159 0.039613843 -0.02433343 -0.030428411
0.009811302 0.12312916 -0.01299492 0.019014753 -0.018496504 0.05160109 0.03970882 0.023467692
0.09852553 0.11885125 -0.014595198 0.012326098 0.060367104 -0.075612806 0.0327922 -0.15251711
-0.029487101 0.07583884 -0.09098504 0.020383928 0.11009236 -0.056696586 -0.19678314 -0.19632457
-0.18693079 -0.06778496 -0.06254123 -0.19573376 -0.0025686035 -0.0079596415 -0.070419334 0.03201468
0.032643855 -0.019203806 0.12431643 -0.010933176 -0.044073123 0.11493825 0.03667158 0.039983638
0.14570113 0.1321005 0.0855164 0.11373308 0.06514707 0.05811307 0.09848109 0.04064788
0.09405467 0.17479838 0.14858674 0.14300941 0.11272338 0.011242033 0.21619198 0.13525012
0.18413508 0.17161682 -0.09412858 -0.11282846 -0.22399941 -0.02365669 -0.07253814 -0.016635532
-0.09742594 -0.053932972 -0.006371104 -0.029397864 0.078953795 0.12027862 0.04581663 0.04170817
0.04094259 -0.0026469661 0.09958841 0.08796169 -0.045034867 -0.04992841 -0.025669035 -0.06391852
-0.040277906 -0.10815895 -0.08577815 0.071622536 -0.04417341 -0.31064168 -0.19047786 -0.29254496
-0.19884898 -0.035942193 -0.18080795 -0.20549387 -0.0027121543 -0.22948267 0.096799485 0.12784019
0.1104618 0.0759078 0.027792366 0.07029452 0.36072612 0.14875865 0.31931034 0.026639298
0.09995366 0.1263926 -0.14740728 -0.12648137 -0.04487851 -0.10820686 -0.055561587 0.0041207387
-0.04743756 -0.03447316 -0.017486379 -0.13000329 0.029324694 -0.0057487222 -0.06166707 -0.14585353
0.07228131 0.25722063 0.28717613 0.20880091 -0.05077408 -0.073125176 0.09052275 0.19616021
0.06286472 0.25756228 0.033836078 -0.067153 0.05764867 0.12523016 0.08501156 0.1366095
0.08227131 0.058345675 0.13274977 -0.123354584 -0.18634583 -0.24462408 -0.020864662 -0.14721043
-0.24272215 -0.044845916 -0.101006955 -0.16225938 -0.053194076 -0.0068262834 0.056599937 0.039565362
0.06638922 0.11910191 -0.013504279 0.071775466 0.13153908 -0.15853424 -0.06692985 -0.13664442
-0.075610854 0.006325353 -0.12821469 -0.14117934 -0.024098175 -0.101176366 -0.030434435 0.0075986004
0.14584762 0.00025490235 0.099560924 0.062373076 -0.02989476 -0.036912594 0.068508945 0.040612202
0.07687687 0.11496417 0.07238337 0.024137395 0.030046744 0.09596701 -0.09032732 0.053648792
-0.059031278 -0.11911097 -0.020398881 -0.11583735 -0.20544633 -0.11491657 -0.10329681 -0.10228303
-0.10608193 -0.11068335 -0.023889394 -0.017163709 -0.06714247 0.02882682 -0.00627445 -0.002774133
-0.018648008 0.06790006 -0.04415098 -0.13060728 0.08743845 -0.13380499 -0.16253556 0.0009087564
0.04267257 0.0034778714 0.10012272 0.12261868 0.10756319 -0.0038505937 0.14869252 0.117982306
0.053935073 0.14752801 0.11766851 0.16721798 0.0020189611 -0.023166195 -0.11212577 -0.107252166
00000000: d2ea e5bd b046 8ebd 3ee9 acbd aef8 b4bd
00000010: 7244 a4bc 3342 0cbe b122 d3bd 39c7 70bc
00000020: b30b 29be 823d a93e ba58 633e e7f3 a63e
00000030: 4f0d 333e ea2a 043e cb49 253e 6759 9c3e
00000040: 03c2 183e 91ae 6e3e f9f7 81bd e68a b2bc
00000050: 415c 153d 0148 8cbd fcf3 663b 9ebe 23bd
00000060: 1c3d 78bd b790 79bd f108 a13a 54c4 b13c
00000070: 0443 ca3c 2042 223d e756 c7bc 0145 f9bc
00000080: 95bf 203c 242b fc3d a5e8 54bc d4c4 9b3c
00000090: fb85 97bc aa5b 533d b7a5 223d 513f c03c
000000a0: c1c7 c93d 4968 f33d b320 6fbc 67f3 493c
000000b0: 7f43 773d e3da 9abd 1d51 063d 722d 1cbe
000000c0: ef8e f1bc 6551 9b3d 5d56 babd 32fc a63c
000000d0: 1a78 e13d ae3a 68bd 8581 49be 4f09 49be
000000e0: c96a 3fbe d7d2 8abd 9e15 80bd 6e6e 48be
000000f0: 0456 28bb 2869 02bc 0338 90bd d321 033d
00000100: 90b5 053d 4d51 9dbc 9d99 fe3d 1021 33bc
00000110: 0586 34bd bf64 eb3d f034 163d e2c5 233d
00000120: ad32 153e 5a45 073e 3923 af3d e4ec e83d
00000130: d46b 853d f807 6e3d 74b0 c93d 647e 263d
00000140: bc9f c03d 59fe 323e 1f27 183e 0f71 123e
00000150: 84db e63d 8130 383c 6e61 5d3e 027f 0a3e
00000160: e88d 3c3e 52bc 2f3e 7cc6 c0bd 9c12 e7bd
00000170: 1a60 65be adcb c1bc e08e 94bd 3d47 88bc
00000180: 4087 c7bd d2e8 5cbd b2c4 d0bb cad3 f0bc
00000190: 87b2 a13d a354 f63d 38aa 3b3d 30d6 2a3d
000001a0: 6bb3 273d b978 2dbb 02f5 cb3d 4225 b43d
000001b0: 7b76 38bd bc81 4cbd de47 d2bc b7e7 82bd
000001c0: 72fa 24bd 7182 ddbd 74ac afbd d6ae 923d
000001d0: 2def 34bd 6d0c 9fbe a10c 43be 74c8 95be
000001e0: 119f 4bbe 1f38 13bd b825 39be fc6c 52be
000001f0: 66be 31bb 81fd 6abe cf3e c63d 8ae8 023e
00000200: cc39 e23d 8c75 9b3d d1ac e33c 93f6 8f3d
00000210: 18b1 b83e 3054 183e a57c a33e a83a da3c
00000220: 81b4 cc3d 106d 013e eff1 16be 5584 01be
00000230: 87d2 37bd 8f9b ddbd 8c94 63bd 4307 873b
00000240: e34d 42bd ba33 0dbd 983f 8fbc 951f 05be
00000250: 573a f03c c75f bcbb 9c96 7cbd a15a 15be
00000260: 3908 943d 6cb2 833e c008 933e e8cf 553e
00000270: 7bf8 4fbd a7c2 95bd fe63 b93d 39de 483e
00000280: 38bf 803d 34df 833e b397 0a3d 8387 89bd
00000290: 0321 6c3d 563c 003e 8a1a ae3d 5ce3 0b3e
000002a0: dc7d a83d e0fb 6e3d 8eef 073e 54a1 fcbd
000002b0: 71d1 3ebe bc7e 7abe 5eec aabc 55be 16be
000002c0: 288c 78be 5ab0 37bd bcdc cebd 5327 26be
000002d0: 08e2 59bd 04af dfbb 56d5 673d 4a0f 223d
000002e0: 12f7 873d b4eb f33d 0d41 5dbc 04ff 923d
000002f0: 2eb2 063e cd56 22be 8412 89bd 84ec 0bbe
00000300: ddd9 9abd e844 cf3b b64a 03be 5191 10be
00000310: 8969 c5bc 8e35 cfbd a351 f9bc aefd f83b
00000320: 1459 153e 6aa4 8539 99e6 cb3d e97a 7f3d
00000330: dbe5 f4bc a931 17bd 6b4e 8c3d fb58 263d
00000340: 9f71 9d3d 5672 eb3d bb3d 943d c9bb c53c
00000350: 9724 f63c 5a8a c43d 88fd b8bd d6be 5b3d
00000360: c8ca 71bd 74f0 f3bd 8e1b a7bc 223c edbd
00000370: 8660 52be 6159 ebbd 478d d3bd c479 d1bd
00000380: 7c41 d9bd f4ad e2bd b1b3 c3bc e89a 8cbc
00000390: fe81 89bd 3926 ec3c e799 cdbb 3bce 35bb
000003a0: b5c3 98bc 300f 8b3d a8d7 34bd eabd 05be
000003b0: ee12 b33d 2d04 09be b96f 26be 9c39 6e3a
000003c0: 6fc9 2e3d 00ed 633b 240d cd3d 811f fb3d
000003d0: 174a dc3d 3e5a 7cbb da42 183e b5a0 f13d
000003e0: 06eb 5c3d 9511 173e 30fc f03d 313b 2b3e
000003f0: 8c50 043b 08c7 bdbc 32a2 e5bd 06a7 dbbd

net.layer4.0.bias f4 [32]
-0.0011458436 -0.019513825 -0.02911589 0.019121358 0.010571967 0.021354472 -0.05870214 0.013208153
0.03353896 -0.025380952 0.031446543 -0.013068587 -0.015601689 0.0071873823 0.044990283 -0.02385055
0.009359576 0.058100745 0.020878118 0.02017269 0.037458364 -0.035856944 -0.0011291866 0.03963142
0.018097108 -0.043232467 0.042308245 0.027574658 -0.032803413 0.02717782 0.050258487 0.029649032
00000000: 2230 96ba 75db 9fbc 7284 eebc 65a4 9c3c
00000010: 0b36 2d3c 93ef ae3c a871 70bd 0267 583c
00000020: 2660 093d b7eb cfbc 17ce 003d a01d 56bc
00000030: 3a9e 7fbc 2284 eb3b bb47 383d 3b62 c3bc
00000040: e858 193c 0cfb 6d3d 9608 ab3c 3241 a53c
00000050: f16d 193d bbde 12bd 3701 94ba 8e54 223d
00000060: 6340 943c 8714 31bd 694b 2d3d 40e4 e13c
00000070: df5c 06bd 05a4 de3c d8db 4d3d 87e2 f23c

net.layer4.1.weight f4 [32]
1.6230267 0.16980007 2.6501148 1.8578396 1.7036518 1.7260548 1.9087409 2.010136
1.6865768 1.9629457 0.18409345 0.18857862 1.5005374 1.7701774 0.18844607 0.20349342
0.54150134 1.5226662 0.6209627 0.23401491 2.1222367 1.1181233 1.9335574 0.17430335
0.6362547 1.0173395 0.2010982 1.4643699 1.7373289 2.2364948 2.2576864 1.7855507
00000000: 57bf cf3f 12e0 2d3e 7b9b 2940 b0cd ed3f
00000010: 4311 da3f 5def dc3f 9f51 f43f 11a6 0040
00000020: c0e1 d73f ce41 fb3f fe82 3c3e c11a 413e
00000030: 9c11 c03f 2c95 e23f 02f8 403e 9460 503e
00000040: d59f 0a3f bae6 c23f 69f7 1e3f 9ba1 6f3e
00000050: bad2 0740 aa1e 8f3f cf7e f73f 947c 323e
00000060: 97e1 223f 2e38 823f b0ec 4d3e 7970 bb3f
00000070: cb60 de3f bb22 0f40 ef7d 1040 ed8c e43f

net.layer4.1.bias f4 [32]
0.60367143 -0.37839875 -0.02636834 0.3685996 0.18688798 0.9118178 0.6338734 0.38951197
0.24065456 -0.23931915 -0.24639113 -0.39348403 0.21293557 0.8124469 -0.3063189 -0.27661356
-0.18205845 0.42734736 -0.082721114 -0.40347916 0.8980049 0.22021168 0.5736884 -0.42800245
-0.036097698 -0.1007694 -0.37475607 0.49577618 0.35432413 0.28497893 0.036743686 0.2792783
00000000: 368a 1a3f 7bbd c1be 6b02 d8bc 16b9 bc3e
00000010: 905f 3f3e e46c 693f 8745 223f 1d6e c73e
00000020: 266e 763e 1410 75be f54d 7cbe bd76 c9be
00000030: c80b 5a3e 85fc 4f3f d5d5 9cbe 4ba0 8dbe
00000040: 886d 3abe 46cd da3e b069 a9bd d294 cebe
00000050: a6e3 653f 2c7f 613e 3edd 123f 2323 dbbe
00000060: 2edb 13bd 3060 cebd 07e0 bfbe 60d6 fd3e
00000070: f969 b53e c2e8 913e 8c80 163d 91fd 8e3e

net.layer4.1.running_mean f4 [32]
0.0 0.0 0.0 0.0 0.0 0.0 0.0 0.0
0.0 0.0 0.0 0.0 0.0 0.0 0.0 0.0
0.0 0.0 0.0 0.0 0.0 0.0 0.0 0.0
0.0 0.0 0.0 0.0 0.0 0.0 0.0 0.0
00000000: 0000 0000 0000 0000 0000 0000 0000 0000
00000010: 0000 0000 0000 0000 0000 0000 0000 0000
00000020: 0000 0000 0000 0000 0000 0000 0000 0000
00000030: 0000 0000 0000 0000 0000 0000 0000 0000
00000040: 0000 0000 0000 0000 0000 0000 0000 0000
00000050: 0000 0000 0000 0000 0000 0000 0000 0000
00000060: 0000 0000 0000 0000 0000 0000 0000 0000
00000070: 0000 0000 0000 0000 0000 0000 0000 0000

net.layer4.1.running_var f4 [32]
1.0 1.0 1.0 1.0 1.0 1.0 1.0 1.0
1.0 1.0 1.0 1.0 1.0 1.0 1.0 1.0
1.0 1.0 1.0 1.0 1.0 1.0 1.0 1.0
1.0 1.0 1.0 1.0 1.0 1.0 1.0 1.0
00000000: 0000 803f 0000 803f 0000 803f 0000 803f
00000010: 0000 803f 0000 803f 0000 803f 0000 803f
00000020: 0000 803f 0000 803f 0000 803f 0000 803f
00000030: 0000 803f 0000 803f 0000 803f 0000 803f
00000040: 0000 803f 0000 803f 0000 803f 0000 803f
00000050: 0000 803f 0000 803f 0000 803f 0000 803f
00000060: 0000 803f 0000 803f 0000 803f 0000 803f
00000070: 0000 803f 0000 803f 0000 803f 0000 803f

net.classifier.weight f4 [5, 800]
0.013606367 0.003695988 0.022901444 0.00033577642 -0.0033060357 0.02657283 0.0635125 -0.0053019733
0.023571223 -0.00060015556 -0.024055688 0.0149741 0.028596668 -0.007930056 -0.011637886 -0.018424131
-0.022788212 0.026841396 -0.0063600508 0.013814099 -0.026245855 -0.027500078 -0.026242385 0.07094489
0.0012093219 -0.0037970555 0.06318609 0.017616205 -0.028906276 0.07219392 0.058652766 -0.059617277
0.021384401 -0.019172622 0.015611151 -0.015832929 0.01936459 -0.04136069 -0.044077408 -0.03822255
0.010347329 0.009288267 0.060292445 0.007176774 0.007755158 0.015521451 -0.0024786084 -0.020393034
-0.03931757 0.021999618 0.0344209 0.05168333 -0.028495 -0.00479162 -0.028405482 0.022785949
0.0091852425 -0.033108268 -0.018478176 -0.0071725226 -0.032644503 -0.021209093 -0.033314563 0.004366435
0.03497152 -0.020390917 -0.007949862 0.008391695 -0.02909153 0.0028545456 -0.0034154782 -0.007402738
-0.002955832 0.007987751 0.0015954026 -0.002623347 0.018595973 -0.015896464 0.02830038 0.01539695
0.038729925 -0.01619872 0.038846493 -0.034849696 -0.023070566 -0.028837137 -0.015054144 -0.00014568631
-0.008627049 -0.04317017 -0.017662939 0.021905195 -0.010479114 0.008939912 -0.025882516 -0.003678083
-0.015033183 0.0031563975 -0.004297022 -0.03148358 0.012715735 -0.021552248 -0.019532152 -0.030313088
-0.0018823822 0.028550744 0.066774 0.01896285 0.025329806 0.038877424 -0.016519109 -0.0023973542
-0.038675614 0.021108614 0.020142365 -0.021509564 0.033096954 -0.013412372 -0.010972699 0.017492903
-0.0011980047 -0.013672456 0.0135245975 -0.022304839 0.01435631 -0.0077666594 0.0033398187 -0.0117579345
-0.020559441 0.005573624 0.018073417 0.0023924857 0.014967193 -0.0033743163 0.05847141 -0.0077668913
-0.0062719113 0.03420292 0.0203064 0.0064274725 0.02012475 0.027688343 -0.020984698 0.012295491
0.013487215 0.037832744 -0.02824417 0.02873638 0.013473419 -0.0022483405 0.025629036 -0.010177584
-0.025584068 -0.029306792 -0.016923534 0.008349791 0.032631826 0.0047937976 -0.030099047 0.0017026298
0.028763866 -0.0073056933 -0.020436395 -0.060414903 0.00019180845 -0.002703058 0.0022390718 -0.009376883
0.013955721 -0.01511151 0.0029361993 0.022190053 -0.018332535 -0.00916079 0.03694672 -0.01452501
0.027910061 0.013787678 -0.018328141 0.0049041566 0.03347723 0.025489856 0.016191348 -0.018844016
0.02478636 -0.018951692 -0.01809467 0.01041115 -0.0219186 0.03681045 0.015739612 0.0008161011
0.0047401553 -0.0056029093 -0.029097589 0.016657263 0.009258892 -0.023247184 -0.03893304 -0.0099487025
0.04716978 0.018681835 0.020930542 -0.014459859 0.039391726 0.009079663 0.027312635 -0.009083368
-0.029294526 -0.019429069 0.051925372 -0.035130113 0.006975922 0.043721877 0.009471587 0.019994821
0.0278196 -0.01635332 -0.027824147 -0.050339438 -0.04457132 0.03403647 -0.011477401 0.011111249
0.020156002 0.034191307 0.0011747025 -0.0031787737 -0.00015922217 -0.0069956407 0.010376203 -0.030925255
-0.0098675955 -0.031175405 -0.010566149 -0.0007300218 -0.014266895 0.012507144 -0.014150288 0.0074320594
0.03950993 -0.009732482 -0.045595165 0.024881618 -0.014657208 0.0119322 0.045057148 0.007660732
0.044112254 -0.012790835 0.020409808 -0.014925438 0.031277895 -0.0118538765 0.047288 -0.022243038
00000000: 3ded 5e3c 6438 723b cf9b bb3c 260b b039
00000010: 13aa 58bb 43af d93c d712 823d 2dbc adbb
00000020: 7018 c13c c253 1dba 6f10 c5bc ed55 753c
00000030: 8f43 ea3c 11ed 01bc d5ac 3ebc 34ee 96bc
00000040: 58ae babc 7de2 db3c f967 d0bb 8854 623c
00000050: 8c01 d7bc d847 e1bc 45fa d6bc 8e4b 913d
00000060: 1c82 9e3a 05d8 78bb b567 813d dc4f 903c
00000070: dbcc ecbc 68da 933d e23d 703d 3f31 74bd
00000080: 572e af3c e70f 9dbc eac5 7f3c 0fb4 81bc
00000090: 7da2 9e3c d469 29bd 838a 34bd 408f 1cbd
000000a0: d887 293c d12d 183c 36f5 763d 252b eb3b
000000b0: fb1e fe3b af4d 7e3c 2670 22bb 4b0f a7bc
000000c0: 760b 21bd 8b38 b43c eefc 0c3d e6b1 533d
000000d0: 596e e9bc 0603 9dbb 9db2 e8bc 99a9 ba3c
000000e0: b37d 163c 899c 07bd 8b5f 97bc 7b07 ebbb
000000f0: 3eb6 05bd b1be adbc da74 08bd 5014 8f3b
00000100: 4c3e 0f3d da0a a7bc 2340 02bc 527d 093c
00000110: 5c51 eebc 5413 3b3b 37d6 5fbb ab92 f2bb
00000120: a2b6 41bb 0edf 023c d41c d13a 76ec 2bbb
00000130: 9556 983c 4d39 82bc 33d6 e73c 7d43 7c3c
00000140: 45a3 1e3d 2eb3 84bc 801d 1f3d 8ebe 0ebd
00000150: 7cfe bcbc dc3b ecbc a8a5 76bc 5fc3 18b9
00000160: 7758 0dbc 34d3 30bd deb1 90bc 8672 b33c
00000170: 97b0 2bbc b578 123c 9207 d4bc fe0b 71bb
00000180: bd4d 76bc 90db 4e3b 08ce 8cbb edf4 00bd
00000190: a855 503c 578e b0bc e401 a0bc 2753 f8bc
000001a0: 44ba f6ba 40e3 e93c cfc0 883d fb57 9b3c
000001b0: 7480 cf3c ef3d 1f3d 1553 87bc ee1c 1dbb
000001c0: 526a 1ebd f9eb ac3c 9a01 a53c d334 b0bc
000001d0: ac90 073d 91bf 5bbc d6c6 33bc 474d 8f3c
000001e0: 5e06 9dba 7002 60bc 4696 5d3c a3b8 b6bc
000001f0: ba36 6b3c 767f febb dce0 5a3b 5aa4 40bc
00000200: 466c a8bc f2a2 b63b b40e 943c 40cb 1c3b
00000210: f538 753c a223 5dbb b87f 6f3d 6881 febb
00000220: 9b84 cdbb 5c18 0c3d 9b59 a63c 8c9d d23b
00000230: a9dc a43c aad2 e23c 1ae8 abbc 0773 493c
00000240: 7bf9 5c3c 82f6 1a3d 5160 e7bc 8f68 eb3c
00000250: 9dbf 5c3c e558 13bb fcf3 d13c e2bf 26bc
00000260: ae95 d1bc cc14 f0bc 39a3 8abc 90cd 083c
00000270: f3a8 053d 4a15 9d3b 4792 f6bc c72a df3a
00000280: 33a2 eb3c 9964 efbb 3a6a a7bc 9e75 77bd
00000290: 3020 4939 ca25 31bb 64bd 123b 7fa1 19bc
000002a0: 89a6 643c 4496 77bc 406d 403b eac7 b53c
000002b0: 1d2e 96bc 2317 16bc 7255 173d 4ffa 6dbc
000002c0: a4a3 e43c b7e5 613c e624 96bc 0cb3 a03b
000002d0: 6c1f 093d 1ad0 d03c b8a3 843c c45e 9abc
000002e0: c40c cb3c 9440 9bbc 463b 94bc 8793 2a3c
000002f0: a38e b3bc 8ec6 163d 5cf0 803c 9eef 553a
00000300: 4e53 9b3b 9c98 b7bb 115e eebc d074 883c
00000310: 9cb2 173c e170 bebc 4078 1fbd e2ff 22bc
00000320: 1935 413d a60a 993c 8776 ab3c 0be9 6cbc
00000330: 3859 213d dec2 143c bfbe df3c 68d2 14bc
00000340: 13fb efbc b629 9fbc b3af 543d 98e4 0fbd
00000350: 4696 e43b b615 333d b72e 1b3c 2ecc a33c
00000360: eee5 e33c 66f7 85bc 77ef e3bc ba30 4ebd
00000370: 6b90 36bd d369 0b3d b50b 3cbc f50b 363c
00000380: 331e a53c 2f0c 0c3d 7af8 993a f952 50bb
00000390: e0f4 26b9 b03b e5bb f300 2a3c f656 fdbc
000003a0: b2ab 21bc 9063 ffbc a41d 2dbc ef5e 3fba
000003b0: b2bf 69bc c4ea 4c3c 9cd6 67bc a288 f33b
000003c0: 2ad5 213d fd74 1fbc ffc1 3abd 89d4 cb3c
000003d0: c924 70bc 467f 433c d88d 383d e106 fb3b
000003e0: 0daf 343d a790 51bc 7832 a73c d389 74bc
000003f0: 401d 003d c336 42bc 10b1 413d 0837 b6bc

net.classifier.bias f4 [5]
0.007631824 0.004002874 0.016902074 0.01765885 0.0020415422
00000000: 6114 fa3b 8a2a 833b 3876 8a3c 4ba9 903c
00000010: 65cb 053b
