old_mp/maml_omni_5way_1shot_epoch1_conv_first.pt (torch, 462426 bytes, 26 tensors)

net.layer1.0.weight f4 [64, 1, 3, 3]
0.09458093 -0.009435509 -0.11258282 0.027266588 0.07501163 0.06873279 0.008123317 0.045011383
0.027654802 -0.0026165252 -0.07493668 0.025341406 -0.04580636 0.14245358 0.01417136 0.010925053
-0.001622902 -0.09849946 -0.04536 -0.072366096 -0.087518774 -0.042275373 -0.04722029 0.02652735
0.071288325 0.1494731 0.06546634 0.07794899 0.10605204 0.1039576 -0.061268885 -0.044186056
-0.11427562 -0.0014758179 -0.03510622 0.017494109 0.060719468 0.040276192 -0.044064485 -0.06077135
0.12594703 0.003097593 -0.0690732 -0.013359741 0.08554416 -0.03444855 0.024493929 0.08558911
-0.023241675 -0.09599617 -0.093466446 0.074074104 0.09887736 0.0066930735 -0.029490415 -0.022065643
0.063926876 0.056862187 -0.08584007 0.029560504 -0.06695996 -0.037078843 0.123691835 0.041871518
0.071830094 -0.031146351 -0.05099638 0.020642877 0.085488826 0.050421808 -0.064521074 0.025040954
-0.046864383 0.06856293 -0.077181384 0.017909788 0.016014379 0.009463252 0.06495092 -0.029243466
0.11854858 -0.027742673 0.010965449 -0.082724996 0.12380954 0.015636371 -0.033961706 0.029288314
0.123725936 -0.004954264 -7.5287004e-05 -0.02178823 -0.058932878 0.014528734 0.13927525 -0.016839577
-0.07375974 -0.0069929576 0.022289783 -0.029831123 0.027945463 0.10749028 0.007221216 -0.028255137
-0.0058374237 -0.03463467 -0.05994981 0.14069922 0.043861214 -0.021994902 -0.046158377 -0.039939545
0.13881351 -0.032880448 -0.015248628 -0.044694044 0.09568688 -0.06417572 0.04084027 0.06424546
0.021997906 -0.0026635756 0.045678545 0.11017499 0.0023390464 -0.006283951 0.06426313 -0.09265773
0.08896754 0.044734105 -0.027077306 -0.02843071 0.082069665 -0.029712 0.025126288 0.014839819
0.083877236 -0.06685681 0.091750346 -0.026670698 0.0076702363 0.023980528 0.085242465 -0.09684893
0.02239504 -0.06686537 -0.042826958 0.023191158 -0.02212658 0.11447904 -0.032237593 0.026355078
0.07102207 -0.08477438 0.101309374 0.117726006 -0.04009755 0.08626096 0.0130835585 -0.050548226
-0.023158344 0.10790905 -0.043186296 -0.071590185 0.032065798 0.07212363 0.10158947 0.11235346
-0.02104187 0.01197919 -0.12414473 0.039559796 -0.029844265 -0.01705342 -0.04637962 0.023941446
0.13116829 0.062332634 0.03758241 0.07996212 -0.053022366 -0.060136653 -0.058768887 -0.014809627
0.12113187 0.03529417 0.11155653 -0.0019098526 0.082844146 -0.050098334 -0.015346832 -0.0063282247
-0.04569807 -0.032434136 0.0842081 0.11221057 0.12763111 0.0013672418 -0.049716465 0.07727182
0.06618309 0.014436605 -0.03180503 0.068493664 0.08524861 -0.024528336 -0.034046046 0.049240418
-0.07335278 0.033075128 -0.076909944 -0.024135716 0.074018605 0.005785692 0.08227904 0.028157076
-0.015396575 -0.08523075 -0.023768209 0.0074178004 0.005408988 -0.011435475 -0.05621379 0.10107595
-0.09487261 -0.035475448 0.069787465 -0.08406111 -0.0727501 0.09892077 -0.016128344 -0.08953671
0.11935698 -0.045511324 -0.015323659 0.09002761 0.092576705 -0.087154336 -0.04909869 -0.020969694
0.027727488 0.12099404 0.088988945 0.09487705 0.117483936 -0.008373318 -0.0661851 -0.05530063
-0.024566928 -0.018906686 0.06336087 0.02174821 -0.08733468 0.030537607 -0.08796573 -0.008394459
00000000: a6b3 c13d 6597 1abc d291 e6bd 2e5e df3c
00000010: b39f 993d c7c3 8c3d a917 053c db5d 383d
00000020: 538c e23c 027a 2bbb 6778 99bd c898 cf3c
00000030: 739f 3bbd 5adf 113e fe2e 683c fefe 323c
00000040: 8eb7 d4ba 16ba c9bd 68cb 39bd ad34 94bd
00000050: 0b3d b3bd f128 2dbd 106a 41bd e34f d93c
00000060: 9dff 913d 7a0f 193e 3713 863d b8a3 9f3d
00000070: d031 d93d b9e7 d43d 15f5 7abd 70fc 34bd
00000080: 5609 eabd 3b70 c1ba 8acb 0fbd ce4f 8f3c
00000090: fab4 783d a6f8 243d f67c 34bd 61eb 78bd
000000a0: 42f8 003e fd00 4b3b 4076 8dbd d1e2 5abc
000000b0: c731 af3d ec19 0dbd 7ea7 c83c 5849 af3d
000000c0: 5365 bebc a499 c4bd 566b bfbd 2ab4 973d
000000d0: 3780 ca3d 9251 db3b e295 f1bc 02c3 b4bc
000000e0: 18ec 823d 53e8 683d ebcc afbd df28 f23c
000000f0: 4e22 89bd fcdf 17bd 2552 fd3d 7881 2b3d
00000100: a81b 933d a226 ffbc 95e1 50bd 401b a93c
00000110: c414 af3d 1987 4e3d a023 84bd b022 cd3c
00000120: def4 3fbd b96a 8c3d 4611 9ebd 8cb7 923c
00000130: 9630 833c c10b 1b3c fd04 853d fe8f efbc
00000140: 99c9 f23d 9a44 e3bc 6da8 333c b96b a9bd
00000150: db8f fd3d d917 803c 6e1b 0bbd 0cee ef3c
00000160: 0664 fd3d 6157 a2bb 67e3 9db8 3b7d b2bc
00000170: 9a63 71bd ed09 6e3c 2c9e 0e3e 27f3 89bc
00000180: 590f 97bd 2e25 e5bb 1099 b63c 6660 f4bc
00000190: e2ed e43c dd23 dc3d f39f ec3b 5177 e7bc
000001a0: dc47 bfbb 15dd 0dbd ef8d 75bd 7513 103e
000001b0: d1a7 333d a72e b4bc 9110 3dbd a697 23bd
000001c0: 2125 0e3e a6ad 06bd 62d5 79bc 1a11 37bd
000001d0: 7cf7 c33d 8f6e 83bd 2148 273d 2093 833d
000001e0: f434 b43c 628f 2ebb 6d19 3b3d 6da3 e13d
000001f0: b04a 193b 9ae9 cdbb 639c 833d 56c3 bdbd
00000200: 9d34 b63d 1c3b 373d 3ad1 ddbc 85e7 e8bc
00000210: 2414 a83d 9566 f3bc a5d5 cd3c b622 733c
00000220: d4c7 ab3d 39ec 88bd 9be7 bb3d 827c dabc
00000230: 9b56 fb3b d072 c43c 9a93 ae3d bb58 c6bd
00000240: ce75 b73c b6f0 88bd 526b 2fbd 62fb bd3c
00000250: cd42 b5bc fd73 ea3d 910b 04bd 9be6 d73c
00000260: 0574 913d 319e adbd 4a7b cf3d 551a f13d
00000270: 543d 24bd 96a9 b03d 6c5c 563c a80b 4fbd
00000280: 91b6 bdbc 6cff dc3d 1de4 30bd e09d 92bd
00000290: 6d57 033d 8eb5 933d 240e d03d 9219 e63d
000002a0: 0060 acbc 5d44 443c 983f febd 7409 223d
000002b0: f67b f4bc 9db3 8bbc 8ef8 3dbd da20 c43c
000002c0: fb50 063e 8150 7f3d 03f0 193d 2ec3 a33d
000002d0: fb2d 59bd da51 76bd a5b7 70bd 14a4 72bc
000002e0: fc13 f83d 9f90 103d c077 e43d 0554 faba
000002f0: 31aa a93d e933 4dbd 4771 7bbc ff5c cfbb
00000300: e62d 3bbd a8d9 04bd 4c75 ac3d a8ce e53d
00000310: bbb1 023e 0635 b33a 7ea3 4bbd b040 9e3d
00000320: 008b 873d 8387 6c3c fe45 02bd 6846 8c3d
00000330: d396 ae3d a6ef c8bc de73 0bbd 52b0 493d
00000340: fb39 96bd c979 073d f682 9dbd 44b8 c5bc
00000350: 1197 973d e795 bd3b ea81 a83d aba9 e63c
00000360: eb41 7cbc 768d aebd 8cb5 c2bc 0511 f33b
00000370: e13d b13b dc5b 3bbc 6e40 66bd e800 cf3d
00000380: 924c c2bd b44e 11bd bbec 8e3d 3b28 acbd
00000390: 01fe 94bd f996 ca3d 971f 84bc 065f b7bd
000003a0: 6f71 f43d 156a 3abd 1610 7bbc 6560 b83d
000003b0: db98 bd3d f97d b2bd b51b 49bd a3c8 abbc
000003c0: c224 e33c b9cb f73d d63f b63d e64e c23d
000003d0: 6b9b f03d 3e30 09bc 0e8c 87bd ea82 62bd
000003e0: 9540 c9bc 32e2 9abc 58c3 813d 4d29 b23c
000003f0: 86dc b2bd 012a fa3c 6027 b4bd ea88 09bc

net.layer1.0.bias f4 [64]
-0.30958664 -0.13127083 0.09990527 0.30602407 -0.01162667 0.164495 -0.1223955 0.34783843
0.18793057 0.117614776 -0.24121378 -0.16525853 0.0076994244 -0.12576587 -0.058222756 0.03544192
-0.17569406 -0.3128252 -0.111139864 0.27654952 0.051180504 0.21516573 0.19283825 -0.36094984
-0.07535835 0.16207452 0.1472947 -0.21097508 -0.08826173 0.10221275 -0.23153612 -0.18112725
-0.30248275 -0.2102031 0.29918537 -0.080354474 -0.3376374 -0.23469988 0.11359822 0.044953797
0.1840084 0.24014321 0.012120866 0.21489125 -0.046204824 0.055968847 0.17101972 0.2197286
-0.19472942 0.11496688 0.2949707 0.045986596 -0.06857506 0.36511758 0.27058572 -0.10886075
0.04476946 0.2208937 0.32602423 0.25784266 0.06262744 -0.007933311 0.059233386 0.31405383
00000000: 2482 9ebe dc6b 06be 229b cc3d 30af 9c3e
00000010: ca7d 3ebc 6171 283e 7eaa fabd e117 b23e
00000020: df70 403e 04e0 f03d bf00 77be 8839 29be
00000030: 744b fc3b c5c8 00be fc7a 6ebd 8c2b 113d
00000040: 25e9 33be a02a a0be 4c9d e3bd e697 8d3e
00000050: a6a2 513d 6854 5c3e 6477 453e 6bce b8be
00000060: 7b55 9abd ddf6 253e 6cd4 163e da09 58be
00000070: 91c2 b4bd eb54 d13d ce17 6dbe 6c79 39be
00000080: 05df 9abe 7b3f 57be d32e 993e e390 a4bd
00000090: cfde acbe 2a55 70be 2fa6 e83d 7921 383d
000000a0: b36c 3c3e 1ae8 753e 9996 463c 740c 5c3e
000000b0: 4541 3dbd 973f 653d cb1f 2f3e 8900 613e
000000c0: 2667 47be c173 eb3d 6606 973e 715c 3c3d
000000d0: 1571 8cbd b1f0 ba3e 368a 8a3e 63f2 debd
000000e0: 2e60 373d f531 623e a6ec a63e f403 843e
000000f0: d142 803d b8fa 01bc b59e 723d aacb a03e

net.layer1.1.weight f4 [64]
1.101115 0.9635117 1.0471601 1.0055629 1.0672851 0.98956496 0.96570885 0.98229
0.9819568 0.9457535 1.0375398 0.9471511 1.0152538 1.0297768 0.97656447 1.000114
0.9376271 0.9670414 1.1046472 0.9505977 0.99768955 0.97533286 0.9954383 1.0114279
0.92544746 1.0975637 0.9536943 0.95470244 1.0560373 0.9791988 0.9968275 0.9896739
1.0200925 0.99192715 1.0268087 1.0015275 0.99529505 1.0505116 0.9368988 0.975702
0.9473266 1.0948274 1.0196434 0.97029036 0.989627 0.9811252 1.0262023 1.0427841
0.96953344 1.0052192 0.9781829 0.9594934 1.0316151 1.0701723 1.053024 1.0598722
0.9253827 0.9665151 1.0548148 0.96686745 1.0241051 1.0183669 1.0118244 1.0323175
00000000: 56f1 8c3f b4a8 763f 5809 863f 49b6 803f
00000010: cc9c 883f 2154 7d3f b238 773f 5c77 7b3f
00000020: 8561 7b3f e71c 723f 1bce 843f 7f78 723f
00000030: d6f3 813f bacf 833f 2100 7a3f bc03 803f
00000040: 5408 703f 0690 773f 1465 8d3f 5f5a 733f
00000050: 9568 7f3f 6aaf 793f 0bd5 7e3f 7876 813f
00000060: 20ea 6c3f f87c 8c3f 4f25 743f 6167 743f
00000070: 3b2c 873f c6ac 7a3f 1630 7f3f 455b 7d3f
00000080: 6492 823f f0ee 7d3f 786e 833f 0e32 803f
00000090: a8cb 7e3f 2a77 863f 9ad8 6f3f 9bc7 793f
000000a0: ff83 723f 4e23 8c3f ad83 823f f364 783f
000000b0: 3258 7d3f 052b 7b3f 995a 833f f379 853f
000000c0: 5833 783f 06ab 803f 326a 7a3f 5ca1 753f
000000d0: f70b 843f 68fb 883f 7ec9 863f e4a9 873f
000000e0: e1e5 6c3f 896d 773f 2c04 873f a084 773f
000000f0: e015 833f d959 823f 7683 813f fb22 843f

net.layer1.1.bias f4 [64]
0.044052027 -0.058934797 -0.08528366 -0.03784926 0.030580081 -0.16311885 -0.0129252095 -0.033964206
-0.10311476 -0.047748778 -0.09362948 -0.031236796 -0.07532055 -0.032348298 0.027532613 -0.07053321
-0.10184243 -0.07261465 0.029763483 -0.09362992 -0.044442914 -0.045671366 -0.040882908 -0.1465597
-0.18830793 -0.030494548 -0.0721318 -0.0022995512 -0.17205165 -0.04418208 -0.014755554 -0.09214595
-0.11478423 0.00034208555 -0.006412109 0.038903985 -0.05042323 -0.04104195 -0.05965614 -0.20218651
-0.12716897 -0.12029625 -0.16260754 -0.000700892 -0.011044815 -0.065913014 -0.044919968 -0.03371489
-0.13725974 -0.04654833 -0.007064193 -0.14470564 -0.038364075 -0.073322035 -0.055307392 -0.036261234
-0.035951495 -0.10077645 -0.025856363 -0.103398964 -0.15503867 -0.10494303 -0.01528515 -0.018951433
00000000: e66f 343d 9d65 71bd 33a9 aebd d307 1bbd
00000010: 1483 fa3c a108 27be 42c4 53bc 0d1e 0bbd
00000020: d52d d3bd 3994 43bd d0c0 bfbd 4fe4 ffbc
00000030: a941 9abd a67f 04bd 138c e13c b773 90bd
00000040: c492 d0bd fdb6 94bd 8cd2 f33c 0bc1 bfbd
00000050: c609 36bd e611 3bbd d674 27bd bf13 16be
00000060: cbd3 40be b4cf f9bc d6b9 93bd 11b4 16bb
00000070: 4f2e 30be 45f8 34bd 47c1 71bc 04b7 bcbd
00000080: ff13 ebbd f259 b339 ab1c d2bb c959 1f3d
00000090: 9788 4ebd 9b1b 28bd ff59 74bd fb09 4fbe
000000a0: 9538 02be e15d f6bd 9782 26be 11bc 37ba
000000b0: 50f5 34bc 67fd 86bd 00fe 37bd a018 0abd
000000c0: d18d 0cbe 76a9 3ebd bf7a e7bb b72d 14be
000000d0: a623 1dbd dd29 96bd 018a 62bd a986 14bd
000000e0: e041 13bd e263 cebd b9d0 d3bc d6c2 d3bd
000000f0: 75c2 1ebe 5fec d6bd 916e 7abc 0940 9bbc

net.layer1.1.running_mean f4 [64]
0.0 0.0 0.0 0.0 0.0 0.0 0.0 0.0
0.0 0.0 0.0 0.0 0.0 0.0 0.0 0.0
0.0 0.0 0.0 0.0 0.0 0.0 0.0 0.0
0.0 0.0 0.0 0.0 0.0 0.0 0.0 0.0
0.0 0.0 0.0 0.0 0.0 0.0 0.0 0.0
0.0 0.0 0.0 0.0 0.0 0.0 0.0 0.0
0.0 0.0 0.0 0.0 0.0 0.0 0.0 0.0
0.0 0.0 0.0 0.0 0.0 0.0 0.0 0.0
00000000: 0000 0000 0000 0000 0000 0000 0000 0000
00000010: 0000 0000 0000 0000 0000 0000 0000 0000
00000020: 0000 0000 0000 0000 0000 0000 0000 0000
00000030: 0000 0000 0000 0000 0000 0000 0000 0000
00000040: 0000 0000 0000 0000 0000 0000 0000 0000
00000050: 0000 0000 0000 0000 0000 0000 0000 0000
00000060: 0000 0000 0000 0000 0000 0000 0000 0000
00000070: 0000 0000 0000 0000 0000 0000 0000 0000
00000080: 0000 0000 0000 0000 0000 0000 0000 0000
00000090: 0000 0000 0000 0000 0000 0000 0000 0000
000000a0: 0000 0000 0000 0000 0000 0000 0000 0000
000000b0: 0000 0000 0000 0000 0000 0000 0000 0000
000000c0: 0000 0000 0000 0000 0000 0000 0000 0000
000000d0: 0000 0000 0000 0000 0000 0000 0000 0000
000000e0: 0000 0000 0000 0000 0000 0000 0000 0000
000000f0: 0000 0000 0000 0000 0000 0000 0000 0000

net.layer1.1.running_var f4 [64]
1.0 1.0 1.0 1.0 1.0 1.0 1.0 1.0
1.0 1.0 1.0 1.0 1.0 1.0 1.0 1.0
1.0 1.0 1.0 1.0 1.0 1.0 1.0 1.0
1.0 1.0 1.0 1.0 1.0 1.0 1.0 1.0
1.0 1.0 1.0 1.0 1.0 1.0 1.0 1.0
1.0 1.0 1.0 1.0 1.0 1.0 1.0 1.0
1.0 1.0 1.0 1.0 1.0 1.0 1.0 1.0
1.0 1.0 1.0 1.0 1.0 1.0 1.0 1.0
00000000: 0000 803f 0000 803f 0000 803f 0000 803f
00000010: 0000 803f 0000 803f 0000 803f 0000 803f
00000020: 0000 803f 0000 803f 0000 803f 0000 803f
00000030: 0000 803f 0000 803f 0000 803f 0000 803f
00000040: 0000 803f 0000 803f 0000 803f 0000 803f
00000050: 0000 803f 0000 803f 0000 803f 0000 803f
00000060: 0000 803f 0000 803f 0000 803f 0000 803f
00000070: 0000 803f 0000 803f 0000 803f 0000 803f
00000080: 0000 803f 0000 803f 0000 803f 0000 803f
00000090: 0000 803f 0000 803f 0000 803f 0000 803f
000000a0: 0000 803f 0000 803f 0000 803f 0000 803f
000000b0: 0000 803f 0000 803f 0000 803f 0000 803f
000000c0: 0000 803f 0000 803f 0000 803f 0000 803f
000000d0: 0000 803f 0000 803f 0000 803f 0000 803f
000000e0: 0000 803f 0000 803f 0000 803f 0000 803f
000000f0: 0000 803f 0000 803f 0000 803f 0000 803f

net.layer2.0.weight f4 [64, 64, 3, 3]
0.021009848 -0.013595402 0.05305454 -0.05552094 0.0363334 -0.020999346 -0.09885026 -0.08913487
0.016139012 -0.057047136 -0.076572545 -0.021116285 0.0013848878 -0.03830845 -0.020601116 -0.037867576
-0.055041302 0.031087771 0.027635712 -0.017281102 -0.034124985 -0.12049928 -0.06031995 0.037074436
0.06490628 -0.009186136 0.057723626 -0.048479646 -0.09983771 -0.107798584 -0.07309054 0.024063637
0.001826259 0.07056347 0.07612354 0.07585101 -0.03289835 -0.00441414 -0.0030492432 -0.07326566
-0.028891595 0.050443117 0.057689063 -0.051509384 0.0849337 -0.111181706 -0.079629585 -0.009634776
-0.046968155 0.03716929 -0.04305957 0.058506243 0.074507825 -0.07608163 0.0061690663 -0.08207172
0.05409992 -0.013943451 -0.06825282 0.0032164154 -0.088630475 -0.039840557 0.060830828 0.025706643
0.094244264 0.11269404 -0.013782083 0.017240532 0.06002015 0.057207923 -0.046720747 -0.07284077
0.030017104 -0.07823832 -0.07033087 0.023024863 -0.054492462 0.0002849963 -0.03586083 0.06653236
0.0684548 0.046820063 -0.043397717 -0.051291093 -0.003333816 -0.048703462 0.008800012 -0.03645148
-0.016879026 0.0010612814 -0.044620693 -0.06355563 -0.031364474 -0.014335423 0.059605006 0.023527844
-0.050096888 -0.043040603 -0.021353493 0.015581798 -0.12307925 0.021077514 -0.017712267 -0.06678832
0.02290476 -0.045847062 -0.0020263034 0.041252412 -0.03322174 -0.05366878 0.013382776 -0.03743566
0.037259318 -0.042272903 -0.0075368723 0.03912658 0.029508771 0.036897432 0.054849222 0.05362112
0.052095838 -0.030803181 0.068870954 -0.06303073 -0.008447809 -0.052115913 -0.029778536 -0.013411672
0.048626736 -0.025034506 0.008927604 0.07008285 -0.013074468 0.05412404 0.04653193 0.012956091
0.0005712572 0.022578971 -0.027390162 -0.04617455 0.08353784 -0.06398857 -0.0012583651 -0.036119383
-0.0039486066 -0.013376048 -0.049888466 -0.04080962 0.015636323 -0.030190594 0.036415093 -0.018363142
-0.021003779 -0.047624238 -0.036608167 -0.08340423 0.055956304 0.023812892 -0.007694566 0.011695915
-0.0141499415 0.05110901 -0.061882567 -0.0016676552 -0.056448214 -0.010280041 -0.042240974 0.0527121
0.07108813 -0.010020529 -0.012640414 0.040440526 0.050106257 0.07141513 0.0007750359 -0.0675109
0.009581962 -0.034242637 0.07914045 -0.0068090577 0.005640265 0.042851288 -0.0141882 -0.07136198
0.022349494 0.013587568 -0.060205244 0.056625105 0.031507384 0.0037942384 -0.077661216 -0.062822305
-0.0068381643 0.0063322457 0.05934363 -0.016524123 0.04498281 0.04247813 0.056718413 -0.029561955
0.029404087 0.077813335 0.046363696 0.01916133 0.04538229 -0.019246385 -0.027427062 -0.05664211
-0.060538393 -0.048129577 -0.08186129 -0.12517892 -0.056297828 -0.13981318 -0.10011774 -0.056554325
-0.06560548 -0.12067718 -0.084244534 0.02090163 -0.10963407 0.0075098546 -0.028288 0.029804489
0.0701868 -0.03947945 -0.041408274 -0.018589744 -0.052753605 -0.013284605 -0.056683443 -0.018168507
-0.039996948 0.016906986 -0.07738458 -0.02893657 -0.023720572 0.05296824 0.074047126 0.051245853
0.029560247 0.024738101 0.04720957 -0.11666738 -0.05761818 0.052335907 0.012537937 -0.019868538
0.07507206 0.014412716 0.0022783515 -0.0034826002 -0.082643665 -0.042162422 0.019852098 0.0007455631
00000000: d81c ac3c 40bf 5ebc b84f 593d ed69 63bd
00000010: 55d2 143d d206 acbc 0172 cabd 588c b6bd
00000020: f635 843c 42aa 69bd 11d2 9cbd 0ffc acbc
00000030: 2085 b53a 52e9 1cbd acc3 a8bc 081b 1bbd
00000040: fd72 61bd c8ab fe3c 4a64 e23c 1991 8dbc
00000050: a4c6 0bbd 54c8 f6bd 0d12 77bd 5ddb 173d
00000060: 95ed 843d 7281 16bc 9c6f 6c3d 9892 46bd
00000070: b777 ccbd 81c5 dcbd 7eb0 95bd 1b21 c53c
00000080: 155f ef3a 9583 903d a9e6 9b3d c657 9b3d
00000090: 6cc0 06bd 7da4 90bb d0d5 47bb 4e0c 96bd
000000a0: 11ae ecbc 719d 4e3d 5e4b 6c3d 81fb 52bd
000000b0: b8f1 ad3d 3cb3 e3bd d614 a3bd 2edb 1dbc
000000c0: ae61 40bd d33e 183d 3b5f 30bd 3ea4 6f3d
000000d0: 8f97 983d b0d0 9bbd e125 ca3b 3815 a8bd
000000e0: e197 5d3d 1373 64bc 22c8 8bbd 7fca 523b
000000f0: e583 b5bd da2f 23bd bf29 793d bd96 d23c
00000100: 2303 c13d 22cc e63d 3fce 61bc 043c 8d3c
00000110: b0d7 753d db52 6a3d 415e 3fbd 8b2d 95bd
00000120: 6ee6 f53c 6a3b a0bd a209 90bd a39e bc3c
00000130: 7d33 5fbd 8e6b 9539 cee2 12bd 1e42 883d
00000140: 0832 8c3d 65c6 3f3d cec1 31bd 9c16 52bd
00000150: 277c 5abb 487d 47bd ed2d 103c 264e 15bd
00000160: e245 8abc b21a 8b3a 30c4 36bd 7429 82bd
00000170: 0978 00bd 1fdf 6abc 6124 743d 77bd c03c
00000180: 6532 4dbd 584b 30bd 85ed aebc cc4a 7f3c
00000190: f910 fcbd c0aa ac3c 5119 91bc 51c8 88bd
000001a0: c3a2 bb3c 21ca 3bbd bbcb 04bb 4af8 283d
000001b0: 8513 08bd cbd3 5bbd 6e43 5b3c 2256 19bd
000001c0: 3a9d 183d 5a26 2dbd def7 f6bb 3143 203d
000001d0: 61bc f13c c321 173d 94a9 603d d2a1 5b3d
000001e0: 7262 553d f456 fcbc 370c 8d3d 4116 81bd
000001f0: ae68 0abc 7f77 55bd 1ef2 f3bc a1bc 5bbc
00000200: d42c 473d 2a15 cdbc 1645 123c 9987 8f3d
00000210: 4b36 56bc 2bb1 5d3d 4498 3e3d c945 543c
00000220: 6cc0 153a 89f7 b83c 5561 e0bc 8621 3dbd
00000230: e315 ab3d 700c 83bd baef a4ba ebf1 13bd
00000240: 5063 81bb 3627 5bbc d957 4cbd fd27 27bd
00000250: bf17 803c 4452 f7bc fe27 153d 4d6e 96bc
00000260: 1e10 acbc a211 43bd 72f2 15bd d6cf aabd
00000270: 7032 653d 4113 c33c b322 fcbb 39a0 3f3c
00000280: 28d5 67bc ae57 513d 9378 7dbd 3995 daba
00000290: 3e36 67bd 9e6d 28bc df04 2dbd a5e8 573d
000002a0: a796 913d 252d 24bc bd19 4fbc f7a4 253d
000002b0: 383c 4d3d 1842 923d c72b 4b3a 2843 8abd
000002c0: a9fd 1c3c 0242 0cbd 6314 a23d 841e dfbb
000002d0: f9d1 b83b d584 2f3d a075 68bc 3b26 92bd
000002e0: 4916 b73c 649e 5e3c c699 76bd baef 673d
000002f0: e30d 013d c2a8 783b d80c 9fbd fba8 80bd
00000300: ae12 e0bb ba7e cf3b 4e12 733d 995d 87bc
00000310: e53f 383d 8cfd 2d3d 9151 683d ea2b f2bc
00000320: d7e0 f03c 995c 9f3d dce7 3d3d 39f8 9c3c
00000330: c8e2 393d 98aa 9dbc b8ae e0bc 8f01 68bd
00000340: 1bf7 77bd 8523 45bd e4a6 a7bd e72e 00be
00000350: 8d98 66bd 302b 0fbe 880a cdbd 82a5 67bd
00000360: 2a5c 86bd 9925 f7bd 6688 acbd e539 ab3c
00000370: d487 e0bd 3a15 f63b 3cbc e7bc 8b28 f43c
00000380: 19be 8f3d 34b5 21bd b99b 29bd 8549 98bc
00000390: 2a14 58bd aca7 59bc e62c 68bd 1fd6 94bc
000003a0: d7d3 23bd 8580 8a3c cf7b 9ebd 630c edbc
000003b0: a551 c2bc 3af5 583d 05a6 973d 2ce7 513d
000003c0: 5528 f23c 8fa7 ca3c d25e 413d 4fef eebd
000003d0: 0a01 6cbd 2d5e 563d eb6b 4d3c 58c3 a2bc
000003e0: 61bf 993d 5023 6c3c 6550 153b 563c 64bb
000003f0: 1541 a9bd 81b2 2cbd dea0 a23c e571 433a

net.layer2.0.bias f4 [64]
0.005522134 -0.034670193 -0.03405237 -0.032271292 0.0024295482 0.0050745956 0.028046453 -0.016089456
-0.027574485 -0.027400652 0.035031736 -0.0038874575 0.029773341 -0.015744772 -0.017834019 -0.024706917
-0.037307248 0.021248737 -0.012596374 -0.029387355 0.04149075 -0.0021902807 0.0072773015 0.0077479375
0.039056502 -4.98492e-05 -0.005288341 -0.021860914 -0.0021254376 0.021123702 -0.0141812805 -0.029026126
0.0039667073 -0.005677412 -0.0020981939 0.0035556718 -0.036529366 0.013943515 0.032936074 0.0021543005
0.03172095 0.016838968 -0.04197236 0.021345463 -0.034198772 0.017777221 0.026309306 0.015102725
0.04209621 -0.03300178 0.016303109 0.014103431 0.028577305 0.021602564 0.03317647 0.025618903
-0.040400594 -0.03417088 0.023994274 0.004123804 0.0254479 0.026695227 0.02195633 -0.035143152
00000000: 04f3 b43b 5502 0ebd 7f7a 0bbd e72e 04bd
00000010: 0e39 1f3b cb48 a63b adc1 e53c 09ce 83bc
00000020: e3e3 e1bc 5577 e0bc 707d 0f3d b7c4 7ebb
00000030: 39e7 f33c 2efb 80bc a618 92bc 2966 cabc
00000040: 7ccf 18bd d511 ae3c 0661 4ebc c0bd f0bc
00000050: 34f2 293d d08a 0fbb 6e76 ee3b 69e2 fd3b
00000060: b6f9 1f3d 2c15 51b8 d249 adbb a915 b3bc
00000070: ed4a 0bbb 9d0b ad3c 9a58 68bc 33c8 edbc
00000080: 27fb 813b 9509 babb da81 09bb 4606 693b
00000090: d19f 15bd 5773 643c fae7 063d 2a2f 0d3b
000000a0: d4ed 013d e0f1 893c 36eb 2bbd aedc ae3c
000000b0: 0314 0cbd 89a1 913c 9d86 d73c 6b71 773c
000000c0: 136d 2c3d e02c 07bd 198e 853c 1412 673c
000000d0: f41a ea3c dcf7 b03c 0de4 073d bcde d13c
000000e0: 187b 25bd c4f6 0bbd a48f c43c fa20 873b
000000f0: 1d78 d03c f3af da3c c3dd b33c 44f2 0fbd

net.layer2.1.weight f4 [64]
0.87007374 1.0407491 1.1659827 0.8733222 1.0066395 0.9342827 0.96283835 1.0201478
0.8881963 1.0568403 0.88566685 1.185384 0.9515913 0.9057922 0.9232314 0.96801823
0.8959621 1.0342097 1.2160072 1.1133157 1.0433019 0.8865758 0.9469827 0.91217285
0.9064929 0.88218457 1.080749 1.1018056 0.9708551 0.9231515 1.0008659 0.9672078
1.0359327 0.9005994 1.0437908 0.96768713 0.9871833 1.0430009 0.9138216 0.94479144
0.92153955 0.90257907 1.1155486 0.9814874 0.92236394 1.0386043 0.99291766 0.8550947
0.99607056 0.9435973 1.0002638 0.93527436 0.8960384 0.8806066 0.95785725 0.9667324
0.93363076 1.0399976 1.0583912 0.89104116 0.92175686 0.9720223 0.9941269 1.0784817
00000000: 27bd 5e3f 4437 853f ec3e 953f 0b92 5f3f
00000010: 90d9 803f 272d 6f3f 937c 763f 3494 823f
00000020: d560 633f 8b46 873f 10bb 623f aaba 973f
00000030: 7d9b 733f ffe1 673f e558 6c3f 0bd0 773f
00000040: c65d 653f fc60 843f 20a6 9b3f 2181 8e3f
00000050: eb8a 853f a2f6 623f 756d 723f 2984 693f
00000060: eb0f 683f d9d6 613f fc55 8a3f f707 8d3f
00000070: f689 783f a853 6c3f 601c 803f ee9a 773f
00000080: 7199 843f af8d 663f f09a 853f 58ba 773f
00000090: 0bb8 7c3f 0e81 853f 36f0 693f dadd 713f
000000a0: 04ea 6b3f 6c0f 673f 4cca 8e3f c242 7b3f
000000b0: 0b20 6c3f fcf0 843f da2f 7e3f 7ce7 5a3f
000000c0: 7bfe 7e3f 988f 713f a508 803f 246e 6f3f
000000d0: c662 653f 6f6f 613f 2236 753f c67b 773f
000000e0: 6d02 6f3f a41e 853f 5d79 873f 461b 643f
000000f0: 42f8 6b3f 74d6 783f 1a7f 7e3f b00b 8a3f

net.layer2.1.bias f4 [64]
-0.035544533 0.04404244 0.06960652 -0.055229213 -0.102241606 -0.07524211 -0.04963697 -0.02089048
-0.07991324 0.07595332 -0.13219915 0.078736186 -0.05032156 -0.08412903 -0.04258157 -0.12734486
-0.064201936 -0.029111164 0.10723912 0.085975304 0.028833404 -0.082599476 -0.037042998 -0.09600265
-0.0701743 -0.10231316 0.0042164032 0.022753894 -0.04682476 -0.06077018 -0.058916554 -0.1296331
-0.080863185 -0.0803584 0.020437954 -0.04223868 -0.0012112359 -0.11584085 -0.058887515 -0.11512378
-0.06497688 -0.13632813 0.05413887 -0.05752445 -0.09282283 0.029289255 0.045463655 -0.12519784
-0.15143128 -0.044566054 -0.06775541 -0.040044006 -0.10379377 -0.072921656 -0.12630934 -0.17801128
-0.15890004 -0.059345625 -0.08905442 -0.09237232 -0.056944616 -0.010851248 -0.058345396 0.102076106
00000000: 2597 11bd d865 343d dd8d 8e3d 0738 62bd
00000010: 0c64 d1bd 8918 9abd 2350 4bbd 8322 abbc
00000020: 8ea9 a3bd 6a8d 9b3d 375f 07be 7040 a13d
00000030: fb1d 4ebd d74b acbd 036a 2ebd b166 02be
00000040: 4e7c 83bd 897a eebc 2fa0 db3d d213 b03d
00000050: 0834 ec3c ea29 a9bd 66ba 17bd 0a9d c4bd
00000060: 8bb7 8fbd 9089 d1bd c129 8a3b 6066 ba3c
00000070: 52cb 3fbd 27ea 78bd 7c52 71bd 8abe 04be
00000080: 999b a5bd f292 a4bd 7f6d a73c 7702 2dbd
00000090: 55c2 9eba f83d edbd 0934 71bd 04c6 ebbd
000000a0: 9912 85bd 9a99 0bbe b8c0 5d3d c29e 6bbd
000000b0: e519 bebd 05f0 ef3c 1938 3a3d dd33 00be
000000c0: cd10 1bbe e58a 36bd 59c3 8abd 2f05 24bd
000000d0: d491 d4bd f357 95bd 3c57 01be 9748 36be
000000e0: b1b6 22be 6614 73bd 2a62 b6bd b32d bdbd
000000f0: c23e 69bd 6fc9 31bc 95fb 6ebd 470d d13d

net.layer2.1.running_mean f4 [64]
0.0 0.0 0.0 0.0 0.0 0.0 0.0 0.0
0.0 0.0 0.0 0.0 0.0 0.0 0.0 0.0
0.0 0.0 0.0 0.0 0.0 0.0 0.0 0.0
0.0 0.0 0.0 0.0 0.0 0.0 0.0 0.0
0.0 0.0 0.0 0.0 0.0 0.0 0.0 0.0
0.0 0.0 0.0 0.0 0.0 0.0 0.0 0.0
0.0 0.0 0.0 0.0 0.0 0.0 0.0 0.0
0.0 0.0 0.0 0.0 0.0 0.0 0.0 0.0
00000000: 0000 0000 0000 0000 0000 0000 0000 0000
00000010: 0000 0000 0000 0000 0000 0000 0000 0000
00000020: 0000 0000 0000 0000 0000 0000 0000 0000
00000030: 0000 0000 0000 0000 0000 0000 0000 0000
00000040: 0000 0000 0000 0000 0000 0000 0000 0000
00000050: 0000 0000 0000 0000 0000 0000 0000 0000
00000060: 0000 0000 0000 0000 0000 0000 0000 0000
00000070: 0000 0000 0000 0000 0000 0000 0000 0000
00000080: 0000 0000 0000 0000 0000 0000 0000 0000
00000090: 0000 0000 0000 0000 0000 0000 0000 0000
000000a0: 0000 0000 0000 0000 0000 0000 0000 0000
000000b0: 0000 0000 0000 0000 0000 0000 0000 0000
000000c0: 0000 0000 0000 0000 0000 0000 0000 0000
000000d0: 0000 0000 0000 0000 0000 0000 0000 0000
000000e0: 0000 0000 0000 0000 0000 0000 0000 0000
000000f0: 0000 0000 0000 0000 0000 0000 0000 0000

net.layer2.1.running_var f4 [64]
1.0 1.0 1.0 1.0 1.0 1.0 1.0 1.0
1.0 1.0 1.0 1.0 1.0 1.0 1.0 1.0
1.0 1.0 1.0 1.0 1.0 1.0 1.0 1.0
1.0 1.0 1.0 1.0 1.0 1.0 1.0 1.0
1.0 1.0 1.0 1.0 1.0 1.0 1.0 1.0
1.0 1.0 1.0 1.0 1.0 1.0 1.0 1.0
1.0 1.0 1.0 1.0 1.0 1.0 1.0 1.0
1.0 1.0 1.0 1.0 1.0 1.0 1.0 1.0
00000000: 0000 803f 0000 803f 0000 803f 0000 803f
00000010: 0000 803f 0000 803f 0000 803f 0000 803f
00000020: 0000 803f 0000 803f 0000 803f 0000 803f
00000030: 0000 803f 0000 803f 0000 803f 0000 803f
00000040: 0000 803f 0000 803f 0000 803f 0000 803f
00000050: 0000 803f 0000 803f 0000 803f 0000 803f
00000060: 0000 803f 0000 803f 0000 803f 0000 803f
00000070: 0000 803f 0000 803f 0000 803f 0000 803f
00000080: 0000 803f 0000 803f 0000 803f 0000 803f
00000090: 0000 803f 0000 803f 0000 803f 0000 803f
000000a0: 0000 803f 0000 803f 0000 803f 0000 803f
000000b0: 0000 803f 0000 803f 0000 803f 0000 803f
000000c0: 0000 803f 0000 803f 0000 803f 0000 803f
000000d0: 0000 803f 0000 803f 0000 803f 0000 803f
000000e0: 0000 803f 0000 803f 0000 803f 0000 803f
000000f0: 0000 803f 0000 803f 0000 803f 0000 803f

net.layer3.0.weight f4 [64, 64, 3, 3]
0.015630633 0.061821036 -0.002435749 0.08220066 -0.011881992 0.053733937 -0.06344119 -0.038941603
0.0115158465 -0.0348665 -0.041104868 -0.066518195 -0.0030610536 0.03912497 0.10410212 -0.035779677
0.022412004 0.04682083 -0.04772419 -0.018741954 -0.0014528184 0.020418782 -0.005805567 -0.067364104
0.016690597 -0.01987163 -0.022223126 -0.012033146 -0.021361033 0.04274294 -0.07572032 0.021111023
-0.088153444 -0.008320467 -0.018362954 -0.06522481 0.063122265 0.112011895 -0.01787372 -0.004389188
0.05729116 0.051375482 0.06447139 0.015903208 -0.04127386 -0.037995733 0.067268826 0.015042583
-0.029986955 -0.015138098 -0.12114569 -0.032860436 -0.046259943 0.0064525893 -0.034434672 -0.01452899
-0.031548757 -0.070974596 -0.07130211 -0.01847406 -0.016082346 0.02489907 -0.08327998 0.086633116
-0.06619794 0.010386978 -0.041703604 0.027464615 -0.0562085 -0.06159095 -0.044445477 -0.07784974
0.0014277467 0.053602025 -0.04219407 -0.054459956 0.038860757 -0.0024143148 -0.055655047 -0.08846175
-0.088860914 0.040932335 0.00012440186 0.0014350509 0.022031799 0.031760328 0.050949417 -0.023915933
-0.041381128 -0.018402783 0.05291514 -0.0042299377 0.044758864 0.012088426 -0.018074993 -0.05990416
0.04587999 0.001177876 0.04197924 0.013330032 0.020857668 0.0033366005 -0.018627625 0.008933878
-0.045698777 9.845853e-06 -0.06817254 -0.033841662 -0.066923864 0.058484484 -0.037216846 0.004134813
0.057112653 -0.012507908 -0.07099538 -0.09917049 -0.03193399 -0.012186021 -0.024382835 -0.06437789
-0.029690385 0.07505639 -0.04575488 -0.050803803 -0.005765758 -0.024707563 -0.02265341 -0.026145525
-0.021174178 0.023178086 0.06258395 0.0043227472 0.0031762144 0.048172317 -0.0996323 0.0021678866
-0.09090475 -0.031826332 0.0010810053 0.013614746 -0.031387176 -0.04485088 0.038153276 0.0058528725
-0.07791833 0.071213454 0.03149912 -0.0106762 -0.010836754 0.0061369385 0.0063604796 -0.023350878
-0.061723106 -0.06478659 -0.061450236 -0.06351711 -0.06512358 -0.035956606 -0.07527496 0.038051356
-0.030082418 -0.03149516 -0.06775647 0.016595019 -0.034315933 0.009603718 -0.09099385 -0.059045896
-0.059506863 -0.022690613 0.027718795 0.05826845 -0.0077168304 -0.06490162 -0.016328452 -0.07305373
-0.031031698 -0.01545602 -0.023660542 -0.02486413 0.022117218 0.060054366 -0.10630147 -0.066694885
-0.023503905 -0.1056791 0.02182051 -0.09367609 0.0004098517 -0.06650374 -0.06664329 -0.06423392
0.027544275 0.036870863 0.021493608 0.016036872 -0.045016453 0.00612453 -0.04567855 -0.04432977
-0.07496692 0.029948188 0.0048804334 0.038873166 0.03910494 -0.027738012 -0.08658464 0.0136945
0.060218282 -0.030676482 -0.054952163 0.002475265 -0.08342393 -0.07104106 -0.09195123 -0.040887404
0.0044271187 -0.050535552 -0.065320775 0.03604978 0.00063466845 -0.03828027 -0.009132497 -0.021072457
-0.062195245 0.011146099 0.049295552 0.0016990139 -0.036404617 0.003447453 0.0011256336 -0.061728857
-0.02142133 -0.05449052 0.042441938 -0.09405065 0.021402122 -0.034546826 -0.06499266 0.004470263
-0.051830694 -0.04842788 -0.016894585 0.018598069 -0.021013966 -0.009222982 -0.049329735 -0.07639941
0.063222006 -0.03715323 0.0034176868 -0.007923973 0.020182567 -0.05709756 -0.051490024 0.012524501
00000000: d00b 803c 0e38 7d3d 16a1 1fbb d258 a83d
00000010: b0ac 42bc 1e18 5c3d 74ed 81bd 3b81 1fbd
00000020: f6ac 3c3c 2dd0 0ebd 945d 28bd b13a 88bd
00000030: f59b 48bb 8141 203d 7e33 d53d b68d 12bd
00000040: 6199 b73c 33c7 3f3d 717a 43bd ba88 99bc
00000050: 7f6c beba 4a45 a73c a03c bebb 31f6 89bd
00000060: b8ba 883c d4c9 a2bc 460d b6bc ac26 45bc
00000070: 55fd aebc 3913 2f3d 4113 9bbd 06f1 ac3c
00000080: cb89 b4bd 9152 08bc e86d 96bc 9694 85bd
00000090: 3f46 813d 7e66 e53d e86b 92bc 2dd3 8fbb
000000a0: 23aa 6a3d 196f 523d 9309 843d 7247 823c
000000b0: c70e 29bd 6aa1 1bbd 3dc4 893d 2b75 763c
000000c0: 34a7 f5bc c905 78bc 3b1b f8bd aa98 06bd
000000d0: 117b 3dbd 3e70 d33b 5f0b 0dbd 000b 6ebc
000000e0: 4539 01bd 215b 91bd d706 92bd e956 97bc
000000f0: 20bf 83bc 22f9 cb3c b28e aabd b46c b13d
00000100: c992 87bd 252e 2a3c 66d1 2abd 79fd e03c
00000110: e23a 66bd cb46 7cbd 760c 36bd af6f 9fbd
00000120: 3b23 bb3a cc8d 5b3d b0d3 2cbd 6711 5fbd
00000130: 752c 1f3d 7b39 1ebb 8cf6 63bd 6f2b b5bd
00000140: b6fc b5bd aaa8 273d df71 0239 5118 bc3a
00000150: 087c b43c 1e17 023d 56b0 503d 59eb c3bc
00000160: 427f 29bd 6fc1 96bc 8cbd 583d 4a9b 8abb
00000170: 1255 373d 890e 463c 0212 94bc 115e 75bd
00000180: a8ec 3b3d f662 9a3a 6cf2 2b3d 3566 5a3c
00000190: b3dd aa3c deaa 5a3b f698 98bc 665f 123c
000001a0: a42e 3bbd 9e2f 2537 0b9e 8bbd 8e9d 0abd
000001b0: 610f 89bd 6d8d 6f3d b170 18bd 537d 873b
000001c0: f5ee 693d f8ed 4cbc 0766 91bd e619 cbbd
000001d0: 37cd 02bd e0a7 47bc 83be c7bc 8ed8 83bd
000001e0: 4039 f3bc 2ab7 993d 7869 3bbd a617 50bd
000001f0: afee bcbb 8467 cabc a593 b9bc 242f d6bc
00000200: 7875 adbc f8df bd3c 042c 803d d5a5 8d3b
00000210: 0928 503b 5650 453d 050c ccbd 1a13 0e3b
00000220: 452c babd 545c 02bd 85b0 8d3a 6210 5f3c
00000230: d78f 00bd 8eb5 37bd 9c46 1c3d 74c9 bf3b
00000240: a593 9fbd 5cd8 913d 3905 013d 3aeb 2ebc
00000250: a48c 31bc 5f18 c93b 926b d03b 574a bfbc
00000260: 5ed1 7cbd d5ae 84bd 3eb3 7bbd 4215 82bd
00000270: 835f 85bd 3c47 13bd c229 9abd bddb 1b3d
00000280: 676f f6bc 1201 01bd e7c3 8abd 47f2 873c
00000290: dd8e 0cbd ea58 1d3c fc5a babd 1cda 71bd
000002a0: 78bd 73bd aae1 b9bc 8712 e33c e6aa 6e3d
000002b0: 77dd fcbb 24eb 84bd 3fc3 85bc 329d 95bd
000002c0: 3036 febc 3f3b 7dbc c1d3 c1bc dcaf cbbc
000002d0: 2b2f b53c 91fb 753d 96b4 d9bd 5497 88bd
000002e0: 438b c0bc 496e d8bd edc0 b23c 40d9 bfbd
000002f0: 5de1 d639 1d33 88bd 477c 88bd 138d 83bd
00000300: 88a4 e13c e705 173d 5d13 b03c c25f 833c
00000310: 2c63 38bd 48b0 c83b 6e19 3bbd 2293 35bd
00000320: 4288 99bd e755 f53c 0bec 9f3b 7839 1f3d
00000330: 802c 203d d43a e3bc 4a53 b1bd e55e 603c
00000340: 72a7 763d 3f4d fbbc 8515 61bd 0e38 223b
00000350: 2ada aabd fa7d 91bd ed50 bcbd 8d79 27bd
00000360: 5d11 913b 5efe 4ebd e6c6 85bd efa8 133d
00000370: e15f 263a c6cb 1cbd 78a0 15bc 25a0 acbc
00000380: 71c0 7ebd 219e 363c 22ea 493d 72b1 de3a
00000390: 021d 15bd aaee 613b ff89 933a 66d7 7cbd
000003a0: c97b afbc 7431 5fbd 99d7 2d3d a19d c0bd
000003b0: 8153 af3c f980 0dbd df1a 85bd 497b 923b
000003c0: 6c4c 54bd 505c 46bd 8366 8abc fa5a 983c
000003d0: 7b25 acbc fe1b 17bc fa0d 4abd 4b77 9cbd
000003e0: 8a7a 813d fc2d 18bd 45fb 5f3b 8dd3 01bc
000003f0: e955 a53c 22df 69bd 34e7 52bd 9133 4d3c

net.layer3.0.bias f4 [64]
-0.024221797 0.038822442 0.032732517 0.033720087 0.03995025 0.012509455 -0.010162228 0.04011188
-0.027932975 0.007180668 0.033658277 0.031640604 0.0017771092 -0.0011408814 -0.02138042 0.018450271
0.020124199 0.030291654 0.015650405 -0.040485293 -0.0031902934 0.02522435 0.0031936874 -0.020900652
0.037489522 -0.011819513 0.037836522 0.015325393 0.039320413 0.012149503 -0.028646324 -0.022476243
-0.027545476 -0.008414197 0.012828747 0.021390483 -0.010555564 -0.016779589 -0.040769726 0.019937435
0.014478909 -0.0026181468 -0.004139577 0.012332279 -0.004343185 0.008500569 -0.020695886 0.016235378
0.03306624 -0.023466865 -0.04032467 0.034837365 0.0009279688 -0.023751393 -0.015385775 0.014214551
0.033386912 0.027387928 -0.03301233 -0.01790656 0.03837006 -0.02305387 0.024213111 0.011982324
00000000: ca6c c6bc 4804 1f3d 8812 063d 131e 0a3d
00000010: e0a2 233d 75f4 4c3c 797f 26bc 5b4c 243d
00000020: b2d3 e4bc cf4b eb3b 43dd 093d 9499 013d
00000030: e4ed e83a a189 95ba fe25 afbc 0625 973c
00000040: 81db a43c 3426 f83c 4735 803c e8d3 25bd
00000050: 3e14 51bb 4ca3 ce3c 2f4d 513b d837 abbc
00000060: 9d8e 193d a1a6 41bc 78fa 1a3d 5b17 7b3c
00000070: 710e 213d b60e 473c b2ab eabc 1920 b8bc
00000080: 0da7 e1bc b3db 09bc aa2f 523c 183b af3c
00000090: 3ff1 2cbc 5975 89bc 28fe 26bd d553 a33c
000000a0: f238 6d3c 3795 2bbb 4aa5 87bb 540d 4a3c
000000b0: 4751 8ebb f845 0b3c 6b8a a9bc 0e00 853c
000000c0: 7770 073d 953d c0bc 7b2b 25bd a0b1 0e3d
000000d0: ef42 733a 4892 c2bc 9e14 7cbc 26e4 683c
000000e0: b7c0 083d a65c e03c f037 07bd c7b0 92bc
000000f0: ed29 1d3d 78db bcbc 935a c63c 8251 443c

net.layer3.1.weight f4 [64]
0.8830565 0.97045076 0.8514384 0.8970845 0.8987723 0.9254526 0.9813948 1.0420938
0.9621637 0.97425187 0.989555 1.2045836 1.0409153 0.8666631 0.86972153 0.9185127
0.83774877 0.8579592 0.8984433 0.8792979 0.93038803 1.0924625 0.8297246 1.1711375
0.84106827 0.92557156 0.87152714 0.8434338 0.87906826 0.88210243 1.022469 1.007208
0.9486792 1.0696429 0.9859753 0.85808307 1.0512806 0.8541712 0.8677281 0.96863204
0.8695448 0.99632615 0.8720502 0.8937441 0.8661609 0.869787 0.8599736 0.9659229
0.9370191 1.0129783 1.1010978 1.1743088 0.8742509 0.8649652 0.9145494 1.065172
0.88843286 0.8681187 0.90353614 0.95724773 1.096735 0.88931435 1.1801258 0.88282037
00000000: fe0f 623f 766f 783f def7 593f 54a7 653f
00000010: f115 663f 76ea 6c3f b13c 7b3f 5463 853f
00000020: 5c50 763f 9268 793f 7a53 7d3f cc2f 9a3f
00000030: b63c 853f a2dd 5d3f 12a6 5e3f a623 6b3f
00000040: b476 563f 37a3 5b3f 6100 663f ab19 613f
00000050: e92d 6e3f d0d5 8b3f d568 543f d5e7 953f
00000060: 4050 573f 42f2 6c3f 671c 5f3f 47eb 573f
00000070: 9e0a 613f 77d1 613f 44e0 823f 31ec 803f
00000080: a4dc 723f 0fea 883f e168 7c3f 55ab 5b3f
00000090: 5d90 863f f7aa 5a3f 6e23 5e3f 45f8 773f
000000a0: 7d9a 5e3f 3b0f 7f3f af3e 5f3f 6acc 643f
000000b0: b9bc 5d3f 5caa 5e3f 3b27 5c3f b946 773f
000000c0: 7ce0 6f3f 46a9 813f c6f0 8c3f c04f 963f
000000d0: e8ce 5f3f 5c6e 5d3f e91f 6a3f 8e57 883f
000000e0: 5670 633f 073d 5e3f 254e 673f 300e 753f
000000f0: d061 8c3f 1baa 633f 5d0e 973f 8400 623f

net.layer3.1.bias f4 [64]
-0.11997464 -0.0067792283 -0.13280451 -0.11491553 -0.10636973 -0.060822226 -0.04900164 -0.058969654
-0.030256806 -0.038277652 -0.065607004 0.013889607 -0.04899319 -0.08890609 -0.1304097 -0.10759238
-0.10849981 -0.096596256 -0.14939843 -0.100218415 -0.092461094 -0.014413227 -0.13322778 -0.01293225
-0.14804839 -0.0546179 -0.10740532 -0.14071849 -0.14006737 -0.12623002 0.0020886902 -0.006189517
-0.034074582 0.014960239 -0.043709148 -0.12633 0.0016225612 -0.14898817 -0.14597526 -0.07794424
-0.12271162 -0.060398135 -0.117037214 -0.12512456 -0.11210892 -0.119126625 -0.12726608 -0.04230955
-0.054084025 -0.02217802 -0.10851904 0.06524914 -0.12532002 -0.13958427 -0.079011954 0.011074018
-0.11482994 -0.11716163 -0.12847298 -0.08083798 -0.07658501 -0.08223687 0.04673932 -0.13654938
00000000: 44b5 f5bd 4a24 debb e8fd 07be d558 ebbd
00000010: 5fd8 d9bd ba20 79bd f2b5 48bd 2a8a 71bd
00000020: 1fdd f7bc 07c9 1cbd f75c 86bd 3c91 633c
00000030: 15ad 48bd 6514 b6bd 1f8a 05be 6559 dcbd
00000040: 2635 debd 42d4 c5bd e7fb 18be 503f cdbd
00000050: 3e5c bdbd 7525 6cbc dd6c 08be cae1 53bc
00000060: ff99 17be 05b7 5fbd 52f7 dbbd 8218 10be
00000070: d26d 0fbe 7142 01be 68e2 083b 6fd1 cabb
00000080: ca91 0bbd ca1b 753c 5d08 33bd a75c 01be
00000090: 1fac d43a 5b90 18be 8a7a 15be 3ba1 9fbd
000000a0: 3b50 fbbd 0964 77bd 35b1 efbd a720 00be
000000b0: 5d99 e5bd a9f8 f3bd 0a52 02be c74c 2dbd
000000c0: 3687 5dbd aeae b5bc 3b3f debd 57a1 853d
000000d0: e453 00be 2eef 0ebe 05d1 a1bd cc6f 353c
000000e0: f62b ebbd 70f2 efbd 6c8e 03be 628e a5bd
000000f0: 9ad8 9cbd ce6b a8bd bb71 3f3d 9ad3 0bbe

net.layer3.1.running_mean f4 [64]
0.0 0.0 0.0 0.0 0.0 0.0 0.0 0.0
0.0 0.0 0.0 0.0 0.0 0.0 0.0 0.0
0.0 0.0 0.0 0.0 0.0 0.0 0.0 0.0
0.0 0.0 0.0 0.0 0.0 0.0 0.0 0.0
0.0 0.0 0.0 0.0 0.0 0.0 0.0 0.0
0.0 0.0 0.0 0.0 0.0 0.0 0.0 0.0
0.0 0.0 0.0 0.0 0.0 0.0 0.0 0.0
0.0 0.0 0.0 0.0 0.0 0.0 0.0 0.0
00000000: 0000 0000 0000 0000 0000 0000 0000 0000
00000010: 0000 0000 0000 0000 0000 0000 0000 0000
00000020: 0000 0000 0000 0000 0000 0000 0000 0000
00000030: 0000 0000 0000 0000 0000 0000 0000 0000
00000040: 0000 0000 0000 0000 0000 0000 0000 0000
00000050: 0000 0000 0000 0000 0000 0000 0000 0000
00000060: 0000 0000 0000 0000 0000 0000 0000 0000
00000070: 0000 0000 0000 0000 0000 0000 0000 0000
00000080: 0000 0000 0000 0000 0000 0000 0000 0000
00000090: 0000 0000 0000 0000 0000 0000 0000 0000
000000a0: 0000 0000 0000 0000 0000 0000 0000 0000
000000b0: 0000 0000 0000 0000 0000 0000 0000 0000
000000c0: 0000 0000 0000 0000 0000 0000 0000 0000
000000d0: 0000 0000 0000 0000 0000 0000 0000 0000
000000e0: 0000 0000 0000 0000 0000 0000 0000 0000
000000f0: 0000 0000 0000 0000 0000 0000 0000 0000

net.layer3.1.running_var f4 [64]
1.0 1.0 1.0 1.0 1.0 1.0 1.0 1.0
1.0 1.0 1.0 1.0 1.0 1.0 1.0 1.0
1.0 1.0 1.0 1.0 1.0 1.0 1.0 1.0
1.0 1.0 1.0 1.0 1.0 1.0 1.0 1.0
1.0 1.0 1.0 1.0 1.0 1.0 1.0 1.0
1.0 1.0 1.0 1.0 1.0 1.0 1.0 1.0
1.0 1.0 1.0 1.0 1.0 1.0 1.0 1.0
1.0 1.0 1.0 1.0 1.0 1.0 1.0 1.0
00000000: 0000 803f 0000 803f 0000 803f 0000 803f
00000010: 0000 803f 0000 803f 0000 803f 0000 803f
00000020: 0000 803f 0000 803f 0000 803f 0000 803f
00000030: 0000 803f 0000 803f 0000 803f 0000 803f
00000040: 0000 803f 0000 803f 0000 803f 0000 803f
00000050: 0000 803f 0000 803f 0000 803f 0000 803f
00000060: 0000 803f 0000 803f 0000 803f 0000 803f
00000070: 0000 803f 0000 803f 0000 803f 0000 803f
00000080: 0000 803f 0000 803f 0000 803f 0000 803f
00000090: 0000 803f 0000 803f 0000 803f 0000 803f
000000a0: 0000 803f 0000 803f 0000 803f 0000 803f
000000b0: 0000 803f 0000 803f 0000 803f 0000 803f
000000c0: 0000 803f 0000 803f 0000 803f 0000 803f
000000d0: 0000 803f 0000 803f 0000 803f 0000 803f
000000e0: 0000 803f 0000 803f 0000 803f 0000 803f
000000f0: 0000 803f 0000 803f 0000 803f 0000 803f

net.layer4.0.weight f4 [64, 64, 3, 3]
0.03032994 -0.07341119 0.03385933 0.022353956 0.041700583 -0.020334149 -0.06314177 0.0056371074
0.008880824 -0.011725706 -0.05225029 -0.0027200598 -0.070272714 0.05447962 0.023007585 -0.039976798
0.05466437 -0.060779072 0.05987419 0.04477029 0.062689416 -0.016066529 -0.0070285825 0.021505166
0.017437344 -0.036226943 0.011101904 -0.05146525 0.0036745358 0.06598504 0.0027070493 -0.024424829
0.017680883 -0.054027963 -0.026309164 -0.013151127 0.026212541 0.042905957 -0.04319056 -0.040884227
0.028591337 -0.0052974992 0.053787738 0.005489346 0.025185445 0.03833032 -0.052967217 0.044539265
0.047497917 0.01880432 0.026249452 -0.051286303 -0.060038786 0.04403956 0.0022307143 -0.013883531
-0.040544648 0.012546559 -0.010565477 0.0008585315 0.011997713 -0.044079088 -0.045485288 -0.06132203
0.017920654 -0.035022903 -0.034070835 -0.06827952 -0.09079224 -0.031670373 -0.013728348 -0.08153519
0.02799193 0.0062946277 -0.009916443 -0.039952185 -0.012239555 -0.012699978 0.04712542 -0.064684406
0.061849818 -0.060701724 0.079681575 -0.034526173 -0.0034633062 0.053675473 -0.018591499 0.0066896956
0.035446994 -0.044612173 -0.03281364 0.03020777 -0.072105 0.050449815 -0.024615824 -0.020026661
-0.06626819 0.018214235 0.026096148 0.0065731634 0.07850558 0.02864779 0.01813928 0.08304938
0.06415908 0.015427798 0.01937996 0.17167202 -0.006716637 0.004537781 0.09159252 0.034532595
-0.018711215 0.1093859 -0.030130034 0.06920024 0.13738881 -0.06583273 0.043497894 -0.07801757
0.022471095 -0.039801512 0.04811988 0.047686186 -0.053378798 -0.04943298 0.046442363 0.00020816366
-0.0015071422 -0.025514465 0.015988387 -0.037410237 -0.07061225 0.05258546 0.037866328 -0.0814838
-0.0004573937 -0.079405196 0.051037896 0.051729497 -0.0499996 -0.053349316 -0.013660251 0.027254656
-0.011219493 -0.055852484 -0.03632505 0.023595003 -0.003251458 -0.027065333 0.014991943 -0.009758104
-0.055201273 -0.0065848837 0.04176547 -0.056583744 0.035018113 -0.025328541 0.0066782385 -0.008419888
0.058543183 0.001541684 0.028267706 0.04448196 -0.012380117 -0.03063031 -0.038906362 0.004303588
-0.014050657 0.010938396 0.021356875 0.016126724 0.034348503 0.0035604273 0.0524114 -0.08183647
-0.02168386 -0.034854893 0.03720006 0.057328098 -0.0515733 0.010520929 -0.06356002 0.051047433
0.011993272 0.018167563 -0.014237676 0.03436634 0.045962032 0.033305958 0.0028869351 -0.053493634
-0.023125732 -0.06787534 -0.020900087 0.03548444 0.004575126 -0.047166213 0.03288582 0.006276194
0.020420209 0.0020330856 -0.014785282 0.03157988 0.0034841902 -0.041845337 -0.034453735 -0.0474736
0.02275548 0.034655415 -0.01640024 -0.052577306 0.0026414692 -0.0369454 -0.035382915 -0.08497913
-0.045824107 -0.011847278 -0.032956284 0.036542982 0.06296374 0.01956465 -0.057445534 0.023894288
-0.011096185 0.05397761 -0.008738612 -0.046652522 0.020802096 -0.019235626 0.015848087 0.051924754
-0.05183471 0.058637336 0.070578404 0.049047615 0.02509477 0.031424727 0.064354725 0.041072156
0.050856095 -0.038081802 0.004817847 0.011580872 -0.06020259 0.028479451 -0.022026217 -0.07887714
0.04716985 0.04452886 -0.023615228 -0.042900525 0.019142035 -0.0020075985 -0.0020560052 0.0042881463
00000000: 7f76 f83c 9b58 96bd 15b0 0a3d a51f b73c
00000010: 3bce 2a3d cd93 a6bc 7950 81bd 7cb7 b83b
00000020: e080 113c 2d1d 40bc 6604 56bd 0843 32bb
00000030: 24eb 8fbd 0626 5f3d 677a bc3c b6be 23bd
00000040: bfe7 5f3d 7af3 78bd a33e 753d 0d61 373d
00000050: 4f63 803d f49d 83bc 0650 e6bb 9a2b b03c
00000060: c3d8 8e3c b462 14bd c3e4 353c 3acd 52bd
00000070: 7bd0 703b 2a23 873d c068 313b 9416 c8bc
00000080: 80d7 903c 6d4c 5dbd 5186 d7bc d377 57bc
00000090: afbb d63c 28be 2f3d 96e8 30bd 3876 27bd
000000a0: 6138 ea3c a596 adbb 8850 5c3d f9df b33b
000000b0: b551 ce3c 4100 1d3d 27f4 58bd ce6e 363d
000000c0: 2d8d 423d 840b 9a3c 1709 d73c 9611 52bd
000000d0: 3beb 75bd d362 343d 2d31 123b c077 63bc
000000e0: 2512 26bd 1590 4d3c d31a 2dbc 130f 613a
000000f0: 0e92 443c 468c 34bd c84e 3abd cf2c 7bbd
00000100: 56ce 923c 2d74 0fbd dc8d 0bbd 22d6 8bbd
00000110: 48f1 b9bd cbb8 01bd ddec 60bc ecfb a6bd
00000120: 554f e53c 2a43 ce3b 9478 22bc e7a4 23bd
00000130: 6a88 48bc 9213 50bc 9606 413d 4279 84bd
00000140: 3c56 7d3d 5fa2 78bd 1830 a33d 516b 0dbd
00000150: a3f8 62bb d0da 5b3d 334d 98bc 3c35 db3b
00000160: de30 113d 41bb 36bd 9867 06bd 4976 f73c
00000170: c9ab 93bd 77a4 4e3d 20a7 c9bc f40e a4bc
00000180: 9eb7 87bd 0536 953c 97c7 d53c b163 d73b
00000190: 89c7 a03d c5ae ea3c d498 943c cb15 aa3d
000001a0: d665 833d e0c4 7c3c b9c2 9e3c caca 2f3e
000001b0: 3c17 dcbb aab1 943b dc94 bb3d 0d72 0d3d
000001c0: 4348 99bc b705 e03d 43d3 f6bc dbb8 8d3d
000001d0: a7af 0c3e 4fd3 86bd d92a 323d adc7 9fbd
000001e0: 4d15 b83c e906 23bd 5a19 453d 9752 433d
000001f0: baa3 5abd 3d7a 4abd 593a 3e3d 8246 5a39
00000200: 4d8b c5ba b603 d1bc 14fa 823c 7a3b 19bd
00000210: 289d 90bd da63 573d b919 1b3d fbe0 a6bd
00000220: 58ce efb9 319f a2bd 1d0d 513d 4fe2 533d
00000230: 61cc 4cbd d084 5abd 3fcf 5fbc 2845 df3c
00000240: f7d1 37bc 93c5 64bd 93c9 14bd 4f4a c13c
00000250: 6a16 55bb 1eb8 ddbc c4a0 753c 74e0 1fbc
00000260: bb1a 62bd 02c6 d7bb 4512 2b3d 5bc4 67bd
00000270: 276f 0f3d cd7d cfbc 20d5 da3b 92f3 09bc
00000280: faca 6f3d 5512 ca3a ad91 e73c b732 363d
00000290: f9d5 4abc 6aec fabc 475c 1fbd 1d05 8d3b
000002a0: ba34 66bc f536 333c 9df4 ae3c 311c 843c
000002b0: 04b1 0c3d 0f56 693b 56ad 563d e199 a7bd
000002c0: 5aa2 b1bc 01c4 0ebd 175f 183d ded0 6a3d
000002d0: 863e 53bd f95f 2c3c c12b 82bd 1d17 513d
000002e0: 6e7f 443c 24d4 943c 2445 69bc b8c3 0c3d
000002f0: af42 3c3d d46b 083d bc32 3d3b 241c 5bbd
00000300: 2d72 bdbc 3a02 8bbd a936 abbc 2258 113d
00000310: f0ea 953b 5c31 41bd 48b3 063d 88a8 cd3b
00000320: 4848 a73c 843d 053b f83d 72bc e759 013d
00000330: 0357 643b 0466 2bbd 5c1f 0dbd ad73 42bd
00000340: b369 ba3c d6f2 0d3d cc59 86bc 4d5b 57bd
00000350: 801c 2d3b 0f54 17bd aded 10bd 8a09 aebd
00000360: 0fb2 3bbd 161b 42bc 2bfd 06bd 18ae 153d
00000370: 22f3 803d 0b46 a03c 024c 6bbd f4bd c33c
00000380: c6cc 35bc a017 5d3d 652c 0fbc b716 3fbd
00000390: 2869 aa3c 0894 9dbc d9d3 813c 0daf 543d
000003a0: a250 54bd b42d 703d 698b 903d 27e6 483d
000003b0: 8c93 cd3c 37b7 003d 69cc 833d 473b 283d
000003c0: 7b4e 503d aafb 1bbd 08df 9d3b b3bd 3d3c
000003d0: fe96 76bd bd4d e93c 5370 b4bc 578a a1bd
000003e0: 2c35 413d e563 363d b974 c1bc 76b8 2fbd
000003f0: c2cf 9c3c ea91 03bb 0bbe 06bb 9483 8c3b

net.layer4.0.bias f4 [64]
-0.01151852 -0.029080609 -0.040274154 -0.022767613 -0.031543665 0.010555294 -0.026496828 -0.02949548
0.011167469 0.0012718136 0.037248205 -0.010292314 0.00092298916 -0.037916265 -0.03438897 -0.03213344
0.004429127 -0.015211859 0.02393593 0.01856258 -0.0058276393 0.02385906 -0.0044444776 -0.033217207
0.0166326 0.021693218 -0.03546826 -0.023866493 0.03029136 0.021318639 0.0071418183 0.0046040514
0.02580261 -0.022555977 -0.013970675 0.026953923 0.018549243 0.02782882 0.017266745 0.020458387
-0.012335343 -0.01494449 0.019191206 -0.014023087 0.004470697 -0.017289 -0.009928144 0.01967897
0.038974125 -0.032416005 0.0028667194 -0.0181756 0.0038519064 0.023366095 -0.02633332 0.010637898
0.04375701 0.009280256 -0.016888343 -0.020057773 -0.030956784 0.010977198 -0.015866699 -0.023619378
00000000: 2db8 3cbc 753a eebc 83f6 24bd 2583 babc
00000010: ee33 01bd 1df0 2c3c e00f d9bc 81a0 f1bc
00000020: c3f7 363c fcb2 a63a 9391 183d 18a1 28bc
00000030: c1f4 713a 164e 1bbd 73db 0cbd 5b9e 03bd
00000040: 3622 913b 293b 79bc 4915 c43c 8d10 983c
00000050: c8f5 bebb 1374 c33c fba2 91bb c40e 08bd
00000060: 1741 883c fab5 b13c 2b47 11bd aa83 c3bc
00000070: 9625 f83c 6da4 ae3c ea05 ea3b 95dd 963b
00000080: ff5f d33c 50c7 b8bc 42e5 64bc 79ce dc3c
00000090: 95f4 973c 44f9 e33c fd72 8d3c 5998 a73c
000000a0: 2e1a 4abc bcd9 74bc e036 9d3c 17c1 65bc
000000b0: ed7e 923b a9a1 8dbc a7a9 22bc cb35 a13c
000000c0: 55a3 1f3d a5c6 04bd 92df 3b3b ffe4 94bc
000000d0: 4470 7c3b 416a bf3c fab8 d7bc 944a 2e3c
000000e0: 8d3a 333d 370c 183c 6c59 8abc 3350 a4bc
000000f0: 1599 fdbc b5d9 333c e1fa 81bc 6d7d c1bc

net.layer4.1.weight f4 [64]
1.1074377 0.98648936 0.9929226 1.0494205 1.2560928 1.1040632 1.0254104 1.103889
1.0630102 0.964851 0.9721178 0.99328935 1.204021 1.0008135 1.0029337 1.1422948
1.0448006 1.0655495 1.1191632 1.0974487 1.11409 1.0672954 1.0418928 1.1515406
0.97769225 1.2134314 1.2159904 1.4104232 0.97952634 1.0675578 1.0161742 1.0175787
1.0421451 1.0147789 1.1359898 1.2604822 1.064981 1.046275 0.99071544 1.0047451
1.0052958 1.0271077 1.1340598 1.0162103 1.0883514 1.0812535 1.0604858 1.2209579
1.0033822 1.1779475 1.0775828 0.9933519 1.1127741 1.1184117 1.0814874 0.9517666
1.2198211 0.9916571 0.95555735 0.9388151 1.0013909 0.9990175 1.0255834 1.168848
00000000: 85c0 8d3f 918a 7c3f 2d30 7e3f 6953 863f
00000010: a6c7 a03f f151 8d3f a640 833f 3c4c 8d3f
00000020: b810 883f 7a00 773f b6dc 783f 3648 7e3f
00000030: 5c1d 9a3f a81a 803f 2260 803f b736 923f
00000040: 07bc 853f ed63 883f bd40 8f3f 3379 8c3f
00000050: 809a 8e3f 239d 883f be5c 853f af65 933f
00000060: 0a4a 7a3f b851 9b3f 93a5 9b3f bf88 b43f
00000070: 3dc2 7a3f bca5 883f ff11 823f 0540 823f
00000080: 0365 853f 46e4 813f 1d68 913f 7b57 a13f
00000090: 4c51 883f 57ec 853f 879f 7d3f 7d9b 803f
000000a0: 88ad 803f 4478 833f df28 913f 2e13 823f
000000b0: 194f 8b3f 8466 8a3f 00be 873f 5948 9c3f
000000c0: d46e 803f fcc6 963f 3cee 893f 4f4c 7e3f
000000d0: 626f 8e3f 1d28 8f3f 2e6e 8a3f faa6 733f
000000e0: 1923 9c3f 3ddd 7d3f 689f 743f 3056 703f
000000f0: 942d 803f 9cbf 7f3f 5146 833f d09c 953f
