old_mp/maml_omniglot_step6000_k_5_n_way5.pt (torch, 462256 bytes, 26 tensors)

net.layer1.0.weight f4 [64, 1, 3, 3]
0	0x3e110900	0.1416359
1	0xbcd4aff1	-0.025962802
2	0xbdf1ea37	-0.11812251
3	0x3bc77178	0.0060865246
4	0x3e1c95f3	0.15291576
5	0x3e01a8a5	0.12661989
6	0xbd620b6b	-0.05518667
7	0xbb8dfcb0	-0.004333101
8	0x3d2fb652	0.042898484
9	0xba80bd90	-0.0009822119
10	0xbddab428	-0.10678893
11	0x3b8917fa	0.0041837664
12	0xbdd019a3	-0.1016114
13	0x3e3991cb	0.18122022
14	0xbdb8e258	-0.09027547
15	0x3cfaa267	0.030595018
16	0xbd1aa816	-0.037757955
17	0xbd2f5c6c	-0.04281275
18	0x3b0719e4	0.0020614797
19	0xbd4e09e5	-0.050302405
20	0x3a540348	0.0008087647
21	0xbcf1bfbe	-0.029510375
22	0xbe150372	-0.14552096
23	0x3e00f185	0.12592132
24	0x3e0688c9	0.13138117
25	0x3e12ba13	0.14328794
26	0x3d7f416e	0.062318258
27	0x3dee497e	0.11635111
28	0x3d99c280	0.07507801
29	0x3debe0a0	0.11517453
30	0xbcd2bac7	-0.025723828
31	0xbdb3eb38	-0.08785099
32	0xbdcacaa3	-0.09901931
33	0xbd362087	-0.044464614
34	0xbd612b1d	-0.054972757
35	0xbb947e04	-0.004531624
36	0x3e10ce17	0.14141117
37	0x3d31cd80	0.04340887
38	0xbcebecf9	-0.02879952
39	0xbdeedb28	-0.116628945
40	0x3e1b847e	0.1518726
41	0xbb4c387b	-0.0031161595
42	0xbd36461f	-0.044500466
43	0xbd15775d	-0.036490787
44	0x3dc531fa	0.09628673
45	0xbe10110a	-0.14069
46	0xbd7045fe	-0.0586605
47	0xbd19bd1e	-0.03753387
48	0xbd286348	-0.041110307
49	0xbd869bdb	-0.06572696
50	0xbdfeee89	-0.12447841
51	0xbcac4d3c	-0.021032922
52	0xbcfc7ee8	-0.030822232
53	0xbd937189	-0.071993895
54	0xbc46e9d8	-0.012140714
55	0xbd8d243b	-0.06891676
56	0x3dda04bd	0.10645435
57	0x3dcb2c79	0.09920592
58	0xbdb7678a	-0.089552954
59	0x3d9742b1	0.07385767
60	0x3b347d21	0.0027540403
61	0xbda86f3e	-0.08224343
62	0x3dc83e5a	0.097775176
63	0x3c94d2e7	0.018166972
64	0x3d6cbdd0	0.057798207
65	0xbda394a5	-0.07987336
66	0xbd8b7d2e	-0.068109855
67	0x3c0804a3	0.008301887
68	0x3c69b926	0.014265334
69	0xbc42e7b1	-0.01189606
70	0xbd86a282	-0.06573965
71	0xbcb4b9c2	-0.022061232
72	0xbd0e1b97	-0.03469428
73	0x3dae64ab	0.08515295
74	0xbd82ac34	-0.063805014
75	0x3d6bcf2a	0.057570614
76	0x3d6add76	0.057340108
77	0x3d85fd5d	0.06542466
78	0x3caa3141	0.02077544
79	0xbdde7cca	-0.108636454
80	0x3d892277	0.06696027
81	0xbd71ffb4	-0.059081748
82	0xb95f59fd	-0.0002130046
83	0xbd4efa41	-0.05053163
84	0x3d148c26	0.03626647
85	0xbc93b3f0	-0.018030137
86	0xbd089b2e	-0.033351116
87	0x3ca38c8f	0.019964484
88	0x3e6d8f95	0.23199303
89	0xbd28e622	-0.041235097
90	0x3bfdefde	0.0077495417
91	0xbd930b34	-0.07179871
92	0xbda02c2f	-0.07820927
93	0x3d1aa4dc	0.03775488
94	0x3e2f0518	0.17091787
95	0xbbc4d968	-0.006007362
96	0xbd8bc65c	-0.068249434
97	0xbcdf7458	-0.027277157
98	0xbc1ca117	-0.009559891
99	0xbd7d5283	-0.061846267
100	0xbd20296f	-0.039102014
101	0xbda34008	-0.07971197
102	0xbd52d05b	-0.051468235
103	0xbca98dbb	-0.020697465
104	0xbe1e07ab	-0.15432613
105	0xbe162df4	-0.14665967
106	0xbdcd57d7	-0.1002652
107	0x3c523b2e	0.012831492
108	0x3d812667	0.06306153
109	0xbd25ae10	-0.040449202
110	0xbd1482db	-0.036257606
111	0x3ca66814	0.0203133
112	0x3db95284	0.09048942
113	0xbd93f5ac	-0.072245926
114	0x3db527c3	0.088454746
115	0x3cd80f9c	0.02637463
116	0x3e3d64bd	0.1849546
117	0xbd25589e	-0.040367715
118	0x3d84ef33	0.06490936
119	0xbc428d90	-0.011874571
120	0x3de3d2ff	0.11124229
121	0x3d0adb4f	0.033900555
122	0x3db6f654	0.08933702
123	0x3dbe9e19	0.093074985
124	0xbe0de9c0	-0.138587
125	0x3b2ad01e	0.002606399
126	0x3e15686a	0.14590612
127	0xbd68226d	-0.056673456
128	0x3d701d78	0.058621854
129	0x3d4db38f	0.05022007
130	0xbdea91ae	-0.114535674
131	0xbc91dcb1	-0.01780543
132	0x3e0847ce	0.13308641
133	0xbd1016c7	-0.035177972
134	0x3d2f977e	0.042869084
135	0xbdc6581a	-0.09684773
136	0x3e16cd80	0.1472683
137	0xbda83adf	-0.08214354
138	0xbb37941a	-0.002801186
139	0x3d2f2950	0.042764008
140	0xbc92fcdd	-0.01794284
141	0xbd81d2e8	-0.06339055
142	0x3dcda778	0.10041708
143	0xbdb3029d	-0.08740733
144	0xbd236ca2	-0.039898522
145	0xbd52bf5c	-0.051452026
146	0x3d2a8222	0.04162801
147	0xbcccbdce	-0.02499285
148	0xbd3be7d1	-0.045875374
149	0x3e2fa7e7	0.17153893
150	0xbd33a0eb	-0.043854635
151	0x3d7efc9e	0.062252633
152	0x3e0b16a8	0.13582861
153	0xbddce1f9	-0.10785288
154	0x3d9e481f	0.077286
155	0x3e2867dc	0.16445869
156	0xbd774e9a	-0.060377695
157	0x3d1c6752	0.03818447
158	0x3d06d1da	0.032914974
159	0xbda5e75e	-0.081007704
160	0x3c0aa49d	0.008462098
161	0x3dc80b4b	0.09767779
162	0xbc3b6c9a	-0.011439467
163	0xbdd00a79	-0.101582475
164	0x3d939b5d	0.072073676
165	0x3d5b973c	0.053611025
166	0x3dd3a6a2	0.10334517
167	0x3de2dc1a	0.11077137
168	0xbcb1bff9	-0.021697985
169	0x3d8b3ad4	0.0679833
170	0xbe127541	-0.14302541
171	0x3d882a73	0.066487215
172	0xbd9a3a5c	-0.075306624
173	0xbce752fa	-0.028237808
174	0xbda4c2f8	-0.08045
175	0xbd671f52	-0.056426354
176	0x3dec9104	0.11551097
177	0x3c3b8582	0.011445405
178	0x3d9b10ce	0.075715646
179	0x3e21d1dc	0.15802711
180	0xbdd5333b	-0.10410162
181	0xbc101ee3	-0.0087964265
182	0x3d9658b3	0.07341137
183	0xbd403505	-0.046925563
184	0x3dd3bc31	0.10338629
185	0x3e0eb079	0.13934506
186	0x3e19d4df	0.1502261
187	0xbc9c62bb	-0.019090047
188	0xbc134550	-0.008988693
189	0xbc9d3ace	-0.01919308
190	0xbd829253	-0.063755654
191	0xbd353f64	-0.044249907
192	0xbac6fdd6	-0.001518185
193	0xbddfa0c9	-0.10919339
194	0x3ddc7e74	0.107663065
195	0x3e1a738c	0.1508314
196	0x3de0f783	0.10984709
197	0xbc818cbd	-0.01581418
198	0xbd537224	-0.051622525
199	0x3d96dfb8	0.0736689
200	0x3e17ce72	0.14824846
201	0xbc832eff	-0.01601362
202	0xbdc455da	-0.095866874
203	0x3d3d5237	0.046220984
204	0x3dfb9c7d	0.12285707
205	0xbd5b86cd	-0.053595353
206	0xbd2ea3fa	-0.04263685
207	0x3c625a53	0.01381548
208	0xbd983435	-0.07431833
209	0x3dbe392f	0.09288251
210	0xbdb14efa	-0.08657642
211	0xbd1b4caf	-0.037914928
212	0x3df670c4	0.12033227
213	0x3d928e25	0.07156018
214	0x3e093bab	0.13401668
215	0xbb9ae02c	-0.0047264304
216	0xbcd84cd8	-0.02640383
217	0xbdf23cab	-0.11827978
218	0x3e19c414	0.15016204
219	0xbba128df	-0.0049182023
220	0xbd94ac40	-0.072594166
221	0x3cd91e65	0.026503751
222	0x3c64705d	0.013942805
223	0x3dc26a5a	0.09492941
224	0xbe11c62e	-0.14235756
225	0xbc022d0d	-0.007945311
226	0x3e0414fc	0.1289863
227	0xbd4c9189	-0.04994348
228	0xbdc7eae2	-0.09761597
229	0x3dfdad4e	0.12386571
230	0x39d39f3a	0.0004036369
231	0xbc712723	-0.014718804
232	0x3e1bddea	0.15221372
233	0xbd7de0f6	-0.061982118
234	0x3d69ef0b	0.057112735
235	0x3e0a4d96	0.13506159
236	0x3d8bf10f	0.06833088
237	0xbddc186f	-0.10746848
238	0xbd4bbdfa	-0.049741723
239	0xbe000bd8	-0.12504518
240	0x3d58550a	0.052815475
241	0x3de15b49	0.110037394
242	0x3dab991f	0.08378815
243	0x3d839f06	0.06426816
244	0x3de6b584	0.1126509
245	0xbd4ecbe9	-0.050487433
246	0xbda02298	-0.07819098
247	0x3de3c322	0.11121203
248	0xbdccc25a	-0.09998007
249	0x3c7a4f3a	0.015277678
250	0x3e0fddb2	0.14049414
251	0x3d55cd47	0.05219772
252	0xbda160c0	-0.07879782
253	0x3c2c952d	0.010533613
254	0xbd9d6e4f	-0.07687055
255	0xbd083fe7	-0.033264067

net.layer1.0.bias f4 [64]
0	0xbe983c89	-0.29733685
1	0xbe33b649	-0.17550005
2	0x3e087310	0.13325143
3	0x3e9e0d59	0.30869558
4	0x3c3dd8f8	0.011587374
5	0x3e10dfcf	0.14147876
6	0xbdb2d303	-0.087316535
7	0x3e86fdb9	0.2636545
8	0x3d71d95f	0.05904519
9	0x3e1cea94	0.1532386
10	0xbe8b660a	-0.27226287
11	0xbe1e62a6	-0.15467319
12	0x3c9f4152	0.019440327
13	0xbd06df6b	-0.03292791
14	0xbd6fe1d5	-0.05856498
15	0x3d967d08	0.073480666
16	0xbe7007e7	-0.23440515
17	0xbe9b65d5	-0.3035113
18	0xbe176f89	-0.14788641
19	0x3e9cba5f	0.3061094
20	0x3d88845f	0.06665873
21	0x3e7def8e	0.24798414
22	0x3e66ba12	0.22531918
23	0xbeb6e818	-0.35723948
24	0xbdbfe90e	-0.093706235
25	0x3e1b68d2	0.15176705
26	0x3dfb946f	0.12284171
27	0xbe3c3a03	-0.18381505
28	0xbdeb6b29	-0.114950486
29	0x3dcb638a	0.09931095
30	0xbe81ba8f	-0.25337645
31	0xbe41ee39	-0.18938531
32	0xbea60ac8	-0.324301
33	0xbe720c2e	-0.23637459
34	0x3ec0b60a	0.37638885
35	0xbdfeaefe	-0.12435721
36	0xbec45273	-0.38344154
37	0xbe4ffe27	-0.20311795
38	0x3dde5cf1	0.10857571
39	0x3d0c1390	0.034198344
40	0x3e3caced	0.18425341
41	0x3e4dacc3	0.20085435
42	0x3ceeef06	0.02916671
43	0x3e304674	0.17214376
44	0xbda9cf10	-0.08291447
45	0x3d8710b0	0.0659498
46	0x3e512b55	0.20426686
47	0x3e8155ef	0.25260875
48	0xbe3f6588	-0.18691075
49	0x3de5d199	0.11221618
50	0x3ea5bfb0	0.32372808
51	0x3d8734e4	0.06601885
52	0x3c8a5933	0.016888237
53	0x3ed44de8	0.41465688
54	0x3e80d9ee	0.25166267
55	0xbdb44705	-0.088026084
56	0x3d794081	0.06085253
57	0x3e5baa3d	0.2145166
58	0x3e8871e1	0.26649383
59	0x3e85510b	0.26038393
60	0x3d93ad9a	0.07210846
61	0x3ca69386	0.020334017
62	0x3d959f45	0.07305769
63	0x3eb90317	0.3613517

net.layer1.1.weight f4 [64]
0	0x3fa64adc	1.2991595
1	0x3f43a768	0.76427317
2	0x3f82a93c	1.0207896
3	0x3f7b1204	0.98074365
4	0x3f999533	1.1998657
5	0x3f4ebaa0	0.8075352
6	0x3f858f13	1.0434288
7	0x3f5cbcbd	0.8622549
8	0x3f97a7a9	1.1848041
9	0x3f41fe13	0.7577831
10	0x3f6694bd	0.90070707
11	0x3f42262d	0.758395
12	0x3f6c1f3b	0.92235154
13	0x3f9af3d7	1.2105664
14	0x3f6b4c57	0.9191336
15	0x3f70f881	0.94129187
16	0x3f677ffa	0.9042965
17	0x3f752e36	0.9577364
18	0x3f9d9fb0	1.2314358
19	0x3f5098ec	0.8148334
20	0x3f689a45	0.90860397
21	0x3f5bbdb7	0.85836357
22	0x3f662255	0.89896137
23	0x3f943ce5	1.1581084
24	0x3f3a8de8	0.7287278
25	0x3f7a99ef	0.97891134
26	0x3f69f659	0.9139152
27	0x3f87fd61	1.06242
28	0x3f6843e2	0.9072858
29	0x3f6d05dd	0.9258707
30	0x3f81c4eb	1.013822
31	0x3f725028	0.9465356
32	0x3f601a9e	0.87540615
33	0x3f87cab7	1.0608739
34	0x3f9a1a91	1.2039357
35	0x3f818836	1.0119693
36	0x3f948e96	1.1606014
37	0x3f8727f9	1.0559074
38	0x3f706a3c	0.939121
39	0x3f74e352	0.95659363
40	0x3f807b02	1.0037539
41	0x3f7bc3c2	0.9834558
42	0x3f8ac3f1	1.0841047
43	0x3fa68fa1	1.3012582
44	0x3f759a94	0.9593899
45	0x3f63e59d	0.8902224
46	0x3f7cc28c	0.98734355
47	0x3f91f60a	1.140321
48	0x3f667be8	0.90032816
49	0x3f8f0947	1.1174706
50	0x3f7960e3	0.9741346
51	0x3f5305b1	0.8243056
52	0x3fa99dfd	1.3251339
53	0x3f74542d	0.9544094
54	0x3fa32bd1	1.2747747
55	0x3f75c000	0.95996094
56	0x3f91acc6	1.1380851
57	0x3f79b576	0.9754251
58	0x3f8e2928	1.110631
59	0x3f4246e5	0.75889426
60	0x3f596dbd	0.8493307
61	0x3f86a044	1.0517659
62	0x3f7b460f	0.98153776
63	0x3f98d392	1.1939566

net.layer1.1.bias f4 [64]
0	0xbcb82c92	-0.02248219
1	0xbecb4c33	-0.39706573
2	0xbe95b654	-0.29240668
3	0x3a966187	0.0011473157
4	0xbdc3c02f	-0.095581405
5	0xbeb154e8	-0.3463509
6	0xbe78525e	-0.2425017
7	0xbe90d198	-0.28284907
8	0xbe1022ef	-0.14075826
9	0xbebed428	-0.37271237
10	0xbe4c4f99	-0.19952239
11	0xbe9d098c	-0.30671346
12	0xbdc15155	-0.09439341
13	0xbdc1700b	-0.094451986
14	0xbea1b1da	-0.31581002
15	0xbe43dc8e	-0.19127104
16	0xbe309380	-0.17243767
17	0xbe2094e5	-0.15681799
18	0xbd2e4ae7	-0.0425519
19	0xbdb48e40	-0.088161945
20	0xbe90f429	-0.2831128
21	0xbe583656	-0.21114478
22	0xbd309b97	-0.043117132
23	0xbe293def	-0.16527532
24	0xbeee30b0	-0.4652152
25	0xbdc1cd88	-0.0946303
26	0xbd3131a3	-0.043260228
27	0xbe519b98	-0.2046951
28	0xbed3f978	-0.41401267
29	0xbe0dece9	-0.13859905
30	0x39d5886f	0.00040728177
31	0xbdb9d1a1	-0.09073187
32	0xbe6f921a	-0.23395577
33	0xbc5a2178	-0.013313644
34	0xbdbbc076	-0.091675684
35	0xbe57847b	-0.21046631
36	0xbe69b95b	-0.22824614
37	0xbe00c439	-0.12574853
38	0xbe4275c0	-0.1899023
39	0xbd961e51	-0.07330001
40	0xbe9c472e	-0.30523056
41	0xbe8446a6	-0.2583515
42	0xbd5959ec	-0.05306427
43	0xbc023a6e	-0.007948501
44	0x3c593c3c	0.01325899
45	0xbe98b9e7	-0.29829332
46	0xbdc370f7	-0.09543031
47	0xbe991459	-0.29898337
48	0xbebc96f2	-0.36833912
49	0xbe81f24d	-0.25380173
50	0xbd8fe635	-0.070263304
51	0xbec1f562	-0.37882525
52	0xbe802ce2	-0.25034243
53	0xbdaf9c58	-0.08574742
54	0xbd627196	-0.055284105
55	0xbe3284d2	-0.1743348
56	0xbe44a6ba	-0.19204226
57	0xbd8a92a8	-0.06766254
58	0xbe069375	-0.13142188
59	0xbef382b2	-0.4756065
60	0xbec0333f	-0.37539098
61	0xbebe2c99	-0.371434
62	0xbe3951da	-0.1809763
63	0xbebd2c82	-0.3694802

net.layer1.1.running_mean f4 [64]
0	0x00000000	0.0
1	0x00000000	0.0
2	0x00000000	0.0
3	0x00000000	0.0
4	0x00000000	0.0
5	0x00000000	0.0
6	0x00000000	0.0
7	0x00000000	0.0
8	0x00000000	0.0
9	0x00000000	0.0
10	0x00000000	0.0
11	0x00000000	0.0
12	0x00000000	0.0
13	0x00000000	0.0
14	0x00000000	0.0
15	0x00000000	0.0
16	0x00000000	0.0
17	0x00000000	0.0
18	0x00000000	0.0
19	0x00000000	0.0
20	0x00000000	0.0
21	0x00000000	0.0
22	0x00000000	0.0
23	0x00000000	0.0
24	0x00000000	0.0
25	0x00000000	0.0
26	0x00000000	0.0
27	0x00000000	0.0
28	0x00000000	0.0
29	0x00000000	0.0
30	0x00000000	0.0
31	0x00000000	0.0
32	0x00000000	0.0
33	0x00000000	0.0
34	0x00000000	0.0
35	0x00000000	0.0
36	0x00000000	0.0
37	0x00000000	0.0
38	0x00000000	0.0
39	0x00000000	0.0
40	0x00000000	0.0
41	0x00000000	0.0
42	0x00000000	0.0
43	0x00000000	0.0
44	0x00000000	0.0
45	0x00000000	0.0
46	0x00000000	0.0
47	0x00000000	0.0
48	0x00000000	0.0
49	0x00000000	0.0
50	0x00000000	0.0
51	0x00000000	0.0
52	0x00000000	0.0
53	0x00000000	0.0
54	0x00000000	0.0
55	0x00000000	0.0
56	0x00000000	0.0
57	0x00000000	0.0
58	0x00000000	0.0
59	0x00000000	0.0
60	0x00000000	0.0
61	0x00000000	0.0
62	0x00000000	0.0
63	0x00000000	0.0

net.layer1.1.running_var f4 [64]
0	0x3f800000	1.0
1	0x3f800000	1.0
2	0x3f800000	1.0
3	0x3f800000	1.0
4	0x3f800000	1.0
5	0x3f800000	1.0
6	0x3f800000	1.0
7	0x3f800000	1.0
8	0x3f800000	1.0
9	0x3f800000	1.0
10	0x3f800000	1.0
11	0x3f800000	1.0
12	0x3f800000	1.0
13	0x3f800000	1.0
14	0x3f800000	1.0
15	0x3f800000	1.0
16	0x3f800000	1.0
17	0x3f800000	1.0
18	0x3f800000	1.0
19	0x3f800000	1.0
20	0x3f800000	1.0
21	0x3f800000	1.0
22	0x3f800000	1.0
23	0x3f800000	1.0
24	0x3f800000	1.0
25	0x3f800000	1.0
26	0x3f800000	1.0
27	0x3f800000	1.0
28	0x3f800000	1.0
29	0x3f800000	1.0
30	0x3f800000	1.0
31	0x3f800000	1.0
32	0x3f800000	1.0
33	0x3f800000	1.0
34	0x3f800000	1.0
35	0x3f800000	1.0
36	0x3f800000	1.0
37	0x3f800000	1.0
38	0x3f800000	1.0
39	0x3f800000	1.0
40	0x3f800000	1.0
41	0x3f800000	1.0
42	0x3f800000	1.0
43	0x3f800000	1.0
44	0x3f800000	1.0
45	0x3f800000	1.0
46	0x3f800000	1.0
47	0x3f800000	1.0
48	0x3f800000	1.0
49	0x3f800000	1.0
50	0x3f800000	1.0
51	0x3f800000	1.0
52	0x3f800000	1.0
53	0x3f800000	1.0
54	0x3f800000	1.0
55	0x3f800000	1.0
56	0x3f800000	1.0
57	0x3f800000	1.0
58	0x3f800000	1.0
59	0x3f800000	1.0
60	0x3f800000	1.0
61	0x3f800000	1.0
62	0x3f800000	1.0
63	0x3f800000	1.0

net.layer2.0.weight f4 [64, 64, 3, 3]
0	0x3ddaf8c2	0.10691978
1	0xbc9b5239	-0.018960105
2	0x3bbf88ff	0.0058451886
3	0xbd805c7e	-0.062676415
4	0x3dc5986f	0.09648215
5	0xbd934795	-0.071913876
6	0xb9f17573	-0.00046054609
7	0xbdc9f477	-0.09861081
8	0xbd09589f	-0.03353178
9	0xbd029b7b	-0.03188656
10	0xbd7e28dc	-0.062050685
11	0x3d19653d	0.037450064
12	0x3c678068	0.0141297355
13	0xbcfd8a6d	-0.030949796
14	0x3d6be022	0.057586797
15	0xbe22e9eb	-0.15909545
16	0xbdee544e	-0.116371736
17	0x3d70ecb0	0.058819473
18	0xbcc63233	-0.024193859
19	0xbc7ad602	-0.0153098125
20	0xbcf041a3	-0.029328173
21	0xbe29594e	-0.16537973
22	0xbdd9d598	-0.10636443
23	0xbdb82bf8	-0.089927614
24	0xbd19bfd5	-0.03753646
25	0xbd78498d	-0.06061702
26	0xbdab54f7	-0.08365815
27	0xbd9293be	-0.07157086
28	0xbdc25704	-0.09489253
29	0xbe14a130	-0.14514613
30	0xbc8cced4	-0.017188467
31	0x3d704a71	0.058664743
32	0xbcc97d03	-0.024595743
33	0xbcd069bd	-0.025441045
34	0xbda81bba	-0.082084134
35	0xbdb038a4	-0.08604553
36	0x3c96137e	0.018319841
37	0x3da6166c	0.081097454
38	0x3cfadad9	0.030621933
39	0xbe024392	-0.12721089
40	0xbd8e6951	-0.06953681
41	0xbb5ce814	-0.0033707665
42	0x3d5c0919	0.053719614
43	0xbdd1932e	-0.102331504
44	0x3cc2e368	0.023790076
45	0xbdf9c9e2	-0.12196709
46	0xbdaff353	-0.08591332
47	0x3ccb0252	0.02478138
48	0xbd946818	-0.07246417
49	0x3cc8e5c9	0.024523633
50	0xbd8ce1b9	-0.06878991
51	0x3a1ecf0f	0.0006058076
52	0xbb8e22fc	-0.0043376666
53	0xbe1b08f9	-0.15140142
54	0xbd8f949a	-0.070107654
55	0xbda1af86	-0.078948066
56	0xbc7010ef	-0.014652475
57	0xbb2e1cdb	-0.0026567492
58	0xbc0916e6	-0.008367276
59	0xbd8f934e	-0.07010518
60	0xbd391cf0	-0.045193613
61	0xbdbe5241	-0.092930324
62	0xbbb79317	-0.0056022513
63	0xbd79d7bc	-0.060996756
64	0xbd643da7	-0.05572286
65	0xbda23815	-0.07920853
66	0xbcbdb548	-0.02315773
67	0x3c2a3793	0.0103892265
68	0xbd9570ca	-0.072969034
69	0x3d037984	0.03209831
70	0xbd7c81d6	-0.06164726
71	0xbe465a50	-0.19370389
72	0x3d746c9b	0.059673887
73	0xbd1a070e	-0.037604384
74	0xbdc5896a	-0.0964535
75	0x3d9977d1	0.07493556
76	0xbcdef8f3	-0.027218318
77	0x3bc7bafd	0.006095289
78	0xbb921e86	-0.004459205
79	0xbc6f2a56	-0.014597496
80	0x3d1cd3e1	0.038288
81	0x3d255401	0.040363315
82	0xbd83df4e	-0.06439076
83	0xbca72d86	-0.02040745
84	0xbd100254	-0.03515847
85	0xbdc932c9	-0.098241396
86	0x3d1d2d21	0.038373116
87	0xbd4eb2bf	-0.050463434
88	0x3c2e466e	0.010636909
89	0x3d7e6cc4	0.062115446
90	0xbd856580	-0.065135
91	0xbd5a24ee	-0.053257875
92	0x396cbc3a	0.00022576834
93	0xbcc7b218	-0.024376914
94	0x3dcc222a	0.09967454
95	0x3e028281	0.12745096
96	0xbd7deb12	-0.06199176
97	0xbd827c73	-0.06371393
98	0x3cd2ea2b	0.025746426
99	0x3b01d988	0.0019813497
100	0xbdf8cf6d	-0.12148938
101	0xbc8200f4	-0.015869595
102	0x3bc69161	0.006059811
103	0xbd4c6e01	-0.049909595
104	0xbbc55ace	-0.0060227877
105	0xbdcaa2b1	-0.09894312
106	0xbdc18749	-0.09449632
107	0xbd18f556	-0.037343346
108	0xbc94b267	-0.018151475
109	0xbbe00bc5	-0.0068373405
110	0xbc90d65b	-0.017680338
111	0xbcec51b1	-0.028847547
112	0x3d67665e	0.05649411
113	0xbcfbb94a	-0.030728001
114	0xbca63b14	-0.020291843
115	0xbb573a9b	-0.0032841328
116	0x3cfa5166	0.030556392
117	0x3cfc6f6b	0.030814847
118	0x3c8f8744	0.017520554
119	0xbd756ee4	-0.059920207
120	0x3cc0f849	0.023555892
121	0xbd8db8bb	-0.0692
122	0x3d8a9282	0.067662254
123	0xbe14a7ec	-0.14517182
124	0xbdeb1da9	-0.114802666
125	0xbe095917	-0.13412891
126	0xbd625b85	-0.05526306
127	0x3c0f519a	0.008747483
128	0xbd52851f	-0.051396485
129	0xbd7c9ab9	-0.061670993
130	0xbd3b4b14	-0.045725897
131	0xbc9ad0a1	-0.01889831
132	0xbdc37c2b	-0.095451675
133	0xbcf589aa	-0.02997287
134	0xbda5ca7c	-0.080952615
135	0x3dbbb886	0.091660544
136	0xbd3cff29	-0.046141777
137	0x3d90f374	0.07077685
138	0x3bc763be	0.0060848882
139	0xbda91a45	-0.08256964
140	0x3e012224	0.1261068
141	0xbdbd9e91	-0.0925876
142	0xbd20314e	-0.03910952
143	0x3cca40dd	0.024689132
144	0xbcc8ebcc	-0.0245265
145	0xbd4324de	-0.04764258
146	0xbd571acf	-0.0525158
147	0xbda561ed	-0.080753185
148	0xbc1affed	-0.0094604315
149	0xbd8e6cb6	-0.06954329
150	0xbba035d4	-0.0048892293
151	0xbd892e44	-0.066982776
152	0xbd3460c0	-0.04403758
153	0x3bfc2d0f	0.007695801
154	0xbd571a16	-0.052515112
155	0xbe081925	-0.13290842
156	0x3d5d40d4	0.054016903
157	0x3c84e787	0.016223682
158	0xbd04829c	-0.03235112
159	0x3ba3e339	0.0050014523
160	0xbd26910e	-0.04066568
161	0x3c7e852e	0.015534682
162	0xbd62955c	-0.05531822
163	0xbccd774d	-0.025081301
164	0xbd14fe68	-0.036375433
165	0xbc9b728e	-0.018975522
166	0xbd54fd09	-0.051999126
167	0xbc0695ed	-0.008214456
168	0xbc58c2a6	-0.013230002
169	0xbe06e988	-0.13175023
170	0xbe2fc202	-0.17163852
171	0xbd77e18c	-0.060517833
172	0xbcd32112	-0.025772605
173	0xbb11c9bc	-0.0022245487
174	0xbdb88956	-0.0901057
175	0xbe0e543f	-0.13899325
176	0xbe11c691	-0.14235903
177	0xbd690147	-0.056885984
178	0x3bf232cf	0.0073913108
179	0xbde92421	-0.11383844
180	0xbcee160b	-0.029063245
181	0x3d4f4deb	0.050611418
182	0x3d1295a5	0.035787243
183	0xbd55fdd3	-0.05224402
184	0x3daa623f	0.0831952
185	0x3d0bc23c	0.034120783
186	0xbd5ba592	-0.053624697
187	0x3d8f5742	0.06999065
188	0x3cb6e82b	0.022327503
189	0xbd1543a8	-0.036441475
190	0xbdc062c5	-0.09393839
191	0xbd2aab00	-0.041666985
192	0xbd8d5395	-0.06900708
193	0xbd3b594a	-0.04573945
194	0xbd80e187	-0.06293016
195	0xbdcbf96e	-0.09959684
196	0xbc0ad78d	-0.008474243
197	0xbda075de	-0.078349814
198	0xbd2abcb0	-0.041683853
199	0xbd5e1bd4	-0.054225758
200	0xbdb2ad9a	-0.08724518
201	0xbd19a7bc	-0.03751348
202	0xbd09bb8f	-0.033626135
203	0xbd4950bf	-0.04914927
204	0xbd82cdb2	-0.063868895
205	0xbe0d0293	-0.13770513
206	0xbdfe6b70	-0.12422836
207	0xbdc8b81c	-0.09800741
208	0xbd518129	-0.051148567
209	0xbd9718cf	-0.07377779
210	0xbe208df8	-0.15679157
211	0xbe018a57	-0.12650429
212	0xbda7cd51	-0.08193458
213	0xbe1ef911	-0.15524699
214	0xbd5a1e93	-0.053251814
215	0xbd85fb07	-0.0654202
216	0xbdd3288c	-0.10310468
217	0xbd1e0543	-0.038579237
218	0xbdc5e734	-0.09663239
219	0xbda9006f	-0.08252036
220	0xbe116b54	-0.14201099
221	0xbd7e3ab2	-0.062067695
222	0xbda261ec	-0.07928833
223	0xbc96fb0e	-0.01843026
224	0x3c757676	0.014981857
225	0x3ca01eee	0.019545998
226	0xbd8c1c8c	-0.068413824
227	0x3d5247a5	0.051337857
228	0xbd270c82	-0.040783413
229	0xbbfe8a0f	-0.0077679227
230	0x3dca6500	0.098825455
231	0xbd0a0e6e	-0.033705167
232	0xbcba9b4f	-0.022779135
233	0x3e002616	0.12514529
234	0xbd3f7b97	-0.046748724
235	0xbd5110b4	-0.05104132
236	0xbc6684e8	-0.014069773
237	0x3c3a2ae0	0.011362761
238	0x3d6ef434	0.05833836
239	0x3c17d311	0.009266631
240	0xbd63d349	-0.05562142
241	0xbd12945a	-0.03578601
242	0xbd071f1c	-0.032988653
243	0x39aa37d2	0.00032466516
244	0xbb911364	-0.0044273604
245	0x3de9a390	0.1140815
246	0x3d1607fd	0.036628712
247	0xbd824e59	-0.063626
248	0x3e256c45	0.16154583
249	0xbc9384e4	-0.018007703
250	0xbd6219b6	-0.0552003
251	0x3dcf8d80	0.10134411
252	0xbb4ea388	-0.0031530578
253	0xbd379002	-0.04481507
254	0x3d8d102a	0.06887849
255	0x3ca8cf57	0.02060668

net.layer2.0.bias f4 [64]
0	0x3bb3351a	0.0054689767
1	0xbd0278d3	-0.03185351
2	0xbd110e67	-0.035414126
3	0xbcff90b9	-0.031196939
4	0x3b519b12	0.0031983298
5	0x3bde4a90	0.006783791
6	0x3cd89919	0.02644019
7	0xbbdf6765	-0.0068177455
8	0xbcf468bb	-0.029835096
9	0xbcd51075	-0.026008824
10	0x3d10c110	0.03534037
11	0xbba58e5f	-0.0050523723
12	0x3cf5b468	0.029993251
13	0xbc80541c	-0.015665106
14	0xbc963aa1	-0.018338503
15	0xbce03967	-0.027371122
16	0xbd1e08ac	-0.03858249
17	0x3cb1a188	0.02168347
18	0xbc555c24	-0.013022456
19	0xbcea9b9a	-0.02863865
20	0x3d21f139	0.03953669
21	0xba4c9185	-0.00078036665
22	0x3bda1629	0.0066554737
23	0x3c1c46fe	0.00953841
24	0x3d237ccf	0.03991395
25	0xb9f193e3	-0.00046077286
26	0xbbc8b6da	-0.006125313
27	0xbca9bd57	-0.020720167
28	0x3a18f74c	0.000583519
29	0x3cba34e1	0.022730293
30	0xbc3b44e5	-0.01143
31	0xbcf2f1d9	-0.029656338
32	0x3b9c8045	0.004776033
33	0xbb861fe1	-0.0040931557
34	0xbaf89e8e	-0.0018968151
35	0x3b7bf188	0.0038443524
36	0xbd1a1d73	-0.03762574
37	0x3c6249dc	0.013811555
38	0x3d0837e6	0.033256434
39	0x3afcca82	0.0019286426
40	0x3d03aee4	0.03214921
41	0x3cc5e7cc	0.02415838
42	0xbd252c11	-0.040325228
43	0x3ca90500	0.020632267
44	0xbd1041b4	-0.03521891
45	0x3c95c11d	0.01828056
46	0x3cd3e362	0.02586526
47	0x3c7901ce	0.015198184
48	0x3d2f0d3b	0.042737227
49	0xbd068943	-0.032845747
50	0x3caa12f3	0.020760989
51	0x3c9d33ee	0.019189801
52	0x3cebce24	0.028784819
53	0x3cad1bed	0.02113148
54	0x3d06547d	0.032795418
55	0x3cd05ada	0.025433946
56	0xbd20f9b0	-0.03930062
57	0xbd19b1ae	-0.037522964
58	0x3cbd0397	0.023073
59	0x3b39e729	0.0028366542
60	0x3cc46b6c	0.023977004
61	0x3cdcc3fa	0.026948918
62	0x3ccaa815	0.02473835
63	0xbd0ac40a	-0.033878364

net.layer2.1.weight f4 [64]
0	0x3f58f79c	0.8475282
1	0x3f630f2f	0.88695043
2	0x3f9610b0	1.1723843
3	0x3f52a84f	0.8228807
4	0x3f77afaf	0.96752447
5	0x3f5a46c9	0.8526426
6	0x3f34d07b	0.70630616
7	0x3f8593e1	1.0435754
8	0x3f9dd5df	1.2330893
9	0x3f84fe55	1.0390116
10	0x3f516ccf	0.81806654
11	0x3f80e934	1.0071168
12	0x3f8e4500	1.1114807
13	0x3f4e5ef5	0.8061364
14	0x3f60b39d	0.8777407
15	0x3f86d916	1.0534999
16	0x3f564883	0.83704394
17	0x3f4bb1f7	0.7956843
18	0x3f6f0a81	0.933754
19	0x3f78ad1b	0.9713914
20	0x3f6b4b10	0.9191141
21	0x3f7dc031	0.99121386
22	0x3f9cbb6e	1.2244699
23	0x3f7268c2	0.946911
24	0x3f8d6f89	1.1049663
25	0x3f9838d1	1.1892339
26	0x3f8d800c	1.1054702
27	0x3f751fe0	0.9575176
28	0x3f84decd	1.0380493
29	0x3f73086c	0.94934726
30	0x3f8845f3	1.0646347
31	0x3f495439	0.7864414
32	0x3f50cbae	0.8156079
33	0x3f71f52b	0.9451472
34	0x3f451b9a	0.7699524
35	0x3f621339	0.8831058
36	0x3f801e44	1.0009236
37	0x3f4fa8cf	0.81116956
38	0x3f86aaec	1.0520911
39	0x3f62ad2e	0.885455
40	0x3f822e54	1.0170388
41	0x3fa801bb	1.3125528
42	0x3f7d7e0e	0.9902047
43	0x3f66ef96	0.9020933
44	0x3f6af027	0.91772693
45	0x3f65615e	0.89601696
46	0x3f7f2cab	0.9967753
47	0x3f577248	0.84158754
48	0x3f8458fa	1.0339653
49	0x3f715955	0.94276935
50	0x3f79784a	0.9744917
51	0x3f85d16b	1.0454534
52	0x3f713733	0.9422485
53	0x3f80b4bb	1.0055155
54	0x3f6ffc5e	0.93744457
55	0x3f7b9a45	0.9828227
56	0x3f81094b	1.0080961
57	0x3f89f75e	1.0778615
58	0x3f70540d	0.9387825
59	0x3f43a5ed	0.7642506
60	0x3f6e2614	0.9302685
61	0x3f8514c0	1.0396957
62	0x3f5dd62e	0.8665494
63	0x3f84403c	1.0332103

net.layer2.1.bias f4 [64]
0	0xbe604f2c	-0.21905202
1	0xbe32d18e	-0.17462751
2	0xbdba53b6	-0.09097998
3	0xbe64bfe1	-0.22338821
4	0xbe15a745	-0.1461459
5	0xbe3f91e7	-0.18708001
6	0xbec787c5	-0.3897077
7	0x3e069853	0.13144045
8	0xbd923449	-0.07138879
9	0xbd1a79f1	-0.03771395
10	0xbe9f16a8	-0.31071973
11	0xbea8cc6a	-0.32968456
12	0xbe412811	-0.1886294
13	0xbdc578ff	-0.09642219
14	0xbe1489a7	-0.14505635
15	0x3da25aa1	0.07927442
16	0xbe3f06c3	-0.18654923
17	0xbe4e2159	-0.20129909
18	0xbd5d4b2a	-0.05402676
19	0xbe617f04	-0.22021109
20	0xbe997731	-0.29973748
21	0xbe0b42d9	-0.13599719
22	0x3db79f0e	0.08965884
23	0xbdfb4088	-0.12268168
24	0xbe4bcf05	-0.1990319
25	0xbd4f1db1	-0.050565425
26	0xbd2049f3	-0.039133023
27	0xbe3c76ba	-0.18404666
28	0xbd9bfb8f	-0.0761634
29	0xbdf024a8	-0.117257416
30	0x3d4574b6	0.048207007
31	0xbedf4b72	-0.43612248
32	0xbd7ed985	-0.06221916
33	0xbdceca72	-0.10097207
34	0xbea8512e	-0.32874435
35	0xbf078709	-0.5294042
36	0xbe3ed76a	-0.18636861
37	0xbee3bfff	-0.4448242
38	0xbde056d4	-0.10954061
39	0xbdd083e0	-0.10181403
40	0xbe45a4da	-0.19301167
41	0xbe151596	-0.14559016
42	0xbdc67275	-0.096898
43	0xbecbde0a	-0.3981784
44	0xbcfa9fba	-0.030593742
45	0xbe5c9f95	-0.2154525
46	0xbd718ddb	-0.058973175
47	0xbdcda532	-0.10041274
48	0xbe7cf4ec	-0.24702805
49	0xbdd1fd75	-0.10253421
50	0xbe78d3b1	-0.24299504
51	0xbe70899b	-0.23489992
52	0xbd0239ab	-0.031793278
53	0xbdfec12d	-0.12439189
54	0xbecb4c4c	-0.39706647
55	0xbe6339ef	-0.22190069
56	0x3c3b4043	0.011428895
57	0xbe1b640e	-0.15174887
58	0xbe9909d2	-0.29890305
59	0xbe564b37	-0.2092713
60	0xbdeade4b	-0.1146818
61	0x3cfb159b	0.03064995
62	0xbe3935ba	-0.18086901
63	0xbdb40ad3	-0.08791127

net.layer2.1.running_mean f4 [64]
0	0x00000000	0.0
1	0x00000000	0.0
2	0x00000000	0.0
3	0x00000000	0.0
4	0x00000000	0.0
5	0x00000000	0.0
6	0x00000000	0.0
7	0x00000000	0.0
8	0x00000000	0.0
9	0x00000000	0.0
10	0x00000000	0.0
11	0x00000000	0.0
12	0x00000000	0.0
13	0x00000000	0.0
14	0x00000000	0.0
15	0x00000000	0.0
16	0x00000000	0.0
17	0x00000000	0.0
18	0x00000000	0.0
19	0x00000000	0.0
20	0x00000000	0.0
21	0x00000000	0.0
22	0x00000000	0.0
23	0x00000000	0.0
24	0x00000000	0.0
25	0x00000000	0.0
26	0x00000000	0.0
27	0x00000000	0.0
28	0x00000000	0.0
29	0x00000000	0.0
30	0x00000000	0.0
31	0x00000000	0.0
32	0x00000000	0.0
33	0x00000000	0.0
34	0x00000000	0.0
35	0x00000000	0.0
36	0x00000000	0.0
37	0x00000000	0.0
38	0x00000000	0.0
39	0x00000000	0.0
40	0x00000000	0.0
41	0x00000000	0.0
42	0x00000000	0.0
43	0x00000000	0.0
44	0x00000000	0.0
45	0x00000000	0.0
46	0x00000000	0.0
47	0x00000000	0.0
48	0x00000000	0.0
49	0x00000000	0.0
50	0x00000000	0.0
51	0x00000000	0.0
52	0x00000000	0.0
53	0x00000000	0.0
54	0x00000000	0.0
55	0x00000000	0.0
56	0x00000000	0.0
57	0x00000000	0.0
58	0x00000000	0.0
59	0x00000000	0.0
60	0x00000000	0.0
61	0x00000000	0.0
62	0x00000000	0.0
63	0x00000000	0.0

net.layer2.1.running_var f4 [64]
0	0x3f800000	1.0
1	0x3f800000	1.0
2	0x3f800000	1.0
3	0x3f800000	1.0
4	0x3f800000	1.0
5	0x3f800000	1.0
6	0x3f800000	1.0
7	0x3f800000	1.0
8	0x3f800000	1.0
9	0x3f800000	1.0
10	0x3f800000	1.0
11	0x3f800000	1.0
12	0x3f800000	1.0
13	0x3f800000	1.0
14	0x3f800000	1.0
15	0x3f800000	1.0
16	0x3f800000	1.0
17	0x3f800000	1.0
18	0x3f800000	1.0
19	0x3f800000	1.0
20	0x3f800000	1.0
21	0x3f800000	1.0
22	0x3f800000	1.0
23	0x3f800000	1.0
24	0x3f800000	1.0
25	0x3f800000	1.0
26	0x3f800000	1.0
27	0x3f800000	1.0
28	0x3f800000	1.0
29	0x3f800000	1.0
30	0x3f800000	1.0
31	0x3f800000	1.0
32	0x3f800000	1.0
33	0x3f800000	1.0
34	0x3f800000	1.0
35	0x3f800000	1.0
36	0x3f800000	1.0
37	0x3f800000	1.0
38	0x3f800000	1.0
39	0x3f800000	1.0
40	0x3f800000	1.0
41	0x3f800000	1.0
42	0x3f800000	1.0
43	0x3f800000	1.0
44	0x3f800000	1.0
45	0x3f800000	1.0
46	0x3f800000	1.0
47	0x3f800000	1.0
48	0x3f800000	1.0
49	0x3f800000	1.0
50	0x3f800000	1.0
51	0x3f800000	1.0
52	0x3f800000	1.0
53	0x3f800000	1.0
54	0x3f800000	1.0
55	0x3f800000	1.0
56	0x3f800000	1.0
57	0x3f800000	1.0
58	0x3f800000	1.0
59	0x3f800000	1.0
60	0x3f800000	1.0
61	0x3f800000	1.0
62	0x3f800000	1.0
63	0x3f800000	1.0

net.layer3.0.weight f4 [64, 64, 3, 3]
0	0x3c83bf1d	0.01608234
1	0x3d9edebb	0.07757326
2	0x3ab2e065	0.0013647197
3	0x3dd151d2	0.10220684
4	0x3c9ab6c4	0.018885978
5	0x3d8498c9	0.06474454
6	0xbd2c97e6	-0.04213705
7	0xbd063fb2	-0.03277559
8	0xbc2a194e	-0.01038201
9	0xbb8f5836	-0.0043745292
10	0x3aeaf996	0.0017927166
11	0xbd18d49f	-0.037312146
12	0xbd2e6d74	-0.04258485
13	0x3ca4a8db	0.020100048
14	0x3c892a26	0.01674373
15	0xbc87cde8	-0.016577676
16	0x3b5e7475	0.0033943926
17	0xbd61d4c5	-0.055134553
18	0xbca16790	-0.019702703
19	0xbc6d421a	-0.014481092
20	0xbcf27da4	-0.029600926
21	0x3d3dc289	0.0463281
22	0xb7ce3b23	-2.4584651e-05
23	0xbda6348d	-0.08115492
24	0x3c5dd909	0.013540515
25	0x3c448666	0.011994934
26	0xbd8442ec	-0.06458077
27	0x3bd47613	0.006483802
28	0xbd695ca0	-0.0569731
29	0x3ca2e20d	0.01988318
30	0xbd7ca069	-0.061676417
31	0xbcb8529e	-0.022500332
32	0xbda39b76	-0.07988636
33	0xbc90bf8e	-0.017669465
34	0xbd8dd0f8	-0.06924623
35	0xbd58e88e	-0.052956156
36	0xbba8657f	-0.0051390524
37	0x3cd4e53f	0.02598822
38	0xbd1f25c0	-0.03885436
39	0xbd39400c	-0.045227095
40	0xbd5ea843	-0.054359686
41	0xbbbd37e1	-0.0057744836
42	0x3d2dd524	0.042439595
43	0xbcb011c5	-0.021492848
44	0xbd968f84	-0.07351592
45	0xbd2e9d5a	-0.04263053
46	0x3cfc0c0a	0.03076746
47	0x3ce50e12	0.02796081
48	0x3bb0def0	0.00539767
49	0x3ce8cdfb	0.028418532
50	0xbc85c9ca	-0.016331572
51	0xbbb832f5	-0.005621309
52	0xbda36036	-0.07977335
53	0x3c189a37	0.009314111
54	0xbca6e017	-0.020370526
55	0xba5c90a9	-0.000841389
56	0xbd25f7bb	-0.040519457
57	0xbd00c9f4	-0.031442598
58	0xbc9dc4bb	-0.019258847
59	0x3cde5096	0.027138036
60	0xbc149b66	-0.009070253
61	0x3cc69f70	0.024245948
62	0xbcbed6b5	-0.02329574
63	0x3d2f612b	0.042817276
64	0xbcb5536b	-0.022134503
65	0xbc04c492	-0.008103507
66	0xbcf8697e	-0.03032374
67	0xbc9e9e33	-0.019362545
68	0xbd739236	-0.05946561
69	0x3d111b1e	0.03542625
70	0xbc3bddda	-0.011466468
71	0xbd8fa5c4	-0.07014039
72	0x3d9e5197	0.07730406
73	0x3e3e859c	0.18605655
74	0xbcf21afc	-0.029553883
75	0x3da81017	0.08206194
76	0x3e3a2c22	0.18180898
77	0x3ca74131	0.020416828
78	0xbca227a8	-0.0197943
79	0x3d0ba914	0.034096792
80	0xbdc9fb06	-0.09862332
81	0x3d35ea0d	0.04441266
82	0xbc1ef654	-0.009702284
83	0xbad44cda	-0.001619722
84	0x3ca32ed1	0.019919785
85	0x3d16a391	0.036777083
86	0xbc987466	-0.01861019
87	0xbcb0be98	-0.021575257
88	0xbca4f879	-0.020138012
89	0xbbcac931	-0.0061885347
90	0x3d20380c	0.03911595
91	0xbd1520d3	-0.036408257
92	0x3d134198	0.035951227
93	0xba0a117d	-0.0005266888
94	0xbc835eed	-0.016036475
95	0x3c97d7ac	0.018535458
96	0x3d81a6a9	0.06330616
97	0x3ca946b4	0.020663597
98	0x3ca87536	0.020563703
99	0x3d2b57ba	0.04183171
100	0xbc0c730c	-0.008572351
101	0xbbe03ad7	-0.0068429518
102	0x3cb0c233	0.021576976
103	0x3d257599	0.040395353
104	0x3d308c35	0.04310246
105	0x3d44b910	0.04802805
106	0xbcb968d6	-0.022632997
107	0xbc4cdb7b	-0.0125035
108	0xbcd2f32a	-0.025750715
109	0x3da39e45	0.07989172
110	0x3be087f5	0.006852145
111	0x3dc80f6b	0.09768566
112	0x3df97f98	0.1218254
113	0x3ce15be0	0.02750963
114	0xbbecb7c9	-0.0072240573
115	0x3d077618	0.033071607
116	0x3c23012e	0.009949012
117	0x3cf5722b	0.029961666
118	0xbc4a03f1	-0.012330041
119	0xbc0e2475	-0.008675684
120	0xbd3b12c5	-0.045672197
121	0x3be5e84b	0.007016217
122	0xbe0b18dc	-0.13583702
123	0xbb43b35e	-0.002986155
124	0xbd87186c	-0.06596455
125	0xbd037ab9	-0.03209946
126	0xbd3bd480	-0.045856953
127	0xbcca8675	-0.024722317
128	0xbcd01a01	-0.025403025
129	0x3d520e8d	0.051283408
130	0x3d874b83	0.066061996
131	0xbd9a8441	-0.07544757
132	0xbcce481f	-0.025180874
133	0x3cba2e3d	0.022727126
134	0xbe075d9e	-0.13219306
135	0xbc8acf73	-0.016944623
136	0xbd1e59c4	-0.038659826
137	0xbb98c4b1	-0.0046621193
138	0xbcfecb31	-0.031102749
139	0xbd0b2159	-0.03396735
140	0xbd5e3515	-0.05424984
141	0xbb7a24ae	-0.0038168835
142	0xbc0125f3	-0.007882583
143	0x3cce9a00	0.025219917
144	0xbc8f2c41	-0.017477157
145	0x3de516bb	0.11185976
146	0x3d88477a	0.06654258
147	0x3d527edc	0.051390514
148	0x3cb45fc9	0.02201833
149	0xbd466b2b	-0.048442047
150	0xbae48ab9	-0.0017436362
151	0xbdb97b42	-0.09056713
152	0xbdfb0a7d	-0.1225786
153	0xbbe5ea31	-0.007016443
154	0xbaa96e16	-0.0012926485
155	0xbd9a5730	-0.07536161
156	0xbc53de16	-0.012931367
157	0x3d20eeb6	0.039290152
158	0xbd42f35c	-0.047595367
159	0x3cb13692	0.021632466
160	0xbca67023	-0.020317143
161	0xbd3b06c3	-0.045660745
162	0xbcbc18f5	-0.02296112
163	0x3d20f9e2	0.039300807
164	0xbab7b2bb	-0.0014015058
165	0x3cc5a60e	0.024127033
166	0xbd6ec015	-0.058288652
167	0xbd992d8b	-0.0747939
168	0xbd8c53ee	-0.06851946
169	0xbd8a07da	-0.06739779
170	0xbd19c041	-0.037536863
171	0x3c82a0d3	0.015945828
172	0xbb95d7d3	-0.0045728474
173	0xbcb0e92b	-0.021595558
174	0xbd0efb1a	-0.034907438
175	0xbd8a58cc	-0.06755218
176	0x3d19aaa8	0.037516266
177	0xbc898fc1	-0.01679218
178	0xbd3f3741	-0.046683554
179	0x3cc5799d	0.024105841
180	0x3c96aa10	0.018391639
181	0xbbb24c7d	-0.005441247
182	0xbd5d8f33	-0.054091644
183	0xbd1263bc	-0.035739645
184	0xbbde1556	-0.006777446
185	0xbc5de40e	-0.013543142
186	0xbc271059	-0.010196769
187	0xbd72f142	-0.059312113
188	0xbce4089c	-0.027836137
189	0xbd516e20	-0.051130414
190	0xbd505a53	-0.05086739
191	0xbd872776	-0.065993235
192	0x3c459977	0.012060515
193	0xbb7ea97a	-0.003885834
194	0xbb7cd55e	-0.0038579325
195	0xbd0a0be2	-0.03370274
196	0xbd7d5821	-0.061851624
197	0xbce4a086	-0.027908575
198	0xbc3bc8cd	-0.011461449
199	0xbd0e9699	-0.03481159
200	0xbcdc9f74	-0.026931502
201	0x3c2bbf91	0.010482685
202	0xbc8bc190	-0.017060071
203	0x3c2b6a90	0.010462418
204	0xbcc73f69	-0.024322229
205	0xbd206855	-0.039162
206	0xbc91b374	-0.017785765
207	0x3d37697b	0.04477833
208	0x3d07743e	0.03306984
209	0xbd49502f	-0.049148735
210	0xb9c3f843	-0.00037378268
211	0x3cb9f783	0.02270103
212	0xbd776bb7	-0.06040546
213	0xbd11f34c	-0.035632417
214	0xbc711e03	-0.014716628
215	0xbd933227	-0.071873
216	0xbcb79e59	-0.022414373
217	0x3c95c043	0.018280154
218	0xba3e239c	-0.0007253231
219	0x3dd91f2a	0.10601647
220	0x3dd46247	0.103703074
221	0x3d5c341f	0.053760644
222	0x3bc35cc0	0.0059619844
223	0x3dadf70c	0.08494386
224	0xbd5dde14	-0.05416687
225	0xbc8dc18b	-0.017304203
226	0xbb92c870	-0.0044794604
227	0xbb51c093	-0.0032005652
228	0xbd4edb1e	-0.050501935
229	0xbda19006	-0.078887984
230	0xbc9ad72a	-0.018901426
231	0xbd52a053	-0.05142243
232	0xbd32eb71	-0.043681566
233	0xbd2902d1	-0.04126245
234	0xbc27c935	-0.010240843
235	0xbd1e40e0	-0.03863609
236	0x3d106676	0.035253964
237	0xbd0f4fb0	-0.034988105
238	0xbc5be8d6	-0.013422212
239	0xbc8faf84	-0.017539747
240	0xbd31949a	-0.043354608
241	0xbcae169b	-0.021251014
242	0xbce8798a	-0.028378267
243	0xbbde1904	-0.0067778844
244	0xbcbfab61	-0.02339715
245	0xbc3e1a2e	-0.011602921
246	0xbd2c4ae8	-0.042063624
247	0xbd0fb24b	-0.035082143
248	0x3d1bd408	0.038044006
249	0xbcb36970	-0.021900862
250	0x3c145940	0.009054482
251	0x3b85cde8	0.004083384
252	0x3d1a795e	0.0377134
253	0xbd80b3c8	-0.062842906
254	0xbcca8f9c	-0.024726681
255	0x3d4aa584	0.049474254

net.layer3.0.bias f4 [64]
0	0xbcce13f5	-0.025156
1	0x3d1b8d75	0.0379767
2	0x3d02a532	0.031895824
3	0x3d11cf1e	0.035597913
4	0x3d251fc7	0.04031351
5	0x3c39eef0	0.011348471
6	0xbbfaa584	-0.0076491255
7	0x3cbcb1a6	0.023033928
8	0xbcdbad19	-0.026815938
9	0x3bccc22d	0.0062487335
10	0x3d14bb40	0.036311388
11	0x3d160c1e	0.03663265
12	0x3a8384f5	0.0010034131
13	0x3a24b172	0.0006282545
14	0xbcaf3204	-0.021386154
15	0x3cae8240	0.021302342
16	0x3cc119c0	0.023571849
17	0x3ce74a03	0.028233534
18	0x3bea54c0	0.0071512163
19	0xbd1fe161	-0.039033297
20	0xbb47b805	-0.0030474674
21	0x3cd48959	0.025944399
22	0x3bd535d5	0.0065066614
23	0xbc5289aa	-0.0128502045
24	0x3d17891e	0.036996
25	0xbc4979e7	-0.01229713
26	0x3d1d9000	0.038467407
27	0x3c817708	0.015803829
28	0x3d0a9024	0.03382887
29	0x3c7acffc	0.015308376
30	0xbd00ed4d	-0.031476308
31	0xbcc02050	-0.023452908
32	0xbcd44c78	-0.02591537
33	0xbbf0808c	-0.0073395427
34	0x3c5f8324	0.013642106
35	0x3ccd8cbb	0.02509152
36	0xbc518c68	-0.012789823
37	0xbc829fe3	-0.01594538
38	0xbd261860	-0.04055059
39	0x3c926980	0.017872572
40	0x3c304a78	0.010759942
41	0xbb64d420	-0.0034916475
42	0x3ae38866	0.0017359375
43	0x3c6bee4c	0.014400076
44	0xbb7b786b	-0.0038371335
45	0x3c19b9ac	0.0093826465
46	0xbca7a3d0	-0.020463854
47	0x3c92a879	0.0179026
48	0x3cf810cd	0.030281449
49	0xbcbad698	-0.022807404
50	0xbd1996f2	-0.03749747
51	0x3d11fc0a	0.035640754
52	0x3af13f1e	0.0018405651
53	0xbcc51225	-0.024056504
54	0xbc6b82f7	-0.014374486
55	0x3c82718b	0.015923282
56	0x3d1c5b5b	0.03817306
57	0x3ce3248c	0.027727388
58	0xbcec59de	-0.028851446
59	0xbc889371	-0.016671868
60	0x3d2620a5	0.040558476
61	0xbcc8f2e1	-0.024529876
62	0x3cceb336	0.025231939
63	0x3c441d8a	0.011969933

net.layer3.1.weight f4 [64]
0	0x3f705f81	0.9389573
1	0x3f72e710	0.94883823
2	0x3f28760d	0.6580513
3	0x3f2eb2cb	0.68241566
4	0x3f375b53	0.71623725
5	0x3f965b7d	1.174667
6	0x3f2b5cbb	0.6693837
7	0x3f61f324	0.8826163
8	0x3f5004ce	0.8125733
9	0x3f7bb70a	0.9832617
10	0x3fa2ec80	1.2728424
11	0x3f83d099	1.0298034
12	0x3f3ba945	0.7330516
13	0x3f47c052	0.7802783
14	0x3f1fc007	0.62402385
15	0x3f546a36	0.82974565
16	0x3f67cb4f	0.905446
17	0x3f7be68a	0.9839865
18	0x3f5aca00	0.8546448
19	0x3f43b3d9	0.764463
20	0x3f31f289	0.69510704
21	0x3f27bc41	0.6552163
22	0x3f6f98f6	0.93592775
23	0x3f52d8e9	0.8236223
24	0x3f6e7c9b	0.9315888
25	0x3f7270a2	0.94703114
26	0x3f32323c	0.696079
27	0x3f282540	0.6568184
28	0x3f717d21	0.94331557
29	0x3f802833	1.0012268
30	0x3f6dbf06	0.92869604
31	0x3f8e1a40	1.1101761
32	0x3f3f417f	0.74709314
33	0x3f8386db	1.027553
34	0x3fa93e4e	1.3222139
35	0x3f724dea	0.9465014
36	0x3f803cc2	1.0018542
37	0x3f2a856b	0.6660983
38	0x3f3a0285	0.72660094
39	0x3f84c998	1.0374022
40	0x3f81dad4	1.0144906
41	0x3fa13845	1.2595297
42	0x3f69b7ac	0.91295886
43	0x3f858bbd	1.043327
44	0x3f3fcc4e	0.7492112
45	0x3f853b32	1.040869
46	0x3f3080eb	0.68946713
47	0x3f68f1f7	0.9099421
48	0x3f93c7bf	1.1545333
49	0x3fa6ebfa	1.3040764
50	0x3f4956d2	0.786481
51	0x3f498bc7	0.7872891
52	0x3f5b47ff	0.8565673
53	0x3f35dcc6	0.7104
54	0x3f44d7bc	0.76891685
55	0x3f636573	0.88826674
56	0x3f6289c7	0.8849148
57	0x3f9a2b4c	1.2044463
58	0x3f80bf56	1.0058391
59	0x3f35773b	0.70885056
60	0x3f7906fc	0.9727628
61	0x3fa91933	1.3210815
62	0x3f2e85c9	0.6817289
63	0x3f674076	0.90332735

net.layer3.1.bias f4 [64]
0	0xbea51062	-0.32239062
1	0xbe552ea6	-0.20818576
2	0xbea28286	-0.31740206
3	0xbe9a1fa8	-0.30102277
4	0xbe8e967d	-0.27849188
5	0xbd95467a	-0.07288833
6	0xbe95498e	-0.2915768
7	0xbecdd4a6	-0.402013
8	0xbe84d61c	-0.25944602
9	0xbeae99c3	-0.34101686
10	0x3d956d36	0.07296221
11	0xbec1c589	-0.3784602
12	0xbe9eec68	-0.3103974
13	0xbe7de92a	-0.24795976
14	0xbe9aeafb	-0.302574
15	0xbe59b7ea	-0.21261564
16	0xbe85bb32	-0.2611938
17	0xbed49bf0	-0.4152522
18	0xbe97b6cf	-0.2963166
19	0xbe78cc7e	-0.24296758
20	0xbe7c6b46	-0.24650297
21	0xbe823c23	-0.25436506
22	0xbe8e4a07	-0.27790853
23	0xbe5c62f2	-0.2152212
24	0xbe393ea8	-0.18090308
25	0xbe84d412	-0.25943047
26	0xbe71a732	-0.23598936
27	0xbe823403	-0.25430307
28	0xbece192d	-0.40253583
29	0xbe2dca80	-0.16971779
30	0xbe8f9f1b	-0.28051075
31	0x3d6d9148	0.05799988
32	0xbe9a055e	-0.3008222
33	0xbebb7e04	-0.3661958
34	0x3dbffdbd	0.093745686
35	0xbe503a9e	-0.2033486
36	0xbe947388	-0.28994393
37	0xbe939148	-0.28821778
38	0xbe90cec4	-0.2828275
39	0xbe81178a	-0.2521327
40	0xbd60ba96	-0.054865442
41	0x3db0eb4a	0.08638628
42	0xbeb44a1f	-0.352128
43	0xbe9ae391	-0.30251744
44	0xbe42620b	-0.18982713
45	0xbe305883	-0.17221265
46	0xbe96d6de	-0.29460806
47	0xbe7559e5	-0.23960073
48	0xbe2e9eab	-0.17052715
49	0x3dde3e38	0.10851711
50	0xbe5ab1ea	-0.21356931
51	0xbe85755d	-0.26066104
52	0xbe9948ec	-0.29938447
53	0xbe8d4dd0	-0.2759843
54	0xbe54d085	-0.20782669
55	0xbdff5420	-0.124672174
56	0xbeb3a0e5	-0.3508369
57	0x3d87d2d4	0.06632009
58	0xbe3e8b72	-0.18607882
59	0xbe8b9c94	-0.27267897
60	0xbe9b4ff3	-0.30334434
61	0x3e44cda9	0.19219078
62	0xbe9079a5	-0.28217807
63	0xbe053e6b	-0.13012092

net.layer3.1.running_mean f4 [64]
0	0x00000000	0.0
1	0x00000000	0.0
2	0x00000000	0.0
3	0x00000000	0.0
4	0x00000000	0.0
5	0x00000000	0.0
6	0x00000000	0.0
7	0x00000000	0.0
8	0x00000000	0.0
9	0x00000000	0.0
10	0x00000000	0.0
11	0x00000000	0.0
12	0x00000000	0.0
13	0x00000000	0.0
14	0x00000000	0.0
15	0x00000000	0.0
16	0x00000000	0.0
17	0x00000000	0.0
18	0x00000000	0.0
19	0x00000000	0.0
20	0x00000000	0.0
21	0x00000000	0.0
22	0x00000000	0.0
23	0x00000000	0.0
24	0x00000000	0.0
25	0x00000000	0.0
26	0x00000000	0.0
27	0x00000000	0.0
28	0x00000000	0.0
29	0x00000000	0.0
30	0x00000000	0.0
31	0x00000000	0.0
32	0x00000000	0.0
33	0x00000000	0.0
34	0x00000000	0.0
35	0x00000000	0.0
36	0x00000000	0.0
37	0x00000000	0.0
38	0x00000000	0.0
39	0x00000000	0.0
40	0x00000000	0.0
41	0x00000000	0.0
42	0x00000000	0.0
43	0x00000000	0.0
44	0x00000000	0.0
45	0x00000000	0.0
46	0x00000000	0.0
47	0x00000000	0.0
48	0x00000000	0.0
49	0x00000000	0.0
50	0x00000000	0.0
51	0x00000000	0.0
52	0x00000000	0.0
53	0x00000000	0.0
54	0x00000000	0.0
55	0x00000000	0.0
56	0x00000000	0.0
57	0x00000000	0.0
58	0x00000000	0.0
59	0x00000000	0.0
60	0x00000000	0.0
61	0x00000000	0.0
62	0x00000000	0.0
63	0x00000000	0.0

net.layer3.1.running_var f4 [64]
0	0x3f800000	1.0
1	0x3f800000	1.0
2	0x3f800000	1.0
3	0x3f800000	1.0
4	0x3f800000	1.0
5	0x3f800000	1.0
6	0x3f800000	1.0
7	0x3f800000	1.0
8	0x3f800000	1.0
9	0x3f800000	1.0
10	0x3f800000	1.0
11	0x3f800000	1.0
12	0x3f800000	1.0
13	0x3f800000	1.0
14	0x3f800000	1.0
15	0x3f800000	1.0
16	0x3f800000	1.0
17	0x3f800000	1.0
18	0x3f800000	1.0
19	0x3f800000	1.0
20	0x3f800000	1.0
21	0x3f800000	1.0
22	0x3f800000	1.0
23	0x3f800000	1.0
24	0x3f800000	1.0
25	0x3f800000	1.0
26	0x3f800000	1.0
27	0x3f800000	1.0
28	0x3f800000	1.0
29	0x3f800000	1.0
30	0x3f800000	1.0
31	0x3f800000	1.0
32	0x3f800000	1.0
33	0x3f800000	1.0
34	0x3f800000	1.0
35	0x3f800000	1.0
36	0x3f800000	1.0
37	0x3f800000	1.0
38	0x3f800000	1.0
39	0x3f800000	1.0
40	0x3f800000	1.0
41	0x3f800000	1.0
42	0x3f800000	1.0
43	0x3f800000	1.0
44	0x3f800000	1.0
45	0x3f800000	1.0
46	0x3f800000	1.0
47	0x3f800000	1.0
48	0x3f800000	1.0
49	0x3f800000	1.0
50	0x3f800000	1.0
51	0x3f800000	1.0
52	0x3f800000	1.0
53	0x3f800000	1.0
54	0x3f800000	1.0
55	0x3f800000	1.0
56	0x3f800000	1.0
57	0x3f800000	1.0
58	0x3f800000	1.0
59	0x3f800000	1.0
60	0x3f800000	1.0
61	0x3f800000	1.0
62	0x3f800000	1.0
63	0x3f800000	1.0

net.layer4.0.weight f4 [64, 64, 3, 3]
0	0x3b8b5842	0.0042524645
1	0xbcdf23b7	-0.02723871
2	0x3d1334f6	0.03593918
3	0xbd35b6da	-0.044363834
4	0x3d9909dc	0.07472584
5	0xbd73f084	-0.059555545
6	0xbd4b82de	-0.04968535
7	0xbc45acad	-0.012065095
8	0xbd8a82c3	-0.06763222
9	0xbc381e09	-0.01123763
10	0xbd87e200	-0.06634903
11	0xb8cdb4e3	-9.8088545e-05
12	0xbd7e9ff4	-0.062164262
13	0x3d3cd580	0.046102047
14	0x3d2abf6b	0.041686457
15	0xbcbf10a4	-0.023323365
16	0x3d239516	0.0399371
17	0xbc97c39e	-0.018525895
18	0x3cd575ba	0.026057113
19	0x3db46253	0.08807816
20	0x3da15455	0.07877413
21	0xbd389a7b	-0.0450692
22	0xbc917576	-0.017756205
23	0xb8a123e2	-7.683762e-05
24	0xbba8df8d	-0.0051536025
25	0xbd59f1ee	-0.053209238
26	0xbca4eb8e	-0.020131852
27	0xbcf8bbe9	-0.03036304
28	0x3d553ea0	0.052061677
29	0xbd3bb850	-0.04583007
30	0x3c353820	0.0110607445
31	0x3d9fe7fb	0.07807919
32	0xbd8244c6	-0.06360774
33	0xbd624afb	-0.05524729
34	0x3bc15cd7	0.00590096
35	0xbda2f6e3	-0.07957246
36	0xbb42b1a1	-0.0029707926
37	0x3d755408	0.05989459
38	0xbd2470ca	-0.040146627
39	0xbde8434c	-0.11340961
40	0x3cb2615a	0.021774936
41	0xbd88443b	-0.06653639
42	0xbb635c2a	-0.0034692385
43	0xbcaa563f	-0.020793078
44	0x3c52fff7	0.01287841
45	0x3c30c332	0.010788726
46	0xbd934395	-0.071906246
47	0xbd858bc8	-0.06520802
48	0xbcb19742	-0.02167857
49	0xbd41be26	-0.04730048
50	0x3cdc17e7	0.026866866
51	0xbe1a8c30	-0.1509254
52	0xbd9abf00	-0.075559616
53	0x3d74f8d6	0.05980762
54	0xbc0cd3c5	-0.008595412
55	0xbd12f763	-0.035880458
56	0xbcdc6bcf	-0.026906876
57	0xbc7ec272	-0.015549289
58	0x3b943a31	0.0045235385
59	0xbd9a9e1f	-0.075496905
60	0xbc1176ca	-0.008878419
61	0xbe01e42c	-0.12684697
62	0xbd969cc1	-0.07354117
63	0xbd927d9a	-0.07152863
64	0xbc8dde45	-0.0173179
65	0xbcb6ea48	-0.02232851
66	0xbc93149f	-0.017954169
67	0xbc25db57	-0.0101230955
68	0xbda01f44	-0.078184634
69	0xbcead9e4	-0.028668351
70	0x3b94497d	0.004525362
71	0xbd916c6f	-0.0710076
72	0x3ca6c77e	0.020358797
73	0xbc1479f9	-0.009062284
74	0xbd819780	-0.063277245
75	0xbd869e5b	-0.06573173
76	0xbd6bfd68	-0.057614714
77	0xbd8ae7cd	-0.06782494
78	0x3cad33dc	0.021142893
79	0xbcdf14c6	-0.027231585
80	0x3c693d38	0.014235787
81	0xbd439a86	-0.047754787
82	0x3d5d09f3	0.053964566
83	0x3cad0c66	0.021124076
84	0xbccfdac0	-0.025372863
85	0x3b923aa7	0.0044625583
86	0x3bfd34ee	0.007727257
87	0x3cd59c37	0.026075466
88	0x3cd8c6bd	0.026461953
89	0xbcc8d462	-0.024515335
90	0x3d086c4b	0.0333064
91	0x3b3e76f0	0.0029062591
92	0xbd8783d8	-0.06616944
93	0x3ded48d9	0.1158616
94	0xbb997e15	-0.0046842196
95	0xbc5460ab	-0.012962501
96	0x3b1bd4be	0.0023777927
97	0xbc654e83	-0.013995769
98	0x3cce88f1	0.025211783
99	0xbb7469dd	-0.0037294545
100	0x3d813f6a	0.063109234
101	0xbd220e7f	-0.039564606
102	0xba22ff22	-0.00062178273
103	0x3c0e7cd5	0.008696754
104	0xbce0f207	-0.027459158
105	0x3c8b37cd	0.016994381
106	0xbcc05664	-0.023478694
107	0x3cc7ae44	0.024375089
108	0xbd964e69	-0.07339174
109	0x3c906b1a	0.017629195
110	0x3dcedcb0	0.101006866
111	0xbd17eef0	-0.037093103
112	0xbd6d0251	-0.057863537
113	0xbb1944f4	-0.0023387047
114	0xbdb24e3d	-0.08706329
115	0x3d4986cd	0.04920082
116	0x3dbae8a5	0.09126405
117	0xbd9bb824	-0.076034814
118	0x3d9a6da1	0.07540441
119	0xbc964185	-0.018341789
120	0x3c81e9cd	0.015858555
121	0x3d2fbb64	0.04290332
122	0x3d83b46a	0.064308956
123	0xbca22bce	-0.019796278
124	0xbdade449	-0.084908076
125	0xbdf0fdf4	-0.11767188
126	0x3c9cc411	0.01913646
127	0x3c6cbefe	0.014449833
128	0x3d015c84	0.03158237
129	0xbd3dcc3a	-0.046337344
130	0x3d4923fc	0.049106583
131	0xbd7622a1	-0.06009162
132	0xbd9e7330	-0.07736814
133	0x3d1c0a99	0.038096044
134	0xbd757f3f	-0.059935804
135	0xbe06e872	-0.13174608
136	0xbd28adbb	-0.041181307
137	0xbdb75aba	-0.089528516
138	0xbd98b5d9	-0.0745656
139	0xbc86f74c	-0.016475342
140	0xbdc1bc39	-0.09459729
141	0xbe029bd5	-0.12754758
142	0x3cc20170	0.023682326
143	0x3d9d1d5b	0.07671615
144	0xbd68b9a5	-0.05681767
145	0xbccb214f	-0.024796156
146	0x3d749357	0.059710827
147	0xbc431443	-0.011906686
148	0xbd60a432	-0.05484409
149	0xbd605908	-0.054772407
150	0xbd5e396e	-0.054253988
151	0xbd810dd6	-0.06301467
152	0xbdc98703	-0.098402046
153	0xbd784378	-0.06061122
154	0x3d1e9c65	0.03872337
155	0xbd233675	-0.039846856
156	0xbb3f59d3	-0.0029197827
157	0x3c0f5b24	0.008749757
158	0x3d96d722	0.07365252
159	0x3b45e1ae	0.003019433
160	0x3d468bd2	0.048473187
161	0x3de2fc6b	0.11083301
162	0xbd23b3e1	-0.039966468
163	0xbc4f04a2	-0.012635382
164	0x3a41d251	0.00073937053
165	0xbda9fcbd	-0.08300159
166	0x3d227e4c	0.039671227
167	0x3d1c52f9	0.038165066
168	0xbd999b56	-0.07500331
169	0x3dd0a72d	0.10188136
170	0x3d59a550	0.05313617
171	0xbce80f25	-0.028327534
172	0xbd549176	-0.051896535
173	0x3c306006	0.010765081
174	0x3d1c7555	0.038197834
175	0xbe0e8b59	-0.13920344
176	0xbcd2a86b	-0.025715074
177	0xbd9ad956	-0.07560985
178	0xbd9a0096	-0.07519643
179	0xbca41577	-0.020029766
180	0xbda97870	-0.08274925
181	0x3d3867e5	0.045020957
182	0xbc29cd22	-0.010363849
183	0xbb422e8d	-0.0029629797
184	0xbc0003db	-0.007813419
185	0xbd1b2f37	-0.037886824
186	0xbd8e14c2	-0.06937553
187	0x3d82ec1a	0.06392689
188	0x3d3a10bc	0.045426115
189	0x3cf84886	0.03030802
190	0x3cf86123	0.030319756
191	0xbc9d27d0	-0.019184023
192	0xbca389ae	-0.019963112
193	0xbdd6e3a8	-0.10492641
194	0xbdcefe3a	-0.101070836
195	0xbba5e65f	-0.0050628628
196	0xbd244a96	-0.040110193
197	0xbbc2dd10	-0.005946763
198	0x3d1133ad	0.035449672
199	0x3d7ffefc	0.06249903
200	0x3cfd4cd3	0.030920422
201	0x3c646727	0.013940609
202	0x3ccd9db4	0.025099613
203	0x3d1f5fd2	0.03890974
204	0x3ba0f240	0.004911691
205	0xbc8f888f	-0.01752117
206	0xbdd83dad	-0.10558639
207	0xbc0091fd	-0.007847306
208	0xbce2d56d	-0.02768966
209	0xbcfba124	-0.030716486
210	0x3d12c10c	0.035828635
211	0xbd5dea45	-0.054178495
212	0xbcb03903	-0.02151156
213	0x3d0322c5	0.03201558
214	0x3ce04485	0.027376423
215	0xbd2b8059	-0.04187045
216	0xbdcf39e9	-0.10118467
217	0x3cf71d06	0.030165207
218	0xbcf2dc17	-0.029645963
219	0xbc8a83a0	-0.016908467
220	0x3d5a6699	0.0533205
221	0x3c548237	0.012970499
222	0xbdb20873	-0.08693018
223	0x3d23e60d	0.040014315
224	0x3d927411	0.07151044
225	0x3cd310b7	0.025764806
226	0x3d149f98	0.036285013
227	0xbcc794b3	-0.024362898
228	0xbd36f165	-0.044663806
229	0xbccf5e8a	-0.025313634
230	0xbd183c03	-0.037166607
231	0xbbf7eceb	-0.0075660846
232	0xbcae1ca5	-0.021253893
233	0x3bd1765a	0.0063922824
234	0x3d9320c6	0.071839854
235	0x3daafe44	0.083492786
236	0x3d5ff51f	0.054677125
237	0x3ce24221	0.027619423
238	0x3db1417a	0.08655067
239	0xbb65348e	-0.0034973952
240	0x3d269ab7	0.04067489
241	0xbcf98733	-0.030459976
242	0xbd42a604	-0.047521606
243	0xbbd005c5	-0.006348344
244	0xbd4c6e19	-0.049909685
245	0x3c8ddf35	0.017318347
246	0xbd12b7d1	-0.035819832
247	0xbd8a584e	-0.06755124
248	0xbd10f0d5	-0.035385925
249	0x3c98012a	0.018555243
250	0xbd54a19e	-0.051911943
251	0xbde13cf9	-0.10997958
252	0xbb6c31b0	-0.0036040358
253	0x3d69590a	0.05696968
254	0xbadde20d	-0.001692833
255	0xbca2cce2	-0.019873086
