old_mp/maml_omniglot_step7000_k_1_n_way5.pt (torch, 462256 bytes, 26 tensors)

net.layer1.0.weight f4 [64, 1, 3, 3]
00000000: e390 8e3e cf10 833e 05f0 e2bd 9c59 d1be
00000010: e033 923e a5c2 513d 307d b7bd 755d 793e
00000020: 86fc d0bb ea29 50bd 0f74 8cbe 9639 5bbc
00000030: cea9 68be b3f9 ab3e 7bbc a43e 20e9 a63c
00000040: cf01 abbd e7a1 bebe da55 38bd e620 d7bd
00000050: 785e e73c 335e 3b3e 8c16 f2be 07fc 843e
00000060: d9b5 653e 1856 963e 3a1a 5b3e 014a d73e
00000070: c68a 413e 9f3e f73e 4458 5bbe 8304 d0bc
00000080: 2f9d 8ebe 26d6 acbc ec82 433e 1d83 e8bc
00000090: 5172 653e 9560 ea3e 3393 3c3e 3c56 09be
000000a0: 2247 753b 6d8e 53be 3925 72be a641 aebe
000000b0: f626 06be 4fbf a43c 8fc2 823e d8ea 643e
000000c0: 38ce 29be 1aab 06be 2a48 e1be 665f ae3d
000000d0: 638e 293e ca6f 863e c75f b9bd 5b66 38be
000000e0: bd41 943e ad3e 7d3e c1d2 5fbe f63d 153e
000000f0: 57ed 19bd 7974 47be 56e8 993e 8a28 e7bc
00000100: e58a 153e 1ab1 4bbe 883c 533e f425 753e
00000110: adf2 943e df65 fe3d 800f b8be 0dc4 0e3e
00000120: 4ef0 f63a 5bab 603e a168 4ebe a581 9cbe
00000130: 9f25 b43e bdec 41bd 5479 823e 363a b7bd
00000140: a48e 813e f433 09be 4edd e5bd 9e6c a0bd
00000150: 2ba0 29be 484b b23d a252 28be 3950 bbbe
00000160: b19a dd3e ddb4 7fbe 55d1 e03c ff42 29be
00000170: 01af 73be 7f8f 6cbd c998 0d3f 8a0d f13d
00000180: f1e1 4dbe 4673 72be c3c0 9a37 0241 863e
00000190: f3dd be3e 707d 053e 5502 c63d 326a d0be
000001a0: cd52 a53e a442 d63c 24d9 40be 73fe 223e
000001b0: 5f02 86bd cee0 133e 0527 ccbd 13ec 523c
000001c0: 13fe 23be 10fe a3be 95c2 993e 89ed 513e
000001d0: aaf8 ee3e 7a29 2abe b78a 2bbd 4d68 15be
000001e0: 32c0 ae3e e2a3 903e f791 cd3e 7570 a93e
000001f0: c1cc 34bd 455f 973e f2c7 a03d c729 b23e
00000200: 9539 3d3e 2879 ac3e e003 84be e89f 84be
00000210: 4ff5 9c3e 1d0a 82bd a327 003d 41db 07be
00000220: ef5a a63e b15a 0cbe 0dcb 143e 7cea a1be
00000230: 91ba fc3d e9b0 3abe 5d53 df3e bbf5 72be
00000240: 2f4e 8dbc f17e 51bd e8bf b1be 02d3 c5bd
00000250: a36e 5fbe e063 5abe fb2e d6be 78a6 91be
00000260: 47cb af3d dcfc 71be afa8 873e 00d8 003f
00000270: 007f 00bd cb38 f03d c771 c1bd 70df 5abe
00000280: 9dba edbd 1512 a23e 5707 703e 000e d7be
00000290: 0e0e 3d3d 3c20 563e c77e cd3d 2a30 ad3e
000002a0: aa7d ccbd df8f 2a3e 5621 1bbe 82af bf3e
000002b0: b7f1 d3bd a6c3 cdbc efbe f9bd 4851 c4be
000002c0: 14e3 583e eed5 213c bcb4 3e3e fad7 983e
000002d0: dcfe 88be e8c4 afbd 21fd bc3d 994b 13be
000002e0: e02e 65bc 2e61 df3e 8453 cd3e b9bd 9e3e
000002f0: a3c9 a6bd d6a8 b4bc 12f5 1d3e 21dc ee3d
00000300: 2b1a 41be 24f9 d5be 2184 bf3e edd9 5b3e
00000310: 320b a43e 5a04 f43d 64ed 0ebe a030 e53d
00000320: 102d b53e 647b d8bd f091 8abe b974 313e
00000330: 1618 b53e af98 0bbd 3ba4 89be b56d 643d
00000340: be9e 52be fcda 223e 6d33 173d 5e57 c1be
00000350: 891b bc3e acba 663d eb05 eb3e 2d7c 0cbc
00000360: cb65 3a3e 8be3 9fbe 098c 913e 14cd 27bd
00000370: fe12 cbbd ce4e a13c 16ed 12be 85dc d93e
00000380: 725d 9abe e86a a4be 8f83 cf3e d37a 8fbd
00000390: 4317 4abe 8888 9c3e b8ac cabd 2712 34be
000003a0: ec47 793e 05cf 8ebd 9e13 d83d 5b88 933e
000003b0: dc4d 393e 8d32 27be b82a edbe 84d2 b23e
000003c0: 2885 42bb 9b86 453e c3c9 2b3e dbce c73e
000003d0: cb5a 373e 1e8e a8be c3b7 c93d 0c56 ed3c
000003e0: 4389 3dbe a15e 0d3e 8145 203e 7ee7 9ebe
000003f0: 4732 dabd 1e4c b13d 9a7b 31bd 1fd1 9cbc
0.27844915 0.2559876 -0.11080936 -0.4088868 0.28555202 0.051211018 -0.089594245 0.24352057
-0.0063777594 -0.050821222 -0.27432296 -0.013380429 -0.22721025 0.33588943 0.3217505 0.020374835
-0.08349954 -0.37232897 -0.04500375 -0.10504322 0.028243288 0.18297653 -0.47282827 0.25973532
0.2243265 0.2936256 0.21396723 0.42048648 0.18900594 0.48289964 -0.2142039 -0.025392776
-0.27854297 -0.021098208 0.19092911 -0.028382832 0.2240689 0.4577681 0.18415527 -0.13411802
0.0037426432 -0.206598 -0.23647012 -0.3403446 -0.131008 0.020110754 0.2553906 0.22355211
-0.16582572 -0.13151208 -0.4400037 0.085142896 0.16558222 0.26257163 -0.09051471 -0.18007796
0.28956404 0.2473094 -0.2185774 0.14574417 -0.03757986 -0.19478025 0.3006007 -0.028217573
0.14603765 -0.19891778 0.2062856 0.23940259 0.29091397 0.12421774 -0.35949326 0.13941975
0.0018839927 0.21940367 -0.201571 -0.3056766 0.35184953 -0.04734491 0.2548319 -0.0894665
0.2530414 -0.13398725 -0.11223851 -0.07833217 -0.16565005 0.08705765 -0.16437772 -0.36584643
0.43282083 -0.24971338 0.027443567 -0.16529463 -0.23797227 -0.057754036 0.55311257 0.117701605
-0.20105721 -0.23676786 1.8447992e-05 0.26221472 0.3727871 0.13036132 0.096684135 -0.4070602
0.32289734 0.026154824 -0.18832833 0.15917377 -0.06543421 0.14441225 -0.0996838 0.012873667
-0.1601489 -0.32029772 0.30031267 0.20500769 0.4667409 -0.16617385 -0.041880336 -0.14590569
0.34131008 0.28250033 0.40150425 0.3309361 -0.04414058 0.29564872 0.078506365 0.347975
0.18478997 0.33686185 -0.25784206 -0.2590325 0.30655906 -0.06349585 0.0312878 -0.13267232
0.32491252 -0.13706471 0.14530583 -0.3162421 0.12340272 -0.18231548 0.4361829 -0.23726551
-0.017249195 -0.05114645 -0.34716725 -0.09659387 -0.21819548 -0.21327162 -0.41832718 -0.28447318
0.08583694 -0.23631614 0.26495883 0.5032959 -0.031371117 0.117295824 -0.094455294 -0.21374297
-0.11607859 0.3165442 0.234403 -0.4200287 0.04615598 0.20910734 0.100339465 0.3382581
-0.09984906 0.16656445 -0.15149435 0.3743859 -0.10348838 -0.025117707 -0.12194621 -0.38343263
0.21180373 0.009877665 0.18623632 0.29852277 -0.26756942 -0.08582479 0.09227968 -0.14384307
-0.013988227 0.4362883 0.4010278 0.31004122 -0.08143928 -0.022053163 0.15425518 0.1166308
-0.18857639 -0.41791642 0.37405494 0.21469851 0.3203979 0.119148925 -0.13957745 0.11190915
0.35385942 -0.1057041 -0.27064466 0.17329682 0.3536994 -0.034081157 -0.2688311 0.055768687
-0.20568368 0.15903848 0.036914278 -0.37761968 0.36739758 0.056330368 0.45902953 -0.008574528
0.18202893 -0.3122829 0.2842715 -0.040967062 -0.09915732 0.019690897 -0.14348254 0.42551056
-0.30149418 -0.32112813 0.4053006 -0.07005849 -0.19735436 0.30572915 -0.09896225 -0.1758505
0.24343842 -0.069730796 0.10550617 0.28814968 0.18096107 -0.16327877 -0.46321654 0.34926236
-0.0029681418 0.19289629 0.16776185 0.39025006 0.17905729 -0.32920927 0.09849503 0.028971694
-0.18509392 0.1380563 0.15651514 -0.3103599 -0.10654121 0.08657096 -0.043330766 -0.019142685

net.layer1.0.bias f4 [64]
00000000: e6e4 a7be 25f7 f8bd 2cb9 9d3d c5e7 d63e
00000010: ad81 bcbc 19fe 053f ada2 c8bb cd4f c03e
00000020: 894a ab3e 0c7c 043e 27b7 67bd 11be eebd
00000030: 7bb6 40bc e71e 12be dd54 0abd 48f7 223e
00000040: ace3 ccbd 2624 8cbe c075 e0bd a673 953e
00000050: 7948 933d ce87 983e 1767 553e 2ee8 a7be
00000060: 8f2f aabe 4765 9a3d 3ab9 0a3e 4ea1 47be
00000070: 5416 e7bd 2cdb f23d d7ad 82be 65f7 cebd
00000080: 0c37 b1be f3cd 01bd b4ef e03e 3fe0 56bd
00000090: 2f7e c8be ed29 b1be 3e59 143e 80a0 7e3d
000000a0: e0b4 9c3e 255a d93e 7c07 843a 7b54 953e
000000b0: 63e3 4d3d 5aca e13d ccf2 4c3e 7a2a 763e
000000c0: 88df 4cbe 9fc3 923e b606 943e 684f 003e
000000d0: 15b5 49be 7c8c 8e3e 58ba f33e e5c2 d7bd
000000e0: 70c8 a23d e567 8a3e 0979 083f 3705 903e
000000f0: f7ed 483d 1d2a b03c 5e7f c03d 51ff b73e
-0.32791823 -0.12156514 0.07701334 0.419737 -0.023011053 0.5234085 -0.006122908 0.37560883
0.33455303 0.12937945 -0.056571152 -0.11657346 -0.011762257 -0.14269601 -0.03377234 0.15914643
-0.100043625 -0.2737133 -0.10959959 0.29189795 0.071915574 0.2979111 0.20840107 -0.32794327
-0.3323941 0.07538848 0.13547221 -0.19495127 -0.112835556 0.1185821 -0.25523254 -0.101057805
-0.3461231 -0.03169055 0.4393288 -0.05245995 -0.3915877 -0.346023 0.14487168 0.062164783
0.30606747 0.42451587 0.0010073031 0.29166016 0.05026568 0.110249236 0.20014495 0.24039641
-0.20007145 0.28664872 0.2891137 0.12530291 -0.19697984 0.27841556 0.47603106 -0.1053522
0.07948387 0.2703239 0.53309685 0.2812898 0.049055066 0.021504456 0.09399293 0.35936978

net.layer1.1.weight f4 [64]
00000000: e6b7 a13f 2c7e 1d3f f581 a33f ea4c 553f
00000010: 6694 093f 8107 413f 738b 443f 9a98 aa3f
00000020: efad 993f 9841 de3e cdb9 0e3f 991f a53f
00000030: e8e3 553f 9aed 9a3f 6c5c 9e3f 1d4e f93e
00000040: 7e7b 363f b427 5b3f 4cf9 ad3f 8291 443f
00000050: bf91 693f e590 b63f 0dd3 ea3e 0f42 933f
00000060: 7818 f43e 84a1 323f 5bed bf3f 26f4 3a3f
00000070: fa83 ac3f 7523 f13e c935 183f 5da7 2f3f
00000080: 2c59 073f 57ad 9e3f 3043 9e3f 5c79 af3f
00000090: dccf 893f 2f87 a93f 75f8 b23f 8a9f f23e
000000a0: 52f9 803f 33ac 4f3f 33cc 143f 2eda a43f
000000b0: be10 fc3e 4cf0 983f bdda 9f3f 8a30 a13e
000000c0: f534 263f 91a2 433f fd13 e83f caff 1a3f
000000d0: b798 923f 53a0 3b3f cf46 963f 9dfb 803f
000000e0: b4b9 053f 2472 3b3f ee89 2f3f d521 853f
000000f0: 8357 273f 4443 923f c7b8 2e3f ec50 b73f
1.2634246 0.6152065 1.2774035 0.83320487 0.53742063 0.75402075 0.7677528 1.332782
1.2006205 0.4340942 0.5575226 1.2900268 0.8355088 1.210376 1.2371955 0.48692408
0.71282184 0.8560746 1.3591704 0.7678453 0.91238016 1.4262968 0.45864144 1.1504534
0.47674918 0.69777703 1.499431 0.7302879 1.3477776 0.47097364 0.5945707 0.6861475
0.5287044 1.2396649 1.2364254 1.3708911 1.0766559 1.324438 1.3982073 0.47387344
1.0076087 0.8112213 0.58124083 1.2879083 0.49231523 1.1948333 1.2488629 0.31482345
0.64924556 0.7641993 1.81311 0.60546553 1.1452855 0.7329151 1.1740359 1.0076786
0.52236485 0.7322104 0.6856984 1.040095 0.6536791 1.1426778 0.682507 1.432157

net.layer1.1.bias f4 [64]
00000000: a599 efbe 8f70 9fbf 4ed4 0fbf ebd8 57be
00000010: ce74 cdbe 8d46 b2be 800f 90be bcab ffbe
00000020: 5f59 0ebf 8c1d 3fbf 01d9 1abf 864b 35bf
00000030: 9d80 9ebe f8b5 b5be 1077 04bf 90e7 113c
00000040: 05ae aebf 66e1 9bbe 95db 01bf 57ac 8fbe
00000050: bb05 bebe 3e50 56bf a144 fd3d d8f9 07bf
00000060: acf9 8fbf 3059 003e db2b 5fbf b970 8cbd
00000070: 3ab8 7dbe 71f4 d8bc aac1 c5be 1617 8dbe
00000080: b0c2 8dbf 4c9a 45bf 4481 f4be 4705 523c
00000090: 8b3f f3be 3c9c ebbe 67fd 5cbf 0f88 8bbf
000000a0: db09 a1be 34c1 97be f637 9f3d 89ce edbe
000000b0: 0d4b 103f 654d eabe 89a3 a53e b869 3c3f
000000c0: 7d7e 9dbf ca27 5abe 3222 40bf ccea 94bf
000000d0: 1417 7bbe 0eea 5ebf fc5a 04bf 3f72 54be
000000e0: 427b 81bf feb9 f6be 3f3c a8be db29 a8be
000000f0: 482a 8ebe 3e75 04bf edb7 70bd c01c 31bf
-0.4679691 -1.2456225 -0.56183326 -0.21078841 -0.40128177 -0.3481945 -0.28136826 -0.4993571
-0.5560512 -0.7465446 -0.6048737 -0.70818365 -0.309575 -0.35490394 -0.51744175 0.008905306
-1.3646857 -0.30445403 -0.5072568 -0.28061172 -0.37113747 -0.8371619 0.123666056 -0.53115606
-1.1248069 0.12534022 -0.87176293 -0.06857438 -0.24777308 -0.026483746 -0.38624316 -0.27556676
-1.1075039 -0.77188563 -0.47754872 0.012818641 -0.47509417 -0.46017635 -0.8632416 -1.0900897
-0.31452832 -0.2963959 0.077743456 -0.46446636 0.5636452 -0.45762172 0.3235133 0.73598814
-1.2304226 -0.21304241 -0.7505218 -1.1634154 -0.24520522 -0.8707589 -0.5170133 -0.20746706
-1.011574 -0.48188776 -0.32858464 -0.32844433 -0.27766633 -0.517414 -0.058769155 -0.69184494

net.layer1.1.running_mean f4 [64]
00000000: 0000 0000 0000 0000 0000 0000 0000 0000
00000010: 0000 0000 0000 0000 0000 0000 0000 0000
00000020: 0000 0000 0000 0000 0000 0000 0000 0000
00000030: 0000 0000 0000 0000 0000 0000 0000 0000
00000040: 0000 0000 0000 0000 0000 0000 0000 0000
00000050: 0000 0000 0000 0000 0000 0000 0000 0000
00000060: 0000 0000 0000 0000 0000 0000 0000 0000
00000070: 0000 0000 0000 0000 0000 0000 0000 0000
00000080: 0000 0000 0000 0000 0000 0000 0000 0000
00000090: 0000 0000 0000 0000 0000 0000 0000 0000
000000a0: 0000 0000 0000 0000 0000 0000 0000 0000
000000b0: 0000 0000 0000 0000 0000 0000 0000 0000
000000c0: 0000 0000 0000 0000 0000 0000 0000 0000
000000d0: 0000 0000 0000 0000 0000 0000 0000 0000
000000e0: 0000 0000 0000 0000 0000 0000 0000 0000
000000f0: 0000 0000 0000 0000 0000 0000 0000 0000
0.0 0.0 0.0 0.0 0.0 0.0 0.0 0.0
0.0 0.0 0.0 0.0 0.0 0.0 0.0 0.0
0.0 0.0 0.0 0.0 0.0 0.0 0.0 0.0
0.0 0.0 0.0 0.0 0.0 0.0 0.0 0.0
0.0 0.0 0.0 0.0 0.0 0.0 0.0 0.0
0.0 0.0 0.0 0.0 0.0 0.0 0.0 0.0
0.0 0.0 0.0 0.0 0.0 0.0 0.0 0.0
0.0 0.0 0.0 0.0 0.0 0.0 0.0 0.0

net.layer1.1.running_var f4 [64]
00000000: 0000 803f 0000 803f 0000 803f 0000 803f
00000010: 0000 803f 0000 803f 0000 803f 0000 803f
00000020: 0000 803f 0000 803f 0000 803f 0000 803f
00000030: 0000 803f 0000 803f 0000 803f 0000 803f
00000040: 0000 803f 0000 803f 0000 803f 0000 803f
00000050: 0000 803f 0000 803f 0000 803f 0000 803f
00000060: 0000 803f 0000 803f 0000 803f 0000 803f
00000070: 0000 803f 0000 803f 0000 803f 0000 803f
00000080: 0000 803f 0000 803f 0000 803f 0000 803f
00000090: 0000 803f 0000 803f 0000 803f 0000 803f
000000a0: 0000 803f 0000 803f 0000 803f 0000 803f
000000b0: 0000 803f 0000 803f 0000 803f 0000 803f
000000c0: 0000 803f 0000 803f 0000 803f 0000 803f
000000d0: 0000 803f 0000 803f 0000 803f 0000 803f
000000e0: 0000 803f 0000 803f 0000 803f 0000 803f
000000f0: 0000 803f 0000 803f 0000 803f 0000 803f
1.0 1.0 1.0 1.0 1.0 1.0 1.0 1.0
1.0 1.0 1.0 1.0 1.0 1.0 1.0 1.0
1.0 1.0 1.0 1.0 1.0 1.0 1.0 1.0
1.0 1.0 1.0 1.0 1.0 1.0 1.0 1.0
1.0 1.0 1.0 1.0 1.0 1.0 1.0 1.0
1.0 1.0 1.0 1.0 1.0 1.0 1.0 1.0
1.0 1.0 1.0 1.0 1.0 1.0 1.0 1.0
1.0 1.0 1.0 1.0 1.0 1.0 1.0 1.0

net.layer2.0.weight f4 [64, 64, 3, 3]
00000000: 5ccc 81be 23f4 d5bd b9c7 8ebd 7663 10be
00000010: 81d7 08be efa4 60be 1540 d53d 0cd2 65be
00000020: 1792 21bf 9c50 f53e d9fb f2bc 905e f7bd
00000030: 3012 99bb 8419 ba3c c180 80bd 389c 12bd
00000040: a241 df3d 6451 ff3e 82fd 01be 1c5a 32be
00000050: 5210 5bbe 5eb5 7abe 7ae6 403a abb9 92bc
00000060: aeb1 ebbb 00d8 053e 7e57 dc3d c27c 55be
00000070: 8f56 91be c737 60be 6809 0dbf f4fb 17bf
00000080: 639f 1fbf 09d2 883c 4a41 4dbb 5d64 d13b
00000090: db12 c23b 2b8d 0bbe fd74 9cbe ba5c 98bd
000000a0: 7cd6 14bd 68d7 c1bd b2ad 4f3e 9263 bf3d
000000b0: 8aae 983e 9da2 02bf 3388 f1be 1042 bbbd
000000c0: cb52 a2be a11e 8ebe 79cf e6be 54f1 14be
000000d0: 8a96 3a3e feba 58bd 9fd7 42be a61e f7be
000000e0: 5b4a 6f3e 198d 3dbe cd93 9dbe 042d 093e
000000f0: 7e81 16bf 6407 17bf 068f a4be b912 99be
00000100: 741a 263e ad80 083e 4a22 213e f28c db3d
00000110: f43c 51be 24c4 8d3e 7ca8 d53e cb38 af3d
00000120: 7c3e 49be a860 0abe 2658 c8be 821d 9c3c
00000130: e3d5 12be ae14 56be d0f8 bfbd ea6f 8a3e
00000140: 3f97 98bd fce0 b63d 3a37 84bd 1190 34be
00000150: 73c6 9c3d 6d1e cabd f7ef 593d 8151 e03d
00000160: 7e08 493e cda4 d2bd 6a7f 123e 9590 a33d
00000170: 4bac 553e e89c 0f3d 41ca 433e e145 bb3d
00000180: 6122 633d 255a 473c 2394 333e 740b 1bbc
00000190: 1d65 b23d d2c6 523e 7e45 983d 348a 893e
000001a0: 4705 613e dd69 c83c ff36 c53d b0a1 e43c
000001b0: ecf3 e3be f605 babd edee 14be a056 5f3e
000001c0: 5c81 d03d 7ffa a8be 4084 483e 525f 933e
000001d0: f114 8abe 7ff2 703e d9ff e43d 9062 c43d
000001e0: 0129 0a3e bd18 05bd d4dc e63d f660 bebe
000001f0: d722 3ebe 0455 99be 45cc 6ebd 29b3 0fbe
00000200: 5551 77be 7704 c1be d08a 06bf 5c47 a5be
00000210: 8643 6dbe 6392 98be e554 38be d024 8bbd
00000220: d000 91bd 8ce0 e2bd 04ce 88be ab9d 44bd
00000230: f9e2 9d3d f635 2dbe 7ee8 703e d553 463e
00000240: 278d 723e b754 45bc 65a9 9fbe abe9 2bbe
00000250: 4f8d 3e3e c7f0 2ebe bd42 9d3e 2712 8c3e
00000260: 57e0 3f3e 3b46 9cbd 2e30 22be 3947 99bd
00000270: 23e4 bbbd e173 26be 7efb 29be 0f25 3abe
00000280: e282 c3be 464b b3be a07a 99bd f241 46be
00000290: 3bb4 6ebd ec7d e23d 3d9e 543e f7c5 3d3e
000002a0: facc 463e c487 943e acf0 a93e e5f6 ebbc
000002b0: 127d 5fbd 70c6 81be 8ee5 51be 4382 40be
000002c0: 4e31 173d 9d84 9bbe 6616 373e 97ac 62be
000002d0: 709c a83e f6ef 10be d55d cdbe daf2 e6bd
000002e0: 0ba0 febd cd97 b8bd d573 02bf dcff 82be
000002f0: 8da3 52be 845e 023e ccc2 2bbe c9e9 d3be
00000300: c9bb 243e 67d5 a9be 2e09 81be 16c0 59be
00000310: 2062 69be 90e8 10be f273 383e 02e5 9ebe
00000320: 9fb2 ba3d 68fb 153e c427 11bc f8a8 83bd
00000330: 6eba 363c ef21 15bd 5be6 3fbe 1a9c 9e3d
00000340: 2c57 c4be d590 14bf 5365 c2be 1ea6 a8be
00000350: 7408 00bf 2bef eebe de0a a4be b171 9cba
00000360: 336f 043e a3bf 82be 8e1a 093e f564 09be
00000370: a4a3 b5be e9b2 a33e 5125 113c 1b31 a53e
00000380: bbea af3d 015f 21be b774 45be 4cc5 b7be
00000390: 4afb a3be 05ec 45be f07a b8bd db1b 12be
000003a0: d48e bfbe 5dc9 abbe cd2c c0bd d14f 7dbe
000003b0: 1703 23bd 6621 5ebe d38d 28bf 4efd 0dbf
000003c0: 970a cdbd 455a f6be 8d98 9dbe 9c9e d2be
000003d0: 9fcf 8ebd 09c2 61be 1a2b 01be 7b91 89be
000003e0: b5ad ab3c 0826 c3bd e890 b2be 4dda f13d
000003f0: d554 30be 16fc 06be c41e 97bc 4404 ccbd
-0.25351226 -0.10446956 -0.06971688 -0.14100441 -0.13363458 -0.21937917 0.10412613 -0.22443408
-0.6311354 0.47913063 -0.029661106 -0.12078583 -0.0046713576 0.022717245 -0.06274558 -0.035793513
0.1090119 0.49866784 -0.12694362 -0.17417186 -0.21392944 -0.24483249 0.00073585624 -0.017910799
-0.007192812 0.13070679 0.10758875 -0.20848373 -0.2838635 -0.21896277 -0.5509248 -0.59368825
-0.6235258 0.016701715 -0.0031319433 0.006390138 0.005922658 -0.1362807 -0.30558005 -0.07439561
-0.03633736 -0.094649136 0.20281103 0.093451634 0.29820663 -0.5102938 -0.47174224 -0.0914346
-0.3170379 -0.27757743 -0.45080164 -0.14545184 0.18221489 -0.052912705 -0.19027565 -0.4826557
0.23368208 -0.18510856 -0.30776826 0.13396078 -0.5879134 -0.5899565 -0.32140368 -0.29897097
0.16221029 0.13330336 0.15735736 0.107202426 -0.20433408 0.27688706 0.41730106 0.08555754
-0.19652742 -0.13513434 -0.39129752 0.01905704 -0.14339404 -0.20906326 -0.09373629 0.2703851
-0.07450723 0.08929631 -0.06455846 -0.17633082 0.07655039 -0.098690845 0.053207364 0.10953046
0.19632146 -0.102853395 0.14306417 0.07986561 0.20866506 0.035061747 0.19120122 0.09144188
0.05545271 0.012167488 0.17536978 -0.00946318 0.08710692 0.20583656 0.074351296 0.26863253
0.2197467 0.024464542 0.0962963 0.02790913 -0.44522035 -0.09083168 -0.14544268 0.21810389
0.10180923 -0.33003613 0.195817 0.2878366 -0.26969102 0.23530005 0.111816116 0.09589112
0.13492204 -0.032494295 0.11272588 -0.3718335 -0.18567978 -0.29947674 -0.058300275 -0.14033188
-0.2415212 -0.3769872 -0.5255556 -0.32281005 -0.2317029 -0.29799184 -0.18001135 -0.06794131
-0.07080233 -0.11077985 -0.26719677 -0.048001926 0.07709307 -0.16915116 0.23526189 0.19367917
0.23686658 -0.012044123 -0.31183925 -0.16788356 0.18608592 -0.17084037 0.3071498 0.273576
0.18737923 -0.07630583 -0.15838692 -0.07484288 -0.09174373 -0.16255142 -0.16599843 -0.18178199
-0.38185793 -0.35018367 -0.07494092 -0.19361094 -0.05827735 0.11059174 0.20763488 0.18532549
0.1941413 0.2900983 0.3319143 -0.028804252 -0.054562636 -0.25346708 -0.20497724 -0.18799691
0.036912255 -0.30374613 0.17879638 -0.2213615 0.32931852 -0.14154038 -0.4011065 -0.11276789
-0.124328695 -0.09013329 -0.50957996 -0.2558583 -0.20570202 0.12731367 -0.16773528 -0.413893
0.1608726 -0.33170626 -0.25202316 -0.21264681 -0.22791338 -0.14151216 0.1801298 -0.31034094
0.091161005 0.14646685 -0.0088595785 -0.064287126 0.011152847 -0.036409315 -0.18740217 0.07744618
-0.38347757 -0.58033496 -0.3796793 -0.32939237 -0.500129 -0.46666846 -0.3203954 -0.0011935738
0.12933044 -0.25536832 0.13389036 -0.13417418 -0.3547641 0.31972435 0.008858995 0.32264027
0.08589693 -0.15758897 -0.19282804 -0.35892713 -0.32027656 -0.19328316 -0.090078235 -0.14268439
-0.37413657 -0.33552065 -0.09383545 -0.24737479 -0.03979787 -0.21692428 -0.65841407 -0.5546464
-0.100117855 -0.48115745 -0.3078045 -0.41136634 -0.06973194 -0.22046675 -0.12614098 -0.26868805
0.020956853 -0.09528738 -0.3487618 0.11809216 -0.17219861 -0.131821 -0.018447287 -0.09961751

net.layer2.0.bias f4 [64]
00000000: aa9d 953c f921 e0bc 66f1 efbc 641f 01bd
00000010: e1e2 283b cb83 f43b ab4b d23c 175c 82bc
00000020: cbbc dbbc c2af b4bc 9000 463d 9669 20bb
00000030: 320e 013d 28c8 35bc cf37 50bc 170b b1bc
00000040: 02e1 20bd 7560 d13c b0ff f0bb 77f8 5dbc
00000050: 9d56 2a3d bb2b 613b b756 a93b 0586 f03b
00000060: c0f7 1d3d f845 4c3b 7be3 9e3a 5a96 a0bc
00000070: 80cf 853b 2a9b 163c e602 30bc d8e9 f7bc
00000080: 6de7 a83a 1d6e 803a 6f1c 27bc f334 b83b
00000090: e986 f4bc 79b6 593c 7c89 183d f104 fb3a
000000a0: bd18 fa3c 5b9b ab3c 2df6 20bd 02bd da3c
000000b0: bbd0 33bc fe6f 7a3c b1b6 f53c ef25 933c
000000c0: 5dc3 433d 52fd a6bc 96ab c13c 7d05 a53c
000000d0: 28f3 e63c 89a2 c63c 2b61 0c3d 67ab d43c
000000e0: 4b6c 05bd 7886 01bd 85e2 e83c 2e35 733b
000000f0: 3dfa 1d3d 7c0d e63c 6551 cb3c 3d95 19bd
0.018263657 -0.02735995 -0.029289912 -0.031524077 0.0025769996 0.007462 0.025670847 -0.015913052
-0.026823422 -0.022056464 0.04834038 -0.0024476997 0.03150768 -0.011095084 -0.012708618 -0.021611733
-0.039277084 0.02555869 -0.007354699 -0.013548008 0.041586507 0.003435834 0.005167808 0.007340195
0.03856635 0.0031169634 0.0012122238 -0.019602943 0.004083574 0.009192267 -0.010742879 -0.030262873
0.0012886353 0.0009798441 -0.01019965 0.0056215464 -0.029849486 0.013288134 0.03724049 0.0019151253
0.030529374 0.020948103 -0.03929727 0.026701454 -0.010975058 0.01528549 0.02999434 0.017962424
0.047793735 -0.020384464 0.023641389 0.020144219 0.028192118 0.024247425 0.034272354 0.025960637
-0.03257398 -0.03162238 0.028428325 0.0037110555 0.038568724 0.028082602 0.024819085 -0.03749584

net.layer2.1.weight f4 [64]
00000000: d792 5a3f 6d9a 8d3f 85e2 323f bb5a 343f
00000010: 6427 693f 075e 553f 1940 6c3f bf9a 373f
00000020: 173d 4e3f 1e61 6a3f 4072 883f 41a2 583f
00000030: 06cc 4d3f 8d32 613f c52e 863f bac7 0f3f
00000040: 5b77 3e3f a9eb 6e3f 0ccf 0e3f 946f 793f
00000050: b0b1 343f 0629 993f e37a 6d3f daed 833f
00000060: 4a3f 933f c693 3c3f 21e9 5f3f 59ef 543f
00000070: cdc0 493f c4ec bb3f 4d10 373f 0a36 5c3f
00000080: 74c7 8b3f af4d 7f3f fe61 593f e6d1 5b3f
00000090: dca4 823f 160c 593f 3136 3f3f 92f4 193f
000000a0: 3d6c 923f af91 aa3f 1e6e 433f dde4 4f3f
000000b0: 8df7 993f 0a9d 933f adf5 7d3f 142e 2a3f
000000c0: f224 453f cc06 803f 069d 763f a1fd 603f
000000d0: e4f4 943f 4e9e 623f 6f39 543f a03d 773f
000000e0: f4fa 583f c773 2b3f 1501 593f b3d5 383f
000000f0: 536f 333f 204f 893f 7ab2 5b3f 8eea 513f
0.8538031 1.1062752 0.6987689 0.70450944 0.9107573 0.833466 0.92285305 0.717205
0.80561966 0.9155444 1.0659866 0.8462258 0.8038944 0.8796776 1.0483023 0.56164134
0.7440087 0.9332834 0.5578468 0.9743588 0.7058363 1.1965644 0.92765635 1.0306962
1.1503689 0.73662984 0.874651 0.83177716 0.78809816 1.468163 0.7150925 0.8601996
1.0920243 0.9972791 0.8491515 0.85867155 1.0206561 0.84784067 0.74692065 0.6013881
1.1439282 1.3325709 0.763399 0.8120859 1.2028672 1.15323 0.99202996 0.6647656
0.770095 1.0002074 0.9633335 0.87887007 1.1637235 0.88522804 0.82900137 0.9657841
0.84757924 0.6697354 0.84767276 0.7220108 0.7009174 1.0727272 0.8581921 0.8199853

net.layer2.1.bias f4 [64]
00000000: f378 98be 5497 0fbf db04 ab3e 2215 a3be
00000010: a8b6 ffbe 70a8 c5be 2e06 36bf 48dc d1be
00000020: 9a58 05bf 445f 26bf 8d03 0dbf f49a 17bf
00000030: 2ecb adbf cf2d 08be b830 22bf 527d ba3e
00000040: 0796 89bf 54f3 d6be 3b0f bbbd d2f9 0abf
00000050: 302f eebe 8da3 23bf 47d6 cabe bbac 8ebf
00000060: ff06 80bf 3d2e 98bf 8426 90bf fbe2 76bf
00000070: fe5f 94bf 6ffb 1dbf 879c 18bf bef4 26bf
00000080: 2551 19bf 6d1b 0abf 8e0f 8abf 066d 71bf
00000090: ec20 63bf eaaa 85bf 9d43 03bf 4086 6cbf
000000a0: ffcc 22bf 2f99 35bf 409d 96bf b7eb aabe
000000b0: 611b 0dbf 02ae 7dbf fceb 19bf 7417 37bf
000000c0: eda4 84be ee26 02bf c79f 5ebf 4f0a c4be
000000d0: ba78 50bf f464 8ebf 9d0d 70bf c978 91bf
000000e0: 32e9 8fbe 108b c3be 6e9b bfbe 05f7 18bf
000000f0: 4cc6 27bf 16ba 1bbf 53ca 15bf 33ad 55bf
-0.29779777 -0.56090283 0.33402142 -0.3185206 -0.49944043 -0.3860507 -0.7110318 -0.40988374
-0.5208832 -0.64989114 -0.55083543 -0.59220815 -1.357763 -0.13298725 -0.6335559 0.36423737
-1.074891 -0.4198252 -0.09133764 -0.54287446 -0.46520376 -0.63921434 -0.39616606 -1.1146463
-1.0002135 -1.1889111 -1.1261754 -0.96440095 -1.1591794 -0.6171178 -0.5961384 -0.65217197
-0.5988944 -0.539481 -1.0785997 -0.9430698 -0.8872211 -1.0442784 -0.51275045 -0.9239235
-0.6359405 -0.70936865 -1.1766739 -0.3338296 -0.551199 -0.9909364 -0.6012571 -0.7152016
-0.25907078 -0.5084065 -0.8696255 -0.38289115 -0.81434214 -1.1124558 -0.9377077 -1.1364986
-0.281076 -0.38192034 -0.3742327 -0.5975192 -0.6553695 -0.6083082 -0.5851185 -0.83467406

net.layer2.1.running_mean f4 [64]
00000000: 0000 0000 0000 0000 0000 0000 0000 0000
00000010: 0000 0000 0000 0000 0000 0000 0000 0000
00000020: 0000 0000 0000 0000 0000 0000 0000 0000
00000030: 0000 0000 0000 0000 0000 0000 0000 0000
00000040: 0000 0000 0000 0000 0000 0000 0000 0000
00000050: 0000 0000 0000 0000 0000 0000 0000 0000
00000060: 0000 0000 0000 0000 0000 0000 0000 0000
00000070: 0000 0000 0000 0000 0000 0000 0000 0000
00000080: 0000 0000 0000 0000 0000 0000 0000 0000
00000090: 0000 0000 0000 0000 0000 0000 0000 0000
000000a0: 0000 0000 0000 0000 0000 0000 0000 0000
000000b0: 0000 0000 0000 0000 0000 0000 0000 0000
000000c0: 0000 0000 0000 0000 0000 0000 0000 0000
000000d0: 0000 0000 0000 0000 0000 0000 0000 0000
000000e0: 0000 0000 0000 0000 0000 0000 0000 0000
000000f0: 0000 0000 0000 0000 0000 0000 0000 0000
0.0 0.0 0.0 0.0 0.0 0.0 0.0 0.0
0.0 0.0 0.0 0.0 0.0 0.0 0.0 0.0
0.0 0.0 0.0 0.0 0.0 0.0 0.0 0.0
0.0 0.0 0.0 0.0 0.0 0.0 0.0 0.0
0.0 0.0 0.0 0.0 0.0 0.0 0.0 0.0
0.0 0.0 0.0 0.0 0.0 0.0 0.0 0.0
0.0 0.0 0.0 0.0 0.0 0.0 0.0 0.0
0.0 0.0 0.0 0.0 0.0 0.0 0.0 0.0

net.layer2.1.running_var f4 [64]
00000000: 0000 803f 0000 803f 0000 803f 0000 803f
00000010: 0000 803f 0000 803f 0000 803f 0000 803f
00000020: 0000 803f 0000 803f 0000 803f 0000 803f
00000030: 0000 803f 0000 803f 0000 803f 0000 803f
00000040: 0000 803f 0000 803f 0000 803f 0000 803f
00000050: 0000 803f 0000 803f 0000 803f 0000 803f
00000060: 0000 803f 0000 803f 0000 803f 0000 803f
00000070: 0000 803f 0000 803f 0000 803f 0000 803f
00000080: 0000 803f 0000 803f 0000 803f 0000 803f
00000090: 0000 803f 0000 803f 0000 803f 0000 803f
000000a0: 0000 803f 0000 803f 0000 803f 0000 803f
000000b0: 0000 803f 0000 803f 0000 803f 0000 803f
000000c0: 0000 803f 0000 803f 0000 803f 0000 803f
000000d0: 0000 803f 0000 803f 0000 803f 0000 803f
000000e0: 0000 803f 0000 803f 0000 803f 0000 803f
000000f0: 0000 803f 0000 803f 0000 803f 0000 803f
1.0 1.0 1.0 1.0 1.0 1.0 1.0 1.0
1.0 1.0 1.0 1.0 1.0 1.0 1.0 1.0
1.0 1.0 1.0 1.0 1.0 1.0 1.0 1.0
1.0 1.0 1.0 1.0 1.0 1.0 1.0 1.0
1.0 1.0 1.0 1.0 1.0 1.0 1.0 1.0
1.0 1.0 1.0 1.0 1.0 1.0 1.0 1.0
1.0 1.0 1.0 1.0 1.0 1.0 1.0 1.0
1.0 1.0 1.0 1.0 1.0 1.0 1.0 1.0

net.layer3.0.weight f4 [64, 64, 3, 3]
00000000: c7e5 803e 1a00 a63d 2e71 c1bd 4249 503e
00000010: 4aa8 823d 6349 36bd b33c 213d b756 edbd
00000020: 9c30 60be 98fc dabd 28a4 b53e 0bbe d4bd
00000030: f223 bc3e c5fb f43e 6d27 9f3e 612c 7ebc
00000040: 0f99 b23d 64fd 1abe e831 44be 2a49 1f3d
00000050: 5caa 2abe 73dd 2ebe 70f5 103c 3b0d 81be
00000060: cfbf 8abe ff42 053e 1edc 27bc 4f2f 2b3e
00000070: 2aaa a2bd 71d7 0dbd 67f3 0bbe a7f1 023e
00000080: 4837 6ebc 713a 6c3d 27e7 eabd 1ad1 9bbd
00000090: 52c5 223c 4589 853e 7db2 07be 26d4 4dbc
000000a0: 1d53 a73d 02f4 f8bd c144 60bd 362c b33d
000000b0: f342 cfbb 4baf 6bbc cf46 873e 3931 b23d
000000c0: 5b4d 4f3d b5e7 bf3c ab47 78be 2cb9 31be
000000d0: 43d2 02be 9272 5cbe bf06 cdbc 7269 0a3e
000000e0: 5ec4 9c3c f863 4abd b26f 1a3e 35f5 24be
000000f0: 7473 c3bb 5f76 e2bb 6af8 2ebe f085 7b3d
00000100: fddf 923c ba1a 16be 1239 6bbd 4ba0 6b3e
00000110: 21c7 a2bd b6af 86be 3f79 16be d828 343c
00000120: 57ba 043e 6b97 153d 6040 163c d90e 17bd
00000130: 9c48 9a3c 8015 afbd 6b94 e1bd ba1b 08be
00000140: 8ea2 9abe 5755 cd3c 93d4 1e3e 3979 ce3d
00000150: 8a2f e3bd 4121 233d aed2 eabb dda5 fdbd
00000160: 7423 17be 630a 50be 6d91 883c 890a 14bc
00000170: c6f6 2b3e 892c 0d3c 500b c03d 2718 aebd
00000180: eecf e6bd e389 28be 4b0f 91be 4b44 65bd
00000190: bda6 563e 8ed3 e0bc 8021 17bd 4d7f 0c3e
000001a0: 2137 35be 9e3c cd3c ec6b 113d 8b71 86bd
000001b0: 3dd0 cfbd 7ede 56be e784 3cbe 5162 e8bd
000001c0: 755b c3bd b350 50be 80a8 5cbe 7efe 88be
000001d0: ffd4 77be f982 d23c 4aae fdbb 5a70 12be
000001e0: 3b50 9fbc 5be9 81bd 90f4 27be 6acb 50be
000001f0: 11d1 51be 2c30 86be 7e4a c1bd 97bf e53d
00000200: 78ce 61bd af87 dfbd 77d9 463d d2aa bebd
00000210: 8485 61be 6c52 283e 1724 03be 6cb7 2c3c
00000220: c84a adbd 882d 83be 4a0a d23a 4dd0 1b3e
00000230: 5e79 963d 7dce 4fbc b8ac d33d 6a31 ca3d
00000240: 52c3 efbd b451 4e3a cff5 e43c 37c2 07be
00000250: fa89 8abd 9413 e3bd 2836 1abe 6a7d 913c
00000260: 958d 81bd f89b efbd 8e65 813e 0896 26be
00000270: bc65 f2bd 058e 733e 1b95 93bd cdda b1bd
00000280: d9ba c93d 8cbd 4abe ea05 923c bb0f 8ebd
00000290: eb8d 20be 2161 56bb 414b 74be 6be5 2dbd
000002a0: 23f7 09bd 8e17 94bd 7981 25bd d761 4d3d
000002b0: 224b 80bd 08a5 f9bd d2e1 39be 56f7 81be
000002c0: 4dbd f0bd 15fc 47be 4d2e 2bbe e5e7 00be
000002d0: 41f1 90bd 1443 7cbd e537 fabe 492d 903d
000002e0: 1043 35be 074a 8bbe 31d0 fe3d fd26 64be
000002f0: c598 d9be be5d 933c 0ed6 843e bcdf dcbd
00000300: a6a2 2d3e bc1b ac3e e268 c53b 7ae1 013d
00000310: cf3a 1e3e fc0d 1ebe 0975 0fbd 4d79 003e
00000320: ac32 1f3c 09cb 8cbd 4fe8 61be 9b04 cdbd
00000330: 500b 47be c718 6dbd c0af 99be 3b63 b0bb
00000340: 001c 803d 87f1 8bbd 3454 a5bc 1eaa 2bbe
00000350: 5ad5 83be 4ad4 3ebe f1a5 e2bd c21b 98be
00000360: 8795 103e 4d5b 18be e931 d2bd 9613 b53d
00000370: 8266 88bd c756 44be 469a 61bd b893 10bd
00000380: 20f9 d13c 61db 4c3d cf94 febd e303 a7bd
00000390: c5ba 033d 4313 acbe d41a 53be 7dec dfbb
000003a0: 8ce9 acbe cc94 a9be 1dca a43d b5ea c6be
000003b0: d7e7 97be 72b9 053e 59ba 59be 070b 75be
000003c0: f7a8 c6bd 2e1b 94bd 7827 0dbe 5576 a4bd
000003d0: f1d2 37bd f064 42be 34c8 133d ce45 0dbe
000003e0: ba20 17be b068 28be 0a06 243e 49d6 033e
000003f0: 6ef5 6bbe 072b 9fbe c29f 98be cef9 5dbc
0.25175306 0.08105488 -0.094454154 0.20340446 0.06379755 -0.04450358 0.039364528 -0.11588805
-0.21893543 -0.1069271 0.35476804 -0.1038781 0.36746174 0.47848335 0.31084767 -0.01551351
0.087206 -0.15135723 -0.19159663 0.038888134 -0.1666655 -0.17076664 0.008847579 -0.25205407
-0.27099463 0.13013838 -0.010245351 0.16717266 -0.079426125 -0.03462929 -0.1366707 0.12787496
-0.014539547 0.05767292 -0.1146987 -0.07608242 0.00993474 0.2608129 -0.13251682 -0.012562787
0.081701495 -0.12155916 -0.05475307 0.08748667 -0.0063251196 -0.014385055 0.2642121 0.08700795
0.05061088 0.023425916 -0.24246089 -0.17355794 -0.12775521 -0.2152808 -0.02502763 0.13516787
0.019136604 -0.049411744 0.15081671 -0.16109164 -0.005964691 -0.0069110836 -0.1708695 0.06140703
0.017929072 -0.14658633 -0.057427473 0.23010366 -0.07948137 -0.26305932 -0.14694689 0.010996066
0.12961708 0.036521357 0.009170622 -0.036879394 0.018833451 -0.08549023 -0.110146366 -0.13291827
-0.30202144 0.025065107 0.15510778 0.10081715 -0.11093052 0.039826635 -0.0071662283 -0.123851515
-0.14759618 -0.20316462 0.016670907 -0.009035715 0.16793355 0.008616575 0.09377158 -0.085007004
-0.11270128 -0.1645885 -0.2833198 -0.055973332 0.20962043 -0.027444627 -0.036897182 0.13720436
-0.17696811 0.025053319 0.035503313 -0.06564625 -0.1014714 -0.20983312 -0.18410073 -0.11346877
-0.095389284 -0.20343284 -0.21548653 -0.26756662 -0.24202345 0.025697218 -0.007741724 -0.14300671
-0.019447437 -0.06343337 -0.16401887 -0.20390096 -0.20489909 -0.26208627 -0.094380364 0.112181835
-0.055128545 -0.109145515 0.048547234 -0.09309925 -0.22023588 0.16437691 -0.12806736 0.010541778
-0.08461529 -0.25620675 0.0016024795 0.15216179 0.07347368 -0.012683508 0.10335678 0.09872706
-0.11707176 0.0007870451 0.027949242 -0.13257681 -0.06764598 -0.110877186 -0.15059721 0.017759997
-0.06325833 -0.116996706 0.25272793 -0.1626817 -0.118358105 0.23784645 -0.07206174 -0.08684311
0.098500915 -0.19798869 0.017825086 -0.06936594 -0.15679137 -0.0032711702 -0.23856832 -0.04245512
-0.033682954 -0.07231055 -0.040406678 0.050142135 -0.062643304 -0.1218968 -0.1815255 -0.25384015
-0.11754856 -0.19529755 -0.16716881 -0.1258846 -0.070772655 -0.06158741 -0.4887077 0.070398875
-0.17701364 -0.27204916 0.12442053 -0.22280498 -0.42499366 0.017989036 0.2594456 -0.107848614
0.16956577 0.3361491 0.006024466 0.03170917 0.15452121 -0.15435022 -0.035023723 0.12546273
0.009716671 -0.068746634 -0.22061275 -0.10010644 -0.19437909 -0.057884958 -0.300169 -0.005382923
0.062553406 -0.06833177 -0.020181753 -0.16764113 -0.25748712 -0.1863567 -0.11066807 -0.29708678
0.1411954 -0.14878578 -0.10263426 0.08841626 -0.06660177 -0.19173728 -0.055078767 -0.035297126
0.025631487 0.050013904 -0.12430727 -0.08155038 0.03216054 -0.33608446 -0.20615703 -0.0068336115
-0.33771932 -0.33121336 0.080463625 -0.38850942 -0.29669067 0.13059023 -0.21262492 -0.23929988
-0.09700196 -0.072317466 -0.13784587 -0.080303825 -0.044878904 -0.18983817 0.0360796 -0.1379616
-0.14758578 -0.16446185 0.16017929 0.12874712 -0.23042843 -0.31087515 -0.29809386 -0.013548328

net.layer3.0.bias f4 [64]
00000000: 7b46 b4bc bda9 263d 129e e33c c8c6 4a3d
00000010: d3ee 283d 8597 8b3c 32d9 07bc 539e 313d
00000020: 593d e9bc ada8 d939 ce15 3b3d da4a 0a3d
00000030: c6cd d33a 173b 063b 3bed b4bc 7efa 9f3c
00000040: daa5 bc3c 41b0 ff3c d41d 733c 0d2f 25bd
00000050: 2569 5bbb 7603 d63c 15a3 403c c337 97bc
00000060: 93f5 0d3d d7dd 37bc 5d71 183d e46d 743c
00000070: 8851 403d 8bb8 693c 1e66 ffbc 8899 a1bc
00000080: fea0 01bd d915 853b 14c7 083d e0a9 433d
00000090: ddb2 b639 57fc 7ebc 505e 25bd c955 a33c
000000a0: ec8c 703c 8869 29bb 6308 90bb dc83 4f3c
000000b0: fdf2 7abb 257d 173c 13d6 a1bc 5a0e 953c
000000c0: 7410 bb3c f914 d5bc 4e1d 25bd 6769 6b3d
000000d0: 9754 caba bffa a3bc a87c 6fbc 7cae 693c
000000e0: f5d3 233d 897d 453d bbf9 263e 1b9f 91bc
000000f0: 29d7 1e3d 526f cbbc 4bd9 b83c 2c13 5b3c
-0.022006264 0.04068922 0.027785335 0.04950598 0.041243386 0.017040024 -0.0082915295 0.04336388
-0.028471636 0.0004151514 0.04567509 0.03376279 0.0016159348 0.0020481998 -0.022085777 0.019528624
0.023028303 0.031211974 0.014838655 -0.040328074 -0.003347942 0.026124697 0.011757632 -0.018459206
0.034658026 -0.011222324 0.037217487 0.014918778 0.046952754 0.01426519 -0.031176623 -0.01972653
-0.031647675 0.0040614423 0.03339298 0.047769427 0.0003484701 -0.015563092 -0.040373147 0.019938366
0.014682036 -0.0025850255 -0.004395531 0.012665715 -0.0038291805 0.009246145 -0.019755399 0.01819532
0.022834994 -0.026010977 -0.04031115 0.057473566 -0.0015436587 -0.020017026 -0.014617123 0.014262792
0.03999706 0.048215423 0.16306202 -0.017776063 0.03877941 -0.024833355 0.02256455 0.01337127

net.layer3.1.weight f4 [64]
00000000: 1bd1 ee3e dfd8 b13e 359d ad3f 2a6b 813f
00000010: 4d95 c83e cf36 893f 8de8 fb3e 0ae9 953f
00000020: a1a0 143f 4383 8b3f f627 b23f 81e5 923f
00000030: 6d36 ff3e 8290 b63e 8428 f73e f9d6 ce3e
00000040: f442 5d3f 4145 e83e dcfc a13f 2ca1 cd3e
00000050: f4d5 a43e 6e35 f43e e198 a53f 129b e13e
00000060: b1cf 9e3f 7aef e53e ed00 d73e 2fe6 b63e
00000070: f7b7 743f 3dc6 b33e 88a7 213f 07ec 923f
00000080: 787d 953f 4f64 8f3f a4ba a13f 58ab 993f
00000090: 073b 643f b729 d33e c1de f13e 3379 843f
000000a0: 3148 fe3e c4fc da3e 440d d03e 0574 903f
000000b0: 1923 ed3e 8e6e d03e 2760 d23e 9a77 c73e
000000c0: 70cb 8f3f 1698 883f 9308 dc3e e746 113f
000000d0: d307 823f bbf4 9f3f caa3 e63e 8741 e13e
000000e0: a799 873f 3175 ac3f 3b8b 1a3f 13df ce3e
000000f0: cc78 883f ca8d 7f3f 8b80 e23e e9a3 d63e
0.4664391 0.34735772 1.3563601 1.0110829 0.39176407 1.0719851 0.4920086 1.1711743
0.580576 1.0899433 1.3918445 1.1476289 0.4984621 0.35657126 0.48273098 0.40398386
0.8643029 0.45365337 1.2655292 0.40162027 0.32194483 0.47697014 1.293728 0.44063622
1.2407132 0.4490927 0.41992894 0.3572249 0.9559321 0.3511218 0.6314626 1.147828
1.1678915 1.1202487 1.2635083 1.2005415 0.8915257 0.41242763 0.4724026 1.0349487
0.49664453 0.4277097 0.4063512 1.1285406 0.4631584 0.40709347 0.41088983 0.38958436
1.1233959 1.0671413 0.42975292 0.56748813 1.0158638 1.2496561 0.45046836 0.43995306
1.0593766 1.3473264 0.603687 0.40404567 1.0661864 0.9982573 0.44238696 0.4192193

net.layer3.1.bias f4 [64]
00000000: bf1d 1ebf 0193 f9be e9f9 c6be 471c 35be
00000010: f957 05bf 5930 5e3e 6aef e4be 4257 d43d
00000020: 3991 10bf ebf4 8fbe 29f1 be3d 3a21 acbb
00000030: bacd e2be 278d ddbe 6ca1 d8be 89c6 edbe
00000040: f955 1dbd 2769 f7be b7b7 2cbf 36da f5be
00000050: cd88 0cbf 3275 f2be 029c d4be e506 ebbe
00000060: 0170 4ebe 9d22 ddbe e286 dcbe abf7 ffbe
00000070: be16 753d fade 0abf 6dd3 12bf bd03 34be
00000080: 2a13 27bf 632f 0bbe b586 333d 927e 2b3e
00000090: b21f 8bbe c398 e4be bbc7 e8be 9ec9 31be
000000a0: 9506 ecbe fd44 eebe 3e8f 00bf c3ec e23c
000000b0: d7f3 dbbe 5832 16bf f642 ebbe fb6e edbe
000000c0: 322f 4ebe f665 84be 83bd 05bf a274 cfbe
000000d0: bf79 76bc ee6e 46be 0131 01bf 82d0 ecbe
000000e0: e7d5 3d3e f01a 053e f83a e1be 0374 fcbe
000000f0: 6873 153d 92fb 56bf 414f dbbe fd26 fcbe
-0.6176414 -0.48744968 -0.3886254 -0.17686568 -0.5208736 0.2169813 -0.44713908 0.103682056
-0.5647159 -0.28116545 0.093233414 -0.0052529844 -0.44297582 -0.43271753 -0.42310655 -0.46440533
-0.038412068 -0.48322412 -0.67467827 -0.48018044 -0.5489624 -0.47355038 -0.41525275 -0.45903698
-0.20159914 -0.4319047 -0.43071657 -0.49993643 0.05983614 -0.54246485 -0.5735386 -0.17579551
-0.6526362 -0.13592295 0.04382964 0.16747501 -0.2717262 -0.44647798 -0.45464882 -0.17362067
-0.46098772 -0.4653701 -0.5021857 0.027700787 -0.42959473 -0.5867057 -0.45949525 -0.46373734
-0.20135191 -0.2585904 -0.52242297 -0.4051867 -0.015043675 -0.19378254 -0.504654 -0.4625283
0.18538629 0.12998557 -0.43990302 -0.4930726 0.036487013 -0.83977616 -0.42833903 -0.49248496

net.layer3.1.running_mean f4 [64]
00000000: 0000 0000 0000 0000 0000 0000 0000 0000
00000010: 0000 0000 0000 0000 0000 0000 0000 0000
00000020: 0000 0000 0000 0000 0000 0000 0000 0000
00000030: 0000 0000 0000 0000 0000 0000 0000 0000
00000040: 0000 0000 0000 0000 0000 0000 0000 0000
00000050: 0000 0000 0000 0000 0000 0000 0000 0000
00000060: 0000 0000 0000 0000 0000 0000 0000 0000
00000070: 0000 0000 0000 0000 0000 0000 0000 0000
00000080: 0000 0000 0000 0000 0000 0000 0000 0000
00000090: 0000 0000 0000 0000 0000 0000 0000 0000
000000a0: 0000 0000 0000 0000 0000 0000 0000 0000
000000b0: 0000 0000 0000 0000 0000 0000 0000 0000
000000c0: 0000 0000 0000 0000 0000 0000 0000 0000
000000d0: 0000 0000 0000 0000 0000 0000 0000 0000
000000e0: 0000 0000 0000 0000 0000 0000 0000 0000
000000f0: 0000 0000 0000 0000 0000 0000 0000 0000
0.0 0.0 0.0 0.0 0.0 0.0 0.0 0.0
0.0 0.0 0.0 0.0 0.0 0.0 0.0 0.0
0.0 0.0 0.0 0.0 0.0 0.0 0.0 0.0
0.0 0.0 0.0 0.0 0.0 0.0 0.0 0.0
0.0 0.0 0.0 0.0 0.0 0.0 0.0 0.0
0.0 0.0 0.0 0.0 0.0 0.0 0.0 0.0
0.0 0.0 0.0 0.0 0.0 0.0 0.0 0.0
0.0 0.0 0.0 0.0 0.0 0.0 0.0 0.0

net.layer3.1.running_var f4 [64]
00000000: 0000 803f 0000 803f 0000 803f 0000 803f
00000010: 0000 803f 0000 803f 0000 803f 0000 803f
00000020: 0000 803f 0000 803f 0000 803f 0000 803f
00000030: 0000 803f 0000 803f 0000 803f 0000 803f
00000040: 0000 803f 0000 803f 0000 803f 0000 803f
00000050: 0000 803f 0000 803f 0000 803f 0000 803f
00000060: 0000 803f 0000 803f 0000 803f 0000 803f
00000070: 0000 803f 0000 803f 0000 803f 0000 803f
00000080: 0000 803f 0000 803f 0000 803f 0000 803f
00000090: 0000 803f 0000 803f 0000 803f 0000 803f
000000a0: 0000 803f 0000 803f 0000 803f 0000 803f
000000b0: 0000 803f 0000 803f 0000 803f 0000 803f
000000c0: 0000 803f 0000 803f 0000 803f 0000 803f
000000d0: 0000 803f 0000 803f 0000 803f 0000 803f
000000e0: 0000 803f 0000 803f 0000 803f 0000 803f
000000f0: 0000 803f 0000 803f 0000 803f 0000 803f
1.0 1.0 1.0 1.0 1.0 1.0 1.0 1.0
1.0 1.0 1.0 1.0 1.0 1.0 1.0 1.0
1.0 1.0 1.0 1.0 1.0 1.0 1.0 1.0
1.0 1.0 1.0 1.0 1.0 1.0 1.0 1.0
1.0 1.0 1.0 1.0 1.0 1.0 1.0 1.0
1.0 1.0 1.0 1.0 1.0 1.0 1.0 1.0
1.0 1.0 1.0 1.0 1.0 1.0 1.0 1.0
1.0 1.0 1.0 1.0 1.0 1.0 1.0 1.0

net.layer4.0.weight f4 [64, 64, 3, 3]
00000000: a902 393e 8bb5 753e db0a 603d b297 1dbd
00000010: 908f b83e f43d 9bba 7f55 f3bd 2058 f93b
00000020: 0c7c 2a3d 09e3 803d 1e1b 803d 5b0b 863d
00000030: 0c76 17bd 231a 123d e7bc e2bc 77a9 71bd
00000040: b288 ca3c 4ccc 9fbd 4a1c bf3b a416 7d3b
00000050: d473 813a 271c 8dbc a68b 9a3b 5033 1bbc
00000060: 1aa6 50bc 713d b0ba 66c5 123b 6e0a dcbb
00000070: 2f8d 46bc e120 40bc 8fa8 89ba 74da b8bc
00000080: d7b1 b0bc ab29 b33b f64f ca3b 400b 553b
00000090: 0cf6 a2bb ad91 bcba 5d86 64bd b192 dabd
000000a0: 4a8a 30bd 7b2f 71bd a9e4 eabd 72b8 fcbc
000000b0: dce2 3d3b 39c9 d7bc 2703 263c 007b c8bc
000000c0: d2f4 fd39 4e4d bbba a4f0 5cbc 6508 703b
000000d0: 3390 7e3c 0ee7 973b 6fc3 683c 6b4b e83c
000000e0: 1172 66bc bfd7 5f3c 76a8 743c 91b0 cb3c
000000f0: 7efe 633d b690 803d c097 2fbd 8ed1 00bd
00000100: e77b ebbc bc85 52bc 94bb 193c b24e 19bc
00000110: afce a23c 2c1e eebc fabd 133a 9323 6fba
00000120: 3f1b 003e c050 afbd baed aabd f698 ff3c
00000130: eebb aabd c306 1b3d 3702 eb3d d843 ca3b
00000140: ef74 d2bd 889c 003c 7d77 753c 67d9 0e3d
00000150: 4001 31bc 50bc 803a ef37 b33b 8cb1 db3a
00000160: fe49 9aba 7fe5 40bc 0842 b9ba 2a73 88bc
00000170: 4122 8abb a7de 16bc 3e41 97ba 59b3 503b
00000180: 8142 f93b ba3e b7bb 5878 b9ba eba2 df3c
00000190: 9275 d0bc 0a76 e9ba 6f3a 44bc cd19 0b3b
000001a0: 8d5d 5cbc 5989 2ebc 19f0 d4bb c02d 6bbc
000001b0: a6ce 97bd 2907 efbb c077 f13c f554 093d
000001c0: 4566 edbb 1030 8e3c 60f5 bdbd 36fe f93c
000001d0: d00f 953c b673 af3c 5c51 bfbc afb1 a1bd
000001e0: e85e 4cbc 265b 343a 6447 a53c c026 a73d
000001f0: 3591 283d 0696 cbba 645d 783d dc37 093c
00000200: 8c1b d13c 1cbe d1bc 4507 183d 8e41 593c
00000210: 95e9 26bd 646e 003d 6802 76bd 630a 0fbd
00000220: bb03 87bd b14f 7ebd 0c09 d9bb ca60 66bd
00000230: f056 483d 934a 4d3c f6a0 34bc fba0 1cbd
00000240: 0e07 bebc f974 33bc 14bd e4bc 70ee 303c
00000250: 685e 5d3b bbfb 313c bde2 6a3c 265e 0f3c
00000260: 4535 0c3a 2a52 e43b 1158 9e3c 23ed 8cbc
00000270: 9ab0 593e 810b c5bd d05c 04be cb44 37bd
00000280: 34c7 a1bc 7cef afbd 29b0 d4bc 2412 b13c
00000290: 0b26 e6b7 a633 42bc da77 a83c 1084 57bc
000002a0: 8f05 9a3b ea14 b23c ca29 09bc f361 49ba
000002b0: 22e1 583d e602 5bbd 4b45 fbbc f00d cc3c
000002c0: 6ee6 973d 9ed3 933b 9737 bebb 11fc 0a3d
000002d0: 50fb babc 5a0f 0dbd 56fa babd 94c3 333e
000002e0: 5067 0fbe fca3 c9bd 6fcb 8f3d 8065 b5bd
000002f0: a218 abbd 20b6 523d c9b1 953c 8de1 99bc
00000300: c018 7a3d 43bd 1cbd 4242 7cbd e72f 403d
00000310: ec67 7d3c 60d3 a9bc 6efc 58bc 0ecf 0c3b
00000320: 2ac3 f7ba 9aef 953b 1deb 3d3c c2f9 933c
00000330: 0c64 51bb 44f7 5cba 5c2b 2cbc e683 bdbc
00000340: 6eea 553d 7333 a93d 1379 123d f9f7 a0bc
00000350: 7f2e af3d 158a 793d 64f5 4e3d 6a27 d73d
00000360: 96d8 13bd d1d4 23bc d939 e3bc c593 cd3c
00000370: 97d0 c7bb 127d 56bc fdb1 28bc 8c98 25bc
00000380: fd45 5dba 9cb1 1b3d ae05 7bbd 189b 983d
00000390: 7f4d 1dbc b612 0ebd 37fc 9dbc dc5e 95bc
000003a0: c383 e4bc ceb5 54bc 41b0 fb3d fe0d 443d
000003b0: fa5d 523d b4bc 07bd ce65 103d ec97 b2bc
000003c0: 5216 a53d 193a 47bd 6a74 9cbd 0b6b 4f3d
000003d0: f51e d3bc a302 3d3d f70f 35bd 3e18 d7bd
000003e0: 902d ccba a57b d13c 1062 90bd 6433 34bd
000003f0: ee35 573c 05dc 10bc 30f4 46bb a12f 263c
0.18067421 0.23995034 0.054697853 -0.038474746 0.3604703 -0.0011844025 -0.118815415 0.0076093823
0.041622207 0.062933035 0.06255172 0.06545135 -0.036977813 0.035669457 -0.027677966 -0.058999505
0.024723385 -0.078026384 0.0058322297 0.0038618231 0.0009876438 -0.017225338 0.0047163544 -0.009472683
-0.012734914 -0.0013446045 0.002239549 -0.0067151105 -0.012118622 -0.011726589 -0.0010502505 -0.022565104
-0.021569176 0.0054676137 0.006174083 0.0032507926 -0.0049731787 -0.0014386676 -0.0557922 -0.106725104
-0.043100633 -0.05888317 -0.11469395 -0.03084967 0.002897433 -0.026341068 0.0101325875 -0.024472713
0.00048438326 -0.0014290006 -0.013485108 0.0036626097 0.015537309 0.004635698 0.014206751 0.028356275
-0.0140652815 0.013662278 0.014932742 0.024864467 0.055662625 0.062776014 -0.04286933 -0.031449847
-0.028745605 -0.012849268 0.009383101 -0.009357141 0.019873945 -0.029067121 0.00056359137 -0.00091224274
0.12510394 -0.08560324 -0.08346124 0.031200867 -0.08336626 0.037848245 0.11475032 0.0061726384
-0.102762096 0.00784982 0.0149821015 0.0348753 -0.010803521 0.0009821746 0.0054693143 0.0016761287
-0.0011771319 -0.011773466 -0.0014134059 -0.016656477 -0.004215509 -0.009208358 -0.001153983 0.003184518
0.007606805 -0.0055921944 -0.0014150245 0.027299365 -0.025446687 -0.0017811668 -0.011976822 0.0021225095
-0.013450039 -0.010652863 -0.0064983484 -0.014354169 -0.07412462 -0.0072945547 0.029476047 0.033528287
-0.0072448575 0.017356902 -0.09275317 0.030516725 0.018196017 0.02141748 -0.023354225 -0.078952186
-0.012473799 0.0006880037 0.020175643 0.08161688 0.041154105 -0.0015532381 0.06063594 0.008375134
0.02552583 -0.025603347 0.037116308 0.013260258 -0.040750105 0.031355277 -0.06006089 -0.034922015
-0.065925084 -0.06208772 -0.006623393 -0.05624465 0.048911035 0.012529987 -0.011024704 -0.03823946
-0.023196723 -0.010953181 -0.02792219 0.010799035 0.0033778194 0.01086324 0.014336285 0.008750474
0.0005348514 0.0069678025 0.019329103 -0.01720292 0.21258774 -0.09621335 -0.1292603 -0.04474334
-0.019748308 -0.085906 -0.025962906 0.021615095 -2.7435852e-05 -0.011853134 0.020564962 -0.013154045
0.0047003697 0.021738488 -0.00837178 -0.0007682137 0.05294908 -0.05346956 -0.03067269 0.02490899
0.07416998 0.0045113107 -0.0058049667 0.033931796 -0.022824913 -0.03443847 -0.09129779 0.17555076
-0.14004254 -0.09845731 0.07021224 -0.0885725 -0.08354308 0.05144322 0.018273251 -0.018784309
0.06105876 -0.03826643 -0.061586626 0.046920683 0.015466671 -0.020730674 -0.013243778 0.002148572
-0.0018902768 0.004575682 0.0115917 0.01806343 -0.0031950502 -0.00084291794 -0.010508385 -0.023134183
0.052225523 0.08261766 0.035759997 -0.019649493 0.0855379 0.0609227 0.05052699 0.105055645
-0.036095224 -0.00999947 -0.027737545 0.025094876 -0.006097864 -0.0130913425 -0.010296342 -0.010107171
-0.000844091 0.03801118 -0.061284713 0.07451457 -0.009600996 -0.034685813 -0.019285304 -0.018233709
-0.02789486 -0.012982799 0.12289477 0.047864906 0.051359154 -0.033138946 0.03525334 -0.021800958
0.08060898 -0.04863939 -0.07639392 0.050639194 -0.025771597 0.046145093 -0.04420468 -0.10502671
-0.0015577544 0.025571654 -0.07049954 -0.043994322 0.013135416 -0.008841519 -0.003035795 0.010143192

net.layer4.0.bias f4 [64]
00000000: 4249 09bd 9e7b e5bc ef5b 71bd 12ea c2bc
00000010: 6492 f1bd fe8b 403c 7321 d4bc 3c72 f0bc
00000020: 561e 4d3c 53bf 873a 2156 183d fe72 25bc
00000030: 738f 19bd 61a5 1fbd 8c71 0abd c003 e1bc
00000040: 798a c03b 02e0 b7bc 4f59 d63c da7a 1fbd
00000050: 8bdc 8abb a547 c03c df18 e8ba cb4d 9abd
00000060: 6b80 813c c1f7 b93c 0dd4 16bd 06eb c2bc
00000070: b3b9 f93c 0ae1 d13c 81b1 9f3b 9762 d33b
00000080: 893f d53c d063 a1bd 290e 523c a8ef 833d
00000090: b78a 963c e5ba e83c 8def 953c 91ef ab3c
000000a0: aa7f 48bc 98d5 6abc 4e7d 95bc 095a efbc
000000b0: 365e 803b a389 95bc e4aa 1fbc ff2c a53c
000000c0: 03aa 203d 7fd0 f3bc 4869 eb3a f7bc 97bc
000000d0: 459c b73b 9da3 bd3c dcc4 66bc aaa1 203c
000000e0: d3e5 3e3d 6dde 253c 596e 9e3d d685 e1bc
000000f0: b81e f7bc 343c 403c a507 83bc 1fff c9bc
-0.03351713 -0.028013047 -0.058925565 -0.023793254 -0.117955 0.011752127 -0.025894856 -0.029351346
0.01251944 0.0010356702 0.037191514 -0.010098217 -0.03749032 -0.038976077 -0.033799693 -0.027467608
0.005875882 -0.022445682 0.026165633 -0.03893552 -0.0042377166 0.023471663 -0.0017707607 -0.07534369
0.015808305 0.022701146 -0.03682332 -0.023793709 0.030484056 0.025620002 0.004873455 0.006450962
0.026031272 -0.07880366 0.012820759 0.06442195 0.018376691 0.02840943 0.018302703 0.020988258
-0.012237469 -0.014333151 -0.018248226 -0.029217737 0.003917481 -0.018254107 -0.009745333 0.020163057
0.039224636 -0.029762505 0.0017960453 -0.018522723 0.0056033456 0.023149306 -0.014085021 0.009804169
0.046605896 0.010123831 0.07735891 -0.027529638 -0.030166015 0.011733104 -0.015994856 -0.024657784

net.layer4.1.weight f4 [64]
00000000: b72a e93f 4f2f 363f e6e6 b53f fc17 ff3e
00000010: bb9c 2140 76d6 3d3f 6e7a 3d3f 698c 3a3f
00000020: 0b2f 353f 9dd6 303f 65a3 8840 d44c 3f3f
00000030: 3661 e03f d35e 663f a029 3f3f 9b50 2f3f
00000040: a792 263f f1f1 fd3f 7923 663f b8c0 d83f
00000050: cdf0 293f dc27 1f3f 5de2 273f 6ad7 d53f
00000060: 5069 013f b20f 653f 3d67 2d40 00a8 733f
00000070: 1942 e33e ead6 403f 1ebe 463f 8869 d83f
00000080: 527e 353f e67f 0c40 d1d3 2740 5810 0540
00000090: fa9d 343f a417 403f e6d2 253f 5408 2e3f
000000a0: b1af 573f 0077 3c3f 799f 1840 1371 d13f
000000b0: 5edc 493f cd71 303f d95b 343f 978f 3f3f
000000c0: 56e5 903f 1f67 be3f 16f0 733f 5ef0 263f
000000d0: ef6f 3e3f 433b 443f 7879 8a3f 8610 313f
000000e0: d627 a23f a929 323f 7c87 1a40 2692 c23f
000000f0: 3f3b 3a3f 0023 103f 0dad 443f c4ef 063f
1.821616 0.7116594 1.421109 0.49822986 2.525191 0.74155366 0.7401494 0.728705
0.70774907 0.69077474 4.2699456 0.74726605 1.7529666 0.8998844 0.7467289 0.6848237
0.65067524 1.983946 0.89897877 1.6933813 0.6638306 0.62170196 0.6557978 1.6706364
0.5055132 0.89477074 2.7094262 0.9517822 0.44386366 0.7532793 0.77633846 1.6907206
0.70895875 2.1953063 2.6223032 2.0791225 0.70553553 0.7503607 0.6477493 0.6798146
0.8425246 0.7361908 2.3847334 1.6362633 0.7885188 0.68923646 0.7045265 0.74828476
1.1319988 1.487522 0.9528822 0.6521052 0.7438955 0.76652926 1.0818319 0.6916584
1.2668407 0.6959482 2.4145193 1.5200851 0.7274665 0.56303406 0.76826555 0.52709603

net.layer4.1.bias f4 [64]
00000000: b6d9 24be 539e e1bd 0262 03bf 3af9 f3be
00000010: 910e 233c 8e74 f4be ea1c f0be 586a b1be
00000020: 2dbc 11bf 43b0 19be 0e69 fbbe e3c7 a6be
00000030: 398e 9ebe 485b 9cbd ae07 b2be a41f fdbe
00000040: 1d26 90be 4f67 8dbd 2b01 0ebf 75d6 87bd
00000050: e15d ebbe 9c00 e4be 200c eabe faed 2bbd
00000060: 6ea0 a5be 6c93 91be 8e9e 823d 3e85 e6be
00000070: adbb b2be 959c f4be 0bfe d23c 15ff b4be
00000080: 81c5 cebe 34af 953d a46c e33c 75b0 c9be
00000090: 29de d6be c9ba 82be 8b72 dbbe 22c6 ddbe
000000a0: 50ac 043d 8198 a7be 8159 313e 9e73 84be
000000b0: 7418 28be 2bf6 e9be 7a34 00bf 6daf a4be
000000c0: 61bf cbbe 9b05 77be 2ea8 0abf eb14 92be
000000d0: c2bf 7bbd ddd4 00bf f6be d3be 3799 a9be
000000e0: f159 b3be aa17 d0be 08fb a9be 4b8f e5be
000000f0: 1fcb f4be 360c ffbe a0ce f7be 14b6 debe
-0.16098675 -0.11016526 -0.51321423 -0.47651082 0.009952203 -0.47745174 -0.4689706 -0.34651446
-0.5692776 -0.15008645 -0.49103588 -0.32574376 -0.30967882 -0.07634598 -0.34771484 -0.49438202
-0.28154078 -0.0690447 -0.5547053 -0.06632701 -0.4597006 -0.44531715 -0.45712376 -0.041975
-0.3234896 -0.28432786 0.06377898 -0.4502353 -0.3490881 -0.47775713 0.025755903 -0.35350862
-0.4038506 0.07308808 0.027761765 -0.3939244 -0.4196637 -0.2553313 -0.42860827 -0.43315226
0.032390893 -0.3273354 0.173193 -0.2586946 -0.16415578 -0.45695624 -0.5008007 -0.3216509
-0.39794448 -0.24123232 -0.5416287 -0.28531584 -0.06146217 -0.50324804 -0.4135663 -0.33124706
-0.35029557 -0.40643054 -0.33199334 -0.44835886 -0.4781122 -0.49814004 -0.4839983 -0.4349829
