old_mp/maml_omniglot_step500_k_5_n_way20.pt (torch, 466160 bytes, 26 tensors)

net.layer1.0.weight f4 [64, 1, 3, 3]
00000000: 2d6d 3cbe b314 76bd 42b0 833e cf3b 6abe
00000010: 4fcd 96bd ad5c b13e ee84 cd3e a500 8b3e
00000020: 667d 903d c84c 06bc 7146 b0bc 600a ebbd
00000030: b865 1e3f f41c 09be e937 0dbd b464 f03e
00000040: 49a3 1d3e bf61 62be a0cc 4dbd 2f52 e0bd
00000050: 7ffb c23c 2b3c 2dbe 17df 093e 7726 183d
00000060: 7204 513e 688a 9e3e b41c dbbd 74eb d5bd
00000070: 8675 febd 1f6c b3bd 5dc7 913d 5b6a bb3d
00000080: 10cb 87be 48b5 393d c884 9fbe ca55 193f
00000090: 4cc1 67bd 36ba 773e b0f3 123f 7ca6 8a3e
000000a0: cc31 8c3e 2da8 443e add0 18bd 369e a53d
000000b0: e016 1b3f 647b edbc fd7a 88b6 efd4 55be
000000c0: a219 b438 5e72 06bd b689 bb3e 9d39 803c
000000d0: 9947 a53b c2e6 24be 8785 0e3e c93b dcbd
000000e0: 06c4 13bc 9f23 cd3e 0b4a f6be ddd1 eebc
000000f0: bae5 c63d 21e1 b13e 07e3 723e e1bd ee3e
00000100: 5698 903e e2ed 06be fedd 8b3e 600d 31bd
00000110: 2791 41be ba59 bebd a1e4 82be 07ff bb3e
00000120: ac3b d53e 4f62 7e3d e3a2 2abe 662f df3d
00000130: 7bda 16be 4522 a9be 7de7 bdbe cfaa 91be
00000140: 1a02 233e 3212 f13d 2fe3 fc3e 3f44 a33e
00000150: 22d8 f83e 7d4b ddbe 0fcf 4abd 0698 8b3e
00000160: f211 70be 101c 94bc cd23 84bd 3466 643d
00000170: f4a4 5d3d 74fd 363e 128a abbe 9858 cfbd
00000180: 9f78 903e d108 633e 4604 ae3e 6e8c 5a3e
00000190: 608d ae3d b381 88be 32c9 043e b3fa 633e
000001a0: 0dba a03e 648c 0cbd 290a 78bd 78e2 2c3c
000001b0: 37cf 21be d172 003e 8fa7 aebd 60f7 b13e
000001c0: 636f 903e c1d1 d1be 58a2 7dbe 0143 6a3e
000001d0: 5d34 cd3e f4a0 4f3e 8500 123d 9acc e03d
000001e0: 5651 b3be 7528 713e a6ad 52be f31e 403c
000001f0: 48ee 223e 84a5 e83d e80d 5dbe 63e0 64bc
00000200: 8517 85be 6468 46bd 49c4 203f 75df e3bd
00000210: 62df 88be 2120 cbbd 2525 42be e903 ee3e
00000220: ec06 6c3f bcf0 15be 3fd4 923d d97e e03d
00000230: 3b73 5bbd e8d6 f3bd d2c1 11bd 4687 48bd
00000240: 6b17 f73e 8273 77be 5ce6 433d 2416 f33e
00000250: df1f 96be 9ea6 463e 9800 a23d fe5b 0ebe
00000260: 73fd b3bd 7908 ce3d a481 b2be 5bab a33e
00000270: ffb2 a53e 21a3 81be 7c44 093e f2d0 17be
00000280: a037 3cbe 2bc5 a13e a053 603e 157c 9b3e
00000290: 96d0 d13e d3fd 293e ef79 6fbe ae97 d23d
000002a0: 195b 57be 3457 903b 48d3 d1bd 0e43 bb3e
000002b0: 923d 3cbe 61fe f83d 6ae8 a4be 1043 9fbd
000002c0: 01d9 94be 188e cbbd 016e 76be 1cfb 82be
000002d0: 6ab1 23be 7eaa e33d 5262 0d3f 6188 de3d
000002e0: 628b 37be c96e 6e3e 7438 e13d 3443 bcbe
000002f0: ba01 e63e e381 ea3e 087b 42bd 67dc 09bd
00000300: cf85 373e 8143 a53d 942a debc 08aa c2be
00000310: e64d eb3e 896f b7bd 2713 6c3e 654a 1bbe
00000320: c6d4 89be 5abc b13e 78dc 7cbe 2552 5dbe
00000330: 2672 573e 27bf eebc 93cb d4be bcca 403d
00000340: ab41 cdbc 37a9 8b3d c3dd 5f3d a364 863e
00000350: b052 853e bf6b b23e dc2e e3bd 3c15 71be
00000360: a3a4 edbd c5d3 8e3d ac8c b0bd 1a4d 05bd
00000370: 4124 61be 9f28 90be 8378 433e c101 883e
00000380: d249 873e ea7e 923e 2747 64be e3ca 433c
00000390: 74c4 213d 3b8a 0d3f b7a4 25be 1177 a7be
000003a0: c4d2 9cbd 632b a43e aadf 8e3d e875 aebd
000003b0: 0cd2 8b3d d127 ccbc 6e2a 1f3e 3583 993d
000003c0: 327a 1d3d 1e6a 293d 65df c2bb 56ad 1cbe
000003d0: 80a8 63be 97a0 e63e ec8a 543e db75 0dbe
000003e0: be80 13be 16a6 fe3d 32e3 a03e d9eb 2cbe
000003f0: 3be6 c1ba eeec c93e 4914 063e 4c49 803e
-0.18401022 -0.060078334 0.25720412 -0.22874378 -0.07363378 0.34641019 0.4014048 0.2714893
0.07055168 -0.008197017 -0.021517964 -0.11476588 0.6187396 -0.13389951 -0.03447715 0.4695183
0.1539432 -0.221076 -0.050243974 -0.10953175 0.023801563 -0.16917484 0.13464008 0.037146058
0.20411852 0.3096497 -0.10698834 -0.104453 -0.124247596 -0.08760857 0.07118104 0.09151145
-0.26522112 0.0453389 -0.31155992 0.5989653 -0.056580827 0.24192128 0.5740309 0.27080142
0.27381742 0.19204779 -0.037308384 0.08086817 0.6058178 -0.028989501 -4.0674336e-06 -0.20882009
8.587843e-05 -0.032823913 0.36628503 0.015652472 0.0050439355 -0.16103652 0.13918124 -0.107535906
-0.009018904 0.4006624 -0.48103365 -0.029152805 0.097117856 0.34742072 0.23719417 0.4662924
0.28241223 -0.13176683 0.27317804 -0.043225646 -0.18903027 -0.09294458 -0.25565055 0.36718008
0.4164709 0.062105473 -0.16663699 0.108977124 -0.14731781 -0.33033958 -0.37090674 -0.2845063
0.1591877 0.117710486 0.49392077 0.31888005 0.48602396 -0.43221655 -0.049513873 0.27264422
-0.23444346 -0.018079787 -0.06452141 0.05576153 0.05411239 0.17870122 -0.33503777 -0.1012432
0.28217027 0.22171332 0.33987635 0.21342632 0.08523059 -0.26661453 0.12967375 0.22263603
0.31391945 -0.034313574 -0.060556564 0.010552041 -0.15801702 0.12543799 -0.08528053 0.34759045
0.2820998 -0.40980342 -0.2476896 0.22877122 0.40079013 0.20276242 0.035645027 0.10976525
-0.35022992 0.2355059 -0.20574054 0.011726129 0.1591121 0.113596946 -0.21587336 -0.013969514
-0.25994506 -0.0484394 0.6279951 -0.111266054 -0.26732928 -0.099182375 -0.18959482 0.46487358
0.9219806 -0.14642614 0.07169389 0.10961694 -0.05357669 -0.119062245 -0.035585232 -0.04895713
0.48260054 -0.24165156 0.04782711 0.4747783 -0.2932119 0.19399497 0.079102695 -0.1390228
-0.08788576 0.1006021 -0.34864533 0.3196667 0.32363126 -0.2531977 0.13405031 -0.148258
-0.18380594 0.3159574 0.219069 0.30368105 0.4097945 0.16600733 -0.23386358 0.10282837
-0.21030845 0.0044049267 -0.10245377 0.36574596 -0.18382862 0.12157894 -0.32208568 -0.07776463
-0.2907181 -0.099392116 -0.240654 -0.25582206 -0.15985647 0.11116503 0.5522815 0.10865856
-0.17924264 0.23284449 0.10997096 -0.36770022 0.44923192 0.4580222 -0.047480613 -0.033657458
0.17922138 0.08069516 -0.027119912 -0.3802035 0.4595787 -0.089568205 0.23054181 -0.15165098
-0.26920146 0.34714013 -0.24693477 -0.21613367 0.21039638 -0.029143883 -0.41561565 0.047068343
-0.025055727 0.068193845 0.054654848 0.26248655 0.26039648 0.3484783 -0.11092922 -0.23543257
-0.116036676 0.069739856 -0.08620581 -0.032544233 -0.21986486 -0.2815599 0.1908894 0.26563838
0.26423508 0.28612453 -0.22292767 0.011950227 0.039493993 0.5528905 -0.16176115 -0.32708028
-0.07657388 0.3206435 0.06976254 -0.085185826 0.06827173 -0.02492133 0.1554353 0.07495729
0.038446613 0.041360967 -0.005947041 -0.15300497 -0.22232246 0.45044395 0.2075612 -0.1381449
-0.1440458 0.12434022 0.31423336 -0.16886844 -0.0014793345 0.39438576 0.13093676 0.2505592

net.layer1.0.bias f4 [64]
00000000: ecab 11be c1a0 40be bd9c bfbd c662 853e
00000010: e2a4 76bd 28ce 873e 439c 75be 7328 d53e
00000020: 7aaa cc3d 2264 873d 5bc4 8dbe 6e67 c4bd
00000030: 670e 1c3e 0704 933d 81d5 e8bc 47f8 233e
00000040: bcfa a9be d685 bcbe 4ba7 cf3c 0698 933e
00000050: c862 183d 689c 8b3e fc00 5b3e 8a96 87be
00000060: 452d 20be 925a 44bc 0ed6 ce3e bf2c 87be
00000070: 3c0e 9abe aa06 57bc f977 d5bd e4d8 92be
00000080: acc2 46be 9536 fdbd 2950 873e 8f32 46bd
00000090: de4d 6fbe 937d adbe ad42 193e 605a cd3d
000000a0: 66d2 d43e 7549 863e 62cc b5bd 3b76 cd3d
000000b0: b06a b9bc 866a b7bd 64c7 9a3c a423 8b3e
000000c0: 6b59 d5bd a467 56bc 575f 3cbc 8de6 5439
000000d0: 29d3 e9bc 9672 523e 71a0 923d f69a 12be
000000e0: b049 933e 86ad ef3d f5f3 a23e b146 cd3e
000000f0: 730e b83d bc55 09be f710 f43c 7b0c dd3e
-0.14225739 -0.18811323 -0.09356067 0.2605192 -0.06021584 0.26524472 -0.2398539 0.41632423
0.09993453 0.06610896 -0.2768887 -0.0959004 0.15239869 0.071785025 -0.02842212 0.16012679
-0.33199108 -0.3682086 0.025348326 0.28826922 0.03720358 0.27267766 0.21387094 -0.2648204
-0.15642269 -0.011984484 0.40397686 -0.26401326 -0.30088985 -0.013124147 -0.104232736 -0.286811
-0.19410199 -0.12363926 0.26428345 -0.04838806 -0.23369548 -0.33884868 0.14966841 0.10027003
0.4156677 0.26227918 -0.088768736 0.10032316 -0.02263388 -0.089558646 0.018893905 0.2717563
-0.10417446 -0.013086233 -0.01149734 0.00020303782 -0.028543072 0.20551524 0.07159508 -0.14316925
0.28767157 0.11703019 0.3182675 0.40092996 0.08987131 -0.13411611 0.029793246 0.43173584

net.layer1.1.weight f4 [64]
00000000: 3a0e b13f 8242 653f 1274 5e3f baea 093f
00000010: 9a5e a73f dbe8 403f 99ef 993f cb99 673f
00000020: b5fe 093f b43c c53f 7aeb 8b3f 38fb ad3f
00000030: 2818 a53f d0f0 b33f d3fa 323f 06cd 4d3f
00000040: 060c f33e 1042 543f 5892 8b3f 5c9f eb3e
00000050: 5b8c 543f 1fae 673f 3caa 003f 2e4f a33f
00000060: 0a65 1c3f f7af 8f3f ea7a c83f 4f6c 383f
00000070: e881 403f fe54 973f 270c 123f cb47 623f
00000080: e032 8c3f 5327 ef3e 43f4 823f 20c3 9d3f
00000090: 9ac0 283f 37c7 503f 49aa 693f 0285 2b3f
000000a0: 7ed9 5c3f d9f7 c53f feb7 1a3f 0ac4 f43e
000000b0: 34ef 0f3f 287e 113f 6e6b f33f 7dd0 a33f
000000c0: 6bad ad3f 3c35 ce3f fce5 9c3f 858d 013f
000000d0: 3cdd b63f c1f8 5c3f 4bf8 0b3f 2ea5 133f
000000e0: 9f01 d73f d68c 483f 7367 f83e dd99 123f
000000f0: baf8 c13e 1100 5a3f fcd7 023f 29bd 1c3f
1.3832467 0.8955461 0.8689586 0.5387379 1.3075745 0.7535531 1.2026244 0.90469044
0.5390428 1.540915 1.0931237 1.3592291 1.2897997 1.4057865 0.6991398 0.80390966
0.4747011 0.82913303 1.0904036 0.4602002 0.83026665 0.9050006 0.5025976 1.2758539
0.61091673 1.1225575 1.566251 0.72040266 0.7519822 1.1822813 0.57049793 0.883908
1.0953026 0.4670969 1.0230793 1.2325172 0.65918887 0.8155398 0.9127546 0.6699983
0.86269367 1.5466262 0.60437 0.47805816 0.5622437 0.56833124 1.901716 1.2798
1.3568548 1.6109996 1.2257686 0.50606567 1.4286265 0.8631707 0.5467574 0.5767392
1.679737 0.783399 0.48516425 0.57266027 0.37885076 0.8515635 0.51110816 0.61226135

net.layer1.1.bias f4 [64]
00000000: 9a19 1ebf 6e5e 8fbe 5c0a 3bbe f525 6fbf
00000010: 53ff 64be ee0b 65bf 54aa 2dbf 0962 91be
00000020: 9cad 55bf 8ddb bebe 7745 e7be 0a12 abbe
00000030: 9265 9abe 00e1 20bf 784e 7bbf e708 5fbe
00000040: 83b6 d23d 7d8e b4be 9777 92be b8df 8fbf
00000050: c945 1cbe 6581 acbe ac10 59bf 2851 d6be
00000060: 227b 743e 9f4e adbe 9553 debe 1802 28be
00000070: f4eb 9bbe 9b87 e2be edff da3c c33e bfbe
00000080: 6f84 a4bd 05e0 17bf 07c2 cabe 0045 aabe
00000090: 84cc 9cbf 8556 d5bd 2f36 80be edd8 55be
000000a0: 2145 b8bd cd96 2abf ccc6 95be 5687 6bbf
000000b0: 7750 a1bf 1844 88bf 78e4 34bf 9c71 bcbe
000000c0: 1f8d 0bbf bd07 47bf 54d0 04bf ce13 92bf
000000d0: 29ba 9bbe bcd2 7abe 5020 993c 9e1f aabf
000000e0: f3c5 2dbf 23e4 e83d fb00 60bf c8d2 0dbe
000000f0: c3a3 ffbe b362 0fbe 91b6 8fbf 691e 95bc
-0.61757815 -0.28001732 -0.1826567 -0.9341729 -0.22363023 -0.8947133 -0.67838025 -0.28395107
-0.8346803 -0.3727688 -0.45170185 -0.334122 -0.30155617 -0.6284332 -0.9816661 -0.2178074
0.102887176 -0.3526496 -0.28606865 -1.1240149 -0.15260996 -0.3369247 -0.84791064 -0.41858792
0.23875096 -0.33849046 -0.43423143 -0.16407049 -0.30453455 -0.44244084 0.026733363 -0.3735257
-0.08033072 -0.593262 -0.39601156 -0.33255768 -1.2249913 -0.10416893 -0.2504134 -0.20883532
-0.0899756 -0.66636354 -0.29253232 -0.9200338 -1.2602681 -1.064578 -0.70661116 -0.36805427
-0.5451221 -0.7774618 -0.51880383 -1.1412294 -0.30415466 -0.24494451 0.018692166 -1.3290899
-0.6788017 0.113716386 -0.87501496 -0.13849938 -0.49929628 -0.14002495 -1.122759 -0.018202977

net.layer1.1.running_mean f4 [64]
00000000: 0000 0000 0000 0000 0000 0000 0000 0000
00000010: 0000 0000 0000 0000 0000 0000 0000 0000
00000020: 0000 0000 0000 0000 0000 0000 0000 0000
00000030: 0000 0000 0000 0000 0000 0000 0000 0000
00000040: 0000 0000 0000 0000 0000 0000 0000 0000
00000050: 0000 0000 0000 0000 0000 0000 0000 0000
00000060: 0000 0000 0000 0000 0000 0000 0000 0000
00000070: 0000 0000 0000 0000 0000 0000 0000 0000
00000080: 0000 0000 0000 0000 0000 0000 0000 0000
00000090: 0000 0000 0000 0000 0000 0000 0000 0000
000000a0: 0000 0000 0000 0000 0000 0000 0000 0000
000000b0: 0000 0000 0000 0000 0000 0000 0000 0000
000000c0: 0000 0000 0000 0000 0000 0000 0000 0000
000000d0: 0000 0000 0000 0000 0000 0000 0000 0000
000000e0: 0000 0000 0000 0000 0000 0000 0000 0000
000000f0: 0000 0000 0000 0000 0000 0000 0000 0000
0.0 0.0 0.0 0.0 0.0 0.0 0.0 0.0
0.0 0.0 0.0 0.0 0.0 0.0 0.0 0.0
0.0 0.0 0.0 0.0 0.0 0.0 0.0 0.0
0.0 0.0 0.0 0.0 0.0 0.0 0.0 0.0
0.0 0.0 0.0 0.0 0.0 0.0 0.0 0.0
0.0 0.0 0.0 0.0 0.0 0.0 0.0 0.0
0.0 0.0 0.0 0.0 0.0 0.0 0.0 0.0
0.0 0.0 0.0 0.0 0.0 0.0 0.0 0.0

net.layer1.1.running_var f4 [64]
00000000: 0000 803f 0000 803f 0000 803f 0000 803f
00000010: 0000 803f 0000 803f 0000 803f 0000 803f
00000020: 0000 803f 0000 803f 0000 803f 0000 803f
00000030: 0000 803f 0000 803f 0000 803f 0000 803f
00000040: 0000 803f 0000 803f 0000 803f 0000 803f
00000050: 0000 803f 0000 803f 0000 803f 0000 803f
00000060: 0000 803f 0000 803f 0000 803f 0000 803f
00000070: 0000 803f 0000 803f 0000 803f 0000 803f
00000080: 0000 803f 0000 803f 0000 803f 0000 803f
00000090: 0000 803f 0000 803f 0000 803f 0000 803f
000000a0: 0000 803f 0000 803f 0000 803f 0000 803f
000000b0: 0000 803f 0000 803f 0000 803f 0000 803f
000000c0: 0000 803f 0000 803f 0000 803f 0000 803f
000000d0: 0000 803f 0000 803f 0000 803f 0000 803f
000000e0: 0000 803f 0000 803f 0000 803f 0000 803f
000000f0: 0000 803f 0000 803f 0000 803f 0000 803f
1.0 1.0 1.0 1.0 1.0 1.0 1.0 1.0
1.0 1.0 1.0 1.0 1.0 1.0 1.0 1.0
1.0 1.0 1.0 1.0 1.0 1.0 1.0 1.0
1.0 1.0 1.0 1.0 1.0 1.0 1.0 1.0
1.0 1.0 1.0 1.0 1.0 1.0 1.0 1.0
1.0 1.0 1.0 1.0 1.0 1.0 1.0 1.0
1.0 1.0 1.0 1.0 1.0 1.0 1.0 1.0
1.0 1.0 1.0 1.0 1.0 1.0 1.0 1.0

net.layer2.0.weight f4 [64, 64, 3, 3]
00000000: 7f33 193e 7fc4 513e bf0c 573e 88a8 50be
00000010: b25b 393e 174b c03e 1640 883e 3310 083c
00000020: 2bc2 293d 6ef8 42be b9b6 b6bd 80fd 953d
00000030: 8571 183e f510 cd3e fec2 f9bd 6373 6cbe
00000040: b91a 6a3d 8e6d dbbd 6bb2 453e a5a7 b33e
00000050: d07c 6d3e 3449 78be f3d9 c93d dcd1 a33e
00000060: 984e 14bd 2907 9ebc a26a ad3e 6969 30bd
00000070: 9b36 86be f4f0 60be 4b7a 99be 3a06 65be
00000080: e136 18be d780 68be fce2 dfbd 20fe 9fbd
00000090: 749e e03b 360b 42be 84ce babd b64a 853d
000000a0: 45ae 9dbe f077 03be 45ec 3ebe 3166 52be
000000b0: 4cca 1ebe adb5 45be 39fa 523c 9e40 78bd
000000c0: 4b1c 96bc 8435 abbe 7478 dc3d 3f4d 67be
000000d0: fc3b 4bbd c84b e93d caae 30be 304c 56be
000000e0: 8158 d4bd e41d eabd 3286 723e bdff 77be
000000f0: e96c 6ebe 9418 7a3e 954e 0abe 830a 863e
00000100: 4133 0bbd 2cd8 903e 0ecf 073e 02f5 013e
00000110: 0e58 de3e c0d4 003e 3379 3c3e fd1d 3abc
00000120: 5982 dabd 20ba 91be 624f 9cbe b42c 38be
00000130: 3866 c8be 625f 82be b882 993d 0575 a0be
00000140: 071b d3be e710 1e3f 58b7 033f 12ac 833d
00000150: e91f 57be 9db7 7e3e bab3 2ebe ed6f fcbd
00000160: 1917 343e 89e7 e33e fe3a cc3d e652 de3d
00000170: e03a 383e cc87 41be b2de 0c3e 33ff fab9
00000180: 38f8 6abe d282 7f3e b3bc 113d 44a5 5cbc
00000190: 2a73 afbc 196c 8e3d 1234 a43d fb06 d03e
000001a0: c449 d53c f5c7 a43d d624 05be e81c 48be
000001b0: 4476 b3bd c6fa fb3d 353d 973e d282 3e3e
000001c0: c370 573d 154d 29be 04bc 143e 3ae3 dcbc
000001d0: a036 423e 4fdf 8cbd 07a3 b5be 58ca 5f3e
000001e0: 716c dd3d 0dae bbbb 8bcd 483a eef0 293d
000001f0: fe5e 283e bd87 e23d 8c60 37be b492 5fbe
00000200: 86b0 c13d 8505 83be 5010 b3be 34c2 ecbe
00000210: 117b 5dbc e65c 31bd 9991 64bd 0340 bebd
00000220: ac23 b33d 5681 8ebc 634e 86be 7015 203e
00000230: 06f5 18be 7ec8 b73c b736 ccbc 110f afbe
00000240: 3c54 813e b082 833e 4587 4d3e 757f 0d3d
00000250: f48b 223b b926 e73d d018 b2bc 725a 103e
00000260: a3f3 8bbd 63e8 883e 1d22 f13d 8edc 373d
00000270: 8758 9f3c 9cd0 113f 44fe 353e 848d 473d
00000280: f9ed adbd f1ef 083e 20b7 2a3d 774c 923e
00000290: a551 6a3c 3fc3 66bd 6913 673e 843d 043d
000002a0: 5a9c 843e 7eec 0e3e 6de4 b7bd 224d 05bf
000002b0: 902a 8bbe b72c 0abf c1c5 0cbf a806 13bf
000002c0: c6ea 3dbf db9b 10bf 79f1 35bf 9760 1bbf
000002d0: 5e98 eabc 6488 9fbc 7338 d83d ba5d 64bc
000002e0: 9319 b63e b992 f43d 1f4a fd3d cc2b 4dbe
000002f0: 6e23 dd3e cd9b 5f3d f370 fbbc 62dd d73c
00000300: 087a 1fbe 7368 c03e 01c5 eab9 0baa 9ebc
00000310: fbe4 87bd ad43 7d3e 1f93 a6be b0ac a6be
00000320: 790b 0ebe f89f 2ebf 706e 6fbe 6a4a 0ebf
00000330: bf80 26bf 993a edbe 6e21 25bf 0afb 283d
00000340: 9c85 a03e 609f ba3d ad24 4f3d 8bd1 2d3d
00000350: 2f4c bfbd 6510 773d d159 773c b26a 96bd
00000360: 879a 963d 8aa4 af3e 9427 b93e b8b6 1a3e
00000370: 613a 5e3e c7a6 183d 3178 71be c962 9d3d
00000380: 3284 1d3e 9217 193e 83af 503e 091e dc3e
00000390: 32af fc3d 3610 c73d d8ad d0bd 21bf a33a
000003a0: b630 8d3d 7c02 b7be 2eb5 f1bc 0ac7 ac3d
000003b0: c651 993c 1561 70be 6dc6 06be 42d8 50bd
000003c0: af64 193e caf0 12be f839 823d 0aae 913d
000003d0: 0927 583e 6868 473d b3c7 d03d 88e6 e13c
000003e0: 3281 7b3d 49a7 7e3e 0e8c 523e fdca 8dbc
000003f0: 4684 5c3e 6cd5 933e c339 273e 5f81 4bbd
0.1496105 0.20485114 0.21000956 -0.2037679 0.18101385 0.3755729 0.26611394 0.008304643
0.04144494 -0.19040081 -0.0892157 0.07323742 0.14887054 0.40052 -0.12195395 -0.23090892
0.05715439 -0.10714255 0.19306342 0.3508884 0.23192143 -0.24246675 0.09856024 0.31996047
-0.036207765 -0.019290524 0.33870417 -0.043069277 -0.26213536 -0.21966916 -0.29976115 -0.22365656
-0.14864685 -0.22705398 -0.10931966 -0.07812142 0.0068548266 -0.18949589 -0.09121421 0.065083906
-0.3079702 -0.12838721 -0.18644817 -0.20546795 -0.15506858 -0.19307585 0.012877041 -0.0606085
-0.018324038 -0.33439267 0.10765162 -0.22588061 -0.049617752 0.11391407 -0.17254177 -0.209275
-0.10368443 -0.114314824 0.23684004 -0.2421865 -0.23283733 0.24423438 -0.13506539 0.26179895
-0.033984426 0.28289926 0.13262579 0.1269112 0.43426555 0.12581158 0.18405609 -0.011359689
-0.10669393 -0.28462315 -0.30529314 -0.17985803 -0.39140487 -0.25463396 0.07495636 -0.3133928
-0.41231558 0.6174454 0.51451635 0.06429304 -0.21008267 0.2487473 -0.17060748 -0.12326036
0.17586936 0.44512585 0.09972189 0.10855655 0.17991209 -0.18899459 0.13756827 -0.00047873854
-0.2294625 0.24952248 0.03558035 -0.013467137 -0.02141722 0.06954212 0.08017744 0.40630326
0.02603615 0.08045951 -0.13002333 -0.19542277 -0.08762792 0.123036906 0.29538885 0.18604591
0.052597772 -0.1653331 0.14524847 -0.026963819 0.1896615 -0.0687853 -0.35475942 0.21854532
0.10811699 -0.0057275356 0.0007660023 0.041489534 0.16442487 0.11061046 -0.17907923 -0.21833307
0.09457497 -0.2559015 -0.34973383 -0.46241915 -0.013518111 -0.043301485 -0.055802915 -0.09289553
0.08747038 -0.017395657 -0.2623168 0.15633178 -0.14937219 0.02243447 -0.024928434 -0.34191182
0.25259578 0.25685644 0.20071132 0.03454538 0.0024802657 0.11286683 -0.021740347 0.14097002
-0.068335794 0.26739797 0.11774085 0.04488807 0.019451393 0.5695894 0.17772776 0.048718944
-0.08492655 0.1337278 0.041678548 0.28573963 0.014301692 -0.056338545 0.22565998 0.03228523
0.25900537 0.13957402 -0.08979116 -0.5207082 -0.2718091 -0.5397448 -0.5498925 -0.5743203
-0.7418636 -0.56487817 -0.71071583 -0.6069426 -0.028637107 -0.019474216 0.10557642 -0.013938362
0.35566387 0.119420476 0.12367653 -0.20036238 0.43191093 0.054591943 -0.030693507 0.02635068
-0.15573895 0.37579688 -0.00044778737 -0.019368192 -0.066354714 0.24732848 -0.3253412 -0.32553625
-0.13871564 -0.6821284 -0.23381972 -0.55582297 -0.650402 -0.4633377 -0.64504135 0.041255035
0.31351936 0.091124296 0.050572086 0.042436164 -0.09340703 0.06031837 0.0150970975 -0.07344569
0.073536925 0.3430522 0.36163008 0.15108764 0.21701957 0.037268426 -0.23581006 0.076848574
0.1538246 0.14950398 0.20379452 0.42991665 0.12338103 0.09719889 -0.10189408 0.0012492874
0.068940565 -0.35744083 -0.029505339 0.08436401 0.01871575 -0.23474534 -0.13161631 -0.05098749
0.14979814 -0.14349666 0.06358713 0.071132734 0.2110864 0.048683554 0.101943396 0.027575746
0.061402507 0.24868502 0.20561239 -0.017308706 0.21534833 0.28873765 0.16330628 -0.049683925

net.layer2.0.bias f4 [64]
00000000: b490 db3b 74d0 17bd 9350 febc f3f9 f2bc
00000010: 87be 123b 722e 8c3b d329 083d abf5 80bc
00000020: bbbe e6bb c2e9 d4bc 2d0c 023d 6de6 a539
00000030: 6368 fb3c c128 03bc 4b1a bebc 4335 abbc
00000040: 1d67 f8bd 421e eb3c 42f7 5dbc e5d2 01bd
00000050: 25c2 343d ab18 1ebb 9e30 0e3c 9f17 c53b
00000060: b0ce 273d 8411 ceba da2a faba c4bf adbc
00000070: 5be0 3fbb 5e41 ae3d 84b6 70bc e42e d4bc
00000080: ab8f f93b 8f15 9ebb 3f06 9738 091f f33c
00000090: 6fc7 1abd 4721 6b3b 4f0d df3c f34b 963c
000000a0: a18b 083d 95c8 313c 25a6 11bd 22c2 db3c
000000b0: ded5 ffbc 1e90 933c acf9 b83c bdb5 ff3c
000000c0: 1bd7 2e3d d7ef 08bd 1514 c63b c5a9 8a3c
000000d0: 8ffd e33c a9e4 9a3c 14d8 df3c c73e cb3c
000000e0: 14b1 14bd 4326 f2bc 6da7 c53c cea8 8a3b
000000f0: a3e6 c93c f3ac da3c af87 623c 8716 0dbd
0.0067005996 -0.03706403 -0.03104428 -0.0296602 0.0022391395 0.0042779977 0.03324301 -0.015742144
-0.00704178 -0.02599037 0.031749893 0.00031642933 0.030689424 -0.008005322 -0.023205897 -0.02089942
-0.12129042 0.028700951 -0.01354772 -0.031695265 0.044130463 -0.002412359 0.008678583 0.0060147787
0.040968597 -0.0015721773 -0.0019086257 -0.021209605 -0.0029278013 0.085085616 -0.014691953 -0.025901265
0.0076160035 -0.0048243473 7.2014045e-05 0.029677885 -0.03778785 0.003587799 0.027228026 0.018346762
0.033336286 0.010851045 -0.03555884 0.026825968 -0.03122991 0.018013056 0.02257999 0.03121459
0.04268561 -0.033431854 0.0060448744 0.016926656 0.027830867 0.018907862 0.027324714 0.024810208
-0.036301687 -0.02955926 0.024127686 0.004231549 0.024646109 0.026693797 0.013826295 -0.034445312

net.layer2.1.weight f4 [64]
00000000: 7fec 733f 4581 1f3f 5b64 413f d2aa 633f
00000010: 6c98 793f a5b5 803f 5cf6 5f3f 0604 443f
00000020: 2005 8a3f e9fb 853f b7ac 543f 3217 273f
00000030: e5ce 463f 0bac 2e3f 5626 933f 6762 633f
00000040: cf23 db3f 75b5 1b3f a2fd 3c3f a245 543f
00000050: b2dd 263f 9c59 393f 2790 7d3f aba2 8b3f
00000060: 27d1 303f db46 443f 8b47 1a3f 7698 833f
00000070: 8855 743f 8279 a23f 2c9f 2d3f 5229 2b3f
00000080: 5c6f 823f e8a9 483f f5d4 363f 3154 c33f
00000090: 3785 243f 83aa 8f3f bc1f 833f e824 363f
000000a0: 17bf 8f3f 9917 aa3f ae30 b13f 680f f53e
000000b0: b6a4 833f 6070 923f 4c9e 293f 13bb 583f
000000c0: 7acf 6a3f ff04 963f 8274 7c3f 2b65 7e3f
000000d0: 5b99 373f a8ba 2d3f b7f3 673f fe21 2b3f
000000e0: cfbc 5a3f 87b9 8a3f 0e36 483f 3656 443f
000000f0: d2e3 473f 4f35 363f cf7f 9d3f a176 283f
0.9528274 0.62306625 0.75543755 0.88932526 0.974982 1.0055434 0.8748529 0.7656864
1.0782814 1.0467502 0.8307604 0.6526977 0.77659446 0.68231267 1.1496074 0.88822025
1.7120303 0.60823756 0.7382451 0.8291875 0.6518203 0.7240236 0.99048084 1.0909017
0.6906914 0.76670617 0.60265416 1.0280902 0.9544301 1.2693331 0.67821 0.66859925
1.0190234 0.78384256 0.71418697 1.5260068 0.6426577 1.1223911 1.024406 0.71150064
1.1230191 1.3288451 1.3842981 0.47863317 1.0284641 1.1440544 0.66257167 0.8466045
0.91722834 1.1720275 0.98615277 0.9937312 0.71718377 0.6786294 0.90606254 0.6684874
0.8544435 1.0837868 0.7820748 0.7669405 0.78082 0.7117509 1.2304629 0.65806013

net.layer2.1.bias f4 [64]
00000000: 9490 e3be 819e 15bf 4964 2dbf 5272 89bf
00000010: 74cf 34bf bc3c 15bf 2002 bbbe 807a 35bf
00000020: 0898 24bf b193 0abf 47eb 5ebf eccd c6bd
00000030: 6e3a 64bf 50f1 6abf ed2a 40bf 3460 20bf
00000040: 2f4d 50bf 09cc cdbe c501 22bf e505 8ebe
00000050: e2cb 13bf 4cc3 48bf 0c3b 25bf ef7e b6be
00000060: 1ff9 82bf c30d 76bf c8b7 e5be 1aca e1be
00000070: 914f c3be 332b 45bf 834b a2be f209 9cbf
00000080: c703 0dbf 63cc a7be dc22 55bf 820e 60bf
00000090: 9b23 f6be 349a 2cbf 2c1f 1dbf db66 1fbf
000000a0: c27b d7be 4b4a babe 83bb 40bf eb05 a8be
000000b0: 0d1f 2fbf 4bd1 2fbf 68a6 99bf 6553 e2be
000000c0: 03d5 18bf 3ddb 19bf ccf4 79bf 7b61 dcbe
000000d0: 6a8b 7bbf c9c7 6bbf 38b0 e0be 8d43 7ebf
000000e0: 624f b3be 3b39 77be 1487 51bf b333 8bbf
000000f0: d835 d0be ef7f 56bf c868 59bf 292d 33bf
-0.44446242 -0.5844498 -0.6773115 -1.0738013 -0.7062905 -0.582958 -0.3652506 -0.70890045
-0.6429448 -0.5413161 -0.87077755 -0.09707245 -0.89151657 -0.91774464 -0.750655 -0.62646794
-0.8136777 -0.4019473 -0.6328395 -0.27738872 -0.57732975 -0.78423 -0.64543223 -0.35643718
-1.0232276 -0.9611475 -0.44866776 -0.44099504 -0.38146642 -0.7701904 -0.31698236 -1.2190535
-0.5508389 -0.32773122 -0.83256316 -0.8752214 -0.4807404 -0.67422795 -0.6137569 -0.6226632
-0.42086607 -0.36384806 -0.7528612 -0.32817015 -0.68406755 -0.6867873 -1.2003908 -0.4420425
-0.5970003 -0.60100156 -0.97639155 -0.43043122 -0.98259604 -0.9210172 -0.43884444 -0.99321824
-0.35021502 -0.24142925 -0.8184674 -1.0875152 -0.4066608 -0.8378896 -0.8492551 -0.69990784

net.layer2.1.running_mean f4 [64]
00000000: 0000 0000 0000 0000 0000 0000 0000 0000
00000010: 0000 0000 0000 0000 0000 0000 0000 0000
00000020: 0000 0000 0000 0000 0000 0000 0000 0000
00000030: 0000 0000 0000 0000 0000 0000 0000 0000
00000040: 0000 0000 0000 0000 0000 0000 0000 0000
00000050: 0000 0000 0000 0000 0000 0000 0000 0000
00000060: 0000 0000 0000 0000 0000 0000 0000 0000
00000070: 0000 0000 0000 0000 0000 0000 0000 0000
00000080: 0000 0000 0000 0000 0000 0000 0000 0000
00000090: 0000 0000 0000 0000 0000 0000 0000 0000
000000a0: 0000 0000 0000 0000 0000 0000 0000 0000
000000b0: 0000 0000 0000 0000 0000 0000 0000 0000
000000c0: 0000 0000 0000 0000 0000 0000 0000 0000
000000d0: 0000 0000 0000 0000 0000 0000 0000 0000
000000e0: 0000 0000 0000 0000 0000 0000 0000 0000
000000f0: 0000 0000 0000 0000 0000 0000 0000 0000
0.0 0.0 0.0 0.0 0.0 0.0 0.0 0.0
0.0 0.0 0.0 0.0 0.0 0.0 0.0 0.0
0.0 0.0 0.0 0.0 0.0 0.0 0.0 0.0
0.0 0.0 0.0 0.0 0.0 0.0 0.0 0.0
0.0 0.0 0.0 0.0 0.0 0.0 0.0 0.0
0.0 0.0 0.0 0.0 0.0 0.0 0.0 0.0
0.0 0.0 0.0 0.0 0.0 0.0 0.0 0.0
0.0 0.0 0.0 0.0 0.0 0.0 0.0 0.0

net.layer2.1.running_var f4 [64]
00000000: 0000 803f 0000 803f 0000 803f 0000 803f
00000010: 0000 803f 0000 803f 0000 803f 0000 803f
00000020: 0000 803f 0000 803f 0000 803f 0000 803f
00000030: 0000 803f 0000 803f 0000 803f 0000 803f
00000040: 0000 803f 0000 803f 0000 803f 0000 803f
00000050: 0000 803f 0000 803f 0000 803f 0000 803f
00000060: 0000 803f 0000 803f 0000 803f 0000 803f
00000070: 0000 803f 0000 803f 0000 803f 0000 803f
00000080: 0000 803f 0000 803f 0000 803f 0000 803f
00000090: 0000 803f 0000 803f 0000 803f 0000 803f
000000a0: 0000 803f 0000 803f 0000 803f 0000 803f
000000b0: 0000 803f 0000 803f 0000 803f 0000 803f
000000c0: 0000 803f 0000 803f 0000 803f 0000 803f
000000d0: 0000 803f 0000 803f 0000 803f 0000 803f
000000e0: 0000 803f 0000 803f 0000 803f 0000 803f
000000f0: 0000 803f 0000 803f 0000 803f 0000 803f
1.0 1.0 1.0 1.0 1.0 1.0 1.0 1.0
1.0 1.0 1.0 1.0 1.0 1.0 1.0 1.0
1.0 1.0 1.0 1.0 1.0 1.0 1.0 1.0
1.0 1.0 1.0 1.0 1.0 1.0 1.0 1.0
1.0 1.0 1.0 1.0 1.0 1.0 1.0 1.0
1.0 1.0 1.0 1.0 1.0 1.0 1.0 1.0
1.0 1.0 1.0 1.0 1.0 1.0 1.0 1.0
1.0 1.0 1.0 1.0 1.0 1.0 1.0 1.0

net.layer3.0.weight f4 [64, 64, 3, 3]
00000000: 17f8 863d bc21 c53c 8519 4cbb e38a 113c
00000010: 36dd 95bd 4bbf ba3c 7fe2 93bd 8ef0 97bd
00000020: d5bb d6bd d39f c23d 6a6b 24bc 6c08 06bd
00000030: ca2d 4f3e 1c8f a1bd 1f2e 7abc dcff 603b
00000040: 82a1 1ebe 0f1e 81bd 6c96 78be b8db aeba
00000050: 9cc4 c8bd 8b7e e63a 6ddf 8bbc 3fce 33bd
00000060: 728d f4bc 371b 033c fe61 443e 6a98 f6bd
00000070: 7bbf 34be fd76 2bbe c39c 2a3d de9d 04bc
00000080: b6b0 9bbd fe3f 7cbd 9712 c6bd 352a aebd
00000090: 264d 2abc 9b0e 05be f482 d2bd db59 513e
000000a0: 92eb 1b3d d3be 6e3d da69 cb3d 3356 b63d
000000b0: bc8b 333d eb2e b23d 7e28 b93d 959d 81bd
000000c0: e933 973d a432 213c 0079 13be f971 1f3d
000000d0: 406e cebd 98a0 4dbe 8038 c6bd 85da 27bd
000000e0: a438 94bd 04f3 e4bd c835 0f3d b9ce 90bc
000000f0: 32a3 e7bd 18db 87bd 4734 36be ac7a 4ebd
00000100: 1182 ce3d 57d3 fdbb bd00 3dbe 277c d73c
00000110: 5457 ccbd 5866 98be 0cc6 3abe cd09 503d
00000120: 03bb 0a3b edf7 4e3d 66f2 aabc 9279 413e
00000130: 02d3 953e da69 7d3b c5e0 0dbe 907e ab3d
00000140: 473f 843c d999 d43d 8112 493e ddfe 19bd
00000150: 1d10 653d 5508 853d eb31 41bc 33c9 c2bd
00000160: 1496 863d 80bd cebb bdd1 bd3d d6fa 0fbe
00000170: a94c dabc f229 163e 7ddd c3bc 8ee5 afbd
00000180: cd06 843d 229a 013b c3a3 40be 10b0 7dbc
00000190: d7f6 eabc 1b8d 4bbd 9dc0 b7bd da3d 9bbd
000001a0: eea6 1b3d 8d31 61bc 491a f9bd 84d7 2e3b
000001b0: 0e4e 9cbd affd a9bd fe25 4a3d 0cab d4bd
000001c0: 2d97 8cbd 13f6 673d 5395 e8bc 4dad 99bc
000001d0: 9032 8d3d f465 38bd a8ce 703d 63f9 003d
000001e0: 779f cfbd 3d9e dfbd 107c 98bd 1bd4 053e
000001f0: 2d75 efbd f3f0 7dbc 23c2 f43d 9333 e63d
00000200: e323 1a3e 32f1 803e bec6 d03e 8629 f93d
00000210: 9463 bdbd b675 35bc 882f 29be fe63 0ebd
00000220: 23a2 3d3d d07d 0ebe 2a13 263e e9bb fe3d
00000230: 62d5 af3c 8547 3cbd a4c8 b0bc 027d 62bc
00000240: e872 bc3d d4dc ae3e 2b61 c23c e780 e73e
00000250: bcc7 173f 65f8 9c3e cfae 8a3d bfc9 943e
00000260: fa48 cabd cff8 7e3b 3c47 a4bc 27f7 673d
00000270: c0c0 32bd 3da9 9ebd 7a4f f3bd a632 5dbd
00000280: a98b dabd 612b 51be 7dde fbbd 9944 2dbe
00000290: 2c60 04be db0d 07bd e162 913d a3b6 f23d
000002a0: 0b8b 85ba 5355 6bbe 8b00 23be 7ad6 c13d
000002b0: 66e2 dbbc 5881 133d 99bd e7bd 8d5a 37bd
000002c0: cff3 a9bd 435a 7abd 4609 74ba 6914 d6bd
000002d0: f680 b23d e357 1c3c f3df 283d fd2d 1cbd
000002e0: 27fe 5bbd cc5a 19bc 16c2 f8bd 89e2 8bbd
000002f0: 5a90 f0bb 3803 eb3c b179 ccbd c18e 7c3c
00000300: 91b9 933d ec18 e6bc 42ef 04be 75bb dabc
00000310: cb81 9d3c beac 893d 601d 08be 9400 28bc
00000320: 49f3 3c3d e667 653c ad36 863e a129 9b3c
00000330: b722 a33c 71f1 393e 644b 163e 1e92 9c3d
00000340: ad30 753e 7c95 e0bd ecfb 073e d49e 6f3e
00000350: f614 ed3c 9e6b 58be 65d9 87be cf3a 48be
00000360: 4cd6 f4bd 7b79 7cbc 7fbe dfbc e6fc 32be
00000370: e9be 95bd e294 07bd ff09 39bd 6965 0dbd
00000380: 264e 873d 064c 353d 8a30 fa3c 82d6 38bd
00000390: 0553 98bd c5bf a0bd cfa6 adbd c69b 5b3d
000003a0: 6f58 b7bd 1e74 01be cb3d ae3a c765 063e
000003b0: bb39 e7bc 4e62 f0bd bb0b 9bbd 3d60 e1bd
000003c0: eecc 6a3d 53ab a13d 18c1 ef3d 411f 90bd
000003d0: 033b 06bd 8c34 f8bd 80a2 113d 0917 813d
000003e0: a018 cf3c fd1d 25bd d39c a8bd fc7c 0cba
000003f0: 44d5 b1bd 1825 afbd 7c7e 9fbd 8b54 a3bc
0.06590288 0.024063937 -0.003114314 0.008883211 -0.07317583 0.022796294 -0.07220935 -0.07418929
-0.10485045 0.0950314 -0.010035375 -0.032722875 0.20232311 -0.07888624 -0.015269785 0.0034332192
-0.15491298 -0.06304561 -0.24276131 -0.0013340628 -0.09803125 0.001758532 -0.017074311 -0.043897863
-0.029852603 0.008002094 0.19178006 -0.120407894 -0.17651169 -0.16744609 0.041653406 -0.008094279
-0.07602064 -0.061584465 -0.096715145 -0.08504144 -0.01039437 -0.12993853 -0.102788836 0.20444433
0.038066454 0.058287453 0.09932299 0.0890316 0.043834433 0.08700355 0.090409264 -0.063288845
0.07382948 0.009838734 -0.14401627 0.038927052 -0.10079622 -0.20080793 -0.09678745 -0.04097988
-0.07237366 -0.11179164 0.0349634 -0.017676698 -0.11310424 -0.06633586 -0.1779338 -0.050409958
0.10083402 -0.007746141 -0.18457313 0.026304318 -0.09977594 -0.29765582 -0.18239611 0.050790597
0.0021168597 0.05052941 -0.020867538 0.18894032 0.2926255 0.0038667829 -0.13855274 0.08373749
0.016143454 0.103809066 0.19635965 -0.037596572 0.05592357 0.0649573 -0.0117916865 -0.09511032
0.06571594 -0.0063092113 0.0926852 -0.1406053 -0.026647883 0.14664438 -0.023909325 -0.08588706
0.0644661 0.0019775708 -0.1881247 -0.015483871 -0.028682156 -0.049695116 -0.08972285 -0.075801566
0.038000993 -0.013744724 -0.121632166 0.002667875 -0.07632075 -0.083003394 0.04935264 -0.10384187
-0.06864772 0.05663116 -0.028391516 -0.018759394 0.0689441 -0.045019105 0.058790833 0.031487834
-0.101378374 -0.109188534 -0.07445538 0.13069193 -0.116922714 -0.015499341 0.11951091 0.11240306
0.15052752 0.25184017 0.40776628 0.12166123 -0.09247509 -0.011075428 -0.16522038 -0.03476333
0.046297204 -0.13915181 0.16218248 0.12438185 0.021464054 -0.045966644 -0.021580048 -0.0138237495
0.09201604 0.34152853 0.023727974 0.45215532 0.59289145 0.3065826 0.06771623 0.2906017
-0.098772004 0.0038905626 -0.020053498 0.056632187 -0.043640852 -0.077471234 -0.11880393 -0.05400338
-0.10671169 -0.20426704 -0.12298296 -0.16920699 -0.12927312 -0.032972198 0.07098938 0.118512414
-0.0010188533 -0.22981767 -0.15918176 0.09464736 -0.026841354 0.036012024 -0.1131546 -0.04476409
-0.08298456 -0.061121237 -0.0009309243 -0.10453112 0.087160036 0.009542438 0.0412292 -0.038129795
-0.053709175 -0.009360027 -0.12146394 -0.068303175 -0.007341427 0.028688058 -0.09984148 0.015414895
0.07213128 -0.028088056 -0.12981895 -0.026700715 0.01922693 0.06722401 -0.13292456 -0.010254044
0.046130452 0.014001822 0.2621359 0.018940749 0.019914014 0.18158509 0.14677197 0.07645057
0.2394435 -0.10966012 0.13279694 0.23400432 0.028940659 -0.21134803 -0.26533046 -0.19553684
-0.119549364 -0.015409823 -0.027312515 -0.17479286 -0.07311804 -0.03310097 -0.04517555 -0.03452054
0.066067025 0.044261955 0.030540723 -0.045126446 -0.0743771 -0.07849077 -0.08479082 0.053615354
-0.08952414 -0.12641951 0.0013293562 0.13124762 -0.02822577 -0.117375 -0.07570597 -0.11004684
0.057324342 0.078940056 0.117067516 -0.07037211 -0.03277112 -0.121193975 0.035555363 0.06303222
0.025280297 -0.040311802 -0.08233037 -0.00053592003 -0.08683255 -0.08551997 -0.07787797 -0.019937774

net.layer3.0.bias f4 [64]
00000000: 0067 d2bc 9d9b 203d afe4 033d 3325 0e3d
00000010: 59f4 1e3d 6fdb 6c3c baca 1cbc af27 1d3d
00000020: 9bc6 e1bc d382 84bc 2389 893d e058 0f3d
00000030: 60d2 313c 7403 b5ba fd54 5cbc 5b37 9f3c
00000040: 85e0 363c 37b8 113d 62df 683c 6863 113b
00000050: df2e 2dbc 2613 d43c 0a84 273c cf59 b0bc
00000060: fac9 193d 8e98 3fbc c919 1b3d 8d56 803c
00000070: 664f 213d 26db 9abb a8bb e8bc c6a1 afbc
00000080: f2be 47bd b8bf a0bc 9a25 433c 5371 af3c
00000090: e2e9 01bc e9dc 8abc f290 1dbd 2425 a43c
000000a0: a391 803c 2448 44bd cadd a13c 34db c13c
000000b0: bdfb 39bb 95c6 a5bc 3972 22bd 7a24 8e3c
000000c0: e00e 063d 76e2 ddbc 3e44 29bd 00f0 a43d
000000d0: bfac 11bb 6cbc bcbc 7386 80bc 8b63 523c
000000e0: a3c0 0c3d fc95 ee3c 5f58 00bd de11 893c
000000f0: 593a 233d 9bea afbc f7fb bb3c 21ce 363c
-0.02568388 0.039210904 0.03220051 0.034703445 0.038807247 0.014456614 -0.009569818 0.038367923
-0.027560523 -0.016175663 0.0671561 0.034996867 0.01085338 -0.0013810233 -0.013447997 0.019435575
0.011161928 0.03557607 0.014213415 0.0022184495 -0.010570257 0.025888037 0.010224352 -0.0215272
0.037546135 -0.011694087 0.037866388 0.01566627 0.03938236 -0.0047258316 -0.028409794 -0.021439444
-0.048766084 -0.019622669 0.01191082 0.021416342 -0.007929297 -0.016951041 -0.03846831 0.020037241
0.015694445 -0.04792036 0.019759078 0.023664095 -0.0028378807 -0.020236293 -0.039659712 0.017351378
0.03272903 -0.027085524 -0.041324846 0.08053589 -0.002222821 -0.023039065 -0.01568911 0.012841116
0.0343634 0.029124252 -0.031334277 0.016732153 0.039850567 -0.021474173 0.022947295 0.011157543

net.layer3.1.weight f4 [64]
00000000: a720 d43e ab99 cb3e b51c fa3e 887f c33e
00000010: da33 033f 6aab de3e 1412 133f f088 673f
00000020: 258a db3e f90c 853f 5904 083f 9249 f53e
00000030: 291a 7e3f 611e 043f 4fb4 be3f 0649 db3e
00000040: bf64 853f a8d4 783f 32fb fb3e dc25 353f
00000050: 9d8a 843f d059 8b3f 4663 9c3e db81 e93e
00000060: d994 ef3e bf33 ea3e 4538 1f3f 897f f93e
00000070: 0429 f03e 4b65 6f3f 9d33 e53e 3906 1d3f
00000080: c12d 843f 62fe 833f 4aef da3e 8bb2 ef3e
00000090: 2923 013f 84b1 f63e 4034 d93e 0171 ee3e
000000a0: b769 a83f 709a a03f 5dc6 013f 2bd1 a23f
000000b0: a04e 023f 5d78 803f 433c 993f c19c 853f
000000c0: 112a bd3f 86d9 ec3f 4f16 043f 97a4 833f
000000d0: 58e0 843f a70e ca3e ba2e df3e a984 e23e
000000e0: 7a9d d13e 6b81 073f f2be da3e 6493 a13e
000000f0: be58 fb3e 7bf7 c03f 27ff f33e c072 e63e
0.41431162 0.39765677 0.48850027 0.38183236 0.51250994 0.43490154 0.5744946 0.90443325
0.42878833 1.0394584 0.53131634 0.47907692 0.9925867 0.51608855 1.4898776 0.4282915
1.042137 0.9719949 0.49215084 0.70760894 1.0354801 1.0886784 0.3054449 0.45606884
0.4679325 0.45742604 0.62195235 0.48730114 0.46906292 0.93513936 0.4476594 0.6133762
1.0326463 1.0312006 0.42760688 0.46815905 0.50444275 0.4818231 0.42422676 0.4657059
1.3157262 1.254713 0.50693303 1.2720083 0.5090122 1.0036732 1.1971515 1.0438462
1.4778463 1.8503883 0.5159654 1.0284604 1.0380964 0.39464304 0.43590337 0.44241837
0.40940458 0.5293185 0.42723805 0.31557763 0.49091142 1.5075525 0.47655603 0.45009422

net.layer3.1.bias f4 [64]
00000000: baa0 07bf f9a5 ffbe c1b2 ebbe 9652 f2be
00000010: b8ec 0bbf 92d6 05bf 2ce8 f1be 13da d4be
00000020: ebce e8be 655e 95be d478 eabe e1f4 e7be
00000030: a6d9 1abf f7ad d4be 2c02 ffbe 763f 16bf
00000040: d357 0abf 48cb c5be 6c2a 07bf 46f9 b0be
00000050: 80ed 08bf 15bf 6bbe f72b 78be 25b2 f4be
00000060: ec0f 04bf eb23 ebbe bd07 01bf f10f f4be
00000070: 98e7 d8be 516b 03bf 8d71 fbbe 1050 01bf
00000080: d8c1 9abe 58bc debe 5cc0 f2be 54fd e5be
00000090: e42a f9be 8fcc 0bbf c449 0cbf bc47 f7be
000000a0: 3b05 0dbf b63f 0cbf 3794 e0be c444 afbe
000000b0: 7d3e d3be cd76 d9be 2cd0 35bf 2bff 4abf
000000c0: f64e 5dbf 4306 f3be 475d e0be eeca bbbe
000000d0: 221e e6be 55d7 01bf 2ed1 0cbf 9560 03bf
000000e0: 2093 fbbe ca91 dcbe 0101 0abf 1600 59bf
000000f0: 056b 0bbf f5ae 14bf ef2b d0be 9965 03bf
-0.52979624 -0.49931315 -0.46034816 -0.47328633 -0.5465808 -0.52280533 -0.47247446 -0.41572627
-0.45470366 -0.2917358 -0.4579531 -0.45304015 -0.60488355 -0.41538975 -0.49806345 -0.58690584
-0.5404026 -0.38631654 -0.52799106 -0.3456518 -0.53487396 -0.23022111 -0.24235521 -0.47792163
-0.51586795 -0.4592584 -0.5040243 -0.47668412 -0.42364192 -0.51335627 -0.4911007 -0.5051279
-0.30226016 -0.4350307 -0.47412384 -0.44919837 -0.48665535 -0.54609007 -0.5480006 -0.48296916
-0.55086106 -0.54784715 -0.4386308 -0.34232152 -0.41258612 -0.4247345 -0.7102077 -0.79295605
-0.8644861 -0.47465715 -0.43821165 -0.3667826 -0.44944865 -0.50719196 -0.5500668 -0.5131925
-0.49135685 -0.43079978 -0.5390778 -0.84765756 -0.54460174 -0.58079463 -0.4065852 -0.513269

net.layer3.1.running_mean f4 [64]
00000000: 0000 0000 0000 0000 0000 0000 0000 0000
00000010: 0000 0000 0000 0000 0000 0000 0000 0000
00000020: 0000 0000 0000 0000 0000 0000 0000 0000
00000030: 0000 0000 0000 0000 0000 0000 0000 0000
00000040: 0000 0000 0000 0000 0000 0000 0000 0000
00000050: 0000 0000 0000 0000 0000 0000 0000 0000
00000060: 0000 0000 0000 0000 0000 0000 0000 0000
00000070: 0000 0000 0000 0000 0000 0000 0000 0000
00000080: 0000 0000 0000 0000 0000 0000 0000 0000
00000090: 0000 0000 0000 0000 0000 0000 0000 0000
000000a0: 0000 0000 0000 0000 0000 0000 0000 0000
000000b0: 0000 0000 0000 0000 0000 0000 0000 0000
000000c0: 0000 0000 0000 0000 0000 0000 0000 0000
000000d0: 0000 0000 0000 0000 0000 0000 0000 0000
000000e0: 0000 0000 0000 0000 0000 0000 0000 0000
000000f0: 0000 0000 0000 0000 0000 0000 0000 0000
0.0 0.0 0.0 0.0 0.0 0.0 0.0 0.0
0.0 0.0 0.0 0.0 0.0 0.0 0.0 0.0
0.0 0.0 0.0 0.0 0.0 0.0 0.0 0.0
0.0 0.0 0.0 0.0 0.0 0.0 0.0 0.0
0.0 0.0 0.0 0.0 0.0 0.0 0.0 0.0
0.0 0.0 0.0 0.0 0.0 0.0 0.0 0.0
0.0 0.0 0.0 0.0 0.0 0.0 0.0 0.0
0.0 0.0 0.0 0.0 0.0 0.0 0.0 0.0

net.layer3.1.running_var f4 [64]
00000000: 0000 803f 0000 803f 0000 803f 0000 803f
00000010: 0000 803f 0000 803f 0000 803f 0000 803f
00000020: 0000 803f 0000 803f 0000 803f 0000 803f
00000030: 0000 803f 0000 803f 0000 803f 0000 803f
00000040: 0000 803f 0000 803f 0000 803f 0000 803f
00000050: 0000 803f 0000 803f 0000 803f 0000 803f
00000060: 0000 803f 0000 803f 0000 803f 0000 803f
00000070: 0000 803f 0000 803f 0000 803f 0000 803f
00000080: 0000 803f 0000 803f 0000 803f 0000 803f
00000090: 0000 803f 0000 803f 0000 803f 0000 803f
000000a0: 0000 803f 0000 803f 0000 803f 0000 803f
000000b0: 0000 803f 0000 803f 0000 803f 0000 803f
000000c0: 0000 803f 0000 803f 0000 803f 0000 803f
000000d0: 0000 803f 0000 803f 0000 803f 0000 803f
000000e0: 0000 803f 0000 803f 0000 803f 0000 803f
000000f0: 0000 803f 0000 803f 0000 803f 0000 803f
1.0 1.0 1.0 1.0 1.0 1.0 1.0 1.0
1.0 1.0 1.0 1.0 1.0 1.0 1.0 1.0
1.0 1.0 1.0 1.0 1.0 1.0 1.0 1.0
1.0 1.0 1.0 1.0 1.0 1.0 1.0 1.0
1.0 1.0 1.0 1.0 1.0 1.0 1.0 1.0
1.0 1.0 1.0 1.0 1.0 1.0 1.0 1.0
1.0 1.0 1.0 1.0 1.0 1.0 1.0 1.0
1.0 1.0 1.0 1.0 1.0 1.0 1.0 1.0

net.layer4.0.weight f4 [64, 64, 3, 3]
00000000: 9195 dc3d aa57 fdbc 29d9 38bd 3335 8a3d
00000010: ac73 be3b 01e8 dbbc 9eeb 58bd 64e2 1c3c
00000020: 8b87 4cbc 313f d33d ee9f 5bbd 522e 5f3b
00000030: 3747 15bd b902 efbc 4809 403d 4df5 c3bd
00000040: 5e6b a43d a96c 6e3b 96b3 01bd 5970 4cbd
00000050: d401 b7ba 14fa 89bc 1ae7 63bd f9a5 9dbc
00000060: 8346 6b3c 48b8 38bd 7a12 fc3c 82f8 993e
00000070: 88fa 713d ea6e b3be 8330 88bc 8fde 4bbe
00000080: d89a 30bd dd7c 7cbe 4107 c6bd f465 d23d
00000090: 7b25 e53d 9c88 4f3d 25d9 f53c 7ec4 adbd
000000a0: d4c4 d9bb e0d0 10bd 0165 38bd f4bd 17be
000000b0: 9e1f 883d cd39 fc3c 8d26 db3c 5c0d 6c3c
000000c0: f5b5 243c 6e4b 5e3d 56d6 efbd fe89 a6bd
000000d0: b4c8 8d3d 4b02 8b3d 1ce4 9bbb 0617 bbbd
000000e0: 5cb4 fcbb cd73 a1bd 3204 113d cacc 0bbd
000000f0: 85e6 3bbd b1d7 94bc b6a4 623d e3e9 273d
00000100: 8488 6abe d961 38be 45e5 b53d e9d0 b2bc
00000110: 06e4 a03c dfd0 09bd d54d 903d ddec 60bc
00000120: 0d70 cc3c a77b 323d 6087 6abb b88b 4dbd
00000130: 4c03 803c 33a4 373d 778d b53b 12d2 0f3d
00000140: 7f73 093d 5bcf a8be 2b3d b0bd 1a65 ffbc
00000150: cbfe 7cbe 0570 e23c ca40 debb 4e15 043e
00000160: 8ddb b63d f309 913d 9c63 1d3f a1c0 bebd
00000170: 7df3 4bbf 7618 2cbe 90ad 323e e4bf 113f
00000180: cd26 a4bf 03ed 0c3f 75a7 173f 31dc 52bb
00000190: fa17 2bbd 4991 6bbc 94d2 46bd 6980 25bc
000001a0: 4e8d 96bd 1c04 d3bb f6e0 8bbc 4e6f 02be
000001b0: c3f0 3c3e 3ba4 d7be 1ee1 e4bd ea0e 35bd
000001c0: a143 5d3d 11ef d13d 446e cb3d 8784 743c
000001d0: 46e7 a43d 731c c03c 67f0 b2bd ea24 7a3c
000001e0: cd6b 103c 9ca9 d93d 0b11 61bd 6fba 013c
000001f0: 6577 18bc 2afc 26bc b5f9 e23d 501b dabd
00000200: ea31 88bc d3fa a2bd 81c1 bd3c f2cc 423d
00000210: cd32 90bd 769f 8e3d 06c8 05bc 7a6a 2b3e
00000220: 0ab9 8abd 0261 4fbc 45ef b5bd d904 46be
00000230: bdcd 97bb 204d edbd b00f 83bd 2524 94bd
00000240: 1019 29bc cb27 9bbd 2375 ab3d 8739 7dbd
00000250: a4a1 f83c 73eb a93c 5b5a 04bd 0201 393c
00000260: 5953 333d 41dc 0d3d dda2 9dbe 353d 66bd
00000270: 14cd 293d c774 733c 86f0 f93d 4362 2f3b
00000280: 6a92 193e 494f 893d 5422 c53d 5991 63bd
00000290: 3da9 b63b a40c 04be e561 103e dcd6 173e
000002a0: 56e4 d1bc 3754 cb3c fe0d 28bd 4e59 ae3e
000002b0: fec6 f1be 2615 1dbf cc40 c6bf c168 923e
000002c0: bb89 9d3f 69a1 64bd 7d02 7f3e 5112 9cbc
000002d0: 8135 c7be 1406 02bf 76d9 a4be 5485 12be
000002e0: a9d8 4fbd 4859 0a3d 0aab 423e 1f86 ea3d
000002f0: 3e57 94bd 76c4 3a3d 797c 96bd 89b6 1cbe
00000300: c668 df3d f5e2 56bd b69e 1f3d de86 c1bc
00000310: 8cf7 c23d 7228 563d 8cc3 bbbe 28e9 63bf
00000320: 5f09 4abf c305 61bf d56f ccbd 58d6 9abd
00000330: 3b1b 9dbe fa32 563e c60e 20be 4eee c93c
00000340: 3c31 94bd 878a a63b d329 143c 7c58 29bd
00000350: a873 6dbc db9b b23d 9339 d43d 8ca0 c33d
00000360: a4b7 b13c 3efc 86be 73cc dfbd d6d2 95bd
00000370: 9a9a a13d dda8 0fbd 46e7 ee3c 53c6 9dbd
00000380: 18d4 273d e9d5 863b 3d63 6b3d 852b ce3d
00000390: 8f50 b53c 6e44 0c3b 9ed7 743d 9794 763d
000003a0: fdab 89bd 058d 7ebd 8f28 cb3c 76e1 d33b
000003b0: 10a1 45bd 480a d9bd a8ee 8aba 8357 2e3d
000003c0: 7cc7 43bd c615 1a3d d8a7 153d 22c4 943d
000003d0: 3b2b bb3c 8c79 413c 6b33 bcbd 2e2d 4ebd
000003e0: 2449 3bbd b614 9fbc 0207 bfbc 52c8 f03d
000003f0: c5b9 00bd cd6d 543d 3899 16be 3b9b 89bd
0.10770715 -0.03092559 -0.045128975 0.06748428 0.005812129 -0.026844027 -0.052959077 0.00957546
-0.012483488 0.10314787 -0.053619318 0.0034054709 -0.03644487 -0.029176103 0.04688385 -0.09568272
0.08028291 0.0036380684 -0.031665407 -0.04991183 -0.0013962337 -0.01684288 -0.055640317 -0.019244181
0.014360073 -0.04509762 0.030770529 0.3007241 0.059076816 -0.35045558 -0.016624695 -0.19909118
-0.04311642 -0.24657007 -0.09669352 0.10273352 0.111887895 0.05066739 0.03001077 -0.084847435
-0.006645778 -0.03535545 -0.0450182 -0.14818555 0.066466555 0.03078928 0.02675178 0.014407482
0.010053148 0.054271154 -0.11710803 -0.08131789 0.06923047 0.06787547 -0.0047574174 -0.09135251
-0.00771193 -0.07883415 0.03540439 -0.03413085 -0.045874137 -0.018169256 0.05533286 0.040994536
-0.22903639 -0.18006076 0.0888162 -0.021828132 0.01963998 -0.03364646 0.07046095 -0.013728348
0.024955774 0.043574955 -0.0035786256 -0.050182074 0.015626572 0.044834327 0.0055405456 0.035112448
0.03355741 -0.329707 -0.08605417 -0.031176139 -0.24706571 0.027641306 -0.006782626 0.12898752
0.08928595 0.07081976 0.61480117 -0.09314085 -0.7966841 -0.16806206 0.17449021 0.56933427
-1.2824341 0.5504915 0.59239894 -0.0032174701 -0.041770913 -0.0143779 -0.048540667 -0.010101416
-0.073511705 -0.006439699 -0.017075043 -0.12737772 0.18451218 -0.42117485 -0.1117575 -0.044203676
0.054019574 0.102506764 0.09933141 0.014924175 0.080519244 0.023451066 -0.08737259 0.01526759
0.008814764 0.106280535 -0.054947894 0.007917984 -0.00930581 -0.010191957 0.11082784 -0.10649741
-0.016625363 -0.07957997 0.023163559 0.047558732 -0.070409395 0.069640085 -0.008165365 0.16739836
-0.06773575 -0.012657406 -0.08883528 -0.19337787 -0.00463268 -0.11586976 -0.063994765 -0.072334565
-0.010320917 -0.07575949 0.083719514 -0.06182244 0.030350514 0.020742154 -0.032312732 0.011291744
0.04378066 0.03463388 -0.30788317 -0.056210715 0.041455343 0.014859385 0.12204079 0.002676145
0.14997259 0.067045756 0.09625688 -0.055558536 0.005574374 -0.12895447 0.14099844 0.14828056
-0.025621574 0.02482043 -0.04102897 0.3405251 -0.47222131 -0.61360395 -1.5488524 0.28595546
1.2307657 -0.055817995 0.24903293 -0.019051703 -0.38908008 -0.50790524 -0.3219716 -0.14308673
-0.050743733 0.03377655 0.19010559 0.11451363 -0.072432026 0.045597516 -0.0734796 -0.15304007
0.10908656 -0.052462537 0.038969718 -0.02362388 0.09519872 0.052284665 -0.36672628 -0.89027643
-0.7892055 -0.87899417 -0.09982268 -0.07560414 -0.30684838 0.20917884 -0.15630636 0.024649765
-0.07235953 0.0050824317 0.009043175 -0.04134415 -0.014492907 0.08721133 0.10362544 0.09552106
0.021694012 -0.2636432 -0.109276675 -0.073156044 0.07890816 -0.03507315 0.029163014 -0.07703843
0.040973753 0.0041148555 0.057467688 0.100668944 0.02213314 0.0021403092 0.05977594 0.0602003
-0.06722257 -0.062146205 0.024799613 0.006466086 -0.048249304 -0.10597664 -0.001059969 0.042563926
-0.047797665 0.03761842 0.03653702 0.07263972 0.022847762 0.011808764 -0.09189495 -0.050336055
-0.04572405 -0.019419055 -0.023318771 0.11756958 -0.031427164 0.051862527 -0.14706886 -0.06719061

net.layer4.0.bias f4 [64]
00000000: 54f3 17bd 3ff7 00bd 35b9 6cbd 4e89 40bd
00000010: 9daf 66bd 6849 c3bc d1ca b8bd 296e 11bd
00000020: aebe 353c dbb6 753b 5c07 a9bb 61c5 73bc
00000030: dcf2 6fbe 1dba 4f3c 5158 c0bd 8a91 a33b
00000040: 1671 f6bb e16b 97bc 28b7 073d 5bec 503d
00000050: 6f8b be3c f9c7 fb3c 5e91 a03c ad2f 61bd
00000060: 8ca1 fa3c c652 2e3d 21c2 a13c eb23 d7bc
00000070: 24c0 f93c 6999 133c c9b2 ee3b 4adb 05bd
00000080: 8bc8 213d 610a 20bd a493 0abd 8a1b 8f3a
00000090: 5762 403d 4b02 c43c a0e9 7c3d 8fce 46bd
000000a0: 55d1 a53c 9e22 e3bc 4d54 593d e105 e63d
000000b0: 8214 2ebd 9d88 1b3d 5793 28bd 1b14 d03c
000000c0: 4569 943c e290 2abd 5300 9fbb a88d 2dbc
000000d0: b72f bebb 6c75 c23b a9dd dabc fd95 2dbb
000000e0: 9e04 c03e bce7 95bc 6614 49bd 0a7e 103c
000000f0: 4de6 943a 09cd afbc 4c20 b6bd b4de 7ebc
-0.03709729 -0.031485792 -0.057793815 -0.047005944 -0.05631982 -0.023838714 -0.09023059 -0.035505448
0.011092825 0.0037493024 -0.005158348 -0.014878602 -0.23432487 0.01267865 -0.09391845 0.004991715
-0.007520805 -0.018484058 0.033133656 0.051006656 0.023259846 0.030735003 0.019600566 -0.054977108
0.03059461 0.042559408 0.019745888 -0.026262244 0.030487128 0.009008744 0.0072844964 -0.032679833
0.039497893 -0.039072398 -0.033832207 0.0010918241 0.046968784 0.023926875 0.06174624 -0.048536833
0.020241419 -0.027726468 0.05305891 0.1123159 -0.042500027 0.03797208 -0.04115614 0.025400212
0.018116603 -0.041642077 -0.0048523336 -0.0105928555 -0.005804028 0.005934408 -0.026717024 -0.0026487105
0.37503523 -0.018298976 -0.04909172 0.008819113 0.0011360139 -0.021460073 -0.08892879 -0.015556026

net.layer4.1.weight f4 [64]
00000000: a82c df3f 3ea2 d43f 3323 c73f 2e25 e63f
00000010: 9f89 eb3f 5828 ee3f 2daf df3f 32cf 4640
00000020: ace1 ef3f b237 e83f 013f f93f 2681 0040
00000030: 6539 2440 b906 ea3f f7b1 5240 a0ae ed3f
00000040: e072 c03f 64b2 ec3f 0480 f63f 2cdf f63f
00000050: 5354 f63f 7e77 e83f 9fa1 ed3f 965d a23f
00000060: 4a41 f43f c2a4 0d40 fc7a fc3f d9d1 953f
00000070: 10d8 813f f9f9 b03f 16dc cf3f 9149 0940
00000080: d1db ed3f 375e fa3f a692 b83f 1379 f63f
00000090: dab2 f43f 09b5 ef3f 110f f03f 62af 4a40
000000a0: 364a 3340 62b0 b43f 13bc f23f 218b 0740
000000b0: 7f78 0740 87a1 e63f eb6a ed3f 0805 fc3f
000000c0: fb50 ef3f d13a d93f c133 af3f 4b5f fb3f
000000d0: 1393 e73f 5ebb b93f 57fb 823f 623e ef3f
000000e0: 192e c83f 8d0c f93f 064b ea3f 96aa f43f
000000f0: 85dc f03f 7aca 0640 a07c 5440 70ef f83f
1.7435503 1.6612012 1.5557617 1.7980096 1.8401374 1.8606062 1.7475334 3.1063962
1.8740745 1.8141997 1.9472352 2.0078826 2.566003 1.8283302 3.292112 1.8568916
1.5035057 1.849194 1.9257817 1.9286857 1.9244484 1.8161466 1.8564948 1.268481
1.9082425 2.213181 1.9725032 1.1704665 1.0144062 1.3826286 1.623904 2.1451151
1.8582708 1.9560002 1.4419754 1.9255699 1.9117081 1.8727123 1.8754598 3.1669545
2.8014045 1.4116328 1.8963646 2.1178668 2.1167295 1.8018044 1.8548254 1.9689035
1.8696588 1.6971074 1.3687669 1.9638456 1.8091758 1.4510305 1.0232953 1.8690913
1.5639068 1.9456955 1.8304145 1.9114559 1.8817297 2.1061082 3.3201065 1.944807

net.layer4.1.bias f4 [64]
00000000: a85d 7dbd eb55 11be 9043 40be 748b e7bd
00000010: eca4 48be 7a4c 0cbe e759 11bf 1bca f4be
00000020: c158 54be 3fd9 11be effd 50bc 9e32 1c3e
00000030: 481f 57be 9f38 9abe 3473 51bf e9de a6bd
00000040: a2be c4be bf21 3dbd 9a5c 04be c9c7 afbe
00000050: bfd0 cdbd d322 1cbe 1e3d afbe 664c aabe
00000060: 75aa 55be ea57 9bbe b3d5 4abe 9a7c 0ebf
00000070: a5f7 e7be 6920 05be 6abd 9fbe 372f ad3d
00000080: b225 93be 450b 25be a704 12be 1e9e 0a3e
00000090: 6450 54be f974 4cbe 2b74 64be 5f67 12bf
000000a0: 21e7 0a3e 9175 42be 7750 57be d693 dabd
000000b0: 4fef 1cbe 1731 3ebe 4af4 e0bd 1af8 e8be
000000c0: 2520 f83d 4e9e 48be 3c95 15bf 67b1 f13c
000000d0: 6f5a cebe f66a aabe 5af1 543e 434f fbbe
000000e0: af63 083e df85 c3be 797f 9dbe 52dc 90be
000000f0: 0420 e4bd ea9e 48be 57e6 09bf bb05 a1be
-0.061856896 -0.14192931 -0.18775773 -0.113058954 -0.19594163 -0.13701048 -0.56777805 -0.47810444
-0.20736982 -0.14243029 -0.012755855 0.15253684 -0.21008027 -0.30121323 -0.8181641 -0.081479855
-0.3842669 -0.04617476 -0.1292595 -0.3433211 -0.10049581 -0.1524766 -0.34226316 -0.33261412
-0.20865805 -0.3034051 -0.19808082 -0.55658877 -0.45306125 -0.13000645 -0.311992 0.08456271
-0.28739697 -0.1611758 -0.14259587 0.1353688 -0.20733792 -0.19966497 -0.2230994 -0.5718898
0.13564731 -0.1899016 -0.21026789 -0.10672729 -0.15325664 -0.18573414 -0.109840944 -0.45501786
0.12115506 -0.19591638 -0.5843084 0.029503537 -0.4030337 -0.3328473 0.20795193 -0.4908391
0.13319276 -0.38188073 -0.30761316 -0.2829309 -0.11138919 -0.19591871 -0.53867096 -0.31449685
