old_mp/maml_omniglot_step10500_k_5_n_way5.pt (torch, 462290 bytes, 26 tensors)

net.layer1.0.weight f4 [64, 1, 3, 3]
0	0x3e47f097	0.19525371
1	0xbccc3d39	-0.024931537
2	0xbe191a56	-0.14951453
3	0x3ceeca58	0.02914922
4	0x3e4671b7	0.19379316
5	0x3dfe52af	0.124181144
6	0xbcda8f80	-0.026679754
7	0x3bd66bc1	0.006543607
8	0x3d95a78f	0.0730735
9	0x3d4eb881	0.050468925
10	0xbdd71d6b	-0.10503658
11	0xbb6b89a3	-0.0035940192
12	0xbdf6751d	-0.12034056
13	0x3e5ed429	0.2176062
14	0xbdfbb88a	-0.122910574
15	0x3ca475f4	0.020075776
16	0xbd7e510f	-0.062089022
17	0xbd69c8e4	-0.05707635
18	0x3bb880ec	0.005630603
19	0xbdae90e6	-0.08523731
20	0xbc61cc57	-0.013781629
21	0x3d5f70c8	0.054550916
22	0xbe511c0c	-0.20420855
23	0x3e1da63f	0.15395449
24	0x3e13e360	0.14442205
25	0x3e074226	0.13208827
26	0x3d6f8a71	0.058481637
27	0x3e14e2e4	0.14539677
28	0x3e002b0c	0.12516421
29	0x3e1746a2	0.14773038
30	0xbc1fc649	-0.009751865
31	0xbda1c362	-0.078985944
32	0xbdea5625	-0.11442212
33	0xbd942bb2	-0.07234897
34	0xbd217243	-0.03941561
35	0xbd15bc69	-0.036556635
36	0x3e2fcce1	0.17167999
37	0x3db7af42	0.08968975
38	0xbcf6e410	-0.030138046
39	0xbe364149	-0.17798342
40	0x3e431804	0.1905213
41	0x3bd8497b	0.0066005564
42	0xbd7c0021	-0.06152356
43	0xbc84c2a7	-0.016206099
44	0x3dc6fd64	0.09716299
45	0xbe26f9ca	-0.16306224
46	0xbd964904	-0.073381454
47	0xbd93061d	-0.071789004
48	0xbd9e79e4	-0.077380925
49	0xbdb4b896	-0.088242695
50	0xbe30e9c9	-0.17276682
51	0xbce48b71	-0.027898522
52	0xbc9132a6	-0.017724346
53	0xbd7d016a	-0.061768927
54	0xbc9da1e4	-0.019242235
55	0xbdf87445	-0.12131552
56	0x3dc85c5a	0.0978324
57	0x3e02e06c	0.12780923
58	0xbdf6f5a1	-0.12058569
59	0x3d9cef4b	0.07662829
60	0x3af98969	0.0019038144
61	0xbe0f2aaf	-0.13981126
62	0x3dcc0ef1	0.09963787
63	0x3cf6e279	0.030137287
64	0x3d7c856b	0.061650675
65	0xbdd2ed7f	-0.10299205
66	0xbd5386bb	-0.05164216
67	0x3b3f22ca	0.0029165023
68	0xbcd36945	-0.025807032
69	0xbc08ecc9	-0.008357235
70	0xbdc95797	-0.098311596
71	0xbd7877ed	-0.060661245
72	0xbd5b06aa	-0.053473152
73	0x3ddfa1c8	0.10919529
74	0xbd52cd86	-0.051465534
75	0x3dc067c2	0.0939479
76	0x3d66b66e	0.056326322
77	0x3de3f03f	0.11129808
78	0x3cdf337f	0.027246235
79	0xbe14460a	-0.14479843
80	0x3da8eaca	0.082479075
81	0xbdafec74	-0.08590022
82	0xbc8d60f2	-0.017258141
83	0xbd2109a4	-0.039315835
84	0x3ac6d2cf	0.0015169027
85	0xbce39fa2	-0.02778608
86	0xbcfc7730	-0.030818552
87	0x3d1dc8ae	0.03852146
88	0x3ea44d73	0.3209034
89	0xbd010148	-0.031495363
90	0x3c3daa6c	0.011576276
91	0xbda44e4b	-0.08022746
92	0xbdc1fff8	-0.0947265
93	0x3d7de813	0.0619889
94	0x3e61b84e	0.22042963
95	0x3ce67176	0.028130274
96	0xbda3842b	-0.079841934
97	0xbd02712c	-0.03184621
98	0x3d36ac84	0.044598117
99	0xbdf432b8	-0.11923736
100	0xbdc291f0	-0.095004916
101	0xbe166cb0	-0.14689898
102	0xbdad0e95	-0.08450047
103	0xbd06fc62	-0.032955535
104	0xbe1b7d98	-0.15184629
105	0xbe1ac291	-0.15113284
106	0xbdce8ded	-0.10085664
107	0x3c134666	0.008988952
108	0x3db433aa	0.08798917
109	0xbcd086f1	-0.02545497
110	0xbd456e71	-0.04820103
111	0x3da14380	0.07874203
112	0x3dae4bce	0.08510552
113	0xbdda7a8c	-0.10667905
114	0x3dbfc607	0.093639426
115	0x3d07946f	0.03310054
116	0x3e5e076b	0.21682517
117	0xbdac2665	-0.08405761
118	0x3d83311e	0.06405853
119	0xbd8a0c6a	-0.06740649
120	0x3e08252f	0.13295434
121	0x3da3f75c	0.080061644
122	0x3e0b82bc	0.1362409
123	0x3df365ff	0.118846886
124	0xbe360915	-0.17776902
125	0x3cbd24b6	0.023088794
126	0x3e2fb831	0.17160107
127	0xbd7479fe	-0.059686653
128	0x3d638f70	0.055556715
129	0x3d2ab807	0.04167941
130	0xbe48a100	-0.19592667
131	0xbd15a5f6	-0.036535226
132	0x3e1deff9	0.15423574
133	0xbd8594b9	-0.06522507
134	0x3c818cf6	0.015814286
135	0xbe0220a7	-0.12707768
136	0x3e396a32	0.18106917
137	0xbdbb50a5	-0.09146241
138	0xbc7ad8d3	-0.015310484
139	0x3d860b49	0.06545121
140	0xbc0bda83	-0.008535984
141	0xbda6f813	-0.08152785
142	0x3deac00c	0.11462411
143	0xbd907639	-0.07053799
144	0xbd17cf55	-0.03706296
145	0xbd961b11	-0.07329381
146	0x3cd3550d	0.025797391
147	0xbc5ebb18	-0.013594411
148	0xbd52e823	-0.051490914
149	0x3e62ab12	0.2213557
150	0xbd808237	-0.062748365
151	0x3d236fd3	0.039901566
152	0x3e28fba5	0.16502245
153	0xbe0fcf50	-0.14043927
154	0x3d5fa732	0.05460281
155	0x3e3cdf7b	0.18444626
156	0xbd642fc1	-0.055709604
157	0x3d468cd8	0.048474163
158	0x3d9d8f1f	0.07693314
159	0xbdb57cb7	-0.08861678
160	0x3d2bed10	0.041974127
161	0x3e1833aa	0.14863458
162	0xbd1e604f	-0.038666066
163	0xbe172547	-0.14760314
164	0x3d852837	0.06501811
165	0x3d904c35	0.07045785
166	0x3e0a7581	0.13521387
167	0x3e0edce0	0.13951445
168	0xbcbf1de3	-0.02332968
169	0x3db7dc49	0.08977563
170	0xbe2ba6f2	-0.16762903
171	0x3d8504a6	0.06495027
172	0xbdd60f39	-0.10452122
173	0xbcf07130	-0.029350847
174	0xbd8e5103	-0.069490455
175	0xbd900240	-0.07031679
176	0x3dec0b2e	0.1152557
177	0xbc4c6fe2	-0.012477847
178	0x3daaa3a1	0.08331991
179	0x3e6621f5	0.22473891
180	0xbde70b32	-0.11281432
181	0x3bc2aef7	0.0059412676
182	0x3e03be4c	0.12865561
183	0xbd2afac0	-0.04174304
184	0x3dc9f08d	0.098603345
185	0x3e16b42b	0.14717166
186	0x3e547c28	0.20750487
187	0x3c7996fc	0.015233751
188	0xbbcd7555	-0.0062700906
189	0xbb4fa0da	-0.0031681568
190	0xbd91a95b	-0.0711238
191	0xbd9a3056	-0.075287506
192	0x3d67aa56	0.05655893
193	0xbe0608ab	-0.13089244
194	0x3e1bbc2a	0.15208498
195	0x3e167bea	0.14695707
196	0x3e03260e	0.12807485
197	0x3c827326	0.015924048
198	0xbd8f8acc	-0.07008895
199	0x3ddaa99b	0.10676881
200	0x3e73ff4f	0.23827861
201	0xbd3691f1	-0.044572774
202	0xbddb8683	-0.107190154
203	0x3db52b5f	0.08846163
204	0x3e19b552	0.15010574
205	0xbd8e75eb	-0.06956085
206	0xbd0a2529	-0.033726845
207	0x3c4f7194	0.0126613565
208	0xbdb0ec0a	-0.08638771
209	0x3ddc690e	0.10762225
210	0xbdee6517	-0.11640375
211	0xbd9b1f98	-0.075743854
212	0x3e382fd2	0.17986992
213	0x3da89797	0.082320385
214	0x3e2bbb7f	0.16770743
215	0xbcd00d65	-0.025397012
216	0xbc3baee3	-0.01145527
217	0xbdcbef07	-0.099577
218	0x3e5f68fa	0.21817389
219	0xbc142a5e	-0.009043304
220	0xbd7429db	-0.05961023
221	0x3d54f6d9	0.051993225
222	0x3d967384	0.073462516
223	0x3df0c3c9	0.11756093
224	0xbe473b9e	-0.19456336
225	0xbcbc4ee9	-0.022986846
226	0x3e1ec705	0.15505607
227	0xbd0e6a33	-0.03476925
228	0xbe02864e	-0.12746546
229	0x3e06b540	0.13155079
230	0x3bef9501	0.007311464
231	0x3d077917	0.033074465
232	0x3e4625f9	0.19350423
233	0xbd6c283a	-0.05765555
234	0x3d5befc9	0.053695474
235	0x3e14cf8d	0.145323
236	0x3dcb86bb	0.09937807
237	0xbdfeb61c	-0.12437078
238	0xbd89cb03	-0.067281745
239	0xbe389877	-0.1802691
240	0x3d0f20a5	0.03494324
241	0x3de063c3	0.10956528
242	0x3dc3e3f2	0.095649615
243	0x3d65f51c	0.056141958
244	0x3df4a6b4	0.119458586
245	0xbd10c10f	-0.035340365
246	0xbde93e0c	-0.113887876
247	0x3e20900c	0.1567995
248	0xbdec7709	-0.11546142
249	0xbc889cfd	-0.01667642
250	0x3e07237f	0.13197134
251	0x3dd4b572	0.103861704
252	0xbda686cd	-0.0813118
253	0xbca92969	-0.020649629
254	0xbd91556e	-0.070963725
255	0xbd445986	-0.04793694

net.layer1.0.bias f4 [64]
0	0xbe9e33a7	-0.30898783
1	0xbe30de21	-0.17272235
2	0x3e1ae97b	0.15128128
3	0x3e8f80ba	0.28027898
4	0x3d52c3b7	0.05145618
5	0x3e1fb5ce	0.15596697
6	0xbda54235	-0.080692686
7	0x3e8d2a33	0.27571258
8	0x3de26283	0.11053946
9	0x3e15dc77	0.14634882
10	0xbea18971	-0.31550172
11	0xbe0bc4f9	-0.13649358
12	0x3d4956a1	0.04915488
13	0xbd3a2cfd	-0.04545306
14	0xbd1ac12f	-0.03778189
15	0x3dad8f08	0.08474547
16	0xbe7fb56a	-0.24971548
17	0xbe9c036c	-0.3047136
18	0xbe6092ec	-0.21931046
19	0x3e982f77	0.29723713
20	0x3d691271	0.056902353
21	0x3e6e7338	0.2328614
22	0x3e70cf7c	0.23516649
23	0xbeb28d9f	-0.34873673
24	0xbd985a15	-0.07439057
25	0x3e491979	0.19638623
26	0x3e03e1ca	0.128791
27	0xbe2cfa0f	-0.16892265
28	0xbe105bf8	-0.14097583
29	0x3dc13170	0.094332576
30	0xbe646e29	-0.22307648
31	0xbe81bbb0	-0.25338507
32	0xbe960250	-0.2929864
33	0xbe76e5c0	-0.2411108
34	0x3eca4260	0.39503765
35	0xbdda17da	-0.106490806
36	0xbec7d70a	-0.3903125
37	0xbe6a9ed2	-0.22912148
38	0x3de4f9ec	0.11180481
39	0x3d131e13	0.035917353
40	0x3e4b8227	0.19873868
41	0x3e26f2d8	0.16303575
42	0x3ce2548b	0.027628204
43	0x3e2fb9e5	0.17160757
44	0xbdc35987	-0.0953856
45	0x3da4f5cb	0.08054694
46	0x3e43a96f	0.19107603
47	0x3e8936ae	0.2679953
48	0xbe2b3dd9	-0.16722812
49	0x3dd745b3	0.10511341
50	0x3ea7459b	0.32670292
51	0x3d9d0863	0.07667615
52	0xbc1c578b	-0.009542356
53	0x3ee35c27	0.44406244
54	0x3eaef538	0.34171462
55	0xbd9e5a51	-0.0773207
56	0x3d6c438f	0.057681616
57	0x3e47fb00	0.19529343
58	0x3e823c24	0.2543651
59	0x3e8da80e	0.27667278
60	0x3d826293	0.06366458
61	0x3ce134e9	0.02749105
62	0x3d41589a	0.047203638
63	0x3ebd11fe	0.3692779

net.layer1.1.weight f4 [64]
0	0x3faa5789	1.3307964
1	0x3f29b181	0.66286474
2	0x3f894744	1.0724874
3	0x3f74bc93	0.9560024
4	0x3f96f57d	1.1793667
5	0x3f39d559	0.7259117
6	0x3f8029df	1.0012778
7	0x3f3dd59c	0.7415407
8	0x3f9a18e2	1.2038844
9	0x3f309a54	0.68985486
10	0x3f504a08	0.8136296
11	0x3f336913	0.70082206
12	0x3f60a8bb	0.8775746
13	0x3f9e5bca	1.2371762
14	0x3f6323fb	0.88726777
15	0x3f61577e	0.8802413
16	0x3f67567e	0.9036635
17	0x3f6d97db	0.9280984
18	0x3f9caf48	1.2240992
19	0x3f3bffe2	0.7343732
20	0x3f63f416	0.8904432
21	0x3f63022d	0.88675195
22	0x3f5ae4ba	0.8550526
23	0x3f994bc6	1.1976249
24	0x3f20e570	0.62850094
25	0x3f6f2a35	0.9342378
26	0x3f71ecb2	0.94501793
27	0x3f8d77bb	1.1052164
28	0x3f5b2b5d	0.8561304
29	0x3f684b9b	0.90740365
30	0x3f7e863d	0.9942358
31	0x3f6a0be0	0.9142437
32	0x3f546295	0.82962924
33	0x3f8e1d3d	1.1102673
34	0x3f9d91e6	1.231015
35	0x3f8d08ca	1.1018307
36	0x3f933c4f	1.150278
37	0x3f8138cb	1.0095457
38	0x3f758b05	0.9591525
39	0x3f6d316b	0.9265353
40	0x3f8a4ca2	1.0804636
41	0x3f595f98	0.8491149
42	0x3f86537a	1.0494225
43	0x3fb8985c	1.4421496
44	0x3f75ea84	0.9606097
45	0x3f5df121	0.8669606
46	0x3f7f9917	0.9984297
47	0x3f956112	1.1670249
48	0x3f5afb57	0.85539764
49	0x3f94b4e7	1.1617707
50	0x3f6b9ede	0.9203929
51	0x3f43dd55	0.765096
52	0x3fab1e2d	1.3368584
53	0x3f6394c8	0.888989
54	0x3fac662b	1.3468679
55	0x3f6635b5	0.899257
56	0x3f9421d9	1.157283
57	0x3f5a53ab	0.8528392
58	0x3f85ea6c	1.0462165
59	0x3f2b38ab	0.66883343
60	0x3f4a2576	0.7896341
61	0x3f8e4a72	1.1116469
62	0x3f7c5935	0.9857362
63	0x3f9f3932	1.243933

net.layer1.1.bias f4 [64]
0	0xbd7a76a0	-0.061148286
1	0xbf10cd94	-0.5656369
2	0xbef0a8d9	-0.4700382
3	0xbdbc43c4	-0.09192613
4	0xbe42010d	-0.18945713
5	0xbef2d03a	-0.4742449
6	0xbeca2da6	-0.39487952
7	0xbeecb5ae	-0.4623236
8	0xbe667090	-0.22503877
9	0xbefa8b2b	-0.48934302
10	0xbe5ce543	-0.21571831
11	0xbee84c95	-0.45370927
12	0xbe417ab3	-0.18894462
13	0xbe28f83a	-0.16500941
14	0xbed31f52	-0.41234833
15	0xbe9ac6c7	-0.3022978
16	0xbe28e4d2	-0.16493538
17	0xbe3e17ac	-0.18563718
18	0xbe0b3195	-0.13593133
19	0xbd59007b	-0.052978974
20	0xbeacfe9c	-0.33788002
21	0xbe984847	-0.29742643
22	0xbd90a4b2	-0.07062663
23	0xbe4004ce	-0.18751833
24	0xbf2a2afd	-0.66471845
25	0xbded3140	-0.11581659
26	0xbd59e3b1	-0.05319566
27	0xbea08891	-0.31354192
28	0xbf079b12	-0.52970994
29	0xbe558899	-0.20852889
30	0x3d5492be	0.051897757
31	0xbe2ff423	-0.17182975
32	0xbe99d49e	-0.30045027
33	0xbd07cbe3	-0.033153426
34	0xbd72c99f	-0.059274312
35	0xbe988afb	-0.29793534
36	0xbebb0fc7	-0.36535475
37	0xbe7d0f0b	-0.2471277
38	0xbe5b037f	-0.21388052
39	0xbda6fc3e	-0.0815358
40	0xbef8039c	-0.48440254
41	0xbec66d9f	-0.3875551
42	0x3bfaeadb	0.0076573915
43	0xbc1821d9	-0.009285414
44	0x3d8d9f57	0.06915157
45	0xbea8f7e8	-0.33001637
46	0xbdc551d9	-0.09634752
47	0xbecbbb9f	-0.3979158
48	0xbf0f2451	-0.5591479
49	0xbed5e429	-0.41775635
50	0xbe19f934	-0.1503647
51	0xbf0e32a6	-0.55546033
52	0xbed8b4fc	-0.4232558
53	0xbdb25fef	-0.08709704
54	0xbda450fa	-0.080232576
55	0xbe49c507	-0.19704066
56	0xbe7d0394	-0.24708396
57	0xbd7df5e2	-0.06200207
58	0xbe718924	-0.23587471
59	0xbf1f3244	-0.62186074
60	0xbefd7233	-0.4950119
61	0xbee1157f	-0.43961713
62	0xbe3d2dfb	-0.18474571
63	0xbf155482	-0.58332074

net.layer1.1.running_mean f4 [64]
0	0x00000000	0.0
1	0x00000000	0.0
2	0x00000000	0.0
3	0x00000000	0.0
4	0x00000000	0.0
5	0x00000000	0.0
6	0x00000000	0.0
7	0x00000000	0.0
8	0x00000000	0.0
9	0x00000000	0.0
10	0x00000000	0.0
11	0x00000000	0.0
12	0x00000000	0.0
13	0x00000000	0.0
14	0x00000000	0.0
15	0x00000000	0.0
16	0x00000000	0.0
17	0x00000000	0.0
18	0x00000000	0.0
19	0x00000000	0.0
20	0x00000000	0.0
21	0x00000000	0.0
22	0x00000000	0.0
23	0x00000000	0.0
24	0x00000000	0.0
25	0x00000000	0.0
26	0x00000000	0.0
27	0x00000000	0.0
28	0x00000000	0.0
29	0x00000000	0.0
30	0x00000000	0.0
31	0x00000000	0.0
32	0x00000000	0.0
33	0x00000000	0.0
34	0x00000000	0.0
35	0x00000000	0.0
36	0x00000000	0.0
37	0x00000000	0.0
38	0x00000000	0.0
39	0x00000000	0.0
40	0x00000000	0.0
41	0x00000000	0.0
42	0x00000000	0.0
43	0x00000000	0.0
44	0x00000000	0.0
45	0x00000000	0.0
46	0x00000000	0.0
47	0x00000000	0.0
48	0x00000000	0.0
49	0x00000000	0.0
50	0x00000000	0.0
51	0x00000000	0.0
52	0x00000000	0.0
53	0x00000000	0.0
54	0x00000000	0.0
55	0x00000000	0.0
56	0x00000000	0.0
57	0x00000000	0.0
58	0x00000000	0.0
59	0x00000000	0.0
60	0x00000000	0.0
61	0x00000000	0.0
62	0x00000000	0.0
63	0x00000000	0.0

net.layer1.1.running_var f4 [64]
0	0x3f800000	1.0
1	0x3f800000	1.0
2	0x3f800000	1.0
3	0x3f800000	1.0
4	0x3f800000	1.0
5	0x3f800000	1.0
6	0x3f800000	1.0
7	0x3f800000	1.0
8	0x3f800000	1.0
9	0x3f800000	1.0
10	0x3f800000	1.0
11	0x3f800000	1.0
12	0x3f800000	1.0
13	0x3f800000	1.0
14	0x3f800000	1.0
15	0x3f800000	1.0
16	0x3f800000	1.0
17	0x3f800000	1.0
18	0x3f800000	1.0
19	0x3f800000	1.0
20	0x3f800000	1.0
21	0x3f800000	1.0
22	0x3f800000	1.0
23	0x3f800000	1.0
24	0x3f800000	1.0
25	0x3f800000	1.0
26	0x3f800000	1.0
27	0x3f800000	1.0
28	0x3f800000	1.0
29	0x3f800000	1.0
30	0x3f800000	1.0
31	0x3f800000	1.0
32	0x3f800000	1.0
33	0x3f800000	1.0
34	0x3f800000	1.0
35	0x3f800000	1.0
36	0x3f800000	1.0
37	0x3f800000	1.0
38	0x3f800000	1.0
39	0x3f800000	1.0
40	0x3f800000	1.0
41	0x3f800000	1.0
42	0x3f800000	1.0
43	0x3f800000	1.0
44	0x3f800000	1.0
45	0x3f800000	1.0
46	0x3f800000	1.0
47	0x3f800000	1.0
48	0x3f800000	1.0
49	0x3f800000	1.0
50	0x3f800000	1.0
51	0x3f800000	1.0
52	0x3f800000	1.0
53	0x3f800000	1.0
54	0x3f800000	1.0
55	0x3f800000	1.0
56	0x3f800000	1.0
57	0x3f800000	1.0
58	0x3f800000	1.0
59	0x3f800000	1.0
60	0x3f800000	1.0
61	0x3f800000	1.0
62	0x3f800000	1.0
63	0x3f800000	1.0

net.layer2.0.weight f4 [64, 64, 3, 3]
0	0x3d5be885	0.053688545
1	0x3d446192	0.047944613
2	0x3d26ef9b	0.04075585
3	0xbd0bd37a	-0.034137227
4	0x3daf72df	0.08566832
5	0xbdc0c533	-0.09412613
6	0xbd08a39d	-0.03335916
7	0xbe2d0a13	-0.16898374
8	0xbd037ad2	-0.032099552
9	0xbd87d470	-0.06632316
10	0xbcc48381	-0.023988487
11	0x3d6a1e93	0.057158064
12	0xbcfcb11b	-0.03084617
13	0x3c9351d7	0.01798336
14	0x3d59e5ad	0.05319755
15	0xbe4219c3	-0.1895514
16	0xbbc8fa52	-0.006133356
17	0x3d913773	0.07090654
18	0xbd91d009	-0.07119758
19	0xbdd76e9f	-0.10519146
20	0xbdbae35c	-0.091253966
21	0xbdf43cd8	-0.119256675
22	0xbd99a7f3	-0.07502737
23	0xbe038ed6	-0.12847456
24	0xbcd5dddc	-0.026106767
25	0xbdbc6fa5	-0.09200982
26	0xbe7b7d97	-0.24559627
27	0xbe653faa	-0.22387567
28	0xbe13c71e	-0.14431426
29	0xbdfd8081	-0.12378026
30	0xbc9e3ec4	-0.019317038
31	0x3d9afe50	0.075680375
32	0x3d055a82	0.032557018
33	0xbdb88d0f	-0.0901128
34	0xbde18993	-0.11012568
35	0xbda79c61	-0.08184124
36	0xbd0be7e7	-0.034156706
37	0x3d9368ca	0.07197721
38	0x3c452c37	0.012034467
39	0xbe1de7ee	-0.15420505
40	0xbe4e2ea5	-0.20134981
41	0xbd381103	-0.0449381
42	0xbbed3730	-0.007239245
43	0xbe59741e	-0.21235701
44	0xbb1b346b	-0.0023682367
45	0xbe45c42a	-0.19313112
46	0xbdb50935	-0.08839647
47	0x3d7365e3	0.05942334
48	0xbe11073e	-0.14162919
49	0x3d845672	0.06461801
50	0xbd008a03	-0.03138162
51	0xbd4c4bff	-0.049877163
52	0x3bb806c3	0.0056160404
53	0xbe059a62	-0.13047174
54	0xbd735351	-0.05940563
55	0xbe0e111f	-0.13873719
56	0x3bbbfe58	0.0057371072
57	0xbd40fd02	-0.047116287
58	0xbe2e6e19	-0.17034186
59	0xbdc4f87f	-0.09617709
60	0xbdeee045	-0.1166387
61	0xbe2e268c	-0.17006892
62	0xbb2804e1	-0.0025637674
63	0xbde83291	-0.1133777
64	0xbc98c9bf	-0.018650888
65	0xbd5efad3	-0.054438423
66	0xbd14a210	-0.036287367
67	0x3d82653a	0.06366964
68	0xbd097e8a	-0.033567943
69	0xbba6e095	-0.0050926902
70	0xbc4f4c38	-0.012652449
71	0xbe484c35	-0.1956032
72	0xbd292bc6	-0.04130151
73	0x3c3ce2ec	0.011528712
74	0xbe1c45eb	-0.15261047
75	0x3dca14d4	0.09867254
76	0xbd1c1cf3	-0.038113546
77	0xbba56448	-0.005047355
78	0x3d5ec55c	0.054387435
79	0xbda007f0	-0.07814014
80	0x3be6f20d	0.0070478977
81	0xbd932e82	-0.07186605
82	0xbe18d3c1	-0.14924528
83	0xbc383d42	-0.011245074
84	0xbda40af0	-0.08009899
85	0xbdf6fc80	-0.12059879
86	0x3d98bc9a	0.07457848
87	0xbdf28cc7	-0.118432574
88	0x3ca45d29	0.020063953
89	0x3d5f6578	0.054540128
90	0xbe1fc1d3	-0.15601282
91	0xbd82e49e	-0.063912615
92	0x3d96cc5e	0.07363199
93	0xbccb6bfc	-0.024831764
94	0x3dd9d211	0.1063577
95	0x3e4388d8	0.1909517
96	0xbd8af417	-0.06784838
97	0xbdd43679	-0.10361952
98	0x3d561095	0.052261908
99	0xbd9be894	-0.0761272
100	0xbde11ac5	-0.10991434
101	0x3ce8c90c	0.02841618
102	0xbd90390a	-0.07042129
103	0xbcafa555	-0.021441141
104	0x3d0d108a	0.0344396
105	0xbe0576ea	-0.13033643
106	0xbd8c1c4f	-0.06841337
107	0xbce18334	-0.027528383
108	0xbd129c62	-0.03579367
109	0xbc967a55	-0.01836888
110	0xbd2ccf35	-0.042189796
111	0x3c085367	0.008320666
112	0x3d716a0c	0.058939025
113	0x3d249805	0.04018404
114	0xbd604d62	-0.054761298
115	0xbe10b39c	-0.14131016
116	0x3c0a0a3f	0.008425294
117	0xbc4f70a1	-0.01266113
118	0x3cede97f	0.029042004
119	0xbd9b6842	-0.07588245
120	0x3c6b6326	0.014366901
121	0xbd6eba41	-0.058283094
122	0x3d8ce41d	0.06879447
123	0xbe31550b	-0.17317598
124	0xbe315158	-0.17316186
125	0xbe38bc69	-0.18040623
126	0xbda78af8	-0.08180803
127	0x3c319b30	0.010840222
128	0xbdae6569	-0.08515436
129	0xbdd7a85d	-0.105301596
130	0xbe09da74	-0.1346224
131	0xbd11fb99	-0.035640333
132	0xbe33eddb	-0.17571203
133	0xbd1bdf3c	-0.03805469
134	0xbd9a2a94	-0.075276524
135	0x3da4be1e	0.080440745
136	0x3d09f593	0.033681463
137	0x3df88c9b	0.12136193
138	0x3bab8f3a	0.00523558
139	0xbc849375	-0.016183594
140	0x3e4e5fa5	0.20153673
141	0xbddd8ab2	-0.1081747
142	0x3d0ceb6a	0.034404196
143	0x3de989f0	0.114032626
144	0xbd992071	-0.07476891
145	0xbdd3c0a5	-0.103394784
146	0xbd44fb13	-0.048091006
147	0xbe09e2ea	-0.13465467
148	0xbcedfe44	-0.029051907
149	0x3cfd8ee8	0.030951932
150	0xbd9429d0	-0.072345376
151	0xbdf34a54	-0.11879411
152	0x3d8f5532	0.069986716
153	0xbbcb82d4	-0.0062106643
154	0xbc8b1b1c	-0.0169807
155	0xbdcab32e	-0.09897457
156	0x3d4d1b9a	0.05007515
157	0x3d453500	0.048146248
158	0x3dad7040	0.084686756
159	0xbcde29c1	-0.02711952
160	0xbcdfacff	-0.02730417
161	0x3e496d43	0.19670586
162	0xbdd1f6e0	-0.10252166
163	0xbd88c01a	-0.066772655
164	0x3c8616f7	0.016368372
165	0x3d5d02cb	0.05395774
166	0x3d5a9e69	0.053373728
167	0x3c9acfb2	0.018897865
168	0x3c8d46aa	0.01724561
169	0xbe45fadd	-0.19333978
170	0xbe2b529e	-0.16730735
171	0xbe21a451	-0.15785338
172	0xbe22fe34	-0.15917283
173	0xbd3bd580	-0.045857906
174	0xbe3a3008	-0.18182385
175	0xbe4173c8	-0.18891823
176	0xbe09ec0d	-0.13468952
177	0xbe088882	-0.13333324
178	0xbd0c3436	-0.03422948
179	0xbe1e3c71	-0.15452744
180	0xbe1af19d	-0.1513123
181	0xbd981a8a	-0.07426937
182	0xbd87a6c5	-0.06623606
183	0xbd586bce	-0.052837186
184	0x3ce4ea7b	0.02794384
185	0xbab6201b	-0.0013895066
186	0xbd8a4e0b	-0.06753167
187	0x3caa1f4e	0.02076688
188	0x3d42704b	0.047470372
189	0xbdc0afa5	-0.094085015
190	0xbe0aa524	-0.13539559
191	0xbdaa30ce	-0.0831009
192	0xbd4020c2	-0.04690624
193	0xbd12483d	-0.035713423
194	0xbdb439e9	-0.08800108
195	0xbdc89daa	-0.09795697
196	0xbd62cf0b	-0.055373233
197	0xbe23d575	-0.15999396
198	0xbcc3ae99	-0.023886966
199	0xbd144f5a	-0.036208488
200	0xbdb23663	-0.0870178
201	0xbc89da9e	-0.016827878
202	0xbd4a29be	-0.049356215
203	0xbc8d3b4e	-0.017240193
204	0xbda28074	-0.07934657
205	0xbe4ef068	-0.20208895
206	0xbddf97ec	-0.10917649
207	0xbe04234d	-0.12904091
208	0xbe291fb4	-0.16516
209	0xbda03bd4	-0.07823911
210	0xbe216209	-0.15760054
211	0xbe59c1cf	-0.21265338
212	0xbd8397b6	-0.06425421
213	0xbe3d7b0c	-0.1850397
214	0xbe215e54	-0.1575864
215	0xbdca87a0	-0.0988915
216	0xbdd45ded	-0.103694774
217	0xbbcf480c	-0.0063257273
218	0xbc68be29	-0.014205494
219	0xbde09be0	-0.10967231
220	0xbddc651a	-0.10761471
221	0xbcb53574	-0.022120215
222	0xbdba5d30	-0.09099805
223	0xbcb8fc41	-0.022581222
224	0x3d325ffc	0.04354857
225	0xbb685d13	-0.0035455867
226	0xbc2ee7ac	-0.010675352
227	0x3e02a9c7	0.12760077
228	0xbd18538c	-0.03718905
229	0x3d48fafd	0.049067486
230	0x3e5e2192	0.21692494
231	0xbdb214ff	-0.08695411
232	0x3cd325d2	0.02577487
233	0x3e84008f	0.25781676
234	0xbdcb1e12	-0.09917845
235	0xbd9a9cfd	-0.075494744
236	0xbde078f8	-0.10960573
237	0xbd0e09ce	-0.03467732
238	0x3c6d620b	0.014488707
239	0xbd994457	-0.07483738
240	0xbe1e1f5a	-0.15441647
241	0xbdac7b2a	-0.08421929
242	0xbdbcc637	-0.09217494
243	0xbda4986f	-0.08036887
244	0x3bd3f47c	0.006468354
245	0x3e001113	0.12506513
246	0x3b72a975	0.0037027274
247	0xbd86b109	-0.065767355
248	0x3e8b2ae2	0.27181154
249	0xbe048062	-0.12939599
250	0xbd4f7fba	-0.05065892
251	0x3e40173c	0.18758863
252	0xbccc6a4e	-0.024953034
253	0xbc9f94f5	-0.019480208
254	0x3de4db37	0.111746244
255	0xbc49c575	-0.012315144

net.layer2.0.bias f4 [64]
0	0x3b9b392e	0.004737041
1	0xbd012fe0	-0.031539798
2	0xbd088872	-0.03333325
3	0xbd006bf8	-0.031352967
4	0x3b691c91	0.0035570005
5	0x3be96bcd	0.0071234466
6	0x3cdb98f1	0.026806327
7	0xbbe65360	-0.007028982
8	0xbd08fe6f	-0.03344577
9	0xbccea06d	-0.025222981
10	0x3d128ee6	0.03578081
11	0xbba875d7	-0.0051410007
12	0x3cf11975	0.029431084
13	0xbc80500a	-0.015663166
14	0xbc9dcc2c	-0.019262396
15	0xbceacad3	-0.028661167
16	0xbd1d0e50	-0.038343728
17	0x3cb3b1c3	0.02193535
18	0xbc52bd70	-0.012862548
19	0xbce66544	-0.02812446
20	0x3d23d309	0.03999618
21	0xba69183a	-0.00088918547
22	0x3bc21548	0.005922947
23	0x3c1f37a3	0.009717855
24	0x3d2a9f3d	0.041655768
25	0xb97484aa	-0.00023319075
26	0xbbba484f	-0.0056848894
27	0xbca61cb1	-0.020277353
28	0x3a635cae	0.0008673173
29	0x3cbf017d	0.02331614
30	0xbc2ab0ec	-0.010418158
31	0xbcf38255	-0.029725233
32	0x3ba8bb47	0.0051492783
33	0xbb698370	-0.0035631321
34	0xbb052d37	-0.002032114
35	0x3b87624b	0.0041315905
36	0xbd16ae6c	-0.036787435
37	0x3c6adf94	0.014335532
38	0x3d0522f9	0.032504056
39	0x3b032b4d	0.0020014823
40	0x3d06a88e	0.03287559
41	0x3cdc0b7b	0.026860943
42	0xbd240ecc	-0.040053174
43	0x3caebe89	0.021331089
44	0xbd0d4f00	-0.03449917
45	0x3ca13092	0.01967648
46	0x3cd4ce8e	0.0259774
47	0x3c7be84b	0.015375207
48	0x3d306fc6	0.043075345
49	0xbd01df70	-0.031707227
50	0x3cc151d5	0.02359859
51	0x3ca73d37	0.020414932
52	0x3ce723e3	0.028215354
53	0x3cb22689	0.02174689
54	0x3d08efac	0.033431694
55	0x3cd1f6c1	0.025630357
56	0xbd1ac80c	-0.037788436
57	0xbd169f98	-0.036773294
58	0x3cc1a9d2	0.023640547
59	0x3b7e336a	0.003878797
60	0x3cc39bcf	0.023878006
61	0x3cda423d	0.026642913
62	0x3ccb5544	0.024820931
63	0xbd0a878c	-0.033820674

net.layer2.1.weight f4 [64]
0	0x3f60aa3e	0.8775977
1	0x3f65c218	0.8974929
2	0x3f90d608	1.1315317
3	0x3f553724	0.8328726
4	0x3f782196	0.9692625
5	0x3f605142	0.8762399
6	0x3f26fea7	0.6523232
7	0x3f606f5b	0.87669915
8	0x3fa4976a	1.2858708
9	0x3f781df8	0.9692073
10	0x3f413bb1	0.75481707
11	0x3f80125b	1.0005602
12	0x3f99b9e0	1.200985
13	0x3f484f5d	0.782461
14	0x3f6a15bd	0.9143942
15	0x3f7b8ec4	0.9826472
16	0x3f4a3726	0.789904
17	0x3f5c100c	0.85961986
18	0x3f6cf688	0.92563677
19	0x3f644493	0.89167136
20	0x3f6b4e5a	0.9191643
21	0x3f69e365	0.913626
22	0x3f9128b7	1.134055
23	0x3f654117	0.89552444
24	0x3f950b83	1.1644138
25	0x3f94cd77	1.1625203
26	0x3f85d83d	1.0456616
27	0x3f798f68	0.97484446
28	0x3f7ba5ef	0.9830007
29	0x3f7d78d1	0.99012476
30	0x3f8375d5	1.0270334
31	0x3f2ae7c2	0.66759884
32	0x3f4ee780	0.8082199
33	0x3f6a42ff	0.9150848
34	0x3f43ea34	0.7652924
35	0x3f5b8314	0.85746884
36	0x3f8469b8	1.0344763
37	0x3f40e616	0.75351083
38	0x3f8d44c8	1.1036615
39	0x3f6d0b82	0.92595685
40	0x3f779dce	0.96725166
41	0x3fb8c3ac	1.4434714
42	0x3f6287a8	0.88488245
43	0x3f6518e1	0.8949109
44	0x3f576f8e	0.84154594
45	0x3f6b541e	0.9192523
46	0x3f6cbff9	0.9248043
47	0x3f501501	0.8128205
48	0x3f7cb943	0.98720187
49	0x3f76b29d	0.9636629
50	0x3f6fa13a	0.9360539
51	0x3f847d59	1.0350753
52	0x3f74edb5	0.9567521
53	0x3f85cdc6	1.0453422
54	0x3f7328d8	0.949842
55	0x3f68e3b2	0.90972435
56	0x3f780a76	0.9689096
57	0x3f8f522f	1.1196955
58	0x3f5c9248	0.8616071
59	0x3f472dc7	0.77804226
60	0x3f62703a	0.88452494
61	0x3f891c7b	1.0711817
62	0x3f521125	0.8205741
63	0x3f6ecbd7	0.93279785

net.layer2.1.bias f4 [64]
0	0xbeb4afed	-0.3529047
1	0xbe6c8a0a	-0.23099533
2	0xbe9118f0	-0.28339338
3	0xbe959590	-0.2921567
4	0xbe816ef5	-0.25279966
5	0xbebd6338	-0.3698976
6	0xbf0834c6	-0.53205526
7	0x3cd7b7c4	0.026332743
8	0xbe8367f9	-0.25665262
9	0xbe1b882b	-0.15188663
10	0xbef610ee	-0.4805979
11	0xbf0a2bca	-0.53973067
12	0xbea0b932	-0.31391293
13	0xbd6b5074	-0.057449773
14	0xbe6af058	-0.22943246
15	0xbbc67c0b	-0.0060572675
16	0xbea81c3a	-0.32834035
17	0xbe62f30d	-0.22163029
18	0xbd2f1718	-0.042746633
19	0xbed1ac8f	-0.40951964
20	0xbec786d7	-0.38970062
21	0xbe74f1db	-0.23920386
22	0xbcdf4af9	-0.02725743
23	0xbe5e0ff1	-0.21685769
24	0xbe924ad6	-0.2857272
25	0xbe5c5dc0	-0.21520138
26	0xbe433b6b	-0.19065635
27	0xbeab0a90	-0.33406496
28	0xbe2bce38	-0.16777885
29	0xbe8220f6	-0.25415772
30	0x3cbde9df	0.023182807
31	0xbf2a42d4	-0.6650822
32	0xbda8ee85	-0.08248619
33	0xbde3aa2d	-0.11116443
34	0xbef6edca	-0.48228294
35	0xbf3756b7	-0.7161669
36	0xbeb24438	-0.34817672
37	0xbf2982a0	-0.6621494
38	0xbec5f905	-0.3866655
39	0xbe53af24	-0.2067228
40	0xbebfd5cb	-0.374678
41	0xbe7d3a65	-0.24729307
42	0xbe971487	-0.2950785
43	0xbf00134c	-0.50029445
44	0xbd93db62	-0.07219578
45	0xbe9d824c	-0.3076347
46	0xbe06f9d4	-0.1318124
47	0xbe11d70c	-0.1424219
48	0xbebe94c0	-0.37222862
49	0xbe0d190e	-0.13779089
50	0xbea36ab0	-0.31917334
51	0xbea63dfb	-0.32469162
52	0xbdc48b40	-0.09596872
53	0xbe390758	-0.18069208
54	0xbf0c0258	-0.54691076
55	0xbee7788c	-0.45209157
56	0xbc7aa42f	-0.0152979335
57	0xbe737c02	-0.23777774
58	0xbf0855c1	-0.5325585
59	0xbe76a831	-0.24087597
60	0xbe6d699b	-0.23184817
61	0xbd179256	-0.03700479
62	0xbe6c7d46	-0.23094663
63	0xbe8c735a	-0.27431756

net.layer2.1.running_mean f4 [64]
0	0x00000000	0.0
1	0x00000000	0.0
2	0x00000000	0.0
3	0x00000000	0.0
4	0x00000000	0.0
5	0x00000000	0.0
6	0x00000000	0.0
7	0x00000000	0.0
8	0x00000000	0.0
9	0x00000000	0.0
10	0x00000000	0.0
11	0x00000000	0.0
12	0x00000000	0.0
13	0x00000000	0.0
14	0x00000000	0.0
15	0x00000000	0.0
16	0x00000000	0.0
17	0x00000000	0.0
18	0x00000000	0.0
19	0x00000000	0.0
20	0x00000000	0.0
21	0x00000000	0.0
22	0x00000000	0.0
23	0x00000000	0.0
24	0x00000000	0.0
25	0x00000000	0.0
26	0x00000000	0.0
27	0x00000000	0.0
28	0x00000000	0.0
29	0x00000000	0.0
30	0x00000000	0.0
31	0x00000000	0.0
32	0x00000000	0.0
33	0x00000000	0.0
34	0x00000000	0.0
35	0x00000000	0.0
36	0x00000000	0.0
37	0x00000000	0.0
38	0x00000000	0.0
39	0x00000000	0.0
40	0x00000000	0.0
41	0x00000000	0.0
42	0x00000000	0.0
43	0x00000000	0.0
44	0x00000000	0.0
45	0x00000000	0.0
46	0x00000000	0.0
47	0x00000000	0.0
48	0x00000000	0.0
49	0x00000000	0.0
50	0x00000000	0.0
51	0x00000000	0.0
52	0x00000000	0.0
53	0x00000000	0.0
54	0x00000000	0.0
55	0x00000000	0.0
56	0x00000000	0.0
57	0x00000000	0.0
58	0x00000000	0.0
59	0x00000000	0.0
60	0x00000000	0.0
61	0x00000000	0.0
62	0x00000000	0.0
63	0x00000000	0.0

net.layer2.1.running_var f4 [64]
0	0x3f800000	1.0
1	0x3f800000	1.0
2	0x3f800000	1.0
3	0x3f800000	1.0
4	0x3f800000	1.0
5	0x3f800000	1.0
6	0x3f800000	1.0
7	0x3f800000	1.0
8	0x3f800000	1.0
9	0x3f800000	1.0
10	0x3f800000	1.0
11	0x3f800000	1.0
12	0x3f800000	1.0
13	0x3f800000	1.0
14	0x3f800000	1.0
15	0x3f800000	1.0
16	0x3f800000	1.0
17	0x3f800000	1.0
18	0x3f800000	1.0
19	0x3f800000	1.0
20	0x3f800000	1.0
21	0x3f800000	1.0
22	0x3f800000	1.0
23	0x3f800000	1.0
24	0x3f800000	1.0
25	0x3f800000	1.0
26	0x3f800000	1.0
27	0x3f800000	1.0
28	0x3f800000	1.0
29	0x3f800000	1.0
30	0x3f800000	1.0
31	0x3f800000	1.0
32	0x3f800000	1.0
33	0x3f800000	1.0
34	0x3f800000	1.0
35	0x3f800000	1.0
36	0x3f800000	1.0
37	0x3f800000	1.0
38	0x3f800000	1.0
39	0x3f800000	1.0
40	0x3f800000	1.0
41	0x3f800000	1.0
42	0x3f800000	1.0
43	0x3f800000	1.0
44	0x3f800000	1.0
45	0x3f800000	1.0
46	0x3f800000	1.0
47	0x3f800000	1.0
48	0x3f800000	1.0
49	0x3f800000	1.0
50	0x3f800000	1.0
51	0x3f800000	1.0
52	0x3f800000	1.0
53	0x3f800000	1.0
54	0x3f800000	1.0
55	0x3f800000	1.0
56	0x3f800000	1.0
57	0x3f800000	1.0
58	0x3f800000	1.0
59	0x3f800000	1.0
60	0x3f800000	1.0
61	0x3f800000	1.0
62	0x3f800000	1.0
63	0x3f800000	1.0

net.layer3.0.weight f4 [64, 64, 3, 3]
0	0x3c8288e3	0.015934413
1	0x3da2804b	0.07934626
2	0xbc0f0e69	-0.008731463
3	0x3df5f645	0.12009863
4	0x3d48bbba	0.049007155
5	0x3d0a0807	0.03369906
6	0xbd607a9b	-0.054804426
7	0xbcdf79cd	-0.027279759
8	0xbd130b6f	-0.035899576
9	0x3bb3bcf2	0.0054851705
10	0xbca6eade	-0.020375665
11	0xbd0beaea	-0.03415958
12	0xbce1904c	-0.027534626
13	0x3c212650	0.009835795
14	0x3d19b5ce	0.037526898
15	0xbc3d8d6f	-0.011569365
16	0xbc76de72	-0.0150676835
17	0xbd9048c7	-0.07045131
18	0xbd0115f7	-0.031515088
19	0xbce3ac6c	-0.027792178
20	0xbd0d2058	-0.034454674
21	0x3d71c1aa	0.059022583
22	0xbc1a282f	-0.009408995
23	0xbd8cec6f	-0.06881034
24	0x3ce163b1	0.027513357
25	0x3bd24046	0.0064163534
26	0xbd9d0bc7	-0.07668262
27	0x3d0650d1	0.032791916
28	0xbd62930d	-0.05531602
29	0x3d274805	0.040840168
30	0xbd877721	-0.06614519
31	0xbd007fe3	-0.031371962
32	0xbda78d73	-0.08181276
33	0xbd0ed1c1	-0.034868006
34	0xbd892266	-0.06696014
35	0xbd9be6c7	-0.07612377
36	0xbc5d606e	-0.01351176
37	0x3cfc29e7	0.0307817
38	0xbd4aea4a	-0.04953984
39	0xbd0c35b1	-0.03423089
40	0xbd4f81cb	-0.05066089
41	0xbc628ba6	-0.01382724
42	0x3d418cf9	0.047253583
43	0xbcf26944	-0.02959121
44	0xbda659b0	-0.08122575
45	0xbd135ab1	-0.035975162
46	0x3d11eae9	0.03562442
47	0x3c5e0950	0.013552025
48	0xbbd66002	-0.0065422067
49	0x3d30837b	0.04309414
50	0xbcafce1c	-0.021460585
51	0xbaa30d0f	-0.0012439805
52	0xbdb0a8ea	-0.08625968
53	0x3bbf8c3e	0.0058455756
54	0xbc80bbff	-0.015714644
55	0xbba14ea7	-0.004922706
56	0xbd4fcf5f	-0.050734874
57	0xbd4eabd9	-0.050456855
58	0xbd0944d0	-0.03351289
59	0x3ca1d677	0.019755585
60	0x3a07641e	0.000516476
61	0x3ccf002e	0.02526864
62	0xbc1bd8df	-0.009512155
63	0x3d176bf5	0.03696819
64	0xbd29a931	-0.04142112
65	0xbcdfea3b	-0.02733337
66	0xbd02b2d6	-0.031908832
67	0xbc683fc0	-0.014175355
68	0xbd7478e1	-0.05968559
69	0x3d35cd72	0.04438538
70	0xbbf23fe4	-0.0073928703
71	0xbd8543ae	-0.065070495
72	0x3d510168	0.05102673
73	0x3e4bb172	0.19891909
74	0xbd66bda7	-0.05633321
75	0x3dd4d0e8	0.10391408
76	0x3e562131	0.20911099
77	0x3d00e281	0.03146601
78	0xbb66a40b	-0.0035192992
79	0x3d5938f1	0.05303282
80	0xbde57586	-0.112040564
81	0x3d2d1cd2	0.042263813
82	0xbc48d772	-0.012258397
83	0xbcaf31bd	-0.021386022
84	0xbbb8db91	-0.0056414087
85	0x3d29186d	0.04128306
86	0x3b150dda	0.0022743852
87	0xbc93ad7c	-0.01802706
88	0xbcb74637	-0.022372348
89	0x3c0a8768	0.008455135
90	0x3d58ba51	0.05291206
91	0xbca94ec3	-0.02066744
92	0x3cf18a96	0.029485028
93	0xb9575368	-0.00020535069
94	0xbc4d0b09	-0.012514838
95	0x3caebf7e	0.021331545
96	0x3db30c6b	0.08742603
97	0x3ca60696	0.020266812
98	0x3d276839	0.04087088
99	0x3d050fd5	0.0324858
100	0x3b1d2094	0.0023975717
101	0x3c619ed0	0.013770774
102	0x3c2de4d2	0.010613637
103	0x3cecb28b	0.02889373
104	0x3d427750	0.047477067
105	0x3d19621a	0.037447073
106	0x3be9b972	0.0071327025
107	0xbb774a66	-0.0037733554
108	0xbd12dfd1	-0.03585798
109	0x3de69707	0.11259275
110	0x3aabaa5e	0.0013097038
111	0x3dffb4e1	0.12485672
112	0x3e1e5e4a	0.15465656
113	0x3d5787a1	0.05261958
114	0x3b8d4a20	0.004311815
115	0x3d33ddc1	0.043912653
116	0x3b6c5af6	0.003606496
117	0x3d86a2fb	0.06574055
118	0xbd01cd09	-0.031689677
119	0xbd255b9b	-0.040370565
120	0xbd0290d8	-0.031876415
121	0x3d06e82b	0.032936256
122	0xbe1ac651	-0.15114714
123	0xbce0b3c5	-0.02742947
124	0xbcb7dc7a	-0.022443999
125	0xbd1485e5	-0.036260504
126	0xbc4a72fd	-0.012356517
127	0xbb9b92da	-0.0047477307
128	0xbd3afeda	-0.0456532
129	0x3dae2acf	0.08504259
130	0x3dd73320	0.10507798
131	0xbd7d8079	-0.0618901
132	0x3b42ebd0	0.0029742606
133	0x3d625990	0.055261195
134	0xbe0abcd9	-0.13548602
135	0xbd04b62c	-0.032400295
136	0xbd4b7682	-0.049673565
137	0x3b883ae1	0.0041574095
138	0xbcd5427b	-0.026032677
139	0xbc996825	-0.018726418
140	0xbd374036	-0.04473897
141	0x3a93cd67	0.0011276425
142	0xbc2b72a5	-0.010464345
143	0x3cfb85de	0.030703481
144	0xbcec0774	-0.028812148
145	0x3de9cdc4	0.114162
146	0x3d963d92	0.07335962
147	0x3d8bcef4	0.068265826
148	0x3cae1072	0.021248076
149	0xbd31a7ab	-0.04337279
150	0xbcb72f53	-0.022361433
151	0xbdc69ca4	-0.096978456
152	0xbdf81e56	-0.12115161
153	0x3d0bcafe	0.034129135
154	0x3cb7c1db	0.022431305
155	0xbd9b11fb	-0.07571789
156	0x3cc543ee	0.024080243
157	0x3d8dec5a	0.06929846
158	0xbd31eaaa	-0.043436684
159	0x3d13e91c	0.036110982
160	0xbbcacaba	-0.0061887177
161	0xbd94fafa	-0.072744325
162	0x3b32b459	0.002726814
163	0x3c948c52	0.018133316
164	0xbc6ddbf2	-0.014517771
165	0x3d63d421	0.055622224
166	0xbd97d3ab	-0.07413419
167	0xbd8b544f	-0.0680319
168	0xbd99d555	-0.07511393
169	0xbd9d0104	-0.07666209
170	0xbd89e37b	-0.067328416
171	0x3bf8de6f	0.0075948755
172	0xbc5c295e	-0.013437597
173	0xbd779ea9	-0.060454044
174	0xbd3fb5ed	-0.046804357
175	0xbd82b966	-0.06383018
176	0x3ca14c47	0.019689692
177	0xbc6cef25	-0.014461313
178	0xbd3f0966	-0.046639822
179	0x3c2afb28	0.010435857
180	0x3c8b0d19	0.016974019
181	0xba2041a1	-0.0006113295
182	0xbd4c30b0	-0.04985112
183	0xbcf015bb	-0.029307237
184	0xbc31aee2	-0.010844918
185	0xbd11a5f7	-0.035558667
186	0x3aaab5a4	0.0013024104
187	0xbd54c93f	-0.051949736
188	0xbc9ebece	-0.019378092
189	0xbd71ec01	-0.05906296
190	0xbd4b38cc	-0.049614713
191	0xbd42a8b5	-0.047524173
192	0x3ca0fafa	0.019650925
193	0xbb91b78a	-0.0044469284
194	0x3c64f6bd	0.013974843
195	0xbba383cc	-0.0049900766
196	0xbd858e5b	-0.06521293
197	0xbcb736a1	-0.022364916
198	0xbcc19783	-0.023631817
199	0xbcf16b1f	-0.029470025
200	0xbcd2927e	-0.025704619
201	0x3c2cc9be	0.010546146
202	0xbd0458b0	-0.03231114
203	0xbab285db	-0.0013620214
204	0xbcae1828	-0.021251753
205	0xbcfdf4cd	-0.03100052
206	0xbc055861	-0.008138747
207	0x3d5596e8	0.05214587
208	0x3cb08743	0.021548873
209	0xbd813d44	-0.063105136
210	0x3d168f37	0.036757674
211	0x3d172d03	0.03690816
212	0xbd420737	-0.04737016
213	0xbca20161	-0.019776048
214	0xbd1e6c75	-0.03867765
215	0xbdccca0e	-0.099994764
216	0xbcf42164	-0.029801078
217	0x3d59707f	0.0530858
218	0x3c5467af	0.012964173
219	0x3e15efda	0.14642277
220	0x3e15a93a	0.14615336
221	0x3d91febd	0.071286656
222	0x3d1190bf	0.03553843
223	0x3dd9c758	0.10633725
224	0xbd073f20	-0.033019185
225	0xbc3c4e66	-0.011493301
226	0xbca0eefe	-0.01964521
227	0xbcb3fda9	-0.02197154
228	0xbd59e3bf	-0.05319571
229	0xbdab7da2	-0.08373572
230	0xbcc5c811	-0.02414325
231	0xbd502e3c	-0.050825343
232	0xbd4946b4	-0.049139693
233	0xbd11187a	-0.035423733
234	0xbcbce9cf	-0.023060707
235	0xbd324567	-0.04352322
236	0x3d0c43f9	0.03424451
237	0xbd0a3773	-0.033744287
238	0xbcd4f220	-0.02599436
239	0xbcf935f6	-0.030421238
240	0xbd01ed2a	-0.031720318
241	0xbd5586e6	-0.052130602
242	0xbd0df573	-0.034657907
243	0xbc8a0a09	-0.016850488
244	0xbd21bc52	-0.039486237
245	0xbcd1379b	-0.02553921
246	0xbd4470e7	-0.047959235
247	0xbd0cb90d	-0.034356166
248	0x3cdf762c	0.027278028
249	0xbc85651a	-0.01628356
250	0xb88211d6	-6.202205e-05
251	0x3c8e583b	0.017376056
252	0x3d370355	0.044680912
253	0xbd75ea4a	-0.06003789
254	0xbcc94b1b	-0.024571946
255	0x3d19fe42	0.037595995

net.layer3.0.bias f4 [64]
0	0xbccdb71f	-0.025111733
1	0x3d1eccaf	0.03876942
2	0x3d029bed	0.031886984
3	0x3d1227e3	0.03568257
4	0x3d254094	0.04034479
5	0x3c3d6905	0.011560683
6	0xbbf5eb29	-0.00750484
7	0x3cbc1cd6	0.022962969
8	0xbcdbffff	-0.026855467
9	0x3bc948e0	0.0061427206
10	0x3d1726e8	0.03690234
11	0x3d15b7dc	0.036552295
12	0x3a86b5f3	0.0010277614
13	0x3a5833a6	0.00082474423
14	0xbcaf4d21	-0.021399083
15	0x3caf712d	0.021416271
16	0x3cc1f631	0.023676964
17	0x3ce71a28	0.028210714
18	0x3c24ee31	0.010066555
19	0xbd1ffa8e	-0.039057307
20	0xbb449283	-0.0029994554
21	0x3cd4b0fd	0.0259633
22	0x3bd50f5d	0.0065020756
23	0xbc0a4dcb	-0.008441399
24	0x3d1534f7	0.036427464
25	0xbc4cdca8	-0.01250378
26	0x3d1d95e8	0.03847304
27	0x3c81744b	0.015802523
28	0x3d0a2dfd	0.033735264
29	0x3cca10d2	0.024666224
30	0xbd006aa9	-0.03135172
31	0xbccdbc7f	-0.025114296
32	0xbcd356d7	-0.025798244
33	0xbbee801e	-0.0072784564
34	0x3c616321	0.013756544
35	0x3cd5868b	0.026065132
36	0xbc4d9bcd	-0.012549353
37	0xbc82350b	-0.015894433
38	0xbd25a661	-0.040441874
39	0x3c953353	0.01821295
40	0x3c593cd0	0.013259128
41	0xbb37567d	-0.0027975135
42	0x3aeeb720	0.0018212534
43	0x3c67f0d6	0.014156541
44	0xbb67e66a	-0.003538514
45	0x3c0e1193	0.008671182
46	0xbca6c749	-0.020358698
47	0x3c94a4b7	0.018144948
48	0x3d00b57e	0.031423084
49	0xbcbe99a0	-0.023266613
50	0xbd16e26b	-0.036837023
51	0x3d1222f3	0.03567786
52	0x3ae7e6b6	0.0017692659
53	0xbcc39ad5	-0.02387754
54	0xbc613113	-0.01374461
55	0x3c95eb22	0.018300597
56	0x3d1c6af1	0.038187925
57	0x3cf073de	0.029352125
58	0xbcd40324	-0.025880404
59	0xbc888c4c	-0.016668461
60	0x3d25de34	0.040495113
61	0xbccea3a6	-0.025224518
62	0x3cd1e82b	0.025623402
63	0x3c511508	0.012761362

net.layer3.1.weight f4 [64]
0	0x3f666ced	0.9000996
1	0x3f6176e6	0.8807205
2	0x3f112276	0.5669321
3	0x3f26e829	0.65198
4	0x3f26f995	0.6522458
5	0x3f8da366	1.106549
6	0x3f15b474	0.58478475
7	0x3f56a930	0.8385191
8	0x3f3ec912	0.7452556
9	0x3f61eca3	0.88251704
10	0x3f9a30f8	1.2046194
11	0x3f8223ef	1.0167216
12	0x3f2cfa02	0.6756898
13	0x3f3c8f80	0.73656464
14	0x3f0a7653	0.540868
15	0x3f45f24e	0.7732285
16	0x3f596334	0.84916997
17	0x3f74af09	0.9557958
18	0x3f51ee5c	0.8200433
19	0x3f37e388	0.7183156
20	0x3f17d2eb	0.5930621
21	0x3f18b9d4	0.5965855
22	0x3f50a870	0.81507015
23	0x3f5bd6d3	0.8587467
24	0x3f655e3d	0.8959692
25	0x3f7fced2	0.9992496
26	0x3f195947	0.5990185
27	0x3f19c47e	0.6006545
28	0x3f6e5cfd	0.9311064
29	0x3f8f5e9a	1.1200745
30	0x3f6a2ef7	0.9147791
31	0x3f92fdfe	1.1483762
32	0x3f312dd7	0.6921057
33	0x3f81b7d6	1.0134227
34	0x3fa08312	1.254
35	0x3f6a44de	0.91511333
36	0x3f700973	0.9376442
37	0x3f208317	0.6270003
38	0x3f2b0fc3	0.66820925
39	0x3f77bddc	0.9677408
40	0x3f879323	1.0591778
41	0x3fa24f5f	1.2680472
42	0x3f654bc8	0.8956876
43	0x3f7f192a	0.9964777
44	0x3f541055	0.8283742
45	0x3f92b592	1.1461661
46	0x3f1d5761	0.61461455
47	0x3f5afc5b	0.85541314
48	0x3f8ff729	1.1247302
49	0x3fa4ca14	1.2874169
50	0x3f3c0b6b	0.7345492
51	0x3f380acf	0.7189149
52	0x3f52171d	0.8206652
53	0x3f2a3de0	0.66500664
54	0x3f4ce3e8	0.8003526
55	0x3f4b887c	0.79505134
56	0x3f5fd1da	0.87429583
57	0x3fa019fb	1.2507929
58	0x3f812e1c	1.0092196
59	0x3f2b2dc4	0.6686671
60	0x3f6f8885	0.9356769
61	0x3fa6a8ca	1.302026
62	0x3f2071e1	0.62673765
63	0x3f68b33d	0.90898496

net.layer3.1.bias f4 [64]
0	0xbeb93dfb	-0.361801
1	0xbe973197	-0.29530022
2	0xbec03de8	-0.3754723
3	0xbeb77353	-0.35830173
4	0xbea61558	-0.3243816
5	0xbd3e2d0e	-0.046429686
6	0xbeb02552	-0.34403473
7	0xbede2bd9	-0.43392828
8	0xbea60730	-0.3242736
9	0xbed58646	-0.41704005
10	0x3cd08f84	0.025459059
11	0xbec71a14	-0.38887084
12	0xbeb12470	-0.34598112
13	0xbea2b214	-0.31776488
14	0xbebf13f2	-0.37319905
15	0xbe8c37c5	-0.273863
16	0xbea529a1	-0.32258323
17	0xbee8974b	-0.45427927
18	0xbea7c2d9	-0.32765844
19	0xbe97ec9c	-0.29672706
20	0xbea4df60	-0.32201672
21	0xbe9dc016	-0.30810612
22	0xbec7ff63	-0.39062032
23	0xbe840d58	-0.2579143
24	0xbe839e47	-0.25706694
25	0xbeb49b22	-0.35274607
26	0xbe9c57ad	-0.3053564
27	0xbea7a7a0	-0.32745075
28	0xbedec8c1	-0.43512538
29	0xbe6c9552	-0.23103836
30	0xbe9df511	-0.30851033
31	0x3e1c5883	0.1526814
32	0xbeb17519	-0.3465965
33	0xbeca251e	-0.39481443
34	0xbc459338	-0.0120590255
35	0xbe61d955	-0.22055562
36	0xbeaa59c5	-0.33271614
37	0xbeadacc4	-0.33920872
38	0xbea97b41	-0.33101848
39	0xbea9ce61	-0.33165267
40	0x3d0f3b54	0.03496869
41	0x3e31711e	0.17328307
42	0xbec4005d	-0.38281527
43	0xbeb436b9	-0.35198
44	0xbe5f28ca	-0.21792904
45	0xbe609fd9	-0.21935977
46	0xbeb16d3c	-0.34653652
47	0xbe9564ed	-0.29178563
48	0xbdfda106	-0.123842284
49	0x3d7d54b4	0.061848357
50	0xbe7ea5f1	-0.24867989
51	0xbea82853	-0.32843265
52	0xbeaba0ee	-0.33521217
53	0xbe9bf3a8	-0.30459332
54	0xbe828f9a	-0.25500184
55	0xbe1da95a	-0.15396634
56	0xbebc11fa	-0.36732465
57	0x3b46747c	0.0030281832
58	0xbe4f0473	-0.20216541
59	0xbea158a5	-0.31512943
60	0xbeb113e3	-0.34585485
61	0x3e9405c4	0.2891065
62	0xbeada8d8	-0.3391788
63	0xbe6d3984	-0.23166472

net.layer3.1.running_mean f4 [64]
0	0x00000000	0.0
1	0x00000000	0.0
2	0x00000000	0.0
3	0x00000000	0.0
4	0x00000000	0.0
5	0x00000000	0.0
6	0x00000000	0.0
7	0x00000000	0.0
8	0x00000000	0.0
9	0x00000000	0.0
10	0x00000000	0.0
11	0x00000000	0.0
12	0x00000000	0.0
13	0x00000000	0.0
14	0x00000000	0.0
15	0x00000000	0.0
16	0x00000000	0.0
17	0x00000000	0.0
18	0x00000000	0.0
19	0x00000000	0.0
20	0x00000000	0.0
21	0x00000000	0.0
22	0x00000000	0.0
23	0x00000000	0.0
24	0x00000000	0.0
25	0x00000000	0.0
26	0x00000000	0.0
27	0x00000000	0.0
28	0x00000000	0.0
29	0x00000000	0.0
30	0x00000000	0.0
31	0x00000000	0.0
32	0x00000000	0.0
33	0x00000000	0.0
34	0x00000000	0.0
35	0x00000000	0.0
36	0x00000000	0.0
37	0x00000000	0.0
38	0x00000000	0.0
39	0x00000000	0.0
40	0x00000000	0.0
41	0x00000000	0.0
42	0x00000000	0.0
43	0x00000000	0.0
44	0x00000000	0.0
45	0x00000000	0.0
46	0x00000000	0.0
47	0x00000000	0.0
48	0x00000000	0.0
49	0x00000000	0.0
50	0x00000000	0.0
51	0x00000000	0.0
52	0x00000000	0.0
53	0x00000000	0.0
54	0x00000000	0.0
55	0x00000000	0.0
56	0x00000000	0.0
57	0x00000000	0.0
58	0x00000000	0.0
59	0x00000000	0.0
60	0x00000000	0.0
61	0x00000000	0.0
62	0x00000000	0.0
63	0x00000000	0.0

net.layer3.1.running_var f4 [64]
0	0x3f800000	1.0
1	0x3f800000	1.0
2	0x3f800000	1.0
3	0x3f800000	1.0
4	0x3f800000	1.0
5	0x3f800000	1.0
6	0x3f800000	1.0
7	0x3f800000	1.0
8	0x3f800000	1.0
9	0x3f800000	1.0
10	0x3f800000	1.0
11	0x3f800000	1.0
12	0x3f800000	1.0
13	0x3f800000	1.0
14	0x3f800000	1.0
15	0x3f800000	1.0
16	0x3f800000	1.0
17	0x3f800000	1.0
18	0x3f800000	1.0
19	0x3f800000	1.0
20	0x3f800000	1.0
21	0x3f800000	1.0
22	0x3f800000	1.0
23	0x3f800000	1.0
24	0x3f800000	1.0
25	0x3f800000	1.0
26	0x3f800000	1.0
27	0x3f800000	1.0
28	0x3f800000	1.0
29	0x3f800000	1.0
30	0x3f800000	1.0
31	0x3f800000	1.0
32	0x3f800000	1.0
33	0x3f800000	1.0
34	0x3f800000	1.0
35	0x3f800000	1.0
36	0x3f800000	1.0
37	0x3f800000	1.0
38	0x3f800000	1.0
39	0x3f800000	1.0
40	0x3f800000	1.0
41	0x3f800000	1.0
42	0x3f800000	1.0
43	0x3f800000	1.0
44	0x3f800000	1.0
45	0x3f800000	1.0
46	0x3f800000	1.0
47	0x3f800000	1.0
48	0x3f800000	1.0
49	0x3f800000	1.0
50	0x3f800000	1.0
51	0x3f800000	1.0
52	0x3f800000	1.0
53	0x3f800000	1.0
54	0x3f800000	1.0
55	0x3f800000	1.0
56	0x3f800000	1.0
57	0x3f800000	1.0
58	0x3f800000	1.0
59	0x3f800000	1.0
60	0x3f800000	1.0
61	0x3f800000	1.0
62	0x3f800000	1.0
63	0x3f800000	1.0

net.layer4.0.weight f4 [64, 64, 3, 3]
0	0x3b89c607	0.004204515
1	0xbced4f0f	-0.028968362
2	0x3d1b3347	0.0378907
3	0xbd2dfa46	-0.042475007
4	0x3d9d7730	0.07688749
5	0xbd6e4157	-0.05816778
6	0xbd54eb1c	-0.05198203
7	0xbc4d0b71	-0.012514935
8	0xbd895744	-0.06706098
9	0xbcc0759b	-0.023493579
10	0xbdad0928	-0.08449012
11	0xbcf962ce	-0.030442622
12	0xbd996737	-0.0749039
13	0x3c9e4491	0.019319804
14	0x3d140308	0.036135703
15	0xbb5ab57c	-0.0033372333
16	0x3cf4855f	0.029848753
17	0x3cb40775	0.021976212
18	0x3ce3a975	0.027790764
19	0x3dae7589	0.08518512
20	0x3dc5fc9a	0.096673205
21	0xbd21135c	-0.039325103
22	0xbc123f4b	-0.008926223
23	0xbb8cc903	-0.0042964234
24	0x39d54f70	0.0004068571
25	0xbd17e47a	-0.037083127
26	0xbce78f81	-0.02826667
27	0xbcde356d	-0.027125085
28	0x3d6d7631	0.057974044
29	0xbd2c7840	-0.042106867
30	0x3cf4029e	0.029786404
31	0x3d83bd99	0.06432647
32	0xbd682b12	-0.0566817
33	0xbd575f3c	-0.052581057
34	0x3b3f9645	0.0029233855
35	0xbd8d6d50	-0.06905615
36	0xbb6ef622	-0.0036462625
37	0x3d6b64b5	0.05746909
38	0xbd2702f1	-0.04077429
39	0xbdea2fc6	-0.11434893
40	0x3c89427a	0.016755331
41	0xbda97db8	-0.08275932
42	0xbb2aa3c6	-0.0026037558
43	0xbcb2bfdf	-0.021820007
44	0x3a8bbfbb	0.0010661999
45	0x3d3d6a95	0.046244223
46	0xbd1fce72	-0.03901524
47	0x3b0c55b1	0.002141338
48	0xbc70ef65	-0.014705514
49	0xbc95aa9e	-0.018269833
50	0xbd014edb	-0.031569343
51	0xbe21d144	-0.15802485
52	0xbdca9c1c	-0.09893057
53	0xba36f7bb	-0.0006979664
54	0xba84a864	-0.0010120985
55	0xbd1085a7	-0.03528371
56	0xbcbafdd9	-0.022826122
57	0xbc93ddc0	-0.018050075
58	0x3c9cf7dc	0.019161157
59	0xbd65aec4	-0.056074873
60	0x3be50355	0.0069889226
61	0xbdd52649	-0.10407693
62	0xbdb709f4	-0.08937445
63	0xbd949dcb	-0.07256659
64	0xbcf82740	-0.030292153
65	0xbccbf272	-0.02489588
66	0xbc34a881	-0.011026503
67	0xbd0a41d2	-0.033754177
68	0xbda2cf4b	-0.07949694
69	0xbc588989	-0.013216385
70	0x3b8549a5	0.004067617
71	0xbd95336a	-0.07285197
72	0x3ca805e1	0.020510616
73	0xbc148f43	-0.009067359
74	0xbd82be8b	-0.063839994
75	0xbd833a39	-0.064075895
76	0xbd6bd92a	-0.05758015
77	0xbd8c2408	-0.0684281
78	0x3cc556fb	0.024089327
79	0xbcbe9ba4	-0.023267575
80	0x3c82c878	0.015964732
81	0xbd4556c4	-0.04817845
82	0x3d616304	0.05502607
83	0x3cac7d79	0.021055924
84	0xbccfff66	-0.025390338
85	0x3bd8cddc	0.006616337
86	0x3bf8fc97	0.0075984704
87	0x3cd648c5	0.026157746
88	0x3ce2d691	0.027690204
89	0xbcb720e2	-0.022354547
90	0x3d068bfc	0.032848343
91	0xbc45b427	-0.012066877
92	0xbd4fa0ff	-0.050690647
93	0x3e0da54e	0.1383259
94	0x3c7c4efc	0.015399691
95	0xbd0664cd	-0.032810975
96	0xbc777632	-0.015103864
97	0xbd1d4f5f	-0.038405772
98	0xbc594415	-0.013260861
99	0xbb456c32	-0.0030124304
100	0x3d7f0949	0.062264714
101	0xbd20cdea	-0.039258875
102	0xb95224ad	-0.00020040823
103	0x3c83e370	0.016099662
104	0xbcdde633	-0.027087307
105	0x3c8ead8e	0.017416742
106	0xbcbb5164	-0.022865959
107	0x3cc772bd	0.024346704
108	0xbd958615	-0.07300965
109	0x3ca0727e	0.019585844
110	0x3dcda91d	0.100420214
111	0xbd18c195	-0.03729399
112	0xbd759d75	-0.059964616
113	0xbb8f46eb	-0.0043724678
114	0xbdb205f4	-0.08692542
115	0x3d425550	0.04744464
116	0x3d98b24f	0.07455885
117	0xbd96f4d4	-0.07370916
118	0x3d9a98ea	0.07548697
119	0xbcf2e6ee	-0.029651131
120	0x3cebe6eb	0.028796634
121	0x3d7792cf	0.060442742
122	0x3d4fdb07	0.05074599
123	0xbc2cbac3	-0.010542574
124	0xbd92d8b5	-0.0717024
125	0xbe01e8a4	-0.12686402
126	0x3c9e9e56	0.01936261
127	0x3c679d97	0.014136693
128	0x3d020f9d	0.03175317
129	0xbd41db42	-0.04732824
130	0x3d4407dc	0.047859058
131	0xbd7c5c9c	-0.061611757
132	0xbd9ef687	-0.07761865
133	0x3d1b0c29	0.037853394
134	0xbd64f427	-0.055896904
135	0xbe17cd48	-0.14824402
136	0xbd44fe35	-0.048093993
137	0xbdbef883	-0.093247436
138	0xbd9bd608	-0.076091826
139	0xbca458fd	-0.020061964
140	0xbdba0f3f	-0.09084939
141	0xbdff7246	-0.12472968
142	0x3d4bfd19	0.04980192
143	0x3da71c13	0.081596516
144	0xbd6a69e4	-0.05722989
145	0xbccc07d3	-0.024906075
146	0x3d73f658	0.059561104
147	0xbc41b72f	-0.0118234595
148	0xbd5aedea	-0.05344955
149	0xbd599068	-0.053116232
150	0xbd5d35f4	-0.05400653
151	0xbd7b2dc9	-0.06132296
152	0xbdaa983b	-0.08329817
153	0xbd773e30	-0.06036204
154	0x3d1c7f3c	0.038207278
155	0xbd22862f	-0.03967875
156	0xbb3dd24b	-0.0028964456
157	0x3c05b1ab	0.008160035
158	0x3d955262	0.07291104
159	0x3b450573	0.0030063062
160	0x3d4568dd	0.04819571
161	0x3de1eb73	0.110312365
162	0xbd3a392c	-0.04546468
163	0xbcdb86ff	-0.02679777
164	0xbb8d33c3	-0.004309149
165	0xbd8f1db5	-0.06988088
166	0x3cf205dc	0.02954381
167	0x3d13ffca	0.03613261
168	0xbd3130f6	-0.043259583
169	0x3dbb143f	0.09134721
170	0x3d4313f5	0.047626454
171	0xbd072523	-0.0329944
172	0xbd7e3db0	-0.06207055
173	0x3bc8f8fb	0.0061331964
174	0x3d1ae65d	0.037817348
175	0xbe196754	-0.14980823
176	0xbbb09d76	-0.0053898646
177	0xbda51eb3	-0.08062496
178	0xbd8ff7c3	-0.07029679
179	0x3b2b8ccb	0.0026176448
180	0xbdab655a	-0.08368941
181	0x3d35f099	0.044418905
182	0xbc9d6e48	-0.019217625
183	0xbb5792ed	-0.003289397
184	0xbc5c137d	-0.013432381
185	0xbd2bbfa6	-0.041930817
186	0xbd88668b	-0.066601835
187	0x3d121fa0	0.03567469
188	0x3d2b5912	0.04183299
189	0x3cf5ee84	0.03002096
190	0x3cf25af5	0.029584387
191	0xbc9eb27d	-0.01937222
192	0xbca634e2	-0.020288888
193	0xbdd9790a	-0.106187895
194	0xbdd74f3f	-0.10513162
195	0xbbc02667	-0.005863953
196	0xbd2c2dfd	-0.042036045
197	0x39c82227	0.00038172418
198	0x3cc255e9	0.023722606
199	0x3d87ba51	0.06627334
200	0x3d683eb9	0.056700442
201	0xbc25df56	-0.010124048
202	0x3b36fb60	0.0027920827
203	0x3c78660f	0.015161051
204	0xba89fd81	-0.001052782
205	0xbd2c5d38	-0.042081088
206	0xbdb373a9	-0.08762295
207	0xbd46c825	-0.048530716
208	0xbd48891f	-0.048958894
209	0xbcc81690	-0.024424821
210	0x3d89914d	0.06717167
211	0xbd461849	-0.048363004
212	0xbccfc9b9	-0.025364744
213	0x3d483bf0	0.048885286
214	0x3d2df76b	0.042472284
215	0xbd0e39ba	-0.03472302
216	0xbddb69fd	-0.10713575
217	0x3cf97d85	0.03045536
218	0x3c76ee2b	0.015071432
219	0xbcaaadb0	-0.020834774
220	0x3d24e726	0.040259503
221	0xbcbf64ea	-0.02336355
222	0xbd58a2af	-0.052889522
223	0x3d2de445	0.042454023
224	0x3d525c83	0.051357757
225	0x3d373ae0	0.044733882
226	0x3d57fe35	0.052732665
227	0x3bd110e5	0.006380188
228	0xbcec7b72	-0.028867457
229	0xbd3ff388	-0.04686311
230	0xbd9a7fe1	-0.07543922
231	0xbc9e5e83	-0.019332176
232	0xbd5261fe	-0.051362984
233	0xbd7635b8	-0.060109824
234	0x3d9ac814	0.07557693
235	0x3daddd47	0.08489471
236	0x3d5d8089	0.05407766
237	0x3d061a58	0.032739967
238	0x3db3671a	0.087598994
239	0xba4655d6	-0.0007565891
240	0x3d29750a	0.041371383
241	0xbcfbea80	-0.030751467
242	0xbd455ec4	-0.04818608
243	0xbbe9eb37	-0.0071386355
244	0xbd58d5b6	-0.052938186
245	0x3c842cc1	0.016134622
246	0xbd3389e5	-0.04383268
247	0xbd947712	-0.07249273
248	0xbd104551	-0.035222355
249	0x3c5b3135	0.013378431
250	0xbd5071de	-0.050889842
251	0xbddbdd36	-0.10735552
252	0xbb9b09ab	-0.004731377
253	0x3d65e95b	0.05613075
254	0xbb1a9f5f	-0.0023593528
255	0xbc9b6937	-0.018971069
