old_mp/maml_omniglot_step12000_k_5_n_way20.pt (torch, 466228 bytes, 26 tensors)

net.layer1.0.weight f4 [64, 1, 3, 3]
-0.09788449 0.18619847 -0.034744076 -0.15220949 0.12848659 0.04392449 0.20147982 0.06902237
-0.007378234 -0.06689156 0.029650418 0.13014702 0.1043673 -0.14427376 -0.039371982 0.06285035
0.10600947 -0.12578838 -0.041977018 -0.06859578 -0.04452836 -0.14564851 0.06979279 0.14258023
0.22157069 0.17633411 -0.09743922 0.005611495 0.003548125 -0.06331959 -0.05522376 -0.031337738
-0.054842334 0.09891675 -0.07350049 0.1962411 0.12666585 0.045428988 0.1512166 0.076650985
-0.034054447 0.04864439 0.14410271 0.084953055 0.18324289 0.020474574 -0.028009413 -0.13729644
-0.060345814 -0.056690432 0.3203206 -0.03788521 -0.013723264 -0.09987768 0.017858308 -0.010403264
0.0044380403 0.056747783 -0.051718436 0.01237574 -0.0070908824 0.07478089 0.0032894248 0.029774064
-0.050932776 -0.19871421 -0.09453266 -0.03715578 -0.11810073 0.06953904 -0.22904931 0.017511057
0.22522803 0.10641337 -0.123196565 -0.006627453 -0.104973316 -0.015301981 -0.095964946 -0.036614954
0.17580546 0.19761096 0.010760375 0.07119821 0.086818375 -0.16310681 -0.06682437 0.16322754
0.024958571 0.036178604 -0.004453673 0.043074403 -0.00021528742 0.034669213 -0.18615057 -0.0019239116
0.16648158 0.10748153 0.1766274 0.10123156 0.082338884 -0.15732381 0.07234733 0.120515764
0.16635631 -0.12995951 -0.0035887705 0.0045530633 -0.039288502 0.10664418 -0.041414194 0.11643088
0.12146841 -0.16032256 -0.16677006 0.19070593 0.12423407 0.16411209 0.05182402 0.17415477
-0.11715325 -0.016348818 -0.09808489 0.0022330275 0.11740153 -0.022764383 -0.006706878 -0.10998333
-0.16026647 -0.027914457 0.1117698 0.014190058 -0.1940099 -0.17810172 -0.14703739 0.19451411
0.18554236 -0.062156662 -0.0049912394 -0.0022585322 0.026528863 -0.059900377 -0.009309555 -0.078144975
0.12561364 -0.054362275 -0.011165905 0.13789661 -0.10077433 0.014284102 0.105861776 -0.09257035
0.014405649 0.005442937 -0.11382123 0.16093078 0.11931655 -0.120687746 0.067891076 -0.050106067
-0.04368221 0.17428714 0.12994581 0.14499325 0.15046918 0.05998354 -0.17004271 0.044516973
-0.06721696 0.004160967 -0.04094174 -0.06461972 -0.15951827 -0.09436489 -0.18808603 -0.048104566
-0.18009686 -0.13154253 -0.0004040418 -0.027125327 -0.062207032 0.07912584 0.07102272 -0.013583722
-0.05700344 0.122873105 -0.0024340567 -0.1513567 0.19283375 0.11490282 -0.1378417 -0.020152785
0.13762423 -0.08550728 -0.024817035 -0.025842266 0.19370146 -0.052902963 0.2326461 -0.06110197
-0.07840617 -0.04332196 -0.116582274 0.13685331 0.07783147 0.07302875 -0.050519235 -0.01658962
0.14210506 0.18680625 0.14927574 0.023523057 -0.09335668 0.13448422 -0.06432165 -0.08579845
-0.026743183 0.013860112 0.0052458714 0.08158167 -0.110893205 -0.10605596 0.12040617 0.14570154
0.16119531 0.13869101 -0.06950881 -0.071793355 0.06824493 0.24038324 -0.04411134 -0.08585238
-0.050218206 0.1746779 0.024480665 -0.1890179 0.19535024 -0.087301366 0.19638407 0.119579844
0.069411986 0.083492815 -0.09430574 -0.05559561 -0.09864638 0.21335803 0.0008224378 -0.009002698
0.0042972327 0.09651189 0.2011706 -0.030345136 -0.021391703 0.09649115 -0.09461295 0.13448957
00000000: aa77 c8bd d0aa 3e3e ce4f 0ebd cedc 1bbe
00000010: fd91 033e 2bea 333d ba50 4e3e 9a5b 8d3d
00000020: 1dc5 f1bb 71fe 88bd 6fe5 f23c 4345 053e
00000030: 86be d53d 80bc 13be 8444 21bd afb7 803d
00000040: 7e1b d93d abce 00be 18f0 2bbd f27b 8cbd
00000050: 5f63 36bd e224 15be 86ef 8e3d 8d00 123e
00000060: 6de3 623e ee90 343e 378e c7bd a2e0 b73b
00000070: a987 683b b4ad 81bd 4f32 62bd 005c 00bd
00000080: 5ba2 60bd dd94 ca3d 6d87 96bd 6df3 483e
00000090: b1b4 013e bf13 3a3d 86d8 1a3e 31fb 9c3d
000000a0: ad7c 0bbd 573f 473d a98f 133e defb ad3d
000000b0: 06a4 3b3e 4bba a73c ff73 e5bc 7097 0cbe
000000c0: 2c2d 77bd 3a34 68bd 1001 a43e 862d 1bbd
000000d0: 8bd7 60bc ab8c ccbd 964b 923c 7472 2abc
000000e0: fb6c 913b 5d70 683d b6d6 53bd 9ec3 4a3c
000000f0: a25a e8bb b926 993d 6493 573b bde8 f33c
00000100: e39e 50bd bd7b 4bbe 579a c1bd a930 18bd
00000110: ccde f1bd 7c6a 8e3d e78b 6abe 5973 8f3c
00000120: 2da2 663e 41ef d93d 7b4e fcbd 1b2b d9bb
00000130: 40fc d6bd 29b5 7abc 4589 c4bd 90f9 15bd
00000140: 5906 343e 875a 4a3e 494c 303c 5ed0 913d
00000150: d5cd b13d 7905 27be 37db 88bd 1f25 273e
00000160: eb75 cc3c 0430 143d 1ef0 91bb c96e 303d
00000170: c7be 61b9 4e01 0e3d 419e 3ebe c32b fcba
00000180: 267a 2a3e 471f dc3d d0dd 343e 7e52 cf3d
00000190: 4aa1 a83d 7e19 21be d62a 943d f8d0 f63d
000001a0: 4f59 2a3e 1b14 05be 9431 6bbb dd31 953b
000001b0: fbec 20bd 4468 da3d eea1 29bd 5073 ee3d
000001c0: 6ec4 f83d 992b 24be c5c5 2abe 6a48 433e
000001d0: 6f6e fe3d 000d 283e 6c45 543d a155 323e
000001e0: 0bee efbd f5ed 85bc bbe0 c8bd fc57 123b
000001f0: 3770 f03d 5f7c babc 5fc5 dbbb f13e e1bd
00000200: e51c 24be dcac e4bc 91e7 e43d 6b7d 683c
00000210: 88aa 46be 4c60 36be f890 16be b52e 473e
00000220: d1fe 3d3e fc97 7ebd 8d8d a3bb e203 14bb
00000230: 0f53 d93c 195a 75bd 1b87 18bc 790a a0bd
00000240: dda0 003e faaa 5ebd 33f1 36bc c534 0d3e
00000250: c662 cebd de07 6a3c 0fce d83d 8695 bdbd
00000260: ac05 6c3c aa5a b23b 1b1b e9bd 0acb 243e
00000270: 3c5c f43d 232b f7bd 7a0a 8b3d 053c 4dbd
00000280: 1eec 32bd 5478 323e 8410 053e 1c79 143e
00000290: 9814 1a3e 4db1 753d ad1f 2ebe 6e57 363d
000002a0: 0ca9 89bd b958 883b 87b2 27bd 5857 84bd
000002b0: c258 23be 6142 c1bd a099 40be 4b09 45bd
000002c0: 506b 38be 16b3 06be 93d5 d3b9 ef35 debc
000002d0: cdcc 7ebd ba0c a23d 5c74 913d 428e 5ebc
000002e0: 707c 69bd e5a4 fb3d b284 1fbb 40fd 1abe
000002f0: 3676 453e 2b52 eb3d 6026 0dbe 7417 a5bc
00000300: 5eed 0c3e 711e afbd 184d cbbc 29b3 d3bc
00000310: ad59 463e c7b0 58bd c73a 6e3e 0f46 7abd
00000320: 6a93 a0bd 5e72 31bd b0c2 eebd 4623 0c3e
00000330: 1b66 9f3d 1990 953d 42ed 4ebd f4e6 87bc
00000340: fd83 113e 234a 3f3e bddb 183e 6db3 c03c
00000350: c931 bfbd 3bb6 093e 12bb 83bd 19b7 afbd
00000360: 8514 dbbc 8615 633c 8fe5 ab3b 4a14 a73d
00000370: fa1b e3bd de33 d9bd 8397 f63d c932 153e
00000380: 6210 253e 0405 0e3e a35a 8ebd 6508 93bd
00000390: ffc3 8b3d 0627 763e 18ae 34bd 5fd3 afbd
000003a0: 9bb1 4dbd c3de 323e ad8b c83c e98d 41be
000003b0: e509 483e 0fcb b2bd e818 493e 47e6 f43d
000003c0: df27 8e3d 48fe aa3d 5e23 c1bd 39b8 63bd
000003d0: 1d07 cabd 877a 5a3e de98 573a 0d80 13bc
000003e0: cdcf 8c3b 07a8 c53d aaff 4d3e 5d96 f8bc
000003f0: a73d afbc 279d c53d 6fc4 c1bd a2b7 093e

net.layer1.0.bias f4 [64]
-0.3267105 -0.13427919 0.048297703 0.26469395 -0.010621604 0.08746172 -0.110366374 0.30205998
0.22254018 0.036435913 -0.36211562 -0.13437097 0.048053287 -0.11593703 -0.08784195 -0.045607716
-0.18444407 -0.3604794 -0.04335787 0.3197672 0.12192193 0.26513013 0.3073538 -0.29818314
-0.13748917 0.17234893 0.17374565 -0.20498325 -0.067204595 0.031435072 -0.30774543 -0.118378066
-0.24990195 0.079885885 0.33639905 0.022439126 -0.24026273 -0.26154014 0.35480273 0.042402543
0.11254348 0.18758741 0.0249192 0.15554114 -0.044955503 0.15042144 0.16711842 0.40544027
-0.1793273 0.09287983 0.2824013 0.09104405 -0.15113196 0.32087344 0.16824657 -0.12013701
0.04692562 0.20091961 0.35592794 0.16569437 -0.03352635 0.06364179 0.050752934 0.33082065
00000000: 9946 a7be 7c80 09be d0d3 453d f785 873e
00000010: 3c06 2ebc 211f b33d c407 e2bd 9ba7 9a3e
00000020: 93e1 633e d33d 153d 3867 b9be 8b98 09be
00000030: 86d3 443d 6570 edbd 7be6 b3bd 28cf 3abd
00000040: e8de 3cbe c290 b8be 0698 31bd 87b8 a33e
00000050: 34b2 f93d 23bf 873e 7a5d 9d3e 76ab 98be
00000060: f6c9 0cbe 3d7c 303e 61ea 313e 21e7 51be
00000070: 90a2 89bd 10c2 003d cf90 9dbe 3370 f2bd
00000080: 4ce6 7fbe 369b a33d 7f3c ac3e 42d2 b73c
00000090: 6f07 76be 97e8 85be b4a8 b53e 4aae 2d3d
000000a0: 327d e63d ea16 403e 5a23 cc3c 2d46 1f3e
000000b0: 4323 38bd 1408 1a3e 1721 2b3e de95 cf3e
000000c0: 93a1 37be c837 be3d e796 903e 4e75 ba3d
000000d0: 56c2 1abe 8649 a43e d448 2c3e 650a f6bd
000000e0: 1435 403d dfbd 4d3e 303c b63e c9ab 293e
000000f0: ed52 09bd a056 823d 4fe2 4f3d 5361 a93e

net.layer1.1.weight f4 [64]
1.3584393 0.80022 0.83935654 0.8530131 1.3415501 0.72587484 1.4341835 0.62504566
0.70606405 1.0576968 1.0108051 1.1505104 1.2239332 0.9441188 0.5657211 0.84964526
0.7768256 1.0632434 1.2275026 0.4836797 1.0175141 0.89508545 0.51554424 1.309212
0.8537585 1.1873668 1.3850518 0.9268847 0.81361943 1.1401469 1.1049745 0.9197251
1.4217521 0.92661875 1.0167449 1.2714539 0.56116635 1.3558538 1.144743 0.8292908
1.0854775 1.6457633 0.87945354 0.55065876 0.4524283 0.5666587 1.142678 1.3875293
1.2868894 1.1640408 1.0716809 0.4682993 1.3023477 0.59534764 1.2073321 0.66194236
1.5292453 1.0427408 0.5996305 0.85873884 0.85840946 1.2446303 0.6437016 0.9603202
00000000: 57e1 ad3f 38db 4c3f 12e0 563f 115f 5a3f
00000010: eab7 ab3f efd2 393f 5393 b73f fe02 203f
00000020: 9dc0 343f 9c62 873f 1062 813f ed43 933f
00000030: d8a9 9c3f c5b1 713f 19d3 103f 5a82 593f
00000040: 0bde 463f 5c18 883f ce1e 9d3f dea4 f73e
00000050: e73d 823f 5224 653f b5fa 033f 4294 a73f
00000060: eb8f 5a3f a3fb 973f 6149 b13f 5148 6d3f
00000070: 5d49 503f 55f0 913f ce6f 8d3f 1b73 6b3f
00000080: f9fb b53f e336 6d3f b224 823f 00bf a23f
00000090: 99a8 0f3f 9e8c ad3f f086 923f 674c 543f
000000a0: edf0 8a3f 5fa8 d23f de23 613f f9f7 0c3f
000000b0: afa4 e73e 8b10 113f 4643 923f 8f9a b13f
000000c0: cbb8 a43f 4aff 943f d72c 893f edc4 ef3e
000000d0: 54b3 a63f b468 183f dc89 9a3f 0e75 293f
000000e0: 4fbe c33f 8878 853f 6281 193f 4fd6 5b3f
000000f0: b9c0 5b3f 0c50 9f3f a1c9 243f 8bd7 753f

net.layer1.1.bias f4 [64]
-0.38570496 -0.200821 -0.21869497 0.0003432416 -0.12979287 -0.54487187 -0.33705682 -0.61690766
-0.733454 0.04349493 -0.281363 -0.12988977 -0.16270323 -0.1814211 -0.5323079 -0.21629867
0.17580792 -0.22417721 -0.10149963 -0.8076596 0.06609574 -0.2171333 -0.07200759 -0.37476385
-0.020440882 -0.23360302 -0.022993032 -0.15974104 -0.0917187 -0.32537204 -0.13131766 -0.1854143
-0.05422216 -0.25761098 -0.25620648 -0.100147545 -0.8749382 -0.4654381 -0.21239527 -0.27431813
-0.17642379 -0.2998803 -0.14046952 -0.74121535 -0.79986733 -0.66365623 -0.002274925 -0.25319
-0.40895313 -0.36421052 -0.38817948 -0.5330359 -0.10619291 -0.5453859 -0.03295463 -0.76454324
-0.31068265 0.022913855 -0.7284892 -0.31624246 -0.05306429 -0.119501434 -0.67337406 0.18204223
00000000: 1f7b c5be 05a4 4dbe 93f1 5fbe 1cf5 b339
00000010: 6ce8 04be b97c 0bbf b692 acbe a9ed 1dbf
00000020: a4c3 3bbf bd27 323d d00e 90be d301 05be
00000030: ad9b 26be 74c6 39be 5545 08bf 667d 5dbe
00000040: fe06 343e b68e 65be 0adf cfbd c8c2 4ebf
00000050: 345d 873d 3158 5ebe b778 93bd 0ce1 bfbe
00000060: a373 a7bc a135 6fbe e25b bcbc 2893 23be
00000070: 04d7 bbbd 2a97 a6be 2378 06be 3fdd 3dbe
00000080: 0e18 5ebd 96e5 83be 7f2d 83be 281a cdbd
00000090: f3fb 5fbf e74d eebe 257e 59be 6d73 8cbe
000000a0: 70a8 34be e989 99be 3ed7 0fbe 4ac0 3dbf
000000b0: 1bc4 4cbf 60e5 29bf e816 15bb 1fa2 81be
000000c0: 4e62 d1be cd79 babe 76bf c6be 0a75 08bf
000000d0: ab7b d9bd 699e 0bbf 6ffb 06bd 1bb9 43bf
000000e0: cc11 9fbe d6b5 bb3c 457e 3abf 88ea a1be
000000f0: f159 59bd 2bbd f4bd 3e62 2cbf 4769 3a3e

net.layer1.1.running_mean f4 [64]
0.0 0.0 0.0 0.0 0.0 0.0 0.0 0.0
0.0 0.0 0.0 0.0 0.0 0.0 0.0 0.0
0.0 0.0 0.0 0.0 0.0 0.0 0.0 0.0
0.0 0.0 0.0 0.0 0.0 0.0 0.0 0.0
0.0 0.0 0.0 0.0 0.0 0.0 0.0 0.0
0.0 0.0 0.0 0.0 0.0 0.0 0.0 0.0
0.0 0.0 0.0 0.0 0.0 0.0 0.0 0.0
0.0 0.0 0.0 0.0 0.0 0.0 0.0 0.0
00000000: 0000 0000 0000 0000 0000 0000 0000 0000
00000010: 0000 0000 0000 0000 0000 0000 0000 0000
00000020: 0000 0000 0000 0000 0000 0000 0000 0000
00000030: 0000 0000 0000 0000 0000 0000 0000 0000
00000040: 0000 0000 0000 0000 0000 0000 0000 0000
00000050: 0000 0000 0000 0000 0000 0000 0000 0000
00000060: 0000 0000 0000 0000 0000 0000 0000 0000
00000070: 0000 0000 0000 0000 0000 0000 0000 0000
00000080: 0000 0000 0000 0000 0000 0000 0000 0000
00000090: 0000 0000 0000 0000 0000 0000 0000 0000
000000a0: 0000 0000 0000 0000 0000 0000 0000 0000
000000b0: 0000 0000 0000 0000 0000 0000 0000 0000
000000c0: 0000 0000 0000 0000 0000 0000 0000 0000
000000d0: 0000 0000 0000 0000 0000 0000 0000 0000
000000e0: 0000 0000 0000 0000 0000 0000 0000 0000
000000f0: 0000 0000 0000 0000 0000 0000 0000 0000

net.layer1.1.running_var f4 [64]
1.0 1.0 1.0 1.0 1.0 1.0 1.0 1.0
1.0 1.0 1.0 1.0 1.0 1.0 1.0 1.0
1.0 1.0 1.0 1.0 1.0 1.0 1.0 1.0
1.0 1.0 1.0 1.0 1.0 1.0 1.0 1.0
1.0 1.0 1.0 1.0 1.0 1.0 1.0 1.0
1.0 1.0 1.0 1.0 1.0 1.0 1.0 1.0
1.0 1.0 1.0 1.0 1.0 1.0 1.0 1.0
1.0 1.0 1.0 1.0 1.0 1.0 1.0 1.0
00000000: 0000 803f 0000 803f 0000 803f 0000 803f
00000010: 0000 803f 0000 803f 0000 803f 0000 803f
00000020: 0000 803f 0000 803f 0000 803f 0000 803f
00000030: 0000 803f 0000 803f 0000 803f 0000 803f
00000040: 0000 803f 0000 803f 0000 803f 0000 803f
00000050: 0000 803f 0000 803f 0000 803f 0000 803f
00000060: 0000 803f 0000 803f 0000 803f 0000 803f
00000070: 0000 803f 0000 803f 0000 803f 0000 803f
00000080: 0000 803f 0000 803f 0000 803f 0000 803f
00000090: 0000 803f 0000 803f 0000 803f 0000 803f
000000a0: 0000 803f 0000 803f 0000 803f 0000 803f
000000b0: 0000 803f 0000 803f 0000 803f 0000 803f
000000c0: 0000 803f 0000 803f 0000 803f 0000 803f
000000d0: 0000 803f 0000 803f 0000 803f 0000 803f
000000e0: 0000 803f 0000 803f 0000 803f 0000 803f
000000f0: 0000 803f 0000 803f 0000 803f 0000 803f

net.layer2.0.weight f4 [64, 64, 3, 3]
-0.23151724 -0.08943731 -0.23077235 -0.12567751 -0.19054314 -0.19164616 0.16144438 0.14957891
0.19907473 -0.19216625 -0.046240322 -0.013897504 0.049166754 0.10497518 0.0027847763 -0.1022982
-0.018685237 -0.20393685 -0.10288893 -0.07078122 -0.08967483 0.0544907 -0.1630803 -0.09915516
0.026867915 -0.026436143 0.07868602 0.051220007 -0.0012019576 -0.07038795 0.111414835 -0.11009934
-0.114865504 0.05271096 0.14141853 -0.06370054 0.060600836 0.08826515 0.20717172 0.11563163
-0.019616704 0.06028829 0.020458445 -0.008318117 0.019371003 -0.085314766 -0.03402218 -0.019402359
-0.07853995 -0.07595606 -0.090051286 0.017092139 -0.0053759133 0.12676221 0.03747284 0.012633092
0.02150102 -0.042474817 0.06369492 -0.13874711 0.027140059 -0.021177849 0.020289427 0.02263876
0.0042297584 -0.046748314 -0.09333863 -0.028404659 -0.08184598 -0.0020095094 -0.068405725 -0.17575513
-0.009287546 0.031592034 -0.13018352 0.022355951 -0.08174068 0.07047906 -0.0052558365 0.012097496
-0.047338363 0.01882117 -0.020129072 0.13754506 -0.09851425 -0.017886661 0.00398772 -0.1405276
0.07065274 0.004530547 0.078837976 0.01519791 -0.072210364 -0.0661875 -0.10944264 -0.05915262
0.18248542 -0.09143944 -0.12885633 0.15231252 0.0934733 -0.089249834 0.05010765 -0.1615791
-0.18463391 -0.067655854 -0.15887028 -0.19172427 -0.23492035 -0.0653879 -0.09855987 -0.027868671
-0.07818594 -0.008781093 -0.14151086 -0.103641525 -0.1905983 0.2490809 0.15887019 0.017332518
0.10547041 -0.095243394 -0.12272746 0.2037688 0.037804823 -0.15208665 -0.014369591 -0.09551504
-0.028109241 0.03953093 -0.049856465 0.021664642 0.086698346 -0.029548408 0.01842885 0.027702535
-0.065473676 -0.07961183 0.09919913 -0.083518244 -0.076790646 0.024911748 -0.077884085 -0.183375
-0.03790972 0.053188775 -0.03090176 -0.027085995 0.13651544 0.060780913 -0.09462807 0.02737108
-0.026548356 -0.11094248 -0.16222689 0.05448384 0.01572846 -0.07718354 -0.038459666 0.08374786
0.02065953 -0.017333139 0.3874699 0.082765184 -0.032965392 0.03537725 -0.1195894 -0.099998295
-0.052050713 -0.12992595 -0.18610401 -0.04979402 -0.053204656 0.03225718 -0.12498316 -0.05403182
-0.099807605 -0.09820053 -0.14810978 -0.08996667 -0.09300597 -0.04870729 -0.025657935 0.07269779
-0.048426002 0.0074307397 -0.1490859 -0.08824341 -0.1592053 -0.13721111 -0.038029477 -0.116804
0.071905695 0.05402883 -0.10327843 0.040521793 -0.0151561145 -0.0989928 -0.10108535 -0.11991331
-0.11863576 -0.094513655 0.036623355 -0.03751659 -0.043589473 0.079500005 -0.021537544 -0.08535237
0.038492654 0.057499163 -0.15406501 0.065713465 -0.064709514 -0.15717117 -0.1401546 -0.21925353
-0.011818198 -0.057085384 -0.013687533 0.071691774 0.0027124805 -0.11298774 0.13603391 -0.14237843
-0.15442115 0.08443132 -0.036219202 -0.067838706 0.19454795 -0.006892004 -0.14122091 -0.041937068
-0.056818627 -0.034184102 -0.06619436 -0.11590418 -0.044360377 0.053148147 -0.13531175 -0.08618117
0.16583088 0.017459542 0.045028545 0.012368712 0.039223406 -0.12106297 0.085989565 0.024986334
-0.01366356 0.2212091 -0.059724692 -0.0036315757 -0.0057729706 -0.083217986 -0.001481242 -0.0068671266
00000000: db12 6dbe e92a b7bd 964f 6cbe 9bb1 00be
00000010: be1d 43be e43e 44be ad51 253e 372b 193e
00000020: 3fda 4b3e 3bc7 44be 7e66 3dbd 5bb2 63bc
00000030: 1463 493d 3afd d63d cb80 363b b881 d1bd
00000040: c811 99bc d2d4 50be 6eb7 d2bd bff5 90bd
00000050: 70a7 b7bd a431 5f3d 86fe 26be dc11 cbbd
00000060: 1a1a dc3c 9c90 d8bc 2326 a13d 12cc 513d
00000070: 018b 9dba 8f27 90bd 762d e43d c37b e1bd
00000080: 9b3e ebbd 73e7 573d 05d0 103e 6e75 82bd
00000090: 9538 783d 5cc4 b43d d324 543e 47d0 ec3d
000000a0: 36b3 a0bc dbf0 763d 7898 a73c b648 08bc
000000b0: f0af 9e3c 82b9 aebd d75a 0bbd b2f1 9ebc
000000c0: 8ed9 a0bd da8e 9bbd cf6c b8bd d004 8c3c
000000d0: 6e28 b0bb f4cd 013e 1f7d 193d 07fb 4e3c
000000e0: e822 b03c 13fa 2dbd 7b72 823d b913 0ebe
000000f0: d454 de3c 2b7d adbc 0336 a63c ec74 b93c
00000100: c999 8a3b 297b 3fbd 5328 bfbd e3b0 e8bc
00000110: dd9e a7bd f9b1 03bb 4d18 8cbd 27f9 33be
00000120: cb2a 18bc a666 013d d44e 05be d423 b73c
00000130: a867 a7bd 5357 903d 2739 acbb 9334 463c
00000140: dfe5 41bd db2e 9a3c b9e5 a4bc 9dd8 0c3e
00000150: d7c1 c9bd 0c87 92bc 6bab 823b 78e6 0fbe
00000160: 62b2 903d fc74 943b ce75 a13d a800 793c
00000170: 07e3 93bd 508d 87bd 7623 e0bd 054a 72bd
00000180: 75dd 3a3e 9a44 bbbd eaf2 03be d0f7 1b3e
00000190: ee6e bf3d 9ec8 b6bd ae3d 4d3d fe74 25be
000001a0: ac10 3dbe 278f 8abd e4ae 22be 5e53 44be
000001b0: f68e 70be 17ea 85bd c2d9 c9bd d74c e4bc
000001c0: f31f a0bd 93de 0fbc 39e8 10be 0242 d4bd
000001d0: 332c 43be 100f 7f3e deae 223e edfc 8d3c
000001e0: df00 d83d f80e c3bd 8958 fbbd c5a8 503e
000001f0: 3bd9 1a3d 9abc 1bbe 6f6e 6bbc 649d c3bd
00000200: 5a45 e6bc 2feb 213d 4b36 4cbd 0c7a b13c
00000210: e78e b13d 810f f2bc 1af8 963c 6df0 e23c
00000220: 1017 86bd 870b a3bd ea28 cb3d 9d0b abbd
00000230: 6a44 9dbd b913 cc3c b181 9fbd a8c6 3bbe
00000240: 3947 1bbd 79dc 593d b025 fdbc 73e3 ddbc
00000250: b4ca 0b3e 68f5 783d 5dcc c1bd 5139 e03c
00000260: f07b d9bc d035 e3bd ce1e 26be 722a 5f3d
00000270: f9d8 803c 6712 9ebd e287 1dbd ff83 ab3d
00000280: 2d3e a93c 3afe 8dbc 7462 c63e cb80 a93d
00000290: b806 07bd bce7 103d 4aeb f4bd e8cb ccbd
000002a0: 2133 55bd 4f0b 05be 0d92 3ebe d0f4 4bbd
000002b0: 20ed 59bd 1b20 043d 2cf7 ffbd 7850 5dbd
000002c0: ee67 ccbd 5c1d c9bd 17aa 17be 7240 b8bd
000002d0: ea79 bebd 4c81 47bd 9730 d2bc 94e2 943d
000002e0: 585a 46bd 907d f33b f9a9 18be f6b8 b4bd
000002f0: b706 23be 1281 0cbe ccc4 1bbd f036 efbd
00000300: 4b43 933d 564d 5d3d a483 d3bd 2efa 253d
00000310: 5a51 78bc bdbc cabd d605 cfbd 1c95 f5bd
00000320: 4ef7 f2bd 6090 c1bd 5f02 163d ffaa 19bd
00000330: e08a 32bd e6d0 a23d 816f b0bc 39cd aebd
00000340: 79aa 1d3d 3e84 6b3d 38c3 1dbe c894 863d
00000350: 6c86 84bd 7bf1 20be b084 0fbe ff83 60be
00000360: 1da1 41bc 5dd2 69bd ad41 60bc 23d3 923d
00000370: dfc3 313b 1e66 e7bd 794c 0b3e a7cb 11be
00000380: 9420 1ebe 54ea ac3d 965a 14bd 05ef 8abd
00000390: 9437 473e 52d6 e1bb 379c 10be 34c6 2bbd
000003a0: a6ba 68bd a104 0cbd e990 87bd 2c5f edbd
000003b0: 3ab3 35bd dfb1 593d 2a8f 0abe c17f b0bd
000003c0: 92cf 293e 5007 8f3c da6f 383d 23a6 4a3c
000003d0: b9a8 203d ddef f7bd 4c1b b03d 24b0 cc3c
000003e0: 20dd 5fbc a384 623e e1a1 74bd bbff 6dbb
000003f0: 302b bdbb 316e aabd 3c26 c2ba a205 e1bb

net.layer2.0.bias f4 [64]
0.00665816 -0.034352727 -0.03271853 -0.036776144 0.00011368012 0.0066338927 0.023102598 -0.015078172
-0.026721468 -0.02605264 0.04379076 -0.003142729 0.028193558 -0.015920807 -0.015651686 -0.02521177
-0.04382432 0.025257783 -0.010726619 -0.027854947 0.043568823 0.0010981734 0.00499718 0.012199404
0.03828555 -0.0004535122 -0.004729136 -0.018590532 -0.0019066189 0.021825904 -0.015156574 -0.029086225
0.0048663057 -0.0041304617 -0.0010933551 0.0038510652 -0.03406914 0.01632584 0.034977958 -0.00055203965
0.03256796 0.036942083 -0.03824677 0.023160174 -0.033437397 0.021027789 0.025952764 0.012630655
0.045456737 -0.032756828 0.018588655 0.016548887 0.029030858 0.02193068 0.031360377 0.02703725
-0.040684897 -0.03442409 0.02160142 0.0015898662 0.02314634 0.025118254 0.023736468 -0.03457422
00000000: b22c da3b 72b5 0cbd de03 06bd 95a2 16bd
00000010: 8d67 ee38 2061 d93b a941 bd3c 700a 77bc
00000020: fbe6 dabc 596c d5bc f15d 333d 3ef6 4dbb
00000030: 2df6 e63c 5a6c 82bc f737 80bc ea88 cebc
00000040: 2181 33bd 69e9 ce3c b3be 2fbc 0f30 e4bc
00000050: 3975 323d 96f0 8f3a 62bf a33b 02e0 473c
00000060: 4fd1 1c3d 61c5 edb9 def6 9abb 2c4b 98bc
00000070: 84e7 f9ba 3dcc b23c 4753 78bc 3c46 eebc
00000080: 8875 9f3b d358 87bb e94e 8fba 2762 7c3b
00000090: 158c 0bbd c5bd 853c 0c45 0f3d c1b6 10ba
000000a0: fb65 053d 9550 173d a5a8 1cbd 68ba bd3c
000000b0: a7f5 08bd 7842 ac3c e49a d43c cff0 4e3c
000000c0: d830 3a3d 062c 06bd 3c47 983c 8891 873c
000000d0: 1fd2 ed3c f8a7 b33c bd73 003d 397d dd3c
000000e0: 35a5 26bd 4600 0dbd 76f5 b03c 0f63 d03a
000000f0: 659d bd3c ccc4 cd3c fb72 c23c b39d 0dbd

net.layer2.1.weight f4 [64]
1.1017356 0.89918053 0.7149941 1.0688971 0.9759131 0.94652784 1.006353 0.87004155
1.2962483 1.1421771 1.1001829 0.84341586 1.04479 0.8335057 1.0955011 0.9001944
1.4840416 0.9282739 0.8129505 0.9908167 1.1343474 0.90936106 1.0165375 1.0342684
0.72694516 0.77860075 0.8735527 0.990162 0.9017043 0.988612 0.7040307 0.8906168
0.8802595 0.8460412 0.6796949 1.225302 1.2809772 0.8912944 0.9864044 1.0189694
0.9412993 1.0043097 1.0354275 0.80300045 0.99594104 0.9422796 0.8585285 1.2355893
1.2256916 1.0403503 0.9191946 0.844502 0.62827456 0.7988881 0.9445057 0.7653511
0.6779136 0.92486215 0.68065035 0.74479055 0.9074427 0.7507763 1.2810327 0.9033912
00000000: ac05 8d3f b230 663f da09 373f 9fd1 883f
00000010: 71d5 793f a64f 723f 2dd0 803f 0bbb 5e3f
00000020: 77eb a53f dc32 923f cbd2 8c3f 1aea 573f
00000030: aebb 853f a160 553f 6139 8c3f 2473 663f
00000040: 13f5 bd3f 5ca3 6d3f 861d 503f 2aa6 7d3f
00000050: 4c32 913f e3cb 683f e71d 823f e862 843f
00000060: 1419 3a3f 6152 473f 26a1 5f3f 427b 7d3f
00000070: 18d6 663f ad15 7d3f 5b3b 343f 76ff 633f
00000080: b058 613f 2896 583f 7c00 2e3f b2d6 9c3f
00000090: 10f7 a33f df2b 643f 0085 7c3f 976d 823f
000000a0: fef8 703f 388d 803f e388 843f 7091 4d3f
000000b0: fef5 7e3f 3c39 713f 86c8 5b3f ca27 9e3f
000000c0: 76e3 9c3f 332a 853f 5650 6b3f 4831 583f
000000d0: 9ad6 203f ee83 4c3f 20cb 713f 0dee 433f
000000e0: bf8b 2d3f c4c3 6c3f 1a3f 2e3f 98aa 3e3f
000000f0: 2a4e 683f e032 403f e1f8 a33f a544 673f

net.layer2.1.bias f4 [64]
-0.44089526 -0.07151134 -0.651936 -0.37709078 -0.33983698 -0.2999857 -0.38718447 -0.70778733
-0.46399474 -0.3407058 -0.18853371 -0.7153013 -0.6043409 -0.74285287 -0.49254528 -0.6710531
-0.2590137 -0.019566473 -0.022060744 -0.006978919 -0.62095875 -0.7014608 -0.08792311 -0.24257092
-0.51351374 -0.32521477 -0.24533074 -0.2018636 -0.32545868 -0.4613074 -0.35413027 -0.6790709
-0.2677668 -0.7183116 -0.7672639 -0.49335596 -0.35826778 -0.18280773 -0.4088511 -0.13432044
-0.41365734 -0.51272 -0.39877984 -0.6745124 -0.3687684 -0.5124072 -0.18781948 -0.50453305
-0.513972 0.01797048 -0.41114926 -0.4659312 -0.70609975 -0.7033231 -0.3581975 -0.6564969
-0.11628575 -0.26638597 -0.50507426 -0.19835296 -0.397718 -0.32528582 -0.30304965 -0.48108497
00000000: 06bd e1be 8a74 92bd 47e5 26bf 0b12 c1be
00000010: 1dff adbe ba97 99be 0b3d c6be 8d31 35bf
00000020: b890 edbe fe70 aebe fb0e 41be fc1d 37bf
00000030: 16b6 1abf 9b2b 3ebf e52e fcbe 23ca 2bbf
00000040: 729d 84be de49 a0bc bcb8 b4bc 6aaf e4bb
00000050: 27f7 1ebf ef92 33bf 0811 b4bd 8364 78be
00000060: a375 03bf 8d82 a6be fb37 7bbe 55b5 4ebe
00000070: 85a2 a6be 7c30 ecbe 9050 b5be 97d7 2dbf
00000080: bb18 89be 45e3 37bf 686b 44bf 2799 fcbe
00000090: e06e b7be f331 3bbe ee54 d1be 4c8b 09be
000000a0: e5ca d3be 9e41 03bf df2c ccbe d8ac 2cbf
000000b0: 36cf bcbe 1e2d 03bf c053 40be 1429 01bf
000000c0: ab93 03bf d436 933c 2882 d2be 898e eebe
000000d0: f4c2 34bf fc0c 34bf aa65 b7be 2e10 28bf
000000e0: 3927 eebd be63 88be 8c4c 01bf 0a1d 4bbe
000000f0: b2a1 cbbe dd8b a6be 5329 9bbe c550 f6be

net.layer2.1.running_mean f4 [64]
0.0 0.0 0.0 0.0 0.0 0.0 0.0 0.0
0.0 0.0 0.0 0.0 0.0 0.0 0.0 0.0
0.0 0.0 0.0 0.0 0.0 0.0 0.0 0.0
0.0 0.0 0.0 0.0 0.0 0.0 0.0 0.0
0.0 0.0 0.0 0.0 0.0 0.0 0.0 0.0
0.0 0.0 0.0 0.0 0.0 0.0 0.0 0.0
0.0 0.0 0.0 0.0 0.0 0.0 0.0 0.0
0.0 0.0 0.0 0.0 0.0 0.0 0.0 0.0
00000000: 0000 0000 0000 0000 0000 0000 0000 0000
00000010: 0000 0000 0000 0000 0000 0000 0000 0000
00000020: 0000 0000 0000 0000 0000 0000 0000 0000
00000030: 0000 0000 0000 0000 0000 0000 0000 0000
00000040: 0000 0000 0000 0000 0000 0000 0000 0000
00000050: 0000 0000 0000 0000 0000 0000 0000 0000
00000060: 0000 0000 0000 0000 0000 0000 0000 0000
00000070: 0000 0000 0000 0000 0000 0000 0000 0000
00000080: 0000 0000 0000 0000 0000 0000 0000 0000
00000090: 0000 0000 0000 0000 0000 0000 0000 0000
000000a0: 0000 0000 0000 0000 0000 0000 0000 0000
000000b0: 0000 0000 0000 0000 0000 0000 0000 0000
000000c0: 0000 0000 0000 0000 0000 0000 0000 0000
000000d0: 0000 0000 0000 0000 0000 0000 0000 0000
000000e0: 0000 0000 0000 0000 0000 0000 0000 0000
000000f0: 0000 0000 0000 0000 0000 0000 0000 0000

net.layer2.1.running_var f4 [64]
1.0 1.0 1.0 1.0 1.0 1.0 1.0 1.0
1.0 1.0 1.0 1.0 1.0 1.0 1.0 1.0
1.0 1.0 1.0 1.0 1.0 1.0 1.0 1.0
1.0 1.0 1.0 1.0 1.0 1.0 1.0 1.0
1.0 1.0 1.0 1.0 1.0 1.0 1.0 1.0
1.0 1.0 1.0 1.0 1.0 1.0 1.0 1.0
1.0 1.0 1.0 1.0 1.0 1.0 1.0 1.0
1.0 1.0 1.0 1.0 1.0 1.0 1.0 1.0
00000000: 0000 803f 0000 803f 0000 803f 0000 803f
00000010: 0000 803f 0000 803f 0000 803f 0000 803f
00000020: 0000 803f 0000 803f 0000 803f 0000 803f
00000030: 0000 803f 0000 803f 0000 803f 0000 803f
00000040: 0000 803f 0000 803f 0000 803f 0000 803f
00000050: 0000 803f 0000 803f 0000 803f 0000 803f
00000060: 0000 803f 0000 803f 0000 803f 0000 803f
00000070: 0000 803f 0000 803f 0000 803f 0000 803f
00000080: 0000 803f 0000 803f 0000 803f 0000 803f
00000090: 0000 803f 0000 803f 0000 803f 0000 803f
000000a0: 0000 803f 0000 803f 0000 803f 0000 803f
000000b0: 0000 803f 0000 803f 0000 803f 0000 803f
000000c0: 0000 803f 0000 803f 0000 803f 0000 803f
000000d0: 0000 803f 0000 803f 0000 803f 0000 803f
000000e0: 0000 803f 0000 803f 0000 803f 0000 803f
000000f0: 0000 803f 0000 803f 0000 803f 0000 803f

net.layer3.0.weight f4 [64, 64, 3, 3]
-0.06279898 -0.0741755 0.0064479047 -0.12572446 -0.086034395 0.045064133 -0.07766995 0.013881824
-0.058503386 0.030417912 -0.0078119 -0.06264799 -0.013188065 -0.060885668 -0.014046949 -0.013440872
-0.011200571 -0.0022810807 -0.009213287 -0.069539234 -0.119167015 0.06640334 -0.030727927 -0.1059848
-0.0335705 -0.02151942 0.057499614 0.05785011 -0.1302023 -0.08993596 0.2201647 0.14793386
-0.051297482 0.008173384 -0.02891553 -0.07907429 -0.02618458 0.0045314655 -0.060517292 -0.060186304
-0.031383004 0.048861444 -0.016808204 -0.06368333 0.023862727 0.09674753 0.028614502 -0.014892088
-0.052651938 0.036083944 -0.15369566 -0.09610891 0.077994 -0.018461337 0.058675654 -0.090650395
-0.010967409 -0.04092875 -0.036238946 -0.026432138 -0.023514522 -0.006428378 -0.07237237 0.07552823
-0.09676523 -0.1110776 0.022667633 0.11227941 -0.06701607 -0.043163195 -0.032502968 -0.04857875
0.04491985 -0.099229895 0.24600399 0.07299988 0.016203988 0.22567993 -0.08772967 -0.16752926
0.17670754 -0.009452406 -0.048673756 -0.16534874 0.030062081 -0.0015596821 0.059576426 0.073394775
0.004335594 0.024163663 0.045675527 0.034251165 0.089301206 0.01033939 -0.038105037 0.03879611
-0.03178832 -0.064494565 -0.07680902 0.04321053 -0.064613916 -0.015406283 0.04731973 0.020769868
0.119289145 0.0032026817 0.020699756 0.0013308754 0.06518842 0.03964841 0.026794812 0.2664411
0.18658786 0.13799155 -0.0831787 -0.19004007 -0.18762645 0.035459176 -0.085209414 -0.18096915
0.010948556 0.039630167 -0.19051974 -0.03483071 -0.060870994 -0.07041153 0.08663094 -0.07628918
-0.058187924 0.11488665 0.12782763 0.070820294 -0.089260526 -0.14412862 -0.14845932 0.027925609
0.022728955 -0.16006735 0.030567845 -0.082162365 -0.07823991 -0.03810373 0.10672917 0.012052478
0.03497824 -0.026932789 0.12324134 0.2983433 0.2749826 0.33070496 -0.14329332 -0.08219827
-0.03075031 0.017268427 -0.028487338 -0.05374725 -0.14113906 -0.06714114 -0.03980732 0.02020074
0.06895638 0.04549892 -0.027649144 -0.023421938 -0.15710415 -0.26738137 -0.21441093 -0.12635976
0.051529944 0.0074885637 0.016238213 -0.0004576133 -0.0878226 0.07227235 -0.11674163 0.01593224
0.046501953 -0.010282166 -0.07075926 0.058913406 0.046579298 -0.046890374 0.19558002 0.089496836
-0.007156262 0.1865754 0.011165813 -0.18512197 0.20985472 0.007934292 -0.012691441 -0.07876193
0.05782549 0.036641054 -0.024071686 0.106682315 0.091673926 -0.009593378 -0.03451167 -0.04311363
0.002130801 0.081187636 0.06747115 0.059851155 -0.07550846 -0.048652705 0.0026165128 -0.06279409
-0.0838173 0.005532732 0.022821486 -0.056879148 0.06495638 0.01841408 -0.019690827 -3.512992e-05
-0.05981638 -0.119494595 -0.13463305 0.074542925 0.040110502 -0.049421676 -0.0010178107 -0.13313134
-0.11329703 -0.058580697 0.037712634 -0.17940894 -0.04439534 0.030658988 -0.12381226 0.016697032
0.09893246 0.05840477 0.093084365 0.052718814 -0.019608345 -0.0397769 -0.10391737 -0.07460417
0.02688332 -0.06828184 0.008662688 -0.0523703 0.04595694 -0.18786773 -0.16255371 0.0042876857
-0.033413306 0.1304793 0.14146653 0.12881328 0.10252205 0.0076523526 0.007356562 0.058133494
00000000: c09c 80bd 53e9 97bd f248 d33b eabd 00be
00000010: cd32 b0bd 2b95 383d 6c11 9fbd 9770 633c
00000020: 3fa1 6fbd fc2e f93c f8fa ffbb 974d 80bd
00000030: c112 58bc 4063 79bd 2d25 66bc 1a37 5cbc
00000040: 9a82 37bc 2f7e 15bb 54f3 16bc 966a 8ebd
00000050: d60d f4bd 79fe 873d 22b9 fbbc 8f0e d9bd
00000060: 3881 09bd 7f49 b0bc b784 6b3d 3df4 6c3d
00000070: c053 05be 5830 b8bd db72 613e f97b 173e
00000080: 4f1d 52bd a8e9 053c 43e0 ecbc b4f1 a1bd
00000090: 0b81 d6bc b07c 943b fbe0 77bd ea85 76bd
000000a0: 778b 00bd f022 483d 5cb1 89bc 686c 82bd
000000b0: c47b c33c 9223 c63d f668 ea3c f2fd 73bc
000000c0: 8fa9 57bd c2cc 133d 6562 1dbe c0d4 c4bd
000000d0: 51bb 9f3d 3b3c 97bc e255 703d eaa6 b9bd
000000e0: a6b0 33bc e8a4 27bd 4a6f 14bd 3688 d8bc
000000f0: 87a1 c0bc 25a5 d2bb f737 94bd 8bae 9a3d
00000100: d92c c6bd a77c e3bd 79b1 b93c bff2 e53d
00000110: b93f 89bd e4cb 30bd d521 05bd 83fa 46bd
00000120: e0fd 373d 0b39 cbbd 78e8 7b3e f680 953d
00000130: 3abe 843c a418 673e 9dab b3bd ca8c 2bbe
00000140: d2f2 343e 44de 1abc 225e 47bd 2e51 29be
00000150: c144 f63c 3f6e ccba 6906 743d 0050 963d
00000160: 9911 8e3b e0f2 c53c 4316 3b3d f34a 0c3d
00000170: 8de3 b63d 8b66 293c 0714 1cbd abe8 1e3d
00000180: 7834 02bd ba15 84bd 0c4e 9dbd 86fd 303d
00000190: 4d54 84bd a26a 7cbc 55d2 413d 9225 aa3c
000001a0: de4d f43d 15e4 513b 8992 a93c c570 ae3a
000001b0: 8281 853d 5f66 223d cb80 db3c f86a 883e
000001c0: e310 3f3e a84d 0d3e 9859 aabd dd99 42be
000001d0: 2621 40be a43d 113d 4682 aebd fa4f 39be
000001e0: 9261 333c 3e53 223d 9b17 43be a6aa 0ebd
000001f0: dd53 79bd ec33 90bd 906b b13d 803d 9cbd
00000200: 7656 6ebd b149 eb3d 3fe5 023e 3b0a 913d
00000210: 39ce b6bd 7496 13be b805 18be 3fc4 e43c
00000220: 1332 ba3c b2e8 23be 6b69 fa3c be44 a8bd
00000230: 3f3c a0bd a812 1cbd d394 da3d c277 453c
00000240: 5845 0f3d 27a2 dcbc f565 fc3d 74c0 983e
00000250: 85ca 8c3e 2952 a93e 7cbb 12be 9157 a8bd
00000260: 13e8 fbbc 8476 8d3c 475e e9bc 1426 5cbd
00000270: c286 10be 4b81 89bd 000d 23bd 067c a53c
00000280: 0139 8d3d 135d 3a3d 7580 e2bc 5ddf bfbc
00000290: e9df 20be 36e6 88be 8a8e 5bbe 7464 01be
000002a0: 1011 533d a062 f53b 0006 853c d1eb efb9
000002b0: 56dc b3bd 8703 943d 3c16 efbd 5484 823c
000002c0: d578 3e3d 8876 28bc 3bea 90bd 2f4f 713d
000002d0: efc9 3e3d 1f10 40bd 2146 483e 1e4a b73d
000002e0: 147f eabb 9f0d 3f3e d0f0 363c 9d90 3dbe
000002f0: 28e4 563e d5fe 013c c3ef 4fbc ef4d a1bd
00000300: 6cda 6c3d ee14 163d fc31 c5bc 427c da3d
00000310: 8abf bb3d 8b2d 1dbc 1c5c 0dbd eb97 30bd
00000320: e9a4 0b3b b445 a63d 502e 8a3d 7c26 753d
00000330: 2ea4 9abd 0f48 47bd cd79 2b3b 309a 80bd
00000340: 68a8 abbd eb4b b53b 20f4 ba3c 1cfa 68bd
00000350: da07 853d 20d9 963c a84e a1bc 7758 13b8
00000360: 0502 75bd 95b9 f4bd 3fdd 09be f6a9 983d
00000370: e94a 243d 626e 4abd 0f68 85ba 9553 08be
00000380: 4608 e8bd 50f2 6fbd 9078 1a3d fab6 37be
00000390: e3d7 35bd 8f28 fb3c 4891 fdbd 37c8 883c
000003a0: 1a9d ca3d d739 6f3d 04a3 be3d afef 573d
000003b0: aea1 a0bc 1aed 22bd a1d2 d4bd 12ca 98bd
000003c0: 693a dc3c 59d7 8bbd f2ed 0d3c 3d82 56bd
000003d0: 583d 3c3d 6660 40be 7b74 26be b77f 8c3b
000003e0: 64dc 08bd 5e9c 053e 9adc 103e a1e7 033e
000003f0: 15f7 d13d 96c0 fa3b 510f f13b 631d 6e3d

net.layer3.0.bias f4 [64]
-0.016455632 0.03921586 0.031994086 0.03301111 0.038435977 0.013148813 -0.015583644 0.038659494
-0.026524711 0.0116076125 0.034858875 0.034481175 0.00053066126 -0.0012335523 -0.01768034 0.018888364
0.020748809 0.03184022 0.0150374705 -0.046117406 -0.0016779483 0.009268022 0.007051876 -0.035452608
0.035948765 -0.010722129 0.038341086 0.016066918 0.038066246 0.005748689 -0.02854881 -0.018980674
-0.027904877 -0.004818493 0.011348543 0.021867823 -0.009286513 -0.016263401 -0.041276053 0.019807624
0.021667216 0.0013990226 -0.003915605 0.013229294 -0.0032381706 0.00968435 -0.019585088 0.01870559
0.035903554 -0.019210568 -0.040295992 0.03651238 0.00075507053 -0.022346437 -0.014796489 0.024325943
0.03506541 0.027547518 -0.03216924 -0.01861367 0.039817512 -0.025654037 0.023813255 0.010769955
00000000: f6cd 86bc cfa0 203d 3b0c 033d a836 073d
00000010: 0b6f 1d3d 1e6e 573c 8a52 7fbc 6b59 1e3d
00000020: 5a4a d9bc db2d 3e3c 2ec8 0e3d 223c 0d3d
00000030: 131c 0b3a 26af a1ba 5cd6 90bc c5bb 9a3c
00000040: 68f9 a93c e46a 023d b95f 763c 9be5 3cbd
00000050: 9aee dbba e7d8 173c 6c13 e73b c136 11bd
00000060: 033f 133d deab 2fbc 8b0b 1d3d c59e 833c
00000070: 5aeb 1b3d 805f bc3b 32df e9bc 5c7d 9bbc
00000080: c598 e4bc 73e4 9dbb 3def 393c 2624 b33c
00000090: 7526 18bc d33a 85bc 1411 29bd 9943 a23c
000000a0: 727f b13c 695f b73a 7a4e 80bb aebf 583c
000000b0: 7d37 54bb 1cab 1e3c e870 a0bc 773c 993c
000000c0: 9b0f 133d 7b5f 9dbc 690d 25bd 018e 153d
000000d0: edef 453a e00f b7bc f96c 72bc 3347 c73c
000000e0: bfa0 0f3d 55ab e13c e5c3 03bd b27b 98bc
000000f0: b017 233d 6a28 d2bc 0414 c33c 7774 303c

net.layer3.1.weight f4 [64]
0.67068166 0.6280271 0.6725314 0.61268085 0.7555613 0.6707779 1.1312277 0.6476946
0.5505067 0.8852318 0.6189313 0.5500318 1.1110147 0.6456381 0.81327283 0.65531415
0.6212001 0.6770554 0.6606501 1.381321 0.6523708 1.4667046 1.1721634 1.3823655
0.5902301 0.6414952 1.2749968 0.6046332 0.6002214 1.1254694 0.61389285 0.8667905
1.3755012 0.8620973 0.61210996 0.60321665 0.60793006 0.6457823 1.2706116 0.6691694
1.2235186 1.1563287 0.5707274 0.68675154 0.6525103 0.86338097 1.0761213 0.64578485
1.3744489 1.5020587 0.5860504 0.7633809 0.6927661 0.6355531 0.6068575 0.93248516
0.6802096 0.6435856 0.5112187 1.1193011 0.5585363 1.1720531 0.5818517 0.66891545
00000000: cbb1 2b3f 62c6 203f 052b 2c3f a7d8 1c3f
00000010: 776c 413f 1ab8 2b3f 12cc 903f 50cf 253f
00000020: 02ee 0c3f 8d9e 623f 4872 1e3f e2ce 0c3f
00000030: bb35 8e3f 8a48 253f a632 503f abc2 273f
00000040: f806 1f3f 8153 2d3f 5d20 293f 20cf b03f
00000050: c601 273f fabc bb3f 7309 963f 5af1 b03f
00000060: 5219 173f 0839 243f 1833 a33f 3ec9 1a3f
00000070: 1ca8 193f 620f 903f 1528 1d3f fbe5 5d3f
00000080: 6c10 b03f 69b2 5c3f 3db3 1c3f 686c 1a3f
00000090: 4ea1 1b3f fd51 253f 67a3 a23f b04e 2b3f
000000a0: 429c 9c3f 9402 943f 311b 123f f3ce 2f3f
000000b0: ea0a 273f 8906 5d3f 58be 893f 2852 253f
000000c0: f1ed af3f 7643 c03f 6607 163f ee6c 433f
000000d0: 1e59 313f 9cb3 223f 035b 1b3f 59b7 6e3f
000000e0: 3722 2e3f 07c2 243f 3bdf 023f 4245 8f3f
000000f0: 3cfc 0e3f d605 963f 3cf4 143f 0b3e 2b3f

net.layer3.1.bias f4 [64]
-0.18962613 -0.32850063 -0.31700417 -0.3704332 -0.06651176 -0.31515703 -0.2203917 -0.30918726
-0.3751384 -0.17150623 -0.26193267 -0.31415892 -0.18663369 -0.32844898 -0.37911132 -0.3401014
-0.3224495 -0.14668041 -0.30826527 -0.28343403 -0.33966818 0.09201514 -0.23575695 -0.13988061
-0.36894125 -0.3830668 -0.31967384 -0.3134071 -0.35132596 -0.049265772 -0.400082 -0.23455784
-0.24830303 -0.1327415 -0.3722906 -0.34322655 -0.36579534 -0.36001474 -0.09409001 -0.30428758
-0.24909659 -0.14216389 -0.37020978 -0.32010823 -0.35358235 -0.14444631 -0.029589884 -0.37688935
-0.026256876 -0.16125122 -0.34634277 -0.34483626 -0.31806722 -0.34713832 -0.31313923 -0.08354701
-0.19016705 -0.3520987 -0.37757635 -0.019343654 -0.4351116 -0.03353556 -0.33553976 -0.37853497
00000000: 5a2d 42be 3c31 a8be 5f4e a2be 6ca9 bdbe
00000010: 5137 88bd 435c a1be 5dae 61be cb4d 9ebe
00000020: 2412 c0be 549f 2fbe 0a1c 86be 70d9 a0be
00000030: e71c 3fbe 772a a8be e11a c2be c521 aebe
00000040: 1a18 a5be 6433 16be f2d4 9dbe 441e 91be
00000050: fde8 adbe 6f72 bc3d 456a 71be dd3c 0fbe
00000060: dee5 bcbe 5521 c4be 4aac a3be e576 a0be
00000070: ffe0 b3be e8ca 49bd 8cd7 ccbe ee2f 70be
00000080: 2643 7ebe 63ed 07be e09c bebe 64bb afbe
00000090: 8749 bbbe da53 b8be 43b2 c0bd 95cb 9bbe
000000a0: 2d13 7fbe 6993 11be 238c bdbe 3ae5 a3be
000000b0: bf08 b5be bce9 13be 7c66 f2bc a4f7 c0be
000000c0: a918 d7bc 0a1f 25be d753 b1be 618e b0be
000000d0: b5d9 a2be 1dbc b1be c953 a0be b21a abbd
000000e0: 27bb 42be 4846 b4be b051 c1be 9576 9ebc
000000f0: f3c6 debe 955c 09bd decb abbe 56cf c1be

net.layer3.1.running_mean f4 [64]
0.0 0.0 0.0 0.0 0.0 0.0 0.0 0.0
0.0 0.0 0.0 0.0 0.0 0.0 0.0 0.0
0.0 0.0 0.0 0.0 0.0 0.0 0.0 0.0
0.0 0.0 0.0 0.0 0.0 0.0 0.0 0.0
0.0 0.0 0.0 0.0 0.0 0.0 0.0 0.0
0.0 0.0 0.0 0.0 0.0 0.0 0.0 0.0
0.0 0.0 0.0 0.0 0.0 0.0 0.0 0.0
0.0 0.0 0.0 0.0 0.0 0.0 0.0 0.0
00000000: 0000 0000 0000 0000 0000 0000 0000 0000
00000010: 0000 0000 0000 0000 0000 0000 0000 0000
00000020: 0000 0000 0000 0000 0000 0000 0000 0000
00000030: 0000 0000 0000 0000 0000 0000 0000 0000
00000040: 0000 0000 0000 0000 0000 0000 0000 0000
00000050: 0000 0000 0000 0000 0000 0000 0000 0000
00000060: 0000 0000 0000 0000 0000 0000 0000 0000
00000070: 0000 0000 0000 0000 0000 0000 0000 0000
00000080: 0000 0000 0000 0000 0000 0000 0000 0000
00000090: 0000 0000 0000 0000 0000 0000 0000 0000
000000a0: 0000 0000 0000 0000 0000 0000 0000 0000
000000b0: 0000 0000 0000 0000 0000 0000 0000 0000
000000c0: 0000 0000 0000 0000 0000 0000 0000 0000
000000d0: 0000 0000 0000 0000 0000 0000 0000 0000
000000e0: 0000 0000 0000 0000 0000 0000 0000 0000
000000f0: 0000 0000 0000 0000 0000 0000 0000 0000

net.layer3.1.running_var f4 [64]
1.0 1.0 1.0 1.0 1.0 1.0 1.0 1.0
1.0 1.0 1.0 1.0 1.0 1.0 1.0 1.0
1.0 1.0 1.0 1.0 1.0 1.0 1.0 1.0
1.0 1.0 1.0 1.0 1.0 1.0 1.0 1.0
1.0 1.0 1.0 1.0 1.0 1.0 1.0 1.0
1.0 1.0 1.0 1.0 1.0 1.0 1.0 1.0
1.0 1.0 1.0 1.0 1.0 1.0 1.0 1.0
1.0 1.0 1.0 1.0 1.0 1.0 1.0 1.0
00000000: 0000 803f 0000 803f 0000 803f 0000 803f
00000010: 0000 803f 0000 803f 0000 803f 0000 803f
00000020: 0000 803f 0000 803f 0000 803f 0000 803f
00000030: 0000 803f 0000 803f 0000 803f 0000 803f
00000040: 0000 803f 0000 803f 0000 803f 0000 803f
00000050: 0000 803f 0000 803f 0000 803f 0000 803f
00000060: 0000 803f 0000 803f 0000 803f 0000 803f
00000070: 0000 803f 0000 803f 0000 803f 0000 803f
00000080: 0000 803f 0000 803f 0000 803f 0000 803f
00000090: 0000 803f 0000 803f 0000 803f 0000 803f
000000a0: 0000 803f 0000 803f 0000 803f 0000 803f
000000b0: 0000 803f 0000 803f 0000 803f 0000 803f
000000c0: 0000 803f 0000 803f 0000 803f 0000 803f
000000d0: 0000 803f 0000 803f 0000 803f 0000 803f
000000e0: 0000 803f 0000 803f 0000 803f 0000 803f
000000f0: 0000 803f 0000 803f 0000 803f 0000 803f

net.layer4.0.weight f4 [64, 64, 3, 3]
-0.1729351 0.17119434 -0.006729913 -0.047476366 0.08744313 -0.014155606 -0.025961623 0.14281435
-0.045001823 0.04881939 -0.043525267 -0.011151074 -0.096493796 -0.023280693 -0.002355916 -0.06705726
0.011694683 0.04589654 -0.0541429 -0.024607783 0.047974687 -0.0036588577 -0.033198714 -0.029698312
0.025926236 -0.01307245 0.06558633 0.014626683 0.10833313 -0.00732139 -0.047564447 -0.023314713
0.019291734 0.020809868 0.02339664 0.018229367 -0.14410718 0.056138076 0.013969071 -0.020421885
-0.039554235 -0.12397822 -0.15176228 -0.016145576 -0.07051302 0.0474278 0.000102231024 0.039066922
-0.040981803 -0.11595134 -0.17685564 -0.110237926 0.031554483 0.007413451 0.087942444 0.05777038
0.060242042 -0.013808687 0.0017307557 -0.0031735967 -0.09925786 -0.052805353 0.017755322 -0.07838173
0.032930385 0.015866682 0.12094292 0.18755808 0.060466506 -0.16697882 -0.10825672 -0.1796993
0.0007189726 0.0065155867 -0.05810458 -0.07955797 -0.05241002 0.05718827 -0.03729096 0.0089159785
0.040548597 -0.12861553 -0.26157847 -0.09156885 -0.03778869 -0.11600017 -0.14984836 -0.024085674
0.03546237 0.08364614 -0.031043544 0.06609095 0.018357966 -0.04021148 -0.031990767 -0.042472657
-0.015328047 0.077271305 0.098704256 -0.03117845 -0.057003096 -0.028263947 -0.05276986 -0.014620792
-0.019084109 -0.029063217 -0.035945766 -0.052673113 0.069835596 0.0507426 -0.023244139 -0.032545574
0.00061693153 0.005206067 0.0052356417 0.002354697 -0.012247437 0.0126392925 -0.035774052 0.11450686
-0.04697867 0.02583247 -0.017945612 -0.010830325 -0.03608248 -0.014646744 0.013796395 -0.06525262
-0.00024640493 -0.009489827 -0.039619096 -0.020713162 0.0022072569 0.08259946 -0.009111498 -0.00398347
0.04404681 0.09642796 0.07018667 -0.015726738 -0.020078968 0.044340737 0.044546 0.07913785
0.022701217 0.02131801 0.040474273 0.08942534 -0.029362733 0.06726309 0.002875093 0.039111305
0.06453723 -0.14094986 0.118231066 -0.0041103736 -0.11390543 -0.052151304 -0.20361666 -0.11903608
0.11166163 -0.0647534 -0.040792733 0.03644088 0.119013734 -0.054727416 -0.014212836 0.05436857
0.029877208 0.11788504 0.07457417 0.036182817 -0.04330549 0.007485626 -0.039254867 0.04654169
-0.0057475474 -0.03429292 -0.05896999 -0.073532715 -0.027243406 9.6705975e-05 -0.007981315 -0.04070039
-0.06816193 -0.052729346 0.008862619 -0.020236272 0.04445407 -0.083903804 0.012776141 0.038763788
0.01612987 -0.0016920076 0.015366655 -0.04559873 0.00067602313 0.033807397 0.0024612837 0.17190835
0.06323604 0.018948358 0.05307201 0.022565464 -0.15053515 -0.029279454 -0.07846381 -0.01597749
0.06958017 -0.0054974644 -0.006280716 0.027230812 0.0036681418 -0.051153686 -0.0030480209 0.024280049
0.031470243 -0.062494952 -0.0396305 -0.011883993 -0.050364457 -0.08301336 0.054291524 0.011909675
0.111506164 -0.028225137 0.034880728 0.06287338 -0.0006073347 0.03688707 -0.008226989 0.051490117
0.05879797 0.04423291 0.009512414 0.059128307 0.06519089 -0.033385143 -0.0057079643 0.00772456
-0.11960655 0.032055404 -0.0025686864 -0.04288877 0.10727911 0.078743964 0.14497148 0.10850258
-0.081598125 0.057490624 0.14792484 0.11950195 -0.028549625 0.00031373368 -0.046193272 0.068100356
00000000: e615 31be 924d 2f3e 9a86 dcbb 9476 42bd
00000010: 6215 b33d eaec 67bc 78ad d4bc ed3d 123e
00000020: d553 38bd d7f6 473d 8d47 32bd ffb2 36bc
00000030: 8a9e c5bd 27b7 bebc b665 1abb 5155 89bd
00000040: 0e9b 3f3c 03fe 3b3d f2c4 5dbd 4396 c9bc
00000050: 1b81 443d 72c9 6fbb 60fb 07bd e049 f3bc
00000060: 4263 d43c d42d 56bc 2052 863d c1a4 6f3c
00000070: c3dd dd3d 45e8 efbb f0d2 42bd 7ffe bebc
00000080: b309 9e3c 7579 aa3c 4faa bf3c c155 953c
00000090: d590 13be 0af1 653d 88de 643c cc4b a7bc
000000a0: 9f03 22bd 4be8 fdbd 9267 1bbe ba43 84bc
000000b0: 2169 90bd a743 423d dd64 d638 a304 203d
000000c0: 89dc 27bd e577 edbd a519 35be 6cc4 e1bd
000000d0: 463f 013d 89ec f23b 2b1b b43d a2a0 6c3d
000000e0: 5cc0 763d d53d 62bc 86da e23a 1efc 4fbb
000000f0: b447 cbbd 6d4a 58bd 9c73 913c 9a86 a0bd
00000100: 03e2 063d d8fa 813c ecb0 f73d 3a0f 403e
00000110: baab 773d 7ffc 2abe b3b5 ddbd 1803 38be
00000120: 6f79 3c3a b480 d53b 11ff 6dbd 4aef a2bd
00000130: e4ab 56bd 3f3e 6a3d 68be 18bd 5314 123c
00000140: 4916 263d cab3 03be 9ded 85be 7388 bbbd
00000150: 50c8 1abd 7f91 edbd d971 19be 524f c5bc
00000160: fd40 113d ab4e ab3d 084f febc b15a 873d
00000170: 7263 963c cbb4 24bd c008 03bd cff7 2dbd
00000180: 7d22 7bbc 6b40 9e3d 7525 ca3d f369 ffbc
00000190: 147c 69bd cb89 e7bc 3525 58bd 0c8c 6fbc
000001a0: 4756 9cbc fc15 eebc de3b 13bd c3bf 57bd
000001b0: f705 8f3d 79d7 4f3d 7e6a bebc 824e 05bd
000001c0: 93b9 213a a897 aa3b bf8f ab3b 4351 1a3b
000001d0: 79a9 48bc 0915 4f3c d087 12bd 9382 ea3d
000001e0: b56c 40bd 9e9e d33c ad02 93bc ad71 31bc
000001f0: 39cb 13bd e6f8 6fbc 460a 623c 2aa3 85bd
00000200: e92f 81b9 387b 1bbc a247 22bd a6ae a9bc
00000210: a0a7 103b e829 a93d 6448 15bc c587 82bb
00000220: 6e6a 343d 067c c53d 07be 8f3d 5cd5 80bc
00000230: a67c a4bc a29e 353d de75 363d 0613 a23d
00000240: e7f7 b93c 1ba3 ae3c 5ac8 253d a224 b73d
00000250: 1d8a f0bc 3bc1 893d 0e6c 3c3b 2d33 203d
00000260: 182c 843d 2955 10be 2123 f23d 50b0 86bb
00000270: 4047 e9bd 9b9c 55bd e380 50be 30c9 f3bd
00000280: daae e43d 6e9d 84bd 4816 27bd 0843 153d
00000290: 79bd f33d db29 60bd f4dc 68bc 94b1 5e3d
000002a0: 0cc1 f43c b66d f13d 58ba 983d 6f34 143d
000002b0: 1961 31bd fb49 f53b b6c9 20bd 80a2 3e3d
000002c0: ec55 bcbb bc76 0cbd 848a 71bd 5298 96bd
000002d0: 902d dfbc a0ce ca38 10c4 02bc 74b5 26bd
000002e0: 7b98 8bbd bafa 57bd 8534 113c 8ac6 a5bc
000002f0: 7915 363d c2d5 abbd 0553 513c c7c6 1e3d
00000300: ca22 843c 5bc6 ddba 6cc4 7b3c bcc5 3abd
00000310: 2537 313a a079 0a3d 7d4d 213b be08 303e
00000320: e681 813d 9639 9b3c 0962 593d 35db b83c
00000330: e325 1abe 77db efbc a2b1 a0bd 3ae3 82bc
00000340: 0c80 8e3d 1324 b4bb 77ce cdbb 2713 df3c
00000350: 3565 703b 8786 51bd 4ec1 47bb f4e6 c63c
00000360: f1e6 003d b5fa 7fbd 9753 22bd 14b5 42bc
00000370: f64a 4ebd e902 aabd ca60 5e3d cc20 433c
00000380: 585d e43d 6738 e7bc 18df 0e3d c2c3 803d
00000390: 8b35 1fba e516 173d 7eca 06bc 4de7 523d
000003a0: 24d6 703d 912d 353d f5d9 1b3c 8630 723d
000003b0: cd82 853d dcbe 08bd e009 bbbb 4e1e fd3b
000003c0: 47f4 f4bd 874c 033d 6857 28bb 23ac 2fbd
000003d0: 26b5 db3d 8444 a13d 6773 143e 9a36 de3d
000003e0: eb1c a7bd 4a7b 6b3d 9c79 173e 70bd f43d
000003f0: e7e0 e9bc 9f7c a439 2835 3dbd 3378 8b3d

net.layer4.0.bias f4 [64]
-0.009035957 -0.0445329 -0.037455086 -0.023812037 -0.06707577 -0.006243808 -0.04186113 -0.04070576
0.0100163175 -0.007714015 0.022739025 -0.030936258 -0.0019723722 -0.066671155 -0.03892766 -0.05650491
-0.0016982976 -0.03888203 0.008835971 0.0029749488 -0.025478827 -0.00648494 -0.015497013 -0.03507865
0.0034655745 0.018657017 -0.037527148 -0.025150953 0.023869742 -0.00074330065 -0.023529882 -0.02195323
0.008775965 -0.032403026 -0.030518824 -0.017924415 0.003282497 0.0103677 0.017543182 0.02181029
-0.009562779 0.0013259733 -0.011298738 -0.01339599 -0.03370641 -0.064289354 -0.03449397 0.033089593
0.024065057 -0.05408594 -0.0015852506 -0.026520612 -0.0054049813 -0.03593264 -0.026565168 -0.005752657
0.04526772 -0.04468493 -0.013628345 -0.0038009763 -0.06119802 0.01093699 -0.026083495 -0.032860607
00000000: 8d0b 14bc 2168 36bd 816a 19bd 7611 c3bc
00000010: 055f 89bd dc98 ccbb 9476 2bbd 15bb 26bd
00000020: 7b1b 243c d9c5 fcbb 3147 ba3c 096e fdbc
00000030: ea42 01bb e38a 88bd 9c72 1fbd b171 67bd
00000040: 6999 deba c342 1fbd c0c4 103c 5cf7 423b
00000050: f9b8 d0bc 9f7f d4bb 2fe7 7dbc a1ae 0fbd
00000060: b11e 633b 9ad6 983c 11b6 19bd 5f09 cebc
00000070: 7a8a c33c 10da 42ba bdc1 c0bc 43d7 b3bc
00000080: 11c9 0f3c 09b9 04bd 9d02 fabc 39d6 92bc
00000090: 291f 573b 49dd 293c b8b6 8f3c 7eab b23c
000000a0: 34ad 1cbc 48cc ad3a 581e 39bc db7a 5bbc
000000b0: bc0f 0abd 23aa 83bd 8d49 0dbd f488 073d
000000c0: 1524 c53c 3889 5dbd 2fc8 cfba c141 d9bc
000000d0: 451c b1bb 1b2e 13bd 329f d9bc c980 bcbb
000000e0: a56a 393d 8c07 37bd 6c49 5fbc cd19 79bb
000000f0: c6aa 7abd 1031 333c 0ead d5bc d898 06bd

net.layer4.1.weight f4 [64]
1.6546167 1.7555082 1.80943 1.7492871 2.2602336 1.7966746 1.7730434 1.6280292
1.8421162 1.7573675 1.7649423 1.7474957 1.5828755 1.795061 1.7702272 1.6715733
1.7947966 1.639822 1.6286709 1.8683997 1.8310748 1.6875541 1.8321908 1.6885825
1.9843448 1.4398406 1.6936357 1.2588025 1.4525843 1.788891 1.7793232 1.6939751
1.7065793 1.6861329 1.8638717 1.8338641 1.6569968 1.9795115 1.6233686 1.7630919
1.952799 1.7598202 1.7517378 1.7356217 1.7718024 1.7474115 1.9012971 1.8997391
1.7871916 1.8347765 1.5292121 1.7528728 1.6569924 1.9383299 0.94512886 1.6820973
1.6569861 1.8918393 1.8765211 1.5736412 1.7577374 1.633988 1.7169303 1.8766599
00000000: 7bca d33f 7eb4 e03f 679b e73f a4e8 df3f
00000010: aba7 1040 6ff9 e53f 16f3 e23f 4363 d03f
00000020: 77ca eb3f 6bf1 e03f a1e9 e13f f0ad df3f
00000030: aa9b ca3f 8fc4 e53f ce96 e23f 1df6 d53f
00000040: e5bb e53f b0e5 d13f 4a78 d03f b927 ef3f
00000050: a960 ea3f c601 d83f 3a85 ea3f 7923 d83f
00000060: 03ff fd3f b24c b83f 0ec9 d83f 7120 a13f
00000070: 48ee b93f 61fa e43f ddc0 e33f 2dd4 d83f
00000080: 3171 da3f 34d3 d73f 5993 ee3f 0fbc ea3f
00000090: 7918 d43f a260 fd3f 8bca cf3f ffac e13f
000000a0: 51f5 f93f ca41 e13f f238 e03f da28 de3f
000000b0: 6cca e23f 2eab df3f b45d f33f a72a f33f
000000c0: b2c2 e43f f5d9 ea3f 39bd c33f 235e e03f
000000d0: 5418 d43f 321b f83f f7f3 713f f74e d73f
000000e0: 1f18 d43f ca27 f23f d831 f03f 136d c93f
000000f0: 8afd e03f 8526 d13f 5fc4 db3f 6436 f03f

net.layer4.1.bias f4 [64]
0.16019058 0.114966765 0.08947945 -0.025678465 0.19056866 0.18227533 0.07802283 0.13416031
0.23281126 0.1800332 0.035060313 0.008003121 -0.008329816 0.06668304 -0.017705664 0.07031913
0.31289795 0.117845885 0.0195582 0.122930266 -0.00742389 0.060081895 0.0654048 0.09236029
0.14562781 -0.028983798 -0.03646078 -0.076978676 -0.044599794 0.09913178 0.15731342 0.018724578
-0.028540775 -0.0689217 0.081434324 0.14446957 0.060580943 0.07105472 0.108309664 -0.064546086
0.26858205 0.32372507 0.078760974 0.04769189 0.119592175 0.05063009 0.12043598 0.20166905
-0.074057944 0.115061484 0.032680105 0.03770956 0.033578206 0.030807463 -0.09194491 0.029912198
0.06296701 0.0256883 0.08233642 0.06344363 0.10140537 0.084514916 0.044448182 0.20483226
00000000: 0009 243e b273 eb3d 0041 b73d a55b d2bc
00000010: 6e24 433e 62a6 3a3e 6fca 9f3d 5261 093e
00000020: 1366 6e3e a05a 383e 679b 0f3d 861f 033c
00000030: c879 08bc 1e91 883d 780b 91bc 7a03 903d
00000040: 2934 a03e 2f59 f13d 8538 a03c ddc2 fb3d
00000050: 1a44 f3bb 6f18 763d f4f2 853d 6427 bd3d
00000060: 751f 153e 6e6f edbc e657 15bd ffa6 9dbd
00000070: 46ae 36bd 9a05 cb3d c516 213e 4964 993c
00000080: 58ce e9bc d226 8dbd 0ac7 a63d d5ef 133e
00000090: b923 783d 2385 913d 75d1 dd3d bd30 84bd
000000a0: 9683 893e 4bbf a53e 6f4d a13d 9258 433d
000000b0: beec f43d 7f61 4f3d 24a7 f63d 5582 4e3e
000000c0: b1ab 97bd 5ba5 eb3d 93db 053d 5775 1a3d
000000d0: 4d89 093d ef5f fc3c 9d4d bcbd 6d0a f53c
000000e0: d9f4 803d 4570 d23c ff9f a83d bcee 813d
000000f0: 9ead cf3d 2816 ad3d 4c0f 363d 8cbf 513e
