old_mp/maml_step1500_k_1_n_way5.pt (torch, 143486 bytes, 26 tensors)

net.layer1.0.weight f4 [32, 3, 3, 3]
00000000: 2fd8 04be 2688 91be 816f 1bbe 9775 b73d
00000010: 6228 5f3d c864 91bb cb41 0c3e aadc 813e
00000020: 94a3 ff3d bcf5 12be dd69 84be ad58 32bd
00000030: 5837 c43d 6041 97bd 2b8c 8abd b600 863d
00000040: 0b05 6f3e 2147 223e 4edd efbd 0d13 85be
00000050: 3a5e f2bd c9dd 0d3e cb7e 133d 4d57 fabd
00000060: e1b6 97bd 27fc 743e 57f2 673e d66b 67bc
00000070: 62a5 243e d99c 673e 694e 8e3b 1af9 b23e
00000080: f515 993d 7a78 213e 81f6 033e a585 93bd
00000090: 3f72 31be 2119 00be 236e d5bd 224a 373d
000000a0: daa5 dfbd 54da b6bd 7a8d f6bd bf6f 8bbe
000000b0: 5244 5ebe 689f d23c 33fc 14bd 5b9c ad3d
000000c0: 6650 6f3c ff27 403e 24c7 273e 8819 483c
000000d0: f209 633d 8c14 80bd fd55 2fbe d5ac 44bb
000000e0: 5dd5 713e 077b 373c a551 8b3d 0a34 12be
000000f0: 3d9c e13d ab4b bc3d f749 f9bd b42a 94be
00000100: 0deb 2ebe 0c89 8e3e 248d 073e 133b 67bc
00000110: 99de 5dbe 39a1 293e 34a6 183e 10b9 94bd
00000120: 1537 a9bd 1fae 55bd a2d6 da3e 0180 1f3e
00000130: 517b 2c3e 12d5 f1bd 8e35 07bd 8621 a2bd
00000140: 8751 a1be 5c19 463e cbdc 543e 94e3 003e
00000150: d907 913e 9b75 d43e 86c2 3e3e 4feb 37ba
00000160: 3754 5c3e 52e0 fb3c d8e3 65bd 5603 0b3d
00000170: 68ff b33d 7e8c 99bd a33e 0f3c 8cee cdbc
00000180: 0b38 9a3d cbaf 183b 98a9 e9bd b2c7 22be
00000190: d0f0 873c ff6d 51be f33a 5c3d 00ae 4dbd
000001a0: 958f 7abd bfdf 30be d581 84be ae4d 53bd
000001b0: 5d17 883d 8481 aebc 3ee5 14bd 5c50 4a3d
000001c0: 7ac0 7c3d e2f7 74bd 46dc c13c 2067 5bbd
000001d0: 331f 28be 78f2 4d3e 237c d63d b27b d83d
000001e0: b4be bc3c 26f9 263c d960 89bd b7c8 3b3c
000001f0: cb25 55ba fb7d 023e 51a7 05bf f7ec cbbe
00000200: ed1b e6bd fb10 9ebe 8e08 4ebe 3285 3f3d
00000210: 180c dabd 00b3 bbbc e1b6 053e 4737 44be
00000220: a1c3 23be 7e91 39be 78eb 56bd baf3 e93d
00000230: 617f 1e3d c4ab febd f87e b03b 320c 9c3b
00000240: 11ee 513e cc13 3d3e 575b e23b 8a54 a23d
00000250: 96d8 213e 9bc4 313e 4b91 a6bc 6e53 193e
00000260: a85f 993d 10fc 0e3d 3a37 5c3e 08e6 e8bd
00000270: 6acc 723d 5968 af3e 991a 85bc 689c ebbb
00000280: 34dc 8d3d ac57 493d c6ac 4d3e 74c6 83be
00000290: 7538 b33b 79b3 093d fe35 503d 377c 5dbe
000002a0: 3726 7b3e e1a1 d6bd 2cb5 a13b e457 1c3e
000002b0: c914 50be 1904 753e 6e95 2ebe fe30 173e
000002c0: f966 e2bd 85d1 d6bd 6a81 4cbe 1be3 2e3d
000002d0: 45c3 a43d 1f6b 4dbe 6f93 e43d 5c10 acbd
000002e0: a9da 173e 284d df3d c5ac 4a3c 1562 2fbe
000002f0: 8960 b63d f0f5 2b3d c842 c03c 776d 09be
00000300: 0cc9 69be b9a4 96bd 6397 0f3e 95d9 49be
00000310: 86eb 06be 94a5 3d3e 044f 343e 9916 5fbd
00000320: b280 a2bd da32 1abe fe91 063e c468 6b3e
00000330: 7cdb d8bd 83a3 a03d 453d 873e a60b 473e
00000340: 26de edbd 50d9 603c d3c2 6fbe 409a 87bc
00000350: dd58 9e3d cd67 68be a3a6 89bd 806e 673e
00000360: 6699 b53e 520d 4cbe b2bd bbbd 55ea c43e
00000370: dc35 35be 713f 87bd 5d50 903d f547 8ebe
00000380: df5f b3bd 7c1b 38bd 25fa 35bd e44c 473e
00000390: bb1f df3c 008f 00be 2ae4 803e ceea 09be
000003a0: 6ad5 7a3d 43ae 15bd 0f7f ccbd bd05 37be
000003b0: 8cc3 cfbc bee7 06be 4396 57bd dba8 d53d
000003c0: a738 6f3d 6b0f 443d 0857 3e3e 9a82 c53e
000003d0: 2f3d f13d ae26 e8bd fde6 263e c092 423d
000003e0: c42c 56be 2daa 293c 3e56 8cbe 8074 02be
000003f0: 7d10 eebc bdfe f63d 4647 e6bd f173 0d3d
-0.12973092 -0.28424186 -0.15179254 0.08957975 0.05448187 -0.004437063 0.13696973 0.25363666
0.12482372 -0.14351553 -0.25862017 -0.0435416 0.095808685 -0.07385516 -0.06765016 0.06543104
0.23341767 0.15847446 -0.117121324 -0.25991097 -0.118343785 0.13854136 0.03600959 -0.122236826
-0.07407928 0.23924313 0.22651039 -0.014124831 0.16078714 0.22618426 0.0043428433 0.34955674
0.07474891 0.15768614 0.12887003 -0.07203225 -0.17328738 -0.12509586 -0.104213975 0.044748433
-0.109203056 -0.089283615 -0.12038703 -0.27233693 -0.2170575 0.025710776 -0.03637333 0.08477088
0.014606571 0.18765257 0.1638456 0.012213118 0.055429406 -0.06253919 -0.17122646 -0.0030010242
0.23616548 0.011198766 0.06802682 -0.14277664 0.11016128 0.0919412 -0.12172311 -0.2893883
-0.17081852 0.27838933 0.13237435 -0.0141132055 -0.21666946 0.16565408 0.14907151 -0.0726186
-0.08262459 -0.052168008 0.42741877 0.15576173 0.16843916 -0.11808218 -0.033010058 -0.0791655
-0.31507513 0.19345611 0.20787351 0.12586814 0.283263 0.41495976 0.18628892 -0.00070159597
0.215165 0.030746613 -0.05612549 0.03393873 0.08788949 -0.074975 0.008742961 -0.025138162
0.075302206 0.002329814 -0.114093006 -0.1589649 0.01659432 -0.20452116 0.053767156 -0.050214767
-0.061172087 -0.17272852 -0.25880304 -0.051587753 0.06645081 -0.021301992 -0.036351435 0.049393043
0.061706997 -0.059806712 0.023664605 -0.053565145 -0.16418152 0.20112026 0.10472896 0.10570468
0.023040153 0.010191238 -0.06707925 0.011461428 -0.0008130937 0.1274337 -0.5220843 -0.39829227
-0.11235795 -0.3087233 -0.20120451 0.046757884 -0.10646838 -0.022912502 0.13058044 -0.19161712
-0.15992595 -0.18121907 -0.052470654 0.1142344 0.038695697 -0.124351054 0.0053862296 0.004762196
0.20500971 0.18464583 0.006907861 0.07926281 0.15805277 0.17360155 -0.020332953 0.14973232
0.07488948 0.034908354 0.21505442 -0.11372 0.059276976 0.34259298 -0.016248034 -0.007190276
0.06926766 0.049155876 0.20085439 -0.25737345 0.0054693767 0.033618424 0.05083274 -0.21629415
0.24526297 -0.10480095 0.0049349274 0.15267903 -0.20320429 0.23927344 -0.1704919 0.14764783
-0.11054797 -0.104891814 -0.19971243 0.042697053 0.08045057 -0.20060395 0.11160933 -0.08401558
0.14829506 0.10903388 0.012370293 -0.17127259 0.08905131 0.04198259 0.023469344 -0.13420664
-0.228306 -0.07355637 0.14022593 -0.19711907 -0.13175783 0.18520194 0.17608267 -0.05446491
-0.07934703 -0.15058461 0.13141629 0.22989184 -0.10588738 0.078436874 0.26413932 0.19438037
-0.11614637 0.013723686 -0.23414163 -0.016553044 0.07731793 -0.22695847 -0.067212366 0.22600746
0.35468596 -0.19926956 -0.09167041 0.3846003 -0.17696327 -0.06603897 0.07046578 -0.27789274
-0.0875852 -0.044948086 -0.04442801 0.19462925 0.02723681 -0.1255455 0.25174075 -0.13468477
0.061238684 -0.036543142 -0.09985172 -0.17873283 -0.025361799 -0.1317434 -0.052633535 0.10432597
0.058403637 0.047866266 0.18587887 0.38576204 0.11779248 -0.113355026 0.16299053 0.047503233
-0.20915514 0.0103555145 -0.27409548 -0.12739754 -0.029060597 0.12060306 -0.11244063 0.0345344

net.layer1.0.bias f4 [32]
00000000: b382 92bd 9544 61bd 1b68 29be fecc c53c
00000010: fa35 3d3e bcb5 3abe e0f0 173e c99d 2cbd
00000020: 7578 8ebd d6ba f23d cdba fd3d 3b3d 623d
00000030: 4e9b 8b3d 8822 233b 66b2 bcbc 1f42 d33d
00000040: 88fe 36bd ab69 6abd 8d14 f1bd 4489 1bbd
00000050: 3763 e23d fe01 633d 94a9 ad3d b836 31be
00000060: a1b5 223e 3ca4 ee3d 8346 e53d 89a0 83bd
00000070: f1b4 09be 9d94 c6bd e2ff cdbd f5fd 2bbe
-0.07153835 -0.054997046 -0.1654362 0.0241456 0.18477622 -0.18233389 0.1483798 -0.042142663
-0.06956569 0.118520424 0.12389145 0.055234175 0.068167314 0.0024892408 -0.023034286 0.10315346
-0.044676334 -0.05722968 -0.11771498 -0.037972704 0.1105408 0.05542182 0.0847961 -0.1730603
0.15889598 0.11652419 0.1119509 -0.06427104 -0.1344793 -0.096963145 -0.100585714 -0.16796096

net.layer1.1.weight f4 [32]
00000000: 8700 af3f 4f51 303f b291 903f 9cb0 333f
00000010: bba0 563f 9a41 2c3f a31d 5f3f 63ac 873f
00000020: 1979 5a3f ea4b 833f f369 5b3f 2513 513f
00000030: 36f8 973f 0b3d 453f 6991 8b3f 4f9b 313f
00000040: 0e9b 993f f480 5e3f 2b1a a53f 235b 8e3f
00000050: 075d a03f c1f4 153f 680f 873f aeba 713f
00000060: c4b6 403f 828c 903f ae02 433f f781 2b3f
00000070: ddd0 673f 6fbd 923f db60 503f 753a 883f
1.3672036 0.6887407 1.1294463 0.7019136 0.83839005 0.672876 0.871546 1.0599483
0.8534103 1.0257542 0.8570854 0.8166984 1.1872623 0.7704627 1.0903751 0.6937761
1.2000444 0.86915517 1.2898611 1.1121563 1.252839 0.5857659 1.0551577 0.94425476
0.7527888 1.129288 0.76175964 0.66995186 0.90553075 1.146406 0.8139779 1.064284

net.layer1.1.bias f4 [32]
00000000: f090 563e 2f49 ecbb 96e3 fe3e 4c11 04be
00000010: 1a2b e3be 00cf 39be d3b0 abbd dc1b 433f
00000020: b6ce 833d 963e 32be 780b 953d cce5 5fbe
00000030: c81b 8c3e cb05 153d 0380 c93e 1852 55be
00000040: 029b b13e 56d2 eebd 8bf2 9e3e a47a 313f
00000050: e42f c43e 8260 b1be 91f7 18be 625d 0bbe
00000060: 4769 8ebe 03cf ce3e 531c b3be 8812 9cbe
00000070: 3327 6dbc e1d6 483f a02b dabe 6bcf 1a3f
0.20953727 -0.0072108726 0.4978301 -0.12897223 -0.4436882 -0.1814537 -0.08383336 0.76214385
0.06435911 -0.17406687 0.07277578 -0.21865004 0.27364945 0.036382478 0.39355478 -0.20832098
0.34688574 -0.11661212 0.3104442 0.6932776 0.38317788 -0.34643942 -0.14938189 -0.13609841
-0.27814695 0.40392312 -0.34982547 -0.30482888 -0.014474678 0.7845288 -0.42611408 0.60472745

net.layer1.1.running_mean f4 [32]
00000000: 0000 0000 0000 0000 0000 0000 0000 0000
00000010: 0000 0000 0000 0000 0000 0000 0000 0000
00000020: 0000 0000 0000 0000 0000 0000 0000 0000
00000030: 0000 0000 0000 0000 0000 0000 0000 0000
00000040: 0000 0000 0000 0000 0000 0000 0000 0000
00000050: 0000 0000 0000 0000 0000 0000 0000 0000
00000060: 0000 0000 0000 0000 0000 0000 0000 0000
00000070: 0000 0000 0000 0000 0000 0000 0000 0000
0.0 0.0 0.0 0.0 0.0 0.0 0.0 0.0
0.0 0.0 0.0 0.0 0.0 0.0 0.0 0.0
0.0 0.0 0.0 0.0 0.0 0.0 0.0 0.0
0.0 0.0 0.0 0.0 0.0 0.0 0.0 0.0

net.layer1.1.running_var f4 [32]
00000000: 0000 803f 0000 803f 0000 803f 0000 803f
00000010: 0000 803f 0000 803f 0000 803f 0000 803f
00000020: 0000 803f 0000 803f 0000 803f 0000 803f
00000030: 0000 803f 0000 803f 0000 803f 0000 803f
00000040: 0000 803f 0000 803f 0000 803f 0000 803f
00000050: 0000 803f 0000 803f 0000 803f 0000 803f
00000060: 0000 803f 0000 803f 0000 803f 0000 803f
00000070: 0000 803f 0000 803f 0000 803f 0000 803f
1.0 1.0 1.0 1.0 1.0 1.0 1.0 1.0
1.0 1.0 1.0 1.0 1.0 1.0 1.0 1.0
1.0 1.0 1.0 1.0 1.0 1.0 1.0 1.0
1.0 1.0 1.0 1.0 1.0 1.0 1.0 1.0

net.layer2.0.weight f4 [32, 32, 3, 3]
00000000: 55d7 bdbd 01f1 f23c 51be 953d 0812 24be
00000010: 3f62 44bd 21f5 72bd 404f f8bd 5f2a a8be
00000020: cb1b 84bc db73 1d3e 21b3 253d 96d8 403e
00000030: 33ac 4e3d 0e10 803e bbe1 ce3c 4ff2 76be
00000040: bc0f c1bd 9ce8 b1bd 3de6 f2bd 733a 2d3d
00000050: 6730 f13d 7e77 a0bd 4b22 a8bb a79a afbd
00000060: 155d 303e 4b08 ccbc 8ea3 00be e21f 6c3d
00000070: 1120 803e 1e29 9c3e a322 1b3e 6c96 8a3e
00000080: a6a6 a13e 15d5 0bbe a6e9 ab3b c304 253e
00000090: 8c22 44be a808 02be 1a65 ec3c ff4b 25bd
000000a0: 6138 f1bd fbbd a43d 23a7 f5bd a6c9 1fbd
000000b0: 4b8d d73c f6cb 023e cbbb d4bd 4df5 89bd
000000c0: 333f 8dbd 190d aabc 1563 aebd 3e0a c9bd
000000d0: 395f b4bd a376 e53c e745 b8bd 6af8 10be
000000e0: 7e80 0bbe d250 9bbd 0913 31bb 6c63 3abd
000000f0: c91c dc3c 97ed b23d 8a9a b33d 0b08 1e3e
00000100: 5d88 013d 098e adbc 32cb ae3d 01d6 243e
00000110: 1a6b 293d c020 54bd e3cd 973d 5b33 da3d
00000120: 35e6 48be e2cc b9bd 06ea 5fbb 5ed1 27be
00000130: e554 5cbd 6f43 2e3e fb80 57bd 7117 213c
00000140: 3429 943d 02a1 e2bc 3790 22be e389 cdbd
00000150: fb32 133d ca22 4bbc 6f7e 193e 7cf8 f3bd
00000160: 8057 96bd 9db5 dd3c 984d e83d 51b6 f33d
00000170: 5f86 843d 1c16 4e3e 805d 51bc d2ad 183b
00000180: 0560 953e 185e c53d ad0f 093d 12b9 0b3e
00000190: 55fe a53d e8d8 b23d 0d75 523e 78fe ed3d
000001a0: a623 863d ff9c 913e b41b 743e 12c1 413e
000001b0: d4f2 64be 150f 84bd 3123 273d 8993 babe
000001c0: 2dba 19be 2c75 ac3d ed2c adbe 2552 22be
000001d0: c90b 5c3d cc09 343e 1dac 95bd 1da4 18be
000001e0: 25a4 ea3d f635 2ebd 4d06 f63c fe02 4b3d
000001f0: 88f2 d33c 3bd2 a93d 82a7 adbd f2df ff3c
00000200: 4350 50bd e75d 0d3e fc1f b3bd 7eb7 7bbd
00000210: de8c 5dbe 33d9 33bd 1583 33bd a43e 78bd
00000220: cfe9 a3bd 2f46 90bd 65ca b93d 69cb 1ebd
00000230: cb3d 69bd 3883 87bd 25b2 c33d b142 e43d
00000240: 4d32 283e 64f1 333d 68bc b93d b433 b7bd
00000250: 5f5c 8d3d e261 053e 55d0 98be 216b 2a3e
00000260: 1d47 0f3e 7087 12bd e6a0 ce3d d7fd 8a3e
00000270: 46df e93d 1f84 3d3e bc7c 0b3e 9d49 363d
00000280: 7831 91bc a242 d53d f151 123d b130 0ebd
00000290: cefc 8cbd 20ba 963d 9e56 eb3d d341 143d
000002a0: b288 2fbe 47f0 103c ae46 1d3d 8805 e2bd
000002b0: 1a3f ad3b b105 0abe b768 d7bd c4ca f8bc
000002c0: 2c0c ecbd f669 88bd 8e4a 30bd 97ea 97bc
000002d0: 1ed5 973d e896 8a3d 0d0f 43bd 60be 0c3d
000002e0: 1f69 c13c 00b3 ba3d c8fb 37be a776 b93d
000002f0: a45d cf3d 1315 7bbe e8b6 0abe af7a a3bd
00000300: 492b 26be e7de 89bd 11b2 6ebe cfca 86bd
00000310: c1c9 03bd ab46 2abd d62a df3d eb18 603d
00000320: ee76 fbbc 240b 643d fc98 b73c 885d 323d
00000330: e8ee b53d 989c 033e 3069 d2bb 8d22 0dbe
00000340: f38c a8bd e154 283d e95e 95bc 543a 14bd
00000350: 67de 5d3d 7ab2 dcbc 5afe 88bd 8b45 9dbd
00000360: d3cf ea3c ff54 e3bd 89c8 513d 2122 863d
00000370: a20e e7bd b3b9 a63d eff2 56bd 139f 73bd
00000380: 24ca aebc f197 6dbe c431 543d 3422 083e
00000390: efa7 63be 07af acbd 9e84 433e ad96 3cbe
000003a0: 64be ecbd 68e5 f0bd 405a 4abd a16e 62bd
000003b0: 4cbd 893c 2bac 0dbe b119 36bd 1abc 1a3e
000003c0: 0dfc 03be 37c9 75bd 8b6c 9f3d 585f bdbb
000003d0: 0290 dcbb f2f3 dabd f7d2 783b 6190 04be
000003e0: 80f4 d8bd 113c 2abe 9091 2fbe 39c7 bdbd
000003f0: aa73 523d 0942 25bc a843 d13c 68c7 34be
-0.09269587 0.029655935 0.073116906 -0.16022503 -0.047945257 -0.059315804 -0.12124491 -0.32844827
-0.016126534 0.15376227 0.040454034 0.18832621 0.05045719 0.2501225 0.025254121 -0.24115871
-0.09426829 -0.08686945 -0.11860321 0.04229207 0.1177681 -0.07835291 -0.005131041 -0.085744195
0.17223008 -0.024906298 -0.12562391 0.057647593 0.25024465 0.3050012 0.15149932 0.27067888
0.31572455 -0.13655503 0.005246359 0.16115098 -0.19153804 -0.12698615 0.028856803 -0.04035568
-0.117783315 0.080440484 -0.119947694 -0.039010666 0.02631249 0.12773117 -0.10387381 -0.067362405
-0.0689682 -0.020758199 -0.08514992 -0.09816407 -0.08807225 0.028010672 -0.08997708 -0.14157262
-0.13623235 -0.075837746 -0.0027019402 -0.045504972 0.026869195 0.08736723 0.0876971 0.15432756
0.031624187 -0.021185892 0.0853485 0.16097261 0.041361906 -0.051789045 0.07412317 0.106543265
-0.19619067 -0.090722814 -0.0034166588 -0.16388461 -0.0537919 0.17017911 -0.05261324 0.009832249
0.07234421 -0.027664665 -0.15875326 -0.100360654 0.03593729 -0.012398431 0.14989637 -0.11912629
-0.07340908 0.027064139 0.11342925 0.119000085 0.06470942 0.20125622 -0.01277864 0.0023296964
0.2917482 0.096370876 0.033462215 0.13644817 0.081051506 0.08732778 0.20552464 0.11620802
0.06549768 0.2844009 0.23838693 0.18921307 -0.22358257 -0.06448189 0.040805046 -0.36440685
-0.15012427 0.08420786 -0.33823338 -0.15851648 0.053722177 0.17581862 -0.07308219 -0.14906354
0.11457089 -0.04253193 0.030032301 0.0495634 0.025872484 0.082920514 -0.08479215 0.031234715
-0.050857794 0.13805352 -0.08746335 -0.06145429 -0.21635768 -0.04390831 -0.04382618 -0.060606614
-0.0800358 -0.070446365 0.09071807 -0.038768206 -0.056943696 -0.06616825 0.09555463 0.11145533
0.16425438 0.04393138 0.09069139 -0.089454085 0.06902384 0.1302562 -0.29846445 0.16642429
0.13991971 -0.035773695 0.10089283 0.2714679 0.11419539 0.18507431 0.13621801 0.044503797
-0.017723784 0.104131 0.035722677 -0.034714404 -0.06884156 0.07359719 0.1149113 0.036195587
-0.17141989 0.008846349 0.038397484 -0.11036211 0.0052870633 -0.13478734 -0.1051802 -0.030370124
-0.11525759 -0.066608354 -0.04303985 -0.018544478 0.07413696 0.06767064 -0.047621775 0.034361243
0.023609696 0.09116173 -0.1796714 0.09055834 0.101252824 -0.24519758 -0.13546336 -0.079823844
-0.1622745 -0.067319684 -0.23310114 -0.065816514 -0.03217483 -0.0415713 0.10896842 0.054711264
-0.030696359 0.055674687 0.022411816 0.04354623 0.088834584 0.12852705 -0.0064212307 -0.13782711
-0.08230009 0.04109657 -0.018233733 -0.03618844 0.054167178 -0.026940573 -0.06689139 -0.0767928
0.028663551 -0.11100196 0.051216636 0.06549478 -0.11282088 0.08140888 -0.052477773 -0.059477877
-0.021336623 -0.23202492 0.051805273 0.13294297 -0.2223203 -0.08431821 0.19093558 -0.18416853
-0.11559752 -0.11762506 -0.049402475 -0.055281285 0.016813897 -0.13835208 -0.044458095 0.15110818
-0.12889118 -0.060006347 0.07784375 -0.005779188 -0.0067310343 -0.1069106 0.0037967542 -0.12945701
-0.1059351 -0.16624476 -0.17145371 -0.09266514 0.051379837 -0.010086545 0.025544956 -0.17654192

net.layer2.0.bias f4 [32]
00000000: 15a8 f6bc b66c 11bd cf39 10bc 18e2 95bc
00000010: 2010 03bd 4a88 38bd c82c 51bd 9549 fbbb
00000020: 5786 763b 13fc 3e3d dd97 3f3d 6ee5 dcbc
00000030: e6c1 bbbc c279 eebc 0ede 1d3d a792 3a3d
00000040: ca5e 943c f771 95bc 7b77 393d 9548 6fbc
00000050: 020f 133d 22c9 783d f460 8c3c 3e88 12bd
00000060: 72c5 68bd 89b6 4dbd 8915 6dbd 4030 f5bc
00000070: 8c5d 93bc ef0b bcbc ee7c b73c 175a 453d
-0.030109445 -0.035504065 -0.008802845 -0.018296286 -0.0319978 -0.04505185 -0.051068097 -0.007668684
0.0037616694 0.046627115 0.046775687 -0.02696487 -0.022919606 -0.029110793 0.038541846 0.045550015
0.018111605 -0.01824282 0.04527996 -0.014604707 0.035902984 0.06073869 0.017136075 -0.035774462
-0.056828924 -0.050222907 -0.057881866 -0.029930234 -0.017988943 -0.02295491 0.022398438 0.04818162

net.layer2.1.weight f4 [32]
00000000: 338a 553f dbb4 8c3f 5331 4c3f dc97 6a3f
00000010: c02a 9b3f 9742 6b3f 5217 7e3f 6899 613f
00000020: 572c 7f3f 301b 843f 620c 893f c1ee 823f
00000030: 76e9 7b3f 9679 7c3f 8a48 7e3f 93ed 6c3f
00000040: 5730 883f 0f9c 8b3f 44c5 773f f548 533f
00000050: 0db1 743f 82a5 543f afeb 903f 2e09 8b3f
00000060: 39e4 7b3f 53ba 693f 6d08 983f 2917 933f
00000070: afe7 703f 1307 4e3f 779d 813f d655 943f
0.83414 1.0992693 0.7976276 0.9163797 1.2122421 0.91898483 0.99254334 0.88124704
0.9967703 1.0320797 1.0706904 1.0229112 0.9840311 0.98623025 0.99329436 0.9255001
1.0639752 1.0907 0.9678538 0.825332 0.9558266 0.83065045 1.1321925 1.0862176
0.98395115 0.91299933 1.1877571 1.1491443 0.9410352 0.80479544 1.012618 1.1588695

net.layer2.1.bias f4 [32]
00000000: f705 d6bd 4395 7ebe 929b 26be 99b4 55be
00000010: c926 a7be 802a 31be ac63 163d 267f 173e
00000020: 780d ecbd 5670 99be a12f 95be 718e 1bbe
00000030: 8ad9 20be 5714 14be fdf1 0abf 8cc7 9cbd
00000040: 5e14 61be b124 e1be 6933 2abe 6773 28be
00000050: 7747 aebc 7639 94bc ca06 bfbe a7d5 9ebe
00000060: 1657 a5be ffa6 8cbe 2da1 bebd 5996 c1be
00000070: 62e3 523c 7e2b 40be c2f6 6cbe 80e7 e0bd
-0.104503565 -0.24861626 -0.16270283 -0.20869674 -0.32646778 -0.17301369 0.03671615 0.14794597
-0.115260065 -0.29968518 -0.291379 -0.15191056 -0.15707985 -0.14460884 -0.54275495 -0.07655248
-0.21980426 -0.43973306 -0.16621174 -0.16450273 -0.021274311 -0.018093806 -0.37309867 -0.3102238
-0.32293004 -0.27471158 -0.093080856 -0.3781002 0.012871595 -0.18766591 -0.23141006 -0.10981655

net.layer2.1.running_mean f4 [32]
00000000: 0000 0000 0000 0000 0000 0000 0000 0000
00000010: 0000 0000 0000 0000 0000 0000 0000 0000
00000020: 0000 0000 0000 0000 0000 0000 0000 0000
00000030: 0000 0000 0000 0000 0000 0000 0000 0000
00000040: 0000 0000 0000 0000 0000 0000 0000 0000
00000050: 0000 0000 0000 0000 0000 0000 0000 0000
00000060: 0000 0000 0000 0000 0000 0000 0000 0000
00000070: 0000 0000 0000 0000 0000 0000 0000 0000
0.0 0.0 0.0 0.0 0.0 0.0 0.0 0.0
0.0 0.0 0.0 0.0 0.0 0.0 0.0 0.0
0.0 0.0 0.0 0.0 0.0 0.0 0.0 0.0
0.0 0.0 0.0 0.0 0.0 0.0 0.0 0.0

net.layer2.1.running_var f4 [32]
00000000: 0000 803f 0000 803f 0000 803f 0000 803f
00000010: 0000 803f 0000 803f 0000 803f 0000 803f
00000020: 0000 803f 0000 803f 0000 803f 0000 803f
00000030: 0000 803f 0000 803f 0000 803f 0000 803f
00000040: 0000 803f 0000 803f 0000 803f 0000 803f
00000050: 0000 803f 0000 803f 0000 803f 0000 803f
00000060: 0000 803f 0000 803f 0000 803f 0000 803f
00000070: 0000 803f 0000 803f 0000 803f 0000 803f
1.0 1.0 1.0 1.0 1.0 1.0 1.0 1.0
1.0 1.0 1.0 1.0 1.0 1.0 1.0 1.0
1.0 1.0 1.0 1.0 1.0 1.0 1.0 1.0
1.0 1.0 1.0 1.0 1.0 1.0 1.0 1.0

net.layer3.0.weight f4 [32, 32, 3, 3]
00000000: 81a6 5bbe eec9 47be ea4e 92bd 1013 01be
00000010: 108c 63be d524 52be 4515 55bb 5b87 d2bc
00000020: 9c44 67be a744 28bc 183e 9abd c5a8 033e
00000030: b061 e7bd cb51 653d 4de5 663e b667 10bb
00000040: 606e 7e3e 5d64 8d3c cc76 19be ce8d 66be
00000050: 4216 903c 9b61 e3bd b94b 8cbc 07c3 153c
00000060: 149f ebbd 5e33 e23d 4e7b 17bc 8876 bdbd
00000070: 8976 07be fed2 2e3c 0b1f 34be a0dc 053e
00000080: 6383 b8bd c3b7 67bd a218 2f3d 75e4 ac3d
00000090: df1e 6abd f058 823d e88f 913e a1e9 f7bd
000000a0: d85e b8bb 997d 563d d451 b3bc 2127 96bd
000000b0: 6361 923c 276b 9cbd 11d7 1bbd 796a 7fbd
000000c0: a534 99bc 7b4c 01be 536d 28be 33d0 67bd
000000d0: cf31 10be baa4 cfbd cd5e b13d 1609 073e
000000e0: 6d4d c9bc 503e 9a3d f396 1bbe 15d8 d4bc
000000f0: 8550 3cbe 80f2 e4bd ba1e d73d 9e69 afbd
00000100: 08c6 8a3d 53e0 a1bd 7c24 c3bd 4b12 d4bc
00000110: 1c5a 543d 2954 6d3c 5b52 33be cacf 93bd
00000120: e8c1 3abe 8ce1 edbd a4d6 f9bd d446 b8bc
00000130: 135b 02bc 5153 0bbe fc73 8c3b 1247 4ebc
00000140: 94a6 703d 6600 debd 3b74 6ebc 2156 bfbd
00000150: fa46 80bd 431f 3cbe da33 e83c 54ec 8ebd
00000160: 17b3 3dbd 4897 28bd bf5f f9bd 1e31 30be
00000170: 5558 75bd 4aee f8bb 8b37 323b df22 b03d
00000180: d3f9 8e3d 33c4 323e 0e80 cd3d 6665 bf3d
00000190: b7ce 32bc e1ed 203d 45de 343d 4329 3b3e
000001a0: c169 033d c7ea 8ebd 1944 43bd 677a 0ebe
000001b0: e23d 93bd 487f e9bd 98ad 8dbd 3654 57be
000001c0: 81b5 3c3b b958 72bd 5bc9 c8bd da2a 6fba
000001d0: 9d07 a2bd eddc 4a3e cdf5 573e 8ae1 bb3d
000001e0: 6eb6 e7bc cc40 e23c 7471 993d 0270 a3bd
000001f0: bf06 ca3d 5c88 3c3d d956 30be 2b77 c03c
00000200: 1dd3 31bd 3d7f e9bd c10f 0dbe 9f40 fbbd
00000210: 2bfe 6abe 3242 3e3d 5950 08be a32d a6bd
00000220: cf0b b93d 467e 9d3d cda7 9abc 4e35 b5bd
00000230: 83f0 0dbe 3619 9a3d e1a6 51bd 10d5 44be
00000240: 7d84 633d a5ef e3bd 1403 463c 7acc 653d
00000250: cd9b 153d c613 763d 6170 06bc 3046 dcbd
00000260: 92a8 0c3b 9f71 87be 0f1f a0be def5 9fbe
00000270: 32a2 96be 275d babe b168 afbe e5d9 81be
00000280: 51ba 9cbe 7818 5fbe 4926 883d 87f2 813e
00000290: e10e 843e 629d fdbc 2f85 00bd adb9 033e
000002a0: a21f bdbd 2828 02bd a623 16bd b51f 0bbd
000002b0: ab1d 6b3d c68d 4fbd 6cd4 d2bd 1b7d 273b
000002c0: f74a c43c 9def 3fbe 42e3 4239 3daf abbc
000002d0: 62b1 7dbc 0822 1d3e cc61 013e 7ccd 113d
000002e0: 74f5 353d 91d1 853e 0124 4f3d 7b10 0f3e
000002f0: d04f 48bd 7d2f 893d e607 483e f587 853d
00000300: 6751 b1bd b3d2 703e 21be 733b 89bf d4bc
00000310: 4edd 1eba aaf5 813e f63f ebbc 0747 c4bd
00000320: 9b53 17be b6c5 a6ba ed5e 8c3c fe12 88bd
00000330: 50a1 69bd 7e27 99bb ac52 1bbe d4c8 06be
00000340: 8b2e edbd a59c cd3d 9a9a 10be c4a0 74bd
00000350: b856 77bd f04b de3d 300c 783b 3a52 64be
00000360: 52e9 1dbe 5b8e 05be 1f58 d8bd 68b4 4dbe
00000370: a71f 35be 757c cbbc 2b50 c7bd 4e06 253d
00000380: 3348 65bd f589 083d 1408 873a 2bc2 21bd
00000390: e9a2 393d 3425 e93d 9f5f 85ba 5bad beba
000003a0: 7590 0e3d 4540 f23c 8013 c3bd 04b3 dfbd
000003b0: d21c 453a 7bf1 12be 0d7e 693c 599d cd3d
000003c0: fcc0 acbd c115 9dbc 415a a6bd a197 b4bd
000003d0: da80 07be a8d7 9ebd 6603 073e 3145 033e
000003e0: 3567 8abd 085a 623e 6f19 a63d 600e 55bd
000003f0: 6c42 d4bd 4414 e7bd ff22 b13c 65f9 8abd
-0.21450235 -0.19510624 -0.07143958 -0.12604928 -0.22221398 -0.20521863 -0.0032513898 -0.025699308
-0.22584766 -0.010270274 -0.07531375 0.12857349 -0.11297929 0.055986207 0.22548409 -0.0022034473
0.24846792 0.017259771 -0.14986724 -0.22515032 0.017588738 -0.11102601 -0.017125951 0.009140736
-0.11504951 0.11044954 -0.009245707 -0.09251124 -0.13228811 0.010670422 -0.17589967 0.13072443
-0.09009435 -0.056571733 0.0427481 0.08442012 -0.057158347 0.0636462 0.28430104 -0.12105108
-0.0056265406 0.052365873 -0.021889605 -0.07331682 0.017868703 -0.07637625 -0.0380469 -0.0623574
-0.01870186 -0.12626831 -0.16447954 -0.05659504 -0.140815 -0.10138841 0.0866066 0.1318706
-0.024573052 0.075314164 -0.15194301 -0.025981942 -0.18390091 -0.11179066 0.105039075 -0.08565067
0.06776053 -0.079041146 -0.09528443 -0.025887629 0.051843747 0.014485397 -0.17511885 -0.07217367
-0.18238032 -0.11615285 -0.121991426 -0.022494711 -0.007956284 -0.13606001 0.0042862874 -0.012590187
0.05875261 -0.1083992 -0.014554079 -0.093426 -0.06263538 -0.183713 0.028345037 -0.0697867
-0.04631337 -0.041159898 -0.12176465 -0.17206237 -0.059898693 -0.0075967656 0.002719375 0.08600401
0.06981244 0.17457657 0.1003419 0.09345512 -0.0109135425 0.03928936 0.044157285 0.18277459
0.032083277 -0.06978374 -0.047672365 -0.1391388 -0.071895376 -0.1140123 -0.06917876 -0.21028218
0.0028794708 -0.059166644 -0.098040305 -0.0009123512 -0.07911608 0.19810839 0.2108986 0.091738775
-0.028285231 0.027618788 0.074923426 -0.07980348 0.09864568 0.04602848 -0.1722063 0.023494324
-0.043414224 -0.11401222 -0.13775541 -0.12268185 -0.2294852 0.046449848 -0.133119 -0.08114173
0.090354554 0.076901 -0.018878842 -0.08848058 -0.13861279 0.0752434 -0.05118454 -0.19221902
0.055546273 -0.11129693 0.012085695 0.056103207 0.036525536 0.06007745 -0.008205504 -0.10755575
0.002146278 -0.26453874 -0.31273696 -0.3124227 -0.2942062 -0.36399195 -0.3425956 -0.25361553
-0.30610898 -0.21786678 0.06647927 0.25380346 0.25792602 -0.030958835 -0.031377014 0.12863798
-0.09234549 -0.031776577 -0.03665509 -0.033965785 0.05740134 -0.050672315 -0.102944225 0.0025556746
0.023961527 -0.18743749 0.00018585942 -0.020957584 -0.015484186 0.15345013 0.12634963 0.035596356
0.044423535 0.2613645 0.050571445 0.1397113 -0.04890424 0.06698511 0.19534263 0.06520072
-0.086581044 0.23517875 0.0037192183 -0.025970237 -0.00060601986 0.2538274 -0.028717022 -0.0958386
-0.14777987 -0.0012723717 0.017135108 -0.066442475 -0.057038605 -0.0046738973 -0.15168256 -0.13162547
-0.11581143 0.10039643 -0.14121476 -0.05972363 -0.060385436 0.10854328 0.0037849061 -0.22296992
-0.15421036 -0.13042586 -0.10563683 -0.20088351 -0.17687856 -0.02483962 -0.09732088 0.040289216
-0.055977058 0.03333469 0.001030209 -0.039491814 0.04532138 0.11384049 -0.0010175592 -0.0014547514
0.034805734 0.029571662 -0.09525204 -0.109228164 0.0007519248 -0.1434993 0.014251244 0.10039777
-0.08435246 -0.019175412 -0.08122683 -0.088179834 -0.13232747 -0.07755977 0.1318489 0.12819363
-0.067579664 0.22104657 0.0811032 -0.052015662 -0.103642315 -0.11283162 0.021623133 -0.067858495

net.layer3.0.bias f4 [32]
00000000: 24b7 643d 3914 c8bc 7d42 41bc fbe0 d23c
00000010: 6cc8 4a3d 636b 483d 8fb5 54bd 1afb 72bd
00000020: 087e e9bb 0a91 64bb c2e1 8abc fb30 7bbc
00000030: b15b 32bd 737e f23b ea2d 403d 38dc 83bb
00000040: c57b efbc 0046 9c3a d1e1 353d 7f0d 603c
00000050: 8dc3 713c 12e8 57bc 9610 013d bb4f c23c
00000060: b99e 153c 0074 2dbd b96b 343d 931b ad3c
00000070: 8fee 853c cd7f 523d ae14 4fbc 09a5 edbc
0.05583872 -0.024423705 -0.011795637 0.025742045 0.049507543 0.048930537 -0.05193096 -0.0593215
-0.00712562 -0.003487649 -0.016953353 -0.015331502 -0.043544475 0.007400328 0.046918787 -0.004024055
-0.029233823 0.0011922717 0.04440481 0.013675093 0.014756096 -0.0131778885 0.03150996 0.02371966
0.009132081 -0.042346954 0.044048045 0.021131312 0.016349105 0.05139141 -0.012639208 -0.029009359

net.layer3.1.weight f4 [32]
00000000: 31f4 8b3f f6eb 993f 8adf 6c3f fcdd 833f
00000010: c84a 643f 6afc 743f b8b8 9c3f f5d2 7c3f
00000020: aafa 6c3f 5ed2 743f ea2f 753f 8b92 913f
00000030: f68c 453f c8ac 773f f848 553f 319c 4c3f
00000040: d176 613f c8ec 8c3f 7b70 6c3f 048f 843f
00000050: 3729 873f 5904 933f 7083 493f 3c8d 6f3f
00000060: af96 883f a055 713f 5c3e 703f 9695 823f
00000070: b0b1 933f 58b2 5a3f f1f6 703f 8aaa 723f
1.0933896 1.2025135 0.92528594 1.0302119 0.8917661 0.95697653 1.2243872 0.98759395
0.92569983 0.95633495 0.95776236 1.1372846 0.77168214 0.9674802 0.83314466 0.7992583
0.88071924 1.100976 0.9235913 1.0356145 1.0559453 1.1485702 0.7871618 0.9357488
1.0670985 0.9427128 0.9384515 1.02019 1.1538601 0.8542838 0.941268 0.9479147

net.layer3.1.bias f4 [32]
00000000: e95f 13be 8d10 7ebe d51a 77be 0ffa c6be
00000010: 3482 e03d 1162 76be d643 29bd 678c f5bc
00000020: 6ad2 82bd 5c5b a5bd e476 42be 1673 afbc
00000030: 661d c0be 465e b6be b17e fb3c eb2c 4abc
00000040: fdb5 f9be 65a5 6dbe 321a c6be 3bf6 d1be
00000050: 9f65 e9be 69d2 b2be 31e8 2f3e 9e85 293e
00000060: dd2a 80be 7108 8bbe b78d ddbd e927 62be
00000070: 9e84 67be 003d 50be 0b4d 71be 37a0 c3be
-0.14392056 -0.24811001 -0.2413133 -0.38862655 0.10962334 -0.24060847 -0.04132446 -0.029974176
-0.063877895 -0.08074066 -0.18990666 -0.021417182 -0.3752243 -0.356188 0.03070006 -0.012339811
-0.4877166 -0.23207624 -0.3869186 -0.4100817 -0.45585343 -0.34926155 0.17178418 0.16554877
-0.25032702 -0.27154878 -0.108180456 -0.22085537 -0.22609183 -0.2033577 -0.23564546 -0.38208172

net.layer3.1.running_mean f4 [32]
00000000: 0000 0000 0000 0000 0000 0000 0000 0000
00000010: 0000 0000 0000 0000 0000 0000 0000 0000
00000020: 0000 0000 0000 0000 0000 0000 0000 0000
00000030: 0000 0000 0000 0000 0000 0000 0000 0000
00000040: 0000 0000 0000 0000 0000 0000 0000 0000
00000050: 0000 0000 0000 0000 0000 0000 0000 0000
00000060: 0000 0000 0000 0000 0000 0000 0000 0000
00000070: 0000 0000 0000 0000 0000 0000 0000 0000
0.0 0.0 0.0 0.0 0.0 0.0 0.0 0.0
0.0 0.0 0.0 0.0 0.0 0.0 0.0 0.0
0.0 0.0 0.0 0.0 0.0 0.0 0.0 0.0
0.0 0.0 0.0 0.0 0.0 0.0 0.0 0.0

net.layer3.1.running_var f4 [32]
00000000: 0000 803f 0000 803f 0000 803f 0000 803f
00000010: 0000 803f 0000 803f 0000 803f 0000 803f
00000020: 0000 803f 0000 803f 0000 803f 0000 803f
00000030: 0000 803f 0000 803f 0000 803f 0000 803f
00000040: 0000 803f 0000 803f 0000 803f 0000 803f
00000050: 0000 803f 0000 803f 0000 803f 0000 803f
00000060: 0000 803f 0000 803f 0000 803f 0000 803f
00000070: 0000 803f 0000 803f 0000 803f 0000 803f
1.0 1.0 1.0 1.0 1.0 1.0 1.0 1.0
1.0 1.0 1.0 1.0 1.0 1.0 1.0 1.0
1.0 1.0 1.0 1.0 1.0 1.0 1.0 1.0
1.0 1.0 1.0 1.0 1.0 1.0 1.0 1.0

net.layer4.0.weight f4 [32, 32, 3, 3]
00000000: da4c 97bd b0af 81bd 628f b0bd d9fd 8cbd
00000010: 3514 5ebc 3da2 0cbe 8d37 c7bd 75c1 1bbd
00000020: a695 17be e28e ab3e 7975 743e 2a66 a03e
00000030: 304c 463e a70e 1b3e 7948 1d3e 992a a63e
00000040: 19fa 2a3e aece 763e 5910 a1bd eec2 05bd
00000050: db0c de3c 5fc8 9abd 753a adbc 7d34 a0bd
00000060: a857 b6bd 0968 cebd 2196 66bc 0332 5a3d
00000070: d48b 453d 0fb6 203d 97e2 863c 0796 c93c
00000080: 8b9f bb3c db0e 2b3e 67bb dd3c f284 353d
00000090: 09d6 8dbb 0b98 463d 872d 7b3d 1b65 0f3d
000000a0: f849 b63d a142 fb3d 988b 06ba c661 b33c
000000b0: c1d2 9a3d 7328 c9bd 31c7 f13c bb5b 16be
000000c0: 0be4 08bd dac8 ce3d dc90 b5bd 49a9 1b3d
000000d0: cd0d 033e fb96 73bd c0c0 39be d494 44be
000000e0: c475 2ebe a27a 82bd 8fcf 93bd 1d0d 49be
000000f0: 8dfc 543c 59c8 88bb 4f83 64bd 0170 b13c
00000100: 1823 023d 7d99 1bbc bf98 fa3d f6b4 2dbc
00000110: 2cd7 cebc 23d2 e33d 6410 253d cc54 4b3d
00000120: 83b2 1b3e 1b57 033e 70f6 7c3d c968 b43d
00000130: 7f3b a43d 79de 6a3d 0817 c13d e958 913d
00000140: a95b e73d f26c 423e 0fb2 1b3e 2525 1d3e
00000150: a493 f73d 0cf3 de3c 16a8 653e 8b77 193e
00000160: b218 4d3e 0852 483e f79e c7bd 3fec cdbd
00000170: fc50 58be 9db3 4cbc 6a7f 89bd ede6 abbb
00000180: ffe4 79bd 7e48 b7bc 0bad c53c 4d60 603c
00000190: fba7 c93d 3d64 ee3d bc37 7b3d f678 583d
000001a0: e8a2 003d 8c64 a63c f40c e23d 180f 9a3d
000001b0: 7cc4 5dbd 6aa5 65bd 343d 0abd bf5e 67bd
000001c0: f987 43bd 7d33 d6bd 0bc8 7ebd 094d 9b3d
000001d0: 183e 6fbd becc b3be 91d2 6abe 9bc2 b0be
000001e0: ebdf 74be df75 89bd 06c6 5bbe 1ef3 70be
000001f0: 9e11 11bd 4424 8ebe a236 fa3d fe6e f63d
00000200: 0823 003e bdc8 803d 95e9 60bb a78f 7e3d
00000210: f110 bb3e 6e0f 1c3e 8577 a93e f9f9 a73c
00000220: 0beb b63d 2ac4 173e 20f5 05be 93d2 fdbd
00000230: 728b 3ebb 2a8d ccbd 5d93 23bd 83e4 ea3c
00000240: b686 19bd f4f9 91bc 916d 113b 8f02 bcbd
00000250: a113 da3c 8675 3b3c 851b e8bc 0150 1fbe
00000260: ff6e 813d f303 8b3e 7740 913e 5844 693e
00000270: 8231 4bbd 8202 eebd 2179 bc3d dd7a 443e
00000280: 4e3a e03c c7df 803e 24ba 4c3d a919 a5bd
00000290: a74c 8b3d 4170 013e b544 be3d 1351 173e
000002a0: fa8d d53d 3921 a43d 45a0 243e 4126 25be
000002b0: 8f22 42be 46d6 8bbe 0cbd 33bd 05d5 12be
000002c0: e85f 90be 4e8e a0bd 5917 d6bd 19f1 3cbe
000002d0: 6983 b2bc f4e1 973c b83a 963d ff05 253d
000002e0: d833 953d a232 b03d 6a89 82bc 6e73 723d
000002f0: 36e9 fc3d 4f03 11be e9e7 34bd 9679 d1bd
00000300: db5b 4fbd 64fd 2d3d 90fb b3bd 8612 d8bd
00000310: 6f9d 8a3a 2cbb b4bd ede8 f6bc a563 a03b
00000320: 67a8 0f3e 9f32 87bc 05cc 8f3d 8dbe 373d
00000330: 4f82 05bd da5f 33bd 7a08 633d 4e68 5d3d
00000340: 8f27 a83d 7818 e23d 72b3 9c3d 420b be3c
00000350: a2e2 613c 2236 d83d e543 cfbd 586d 923c
00000360: df9f abbc a926 cabd d03b 813b de58 e2bd
00000370: 9cf4 51be 0267 dfbd 917c 5cbd 55ed 81bd
00000380: 1cb5 92bd 7661 d9bd 71fc e3bc f197 dbbb
00000390: d5ba c6bd a41a 9f3c 4f6e 163c 8354 16bc
000003a0: d52f b7bc 75fa 973d b391 3dbd 334d 01be
000003b0: 90e7 bc3d d5a1 19be ac02 2fbe 9ee8 8abc
000003c0: b6f2 ae3c 65c8 833c 55c3 b93d 24d6 0c3e
000003d0: 6354 193e ff49 a13a 4586 353e 4515 1d3e
000003e0: 43fd 733d 156d 2f3e 5c91 2e3e 7a5f 333e
000003f0: 2ddb b93c 07c7 003c dd1a c2bd c621 abbd
-0.07387705 -0.06332338 -0.08621098 -0.06884355 -0.013554622 -0.13733764 -0.09727392 -0.038026292
-0.1480318 0.33507448 0.23872937 0.31327945 0.19365 0.15142308 0.15359677 0.32454374
0.16696967 0.2410228 -0.07864446 -0.032656603 0.02710574 -0.07557749 -0.021146039 -0.07822511
-0.08903438 -0.10078437 -0.014073879 0.05327035 0.048229054 0.039236125 0.016465468 0.024607671
0.022903224 0.16704886 0.0270669 0.04431624 -0.0043284935 0.048484843 0.061322715 0.03500853
0.08900827 0.12268568 -0.00051324954 0.021897208 0.07559729 -0.09822168 0.029513927 -0.1468343
-0.033420604 0.10096903 -0.0886552 0.03800324 0.12798233 -0.059470158 -0.18139935 -0.19197398
-0.17037112 -0.063710466 -0.07217323 -0.19633909 0.012999666 -0.004174274 -0.055789288 0.021659853
0.03177175 -0.009497044 0.12236165 -0.0106022265 -0.025249086 0.11124065 0.040298834 0.049641415
0.15204816 0.12826197 0.06175846 0.08809049 0.080191605 0.057341073 0.09428221 0.070970364
0.1129678 0.18986872 0.15204643 0.15346201 0.12088707 0.027215503 0.22427401 0.14987008
0.20028952 0.19562542 -0.09747117 -0.10054826 -0.21124643 -0.012493995 -0.067137554 -0.0052460344
-0.061009403 -0.022373434 0.024130365 0.013694835 0.09846493 0.11640213 0.06133245 0.052849732
0.03140536 0.020311616 0.11037627 0.0752241 -0.05414246 -0.056065954 -0.033749774 -0.05648684
-0.047737096 -0.10459039 -0.062202495 0.07583053 -0.058408827 -0.35117143 -0.22931887 -0.34523472
-0.23913543 -0.06711935 -0.21462259 -0.23530242 -0.03541719 -0.27762043 0.12217452 0.12032889
0.12513363 0.06288288 -0.0034318913 0.062148716 0.36536363 0.15240261 0.33099 0.020504938
0.0893155 0.14820924 -0.13081789 -0.123936795 -0.0029074815 -0.099878624 -0.03993546 0.028673416
-0.037481986 -0.017819382 0.002219055 -0.091801755 0.026620688 0.011441594 -0.028333435 -0.15557863
0.06319999 0.2715145 0.28369495 0.22779977 -0.04960776 -0.11621572 0.09202791 0.19187494
0.027371552 0.2517073 0.049982205 -0.08061535 0.0680173 0.12640478 0.092904486 0.14777021
0.104274705 0.08014149 0.16076763 -0.16127874 -0.18958496 -0.27311915 -0.04388146 -0.14339073
-0.2819817 -0.078396425 -0.10453672 -0.18451346 -0.021791177 0.01854036 0.073354185 0.04028892
0.07285279 0.086034074 -0.015934665 0.059192114 0.12349169 -0.14161418 -0.04416648 -0.10228269
-0.05062471 0.04247798 -0.08788216 -0.10550408 0.0010575483 -0.08824763 -0.030140365 0.004894691
0.14029084 -0.01650363 0.070213355 0.044859458 -0.032594975 -0.043792583 0.055428006 0.05405455
0.0821067 0.11039823 0.07651414 0.023198728 0.013786944 0.105572 -0.10120372 0.017874405
-0.020950256 -0.09870655 0.003943898 -0.11052106 -0.20503467 -0.10908319 -0.053829733 -0.063440956
-0.0716345 -0.10614292 -0.027830334 -0.0067014624 -0.09703604 0.019421883 0.009181573 -0.009175423
-0.022361675 0.07420818 -0.046281528 -0.12627105 0.092238545 -0.1500314 -0.17090863 -0.016956624
0.021355968 0.016086766 0.0907046 0.13753563 0.14973597 0.0012305378 0.17727001 0.15340145
0.0595677 0.17131455 0.17047638 0.1751689 0.022687519 0.007859952 -0.0947778 -0.08356051

net.layer4.0.bias f4 [32]
00000000: 4f76 51ba d9de 9fbc 9505 ebbc db15 a13c
00000010: 823c 343c 05d9 a83c 190e 72bd 8669 713c
00000020: fd6d 0d3d 24ed c9bc 7dca 003d 1504 56bc
00000030: f013 7bbc 8c88 003c 4c47 383d bb5a c3bc
00000040: 15e1 1a3c 0831 6f3d eb74 aa3c 9848 a53c
00000050: 0b2b 163d 46fd 12bd 524c 06ba ed50 223d
00000060: 10e5 943c 383e 30bd b952 2d3d b715 e53c
00000070: 09ea 05bd 8eed e33c f58c 4e3d 61e1 f53c
-0.00079903466 -0.019515442 -0.028689185 0.019663742 0.011000754 0.020611295 -0.059095476 0.014734631
0.03452872 -0.02464921 0.031443108 -0.013062497 -0.015324578 0.007845055 0.04498987 -0.023846975
0.009453078 0.05839637 0.020807704 0.020176217 0.036662143 -0.03588607 -0.0005123067 0.039627958
0.018175632 -0.043028086 0.04231522 0.027964456 -0.032693896 0.027823236 0.050427396 0.030014696

net.layer4.1.weight f4 [32]
00000000: 48c9 d43f 14af 293e 3781 3240 13c7 f73f
00000010: f0a4 e53f a744 e93f 87f4 fe3f fcf6 0640
00000020: c83b dc3f 05ab 0340 7333 223e c5fd 2a3e
00000030: e0bc c93f 9480 e63f 6a26 153e 31fa 1c3e
00000040: 0534 e03e 80fd c73f 86c4 073f 7100 573e
00000050: bfd0 0c40 42c7 973f d59c 0240 1469 283e
00000060: b12d 083f 68c6 823f eb02 283e b0cd bc3f
00000070: 433c eb3f 6a3c 1540 8a58 1840 a27c f23f
1.6623926 0.16570693 2.7891366 1.9357628 1.794096 1.8224076 1.9918374 2.1088247
1.7205744 2.0573132 0.15839939 0.16698368 1.5760765 1.8007989 0.14565435 0.15329815
0.43789688 1.5624237 0.53034246 0.20996262 2.2002409 1.1857684 2.0408223 0.16446334
0.5319472 1.0216799 0.16407363 1.4750271 1.8377765 2.3318124 2.380404 1.8944285

net.layer4.1.bias f4 [32]
00000000: 86ee 213f 8562 c2be ae05 c1bd afc0 a53e
00000010: 664d bb3d 0e6f 673f 0ed3 1d3f ee6c a23e
00000020: 4538 3d3e f57f b1be 9e07 85be a39f d1be
00000030: f6d4 2a3e 9544 493f e4fd aabe 76cc 9ebe
00000040: 208a 83be b9e6 dd3e cfe7 f4bd 77c7 d7be
00000050: 3cca 643f 4423 463e 67cf 113f 18b6 debe
00000060: cee8 efbd 61eb 23be 7e87 cdbe 43fe f03e
00000070: 99b0 b13e 793c 7f3e 5c0c 17bc ccef 803e
0.6325458 -0.3796579 -0.094249114 0.32373568 0.09145622 0.9040383 0.6165017 0.31723732
0.18478496 -0.34667936 -0.25982374 -0.40942106 0.166828 0.7862027 -0.33396828 -0.31015366
-0.2569132 0.4334009 -0.119582765 -0.42144367 0.89371085 0.1934939 0.56957096 -0.43498302
-0.11714326 -0.16007759 -0.40142435 0.47068986 0.34705046 0.24925412 -0.009219255 0.2518295

net.layer4.1.running_mean f4 [32]
00000000: 0000 0000 0000 0000 0000 0000 0000 0000
00000010: 0000 0000 0000 0000 0000 0000 0000 0000
00000020: 0000 0000 0000 0000 0000 0000 0000 0000
00000030: 0000 0000 0000 0000 0000 0000 0000 0000
00000040: 0000 0000 0000 0000 0000 0000 0000 0000
00000050: 0000 0000 0000 0000 0000 0000 0000 0000
00000060: 0000 0000 0000 0000 0000 0000 0000 0000
00000070: 0000 0000 0000 0000 0000 0000 0000 0000
0.0 0.0 0.0 0.0 0.0 0.0 0.0 0.0
0.0 0.0 0.0 0.0 0.0 0.0 0.0 0.0
0.0 0.0 0.0 0.0 0.0 0.0 0.0 0.0
0.0 0.0 0.0 0.0 0.0 0.0 0.0 0.0

net.layer4.1.running_var f4 [32]
00000000: 0000 803f 0000 803f 0000 803f 0000 803f
00000010: 0000 803f 0000 803f 0000 803f 0000 803f
00000020: 0000 803f 0000 803f 0000 803f 0000 803f
00000030: 0000 803f 0000 803f 0000 803f 0000 803f
00000040: 0000 803f 0000 803f 0000 803f 0000 803f
00000050: 0000 803f 0000 803f 0000 803f 0000 803f
00000060: 0000 803f 0000 803f 0000 803f 0000 803f
00000070: 0000 803f 0000 803f 0000 803f 0000 803f
1.0 1.0 1.0 1.0 1.0 1.0 1.0 1.0
1.0 1.0 1.0 1.0 1.0 1.0 1.0 1.0
1.0 1.0 1.0 1.0 1.0 1.0 1.0 1.0
1.0 1.0 1.0 1.0 1.0 1.0 1.0 1.0

net.classifier.weight f4 [5, 800]
00000000: a433 923c 7525 da3a 9fba 4a3c 4774 83bc
00000010: fef9 2bbc aa45 183d 9235 5e3d c78b dcbb
00000020: 7da2 863c a93f 13bc 6f01 c2bc 4a8e f93b
00000030: 313b 913c 2602 42bb d9aa 3ebc cdcf 5abc
00000040: 15b2 fbbc 17bd 093d 682e 1ebc c32a fa3a
00000050: c90d d3bc cc79 03bd ae1f e0bc 9232 893d
00000060: 1f96 53bc c540 0ebb ca91 813d 5fa0 8d3c
00000070: 53c4 ecbc 2a63 933d 4ad5 6f3d 3f31 74bd
00000080: 572e af3c d010 9dbc 81b1 7f3c 14d1 81bc
00000090: 7da2 9e3c d469 29bd 838a 34bd 698f 1cbd
000000a0: aa0b 323c d12d 183c 36f5 763d 252b eb3b
000000b0: 738c fe3b e93c 783c 2670 22bb f693 a5bc
000000c0: 8efe 20bd c1a7 b93c a993 0d3d da7f 2c3d
000000d0: 46ab 54bc eb64 16bc 88f5 fabc 02ea 8b3c
000000e0: b128 083c 8713 f4bc 68e6 76bc d551 d9bb
000000f0: 6bcf e0bc 6a49 c1bc 642b 19bd 4d34 e8bb
00000100: 068c 073d c362 47bc 177e b8bc e6cb 73bb
00000110: 1393 25bd 11e8 10bc 5f2f a13b 686e f6bb
00000120: 6be2 15ba 6dbf 6e3c c279 9c3b c77d 03bd
00000130: 6613 f83b eb7d 9bbc ce02 cd3c d5ee b4bc
00000140: 88e0 1d3d 435f bbbc 3caf 2f3d 2cc2 2cbd
00000150: 9902 f1bc eebe b3bc b4cb 79bc ab4c d93b
00000160: 59ef 9bbc 5599 edbc f35e 57bc 4fd4 f83c
00000170: c0ef 7ebc abbd 063b d234 31bc 21f5 f2bb
00000180: f9b9 60bc 3ff5 f43b 5226 88bb b43b ccbc
00000190: 27b7 95ba 4d00 a9bc b25b bebc 20e4 e7bc
000001a0: 3290 a43c 4b36 d93c 15de 7b3d 4b02 b73c
000001b0: 028b 193c 4770 8b3c 3d38 a0bc 5e3c 93ba
000001c0: 3070 10bd 1e21 533c ea7b 723c 593b 2bbd
000001d0: 0b16 a53c e121 46bc e3bd 83bc 1d5a 333c
000001e0: 9b60 8a3c 539e abbb b8c0 273c 7a6c e7bc
000001f0: 968d b83b 3240 99bb b495 d3bb 1685 c3bc
00000200: 6cd4 cbbb e44a 8c3a 43e1 863c 2fcb adbb
00000210: fc63 1b3c 61ee 88bc d6b8 503d 3e4c cfbb
00000220: 5c98 12bb 6638 023d 39bc 193c 9029 3dba
00000230: f58a 833c 8733 fb3c 9c48 aabc 6b20 14bb
00000240: 7f9c 0d3b be57 003d a568 25bd 2c93 0e3c
00000250: 377c 223c 35df 07bc 56fb 803c 5c08 32bc
00000260: 316f ebbc 698e 2abc d646 e2ba 8e28 0d3c
00000270: f2cb aa3c 6940 af39 90e0 d9bc 0be0 153c
00000280: 683e 073d 47f3 53bb c337 c2bc 1ca9 58bd
00000290: 6117 833b 67a0 613a da74 babb 7f1e 3bbc
000002a0: bfde 9a3c a271 afbc 539f 6e3c b29c da3c
000002b0: f7cd ddbc 19e2 363b dab8 093d abb4 cfbc
000002c0: 25e0 9e3c 0986 7e3c 1fde a6bc d418 c23c
000002d0: 271d 003d 5b6f 0b3d 59e4 6e3c b8db 9ebc
000002e0: 90b5 cd3c 41a7 bdbc 859c 0ebc 34e4 103c
000002f0: ab8c 8fbc 16ec 1b3d 779b af3c e665 61b9
00000300: 7b8b 083c c009 02bc 6c2b edbc 44dd 1e3d
00000310: b63d 4d3c 44ae 75bc 45cf 16bd e814 80bc
00000320: de60 ff3c 75b0 2e3c 55df 3f3c 4817 d9bc
00000330: b958 023d 99a8 793c 80f3 a73c c425 61bc
00000340: 6116 91bc 03e7 97bc 3b56 783d 1973 10bd
00000350: d2e6 713b 715a c53c 40d4 fc39 b3ef 9c3c
00000360: d34a e43c 2283 5fbc bce3 ebbc ffa0 27bd
00000370: b604 7fbd f8b1 da3c e07e e0bc 32ab a9bb
00000380: 9b87 1c3c a06a 2e3d b769 14bc 2b2a 96bc
00000390: 78ad 703c b15f dcbc 93f9 5e3c 86c0 10bd
000003a0: ead0 d2bb 04f6 20bd 0c9c 10bd b5e6 bcbb
000003b0: 8796 acbc b0fb 243c faf1 a0bc 41fc 1237
000003c0: d9c3 123c 82e3 56bc c09c 74bd 3e2e af3c
000003d0: d093 a0bc a823 14bb aa24 323d 14c3 3e3c
000003e0: b09b 143d 86fa 79bc de7b 083d 0101 89bc
000003f0: 8042 fe3c c392 52bc 4dd6 3f3d 5d10 95bc
0.01784689 0.0016643243 0.0123735955 -0.016046656 -0.0104966145 0.03717581 0.054250307 -0.00673053
0.016434902 -0.008987346 -0.023682324 0.007615839 0.01772842 -0.0029603331 -0.011637413 -0.013355208
-0.030724565 0.033627596 -0.009654619 0.001908623 -0.02576341 -0.032098576 -0.027358856 0.06699099
-0.01291421 -0.0021706086 0.06326635 0.017288385 -0.028902208 0.071966484 0.058553018 -0.059617277
0.021384401 -0.019173056 0.015606285 -0.015846767 0.01936459 -0.04136069 -0.044077408 -0.038222704
0.010867039 0.009288267 0.060292445 0.007176774 0.0077682077 0.015151241 -0.0024786084 -0.020212155
-0.039305262 0.022663 0.034564648 0.042114116 -0.012980288 -0.009179334 -0.030634657 0.017079357
0.008310483 -0.029794468 -0.015069582 -0.0066320696 -0.027442655 -0.023594577 -0.037394896 -0.007086313
0.03309252 -0.012169543 -0.022521062 -0.003720039 -0.040423464 -0.008844391 0.004918977 -0.0075204857
-0.0005717638 0.014572007 0.004775257 -0.032102372 0.007570672 -0.01898094 0.025025751 -0.02208654
0.038544208 -0.022872573 0.042891726 -0.042177364 -0.029420184 -0.021941628 -0.0152463205 0.006631454
-0.019035028 -0.029003778 -0.013145196 0.030374674 -0.015560091 0.0020559828 -0.010815816 -0.0074144755
-0.013716214 0.0074755247 -0.0041549588 -0.024930812 -0.0011422382 -0.020630026 -0.023237083 -0.02830702
0.020088289 0.026515147 0.06149109 0.02233996 0.009371521 0.017021311 -0.019558067 -0.0011233201
-0.03526324 0.012886314 0.014800051 -0.041804645 0.020152112 -0.012093038 -0.016081756 0.010946778
0.016891768 -0.0052373796 0.010238819 -0.028249968 0.0056321127 -0.004676842 -0.006457055 -0.023867171
-0.006220391 0.0010703471 0.016464835 -0.0053037624 0.009484287 -0.01671523 0.050957523 -0.0063262274
-0.0022368645 0.031792067 0.009383255 -0.0007215971 0.01605747 0.030664219 -0.020786576 -0.002260233
0.0021608172 0.031333677 -0.040383 0.008702081 0.00991731 -0.008292963 0.015744846 -0.010866251
-0.028739544 -0.01040993 -0.0017263542 0.008615626 0.020849202 0.0003342659 -0.026596338 0.009147654
0.0330185 -0.003234105 -0.02370823 -0.05289565 0.0040005897 0.00086069707 -0.0056901993 -0.011420845
0.018905042 -0.021416489 0.014564353 0.026686046 -0.02707575 0.002790576 0.033623554 -0.025354704
0.01939399 0.015534886 -0.020369587 0.02369348 0.0312778 0.034041744 0.0145808095 -0.01939188
0.02511099 -0.023151042 -0.008704309 0.00884347 -0.01752313 0.038066946 0.021436436 -0.00021495632
0.008334036 -0.007936895 -0.02895137 0.038785234 0.01252692 -0.014995161 -0.03681876 -0.015634969
0.03117412 0.010662188 0.011710961 -0.02650036 0.031822894 0.015237951 0.020501852 -0.013741914
-0.017710866 -0.018542772 0.06062911 -0.035266016 0.0036911261 0.024090977 0.00048223324 0.019157266
0.02786771 -0.013642104 -0.028795116 -0.040925022 -0.062260352 0.02669619 -0.027404249 -0.005177879
0.009553815 0.042582154 -0.0090584075 -0.018330654 0.014689796 -0.026901098 0.013609308 -0.035339855
-0.006433596 -0.03929712 -0.035305068 -0.005764807 -0.02106787 0.010069773 -0.019646633 8.761011e-06
0.0089578265 -0.0131157655 -0.0597198 0.021384355 -0.019601732 -0.002260426 0.043491997 0.01164319
0.036281288 -0.015257483 0.033321254 -0.016724112 0.031037569 -0.0128523735 0.046835233 -0.01819628

net.classifier.bias f4 [5]
00000000: 930f 463c 682b 14bb e253 6f3b 386e be3c
00000010: 4fdd 703c
0.012088674 -0.002260888 0.0036518504 0.023245916 0.014701202
