old_mp/maml_omniglot_step14500_k_1_n_way5.pt (torch, 462290 bytes, 26 tensors)

net.layer1.0.weight f4 [64, 1, 3, 3]
0.21481127 0.23830141 -0.08159264 -0.34679216 0.18739891 0.060906783 -0.060206763 0.23521627
-0.0074681714 -0.010083758 -0.21611546 0.0075919847 -0.18537688 0.26599076 0.2695029 0.060902547
-0.10282266 -0.2829555 -0.026210595 -0.092091285 0.01892188 0.16841699 -0.3436623 0.22978371
0.22916979 0.26126295 0.1763793 0.28411976 0.16881393 0.38883474 -0.16678609 -0.057865515
-0.20576052 -0.04492106 0.15286791 0.022023784 0.21303433 0.35812622 0.08162636 -0.16226764
0.028438814 -0.10193934 -0.1833564 -0.2570121 -0.08244267 0.0069483677 0.17380433 0.1790969
-0.11656811 -0.14221813 -0.35384053 0.10893125 0.14007401 0.20423563 -0.059837688 -0.21145867
0.2396925 0.21200718 -0.21710521 0.108432405 -0.019299416 -0.1748264 0.25452423 0.021498753
0.07868382 -0.20120879 0.11569388 0.23326784 0.23836763 0.06894115 -0.29917526 0.11192631
0.018387282 0.24081317 -0.1884402 -0.25639123 0.277961 -0.031837713 0.21202157 -0.05731158
0.15078127 -0.10956263 -0.07070406 -0.107985675 -0.049085177 0.09114719 -0.18793662 -0.23985195
0.3353045 -0.22027463 0.055139028 -0.12047522 -0.21128525 -0.021446561 0.41579258 0.107279494
-0.13932529 -0.23029064 0.007816527 0.18404682 0.31426775 0.107273474 0.056216963 -0.28621194
0.29378128 0.024927905 -0.18248782 0.15402254 -0.05005901 0.008747388 -0.062358372 0.036931556
-0.10313687 -0.29385906 0.27235943 0.17968166 0.34907135 -0.105615534 -0.05158052 -0.13399526
0.21994369 0.2149618 0.3345508 0.25641063 -0.0039106817 0.25560993 0.056137007 0.29663172
0.16966295 0.25925523 -0.17493314 -0.19832185 0.27597815 -0.06994854 -0.025460405 -0.097123116
0.24276161 -0.13139507 0.11403202 -0.22386226 0.11357753 -0.16973305 0.3622946 -0.18348193
-0.031068288 0.021933587 -0.27660564 -0.04846046 -0.13235699 -0.19951746 -0.31274307 -0.21902195
0.06804135 -0.2114455 0.14743534 0.34172985 -0.07222161 0.07558737 -0.057730515 -0.1810074
-0.09775809 0.30212334 0.17471358 -0.32812095 0.049862213 0.20518136 0.086339355 0.3173045
-0.0944661 0.15099412 -0.15017447 0.25951037 -0.062019106 -0.0022092573 -0.10755948 -0.3036778
0.14450157 0.057482153 0.19672419 0.27403972 -0.19432907 -0.040155005 0.10597485 -0.13928133
0.03849373 0.34032315 0.34041137 0.23916505 -0.07199688 0.0029523056 0.11522821 0.08006966
-0.17109042 -0.3012203 0.32583207 0.21988958 0.2535651 0.098985784 -0.13373522 0.07478236
0.28161097 -0.094828576 -0.2180728 0.11857968 0.32214004 -0.0037393027 -0.1922537 0.046024248
-0.18768701 0.12143254 -0.0054812594 -0.27302447 0.3072611 0.09336404 0.39584625 0.028955383
0.14822012 -0.2925847 0.22378403 -0.023739463 -0.10652716 -0.0014761193 -0.1311611 0.30417195
-0.20053554 -0.21713853 0.26691806 -0.067205794 -0.15480496 0.25211048 -0.049053755 -0.16255762
0.2547527 -0.08579579 0.09364934 0.2360363 0.18556759 -0.17344792 -0.3487385 0.26836333
0.010730602 0.15758431 0.19842353 0.29152927 0.16592167 -0.2638943 0.05902374 0.014333376
-0.1560517 0.12725335 0.09727241 -0.23308755 -0.06551299 0.015111488 -0.07616299 -0.015147024
00000000: 7cf7 5b3e 4905 743e 0b1a a7bd be8e b1be
00000010: 80e5 3f3e 6479 793d 5e9b 76bd 89dc 703e
00000020: 90b7 f4bb 5936 25bc 5f4d 5dbe 2fc6 f83b
00000030: 70d3 3dbe f12f 883e 49fc 893e f374 793d
00000040: b094 d2bd 8bdf 90be 9ab7 d6bc 5b9a bcbd
00000050: 0f02 9b3c 8175 2c3e 81f4 afbe 6c4c 6b3e
00000060: 7cab 6a3e 42c4 853e c69c 343e 2578 913e
00000070: 8fdd 2c3e 5915 c73e f9c9 2abe 6404 6dbd
00000080: e3b2 52be 25ff 37bd 6889 1c3e 396b b43c
00000090: ac25 5a3e 525c b73e b92b a73d 7d29 26be
000000a0: 84f8 e83c 93c5 d0bd c8c1 3bbe 1797 83be
000000b0: b4d7 a8bd 22af e33b c3f9 313e 2e65 373e
000000c0: 43bb eebd a1a1 11be 962a b5be 5917 df3d
000000d0: 906f 0f3e 2523 513e 5d18 75bd 9f88 58be
000000e0: f371 753e 6918 593e d450 5ebe cf11 de3d
000000f0: cf19 9ebc b105 33be 0051 823e 271e b03c
00000100: fc24 a13d ad09 4ebe eaf0 ec3d c4dd 6e3e
00000110: a516 743e 0531 8d3d 802d 99be 9f39 e53d
00000120: eda0 963c ba97 763e 78f6 40be b645 83be
00000130: e750 8e3e 4368 02bd 2f1c 593e 8cbf 6abd
00000140: 6866 1a3e 5f62 e0bd 4acd 90bd 9827 ddbd
00000150: 8a0d 49bd 61ab ba3d 7572 40be c09b 75be
00000160: 08ad ab3e ac8f 61be 76d9 613d b6bb f6bd
00000170: 295b 58be b3b0 afbc c4e2 d43e 5ab5 db3d
00000180: 4aab 0ebe 4fd1 6bbe e410 003c c576 3c3e
00000190: b4e7 a03e 32b2 db3d c243 663d 5f8a 92be
000001a0: 806a 963e 9b35 cc3c 16de 3abe 16b8 1d3e
000001b0: ad0a 4dbd 3451 0f3c 7e6b 7fbd 8b45 173d
000001c0: 6c39 d3bd b274 96be b272 8b3e 78fe 373e
000001d0: 7bb9 b23e f54c d8bd 1846 53bd 0e36 09be
000001e0: eb38 613e f21e 5c3e 3e4a ab3e 4148 833e
000001f0: 2d25 80bb 4edf 823e ebef 653d 1de0 973e
00000200: 20bc 2d3e 1abd 843e ac21 33be e214 4bbe
00000210: 024d 8d3e 2e41 8fbd 5792 d0bc 7ce8 c6bd
00000220: 8096 783e 6e8c 06be 9f89 e93d 263c 65be
00000230: 569b e83d 80ce 2dbe ae7e b93e b0e2 3bbe
00000240: ec82 febc 11ae b33c 419f 8dbe 7a7e 46bd
00000250: 9788 07be 4e4e 4cbe dc1f a0be 4a47 60be
00000260: 4359 8b3d 2b85 58be 4af9 163e 37f7 ae3e
00000270: ece8 93bd 8dcd 9a3d d576 6cbd 015a 39be
00000280: 6535 c8bd e9af 9a3e 1ee8 323e 78ff a7be
00000290: 523c 4c3d 101b 523e b0d2 b03d bc75 a23e
000002a0: 7177 c1bd 349e 1a3e 56c7 19be 8bde 843e
000002b0: bf07 7ebd 30c9 10bb 2548 dcbd a87b 9bbe
000002c0: 38f8 133e 6872 6b3d 1172 493e ef4e 8c3e
000002d0: 33fe 46be 9379 24bd 5809 d93d c49f 0ebe
000002e0: 9aab 1d3d d63e ae3e 664a ae3e afe7 743e
000002f0: 1a73 93bd 787b 413b c5fc eb3d 90fb a33d
00000300: 5432 2fbe 8c39 9abe 76d3 a63e bc2a 613e
00000310: 49d3 813e 0fb9 ca3d e3f1 08be 7e27 993d
00000320: 502f 903e 7c35 c2bd 7a4e 5fbe e7d9 f23d
00000330: 8aef a43e 170f 75bb 27de 44be ec83 3c3d
00000340: 0631 40be a0b1 f83d 239c b3bb ddc9 8bbe
00000350: 5451 9d3e a535 bf3d 5cac ca3e d733 ed3c
00000360: 04c7 173e a9cd 95be a427 653e 4379 c2bc
00000370: e92a dabd 587a c1ba 184f 06be 6dbc 9b3e
00000380: 3059 4dbe 9059 5ebe 7ca9 883e 31a3 89bd
00000390: 3185 1ebe a014 813e 97ec 48bd 8175 26be
000003a0: f26e 823e b4b5 afbd 3acb bf3d 80b3 713e
000003b0: 6e05 3e3e 559c 31be da8d b2be eb66 893e
000003c0: 68cf 2f3c c85d 213e 8a2f 4b3e 5343 953e
000003d0: 5fe7 293e 271d 87be e1c2 713d 89d6 6a3c
000003e0: 04cc 1fbe b44e 023e c236 c73d 81ae 6ebe
000003f0: ad2b 86bd 2d96 773c 57fb 9bbd 392b 78bc

net.layer1.0.bias f4 [64]
-0.2838603 -0.12579784 0.11182828 0.37178516 -0.036568407 0.29763567 -0.07737136 0.47381893
0.27551082 0.14645253 -0.16923895 -0.12538718 -0.0038312117 -0.11168164 -0.046984334 0.09741221
-0.17969789 -0.25847757 -0.13616924 0.2667679 0.046368714 0.24883391 0.15117541 -0.31069767
-0.10385127 0.1056515 0.14260258 -0.17716986 -0.0832844 0.06826207 -0.217803 -0.16019402
-0.34325603 -0.09616555 0.4296658 -0.071876585 -0.375217 -0.3248311 0.1612747 0.06597627
0.30717373 0.3942592 0.059392557 0.31703022 0.0045772684 0.09350644 0.18718769 0.22232144
-0.20128861 0.21022238 0.32833287 0.101420246 -0.20068161 0.28245893 0.37028012 -0.09170556
0.080239 0.23282847 0.443254 0.28757375 0.064842984 -0.0023973375 0.0835833 0.37813175
00000000: 2356 91be 26d1 00be 3a06 e53d a05a be3e
00000010: c1c8 15bd b463 983e e074 9ebd 6598 f23e
00000020: c10f 8d3e a7f7 153e fa4c 2dbe 7f65 00be
00000030: 1115 7bbb 58b9 e4bd a572 40bd 0e80 c73d
00000040: b902 38be 2c57 84be f36f 0bbe cd95 883e
00000050: 1fed 3d3d 51ce 7e3e bacd 1a3e c413 9fbe
00000060: faaf d4bd d05f d83d 6906 123e 046c 35be
00000070: 0391 aabd fccc 8b3d c007 5fbe e709 24be
00000080: 41bf afbe 72f2 c4bd 28fd db3e 0834 93bd
00000090: 711c c0be 4350 a6be 3225 253e 911e 873d
000000a0: e045 9d3e 58dc c93e 9c45 733d c951 a23e
000000b0: e9fc 953b 4e80 bf3d 21ae 3f3e 3ba8 633e
000000c0: 9a1e 4ebe 8944 573e 3f1b a83e 6bb5 cf3d
000000d0: 7b7f 4dbe 759e 903e 5b95 bd3e 20d0 bbbd
000000e0: 5854 a43d 966a 6e3e 30f2 e23e de3c 933e
000000f0: 66cc 843d a61c 1dbb b92d ab3d 7c9a c13e

net.layer1.1.weight f4 [64]
1.2535961 0.6059796 1.0942531 0.84772545 0.5672838 0.7862951 0.83023053 1.28357
1.2150682 0.40208042 0.60820806 1.1853541 0.9287203 1.0991731 1.2036006 0.45743865
0.68615717 0.89016485 1.3276188 0.7200309 0.958989 1.2728053 0.5219563 1.1649861
0.5010459 0.7288676 1.4305447 0.79061085 1.1709166 0.5505599 0.65923905 0.6324347
0.5763054 1.2320049 1.2603023 1.4627941 1.2168914 1.2541312 1.350566 0.5215365
1.1218877 0.8411157 0.645301 1.3825976 0.5893792 1.0658872 1.4027791 0.5753201
0.68008214 0.90044564 1.6727511 0.6479463 1.0578253 0.75077033 1.217408 1.0305747
0.5190157 0.7780816 0.7240421 0.99214077 0.7847507 1.0783223 0.78638476 1.2931602
00000000: d675 a03f 7b21 1b3f 7c10 8c3f 8904 593f
00000010: 8339 113f a34a 493f fd89 543f 064c a43f
00000020: 5b87 9b3f 7cdd cd3e 86b3 1b3f afb9 973f
00000030: 9dc0 6d3f b4b1 8c3f 960f 9a3f 6635 ea3e
00000040: ffa7 2f3f d8e1 633f 6aef a93f f253 383f
00000050: 4e80 753f 49eb a23f ee9e 053f 441e 953f
00000060: 8b44 003f 1197 3a3f 171c b73f 7965 4a3f
00000070: 98e0 953f 7ef1 0c3f e4c3 283f 3ee7 213f
00000080: c088 133f 56b2 9d3f 9651 a13f d63c bb3f
00000090: 19c3 9b3f 5f87 a03f 59df ac3f 6b83 053f
000000a0: 049a 8f3f 5c53 573f 7232 253f f5f8 b03f
000000b0: 8ee1 163f fe6e 883f 448e b33f 2e48 133f
000000c0: dd19 2e3f 9b83 663f b51c d63f cfdf 253f
000000d0: d266 873f 7c32 403f 06d4 9b3f dfe9 833f
000000e0: 37de 043f 5b30 473f d35a 393f f0fc 7d3f
000000f0: 6ce5 483f 7706 8a3f 8350 493f 4686 a53f

net.layer1.1.bias f4 [64]
-0.51786464 -0.9438075 -0.51390886 -0.18686639 -0.32091382 -0.36535922 -0.30834943 -0.43513253
-0.5204448 -0.66246676 -0.40900403 -0.58834326 -0.3757348 -0.3299366 -0.5007138 0.04484646
-1.2415041 -0.20506926 -0.4850131 -0.27245072 -0.4038963 -0.73824203 0.14855896 -0.54744995
-1.0658872 0.09278965 -0.8089766 -0.093770124 -0.17410679 -0.06372116 -0.21936199 -0.22941059
-0.9767012 -0.68853694 -0.42913494 0.080999926 -0.54480684 -0.57396424 -0.7171065 -0.956147
-0.36409557 -0.26409402 0.08634838 -0.44481304 0.41212103 -0.40229562 0.23358007 0.4778055
-1.0617687 -0.22859178 -0.6618198 -0.9879471 -0.16238703 -0.8025603 -0.43136808 -0.24694747
-0.8644504 -0.38171065 -0.36693862 -0.29882523 -0.27877992 -0.4591792 -0.07861357 -0.70809555
00000000: c792 04bf 5e9d 71bf 888f 03bf e759 3fbe
00000010: d14e a4be 5d10 bbbe fadf 9dbe b1c9 debe
00000020: df3b 05bf 6c97 29bf fa68 d1be aa9d 16bf
00000030: 5060 c0be 73ed a8be c82e 00bf ecb0 373d
00000040: 9be9 9ebf adfd 51be a353 f8be a97e 8bbe
00000050: 7fcb cebe 6efd 3cbf d71f 183e ae25 0cbf
00000060: fe6e 88bf 8008 be3d 1719 4fbf 8d0a c0bd
00000070: 0d49 32be 3d80 82bd 6ea0 60be 9cea 6abe
00000080: 1709 7abf f543 30bf 93b7 dbbe 4ae3 a53d
00000090: 7678 0bbf 52ef 12bf 4b94 37bf 0dc6 74bf
000000a0: bc6a babe 5537 87be 6bd7 b03d 89be e3be
000000b0: 8701 d33e b1f9 cdbe 9d2f 6f3e eca2 f43e
000000c0: 09e8 87bf f713 6abe 066d 29bf 1aea 7cbf
000000d0: c948 26be 9874 4dbf 47dc dcbe ccdf 7cbe
000000e0: 9f4c 5dbf 946f c3be 61df bbbe 9fff 98be
000000f0: 3ebc 8ebe 8919 ebbe 2700 a1bd c045 35bf

net.layer1.1.running_mean f4 [64]
0.0 0.0 0.0 0.0 0.0 0.0 0.0 0.0
0.0 0.0 0.0 0.0 0.0 0.0 0.0 0.0
0.0 0.0 0.0 0.0 0.0 0.0 0.0 0.0
0.0 0.0 0.0 0.0 0.0 0.0 0.0 0.0
0.0 0.0 0.0 0.0 0.0 0.0 0.0 0.0
0.0 0.0 0.0 0.0 0.0 0.0 0.0 0.0
0.0 0.0 0.0 0.0 0.0 0.0 0.0 0.0
0.0 0.0 0.0 0.0 0.0 0.0 0.0 0.0
00000000: 0000 0000 0000 0000 0000 0000 0000 0000
00000010: 0000 0000 0000 0000 0000 0000 0000 0000
00000020: 0000 0000 0000 0000 0000 0000 0000 0000
00000030: 0000 0000 0000 0000 0000 0000 0000 0000
00000040: 0000 0000 0000 0000 0000 0000 0000 0000
00000050: 0000 0000 0000 0000 0000 0000 0000 0000
00000060: 0000 0000 0000 0000 0000 0000 0000 0000
00000070: 0000 0000 0000 0000 0000 0000 0000 0000
00000080: 0000 0000 0000 0000 0000 0000 0000 0000
00000090: 0000 0000 0000 0000 0000 0000 0000 0000
000000a0: 0000 0000 0000 0000 0000 0000 0000 0000
000000b0: 0000 0000 0000 0000 0000 0000 0000 0000
000000c0: 0000 0000 0000 0000 0000 0000 0000 0000
000000d0: 0000 0000 0000 0000 0000 0000 0000 0000
000000e0: 0000 0000 0000 0000 0000 0000 0000 0000
000000f0: 0000 0000 0000 0000 0000 0000 0000 0000

net.layer1.1.running_var f4 [64]
1.0 1.0 1.0 1.0 1.0 1.0 1.0 1.0
1.0 1.0 1.0 1.0 1.0 1.0 1.0 1.0
1.0 1.0 1.0 1.0 1.0 1.0 1.0 1.0
1.0 1.0 1.0 1.0 1.0 1.0 1.0 1.0
1.0 1.0 1.0 1.0 1.0 1.0 1.0 1.0
1.0 1.0 1.0 1.0 1.0 1.0 1.0 1.0
1.0 1.0 1.0 1.0 1.0 1.0 1.0 1.0
1.0 1.0 1.0 1.0 1.0 1.0 1.0 1.0
00000000: 0000 803f 0000 803f 0000 803f 0000 803f
00000010: 0000 803f 0000 803f 0000 803f 0000 803f
00000020: 0000 803f 0000 803f 0000 803f 0000 803f
00000030: 0000 803f 0000 803f 0000 803f 0000 803f
00000040: 0000 803f 0000 803f 0000 803f 0000 803f
00000050: 0000 803f 0000 803f 0000 803f 0000 803f
00000060: 0000 803f 0000 803f 0000 803f 0000 803f
00000070: 0000 803f 0000 803f 0000 803f 0000 803f
00000080: 0000 803f 0000 803f 0000 803f 0000 803f
00000090: 0000 803f 0000 803f 0000 803f 0000 803f
000000a0: 0000 803f 0000 803f 0000 803f 0000 803f
000000b0: 0000 803f 0000 803f 0000 803f 0000 803f
000000c0: 0000 803f 0000 803f 0000 803f 0000 803f
000000d0: 0000 803f 0000 803f 0000 803f 0000 803f
000000e0: 0000 803f 0000 803f 0000 803f 0000 803f
000000f0: 0000 803f 0000 803f 0000 803f 0000 803f

net.layer2.0.weight f4 [64, 64, 3, 3]
-0.2618863 -0.16880329 -0.073098704 -0.1706513 -0.1077234 -0.25621697 0.01977272 -0.23979932
-0.50204545 0.20369087 -0.0894211 -0.14844656 0.0953901 0.09794014 -0.008361724 -0.05059115
0.11865718 0.36997417 0.014023488 -0.16169727 -0.2031188 -0.14595474 -0.061870527 -0.08796735
0.08524669 0.11833474 0.04046873 -0.026372783 -0.16234611 -0.15218303 -0.4073779 -0.43939263
-0.482293 -0.021811327 -0.012025911 0.008444669 0.016778035 -0.09407445 -0.19299598 -0.10418304
-0.072404474 -0.02936206 0.15818045 0.046088267 0.2265822 -0.32999027 -0.37326849 -0.12627085
-0.26064914 -0.26062256 -0.45383808 -0.14102606 0.07531017 -0.06261263 -0.06620454 -0.25545835
-0.08004375 -0.08093066 -0.1498865 -0.071125455 -0.3018585 -0.47141853 -0.24529469 -0.23472679
0.032308236 0.07265607 0.03776886 0.059407663 -0.2812858 0.3428622 0.22439368 0.021386415
-0.15518944 -0.05507997 -0.20842147 0.1025504 -0.13446051 -0.25094786 -0.026265865 0.09973141
-0.0068102065 0.053954143 -0.069807984 -0.07261162 0.038582254 -0.10212919 0.13443646 0.025066406
0.070175365 -0.012051711 -0.0012648248 -0.09060767 0.11445252 0.012473288 0.2007797 0.10417766
-0.02573317 0.054361593 0.11665086 -0.097977385 -0.15042895 0.06653516 0.012170407 0.14203379
0.07341962 0.16222358 0.002533732 0.006078789 -0.3132719 -0.19038539 -0.08911547 0.10371345
-0.09578753 -0.4382334 0.14439766 0.16876382 -0.1099867 0.095907256 0.039277326 0.052152857
0.13263127 -0.060476206 0.042828895 -0.23836114 -0.14639409 -0.3079643 0.0062493803 -0.10868882
-0.18605138 -0.2558326 -0.23500563 -0.16180235 -0.25873792 -0.21552838 -0.11476196 0.054947637
-0.06854233 -0.05849615 -0.1260827 -0.10582832 0.042041097 -0.13985035 0.113491714 0.07952267
0.25402796 0.0060442896 -0.1707612 -0.11979393 0.11424105 -0.15298367 0.12862325 0.079149626
0.043320943 -0.079272516 -0.082404956 -0.14009233 -0.038678586 -0.12073894 -0.15483928 -0.18478155
-0.37066555 -0.23597577 -0.0049391314 -0.29874992 -0.096629426 0.17017369 0.13581005 0.115055256
0.122226596 0.31194216 0.33371678 0.12133161 -0.022458125 -0.17470847 -0.17337084 -0.14992848
-0.028941952 -0.2623953 0.08843814 -0.23645101 0.2753706 0.026774138 -0.3107447 -0.0081893
-0.05807078 -0.032456215 -0.3841706 -0.14786905 -0.18188858 0.27003014 -0.026556209 -0.30813572
0.1530015 -0.08231385 0.012035261 -0.17199498 -0.18280074 -0.12160691 0.06565883 -0.20841168
-0.09647452 0.1046377 -0.008980616 -0.07736544 0.08579279 0.049965907 -0.18972048 0.21789508
-0.107206196 -0.44124925 -0.11123641 -0.21548016 -0.28622866 -0.3609291 -0.15003183 -0.1284309
0.12598807 -0.24493685 0.12051326 -0.09053157 -0.21201581 0.006493588 -0.05586867 0.07609332
-0.16608615 -0.12169401 -0.12007386 -0.22629073 -0.244035 -0.15815157 -0.06579243 -0.108667195
-0.3204185 -0.2704949 -0.22458947 -0.2513513 -0.18878247 -0.18788195 -0.41537797 -0.3166846
-0.16506407 -0.47002274 -0.4849291 -0.16426134 -0.09580131 -0.17232414 -0.10469352 -0.16696402
-0.014633779 -0.090583645 -0.24662212 0.047020055 -0.14932647 -0.08901409 -0.0024262308 -0.04110082
00000000: f615 86be c5da 2cbe c6b4 95bd 37bf 2ebe
00000010: 169e dcbd df2e 83be 66fa a13c f48d 75be
00000020: 0d86 00bf 5794 503e 6922 b7bd 6002 18be
00000030: e25b c33d d794 c83d 9dff 08bc aa38 4fbd
00000040: 8902 f33d 416d bd3e c6c2 653c f893 25be
00000050: 60fe 4fbe 2975 15be f36b 7dbd 3a28 b4bd
00000060: d195 ae3d 7c59 f23d 8ac2 253d bc0b d8bc
00000070: 0f3e 26be ded5 1bbe d693 d0be 12f8 e0be
00000080: 1cef f6be abad b2bc 5408 45bc 825b 0a3c
00000090: 1772 893c 1baa c0bd bda0 45be eb5d d5bd
000000a0: cc48 94bd b488 f0bc 0efa 213e 0dc7 3c3d
000000b0: 2a05 683e 7cf4 a8be 0c1d bfbe 254d 01be
000000c0: ce73 85be 5270 85be 775d e8be 2369 10be
000000d0: 383c 9a3d 0d3b 80bd 3f96 87bd 70cb 82be
000000e0: faed a3bd f9be a5bd d97b 19be 39aa 91bd
000000f0: 338d 9abe c55d f1be 882e 7bbe 385c 70be
00000100: a455 043d b5cc 943d 85b3 1a3d 7355 733d
00000110: b104 90be a28b af3e 75c7 653e 9032 af3c
00000120: fbe9 1ebe 899b 61bd 706c 55be f205 d23d
00000130: 04b0 09be 3d7c 80be 832b d7bc fb3f cc3d
00000140: 2728 dfbb 05ff 5c3d 7df7 8ebd 67b5 94bd
00000150: 6d08 1e3d 1c29 d1bd b6a9 093e 1058 cd3c
00000160: 1ab8 8f3d 8a74 45bc 7ac8 a5ba 8490 b9bd
00000170: 1566 ea3d c35c 4c3c 3299 4d3e 195b d53d
00000180: 5ece d2bc 43aa 5e3d a5e6 ee3d 5ea8 c8bd
00000190: 0c0a 1abe 9643 883d 6366 473c 4e71 113e
000001a0: 075d 963d f01d 263e f80c 263b 9430 c73b
000001b0: 2d65 a0be 63f4 42be 2c82 b6bd b867 d43d
000001c0: 412c c4bd 2160 e0be fbdc 133e 6cd0 2c3e
000001d0: b540 e1bd 066b c43d 43e1 203d 3c9e 553d
000001e0: 7ed0 073e e6b5 77bd 5a6d 2f3d f114 74be
000001f0: 55e8 15be 7fad 9dbe 9ac7 cc3b 3e98 debd
00000200: 4184 3ebe 7efc 82be 51a5 70be 84af 25be
00000210: 4c79 84be 79b3 5cbe 5208 ebbd c610 613d
00000220: ec5f 8cbd a999 6fbd d31b 01be 85bc d8bd
00000230: 4933 2c3d ee34 0fbe 586e e83d c8dc a23d
00000240: f40f 823e 2d0f c63b 06dc 2ebe 8556 f5bd
00000250: 36f7 e93d c0a7 1cbe d0b5 033e 3319 a23d
00000260: 4d71 313d a159 a2bd eec3 a8bd 5d74 0fbe
00000270: 706d 1ebd fa45 f7bd 308e 1ebe 6037 3dbe
00000280: e0c7 bdbe a2a3 71be 70d8 a1bb c0f5 98be
00000290: a6e5 c5bd 0342 2e3e ca11 0b3e 17a2 eb3d
000002a0: f051 fa3d e2b6 9f3e eddc aa3e b57c f83d
000002b0: 1afa b7bc c7e6 32be 2088 31be da86 19be
000002c0: ac17 edbc ad58 86be 0e1f b53d 3720 72be
000002d0: 60fd 8c3e 7055 db3c ee19 9fbe 6a2c 06bc
000002e0: a0db 6dbd cff0 04bd 02b2 c4be fc6a 17be
000002f0: 0041 3abe 6441 8a3e 688c d9bc f7c3 9dbe
00000300: 6dac 1c3e 2a94 a8bd 8b2f 453c 741f 30be
00000310: 1e30 3bbe 0b0d f9bd 2378 863d df69 55be
00000320: 6f94 c5bd 4a4c d63d 6f23 13bc c671 9ebd
00000330: 21b4 af3d 0da9 4c3d 1646 42be e31f 5f3e
00000340: ec8e dbbd 6ceb e1be eacf e3bd d5a6 5cbe
00000350: 908c 92be b3cb b8be f2a1 19be 6483 03be
00000360: 0403 013e bad0 7abe a8cf f63d 9e68 b9bd
00000370: ac1a 59be 2ac8 d43b 8cd6 64bd d1d6 9b3d
00000380: 7d12 2abe b63a f9bd 49e9 f5bd c2b8 67be
00000390: 50e4 79be 7cf2 21be 2ebe 86bd e88c debd
000003a0: e50d a4be 4f7e 8abe c8fa 65be 1eb1 80be
000003b0: 3150 41be 2064 40be 6cac d4be 7c24 a2be
000003c0: 8e06 29be d2a6 f0be a148 f8be 2034 28be
000003d0: 7a33 c4bd bd75 30be 8e69 d6bd 9ef8 2abe
000003e0: 85c2 6fbc eb83 b9bd 828a 7cbe 1a98 403d
000003f0: 0ae9 18be 054d b6bd 6601 1fbb 5559 28bd

net.layer2.0.bias f4 [64]
0.011848427 -0.03113661 -0.03088459 -0.032145 0.0020690481 0.008441471 0.02675426 -0.015651014
-0.027205331 -0.026149847 0.042433117 -0.0038640704 0.031265676 -0.015718907 -0.015687857 -0.0228121
-0.037155986 0.022955274 -0.009162153 -0.020564117 0.041088037 -0.004178722 0.0077081993 0.0084087
0.040315483 0.0024477686 -0.0027350318 -0.020386849 0.0016882295 0.023161879 -0.011224607 -0.029338863
0.0008903963 -0.0050430167 -0.0048841517 0.0060632904 -0.03426981 0.015634717 0.034717925 0.0028324334
0.03289171 0.019339425 -0.039799612 0.025463218 -0.021577198 0.017426299 0.028765742 0.01645004
0.04599079 -0.029882364 0.019880587 0.01655708 0.02622821 0.023087494 0.031070637 0.026079109
-0.03738843 -0.03414684 0.026968477 0.0048134555 0.035209037 0.026977245 0.022594994 -0.03472549
00000000: e81f 423c 3412 ffbc ae01 fdbc 7aaa 03bd
00000010: de98 073b 184e 0a3c c02b db3c 8e36 80bc
00000020: b7dd debc 3438 d6bc 59ce 2d3d 583c 7dbb
00000030: 7010 003d f0c4 80bc d283 80bc 71e0 babc
00000040: e030 18bd b30c bc3c db1c 16bc 1476 a8bc
00000050: ee4b 283d a9ed 88bb 1095 fc3b a5c4 093c
00000060: d921 253d be6a 203b 383e 33bb 5202 a7bc
00000070: 9547 dd3a fbbd bd3c 6ae7 37bc 0e58 f0bc
00000080: 7c69 693a e43f a5bb 3c0b a0bb 91ae c63b
00000090: 805e 0cbd 6114 803c 6234 0e3d 59a0 393b
000000a0: 75b9 063d b76d 9e3c eb04 23bd 3d98 d03c
000000b0: aac2 b0bc 99c1 8e3c 22a6 eb3c 3cc2 863c
000000c0: d760 3c3d dccb f4bc 9ddc a23c b7a2 873c
000000d0: 8bdc d63c fc21 bd3c d987 fe3c dba3 d53c
000000e0: 9c24 19bd 8fdd 0bbd ffec dc3c 31ba 9d3b
000000f0: 5a37 103d 62ff dc3c 2319 b93c 513c 0ebd

net.layer2.1.weight f4 [64]
0.8972899 1.0365549 0.7440481 0.82145137 0.88403213 0.91875273 0.8923054 0.76549554
0.7680257 0.9203818 1.0296601 0.92515635 0.75035775 0.8384649 1.0123904 0.608354
0.76544696 0.9824158 0.7318209 0.9460323 0.75619334 1.0618248 1.0064621 1.0808208
1.1078877 0.7867004 0.86507684 0.82200605 0.80593365 1.4042804 0.75242853 0.9298827
1.0221775 0.8976072 0.8827636 0.8502868 1.03965 0.8079858 0.8003627 0.62938595
1.1737095 1.3202158 0.8417975 0.88305634 1.2027962 1.105808 1.0238768 0.76189005
0.84542733 0.9602009 0.9823629 0.9274887 1.1387872 0.86986154 0.83823246 1.0025778
0.8050662 0.6646172 0.91768676 0.75558186 0.73303795 1.0694597 0.9233814 0.8434942
00000000: cab4 653f d5ad 843f f079 3e3f a34a 523f
00000010: ee4f 623f 6133 6b3f 206e 643f 84f7 433f
00000020: 559d 443f 249e 6b3f e7cb 833f 0cd7 6c3f
00000030: 7217 403f a3a5 563f 0296 813f 16bd 1b3f
00000040: 55f4 433f 9a7f 7b3f 9d58 3b3f 2c2f 723f
00000050: e395 413f e0e9 873f c0d3 803f 5658 8a3f
00000060: 44cf 8d3f 3365 493f ad75 5d3f fd6e 523f
00000070: ab51 4e3f 76bf b33f 289f 403f cb0c 6e3f
00000080: b6d6 823f 96c9 653f ccfc 613f 65ac 593f
00000090: 4013 853f 28d8 4e3f 92e4 4c3f 701f 213f
000000a0: 1d3c 963f d5fc a83f 0a80 573f fb0f 623f
000000b0: 3af5 993f 1e8b 8d3f 650e 833f 3a0b 433f
000000c0: ed6d 583f bacf 753f 237c 7b3f e66f 6d3f
000000d0: c7c3 913f 3faf 5e3f 6796 563f 7854 803f
000000e0: d218 4e3f 5a24 2a3f 85ed 6a3f d06d 413f
000000f0: 60a8 3b3f 0ee4 883f b962 6c3f 3cef 573f

net.layer2.1.bias f4 [64]
-0.2523574 -0.52488834 0.29989132 -0.25173762 -0.41947713 -0.3965281 -0.63953006 -0.42070794
-0.4823609 -0.50717133 -0.43191007 -0.5398808 -1.2153912 -0.15841073 -0.5950202 0.29684588
-0.99850637 -0.34493387 -0.14233816 -0.47696757 -0.45724326 -0.49492732 -0.4314643 -0.92076695
-0.7575863 -0.9668143 -0.97770405 -0.8613942 -1.0306783 -0.5367114 -0.5325869 -0.58346856
-0.501804 -0.39120972 -1.0320381 -0.9169688 -0.727894 -0.9306072 -0.45946345 -0.7621354
-0.41019258 -0.6026005 -1.0193535 -0.27478898 -0.42031774 -0.83239335 -0.64739996 -0.5120147
-0.33067194 -0.44179964 -0.83283645 -0.3830066 -0.669585 -1.0123979 -0.87584174 -1.0389322
-0.24373136 -0.3216207 -0.4082942 -0.6459051 -0.55435735 -0.5822801 -0.48094186 -0.8058214
00000000: fd34 81be 155f 06bf 5b8b 993e c1e3 80be
00000010: b5c5 d6be bb05 cbbe 3eb8 23bf 0867 d7be
00000020: 02f8 f6be fbd5 01bf 5123 ddbe a135 0abf
00000030: f091 9bbf 6c36 22be 3e53 18bf 2ffc 973e
00000040: 1d9e 7fbf 2c9b b0be 18c1 11be 1835 f4be
00000050: ca1b eabe 1d67 fdbe e4e8 dcbe 62b7 6bbf
00000060: 2df1 41bf 2481 77bf d04a 7abf 5584 5cbf
00000070: 44ed 83bf eb65 09bf 9d57 08bf 325e 15bf
00000080: 3a76 00bf a44c c8be d319 84bf 78be 6abf
00000090: 4357 3abf 463c 6ebf cb3e ebbe 4e1b 43bf
000000a0: c304 d2be 0744 1abf 2d7a 82bf 24b1 8cbe
000000b0: e333 d7be bb17 55bf 01bc 25bf 6513 03bf
000000c0: d54d a9be 9033 e2be c534 55bf 7119 c4be
000000d0: ec69 2bbf 4196 81bf 2a37 60bf bbfb 84bf
000000e0: b794 79be 78ab a4be f00b d1be 095a 25bf
000000f0: 5dea 0dbf 4f10 15bf 033e f6be 504a 4ebf

net.layer2.1.running_mean f4 [64]
0.0 0.0 0.0 0.0 0.0 0.0 0.0 0.0
0.0 0.0 0.0 0.0 0.0 0.0 0.0 0.0
0.0 0.0 0.0 0.0 0.0 0.0 0.0 0.0
0.0 0.0 0.0 0.0 0.0 0.0 0.0 0.0
0.0 0.0 0.0 0.0 0.0 0.0 0.0 0.0
0.0 0.0 0.0 0.0 0.0 0.0 0.0 0.0
0.0 0.0 0.0 0.0 0.0 0.0 0.0 0.0
0.0 0.0 0.0 0.0 0.0 0.0 0.0 0.0
00000000: 0000 0000 0000 0000 0000 0000 0000 0000
00000010: 0000 0000 0000 0000 0000 0000 0000 0000
00000020: 0000 0000 0000 0000 0000 0000 0000 0000
00000030: 0000 0000 0000 0000 0000 0000 0000 0000
00000040: 0000 0000 0000 0000 0000 0000 0000 0000
00000050: 0000 0000 0000 0000 0000 0000 0000 0000
00000060: 0000 0000 0000 0000 0000 0000 0000 0000
00000070: 0000 0000 0000 0000 0000 0000 0000 0000
00000080: 0000 0000 0000 0000 0000 0000 0000 0000
00000090: 0000 0000 0000 0000 0000 0000 0000 0000
000000a0: 0000 0000 0000 0000 0000 0000 0000 0000
000000b0: 0000 0000 0000 0000 0000 0000 0000 0000
000000c0: 0000 0000 0000 0000 0000 0000 0000 0000
000000d0: 0000 0000 0000 0000 0000 0000 0000 0000
000000e0: 0000 0000 0000 0000 0000 0000 0000 0000
000000f0: 0000 0000 0000 0000 0000 0000 0000 0000

net.layer2.1.running_var f4 [64]
1.0 1.0 1.0 1.0 1.0 1.0 1.0 1.0
1.0 1.0 1.0 1.0 1.0 1.0 1.0 1.0
1.0 1.0 1.0 1.0 1.0 1.0 1.0 1.0
1.0 1.0 1.0 1.0 1.0 1.0 1.0 1.0
1.0 1.0 1.0 1.0 1.0 1.0 1.0 1.0
1.0 1.0 1.0 1.0 1.0 1.0 1.0 1.0
1.0 1.0 1.0 1.0 1.0 1.0 1.0 1.0
1.0 1.0 1.0 1.0 1.0 1.0 1.0 1.0
00000000: 0000 803f 0000 803f 0000 803f 0000 803f
00000010: 0000 803f 0000 803f 0000 803f 0000 803f
00000020: 0000 803f 0000 803f 0000 803f 0000 803f
00000030: 0000 803f 0000 803f 0000 803f 0000 803f
00000040: 0000 803f 0000 803f 0000 803f 0000 803f
00000050: 0000 803f 0000 803f 0000 803f 0000 803f
00000060: 0000 803f 0000 803f 0000 803f 0000 803f
00000070: 0000 803f 0000 803f 0000 803f 0000 803f
00000080: 0000 803f 0000 803f 0000 803f 0000 803f
00000090: 0000 803f 0000 803f 0000 803f 0000 803f
000000a0: 0000 803f 0000 803f 0000 803f 0000 803f
000000b0: 0000 803f 0000 803f 0000 803f 0000 803f
000000c0: 0000 803f 0000 803f 0000 803f 0000 803f
000000d0: 0000 803f 0000 803f 0000 803f 0000 803f
000000e0: 0000 803f 0000 803f 0000 803f 0000 803f
000000f0: 0000 803f 0000 803f 0000 803f 0000 803f

net.layer3.0.weight f4 [64, 64, 3, 3]
0.13162273 -0.030914918 -0.13802013 0.12957142 0.006601497 -0.07032698 -0.053201854 -0.10335224
-0.16436334 -0.0017755235 0.2989595 0.024933962 0.2770603 0.40480676 0.2712238 -0.06289916
0.065750875 -0.064943716 -0.07195396 -0.04457557 -0.07117199 -0.056700863 0.05238989 -0.18113695
-0.15738238 0.045498688 -0.0491662 -0.034530606 -0.022670047 -0.058888387 -0.07623726 0.01857872
-0.14857338 0.003151976 -0.051722325 -0.037661497 0.09633787 0.17335157 -0.011295834 0.08358933
0.07061438 0.04258476 0.017742565 0.078267045 -0.028374085 -0.19285414 0.05402938 0.01897974
0.03738667 0.012043663 -0.0713206 -0.023098893 -0.058834173 0.013076521 -0.056145914 -0.024031635
-0.011277313 -0.056634188 0.015662834 -0.047355358 0.1120172 0.094709724 0.012380106 -0.092383586
-0.026718345 0.02285019 0.021787662 0.14076433 -0.031428978 -0.115789406 -0.0074770977 -0.03767924
-0.029083276 0.055320673 -0.00850741 -0.066541635 0.043785416 0.009952333 -0.09859158 -0.037360962
-0.1587892 -0.0830174 0.08769752 -0.025268285 0.006257503 0.049454827 0.05493666 -0.007774603
-0.027059015 -0.105078116 -0.024223072 -0.013895834 0.07341905 0.056643162 0.03375084 -0.07916561
-0.011204198 -0.098611474 -0.18479995 0.078526825 0.10452527 -0.036763374 -0.045679063 0.10145274
-0.108654454 0.029319905 -0.0051006316 -0.06663131 -0.0813619 -0.077920064 -0.09330591 -0.06381602
0.038360734 -0.077031806 -0.08177141 -0.078845076 -0.10918115 0.01800333 -0.034639776 -0.120424755
-0.066439666 -0.037931006 -0.19240554 -0.17703405 -0.21622474 -0.20090279 -0.02604635 0.10815931
-0.057645112 -0.058041807 -0.00037859767 -0.15037172 -0.12760188 0.10266356 -0.22035338 0.0033296845
-0.059271537 -0.09948637 0.0749041 0.051063858 0.026538024 0.010490744 0.010686097 -0.004713768
-0.08294696 -0.010857952 -0.014923585 -0.025857432 -0.071318716 -0.049883645 -0.1462638 -0.075413376
-0.08232203 -0.113930166 0.16325147 -0.10067206 -0.059445273 0.13381994 -0.059104607 -0.08838714
0.05492813 -0.13581291 -0.009191215 0.0017621996 -0.011663213 -0.027708296 -0.14073735 -0.021445813
-0.08164438 -0.091322504 -0.019499421 0.15245013 -0.09840904 -0.1605519 -0.1080921 -0.21862526
-0.15536146 -0.11640391 -0.18003659 -0.14082403 -0.02434382 -0.018826915 -0.22283508 -0.008415106
-0.049481653 -0.08004495 0.042992163 -0.16854785 -0.08737991 0.045199215 0.17926268 -0.12865514
0.099147856 0.27165836 -0.001233837 -0.06198481 0.08813745 -0.12047464 -0.13074318 0.12517764
0.0089757275 -0.017278586 -0.08827776 -0.04091785 -0.14370723 -0.047130622 -0.16268526 -0.064125314
0.01933033 -0.08575658 -0.045239918 -0.04258909 -0.14245263 -0.10195309 -0.05450607 -0.10276114
0.092536956 -0.08980249 -0.12250743 0.10149958 0.008695129 -0.08404808 0.035279725 0.041341547
-0.0114171505 -0.031986263 -0.07667305 -0.003955712 -0.00089891296 -0.072707266 -0.058074124 -0.082051635
-0.05051085 -0.13916925 0.052289438 -0.18916528 -0.065482594 0.06745904 -0.08457085 -0.10316892
-0.04848674 -0.083654016 -0.087422535 -0.08687332 0.005897888 -0.02049052 -0.013796417 -0.020240575
-0.03022876 -0.12280337 0.03774957 -0.0036718661 -0.018461758 -0.15203586 -0.116877005 -0.02514174
00000000: 1cc8 063e 4841 fdbc 2655 0dbe 5fae 043e
00000010: 5f51 d83b 9707 90bd 30ea 59bd 57aa d3bd
00000020: dd4e 28be afb8 e8ba 3811 993e 4f42 cc3c
00000030: d9da 8d3e d542 cf3e d9dd 8a3e 46d1 80bd
00000040: 65a8 863d 3601 85bd 995c 93bd df94 36bd
00000050: 9fc2 91bd 2a3f 68bd c896 563d f77b 39be
00000060: d928 21be d55c 3a3d 7f62 49bd f76f 0dbd
00000070: 89b6 b9bc f334 71bd 4822 9cbd 6632 983c
00000080: 9f23 18be 6291 4e3b cada 53bd f142 1abd
00000090: ca4c c53d 1383 313e 2912 39bc e230 ab3d
000000a0: 469e 903d 5b6d 2e3d db58 913c 794a a03d
000000b0: c570 e8bc 8e7b 45be e94d 5d3d 667b 9b3c
000000c0: c422 193d c952 453c 8910 92bd e439 bdbc
000000d0: 1afc 70bd e83e 563c 42f9 65bd fedd c4bc
000000e0: 7bc4 38bc 40f9 67bd 584f 803c b1f7 41bd
000000f0: 4669 e53d 2cf7 c13d eed5 4a3c 9b33 bdbd
00000100: 6ee0 dabc 5230 bb3c 0a7c b23c 8624 103e
00000110: acbb 00bd ff22 edbd 7102 f5bb 8c55 1abd
00000120: 0d40 eebc ee97 623d aa62 0bbc fb46 88bd
00000130: 5658 333d 1c0f 233c 62ea c9bd cf07 19bd
00000140: a399 22be 0705 aabd c29a b33d 6fff cebc
00000150: bd0b cd3b 2591 4a3d 4305 613d 19c2 febb
00000160: deaa ddbc 3233 d7bd 776f c6bc 5aab 63bc
00000170: ba5c 963d a902 683d 523e 0a3d 9421 a2bd
00000180: d091 37bc d0f4 c9bd 333c 3dbe acd2 a03d
00000190: 5811 d63d 3195 16bd f819 3bbd 74c6 cf3d
000001a0: 3a86 debd 4c30 f03c 3323 a7bb ff75 88bd
000001b0: 11a1 a6bd 8e94 9fbd 2b17 bfbd f9b1 82bd
000001c0: 2520 1d3d dac2 9dbd c577 a7bd 8779 a1bd
000001d0: 5e9a dfbd b87b 933c 70e2 0dbd 41a1 f6bd
000001e0: 8511 88bd 8b5d 1bbd f505 45be 6a48 35be
000001f0: 056a 5dbe 76b9 4dbe 285f d5bc a182 dd3d
00000200: 481d 6cbd 3fbd 6dbd 857e c6b9 0bfb 19be
00000210: 11aa 02be 4641 d23d 51a4 61be d636 5a3b
00000220: b6c6 72bd 83bf cbbd 5267 993d 5628 513d
00000230: 4566 d93c 5fe1 2b3c bd14 2f3c f475 9abb
00000240: 19e0 a9bd 8de5 31bc 0d82 74bc f7d2 d3bc
00000250: 8c0f 92bd cb52 4cbd 2dc6 15be 5472 9abd
00000260: 7498 a8bd 3854 e9bd 652b 273e 272d cebd
00000270: e37c 73bd 1808 093e ac17 72bd 5104 b5bd
00000280: 52fc 603d 8a12 0bbe c096 16bc 9bf9 e63a
00000290: 1017 3fbc 82fc e2bc 741d 10be 21af afbc
000002a0: 2b35 a7bd 4b07 bbbd 40bd 9fbc e31b 1c3e
000002b0: ae8a c9bd b867 24be 645f ddbd 4ddf 5fbe
000002c0: 1317 1fbe 2c65 eebd 835b 38be 2d34 10be
000002d0: b16c c7bc e73a 9abc e12e 64be 83df 09bc
000002e0: 46ad 4abd 9bee a3bd 8d18 303d cf97 2cbe
000002f0: 3df4 b2bd d022 393d a390 373e 2cbe 03be
00000300: 080e cb3d ce16 8b3e b3b8 a1ba c9e3 7dbd
00000310: 6881 b43d 68bb f6bd 8ae1 05be 912e 003e
00000320: ee0e 133c d28b 8dbc f8ca b4bd 7a99 27bd
00000330: fd27 13be 0a0c 41bd f796 26be 2254 83bd
00000340: a45a 9e3c 25a1 afbd 7e4d 39bd e671 2ebd
00000350: 1adf 11be c8cc d0bd c241 5fbd 6f74 d2bd
00000360: 0484 bd3d 5eea b7bd 2de5 fabd 03df cf3d
00000370: 0476 0e3c 6621 acbd 7981 103d c155 293d
00000380: 000f 3bbc 0704 03bd c306 9dbd eb9e 81bb
00000390: 07a5 6bba 8ce7 94bd 22df 6dbd b00a a8bd
000003a0: 77e4 4ebd 6282 0ebe 732d 563d 8bb4 41be
000003b0: bd1b 86bd f727 8a3d 7b33 adbd 3a4a d3bd
000003c0: 089a 46bd cc52 abbd 960a b3bd a4ea b1bd
000003d0: 1243 c13b bcdb a7bc 5e0a 62bc 90cf a5bc
000003e0: 4ea2 f7bc 5580 fbbd 4b9f 1a3d b1a3 70bb
000003f0: 1d3d 97bc 4aaf 1bbe 365d efbd 0df6 cdbc

net.layer3.0.bias f4 [64]
-0.022008939 0.04067793 0.03262574 0.04632905 0.041243654 0.016884996 -0.0082915295 0.042762883
-0.028514652 0.0063602007 0.04560843 0.03501755 0.0016159348 0.002051001 -0.022085777 0.019527953
0.022047486 0.031211974 0.019132426 -0.040328074 -0.0033452548 0.026124697 0.009916579 -0.018459246
0.035291947 -0.011222324 0.037217487 0.014918682 0.046007194 0.014265009 -0.031168848 -0.01780669
-0.030558718 -0.0005522453 0.030017758 0.04115336 -0.0034549548 -0.015563092 -0.040373147 0.019653304
0.014680613 -0.0025850977 -0.0043989914 0.013407754 -0.003829196 0.009224051 -0.019755399 0.018195104
0.027160633 -0.022242742 -0.04031116 0.045399312 0.0007156135 -0.019185118 -0.014617123 0.014262792
0.036134522 0.04364783 0.02708142 -0.017776126 0.036655586 -0.023915498 0.02256455 0.013367461
00000000: 174c b4bc e79d 263d 91a2 053d 88c3 3d3d
00000010: 1bef 283d 6752 8a3c 32d9 07bc 2228 2f3d
00000020: 8f97 e9bc 3b69 d03b e8cf 3a3d 906e 0f3d
00000030: c6cd d33a 166a 063b 3bed b4bc 16f9 9f3c
00000040: ee9c b43c 41b0 ff3c 9bbb 9c3c 0d2f 25bd
00000050: 103c 5bbb 7603 d63c 2679 223c d837 97bc
00000060: 4a8e 103d d7dd 37bc 5d71 183d 7d6d 743c
00000070: 0a72 3c3d c9b7 693c d055 ffbc 56df 91bc
00000080: 4756 fabc 8ec4 10ba cde7 f53c 6d90 283d
00000090: 866c 62bb 57fc 7ebc 505e 25bd f7ff a03c
000000a0: f486 703c be6a 29bb 6a25 90bb 32ac 5b3c
000000b0: 40f3 7abb 7920 173c 13d6 a1bc e60d 953c
000000c0: fa7f de3c 6936 b6bc 511d 25bd a1f4 393d
000000d0: 0298 3b3a 1c2a 9dbc a87c 6fbc 7cae 693c
000000e0: cb01 143d 11c8 323d dbd9 dd3c 3d9f 91bc
000000f0: 2b24 163d 6fea c3bc 4bd9 b83c 3203 5b3c

net.layer3.1.weight f4 [64]
0.56379247 0.37953386 1.4552974 0.9747507 0.40435886 1.0945774 0.4920086 0.8881579
0.6525313 1.1090778 1.4594895 1.1468289 0.4984621 0.39002693 0.49412268 0.42916763
0.8579698 0.453529 1.3095909 0.40162027 0.39293173 0.50486284 1.2270273 0.4719565
1.2226486 0.44982672 0.41992894 0.42139754 1.0778049 0.38204262 0.6754304 1.0764176
1.1102899 1.138342 1.2162173 1.3093718 0.8902203 0.41242763 0.4724026 1.0770177
0.5090066 0.41953823 0.41879165 1.1683794 0.49311048 0.5464148 0.44103134 0.40738997
1.1356753 1.0148481 0.4490193 0.63225263 0.96698606 1.2038684 0.45046836 0.43995306
1.0067382 1.547208 0.5490331 0.4389975 0.9953604 0.9366622 0.46580532 0.44944832
00000000: b454 103f 4352 c23e 2f47 ba3f 4389 793f
00000010: 2008 cf3e 1d1b 8c3f 8de8 fb3e 515e 633f
00000020: 4b0c 273f 43f6 8d3f 8dd0 ba3f 4acb 923f
00000030: 6d36 ff3e 9cb1 c73e a6fd fc3e dcbb db3e
00000040: e9a3 5b3f f434 e83e ada0 a73f 2ca1 cd3e
00000050: 592e c93e b13e 013f 3b0f 9d3f 48a4 f13e
00000060: c07f 9c3f b04f e63e ed00 d73e 6bc1 d73e
00000070: 83f5 893f 179b c33e 02e9 2c3f 0dc8 893f
00000080: fb1d 8e3f 31b5 913f 02ad 9b3f 7f99 a73f
00000090: 7ae5 633f b729 d33e c1de f13e b7db 893f
000000a0: 424e 023f b7cd d63e dc6b d63e 758d 953f
000000b0: fa78 fc3e d7e1 0b3f dcce e13e 6b95 d03e
000000c0: cf5d 913f 8be6 813f dce5 e53e 4fdb 213f
000000d0: 668c 773f 5c18 9a3f caa3 e63e 8741 e13e
000000e0: ccdc 803f e90a c63f 6f8d 0c3f 48c4 e03e
000000f0: f0cf 7e3f 18c9 6f3f 097e ee3e 171e e63e

net.layer3.1.bias f4 [64]
-0.5574475 -0.4596087 -0.34491968 -0.21786885 -0.5051852 0.18054685 -0.44713908 0.06372299
-0.5157711 -0.16016534 0.1613491 -0.16031997 -0.44297582 -0.39866063 -0.4112872 -0.44017798
-0.015467052 -0.48334113 -0.5546872 -0.48018044 -0.4749876 -0.44553342 -0.29889312 -0.42768237
-0.24810122 -0.4312185 -0.43071657 -0.4357629 0.20123444 -0.51465654 -0.53319955 -0.29111698
-0.5717515 0.002322354 0.011231475 0.19792177 -0.3296719 -0.44647798 -0.45464882 -0.0962207
-0.4478543 -0.4729978 -0.4897565 0.0336113 -0.39935774 -0.44646442 -0.42952663 -0.44887215
-0.19262716 -0.23180436 -0.50305146 -0.3654958 -0.13277435 -0.15558966 -0.504654 -0.4625283
0.16019155 0.26837346 -0.33962354 -0.45329788 -0.056171022 -0.66269165 -0.40422654 -0.46055537
00000000: e1b4 0ebf d551 ebbe 5099 b0be 0319 5fbe
00000010: d153 01bf 46e1 383e 6aef e4be 3381 823d
00000020: 9309 04bf 6202 24be b338 253e eb2a 24be
00000030: bacd e2be 3f1d ccbe 3c94 d2be 025f e1be
00000040: 8569 7dbc 7d78 f7be fbff 0dbf 36da f5be
00000050: 9331 f3be f51c e4be 8508 99be 2ff9 dabe
00000060: 3f0e 7ebe acc8 dcbe e286 dcbe 511c dfbe
00000070: 6710 4e3e 88c0 03bf c47f 08bf 490d 95be
00000080: 4e5e 12bf a232 183b 3804 383c 01ac 4a3e
00000090: c1ca a8be c398 e4be bbc7 e8be 5c0f c5bd
000000a0: 294d e5be c52c f2be 5dc1 fabe 01ac 093d
000000b0: 9e78 ccbe fc96 e4be eaea dbbe 92d2 e5be
000000c0: 0e40 45be 1f5e 6dbe fbc7 00bf 4422 bbbe
000000d0: 00f6 07be e552 1fbe 0131 01bf 82d0 ecbe
000000e0: 4109 243e 3f68 893e 23e3 adbe a916 e8be
000000f0: 9613 66bd 29a6 29bf c8f6 cebe eacd ebbe

net.layer3.1.running_mean f4 [64]
0.0 0.0 0.0 0.0 0.0 0.0 0.0 0.0
0.0 0.0 0.0 0.0 0.0 0.0 0.0 0.0
0.0 0.0 0.0 0.0 0.0 0.0 0.0 0.0
0.0 0.0 0.0 0.0 0.0 0.0 0.0 0.0
0.0 0.0 0.0 0.0 0.0 0.0 0.0 0.0
0.0 0.0 0.0 0.0 0.0 0.0 0.0 0.0
0.0 0.0 0.0 0.0 0.0 0.0 0.0 0.0
0.0 0.0 0.0 0.0 0.0 0.0 0.0 0.0
00000000: 0000 0000 0000 0000 0000 0000 0000 0000
00000010: 0000 0000 0000 0000 0000 0000 0000 0000
00000020: 0000 0000 0000 0000 0000 0000 0000 0000
00000030: 0000 0000 0000 0000 0000 0000 0000 0000
00000040: 0000 0000 0000 0000 0000 0000 0000 0000
00000050: 0000 0000 0000 0000 0000 0000 0000 0000
00000060: 0000 0000 0000 0000 0000 0000 0000 0000
00000070: 0000 0000 0000 0000 0000 0000 0000 0000
00000080: 0000 0000 0000 0000 0000 0000 0000 0000
00000090: 0000 0000 0000 0000 0000 0000 0000 0000
000000a0: 0000 0000 0000 0000 0000 0000 0000 0000
000000b0: 0000 0000 0000 0000 0000 0000 0000 0000
000000c0: 0000 0000 0000 0000 0000 0000 0000 0000
000000d0: 0000 0000 0000 0000 0000 0000 0000 0000
000000e0: 0000 0000 0000 0000 0000 0000 0000 0000
000000f0: 0000 0000 0000 0000 0000 0000 0000 0000

net.layer3.1.running_var f4 [64]
1.0 1.0 1.0 1.0 1.0 1.0 1.0 1.0
1.0 1.0 1.0 1.0 1.0 1.0 1.0 1.0
1.0 1.0 1.0 1.0 1.0 1.0 1.0 1.0
1.0 1.0 1.0 1.0 1.0 1.0 1.0 1.0
1.0 1.0 1.0 1.0 1.0 1.0 1.0 1.0
1.0 1.0 1.0 1.0 1.0 1.0 1.0 1.0
1.0 1.0 1.0 1.0 1.0 1.0 1.0 1.0
1.0 1.0 1.0 1.0 1.0 1.0 1.0 1.0
00000000: 0000 803f 0000 803f 0000 803f 0000 803f
00000010: 0000 803f 0000 803f 0000 803f 0000 803f
00000020: 0000 803f 0000 803f 0000 803f 0000 803f
00000030: 0000 803f 0000 803f 0000 803f 0000 803f
00000040: 0000 803f 0000 803f 0000 803f 0000 803f
00000050: 0000 803f 0000 803f 0000 803f 0000 803f
00000060: 0000 803f 0000 803f 0000 803f 0000 803f
00000070: 0000 803f 0000 803f 0000 803f 0000 803f
00000080: 0000 803f 0000 803f 0000 803f 0000 803f
00000090: 0000 803f 0000 803f 0000 803f 0000 803f
000000a0: 0000 803f 0000 803f 0000 803f 0000 803f
000000b0: 0000 803f 0000 803f 0000 803f 0000 803f
000000c0: 0000 803f 0000 803f 0000 803f 0000 803f
000000d0: 0000 803f 0000 803f 0000 803f 0000 803f
000000e0: 0000 803f 0000 803f 0000 803f 0000 803f
000000f0: 0000 803f 0000 803f 0000 803f 0000 803f

net.layer4.0.weight f4 [64, 64, 3, 3]
0.018816397 0.08340082 0.039512504 -0.016362354 0.15741046 -0.0024543 -0.12202312 -0.034811866
0.023224724 0.010537125 0.015981635 0.03918134 -0.020267159 0.027182307 -0.020546619 -0.04784228
-0.012771191 -0.06652368 -0.008917193 0.02016248 -0.009219083 -0.00092533516 0.011094193 0.011072584
0.0013655861 0.008080896 0.00771123 -0.017863905 -0.021405045 -0.011121442 -0.012655789 0.009655772
0.005308498 -0.0098677445 0.015597014 0.003666303 -0.0122717125 -0.03744537 -0.11768012 -0.085521296
-0.023890382 -0.009327409 -0.082527325 -0.045324672 -0.03734175 -0.00863 -0.019631708 -0.048372354
0.021643838 0.000714831 0.013242814 0.016799627 -0.03320712 0.008413133 0.014206751 0.028356275
-0.0140652815 0.013662278 0.014932742 0.024864467 0.055662625 0.062776014 -0.04286933 0.030854419
-0.0035475814 -0.008169094 0.006976254 -0.0076080034 -0.007470523 -0.022163298 -0.0014459676 -0.011446676
0.07017964 0.033807717 0.0025306256 -0.019240772 -0.0117298495 0.07603053 0.032926176 0.030497134
-0.0037100054 -0.019666027 -0.012485975 0.02098702 -0.013761222 0.0075297668 0.0059570004 -0.014538411
0.017830653 0.011905076 -0.028774334 -0.021039572 -0.03972592 0.0027550824 -0.0012552558 -0.01915342
0.015378538 0.0055858907 0.0028230657 -0.0058544334 0.015688369 -0.009932866 -0.0015308975 0.005199745
-0.011854115 -0.004269815 0.007891181 -0.009910113 -0.07412462 -0.0072945547 0.029476047 0.033528287
-0.0072448575 0.017356902 -0.09275317 0.030516725 0.018196017 0.021414438 -0.0227365 -0.078428246
0.03983438 -0.065727584 0.046808008 0.06433166 0.044473678 -0.004432149 0.06063594 0.008375802
0.025557095 -0.025603347 0.03705189 0.013270278 -0.040750105 0.031287283 -0.060067367 -0.013449184
-0.026869152 -0.024060994 0.016493056 -0.06480755 0.03685418 0.029987298 0.024002101 0.007117365
-0.030382406 0.02558501 -0.015283039 -0.025589889 -0.012941909 0.011316121 0.032273456 -0.015460648
0.009675498 0.0069678025 0.01929938 -0.01726385 0.21258774 -0.09631844 -0.12926205 -0.04474334
-0.019800069 -0.085902296 -0.00817372 0.014104493 -0.03491944 -0.012031648 0.014578405 -0.020191459
0.011290286 -0.0033874304 -0.00697715 -0.0007682137 0.05294908 -0.05346956 -0.03067269 0.02490899
0.07416998 0.0045113107 -0.0058049667 0.033931796 -0.033108003 0.057570886 -0.02280197 0.07106185
-0.07606743 -0.07388518 0.041230284 0.022218945 -0.07161565 0.051618706 0.01836447 -0.018784309
0.061039127 -0.03834669 -0.061586626 0.04684411 0.018386768 -0.020730674 -0.011635643 -0.009514429
-0.009848274 0.00037012066 0.0020535528 -0.0138023 -0.004059341 -0.006202618 0.0052072294 -0.023134183
0.052225523 0.08261766 0.036555085 -0.02133665 0.08295832 0.061972916 0.0469377 0.102556415
0.0019598473 0.009352813 0.016994325 -0.011622637 0.021300005 0.017431011 -0.027467545 0.0061249253
-0.00038352387 0.03801118 -0.06143402 0.0746944 -0.009600996 -0.0346291 -0.019404583 -0.018233709
-0.027958466 -0.0138309 0.12289477 0.047864906 0.051359154 -0.033138946 0.03525334 -0.021800958
0.08060898 -0.04863939 -0.07639392 0.05228702 0.003433242 0.068180464 -0.04511987 -0.08927323
-0.013816981 0.023482764 -0.048054874 -0.07573922 -0.03329352 -0.0278977 -0.0012147203 0.023733083
00000000: d824 9a3c 0dce aa3d ddd7 213d 580a 86bc
00000010: 3530 213e 52d8 20bb 42e7 f9bd e396 0ebd
00000020: c741 be3c e8a3 2c3c ebeb 823c 9d7c 203d
00000030: 5007 a6bc 6ead de3c 6251 a8bc 44f6 43bd
00000040: 423e 51bc 913d 88bd 6b19 12bc c92b a53c
00000050: a30b 17bc 3192 72ba 6bc4 353c c969 353c
00000060: 77fd b23a bc65 043c 7cae fc3b 5357 92bc
00000070: a259 afbc b536 36bc 3a5a 4fbc 3e33 1e3c
00000080: e9f2 ad3b 52ac 21bc 9e8a 7f3c 5b46 703b
00000090: 4b0f 49bc 5160 19bd 4602 f1bd ca25 afbd
000000a0: c3b5 c3bc fdd1 18bc 1604 a9bd 5da6 39bd
000000b0: aaf3 18bd d864 0dbc add2 a0bc 1722 46bd
000000c0: 6b4e b13c 7f63 3b3a 63f8 583c 5f9f 893c
000000d0: 3004 08bd 3dd7 093c 6fc3 683c 6b4b e83c
000000e0: 1172 66bc bfd7 5f3c 76a8 743c 91b0 cb3c
000000f0: 7efe 633d b690 803d c097 2fbd 68c2 fc3c
00000100: 8a7e 68bb aad7 05bc 0f99 e43b 8f4c f9bb
00000110: 4acb f4bb ce8f b5bc 9f86 bdba d78a 3bbc
00000120: 58ba 8f3d f679 0a3d dad8 253b d39e 9dbc
00000130: 8e2e 40bc e5b5 9b3d 99dd 063d 20d5 f93c
00000140: 9023 73bb a61a a1bc fa91 4cbc f9ec ab3c
00000150: c076 61bc 43bc f63b f132 c33b 8432 6ebc
00000160: 9711 923c 820d 433c 27b8 ebbc 2e5b acbc
00000170: a5b7 22bd 9d8e 343b 6587 a4ba a2e7 9cbc
00000180: 43f6 7b3c d909 b73b 2f03 393b 8cd6 bfbb
00000190: e584 803c 76bd 22bc 65a8 c8ba 9f62 aa3b
000001a0: c337 42bc cee9 8bbb 034a 013c 075e 22bc
000001b0: a6ce 97bd 2907 efbb c077 f13c f554 093d
000001c0: 4566 edbb 1030 8e3c 60f5 bdbd 36fe f93c
000001d0: d00f 953c 556d af3c e541 babc fd9e a0bd
000001e0: 6029 233d 2f9c 86bd c1b9 3f3d 51c0 833d
000001f0: 082a 363d 903b 91bb 645d 783d a93a 093c
00000200: 1d5d d13c 1cbe d1bc b9c3 173d 956b 593c
00000210: 95e9 26bd 1827 003d 3309 76bd f759 5cbc
00000220: b21c dcbc 901b c5bc 721c 873c d2b9 84bd
00000230: 69f4 163d eca7 f53c 0ea0 c43c c938 e93b
00000240: 86e4 f8bc a897 d13c b665 7abc e3a1 d1bc
00000250: 4d0a 54bc 4067 393c 2c31 043d a84e 7dbc
00000260: fb85 1e3c 2a52 e43b bc19 9e3c eb6c 8dbc
00000270: 9ab0 593e 9a42 c5bd 455d 04be cb44 37bd
00000280: c133 a2bc 8bed afbd 11eb 05bc 8816 673c
00000290: b007 0fbd 6420 45bc 43da 6e3c 8f68 a5bc
000002a0: e4fa 383c a7ff 5dbb 94a0 e4bb f361 49ba
000002b0: 22e1 583d e602 5bbd 4b45 fbbc f00d cc3c
000002c0: 6ee6 973d 9ed3 933b 9737 bebb 11fc 0a3d
000002d0: 429c 07bd 73cf 6b3d 32cb babc e088 913d
000002e0: 3ec9 9bbd 1d51 97bd 16e1 283d 8104 b63c
000002f0: 3aab 92bd 236e 533d 1671 963c 8de1 99bc
00000300: 2a04 7a3d 6b11 1dbd 4242 7cbd 9cdf 3f3d
00000310: d99f 963c 60d3 a9bc 6da3 3ebc 68e2 1bbc
00000320: a85a 21bc c10c c239 e694 063b 0b23 62bc
00000330: 3804 85bb 553f cbbb 68a1 aa3b e683 bdbc
00000340: 6eea 553d 7333 a93d c9ba 153d 33ca aebc
00000350: 0de6 a93d 50d7 7d3d bf41 403d 1909 d23d
00000360: c870 003b 8a3c 193c af37 8b3c df6c 3ebc
00000370: 597d ae3c 7bcb 8e3c 9e03 e1bc 99b3 c83b
00000380: b413 c9b9 9cb1 1b3d 3da2 7bbd 61f9 983d
00000390: 7f4d 1dbc 3ed7 0dbd 5cf6 9ebc dc5e 95bc
000003a0: 2709 e5bc 009b 62bc 41b0 fb3d fe0d 443d
000003b0: fa5d 523d b4bc 07bd ce65 103d ec97 b2bc
000003c0: 5216 a53d 193a 47bd 6a74 9cbd ea2a 563d
000003d0: 3e00 613b 33a2 8b3d 9dcf 38bd e2d4 b6bd
000003e0: 9e60 62bc ed5e c03c 30d5 44bd 2a1d 9bbd
000003f0: c95e 08bd b889 e4bc 4037 9fba e26b c23c

net.layer4.0.bias f4 [64]
-0.032732345 -0.02800919 -0.052948233 -0.02371367 -0.06864018 0.011750639 -0.025898812 -0.029351331
0.012518511 0.0010860085 0.037089456 -0.010116423 -0.04034639 -0.03891727 -0.03377723 -0.027467921
0.0059399516 -0.021461613 0.026165077 -0.037400838 -0.0042372737 0.023468519 -0.0017698357 -0.05729345
0.015808228 0.022704741 -0.07168829 -0.02379682 0.030470157 0.025612574 0.0048431037 0.0064276746
0.026052115 -0.05464615 -0.00414093 0.042593718 0.018376691 0.028449096 0.018304499 0.020960093
-0.012201468 -0.01432365 -0.016701458 -0.02475633 0.0039243903 -0.018253434 -0.00974552 0.020147542
0.03911735 -0.030075798 0.0016578689 -0.018509757 0.0055802753 0.023148902 -0.014056347 0.009838511
0.046607703 0.010134593 -0.049253073 -0.023457501 -0.030198203 0.011733984 -0.015994933 -0.02465936
00000000: 5a12 06bd 8773 e5bc 3fe0 58bd 2c43 c2bc
00000010: 3993 8cbd c185 403c bf29 d4bc 3472 f0bc
00000020: 711a 4d3c 6658 8e3a 1deb 173d 5abf 25bc
00000030: 4242 25bd b767 1fbd fe59 0abd 6804 e1bc
00000040: eda3 c23b 44d0 afbc 2558 d63c 9f31 19bd
00000050: d4d8 8abb 0d41 c03c d5f9 e7ba 89ac 6abd
00000060: 4280 813c 4bff b93c 4fd1 92bd 8cf1 c2bc
00000070: 8d9c f93c 76d1 d13c e6b2 9e3b 3e9f d23b
00000080: 3f6b d53c a4d4 5fbd a3b0 87bb c076 2e3d
00000090: b78a 963c 140e e93c 51f3 953c 80b4 ab3c
000000a0: abe8 47bc bead 6abc 7fd1 88bc c9cd cabc
000000b0: 2c98 803b 3a88 95bc acab 1fbc 750c a53c
000000c0: 8439 203d 8561 f6bc d94c d93a c6a1 97bc
000000d0: beda b63b c4a2 bd3c 984c 66bc b531 213c
000000e0: b8e7 3e3d 900b 263c 97bd 49bd f229 c0bc
000000f0: 3962 f7bc e53f 403c ce07 83bc 6d02 cabc

net.layer4.1.weight f4 [64]
1.7676998 0.73734146 1.6259581 0.5866227 2.2243137 0.782418 0.72430027 0.6894097
0.8462131 0.786727 3.1119144 0.8626684 1.8027561 0.8916209 0.7670191 0.7361474
0.73747116 1.7319397 0.9680988 1.7427156 0.89193904 0.65960795 0.6604756 1.6876067
0.6720635 0.84721965 2.5423267 1.0501049 0.724881 0.82885814 0.87880254 1.1112193
0.7677937 2.0092957 2.3755035 1.9875219 0.7289482 0.8044468 0.72413844 0.69132686
0.85884446 0.76294047 2.1170723 1.6924478 0.79621494 0.7868401 0.7530158 0.84108514
1.01338 1.5565565 0.9084341 0.6744613 0.80232155 0.8279281 1.1897725 0.8480337
1.398556 0.69591767 1.8520405 1.51732 0.8646399 0.680745 0.76931095 0.6296675
00000000: fd43 e23f 69c2 3c3f 651f d03f e82c 163f
00000010: 285b 0e40 8c4c 483f be6b 393f 277d 303f
00000020: 6ca1 583f f166 493f 9b29 4740 d6d7 5c3f
00000030: b6c0 e63f 4441 643f 5d5b 443f 2874 3c3f
00000040: e9ca 3c3f 33b0 dd3f 53d5 773f 4e11 df3f
00000050: 1e56 643f 11dc 283f ee14 293f 7f03 d83f
00000060: 5b0c 2c3f 63e3 583f 7bb5 2240 d669 863f
00000070: cd91 393f 0c30 543f 34f9 603f 6f3c 8e3f
00000080: 218e 443f 4d98 0040 4008 1840 1e67 fe3f
00000090: 599c 3a3f 3af0 4d3f 2361 393f ccfa 303f
000000a0: 3bdd 5b3f 1150 433f 1d7e 0740 21a2 d83f
000000b0: bed4 4b3f 5a6e 493f a5c5 403f 5b51 573f
000000c0: 70b6 813f 3e3d c73f 238f 683f 7fa9 2c3f
000000d0: f264 4d3f 19f3 533f 774a 983f bd18 593f
000000e0: e203 b33f a927 323f aa0f ed3f 8b37 c23f
000000f0: 0a59 5d3f 4e45 2e3f 90f1 443f e431 213f

net.layer4.1.bias f4 [64]
-0.12110167 -0.14539528 -0.23625298 -0.42769936 -0.0025463924 -0.44319537 -0.5015785 -0.39267758
-0.4376598 -0.1352315 -0.31799233 -0.2598058 -0.14299433 -0.12990542 -0.29519573 -0.44502094
-0.22702329 -0.17430757 -0.49439886 0.0037968163 -0.3480823 -0.36854026 -0.4027973 0.03569943
-0.17308259 -0.38156167 0.095534556 -0.36883995 -0.12172515 -0.40181765 0.055159632 -0.16584152
-0.48347777 -0.043071922 -0.09852483 -0.20023216 -0.39592487 -0.17915912 -0.39943415 -0.38334626
-0.0049122404 -0.3207308 0.055300742 -0.053930946 -0.1915011 -0.35822654 -0.4414175 -0.19222197
-0.22775733 -0.23057586 -0.29553074 -0.24124593 -0.05913915 -0.4470073 -0.37249535 -0.18977468
-0.29176444 -0.41680983 -0.13313273 -0.3139468 -0.32446182 -0.40226108 -0.48574817 -0.3594179
00000000: 2704 f8bd 80e2 14be 4dec 71be 69fb dabe
00000010: 60e1 26bb 81ea e2be 7367 00bf 090d c9be
00000020: f214 e0be 207a 0abe e4cf a2be 4405 85be
00000030: 1b6d 12be ed05 05be e523 97be c9d9 e3be
00000040: cb78 68be af7d 32be d921 fdbe 02d4 783b
00000050: d837 b2be 4fb1 bcbe 733b cebe 9139 123d
00000060: 903c 31be 0d5c c3be 9fa7 c33d 97d8 bcbe
00000070: 094b f9bd 0bbb cdbe 11ef 613d 5cd2 29be
00000080: 668a f7be 2f6c 30bd 63c7 c9bd a909 4dbe
00000090: aab6 cabe 7d75 37be a282 ccbe f645 c4be
000000a0: dcf6 a0bb d436 a4be 0883 623d b2e6 5cbd
000000b0: dd18 44be 7869 b7be 7901 e2be d6d5 44be
000000c0: 3839 69be 141c 6cbe ce4f 97be 2c09 77be
000000d0: e53b 72bd 24de e4be b6b7 bebe 4b54 42be
000000e0: 2662 95be 1968 d5be f253 08be a3bd a0be
000000f0: dc1f a6be 2af5 cdbe fcb3 f8be 9f05 b8be
