old_mp/maml_omniglot_step4500_k_5_n_way5.pt (torch, 462256 bytes, 26 tensors)

net.layer1.0.weight f4 [64, 1, 3, 3]
000000 96 f4 0a 3e 43 5b 8d bc 10 83 f7 bd 7d e9 e5 b9
       0.13569865 -0.017255431 -0.12085545 -0.00043852246
000010 f5 07 13 3e 86 b4 d3 3d 1f 02 56 bd 27 8e b8 3b
       0.14358504 0.103371665 -0.052248117 0.0056321803
000020 dd c0 c4 3c 86 76 60 3c dd 85 c2 bd b1 c0 7e bb
       0.024017746 0.013700133 -0.09498189 -0.0038872177
000030 2b 36 bc bd 28 c1 34 3e 2c 24 b4 bd 3b 1b 07 3d
       -0.09190019 0.17651808 -0.08795962 0.032984953
000040 d6 66 c0 bc 88 76 23 bd fa a0 da bb 55 3f 70 bd
       -0.023486536 -0.039907962 -0.006672022 -0.058654148
000050 3b c2 5b bc 19 2c 2e bd 33 b0 0a be 0b a1 e4 3d
       -0.013413007 -0.042522524 -0.13543777 0.11163529
000060 04 98 eb 3d 12 93 fb 3d 94 33 85 3d 76 6d fb 3d
       0.11503604 0.12283911 0.06503978 0.122767374
000070 06 82 b1 3d 25 0a cd 3d 3a 28 80 bb b1 31 7b bd
       0.08667378 0.100117005 -0.0039110454 -0.061326686
000080 c0 ed c1 bd 2e ce d2 bc 9f 5a 36 bd 28 d0 a5 3b
       -0.09469175 -0.02573308 -0.044520017 0.0050602145
000090 4d 29 fc 3d 8b 40 11 3d 2f 70 24 bd 81 6b ca bd
       0.12312565 0.035461944 -0.04014605 -0.09883786
0000a0 fd e2 1f 3e fb 76 4c 3b ae 11 39 bd 0a 7e 22 bd
       0.15613933 0.0031198848 -0.045182876 -0.03967098
0000b0 05 35 bc 3d d4 00 2b be 91 fc 44 bd f4 00 17 bc
       0.091898 -0.16699535 -0.04809243 -0.009216536
0000c0 e1 e1 81 bd a9 4e 95 bd a0 01 a2 bd 53 80 87 bc
       -0.06341911 -0.07290394 -0.07910466 -0.016540682
0000d0 86 70 b9 bc a0 e4 3f bd f5 0b 01 bc 01 1f 53 bd
       -0.022636663 -0.046848893 -0.007876386 -0.05154324
0000e0 87 8d c2 3d 7b e5 af 3d a5 f4 a5 bd a2 87 8a 3d
       0.094996504 0.08588692 -0.08103303 0.06764151
0000f0 f6 27 41 ba 49 59 87 bd d3 8b c4 3d 29 b0 05 3d
       -0.00073683204 -0.06608827 0.09596982 0.032638703
000100 76 b8 77 3d 5a a7 8e bd 4b b2 68 bd e8 04 05 bb
       0.06047865 -0.069655135 -0.05681066 -0.0020297114
000110 55 f3 9c 3c 49 9b 91 3c 94 fc 72 bd 4d 89 96 bc
       0.019158999 0.017774241 -0.05932291 -0.018376017
000120 fd aa 3c bd 92 ec ab 3d 28 cb 43 bd 97 3a 37 3d
       -0.046061505 0.083947316 -0.047801167 0.04473361
000130 2a 66 7d 3d 69 1a 91 3d ac 4c e1 3c 1d c3 bc bd
       0.06186501 0.070851155 0.02750238 -0.092169024
000140 b4 54 68 3d 1a 96 50 bd e3 34 04 3c 04 f5 12 bd
       0.056721404 -0.050924398 0.00806925 -0.035878196
000150 82 77 64 3d 02 0b 05 3c 03 c4 a1 bc 2e 60 94 3b
       0.055778034 0.0081203 -0.019746786 0.004528067
000160 ac 22 65 3e 06 6d 1b bd 70 13 cb 3b 85 30 57 bd
       0.22376508 -0.03794577 0.0061973855 -0.052536506
000170 87 b5 51 bd 52 cd de 3c 88 88 36 3e 51 16 b4 bb
       -0.05119851 0.027197514 0.1782552 -0.0054958244
000180 b5 65 9d bd 70 c7 ff bb 09 1c 86 3c 07 d1 30 bd
       -0.07685415 -0.007805757 0.01637079 -0.043168094
000190 c5 25 66 bc 67 09 61 bd 66 b2 14 bd 79 ee 8a bc
       -0.014047091 -0.054940607 -0.036302947 -0.016959416
0001a0 08 90 12 be 86 49 26 be f0 d7 c9 bd 98 01 fe 3a
       -0.14312756 -0.16238984 -0.0985564 0.0019379137
0001b0 ca fd 1f 3d 54 c3 68 bd d6 1b 32 bd 61 e3 81 bb
       0.03906039 -0.056826904 -0.043483578 -0.0039638733
0001c0 b9 40 bc 3d 63 df 88 bd 83 65 a8 3d 01 c6 08 3d
       0.09192032 -0.06683233 0.08222487 0.033391956
0001d0 5a 21 27 3e d3 00 47 bd a6 93 3e 3d 83 b8 7f bc
       0.16321316 -0.04858477 0.046527527 -0.015607956
0001e0 d1 22 a3 3d 28 5b 2f 3d 52 d8 af 3d be e3 9d 3d
       0.07965625 0.042811543 0.08586182 0.07709454
0001f0 3b bf ed bd 36 99 d4 3b 7f 5c 02 3e 98 60 5c bd
       -0.1160874 0.0064879907 0.12730597 -0.053803056
000200 11 68 23 3d e9 3e 10 3d fe 4b c8 bd 54 07 04 bd
       0.039894167 0.035216246 -0.09780119 -0.03223355
000210 d9 ba f8 3d a8 3f 16 bd 76 38 f2 3c 6e 2f ca bd
       0.12145013 -0.0366818 0.029567938 -0.09872328
000220 f0 d7 f6 3d cc b7 ad bd 03 fa e8 bb a8 42 98 3c
       0.120529056 -0.08482322 -0.007109882 0.018586472
000230 0a 56 74 bc db 52 91 bd 20 cd b8 3d 7f ae d4 bd
       -0.014913091 -0.070958816 0.090234995 -0.10384845
000240 06 b1 df bc 76 77 06 bd d3 3e 4d 3d 06 aa a6 bc
       -0.027306091 -0.03282877 0.050108742 -0.020344745
000250 27 1f 1d bd d3 e6 1d 3e 30 ac 17 bd e4 ec 88 3d
       -0.038359787 0.15420084 -0.037029445 0.06685808
000260 82 d0 f4 3d 3f 85 db bd c6 9f 98 3d 48 82 16 3e
       0.11953832 -0.10718774 0.07452349 0.14698136
000270 03 ce 7e bd 92 bc 3a 3d d5 92 a7 3c 1c 51 9d bd
       -0.062208187 0.04558999 0.020455757 -0.07681486
000280 f5 17 4e 3c c1 55 dd 3d de 79 ad bc f4 12 c0 bd
       0.012578954 0.10807372 -0.021176275 -0.09378615
000290 43 4b 77 3d ee e5 37 3d 61 27 c7 3d 0f b8 d3 3d
       0.06037451 0.044897012 0.09724308 0.10337841
0002a0 90 d0 df ba c5 52 9a 3d c2 49 02 be ab a8 51 3d
       -0.0017075706 0.07535318 -0.12723449 0.051186245
0002b0 dd 43 9e bd 1f 31 14 bd 74 2e a4 bd 9f 50 71 bd
       -0.07727788 -0.036179658 -0.08016673 -0.058914777
0002c0 d8 e6 d0 3d c3 e7 92 3c 09 b6 95 3d 8a 06 fc 3d
       0.1020028 0.017932778 0.07310111 0.12305935
0002d0 9e 74 aa bd 5a 8d 0e bd 07 d2 4e 3d 7f 19 25 bd
       -0.08323024 -0.034802772 0.050493266 -0.040307518
0002e0 1f ce be 3d 41 80 07 3e 50 ea 2d 3e 1e c7 03 3c
       0.09316658 0.13232519 0.16983914 0.008043079
0002f0 8e f6 bc 3c e4 60 ec bc da 9a 58 bd 98 d0 18 bd
       0.023066785 -0.028854795 -0.052882053 -0.037308306
000300 9c d6 2a bc 0d 6f 96 bd 8c cf 00 3e 8a 3b 01 3e
       -0.010427143 -0.073454 0.12579173 0.12620369
000310 c4 58 e5 3d 55 7f cb 3b 40 6e 83 bd 51 5e 91 3d
       0.11198571 0.0062102475 -0.06417513 0.070980676
000320 98 bd f7 3d 63 f6 9d bc 1f 71 c4 bd 8c e2 3e 3d
       0.12096709 -0.019282525 -0.09591889 0.04660277
000330 86 56 d5 3d d3 1e 33 bd 51 17 06 bd aa 6e 03 3c
       0.10416894 -0.04373057 -0.03273708 0.00802199
000340 f7 0d ab bd 38 f7 70 3d 2b e9 86 bd 12 b3 b8 bc
       -0.08352273 0.058829516 -0.06587442 -0.022546325
000350 e4 fb ea 3d 4b 82 88 3d d9 9d d7 3d fd 5f 7c bc
       0.114738256 0.066654764 0.10528154 -0.015403745
000360 6a 47 33 bd e2 11 d3 bd 1a 48 f6 3d 88 ed 12 3c
       -0.043769278 -0.10306145 0.12025471 0.008967765
000370 e3 87 6c bd 50 f5 2c 3c 5c 86 30 bc fd d8 c0 3d
       -0.05774678 0.010556534 -0.010774221 0.09416387
000380 04 1e 15 be c7 87 0a bc c2 78 e6 3d ff 29 77 bd
       -0.14562231 -0.008455223 0.112535015 -0.060342785
000390 2d 73 af bd 60 da da 3d 9b eb 90 bc 18 e1 40 bc
       -0.0856689 0.10686183 -0.01769047 -0.0117724165
0003a0 db d3 1b 3e 11 e2 65 bd 16 88 4a 3d 98 3d 08 3e
       0.15217535 -0.056123797 0.049446188 0.13304746
0003b0 fc bd a8 3d 81 f9 b9 bd 3c 62 2a bd 14 ea d5 bd
       0.08239362 -0.09080792 -0.04159759 -0.104450375
0003c0 b6 6f 28 3d 78 d8 ff 3d e6 74 73 3d a0 2e 3f 3d
       0.04112216 0.1249246 0.059437655 0.046675324
0003d0 30 f9 03 3e 90 2d 46 bd 52 2a be bd 96 a7 b2 3d
       0.12888026 -0.048383296 -0.09285416 0.08723371
0003e0 d4 59 c3 bd ab a1 34 bc 4f 4d 00 3e b7 0b fc 3c
       -0.09538618 -0.011024873 0.12529491 0.030767305
0003f0 41 b8 ad bd cd 91 4a 3c ab 7d bc bd f3 3a a7 bc
       -0.08482409 0.012363863 -0.09203657 -0.020413851

net.layer1.0.bias f4 [64]
000000 f9 41 93 be da fb 3b be 80 4a f4 3d 5f 8b 98 3e
       -0.2876127 -0.18357792 0.11928272 0.29793832
000010 31 85 67 3a ba 21 11 3e a5 a4 d8 bd ca 4e 8c 3e
       0.0008831798 0.14173022 -0.105782785 0.2740386
000020 dd 32 96 3d c2 08 1b 3e a4 33 89 be 4f 70 25 be
       0.0733392 0.1514006 -0.2679721 -0.16156124
000030 33 dc 0a 3c 1e 61 67 bd 0e 16 8a bd 56 7c 61 3d
       0.008475351 -0.056489103 -0.06742488 0.055050217
000040 6b 53 67 be 6b 69 9c be 6d a6 16 be a2 22 97 3e
       -0.22590415 -0.30549178 -0.14711924 0.2951861
000050 bf a6 8e 3d a6 5b 81 3e f5 4c 77 3e e5 52 b0 be
       0.06965398 0.25265235 0.2415045 -0.34438244
000060 1a be e5 bd 9e 14 14 3e 85 e4 f9 3d 21 6f 5a be
       -0.112178996 0.1446099 0.1220179 -0.21331455
000070 15 63 03 be b5 7c e1 3d 79 3c 8a be 5d 91 23 be
       -0.12830766 0.11010114 -0.26999262 -0.1597342
000080 2c cc 9d be d7 ab 59 be db 1a b8 3e e9 7f 07 be
       -0.30819833 -0.21256958 0.3595799 -0.13232388
000090 d4 1a c1 be d0 b9 56 be 95 1b ee 3d de 82 08 3d
       -0.3771578 -0.2096932 0.116263546 0.03332793
0000a0 b0 8e 30 3e 39 1d 52 3e 41 98 bf 3c 43 0b 38 3e
       0.17241931 0.2051896 0.02338803 0.17973046
0000b0 6e 2e 8e bd 61 1a 79 3d 98 17 44 3e 42 bd 74 3e
       -0.069424495 0.060816173 0.19149625 0.23900321
0000c0 78 c5 4e be b5 03 0d 3e 6c 05 a1 3e cc e9 74 3d
       -0.20192516 0.13770945 0.3144945 0.05979328
0000d0 b2 6b 8a 3c d6 db c2 3e cb 11 84 3e ff d0 ac bd
       0.016897056 0.38058347 0.25794825 -0.084383
0000e0 9f 3d 2a 3d dc d5 61 3e ae 87 8e 3e fa 27 86 3e
       0.041562673 0.22054237 0.2783789 0.26202375
0000f0 4c d8 b1 3d 00 9c 4e 3c b9 21 a8 3d f0 d3 ad 3e
       0.086838335 0.0126104355 0.08209557 0.33950758

net.layer1.1.weight f4 [64]
000000 c5 a4 a1 3f 34 a7 4d 3f b6 77 82 3f b6 bc 79 3f
       1.2628409 0.80333257 1.0192783 0.97553575
000010 9d dc 97 3f 90 50 58 3f 27 4b 85 3f 41 91 63 3f
       1.1864201 0.8449793 1.041356 0.88893515
000020 8c ed 94 3f bf af 44 3f 37 f9 68 3f 60 f0 44 3f
       1.1634994 0.7683067 0.9100527 0.76929283
000030 0a b2 74 3f 28 89 9a 3f ee fe 71 3f ae 7f 78 3f
       0.95584166 1.2073107 0.94529617 0.97069824
000040 51 1f 68 3f 2a 18 79 3f d5 ee a1 3f 45 41 5b 3f
       0.90672785 0.97302496 1.2651011 0.8564647
000050 e0 ca 69 3f 3b 1d 65 3f 1d 07 71 3f 90 61 91 3f
       0.9132519 0.8949773 0.9415148 1.1357899
000060 ad a6 44 3f b2 34 7b 3f b0 18 6b 3f ee 21 87 3f
       0.7681683 0.9812728 0.91834545 1.055723
000070 9b b0 66 3f 57 99 73 3f ad f9 80 3f 58 89 73 3f
       0.9011323 0.95155853 1.0076195 0.95131445
000080 43 8a 62 3f ec 9e 88 3f f6 cc 98 3f 37 02 7f 3f
       0.8849222 1.0673499 1.1937549 0.99612755
000090 a0 b4 98 3f 40 38 89 3f 7c 7b 65 3f de 00 7c 3f
       1.1930122 1.0720291 0.8964155 0.98438823
0000a0 55 f5 80 3f c0 71 81 3f 20 b2 88 3f 48 0a 9b 3f
       1.0074869 1.0112839 1.067936 1.2112513
0000b0 a4 70 75 3f e4 fb 64 3f 7b 65 79 3f 93 57 8d 3f
       0.95875 0.89446855 0.9742047 1.104235
0000c0 b5 3b 69 3f e3 02 90 3f 5f 4a 7e 3f 35 68 5c 3f
       0.9110673 1.1250881 0.9933223 0.8609651
0000d0 5d 2e a7 3f 39 34 76 3f 6d 68 9f 3f e2 53 77 3f
       1.3061024 0.96173435 1.2453743 0.9661237
0000e0 1b 6d 8e 3f 41 61 84 3f 08 44 92 3f 90 11 4c 3f
       1.1127046 1.034218 1.1427011 0.797143
0000f0 13 5c 63 3f a5 27 86 3f ee 2e 7c 3f 56 8c 94 3f
       0.8881237 1.0480849 0.9850911 1.1605327

net.layer1.1.bias f4 [64]
000000 0f c2 28 3d 61 7d a6 be f5 fa 88 be 39 1b 0a bd
       0.041200694 -0.32517532 -0.26753965 -0.033717368
000010 36 79 5f bd e5 e8 99 be 57 a5 4c be eb 4d 6a be
       -0.054558955 -0.30060497 -0.19984947 -0.22881286
000020 9c d1 5d bd ae 28 ae be 6b 7a 46 be e2 67 8a be
       -0.054154977 -0.3401541 -0.19382636 -0.2703238
000030 35 fc 5f bd 5d 59 28 bd f2 82 98 be 41 03 1c be
       -0.054683883 -0.04110085 -0.29787403 -0.15235616
000040 aa 9c 45 be d0 02 12 be 7d 7c 7c bc d7 ad c8 bd
       -0.19298044 -0.14258885 -0.01541054 -0.09798782
000050 15 62 7e be 2f a6 25 be ee 4f 80 bd 18 c8 0d be
       -0.24842103 -0.16176675 -0.062652454 -0.13845861
000060 4d b3 c5 be bd ef a2 bd 51 18 87 bd 11 a4 15 be
       -0.38613358 -0.07955883 -0.06596435 -0.14613368
000070 04 87 c5 be 7b b8 e4 bd 61 e6 a7 bc e9 2e c5 bd
       -0.3857957 -0.11167999 -0.020495595 -0.09628088
000080 bf bc 4e be d6 11 d9 bc c8 ee 88 bd 02 55 2b be
       -0.20189188 -0.026497763 -0.06686169 -0.16731647
000090 70 a4 36 be a8 86 8e bd 8e 31 4b be 92 af 4b bd
       -0.17836165 -0.069592774 -0.19843122 -0.049727984
0000a0 6e e5 7b be 69 4c 6c be 35 a1 71 bd 29 8a f3 bc
       -0.24599239 -0.23076023 -0.05899163 -0.029728966
0000b0 26 2c 1a bc 9d 28 88 be 70 36 b6 bd a9 9e 78 be
       -0.00940994 -0.26593485 -0.08897102 -0.24279274
0000c0 a2 ef 9b be e7 cd 2c be 99 96 1f bd b5 f3 99 be
       -0.30456263 -0.1687542 -0.03896198 -0.30068746
0000d0 25 48 24 be 7f 7e b6 bd bf 23 14 bd a4 1d e8 bd
       -0.16043146 -0.08910846 -0.036166903 -0.113337785
0000e0 8b 21 ff bd 29 e9 c8 bc 91 8d e5 bd 89 73 ce be
       -0.1245757 -0.024525242 -0.11208642 -0.4032252
0000f0 51 9f 94 be 5b 62 a1 be 50 f4 2a be 8b a5 9c be
       -0.290278 -0.31520352 -0.1669476 -0.3059505

net.layer1.1.running_mean f4 [64]
000000 00 00 00 00 00 00 00 00 00 00 00 00 00 00 00 00
       0.0 0.0 0.0 0.0
000010 00 00 00 00 00 00 00 00 00 00 00 00 00 00 00 00
       0.0 0.0 0.0 0.0
000020 00 00 00 00 00 00 00 00 00 00 00 00 00 00 00 00
       0.0 0.0 0.0 0.0
000030 00 00 00 00 00 00 00 00 00 00 00 00 00 00 00 00
       0.0 0.0 0.0 0.0
000040 00 00 00 00 00 00 00 00 00 00 00 00 00 00 00 00
       0.0 0.0 0.0 0.0
000050 00 00 00 00 00 00 00 00 00 00 00 00 00 00 00 00
       0.0 0.0 0.0 0.0
000060 00 00 00 00 00 00 00 00 00 00 00 00 00 00 00 00
       0.0 0.0 0.0 0.0
000070 00 00 00 00 00 00 00 00 00 00 00 00 00 00 00 00
       0.0 0.0 0.0 0.0
000080 00 00 00 00 00 00 00 00 00 00 00 00 00 00 00 00
       0.0 0.0 0.0 0.0
000090 00 00 00 00 00 00 00 00 00 00 00 00 00 00 00 00
       0.0 0.0 0.0 0.0
0000a0 00 00 00 00 00 00 00 00 00 00 00 00 00 00 00 00
       0.0 0.0 0.0 0.0
0000b0 00 00 00 00 00 00 00 00 00 00 00 00 00 00 00 00
       0.0 0.0 0.0 0.0
0000c0 00 00 00 00 00 00 00 00 00 00 00 00 00 00 00 00
       0.0 0.0 0.0 0.0
0000d0 00 00 00 00 00 00 00 00 00 00 00 00 00 00 00 00
       0.0 0.0 0.0 0.0
0000e0 00 00 00 00 00 00 00 00 00 00 00 00 00 00 00 00
       0.0 0.0 0.0 0.0
0000f0 00 00 00 00 00 00 00 00 00 00 00 00 00 00 00 00
       0.0 0.0 0.0 0.0

net.layer1.1.running_var f4 [64]
000000 00 00 80 3f 00 00 80 3f 00 00 80 3f 00 00 80 3f
       1.0 1.0 1.0 1.0
000010 00 00 80 3f 00 00 80 3f 00 00 80 3f 00 00 80 3f
       1.0 1.0 1.0 1.0
000020 00 00 80 3f 00 00 80 3f 00 00 80 3f 00 00 80 3f
       1.0 1.0 1.0 1.0
000030 00 00 80 3f 00 00 80 3f 00 00 80 3f 00 00 80 3f
       1.0 1.0 1.0 1.0
000040 00 00 80 3f 00 00 80 3f 00 00 80 3f 00 00 80 3f
       1.0 1.0 1.0 1.0
000050 00 00 80 3f 00 00 80 3f 00 00 80 3f 00 00 80 3f
       1.0 1.0 1.0 1.0
000060 00 00 80 3f 00 00 80 3f 00 00 80 3f 00 00 80 3f
       1.0 1.0 1.0 1.0
000070 00 00 80 3f 00 00 80 3f 00 00 80 3f 00 00 80 3f
       1.0 1.0 1.0 1.0
000080 00 00 80 3f 00 00 80 3f 00 00 80 3f 00 00 80 3f
       1.0 1.0 1.0 1.0
000090 00 00 80 3f 00 00 80 3f 00 00 80 3f 00 00 80 3f
       1.0 1.0 1.0 1.0
0000a0 00 00 80 3f 00 00 80 3f 00 00 80 3f 00 00 80 3f
       1.0 1.0 1.0 1.0
0000b0 00 00 80 3f 00 00 80 3f 00 00 80 3f 00 00 80 3f
       1.0 1.0 1.0 1.0
0000c0 00 00 80 3f 00 00 80 3f 00 00 80 3f 00 00 80 3f
       1.0 1.0 1.0 1.0
0000d0 00 00 80 3f 00 00 80 3f 00 00 80 3f 00 00 80 3f
       1.0 1.0 1.0 1.0
0000e0 00 00 80 3f 00 00 80 3f 00 00 80 3f 00 00 80 3f
       1.0 1.0 1.0 1.0
0000f0 00 00 80 3f 00 00 80 3f 00 00 80 3f 00 00 80 3f
       1.0 1.0 1.0 1.0

net.layer2.0.weight f4 [64, 64, 3, 3]
000000 39 ff bc 3d 37 83 cf bc 69 2a 81 3c 69 cb 2c bd
       0.09228367 -0.025331123 0.015767293 -0.042186175
000010 20 b2 bf 3d f6 5e 67 bd 86 26 5e bc 0f 75 86 bd
       0.093601465 -0.056487046 -0.013558989 -0.06565296
000020 80 f5 b5 bb 5f 12 03 bd 98 3a 93 bd 93 17 0b 3d
       -0.0055529475 -0.031999942 -0.0718891 0.03395803
000030 11 8e 5f 3c e2 92 3d bd 5c 5a 4d 3d 61 90 22 be
       0.013644711 -0.046282656 0.050135 -0.15875389
000040 16 06 0d be 91 88 62 3d ab ba 58 3c 36 d4 a1 bc
       -0.13771853 0.05530602 0.013228099 -0.01975451
000050 60 71 24 bd cd bd 23 be d0 80 c0 bd 63 e9 70 bd
       -0.040147185 -0.15990372 -0.09399569 -0.058816325
000060 12 bb b2 b9 69 23 7d bd 52 ab 03 bd 05 a7 a5 bd
       -0.00034090184 -0.061801348 -0.032145806 -0.08088497
000070 43 fc b8 bd 71 0a f8 bd 68 36 aa bc f3 56 3d 3d
       -0.0903249 -0.121113665 -0.020777896 0.0462255
000080 aa ef b4 bc ad c2 38 bc 8b ef 5d bd 9b d0 16 bd
       -0.022086937 -0.011276883 -0.054183524 -0.036820035
000090 03 5a 33 bc 59 4e 84 3d 8b 32 a7 3c b1 e1 b6 bd
       -0.010946753 0.06460256 0.020409843 -0.08929766
0000a0 91 91 45 bd c3 46 ce 3b 01 92 89 3d d0 e4 b3 bd
       -0.048234526 0.0062950565 0.06717301 -0.08783877
0000b0 c8 e6 ea 3c 9c 9e dd bd bf 35 da bd a3 46 08 3d
       0.028674498 -0.10821268 -0.106547825 0.03327049
0000c0 5f 9f 98 bd 52 93 19 3b bf c3 75 bd 69 4b 28 3c
       -0.074522726 0.0023433757 -0.06000113 0.010271885
0000d0 d5 59 2d bc db fd 11 be 7d d5 a4 bd 22 37 ec bd
       -0.0105805 -0.14256994 -0.08048532 -0.11533953
0000e0 10 fb 3d 3c cc 72 56 bb 30 b5 a7 bb 97 b1 15 bc
       0.0115955025 -0.0032722233 -0.005118035 -0.009136579
0000f0 53 dc 67 bd 9b 28 a0 bd 90 85 c1 3c 8b 11 9c bd
       -0.056606602 -0.07820245 0.023623258 -0.076205336
000100 0b ca bd bd 5b d8 9b bd b3 f1 f5 bc 21 c8 b0 bc
       -0.09267052 -0.07609626 -0.030022478 -0.021579804
000110 3e d5 b7 bd 6c ee 40 3d eb 29 82 bd 6f b4 2b be
       -0.089762196 0.047102377 -0.063556515 -0.16768049
000120 51 46 63 3d 8b 10 3d bd c1 61 b4 bd d6 15 80 3d
       0.05548698 -0.046158355 -0.088077076 0.06254165
000130 cd 03 35 bd 88 8e 57 bb 4c 6b 5c bd 00 bd 87 3b
       -0.044193078 -0.0032891352 -0.053813264 0.0041424036
000140 bf 5a 2e 3d 90 b5 5c 3d 32 6a 33 bd 38 3c 86 bc
       0.04256701 0.05388409 -0.043802448 -0.016386136
000150 4e d1 6e bc 27 9a 9a bd 06 7f 42 3d 8e ff 4a bd
       -0.014576269 -0.075489335 0.04748442 -0.049560122
000160 9c 48 9f 3a b7 dd ec 3c 4d a2 82 bd b7 65 2b bd
       0.0012152377 0.028914316 -0.06378613 -0.04184505
000170 bd ef 9a 3b 56 bd cc bb 19 1e e2 3d b4 cb 01 3e
       0.004728286 -0.0062481565 0.11040897 0.12675363
000180 04 9a 85 bd 16 23 69 bd 6b 1d 84 3c d3 72 56 bc
       -0.06523517 -0.056918226 0.016127309 -0.0130889
000190 71 16 17 be c6 5f 5a ba d9 45 00 bb f3 7a a6 bd
       -0.14754654 -0.00083303114 -0.0019572882 -0.081289195
0001a0 90 44 07 bb 9b 0d bd bd d5 e9 ba bd bc e3 69 bc
       -0.0020640232 -0.09231111 -0.09126631 -0.0142754875
0001b0 8d 8b 60 bc 79 bd 93 bb 28 31 af bb e1 24 9c bc
       -0.0137051465 -0.004508671 -0.005346436 -0.019060554
0001c0 3e 52 8f 3d a6 cb 98 bc e8 af ae bc cc 10 40 3b
       0.06998108 -0.018651795 -0.021324113 0.0029306887
0001d0 cb da a8 3c 55 5c 26 3d 99 28 c5 3b 59 60 73 bd
       0.020612141 0.0406154 0.0060168025 -0.059418056
0001e0 9c 6b 17 3d 54 e3 7a bd 29 4b 44 3d c5 e7 08 be
       0.03696786 -0.061251953 0.04792324 -0.13369663
0001f0 14 f2 c0 bd af 7f 14 be 21 a6 73 bd b2 5e 94 bc
       -0.09421173 -0.14501832 -0.059484605 -0.01811156
000200 3b 41 b0 bc cc 9a 34 bd ed 39 2e bd 0b 7d e3 3b
       -0.02151548 -0.04409294 -0.04253571 0.0069423965
000210 56 c8 89 bd 64 17 ed bc 74 bc 8f bd 5e c8 81 3d
       -0.06727664 -0.028941818 -0.070183665 0.06337045
000220 fc ce 8a bd f7 1b 59 3d fe 60 e5 ba b3 81 c8 bd
       -0.067777604 0.053005185 -0.0017500219 -0.09790363
000230 d8 5a dd 3d 22 8c d3 bd 52 34 6d bd a3 c2 74 bb
       0.10808343 -0.103294626 -0.057911225 -0.0037347458
000240 8d c6 43 bc f3 c3 47 bd 17 42 67 bd ad 3f 8f bd
       -0.011949194 -0.048770856 -0.056459513 -0.06994567
000250 ae 35 e5 bb c5 d4 88 bd 95 2d a3 3b 1a 43 73 bd
       -0.0069949245 -0.066812076 0.004979799 -0.059390165
000260 79 bd 79 bd 61 7c d2 3b 25 66 8c bd b6 44 dc bd
       -0.06097171 0.0064235185 -0.0685542 -0.10755293
000270 ad d8 84 3d a8 84 81 bb 72 05 e2 bc 69 75 47 3c
       0.0648664 -0.0039525814 -0.027590487 0.012173989
000280 da a2 5b bd 96 aa 1e 3c 0e 55 a6 bc 3d 77 bf bc
       -0.053622104 0.009684226 -0.02030423 -0.023372287
000290 68 f0 40 bd 04 88 05 bd 75 17 92 bd 0d 37 83 bc
       -0.04710427 -0.032600418 -0.0713338 -0.016017461
0002a0 8d 64 b4 bb df a1 de bd 75 92 f2 bd 58 11 4e bd
       -0.0055051506 -0.10870718 -0.11844341 -0.05030951
0002b0 de 42 39 bd f8 f4 9c 3b 20 2a 99 bd f7 96 ff bd
       -0.045229785 0.0047899447 -0.07478738 -0.12479966
0002c0 82 ff c2 bd 85 6e 26 bd 4a 32 4d 3c 72 ca c0 bd
       -0.095213905 -0.040632743 0.012524197 -0.094136134
0002d0 da 83 9c 3c e0 f3 90 3d 2f ad 02 3d 0d ed 77 bd
       0.01910584 0.070777655 0.031903442 -0.060528804
0002e0 03 0b 95 3d 33 30 e5 3c 4e ae 9c bd 1b b9 78 3d
       0.07277491 0.027977085 -0.076504335 0.060723405
0002f0 d5 a2 ac 3b 3a c1 f2 3b 80 52 94 bd e9 c3 12 bd
       0.0052684345 0.0074082883 -0.07242298 -0.035831366
000300 8b 81 4c bd 55 0e c8 bc 79 3c e5 bc 50 d5 81 bd
       -0.04992823 -0.024420897 -0.027982937 -0.06339514
000310 59 03 90 3b d7 8c 07 bd 20 29 95 bb c3 9e 63 bd
       0.0043949303 -0.0330933 -0.0045520216 -0.05557133
000320 d0 1b 63 bd d7 da 08 3c 0b bc a0 bb ad fc 54 bd
       -0.055446446 0.008352957 -0.004905229 -0.051998783
000330 d5 56 4f bc 6d 37 9a bd c8 97 a6 bd 14 07 b4 bd
       -0.01265498 -0.07530103 -0.08134419 -0.087904125
000340 25 4c ac bd 28 fc e5 bd b3 0d 2f be 47 0c dc bd
       -0.08412961 -0.112297356 -0.1709507 -0.10744529
000350 5b ae cb bd b0 96 08 be 73 e7 3a bd b0 37 90 bd
       -0.09945365 -0.13338733 -0.045630883 -0.070418715
000360 15 d3 95 bd eb 12 a9 bd a1 8f 96 bd 62 7f 98 bd
       -0.07315651 -0.082555614 -0.07351614 -0.07446171
000370 ce 49 25 be e3 1a 1c bd 9f 5a 7c bd 39 36 85 bc
       -0.16141436 -0.03811158 -0.06160986 -0.016261207
000380 4d 0e 2e 3d d2 e1 ed ba 11 37 95 bd 5a 04 14 3d
       0.042494107 -0.0018148965 -0.07285894 0.036136962
000390 4c cc 1d bd ee c1 25 bc 98 cc 8b 3d dc 39 14 bd
       -0.03852491 -0.010117037 0.068261325 -0.03618799
0003a0 14 6b 03 bd 2d 83 c1 3d 7e cf 82 bd ad e2 2e bd
       -0.03208454 0.09448848 -0.06387232 -0.042696644
0003b0 4c 56 0d bc 3b e0 e1 3c b6 d7 4b 3d f3 09 2f 3d
       -0.008626532 0.027572742 0.049766265 0.042734098
0003c0 fb 0e 1f bd c0 a4 04 bd 5c 14 c5 bc 07 ed 87 bc
       -0.038832646 -0.03238368 -0.02405756 -0.016592516
0003d0 de 3a f6 bb 2f 73 be 3d 22 8c 67 3d 3b 40 cf bc
       -0.0075143417 0.09299313 0.056530125 -0.025299182
0003e0 9d e9 09 3e 0f ea 27 bc 49 66 28 bd 31 14 35 3d
       0.13468023 -0.010248675 -0.04111317 0.04420871
0003f0 18 49 e6 bb 1b 87 54 bd 2f ec 90 3d 14 94 b1 3c
       -0.0070277564 -0.05188666 0.070762984 0.021677054

net.layer2.0.bias f4 [64]
000000 9a 19 c1 3b 2f 12 04 bd a0 0b 0f bd 39 dc 01 bd
       0.0058929445 -0.032243904 -0.034923196 -0.03170416
000010 85 bf 3c 3b 59 9b db 3b 85 4e d7 3c b0 3c f7 bb
       0.0028800678 0.0067018685 0.026282558 -0.0075450763
000020 e2 d7 e5 bc e6 c7 d5 bc bf c2 0f 3d f7 1c 97 bb
       -0.028057043 -0.026096296 0.035097834 -0.004611607
000030 e3 b8 fc 3c d4 8a 7d bc 0e 53 97 bc d7 ef d5 bc
       0.03084988 -0.015474994 -0.01847222 -0.026115341
000040 6f e5 1d bd 72 20 b0 3c ce 6e 53 bc 68 43 ea bc
       -0.038548883 0.021499846 -0.012904836 -0.028596595
000050 0c 39 21 3d 57 31 72 ba 97 8a e0 3b ec 50 22 3c
       0.039361045 -0.00092389196 0.0068524587 0.009906989
000060 97 76 23 3d 44 b1 5d ba 61 9e bd bb 6c 1a aa bc
       0.039908018 -0.00084568956 -0.0057867025 -0.020764552
000070 d6 c7 37 39 35 a7 b5 3c 92 d3 40 bc f3 86 f2 bc
       0.00017526685 0.022174457 -0.011769192 -0.029605364
000080 78 1e a1 3b c6 b8 99 bb ad d8 11 bb 36 e7 5a 3b
       0.0049169622 -0.004691216 -0.0022254393 0.0033401973
000090 46 05 1b bd 91 15 61 3c 60 75 08 3d be c6 14 3b
       -0.037846826 0.013738052 0.033315063 0.0022701467
0000a0 9c 7c 02 3d e5 0f ab 3c 5a a8 24 bd b8 3b a5 3c
       0.031857118 0.020881603 -0.040199615 0.020170078
0000b0 94 c5 11 bd cc f0 90 3c 8a 8f d2 3c b6 75 72 3c
       -0.035588816 0.017692946 0.02570321 0.014798572
0000c0 85 06 30 3d 81 d0 06 bd 48 f1 a1 3c be 5e 87 3c
       0.042974968 -0.03291369 0.019768372 0.016524669
0000d0 77 0b ec 3c e1 52 ad 3c c2 95 06 3d 60 4f d2 3c
       0.02881406 0.021157684 0.032857664 0.025672615
0000e0 0d b8 21 bd 21 2b 18 bd ca 95 bc 3c e7 36 34 3b
       -0.039482165 -0.037150506 0.023020644 0.0027498545
0000f0 16 9f c8 3c 36 b3 df 3c ef af cb 3c 93 e3 0a bd
       0.02448992 0.027307134 0.024864165 -0.033908438

net.layer2.1.weight f4 [64]
000000 bf 4c 5c 3f 12 02 68 3f 2b 9a 94 3f 0a 12 5a 3f
       0.86054605 0.9062816 1.1609548 0.85183775
000010 cb be 7b 3f 04 dd 5d 3f dc ae 3c 3f 3d ae 89 3f
       0.98338 0.8666537 0.73704314 1.0756298
000020 05 64 90 3f 9f e9 85 3f 2b dd 59 3f c1 61 7c 3f
       1.1280524 1.046192 0.851031 0.9858666
000030 47 9e 81 3f f2 2a 51 3f 1c 9c 5a 3f f7 63 89 3f
       1.0126427 0.81706154 0.85394454 1.0733632
000040 97 7d 54 3f ea dc 4d 3f db df 6e 3f 75 52 7c 3f
       0.83004135 0.80415213 0.93310326 0.9856332
000050 4d b4 70 3f 61 3a 80 3f dd c3 9e 3f bc 66 80 3f
       0.9402512 1.0017816 1.2403523 1.0031352
000060 9c 8f 81 3f 2a c1 98 3f 45 53 8f 3f 15 ce 6e 3f
       1.0121951 1.1933949 1.1197287 0.93283206
000070 8e 4b 88 3f 86 f0 72 3f 29 9d 89 3f ae b3 53 3f
       1.0648057 0.9489826 1.0751086 0.82696044
000080 19 28 50 3f 2f ab 79 3f 4b b2 4f 3f 5e be 6f 3f
       0.81311184 0.9752683 0.8113143 0.9364985
000090 c2 9e 7f 3f a8 e1 59 3f 55 c8 81 3f 01 91 6b 3f
       0.9985162 0.8510995 1.0139261 0.92018133
0000a0 63 91 84 3f 2b 06 a2 3f 42 eb 81 3f bd d3 6b 3f
       1.0356869 1.2658132 1.014992 0.9211996
0000b0 dc de 72 3f 54 0e 66 3f 47 cd 7e 3f a5 20 52 3f
       0.94871306 0.89865613 0.9953198 0.8208106
0000c0 4f ee 83 3f 7b 32 6f 3f 75 3c 80 3f fb 52 89 3f
       1.0307101 0.934364 1.001845 1.0728449
0000d0 a5 3c 73 3f 7f a5 81 3f 6f e1 6d 3f 38 93 81 3f
       0.9501441 1.012863 0.9292211 1.0123053
0000e0 6c a9 7d 3f 43 ea 86 3f a4 47 76 3f 63 87 4d 3f
       0.9908664 1.0540241 0.96203065 0.8028471
0000f0 0f 8b 74 3f 38 f7 83 3f 90 7a 5e 3f f4 5c 86 3f
       0.95524687 1.030982 0.86905766 1.0497117

net.layer2.1.bias f4 [64]
000000 a9 b9 27 be 9e 63 06 be 81 99 a5 bd 94 66 35 be
       -0.16379417 -0.13123938 -0.08085919 -0.17714912
000010 17 42 d3 bd 1b ab fb bd 7e bb a1 be 50 0f 0f 3e
       -0.1031534 -0.12288495 -0.31588358 0.13970685
000020 85 fd a9 bd 51 80 e7 bc a8 5d 97 be 4b ed 7b be
       -0.08300308 -0.028259428 -0.29563642 -0.24602239
000030 ee b9 3d be 24 85 cf bd 6e 8f c5 bd 4d c2 bd 3d
       -0.18527958 -0.101328164 -0.09646498 0.092655756
000040 81 24 43 be 76 67 33 be 0e f8 58 bd d5 1f 2f be
       -0.19056894 -0.17519936 -0.05297094 -0.17101987
000050 da 51 78 be d1 51 d7 bd 67 52 23 3e a6 4d 7c bd
       -0.24249974 -0.10513652 0.15949403 -0.06159749
000060 d6 4c 4c be 34 05 8c bd 7a 5e 9b bc 39 2e 1d be
       -0.19951186 -0.0683693 -0.018965948 -0.15349664
000070 98 84 0c bd 1f 7f 78 bd 46 ee 89 3d 1e 2f bc be
       -0.03430614 -0.060668107 0.067349 -0.36754698
000080 06 b2 b1 bd bd c7 5c bd 73 85 74 be 54 f3 e1 be
       -0.086765334 -0.053901423 -0.23879032 -0.44130957
000090 02 72 0d be 88 30 b4 be 9b 71 3f bd 1d 49 b0 bd
       -0.13813022 -0.35193276 -0.046739202 -0.08607695
0000a0 15 8f dd bd f1 0a d4 bd 78 cc de bc 02 2a a4 be
       -0.10818306 -0.103536494 -0.027197108 -0.320633
0000b0 4f eb d8 bc b9 aa 36 be 4d 46 08 bd 1d a9 dd bd
       -0.026479391 -0.17838563 -0.03327017 -0.108232714
0000c0 2e 77 60 be 74 9c c2 bd 53 a9 41 be 0c 8d 3d be
       -0.21920463 -0.09502497 -0.18912248 -0.18510836
0000d0 32 b6 0f bd f1 de e3 bd fb 55 a0 be a7 a7 3e be
       -0.035085864 -0.11126507 -0.31315598 -0.18618642
0000e0 27 e0 99 3b c8 93 60 bd 37 3c 6c be 04 97 27 be
       0.0046959105 -0.054828435 -0.23069845 -0.16366202
0000f0 06 59 02 be 1b 71 05 3d e1 94 3f be d3 f3 19 bd
       -0.12729272 0.03257857 -0.18709137 -0.037586045

net.layer2.1.running_mean f4 [64]
000000 00 00 00 00 00 00 00 00 00 00 00 00 00 00 00 00
       0.0 0.0 0.0 0.0
000010 00 00 00 00 00 00 00 00 00 00 00 00 00 00 00 00
       0.0 0.0 0.0 0.0
000020 00 00 00 00 00 00 00 00 00 00 00 00 00 00 00 00
       0.0 0.0 0.0 0.0
000030 00 00 00 00 00 00 00 00 00 00 00 00 00 00 00 00
       0.0 0.0 0.0 0.0
000040 00 00 00 00 00 00 00 00 00 00 00 00 00 00 00 00
       0.0 0.0 0.0 0.0
000050 00 00 00 00 00 00 00 00 00 00 00 00 00 00 00 00
       0.0 0.0 0.0 0.0
000060 00 00 00 00 00 00 00 00 00 00 00 00 00 00 00 00
       0.0 0.0 0.0 0.0
000070 00 00 00 00 00 00 00 00 00 00 00 00 00 00 00 00
       0.0 0.0 0.0 0.0
000080 00 00 00 00 00 00 00 00 00 00 00 00 00 00 00 00
       0.0 0.0 0.0 0.0
000090 00 00 00 00 00 00 00 00 00 00 00 00 00 00 00 00
       0.0 0.0 0.0 0.0
0000a0 00 00 00 00 00 00 00 00 00 00 00 00 00 00 00 00
       0.0 0.0 0.0 0.0
0000b0 00 00 00 00 00 00 00 00 00 00 00 00 00 00 00 00
       0.0 0.0 0.0 0.0
0000c0 00 00 00 00 00 00 00 00 00 00 00 00 00 00 00 00
       0.0 0.0 0.0 0.0
0000d0 00 00 00 00 00 00 00 00 00 00 00 00 00 00 00 00
       0.0 0.0 0.0 0.0
0000e0 00 00 00 00 00 00 00 00 00 00 00 00 00 00 00 00
       0.0 0.0 0.0 0.0
0000f0 00 00 00 00 00 00 00 00 00 00 00 00 00 00 00 00
       0.0 0.0 0.0 0.0

net.layer2.1.running_var f4 [64]
000000 00 00 80 3f 00 00 80 3f 00 00 80 3f 00 00 80 3f
       1.0 1.0 1.0 1.0
000010 00 00 80 3f 00 00 80 3f 00 00 80 3f 00 00 80 3f
       1.0 1.0 1.0 1.0
000020 00 00 80 3f 00 00 80 3f 00 00 80 3f 00 00 80 3f
       1.0 1.0 1.0 1.0
000030 00 00 80 3f 00 00 80 3f 00 00 80 3f 00 00 80 3f
       1.0 1.0 1.0 1.0
000040 00 00 80 3f 00 00 80 3f 00 00 80 3f 00 00 80 3f
       1.0 1.0 1.0 1.0
000050 00 00 80 3f 00 00 80 3f 00 00 80 3f 00 00 80 3f
       1.0 1.0 1.0 1.0
000060 00 00 80 3f 00 00 80 3f 00 00 80 3f 00 00 80 3f
       1.0 1.0 1.0 1.0
000070 00 00 80 3f 00 00 80 3f 00 00 80 3f 00 00 80 3f
       1.0 1.0 1.0 1.0
000080 00 00 80 3f 00 00 80 3f 00 00 80 3f 00 00 80 3f
       1.0 1.0 1.0 1.0
000090 00 00 80 3f 00 00 80 3f 00 00 80 3f 00 00 80 3f
       1.0 1.0 1.0 1.0
0000a0 00 00 80 3f 00 00 80 3f 00 00 80 3f 00 00 80 3f
       1.0 1.0 1.0 1.0
0000b0 00 00 80 3f 00 00 80 3f 00 00 80 3f 00 00 80 3f
       1.0 1.0 1.0 1.0
0000c0 00 00 80 3f 00 00 80 3f 00 00 80 3f 00 00 80 3f
       1.0 1.0 1.0 1.0
0000d0 00 00 80 3f 00 00 80 3f 00 00 80 3f 00 00 80 3f
       1.0 1.0 1.0 1.0
0000e0 00 00 80 3f 00 00 80 3f 00 00 80 3f 00 00 80 3f
       1.0 1.0 1.0 1.0
0000f0 00 00 80 3f 00 00 80 3f 00 00 80 3f 00 00 80 3f
       1.0 1.0 1.0 1.0

net.layer3.0.weight f4 [64, 64, 3, 3]
000000 a8 4e 4d 3c f7 00 84 3d 31 6a ad bb 9d 3e 8e 3d
       0.01253096 0.064454965 -0.0052922 0.06945536
000010 ad 7d 9d 3b 47 22 59 3d c5 e0 91 bd f3 0a 33 bd
       0.0048062415 0.053011205 -0.071229495 -0.043711614
000020 e6 89 e2 bc 0e 77 92 bc 41 72 2e bc c9 f7 73 bd
       -0.027653646 -0.017879035 -0.010647357 -0.05956248
000030 3e b2 7c bd 66 60 a1 bb 82 a2 50 3c 13 4e 79 bd
       -0.061693422 -0.0049248217 0.012734057 -0.060865473
000040 80 7a 56 bb db 00 81 bd 2a 39 3c bc e5 a5 80 bb
       -0.0032726824 -0.06298991 -0.011488238 -0.003926026
000050 26 16 af 3b 47 cf cf 3d 24 fa 0e 3d df f0 64 bd
       0.0053432165 0.10146957 0.03490652 -0.055893775
000060 fc 54 5a 3c 4e ee 9f 3c 17 c8 b0 bc a1 94 31 bd
       0.013325926 0.019522812 -0.021579785 -0.043354634
000070 f4 85 b9 bd ad e1 47 3c e6 a1 aa bd af e2 3d bc
       -0.09058753 0.012199801 -0.08331661 -0.01158969
000080 aa 33 a2 bd e5 ac 78 bd 63 5d b8 bd e9 f9 68 bd
       -0.079200104 -0.06071176 -0.09002187 -0.056878958
000090 af 6c 52 3c 1d ef 98 3c 7c eb b1 bc a6 32 49 bd
       0.012843295 0.018668706 -0.021718733 -0.049120568
0000a0 90 d9 80 bd 13 2d 84 bc e0 b9 08 3d 88 52 f3 bc
       -0.06291497 -0.016134774 0.03338039 -0.02970244
0000b0 99 c6 88 bd f9 60 2c bd 0e f7 52 3d 16 c3 3c 3d
       -0.066785045 -0.042084668 0.05150514 0.046084486
0000c0 48 eb 21 3d 7a f9 4a 3d ba cf 38 bc 9c f0 17 3c
       0.039531022 0.049554326 -0.011279995 0.009273674
0000d0 70 be 66 bd 47 25 a8 3c 08 91 32 bc 7d 05 9b ba
       -0.05633396 0.020525588 -0.010898836 -0.0011827197
0000e0 a2 9d df bc b1 73 b3 bc c2 b6 cc bb 48 7d 30 3d
       -0.027296845 -0.021905752 -0.0062473724 0.043088228
0000f0 44 fc 8c bc b9 40 28 3d 39 d7 2c bc 50 a4 1e 3d
       -0.017210133 0.04107735 -0.01054936 0.03873092
000100 dd 24 ca bc 22 bb 5a ba 8d d2 45 3c b0 53 a4 3c
       -0.02467578 -0.0008343925 0.012074125 0.020059437
000110 ac 59 2d bd f2 a2 4f 3c 18 2d 1e bd 0c 44 3b bd
       -0.042321846 0.0126731265 -0.038617224 -0.04571919
000120 02 19 65 3d b3 4e 22 3e 80 d3 35 bd f6 6e 3f 3d
       0.055932052 0.15850334 -0.044391155 0.04673668
000130 11 7f 2c 3e 38 b3 1a ba c6 f6 1e bd cf e3 0a bb
       0.16845347 -0.00059013395 -0.03880956 -0.0021192913
000140 17 20 0e be 0e a3 4b 3d 67 54 d9 bc 47 f0 5f 3c
       -0.13879429 0.049716048 -0.026529504 0.013668126
000150 59 d9 e5 3c 53 16 0e 3d ff 92 75 bb 7d db 06 bd
       0.028057741 0.03468926 -0.003747165 -0.032924164
000160 f8 24 c7 bc 23 d4 16 ba 1d 12 db 3c dc 50 6b bd
       -0.02430962 -0.0005753657 0.026742036 -0.05745016
000170 ec 70 47 3d 55 d0 ab 3b 57 69 e6 3b d1 eb 23 3d
       0.048691675 0.005243341 0.0070316005 0.040019814
000180 3e 87 51 3d 27 1c 47 3c 4a f2 20 3d 57 80 c6 3c
       0.051154368 0.012152708 0.039293565 0.02423112
000190 98 0b 1f bc 49 7e cf bb e7 02 6f bb 8d 38 22 3d
       -0.009707354 -0.006332193 -0.0036470236 0.039604712
0001a0 0e 49 1c 3d a9 b3 d0 3c 01 21 b8 bc 39 9c f7 bb
       0.038155608 0.025476294 -0.022476675 -0.007556465
0001b0 b4 82 b9 bc 6c be 63 3d a0 09 91 3c ba 27 b3 3d
       -0.022645332 0.055601522 0.017704785 0.087478116
0001c0 17 0f e1 3d f8 68 20 3c 82 06 0b bd da ea 85 bb
       0.10989206 0.0097906515 -0.033941753 -0.0040868344
0001d0 04 a9 bb bc e7 14 60 3b 7d 75 34 bd 7c dc 3c bd
       -0.022907741 0.0034192146 -0.044057358 -0.046108708
0001e0 30 11 81 bd 75 e9 fa 3b 37 c6 03 be fb b1 1e bd
       -0.063021064 0.007657225 -0.12868582 -0.038743954
0001f0 a9 7e a3 bd aa 01 53 bd 0d e6 50 bd 51 fd c8 bc
       -0.07983143 -0.05151526 -0.051000644 -0.024534853
000200 13 28 40 bd c0 ab 14 3c 11 3d 70 3d 35 25 ca bd
       -0.046913218 0.0090741515 0.058651987 -0.09870378
000210 9f 6e 15 bd d6 e9 87 3c 02 a6 12 be a7 0f 4f 3c
       -0.03648245 0.016590994 -0.1432114 0.012638009
000220 b3 05 2b bc b8 44 c3 3c 51 c8 a5 3b 02 13 9f bc
       -0.0104383705 0.023836479 0.00505928 -0.019418243
000230 31 5c bf bc bc d2 71 bb e7 9c 78 bc 4a e0 3f 3d
       -0.02335939 -0.003689929 -0.015174127 0.046844758
000240 54 fa db bc 4b 5c cf 3d a0 02 94 3d bb 77 0a 3d
       -0.026852764 0.10125025 0.07227063 0.03380559
000250 16 d6 5f 3b a3 6a 37 bd d3 b2 10 3a 4c d0 91 bd
       0.0034154705 -0.04477943 0.0005519811 -0.071198076
000260 f9 23 e1 bd bf 75 18 bd 15 ec 59 bc 3a d0 a5 bd
       -0.10993189 -0.037221666 -0.013300915 -0.08096357
000270 21 01 1b bd d8 48 82 3c df 90 57 bd 79 af f0 bb
       -0.037842873 0.015903875 -0.052628394 -0.0073451367
000280 d6 00 54 bd 52 e0 a9 bd ee ff 2d bd 79 6c 9e 3c
       -0.05175861 -0.08294739 -0.0424804 0.019338833
000290 bb 64 87 bc 91 30 b0 3b de b9 97 bd dd c1 96 bd
       -0.016527524 0.0053768833 -0.07408498 -0.07361195
0002a0 67 3b 97 bd a8 18 1f bd fd 6d 27 bd fb 13 58 3c
       -0.07384377 -0.038841873 -0.040876377 0.013188357
0002b0 a5 84 c0 bb 6e 34 48 bc 4a e5 85 bc ff dc 63 bd
       -0.0058751875 -0.012219531 -0.016344685 -0.05563068
0002c0 30 a2 d7 3c fc 99 74 3c df 14 cb bc e4 28 be 3c
       0.026322454 0.014929291 -0.024790226 0.023212858
0002d0 4c c1 88 3c ac 93 3e bb 83 7e 6a bd 77 80 29 bd
       0.016693734 -0.0029079719 -0.057249557 -0.04138228
0002e0 46 77 fc bb a6 f6 7c bc fe 41 1a bd 38 cd 4b bd
       -0.007704648 -0.015439665 -0.03766059 -0.04975626
0002f0 b6 07 66 bc 56 23 1c bd da c1 13 bd e6 33 4a bd
       -0.014039924 -0.038119636 -0.036073543 -0.0493659
000300 48 53 a7 3c 8c 56 ad 3c 42 15 dc 3c 8b 89 08 bd
       0.020425454 0.021159433 0.026865605 -0.033334296
000310 fe 1c 06 bd 4c 9d b9 3b 63 3a a4 bc 0d b0 1f bb
       -0.032742493 0.005664503 -0.020047372 -0.002436641
000320 9d ea c0 bc c8 f2 cc 3b b1 d7 2d bc 84 ac a0 3c
       -0.023549372 0.0062545277 -0.010610507 0.019613512
000330 f3 bc db bb ff f8 5c bd 3c 86 af 3a d9 54 7d 3c
       -0.006705874 -0.0539484 0.0013391445 0.015462124
000340 d8 99 32 3d 66 04 5a bd 98 4e 24 bd 2a ec 63 bc
       0.043603748 -0.05322685 -0.040114015 -0.013911286
000350 89 eb b1 bd cf 23 11 bd 0e b8 d0 3b f0 8e 9d bd
       -0.08687503 -0.03543454 0.0063695973 -0.07693279
000360 9a ba f7 b5 0b cd e9 3b d3 84 05 bd da 87 a6 3d
       -1.8457242e-06 0.0071350387 -0.032597374 0.081313804
000370 6c c8 99 3d b8 cc 0d 3d da 69 3a bc c6 64 4b 3d
       0.075089306 0.034619063 -0.011377776 0.049656652
000380 08 94 8a bd 81 85 24 3c 08 64 5c bc 4e c6 fb bb
       -0.06766516 0.010041595 -0.013451584 -0.007683552
000390 2a cc da bc ab dc 8a bd 5e 0f a6 bc fb 9e 87 bc
       -0.026708681 -0.0678037 -0.020271 -0.0165553
0003a0 f0 af 8a bc 4f 7e 07 bd b4 06 ca 3c b0 18 3e bd
       -0.016929597 -0.03307944 0.0246614 -0.046410263
0003b0 0a ae 26 3d e2 b7 0e bd 49 2c ec bc a8 e5 a2 bb
       0.04069332 -0.034843333 -0.02882971 -0.004971225
0003c0 ec 9c cc bc 1d 09 7d bc e0 54 2b bc 5e 0b d8 3b
       -0.02497717 -0.015444067 -0.0104572475 0.006593152
0003d0 13 5d c4 bc e8 af aa bb 47 dc 09 bd e0 5a 99 bc
       -0.023970162 -0.005208958 -0.03365734 -0.01872009
0003e0 ba 05 40 3d ef ee f1 bc 3f 18 c8 3c 80 aa 7c 3b
       0.04688046 -0.029532878 0.024425624 0.0038553774
0003f0 50 3d 42 3b 9c bd 8f bd 41 14 f0 bc da 0e b6 3c
       0.0029638596 -0.07018587 -0.029306533 0.022223879

net.layer3.0.bias f4 [64]
000000 30 25 c3 bc ce 62 1b 3d d6 78 02 3d 5c 29 0f 3d
       -0.023821443 0.037936024 0.03185352 0.034951553
000010 a7 f1 24 3d 54 28 3b 3c f8 3e 02 bc d7 72 bc 3c
       0.04026952 0.011423189 -0.007949583 0.023003979
000020 68 d3 db bc f5 4a cd 3b b8 f4 13 3d a5 78 15 3d
       -0.026834205 0.006265039 0.036122054 0.03649201
000030 a6 22 8c 3a 7a 5f a2 39 b6 ad af bc 99 6f a8 3c
       0.0010691478 0.00030970183 -0.021445137 0.020561026
000040 e0 3e c2 3c 8c c6 e6 3c 24 64 d5 3b ad 2e 20 bd
       0.023711622 0.028170846 0.006512182 -0.039107013
000050 1a 28 4b bb 50 cc d3 3c 19 85 c7 3b d9 ee 7d bc
       -0.0030999244 0.02585426 0.0060888645 -0.01549884
000060 27 ce 19 3d b3 9b 3e bc 8d a1 1d 3d 4a d2 81 3c
       0.037550118 -0.011633801 0.038484145 0.015847344
000070 8e 58 0a 3d 88 98 63 3c be db 01 bd 24 2b bd bc
       0.03377586 0.013891347 -0.031703703 -0.02309186
000080 dc 83 d6 bc 55 62 ea bb 53 bb 5e 3c 59 5c c1 3c
       -0.026185922 -0.0071528354 0.013594466 0.023603605
000090 6a 55 52 bc 88 17 83 bc df 19 26 bd 8f c1 83 3c
       -0.012837747 -0.016002432 -0.040552016 0.016083507
0000a0 8a ec 46 3c 06 a9 73 bb d7 8b cc 39 4e b8 67 3c
       0.012141356 -0.0037179603 0.000390141 0.014143063
0000b0 13 3a 79 bb ba 7d 17 3c 87 53 a8 bc 64 85 8d 3c
       -0.0038029 0.009246284 -0.020547641 0.01727552
0000c0 75 b1 00 3d 28 9d c0 bc 43 ea 1c bd 84 c9 11 3d
       0.031419236 -0.023512438 -0.038309347 0.03559257
0000d0 bb eb d7 3a 3e f5 c5 bc 15 97 76 bc ed 4a 80 3c
       0.0016473451 -0.024164792 -0.015050669 0.015660727
0000e0 9e 63 1f 3d 8a 4a e2 3c de ab f6 bc 98 7d 88 bc
       0.03891336 0.027623434 -0.03011125 -0.01666145
0000f0 d1 34 25 3d f9 ad c1 bc 12 1e ca 3c d4 77 44 3c
       0.040333573 -0.023642527 0.024672542 0.01199146

net.layer3.1.weight f4 [64]
000000 5e 1c 75 3f 42 d0 79 3f c3 cc 2c 3f d5 76 3a 3f
       0.9574641 0.975834 0.6749994 0.72837573
000010 dc d2 3f 3f 1e d5 96 3f d6 4c 30 3f ab 72 66 3f
       0.7493112 1.1783788 0.6886724 0.9001872
000020 56 09 55 3f 51 32 7f 3f 26 49 9d 3f 51 27 8a 3f
       0.8321737 0.9968615 1.2287948 1.0793248
000030 f0 0a 4c 3f 40 9f 4e 3f 55 60 2a 3f 6f 78 5b 3f
       0.7970419 0.80711746 0.6655324 0.8573064
000040 38 f9 69 3f b3 0a 7e 3f 04 07 69 3f 19 c3 4f 3f
       0.913959 0.99235076 0.9102633 0.8115707
000050 c6 e6 38 3f bd 60 2a 3f 5e 7a 78 3f ad 41 5e 3f
       0.7222713 0.6655386 0.9706172 0.86818963
000060 fc ce 74 3f a3 63 6d 3f 3b 09 35 3f d6 3c 34 3f
       0.95628333 0.9273016 0.7071721 0.7040533
000070 f2 c0 7c 3f 41 0c 7a 3f 95 17 76 3f f4 7a 8e 3f
       0.9873191 0.9767495 0.96129733 1.1131272
000080 8c b1 4a 3f 4d e0 84 3f 39 1f af 3f c6 30 73 3f
       0.79177165 1.0380951 1.3681403 0.949963
000090 99 70 81 3f 5f 27 30 3f 6d 02 3a 3f 45 ae 87 3f
       1.0112487 0.68810076 0.7265995 1.0600058
0000a0 de c5 80 3f 43 11 9a 3f fb 6a 74 3f cc 91 87 3f
       1.0060384 1.2036518 0.9547574 1.0591369
0000b0 62 77 3f 3f f1 e0 80 3f 9d ed 40 3f a5 a6 71 3f
       0.7479154 1.0068647 0.7536257 0.94394904
0000c0 9f 67 8e 3f 91 5f a3 3f 29 f6 4d 3f f0 83 4d 3f
       1.1125373 1.276354 0.80453736 0.80279446
0000d0 03 f4 63 3f 7d 6e 3e 3f a1 fb 48 3f 2a 14 65 3f
       0.8904421 0.7438734 0.78508955 0.8948389
0000e0 a2 76 67 3f 11 c8 92 3f c0 e8 7f 3f 6b 42 3a 3f
       0.90415394 1.1467305 0.99964523 0.72757596
0000f0 ce d4 81 3f 6b 2d a3 3f 06 bb 44 3f 5a b6 60 3f
       1.0143068 1.2748235 0.76847875 0.87778246

net.layer3.1.bias f4 [64]
000000 c5 ee 8c be f7 70 21 be f1 d9 9b be dc 58 8b be
       -0.27525917 -0.15765749 -0.30439714 -0.27216232
000010 33 8a 79 be b5 3f af bc 04 c4 89 be 0f c4 b8 be
       -0.24369125 -0.021392683 -0.2690736 -0.3608708
000020 28 bd 6f be e0 96 a4 be 4b 1d 85 3c d6 82 af be
       -0.23412001 -0.32146358 0.01624932 -0.34279507
000030 a1 b5 8a be 51 ee 59 be c6 2a 87 be ed 7d 20 be
       -0.27091697 -0.21282317 -0.2639982 -0.15673037
000040 88 e3 7d be fe a9 cd be d3 4c 77 be e8 94 48 be
       -0.24793828 -0.40168756 -0.241504 -0.19588053
000050 61 f1 64 be 65 e1 78 be eb e2 74 be 55 19 23 be
       -0.22357704 -0.24304731 -0.23914687 -0.15927632
000060 f9 62 2a be 8e e2 59 be e0 e6 63 be f5 79 61 be
       -0.16639318 -0.2127783 -0.2225604 -0.22019179
000070 3f 67 af be c4 f5 f8 bd 26 31 83 be bd 4e 80 3d
       -0.34258458 -0.12156251 -0.25623435 0.06265018
000080 23 23 84 be 95 80 aa be 57 e5 9c 3d 07 46 33 be
       -0.25808057 -0.33301225 0.076609306 -0.17507182
000090 9f 7f 8f be 4f 7a 85 be 30 ff 8d be ae c0 21 be
       -0.28027055 -0.26069877 -0.27733755 -0.15796158
0000a0 db 8e 9f bd 6d 40 65 3d 18 b7 94 be 72 16 90 be
       -0.077909194 0.055969644 -0.2904594 -0.28142124
0000b0 82 c3 34 be 1a 81 29 be be c2 84 be 1e 1c 52 be
       -0.17652705 -0.16553155 -0.25929826 -0.20518538
0000c0 22 67 34 be cf 59 8f 3d 3b a9 22 be 4d bd 71 be
       -0.17617467 0.069995515 -0.15884869 -0.23607369
0000d0 d4 72 81 be 87 f2 75 be 0c 7a 41 be 22 70 ed bd
       -0.2528292 -0.24018298 -0.18894213 -0.11593653
0000e0 f9 80 9b be 54 70 23 3d ac ef 3b be b5 6b 82 be
       -0.30371836 0.039902046 -0.18353146 -0.254728
0000f0 66 4e 81 be 19 81 16 3e 7b 92 81 be d3 70 9f bd
       -0.25255126 0.14697684 -0.25307068 -0.077851914

net.layer3.1.running_mean f4 [64]
000000 00 00 00 00 00 00 00 00 00 00 00 00 00 00 00 00
       0.0 0.0 0.0 0.0
000010 00 00 00 00 00 00 00 00 00 00 00 00 00 00 00 00
       0.0 0.0 0.0 0.0
000020 00 00 00 00 00 00 00 00 00 00 00 00 00 00 00 00
       0.0 0.0 0.0 0.0
000030 00 00 00 00 00 00 00 00 00 00 00 00 00 00 00 00
       0.0 0.0 0.0 0.0
000040 00 00 00 00 00 00 00 00 00 00 00 00 00 00 00 00
       0.0 0.0 0.0 0.0
000050 00 00 00 00 00 00 00 00 00 00 00 00 00 00 00 00
       0.0 0.0 0.0 0.0
000060 00 00 00 00 00 00 00 00 00 00 00 00 00 00 00 00
       0.0 0.0 0.0 0.0
000070 00 00 00 00 00 00 00 00 00 00 00 00 00 00 00 00
       0.0 0.0 0.0 0.0
000080 00 00 00 00 00 00 00 00 00 00 00 00 00 00 00 00
       0.0 0.0 0.0 0.0
000090 00 00 00 00 00 00 00 00 00 00 00 00 00 00 00 00
       0.0 0.0 0.0 0.0
0000a0 00 00 00 00 00 00 00 00 00 00 00 00 00 00 00 00
       0.0 0.0 0.0 0.0
0000b0 00 00 00 00 00 00 00 00 00 00 00 00 00 00 00 00
       0.0 0.0 0.0 0.0
0000c0 00 00 00 00 00 00 00 00 00 00 00 00 00 00 00 00
       0.0 0.0 0.0 0.0
0000d0 00 00 00 00 00 00 00 00 00 00 00 00 00 00 00 00
       0.0 0.0 0.0 0.0
0000e0 00 00 00 00 00 00 00 00 00 00 00 00 00 00 00 00
       0.0 0.0 0.0 0.0
0000f0 00 00 00 00 00 00 00 00 00 00 00 00 00 00 00 00
       0.0 0.0 0.0 0.0

net.layer3.1.running_var f4 [64]
000000 00 00 80 3f 00 00 80 3f 00 00 80 3f 00 00 80 3f
       1.0 1.0 1.0 1.0
000010 00 00 80 3f 00 00 80 3f 00 00 80 3f 00 00 80 3f
       1.0 1.0 1.0 1.0
000020 00 00 80 3f 00 00 80 3f 00 00 80 3f 00 00 80 3f
       1.0 1.0 1.0 1.0
000030 00 00 80 3f 00 00 80 3f 00 00 80 3f 00 00 80 3f
       1.0 1.0 1.0 1.0
000040 00 00 80 3f 00 00 80 3f 00 00 80 3f 00 00 80 3f
       1.0 1.0 1.0 1.0
000050 00 00 80 3f 00 00 80 3f 00 00 80 3f 00 00 80 3f
       1.0 1.0 1.0 1.0
000060 00 00 80 3f 00 00 80 3f 00 00 80 3f 00 00 80 3f
       1.0 1.0 1.0 1.0
000070 00 00 80 3f 00 00 80 3f 00 00 80 3f 00 00 80 3f
       1.0 1.0 1.0 1.0
000080 00 00 80 3f 00 00 80 3f 00 00 80 3f 00 00 80 3f
       1.0 1.0 1.0 1.0
000090 00 00 80 3f 00 00 80 3f 00 00 80 3f 00 00 80 3f
       1.0 1.0 1.0 1.0
0000a0 00 00 80 3f 00 00 80 3f 00 00 80 3f 00 00 80 3f
       1.0 1.0 1.0 1.0
0000b0 00 00 80 3f 00 00 80 3f 00 00 80 3f 00 00 80 3f
       1.0 1.0 1.0 1.0
0000c0 00 00 80 3f 00 00 80 3f 00 00 80 3f 00 00 80 3f
       1.0 1.0 1.0 1.0
0000d0 00 00 80 3f 00 00 80 3f 00 00 80 3f 00 00 80 3f
       1.0 1.0 1.0 1.0
0000e0 00 00 80 3f 00 00 80 3f 00 00 80 3f 00 00 80 3f
       1.0 1.0 1.0 1.0
0000f0 00 00 80 3f 00 00 80 3f 00 00 80 3f 00 00 80 3f
       1.0 1.0 1.0 1.0
