old_mp/maml_omniglot_step9000_k_5_n_way5.pt (torch, 462256 bytes, 26 tensors)

net.layer1.0.weight f4 [64, 1, 3, 3]
00000000: 9119 bf3e c814 98bd f46f 76be 74dd 0e3d
00000010: b480 823e 499f 383e 366d c2bc e516 d3bc
00000020: e498 f23d 1874 ee3c 3b82 adbe 3529 59bd
00000030: 084e 7fbe 9673 c23e b2c5 b7be 3709 abbd
00000040: 6f4a 6bbe 11d0 20be aa50 213c 7e43 13be
00000050: e920 a23c 248b 2c3e c283 d7be 235e 6a3e
00000060: 50c0 113e 9889 933e edc2 5d3e 609a f43d
00000070: 05bb f73d 5502 a03e 83ef 383d ed86 1ebe
00000080: e510 2cbe 8c90 33be 5f67 07bc b409 ffbd
00000090: e85b cd3e 3d80 b43d 0543 19bd 93ae 62be
000000a0: 43d2 b53e e5dd 963b dd29 21be 0a01 9d3d
000000b0: 33eb 863d 7672 aebe da07 75be 92fd 34bd
000000c0: a5f8 50be 540f 34be 3ad8 d4be 5205 023d
000000d0: 048f 8dbe 947c 7cbe bdfb 1ebc 5eca 81be
000000e0: d7b7 893e caf9 663e c908 c9bd 3ff1 263e
000000f0: dbe8 803d 3e9a 8fbe cdcc 793e 2062 e13e
00000100: e145 5e3d e0ea 8fbe a60a 23be a249 563d
00000110: a6f2 bfbd 9711 9bbd 167b 75be 193c 6ebe
00000120: 4061 0dbd 8674 453e 1d7b c8bd e208 703e
00000130: 0a70 063c 72ff 5d3e b744 8c3d 82a6 90be
00000140: 3c7e 293e 6e58 77be 6345 83be cb91 1cbe
00000150: 159a 8fbd 27a3 063b 4aa1 f1bd 0bb0 653d
00000160: b5a0 153f 4cd5 84bd 7123 ffbb e461 9abe
00000170: 9253 3dbe 4bd1 473e 9e51 f33e 608b 2cbc
00000180: 9727 80be a3ce 07be 8d7b 9bbb 9963 873d
00000190: f107 bbbd 403d eebd 895c 0fbe af12 52be
000001a0: e5ec c7be eb89 c7be 0eb7 f5be 784c e5bd
000001b0: d571 1b3e 5b4a b13d 073d e6bd dda6 173e
000001c0: 3322 b53d eb4e 25be 5ec6 6f3e 83dc 9e3d
000001d0: b492 913e b866 1fbe 89fd fe3c 1b81 3ebd
000001e0: 5bc0 2b3e cf2a 503e 27eb 3b3e d872 953e
000001f0: 1521 c4be d09c f43d d42f 913e 2e7d a2bd
00000200: b58b fd3d 26ec 6c3d a982 babe ae6e 56bc
00000210: 8a85 853e 3d1a 19bd 9293 bb3c 4845 94be
00000220: 1323 f33e ce19 41be 4fa4 42bd aab2 693e
00000230: af93 e8bd 94ac f2bd 50bf 443d 3f99 6dbd
00000240: 06b3 dcbd b2c6 c0bd 3665 bebc 7fb9 123a
00000250: ba71 afbd 2c44 c03e 9a51 04be cf54 103d
00000260: c1e7 983e 1271 9dbe 1ff3 3d3e e75e f13e
00000270: c1b9 3fbd 255b b83d 5c29 483e 570f 4ebe
00000280: 0842 ea3d 3636 b83e 2c4d 46bd 057c 8dbe
00000290: 1d90 e73d 3467 003e 157b 533e e6ee 883e
000002a0: 69a3 84bd 8f2f 483e 3422 a6be 6baf 323e
000002b0: 0379 4ebe 0c92 91bd a8b7 55bd b465 f6bd
000002c0: 3bd6 693e 3570 0bbe 3eb4 1e3e 322c 973e
000002d0: e964 3abe 996c 333c 5f69 743e 9d49 1cbe
000002e0: 695b 523d c878 873e 1637 d73e 5775 173e
000002f0: 9e33 893d de88 3d3c 079a 56be 8d5e afbd
00000300: d48b 8c3e f27c 65be f533 a53e 4051 ca3d
00000310: d6c9 963e b823 9bbc 5191 31be 27b3 983e
00000320: 28d0 8b3e 8524 28be e83a 42be 6572 173e
00000330: e0f0 b63e 914a 02be 742f 25be 5349 85bd
00000340: 7c1e f0bd f233 643e 03ca 47be d8dc 84be
00000350: 444f ab3e 6b3e 423e 0291 933e 8c65 04bd
00000360: 1732 47bd 8232 1bbe abe3 cf3e 17b5 4f3d
00000370: 08bc 8cbe 87f7 5f3b f709 663d c550 b93e
00000380: ecbf b0be 0198 0f3d 2add 9d3e 3021 e8bd
00000390: 6e4e 84be c741 1b3e 4f2b ea3d fcda 813d
000003a0: dffb 623e 4d92 1ebd e03b 313d 3f60 623e
000003b0: 1d59 033e 86fe 52be b87e 02bd eb62 a7be
000003c0: ad2a f93d de57 113e 3ed0 fe3d 2028 23bd
000003d0: 3e7a 533e a097 c9bc 4c14 abbd 19aa 703e
000003e0: c070 8abe e5d7 9238 3d4c e03d 36ed 703e
000003f0: dde7 d5bd 50c6 c3bd 2692 59be de5c 8dbd
0.37324193 -0.07425839 -0.24066144 0.034879163 0.25488818 0.18029512 -0.023733716 -0.025767753
0.11845568 0.029108092 -0.3388842 -0.053017814 -0.2493211 0.3797881 -0.35893017 -0.08351367
-0.22977613 -0.15704371 0.009845892 -0.14381215 0.019791083 0.16849953 -0.4209271 0.22887473
0.14233518 0.28815913 0.2165639 0.11943507 0.12096218 0.3125178 0.04515029 -0.15481158
-0.1680332 -0.17535609 -0.008264392 -0.124530226 0.4010918 0.08813522 -0.03741743 -0.22136907
0.3551198 0.0046040886 -0.15738626 0.07666214 0.065878294 -0.34071702 -0.23928776 -0.044187136
-0.2040735 -0.17583972 -0.41571218 0.031743355 -0.27648175 -0.24656898 -0.009703574 -0.25349706
0.2689807 0.22556224 -0.09816129 0.16302966 0.06294414 -0.28047365 0.24394532 0.44020176
0.05426586 -0.28108883 -0.15922031 0.052316315 -0.093724534 -0.07571714 -0.23972735 -0.23265113
-0.034516573 0.19282731 -0.09789107 0.23440889 0.008205423 0.21679476 0.06849044 -0.28252035
0.16552061 -0.24154827 -0.25638875 -0.1528999 -0.07011811 0.0020544024 -0.117983416 0.05607609
0.58448344 -0.06485996 -0.0077862074 -0.3015281 -0.18488911 0.19513433 0.47523206 -0.010531276
-0.25030205 -0.1326242 -0.004744953 0.066107936 -0.09132374 -0.11632776 -0.14000143 -0.2051494
-0.39047924 -0.3897241 -0.47991222 -0.11196226 0.15180142 0.0865676 -0.11242109 0.14809747
0.088444136 -0.16143386 0.23415515 0.07756903 0.28432238 -0.15566528 0.031126754 -0.046509843
0.16772597 0.2032883 0.18351422 0.2918918 -0.3830649 0.11943972 0.28356802 -0.079340324
0.123801626 0.057842396 -0.3642781 -0.0130879115 0.26078445 -0.03737854 0.022897515 -0.28959107
0.47487697 -0.188575 -0.047519978 0.22822061 -0.113562934 -0.11849323 0.048034012 -0.058007475
-0.107763335 -0.09412898 -0.02324162 0.0005597099 -0.085666135 0.3755201 -0.12921754 0.03523713
0.29864314 -0.30750328 0.18549775 0.47142717 -0.046808008 0.090017594 0.19547027 -0.20123039
0.11438376 0.3597886 -0.04841344 -0.27633682 0.11306784 0.12539369 0.20652421 0.26744765
-0.064764805 0.19549392 -0.3244797 0.17449729 -0.2016335 -0.07107934 -0.0521771 -0.12031117
0.22835629 -0.13617022 0.15498444 0.29525906 -0.18202557 0.010951185 0.23868321 -0.15262456
0.051356707 0.26459336 0.42034215 0.14790855 0.06699298 0.011568276 -0.20957194 -0.08562956
0.2745043 -0.22410944 0.32266203 0.098787785 0.29450864 -0.01893793 -0.1734059 0.29824182
0.27307248 -0.16420181 -0.18967783 0.14789732 0.35730648 -0.12723757 -0.16131383 -0.06508126
-0.117245644 0.2228544 -0.19510655 -0.2594974 0.33458912 0.18969123 0.2882157 -0.032323405
-0.048631754 -0.15155986 0.40603384 0.05070981 -0.27487206 0.0034174637 0.056161847 0.36194435
-0.34521425 0.03505707 0.30832797 -0.11334455 -0.25841087 0.15161811 0.11434042 0.06340596
0.22166394 -0.038713742 0.043269992 0.22107027 0.12826963 -0.20604905 -0.03185913 -0.32692656
0.12166343 0.14193675 0.12442063 -0.039833188 0.206521 -0.024608433 -0.08353481 0.23502387
-0.27039146 7.002036e-05 0.10952041 0.23527989 -0.10444615 -0.095593095 -0.21247157 -0.06902479

net.layer1.0.bias f4 [64]
00000000: 5fdd 0abd 2c71 b4bd b01f d63d 7a10 303e
00000010: 8f57 57bd 1ae4 7f3e 3c53 24be 291f a23e
00000020: fd11 e03d 99a4 103e 0d37 25bf 4d4e 7fbd
00000030: e063 fd3d b8cd 20be 6b08 cabd eb34 003e
00000040: f789 b0be 3ccf 9cbe d4d0 45be 3e01 763e
00000050: 6ab8 513d 9d96 2c3e 33e4 563e 1008 c5be
00000060: 60cd c3be ceba bd3e 47fb fc3c 2614 d1bd
00000070: 67a8 30b9 f607 ad3d ae6e ecbd 2cfc 6bbf
00000080: 039c f3bc eefb e2be 0526 ad3e 4c5c 5abe
00000090: f977 00bf 002b 39be c3a4 a23d 389c 6ebd
000000a0: 0ea2 063e 5913 283e e549 483e 93ec 4b3e
000000b0: 9178 65bd ce99 103e 0edc 0c3e b034 5b3e
000000c0: 422e 31bd d956 2a3e 7ec2 003f ab12 063e
000000d0: fdb0 00bf c995 853e 5261 0f3f d481 97bd
000000e0: 4fb5 393e c3b2 d83d b34d 673e aa23 a73e
000000f0: f171 ac3c a311 bd3d 108f 103e 5cb5 813e
-0.033902522 -0.08810648 0.10455263 0.17193785 -0.052573737 0.24989358 -0.16047376 0.31664398
0.10940931 0.14125289 -0.64537126 -0.062330533 0.12372565 -0.15703475 -0.09864887 0.12520187
-0.3448026 -0.30626857 -0.19317943 0.24023911 0.05120126 0.1685433 0.20985489 -0.38482714
-0.38242626 0.37056583 0.030881537 -0.10208921 -0.00016847403 0.08448784 -0.11544548 -0.9218166
-0.029737478 -0.44332832 0.3381807 -0.21324271 -0.50183064 -0.1808281 0.07941582 -0.05825445
0.13147756 0.1641363 0.19559439 0.19914465 -0.056023184 0.14121172 0.13755819 0.21406817
-0.043257006 0.16634692 0.5029677 0.13093059 -0.5027006 0.2609084 0.56007874 -0.073978096
0.1813557 0.10580971 0.22588234 0.32644397 0.021050425 0.092318796 0.14117074 0.2533368

net.layer1.1.weight f4 [64]
00000000: b285 a23f 1703 d23e 75e9 af3f 466f 3f3f
00000010: 498e 913f 8f47 143f bc7b 883f daa5 163f
00000020: 79e0 9f3f 1547 0b3f b88e 063f b57b 133f
00000030: f6c9 3d3f 5bb5 ae3f e06e 583f 86b2 413f
00000040: 3fed 583f 6900 683f 86ae 913f ae19 393f
00000050: cb57 673f 4583 8b3f 20f1 633f 8b29 9e3f
00000060: 68c5 113f 9183 413f bff1 4a3f 61ea a33f
00000070: 8dfa 3f3f 7d69 603f a56f 253f ff55 513f
00000080: dfd6 293f 5aba 8c3f 4a5f 933f 3f40 ae3f
00000090: 10e5 a33f 7986 803f 18cc 6c3f 3792 323f
000000a0: 1bd4 c23f 699a 873f 576c 383f 6e60 e73f
000000b0: 74d8 5f3f e5c1 503f 2703 a13f 541a b43f
000000c0: f066 393f 1cc9 b13f 6ec5 653f f89f 113f
000000d0: 3a77 943f b0a9 533f 634d b83f 6899 3a3f
000000e0: 2ea8 b03f b637 e43e ab99 6f3f 68f8 053f
000000f0: adc0 203f e91c a53f 162f 573f 58aa c03f
1.269705 0.41017982 1.374312 0.74779165 1.1371547 0.5792169 1.0662761 0.5884682
1.2490379 0.5440534 0.5256152 0.57610637 0.7413629 1.3649095 0.8454418 0.7566303
0.8473701 0.90625626 1.1381385 0.7230481 0.90368336 1.0899435 0.890398 1.2356428
0.56941843 0.7559138 0.79275125 1.2805902 0.74991685 0.8766096 0.6462348 0.81771845
0.6634349 1.099437 1.1513455 1.3613356 1.2804279 1.0041038 0.9249892 0.69754356
1.522098 1.0593997 0.72040313 1.8076303 0.87439656 0.8154586 1.2579087 1.4070535
0.72422695 1.3889499 0.8975438 0.5688472 1.1598885 0.826808 1.4398617 0.7289033
1.3801324 0.44573754 0.93593854 0.5233216 0.62794 1.2899448 0.8405622 1.5051985

net.layer1.1.bias f4 [64]
00000000: abc7 88be 3fa9 67bf e2d3 1dbf 9aab 19bd
00000010: 83fe 38be d3a6 49bf 1908 eabe e8b0 36bf
00000020: 8d13 b0be 375a 74bf 4df2 e1bd c5ce 2fbf
00000030: d123 babe 00a4 f8be 0923 f7be 0253 0bbf
00000040: d712 29be 766a 98be 1b63 2fbe e38f 89bd
00000050: 1f33 c5be 2303 f0be 0389 34be f530 bfbe
00000060: 76da a0bf 3fed eabd f804 593a b159 07bf
00000070: c625 5bbf 504f 76be 8d6a ab3e 9798 43be
00000080: c64d 1fbf c76e bebd 408f 583c 28e9 e8be
00000090: b6ad afbe 7d76 06bf e020 8ebe 9e7e e33d
000000a0: d13b 2abf dca3 00bf 9397 013d d002 92bd
000000b0: 2465 873e f2b0 d5be e563 95be cfcd 15bf
000000c0: 6a83 51bf 616b 0ebf c490 0fbe d644 8ebf
000000d0: 331a ecbe 9f1d 02be 1b17 37be 75a2 17be
000000e0: da19 a7be 7c0f 47be c294 c1be e7f4 8ebf
000000f0: 0785 3fbf 4d9e fbbe 1414 1fbe 019b 29bf
-0.26714835 -0.90492624 -0.6165143 -0.037517168 -0.18065839 -0.7877018 -0.45709303 -0.7136369
-0.34389916 -0.95450157 -0.11032543 -0.6867488 -0.3635545 -0.48562622 -0.48268917 -0.54423535
-0.16511093 -0.29768723 -0.1712765 -0.06716897 -0.38515565 -0.46877393 -0.17630391 -0.3734204
-1.2566669 -0.11471032 0.00082786335 -0.52871233 -0.8560451 -0.24053693 0.3347973 -0.19101177
-0.6222805 -0.09298473 0.013217747 -0.45490384 -0.34312218 -0.5252455 -0.27759457 0.11108135
-0.6649752 -0.5025003 0.031638693 -0.07129443 0.26444352 -0.4173656 -0.29177776 -0.58517164
-0.81841147 -0.556326 -0.14020067 -1.1114757 -0.46113738 -0.12706612 -0.17879908 -0.14808066
-0.3263691 -0.194395 -0.37808806 -1.1168488 -0.7481236 -0.4914421 -0.15535003 -0.6625214

net.layer1.1.running_mean f4 [64]
00000000: 0000 0000 0000 0000 0000 0000 0000 0000
00000010: 0000 0000 0000 0000 0000 0000 0000 0000
00000020: 0000 0000 0000 0000 0000 0000 0000 0000
00000030: 0000 0000 0000 0000 0000 0000 0000 0000
00000040: 0000 0000 0000 0000 0000 0000 0000 0000
00000050: 0000 0000 0000 0000 0000 0000 0000 0000
00000060: 0000 0000 0000 0000 0000 0000 0000 0000
00000070: 0000 0000 0000 0000 0000 0000 0000 0000
00000080: 0000 0000 0000 0000 0000 0000 0000 0000
00000090: 0000 0000 0000 0000 0000 0000 0000 0000
000000a0: 0000 0000 0000 0000 0000 0000 0000 0000
000000b0: 0000 0000 0000 0000 0000 0000 0000 0000
000000c0: 0000 0000 0000 0000 0000 0000 0000 0000
000000d0: 0000 0000 0000 0000 0000 0000 0000 0000
000000e0: 0000 0000 0000 0000 0000 0000 0000 0000
000000f0: 0000 0000 0000 0000 0000 0000 0000 0000
0.0 0.0 0.0 0.0 0.0 0.0 0.0 0.0
0.0 0.0 0.0 0.0 0.0 0.0 0.0 0.0
0.0 0.0 0.0 0.0 0.0 0.0 0.0 0.0
0.0 0.0 0.0 0.0 0.0 0.0 0.0 0.0
0.0 0.0 0.0 0.0 0.0 0.0 0.0 0.0
0.0 0.0 0.0 0.0 0.0 0.0 0.0 0.0
0.0 0.0 0.0 0.0 0.0 0.0 0.0 0.0
0.0 0.0 0.0 0.0 0.0 0.0 0.0 0.0

net.layer1.1.running_var f4 [64]
00000000: 0000 803f 0000 803f 0000 803f 0000 803f
00000010: 0000 803f 0000 803f 0000 803f 0000 803f
00000020: 0000 803f 0000 803f 0000 803f 0000 803f
00000030: 0000 803f 0000 803f 0000 803f 0000 803f
00000040: 0000 803f 0000 803f 0000 803f 0000 803f
00000050: 0000 803f 0000 803f 0000 803f 0000 803f
00000060: 0000 803f 0000 803f 0000 803f 0000 803f
00000070: 0000 803f 0000 803f 0000 803f 0000 803f
00000080: 0000 803f 0000 803f 0000 803f 0000 803f
00000090: 0000 803f 0000 803f 0000 803f 0000 803f
000000a0: 0000 803f 0000 803f 0000 803f 0000 803f
000000b0: 0000 803f 0000 803f 0000 803f 0000 803f
000000c0: 0000 803f 0000 803f 0000 803f 0000 803f
000000d0: 0000 803f 0000 803f 0000 803f 0000 803f
000000e0: 0000 803f 0000 803f 0000 803f 0000 803f
000000f0: 0000 803f 0000 803f 0000 803f 0000 803f
1.0 1.0 1.0 1.0 1.0 1.0 1.0 1.0
1.0 1.0 1.0 1.0 1.0 1.0 1.0 1.0
1.0 1.0 1.0 1.0 1.0 1.0 1.0 1.0
1.0 1.0 1.0 1.0 1.0 1.0 1.0 1.0
1.0 1.0 1.0 1.0 1.0 1.0 1.0 1.0
1.0 1.0 1.0 1.0 1.0 1.0 1.0 1.0
1.0 1.0 1.0 1.0 1.0 1.0 1.0 1.0
1.0 1.0 1.0 1.0 1.0 1.0 1.0 1.0

net.layer2.0.weight f4 [64, 64, 3, 3]
00000000: 64eb ce3e b9b3 d33d 2260 bbbc fa45 663e
00000010: e0e7 2f3e df30 ccbe 597c 093e 4943 a8be
00000020: 0608 083e bfba dabe 7b10 e23c 4fc7 a2be
00000030: eec5 c4bd 2c80 173e 538a 993d ba73 44be
00000040: 570d ddbd 0079 1d3c 8221 efbe dc62 2cbf
00000050: bb37 953d 23a5 11bc 4c38 9fbe ccdf eabe
00000060: 2e83 0c3e 6ec2 07be e7b6 1bbe 5ab1 f5be
00000070: 8ac7 b3be 14a2 28bd 072d 19bd 4c3d f33d
00000080: 776b b93e e0c3 18bf 086f dcbe 385a 31bd
00000090: 1663 aebd 5538 0b3d 9cbd 333e 9fed e1be
000000a0: b96b c2be 8997 6d3e 9d65 9ebe 05c6 86be
000000b0: f1c0 37be fd39 1ebf eea3 8abe 164c 94bc
000000c0: 98d6 95be 3f18 0abd f917 fc3d 0e13 5cbe
000000d0: 3706 71be 3076 c1bd c83e a4bd 0685 a4be
000000e0: 6d65 9ebd 8ab4 a33c c948 ccbe 0fbd 80be
000000f0: b61a b7bd 628b 37be 4c8d 08bc fa73 d6be
00000100: 1ceb 07be 3242 b7be e1b8 1fbe 4ac3 9cbd
00000110: 72e4 e5bd db14 8fbe 7374 44be 2388 28be
00000120: 5111 0a3e babf d53d f2a3 4c3d 9d63 e83d
00000130: f50a 1abe 537b 4fbe e7bd 4bbd a2a0 12bf
00000140: 5016 9abc 45e9 0dbf b37b eebd 7b7d 08be
00000150: 3d4e 68be f2a3 a4bc ce4a d23c c95d bebe
00000160: 645e 44be fa51 3dbe cc86 f6be 418d c9bc
00000170: 8d36 fc3d 00b0 dabd c03e 2a3e 7d99 c63e
00000180: a780 9bbe 0d80 c1bd e10d 4b3e f575 c3be
00000190: 33d1 b9be 4128 66be 6efb 56be adc6 3dbe
000001a0: bea4 5b3e 63eb b3be 98a8 bcbe 4309 1c3c
000001b0: 325b ee3e 3cb7 213e f10f 3bbe be00 943e
000001c0: 11ac 153e 1bee 863e 1783 7d3e edd7 afbe
000001d0: 6d17 c83b 0525 b4be 67c9 a2be 28dd 9fbd
000001e0: fb7f 253c fb60 d2bd c590 b33d 8a51 7e3d
000001f0: 7bb5 04bf 5133 463d 60fd 79bd dd0d ec3d
00000200: dfbc d1bc 2712 98be ce14 a1bd 3c16 87be
00000210: ec0c 0ebe 58ed 01bd 9fe5 b63d 1a22 813d
00000220: ff86 a9ba 8bdf 7f3e 5312 873d bc9e 3cbd
00000230: 8c7b 833e 42b1 d6bd c0c9 193c 7e74 393d
00000240: 8fea 9dbe 661f 14bf 51c2 47bd 8c0e 4abe
00000250: 2fef 6dbe 2c94 283d 43ee 75be f26b a7be
00000260: d772 dd3e f98f 92bd 33ac e4bd 525a 4fbd
00000270: 6271 a03d 7f8e 063e cabd 26bd 37ca f2bc
00000280: c720 c93b 4f42 8b3e aad1 46bf a910 2ebf
00000290: 9f82 81bc 280f 423e 2134 f23d bc75 773d
000002a0: 006c 02be c407 c5be 9559 a4bd 2f8a 39be
000002b0: 1399 0abf b049 1b3e 839d 46be d808 9fbe
000002c0: 0e5a 9abe e471 97be e692 13be da8b 36be
000002d0: 19c7 1dbf bc88 3bbe dfcc 8ebd 3ed6 6ebd
000002e0: 6ae1 c63d 9612 7fbe 4f6e afbe c0a5 34bd
000002f0: c304 a6be fa72 00bf 25a4 42bf 1480 553d
00000300: 0876 2abd 73e1 a5bd ecff 7dbe 57f1 a53d
00000310: dad6 8ebd b22a c5ba 1654 53be a62e d4be
00000320: 6e2d 8d3d 485d 5b3d 5cd2 30bd 863c ab3e
00000330: 39b8 1bbe e9db a4be b747 0c3d 953e 8ebe
00000340: 4d66 0dbf 63ab c9bd 2082 43be 659d f1be
00000350: 4de0 28bd a2f7 adbe 1738 b8be b143 893d
00000360: a0aa bdbc 27c1 bc3e 380f b43d 5234 3bbe
00000370: 08aa 4dbe 2f3c 673e f3ce b33c 3507 3ebe
00000380: 627d 08be 2611 e23d 3034 8ebc 55e8 d53e
00000390: 2a18 9c3d a13f fd3d 47c8 9c3e c991 b13a
000003a0: f2ab d73d 7000 c13e bbfa 8cbe 184e b6be
000003b0: cf34 37be b7a4 8fbd 4730 f7bd 85bf e83c
000003c0: a11a d8be f80a 34be 3c58 0fbe bc66 733d
000003d0: d550 b73b 12c9 d33e c501 a4be 01be 76be
000003e0: 6294 2d3f 8d0c 8dbe eb3d 51be 7cf8 a13e
000003f0: c8ea abbe dd74 953d 0521 cbbd b82d 86bd
0.40413964 0.10337014 -0.022872988 0.22487631 0.17178297 -0.39881036 0.13426341 -0.32863835
0.1328431 -0.427206 0.02759575 -0.31792685 -0.096080646 0.14794987 0.074970864 -0.19184771
-0.1079356 0.009611368 -0.46705252 -0.6733835 0.0728602 -0.008889469 -0.3109764 -0.45873868
0.13721916 -0.13257763 -0.1520649 -0.4798687 -0.35113174 -0.041170195 -0.037396457 0.11876926
0.36214802 -0.5967388 -0.4305346 -0.04329893 -0.08514993 0.03398927 0.17552799 -0.44126603
-0.3797281 0.23202337 -0.309369 -0.26322952 -0.17944695 -0.61807233 -0.27078193 -0.018102687
-0.29265285 -0.03371453 0.1230926 -0.21491644 -0.23537527 -0.094463706 -0.08019787 -0.3213274
-0.07734189 0.019983549 -0.3989928 -0.2514424 -0.089406416 -0.17924264 -0.008334469 -0.41885358
-0.13273281 -0.3579269 -0.1559787 -0.07654436 -0.11225213 -0.279456 -0.19185047 -0.16458182
0.13483168 0.104369596 0.049961038 0.11347125 -0.15043242 -0.20261888 -0.049741652 -0.57276356
-0.018809468 -0.55434066 -0.116446875 -0.13329117 -0.22686096 -0.020097706 0.025670435 -0.37180927
-0.19176632 -0.18488303 -0.48149717 -0.024603488 0.12315092 -0.106781006 0.166255 0.38788977
-0.3037159 -0.09448252 0.19829513 -0.38175932 -0.3629242 -0.22476293 -0.2099435 -0.1853282
0.21449563 -0.35140523 -0.36847377 0.009523693 0.46553952 0.15792555 -0.182678 0.28906816
0.1461642 0.26353535 0.24757038 -0.34344426 0.006106308 -0.35184494 -0.31794283 -0.07805854
0.010101314 -0.10272404 0.08767847 0.06208948 -0.5183942 0.048388783 -0.061032653 0.11526082
-0.025602756 -0.2970135 -0.07865296 -0.2638415 -0.13872117 -0.03172049 0.089305155 0.063053325
-0.0012933909 0.24987619 0.06595292 -0.04604982 0.25680196 -0.10483028 0.00938648 0.04527711
-0.30843017 -0.5786041 -0.0487693 -0.19732112 -0.23235773 0.041156933 -0.24016671 -0.32699543
0.43251678 -0.07156367 -0.11165657 -0.050623246 0.07834126 0.13140295 -0.04070834 -0.02963744
0.0061379406 0.27199027 -0.7766367 -0.6799417 -0.015809355 0.18951094 0.11826349 0.060415015
-0.12736511 -0.38482487 -0.08024899 -0.18119119 -0.5413982 0.15164828 -0.19396023 -0.31061435
-0.3014683 -0.2957908 -0.14411506 -0.17826787 -0.61631924 -0.18313879 -0.0697267 -0.058309786
0.09710963 -0.24909434 -0.34263846 -0.044103384 -0.32425508 -0.5017544 -0.76031715 0.052124098
-0.04161647 -0.08099642 -0.24804658 0.081026725 -0.069745734 -0.0015042631 -0.20637545 -0.4144184
0.06893431 0.053555757 -0.043169364 0.33444613 -0.15206994 -0.32199028 0.03424808 -0.2778212
-0.55234224 -0.098471425 -0.19092607 -0.47190395 -0.041229535 -0.3397799 -0.35980293 0.06702364
-0.02315265 0.36866114 0.08791965 -0.18281677 -0.20084393 0.22581552 0.021949267 -0.18557437
-0.1332908 0.11038427 -0.01735887 0.41778818 0.076217964 0.12365652 0.3062155 0.0013547476
0.10530843 0.37695646 -0.27535042 -0.35606456 -0.17891239 -0.07013839 -0.12069755 0.028411636
-0.42207816 -0.17582309 -0.13998502 0.059424147 0.0055943527 0.41364342 -0.320326 -0.24095918
0.6780454 -0.27548638 -0.20433776 0.3163489 -0.3357756 0.072976805 -0.09918407 -0.06551689

net.layer2.0.bias f4 [64]
00000000: 4e38 7339 a261 ebbc 2443 f4bc 247b 12bd
00000010: 4814 e33b 0737 cd3b cd73 d63c 1383 3dbb
00000020: 600a 4dbd 0aa4 d2bc 0cff 0a3d 4afd cbbb
00000030: d66e 253d 1a74 38bc 0db8 dcbc bd1b e1bc
00000040: 85f3 1fbd ab9b ea3c 4fca 13bc ddbf e5bc
00000050: e415 253d e498 e738 e548 fd3a 5969 6b3c
00000060: 9860 363d f2cb 063c 96c5 d1bb cadd 8ebc
00000070: 96cd 713b 4da3 c63c 2803 35bb 5841 e5bc
00000080: 07bd 093c 2a63 eeba 49cd 8aba 1819 6b3b
00000090: 5ce8 18bd 3aaa 5d3c 3437 043d 164c f93b
000000a0: 04c6 093d e2a6 83bd 973f 1fbd aad2 b73c
000000b0: 59a0 e4bc 6926 d23c 321a f03c 3d8d 883c
000000c0: 319e 353d c9f7 e4bc e13b 0f3d cc48 a23c
000000d0: 67ec ef3c 2384 cd3c 230a 093d 208e de3c
000000e0: bc1e 1abd 0ec0 f4bc 3caa c23c 20a1 043d
000000f0: decf c33c cd41 c83c 5041 e73c 2317 0cbd
0.00023195261 -0.028733078 -0.029817171 -0.035761967 0.006929908 0.0062626633 0.026178265 -0.0028917238
-0.050058722 -0.025712986 0.033934638 -0.006225263 0.040388905 -0.0112581495 -0.026943231 -0.027479047
-0.039050598 0.028638681 -0.009020402 -0.02804559 0.04030408 0.000110434165 0.0019324092 0.014368379
0.044525713 0.008227335 -0.006401728 -0.017439742 0.003689622 0.02424779 -0.002762029 -0.02798526
0.008406884 -0.0018187512 -0.0010589744 0.0035873111 -0.03733097 0.013529355 0.03227921 0.007607947
0.033636108 -0.06428315 -0.038879003 0.02243932 -0.027908491 0.025653081 0.029309366 0.01666891
0.044340316 -0.027950184 0.034969214 0.019810103 0.02928753 0.025087422 0.033456933 0.02716738
-0.037626967 -0.029876735 0.023762815 0.032380223 0.02390283 0.024445439 0.028229386 -0.034201752

net.layer2.1.weight f4 [64]
00000000: 20de 973f 2ea1 7c3f 1827 693f e2fe 433f
00000010: 6bac 693f 4d6f 643f fda8 0e3f 3878 133f
00000020: befd ab3f fb54 2d3f 75ae 203f 42d6 513f
00000030: a4e8 ba3f 3aa7 4c3f d42d 9a3f 9e1a 063f
00000040: 0fca 663f 97cb 803f ca8d 403f 7136 223f
00000050: b868 5c3f d75f 263f 6bc9 4e3f fb85 603f
00000060: 1b39 a43f ba14 9e3f 1be2 363f d7d5 4a3f
00000070: 67fc 473f a580 863f 9c8e 733f 9e3f 273f
00000080: 5a1f 433f 603b 533f 9147 363f 6f0d 373f
00000090: 8938 5d3f 0cd7 3c3f 634d 8a3f bf06 6f3f
000000a0: 7230 583f 59ee e13f c938 5f3f 5fa8 4b3f
000000b0: 19e8 343f b6be 713f 1e91 4c3f 9b5f 4b3f
000000c0: 6fb9 303f 4753 803f 5150 5b3f 8229 483f
000000d0: bd98 463f b6f3 803f 8811 6d3f e6d8 4c3f
000000e0: 58c4 493f a5b8 883f 7170 343f 268f 913f
000000f0: 2fca 333f 697b 653f 96c5 2e3f 69cb 543f
1.1864662 0.9868344 0.9107528 0.76560795 0.91278714 0.8923233 0.55726606 0.57605314
1.3436811 0.67707795 0.627662 0.81967556 1.4602246 0.7994267 1.2045236 0.52384365
0.90152067 1.0062131 0.7521635 0.6336432 0.8609729 0.6498999 0.8077609 0.8770444
1.2829927 1.2350075 0.7143876 0.79232544 0.7811951 1.0508009 0.9513948 0.6533145
0.76219714 0.82512474 0.7120295 0.71504873 0.8641439 0.73765635 1.0804867 0.9336967
0.8444892 1.7650863 0.8719602 0.7955379 0.7066665 0.94431627 0.7990893 0.7944276
0.6903295 1.0025414 0.8566943 0.78188336 0.7757681 1.0074375 0.92604876 0.8001846
0.7881522 1.0681349 0.7048407 1.137181 0.7023038 0.89641434 0.6827024 0.8312288

net.layer2.1.bias f4 [64]
00000000: 7265 1ebf 8dce 1dbf f1ad f0be 518e 12bf
00000010: 23ec fabe e606 30bf 0863 1cbf dc32 9ebd
00000020: 15b1 74bf 82f2 0cbf 84c6 46bf e083 79bf
00000030: aec8 51bf c71c cebc 18f5 34bf ffec 6ebe
00000040: 1c60 61bf 3742 72be 1d1c 18bd a3e7 2abf
00000050: 3353 63bf 93fa d1be 57c2 c4be 0b1c 87be
00000060: e9f2 58bf c333 6bbf be26 03bf c492 22bf
00000070: 4796 2cbf b344 5fbf 7764 94be 23f6 7cbf
00000080: d16c dcbe ff87 07bf 931d 72bf 9299 90bf
00000090: 2347 1dbf 1d72 84bf 18c3 3dbf 60ee 04bf
000000a0: 7175 19bf eec3 5fbf 279d 09bf c435 88bf
000000b0: a392 eabe 60a0 f9be 3aa3 afbe 2864 7ebe
000000c0: 96a8 ebbe b803 61be 7dff 27bf a0e1 63bf
000000d0: 0d20 3ebe d218 08bf bfe4 60bf 9b1f 7ebf
000000e0: 53e2 77be ca34 2cbf 54ed 85bf 3e61 adbe
000000f0: 45bf b3be 5933 0fbf c3a9 9bbe 6496 06bf
-0.61873543 -0.61643296 -0.47007707 -0.5724841 -0.49008283 -0.68760526 -0.6108861 -0.077245444
-0.95582706 -0.5505754 -0.7764666 -0.9746685 -0.8194684 -0.025160206 -0.70686483 -0.23332594
-0.88037276 -0.23658071 -0.037136186 -0.667597 -0.88798827 -0.41011485 -0.3842952 -0.26388583
-0.8474565 -0.9187586 -0.5123099 -0.63505197 -0.67416805 -0.872142 -0.289829 -0.98813075
-0.4305177 -0.5294189 -0.94576377 -1.1296866 -0.6143667 -1.0347325 -0.74125814 -0.5192623
-0.59944826 -0.8740834 -0.5375542 -1.0641408 -0.45815 -0.4875517 -0.3430422 -0.24842894
-0.46027058 -0.21974075 -0.6562422 -0.8901615 -0.18566914 -0.5316287 -0.8784904 -0.99266976
-0.2420743 -0.6726805 -1.0463052 -0.33863252 -0.35106865 -0.55937725 -0.30402955 -0.5257323

net.layer2.1.running_mean f4 [64]
00000000: 0000 0000 0000 0000 0000 0000 0000 0000
00000010: 0000 0000 0000 0000 0000 0000 0000 0000
00000020: 0000 0000 0000 0000 0000 0000 0000 0000
00000030: 0000 0000 0000 0000 0000 0000 0000 0000
00000040: 0000 0000 0000 0000 0000 0000 0000 0000
00000050: 0000 0000 0000 0000 0000 0000 0000 0000
00000060: 0000 0000 0000 0000 0000 0000 0000 0000
00000070: 0000 0000 0000 0000 0000 0000 0000 0000
00000080: 0000 0000 0000 0000 0000 0000 0000 0000
00000090: 0000 0000 0000 0000 0000 0000 0000 0000
000000a0: 0000 0000 0000 0000 0000 0000 0000 0000
000000b0: 0000 0000 0000 0000 0000 0000 0000 0000
000000c0: 0000 0000 0000 0000 0000 0000 0000 0000
000000d0: 0000 0000 0000 0000 0000 0000 0000 0000
000000e0: 0000 0000 0000 0000 0000 0000 0000 0000
000000f0: 0000 0000 0000 0000 0000 0000 0000 0000
0.0 0.0 0.0 0.0 0.0 0.0 0.0 0.0
0.0 0.0 0.0 0.0 0.0 0.0 0.0 0.0
0.0 0.0 0.0 0.0 0.0 0.0 0.0 0.0
0.0 0.0 0.0 0.0 0.0 0.0 0.0 0.0
0.0 0.0 0.0 0.0 0.0 0.0 0.0 0.0
0.0 0.0 0.0 0.0 0.0 0.0 0.0 0.0
0.0 0.0 0.0 0.0 0.0 0.0 0.0 0.0
0.0 0.0 0.0 0.0 0.0 0.0 0.0 0.0

net.layer2.1.running_var f4 [64]
00000000: 0000 803f 0000 803f 0000 803f 0000 803f
00000010: 0000 803f 0000 803f 0000 803f 0000 803f
00000020: 0000 803f 0000 803f 0000 803f 0000 803f
00000030: 0000 803f 0000 803f 0000 803f 0000 803f
00000040: 0000 803f 0000 803f 0000 803f 0000 803f
00000050: 0000 803f 0000 803f 0000 803f 0000 803f
00000060: 0000 803f 0000 803f 0000 803f 0000 803f
00000070: 0000 803f 0000 803f 0000 803f 0000 803f
00000080: 0000 803f 0000 803f 0000 803f 0000 803f
00000090: 0000 803f 0000 803f 0000 803f 0000 803f
000000a0: 0000 803f 0000 803f 0000 803f 0000 803f
000000b0: 0000 803f 0000 803f 0000 803f 0000 803f
000000c0: 0000 803f 0000 803f 0000 803f 0000 803f
000000d0: 0000 803f 0000 803f 0000 803f 0000 803f
000000e0: 0000 803f 0000 803f 0000 803f 0000 803f
000000f0: 0000 803f 0000 803f 0000 803f 0000 803f
1.0 1.0 1.0 1.0 1.0 1.0 1.0 1.0
1.0 1.0 1.0 1.0 1.0 1.0 1.0 1.0
1.0 1.0 1.0 1.0 1.0 1.0 1.0 1.0
1.0 1.0 1.0 1.0 1.0 1.0 1.0 1.0
1.0 1.0 1.0 1.0 1.0 1.0 1.0 1.0
1.0 1.0 1.0 1.0 1.0 1.0 1.0 1.0
1.0 1.0 1.0 1.0 1.0 1.0 1.0 1.0
1.0 1.0 1.0 1.0 1.0 1.0 1.0 1.0

net.layer3.0.weight f4 [64, 64, 3, 3]
00000000: b103 943d b920 b43e 75c2 b83c c411 803e
00000010: f1dd b73e 488f 323e e3f3 bdbd 25a1 fc3d
00000020: 036d b3bd 78ab c73b aa4f 87ba bab0 0d3e
00000030: 77a3 1b3e dce2 4f3e f641 ef3d 9186 aa3d
00000040: fa9e 9b3d fc22 a1bd b644 2d3d ed18 bcbc
00000050: 4290 ddbd b7dd 3bbb 5673 38bd 2d7f 77bd
00000060: afc9 833d f6da 043d b55a 70bd a620 cb3d
00000070: d5a9 99bd 07a7 2d3d 2ac1 b43c 2113 e8bc
00000080: 6eda 8fbd d24e f0bb 22a9 b4bd e25f 2ebe
00000090: c65e df3d 5bd9 4a3e be96 563d 2861 d1bd
000000a0: eed3 063e a298 6abc 0e2e 223d aee8 433c
000000b0: e544 40be c126 eabc 5789 cd3c 563b 133d
000000c0: 6a19 d7bd bdc1 1e39 0c9a 193c 036d a5bd
000000d0: ee29 86bd f7b5 cbba e2ee 9cbd 0515 663d
000000e0: acd6 f6bd a106 c4bc 41d9 20be 3484 cabc
000000f0: ab2c af3d 8746 b33b ce77 d3bd b0b6 69bd
00000100: 5e76 39bd 8461 63bd 7370 efbd 157e eb3c
00000110: bbc2 bbbd 8e5b 4f3d 27dd 66bd db56 6dbe
00000120: a2fe db3d 0470 fa3e abbf ae3b 1c0c 8e3e
00000130: 6f46 fa3e c91f 613e 2cf2 94bc 72fe 6b3e
00000140: ed32 1fbe 6bf0 30bd 5d70 ccbc 6d20 dbbc
00000150: 0849 963c 7326 f73c 52b0 19bd 78f5 d2bd
00000160: 7323 34be 6ba2 0ebe 1abd 57bc 382a 49be
00000170: 1331 dfbd 44a1 27be b6c3 2abd b4d2 1e3d
00000180: 7f65 893d 7e41 3c3d a44e 5fbc 3b86 9bbb
00000190: 9af0 66bd 5d0f e6bc 10b5 69bd e597 ddbd
000001a0: 2b6c 913d 382a 4e3d 8216 fcbc ca14 86bd
000001b0: 6d36 c23d 6d59 aa3e ef23 7b3d 4faf a53e
000001c0: e62c c43e 4ff9 743e e2be 2f3d b710 373e
000001d0: 2171 eeb9 2a5f 973d ccf6 aabd 7e4d 0cbe
000001e0: 7a34 0b3e 2baf 883d f71d 82be 4073 373d
000001f0: 95cf fcbd a46e 87be 2e1f 7ebb 1f80 9b3d
00000200: 417b b5bd 290c 3a3e b55e b43e 345c afbc
00000210: 4fbd 373d 3dbb 323e de70 7dbe fe6c c8bc
00000220: 9c5a 81bd dfab 24bd 5fb5 7fbd 055d 19be
00000230: fe03 a2bd d6c1 14bd 4588 febd 9e63 37bd
00000240: 40d4 ecbd caca db3d c32b df3d 2ae3 f33d
00000250: f4d8 d7bd f3e8 4cbd e56e bfbd eb64 14be
00000260: b069 b2bd 4fcb ac3d 004c 1b3e 02e3 4ebe
00000270: 11d1 503d 0f17 743e e92c 06be 4518 f2ba
00000280: 062f 26bd ef43 45be 2642 b33d 20ee 78bd
00000290: 21e7 2cbe d554 823e 6911 bbbc c98b 8cbe
000002a0: e786 433d 2a45 04be 6f4a 77be 9ab2 393d
000002b0: a211 753a c816 e5bd ac44 dcbc 3176 c53c
000002c0: ff61 be3d 3c33 d1bd 0b6a 23be c0b8 9f3c
000002d0: 8e15 edbc b05e 82bd 54a4 09be 4a14 e1bd
000002e0: 7ee1 053d 72a3 8fbc 5806 11be 7075 8d3c
000002f0: 6dff 9bbc 45cf 6ebc 1833 06be 1f2e 55be
00000300: 672b 8c3b 7d71 8c3d cf02 1c3d 1775 edbc
00000310: eb8f 8b3d f653 313d 685a 823d ea1c 32bd
00000320: 5253 75bd 0835 863d c616 b7bd cf1d c8bd
00000330: b937 693c 0248 d7bd 53ab 01be 1395 63bd
00000340: 437a 2cbd 444f 6ebe 5cd6 8b3d 191a 27bd
00000350: c52f d3bc 09e2 bebc 2628 e7bd 9cc2 83be
00000360: 0c11 573c e736 703e 3a45 38bc acd8 3a3e
00000370: de47 9b3e 99bb 0b3d 13ca 3e3e 9b5c 913e
00000380: e972 4cb9 91d1 ac3d c95c 1e3d c4df 9d3c
00000390: c369 4c3d 9607 853d b17d 8b3d b428 a9bd
000003a0: ac34 2e3d ff66 fd3a 2048 ea3c a03f 12be
000003b0: 8198 c83c 29b2 85bd fe94 b4bd ee98 10bd
000003c0: 2940 cfbd a99d c3bc c042 c13c 1490 c5bd
000003d0: 984e 57bd a615 9fbd a9dc 30bd 72ed 21be
000003e0: 84f6 8bbd c8e2 62bc c86d 23bd bbde babc
000003f0: 26d7 59bd 9cfc c2bc aca1 d23c 29fa dabb
0.072272666 0.35181215 0.022553662 0.25013554 0.35911515 0.1743747 -0.09275033 0.123354234
-0.08761027 0.0060934387 -0.0010323424 0.13836947 0.15199076 0.20301384 0.11682503 0.08326448
0.07598682 -0.07868001 0.042301856 -0.022961104 -0.108185306 -0.0028666088 -0.045031868 -0.06042402
0.064349525 0.03243538 -0.058680255 0.099183366 -0.07503096 0.042395618 0.022064764 -0.028329434
-0.07024084 -0.007333615 -0.08821322 -0.17028764 0.109067485 0.19809477 0.052389853 -0.10223609
0.13166782 -0.014318617 0.039594702 0.011957331 -0.18776281 -0.028582932 0.025089903 0.03594526
-0.10502894 0.00015140227 0.009375107 -0.08077433 -0.06550966 -0.0015541901 -0.07662751 0.05617239
-0.12052664 -0.023928942 -0.15707876 -0.024721242 0.085534416 0.005471054 -0.10325585 -0.05705899
-0.0452789 -0.05551292 -0.1169137 0.028746644 -0.09168001 0.050624423 -0.05636325 -0.23177664
0.10741927 0.48913586 0.005332907 0.27743614 0.48881862 0.21984781 -0.018181883 0.23046282
-0.1554677 -0.04319803 -0.024955923 -0.02674886 0.01834537 0.030169701 -0.037521668 -0.10300726
-0.17591648 -0.13929145 -0.013167644 -0.19645011 -0.10898032 -0.16370112 -0.04169055 0.03877516
0.06708812 0.045960896 -0.013629589 -0.004746226 -0.0563818 -0.028083498 -0.05705744 -0.10819987
0.071007095 0.05033323 -0.030772451 -0.06546934 0.09483037 0.3327135 0.061313566 0.32360312
0.38315505 0.23923229 0.04290665 0.1787747 -0.00045479185 0.07391198 -0.08347854 -0.13701436
0.13594237 0.06674036 -0.25413486 0.044787645 -0.12344281 -0.264516 -0.0038775909 0.075927965
-0.088613994 0.18168701 0.35228506 -0.02140627 0.044858273 0.17454238 -0.24750087 -0.024466034
-0.063161105 -0.04020297 -0.06242883 -0.1497689 -0.07910918 -0.03631767 -0.12428335 -0.044772737
-0.11563921 0.10732038 0.10897019 0.119085625 -0.105394274 -0.050026845 -0.09347323 -0.14491622
-0.087115645 0.084372155 0.1516571 -0.20203784 0.05098063 0.23836921 -0.1310307 -0.0018470368
-0.04057219 -0.19264196 0.08752851 -0.06077397 -0.16885044 0.25455347 -0.02283545 -0.27450398
0.047736075 -0.12917009 -0.24149488 0.045336343 0.0009348636 -0.11185986 -0.026888214 0.02410421
0.09296035 -0.1021485 -0.15958421 0.019497275 -0.028940942 -0.063657165 -0.13441592 -0.10990198
0.03268575 -0.017533991 -0.14162576 0.017267913 -0.019042695 -0.014575784 -0.13105428 -0.20818375
0.004277635 0.06857584 0.038088616 -0.028986497 0.068145595 0.043292962 0.063649 -0.043484606
-0.059893914 0.06553084 -0.089398906 -0.097713105 0.014234477 -0.10511781 -0.12663011 -0.05556209
-0.042108785 -0.23272425 0.06827995 -0.040796373 -0.025779614 -0.023301141 -0.112869546 -0.25734413
0.013126623 0.23458444 -0.011246974 0.18246716 0.30328268 0.034114454 0.18631773 0.28390965
-0.00019497763 0.08438409 0.038662706 0.019271739 0.04990555 0.064955875 0.06811083 -0.08259717
0.0425307 0.0019333063 0.028598845 -0.14282084 0.024486782 -0.06528122 -0.088174805 -0.035302095
-0.101196595 -0.02387889 0.0235914 -0.09646621 -0.052565187 -0.07767801 -0.043179188 -0.15813234
-0.068341285 -0.013848014 -0.039899617 -0.022811284 -0.053183697 -0.023802094 0.025711857 -0.0066826534

net.layer3.0.bias f4 [64]
00000000: 283a cdbc ddb2 1e3d 88ce 023d f0fe 113d
00000010: 8d67 253d dec9 ab3b 1bb2 f2bb 4073 bb3c
00000020: 1999 dcbc c4b8 d23b 89e6 0d3d b0df 153d
00000030: 5bea 883a 01ef 623a 09ec aebc 3c95 b03c
00000040: fd8e c33c 6d85 e83c d90b 293c 2498 1fbd
00000050: c8c0 42bb ea8b d43c 6b63 d53b 3b6f 973c
00000060: 169b d93c d995 7abc 439f 1d3d 9082 813c
00000070: 0ed3 093d d3f2 b53d c579 00bd fca8 d3bc
00000080: 5a1a d3bc 798c e7bb 5146 7c3c 3b50 e03c
00000090: 75f5 4cbc 1cff 81bc 3586 26bd 8a56 953c
000000a0: 0e9c 6a3c cc6a f9bb 5756 003b cee2 683c
000000b0: c69f 69bb 9244 0c3c 6ec7 a6bc 6de9 943c
000000c0: ddf9 f73c 325c cbbc c7eb 12bd 9f3f 123d
000000d0: 130e f83a ff73 c3bc 79ac 5fbc 67f4 a53c
000000e0: 5a71 1c3d 56d3 d13c 6a9d 9ebc df4c 88bc
000000f0: 263f 263d 2bd6 efbc b7f7 d13c 433e 3b3c
-0.025052145 0.038744796 0.031935245 0.035643518 0.040381957 0.0052425703 -0.0074064857 0.022882104
-0.026928471 0.006430717 0.034643684 0.03659028 0.001044582 0.000865683 -0.021352785 0.021555535
0.023871893 0.028383935 0.010317766 -0.038963452 -0.0029716957 0.025945622 0.0065120957 0.018485656
0.026563209 -0.0152945155 0.038481962 0.015809327 0.033648543 0.08884206 -0.03136613 -0.025837414
-0.025769401 -0.007066306 0.015397624 0.027382007 -0.012509693 -0.015868716 -0.040655334 0.018229742
0.014319433 -0.007611608 0.0019582713 0.014214231 -0.003564821 0.00856127 -0.020358767 0.018177712
0.030270511 -0.024824236 -0.035869386 0.035705205 0.0018925093 -0.023859022 -0.0136519605 0.020258142
0.038194038 0.025613468 -0.01936217 -0.016638217 0.040587567 -0.029276928 0.025630815 0.011428419

net.layer3.1.weight f4 [64]
00000000: f405 0f3f 817a e93e 4918 dd3e 38e3 cf3e
00000010: aff6 df3e 7107 973f 8126 c93e 60e7 063f
00000020: a05a fd3e bb7a 2d3f 97df a43f 53d7 423f
00000030: 4bbe f43e 81d3 143f a52b 9f3e 0a94 0d3f
00000040: 976c 053f 309f 1e3f 3747 103f 532d e13e
00000050: 5fd4 f33e ca04 bf3e 2dc5 0a3f 967b 7a3f
00000060: 0fa4 7a3f a073 a73f 13ea d73e a060 f73e
00000070: 3b4e 363f ac55 933f 3eee 173f 71a9 a33f
00000080: ccb0 ee3e 90a6 273f 34da 963f 3c7d 043f
00000090: cf8a 1f3f 583c c23e 1823 b73e c20c ec3e
000000a0: 0404 743f 4555 933f afbd 2a3f 11f9 113f
000000b0: 4b4d 953f f708 a43f bc3c f63e ebeb 063f
000000c0: 5e00 8f3f 3cf9 b53f 6213 d33e 5432 d03e
000000d0: 2ed1 183f 9dca f43e b9cf f03e 18d1 e33e
000000e0: f9a2 123f 4793 a03f 70b5 533f 7241 e13e
000000f0: 5b77 1a3f 4dd5 903f e786 063f 69dd 923f
0.5586846 0.45601276 0.4318259 0.40603042 0.43742892 1.1799146 0.3928719 0.526968
0.49483204 0.67765397 1.2880734 0.7610981 0.47801432 0.5813523 0.31087986 0.55304015
0.5211882 0.6196165 0.56358665 0.43979892 0.47622964 0.3730834 0.54207116 0.9784483
0.97906584 1.3082161 0.42170772 0.48315907 0.7121312 1.151052 0.59347904 1.2786084
0.4661926 0.6548853 1.178534 0.5175359 0.6232118 0.37936664 0.35768962 0.46103483
0.9531863 1.1510397 0.66695684 0.5702067 1.1664213 1.2815236 0.48093212 0.5270373
1.1171987 1.4216685 0.41225725 0.40663397 0.5969418 0.47810832 0.4703348 0.44495463
0.57279927 1.2544945 0.82698727 0.43995243 0.6033837 1.1315094 0.52549595 1.1473819

net.layer3.1.bias f4 [64]
00000000: abb2 26bf 7a7a 27bf d5e0 febe 7014 3fbf
00000010: 7dc7 0abf 9dbd b6bd e4e6 07bf 47db 28bf
00000020: f4a9 08bf a36a 1dbf a945 113c 0c21 45bf
00000030: 3112 0abf a379 0cbf ee18 15bf 7c5b efbe
00000040: c9ae 1ebf de2f 45bf 5432 50bf 3bb1 0cbf
00000050: ca51 dbbe 94a2 07bf b04f 23bf fc53 22bf
00000060: f27a 183e 5945 c8be cef6 e8be 7ba8 efbe
00000070: d838 1cbf 571d 14bf 9ec2 32bf cb35 8d3d
00000080: 991c 0fbf 2fd4 30bf cf98 bc3d 264b 1fbf
00000090: c0b9 29bf f360 03bf 3457 0dbf 1863 40bf
000000a0: f82a 36bb 2650 f53d e7f6 16bf 73fd 33bf
000000b0: 77ba 8fbe 7c30 a0bd 52f4 f3be 3dee 17bf
000000c0: c35b 0abe a521 34bd 5fa7 05bf 7acc 1ebf
000000d0: 2a5d 05bf a586 f7be bfe8 27bf 187b 01bf
000000e0: c716 26bf 7476 303e a8a7 8dbe 234a 04bf
000000f0: 6e98 24bf 1469 fa3e 60fb e1be 9e1c e9be
-0.65116376 -0.6542126 -0.49780908 -0.7464056 -0.54210645 -0.089228846 -0.53086686 -0.6595959
-0.5338433 -0.6149084 0.008866706 -0.7700355 -0.5393401 -0.548731 -0.58241165 -0.46749485
-0.6198545 -0.77026165 -0.81326795 -0.5495793 -0.42835838 -0.5298245 -0.6379347 -0.634094
0.1489065 -0.39115408 -0.45500797 -0.46808228 -0.61024237 -0.5785727 -0.6982821 0.06895026
-0.5590301 -0.69073766 0.092088334 -0.6222404 -0.66299057 -0.5131981 -0.55211186 -0.75151205
-0.0027796607 0.11978178 -0.58970493 -0.7030861 -0.2807195 -0.07821748 -0.4764734 -0.593479
-0.13511567 -0.0439774 -0.52208513 -0.62030756 -0.5209528 -0.48344913 -0.6558952 -0.5057845
-0.64878505 0.17232686 -0.27666974 -0.51675624 -0.6429509 0.48908293 -0.44137096 -0.45529646

net.layer3.1.running_mean f4 [64]
00000000: 0000 0000 0000 0000 0000 0000 0000 0000
00000010: 0000 0000 0000 0000 0000 0000 0000 0000
00000020: 0000 0000 0000 0000 0000 0000 0000 0000
00000030: 0000 0000 0000 0000 0000 0000 0000 0000
00000040: 0000 0000 0000 0000 0000 0000 0000 0000
00000050: 0000 0000 0000 0000 0000 0000 0000 0000
00000060: 0000 0000 0000 0000 0000 0000 0000 0000
00000070: 0000 0000 0000 0000 0000 0000 0000 0000
00000080: 0000 0000 0000 0000 0000 0000 0000 0000
00000090: 0000 0000 0000 0000 0000 0000 0000 0000
000000a0: 0000 0000 0000 0000 0000 0000 0000 0000
000000b0: 0000 0000 0000 0000 0000 0000 0000 0000
000000c0: 0000 0000 0000 0000 0000 0000 0000 0000
000000d0: 0000 0000 0000 0000 0000 0000 0000 0000
000000e0: 0000 0000 0000 0000 0000 0000 0000 0000
000000f0: 0000 0000 0000 0000 0000 0000 0000 0000
0.0 0.0 0.0 0.0 0.0 0.0 0.0 0.0
0.0 0.0 0.0 0.0 0.0 0.0 0.0 0.0
0.0 0.0 0.0 0.0 0.0 0.0 0.0 0.0
0.0 0.0 0.0 0.0 0.0 0.0 0.0 0.0
0.0 0.0 0.0 0.0 0.0 0.0 0.0 0.0
0.0 0.0 0.0 0.0 0.0 0.0 0.0 0.0
0.0 0.0 0.0 0.0 0.0 0.0 0.0 0.0
0.0 0.0 0.0 0.0 0.0 0.0 0.0 0.0

net.layer3.1.running_var f4 [64]
00000000: 0000 803f 0000 803f 0000 803f 0000 803f
00000010: 0000 803f 0000 803f 0000 803f 0000 803f
00000020: 0000 803f 0000 803f 0000 803f 0000 803f
00000030: 0000 803f 0000 803f 0000 803f 0000 803f
00000040: 0000 803f 0000 803f 0000 803f 0000 803f
00000050: 0000 803f 0000 803f 0000 803f 0000 803f
00000060: 0000 803f 0000 803f 0000 803f 0000 803f
00000070: 0000 803f 0000 803f 0000 803f 0000 803f
00000080: 0000 803f 0000 803f 0000 803f 0000 803f
00000090: 0000 803f 0000 803f 0000 803f 0000 803f
000000a0: 0000 803f 0000 803f 0000 803f 0000 803f
000000b0: 0000 803f 0000 803f 0000 803f 0000 803f
000000c0: 0000 803f 0000 803f 0000 803f 0000 803f
000000d0: 0000 803f 0000 803f 0000 803f 0000 803f
000000e0: 0000 803f 0000 803f 0000 803f 0000 803f
000000f0: 0000 803f 0000 803f 0000 803f 0000 803f
1.0 1.0 1.0 1.0 1.0 1.0 1.0 1.0
1.0 1.0 1.0 1.0 1.0 1.0 1.0 1.0
1.0 1.0 1.0 1.0 1.0 1.0 1.0 1.0
1.0 1.0 1.0 1.0 1.0 1.0 1.0 1.0
1.0 1.0 1.0 1.0 1.0 1.0 1.0 1.0
1.0 1.0 1.0 1.0 1.0 1.0 1.0 1.0
1.0 1.0 1.0 1.0 1.0 1.0 1.0 1.0
1.0 1.0 1.0 1.0 1.0 1.0 1.0 1.0

net.layer4.0.weight f4 [64, 64, 3, 3]
00000000: ff5d 85bc fc34 0c3d 0367 67bc ce02 75bd
00000010: 1710 243d 5ea5 edbc c8d1 c3bd 2f43 91bd
00000020: c9e6 88bd a119 0ebd 8d24 dabd 3f31 2fbd
00000030: 4031 c6bd 42b1 2a3c e1e0 da3c 4633 b2bc
00000040: 4394 883c c72b 4f3c 463e 503d 0f35 e33d
00000050: 4858 f73d f5ec 96bd 66c4 2fbd bd50 13bd
00000060: 5487 0c3c 6b04 b8bd 7df0 bcbd 17ab a8bc
00000070: 91ba 7f3d aa2f 95bd d2dc 923c b099 da3d
00000080: ef1b cfbd ceb2 ac39 9a8e 6f3d 3cfb 6bbd
00000090: d42e 0abc a4bd 0abc abea 02ba 2430 dabd
000000a0: 6882 ccbc f6f0 9abd 8914 aa3c b2ae 94bc
000000b0: 2326 303c dc46 ef3b 5bd6 d83d 5007 75be
000000c0: a660 77bd ed5c 023e 2223 c1be 68ee 69be
000000d0: 8dbe 3bbe 2a5a a3be 85a4 47bc d0db 07bd
000000e0: eecf afbc 72f2 80bd 2c05 bb3c 3f60 d3bc
000000f0: 496f 28bc 61d9 62be 5ded c4bd b725 8cbd
00000100: 7a11 1e3b e56b 64bc a4da 103d 2849 17bc
00000110: 0255 91bd 8c5d 293c e510 dd3c f80c 8cbd
00000120: e52c 963c 7460 b8bb dc0b afbd b812 93bd
00000130: 648c 77bd bbcd bdbc 0818 c43c 3276 2cbc
00000140: be56 843c ebc2 76bd 2dc2 883d 4a6b 163c
00000150: 4808 f6bc a4ae 9b3c 3ebb 573c d6c1 c73c
00000160: b419 fa3c 5ff6 b0bc 52a3 e4bd b831 e6bc
00000170: 082c e2bd 278d 24bc 68e9 85bd 9881 1ebe
00000180: b551 d9be d5ff bdbe acec 9bbe c882 8f3c
00000190: d363 8a3e 5d18 b43d 51f2 0fbc b378 333d
000001a0: 99e0 503c 6608 413e 6a10 5dbd 17b3 433d
000001b0: feb2 9cbd 7b82 9b3c 1578 883d d2b9 19bd
000001c0: cc91 94bd 84d5 a63c 5e1e b2bd 4f0a 3a3d
000001d0: a1c7 923d 8804 82bd 6b67 963d 1fe8 cfbc
000001e0: f10f d03c 3928 773d e822 403d 9085 46bc
000001f0: 9ed2 9dbd 8ca9 20be 192c 0a3c d485 45bd
00000200: dffa 5d3d fa72 f93c b993 6f3d b429 13bd
00000210: 2553 40bd 93a6 513d 4d6f 29bd 6957 14be
00000220: a6f5 a5bc e5ba 05be b608 b8bd a25a 4a3b
00000230: 86a4 04be 115b d5bd 629c bf3d d856 e73d
00000240: 163c 0bbd 8afc ef3b eedc 8f3d 84cc 9fbc
00000250: cdef d5bc c7c5 76bb 0c5c 2dbd 8ee8 b2bd
00000260: f21c abbd 6930 c3bd c911 fb3d 18ac 25bd
00000270: 48d6 8e3b 818c 023e 9c80 a93d 0ba8 223d
00000280: f1bf ca3d 25c5 263e b99d babc 034a f33d
00000290: be78 0b3c c759 18bd 36ef 643d 9c35 353d
000002a0: db77 babc f992 203d 42ea 693d ab25 0dbd
000002b0: 4407 95bd 9978 003d 0976 e13c 73fe 17be
000002c0: 34ac b1bc 61bd b3bd bd1f a6bd bde2 8dbc
000002d0: 8554 acbd f732 5f3d 7207 56bc 82d1 72bb
000002e0: 308a 873b c5ee 2cbd f2be 88bd d010 0b3d
000002f0: 1a08 483d 1375 873c cfb6 823c 179b 3f3c
00000300: 4a7d a8bc b9f7 99bd 5d4f 9dbd beb2 d1bb
00000310: c066 d8bc 636b 963c c4e4 ae3d bd22 ea3d
00000320: aaa4 a23d 493a 4a3d 4abe ea3c 6514 883d
00000330: 985e bb3d e0c0 d7bc 1ce5 8abd d5e4 a9bd
00000340: 839a 38be 28c1 f4bd a7e2 0dbe 629b 8dbe
00000350: b773 58be cfde 9bba 6760 f9bc ab15 42bd
00000360: 0b29 203d 0a28 d13b 7d96 903c 440e 8b3e
00000370: 618c 6c3d 32ae bdbd 842c a43e 825c 18bc
00000380: 038d d53c f4ca af3e 3942 d53e 66f1 153d
00000390: 5a1e 6d3e f0d9 3d3e 8884 43be 36ab 5ebe
000003a0: bae7 44be bf13 a1be 5ab0 9d3d 6d71 b63d
000003b0: bd7f 743d d033 1a3d 63de b33d 2cfa 5abc
000003c0: db45 883d ca1b fabc c5f8 bebd e364 cebb
000003d0: 8315 26bd 6714 a63c b7a9 b6bb 9884 c8bd
000003e0: b4ce f9bc a564 113d 4c5b abbd 5a4b d0bd
000003f0: 2fc8 c1bc e15f a13d 6518 d03c 144d 983c
-0.016280172 0.034230217 -0.014123681 -0.059817128 0.040054407 -0.029009517 -0.09561497 -0.070928924
-0.06684644 -0.03469241 -0.10651503 -0.042771574 -0.096773624 0.010418238 0.026718559 -0.021752965
0.01667226 0.012644715 0.05084064 0.110941045 0.12077385 -0.07369415 -0.04291191 -0.03596567
0.008577187 -0.08985218 -0.09225557 -0.020589394 0.062433783 -0.07284482 0.017927561 0.10673845
-0.1011275 0.00032939616 0.058485605 -0.057612643 -0.008434016 -0.008468065 -0.00049940747 -0.10653713
-0.024964526 -0.07565491 0.020761745 -0.018149707 0.01075128 0.0073021483 0.1058776 -0.23928571
-0.060394906 0.12730761 -0.37722117 -0.22844851 -0.18334408 -0.31904727 -0.012185221 -0.033168614
-0.021461453 -0.06296243 0.022829615 -0.02580273 -0.010280439 -0.22153236 -0.09615586 -0.06843131
0.0024119304 -0.01394174 0.035364762 -0.00923375 -0.07096292 0.010337245 0.026985595 -0.06838411
0.018331954 -0.0056267325 -0.08547184 -0.07181305 -0.06043662 -0.023169389 0.02393724 -0.010526227
0.016154643 -0.060244482 0.06677661 0.009180853 -0.030033246 0.019004174 0.013167201 0.02438442
0.030529834 -0.021601854 -0.111639634 -0.02809988 -0.110435545 -0.010043419 -0.06538659 -0.15479124
-0.4244515 -0.37109247 -0.30454004 0.017518416 0.27029285 0.087937094 -0.0087858 0.04381628
0.012748861 0.1885086 -0.05397073 0.047778215 -0.076513276 0.018983116 0.06663529 -0.037530728
-0.07254371 0.020365484 -0.08697198 0.045419987 0.071669824 -0.063485205 0.07343944 -0.025379239
0.025398226 0.060341094 0.04690829 -0.012116805 -0.07706188 -0.15689677 0.008433365 -0.04822333
0.054194327 0.030450333 0.05849049 -0.035928443 -0.046954293 0.05118425 -0.04136591 -0.1448647
-0.020258736 -0.13059576 -0.089860365 0.0030876775 -0.12953386 -0.1041776 0.093559995 0.11295861
-0.03399285 0.007323806 0.07024561 -0.0195067 -0.026115322 -0.0037654506 -0.04232411 -0.087357625
-0.0835513 -0.09530718 0.122592516 -0.040447325 0.0043590404 0.1274891 0.082764834 0.03971104
0.09899891 0.16286142 -0.022780286 0.11879351 0.008512674 -0.037194993 0.05589219 0.04424058
-0.02276223 0.039202664 0.05710817 -0.03445975 -0.072767764 0.03136501 0.027522104 -0.14843158
-0.021688558 -0.087763555 -0.08111522 -0.017320031 -0.08414558 0.054491963 -0.013063299 -0.0037051146
0.0041363463 -0.042219896 -0.06677045 0.03395158 0.04883585 0.016535318 0.01595631 0.011694691
-0.020567555 -0.075179525 -0.07681153 -0.0063994816 -0.026416183 0.018361753 0.08539727 0.11432407
0.079415634 0.04937199 0.02865519 0.06644515 0.09148902 -0.026337087 -0.067819804 -0.08295599
-0.18027692 -0.11950904 -0.13855992 -0.2765761 -0.21137892 -0.0011891964 -0.030441476 -0.047383945
0.03910164 0.006382947 0.017649883 0.2715932 0.057751063 -0.09261741 0.32065213 -0.009299399
0.026068216 0.34334528 0.41652086 0.03660717 0.2315611 0.18540168 -0.19093525 -0.21745
-0.19229022 -0.31460378 0.07699652 0.08908353 0.059692133 0.03764707 0.08782651 -0.01336531
0.06653949 -0.030530829 -0.09324793 -0.0062986477 -0.04054786 0.0202734 -0.005574431 -0.09790915
-0.030494072 0.035496373 -0.08367023 -0.10170622 -0.023655025 0.078796156 0.025402257 0.018591441

net.layer4.0.bias f4 [64]
00000000: b58c 78bc c883 e3bc 5874 2bbd f5ec abbc
00000010: 2999 4b3a 100b 13bb a1c4 d3bc 2589 d1bc
00000020: 2644 573c 5057 e639 a37a ea3c c37a 0abd
00000030: c79a 35bc c376 17bd 1c06 07bd 3072 14bd
00000040: 69b6 3ebc f29e 8abc 7e55 cd3c 0a49 273d
00000050: 9d62 72bc 8281 b13c 9a4d 8cbc 1bf9 873d
00000060: 105e 013b c7d3 b23c dad8 61bc 3c18 cebc
00000070: 6aee e53c d6db 8b3d c76c 8f3b ab64 033c
00000080: eaf1 da3c 824e c5bc 9929 333d 4d12 bd3c
00000090: 8e1d bd3d 0986 d13b 2bbb 8f3c dfb5 973c
000000a0: 22d7 87bc f4cd 72bc 633b d83c 0bf9 8dbc
000000b0: 96e3 8f3b 0e5b 90bc a3cb 3cbc 69ab b13c
000000c0: 5c1e 183d 5675 13bd d2be d6ba 94cd adbc
000000d0: 5295 223d 83e9 c63c a9e7 c3bc 4f9f 3f3c
000000e0: ec0d e7bc d4b3 333c 7f23 bfbc e16b 24bd
000000f0: 9484 f4bc 9aef 523c 7f3f a3bc 3eda 82bc
-0.015170266 -0.0277728 -0.041859 -0.020987013 0.0007766658 -0.0022437014 -0.025850596 -0.02557809
0.013138806 0.0004393407 0.02862293 -0.03380848 -0.011084265 -0.036978494 -0.03296481 -0.03624171
-0.01164017 -0.016921494 0.02506518 0.04084114 -0.014794019 0.0216682 -0.017126847 0.0663931
0.0019739904 0.021829499 -0.013784612 -0.02515804 0.028067786 0.0682904 0.004376981 0.008019607
0.026726682 -0.024085287 0.043740842 0.023080016 0.09234153 0.006394152 0.017545303 0.01851934
-0.016582076 -0.014819611 0.026395505 -0.017330667 0.004391144 -0.017621543 -0.01152316 0.02168818
0.037138328 -0.036000572 -0.0016383773 -0.021216191 0.039693184 0.024281269 -0.023914175 0.011695697
-0.02820488 0.010968167 -0.023332356 -0.040141944 -0.029848374 0.012874508 -0.019927738 -0.015973207

net.layer4.1.weight f4 [64]
00000000: c128 6b3f 32e4 3f3f 657d d03f 9879 473f
00000010: b0a6 e43f 496b 0840 d758 6d3f 5d1e b13f
00000020: c6a7 be3f fcb5 aa3f 0337 8c3f 6363 2540
00000030: 9f6d c73f 0842 893f 1883 393f af38 933f
00000040: ce1a 2e40 bc3d c33f 3777 403f 5fe7 c83f
00000050: 3180 a33f 1d11 703f 5a15 963f 6b6d 2440
00000060: 6402 1e40 38eb 2b3f 871e d93f daaa c83f
00000070: 0e59 843f 1aae fb3f ab43 653f 170a 413f
00000080: e831 d23f 7afa 9a3f 2d44 2040 35e5 b83f
00000090: 792b ef3f 8a3a 6640 ec10 e33f 945f 9d3f
000000a0: cbe6 813f 8097 8a3f a9e6 a63f 04cd af3f
000000b0: d8f6 313f fe9d 9a3f 9935 823f c19a c33f
000000c0: 0ff3 883f 8a77 9f3f 1668 0b40 cf81 803f
000000d0: d08e fa3f 8c68 8e3f 2a37 643f cf04 b73f
000000e0: 3da0 1040 8204 a93f fd8e 0f40 2cd7 c23f
000000f0: d2a0 4a3f 7a72 603f a1d4 9c3f 4924 383f
0.9185906 0.74957573 1.6288267 0.7791991 1.7863369 2.1315482 0.92713684 1.3837391
1.489495 1.3336787 1.0954288 2.584191 1.5580329 1.0723276 0.7246566 1.1501673
2.720386 1.5253215 0.7518191 1.5695609 1.2773496 0.9377611 1.1725266 2.5691783
2.468896 0.6715579 1.6962441 1.567714 1.0339677 1.9662507 0.8955638 0.7540602
1.642148 1.2107689 2.5041611 1.4444948 1.8685142 3.597323 1.7739539 1.2294793
1.0148557 1.0827484 1.3039142 1.3734441 0.6951728 1.2079465 1.0172607 1.5281602
1.0699176 1.2458355 2.178228 1.0039614 1.9574833 1.1125655 0.89146674 1.4298342
2.2597802 1.3204501 2.2431023 1.5221915 0.7915164 0.8767468 1.2252389 0.71930367

net.layer4.1.bias f4 [64]
00000000: 6ec5 dabe 8591 78be ebb1 13bf adfd b1be
00000010: 007c 3dbe 7953 75bc 3c39 edbe 6c21 05bf
00000020: 059f 39bf 0423 85be c1fd eabe ffb0 23be
00000030: 1cb6 ddbc 7fb1 eabe be8b b6be bdef ef3d
00000040: fa05 03bf fe17 93bd e9d2 0ebf 0a08 1cbf
00000050: 6fbf f5bd dd8e d3be 97bf a1be c8bf 2abe
00000060: ff1a 0a3d 31bb c7be 51f3 4b3c a078 e1bd
00000070: 939a 09bf 3345 3dbe b061 e2be eaf7 03bf
00000080: d390 55bf 062c 73bd b10b 58bd b0bf 483d
00000090: 35a9 38be 4a7f 37bf ea5c 4cbf 2a08 a1be
000000a0: 75ca ebbe 3324 eebe ece9 80be 0dc1 423e
000000b0: 6456 cbbe ecef 19bf f170 c8be 3abb afbd
000000c0: 68c8 e5be 9ce4 76be 18af fabe 8c9a d8be
000000d0: b1aa 65be fcf6 bebe a430 b4be 5255 3ebf
000000e0: dfcc 23be cf5f 353e b361 093e 0344 373e
000000f0: adca 18bf 4636 ffbe 26fe 0bbf 7bd6 a53d
-0.42728752 -0.24274261 -0.57693356 -0.34763852 -0.18504333 -0.014973515 -0.4633273 -0.5200412
-0.7250827 -0.26003277 -0.45896724 -0.15985487 -0.027064376 -0.45838544 -0.3565349 0.11715648
-0.51180995 -0.071823105 -0.55790573 -0.60949767 -0.11999404 -0.41319934 -0.31591484 -0.16674721
0.03371715 -0.39010003 0.012448148 -0.110093355 -0.53751487 -0.18483429 -0.44215155 -0.5155016
-0.8342411 -0.059368156 -0.052745525 0.049010932 -0.18033297 -0.716786 -0.79829276 -0.3145154
-0.460529 -0.46511993 -0.25178468 0.19018956 -0.39714348 -0.60131717 -0.39148667 -0.085806325
-0.4487946 -0.24110645 -0.4896171 -0.4230541 -0.22428395 -0.3729781 -0.3519336 -0.7434894
-0.15996121 0.1771233 0.13416176 0.17897038 -0.5968426 -0.49846095 -0.54684675 0.080975495
