mp/maml_mini_imagenet_step500_acc0.7627.pt (torch, 462358 bytes, 26 tensors)

net.layer1.0.weight f4 [64, 1, 3, 3]
0	0x3d49c211	0.04925734
1	0x3ca7a38d	0.02046373
2	0xbda93808	-0.0826264
3	0xbd1ed26c	-0.038774893
4	0x3dd3ac45	0.10335592
5	0x3dbf7aa0	0.09349561
6	0x3ad4a944	0.0016224761
7	0x3da795b0	0.081828475
8	0x3b4d8f6e	0.0031366008
9	0x3d4916ab	0.049093883
10	0xbd22b699	-0.03972492
11	0x3d197bcd	0.03747158
12	0xbd97bd6e	-0.07409178
13	0x3ddff9e0	0.10936332
14	0xbbb5633a	-0.0055355104
15	0x3a91b55e	0.0011116674
16	0xbd494166	-0.049134634
17	0xbdbf75d0	-0.09348643
18	0xbd80312a	-0.06259377
19	0xbd9d361d	-0.07676337
20	0xbd808bca	-0.06276663
21	0xbce32ca2	-0.027731244
22	0xbd33e5d0	-0.04392034
23	0x3d1d5dd7	0.03841957
24	0x3d90378f	0.07041847
25	0x3e0a808c	0.13525599
26	0x3d0c0bb8	0.034190863
27	0x3db954e6	0.09049396
28	0x3d8a5530	0.067545295
29	0x3d66e302	0.056368835
30	0xbd909121	-0.07058931
31	0xbd5757e5	-0.052574057
32	0xbde0ef04	-0.109830886
33	0xbcd02aa6	-0.025410961
34	0xbc3e683d	-0.011621532
35	0x3c9bf8ec	0.019039594
36	0x3d034dad	0.0320565
37	0x3ca174fa	0.0197091
38	0xbdaa924a	-0.08328684
39	0xbdbb31fb	-0.091403924
40	0x3d8efcdf	0.06981825
41	0xbd9b1046	-0.07571463
42	0xbda91e34	-0.08257714
43	0xbd415859	-0.047203396
44	0xbc129793	-0.008947271
45	0xbd6bade2	-0.057538874
46	0x3d15bfbe	0.036559813
47	0x3d7f8a8a	0.06238798
48	0xbd376517	-0.04477414
49	0xbdc66e81	-0.09689046
50	0xbdf00d77	-0.11721318
51	0x3ce3825e	0.027772125
52	0x3d239d80	0.039945126
53	0xbc6faa34	-0.014627982
54	0xbd557bfb	-0.05212019
55	0xbca376f2	-0.019954178
56	0x3d972337	0.073797636
57	0x3d5e99a7	0.054345753
58	0xbd99c7c0	-0.075088024
59	0x3cebf9f6	0.028805714
60	0xbd16ce58	-0.03681788
61	0xbd07d516	-0.0331622
62	0x3d931b7e	0.07182978
63	0x3d4b43d8	0.049625248
64	0x3d6565ac	0.056005165
65	0xbd32da76	-0.04366537
66	0xbc291467	-0.010319806
67	0x3cbcc644	0.02304376
68	0x3d796b76	0.0608935
69	0x3da0088d	0.07814131
70	0xbd1a16fd	-0.03761958
71	0x3d135320	0.035967946
72	0xbd4dc611	-0.05023772
73	0x3d764862	0.060127623
74	0xbd8fab63	-0.07015111
75	0x3c954683	0.0182221
76	0x3ca3f245	0.020012984
77	0x3c422131	0.011848734
78	0x3d4258dd	0.047448028
79	0xbd29aaed	-0.041422773
80	0x3d8c38c6	0.06846766
81	0xbdeba870	-0.11506736
82	0xbc87f32c	-0.016595446
83	0xbdb9db8e	-0.0907508
84	0x3d791d1a	0.06081877
85	0x3c803aa6	0.015652966
86	0xbd370856	-0.044685684
87	0xbc720a4a	-0.014772961
88	0x3dd748d4	0.10511938
89	0xbd107888	-0.035271198
90	0xbb777a35	-0.003776205
91	0xbd012d0a	-0.031537093
92	0xbd9d715e	-0.07687639
93	0xb8fc38d4	-0.000120268814
94	0x3d9d815c	0.07690689
95	0xbdb946e8	-0.090467274
96	0xbd8ed05a	-0.06973334
97	0xbc9209f3	-0.01782701
98	0xbc865e7a	-0.016402472
99	0xbd27304b	-0.04081754
100	0xbc3053ab	-0.0107621355
101	0x3daf8317	0.08569925
102	0xbc8bb592	-0.017054353
103	0xbdb1db7d	-0.08684442
104	0xbd84acb5	-0.06478254
105	0xbd7bc3a4	-0.061465874
106	0xbdcd61df	-0.10028433
107	0x3d59913d	0.053117026
108	0x3cbde631	0.023181053
109	0xbd6294b6	-0.055317603
110	0xbd7d81a9	-0.06189123
111	0xbd85db8f	-0.06536018
112	0x3dac4c07	0.084129386
113	0xbd86d13a	-0.065828755
114	0x3d4e7f70	0.050414503
115	0xbbb641df	-0.0055620517
116	0x3e005e19	0.12535895
117	0xbd8a4f4a	-0.067534044
118	0x3cdca9f0	0.026936501
119	0xba8b9f09	-0.0010652255
120	0x3cbeb298	0.02327852
121	0x3c3dce28	0.011584796
122	0x3d700dea	0.05860702
123	0x3d972d51	0.0738169
124	0x3b9c12e7	0.0047629955
125	0x3c72d177	0.014820448
126	0x3da8ed50	0.08248389
127	0xbd96bd4a	-0.07360323
128	0x3d8a4ee2	0.06753327
129	0x3c8a9acb	0.016919514
130	0xbcd641c7	-0.026154412
131	0xbd2bf7cf	-0.041984376
132	0x3d721cb8	0.05910942
133	0xbccb0051	-0.024780424
134	0xbc7bce06	-0.015368944
135	0xbcc95dd5	-0.024580875
136	0x3da6d426	0.08145933
137	0xbd7cedac	-0.0617501
138	0x3d370091	0.044678275
139	0xbd0d567e	-0.034506314
140	0x3c8bdfbe	0.017074462
141	0xbbc01020	-0.0058612972
142	0x3dcad555	0.09903971
143	0xbd870085	-0.06591896
144	0xbc8c274a	-0.017108578
145	0xbde7500b	-0.11294564
146	0xbdc5069e	-0.09620403
147	0x3cdb18cf	0.026745228
148	0xbcf6ac3f	-0.03011143
149	0x3d5fd3b0	0.05464524
150	0xbd913f5e	-0.070921645
151	0xbd065da2	-0.03280414
152	0x3b1a6cbf	0.0023563353
153	0xbdf1daf6	-0.118093416
154	0x3d85e6fe	0.06538199
155	0x3dcd0fd8	0.100127876
156	0xbd36c7fa	-0.044624306
157	0x3d9d65a8	0.07685405
158	0x3c185b20	0.00929907
159	0xbd2534c9	-0.040333543
160	0xbd035258	-0.03206095
161	0x3daa05e0	0.08301902
162	0xbd569f20	-0.052397847
163	0xbd92b840	-0.07164049
164	0x3c595354	0.013264496
165	0x3d65411f	0.055970307
166	0x3d88ca07	0.06679159
167	0x3db1e490	0.08686173
168	0xbc82c069	-0.015960889
169	0x3d02383d	0.031791914
170	0xbdbc16be	-0.09184025
171	0x3d7d961f	0.061910745
172	0xbd47056b	-0.04858915
173	0xbd28a683	-0.041174423
174	0xbd352be0	-0.044231296
175	0xbc51f2b8	-0.012814216
176	0x3dc8255c	0.09772751
177	0x3d636b4f	0.05552226
178	0x3a2868d6	0.0006424313
179	0x3d4e4b2e	0.050364666
180	0xbd755159	-0.059892032
181	0xbd94162a	-0.0723079
182	0xbd4d7ba1	-0.05016673
183	0xbc9dd25b	-0.019265344
184	0x3de3fdbc	0.1113238
185	0x3d5efb23	0.05443872
186	0x3dca6e36	0.09884302
187	0xbb8ed261	-0.004358575
188	0x3dbbb48f	0.09165298
189	0xbda18230	-0.078861594
190	0xbd20fb81	-0.039302353
191	0xbd03ff3d	-0.032225836
192	0xbd118eca	-0.035536565
193	0xbd2dda2a	-0.042444386
194	0x3d7ae858	0.061256737
195	0x3dd7b618	0.105327785
196	0x3dd80be3	0.10549142
197	0xbcb9fb76	-0.022702914
198	0xbd577283	-0.05259944
199	0x3d74069c	0.059576616
200	0x3d263f98	0.04058799
201	0xbb054424	-0.0020334804
202	0xbd4f74c9	-0.050648484
203	0x3d5539f6	0.05205723
204	0x3d9352a8	0.071935
205	0xbca4e5a0	-0.020129025
206	0xbd134059	-0.03595004
207	0x3ce78cc8	0.028265372
208	0xbd446b2d	-0.047953773
209	0x3cf4a659	0.029864477
210	0xbd3f62ef	-0.04672521
211	0x3ca09d22	0.019606177
212	0x3d81a4f1	0.06330288
213	0x3af6b4a6	0.0018822148
214	0x3d4bffe0	0.04980457
215	0x3c8d19b6	0.017224174
216	0x3b92bacb	0.004477834
217	0xbda36290	-0.07977784
218	0xbc5824a2	-0.013192328
219	0xbd09b811	-0.033622805
220	0xbd86492a	-0.06556924
221	0xbd73e588	-0.05954507
222	0xbd5cfabf	-0.053950068
223	0x3d4b88c2	0.04969097
224	0xbde0f786	-0.10984711
225	0xbc562319	-0.013069891
226	0x3d67b435	0.056568343
227	0xbd30a3b8	-0.043124884
228	0xbda38f16	-0.07986276
229	0x3d98707f	0.07443332
230	0x3c34f715	0.011045237
231	0xbd817ad5	-0.063222565
232	0x3dddc697	0.10828894
233	0xbd6dd5d3	-0.058065247
234	0x3d14a05b	0.03628574
235	0x3deae5ff	0.114696495
236	0x3dc933ec	0.098243564
237	0xbda99b2c	-0.0828155
238	0xbd8064c4	-0.062692195
239	0xbd167760	-0.03673494
240	0x3c4806c5	0.012208645
241	0x3db203ae	0.08692108
242	0x3d9ff4fd	0.078104
243	0x3e11de5c	0.1424498
244	0x3e001f38	0.12511909
245	0xbd91db09	-0.07121856
246	0xbcb9c8a8	-0.022678688
247	0xbc6f19ef	-0.014593585
248	0xbca8e7ea	-0.020618398
249	0xbcc86a84	-0.024464853
250	0x3d4285fc	0.04749106
251	0xbc36d823	-0.011159929
252	0xbd9c26d4	-0.076245934
253	0x3c73d19a	0.014881516
254	0xbdb4b92b	-0.088243805
255	0xbc84a650	-0.016192585

net.layer1.0.bias f4 [64]
0	0xbe8f2aff	-0.2796249
1	0xbe1a16ea	-0.15047804
2	0x3e01d6ca	0.12679592
3	0x3e979152	0.29603058
4	0xbd0b9463	-0.03407706
5	0x3e0633ad	0.1310565
6	0xbdb79d76	-0.0896558
7	0x3ea536a6	0.32268256
8	0x3e485a29	0.19565643
9	0x3e014b27	0.12626325
10	0xbe679a53	-0.22617464
11	0xbe1fdaec	-0.15610856
12	0xbb1c4a53	-0.0023848012
13	0xbda6a528	-0.0813697
14	0xbdbf4784	-0.093398124
15	0x3d635159	0.0554975
16	0xbe439fa7	-0.19103871
17	0xbea3d673	-0.3199955
18	0xbd89b77a	-0.067244485
19	0x3e9488bf	0.2901058
20	0x3d6c47c2	0.05768562
21	0x3e4f8179	0.20264234
22	0x3e5cb8e8	0.21554911
23	0xbea41ff5	-0.3205563
24	0xbdc823c1	-0.097724445
25	0x3e21aab9	0.15787782
26	0x3e0715de	0.13191935
27	0xbe48e690	-0.19619203
28	0xbdd3e0e5	-0.103456296
29	0x3df730b9	0.1206984
30	0xbe7b4c5e	-0.2454085
31	0xbe40447b	-0.18776123
32	0xbeaffb9e	-0.34371656
33	0xbe5d92c7	-0.21638022
34	0x3ea43ea5	0.32079044
35	0xbdc10ed2	-0.09426655
36	0xbeab0c0d	-0.33407632
37	0xbe76db3f	-0.24107073
38	0x3dfe8edb	0.12429591
39	0xbba33bbf	-0.0049814875
40	0x3e5e4247	0.2170497
41	0x3e55a6f1	0.20864464
42	0x3c800143	0.015625602
43	0x3e431fc3	0.19055085
44	0xbd359199	-0.044328306
45	0x3db82d8f	0.089930646
46	0x3e1feab5	0.15616877
47	0x3e45c974	0.1931513
48	0xbe663bbb	-0.22483723
49	0x3da46f67	0.08029061
50	0x3e8d77f1	0.2763057
51	0x3d4cf209	0.05003551
52	0xbdf223ab	-0.118232094
53	0x3eac8e6c	0.3370241
54	0x3e9417b8	0.28924346
55	0xbe07a2a9	-0.13245644
56	0x3d4d04d0	0.050053418
57	0x3e646a23	0.22306113
58	0x3eb8986e	0.36053795
59	0x3e92be72	0.28660923
60	0x3da0a189	0.078433104
61	0x3cdf8af5	0.02728794
62	0x3d87645a	0.066109374
63	0x3eb5db63	0.3551894

net.layer1.1.weight f4 [64]
0	0x3f7d2539	0.9888492
1	0x3f73ccd1	0.952344
2	0x3f83dd51	1.0301915
3	0x3f838c47	1.0277184
4	0x3f7c08f7	0.9845118
5	0x3f813842	1.0095294
6	0x3f843733	1.0329345
7	0x3f7dc914	0.99134946
8	0x3f828f69	1.0200015
9	0x3f70bcb6	0.9403795
10	0x3f77818d	0.96682054
11	0x3f70a956	0.94008386
12	0x3f7db615	0.9910596
13	0x3f8974d7	1.0738782
14	0x3f78736b	0.97051114
15	0x3f7a3492	0.97736466
16	0x3f77c9c6	0.96792257
17	0x3f80d485	1.0064856
18	0x3f844f75	1.0336748
19	0x3f7a6585	0.97811157
20	0x3f800e9a	1.0004456
21	0x3f7b8cb1	0.98261553
22	0x3f84925e	1.0357168
23	0x3f822ef2	1.0170577
24	0x3f7fede6	0.9997238
25	0x3f843988	1.0330057
26	0x3f786863	0.9703428
27	0x3f72cfe7	0.94848484
28	0x3f83f334	1.0308595
29	0x3f756329	0.9585443
30	0x3f7ef2a5	0.99588996
31	0x3f7c8528	0.9864068
32	0x3f868124	1.050816
33	0x3f7cb7c0	0.9871788
34	0x3f7c631e	0.9858874
35	0x3f79b15f	0.9753627
36	0x3f7ed2d4	0.9954045
37	0x3f823fb3	1.017569
38	0x3f7eb71a	0.9949814
39	0x3f76b953	0.9637653
40	0x3f8439a5	1.0330092
41	0x3f8bcf88	1.0922709
42	0x3f7cf82a	0.9881617
43	0x3f75b344	0.9597666
44	0x3f789ca3	0.9711401
45	0x3f7d7a97	0.9901518
46	0x3f836df4	1.026793
47	0x3f7ea7f9	0.99475056
48	0x3f7acc80	0.9796829
49	0x3f770b70	0.9650183
50	0x3f79d0bd	0.97584134
51	0x3f817d52	1.011637
52	0x3f858c66	1.0433471
53	0x3f86a7eb	1.0519994
54	0x3f89c42d	1.0762993
55	0x3f8396a4	1.0280347
56	0x3f7a59e4	0.9779341
57	0x3f7ae458	0.98004675
58	0x3f8c7c00	1.0975342
59	0x3f78cc8c	0.97187114
60	0x3f830e5a	1.0238755
61	0x3f7c15f6	0.9847101
62	0x3f7a01d6	0.9765905
63	0x3f7df9ca	0.9920927

net.layer1.1.bias f4 [64]
0	0xbcb11164	-0.021614738
1	0xbd373de4	-0.044736758
2	0xbc5656fc	-0.013082262
3	0xbc3850f4	-0.0112497695
4	0xbb8c5b05	-0.0042833113
5	0xbc4d57c0	-0.012533128
6	0x3cae0684	0.021243341
7	0xbb528f60	-0.0032128915
8	0xbcf9431c	-0.030427508
9	0xbd18a505	-0.03726675
10	0xbd1f57c1	-0.038902048
11	0xbd02d7fa	-0.031944253
12	0xbc7e4a75	-0.015520682
13	0x3d4cf2a7	0.0500361
14	0xbd0fc728	-0.03510204
15	0xbd339aed	-0.04384892
16	0xbcd38fb3	-0.025825357
17	0xbc2cb862	-0.010542007
18	0xbcd83c01	-0.0263958
19	0xbcf184f0	-0.029482335
20	0xbd1a9b40	-0.037745714
21	0xbd2e78fd	-0.042595852
22	0xbd4fc63b	-0.050726157
23	0xbd3b0720	-0.04566109
24	0xbcc35a89	-0.023846881
25	0xbaae0a57	-0.0013278228
26	0xba0a64c3	-0.0005279297
27	0xbca260ec	-0.019821607
28	0xbcea0ac5	-0.028569588
29	0xbcc0740d	-0.023492837
30	0xbd1fea11	-0.039041582
31	0xbd8725fe	-0.06599043
32	0xbc69d04d	-0.014270854
33	0xbd0d2e0f	-0.034467753
34	0xbc7f6ae3	-0.015589449
35	0x3b37c90c	0.0028043417
36	0xbcf848d6	-0.030308168
37	0xba8c7036	-0.0010714594
38	0xbcff2e5c	-0.031150036
39	0xbd85fb00	-0.06542015
40	0xbcf3034d	-0.02966466
41	0x3bbca452	0.005756893
42	0xbce55c4e	-0.027998116
43	0xbc8e7eb3	-0.0173944
44	0xbcd4b742	-0.02596629
45	0xbcceaeb3	-0.025229787
46	0xb9ed6fe7	-0.00045287536
47	0xbb89a617	-0.0042007077
48	0xbd2ae70d	-0.041724253
49	0xbd73472a	-0.05939404
50	0xbd612ac1	-0.054972414
51	0x3bd78f7c	0.006578384
52	0xbcd0a274	-0.025468089
53	0xbd4804ea	-0.04883281
54	0xbc0e2403	-0.008675578
55	0xbca34ccf	-0.019934086
56	0x3c9c5f6d	0.019088471
57	0x39f4c347	0.000466848
58	0x3bb890eb	0.00563251
59	0xbc8036b9	-0.015651094
60	0xbd3db480	-0.046314716
61	0xbc827105	-0.015923033
62	0xbd61e6e1	-0.055151824
63	0xbd858ba7	-0.06520777

net.layer1.1.running_mean f4 [64]
0	0xbd9154d7	-0.0709626
1	0xbe68185f	-0.22665547
2	0x3dfe6eb6	0.1242346
3	0x3e6d3e68	0.23168337
4	0xbe71ccb0	-0.23613238
5	0x3c023990	0.007948294
6	0xbd8b0548	-0.06788117
7	0x3efb586b	0.49090895
8	0x3e8e3f5c	0.27782714
9	0x3cab9c31	0.020948501
10	0xbecd5e3e	-0.40110964
11	0xbeb7b745	-0.3588201
12	0xbca48875	-0.020084599
13	0x3d42bda3	0.047544133
14	0xbd94b639	-0.07261319
15	0x3d82ad20	0.06380677
16	0xbecf644a	-0.40506202
17	0xbe72c4ac	-0.23707837
18	0xbd3066bc	-0.043066725
19	0x3e9e2906	0.30890673
20	0x3e2af8ea	0.16696516
21	0x3e681f6f	0.22668241
22	0x3e9d9c42	0.30783278
23	0xbe8a08c0	-0.269598
24	0xbec05384	-0.37563717
25	0x3e1c04c8	0.15236199
26	0x3ea4e192	0.32203346
27	0xbdad76a2	-0.08469893
28	0xbe5afc11	-0.21385218
29	0xbdb4b933	-0.088243864
30	0xbe82924d	-0.25502244
31	0xbe5551ae	-0.2083194
32	0xbeb85add	-0.36006823
33	0xbe35b547	-0.17744933
34	0x3f0ff34c	0.56230617
35	0x3dc81c71	0.0977105
36	0xbe5ffa88	-0.21872914
37	0xbe1e5efe	-0.15465924
38	0x3e61c4d2	0.22047737
39	0xbd38d2cd	-0.04512291
40	0x3e6488cc	0.22317809
41	0x3eb5b622	0.3549052
42	0x3da3d0bf	0.079987995
43	0x3eddd25b	0.4332455
44	0xbd361150	-0.044450104
45	0x3e4cc696	0.1999763
46	0x3e9c3c7a	0.3051489
47	0x3e782617	0.2423328
48	0xbf2cb4c5	-0.6746333
49	0x3d32255b	0.043492656
50	0x3e9a5e76	0.30150193
51	0xbe9e2244	-0.30885518
52	0xbd1aa5cf	-0.037755784
53	0x3ea359cd	0.3190445
54	0x3ede6d9f	0.4344301
55	0xbe167eda	-0.14696828
56	0xbe553e58	-0.20824564
57	0x3d40c5ee	0.04706376
58	0x3ec848a0	0.39117908
59	0x3dce569c	0.10075113
60	0xbad0a8d6	-0.0015919458
61	0x3d1a2225	0.03763022
62	0x3e5dddc4	0.21666628
63	0x3efac7f6	0.48980683

net.layer1.1.running_var f4 [64]
0	0x3c234b84	0.009966735
1	0x3b471784	0.0030379007
2	0x3c2fff10	0.010741964
3	0x3bc0860e	0.0058753556
4	0x3c0e5786	0.008687859
5	0x3ba7542f	0.005106471
6	0x3b7f05c8	0.0038913358
7	0x3ba4fd38	0.005035069
8	0x3b13e544	0.0022567073
9	0x3bfd880e	0.0077371662
10	0x3be16156	0.0068780584
11	0x3c401c03	0.0117254285
12	0x3b87d5aa	0.004145344
13	0x3b85eb37	0.0040868777
14	0x3b456650	0.0030120797
15	0x3b07e817	0.0020737702
16	0x3c28065b	0.0102554215
17	0x3c4480e8	0.011993624
18	0x3b32fff0	0.0027313195
19	0x3b1d2551	0.002397854
20	0x3c224c87	0.009905941
21	0x3be3a120	0.006946698
22	0x3b3208d3	0.0027165904
23	0x3b0b661b	0.0021270576
24	0x3c60c3a1	0.013718517
25	0x3b77034a	0.003769117
26	0x3c31120d	0.010807526
27	0x3c0be2f4	0.008537997
28	0x3bb7b825	0.0056066685
29	0x3c1e63ff	0.009667396
30	0x3bcdb182	0.006277264
31	0x3b0853ff	0.0020802019
32	0x3a92757a	0.0011173927
33	0x3b4212c6	0.002961324
34	0x3c3c7458	0.011502348
35	0x3c172cf3	0.009227025
36	0x3b81b01d	0.003957762
37	0x3b93f7f6	0.004515643
38	0x3b066ac1	0.0020510408
39	0x3b2433d9	0.0025055318
40	0x3a6d4a59	0.0009051911
41	0x3b8d6a36	0.00431564
42	0x3afb0e41	0.0019154028
43	0x3c4511e4	0.012028191
44	0x3c284d5d	0.010272351
45	0x3bd88848	0.006608043
46	0x3c2e40f6	0.010635605
47	0x3be40616	0.0069587333
48	0x3d05512f	0.032548126
49	0x3b0c3dbc	0.0021399101
50	0x3b535f7e	0.0032252963
51	0x3cb81083	0.02246881
52	0x3b1756ce	0.002309251
53	0x3b2b82ef	0.0026170572
54	0x3b9c4cf6	0.0047699166
55	0x3b506135	0.003179622
56	0x3c807f3f	0.015685676
57	0x3c1179b9	0.008879119
58	0x3b2fb796	0.0026812307
59	0x3bea4210	0.0071489885
60	0x3b3e5b0a	0.0029045963
61	0x3c7236ad	0.014783544
62	0x3c25d0a6	0.010120546
63	0x3b8eb6cc	0.004355287

net.layer2.0.weight f4 [64, 64, 3, 3]
0	0x3d3f6505	0.0467272
1	0xbc93c2d2	-0.018037234
2	0x3d3b2173	0.045686197
3	0xbd4424d5	-0.04788669
4	0x3d314877	0.043282
5	0xbb8d35d0	-0.0043093935
6	0xbd74a19a	-0.059724428
7	0xbcf9e232	-0.030503366
8	0x3c4df75b	0.012571181
9	0x3b30ea4c	0.002699512
10	0xbcd5ca9e	-0.026097592
11	0x3cfd6959	0.030934023
12	0xbc0c7976	-0.00857388
13	0xbd319390	-0.043353617
14	0xbd5660cd	-0.05233841
15	0xbd805646	-0.06266455
16	0xbd67d1fc	-0.05659674
17	0x3d0fcd30	0.03510779
18	0x3d84a0bb	0.064759694
19	0x3cd0528c	0.025429986
20	0x3ca19c98	0.01972799
21	0xbda6ea73	-0.081501864
22	0xbbffd9b8	-0.0078079365
23	0x3d870af5	0.06593887
24	0x3d2f01c7	0.042726304
25	0xbcae6935	-0.021290401
26	0x3cde0212	0.027100597
27	0x3c97ad5f	0.018515287
28	0xbc3a5653	-0.01137312
29	0xbcec4839	-0.028843032
30	0xbd606c87	-0.054791
31	0x3d0ae6ef	0.03391164
32	0xbc4d3b94	-0.012526412
33	0x3ce889db	0.028386047
34	0x3d4f43b4	0.050601676
35	0x3d936797	0.071974926
36	0xbcf1ecb0	-0.029531807
37	0x3cc54dae	0.024084892
38	0x3c36c991	0.011156456
39	0xbdc35b32	-0.095388785
40	0xbd37ddf4	-0.044889405
41	0x3d0fe45d	0.035129894
42	0x3d7ce4e2	0.061741717
43	0xbd94cf3d	-0.0726609
44	0x3d6e90aa	0.05824343
45	0xbd698eea	-0.05702106
46	0xbc40a34a	-0.011757681
47	0x3d96515d	0.073397376
48	0xbd6b65ed	-0.05747025
49	0x3d452825	0.048133988
50	0xbd25570f	-0.04036623
51	0x3c8cf80f	0.017208127
52	0x3d24ff89	0.04028276
53	0xbd79d11c	-0.060990438
54	0xbc28fa18	-0.010313533
55	0xbd7cd98d	-0.06173091
56	0x3d6a044d	0.057133008
57	0xbc299e6d	-0.010352713
58	0xbd6368a7	-0.055519726
59	0x3cd19d65	0.025587747
60	0xbdad4899	-0.084611125
61	0xbd8c2d8a	-0.068446234
62	0x3d81ad7f	0.0633192
63	0x3b876f25	0.0041331225
64	0x3d46d94b	0.04854707
65	0x3cc35679	0.023844944
66	0xbd03af03	-0.032149326
67	0x3bccf407	0.0062546763
68	0x3cd0659c	0.025439076
69	0x3d8695ed	0.06571565
70	0x3c536b45	0.012903993
71	0xbd1f2e90	-0.038862765
72	0x3d84889b	0.06471368
73	0xbcdce73e	-0.026965734
74	0xbc9190da	-0.017769266
75	0x3d495d6e	0.049161367
76	0xbc9b27cc	-0.018939875
77	0x3d494124	0.04913439
78	0xbd833633	-0.06406822
79	0x3d75e152	0.060029335
80	0x3d83a147	0.064272456
81	0x3d78e1b5	0.060762126
82	0xbc89cb2c	-0.016820513
83	0xbd89b300	-0.06723595
84	0x3ca3b09b	0.019981673
85	0xbc665966	-0.0140594
86	0x3cadd7fe	0.021221157
87	0xbd088601	-0.03333092
88	0x3c21fa4d	0.0098863365
89	0xbd096103	-0.033539783
90	0xbcdc6a84	-0.02690626
91	0xbced34e2	-0.02895588
92	0xbc45b245	-0.012066429
93	0xbd69e030	-0.057098567
94	0x3d6475ae	0.05577629
95	0x3cb8758d	0.02251699
96	0xbda681af	-0.08130204
97	0xbd5687c4	-0.05237557
98	0xbd60c07c	-0.054871067
99	0x3cfb9cba	0.030714381
100	0xbd666cf1	-0.05625624
101	0x3d688cff	0.05677509
102	0xbccdb827	-0.025112225
103	0xbd7a884c	-0.06116514
104	0x3c96a853	0.01839081
105	0xbd83ccc2	-0.06435539
106	0xbd155327	-0.036456253
107	0x3d4cfbf2	0.05004496
108	0xbcc8b052	-0.024498139
109	0xbcbf689b	-0.02336531
110	0x3d30c108	0.04315284
111	0xbd35905a	-0.044327118
112	0x3d84d5a0	0.06486058
113	0xbca1acc6	-0.019735705
114	0xbc90e0e9	-0.01768537
115	0x3d3b5548	0.045735627
116	0xba1870e6	-0.0005815163
117	0x3d45c03c	0.048279032
118	0x3d3ca568	0.04605618
119	0x3b778daa	0.0037773647
120	0x3c448139	0.0119937
121	0xbd357dbb	-0.04430936
122	0x3d90cee9	0.07070715
123	0xbd53630b	-0.051608127
124	0xbc6c4849	-0.014421531
125	0xbd8e0884	-0.06935218
126	0xbc9b8fbd	-0.018989438
127	0x3d3eca36	0.046579562
128	0x3d973c0e	0.073845014
129	0xbcd083e3	-0.025453513
130	0x3cb30f78	0.021857962
131	0x3d6b030a	0.057375945
132	0xbd53d198	-0.051713556
133	0x3d9b9f31	0.07598723
134	0x3d8df2b8	0.069310606
135	0x3d8af23e	0.06784485
136	0x3c8bddbc	0.017073505
137	0x3caa8bbd	0.020818586
138	0xba28b88c	-0.0006436191
139	0xbd273571	-0.04082245
140	0x3d41ac3e	0.047283404
141	0xbdab8a4d	-0.08375988
142	0x3c5dbe01	0.01353407
143	0xbd82190d	-0.06352434
144	0xbca9157f	-0.020640133
145	0x3b17e50a	0.002317729
146	0xbd1f7ea7	-0.038939144
147	0xbd0167f4	-0.031593278
148	0x3d3ab88c	0.045586154
149	0xbc889c1d	-0.016676003
150	0x3cc88379	0.024476754
151	0xbd41bb4a	-0.047297753
152	0xbda5c012	-0.08093275
153	0xbcd374d5	-0.025812546
154	0xbc83eed1	-0.016105087
155	0xbd641a84	-0.05568935
156	0x3d39628b	0.045259994
157	0x3c20241c	0.009774234
158	0x3b4890c9	0.0030603877
159	0x3c917809	0.017757433
160	0xbd4c0e9d	-0.049818624
161	0x3d578157	0.052613582
162	0xbd11d36c	-0.03560202
163	0x3c6b4f8a	0.014362225
164	0xbbb017be	-0.005373924
165	0xbd10a658	-0.035314888
166	0xbd071f65	-0.032988925
167	0x3d8b6d7f	0.06807994
168	0x3c935d0a	0.0179887
169	0xbd330ac1	-0.043711428
170	0xbc25c5c5	-0.010117953
171	0x3c4aeabc	0.012385067
172	0x3d48a013	0.048980784
173	0x3d803653	0.062603615
174	0x3b4369af	0.002981763
175	0xbd3a2976	-0.045449696
176	0x3c925ccf	0.01786652
177	0xbca805a1	-0.020510497
178	0x3d053953	0.03252537
179	0xbd635bcb	-0.055507462
180	0x3cc91170	0.024544448
181	0x3d8a4688	0.06751734
182	0x3cb34653	0.02188412
183	0xbd6dc87d	-0.05805253
184	0x3d8ba13a	0.06817861
185	0x3d117b70	0.03551811
186	0xbd8be8a5	-0.06831483
187	0x3d34ca42	0.0441382
188	0xbbf692e2	-0.007524834
189	0x3cbf23ad	0.023332441
190	0xbd2831ff	-0.041063305
191	0xbcac8df9	-0.021063792
192	0x3bb44197	0.005500983
193	0x3d2a9ad3	0.041651558
194	0x3d9a498d	0.0753356
195	0xbd1890d8	-0.03724751
196	0x3cde49b1	0.027134748
197	0x3ca61171	0.020271989
198	0x3d903ce1	0.07042862
199	0xbc805de4	-0.01566977
200	0x3d136251	0.035982434
201	0x3d6a9183	0.057267677
202	0x3cebd9b2	0.028790329
203	0xbcc05499	-0.02347784
204	0x3c184281	0.0092931995
205	0xbca21bfb	-0.019788733
206	0xbc4d898d	-0.012545002
207	0xbdbca2e5	-0.09210757
208	0xbd3e299f	-0.04642641
209	0xbcd8a51b	-0.026445916
210	0xbdd0c729	-0.10194237
211	0xbd7ffa51	-0.06249458
212	0xbbd04a6b	-0.0063565276
213	0xbddb75e0	-0.10715842
214	0xbd65a2a6	-0.056063317
215	0xbd09db9a	-0.033656694
216	0xbd20b661	-0.03923643
217	0xbd776034	-0.06039448
218	0xbd423685	-0.047415275
219	0x3cd118a8	0.025524452
220	0xbd9eb054	-0.07748476
221	0x3c069428	0.008214034
222	0xbd44a8b0	-0.048012435
223	0x3c7168c7	0.0147344535
224	0x3d5694ae	0.052387886
225	0xbc04cfbd	-0.008106169
226	0xbc0ab5a1	-0.008466155
227	0x3c347753	0.011014777
228	0xbd3f6a86	-0.046732448
229	0x3c8d6a22	0.017262522
230	0xbd36cda3	-0.044629704
231	0xba5356ef	-0.00080619653
232	0xbc9aa246	-0.018876206
233	0xbc66551d	-0.0140583785
234	0xbcda05c2	-0.026614074
235	0xbcb1f117	-0.021721406
236	0x3c9fec67	0.019521905
237	0x3d4298e0	0.047509074
238	0x3d1436a6	0.03618493
239	0x3cf626b3	0.03004775
240	0x3d0e7051	0.034775082
241	0x3d02ed6f	0.031964716
242	0x3d601445	0.05470683
243	0xbd819b5e	-0.06328462
244	0xbc6903f8	-0.014222138
245	0x3d88f222	0.06686808
246	0x3c864e74	0.016394831
247	0x389154d7	6.9299414e-05
248	0x3d3e33f1	0.046436254
249	0xbc026923	-0.007959637
250	0xbb58b37d	-0.0033065968
251	0xbd0502e7	-0.03247347
252	0xbd12c921	-0.035836343
253	0x3c36e829	0.01116375
254	0x3d88a961	0.066729315
255	0xbcc5661f	-0.024096547

net.layer2.0.bias f4 [64]
0	0x3ba36699	0.004986596
1	0xbd0ded4a	-0.034650125
2	0xbd0c2e17	-0.034223642
3	0xbd05a5a7	-0.03262868
4	0x3b406216	0.0029355339
5	0x3bb52333	0.0055278777
6	0x3cde503c	0.027137868
7	0xbc7c4112	-0.015396373
8	0xbce61322	-0.028085295
9	0xbcd78eed	-0.02631327
10	0x3d11f04a	0.035629548
11	0xbb40a348	-0.0029394198
12	0x3cfe2539	0.031023609
13	0xbc80899e	-0.015690621
14	0xbc950a1d	-0.018193299
15	0xbccf9862	-0.025341216
16	0xbd1c3da9	-0.03814474
17	0x3cc0390f	0.023464708
18	0xbc4c7031	-0.01247792
19	0xbce71559	-0.028208422
20	0x3d27b9fb	0.04094885
21	0xbabf64fc	-0.0014602239
22	0x3bb4ae05	0.005513909
23	0x3c11585e	0.008871166
24	0x3d1cad6d	0.03825133
25	0xb99a9f88	-0.0002949203
26	0xbb81310e	-0.0039426154
27	0xbca9365c	-0.020655803
28	0xbad8e212	-0.0016546866
29	0x3cac8fb2	0.021064613
30	0xbc34c523	-0.011033329
31	0xbceaca94	-0.02866105
32	0x3b7bb7d7	0.0038409138
33	0xbbd5d4de	-0.00652562
34	0xbb4b6440	-0.0031035095
35	0x3b1b8fcc	0.0023736833
36	0xbd172326	-0.036898755
37	0x3c596160	0.013267845
38	0x3d0a8336	0.03381654
39	0x3acf3b84	0.0015810584
40	0x3d0051a1	0.031327847
41	0x3c91c52d	0.017794216
42	0xbd286f37	-0.041121688
43	0x3cb26838	0.021778211
44	0xbd0d38ac	-0.034477875
45	0x3c8b5bc0	0.017011523
46	0x3cd13823	0.025539463
47	0x3c795bf5	0.015219678
48	0x3d27734e	0.040881447
49	0xbd065064	-0.03279151
50	0x3c856349	0.016282694
51	0x3c53f711	0.012937323
52	0x3cdfcb89	0.027318733
53	0x3cb48a8e	0.022038724
54	0x3d094428	0.033512264
55	0x3cd21163	0.025643056
56	0xbd24bc11	-0.040218417
57	0xbd0ea33a	-0.034823634
58	0x3cbd9ad2	0.023145113
59	0x3b38f20c	0.0028220443
60	0x3cd4066c	0.025881968
61	0x3ce052b8	0.027383193
62	0x3cbcad41	0.023031833
63	0xbd0e2883	-0.034706604

net.layer2.1.weight f4 [64]
0	0x3f73e8dd	0.95277196
1	0x3f718d97	0.94356674
2	0x3f864874	1.0490861
3	0x3f852f7a	1.0405114
4	0x3f70c33e	0.94047916
5	0x3f85791d	1.0427586
6	0x3f779f18	0.9672713
7	0x3f7e7526	0.99397504
8	0x3f6f25a5	0.93416816
9	0x3f84cca3	1.037495
10	0x3f6f5846	0.9349407
11	0x3f83c475	1.0294329
12	0x3f751ed1	0.9575015
13	0x3f71a552	0.94392884
14	0x3f70b867	0.94031376
15	0x3f85752d	1.0426384
16	0x3f7234c5	0.9461177
17	0x3f78221e	0.9692706
18	0x3f838eb7	1.0277928
19	0x3f7c6077	0.98584694
20	0x3f844c9c	1.0335879
21	0x3f780d8a	0.9689566
22	0x3f7c7a24	0.9862387
23	0x3f7cf8fa	0.9881741
24	0x3f7934dd	0.9734629
25	0x3f6f0640	0.9336891
26	0x3f82e7c5	1.022698
27	0x3f879aaf	1.0594081
28	0x3f74f098	0.95679617
29	0x3f80a88e	1.0051439
30	0x3f87ce1e	1.0609777
31	0x3f8636cb	1.0485471
32	0x3f72a74e	0.94786537
33	0x3f716687	0.9429707
34	0x3f74d5eb	0.9563891
35	0x3f814a5f	1.0100821
36	0x3f7e8a8e	0.9943017
37	0x3f8277b6	1.0192783
38	0x3f82052b	1.0157827
39	0x3f70fc53	0.94135016
40	0x3f701816	0.9378675
41	0x3f759ee8	0.95945597
42	0x3f71d73c	0.94469047
43	0x3f7b6fcb	0.9821746
44	0x3f774df4	0.9660332
45	0x3f750869	0.9571596
46	0x3f76294a	0.9615675
47	0x3f701918	0.9378829
48	0x3f81fded	1.0155617
49	0x3f77a611	0.9673777
50	0x3f84b924	1.0369
51	0x3f7d006a	0.98828757
52	0x3f7c4194	0.98537564
53	0x3f761900	0.96131897
54	0x3f86feab	1.0546468
55	0x3f8111ce	1.0083559
56	0x3f80805c	1.0039172
57	0x3f8328ca	1.0246823
58	0x3f872282	1.0557406
59	0x3f80381e	1.0017126
60	0x3f7b76e8	0.9822831
61	0x3f718cfb	0.94355744
62	0x3f854d99	1.0414306
63	0x3f853e1b	1.0409578

net.layer2.1.bias f4 [64]
0	0xbce3c616	-0.027804416
1	0xbc988b4f	-0.018621115
2	0x3c133e0a	0.008986959
3	0x3c10133d	0.008793649
4	0xbd227648	-0.039663583
5	0x3d9a56db	0.075360976
6	0xbd02eb93	-0.031962942
7	0xbc450595	-0.012025257
8	0xbd4d28c4	-0.050087705
9	0x3d399f4f	0.045317944
10	0xbd8a9d3f	-0.067682736
11	0x3cb98213	0.022645032
12	0xbc27aa7c	-0.010233518
13	0xbd8f6a38	-0.070026815
14	0xbc84294c	-0.016132973
15	0xbcb35f17	-0.021895928
16	0xbc508186	-0.012726193
17	0xbc9f8e60	-0.01947707
18	0x3b625252	0.003453393
19	0x3c59b737	0.013288311
20	0x3d03c886	0.032173656
21	0xbb894132	-0.00418868
22	0xbc51055e	-0.012757627
23	0xbc68d354	-0.014210541
24	0xbcb6431f	-0.022248803
25	0xbd0c8036	-0.03430196
26	0x3b52a119	0.0032139479
27	0x3c1afb40	0.009459317
28	0xbcc79bfa	-0.024366368
29	0xbcc509a3	-0.024052447
30	0x3c83b432	0.016077135
31	0x3d0732c5	0.033007402
32	0xbc25e445	-0.0101252245
33	0xbd1b69d6	-0.03794273
34	0xbd368262	-0.044557936
35	0xbc8c39c7	-0.017117394
36	0xbbf9e4cc	-0.0076261517
37	0xbcc605de	-0.02417272
38	0xbcefbca5	-0.029264757
39	0xbcb77b24	-0.022397585
40	0xb9a3b8a4	-0.0003122735
41	0xbd3dfd52	-0.046384163
42	0xbd89e5ed	-0.06733308
43	0xbaa6d07a	-0.0012726926
44	0xbc56e732	-0.013116645
45	0xbbd4d526	-0.006495136
46	0xbcef8c9f	-0.029241858
47	0xbd81882d	-0.063248016
48	0xbc5afa80	-0.013365388
49	0xba3572d6	-0.0006921714
50	0x3cbb26f8	0.02284573
51	0x3bc1f53a	0.005919126
52	0x3c725f94	0.014793295
53	0xbbcbd2a5	-0.006220179
54	0x3bc80f3b	0.0061053312
55	0xbc76a9e4	-0.0150551535
56	0xbd34dfbd	-0.044158686
57	0x3cd2c760	0.025729835
58	0xbaccb077	-0.0015616555
59	0x3d0f631b	0.035006624
60	0xbd09de7a	-0.033659436
61	0xbcac87d8	-0.02106087
62	0xbc3e09d6	-0.011599025
63	0x3d5f08f2	0.05445189

net.layer2.1.running_mean f4 [64]
0	0xbfe17f3f	-1.7616957
1	0xc013ce1c	-2.309455
2	0x3ffed30c	1.9908156
3	0x3fa29f08	1.2704782
4	0xc007b667	-2.120508
5	0x3f97bb6a	1.1854069
6	0xbff098e6	-1.8796661
7	0xbf6ed797	-0.93297714
8	0xc02ca52c	-2.6975813
9	0x3fa7aaf0	1.3099041
10	0xc00a0b41	-2.156937
11	0xbf88e512	-1.0694907
12	0xc00b3702	-2.1752324
13	0xc0045b1d	-2.068061
14	0xbf5e476c	-0.8682773
15	0x3fa3c0a6	1.2793167
16	0xbf991344	-1.1959004
17	0x3e64f2c0	0.22358227
18	0x3f9a6c7f	1.206436
19	0x3fa3a9c3	1.2786182
20	0x3ee44b2e	0.44588608
21	0xc007c924	-2.1216516
22	0x3fddd9ad	1.7332054
23	0xbf9b99c1	-1.2156297
24	0xc029c29b	-2.6525028
25	0xc017959d	-2.3685067
26	0x4009a2b8	2.1505566
27	0x3ecd21db	0.40064892
28	0xbef670dc	-0.4813298
29	0x401d0cb5	2.4539006
30	0xbf1849ac	-0.59487414
31	0x3f186986	0.59536016
32	0xbff79264	-1.934155
33	0xc0666ccb	-3.6003902
34	0xc02f954b	-2.7434871
35	0x3fed690a	1.854768
36	0x4023561d	2.552131
37	0x3fab18a9	1.3366901
38	0x3fef298c	1.8684554
39	0xc0222865	-2.5337155
40	0xbff5541c	-1.9166293
41	0xc0108428	-2.2580662
42	0xc03bee9b	-2.9364383
43	0x3f8ea4f6	1.1144092
44	0xbffbb30c	-1.9664016
45	0xbeb608e0	-0.35553646
46	0xbfbb9d1a	-1.4657319
47	0xc0196ece	-2.397388
48	0x3fee552e	1.8619745
49	0xc000b2fc	-2.0109243
50	0x3f671c89	0.90277916
51	0xc00eb3d2	-2.2297254
52	0xc0083376	-2.128141
53	0xbf2515d1	-0.64486414
54	0x3f360eed	0.71116525
55	0x4018db2a	2.3883767
56	0x3fde8ebc	1.7387309
57	0x3e8477e3	0.25872716
58	0x3fafd413	1.3736595
59	0x4016518f	2.348728
60	0x3e4551b6	0.19269451
61	0xbfaf3dd3	-1.3690742
62	0xbedfe384	-0.43728268
63	0x3faa21d9	1.329158

net.layer2.1.running_var f4 [64]
0	0x40d21da7	6.5661197
1	0x4080b027	4.021503
2	0x40ae41f9	5.4455533
3	0x409f7e9c	4.9842052
4	0x40c3d2ea	6.1194963
5	0x4082c7c3	4.086885
6	0x409bf42b	4.8735557
7	0x402255b5	2.5364811
8	0x41178768	9.470558
9	0x408e1129	4.4395947
10	0x40b12326	5.5355406
11	0x401432b4	2.3155947
12	0x4102e3d6	8.180624
13	0x408f735b	4.4828315
14	0x40197ad0	2.3981209
15	0x40c91671	6.2839894
16	0x40c28842	6.079133
17	0x3f9d99cb	1.2312559
18	0x400eadb5	2.2293522
19	0x402985d8	2.6487942
20	0x40164ab0	2.3483086
21	0x40a88e8d	5.267401
22	0x408c05dd	4.3757157
23	0x3f9f1ae6	1.2430084
24	0x40908f54	4.517496
25	0x40cc4fef	6.3847575
26	0x40aaa2d8	5.3323784
27	0x40985063	4.759813
28	0x4014b064	2.323266
29	0x40f9d1d3	7.8068633
30	0x3f711d9d	0.9418581
31	0x406bac3d	3.6823876
32	0x40fd7d02	7.9215097
33	0x41397fa0	11.593658
34	0x40ef21bf	7.4728694
35	0x410806b8	8.50164
36	0x4113e622	9.243685
37	0x40f686f0	7.703972
38	0x40dd082f	6.907249
39	0x40d4f876	6.6553297
40	0x4107e76c	8.4939995
41	0x40672989	3.61191
42	0x40e57bbd	7.171355
43	0x40140a2d	2.313121
44	0x402963e6	2.6467223
45	0x40669ffb	3.6035144
46	0x40de685f	6.9502406
47	0x408f06a3	4.46956
48	0x40a1ba89	5.0540204
49	0x40b0b990	5.5226517
50	0x4039ba8c	2.902011
51	0x409540c2	4.664155
52	0x4100c2a4	8.04752
53	0x401b4759	2.4262297
54	0x4040fcb3	3.0154235
55	0x410b3402	8.700197
56	0x40d4495d	6.6339555
57	0x405a01a0	3.4063492
58	0x40e89c4e	7.26908
59	0x406b5779	3.677214
60	0x3fb85cf9	1.4403373
61	0x40891062	4.28325
62	0x3f4a05b0	0.7891493
63	0x407f7045	3.9912274

net.layer3.0.weight f4 [64, 64, 3, 3]
0	0x3ccfe4e9	0.025377708
1	0x3d70e8df	0.058815833
2	0x3d12bf43	0.035826933
3	0x3dce224d	0.10065136
4	0xbd37582e	-0.04476183
5	0x3d74b76b	0.059745234
6	0xbd0673cd	-0.03282528
7	0xbd02d70a	-0.03194336
8	0x3d9c9104	0.07644847
9	0xbcd398a4	-0.02582962
10	0xbc4dcd75	-0.012561192
11	0xbd4a2c65	-0.049358744
12	0xbcb48e02	-0.02204037
13	0x3c3c297b	0.011484499
14	0x3d4e32c3	0.05034138
15	0x3c017973	0.007902491
16	0x3d08ea83	0.033426773
17	0x3d6013fc	0.05470656
18	0xbd872dda	-0.06600542
19	0xbc5f668d	-0.01363529
20	0x3c71f646	0.014768189
21	0x3c4f9d87	0.012671835
22	0xbc2f37cb	-0.010694454
23	0xbd1e522b	-0.03865258
24	0x3a62921d	0.00086429884
25	0xbca43bb9	-0.02004801
26	0xbcc10969	-0.023564057
27	0xbcdb1591	-0.026743682
28	0xbd0676b6	-0.032828055
29	0x3d98739d	0.074439265
30	0xbd65b1d5	-0.056077797
31	0x3cbf4c66	0.02335186
32	0xbc98845f	-0.018617807
33	0x3d0d0f06	0.034438156
34	0x3ab95fe6	0.001414296
35	0xb90af148	-0.0001325059
36	0x3d8600c6	0.06543116
37	0x3d245099	0.040115926
38	0xbcbf6777	-0.023364766
39	0xbca4d7f5	-0.020122508
40	0xbd7c08e1	-0.061531905
41	0x3c91df5c	0.017806701
42	0x3d62ad9f	0.05534136
43	0x3c04fb94	0.0081166215
44	0xbcf4eb31	-0.029897304
45	0xbd85973c	-0.06522986
46	0x3dc33cb2	0.09533061
47	0x3d15b616	0.036550604
48	0x3cb79ba6	0.022413086
49	0x3d9a5730	0.07536161
50	0xbd075c97	-0.033047285
51	0x3c9cd37d	0.019143814
52	0xbc1ad734	-0.0094507225
53	0x3d3dc009	0.046325717
54	0x3c897dbe	0.016783591
55	0x3c7f28f2	0.015573727
56	0xb91313ff	-0.00014026462
57	0xbd810ee3	-0.063016675
58	0xbd862305	-0.06549648
59	0x3ca2ea74	0.019887187
60	0xbce487cf	-0.02789679
61	0x3c079e8f	0.008277549
62	0xbd013f08	-0.031554252
63	0x3d38318b	0.044969123
64	0xbd9df3a9	-0.0771249
65	0xbbce8131	-0.006302022
66	0xbd74b04e	-0.05973845
67	0x3c3bcf91	0.011463062
68	0xbd48de9c	-0.04904042
69	0xbda214f5	-0.079141535
70	0xbd2d5592	-0.042317934
71	0xbd7e49a7	-0.06208196
72	0x3cbe7da8	0.023253277
73	0x3d151285	0.036394615
74	0xbd317927	-0.04332843
75	0xbcf562bd	-0.029954309
76	0x3d467bf4	0.048458055
77	0x3c32ffd1	0.010925249
78	0xbd385de4	-0.045011416
79	0xbd9c0004	-0.076171905
80	0xbd7bfbf3	-0.061519574
81	0x3d1a3b9c	0.037654504
82	0x3d055f8a	0.032561816
83	0x3d6641ce	0.0562151
84	0x3d417877	0.047234025
85	0x3d82e635	0.06391565
86	0x3d4792eb	0.048724096
87	0x3c6e2035	0.014534046
88	0xbc0f7279	-0.00875532
89	0x3c43e436	0.011956265
90	0x3c5af53f	0.013364135
91	0xbd93fae5	-0.07225589
92	0x3c5255fe	0.012837885
93	0x3d15e963	0.036599528
94	0xbd1dbec7	-0.038512018
95	0xbc884514	-0.016634502
96	0x3d59b88d	0.053154517
97	0xbce82be6	-0.028341245
98	0x3d0b3146	0.033982538
99	0x3ba38677	0.0049903947
100	0x3d1a5b2a	0.037684597
101	0x3d132611	0.035924975
102	0xbc0f1709	-0.008733519
103	0x3d1f7917	0.03893384
104	0xbc68f08a	-0.014217505
105	0x3cb93d8a	0.022612352
106	0xbd53b911	-0.051690165
107	0xbd226774	-0.03964944
108	0xbd28aa78	-0.041178197
109	0x3caeb17a	0.021324862
110	0xbd19ce61	-0.037550334
111	0x3c43a627	0.011941469
112	0x3c8da462	0.017290298
113	0xbc4fd0ce	-0.01268406
114	0xbd5b819c	-0.053590402
115	0xbda0fb43	-0.07860424
116	0x3cd25208	0.025673881
117	0xbc4afec7	-0.012389845
118	0xbd499e7b	-0.049223404
119	0xbd6121a5	-0.054963727
120	0xbd1dd88d	-0.038536597
121	0x3cb03802	0.021511082
122	0xbd7e99f7	-0.06215855
123	0xbd0c2e5b	-0.034223896
124	0xba25882b	-0.0006314541
125	0x3cf733e7	0.030176116
126	0xbc82e918	-0.015980288
127	0xbccfd579	-0.025370346
128	0x3befa1ce	0.00731299
129	0x3ce42153	0.027847921
130	0x3d027537	0.031850066
131	0xbb9e9a48	-0.004840169
132	0x3c5aad00	0.0133469105
133	0x3d76d824	0.06026472
134	0xbd23fb42	-0.04003454
135	0x3b59f685	0.003325851
136	0xbd8b63c2	-0.06806137
137	0xbcb541a5	-0.022126028
138	0xbc6e1d82	-0.014533402
139	0x3be6e73a	0.0070466073
140	0x3c001f52	0.007819967
141	0xbd5a7432	-0.05333347
142	0x3d40dc09	0.047084842
143	0x3d0a1fdb	0.033721786
144	0xbd895251	-0.06705154
145	0x3cb5fa90	0.022214204
146	0x3c3400dd	0.010986534
147	0x3c3da27a	0.011574382
148	0xbc8e6ce0	-0.0173859
149	0x3cc3247e	0.023821112
150	0x3c322cbf	0.010874926
151	0xbce32022	-0.027725283
152	0xbd84c52f	-0.06482922
153	0xbd81dc20	-0.06340814
154	0xbddcfdf7	-0.107906274
155	0xbd69d4ad	-0.05708759
156	0xbd20dc2c	-0.039272472
157	0xbd9287ca	-0.07154806
158	0xbd9e63dc	-0.077338904
159	0x3ba41cbd	0.0050083087
160	0xbd804167	-0.062624745
161	0xbcbf0475	-0.023317555
162	0xbda3165d	-0.0796325
163	0x3cc0eb29	0.023549633
164	0xbc55fb99	-0.013060474
165	0x3bb080f4	0.005386466
166	0xbd6ac3bf	-0.057315584
167	0xbbad6c8a	-0.00529248
168	0xbda913cb	-0.08255728
169	0x3a1cfa02	0.0005988182
170	0x3cfd8865	0.030948827
171	0x3d237e42	0.03991533
172	0x3cd42654	0.025897183
173	0xbcc80d8a	-0.024420518
174	0xbd3b1636	-0.04567548
175	0xbd101501	-0.03517628
176	0xbc09805e	-0.0083924215
177	0xbd0dd21d	-0.034624208
178	0xbb1cda74	-0.002393392
179	0xbc05f4d4	-0.008176047
180	0x3ce39094	0.027778901
181	0x3c30e048	0.01079566
182	0xbd9e95ec	-0.07743439
183	0xbd88f651	-0.06687606
184	0xbca2f6c5	-0.01989306
185	0xbd7b6143	-0.061372053
186	0x3baf2b1a	0.0053457143
187	0xbdcf119f	-0.10110783
188	0x3b5a6c8c	0.003332886
189	0xbd5165b7	-0.051122393
190	0xbd7a06be	-0.061041586
191	0xbd1dee35	-0.03855725
192	0x3cac77b1	0.021053167
193	0x3ceea297	0.029130263
194	0x3d31b6a1	0.04338706
195	0xbc52bfa2	-0.012863072
196	0xbd2ce01f	-0.042205926
197	0x3c222bf2	0.009898173
198	0xbd62f6d3	-0.05541117
199	0xbd1aabd3	-0.03776152
200	0xbd2afc31	-0.041744415
201	0x3b3014fd	0.0026867979
202	0xbbae0c0c	-0.0053114947
203	0x3d2742c1	0.040835146
204	0x3c8aaf46	0.01692928
205	0xbbc83c18	-0.0061106794
206	0xbcdbf3af	-0.026849596
207	0x3b7f7fb6	0.0038986034
208	0x3cd5dd89	0.026106613
209	0xbd2c6606	-0.042089485
210	0xbd1f1148	-0.03883484
211	0x3b68f7e6	0.003554815
212	0xbd22011f	-0.03955185
213	0xbd204a78	-0.03913352
214	0xbd618188	-0.05505517
215	0x3d3f8f56	0.046767555
216	0xbc1bf2f2	-0.009518372
217	0xbd930022	-0.0717776
218	0xbd9dbe85	-0.07702354
219	0x3d21ccab	0.039501827
220	0x3b862d86	0.0040947823
221	0xbc975b60	-0.018476188
222	0x3bc7d3d2	0.006098249
223	0xbbac84aa	-0.005264838
224	0xbd2e601f	-0.042572137
225	0x3c1e9754	0.009679634
226	0x3c51afad	0.012798232
227	0xbbc1e62b	-0.0059173307
228	0xbc9ce446	-0.019151818
229	0xbcc5247e	-0.024065252
230	0x3c6f7fdd	0.014617887
231	0xbd39d840	-0.045372248
232	0xbb41e8f8	-0.0029588323
233	0xbc9e23b1	-0.019304128
234	0x3d633fd2	0.055480786
235	0xbd9c5254	-0.0763289
236	0x3d7229f3	0.059122037
237	0xbc867b08	-0.016416088
238	0xbd4632f2	-0.04838843
239	0x3c9e38ac	0.019314133
240	0xbd076b19	-0.03306112
241	0xbccff626	-0.025385927
242	0x3c4eb585	0.01261652
243	0xbcb9f3fd	-0.02269935
244	0xbca745af	-0.02041897
245	0xbcadea2a	-0.021229822
246	0xbd97b928	-0.074083626
247	0xbd9de31e	-0.07709335
248	0x3d557b71	0.052119676
249	0xbd43bc8d	-0.047787238
250	0x3ccb7b18	0.02483897
251	0xbbdd43fe	-0.00675249
252	0x3bcc8358	0.0062412433
253	0xbd43d4e6	-0.047810458
254	0x3b6dec8f	0.003630433
255	0x3d18c887	0.037300613

net.layer3.0.bias f4 [64]
0	0xbcd4768d	-0.025935436
1	0x3d1ffe66	0.039060973
2	0x3d038449	0.03210858
3	0x3d0b44ce	0.034001164
4	0x3d2123a5	0.039340634
5	0x3c5d7806	0.013517385
6	0xbc223c84	-0.009902123
7	0x3d21454c	0.039372727
8	0xbcddf9f2	-0.027096722
9	0x3bfee4ff	0.0077787633
10	0x3d0b0bcc	0.033946797
11	0x3d1c4ce5	0.03815927
12	0x3aa303ed	0.0012437083
13	0xba33899e	-0.00068488147
14	0xbcb56a65	-0.02214546
15	0x3c9c97fd	0.019115442
16	0x3ca64328	0.020295694
17	0x3cfbced0	0.030738264
18	0x3c76c6ae	0.015062017
19	0xbd24987b	-0.04018448
20	0xbb820528	-0.0039679
21	0x3cccc1b0	0.024994701
22	0x3b2cb024	0.0026350105
23	0xbcbfb60d	-0.023402238
24	0x3d1a0428	0.03760162
25	0xbc39ab93	-0.01133241
26	0x3d1a0740	0.03760457
27	0x3c79d3a3	0.015248212
28	0x3d1f9aa6	0.038965844
29	0x3c431d94	0.011908907
30	0xbcf1bc82	-0.029508833
31	0xbcb77c88	-0.022398248
32	0xbcd7eafd	-0.026357168
33	0xbc12a51f	-0.008950501
34	0x3c45e60b	0.012078772
35	0x3cafb63f	0.021449206
36	0xbc100416	-0.008790037
37	0xbc8d3cdd	-0.017240936
38	0xbd28ccdf	-0.041211005
39	0x3c9f938b	0.019479534
40	0x3c6313e3	0.013859722
41	0xbb263ad8	-0.0025364663
42	0xbb823c26	-0.0039744554
43	0x3c4259be	0.0118622165
44	0xbb8d3c75	-0.0043101856
45	0x3c16cab7	0.009203604
46	0xbc9f96ac	-0.019481026
47	0x3c84fe1d	0.016234452
48	0x3d0a82af	0.033816036
49	0xbcc5f439	-0.024164306
50	0xbd27df49	-0.040984426
51	0x3d058913	0.032601427
52	0x3a1cf244	0.0005987028
53	0xbcc0a4bb	-0.02351605
54	0xbc8404f8	-0.01611565
55	0x3c5c5988	0.01344908
56	0x3d07d9e6	0.03316679
57	0x3cdd67a1	0.027026953
58	0xbd06aa90	-0.032877505
59	0xbc916ab7	-0.01775108
60	0x3d1a1edf	0.037627097
61	0xbcc6d77b	-0.024272671
62	0x3cac8555	0.021059671
63	0x3c4b75c0	0.0124182105

net.layer3.1.weight f4 [64]
0	0x3f81520b	1.0103163
1	0x3f8444d5	1.0333506
2	0x3f812bf3	1.0091537
3	0x3f7275c6	0.9471096
4	0x3f807069	1.0034305
5	0x3f81ac2c	1.0130668
6	0x3f731d7e	0.94966877
7	0x3f708b27	0.9396233
8	0x3f81332a	1.0093739
9	0x3f716b71	0.9430457
10	0x3f75796e	0.9588841
11	0x3f8224f4	1.0167527
12	0x3f8129f9	1.0090934
13	0x3f6fbd95	0.93648654
14	0x3f6f75d2	0.93539155
15	0x3f694171	0.9111548
16	0x3f6ac9e5	0.91714317
17	0x3f6e4b0c	0.9308326
18	0x3f878816	1.0588405
19	0x3f7e34a2	0.9929906
20	0x3f818a71	1.0120374
21	0x3f871d93	1.05559
22	0x3f813696	1.0094783
23	0x3f84062b	1.0314382
24	0x3f7cff42	0.9882699
25	0x3f7f6f0a	0.9977881
26	0x3f718bea	0.94354117
27	0x3f6648fd	0.8995512
28	0x3f80edef	1.0072612
29	0x3f7a0067	0.97656864
30	0x3f86e1ba	1.0537636
31	0x3f88879f	1.0666388
32	0x3f71ed46	0.94502676
33	0x3f8f3b87	1.1190041
34	0x3f6f00f3	0.93360823
35	0x3f688377	0.908256
36	0x3f867486	1.050431
37	0x3f6e512a	0.93092597
38	0x3f756f05	0.9587253
39	0x3f76b78c	0.9637382
40	0x3f6aa1e6	0.9165329
41	0x3f68c20b	0.90921086
42	0x3f6b8e5b	0.9201409
43	0x3f7fdba6	0.9994453
44	0x3f7099cc	0.93984675
45	0x3f796435	0.9741853
46	0x3f789757	0.97105926
47	0x3f838b94	1.0276971
48	0x3f82ad6f	1.0209178
49	0x3f80b468	1.0055056
50	0x3f73c3cd	0.95220643
51	0x3f875094	1.0571465
52	0x3f6ab292	0.91678727
53	0x3f72c3f8	0.94830275
54	0x3f81cb89	1.0140239
55	0x3f935481	1.1510164
56	0x3f814b68	1.0101137
57	0x3f7f7a6b	0.9979617
58	0x3f801e80	1.0009308
59	0x3f6c80ce	0.9238404
60	0x3f6d36c6	0.926617
61	0x3f70936e	0.9397496
62	0x3f844788	1.033433
63	0x3f7229f7	0.94595283

net.layer3.1.bias f4 [64]
0	0xbce30a6e	-0.027714934
1	0x3ca75637	0.020426853
2	0xbd15ce4a	-0.036573686
3	0xbd09bae3	-0.033625495
4	0x3c23d346	0.009999102
5	0x3b76136c	0.0037548197
6	0xbd299a54	-0.041406944
7	0x3ace7d40	0.001575388
8	0xbb6fa055	-0.0036564071
9	0xbd523978	-0.051324338
10	0xbc8fc4f4	-0.01754997
11	0xbb9ab66e	-0.0047214543
12	0xbb515b40	-0.0031945258
13	0xbc95566b	-0.018229684
14	0xbd8edcc9	-0.06975705
15	0xbd6b37a4	-0.05742611
16	0xbd7489d4	-0.059701756
17	0xbd696f76	-0.056991063
18	0x3c2007df	0.009767502
19	0xbcef6ada	-0.029225755
20	0xbca7ead3	-0.020497715
21	0xbc809f8b	-0.015701076
22	0xbcc1f8de	-0.02367824
23	0xbd4480b4	-0.047974303
24	0xbb8293b4	-0.0039848927
25	0xbcec0193	-0.028809344
26	0xbd389814	-0.045066908
27	0xbd9a8789	-0.075453825
28	0xbd0aa01c	-0.0338441
29	0xbcaa4495	-0.020784656
30	0xbbc1303d	-0.005895643
31	0x3da8b0ff	0.08236884
32	0xbd59c170	-0.053162992
33	0x3d8fc9e0	0.070209265
34	0xbd0574ca	-0.03258208
35	0xbd86df72	-0.065855876
36	0x3cdee874	0.027210452
37	0xbd055f32	-0.03256149
38	0xbd21dd57	-0.039517727
39	0xbca42963	-0.020039266
40	0xbd1a1fca	-0.037627973
41	0xbd67e5c2	-0.0566156
42	0xbdad0769	-0.08448679
43	0x3b393cfb	0.0028265107
44	0xbd30df92	-0.043181963
45	0xbc0ade39	-0.008475834
46	0xbd40c85e	-0.047066085
47	0xbce50fb6	-0.027961593
48	0xbc81d2b9	-0.01584755
49	0xb844cc94	-4.692057e-05
50	0xbd4c2c32	-0.049846835
51	0xbd040272	-0.032228895
52	0xbd9859b8	-0.074389875
53	0xbc83adee	-0.016074147
54	0x3ce4ddb2	0.027937744
55	0x3d71464c	0.05890493
56	0xbd192597	-0.037389364
57	0xbcf59b7e	-0.029981371
58	0xbcce0040	-0.025146604
59	0xbd52b18b	-0.05143885
60	0xbd5ce40c	-0.05392842
61	0xbd21e26c	-0.039522573
62	0xbd2b0b4b	-0.041758817
63	0xbcc580e4	-0.024109311

net.layer3.1.running_mean f4 [64]
0	0xbf8612ec	-1.0474524
1	0x3ea9dd46	0.3317663
2	0x3ffb78a9	1.9646198
3	0xc0143f0d	-2.3163483
4	0xbeff2457	-0.49832413
5	0xbd3c8ddc	-0.046033725
6	0xbf89b1db	-1.0757402
7	0xbf436ca1	-0.7633763
8	0xbf86e5b5	-1.0538851
9	0xbfc9627c	-1.573318
10	0xbf9716a6	-1.1803787
11	0xbe4c10af	-0.1992824
12	0x3fa0dd7f	1.2567595
13	0x3ee372e8	0.44423604
14	0xc05c6f92	-3.4443097
15	0xc0491418	-3.1418514
16	0xc01b1071	-2.4228785
17	0xbf801d2e	-1.0008905
18	0xbf3e61c6	-0.7436794
19	0xbfae0005	-1.3593756
20	0xbf8861d1	-1.0654851
21	0xbfcc4de2	-1.5961268
22	0x4002e02b	2.0449321
23	0xbf98eba2	-1.194691
24	0x3f937242	1.1519244
25	0x3ffb5d6d	1.9637886
26	0x3fdf5f2d	1.745092
27	0xc0384e7f	-2.879791
28	0x4015ed16	2.3425956
29	0xc03f3e18	-2.988165
30	0xbf17fb14	-0.5936749
31	0x3f828a94	1.0198541
32	0xc02e8493	-2.7268417
33	0x3f952ae2	1.1653712
34	0xc03e244b	-2.9709651
35	0xc0975172	-4.728692
36	0xbf44f8d5	-0.7694219
37	0xc003702b	-2.0537212
38	0xc0776169	-3.8653204
39	0xbfe0806f	-1.7539195
40	0xc052375f	-3.2846296
41	0xc047e455	-3.1233113
42	0xc0067334	-2.1007814
43	0x406265e1	3.5374682
44	0xc054538d	-3.3175995
45	0xc04936d1	-3.1439707
46	0xbfb57aff	-1.417816
47	0xbf978a99	-1.1839172
48	0xbedf9b12	-0.43672997
49	0x4059e1d0	3.4044075
50	0xc07fa244	-3.994279
51	0xbeff40b3	-0.4985405
52	0xc00be374	-2.1857576
53	0xc02502c5	-2.578294
54	0x3f0e91e7	0.5569138
55	0x3e2fb0ca	0.17157283
56	0xbfe27596	-1.7692134
57	0x4014234b	2.314654
58	0xbfc0d936	-1.5066288
59	0xc05f6007	-3.490236
60	0xc01d73f3	-2.460202
61	0xc0143ea0	-2.3163223
62	0xbfd20462	-1.6407588
63	0xbf450aad	-0.76969415

net.layer3.1.running_var f4 [64]
0	0x40088001	2.1328127
1	0x401d2414	2.455327
2	0x40e979e3	7.2961287
3	0x40c3d366	6.1195555
4	0x3f85dbe6	1.0457733
5	0x40a9612d	5.2931123
6	0x40587997	3.3824213
7	0x4033cdb7	2.8094308
8	0x3fb799f4	1.4343858
9	0x4094276e	4.629813
10	0x40c5cbe6	6.18114
11	0x3f5e1665	0.8675292
12	0x403a5165	2.911218
13	0x401aa286	2.4161696
14	0x4087bd0e	4.241828
15	0x40c400e8	6.1251106
16	0x40deec84	6.9663715
17	0x406d4781	3.7074893
18	0x3f6be91d	0.9215258
19	0x40450306	3.0783095
20	0x3f6dc95c	0.92885375
21	0x3fa7a78e	1.3098009
22	0x40d4125a	6.62724
23	0x4005c07f	2.089874
24	0x409bd0a5	4.8692193
25	0x40952333	4.660547
26	0x4053a545	3.3069623
27	0x40916daf	4.544639
28	0x40cfd7f2	6.4951105
29	0x4072d97e	3.7945247
30	0x3f3e167f	0.74253076
31	0x40579577	3.3684976
32	0x410087fa	8.033197
33	0x406d7eec	3.7108717
34	0x40f4113d	7.6271043
35	0x413db28f	11.856093
36	0x3fb27da4	1.3944592
37	0x40a3f075	5.1231027
38	0x40b99244	5.7991047
39	0x40ac834b	5.391027
40	0x412349ff	10.205565
41	0x40e0e4f0	7.0279465
42	0x40a67d01	5.2027593
43	0x41033592	8.200579
44	0x40efba43	7.491487
45	0x40c37d1c	6.109022
46	0x405e39a7	3.4722688
47	0x3fc34df1	1.5258161
48	0x3f9be841	1.2180253
49	0x4106431a	8.391382
50	0x40bc30e6	5.880969
51	0x3fa7f72a	1.3122303
52	0x409da5bb	4.926481
53	0x40dc7610	6.889412
54	0x3faa7c16	1.3319118
55	0x4003426e	2.0509295
56	0x401fc1e0	2.4962082
57	0x40fd6351	7.9183736
58	0x407ca07e	3.9472957
59	0x40f230a3	7.568437
60	0x4033e905	2.8110974
61	0x40e905c0	7.281952
62	0x3f6e47b8	0.93078184
63	0x408a12fb	4.314817
