mp/maml_mini_5way_1shot_best_step5000_conv_second.pt (torch, 498026 bytes, 26 tensors)

net.layer1.0.weight f4 [64, 3, 3, 3]
00000000: 4554 64bc f653 06be d7d2 af3d ac91 343e
00000010: 1cb1 17be eae9 6a3d fffd bdbc aedd 7dbd
00000020: aa0f b13d cb40 b63d ae1d 0ebe 1855 9d3d
00000030: dc8f a73d 41b8 31be 89e0 bf3d b105 ba3d
00000040: 4cb5 49be e274 823d ec78 a9bb 5f5a 0abe
00000050: 933a 193e eb84 b23d 2000 36be dd59 1e3d
00000060: a9a4 bfbd 9088 453c 2d51 d33d a76e 2ebd
00000070: b25b 923d d2b3 61bc c019 a2bb 6131 4fbd
00000080: 58fd 5d3c f3d1 0abc 57d5 073d 27a0 0bbd
00000090: 95ce 93bb 034a cb3d 09e5 c43d 09e8 5fbd
000000a0: 49e3 953d c44b e53d 5fad a33d d443 aa3d
000000b0: f61c b53d e7a7 5fbe 6b7d 30be 3d5f 613d
000000c0: e6a7 1cbe 9f22 8fbe 71af e33a 22ec 20be
000000d0: 785c 81be 396c 4bbe bb22 06be 931a 073d
000000e0: 07d6 433d 0f79 97bd 0e27 8d3c 656f af3d
000000f0: 7745 1a3e 9b41 a1bb 35a5 1ebe fffe 11be
00000100: aabd 98bd 3d60 413e 206e d0ba 4884 003c
00000110: c2bb 81bd f9e8 713e 274e 3b3d 6515 6bbe
00000120: 7e10 cdbd e1d0 3a3d e9dc 223e 5551 d4bd
00000130: cbfb 593c df95 df3d 03cd 083e 2266 acbd
00000140: 07ee 27be bc68 10bc 430e cf3d 5704 50bd
00000150: 7c5c e3bd 22e0 e8bc 61dc 99bd 48ed 24be
00000160: 19a9 32be 17b4 19be 80b8 7a3d e29e 7d3c
00000170: 9917 023e a2dc 8a3d c5b5 65bd 4301 ff3d
00000180: fd32 09bd fc84 2bb9 7094 b8bd f519 283d
00000190: 407c 333d 37ba a53d e925 ad3d c1be b63c
000001a0: 4e8c 623d 64ab 5abd 57d5 153d 9439 173d
000001b0: d927 053d 3fc3 cfbd f501 f6bb f671 713d
000001c0: 9eac 0cbd f6ec 74be 3f78 2a3e 0707 79bc
000001d0: a7fc 30be 8c0b 2b3e 551e f43b 6682 abbc
000001e0: 7b86 303e bae9 a73c 748a 1dbd 244f 243e
000001f0: d6be 343c 924b 92bd b416 b2bb abcf 93bd
00000200: b1f6 58bd 63b6 063e e64e 373d 1fbc 3bbe
00000210: d757 f43c 9a5d 46bd 81ae 2bbc a425 fdbd
00000220: bae4 f33c ce56 fcbd e945 723b 8281 053d
00000230: 3eb8 24bc be28 4bbd 8fad ccbd 7e0c b6bc
00000240: ff18 523d 8351 f93d 65b4 873d 976c b23d
00000250: cd75 233e 9949 2e3e f482 863d 8599 f73d
00000260: 3a74 32bc 7576 b23c 8e60 363d da66 053d
00000270: eeeb dc3d f2d5 543e 283a ea3d f325 7bbc
00000280: 7a6d 7f3d eb63 ea3c 100f 9e3d 7aac a93d
00000290: 02a2 963d 3b7a 5a3d 4de1 883d 6a58 22bd
000002a0: e343 d13d 5899 12bc 1d2b 60bc dfd7 88bd
000002b0: 214d efbd ab88 11bd 2fcd 9dbd 9586 2ebe
000002c0: 83e3 b9bd a467 27be 69bd 71bd fafe 0fbe
000002d0: 356e 3d3e fa75 fa3d 6972 ff3c 703f 7e3d
000002e0: 9d88 323d 6ce5 203d a079 e9bb 8707 91bd
000002f0: 8799 913c 221b 533d f3ff 90bd 20a1 27be
00000300: c5c7 0e3d e267 e6bc f6a2 6b3d b182 6fbd
00000310: 9f98 133e 1b2f d83c f837 1b3e 1a6e bbbd
00000320: 70c2 33be 0ecd 453d 88f1 abbd cf43 053c
00000330: dfed 21be 22aa b93d 343b 433e 3ce7 6e3c
00000340: b70a 90bc 3623 5bbe 540d 743d cfd9 adbd
00000350: 1588 3c3d dccc f9bd 45cd 143e f47f 4b3e
00000360: 90d9 12bd c999 93bd 024a 8abc dd38 0abe
00000370: d9ac 8bbc 4bb7 133d 57b2 17bc f005 0f3d
00000380: 473c 593c b740 9ebd 1c04 d2ba 136d a93d
00000390: 00f2 9bbd ca3f 5cbd 2b71 ca3d 6378 c4bd
000003a0: 1ee9 4f3d d2c7 0d3e ff91 14be 68da 39be
000003b0: 7065 0dbe 0d38 dabd a16d 62bd 2e8e 5abd
000003c0: b28b 323d d1f5 e73d 5b8f d93d de44 d03d
000003d0: 4d20 b53c 5135 08be 232d f2bd 1e7b cdbb
000003e0: bc4e 013e 97f7 ccbd 23f5 23bd d587 073e
000003f0: 55c8 063e e9a3 51bb a8ff 1cbe 7410 59bd
-0.013936107 -0.13117966 0.085851364 0.17633694 -0.14813656 0.057351984 -0.023192404 -0.06197899
0.08645566 0.08899077 -0.1387851 0.07682246 0.08181736 -0.17355444 0.093689986 0.09083117
-0.19698066 0.0636995 -0.0051718857 -0.13511036 0.1496375 0.08716758 -0.17773485 0.03865992
-0.09357578 0.012056485 0.103182174 -0.042585995 0.07146396 -0.013775783 -0.0049469173 -0.0505842
0.013549171 -0.008472907 0.03316244 -0.03408828 -0.0045107105 0.09926226 0.096139975 -0.054664645
0.07318742 0.11196092 0.07992052 0.083137184 0.088434145 -0.21841393 -0.17235343 0.055022467
-0.15298423 -0.279561 0.0017371011 -0.15715078 -0.2526586 -0.19865502 -0.13099186 0.032984328
0.047811534 -0.07396137 0.017230537 0.08566169 0.15065561 -0.004921151 -0.15492709 -0.1425743
-0.074580505 0.18884368 -0.001590196 0.007844038 -0.0633464 0.23624028 0.04572883 -0.2295738
-0.10012911 0.04560936 0.15904583 -0.10367075 0.013304661 0.109172575 0.13359456 -0.08417918
-0.16399394 -0.008814033 0.10110142 -0.05078539 -0.11101624 -0.028427187 -0.07512737 -0.1610614
-0.17447318 -0.15010105 0.06121111 0.015479775 0.12704314 0.067803636 -0.056081552 0.124514125
-0.03349589 -0.00016357371 -0.09012687 0.04104038 0.043819666 0.08092158 0.084544964 0.022307755
0.055309586 -0.053386107 0.03658041 0.036920145 0.032508705 -0.10144662 -0.0075075575 0.058946572
-0.034344308 -0.23918518 0.16647433 -0.015199429 -0.17283879 0.16703624 0.007449905 -0.020936202
0.172388 0.020497192 -0.038462117 0.16045815 0.011031827 -0.0714332 -0.0054348353 -0.07217344
-0.05296964 0.13155513 0.044752978 -0.18333481 0.029827042 -0.04842911 -0.010478617 -0.12360695
0.029772151 -0.12321244 0.003696794 0.03259421 -0.010053692 -0.0495994 -0.09994041 -0.022222754
0.05129337 0.1217375 0.066262044 0.08712118 0.15962906 0.17020263 0.06567946 0.120898284
-0.010891968 0.021785 0.044525675 0.03256879 0.107871875 0.20784739 0.11436874 -0.015328872
0.062360264 0.028612098 0.07717717 0.082848504 0.07355119 0.053339224 0.06683598 -0.0396351
0.102180265 -0.008947693 -0.013682154 -0.06681799 -0.11684633 -0.035530727 -0.07705151 -0.17043526
-0.090765975 -0.1634813 -0.059018526 -0.1406211 0.18499072 0.122295335 0.031182485 0.062072217
0.043587316 0.039281294 -0.0071250945 -0.07081514 0.017773403 0.051539548 -0.070800684 -0.16370058
0.034858484 -0.028125707 0.05752846 -0.058474246 0.14413689 0.02638965 0.15158069 -0.091518596
-0.17554641 0.04829126 -0.08395678 0.008133843 -0.15813397 0.090656534 0.19065553 0.014581498
-0.017583234 -0.2140015 0.059583023 -0.08488809 0.046028215 -0.12197277 0.14531429 0.19873029
-0.035852015 -0.072070666 -0.016880993 -0.13498254 -0.017050194 0.036063474 -0.009258828 0.03491777
0.013259 -0.07727187 -0.0016022953 0.082727574 -0.07614517 -0.05377177 0.09884866 -0.095932744
0.050759427 0.13845757 -0.14508818 -0.18149722 -0.13808227 -0.10655222 -0.05528033 -0.05335825
0.043590255 0.11326183 0.10623046 0.101693854 0.022110129 -0.13301589 -0.118250154 -0.00627078
0.12627691 -0.100081615 -0.040028702 0.1323541 0.13162358 -0.0031988567 -0.153319 -0.052994207

net.layer1.0.bias f4 [64]
00000000: 4aab 0c3e a1a3 0dbe 896b 47bd 1afe 133e
00000010: f64f ea3c 6173 873c 25a5 21be 81f3 f63d
00000020: d304 333e 4110 21be a09d 09be db8e 423e
00000030: 3dba 24be 97b8 813d 81dd 29bd a41a 13be
00000040: b74d 40be f359 423e 61aa b7bc d23e 56be
00000050: 9f14 ba3c 0b3c ca3c ada4 8fbd 290b 65bc
00000060: bcd2 6abb eff7 e3bd de0b 083e cb7f b5bd
00000070: b819 e7bd b192 a8bd 766d 64bd 3fdd d83d
00000080: e9e8 6ebd 4ffc 843d ca62 103e b879 0fbe
00000090: f16d bdbd c62a 08be 4c1e 31be a839 ee3d
000000a0: 2d01 fcbd dc53 8ebd f506 37be 0752 113d
000000b0: 5d74 31bd 7c39 f43d 0809 09bd 00e2 f53d
000000c0: 13c6 0bbe 3365 2a3e 0781 2f3d b491 013e
000000d0: d718 4abe 266d d53d 497d 12be f74f bebd
000000e0: 8b31 4cbe 5e87 0ebe adef 3abe f651 3abe
000000f0: 5ac4 24be a8cc 08bb 7142 2dbe 9dff e7bd
0.13737217 -0.1383195 -0.048686538 0.14452401 0.028602581 0.01653451 -0.15785654 0.120581634
0.17482309 -0.15728857 -0.13439035 0.18999808 -0.1608667 0.06334036 -0.04147101 -0.14365631
-0.18779646 0.18979625 -0.02242011 -0.20922402 0.022714911 0.024686834 -0.07013831 -0.013979712
-0.0035831174 -0.11131274 0.13285777 -0.08862265 -0.11284202 -0.08231104 -0.055768453 0.10589074
-0.05832759 0.064934365 0.14100185 -0.14011276 -0.09249485 -0.13297567 -0.17296714 0.11632091
-0.12304912 -0.06949589 -0.17873748 0.035478618 -0.043323863 0.11925027 -0.03345588 0.12005997
-0.13649778 0.16640167 0.04284766 0.12653238 -0.19736038 0.10421209 -0.14305605 -0.09292596
-0.19940774 -0.13918826 -0.18255492 -0.18195328 -0.16090527 -0.0020873938 -0.16919877 -0.11328051

net.layer1.1.weight f4 [64]
00000000: 5e29 923f b8d5 7b3f 49eb 743f 1347 473f
00000010: 5915 863f 3979 593f b7d2 6e3f def2 8c3f
00000020: 4590 3f3f 350b 893f d35e 513f 63e5 993f
00000030: 39a0 733f 02c7 7f3f 7e1f 9c3f fb79 ac3f
00000040: 296b 903f 94bb 7d3f 0395 7e3f de3d 8a3f
00000050: 387a 543f 1c22 663f 6036 7d3f c3cc 673f
00000060: 8a06 693f ec8d 3e3f 2870 493f cbe4 613f
00000070: 5787 6b3f 1dd0 a83f 665f 743f 8a70 533f
00000080: b8b4 643f f597 9d3f f25a 4a3f 509d 773f
00000090: fd96 a13f 2c90 433f f9db 853f 537c 663f
000000a0: d25c 403f c78c 873f 1cf8 523f 998f 273f
000000b0: 3519 873f bf53 813f b786 9b3f 1583 813f
000000c0: c4da 5d3f 5af2 683f 7687 313f 07ac 2a3f
000000d0: f950 9d3f 715d 743f 254e 993f 8e56 663f
000000e0: c0ec 853f 7d71 803f 2ca6 603f bffe 953f
000000f0: 7e8e 5c3f 435f 873f 1220 823f 43bc 643f
1.1418874 0.98372984 0.95671517 0.77842826 1.0475265 0.84950596 0.93290275 1.1011617
0.7482951 1.0706545 0.81785315 1.2023128 0.95166355 0.99913037 1.2197111 1.3474725
1.1282703 0.99114347 0.99446124 1.080013 0.8299899 0.89895797 0.98911095 0.90546817
0.910256 0.74435306 0.7868676 0.88239735 0.9200339 1.3188511 0.95458066 0.82593596
0.89338255 1.2311999 0.7904502 0.96724415 1.2624203 0.76391864 1.0457755 0.90033454
0.7514163 1.0589837 0.82409835 0.6545349 1.0554568 1.0103682 1.2150487 1.0118128
0.86661935 0.909948 0.6934732 0.6666874 1.2290336 0.9545508 1.1976973 0.8997582
1.0462875 1.0034634 0.8775356 1.1718367 0.86154926 1.0575947 1.0166037 0.89349765

net.layer1.1.bias f4 [64]
00000000: 87b8 273e 2b15 dcbd c37f a73d 91c4 aabc
00000010: 83f1 a33e c2d1 19be ab3b a4bd 429b 9d3d
00000020: 0029 64be d63b 173e c58e c0be f480 ae3e
00000030: 9105 653c 24ce 6e3b 9f8e d2bd 8e69 063f
00000040: 7176 5d3e 5140 8abd 5921 6a3c 678d 0c3e
00000050: d6f2 83be 9018 4bbd 6ff8 2f3e c42c 233d
00000060: 0054 99bc 6bba dcbe 61a1 29bd d89e ecbd
00000070: 3f3e a5bd 937d 0f3f 3113 683e 3fe3 b3bd
00000080: 8f6e b23c 67c1 323e 0a30 b7bd 7268 10be
00000090: 7365 b03d 2b23 65be 94db 3bbe 2fc3 77be
000000a0: d8d1 82be dfad 863e 14a9 aabe 959d a9be
000000b0: 3cbb 393e f2db 103f 2975 f23d 4573 b63d
000000c0: 6e49 ad3c 787c 6d3c 3f88 89be c62d 42be
000000d0: dcfa e23e 6af9 fa3c b579 853e 4851 22be
000000e0: 33a2 f43d 31b6 023e 0507 323e 10e3 db3e
000000f0: 75a8 22bd 4e23 a3bd 9def aebd e36e 283e
0.16378985 -0.10746225 0.081786655 -0.020845683 0.32020196 -0.15021423 -0.08019193 0.07695629
-0.22281265 0.1476892 -0.37608925 0.34082758 0.013978378 0.0036438787 -0.10281109 0.52504814
0.21627213 -0.06750549 0.014290177 0.13725816 -0.25771207 -0.04958397 0.17184614 0.039837614
-0.018716812 -0.43110976 -0.04141367 -0.115537345 -0.08068513 0.56050986 0.22663571 -0.08783578
0.021781234 0.1745659 -0.089447096 -0.14102343 0.086131 -0.22376697 -0.18345481 -0.2419555
-0.25550723 0.26304528 -0.3333212 -0.33128038 0.1813783 0.5658561 0.11838753 0.08908705
0.021153178 0.014495008 -0.2686176 -0.18962774 0.44332016 0.030636508 0.26069418 -0.15851319
0.119449995 0.12764813 0.1738549 0.42946672 -0.039711434 -0.07965718 -0.08541796 0.1644855

net.layer1.1.running_mean f4 [64]
00000000: 0000 0000 0000 0000 0000 0000 0000 0000
00000010: 0000 0000 0000 0000 0000 0000 0000 0000
00000020: 0000 0000 0000 0000 0000 0000 0000 0000
00000030: 0000 0000 0000 0000 0000 0000 0000 0000
00000040: 0000 0000 0000 0000 0000 0000 0000 0000
00000050: 0000 0000 0000 0000 0000 0000 0000 0000
00000060: 0000 0000 0000 0000 0000 0000 0000 0000
00000070: 0000 0000 0000 0000 0000 0000 0000 0000
00000080: 0000 0000 0000 0000 0000 0000 0000 0000
00000090: 0000 0000 0000 0000 0000 0000 0000 0000
000000a0: 0000 0000 0000 0000 0000 0000 0000 0000
000000b0: 0000 0000 0000 0000 0000 0000 0000 0000
000000c0: 0000 0000 0000 0000 0000 0000 0000 0000
000000d0: 0000 0000 0000 0000 0000 0000 0000 0000
000000e0: 0000 0000 0000 0000 0000 0000 0000 0000
000000f0: 0000 0000 0000 0000 0000 0000 0000 0000
0.0 0.0 0.0 0.0 0.0 0.0 0.0 0.0
0.0 0.0 0.0 0.0 0.0 0.0 0.0 0.0
0.0 0.0 0.0 0.0 0.0 0.0 0.0 0.0
0.0 0.0 0.0 0.0 0.0 0.0 0.0 0.0
0.0 0.0 0.0 0.0 0.0 0.0 0.0 0.0
0.0 0.0 0.0 0.0 0.0 0.0 0.0 0.0
0.0 0.0 0.0 0.0 0.0 0.0 0.0 0.0
0.0 0.0 0.0 0.0 0.0 0.0 0.0 0.0

net.layer1.1.running_var f4 [64]
00000000: 0000 803f 0000 803f 0000 803f 0000 803f
00000010: 0000 803f 0000 803f 0000 803f 0000 803f
00000020: 0000 803f 0000 803f 0000 803f 0000 803f
00000030: 0000 803f 0000 803f 0000 803f 0000 803f
00000040: 0000 803f 0000 803f 0000 803f 0000 803f
00000050: 0000 803f 0000 803f 0000 803f 0000 803f
00000060: 0000 803f 0000 803f 0000 803f 0000 803f
00000070: 0000 803f 0000 803f 0000 803f 0000 803f
00000080: 0000 803f 0000 803f 0000 803f 0000 803f
00000090: 0000 803f 0000 803f 0000 803f 0000 803f
000000a0: 0000 803f 0000 803f 0000 803f 0000 803f
000000b0: 0000 803f 0000 803f 0000 803f 0000 803f
000000c0: 0000 803f 0000 803f 0000 803f 0000 803f
000000d0: 0000 803f 0000 803f 0000 803f 0000 803f
000000e0: 0000 803f 0000 803f 0000 803f 0000 803f
000000f0: 0000 803f 0000 803f 0000 803f 0000 803f
1.0 1.0 1.0 1.0 1.0 1.0 1.0 1.0
1.0 1.0 1.0 1.0 1.0 1.0 1.0 1.0
1.0 1.0 1.0 1.0 1.0 1.0 1.0 1.0
1.0 1.0 1.0 1.0 1.0 1.0 1.0 1.0
1.0 1.0 1.0 1.0 1.0 1.0 1.0 1.0
1.0 1.0 1.0 1.0 1.0 1.0 1.0 1.0
1.0 1.0 1.0 1.0 1.0 1.0 1.0 1.0
1.0 1.0 1.0 1.0 1.0 1.0 1.0 1.0

net.layer2.0.weight f4 [64, 64, 3, 3]
00000000: 4224 b7bd a836 42bd e9cf d03c b0ae bbbd
00000010: 59c3 b2bd 5a38 cc3c 8beb 573d 80cf 08bd
00000020: 9204 92bd 2788 44bd 7e34 a0bd 807b 94bd
00000030: 95ba 30bd e779 cabb 1c61 f7bc b87f 593d
00000040: 77d7 ca3d ec97 2dbd c355 35bd 3c77 ce3d
00000050: 8350 a63d f70c 423d 41c3 72be 675a 213e
00000060: b23d 41bd f67d 503e eede 73bd 86e2 173d
00000070: b264 66bd 5d63 0e3d 7284 6bbc c71d 5ebd
00000080: 45a5 89bd 2fb5 653d dcf7 593c 15d9 ed3c
00000090: 9324 eabd 1027 453e 824b 06be 9465 c8bd
000000a0: 138e f8bc 208d 533d 0f54 9b3d edde 53be
000000b0: 0937 0d3e abd3 583d 4216 c2bb 8ba7 423c
000000c0: 17e8 2abd 2ae5 c43c ae4a 023d 74b1 d5bd
000000d0: 6d0a c7bd 914c 93bc c218 bdbd 917b 3bbb
000000e0: 84b6 4fbd e2dc 75bd b8f3 cfbd dd72 cbbd
000000f0: 0d63 273c 8a86 a7bd a437 e9bc 11f6 923d
00000100: b6bc 11bd 2b9b 8c3d fb6f 83be c82f d63d
00000110: 0eca c4bd a84b bb3c d721 9cbd 21d8 173e
00000120: d1d8 91bc 982f e93c 798d 563d 94ec 1cbc
00000130: 257c cc3c 7edc 5dbd fae7 ae3d 9148 ef3b
00000140: 06ba 2dbd 8cbb f43d b2f4 7bbe 1f94 2c3e
00000150: a56a 1fbe 7e84 263e 1b53 2dbe 13fc e13c
00000160: a499 cf3d f57f 403d dce6 8fbc 8fa5 a1bd
00000170: 9fc5 c83c 34cb 84bd 7b8e 99bc 8c8a d0bd
00000180: 7b4a 79bd 3d92 d63c 914b bdbc 6523 67bd
00000190: 864b 1b3e b9af 47be fa82 e93c 3fab a1bd
000001a0: 0b4a ae3d c9dd 443d 0528 52be bc76 0e3e
000001b0: ee38 76bd f7b9 9e3c f206 b4bd 9bd2 77bd
000001c0: 7eb1 09bd ab40 8bbd 1401 a13c e846 da3a
000001d0: 23d3 833b de48 27bc 0bbb 56bd b474 a1bd
000001e0: 2fef 99bd 873e 273d 7b6d fabd 8adf b7bd
000001f0: 853b b23c e3c9 1ebe bd0d ca3d 6091 de3c
00000200: 3ae6 b53d 6b84 f83d 35bd f8bd a939 b83c
00000210: 5dab fdb9 0f26 093e 1400 883c 1f3e 62bc
00000220: 8283 703d 38a3 c0bd 5710 8cbc abad d03c
00000230: 2877 42bd 1abb 00bc 7476 31be 37d9 963d
00000240: ebef 02bd 7635 133e 0d8b 1bbe 2e54 9f3c
00000250: 7785 d1bc fd01 7d3c a07a d13d 3f23 26be
00000260: 521a f53d 9254 00be ed2a 183c 7158 193d
00000270: f190 03bd 7b5d 10bd b2f3 953c cb4d 7cbc
00000280: 2f47 403d c6bb aebc a337 b63c 609b 10bd
00000290: 4972 94bd 9b89 463d e5c1 4a3d b2a7 7bbd
000002a0: 10e4 a93d b08a 433c 7bc2 d93b 5fba 953c
000002b0: aa27 11bd 6844 4a3c 21e8 81bd 11e6 e9bd
000002c0: 9826 143d 3dae 27bd a261 b43a ce61 a0bd
000002d0: f9b5 ca3c 07fd c7bd 8e0d eb3c d741 883d
000002e0: cdc5 87bd 0740 12bd c4b0 a6bc e56f a13c
000002f0: 522e 4bbd 29b3 1dbd 0424 54bd 6b2e b43b
00000300: 8a80 37bb 3787 5ebc 3a8d 773d c817 473d
00000310: 11c4 9c3d bfa1 4e3d 4bd3 39bd df89 aebd
00000320: a4a2 6fbd 1062 26bd c6f5 9bbd 2195 c1bd
00000330: 115b 273d ac0a 7cbd 0c4d 413d ec39 43bd
00000340: 00ed 613b 55d8 a7bd 4629 3fbd 1078 03be
00000350: 936b 8bbd b601 e23d 1138 04be 3ad9 45bd
00000360: cbea cc3d 8c5e 1dbd 59dc fd3d 350a a8b8
00000370: 0145 853d e282 a6bb 17df 13bd 30e0 34bc
00000380: 8a4b 35bd 42de a53a ebb8 a2bc 6c66 c03c
00000390: 5988 233d 9ba6 3dbd bcb7 3c3c ec3a 8ebd
000003a0: d966 193c 8726 67bc 68b6 7e39 4308 9eba
000003b0: 99b4 c93c 7485 0fbe 9c3a aa3d e4fc 8bbd
000003c0: 4aa7 47bb 7533 07bc 1a16 b43b f879 09bc
000003d0: 7bd3 463d 53d7 04be e273 46bd 1608 48bc
000003e0: 3c24 3dbd f44d 8d3c eee4 14bd 4334 8fbb
000003f0: 2eb6 f9bc f95d db3c ef60 b6bc ed8c 68bd
-0.089424625 -0.047415406 0.025489764 -0.09164178 -0.08728666 0.024929214 0.052714866 -0.033401012
-0.07129778 -0.047981407 -0.07822512 -0.07250118 -0.04314669 -0.0061790827 -0.030197673 0.053100318
0.09904378 -0.042381212 -0.044271242 0.10081336 0.08120825 0.047375645 -0.23707296 0.15757142
-0.047177978 0.2036055 -0.059538774 0.037081264 -0.056248374 0.03476273 -0.014374839 -0.054227617
-0.06720976 0.056080993 0.013303723 0.029034177 -0.11432757 0.19253182 -0.13114741 -0.097849995
-0.030341184 0.05164826 0.07584392 -0.20690508 0.13790525 0.052936237 -0.0059230635 0.011880766
-0.041725244 0.024035055 0.0318095 -0.10434237 -0.097187854 -0.017980846 -0.09233238 -0.0028607587
-0.05071117 -0.060025103 -0.101539075 -0.09934018 0.010216487 -0.08179958 -0.028468914 0.0717584
-0.03558036 0.068655334 -0.25671372 0.10458332 -0.096088514 0.022863224 -0.07623642 0.1482854
-0.017803581 0.028465077 0.052381013 -0.009577889 0.02496154 -0.054165356 0.0854034 0.0073023518
-0.042413734 0.11949834 -0.24605063 0.16853379 -0.15568025 0.1626148 -0.16926233 0.027586019
0.101367265 0.04699703 -0.017566137 -0.07892906 0.024508296 -0.064840704 -0.018744698 -0.10182676
-0.060862046 0.026192779 -0.023107322 -0.05643024 0.15165529 -0.19500627 0.028504837 -0.07893991
0.08510216 0.048063073 -0.20523079 0.13912481 -0.060112886 0.019375784 -0.08790387 -0.060503583
-0.033616535 -0.06799444 0.019653834 0.0016653212 0.004022972 -0.010210244 -0.05242447 -0.078835875
-0.07516324 0.040831115 -0.12227913 -0.089781836 0.021756897 -0.15506701 0.098659016 0.02716893
0.08881803 0.12134632 -0.121454634 0.022488432 -0.00048383596 0.13393424 0.0166016 -0.013808756
0.058719166 -0.094061315 -0.017097635 0.025473436 -0.047476918 -0.0078571085 -0.17330343 0.07365649
-0.031967085 0.14375862 -0.15189762 0.01944932 -0.025576336 0.015442369 0.10228467 -0.16224383
0.11967911 -0.12532261 0.009287578 0.03743786 -0.03212065 -0.0352454 0.01830468 -0.015399407
0.046942886 -0.021329772 0.022243327 -0.035304427 -0.07248361 0.048471075 0.04950132 -0.061439224
0.082954526 0.011934921 0.0066454983 0.018277345 -0.035438217 0.012345411 -0.06343103 -0.11420835
0.03616962 -0.04093765 0.0013762007 -0.07831155 0.024744974 -0.09765058 0.028692987 0.06653183
-0.066295244 -0.035705592 -0.02034796 0.019706676 -0.04960472 -0.03850094 -0.05179216 0.0054986975
-0.00280002 -0.013582042 0.06043742 0.048606664 0.07654584 0.05044722 -0.04536752 -0.085223906
-0.058504716 -0.040620863 -0.07615237 -0.09452272 0.040858332 -0.061533615 0.04719262 -0.04766266
0.0034473538 -0.08195559 -0.04667022 -0.12838769 -0.068076275 0.110354826 -0.12912013 -0.048302867
0.10005721 -0.038420245 0.123955436 -8.0127655e-05 0.06507302 -0.0050815204 -0.036101427 -0.011039779
-0.044261493 0.0012654739 -0.019863566 0.023486339 0.039924953 -0.046301465 0.011518415 -0.06944832
0.0093629 -0.014108307 0.00024291279 -0.0012056906 0.024622248 -0.14015752 0.0831196 -0.068353444
-0.0030464702 -0.008252014 0.005495799 -0.008390896 0.048541527 -0.12972765 -0.04845036 -0.012208959
-0.046177134 0.017249085 -0.036351137 -0.0043702438 -0.030482378 0.026778208 -0.022263018 -0.056775022

net.layer2.0.bias f4 [64]
00000000: 3010 3b3b 880f f6bc ca9c 1c3d 5350 a13c
00000010: 1509 25bc c821 bebc a470 163c 5f9b d9ba
00000020: 4e22 83bc f022 e0bc 640a 1ebc 8a97 97bb
00000030: 86c5 a6bc 388c 813c 0145 04bd bcfe d33c
00000040: 843a 6f3c 8791 163d 0383 a33b e0e6 093d
00000050: d289 12bc 78c7 eb3c e623 c73c 29ed 32bb
00000060: bf72 38bb 89b5 943b 786e c6bc 8417 3dbc
00000070: f332 cc3c 213d 1bbd a8a4 183d 29dc e5bc
00000080: da2d bf3c 667f 6cbc dba5 c5bc e199 053d
00000090: 5e09 c0bc 74d7 903c 9dee f3bc 46a2 39bb
000000a0: 1674 18bd 370f 953c d1ae f6bc dda4 04bd
000000b0: 7791 dfb9 d0cd 623c 4acb ebbc 03ab e23c
000000c0: 46bc f6ba c2f4 90bb b575 5cbb 16a6 28bc
000000d0: 22e4 e3bb b236 ce35 ab74 99bc 710f ff3c
000000e0: e78f 6bbc b86c 1d3d 4637 213d 6207 a6bc
000000f0: dc34 28bd 457f f0ba d342 d93c 3848 113d
0.0028543584 -0.030036703 0.038235463 0.019691622 -0.010072966 -0.023209468 0.009182129 -0.001660209
-0.016007569 -0.02736041 -0.009646032 -0.004626219 -0.020357858 0.015813932 -0.03229237 0.025878303
0.014601354 0.03675988 0.004989983 0.033667445 -0.008943992 0.028781638 0.02430911 -0.0027302003
-0.0028144566 0.0045382422 -0.024222597 -0.011541251 0.024926638 -0.037900094 0.037266403 -0.028059082
0.023337293 -0.014434671 -0.024126938 0.032617453 -0.023441967 0.017680861 -0.029776866 -0.0028325482
-0.037220083 0.018195732 -0.030112656 -0.03238379 -0.00042642254 0.013843015 -0.02878346 0.027669435
-0.001882442 -0.0044237087 -0.0033639495 -0.010293504 -0.006954686 1.5364114e-06 -0.01873239 0.031135293
-0.014377571 0.03843376 0.039359353 -0.020267192 -0.041066036 -0.0018348476 0.026521122 0.035469264

net.layer2.1.weight f4 [64]
00000000: 7655 873f 6796 7a3f 97c7 6e3f 2dad 8a3f
00000010: 5856 803f b70f 893f 21e4 613f 9b83 7c3f
00000020: 56d3 783f 2b87 7e3f 7609 833f d750 8a3f
00000030: 184f 763f 9a38 863f 7b25 6d3f 5cd4 6d3f
00000040: a98a 853f 20f3 793f 5295 703f e794 9d3f
00000050: 5753 913f 1512 6e3f 43c4 803f 9a62 7d3f
00000060: fac6 4d3f d9b6 773f eda3 6f3f 7c20 853f
00000070: 0109 773f 261b 4f3f 869e 893f 9d72 803f
00000080: befa 893f d8f3 7e3f e175 843f 4d1a 7d3f
00000090: 9085 643f 8297 693f e896 6c3f 82d9 723f
000000a0: 1afd 7b3f 8b3c 7b3f a034 803f 0e51 6d3f
000000b0: c8b9 8e3f 5340 953f 7277 6a3f e3cb 833f
000000c0: dd62 873f 875e 983f ff01 683f 5dc7 813f
000000d0: 5f89 8b3f 4795 863f 0bcc 753f 364f 783f
000000e0: 302d 693f bd9a 8e3f 141e 6e3f e31d 853f
000000f0: 93a6 683f b75f 863f 3ecf 663f 2d3a 783f
1.0572956 0.97885746 0.932733 1.0834099 1.002635 1.0707921 0.8823872 0.98638314
0.97197473 0.99425 1.0237262 1.080592 0.9621444 1.0486023 0.92635316 0.9290216
1.0432941 0.97636604 0.93977845 1.2311066 1.1353558 0.9299634 1.0059894 0.9897858
0.8038174 0.9676338 0.93609506 1.0400538 0.96498114 0.809008 1.0751503 1.0034977
1.0779645 0.99590826 1.0348474 0.98868257 0.892663 0.9124681 0.92417765 0.9486314
0.9843308 0.98139256 1.001606 0.92701805 1.1150446 1.1660255 0.9158851 1.0296596
1.0577046 1.1903847 0.90628046 1.0138966 1.0901297 1.0514306 0.9601447 0.96995866
0.91084576 1.1140972 0.93014646 1.0399746 0.9087917 1.049796 0.90159976 0.9696377

net.layer2.1.bias f4 [64]
00000000: 7f62 2abd c4db 04be 0f13 cdbd 3ebc 343d
00000010: f8b9 34bd 269b 2bbd a525 26be 304c 00be
00000020: d793 00be 7612 31be 0279 b2be fa2f b43d
00000030: 8c02 07bb a508 023b 0e7b 07be 148b 21be
00000040: a1e7 e5bd 266b 0ebd e6b1 813e 298c 3abe
00000050: 963e 7fbe 348e b7bd d150 99be 8510 06be
00000060: fe6e 47be 6067 95bd 9a1f ec3c eaab eabc
00000070: ac02 7fbe 06a1 e9bd 0f50 14be cc2f 09bd
00000080: 9c4f 78be 0fdf 6abd 0f73 88be ce6b c5bd
00000090: 529e 78be d2f6 3dbe e0b7 e53c f8b5 2dbe
000000a0: ef26 8abd 3c15 a9bd 2de6 27be f62b debd
000000b0: 9bab 37be 3244 40be 438c 90be a8d6 d1bd
000000c0: 9e83 00be d85b 5fbe a24f 26be 7272 27be
000000d0: 472a 02be 5bec 3cbd fdf0 f3bd 9b88 82bd
000000e0: 8a54 6abd f560 4ebe 253f 95bd 752a 32be
000000f0: eb24 5c3e e3cb 2dbd bad5 c6bd ea81 15be
-0.04159784 -0.12974459 -0.10013401 0.044124834 -0.044122666 -0.041896008 -0.16225298 -0.12529063
-0.12556396 -0.17292199 -0.34857947 0.08798213 -0.0020600883 0.0019841578 -0.13230535 -0.1577571
-0.1122582 -0.034770153 0.25331038 -0.1821753 -0.24926218 -0.0896267 -0.2994447 -0.13092239
-0.19475934 -0.07295108 0.028823663 -0.028646428 -0.24903363 -0.11407666 -0.14483665 -0.03349285
-0.24249119 -0.05734163 -0.26650283 -0.09639703 -0.24279144 -0.18551186 0.02804178 -0.16963947
-0.06745707 -0.08256003 -0.16396399 -0.10848229 -0.17936556 -0.18776014 -0.2823201 -0.102460206
-0.12550208 -0.2181238 -0.16241315 -0.16352251 -0.1271144 -0.046123844 -0.11911199 -0.06373712
-0.05720953 -0.20154174 -0.072874345 -0.17399009 0.21498458 -0.04243077 -0.09708734 -0.1460034

net.layer2.1.running_mean f4 [64]
00000000: 0000 0000 0000 0000 0000 0000 0000 0000
00000010: 0000 0000 0000 0000 0000 0000 0000 0000
00000020: 0000 0000 0000 0000 0000 0000 0000 0000
00000030: 0000 0000 0000 0000 0000 0000 0000 0000
00000040: 0000 0000 0000 0000 0000 0000 0000 0000
00000050: 0000 0000 0000 0000 0000 0000 0000 0000
00000060: 0000 0000 0000 0000 0000 0000 0000 0000
00000070: 0000 0000 0000 0000 0000 0000 0000 0000
00000080: 0000 0000 0000 0000 0000 0000 0000 0000
00000090: 0000 0000 0000 0000 0000 0000 0000 0000
000000a0: 0000 0000 0000 0000 0000 0000 0000 0000
000000b0: 0000 0000 0000 0000 0000 0000 0000 0000
000000c0: 0000 0000 0000 0000 0000 0000 0000 0000
000000d0: 0000 0000 0000 0000 0000 0000 0000 0000
000000e0: 0000 0000 0000 0000 0000 0000 0000 0000
000000f0: 0000 0000 0000 0000 0000 0000 0000 0000
0.0 0.0 0.0 0.0 0.0 0.0 0.0 0.0
0.0 0.0 0.0 0.0 0.0 0.0 0.0 0.0
0.0 0.0 0.0 0.0 0.0 0.0 0.0 0.0
0.0 0.0 0.0 0.0 0.0 0.0 0.0 0.0
0.0 0.0 0.0 0.0 0.0 0.0 0.0 0.0
0.0 0.0 0.0 0.0 0.0 0.0 0.0 0.0
0.0 0.0 0.0 0.0 0.0 0.0 0.0 0.0
0.0 0.0 0.0 0.0 0.0 0.0 0.0 0.0

net.layer2.1.running_var f4 [64]
00000000: 0000 803f 0000 803f 0000 803f 0000 803f
00000010: 0000 803f 0000 803f 0000 803f 0000 803f
00000020: 0000 803f 0000 803f 0000 803f 0000 803f
00000030: 0000 803f 0000 803f 0000 803f 0000 803f
00000040: 0000 803f 0000 803f 0000 803f 0000 803f
00000050: 0000 803f 0000 803f 0000 803f 0000 803f
00000060: 0000 803f 0000 803f 0000 803f 0000 803f
00000070: 0000 803f 0000 803f 0000 803f 0000 803f
00000080: 0000 803f 0000 803f 0000 803f 0000 803f
00000090: 0000 803f 0000 803f 0000 803f 0000 803f
000000a0: 0000 803f 0000 803f 0000 803f 0000 803f
000000b0: 0000 803f 0000 803f 0000 803f 0000 803f
000000c0: 0000 803f 0000 803f 0000 803f 0000 803f
000000d0: 0000 803f 0000 803f 0000 803f 0000 803f
000000e0: 0000 803f 0000 803f 0000 803f 0000 803f
000000f0: 0000 803f 0000 803f 0000 803f 0000 803f
1.0 1.0 1.0 1.0 1.0 1.0 1.0 1.0
1.0 1.0 1.0 1.0 1.0 1.0 1.0 1.0
1.0 1.0 1.0 1.0 1.0 1.0 1.0 1.0
1.0 1.0 1.0 1.0 1.0 1.0 1.0 1.0
1.0 1.0 1.0 1.0 1.0 1.0 1.0 1.0
1.0 1.0 1.0 1.0 1.0 1.0 1.0 1.0
1.0 1.0 1.0 1.0 1.0 1.0 1.0 1.0
1.0 1.0 1.0 1.0 1.0 1.0 1.0 1.0

net.layer3.0.weight f4 [64, 64, 3, 3]
00000000: eef8 24bc 33a6 503d ea46 b7bd 5d61 ab3c
00000010: 4278 053c f519 9dbd eb41 9d3d 26b6 09bd
00000020: 850c 2cbd 8191 a2bd d17e e7bd 4b73 9bbd
00000030: a56a 04bc e04e a4bd b16b 81bd 3b4f c43d
00000040: 0653 5ebd a48e 503c 7ba5 e2bc 7572 4abd
00000050: be7b 33bd 9983 b7bc 045b 843d c381 66bd
00000060: eb0c 8cbc 996c f1bc 43b7 373d a200 36bd
00000070: 2284 5abd 5ccd a2bd e1af d03d 0e06 a1bd
00000080: ac25 c9bd 7bd6 a63d 2e8c 77bb f943 5a3c
00000090: a337 80bb 0a2d 3c3d 664f f43c 43b9 e13c
000000a0: 48e0 103d d21c 42bb 49dc c6bd 79c6 d3bd
000000b0: 276a 0bbe 100c 1b3d 1e31 d9bd bda0 cfbb
000000c0: 0ef6 593d bd64 343c 627c 9c3d d8c0 d43d
000000d0: 3db2 283d f1c3 1d3d bf10 443d d1db 4ebd
000000e0: ec8a 103d 1fc3 e9bc d614 953d 0172 7cbd
000000f0: 5a0f 80bd 625d cabd 4dbb a5bd a2be c8bc
00000100: 8cba a2bc 7ad5 5cbc 8707 b9bd a78a b8bd
00000110: 67f3 fabb 044e 05be f098 0abe eae6 5ebd
00000120: 71db af3d efd1 4cbe 060b cbbd c714 063d
00000130: 27ed d2bd 2819 39bd 1dae ce3d f4c2 0a3d
00000140: aa5a fd3c eb06 e6bd 214b 753c ecc1 cdbd
00000150: 47ce 4dbd 11b6 1ebd 3238 17bd 14af 81bd
00000160: fdb4 51bd e045 0bbe 40ef debd 561f 06bc
00000170: dc29 d4bd 955d b3bd 057f 09be b0a9 66bd
00000180: 41fd 03be e6da 32bd ad86 29bd 7b3b eb3d
00000190: 2549 103c c81c b7bd 83ec ef3d 9bfe b0bd
000001a0: 0401 9ebd 4a23 123d ad58 993d 3dea 07bd
000001b0: fd7f bebd a398 32be f223 d4bd 938e f43b
000001c0: 15d4 ac3c 7737 98bc 83df 9c3d a894 e73d
000001d0: fe29 033e 0f6d 8c3c 29c5 ec3d 9e0e 9f3d
000001e0: 5d4b 2dbd e154 94bd 039e 42bc 235b 99bd
000001f0: 8b6e 9dbd 93dd 0bbe f6a6 6c3d 035b 3fbe
00000200: c54f 6fbe 8a4d 443d 1a96 88bd d12b 9fbd
00000210: 0ce6 d83c 9bf2 bf3c d90d 0e3c 2236 013d
00000220: 6ae3 dc3d 2287 6abc 44dc 703d 34b9 59bd
00000230: 7d3e b3bc ac19 61be b0f7 ecbd 38e0 bebd
00000240: 9cc1 c3bb ed1b 57bd d73d 82bd 0a2d 0abc
00000250: cbea 92bc 1861 96bd e78b e0bc 5ac6 a9bc
00000260: 8c17 ccbc 5983 743d e63c 263e cb29 4e3d
00000270: 8c7d 1e3e d3fc b03d 6c0e 533e d3a0 d73d
00000280: 1e30 cb3d 82b8 b03c eaa7 a0bc 6a22 41bd
00000290: cf6b 8ebd 117d 01be 73dd bbbd 8217 b4bd
000002a0: 95f7 78bd 31d8 40bd 3c6b 043c 297f b03d
000002b0: bb63 d6bd 6d8c 41bd 02d0 c93c d8de eabb
000002c0: 9702 a33d 7e52 b8bd 22ad e1bc 3cb4 213e
000002d0: 878f a63e 2f1a 013e 1199 6d3d caa7 2e3e
000002e0: ba90 7c3d 7f4b 203e 4c0f e63d 9eef 2d3e
000002f0: d410 d93d 726e 71bd 3ca9 36bd ee68 9bbd
00000300: 44b4 0cbd 09e5 34bb b82e f23c 4298 0ebd
00000310: 33a4 7c3c e584 0ebd 3095 533d ee55 64bc
00000320: b1d2 f5bd 60ed 503d e2da e03d c097 adbd
00000330: 7f5e 693c e40b 95bc 7273 ddbc 4273 093e
00000340: 21e1 083e 7d01 443e 18ce 4f3d a010 f33d
00000350: adfc 823d 07d2 a6bd 6413 9e3c b022 e2bc
00000360: 8158 a0bd 298f c63d 21d5 eb3d 2f08 1cbd
00000370: cb60 60bc 55dc 1a3d b797 d6bd c9db dbbd
00000380: e489 32bd 38f0 8e3c 95fc 82bd eaf4 dabc
00000390: 1633 143c 74c7 f1bd b562 eebd 17d7 fe3b
000003a0: f390 ddbc 2af6 3c3c 3582 05bd 3091 99bd
000003b0: 56df 803d 864d b0bd 2408 ce3c 334c 2cbd
000003c0: ad0f f3bc 64ee 253d 0dd1 07bb 2425 ac3d
000003d0: 1f26 0ebb 6d38 e93d 1b40 f43d 328d ba3d
000003e0: e0a9 003e 1a8b 1f3d d88d ba3d 4157 b13d
000003f0: 6778 3d3d 11ec 34bd ec22 e13a 436d 86bd
-0.010069115 0.05093975 -0.08949073 0.02092045 0.0081463475 -0.076709665 0.076785885 -0.033620976
-0.042004127 -0.07937909 -0.11303485 -0.0759035 -0.008082067 -0.08022857 -0.06319369 0.095854245
-0.054278396 0.012729321 -0.027666798 -0.04942556 -0.04381918 -0.022401618 0.06462672 -0.056276094
-0.017096004 -0.029470729 0.044852506 -0.044434197 -0.053348668 -0.079493254 0.10189796 -0.07862483
-0.098216385 0.08146378 -0.0037772763 0.01332187 -0.0039128824 0.04594139 0.029823016 0.02755416
0.03537014 -0.002961923 -0.09709985 -0.1034059 -0.13614713 0.0378533 -0.106050715 -0.0063363
0.05321317 0.011010346 0.07640912 0.103883445 0.041185606 0.038516942 0.047867533 -0.050502602
0.035288736 -0.028535424 0.07279365 -0.06163216 -0.06252928 -0.098810926 -0.080923654 -0.024504963
-0.019864343 -0.013478631 -0.09034639 -0.09010821 -0.0076584104 -0.13018042 -0.13534904 -0.054419436
0.08586777 -0.20001958 -0.09914212 0.03273466 -0.102991395 -0.045190006 0.10091803 0.033877328
0.030927021 -0.11231788 0.014971525 -0.10046753 -0.05024555 -0.03874785 -0.036918826 -0.063322216
-0.051197995 -0.13600874 -0.10885477 -0.008186182 -0.103595465 -0.08758084 -0.1342736 -0.05631417
-0.12889577 -0.04366579 -0.041388202 0.114859544 0.0088065015 -0.089410365 0.11715033 -0.08642312
-0.077150375 0.035678186 0.07487617 -0.03318237 -0.093017556 -0.17441039 -0.103584185 0.0074632852
0.021097222 -0.018581135 0.07659819 0.11307651 0.12808987 0.017141847 0.11561043 0.0776646
-0.0423082 -0.07242752 -0.011878493 -0.07488086 -0.076871 -0.13658743 0.057776414 -0.18687062
-0.23370273 0.04792551 -0.066692546 -0.07772029 0.026476882 0.023431113 0.008670294 0.031545766
0.10785563 -0.014314445 0.05880381 -0.05315514 -0.021880383 -0.2198245 -0.1157068 -0.0932011
-0.005974008 -0.052516866 -0.06359451 -0.00843359 -0.017934224 -0.07342738 -0.02741046 -0.020724464
-0.024913572 0.059695575 0.16234168 0.050332826 0.1547758 0.086419724 0.2061097 0.10528722
0.09921287 0.021572355 -0.019611318 -0.04715196 -0.069541566 -0.12645365 -0.091730975 -0.08793546
-0.060782988 -0.047081176 0.008082207 0.08618004 -0.10468241 -0.04725306 0.024635319 -0.0071676783
0.07959478 -0.09000109 -0.027548376 0.1579141 0.32531378 0.12607644 0.058007304 0.17056194
0.06166146 0.156538 0.112333864 0.16985938 0.10598913 -0.05894322 -0.04459499 -0.07588373
-0.034351602 -0.0027602336 0.029563293 -0.034813173 0.0154200075 -0.034794707 0.05165595 -0.013936503
-0.12003077 0.05100763 0.109792486 -0.0847621 0.014243721 -0.018194146 -0.027032588 0.13422874
0.1336713 0.19141193 0.050733656 0.11868405 0.0639585 -0.08145528 0.019296356 -0.02760443
-0.07829381 0.096952744 0.115152605 -0.038093742 -0.013694952 0.03780778 -0.10478156 -0.1073528
-0.043588534 0.01744853 -0.063958324 -0.026728112 0.009045383 -0.11805621 -0.116399206 0.0077771056
-0.027046656 0.011533299 -0.03259488 -0.074983954 0.06292598 -0.086085364 0.025150366 -0.042064857
-0.02967056 0.04051055 -0.002072397 0.084055215 -0.0021690202 0.113877155 0.1192629 0.09108962
0.12564802 0.038951017 0.09109086 0.086592205 0.046257403 -0.044170443 0.0017176545 -0.06563809

net.layer3.0.bias f4 [64]
00000000: a11f 6a3b 2f3b e8bb 6f99 8abc 5325 0dbd
00000010: ec7e f3bb cb36 0dbd b263 343d 76e5 173c
00000020: 4ff1 fabc 4f3c 85bc 9442 a0bc baa2 a73c
00000030: 42ee a5bc c83c 7abc 21a7 e0bc a6fc 253d
00000040: 84ba 013b 7a72 8d3c cfc5 de3c 5153 cebc
00000050: 78ac 173d 8065 1c3d 98da 9e3c c2a7 48bc
00000060: fc96 513a 7edb f6bc b89d cfbc b06d cb3c
00000070: 8ca2 f3bc 043a d83b 96a8 1dbd dfeb a038
00000080: 22d6 b9bc dc78 3fbc fd97 a0bb 75ed 193d
00000090: 3e77 243d 0c81 1bba d9b2 a63c f4fd fcbc
000000a0: 4f15 193c 9c87 583c 08da 913c ed33 113d
000000b0: 8f98 8cba 19c2 183d f46d bfbc d96c 3c3c
000000c0: cb1c 49bc f546 253d 439e 523c eb59 1d3d
000000d0: a3ac 13bd b4b8 053d 1a0c 003d 18ca 0bbc
000000e0: e51a 0f3c 9aae ec3c 0d06 26bd d374 90bc
000000f0: fd5b 103c 689d 883c 6dee 8fbc 90a2 eebc
0.0035724419 -0.0070871334 -0.016918866 -0.034459423 -0.0074309018 -0.034476083 0.04404039 0.009271016
-0.030632643 -0.016264109 -0.019562997 0.020463336 -0.020255212 -0.01527328 -0.027423443 0.040524147
0.001979501 0.0172665 0.027193932 -0.025186213 0.037029713 0.038182735 0.019391343 -0.012247028
0.0007995216 -0.030133959 -0.02534376 0.024832577 -0.029740594 0.006598713 -0.038490854 7.673329e-05
-0.022685114 -0.01168653 -0.004900931 0.037579972 0.04015278 -0.000593201 0.020348953 -0.030882813
0.009343459 0.013215926 0.01780416 0.03544991 -0.0010726618 0.03729448 -0.02336786 0.011500561
-0.012274931 0.040350873 0.012855115 0.03841583 -0.03605331 0.03264685 0.03126154 -0.00853207
0.0087344395 0.02889185 -0.040533114 -0.017633831 0.008810994 0.01667662 -0.017569745 -0.02913025

net.layer3.1.weight f4 [64]
00000000: 3bae 983f 42a5 783f 3130 6b3f b24d 823f
00000010: db58 893f d5a3 6f3f ea6b 7c3f 707a 6c3f
00000020: 70dd 763f b839 5d3f a3ee 773f 1b8b 6e3f
00000030: da38 7f3f b8b0 7c3f 1b3b 7c3f 53e0 583f
00000040: ffa6 723f e91c 803f be5f 833f eb46 843f
00000050: 49ea 823f 0f9a 6f3f 4a7c a23f ff75 813f
00000060: 8f57 813f 8ac2 623f 701f 803f 0fc8 733f
00000070: abe4 933f 7e09 713f 6c6c 6f3f c2e5 763f
00000080: 2bed 823f f6d4 6a3f bf2f 833f 4e3c 723f
00000090: 0f7d 773f e345 773f 2052 833f 607a 813f
000000a0: ceed 893f 15b2 5c3f 0f7b 783f 9c92 7a3f
000000b0: 210d 8c3f 6266 763f d736 813f 270e 853f
000000c0: 4b91 6c3f d201 693f 3f7d 853f 2c38 733f
000000d0: 1676 793f c123 723f 4a9c 6d3f 4d00 983f
000000e0: 7f73 773f 6ae5 803f 7704 963f 462d 753f
000000f0: a3de 7f3f 5e7f 7e3f 7412 793f a999 7c3f
1.1928171 0.97127163 0.9187041 1.0179961 1.0730242 0.9360936 0.98602164 0.92374325
0.96431637 0.86416197 0.96848506 0.9318101 0.99696124 0.9870715 0.9852769 0.8471729
0.94786066 1.0008823 1.0263593 1.0334142 1.0227748 0.9359445 1.269418 1.0114135
1.0104846 0.88578093 1.0009594 0.9522714 1.1554159 0.9415511 0.93524814 0.9644433
1.0228628 0.917312 1.0248946 0.9462327 0.966752 0.96591014 1.0259438 1.0115471
1.0775697 0.8620923 0.9706277 0.9787996 1.0941507 0.96249974 1.0094861 1.0394944
0.924092 0.910184 1.0428847 0.95007586 0.9744581 0.94585806 0.92816603 1.1875092
0.9666061 1.0070012 1.1720113 0.95772207 0.9994909 0.99413097 0.9729378 0.98671967

net.layer3.1.bias f4 [64]
00000000: a4e1 14be 037d f3be 052e 2dbb 520c a7bd
00000010: 7100 ddbe e247 9bbe 7ca6 34be e981 72bd
00000020: 0120 41be 4747 21be 4b14 a3bd 4ba7 e5bd
00000030: 5ef2 0cbd ea7b 15be b19a 18be 9c32 36bc
00000040: 6fb8 b6bd 6723 9cbc 4380 54bd 12eb 6dbe
00000050: 1e39 6cbd 73cd f1bd 215e 95bd 339c 68be
00000060: 9bb8 39be d63f 27be f66f 3dbe 3b47 263c
00000070: 944f 1e3c b0ba 1ebd 2d53 4abd 02ab 72be
00000080: a609 86be bba1 82bd c77c 6f3d f6bc a4bc
00000090: bd38 95be 12dd b1bc b371 90be 44b4 61bd
000000a0: 0aa0 64be 3023 25ba 2378 c9bd 4f19 373d
000000b0: 5f49 50be bf3a c33c ddf8 8d3c df6e d2bd
000000c0: 0e27 303c 83e7 05be 3264 3cbe 7fbb 0fbe
000000d0: 2bc2 83be 70d2 86bd b9fd 54bd 022f fabe
000000e0: d31c c13b a2d9 aabd 7fb6 3cbe 4cf2 4c3d
000000f0: 2a95 69bd fdbc 833c 73f9 63be d4c6 7dbd
-0.145392 -0.47556314 -0.0026425135 -0.08156647 -0.431644 -0.3032828 -0.17641634 -0.059205923
-0.18859865 -0.15749846 -0.07962855 -0.11213549 -0.034410827 -0.1459805 -0.1490276 -0.011120465
-0.08921897 -0.01905985 -0.051880132 -0.23234203 -0.05767166 -0.118067645 -0.07293344 -0.22715835
-0.18136828 -0.16332945 -0.18499741 0.010148819 0.009662528 -0.038752258 -0.04939573 -0.23698047
-0.26179236 -0.06378504 0.058468606 -0.020109635 -0.2914485 -0.02171186 -0.28211746 -0.055103555
-0.22326675 -0.0006299494 -0.098373674 0.04470187 -0.20340489 0.023831723 0.017330581 -0.10275053
0.010751499 -0.13076596 -0.18397596 -0.14036368 -0.25734076 -0.065831065 -0.05199978 -0.4886399
0.0058933287 -0.083422914 -0.18428992 0.05003576 -0.05702702 0.016081328 -0.22263126 -0.061957195

net.layer3.1.running_mean f4 [64]
00000000: 0000 0000 0000 0000 0000 0000 0000 0000
00000010: 0000 0000 0000 0000 0000 0000 0000 0000
00000020: 0000 0000 0000 0000 0000 0000 0000 0000
00000030: 0000 0000 0000 0000 0000 0000 0000 0000
00000040: 0000 0000 0000 0000 0000 0000 0000 0000
00000050: 0000 0000 0000 0000 0000 0000 0000 0000
00000060: 0000 0000 0000 0000 0000 0000 0000 0000
00000070: 0000 0000 0000 0000 0000 0000 0000 0000
00000080: 0000 0000 0000 0000 0000 0000 0000 0000
00000090: 0000 0000 0000 0000 0000 0000 0000 0000
000000a0: 0000 0000 0000 0000 0000 0000 0000 0000
000000b0: 0000 0000 0000 0000 0000 0000 0000 0000
000000c0: 0000 0000 0000 0000 0000 0000 0000 0000
000000d0: 0000 0000 0000 0000 0000 0000 0000 0000
000000e0: 0000 0000 0000 0000 0000 0000 0000 0000
000000f0: 0000 0000 0000 0000 0000 0000 0000 0000
0.0 0.0 0.0 0.0 0.0 0.0 0.0 0.0
0.0 0.0 0.0 0.0 0.0 0.0 0.0 0.0
0.0 0.0 0.0 0.0 0.0 0.0 0.0 0.0
0.0 0.0 0.0 0.0 0.0 0.0 0.0 0.0
0.0 0.0 0.0 0.0 0.0 0.0 0.0 0.0
0.0 0.0 0.0 0.0 0.0 0.0 0.0 0.0
0.0 0.0 0.0 0.0 0.0 0.0 0.0 0.0
0.0 0.0 0.0 0.0 0.0 0.0 0.0 0.0

net.layer3.1.running_var f4 [64]
00000000: 0000 803f 0000 803f 0000 803f 0000 803f
00000010: 0000 803f 0000 803f 0000 803f 0000 803f
00000020: 0000 803f 0000 803f 0000 803f 0000 803f
00000030: 0000 803f 0000 803f 0000 803f 0000 803f
00000040: 0000 803f 0000 803f 0000 803f 0000 803f
00000050: 0000 803f 0000 803f 0000 803f 0000 803f
00000060: 0000 803f 0000 803f 0000 803f 0000 803f
00000070: 0000 803f 0000 803f 0000 803f 0000 803f
00000080: 0000 803f 0000 803f 0000 803f 0000 803f
00000090: 0000 803f 0000 803f 0000 803f 0000 803f
000000a0: 0000 803f 0000 803f 0000 803f 0000 803f
000000b0: 0000 803f 0000 803f 0000 803f 0000 803f
000000c0: 0000 803f 0000 803f 0000 803f 0000 803f
000000d0: 0000 803f 0000 803f 0000 803f 0000 803f
000000e0: 0000 803f 0000 803f 0000 803f 0000 803f
000000f0: 0000 803f 0000 803f 0000 803f 0000 803f
1.0 1.0 1.0 1.0 1.0 1.0 1.0 1.0
1.0 1.0 1.0 1.0 1.0 1.0 1.0 1.0
1.0 1.0 1.0 1.0 1.0 1.0 1.0 1.0
1.0 1.0 1.0 1.0 1.0 1.0 1.0 1.0
1.0 1.0 1.0 1.0 1.0 1.0 1.0 1.0
1.0 1.0 1.0 1.0 1.0 1.0 1.0 1.0
1.0 1.0 1.0 1.0 1.0 1.0 1.0 1.0
1.0 1.0 1.0 1.0 1.0 1.0 1.0 1.0

net.layer4.0.weight f4 [64, 64, 3, 3]
00000000: 944d dc3d 7868 883d 2473 c2bd ab21 bc3d
00000010: 0ded d33c d4d1 e33b 3851 b4bc 7b7f 81ba
00000020: 5f62 cebd fe75 55bd 3ebd a53c 824a 79bd
00000030: ef73 94bc f6d2 0fbc fa92 9cbd 1ac8 8fbd
00000040: 2d83 63bd 032e b0bd b163 a0bd 141b 2fbd
00000050: a06a 7cbd 2d19 54bd 9416 d0bc 81cd 31bd
00000060: e19d 1fbe 4d46 91bd 7735 1dbe 02cb dfbd
00000070: 6ed9 17be e85b e1bd 9c2c a3bd 16ce 72bd
00000080: 781d 12bc afd3 c1bd a1e6 b8bd a650 51bd
00000090: 0a1e 8c3a 062e b1bd 946c a7bc 3cf4 8ebc
000000a0: ac2a a8bd c65c ac3c b794 1f3d 41ad 8bbd
000000b0: dc1f 733d cb69 c43c 75cb 953d 6130 063c
000000c0: e354 9c3d c5a0 3d3c a554 7a3d ec05 16bc
000000d0: 6b12 973d 7be1 c83c ed15 13bd 2df2 e6bd
000000e0: c7d8 95bd 00fa 54bc 0f14 25bc 2bdb 80bb
000000f0: f03b f1bd 76fc afbd 06c9 47bd ac56 a13d
00000100: 6e21 ab3a 741f 37bd 3dc1 c33c 8fc9 b2bc
00000110: 5297 2cbd ff46 de3c 9eae 3f3d 1d4d c7bc
00000120: 9780 d33c a815 91bc 34ca 5e3d 8c79 0d3d
00000130: 2915 e7bd f87c 163a b38f fdbd 4f0b 5abd
00000140: 222c 733c 56bd 00bd 9693 25bd ac60 45bc
00000150: bcda 13bd 977c 92bd 0096 fbbb 8b59 4a3c
00000160: dd64 f53c 2f60 c73c 197c 133e 4da5 e83c
00000170: e61c 623e 7466 1c3e fc72 27bc 4a87 ce3d
00000180: 3147 273e 3a69 4b3e c914 913e 3521 473d
00000190: 2ee3 5d3c f3ba b2bc 9fc8 dd3d a634 8d3c
000001a0: bbf4 063c ce44 c0bc f22b 3d3d ade6 83bc
000001b0: ee14 023c 64b0 c5bc e219 9e3d 33f2 00bc
000001c0: 0af8 a4bc bc2a 513d b85b ee3d 7081 c73c
000001d0: f49c 7bbc f8f6 203c c3e2 a8bc d28a 413d
000001e0: 840b 16bd 026b 413b aed8 4b3d 3b75 583b
000001f0: da51 b73d 4773 d53d 3741 653d 73dc c9bd
00000200: 03c7 48bc 6c8a 91bc a02d 00be c5c7 7fbd
00000210: 37b4 483d 9af1 9fbd e074 a13d 46a0 adbc
00000220: 8b09 c83c 08e5 53bd f747 f0bc 9c14 9e3d
00000230: 256d f4bc e190 08bd d0bc 8bbd 9b47 82bc
00000240: fa39 f03d fe35 ed3d 3c58 273e 0b08 c23d
00000250: 6990 953d 9578 61bb 7390 fd3c 9c8f 283d
00000260: b785 8c3d e152 b6bd 6e11 023d 979b 25bd
00000270: 9aa0 043d 156e a4bc 0240 94bd d2a5 e6bc
00000280: 355b f1bc 2b9c 8ebc d6e0 e5bc c95c b4bb
00000290: a0be 07bd d0e6 0ebe dcb2 b7bd 980d c739
000002a0: 8106 9dbd 16a2 d8bd d7fb 91bd 5ee4 38bd
000002b0: 3d4a 0bbe 32de 863c 7edf 56bd 5f0d 88bd
000002c0: 1897 1abd cc87 28be 9e2c 36be 2b69 cbbd
000002d0: b2b9 a83e f68e 573e c1a0 403e b27e cc3d
000002e0: 7460 5b3c 26ff 933c 4bcb 123e c9f5 bf3d
000002f0: 6d3e c63d 96e4 6cbd 74f7 58bd 006e 87bd
00000300: 8d11 143c c4ac 2c3d 823f 31bd e1c4 f539
00000310: 48a7 c1bb 111e 0ebd 8f3d 053c 49a7 95bd
00000320: a432 febb eb29 01bb 7e71 4cbd ac5b d9bb
00000330: 3f36 513c 7fe4 3ebd d35b 903c a8ad 7fbd
00000340: 289b 9cbd 5056 11be 0382 2d3c 5b2f dabc
00000350: 53d8 993a 1758 cb3d 2a08 34bd 050e 8a3c
00000360: 977b b03d 0887 bd3c 8276 263e 8ad1 433e
00000370: 7bd0 c33b 6f3e e23d 25c9 153e 445a ca3d
00000380: e9cb 8a3d 8171 cebc 7e11 863d e566 573d
00000390: b162 573d c7d3 1a3d 64f1 8c3c c17b 42bd
000003a0: e8e5 253c 3863 533c 5600 ca3d 0bd8 b13d
000003b0: 4d9b 2c3c 0014 7d3d 2e77 573c f680 663d
000003c0: f3d8 fd3c e4d9 a1bc f400 0e3d 1c23 0d3e
000003d0: 26c1 d93d 9f64 ac3d d046 253d 31aa 06bd
000003e0: c946 59bd 6ae1 af3d 3ba5 423b c3b2 113e
000003f0: 33be b93c 4b8a 6fbd c207 0abd 0a0b c1bd
0.10756984 0.06660551 -0.094946176 0.09186109 0.02586987 0.0069525037 -0.022011384 -0.0009879911
-0.100773565 -0.05211448 0.02023184 -0.06086207 -0.018121688 -0.008778324 -0.07645221 -0.07020588
-0.05554502 -0.08602526 -0.078315146 -0.042750433 -0.061625123 -0.051781822 -0.025401391 -0.043408874
-0.1558757 -0.07093487 -0.15352426 -0.109273925 -0.14829037 -0.11003858 -0.07967493 -0.05927857
-0.008918159 -0.094642036 -0.09028364 -0.051102303 0.0010690105 -0.086513564 -0.020437516 -0.017450444
-0.08211264 0.021040332 0.038960185 -0.06820155 0.059356555 0.023976227 0.07314197 0.008190245
0.07633378 0.011573975 0.06111588 -0.009156685 0.0737656 0.02452158 -0.035909582 -0.1127666
-0.073167376 -0.012999058 -0.010075583 -0.003932377 -0.1177901 -0.08593075 -0.048775695 0.078778595
0.0013056227 -0.04470773 0.023895854 -0.021824626 -0.042136498 0.027133463 0.046797387 -0.024328763
0.025818152 -0.017710522 0.054392055 0.034539744 -0.11283333 0.00057406677 -0.12380924 -0.05323344
0.014842065 -0.031430565 -0.040423952 -0.012046974 -0.036097273 -0.0715267 -0.0076777935 0.01235045
0.029955322 0.024337856 0.14402808 0.028399134 0.22081336 0.15273458 -0.0102202855 0.10084398
0.16335751 0.1986436 0.2833617 0.048615653 0.013542933 -0.02181766 0.10829281 0.017237019
0.008237059 -0.023470309 0.046184488 -0.016101206 0.00793956 -0.024131961 0.077197805 -0.007870245
-0.020137805 0.051066145 0.11638588 0.024353713 -0.015357245 0.009824507 -0.02061594 0.04725153
-0.036632076 0.0029513245 0.04976719 0.003302886 0.08951159 0.10422378 0.055970397 -0.098565005
-0.012254479 -0.0177662 -0.12517405 -0.062446374 0.04899999 -0.07809754 0.0788362 -0.021194588
0.024418613 -0.051732093 -0.02933119 0.07718775 -0.0298372 -0.033341292 -0.068231225 -0.015903285
0.11729808 0.11582564 0.16342252 0.0947419 0.07302935 -0.0034404148 0.030952668 0.04115258
0.068614416 -0.08902527 0.031754903 -0.040431585 0.032379724 -0.020072022 -0.07238771 -0.028155241
-0.029462436 -0.017408451 -0.028061312 -0.005504225 -0.03314078 -0.13955235 -0.089696616 0.00037966366
-0.07667256 -0.105777904 -0.07128113 -0.045139663 -0.13602538 0.016463373 -0.052459233 -0.06643175
-0.03774175 -0.16458052 -0.17790458 -0.099321686 0.32954174 0.21050629 0.18811323 0.09985103
0.013389695 0.018066 0.14335363 0.09373052 0.096798755 -0.057835184 -0.052970365 -0.06612778
0.009037388 0.04215695 -0.043273456 0.00046876728 -0.005909834 -0.034696642 0.0081323525 -0.07307298
-0.0077575017 -0.0019708823 -0.049912922 -0.0066332426 0.012769281 -0.04660463 0.01762191 -0.06242147
-0.07646781 -0.14193082 0.010590079 -0.026633909 0.0011737443 0.09928911 -0.0439531 0.016852388
0.08617323 0.023135677 0.16256145 0.19122902 0.0059757805 0.110470645 0.14627512 0.09880498
0.06777174 -0.025200607 0.06546305 0.052588362 0.052584354 0.037799623 0.017204948 -0.047481302
0.010125615 0.012902074 0.09863345 0.08683785 0.0105350735 0.06178665 0.013150973 0.05627533
0.030987239 -0.019757219 0.034668878 0.13782924 0.10632543 0.084176295 0.040350735 -0.03287715
-0.05304602 0.08587916 0.0029700536 0.14228348 0.022673702 -0.058481496 -0.033698805 -0.09425934

net.layer4.0.bias f4 [64]
00000000: 36fa fc3c bb82 13ba 27f6 563c 0bfc 15bd
00000010: a405 b0bc ef39 563c 239a cb3c d32c 263d
00000020: cb02 62bc 389f ac3c 358b 0f3c 8703 143d
00000030: 1c82 9ebc ad03 873c 0c24 f73c 70e3 373c
00000040: 39b4 38bc 44dd e13b 0ee0 96bc 93d7 8bbc
00000050: 996b a9bc b838 d9bc ad28 02bd c409 09bd
00000060: cc46 d1bc 490a a5bb df06 2dbd eac8 afbc
00000070: 32c8 60bc 8cdf 4cbc 443d 18bd 1759 c9bc
00000080: 7f32 fb3c b080 17bd 4473 1e3c 07c6 5cbc
00000090: fd9d b63c fa1d 113d 7a76 2739 52e7 19bc
000000a0: b10f a7bb 9637 b2bc 65d3 213b c205 35bc
000000b0: 941a 0bba a275 4dbc 1c04 6f3a 9584 f2bc
000000c0: 8271 09bd 6db3 a8bc 13b2 f63c 6564 a13c
000000d0: f71e cf3c ce4b 983c 3eef 373c ed1d ac3c
000000e0: 2ffe 0ebd a985 99bc 933c f63c 1057 b83c
000000f0: e50f aebb db68 023d bbfc b33b 4869 5fbb
0.030881029 -0.00056270853 0.013120211 -0.03661732 -0.021487065 0.013075336 0.024853772 0.04057009
-0.013794611 0.021072015 0.008761217 0.036136176 -0.01934915 0.016481245 0.030168556 0.011223659
-0.011273437 0.006892832 -0.018417384 -0.017070567 -0.02068119 -0.026516303 -0.031777073 -0.03345658
-0.025546454 -0.0050366265 -0.04224288 -0.021458108 -0.013719605 -0.01250447 -0.037167802 -0.024578614
0.030663727 -0.03698796 0.009671036 -0.013474948 0.022292132 0.03542898 0.00015970497 -0.00939353
-0.005098306 -0.021755021 0.0024692651 -0.011048736 -0.00053063896 -0.012540253 0.0009117739 -0.029604236
-0.033555515 -0.02059337 0.03011421 0.019701192 0.02528332 0.018590834 0.011226473 0.021010363
-0.034910377 -0.018740492 0.03005818 0.022502452 -0.0053119534 0.03183828 0.0054927743 -0.0034089852

net.layer4.1.weight f4 [64]
00000000: d3d0 913f f21a f03e d3a1 3c3f 0f9e 173f
00000010: 8d46 593f ce05 063f 9620 e73e 9482 063f
00000020: 1a44 813f b36c cb3e 015c dc3e b8f5 d73e
00000030: cb77 943f 7e17 cb3f cfcc 103f 83e0 c13f
00000040: 6f12 163f 00ea 543f 548d be3f 882f 913f
00000050: 1ce6 b13f 8cf9 513f 94a1 c13f 3994 783f
00000060: 1480 073f 71aa a73f 3ab7 773f 0799 2b3f
00000070: 3c87 993f 4d48 bd3e 5e3e e13e 6df2 a63f
00000080: f371 153f dbd7 8f3f d62a be3f 0b6c c93f
00000090: 39e5 f43e ab81 d53e b507 a63f 4898 8a3f
000000a0: 5528 803f 21fa ef3e 9042 f13e cccc a13f
000000b0: 91ee ef3e d8c4 a23f b710 ac3f cc8a 793f
000000c0: 78c3 a33f 5871 ac3f 26d4 c83e 66e8 fd3e
000000d0: 7874 163f c8fe be3f 4259 c73f 30e4 003f
000000e0: 8737 d23e 4462 b73f e12e bb3e 257d b63e
000000f0: 3e47 093f 425f d53f 5333 183f 8e82 df3e
1.1391853 0.46895558 0.73684424 0.59225553 0.84873277 0.5235261 0.4514205 0.52542996
1.0098908 0.39731368 0.43038943 0.42179656 1.1599058 1.5866544 0.56562513 1.514664
0.5862188 0.83169556 1.488688 1.134263 1.3898349 0.82021403 1.5127435 0.9710117
0.52929807 1.309889 0.96763957 0.67030376 1.1994395 0.36969224 0.43992895 1.3042732
0.58377 1.1237749 1.4856822 1.5736097 0.47831133 0.4170049 1.2971102 1.0827723
1.0012308 0.4687052 0.47121096 1.2640624 0.468617 1.2716322 1.3442601 0.9747741
1.2794027 1.347209 0.39224356 0.49591368 0.5877147 1.4921503 1.5574114 0.50348186
0.4105799 1.4326863 0.36559203 0.35642353 0.5362433 1.6669695 0.59453315 0.43654293

net.layer4.1.bias f4 [64]
00000000: e71e 7f3e a5ff c2be f5ee babd bd68 17be
00000010: 90fb 163d 63be a7be ae34 8dbe 505f a1be
00000020: 5b59 173e 848d cabe 237e a8be 8a78 c8be
00000030: ec52 b13d fc30 0d3e 4023 80be 59cc 2d3f
00000040: 372c 6cbe 4fc2 9bbc 4567 5f3e ea87 ba3e
00000050: 3b29 58bd 9c04 aebc 3395 203f 1e0b 6c3e
00000060: 7e3c 8ebe b856 fc3e 79db 883d 4656 86be
00000070: aef0 493e 7580 d4be c47a bcbe 3727 7e3e
00000080: aacc 76bd 2ebc ad3e d2a8 173f 2833 cb3e
00000090: 6502 b0be 9dd1 e2be d865 233f be39 f53c
000000a0: 138b 043e 9839 b5be c0b9 b1be 4b68 b03e
000000b0: 213c 81be b058 d13d 2f09 823e 9b22 e8bd
000000c0: e561 363e e670 293f 4a02 f5be 00cf 88be
000000d0: 4413 8dbe e6a7 1d3e d576 213f 89a4 6cbe
000000e0: 3c12 cfbe 3205 33bd 7a6b e6be 5523 c8be
000000f0: d905 9cbe 078f f83e 9279 5dbe f882 bbbe
0.24914132 -0.38085666 -0.09127609 -0.14786048 0.036861002 -0.3276244 -0.27579254 -0.3151803
0.1478018 -0.39561093 -0.32908735 -0.39154464 0.08658394 0.13788217 -0.25026894 0.67889935
-0.23063742 -0.019013552 0.21816738 0.3643182 -0.052773695 -0.021242432 0.6272766 0.23051116
-0.27780527 0.4928491 0.06682486 -0.26237696 0.19720718 -0.41504255 -0.36812413 0.24819647
-0.060253777 0.33932632 0.59241974 0.39687467 -0.34376827 -0.44300547 0.63827276 0.02993476
0.12943678 -0.35395503 -0.34712029 0.3445457 -0.25241187 0.10221994 0.25397632 -0.113347255
0.17810781 0.66187894 -0.4785331 -0.26720428 -0.2755376 0.1539608 0.6307195 -0.2310964
-0.404436 -0.043706127 -0.45003873 -0.39089456 -0.3047321 0.4854662 -0.21628407 -0.3662336
