mp/maml_omni_5way_1shot_best_step30000_conv_second.pt (torch, 462732 bytes, 26 tensors)

net.layer1.0.weight f4 [64, 1, 3, 3]
0	0x3e9509fd	0.29109183
1	0x3de82a75	0.11336223
2	0xbbf74994	-0.007546613
3	0xbeb04c6f	-0.34433314
4	0x3e369cfb	0.17833321
5	0x3d50be70	0.050962865
6	0xbcadc5e3	-0.021212524
7	0x3e87a94a	0.26496345
8	0xbd0691cb	-0.032853883
9	0xbdeac063	-0.11462476
10	0xbdebbeb9	-0.11510987
11	0xbd814128	-0.06311256
12	0xbe0154a8	-0.1262995
13	0x3f076a8e	0.52896965
14	0x3e972574	0.29520762
15	0xbdf6931a	-0.12039776
16	0x3e1764be	0.14784524
17	0x3e110307	0.14161311
18	0xbddc4ee1	-0.107572325
19	0xbd8b9585	-0.06815628
20	0xbe25bca7	-0.16185246
21	0xbc2b04a8	-0.010438122
22	0xbe9caa54	-0.305987
23	0x3e26f491	0.16304232
24	0x3e395ac4	0.1810103
25	0x3eb018a5	0.34393802
26	0x3e14c2b0	0.14527392
27	0x3e44da04	0.19223791
28	0x3e5e66bf	0.21718882
29	0x3ea41ecf	0.32054755
30	0x3c0c4c5f	0.00856313
31	0xbdb749de	-0.08949636
32	0xbe9285fb	-0.28617844
33	0xbe4a50fb	-0.19757454
34	0xbe054b61	-0.13017036
35	0x3b65e562	0.003507935
36	0x3e70deed	0.2352254
37	0x3deda8a2	0.1160443
38	0xbe43ff12	-0.1914027
39	0xbda793d0	-0.0818249
40	0x3eb9584a	0.36200172
41	0xbd28f4f8	-0.041249245
42	0xbe56d40b	-0.20979325
43	0x3dd043fa	0.101692155
44	0x3d841cc6	0.064508006
45	0xbeb60bd7	-0.35555908
46	0xbe223332	-0.15839842
47	0xbd7b8533	-0.061406326
48	0xbb8188a3	-0.003953056
49	0xbe28ccd8	-0.16484392
50	0xbe962a0b	-0.2932895
51	0x3d467735	0.04845353
52	0xbb6e48ab	-0.0036359231
53	0xbe20a52a	-0.15688005
54	0xbd0ccf13	-0.03437717
55	0xbe3a1547	-0.18172179
56	0x3e71ba25	0.23606165
57	0x3e79048f	0.24318145
58	0xbe32b989	-0.17453589
59	0x3e341b40	0.1758852
60	0xbd9d7a3c	-0.0768933
61	0xbe309573	-0.1724451
62	0x3e969b1c	0.29415214
63	0x3e084818	0.13308752
64	0x3ea91164	0.3302108
65	0xbcefff8f	-0.029296665
66	0xbe164ece	-0.14678499
67	0xbe206bf0	-0.15666175
68	0x3ea3a4e7	0.31961748
69	0x3dd3fbca	0.10350759
70	0xbe5e2a1c	-0.21695751
71	0x3dcffdd2	0.10155834
72	0xbcc124b9	-0.023577081
73	0x3d9e6821	0.07734705
74	0xbd2a7c6e	-0.04162257
75	0x3df29632	0.11845054
76	0x3e362775	0.17788489
77	0x3dfcebce	0.12349664
78	0x3e2080df	0.1567416
79	0xbead45ff	-0.33842465
80	0x3e1a0b0b	0.15043275
81	0xbd96ae90	-0.07357514
82	0xbdfdf34b	-0.1239992
83	0xbe1c819f	-0.15283822
84	0x3e2cdffa	0.16882315
85	0xbe05e854	-0.13076907
86	0xbe6aa114	-0.22913009
87	0x3d2c57fc	0.042076096
88	0x3e060757	0.13088737
89	0xbebfdb46	-0.3747198
90	0xbdc7ea9c	-0.09761545
91	0xbdb0b3a4	-0.08628014
92	0xbde0d445	-0.10977987
93	0x3d5ca8d1	0.053871933
94	0x3eeda622	0.46415812
95	0xbe3bcf5c	-0.1834082
96	0xbda6f9f7	-0.08153146
97	0xbe6ce7d9	-0.23135318
98	0x3c10ba9b	0.008833553
99	0xbd96e1bb	-0.073672734
100	0x3e0a4790	0.13503861
101	0x3f1cb27f	0.61209863
102	0xbcf1272c	-0.029437624
103	0x3d8f9d76	0.07012455
104	0x3d9cbc9a	0.076531604
105	0xbd97d609	-0.07413871
106	0x3e277244	0.16352183
107	0x3f1d7766	0.6151031
108	0x3d437903	0.047722828
109	0x3d00c092	0.03143365
110	0xbe18e3a2	-0.14930585
111	0xbe40bb14	-0.18821365
112	0x3c1cb405	0.009564404
113	0xbe870338	-0.26369643
114	0x3e4c619c	0.1995911
115	0xbd5b4e1c	-0.053541288
116	0x3ecebf2c	0.40380228
117	0xbe821b45	-0.2541143
118	0x3e103d7a	0.14085951
119	0x3e582cb5	0.21110804
120	0x3cc4a67f	0.024005173
121	0x3e84f579	0.2596853
122	0xbd85bb06	-0.065298125
123	0x3e928b35	0.28621832
124	0xbd9dc25b	-0.07703086
125	0x3cce5f2e	0.02519187
126	0x3df6fe8a	0.12060268
127	0x3e714ffc	0.23565668
128	0x3ea4239c	0.32058418
129	0x3e8c6b48	0.274256
130	0xbe7421da	-0.23841038
131	0xbca70a31	-0.020390602
132	0x3e6daedc	0.23211235
133	0xbe31f31e	-0.17377898
134	0xbd24bbed	-0.040218282
135	0xbe2252e3	-0.15851931
136	0x3ea55325	0.32289997
137	0xbe1b2ed9	-0.1515459
138	0x3df01be5	0.117240705
139	0xbe84aeb7	-0.25914547
140	0x3d96a01b	0.073547564
141	0xbdc4c95a	-0.09608717
142	0x3e8fba27	0.2807171
143	0xbe389bb6	-0.18028149
144	0x3e2d4e8b	0.16924493
145	0xbd6a8540	-0.057255983
146	0xbe94c8bd	-0.290594
147	0xbd71273a	-0.0588753
148	0xbe1f8c15	-0.15580781
149	0x3e240523	0.16017585
150	0xbe73c021	-0.2380376
151	0xbd5bc6bc	-0.053656325
152	0x3e972157	0.29517624
153	0xbe6a5a90	-0.2288611
154	0x3cdace38	0.02670966
155	0x3e9decf5	0.30844846
156	0xbd338733	-0.043830108
157	0x3d6dc700	0.05805111
158	0xbd79a209	-0.060945544
159	0xbe3caac4	-0.18424517
160	0xbd7b4d55	-0.061353046
161	0x3ed2f810	0.41204882
162	0x3d325062	0.04353369
163	0xbeb08592	-0.34476906
164	0x3e688b06	0.22709283
165	0x3dfe57a8	0.12419063
166	0x3e999ff4	0.30004847
167	0x3e3cedf8	0.18450153
168	0x3e0462c8	0.12928307
169	0xbd141ee7	-0.036162283
170	0xbdd4a1df	-0.10382437
171	0x3d5546bd	0.052069414
172	0xbddb9dc8	-0.10723454
173	0x3da0a6ea	0.07844336
174	0x3d1317ce	0.035911374
175	0xbeb485d8	-0.35258365
176	0x3e928c27	0.28622553
177	0x3e5f80b1	0.21826436
178	0x3e8ca7c9	0.2747176
179	0x3db216d0	0.086957574
180	0xbe624ed8	-0.22100389
181	0xbe5bf885	-0.21481521
182	0x3e1429a9	0.14469017
183	0x3d1ea663	0.038732897
184	0x3e681fa3	0.22668318
185	0x3ea55a33	0.3229538
186	0x3e4849a8	0.19559348
187	0x3d575356	0.05256971
188	0xbd72a4f9	-0.05923936
189	0x3da1a121	0.07892061
190	0xbe6b75ff	-0.2299423
191	0x3d7c39e5	0.06157865
192	0x3e80fb4c	0.25191724
193	0xbe6d5e8b	-0.23180597
194	0x3e7d0eb1	0.24712636
195	0x3dad2dda	0.08456011
196	0x3e6d7ffc	0.23193353
197	0x3d7f0612	0.06226165
198	0xbe0b30f7	-0.13592897
199	0xbcb8799f	-0.022518931
200	0x3e82169b	0.25407872
201	0xbc313517	-0.01081588
202	0xbe739178	-0.2378596
203	0x3e7c76a1	0.24654628
204	0x3e7ee78a	0.24893013
205	0xbe547063	-0.20745997
206	0x3ca91c41	0.020643355
207	0x3e2cd0f0	0.16876578
208	0xbe40a22c	-0.18811864
209	0x3cbf1174	0.023323752
210	0xbd2a0e70	-0.041517675
211	0x3e1b6487	0.15175067
212	0x3e861a54	0.26191962
213	0x3b9ca795	0.0047807195
214	0x3e85575c	0.26043212
215	0xbe65033a	-0.22364512
216	0x3dcec3fe	0.10095976
217	0xbe42c67c	-0.19021028
218	0x3de68a76	0.11256878
219	0xbca3ec38	-0.020010099
220	0xbd57988b	-0.05263571
221	0xbd7148e6	-0.058907412
222	0xbe7d04fe	-0.24708936
223	0x3ee43542	0.44571882
224	0xbe700c20	-0.23442125
225	0xbe3f25e4	-0.18666798
226	0x3e4807c1	0.19534208
227	0xbd4d910f	-0.050187167
228	0xbe392fc6	-0.1808463
229	0x3e636a66	0.22208557
230	0xbd55446f	-0.052067216
231	0xbe33be60	-0.17553091
232	0x3eb09fd7	0.34496948
233	0xbe064c88	-0.13115132
234	0x3ea56a79	0.32307795
235	0x3e068c92	0.13139561
236	0x3e31f5ec	0.17378968
237	0xbe212c78	-0.1573962
238	0xbd1c0a21	-0.038095597
239	0xbe9eb4fc	-0.30997455
240	0x3d2eccef	0.04267591
241	0x3ded875b	0.11598083
242	0x3e2efb40	0.17088032
243	0x3f291904	0.66053796
244	0x3e633be1	0.2219081
245	0xbdb10d22	-0.08645083
246	0xbbb73d4c	-0.005592024
247	0xbe02fd2b	-0.12791888
248	0xbbdf619a	-0.006817055
249	0xbdddac29	-0.108238526
250	0x3c0b65e2	0.0085081775
251	0x3e143a88	0.14475453
252	0xbce42b2a	-0.027852613
253	0x3ebec048	0.37256074
254	0xbdf67485	-0.12033943
255	0x3d018546	0.03162124

net.layer1.0.bias f4 [64]
0	0xbe89bac9	-0.26900318
1	0xbe1cde5e	-0.15319201
2	0x3dfdfaf2	0.1240138
3	0x3eb6f75e	0.357356
4	0xbbbd50a2	-0.0057774344
5	0x3e178faf	0.14800905
6	0xbe0075c6	-0.12544927
7	0x3ee401c3	0.44532594
8	0x3e9836bc	0.2972926
9	0x3e00a999	0.12564696
10	0xbdad98b3	-0.08476391
11	0xbe0e259d	-0.13881536
12	0x3cd2ce7a	0.025733221
13	0xbd373d4c	-0.04473619
14	0xbdd8efe2	-0.10592629
15	0x3dbd7836	0.09251444
16	0xbe19083c	-0.14944547
17	0xbea90c73	-0.3301731
18	0xbc92028d	-0.017823482
19	0x3e938807	0.28814718
20	0xbd02f6df	-0.031973716
21	0x3e11cfc6	0.14239416
22	0x3e8592f4	0.2608868
23	0xbeea1754	-0.45720923
24	0xbd2a43e8	-0.041568667
25	0x3e47d212	0.19513729
26	0x3e40c6cd	0.18825836
27	0xbe68c987	-0.22733127
28	0xbda70686	-0.08155541
29	0x3e694251	0.22779204
30	0xbe81a9c3	-0.2532483
31	0xbd84b6e8	-0.06480199
32	0xbe22cd78	-0.15898693
33	0xbe60a6ac	-0.2193858
34	0x3e6e9471	0.23298813
35	0xbd0c4bbb	-0.03425191
36	0xbebc3f71	-0.36767152
37	0xbe470517	-0.19435535
38	0x3e01c9cb	0.12674634
39	0x3d822287	0.06354242
40	0x3e801d53	0.25022373
41	0x3e742f31	0.23846127
42	0xbd928604	-0.07154468
43	0x3ea14b63	0.31502828
44	0x3d2544fb	0.040348988
45	0x3da59941	0.080858715
46	0x3e09a921	0.13443424
47	0x3e4b3d72	0.19847658
48	0xbe2c251f	-0.16811036
49	0x3e07ff5b	0.13281004
50	0x3e68e6f4	0.22744352
51	0x3ddd3aed	0.10802255
52	0xbe34d8f9	-0.17660893
53	0x3ead88b6	0.33893365
54	0x3ecf72bf	0.40517232
55	0xbe263802	-0.16232303
56	0x3dda1c6c	0.10649952
57	0x3e52c904	0.20584494
58	0x3ecaf337	0.39638683
59	0x3e69eaff	0.2284355
60	0xbcd93b20	-0.02651745
61	0x3d3fdea9	0.046843205
62	0x3d146c0b	0.03623585
63	0x3ed5c68b	0.4175304

net.layer1.1.weight f4 [64]
0	0x3fa6be0f	1.3026751
1	0x3f8b678a	1.0890973
2	0x3f431fe7	0.76220554
3	0x3f2f8be4	0.6857283
4	0x3f426094	0.75928617
5	0x3efda12f	0.49537036
6	0x3f5460ad	0.82960016
7	0x3f917a5c	1.1365466
8	0x3fb7e596	1.4366939
9	0x3f1197c2	0.5687219
10	0x3f1053bb	0.5637776
11	0x3f8f4493	1.1192802
12	0x3f124530	0.5713682
13	0x3f96806d	1.1757942
14	0x3fb3b78e	1.4040391
15	0x3ee9a40e	0.45632976
16	0x3f2b0e96	0.6681913
17	0x3f26b63b	0.6512181
18	0x3f9d828f	1.2305468
19	0x3f8d1a36	1.1023624
20	0x3f6d5c6a	0.9271914
21	0x3f9370f1	1.1518842
22	0x3f1a990c	0.6038978
23	0x3fa2bdbe	1.2714155
24	0x3f1a25d3	0.60213965
25	0x3f320cdd	0.6955088
26	0x3f66e180	0.90187836
27	0x3eb8d603	0.36100778
28	0x3f9c6c61	1.2220575
29	0x3f4a0b7a	0.7892376
30	0x3f4b3a9f	0.79386324
31	0x3f276246	0.6538433
32	0x3f5620cf	0.8364381
33	0x3f57ad91	0.84249216
34	0x3fa1dd98	1.264575
35	0x3fc390a8	1.527852
36	0x3fa59688	1.2936563
37	0x3f8bf9cf	1.093561
38	0x3f6e1ac3	0.93009585
39	0x3f0ff4fd	0.562332
40	0x3fa1fa2d	1.2654473
41	0x3f9da216	1.231509
42	0x3f888d4c	1.066812
43	0x3f8518f7	1.0398244
44	0x3f65749c	0.89631057
45	0x3f6f1742	0.93394864
46	0x3fd2488e	1.6428392
47	0x3f032317	0.5122542
48	0x3f32f346	0.69902456
49	0x3f822d8a	1.0170147
50	0x3fba7522	1.4566996
51	0x3f0adc0b	0.5424201
52	0x3faf6c5d	1.3704945
53	0x3f3eff10	0.74607944
54	0x3f61421c	0.879915
55	0x3f5026e1	0.81309325
56	0x3f19f911	0.6014567
57	0x3f424d29	0.7589899
58	0x3f5b9f21	0.85789686
59	0x3f2f167d	0.6839369
60	0x3f231341	0.63701254
61	0x3f990bcc	1.1956725
62	0x3f769bf4	0.96331716
63	0x3faf10bc	1.3676982

net.layer1.1.bias f4 [64]
0	0xbf1949e5	-0.5987838
1	0xbf2f600c	-0.6850593
2	0xbe1f3079	-0.15545835
3	0x3e81b392	0.25332314
4	0xbe752355	-0.2393926
5	0xbf80a533	-1.0050415
6	0xbec65065	-0.3873321
7	0xbe9f51af	-0.31117007
8	0xbf427c30	-0.75970745
9	0xbf7ee682	-0.99570477
10	0xbf701d05	-0.9379428
11	0xbd0bcddc	-0.03413187
12	0x3d39e8fe	0.045388214
13	0xbf15a0ed	-0.5844868
14	0xbf017c33	-0.5058014
15	0xbf1622b3	-0.58646697
16	0xbf8e9da8	-1.1141863
17	0xbe0e2dc1	-0.13884641
18	0xbefa94dc	-0.48941696
19	0xbf1b2e0d	-0.6061714
20	0xbeb2526e	-0.34828514
21	0xbf1e5aaf	-0.6185712
22	0xbe4df798	-0.20113981
23	0xbeeea4c9	-0.46610096
24	0xbf71f8f1	-0.9452048
25	0x3dd5eea2	0.10445906
26	0xbea6d2d1	-0.32582715
27	0x3e640624	0.22267967
28	0xbeb6b4e8	-0.35684896
29	0xbecbbeec	-0.397941
30	0xbe9e4337	-0.30910656
31	0xbe49b27a	-0.1969699
32	0xbee639a4	-0.4496585
33	0xbee7003c	-0.45117366
34	0xbf1959dc	-0.5990274
35	0xbd2fb51e	-0.042897336
36	0xbf22323c	-0.633579
37	0xbeff234a	-0.4983161
38	0xbe8f61eb	-0.28004393
39	0xbf96932d	-1.1763664
40	0xbf370f82	-0.7150804
41	0xbf009faa	-0.5024363
42	0xbe82a926	-0.25519675
43	0xbee027dc	-0.4378041
44	0xbe30e8ad	-0.17276259
45	0xbeb2b3d3	-0.3490282
46	0xbea9703f	-0.3309345
47	0x3ef6b49e	0.48184675
48	0xbfab8d96	-1.3402584
49	0xbe9f03a8	-0.31057477
50	0xbf105d2c	-0.5639217
51	0xbf72c684	-0.9483416
52	0xbf1b6238	-0.60696745
53	0xbe9cf259	-0.30653647
54	0xbebcb70d	-0.36858407
55	0xbe0d1eff	-0.13781355
56	0xbf80bc21	-1.0057412
57	0xbbeaed6f	-0.0071694176
58	0xbf09c4f5	-0.5381616
59	0xbf81d830	-1.01441
60	0x3e0669a7	0.1312624
61	0xbf229208	-0.63504076
62	0xbe0b9dd4	-0.13634425
63	0xbf18334d	-0.5945328

net.layer1.1.running_mean f4 [64]
0	0x00000000	0.0
1	0x00000000	0.0
2	0x00000000	0.0
3	0x00000000	0.0
4	0x00000000	0.0
5	0x00000000	0.0
6	0x00000000	0.0
7	0x00000000	0.0
8	0x00000000	0.0
9	0x00000000	0.0
10	0x00000000	0.0
11	0x00000000	0.0
12	0x00000000	0.0
13	0x00000000	0.0
14	0x00000000	0.0
15	0x00000000	0.0
16	0x00000000	0.0
17	0x00000000	0.0
18	0x00000000	0.0
19	0x00000000	0.0
20	0x00000000	0.0
21	0x00000000	0.0
22	0x00000000	0.0
23	0x00000000	0.0
24	0x00000000	0.0
25	0x00000000	0.0
26	0x00000000	0.0
27	0x00000000	0.0
28	0x00000000	0.0
29	0x00000000	0.0
30	0x00000000	0.0
31	0x00000000	0.0
32	0x00000000	0.0
33	0x00000000	0.0
34	0x00000000	0.0
35	0x00000000	0.0
36	0x00000000	0.0
37	0x00000000	0.0
38	0x00000000	0.0
39	0x00000000	0.0
40	0x00000000	0.0
41	0x00000000	0.0
42	0x00000000	0.0
43	0x00000000	0.0
44	0x00000000	0.0
45	0x00000000	0.0
46	0x00000000	0.0
47	0x00000000	0.0
48	0x00000000	0.0
49	0x00000000	0.0
50	0x00000000	0.0
51	0x00000000	0.0
52	0x00000000	0.0
53	0x00000000	0.0
54	0x00000000	0.0
55	0x00000000	0.0
56	0x00000000	0.0
57	0x00000000	0.0
58	0x00000000	0.0
59	0x00000000	0.0
60	0x00000000	0.0
61	0x00000000	0.0
62	0x00000000	0.0
63	0x00000000	0.0

net.layer1.1.running_var f4 [64]
0	0x3f800000	1.0
1	0x3f800000	1.0
2	0x3f800000	1.0
3	0x3f800000	1.0
4	0x3f800000	1.0
5	0x3f800000	1.0
6	0x3f800000	1.0
7	0x3f800000	1.0
8	0x3f800000	1.0
9	0x3f800000	1.0
10	0x3f800000	1.0
11	0x3f800000	1.0
12	0x3f800000	1.0
13	0x3f800000	1.0
14	0x3f800000	1.0
15	0x3f800000	1.0
16	0x3f800000	1.0
17	0x3f800000	1.0
18	0x3f800000	1.0
19	0x3f800000	1.0
20	0x3f800000	1.0
21	0x3f800000	1.0
22	0x3f800000	1.0
23	0x3f800000	1.0
24	0x3f800000	1.0
25	0x3f800000	1.0
26	0x3f800000	1.0
27	0x3f800000	1.0
28	0x3f800000	1.0
29	0x3f800000	1.0
30	0x3f800000	1.0
31	0x3f800000	1.0
32	0x3f800000	1.0
33	0x3f800000	1.0
34	0x3f800000	1.0
35	0x3f800000	1.0
36	0x3f800000	1.0
37	0x3f800000	1.0
38	0x3f800000	1.0
39	0x3f800000	1.0
40	0x3f800000	1.0
41	0x3f800000	1.0
42	0x3f800000	1.0
43	0x3f800000	1.0
44	0x3f800000	1.0
45	0x3f800000	1.0
46	0x3f800000	1.0
47	0x3f800000	1.0
48	0x3f800000	1.0
49	0x3f800000	1.0
50	0x3f800000	1.0
51	0x3f800000	1.0
52	0x3f800000	1.0
53	0x3f800000	1.0
54	0x3f800000	1.0
55	0x3f800000	1.0
56	0x3f800000	1.0
57	0x3f800000	1.0
58	0x3f800000	1.0
59	0x3f800000	1.0
60	0x3f800000	1.0
61	0x3f800000	1.0
62	0x3f800000	1.0
63	0x3f800000	1.0

net.layer2.0.weight f4 [64, 64, 3, 3]
0	0xbe9cc604	-0.30619824
1	0xbe45aa91	-0.19303347
2	0x3dd44a8f	0.103657834
3	0xbefcc5c1	-0.49369624
4	0xbda14b6c	-0.07875714
5	0xbe8d75ff	-0.27629086
6	0xbdc0156a	-0.093790844
7	0xbe61532b	-0.22004382
8	0xbefad069	-0.4898713
9	0xbe22335e	-0.15839908
10	0xbe8393c1	-0.25698665
11	0xbc242660	-0.010018915
12	0xbe7ea3cc	-0.24867171
13	0xbda82e70	-0.08211982
14	0xbc1367f2	-0.00899695
15	0xbe630e72	-0.22173479
16	0xbe664cce	-0.22490236
17	0x3ca69a18	0.02033715
18	0xbd52b187	-0.051438835
19	0xbe06c483	-0.13160901
20	0xbe5112a8	-0.20417273
21	0xbd8cee20	-0.06881356
22	0x3c7aac11	0.015299813
23	0x3ccf5405	0.025308618
24	0x3e130c84	0.14360243
25	0x3d525cfb	0.051358204
26	0xbcb2f092	-0.021843228
27	0x3ca2c64d	0.019869948
28	0xbdc53d5a	-0.096308425
29	0xbe8ebedc	-0.2787999
30	0xbd0d249c	-0.03445874
31	0x3c5e70b8	0.013576679
32	0xbdcc4418	-0.09973925
33	0x3c8990c1	0.016792657
34	0x3d908afb	0.070577584
35	0xbb7367ad	-0.0037140653
36	0xbe6e4de1	-0.23271896
37	0xbd6e4f74	-0.05818124
38	0xbdc18d5d	-0.09450791
39	0x3d01321e	0.031541936
40	0xbc4dea32	-0.012568044
41	0xbd3e809d	-0.046509374
42	0xbd3d5cb5	-0.04623099
43	0xbc3922ab	-0.011299769
44	0xbdb09527	-0.086221986
45	0xbd6b2c27	-0.057415154
46	0xbd8afedc	-0.06786892
47	0xbc72e63d	-0.014825401
48	0xbd70797b	-0.058709603
49	0xbd918e67	-0.07107239
50	0xbe40b2ff	-0.18818282
51	0x3d1e6957	0.03867468
52	0xbd8fab81	-0.07015134
53	0xbd7046ae	-0.058661155
54	0xbe7a834d	-0.2446415
55	0xbdeda2fe	-0.11603354
56	0xbe9874a3	-0.29776487
57	0xbdaa018f	-0.083010785
58	0xbc751730	-0.014959142
59	0xbe3b837b	-0.18311875
60	0xbe522e62	-0.20525506
61	0xbe0ad01a	-0.13555947
62	0xbec74e59	-0.38926962
63	0xbc0be5bd	-0.008538661
64	0x3db76a35	0.08955804
65	0x3c124d67	0.008929587
66	0xbe2ce5b0	-0.16884494
67	0xbc88f557	-0.01671855
68	0xbd168555	-0.03674825
69	0x3e616aff	0.22013472
70	0x3dfd3d03	0.12365153
71	0xbdc05fe2	-0.09393288
72	0xbc729ff6	-0.0148086455
73	0x3d1a7748	0.03771141
74	0x3c84bed0	0.016204268
75	0x3e0c1df4	0.13683301
76	0x3e402fab	0.18768184
77	0x3d1515c3	0.036397707
78	0xbe3367cb	-0.17520063
79	0x3e6c93ba	0.23103228
80	0xbda59369	-0.08084757
81	0x3df739e4	0.12071589
82	0xbdf51cde	-0.119683966
83	0xbec5fab1	-0.38667825
84	0xbe0b2d47	-0.1359149
85	0xbe6c0375	-0.23048194
86	0xbea9c146	-0.33155268
87	0xbda13b41	-0.0787263
88	0xbe85a844	-0.2610494
89	0xbe5ba90e	-0.21451208
90	0x3cec246c	0.028825961
91	0x3c216f7e	0.009853242
92	0xbddbd975	-0.10734836
93	0xbe01d61c	-0.12679332
94	0x3d0e4c27	0.034740593
95	0xbdb477d6	-0.088119194
96	0x3ccbed97	0.024893565
97	0xbe511979	-0.20419873
98	0xbe06ca30	-0.13163066
99	0x3c9dd17f	0.019264935
100	0xbe2121cd	-0.1573555
101	0x3e870c8c	0.2637676
102	0xbdcb9e4c	-0.09942302
103	0xbdedbb2f	-0.11607968
104	0x3ed275d3	0.41105518
105	0xbd8793fa	-0.06620021
106	0xbdc54a90	-0.09633362
107	0x3e2df071	0.16986252
108	0xbe2a51d0	-0.16632771
109	0xbe1febe3	-0.15617327
110	0xbead87dc	-0.33892715
111	0x3d3d4306	0.046206497
112	0x3dee16c5	0.11625437
113	0xbe3b0376	-0.18263039
114	0x3e342fb0	0.17596316
115	0x3d55c23a	0.052187182
116	0xbe39ea21	-0.1815572
117	0x3e08d90a	0.13364044
118	0xbdc36f7e	-0.0954275
119	0xbcd82631	-0.026385399
120	0xbe421c3c	-0.18956083
121	0xbd676bc6	-0.056499265
122	0xbe3e74e9	-0.18599285
123	0xbce38c69	-0.027776914
124	0xbda9ae33	-0.08285179
125	0xbdb94fec	-0.09048447
126	0x3defa076	0.11700527
127	0xbbcce349	-0.0062526804
128	0x3d87ee1a	0.06637211
129	0xbe195a1e	-0.14975783
130	0x3d275467	0.040851977
131	0xbd083613	-0.033254694
132	0xbdf69dbf	-0.120418064
133	0xbd91b40d	-0.0711442
134	0x3dc4542b	0.09586366
135	0xbdb20a3d	-0.08693359
136	0xbe685549	-0.22688784
137	0x3b9f65bc	0.0048644226
138	0xbe84b8f3	-0.25922355
139	0xbe1ccd3d	-0.15312667
140	0x3e11bb30	0.14231563
141	0x3b59f1d9	0.0033255725
142	0xbd92ac56	-0.07161777
143	0x3da70b4d	0.08156452
144	0xbc8fc208	-0.017548576
145	0x3d6fc331	0.05853576
146	0xbe7be586	-0.24599275
147	0xbe82f49b	-0.25577244
148	0x3da575e5	0.08079127
149	0xbe514b0f	-0.20438789
150	0x3e3511a1	0.17682506
151	0x3ce27f2f	0.027648536
152	0xbdc2cfd3	-0.095122956
153	0xbe914f74	-0.2838093
154	0xbea0a398	-0.31374812
155	0xbe0e463b	-0.13893978
156	0xbe614540	-0.21999073
157	0xbe02bc05	-0.12767036
158	0xbd163d4d	-0.036679555
159	0xbe7575ef	-0.2397077
160	0xbe4ab45b	-0.19795363
161	0xbe023bf1	-0.12718178
162	0x3db0038e	0.08594428
163	0x3c50f787	0.012754328
164	0xbe8748af	-0.2642264
165	0x3d9bc9bb	0.076068364
166	0x3deb574d	0.11491261
167	0x3d8c3496	0.068459675
168	0x3e73a5a4	0.23793656
169	0x3d99f2de	0.07517026
170	0xbdd0b750	-0.10191214
171	0x3d6b10c4	0.057389036
172	0x3d5bbc63	0.053646456
173	0xbdc60fd1	-0.096709855
174	0x3dfa00fb	0.12207218
175	0x3e9a7b74	0.30172312
176	0xbdaa0213	-0.08301177
177	0x3e1b6af6	0.15177521
178	0x3dc8b729	0.0980056
179	0xbe4f2ee2	-0.20232728
180	0x3d3c5217	0.045976724
181	0xbc1c0401	-0.009522439
182	0xbdc4b09a	-0.096039966
183	0xbd7d1a2e	-0.061792545
184	0x3dbfae86	0.093594596
185	0x3d56288e	0.05228477
186	0x3d872044	0.06597951
187	0x3dbbbc8a	0.0916682
188	0xbb9793cb	-0.0046257726
189	0x3d844d01	0.0646
190	0xbdda5654	-0.10660997
191	0xbd7638a7	-0.06011262
192	0x3d1daf9a	0.038497545
193	0x3d8d0b48	0.06886917
194	0x3dd69ae5	0.104787625
195	0x3dda7060	0.10665965
196	0xbd2af8e0	-0.041741252
197	0xbdcc7a1a	-0.099842265
198	0x3d5ab15b	0.053391796
199	0xbe444a55	-0.1916898
200	0xbe401311	-0.18757273
201	0xbe88566c	-0.26628435
202	0x3dfc9230	0.123325706
203	0xbe8ab422	-0.27090555
204	0x3cbf9bad	0.023389662
205	0x3d21f526	0.039540432
206	0xbbc1ebaf	-0.0059179883
207	0xbd0ed493	-0.034870695
208	0xbe558003	-0.20849614
209	0xbe80ef4f	-0.25182578
210	0xbd3b3cd1	-0.045712296
211	0x3da6437d	0.08118341
212	0xbe189486	-0.14900407
213	0xbba5c97f	-0.0050594206
214	0xbda6925c	-0.081333846
215	0xbe833a30	-0.2563033
216	0xbd37f59a	-0.04491196
217	0xbe06baa1	-0.13157131
218	0xbe75ad1a	-0.23991814
219	0xbde6cd61	-0.11269642
220	0xbd93529e	-0.07193492
221	0xbedca41f	-0.43093964
222	0x3ce984ee	0.028505769
223	0x3bd72da6	0.006566721
224	0x3d192a29	0.037393723
225	0xbebfb4ff	-0.37442777
226	0xbed0abba	-0.40756017
227	0xbdc22c96	-0.0948116
228	0xbedb813e	-0.4287204
229	0xbe0e4288	-0.13892567
230	0xbca08185	-0.01959301
231	0xbe77833d	-0.24171157
232	0xbe3d3934	-0.18478853
233	0xbe3770f9	-0.1791419
234	0x3d61c70d	0.05512147
235	0xbe301e52	-0.17199066
236	0xbe3e0adf	-0.18558834
237	0x3e98240c	0.29715002
238	0x3da583ee	0.08081804
239	0x3d7ea400	0.06216812
240	0x3e2e817d	0.17041583
241	0xbcaf6958	-0.021412537
242	0xbce54e10	-0.027991325
243	0xbb6b3520	-0.003588982
244	0xbdad35ce	-0.08457528
245	0xbd1c737c	-0.038196072
246	0x3daeff97	0.08544844
247	0xbddc9d94	-0.10772243
248	0xbca89e6b	-0.020583352
249	0xbc84aff2	-0.016197179
250	0xbd859ee6	-0.06524448
251	0xbbed2446	-0.00723699
252	0xbec4a750	-0.384089
253	0xbe31f7ff	-0.17379759
254	0x3e2be7fc	0.16787714
255	0xbb9d6038	-0.00480273

net.layer2.0.bias f4 [64]
0	0x3c08e9d1	0.008356527
1	0xbd067cca	-0.032833852
2	0xbd053bbd	-0.032527674
3	0xbce50a46	-0.027959
4	0x3abbb171	0.001431985
5	0x3bd17113	0.0063916533
6	0x3cdf29b3	0.027241563
7	0xbc856f49	-0.016288416
8	0xbcd8698e	-0.02641752
9	0xbcc1c4b0	-0.023653358
10	0x3d53d69c	0.05171834
11	0xbadd2600	-0.0016872287
12	0x3cf7e916	0.030262511
13	0xbc730ede	-0.014835088
14	0xbc8d81ac	-0.017273746
15	0xbc0c7309	-0.008572348
16	0xbd0ba11b	-0.03408919
17	0x3cc27ede	0.023742136
18	0xbc2afcb3	-0.010436225
19	0xbcec279b	-0.02882748
20	0x3d29a836	0.041420184
21	0xbb1a9c3e	-0.0023591663
22	0x3c765075	0.015033831
23	0x3c20b7d5	0.009809454
24	0x3d221564	0.03957118
25	0xb9cbc338	-0.00038864627
26	0xbb4e185d	-0.0031447627
27	0xbc943d16	-0.018095534
28	0x3a13447a	0.0005617809
29	0x3cd29c98	0.025709435
30	0xbc16a63f	-0.00919491
31	0xbcef846a	-0.029237945
32	0x3b8dab05	0.0043233656
33	0xbbd969e5	-0.006634938
34	0xbb6d645a	-0.0036223144
35	0x3aa84372	0.0012837483
36	0xbd0c0a0f	-0.03418928
37	0x3c6f7887	0.014616138
38	0x3d11d28a	0.035601176
39	0x3b2fbaa7	0.0026814134
40	0x3d040230	0.03222865
41	0x3c7a09f1	0.015261159
42	0xbd2514a3	-0.040302884
43	0x3c9db026	0.019249033
44	0xbd019b1f	-0.031642076
45	0x3c974567	0.01846571
46	0x3ca670b5	0.020317415
47	0x3c4681c1	0.012115897
48	0x3d26851d	0.04065429
49	0xbd15c65b	-0.03656612
50	0x3ca0e0dd	0.019638473
51	0x3d19db5d	0.037562717
52	0x3cf88eb6	0.030341487
53	0x3cb4d304	0.022073276
54	0x3d0a4843	0.03376032
55	0x3cde8153	0.027161276
56	0xbd14fd5e	-0.036374442
57	0xbcfe76d8	-0.031062528
58	0x3cb4f12e	0.02208766
59	0x3ba13e72	0.004920774
60	0x3d16d125	0.03682055
61	0x3cc31f90	0.023818761
62	0x3cc8ef78	0.02452825
63	0xbd0ca1a6	-0.034333847

net.layer2.1.weight f4 [64]
0	0x3f6633dd	0.8992289
1	0x3feb8a7a	1.8401635
2	0x3f6620f4	0.8989403
3	0x3f69f908	0.91395617
4	0x3f7be80f	0.9840097
5	0x3f378f5d	0.7170313
6	0x3f439fb6	0.76415575
7	0x3f393eb9	0.7236133
8	0x3f23143d	0.63702756
9	0x3f981831	1.1882383
10	0x3f6d4a55	0.92691547
11	0x3f54aeab	0.8307902
12	0x3f53ccff	0.82734674
13	0x3f832bdd	1.0247761
14	0x3f2488be	0.6427115
15	0x3f4f96b1	0.8108931
16	0x3f5d2479	0.8638378
17	0x3f30fdc2	0.69137204
18	0x3f10e94d	0.5660599
19	0x3f4c693a	0.79848063
20	0x3f45176c	0.76988864
21	0x3f582dbb	0.8444478
22	0x3f88b48e	1.0680101
23	0x3f5f30ff	0.8718414
24	0x3f301a24	0.6878989
25	0x3fa1ef36	1.2651126
26	0x3f83708d	1.0268723
27	0x3f0b5991	0.5443354
28	0x3f52e34c	0.8237808
29	0x3f5fe94d	0.87465364
30	0x3f836ef8	1.026824
31	0x3f14dbc9	0.58147866
32	0x3f339946	0.7015575
33	0x3f834da8	1.0258074
34	0x3f6e7e15	0.93161136
35	0x3f80d972	1.0066359
36	0x3f61cf78	0.882072
37	0x3f405226	0.7512535
38	0x3f66675c	0.90001464
39	0x3f7074a0	0.93927956
40	0x3f94e937	1.1633672
41	0x3f87b94f	1.0603427
42	0x3f4d0255	0.80081683
43	0x3f8774d9	1.0582534
44	0x3f442877	0.76624244
45	0x3f61c03a	0.8818394
46	0x3f828e66	1.0199707
47	0x3f843672	1.0329115
48	0x3f7c7db7	0.98629326
49	0x3f72903d	0.9475134
50	0x3f4845bb	0.782314
51	0x3fbe90bc	1.488792
52	0x3f6baa2f	0.92056555
53	0x3f3eb8b2	0.7450057
54	0x3f663a2b	0.8993251
55	0x3f4e6d0a	0.8063513
56	0x3f5a899d	0.8536623
57	0x3f5d9224	0.8655112
58	0x3f7513f8	0.95733595
59	0x3f33887f	0.7013015
60	0x3f3d404e	0.73926246
61	0x3f7a87db	0.9786355
62	0x3f63f1c3	0.89040774
63	0x3f51766e	0.81821334

net.layer2.1.bias f4 [64]
0	0xbea5e1ab	-0.32398733
1	0xbf18d1c5	-0.5969508
2	0xbea27e2d	-0.3173689
3	0xbec103f8	-0.3769834
4	0xbed27b9b	-0.41109928
5	0xbee50493	-0.44730052
6	0xbf6763d7	-0.9038672
7	0xbee29ea0	-0.44261646
8	0xbdc48e77	-0.095974855
9	0xbf229b14	-0.6351788
10	0xbcfe00d0	-0.031006247
11	0xbf13aa8d	-0.57682115
12	0xbf2cb221	-0.67459303
13	0xbf217fff	-0.6308593
14	0xbe346419	-0.17616309
15	0xbe9db658	-0.3080318
16	0xbe8bce06	-0.2730562
17	0xbea73337	-0.3265626
18	0x3eaa5354	0.332667
19	0xbf33ec1e	-0.7028216
20	0xbf23af67	-0.6393952
21	0xbeac958f	-0.33707854
22	0xbe13f841	-0.1445017
23	0xbf8014a0	-1.0006294
24	0xbec26157	-0.3796489
25	0xbf40b671	-0.75278383
26	0xbf7b4cf3	-0.9816429
27	0x3dbd984c	0.09257564
28	0xbf6c77ad	-0.9237011
29	0xbec76f38	-0.3895204
30	0xbf10f5a2	-0.56624806
31	0xbefbd6a0	-0.49187183
32	0xbf5359b5	-0.8255876
33	0xbe99bc5f	-0.30026528
34	0xbf533257	-0.8249869
35	0xbf85fb9a	-1.0467408
36	0xbeecc4d2	-0.46243912
37	0xbf6ac3bb	-0.9170491
38	0xbf34dcbd	-0.7064932
39	0xbf45c32e	-0.77250946
40	0xbf20a154	-0.6274617
41	0xbf3eb042	-0.744877
42	0xbf7fb9c8	-0.99892855
43	0xbf22f004	-0.63647485
44	0xbe51ac99	-0.20475997
45	0xbeb1d423	-0.3473216
46	0xbef9ea80	-0.48811722
47	0xbf467f23	-0.77537745
48	0xbf6a43f4	-0.9150994
49	0xbf0b1f98	-0.54345083
50	0xbed28de4	-0.4112388
51	0xbeed7a8a	-0.46382552
52	0xbe901b48	-0.28145814
53	0xbf49561c	-0.7864702
54	0xbf78407a	-0.96973383
55	0xbf905212	-1.1275046
56	0xbf0cce7e	-0.5500258
57	0xbe692b74	-0.22770482
58	0xbf6ea5a7	-0.93221515
59	0xbe3ee6e2	-0.18642762
60	0xbe9e435c	-0.30910766
61	0xbf880075	-1.062514
62	0xbee63a6d	-0.4496645
63	0x3e024a2a	0.12723604

net.layer2.1.running_mean f4 [64]
0	0x00000000	0.0
1	0x00000000	0.0
2	0x00000000	0.0
3	0x00000000	0.0
4	0x00000000	0.0
5	0x00000000	0.0
6	0x00000000	0.0
7	0x00000000	0.0
8	0x00000000	0.0
9	0x00000000	0.0
10	0x00000000	0.0
11	0x00000000	0.0
12	0x00000000	0.0
13	0x00000000	0.0
14	0x00000000	0.0
15	0x00000000	0.0
16	0x00000000	0.0
17	0x00000000	0.0
18	0x00000000	0.0
19	0x00000000	0.0
20	0x00000000	0.0
21	0x00000000	0.0
22	0x00000000	0.0
23	0x00000000	0.0
24	0x00000000	0.0
25	0x00000000	0.0
26	0x00000000	0.0
27	0x00000000	0.0
28	0x00000000	0.0
29	0x00000000	0.0
30	0x00000000	0.0
31	0x00000000	0.0
32	0x00000000	0.0
33	0x00000000	0.0
34	0x00000000	0.0
35	0x00000000	0.0
36	0x00000000	0.0
37	0x00000000	0.0
38	0x00000000	0.0
39	0x00000000	0.0
40	0x00000000	0.0
41	0x00000000	0.0
42	0x00000000	0.0
43	0x00000000	0.0
44	0x00000000	0.0
45	0x00000000	0.0
46	0x00000000	0.0
47	0x00000000	0.0
48	0x00000000	0.0
49	0x00000000	0.0
50	0x00000000	0.0
51	0x00000000	0.0
52	0x00000000	0.0
53	0x00000000	0.0
54	0x00000000	0.0
55	0x00000000	0.0
56	0x00000000	0.0
57	0x00000000	0.0
58	0x00000000	0.0
59	0x00000000	0.0
60	0x00000000	0.0
61	0x00000000	0.0
62	0x00000000	0.0
63	0x00000000	0.0

net.layer2.1.running_var f4 [64]
0	0x3f800000	1.0
1	0x3f800000	1.0
2	0x3f800000	1.0
3	0x3f800000	1.0
4	0x3f800000	1.0
5	0x3f800000	1.0
6	0x3f800000	1.0
7	0x3f800000	1.0
8	0x3f800000	1.0
9	0x3f800000	1.0
10	0x3f800000	1.0
11	0x3f800000	1.0
12	0x3f800000	1.0
13	0x3f800000	1.0
14	0x3f800000	1.0
15	0x3f800000	1.0
16	0x3f800000	1.0
17	0x3f800000	1.0
18	0x3f800000	1.0
19	0x3f800000	1.0
20	0x3f800000	1.0
21	0x3f800000	1.0
22	0x3f800000	1.0
23	0x3f800000	1.0
24	0x3f800000	1.0
25	0x3f800000	1.0
26	0x3f800000	1.0
27	0x3f800000	1.0
28	0x3f800000	1.0
29	0x3f800000	1.0
30	0x3f800000	1.0
31	0x3f800000	1.0
32	0x3f800000	1.0
33	0x3f800000	1.0
34	0x3f800000	1.0
35	0x3f800000	1.0
36	0x3f800000	1.0
37	0x3f800000	1.0
38	0x3f800000	1.0
39	0x3f800000	1.0
40	0x3f800000	1.0
41	0x3f800000	1.0
42	0x3f800000	1.0
43	0x3f800000	1.0
44	0x3f800000	1.0
45	0x3f800000	1.0
46	0x3f800000	1.0
47	0x3f800000	1.0
48	0x3f800000	1.0
49	0x3f800000	1.0
50	0x3f800000	1.0
51	0x3f800000	1.0
52	0x3f800000	1.0
53	0x3f800000	1.0
54	0x3f800000	1.0
55	0x3f800000	1.0
56	0x3f800000	1.0
57	0x3f800000	1.0
58	0x3f800000	1.0
59	0x3f800000	1.0
60	0x3f800000	1.0
61	0x3f800000	1.0
62	0x3f800000	1.0
63	0x3f800000	1.0

net.layer3.0.weight f4 [64, 64, 3, 3]
0	0x3deaf182	0.11471845
1	0x3de746a3	0.1129277
2	0xbdf876a5	-0.12132005
3	0x3ea65ddb	0.3249348
4	0x3e2dc25c	0.16968673
5	0xbd662c5d	-0.056194652
6	0x3ca9454e	0.02066293
7	0x3c0d5e56	0.0086284485
8	0xbe28b808	-0.16476452
9	0xbb8107db	-0.003937704
10	0x3eb34b23	0.35018262
11	0xbdb8d77a	-0.09025474
12	0x3ec1e430	0.37869406
13	0x3ef1bec7	0.47215864
14	0x3dff842c	0.12476382
15	0x3cce45c6	0.025179755
16	0x3ea6e877	0.32599232
17	0xbc4b414c	-0.012405705
18	0xbdc6d3a0	-0.09708333
19	0xbd945097	-0.07241934
20	0xbdc6d4a2	-0.09708525
21	0x3d06773d	0.03282856
22	0x3c8a6579	0.016894089
23	0xbe0a6f51	-0.13519026
24	0x3dd67231	0.10470999
25	0x3b94600b	0.004528051
26	0x3a02df30	0.0004992364
27	0x3deabd73	0.11461916
28	0xbd9d63ef	-0.076850764
29	0xbc86956c	-0.016428672
30	0x3e1e0694	0.15432197
31	0x3e1d1be4	0.1534267
32	0x3d2cc59c	0.042180642
33	0x3dc5a7e6	0.09651165
34	0x3d903afe	0.07042502
35	0xbddd5b82	-0.10808469
36	0xbddf5896	-0.10905568
37	0x3e12ffd3	0.14355402
38	0xbe121308	-0.14265072
39	0x3d7d3929	0.06182209
40	0x3e76cf90	0.24102616
41	0x3ca290e0	0.019844472
42	0x3d35d6f3	0.044394445
43	0x3e2da251	0.1695645
44	0xbe32bc15	-0.1745456
45	0x3c8c4760	0.017123878
46	0x3df02795	0.117263
47	0x3cd2886c	0.025699817
48	0xbdd96cf8	-0.10616487
49	0x3bfdc2a3	0.00774415
50	0xbe178a5b	-0.14798872
51	0xbd12501d	-0.035720933
52	0xbde1b7e7	-0.11021405
53	0xbdf2382b	-0.118271194
54	0xbdc7d30d	-0.097570516
55	0x3b158b05	0.0022818458
56	0xbd6e2391	-0.058139388
57	0xbe3716dc	-0.17879814
58	0xbe1d2134	-0.15344697
59	0xbcdf5ac2	-0.027264956
60	0xbde86dee	-0.113490924
61	0x3b606490	0.0034239627
62	0xbcd2f8df	-0.025753437
63	0x3df477c8	0.11936909
64	0xbde26c24	-0.110557824
65	0xbd148b0c	-0.036265418
66	0xbde767b1	-0.112990744
67	0xbc6e0d58	-0.014529549
68	0xbe0e9923	-0.13925605
69	0xbd852f5f	-0.06503176
70	0xbca83bc2	-0.020536307
71	0xbe2ce35f	-0.1688361
72	0x3dac1893	0.08403125
73	0x3dbb7bdf	0.09154486
74	0xbd86f9dd	-0.065906264
75	0xbe3e7d9e	-0.18602607
76	0x3da4d4f5	0.08048431
77	0xbe0f3e82	-0.13988689
78	0xbddf837c	-0.109137505
79	0xbe1b5967	-0.15170823
80	0xbe63a19b	-0.22229616
81	0x3dbb4f64	0.09146002
82	0x3dd5af1c	0.1043379
83	0x3b67253b	0.0035269994
84	0x3df21ed2	0.11822285
85	0x3e16db1f	0.14732026
86	0x3d71c2f9	0.05902383
87	0x3caafc30	0.020872205
88	0xbd98c032	-0.07458533
89	0xbd47b6a5	-0.048758168
90	0x3e5ee435	0.21766742
91	0x3df514b5	0.1196684
92	0x3dd87aa4	0.10570267
93	0x3c9934ca	0.01870193
94	0xbdda2b8d	-0.10652838
95	0xbe7d3ee1	-0.24731018
96	0xbd040194	-0.032228068
97	0xbe67f997	-0.22653805
98	0xbe473145	-0.19452389
99	0x3d2dc73f	0.042426344
100	0x3e2214ee	0.15828297
101	0xbd8777bd	-0.06614635
102	0x3d4e41eb	0.050355833
103	0x3e2c6a93	0.1683753
104	0xbd368e59	-0.044569347
105	0xbd337b1b	-0.043818574
106	0xbc181334	-0.009281922
107	0xbe63579b	-0.22201388
108	0xbd9f0050	-0.077637315
109	0xbcce558e	-0.02518728
110	0xbd2c9e85	-0.042143364
111	0xbd743f87	-0.059630897
112	0xbd541b4a	-0.051783837
113	0xbd712158	-0.05886969
114	0x3cd26aa7	0.025685621
115	0xbdbcfc9d	-0.0922787
116	0xbe558484	-0.20851332
117	0x3c313076	0.010814777
118	0xbd9cb35c	-0.076513976
119	0xbe12b506	-0.14326867
120	0x3c61ed8c	0.013789546
121	0x3d3b6906	0.045754455
122	0xbe32d3ea	-0.17463651
123	0xbd795669	-0.060873423
124	0xbdf746b1	-0.1207403
125	0xbcb62438	-0.022234067
126	0x3e07ee42	0.13274482
127	0xbd1f750f	-0.038929995
128	0xbe064cb8	-0.13115203
129	0x3e2dd49c	0.16975635
130	0xbbf2911e	-0.007402553
131	0xbe4ce677	-0.2000979
132	0x3d1cea2e	0.03830927
133	0xbdd1668e	-0.10224639
134	0xbe8ac3cd	-0.2710251
135	0x3d3360d6	0.04379352
136	0xbd23a413	-0.039951395
137	0x3c0df13f	0.008663475
138	0xbd58b75d	-0.052909244
139	0xbc4d70f9	-0.012539142
140	0xbca79581	-0.020457031
141	0xbdae7aff	-0.085195534
142	0xbd7d31c5	-0.061815042
143	0xbe160ae7	-0.14652596
144	0xbce3aed0	-0.027793318
145	0xbc942580	-0.018084288
146	0x3d0c704c	0.034286782
147	0x3a5a52ce	0.0008328379
148	0xbd55763e	-0.052114718
149	0xbb5d944a	-0.003381031
150	0xbda34141	-0.079714306
151	0xbdd0999d	-0.101855494
152	0xbdd536d5	-0.10410849
153	0xbdaa8396	-0.08325879
154	0xbc82c458	-0.015962765
155	0xbe2c0c4c	-0.16801566
156	0x3bf27a74	0.0073998515
157	0x3d710bb8	0.058849066
158	0xbe344eca	-0.1760818
159	0xbd8243b7	-0.06360572
160	0xbdd4c604	-0.10389331
161	0xbe21d221	-0.15802814
162	0xbe0d0e6e	-0.13775036
163	0x3c9348f4	0.017979123
164	0xbd25ca82	-0.04047633
165	0xbdab4bd6	-0.08364074
166	0xbddf402a	-0.1090091
167	0xbdb61a05	-0.088916816
168	0xbdf259c8	-0.11833531
169	0x3d0a546f	0.03377193
170	0xbd6a7f1d	-0.05725013
171	0x3d6393df	0.055560943
172	0x3dab679a	0.0836937
173	0xbc79b05e	-0.015239803
174	0xbdc2c9c3	-0.09511139
175	0xbde5f686	-0.11228661
176	0x3d12d3f7	0.035846677
177	0xbd89fabd	-0.06737278
178	0xbde8775d	-0.11350892
179	0xbe0eb3bb	-0.13935749
180	0x3bfb54c1	0.0076700156
181	0xbd287f2c	-0.041136906
182	0xbdd06993	-0.10176387
183	0xbe04fc81	-0.12986948
184	0xbe7c6bd8	-0.24650514
185	0xbe52a22e	-0.20569679
186	0x3c6bb76d	0.014386994
187	0xbe641862	-0.22274926
188	0xbd81195a	-0.063036636
189	0xbd19f3a1	-0.03758586
190	0xbdf7047d	-0.12061403
191	0xbd6b3af3	-0.057429265
192	0xbdb07216	-0.0861551
193	0xbd419119	-0.047257517
194	0xbdb47f09	-0.088132925
195	0xbba569ee	-0.005048028
196	0xbe94a9a0	-0.29035664
197	0xbdd6e33a	-0.10492559
198	0x3db6b677	0.08921521
199	0xbd099645	-0.033590574
200	0xbc9bf47e	-0.019037481
201	0xbd2df4d3	-0.04246981
202	0xbdc854b6	-0.09781782
203	0x3d8c1516	0.06839959
204	0x3d07a832	0.033119388
205	0xbd437284	-0.047716632
206	0xbe9cef27	-0.3065121
207	0xbd1a82b3	-0.0377223
208	0x3dab4f74	0.08364764
209	0xbc9c9288	-0.01911284
210	0xbe183526	-0.14864025
211	0xbd8e4257	-0.06946247
212	0xbd5b4360	-0.05353105
213	0xbdca00d3	-0.098634385
214	0xbe0dab68	-0.13834918
215	0xbe5320d7	-0.20617996
216	0x3da551a3	0.080722116
217	0xbd8db0cd	-0.06918488
218	0xbda8a5d8	-0.08234757
219	0xbd9fe1db	-0.078067504
220	0xbd2cc419	-0.0421792
221	0xbbc794c6	-0.006090733
222	0xbc1a38c8	-0.009412952
223	0xbdc948a9	-0.09828312
224	0xbe1e0881	-0.15432931
225	0x3946dcbd	0.00018964983
226	0xbde5009d	-0.111817576
227	0xbe27f43f	-0.16401766
228	0xbd26d86f	-0.04073375
229	0xbdf9dbd9	-0.12200136
230	0x3affaa5a	0.0019505725
231	0xbe0fd282	-0.14045146
232	0xbd70d6fd	-0.05879878
233	0xbe30746d	-0.17231913
234	0xbd46f632	-0.048574634
235	0xbe31a201	-0.17346956
236	0x3c1c2d03	0.009532216
237	0xbd4949e2	-0.049142726
238	0xb99bc234	-0.00029708596
239	0x3c8c64d9	0.017137932
240	0x3cdfd60f	0.02732375
241	0xbd76f482	-0.060291775
242	0xbd523e06	-0.05132868
243	0xbcd188b0	-0.025577873
244	0xbcd8eb20	-0.026479304
245	0xbd03e6b9	-0.032202456
246	0xbc54f96d	-0.012998921
247	0xbd4927e2	-0.0491103
248	0xbd06cb89	-0.03290895
249	0xbe0531ca	-0.13007274
250	0x3d2d3c37	0.042293753
251	0xbde4597c	-0.1114988
252	0xbcecf646	-0.028926026
253	0xbe1a90ef	-0.1509435
254	0xbdb0212a	-0.086000755
255	0xbda19eec	-0.0789164

net.layer3.0.bias f4 [64]
0	0xbcbe0cba	-0.023199428
1	0x3d8a2310	0.06744969
2	0x3d02621e	0.031831853
3	0x3d424719	0.047431085
4	0x3d219b89	0.03945497
5	0x3c9f877a	0.01947378
6	0xbc13c09e	-0.0090180915
7	0x3d197415	0.03746422
8	0xbca95717	-0.02067141
9	0x3c73f732	0.014890479
10	0x3d07e0af	0.03317326
11	0x3d14c042	0.036316164
12	0x3a88e357	0.0010443729
13	0x3b856285	0.0040705823
14	0x3c743a09	0.014906415
15	0x3ca3b7e2	0.019985143
16	0x3cabb0ce	0.02095833
17	0x3d014316	0.03155812
18	0x3c8498a4	0.016186066
19	0xbd273c69	-0.040829096
20	0xbb4a8b1d	-0.0030905672
21	0x3c89a537	0.016802413
22	0x3a936c3f	0.001124747
23	0xbd1bd59a	-0.038045503
24	0x3d3b55e7	0.04573622
25	0xbc673b1e	-0.014113216
26	0x3d1864df	0.037205573
27	0x3c8112ba	0.015756
28	0x3d2a9a56	0.041651092
29	0x3c411bc3	0.011786404
30	0xbcab137f	-0.02088332
31	0xbcb5cb75	-0.022191742
32	0xbcac86fa	-0.021060456
33	0x3a878b65	0.0010341225
34	0x3cbc15fb	0.0229597
35	0x3cb8ce62	0.022559348
36	0xbc21a66e	-0.00986634
37	0xbc8b5175	-0.017006615
38	0xbd208c1f	-0.03919613
39	0x3cdcf1ad	0.026970709
40	0x3c7a3280	0.015270829
41	0xbae629d0	-0.0017560069
42	0xbb831196	-0.003999899
43	0x3c6a53c1	0.014302195
44	0xbb0f1ccb	-0.002183723
45	0x3b87afb8	0.0041408204
46	0xbca82852	-0.020527039
47	0x3d11fd7a	0.035642125
48	0x3cf9599e	0.03043824
49	0xbcf48f31	-0.029853435
50	0xbd21f1c3	-0.039537203
51	0x3d0deb09	0.034647975
52	0x3c709de0	0.014686078
53	0xbc95978e	-0.018260743
54	0xbc7e82fa	-0.015534157
55	0x3c72b1e0	0.0148129165
56	0x3d1c3310	0.038134634
57	0x3ce14c2c	0.027502142
58	0xbd05bdf6	-0.032651864
59	0xbc903fe4	-0.01760859
60	0x3d401efe	0.046904556
61	0xbcb9c20a	-0.022675533
62	0x3cdf8d77	0.027289135
63	0x3c4c0c91	0.012454168

net.layer3.1.weight f4 [64]
0	0x3ed207ea	0.41021663
1	0x3ee219a4	0.44160187
2	0x3edc3535	0.43009344
3	0x3f959769	1.1686832
4	0x3ed60353	0.4179941
5	0x3fa0dd11	1.2567464
6	0x3eefb947	0.46821043
7	0x3ed472bc	0.41493785
8	0x3f7bc693	0.98349875
9	0x3fa1ab37	1.2630376
10	0x3f9faa16	1.2473781
11	0x3f941c0d	1.157106
12	0x3eeaee69	0.45885018
13	0x3f456890	0.77112675
14	0x3efbf560	0.49210644
15	0x3ecd29e5	0.40071025
16	0x3f00f85d	0.5037897
17	0x3ed27350	0.411036
18	0x3f5a2384	0.8521044
19	0x3eddd919	0.43329695
20	0x3edd1e22	0.43187052
21	0x3f30e4d2	0.6909915
22	0x3fc2d6e4	1.522183
23	0x3f814dde	1.0101888
24	0x3f8f7974	1.120894
25	0x3f27f6ea	0.65611136
26	0x3ee05465	0.43814388
27	0x3ed9fd7e	0.42576212
28	0x3eb56f9d	0.35436717
29	0x3eeb9888	0.4601481
30	0x3f994ead	1.1977135
31	0x3ef11247	0.47084257
32	0x3f8be3b6	1.0928867
33	0x3fa243c1	1.2676927
34	0x3f7d7c31	0.99017626
35	0x3edb268e	0.42802852
36	0x3fa7241e	1.3057897
37	0x3eebe560	0.46073437
38	0x3ef500c6	0.47852153
39	0x3f9e4c0b	1.2366956
40	0x3efb27ce	0.49053806
41	0x3ec2a447	0.3801596
42	0x3ef46efa	0.47740918
43	0x3eca0ef0	0.3946452
44	0x3ec99ad9	0.39375952
45	0x3f8ebbd8	1.1151075
46	0x3ef6ffc8	0.4824202
47	0x3fca17b7	1.5788487
48	0x3f8f954f	1.121744
49	0x3fb6381c	1.4235873
50	0x3eeba772	0.46026188
51	0x3f00726d	0.501746
52	0x3f65e6b4	0.8980515
53	0x3f7912a9	0.972941
54	0x3ed1ded8	0.4099033
55	0x3ef3f433	0.47647247
56	0x3ef8b0a6	0.48572272
57	0x3ee40d15	0.4454123
58	0x3ee20a82	0.44148642
59	0x3efd9cac	0.49533594
60	0x3faf418a	1.3691876
61	0x3f87d3f1	1.0611554
62	0x3f950179	1.1641074
63	0x3f0372f4	0.5134728

net.layer3.1.bias f4 [64]
0	0xbef2a5c0	-0.47392082
1	0xbe8933e4	-0.26797402
2	0xbee47e0a	-0.4462741
3	0x3d3bca23	0.04584707
4	0xbedfc119	-0.4370201
5	0x3d4f9310	0.05067736
6	0xbf002888	-0.50061846
7	0xbeda3c60	-0.42624187
8	0xbdc8630f	-0.09784519
9	0xbe2b472c	-0.16726369
10	0xbe76b269	-0.24091496
11	0xbda83f05	-0.08215145
12	0xbef3239f	-0.47488114
13	0xbe3cb3a2	-0.184279
14	0xbe704eb7	-0.23467527
15	0xbebd3207	-0.3695223
16	0xbef3370c	-0.47502935
17	0xbef80bbf	-0.48446462
18	0xbe2807b2	-0.16409186
19	0xbed031ad	-0.406629
20	0xbef984a6	-0.48734015
21	0xbf0e4421	-0.55572706
22	0xbebd7117	-0.37000343
23	0xbf0448b3	-0.5167343
24	0xbdcc7e7a	-0.09985061
25	0xbf0bc0de	-0.54591167
26	0xbeef7be1	-0.467742
27	0xbee97bdf	-0.4560232
28	0xbeb0d784	-0.34539425
29	0xbed55436	-0.4166581
30	0xbdda366b	-0.10654911
31	0xbee8aff7	-0.4544675
32	0x3e552092	0.20813206
33	0xbe0ce2b1	-0.13758351
34	0x3d8d4b7d	0.06899164
35	0xbee646f6	-0.44976014
36	0xbe30c555	-0.17262776
37	0xbedd09ce	-0.43171543
38	0xbec886b4	-0.3916527
39	0xbda732a5	-0.081639566
40	0xbebdd3ff	-0.37075803
41	0xbed4cc96	-0.41562337
42	0xbeef9150	-0.46790552
43	0xbeef0f64	-0.4669143
44	0xbee4d60e	-0.4469456
45	0xbe65f619	-0.2245716
46	0xbedadf23	-0.42748365
47	0x3e62cf0c	0.22149295
48	0xbcdb5a0b	-0.026776334
49	0xbde29b35	-0.1106476
50	0xbee29917	-0.44257423
51	0xbed75fca	-0.4206527
52	0xbdd368d3	-0.10322728
53	0xbe10f759	-0.14156856
54	0xbef754e1	-0.48306945
55	0xbeea2971	-0.45734742
56	0xbed5f9fa	-0.4179228
57	0xbef175fd	-0.4716033
58	0xbee09e78	-0.43870902
59	0xbedc197c	-0.42988193
60	0x3d0c0550	0.034184754
61	0x3d1b1b7d	0.03786801
62	0x3da9bf32	0.08288421
63	0xbef807bb	-0.48443398

net.layer3.1.running_mean f4 [64]
0	0x00000000	0.0
1	0x00000000	0.0
2	0x00000000	0.0
3	0x00000000	0.0
4	0x00000000	0.0
5	0x00000000	0.0
6	0x00000000	0.0
7	0x00000000	0.0
8	0x00000000	0.0
9	0x00000000	0.0
10	0x00000000	0.0
11	0x00000000	0.0
12	0x00000000	0.0
13	0x00000000	0.0
14	0x00000000	0.0
15	0x00000000	0.0
16	0x00000000	0.0
17	0x00000000	0.0
18	0x00000000	0.0
19	0x00000000	0.0
20	0x00000000	0.0
21	0x00000000	0.0
22	0x00000000	0.0
23	0x00000000	0.0
24	0x00000000	0.0
25	0x00000000	0.0
26	0x00000000	0.0
27	0x00000000	0.0
28	0x00000000	0.0
29	0x00000000	0.0
30	0x00000000	0.0
31	0x00000000	0.0
32	0x00000000	0.0
33	0x00000000	0.0
34	0x00000000	0.0
35	0x00000000	0.0
36	0x00000000	0.0
37	0x00000000	0.0
38	0x00000000	0.0
39	0x00000000	0.0
40	0x00000000	0.0
41	0x00000000	0.0
42	0x00000000	0.0
43	0x00000000	0.0
44	0x00000000	0.0
45	0x00000000	0.0
46	0x00000000	0.0
47	0x00000000	0.0
48	0x00000000	0.0
49	0x00000000	0.0
50	0x00000000	0.0
51	0x00000000	0.0
52	0x00000000	0.0
53	0x00000000	0.0
54	0x00000000	0.0
55	0x00000000	0.0
56	0x00000000	0.0
57	0x00000000	0.0
58	0x00000000	0.0
59	0x00000000	0.0
60	0x00000000	0.0
61	0x00000000	0.0
62	0x00000000	0.0
63	0x00000000	0.0

net.layer3.1.running_var f4 [64]
0	0x3f800000	1.0
1	0x3f800000	1.0
2	0x3f800000	1.0
3	0x3f800000	1.0
4	0x3f800000	1.0
5	0x3f800000	1.0
6	0x3f800000	1.0
7	0x3f800000	1.0
8	0x3f800000	1.0
9	0x3f800000	1.0
10	0x3f800000	1.0
11	0x3f800000	1.0
12	0x3f800000	1.0
13	0x3f800000	1.0
14	0x3f800000	1.0
15	0x3f800000	1.0
16	0x3f800000	1.0
17	0x3f800000	1.0
18	0x3f800000	1.0
19	0x3f800000	1.0
20	0x3f800000	1.0
21	0x3f800000	1.0
22	0x3f800000	1.0
23	0x3f800000	1.0
24	0x3f800000	1.0
25	0x3f800000	1.0
26	0x3f800000	1.0
27	0x3f800000	1.0
28	0x3f800000	1.0
29	0x3f800000	1.0
30	0x3f800000	1.0
31	0x3f800000	1.0
32	0x3f800000	1.0
33	0x3f800000	1.0
34	0x3f800000	1.0
35	0x3f800000	1.0
36	0x3f800000	1.0
37	0x3f800000	1.0
38	0x3f800000	1.0
39	0x3f800000	1.0
40	0x3f800000	1.0
41	0x3f800000	1.0
42	0x3f800000	1.0
43	0x3f800000	1.0
44	0x3f800000	1.0
45	0x3f800000	1.0
46	0x3f800000	1.0
47	0x3f800000	1.0
48	0x3f800000	1.0
49	0x3f800000	1.0
50	0x3f800000	1.0
51	0x3f800000	1.0
52	0x3f800000	1.0
53	0x3f800000	1.0
54	0x3f800000	1.0
55	0x3f800000	1.0
56	0x3f800000	1.0
57	0x3f800000	1.0
58	0x3f800000	1.0
59	0x3f800000	1.0
60	0x3f800000	1.0
61	0x3f800000	1.0
62	0x3f800000	1.0
63	0x3f800000	1.0

net.layer4.0.weight f4 [64, 64, 3, 3]
0	0x3d8f7262	0.07004239
1	0xbdfdfa1a	-0.12401219
2	0x3d1f36e4	0.038870707
3	0xbd37ce05	-0.04487421
4	0x3d5264bf	0.05136561
5	0x3c93f091	0.018059047
6	0xbd81a753	-0.06330743
7	0x3cdcf646	0.026972901
8	0x3cf347c6	0.02969731
9	0xbcfb3cce	-0.030668642
10	0x3e52b7ab	0.20577876
11	0x3e4a4c1c	0.19755596
12	0x3dc8b947	0.09800964
13	0xbd82f0f6	-0.06393616
14	0xbafc4a9d	-0.0019248311
15	0x3e9d2334	0.3069092
16	0xbd6576a8	-0.056021363
17	0x3dd5a210	0.104313016
18	0x3d0698d9	0.03286061
19	0x3d860d9a	0.06545563
20	0x3d8c8435	0.06861154
21	0x3d4fc8f8	0.050728768
22	0x3b4e9192	0.0031519872
23	0x3d23edf2	0.040021844
24	0x3d28f8f8	0.04125306
25	0x3d66ef75	0.056380708
26	0x3c38a56a	0.011269907
27	0x3bd8ebad	0.0066198916
28	0xbbc75faa	-0.006084402
29	0x3bc69a27	0.006060857
30	0xbbdbf857	-0.006712954
31	0xbc2c18e8	-0.010503985
32	0xbb9bbd25	-0.0047527724
33	0xbd0c9f8f	-0.034331854
34	0x3c2d1092	0.010563033
35	0x3c863712	0.016383681
36	0xbc7f7c7f	-0.015593647
37	0xbbb2bdb6	-0.005454744
38	0xbcb390b0	-0.021919578
39	0xbce2f114	-0.027702846
40	0xbdad1772	-0.084517375
41	0xbc3860af	-0.01125352
42	0x3d78ce8b	0.06074385
43	0xbd733603	-0.05937768
44	0xbc042a69	-0.008066752
45	0xbce05d03	-0.027388101
46	0xbadedde4	-0.0017003384
47	0xbb4b6ef5	-0.0031041477
48	0xbb97728a	-0.0046218084
49	0x3b9328e5	0.004490959
50	0x3c25c696	0.010118147
51	0xbca6bbf6	-0.020353299
52	0xbaa167dc	-0.0012314278
53	0x3b5999ab	0.0033203166
54	0x3d12338f	0.0356937
55	0x3d376466	0.04477348
56	0xbc850a49	-0.016240256
57	0x3d8f6244	0.070011646
58	0x3da176de	0.07884
59	0xbcf24481	-0.02957368
60	0xbd7fc601	-0.06244469
61	0xbd570598	-0.05249557
62	0xbcc796e9	-0.024363952
63	0x3d7a0345	0.061038274
64	0xbc6b77b1	-0.014371798
65	0x3c861fe3	0.016372627
66	0xbd2d6dee	-0.042341165
67	0x3d50fcbe	0.051022284
68	0x3cc7489d	0.024326617
69	0xbc84100c	-0.016120933
70	0xbad9e1d0	-0.0016623084
71	0x3c9a6aee	0.018849816
72	0xbb828895	-0.003983567
73	0x3b831f91	0.0040015657
74	0x3aea041c	0.0017854008
75	0xbd32dbd0	-0.04366666
76	0x3bf78d28	0.007554669
77	0x3aa5b85d	0.0012643446
78	0xbb8453b7	-0.0040383
79	0xbbb10a4d	-0.0054028393
80	0x3b93ddf7	0.0045125443
81	0x3c0195ba	0.007909233
82	0xbc093dfe	-0.0083765965
83	0x3a6b2048	0.0008969349
84	0xbc3bf3a6	-0.0114716645
85	0xbbc73c28	-0.006080169
86	0xbb4261c8	-0.0029660333
87	0xbcf7bb1a	-0.030240584
88	0x3b73b05a	0.003718397
89	0x3b6962e5	0.0035611924
90	0xbb9c778e	-0.004774994
91	0x3bcc1de1	0.006229148
92	0xbb7e1524	-0.0038769925
93	0x3c3aacef	0.01139377
94	0xbc3da42a	-0.011574784
95	0xbb975237	-0.004617955
96	0xbcdfa47a	-0.027300108
97	0x3b7dc7a4	0.0038723731
98	0xbb69c3c9	-0.0035669676
99	0xbb7a2bb2	-0.0038173017
100	0xbc1f6ae9	-0.009730079
101	0x3b95e4d2	0.0045743966
102	0x3a675117	0.0008824034
103	0xbbc52007	-0.006015781
104	0xb9cc3af4	-0.00038953836
105	0xbabcfd57	-0.0014418763
106	0x3c062113	0.008186596
107	0xbb8c7149	-0.0042859656
108	0xbd57967c	-0.052633747
109	0x3cc2edf6	0.02379511
110	0x3dd7fd06	0.10546307
111	0x3d22b78d	0.03972583
112	0xbd6b875a	-0.05750213
113	0x3dd0efcc	0.102019876
114	0xbda9759c	-0.08274385
115	0xbd6d69c1	-0.057962183
116	0x3d3ee7a6	0.046607636
117	0x3b8efd0d	0.004363662
118	0xbce76363	-0.028245633
119	0xbd375861	-0.04476202
120	0xbca85c9e	-0.020551976
121	0x3c39f81f	0.011350661
122	0x3c9193fe	0.017770763
123	0xbcb21a56	-0.021741074
124	0x3c24efac	0.010066908
125	0x3c24f925	0.010069166
126	0xbb7b1b57	-0.0038315856
127	0x3e58d7cf	0.21176074
128	0x3e79f594	0.24410087
129	0x3d8b209c	0.06793329
130	0xbdb4e6c1	-0.08833075
131	0xbd682b61	-0.056681994
132	0x3e7ec306	0.24879083
133	0x3d166cf8	0.036725014
134	0x3da6d4f0	0.08146083
135	0x3ba479ae	0.005019388
136	0x3cd6d02d	0.026222313
137	0x3d1a2e94	0.037642077
138	0x3db7dc81	0.08977605
139	0xbd4f8dcb	-0.050672334
140	0xbc37f7a7	-0.0112284785
141	0xbcb0b2e1	-0.021569671
142	0xbcb9a1e4	-0.022660203
143	0x3d1be1d7	0.038057175
144	0x3b005858	0.0019583907
145	0xbddc8eb0	-0.10769403
146	0x3ca19b56	0.01972739
147	0x3dc78647	0.09742408
148	0x3dab5de8	0.083675206
149	0x3d51159e	0.051046006
150	0x3ded21dd	0.115787245
151	0x3c92429b	0.017854026
152	0xbd0eb88e	-0.034843974
153	0x3ca9997e	0.020703074
154	0x3cb7e6ef	0.022448985
155	0xbcb35d2c	-0.021895014
156	0x3d2ccbf4	0.042186692
157	0x3dfd9244	0.123814136
158	0x3d2e0c40	0.04249215
159	0xbd94023e	-0.0722699
160	0xbe05b8ba	-0.13058749
161	0x3bbb41c1	0.0057146256
162	0xbc62bbf2	-0.013838755
163	0x3aea87b7	0.0017893229
164	0xbc47e494	-0.012200493
165	0xbcfc67d8	-0.030811235
166	0x3be3f65d	0.006956859
167	0xbbec1c68	-0.0072055347
168	0xbcaec398	-0.0213335
169	0x3c2a7289	0.010403284
170	0x39ef3673	0.000456262
171	0xbbf78b9d	-0.007554485
172	0xbcb1be0c	-0.021697067
173	0x3ce0dca4	0.02744896
174	0xbce352e3	-0.027749484
175	0xbcdf9405	-0.02729226
176	0x3d24f2f1	0.04027075
177	0xbda288e2	-0.079362646
178	0xbc941794	-0.01807765
179	0x3cfcf67c	0.030879252
180	0xbdd59b14	-0.104299694
181	0x3d5f9f57	0.054595318
182	0x3d18b8e1	0.03728569
183	0xbcfca578	-0.03084062
184	0xbded00c0	-0.11572409
185	0x3d3e873d	0.046515692
186	0xbda37f2f	-0.07983243
187	0xbd1a5c27	-0.03768554
188	0x3d886de6	0.066615865
189	0x3c5b42df	0.0133826425
190	0x3c90d3b1	0.017679067
191	0xbb3dd25e	-0.00289645
192	0x3d862f85	0.065520324
193	0xbd1885af	-0.037236866
194	0x3d419bce	0.047267728
195	0xbd84316e	-0.064547405
196	0xbe04ee2e	-0.12981483
197	0x3c8f2ec6	0.017478358
198	0x3c95208a	0.018203992
199	0xba9e3001	-0.001206875
200	0x3be65461	0.0070291017
201	0x3b8a2c2e	0.0042166924
202	0x3b67d639	0.003537549
203	0xbbc4a19f	-0.006000712
204	0x3c197d9c	0.0093683265
205	0xbb95c8dc	-0.0045710634
206	0xbb9c93cb	-0.0047783605
207	0x3c622e1e	0.0138049405
208	0x3c4c4275	0.0124670165
209	0xbc699d41	-0.014258684
210	0xbc8c5f76	-0.017135363
211	0x3a9b217b	0.001183554
212	0xbbceb9c5	-0.0063087665
213	0x3ba9f621	0.0051868116
214	0xbc3aa26c	-0.011391263
215	0xbbf41e6b	-0.007449915
216	0xbb124628	-0.0022319648
217	0xbc074e06	-0.008258348
218	0x3b136f6f	0.002249684
219	0xbbde2770	-0.0067796037
220	0x3b881072	0.004152351
221	0xbc34a7c5	-0.0110263275
222	0xbc142bc6	-0.0090436395
223	0x3bdea888	0.006794993
224	0x3c11c1ff	0.00889635
225	0xbcc442b2	-0.023957584
226	0xbcd267a9	-0.025684195
227	0x3bdf00d0	0.006805517
228	0xbd63aa1b	-0.055582147
229	0x3d913a46	0.07091193
230	0xbd4670ad	-0.0484473
231	0xbc29399b	-0.010328676
232	0xbd848e9a	-0.064725116
233	0x3de76d74	0.113001734
234	0x3aa533dc	0.0012603956
235	0x3d32d9ea	0.04366485
236	0x3d82d17c	0.06387612
237	0x3ddc1566	0.10746269
238	0x3da79ff8	0.081848085
239	0xbd4f3d0e	-0.050595336
240	0x3dadf8d3	0.08494725
241	0x3d09952d	0.03358953
242	0x3d64b6ff	0.05583858
243	0x3c870279	0.016480671
244	0xbc3ce445	-0.011529033
245	0x3d452f66	0.048140906
246	0x3d933c64	0.07189253
247	0xbcd7a02c	-0.026321493
248	0xbdf09098	-0.11746329
249	0x3ce5bc02	0.02804375
250	0xbc5ccef9	-0.0134770805
251	0xbd87323a	-0.06601377
252	0xbd4c6fbd	-0.04991125
253	0xbd78b8c3	-0.060723078
254	0xbddb5a15	-0.10710541
255	0x3e06d833	0.13168411
