mp/maml_mini_5way_5shot_best_step10000_conv_second.pt (torch, 498060 bytes, 26 tensors)

net.layer1.0.weight f4 [64, 3, 3, 3]
0.013424386 -0.16923767 0.074737824 0.19116823 -0.1852188 0.039625492 0.018696975 -0.07210437
0.052628413 0.11067884 -0.1564892 0.09021332 0.09665183 -0.18497069 0.10725405 0.1157295
-0.19591686 0.042252183 0.006162572 -0.16606948 0.18293023 0.098370105 -0.20663442 0.06930199
-0.09181208 0.002272478 0.10228845 -0.076297656 0.037825953 -0.07087625 -0.03071872 -0.088048704
-0.02567306 -0.0023274845 0.03223618 -0.035301197 -0.07784155 0.09695003 0.1138507 -0.095263526
0.10308121 0.18186633 0.04552242 0.11948466 0.16582228 -0.11008594 0.00013832923 0.16776763
-0.054982025 -0.09480198 0.16401868 -0.2210321 -0.22574398 -0.11961232 -0.0023312955 0.07391071
-0.01158227 -0.052825343 0.0158084 0.07088803 -0.020561544 -0.03867784 -0.060509283 -0.015986793
-0.054249175 0.12155848 0.011791061 -0.0054558455 -0.05169924 0.047999345 0.028403245 -0.04313758
-0.3264019 -0.26583403 0.016723981 -0.46577206 -0.36184675 0.07690047 -0.28657666 -0.25969243
0.15213375 0.047932476 0.18707508 0.028304333 -0.09383769 0.020443773 0.043487497 -0.21249041
-0.17168066 -0.07834468 0.039508127 0.046203908 0.14500096 0.029808458 -0.051796373 0.19199172
-0.0811488 0.0008929437 -0.024039345 -0.03342844 -0.0052307546 -0.0062266383 0.040975176 -0.0018047742
0.056477644 -0.07844227 0.03418576 0.06170794 0.019304361 -0.14497878 0.0902858 0.08094598
-0.08869924 -0.1877174 0.23646618 -0.068273164 -0.11325689 0.1403072 -0.065283395 0.014328455
0.1995271 -0.039577205 -0.031477712 0.2162609 -0.057263035 -0.05146647 -0.047438547 -0.105072215
0.056216866 0.13265288 0.007164577 -0.12684156 0.03411423 -0.11129592 0.046163466 -0.2096651
0.041705657 -0.22698642 0.11744065 0.15543607 0.10973314 -0.023983147 -0.09844475 -0.052724652
-0.09832196 0.043930702 -0.13092583 0.14842625 0.19219951 0.2029429 0.028082648 0.04325403
-0.15916562 -0.04008962 -0.029297238 -0.039768383 0.08233396 0.026230568 0.0916843 -0.07987049
-0.055095598 -0.07625577 0.17926922 0.18578345 0.12968254 0.19459963 0.2060882 0.03295558
0.21315499 0.108599156 0.031985104 -0.028630866 -0.07783981 -0.0084450105 0.012250171 -0.07528224
-0.039569624 -0.08931396 0.03646574 -0.089898825 0.03834417 -0.02787161 -0.11974063 -0.027575731
-0.047816355 -0.08427336 -0.091911845 -0.14166422 -0.10201151 -0.024744311 -0.03260887 -0.052635558
0.033369724 0.032167044 0.04989245 0.04815703 0.1048771 -0.06595966 0.15632032 0.054825507
0.046746735 0.1850092 0.16383097 0.11059737 0.15052226 0.17716558 0.23903885 -0.056917652
0.033119705 -0.119150825 0.124554224 0.0509658 0.009145532 0.13619691 0.16762541 0.075145975
-0.022878287 0.013372893 0.04461137 -0.11445308 0.017072529 0.044153687 -0.023039775 0.075102724
0.029607307 -0.10823382 0.04988539 0.11682966 -0.014814678 0.014423942 0.14425567 -0.029984212
0.19946136 0.26543263 -0.2101577 -0.17218575 -0.17090912 -0.06563367 0.005144942 -0.04811219
0.075142406 0.17869289 0.10841968 0.19110696 0.055105437 -0.14806825 -0.07843181 -0.01194264
0.09667692 -0.007077207 -0.0062707546 0.10954804 0.1976055 0.011871921 -0.12565471 -0.17118125
00000000: f5f1 5b3c a44c 2dbe 2510 993d 9bc1 433e
00000010: ffa9 3dbe 574e 223d 662a 993c 75ab 93bd
00000020: e490 573d 96ab e23d b43e 20be c3c1 b83d
00000030: 65f1 c53d f568 3dbe 03a8 db3d 9703 ed3d
00000040: 6e9e 48be a010 2d3d 67ef c93b 1e0e 2abe
00000050: 1052 3b3e 4476 c93d f997 53be 34ee 8d3d
00000060: f907 bcbd dbed 143b 9b7c d13d f241 9cbd
00000070: 63ef 1a3d 9127 91bd d3a5 fbbc e152 b4bd
00000080: 4f50 d2bc b688 18bb 160a 043d fd97 10bd
00000090: 646b 9fbd bd8d c63d 8e2a e93d 8619 c3bd
000000a0: 3e1c d33d 2b3b 3a3e b875 3a3d 60b4 f43d
000000b0: 51cd 293e bd74 e1bd 780c 1139 47cb 2b3e
000000c0: d534 61bd 8a27 c2bd 83f4 273e 3d56 62be
000000d0: 6e29 67be 4ef7 f4bd a6c8 18bb 805e 973d
000000e0: 90c3 3dbc 635f 58bd 9e80 813c be2d 913d
000000f0: af70 a8bc a86c 1ebd 95d8 77bd bcf6 82bc
00000100: 6234 5ebd a7f3 f83d 4b2f 413c f3c6 b2bb
00000110: 95c2 53bd f69a 443d ecad e83c 08b1 30bd
00000120: 261e a7be 661b 88be bb00 893c ad79 eebe
00000130: fa43 b9be fe7d 9d3d 2dba 92be 68f6 84be
00000140: f3c8 1b3e d854 443d 9c90 3f3e 7dde e73c
00000150: fa2d c0bd b379 a73c f21f 323d 1697 59be
00000160: 0ecd 2fbe 2d73 a0bd 46d3 213d 4f40 3d3d
00000170: 227b 143e de30 f43c 6f28 54bd 7a99 443e
00000180: 5831 a6bd 7014 6a3a 29ee c4bc 43ec 08bd
00000190: c066 abbb d408 ccbb 96d5 273d 2c8e ecba
000001a0: 1a55 673d 57a6 a0bd 5e06 0c3d 77c1 7c3d
000001b0: 2e24 9e3c 5175 14be c3e7 b83d 02c7 a53d
000001c0: f2a7 b5bd fd38 40be 3124 723e cdd2 8bbd
000001d0: 3af3 e7bd b1ac 0f3e 4db3 85bd e5c1 6a3c
000001e0: d550 4c3e b51b 22bd c6ee 00bd 7f73 5d3e
000001f0: a58c 6abd 81ce 52bd ec4e 42bd 1a30 d7bd
00000200: a843 663d 28d6 073e d4c4 ea3b c1e2 01be
00000210: 5dbb 0b3d 1eef e3bd e715 3d3d 73b2 56be
00000220: 8dd3 2a3d 216f 68be b984 f03d a22a 1f3e
00000230: c5bb e03d 4e78 c4bc 679d c9bd cef5 57bd
00000240: 065d c9bd aef0 333d 6c11 06be 0dfd 173e
00000250: f3cf 443e 43d0 4f3e 950d e63c 232b 313d
00000260: 50fc 22be 0335 24bd c300 f0bc 2ce4 22bd
00000270: b59e a83d 7de1 d63c fac4 bb3d 2493 a3bd
00000280: ecab 61bd fc2b 9cbd 5a92 373e 043e 3e3e
00000290: 80cb 043e 2045 473e c908 533e 6efc 063d
000002a0: 4d45 5a3e 3c69 de3d d002 033d 478b eabc
000002b0: 7a6a 9fbd f15c 0abc f1b4 483c 932d 9abd
000002c0: c213 22bd 3dea b6bd 1a5d 153d e01c b8bd
000002d0: c70e 1d3d 0153 e4bc 933a f5bd 80e6 e1bc
000002e0: 15db 43bd 8397 acbd 473c bcbd 6d10 11be
000002f0: 69eb d0bd 95b4 cabc e190 05bd 6298 57bd
00000300: b1ae 083d 97c1 033d 075c 4c3d 4e40 453d
00000310: cec9 d63d dc15 87bd 6f12 203e b690 603d
00000320: 8179 3f3d 0d73 3d3e 4ec3 273e e080 e23d
00000330: 8222 1a3e e56a 353e 9ac6 743e 7c22 69bd
00000340: 87a8 073d 5905 f4bd 4916 ff3d 84c1 503d
00000350: 24d7 153c 3477 0b3e ffa5 2b3e 22e6 993d
00000360: 3f6b bbbc fb19 5b3c 69ba 363d 6066 eabd
00000370: b0db 8b3c 7fda 343d e9bd bcbc 75cf 993d
00000380: 068b f23c b1a9 ddbd 9f54 4c3d 6444 ef3d
00000390: 43b9 72bc 6652 6c3c c2b7 133e 73a1 f5bc
000003a0: 993f 4c3e c9e6 873e 9533 57be 7651 30be
000003b0: cd02 2fbe f26a 86bd e796 a83b 4a11 45bd
000003c0: 43e4 993d 45fb 363e 230b de3d 8bb1 433e
000003d0: 3db6 613d 349f 17be dba0 a0bd 10ab 43bc
000003e0: 8dfe c53d eae7 e7bb e77a cdbb b95a e03d
000003f0: 1959 4a3e 7282 423c a1ab 00be 234a 2fbe

net.layer1.0.bias f4 [64]
0.10594978 -0.13783164 -0.037115555 0.14073226 0.0316895 0.012741333 -0.15228242 0.12345878
0.17306492 -0.1487029 -0.116829626 0.186665 -0.16481824 0.06193911 -0.033781353 -0.15151359
-0.19167463 0.19297327 -0.010736787 -0.17724146 0.019490724 0.013967165 -0.050255265 -0.0058552367
-0.0010364617 -0.11512414 0.14283417 -0.09719983 -0.11855337 -0.11588117 -0.066391125 0.10603872
-0.041237317 0.06540179 0.13982166 -0.1309182 -0.09364411 -0.12523492 -0.1951792 0.119060844
-0.1205849 -0.06880032 -0.1938406 0.03358508 -0.01949093 0.12191947 -0.017441582 0.08540887
-0.14327331 0.16712277 0.035482213 0.13672392 -0.1977389 0.1190802 -0.15395471 -0.09446548
-0.18635635 -0.12145139 -0.1935274 -0.22511767 -0.15654871 -0.008696366 -0.16009583 -0.10087117
00000000: 33fc d83d bd23 0dbe 7b06 18bd 1e1c 103e
00000010: d9cc 013d 06c1 503c ecef 1bbe f5d7 fc3d
00000020: ee37 313e 9345 18be 5f44 efbd 1c25 3f3e
00000030: 1dc6 28be ddb3 7d3d 515e 0abd 6126 1bbe
00000040: 5b46 44be c99a 453e 59e9 2fbc c97e 35be
00000050: 03ab 9f3c 89d6 643c 77d8 4dbd 49dd bfbb
00000060: e2d9 87ba 35c6 ebbd 1f43 123e b410 c7bd
00000070: 1ccc f2bd 1b53 edbd 12f8 87bd d42a d93d
00000080: 76e8 28bd 60f1 853d 692d 0f3e 6c0f 06be
00000090: 7cc8 bfbd 953d 00be 0edd 47be 2cd6 f33d
000000a0: 37f5 f6bd 2fe7 8cbd 267e 46be 8290 093d
000000b0: 71ab 9fbc eab0 f93d a6e1 8ebc d8ea ae3d
000000c0: 3db6 12be 3b22 2b3e cc55 113d 5b01 0c3e
000000d0: 117c 4abe 52e0 f33d 4ea6 1dbe 1e77 c1bd
000000e0: 33d4 3ebe 82bb f8bd 0c2c 46be 3f85 66be
000000f0: 4e4e 20be 347b 0ebc 29f0 23be 8b95 cebd

net.layer1.1.weight f4 [64]
1.4579444 0.96443814 0.5398179 0.72290224 1.2474517 0.6221403 0.8854274 0.6272777
0.7699266 0.95666295 0.9797409 0.76804775 0.7746572 0.812598 1.2261499 1.2615571
1.305878 1.0166128 0.874358 0.7061614 1.1776195 0.78188497 0.7011607 0.7334812
0.95082337 0.7042968 1.2948711 0.67251384 0.77288866 1.3114398 1.034019 0.74117976
0.74985915 1.0094823 0.97295433 0.7271884 1.3357772 0.7324615 0.95061445 0.8967591
0.74424577 0.7063158 0.8632845 0.7358696 1.1714348 1.2885126 1.0953206 0.6620196
0.9279671 0.786402 0.65087986 0.7330883 1.0570308 1.0007961 1.2413832 0.8102138
1.2567219 0.93277216 1.1172278 1.1110746 0.7292165 1.1858914 1.0277337 1.3119452
00000000: ec9d ba3f 6be5 763f 8231 0a3f 1f10 393f
00000010: 7fac 9f3f 9644 1f3f 5fab 623f 4595 203f
00000020: e919 453f dde7 743f 4dd0 7a3f c79e 443f
00000030: ef4f 463f 6c06 503f 7bf2 9c3f b47a a13f
00000040: 0327 a73f 5e20 823f edd5 5f3f fec6 343f
00000050: 3cbc 963f 9d29 483f 457f 333f 6dc5 3b3f
00000060: 2969 733f cc4c 343f 56be a53f de29 2c3f
00000070: 08dc 453f 42dd a73f bc5a 843f f5bd 3d3f
00000080: c5f6 3f3f b736 813f 8913 793f 0529 3a3f
00000090: bffa aa3f 9982 3b3f 785b 733f 0192 653f
000000a0: e486 3e3f 1dd1 343f 3700 5d3f f361 3c3f
000000b0: 93f1 953f fbed a43f 7733 8c3f 1e7a 293f
000000c0: 408f 6d3f a451 493f 10a0 263f adab 3b3f
000000d0: c94c 873f 161a 803f a5e5 9e3f 2c6a 4f3f
000000e0: 43dc a03f 28ca 6e3f 5201 8f3f b137 8e3f
000000f0: efad 3a3f 4acb 973f c78c 833f d2ed a73f

net.layer1.1.bias f4 [64]
-0.019293731 0.117869474 -0.42953 -0.25638556 0.7667123 -0.20292413 -0.15654625 -0.5787755
-0.2567091 0.115645394 0.27394965 -0.20702659 -0.25877145 -0.09547279 -0.007325764 0.09941703
0.20529592 -0.00763678 -0.051638573 -0.35878044 0.39691427 -0.42412204 -0.3154241 -0.5378671
-0.11124484 -0.4277065 0.35237506 -0.3559598 -0.22201009 0.27940032 0.1768743 -0.4721114
0.08075103 -0.27799886 0.01656752 -0.30748686 -0.018861115 -0.50782186 -0.2948532 -0.2981849
-0.41723508 -0.3262291 -0.12845966 0.0040779747 0.15199025 -0.1355187 0.32245284 -0.30800164
-0.47593346 -0.27916506 -0.31500602 -0.22101079 0.3446712 0.09033786 0.35775298 -0.13827643
0.25895134 -0.29328737 0.280308 0.17282718 -0.31392205 -0.19047976 0.25271687 0.41629964
00000000: e30d 9ebc 8d65 f13d 5beb dbbe f844 83be
00000010: 4247 443f 58cb 4fbe a94d 20be a22a 14bf
00000020: 606f 83be 7ed7 ec3d 2143 8c3e c7fe 53be
00000030: b17d 84be 3d87 c3bd f60c f0bb 289b cb3d
00000040: 1839 523e f43d fabb f882 53bd 12b2 b7be
00000050: 5938 cb3e 8626 d9be 457f a1be a9b1 09bf
00000060: 56d4 e3bd 59fc dabe 816a b43e 5d40 b6be
00000070: 9d56 63be 8f0d 8f3e 891e 353e 96b8 f1be
00000080: cc60 a53d de55 8ebe 9cb8 873c eb6e 9dbe
00000090: a082 9abc 9d00 02bf 00f7 96be b1ab 98be
000000a0: d69f d5be 8007 a7be ee8a 03be 88a0 853b
000000b0: 55a3 1b3e 6ac5 0abe 8a18 a53e 64b2 9dbe
000000c0: 8dad f3be b9ee 8ebe 7848 a1be a750 62be
000000d0: be78 b03e 0e03 b93d 662b b73e 5698 0dbe
000000e0: 4595 843e c329 96be 8884 8f3e 9cf9 303e
000000f0: 64ba a0be 200d 43be 1b64 813e 3a25 d53e

net.layer1.1.running_mean f4 [64]
0.0 0.0 0.0 0.0 0.0 0.0 0.0 0.0
0.0 0.0 0.0 0.0 0.0 0.0 0.0 0.0
0.0 0.0 0.0 0.0 0.0 0.0 0.0 0.0
0.0 0.0 0.0 0.0 0.0 0.0 0.0 0.0
0.0 0.0 0.0 0.0 0.0 0.0 0.0 0.0
0.0 0.0 0.0 0.0 0.0 0.0 0.0 0.0
0.0 0.0 0.0 0.0 0.0 0.0 0.0 0.0
0.0 0.0 0.0 0.0 0.0 0.0 0.0 0.0
00000000: 0000 0000 0000 0000 0000 0000 0000 0000
00000010: 0000 0000 0000 0000 0000 0000 0000 0000
00000020: 0000 0000 0000 0000 0000 0000 0000 0000
00000030: 0000 0000 0000 0000 0000 0000 0000 0000
00000040: 0000 0000 0000 0000 0000 0000 0000 0000
00000050: 0000 0000 0000 0000 0000 0000 0000 0000
00000060: 0000 0000 0000 0000 0000 0000 0000 0000
00000070: 0000 0000 0000 0000 0000 0000 0000 0000
00000080: 0000 0000 0000 0000 0000 0000 0000 0000
00000090: 0000 0000 0000 0000 0000 0000 0000 0000
000000a0: 0000 0000 0000 0000 0000 0000 0000 0000
000000b0: 0000 0000 0000 0000 0000 0000 0000 0000
000000c0: 0000 0000 0000 0000 0000 0000 0000 0000
000000d0: 0000 0000 0000 0000 0000 0000 0000 0000
000000e0: 0000 0000 0000 0000 0000 0000 0000 0000
000000f0: 0000 0000 0000 0000 0000 0000 0000 0000

net.layer1.1.running_var f4 [64]
1.0 1.0 1.0 1.0 1.0 1.0 1.0 1.0
1.0 1.0 1.0 1.0 1.0 1.0 1.0 1.0
1.0 1.0 1.0 1.0 1.0 1.0 1.0 1.0
1.0 1.0 1.0 1.0 1.0 1.0 1.0 1.0
1.0 1.0 1.0 1.0 1.0 1.0 1.0 1.0
1.0 1.0 1.0 1.0 1.0 1.0 1.0 1.0
1.0 1.0 1.0 1.0 1.0 1.0 1.0 1.0
1.0 1.0 1.0 1.0 1.0 1.0 1.0 1.0
00000000: 0000 803f 0000 803f 0000 803f 0000 803f
00000010: 0000 803f 0000 803f 0000 803f 0000 803f
00000020: 0000 803f 0000 803f 0000 803f 0000 803f
00000030: 0000 803f 0000 803f 0000 803f 0000 803f
00000040: 0000 803f 0000 803f 0000 803f 0000 803f
00000050: 0000 803f 0000 803f 0000 803f 0000 803f
00000060: 0000 803f 0000 803f 0000 803f 0000 803f
00000070: 0000 803f 0000 803f 0000 803f 0000 803f
00000080: 0000 803f 0000 803f 0000 803f 0000 803f
00000090: 0000 803f 0000 803f 0000 803f 0000 803f
000000a0: 0000 803f 0000 803f 0000 803f 0000 803f
000000b0: 0000 803f 0000 803f 0000 803f 0000 803f
000000c0: 0000 803f 0000 803f 0000 803f 0000 803f
000000d0: 0000 803f 0000 803f 0000 803f 0000 803f
000000e0: 0000 803f 0000 803f 0000 803f 0000 803f
000000f0: 0000 803f 0000 803f 0000 803f 0000 803f

net.layer2.0.weight f4 [64, 64, 3, 3]
-0.07871894 -0.051134575 -0.013595676 -0.07797713 -0.049199734 0.066829085 -0.07743847 -0.058968913
0.036113508 -0.020504307 0.024462292 -0.08436544 -0.076527014 0.005601276 -0.07532659 -0.0013077059
-0.018837284 -0.059114706 0.07205299 0.15704466 0.10322112 0.084774755 0.055484477 0.07759851
0.08286036 0.1767212 0.100569665 -0.017009843 -0.052738342 -0.0034968685 -0.11259814 -0.08529723
-0.10910174 -0.03534304 -0.08824996 -0.093811855 0.008994675 0.037912313 -0.029767226 -0.05632548
-0.012286029 -0.055695463 0.025748543 -0.0057807486 0.045599483 0.010497988 -0.0011578811 0.045085672
-0.06190044 0.014936819 0.02830545 -0.08181502 -0.066985965 -0.035248607 -0.0076146293 0.0724508
0.050320912 -0.020193921 -0.013942883 -0.017609464 -0.03353033 -0.0033580072 -0.05571285 -0.26120657
-0.21416731 -0.17368716 -0.21270084 -0.12911606 -0.17915261 -0.25675216 -0.2120447 -0.12690331
-0.17506269 -0.02850392 -0.16262515 -0.13002814 -0.036296718 -0.2555448 -0.0668337 -0.077400334
-0.14379966 0.0042649684 -0.022372197 0.052554596 -0.020985406 -0.0055725174 -0.0020113064 -0.00014962835
-0.010319069 0.04902686 -0.005118328 -0.078644514 0.016008472 -0.08405927 -0.06207782 -0.10297366
-0.11303842 0.032950573 0.05356156 0.061364856 0.08102319 0.04385003 0.077262916 -0.00263329
-0.009547785 0.02396413 0.059844255 0.08037979 -0.0064710937 0.020266868 -0.083620995 -0.07110957
0.056257855 -0.06656236 0.0013097845 0.088330455 -0.00832064 0.010562298 -0.0054111117 -0.059969768
0.016384264 0.00790669 -0.07038192 -0.038794447 0.0017007962 -0.052522596 0.032877803 0.0056841774
0.026764443 0.019078918 -0.09305514 0.0019090839 -0.067397185 0.002782631 -0.0038580839 0.0083856825
0.10197498 0.06451998 -0.017595148 0.06790469 0.0022812712 0.021715108 -0.049553327 0.01243569
0.18078691 0.1493818 0.15780972 0.09715706 0.11147473 -0.01627554 0.076643586 0.106686346
0.062719844 0.01756162 0.1779343 0.17102616 0.031628925 0.05414318 0.114976734 -0.022426328
0.06888681 0.054544404 0.17151274 0.08802094 0.09295945 0.1753348 0.1629504 0.14049138
0.1975289 0.15485871 0.1477247 0.07185584 0.085458376 0.09336833 0.09082207 -0.002678049
0.12381889 0.103756614 0.023920462 0.02595645 -0.01866137 -0.112845406 -0.036583897 -0.017338656
-0.10445247 -0.059103694 -0.019169375 -0.12869443 -0.07388278 0.08128757 0.13540788 0.13870454
0.06718868 0.048764355 0.12676664 0.044113237 0.058530986 0.0836319 -0.05038756 -0.110020325
-0.12456228 -0.12155564 -0.0948114 -0.13499244 -0.009383833 -0.020759929 -0.016530862 0.040111817
0.076845296 0.11517188 0.018519133 0.00663051 0.028788645 0.09407913 0.068239525 0.020579996
-0.044075493 0.012496144 0.05479215 -0.040555663 -0.0220756 0.03293434 -0.06425389 -0.070729546
-0.06183202 -0.30882105 -0.20909372 -0.2097116 -0.2361842 -0.23869188 -0.23681256 -0.28296638
-0.19091487 -0.25408888 -0.11567363 -0.114101164 -0.05832672 -0.14578764 -0.14044914 -0.13082632
-0.14416544 -0.074950136 -0.048292037 -0.07030447 0.046616353 -0.05777488 -0.13804825 -0.071067646
-0.08943987 -0.14934899 -0.0985674 -0.15724933 0.20864233 0.20686197 0.12802233 0.14234658
00000000: 6537 a1bd 7d72 51bd 66c0 5ebc 79b2 9fbd
00000010: a985 49bd b0dd 883d 1098 9ebd 6389 71bd
00000020: c2eb 133d a6f8 a7bc 2565 c83c cac7 acbd
00000030: 32ba 9cbd e98a b73b d444 9abd 5467 abba
00000040: a650 9abc 4322 72bd 8590 933d 51d0 203e
00000050: 9865 d33d 639e ad3d b143 633d f8eb 9e3d
00000060: b1b2 a93d 67f6 343e 78f7 cd3d 3a58 8bbc
00000070: 2904 58bd b82b 65bb db99 e6bd 50b0 aebd
00000080: bc70 dfbd ddc3 10bd 65bc b4bd 6e20 c0bd
00000090: 675e 133c f149 1b3d 66da f3bc 8cb5 66bd
000000a0: 574b 49bc ed20 64bd 9cee d23c 6f6c bdbb
000000b0: 86c6 3a3d c1ff 2b3c 0bc4 97ba c1ab 383d
000000c0: 518b 7dbd 8fb9 743c d5e0 e73c a28e a7bd
000000d0: f02f 89bd d860 10bd 2484 f9bb 1661 943d
000000e0: 4d1d 4e3d b96d a5bc b170 64bc b941 90bc
000000f0: 1957 09bd 0312 5cbb 2833 64bd debc 85be
00000100: ad4e 5bbe 0cdb 31be 40ce 59be 0037 04be
00000110: c873 37be 0575 83be 3f22 59be f1f2 01be
00000120: a243 33be 0e81 e9bc 3587 26be 1926 05be
00000130: deab 14bd c5d6 82be 1be0 88bd 1184 9ebd
00000140: 3840 13be 26c1 8b3b e645 b7bc 7d43 573d
00000150: 96e9 abbc aa99 b6bb 1fd0 03bb 8ee5 1cb9
00000160: 5011 29bc 64d0 483d a6b7 a7bb 6010 a1bd
00000170: 3324 833c 4427 acbd 5045 7ebd dbe3 d2bd
00000180: b080 e7bd 2ef7 063d 5e63 5b3d b759 7b3d
00000190: 7cef a53d 179c 333d 053c 9e3d 4693 2cbb
000001a0: 506e 1cbc 6c50 c43c 401f 753d 299e a43d
000001b0: 780b d4bb b406 a63c 7c41 abbd e5a1 91bd
000001c0: a36e 663d d951 88bd 13ad ab3a 99e6 b43d
000001d0: 4b53 08bc 7d0d 2d3c b24f b1bb dca2 75bd
000001e0: 4b38 863c 108b 013c 6524 90bd ede6 1ebd
000001f0: 40ed de3a ef21 57bd e0aa 063d 5642 ba3b
00000200: 1b41 db3c 644b 9c3c b193 bebd 3a3a fa3a
00000210: 8907 8abd cd5c 363b e8d7 7cbb 1a64 093c
00000220: 42d8 d03d 0d23 843d b323 90bc 9d11 8b3d
00000230: 6181 153b e2e3 b13c 6ef8 4abd 10bf 4b3c
00000240: 3420 393e 8bf7 183e df98 213e 48fa c63d
00000250: dd4c e43d 4854 85bc 50f7 9c3d 5f7e da3d
00000260: 4373 803d 63dd 8f3c 6934 363e 7b21 2f3e
00000270: 558d 013d 3dc5 5d3d ec78 eb3d 6bb7 b7bc
00000280: 8714 8d3d f469 5f3d 09a1 2f3e 5344 b43d
00000290: 8661 be3d f78a 333e 78dc 263e f9dc 0f3e
000002a0: 0445 4a3e 4893 1e3e 2545 173e 2829 933d
000002b0: cd04 af3d e537 bf3d ec00 ba3d 3582 2fbb
000002c0: c294 fd3d 597e d43d d8f4 c33c 9fa2 d43c
000002d0: bbdf 98bc 7e1b e7bd ffd8 15bd cc09 8ebc
000002e0: 2deb d5bd b716 72bd 1809 9dbc 79c8 03be
000002f0: db4f 97bd 197a a63d 5da8 0a3e 9008 0e3e
00000300: 389a 893d 22bd 473d 1dcf 013e 15b0 343d
00000310: 30be 6f3d 3447 ab3d 3063 4ebd 5652 e1bd
00000320: 821a ffbd 2af2 f8bd 7b2c c2bd 753b 0abe
00000330: a6be 19bc ba10 aabc bb6b 87bc 4a4c 243d
00000340: 1161 9d3d 3cdf eb3d 70b5 973c c044 d93b
00000350: 2ad6 eb3c 8fac c03d 2ac1 8b3d 6197 a83c
00000360: 8188 34bd a0bc 4c3c bc6d 603d b21d 26bd
00000370: e4d7 b4bc 29e6 063d 8b97 83bd a7da 90bd
00000380: 9243 7dbd cb1d 9ebe aa1c 56be a3be 56be
00000390: 45da 71be a56b 74be fe7e 72be f8e0 90be
000003a0: 307f 43be f017 82be 4ce6 ecbd dfad e9bd
000003b0: 00e8 6ebd 5b49 15be e6d1 0fbe 56f7 05be
000003c0: 1ba0 13be 757f 99bd dfcd 45bd cafb 8fbd
000003d0: caf0 3e3d 5aa5 6cbd 855c 0dbe ea8b 91bd
000003e0: 402c b7bd f1ee 18be b4dd c9bd f805 21be
000003f0: 56a6 553e a0d3 533e 4918 033e 4dc3 113e

net.layer2.0.bias f4 [64]
0.0018339104 -0.028325101 0.039968446 0.018351534 -0.011257255 -0.021495093 0.009511768 -0.00041028883
-0.0131874 -0.023678226 -0.009571679 -0.0067291497 -0.019727854 0.018205727 -0.029795494 0.032702234
0.014032591 0.037933517 0.006646185 0.032607913 -0.008864235 0.02901678 0.022181612 -0.0043536313
-0.002430664 0.0053132405 -0.023807326 -0.0149482 0.02461593 -0.035401743 0.032864977 -0.029495532
0.026969435 -0.0143102 -0.021337995 0.033516254 -0.023256678 0.017613696 -0.028956404 -0.0024628153
-0.03998804 0.020712692 -0.027155386 -0.031323303 0.0005892716 0.013532256 -0.02885614 0.028405419
-0.0019240588 -0.0044379435 -0.0033610223 -0.01004186 -0.006391345 0.0025261533 -0.020833885 0.029067708
-0.011738264 0.042593796 0.03893395 -0.017901523 -0.040020935 -0.003734771 0.021278553 0.037070107
00000000: d25f f03a 0b0a e8bc f4b5 233d f555 963c
00000010: 5a70 38bc 7a16 b0bc 3fd7 1b3c 091c d7b9
00000020: f70f 58bc d7f8 c1bc 88d2 1cbc 3380 dcbb
00000030: 4f9c a1bc 2d24 953c ae15 f4bc c7f2 053d
00000040: f4e8 653c 2d60 1b3d 3ec8 d93b e08f 053d
00000050: 4c3b 11bc 99b4 ed3c 36b6 b53c e8a8 8ebb
00000060: c64b 1fbb b11a ae3b 9507 c3bc 4ce9 74bc
00000070: 59a7 c93c 6b01 11bd 6d9d 063d 9da0 f1bc
00000080: 01ef dc3c 5475 6abc 05cd aebc 5748 093d
00000090: ca84 bebc 994a 903c fb35 edbc 2f67 21bb
000000a0: 80ca 23bd aaad a93c f974 debc dd4c 00bd
000000b0: 5979 1a3a 65b6 5d3c b663 ecbc 7bb2 e83c
000000c0: b330 fcba 2b6c 91bb 9944 5cbb 9d86 24bc
000000d0: 7d6e d1bb d28d 253b d3ab aabc 671f ee3c
000000e0: d951 40bc d576 2e3d 3579 1f3d 37a6 92bc
000000f0: feec 23bd 0fc3 74bb 5c50 ae3c d3d6 173d

net.layer2.1.weight f4 [64]
0.9018741 0.8641333 1.0042667 0.9838716 0.7633006 1.00225 1.1012622 0.9046173
0.95973265 1.1332264 1.2114415 1.02708 1.0251147 0.8787399 1.0920905 1.118695
1.055758 0.9535002 0.8898982 1.1891301 0.9016 1.1172956 1.031298 1.2423617
1.152063 0.88343984 0.87668407 0.94425845 1.0105382 0.9632569 0.9920076 0.94192386
0.9487527 0.9435064 1.037084 0.87640285 0.90802324 0.98472166 1.0524057 0.9184865
0.91016126 0.8882377 1.0533283 0.9142348 0.93989176 0.973311 1.0441641 1.0029645
1.0420828 1.0134103 0.73625886 1.0376537 1.1241832 0.8560173 1.1516763 0.878338
0.91657996 0.89952886 0.80522496 1.0173873 0.89725554 0.85742086 0.85459864 0.83647585
00000000: 39e1 663f d737 5d3f d08b 803f 02df 7b3f
00000010: ab67 433f ba49 803f 29f6 8c3f 0095 673f
00000020: 0ab1 753f 900d 913f 8410 9b3f 5c77 833f
00000030: f536 833f 19f5 603f 9fc9 8b3f 6631 8f3f
00000040: 1423 873f 9718 743f 5ed0 633f 6a35 983f
00000050: 42cf 663f 8b03 8f3f 9301 843f b505 9f3f
00000060: cd76 933f 1d29 623f 5e6e 603f ecba 713f
00000070: 5159 813f 0198 763f 36f4 7d3f ec21 713f
00000080: 75e1 723f a389 713f 2bbf 843f f05b 603f
00000090: 3674 683f b816 7c3f 3bb5 863f ee21 6b3f
000000a0: 5400 693f 8c63 633f 76d3 863f 4b0b 6a3f
000000b0: bf9c 703f e92a 793f 2ba7 853f 2461 803f
000000c0: f862 853f 6eb7 813f 767b 3c3f d6d1 843f
000000d0: 3ce5 8f3f f323 5b3f 216a 933f c2da 603f
000000e0: fca4 6a3f 8647 663f 3923 4e3f bf39 823f
000000f0: 8ab2 653f ef7f 5b3f fac6 5a3f 4823 563f

net.layer2.1.bias f4 [64]
-0.2896888 -0.17337978 -0.291776 -0.17182416 -0.33278587 -0.15257184 -0.120890796 -0.42311993
-0.18463355 -0.44095853 -0.35010052 -0.19661961 -0.38670182 -0.25830865 -0.47501317 -0.46797362
-0.43933138 -0.2068028 -0.154308 -0.39820713 -0.33228847 -0.33473113 -0.2755247 -0.1282423
-0.24836166 -0.25455368 -0.32451233 -0.09666031 -0.4355296 -0.2247107 -0.32012856 -0.28988087
-0.038516104 -0.17946155 -0.33854622 -0.14001036 -0.33305898 -0.28151605 -0.42084444 -0.4237298
-0.17630503 -0.25687653 -0.34111825 -0.18154754 -0.40566266 -0.39787036 -0.5124515 -0.34618318
-0.43689042 -0.40757883 -0.2490262 -0.42023236 -0.48613393 -0.23629071 -0.15410207 -0.4472801
-0.32441723 -0.21213506 -0.15477537 -0.34398025 -0.19246502 -0.25539264 -0.31966084 -0.27609164
00000000: 1752 94be 788a 31be aa63 95be acf2 2fbe
00000010: e962 aabe cb3b 1cbe 9895 f7bd 2da3 d8be
00000020: 9410 3dbe 51c5 e1be 6040 b3be a756 49be
00000030: c8fd c5be 0841 84be ed34 f3be 3d9a efbe
00000040: 0bf0 e0be 1dc4 53be eb02 1ebe cee1 cbbe
00000050: b721 aabe e161 abbe 9311 8dbe f351 03be
00000060: 8552 7ebe dc54 82be 7b26 a6be d7f5 c5bd
00000070: bcfd debe 901a 66be e4e7 a3be 446b 94be
00000080: 10c3 1dbd c5c4 37be ee55 adbe e05e 0fbe
00000090: b586 aabe df22 90be ec78 d7be 1df3 d8be
000000a0: 4e89 34be 5285 83be 0da7 aebe 99e7 39be
000000b0: 04b3 cfbe aab5 cbbe 0630 03bf ec3e b1be
000000c0: 1ab0 dfbe 2cae d0be b900 7fbe b228 d7be
000000d0: 8ce6 f8be 31f6 71be efcc 1dbe e601 e5be
000000e0: 041a a6be ef39 59be 6f7d 1ebe 2e1e b0be
000000f0: 8d15 45be d3c2 82be 96aa a3be e25b 8dbe

net.layer2.1.running_mean f4 [64]
0.0 0.0 0.0 0.0 0.0 0.0 0.0 0.0
0.0 0.0 0.0 0.0 0.0 0.0 0.0 0.0
0.0 0.0 0.0 0.0 0.0 0.0 0.0 0.0
0.0 0.0 0.0 0.0 0.0 0.0 0.0 0.0
0.0 0.0 0.0 0.0 0.0 0.0 0.0 0.0
0.0 0.0 0.0 0.0 0.0 0.0 0.0 0.0
0.0 0.0 0.0 0.0 0.0 0.0 0.0 0.0
0.0 0.0 0.0 0.0 0.0 0.0 0.0 0.0
00000000: 0000 0000 0000 0000 0000 0000 0000 0000
00000010: 0000 0000 0000 0000 0000 0000 0000 0000
00000020: 0000 0000 0000 0000 0000 0000 0000 0000
00000030: 0000 0000 0000 0000 0000 0000 0000 0000
00000040: 0000 0000 0000 0000 0000 0000 0000 0000
00000050: 0000 0000 0000 0000 0000 0000 0000 0000
00000060: 0000 0000 0000 0000 0000 0000 0000 0000
00000070: 0000 0000 0000 0000 0000 0000 0000 0000
00000080: 0000 0000 0000 0000 0000 0000 0000 0000
00000090: 0000 0000 0000 0000 0000 0000 0000 0000
000000a0: 0000 0000 0000 0000 0000 0000 0000 0000
000000b0: 0000 0000 0000 0000 0000 0000 0000 0000
000000c0: 0000 0000 0000 0000 0000 0000 0000 0000
000000d0: 0000 0000 0000 0000 0000 0000 0000 0000
000000e0: 0000 0000 0000 0000 0000 0000 0000 0000
000000f0: 0000 0000 0000 0000 0000 0000 0000 0000

net.layer2.1.running_var f4 [64]
1.0 1.0 1.0 1.0 1.0 1.0 1.0 1.0
1.0 1.0 1.0 1.0 1.0 1.0 1.0 1.0
1.0 1.0 1.0 1.0 1.0 1.0 1.0 1.0
1.0 1.0 1.0 1.0 1.0 1.0 1.0 1.0
1.0 1.0 1.0 1.0 1.0 1.0 1.0 1.0
1.0 1.0 1.0 1.0 1.0 1.0 1.0 1.0
1.0 1.0 1.0 1.0 1.0 1.0 1.0 1.0
1.0 1.0 1.0 1.0 1.0 1.0 1.0 1.0
00000000: 0000 803f 0000 803f 0000 803f 0000 803f
00000010: 0000 803f 0000 803f 0000 803f 0000 803f
00000020: 0000 803f 0000 803f 0000 803f 0000 803f
00000030: 0000 803f 0000 803f 0000 803f 0000 803f
00000040: 0000 803f 0000 803f 0000 803f 0000 803f
00000050: 0000 803f 0000 803f 0000 803f 0000 803f
00000060: 0000 803f 0000 803f 0000 803f 0000 803f
00000070: 0000 803f 0000 803f 0000 803f 0000 803f
00000080: 0000 803f 0000 803f 0000 803f 0000 803f
00000090: 0000 803f 0000 803f 0000 803f 0000 803f
000000a0: 0000 803f 0000 803f 0000 803f 0000 803f
000000b0: 0000 803f 0000 803f 0000 803f 0000 803f
000000c0: 0000 803f 0000 803f 0000 803f 0000 803f
000000d0: 0000 803f 0000 803f 0000 803f 0000 803f
000000e0: 0000 803f 0000 803f 0000 803f 0000 803f
000000f0: 0000 803f 0000 803f 0000 803f 0000 803f

net.layer3.0.weight f4 [64, 64, 3, 3]
-0.023290735 -0.06122642 -0.18133312 -0.055067025 -0.08697377 -0.13768034 -0.005519276 -0.10325569
-0.080084264 -0.0015024474 0.06880305 0.08772958 -0.21651804 -0.18608476 -0.17217666 -0.105165675
-0.18478385 -0.09407761 0.041315217 -0.048288703 -0.038372837 -0.05592676 -0.013150941 -0.17036083
-0.13768713 -0.15388663 -0.042528026 0.07583605 0.11729876 0.06725595 0.09048257 -0.06922179
-0.15422113 -0.08908916 -0.025630534 -0.047748677 0.008840886 0.11146545 0.05803582 0.039830253
-0.0008399649 -0.07443968 -0.018829616 -0.062131085 -0.1523918 -0.065954745 -0.06518532 0.026412467
-0.1289992 -0.091000915 -0.066925555 0.042319834 -0.020865543 -0.05959247 0.055433597 -0.048650637
-0.009532153 -0.06728951 -0.030513141 -0.103774674 0.14978944 -0.016863953 0.09111272 0.011546821
0.011116074 -0.08606928 -0.17005417 -0.1499023 -0.10545284 -0.15192531 -0.16570361 -0.10877984
0.121516414 -0.07562158 -0.012669318 0.061232712 -0.0057073007 -0.04286729 0.15483548 0.12336684
0.031145586 -0.04891268 0.022308182 -0.10303426 0.005408879 -0.0243396 0.1381939 0.19311658
0.11290623 0.15121081 -0.097780816 0.035362057 0.16115022 0.15145802 -0.09694583 0.039674293
0.11262385 0.17264529 0.052223384 0.010711613 0.082713045 -0.020115487 0.086208045 -0.07101309
-0.06521165 -0.016389411 0.079676464 -0.04843273 -0.11673771 -0.20978193 -0.087470464 -0.06144005
-0.012844612 -0.06787295 -0.0071459427 0.10364809 0.034196146 -0.09699593 0.035009123 0.018676862
-0.027414683 0.0014348839 -0.0059089144 -0.09682088 0.056418434 -0.13312745 0.1050787 -0.08464421
-0.048639327 -0.002785307 -0.024844136 0.03204463 0.030569479 0.016434388 -0.014300405 -0.09067102
-0.036810704 -0.19296357 -0.023943085 -0.060049877 -0.114399254 -0.18195692 -0.024511416 -0.16927211
-0.2243396 -0.20653893 -0.22490829 -0.14981045 -0.15181755 -0.186721 -0.1231772 -0.19643557
-0.21620043 0.042659987 0.13681406 -0.096650586 0.043818302 0.008149675 -0.052369032 -0.06570973
0.07824247 -0.05754647 -0.00820739 0.007656998 0.004563369 -0.064540185 -0.08236267 -0.014303394
0.07009118 0.067474775 0.11320256 0.066767484 -0.0028582606 -0.052954804 0.053360756 -0.11186367
-0.038244277 0.11338417 -0.02920329 0.06617605 0.028076371 0.018241297 -0.027899168 -0.27136853
-0.16360906 -0.044311006 -0.44381797 -0.23765005 -0.21473253 0.17734249 0.06749259 0.1237473
0.15818736 0.05149467 0.08712788 0.10907396 0.010874226 -0.03359217 0.019267539 -0.05165714
-0.046285048 -0.119119346 0.0039685224 -0.07660252 -0.10534303 -0.1592608 -0.060429834 -0.06206201
-0.18763687 0.24553284 -0.0074505717 -0.07497839 0.21092081 0.17722274 0.09944037 0.3464869
-0.10957521 -0.047632415 0.14477685 -0.01373244 -0.01006857 0.1686042 0.040570565 0.11296867
0.13012147 -0.017907854 -0.034259304 0.069244616 -0.09216078 -0.117317736 -0.10293938 -0.049189813
-0.045530338 -0.008293016 0.16256629 0.10677171 0.07989043 0.057401087 0.14396979 -0.029830275
0.011704272 -0.0079838205 -0.08662387 0.12002701 0.022254629 0.015146102 0.119211785 0.011843762
-0.15111458 0.08041176 0.018417336 0.13079602 0.044341296 0.011996053 -0.0628197 0.016551113
00000000: 36cc bebc 8ec8 7abd 64af 39be f68d 61bd
00000010: 4e1f b2bd 13fc 0cbe 0bdb b4bb b877 d3bd
00000020: 3803 a4bd c5ed c4ba 9de8 8c3d 91ab b33d
00000030: e8b6 5dbe 018d 3ebe 144f 30be 1a61 d7bd
00000040: fa37 3dbe c3ab c0bd 253a 293d 60ca 45bd
00000050: d62c 1dbd 7513 65bd 0b77 57bc 1273 2ebe
00000060: dbfd 0cbe 7594 1dbe de31 2ebd ee4f 9b3d
00000070: 553a f03d 7dbd 893d ed4e b93d 27c4 8dbd
00000080: 25ec 1dbe 6174 b6bd 20f7 d1bc 1e94 43bd
00000090: 5dd9 103c ff47 e43d f8b6 6d3d 0c25 233d
000000a0: 1731 5cba d573 98bd 9140 9abc 2a7d 7ebd
000000b0: 990c 1cbe 4813 87bd e27f 85bd f55e d83c
000000c0: 5e18 04be b05e babd 4410 89bd 9057 2d3d
000000d0: 37ee aabc 3c17 74bd 570e 633d e445 47bd
000000e0: bf2c 1cbc 15cf 89bd b2f6 f9bc d187 d4bd
000000f0: 6762 193e 4626 8abc 4e99 ba3d e12e 3d3c
00000100: 3220 363c 1745 b0bd ae22 2ebe fd7f 19be
00000110: a9f7 d7bd 4f92 1bbe 35ae 29be f7c7 debd
00000120: 99dd f83d 7ddf 9abd f992 4fbc 27cf 7a3d
00000130: 4f04 bbbb 9d95 2fbd 318d 1e3e c1a7 fc3d
00000140: 0725 ff3c aa58 48bd a6bf b63c a003 d3bd
00000150: f73c b13b d763 c7bc b482 0d3e 5ac0 453e
00000160: 623b e73d 02d7 1a3e 4f41 c8bd ced7 103d
00000170: 9004 253e d017 1b3e 898b c6bd 8381 223d
00000180: 55a7 e63d edc9 303e 30e8 553d c37f 2f3c
00000190: 7565 a93d 3cc9 a4bc d88d b03d 506f 91bd
000001a0: b08d 85bd 1643 86bc 6a2d a33d 6661 46bd
000001b0: 2e14 efbd 13d1 56be b723 b3bd 90a8 7bbd
000001c0: 3572 52bc f900 8bbd 8328 eabb 7345 d43d
000001d0: 4211 0c3d cda5 c6bd ba65 0f3d 3800 993c
000001e0: c294 e0bc b712 bc3a 919f c1bb 074a c6bd
000001f0: 0417 673d 9052 08be 8033 d73d f259 adbd
00000200: 083a 47bd b289 36bb ee85 cbbc 3b41 033d
00000210: d86c fa3c 69a1 863c 3f4c 6abc bab1 b9bd
00000220: d2c6 16bd 3e98 45be 4a24 c4bc dcf6 75bd
00000230: 284a eabd ea52 3abe 2acc c8bc ab55 2dbe
00000240: 48b9 65be f17e 53be 5c4e 66be e967 19be
00000250: 0f76 1bbe ca33 3fbe 5444 fcbd 6826 49be
00000260: a563 5dbe 3dbc 2e3d fc18 0c3e bef0 c5bd
00000270: d27a 333d 3786 053c e980 56bd d392 86bd
00000280: 973d a03d d9b5 6bbd 4a78 06bc 8ee7 fa3b
00000290: 5088 953b a52d 84bd c2ad a8bd c858 6abc
000002a0: f78b 8f3d 3730 8a3d bed6 e73d 64bd 883d
000002b0: a851 3bbb 23e7 58bd cf90 5a3d c818 e5bd
000002c0: 08a6 1cbd f635 e83d bd3b efbc 4f87 873d
000002d0: 6b00 e63c c66e 953c cc8c e4bc d1f0 8abe
000002e0: 2289 27be 757f 35bd 1c3c e3be 895a 73be
000002f0: d8e2 5bbe 4599 353e 8e39 8a3d 396f fd3d
00000300: defb 213e 13ec 523d 1a70 b23d 2b62 df3d
00000310: cf29 323c f197 09bd f5d6 9d3c 7096 53bd
00000320: 6495 3dbd d8f4 f3bd 610a 823b c8e1 9cbd
00000330: 16be d7bd 4315 23be 4685 77bd bc34 7ebd
00000340: e123 40be f66c 7b3e ed23 f4bb 458e 99bd
00000350: a0fb 573e e179 353e 65a7 cb3d bb66 b13e
00000360: f868 e0bd 351a 43bd 6240 143e 07fe 60bc
00000370: a5f6 24bc 94a6 2c3e 522d 263d 1e5c e73d
00000380: 903e 053e 7eb3 92bc 7c53 0cbd 1fd0 8d3d
00000390: cbbe bcbd 4844 f0bd e2d1 d2bd 427b 49bd
000003a0: 057e 3abd 6edf 07bc c777 263e 20ab da3d
000003b0: 989d a33d 671d 6b3d d16c 133e 9f5e f4bc
000003c0: 46c3 3f3c 92ce 02bc db67 b1bd b9d0 f53d
000003d0: 574f b63c 5b27 783c 4f25 f43d 570c 423c
000003e0: c8bd 1abe ecae a43d f4df 963c 64ef 053e
000003f0: 389f 353d 188b 443c 9da7 80bd 3396 873c

net.layer3.0.bias f4 [64]
0.00346795 -0.012455957 -0.016791988 -0.033720654 -0.012785238 -0.03603636 0.039499167 0.010462908
-0.030667292 -0.013826651 -0.021294855 0.020116 -0.020589001 -0.015967766 -0.027951345 0.03867204
0.0002336434 0.021476116 0.027107263 -0.026126733 0.0368372 0.037607845 0.020219302 -0.013833256
-0.0034226547 -0.032519493 -0.026110873 0.02202143 -0.028800359 0.010517543 -0.040475447 -0.0030158046
-0.019839447 -0.012796768 -0.001488751 0.036213856 0.039293703 0.00013465104 0.018836742 -0.029755548
0.009437054 0.009251229 0.01732745 0.034510985 -0.0021985758 0.03713864 -0.022127451 0.011607094
-0.0116424225 0.03901016 0.012863885 0.037748985 -0.037814595 0.03139312 0.028222764 -0.007914215
0.009087041 0.02914415 -0.03995241 -0.018917361 0.0109776305 0.017007394 -0.019255694 -0.029872308
00000000: 8c46 633b 1214 4cbc 5a8f 89bc ab1e 0abd
00000010: 2d79 51bc dd9a 13bd e1c9 213d 9e6c 2b3c
00000020: f939 fbbc 2d89 62bc 8c72 aebc 4fca a43c
00000030: 44aa a8bc d5ce 82bc 38fa e4bc 9366 1e3d
00000040: 2cfe 7439 aeee af3c 0d10 de3c bb07 d6bc
00000050: 9be2 163d af0a 1a3d f3a2 a53c e2a4 62bc
00000060: 9e4e 60bb 2933 05bd 78e6 d5bc 4966 b43c
00000070: bbee ebbc c651 2c3c 95c9 25bd cea4 45bb
00000080: 5686 a2bc 89a9 51bc 3222 c3ba fb54 143d
00000090: 6ff2 203d 1d31 0d39 834f 9a3c e8c1 f3bc
000000a0: e09d 1a3c 7892 173c 4cf2 8d3c 645b 0d3d
000000b0: fb15 10bb b01e 183d a144 b5bc ae2b 3e3c
000000c0: dcbf 3ebc 1ec9 1f3d 0bc3 523c ae9e 1a3d
000000d0: 7ae3 1abd 1296 003d 6d33 e73c a0aa 01bc
000000e0: d0e1 143c b6bf ee3c 23a5 23bd 95f8 9abc
000000f0: 85db 333c 1753 8b3c 1ebe 9dbc c5b6 f4bc

net.layer3.1.weight f4 [64]
0.9684307 1.0915855 0.8542904 0.89449614 1.0862317 0.8406937 0.7359895 0.9735101
0.8742459 0.93699783 0.813585 0.8631818 0.8507375 0.9514814 1.0077554 0.87213886
0.99257314 1.1434399 1.0793824 1.0707325 0.9157799 0.9551391 0.9781854 1.2008448
0.8841793 0.9336876 0.83855945 0.929662 0.9632293 1.0717233 0.8265298 1.0091101
0.8284661 0.9147197 0.87579167 0.96313447 0.94825137 0.8721297 0.7942569 0.8988764
0.8882243 1.0332183 1.0049909 1.1108731 0.8078092 0.96746695 0.86287266 0.85575354
0.85852736 0.86794144 1.076087 0.9245796 0.92296267 0.8092394 1.0527124 1.0823141
1.1644233 0.94113433 1.193776 1.0258206 0.89523596 0.8509582 1.0157189 0.8961443
00000000: 13eb 773f 13b9 8b3f c7b2 5a3f b3fd 643f
00000010: a409 8b3f b437 573f cf69 3c3f f537 793f
00000020: 94ce 5f3f 17df 6f3f 1b47 503f 7cf9 5c3f
00000030: efc9 593f 4994 733f 21fe 803f 7e44 5f3f
00000040: 4619 7e3f 3d5c 923f 3429 8a3f c30d 893f
00000050: 8d70 6a3f ff83 743f 5c6a 7a3f 48b5 993f
00000060: 9359 623f 2706 6f3f d5ab 563f 54fe 6d3f
00000070: 3296 763f 3b2e 893f 7597 533f 852a 813f
00000080: 5b16 543f 122b 6a3f e233 603f fb8f 763f
00000090: 9ac0 723f e443 5f3f 6c54 4b3f c41c 663f
000000a0: ab62 633f 7f40 843f 8ba3 803f 1731 8e3f
000000b0: 95cc 4e3f eaab 773f 39e5 5c3f aa12 5b3f
000000c0: 73c8 5b3f 6931 5e3f 38bd 893f 40b1 6c3f
000000d0: 4847 6c3f 502a 4f3f 48bf 863f 4589 8a3f
000000e0: d30b 953f 2eee 703f a7cd 983f 174e 833f
000000f0: 2f2e 653f 66d8 593f 1403 823f b669 653f

net.layer3.1.bias f4 [64]
-0.16430233 -0.75071204 -0.42051184 -0.35115933 -0.37028274 -0.42411485 -0.27348045 -0.5199363
-0.4628413 -0.28251433 -0.31770983 -0.36085495 -0.20641436 -0.35469916 0.00015860815 -0.32257
-0.38533753 -0.27306455 -0.42625535 -0.6754102 -0.41592625 -0.35300037 -0.4253005 -0.6106793
-0.19443946 -0.20284073 -0.32265353 -0.40041438 -0.29157653 -0.30860806 -0.30668592 -0.3083447
-0.43017843 -0.3302968 -0.32336202 -0.3911419 -0.3166764 -0.46679696 -0.35357282 -0.38273343
-0.42865586 -0.4488401 -0.358228 -0.40394637 -0.40324587 -0.34783587 -0.5534953 -0.5154253
-0.26101652 -0.1833689 -0.4787401 -0.54490995 -0.40349507 -0.51465726 -0.54395366 -0.5272099
-0.5599434 -0.31560385 -0.3842275 -0.695837 0.005839534 -0.24629653 -0.344326 -0.51726365
00000000: df3e 28be aa2e 40bf 544d d7be 28cb b3be
00000010: b395 bdbe 9525 d9be a105 8cbe 8c1a 05bf
00000020: 89f9 ecbe b8a5 90be ddaa a2be fbc1 b8be
00000030: 495e 53be 219b b5be 0d50 2639 e527 a5be
00000040: f64a c5be 1ecf 8bbe 243e dabe afe7 2cbf
00000050: 49f4 d4be 77bc b4be fdc0 d9be 7b55 1cbf
00000060: 231b 47be 7bb5 4fbe d832 a5be 1d03 cdbe
00000070: 8549 95be e001 9ebe f005 9dbe 5bdf 9dbe
00000080: 5940 dcbe aa1c a9be b58f a5be c043 c8be
00000090: 6923 a2be 0300 efbe 7f07 b5be a3f5 c3be
000000a0: c878 dbbe 5fce e5be a969 b7be 0fd2 cebe
000000b0: 3e76 cebe 8b17 b2be deb1 0dbf eaf2 03bf
000000c0: f5a3 85be 0fc5 3bbe 6c1d f5be 387f 0bbf
000000d0: e896 cebe 94c0 03bf 8c40 0bbf 3af7 06bf
000000e0: 7358 0fbf d496 a1be 78b9 c4be 6022 32bf
000000f0: 9059 bf3b 2835 7cbe 7f4b b0be 646b 04bf

net.layer3.1.running_mean f4 [64]
0.0 0.0 0.0 0.0 0.0 0.0 0.0 0.0
0.0 0.0 0.0 0.0 0.0 0.0 0.0 0.0
0.0 0.0 0.0 0.0 0.0 0.0 0.0 0.0
0.0 0.0 0.0 0.0 0.0 0.0 0.0 0.0
0.0 0.0 0.0 0.0 0.0 0.0 0.0 0.0
0.0 0.0 0.0 0.0 0.0 0.0 0.0 0.0
0.0 0.0 0.0 0.0 0.0 0.0 0.0 0.0
0.0 0.0 0.0 0.0 0.0 0.0 0.0 0.0
00000000: 0000 0000 0000 0000 0000 0000 0000 0000
00000010: 0000 0000 0000 0000 0000 0000 0000 0000
00000020: 0000 0000 0000 0000 0000 0000 0000 0000
00000030: 0000 0000 0000 0000 0000 0000 0000 0000
00000040: 0000 0000 0000 0000 0000 0000 0000 0000
00000050: 0000 0000 0000 0000 0000 0000 0000 0000
00000060: 0000 0000 0000 0000 0000 0000 0000 0000
00000070: 0000 0000 0000 0000 0000 0000 0000 0000
00000080: 0000 0000 0000 0000 0000 0000 0000 0000
00000090: 0000 0000 0000 0000 0000 0000 0000 0000
000000a0: 0000 0000 0000 0000 0000 0000 0000 0000
000000b0: 0000 0000 0000 0000 0000 0000 0000 0000
000000c0: 0000 0000 0000 0000 0000 0000 0000 0000
000000d0: 0000 0000 0000 0000 0000 0000 0000 0000
000000e0: 0000 0000 0000 0000 0000 0000 0000 0000
000000f0: 0000 0000 0000 0000 0000 0000 0000 0000

net.layer3.1.running_var f4 [64]
1.0 1.0 1.0 1.0 1.0 1.0 1.0 1.0
1.0 1.0 1.0 1.0 1.0 1.0 1.0 1.0
1.0 1.0 1.0 1.0 1.0 1.0 1.0 1.0
1.0 1.0 1.0 1.0 1.0 1.0 1.0 1.0
1.0 1.0 1.0 1.0 1.0 1.0 1.0 1.0
1.0 1.0 1.0 1.0 1.0 1.0 1.0 1.0
1.0 1.0 1.0 1.0 1.0 1.0 1.0 1.0
1.0 1.0 1.0 1.0 1.0 1.0 1.0 1.0
00000000: 0000 803f 0000 803f 0000 803f 0000 803f
00000010: 0000 803f 0000 803f 0000 803f 0000 803f
00000020: 0000 803f 0000 803f 0000 803f 0000 803f
00000030: 0000 803f 0000 803f 0000 803f 0000 803f
00000040: 0000 803f 0000 803f 0000 803f 0000 803f
00000050: 0000 803f 0000 803f 0000 803f 0000 803f
00000060: 0000 803f 0000 803f 0000 803f 0000 803f
00000070: 0000 803f 0000 803f 0000 803f 0000 803f
00000080: 0000 803f 0000 803f 0000 803f 0000 803f
00000090: 0000 803f 0000 803f 0000 803f 0000 803f
000000a0: 0000 803f 0000 803f 0000 803f 0000 803f
000000b0: 0000 803f 0000 803f 0000 803f 0000 803f
000000c0: 0000 803f 0000 803f 0000 803f 0000 803f
000000d0: 0000 803f 0000 803f 0000 803f 0000 803f
000000e0: 0000 803f 0000 803f 0000 803f 0000 803f
000000f0: 0000 803f 0000 803f 0000 803f 0000 803f

net.layer4.0.weight f4 [64, 64, 3, 3]
-0.097551994 -0.08783741 -0.15405995 -0.124407634 -0.03229558 -0.102141425 -0.12132297 -0.080959566
-0.060220703 0.22842363 0.277069 0.27527654 0.2547376 0.24678268 0.19613318 0.20050374
0.19747135 0.24664412 -0.04125605 0.05984728 -0.00950351 -0.0024208073 0.012582766 0.03357532
0.0045276578 0.0008367114 -0.016921274 0.08900304 -0.08991587 0.007935489 0.106530316 0.034433354
0.09313542 0.09706494 0.046817362 0.13258433 -0.16872832 -0.11034945 -0.04555621 -0.110377915
-0.04598351 0.057741284 -0.07299075 -0.025458423 -0.021792803 -0.06132108 -0.11116469 -0.08571875
-0.048899513 -0.23066886 -0.10993689 -0.0011715537 -0.0107492125 -0.076485686 -0.03519338 0.048906915
0.025229888 -0.07118551 -0.0079401545 -0.040908672 -0.038744323 -0.029570164 -0.007459753 -0.0026584074
0.029108034 -0.043928795 0.08275296 0.09337834 0.06283406 0.091508925 0.052100822 0.10530996
0.10854297 0.09605296 0.06858085 0.09766823 0.021980342 0.0107642645 0.033766765 -0.0006604101
0.046379615 0.080012664 0.028812954 0.033422653 0.027327154 -0.008443086 -0.006586554 0.03795413
-0.036720313 -0.1082053 -0.049561568 -0.09588929 -0.01650785 0.09248526 -0.053501245 -0.082352765
0.13099855 0.06361919 0.055540204 0.008576948 -0.06640406 0.18312012 0.0892254 -0.071506195
0.099761106 0.11741177 0.13411431 0.19230552 0.18062958 0.03279176 0.19351166 0.05777884
-0.011852522 -0.01953828 0.15352729 0.03657258 0.035026744 0.06780761 0.0768047 0.12012773
0.13352086 0.13777992 0.151609 0.06804415 0.13960896 0.12645493 -0.029118951 -0.03153716
-0.07594421 -0.05196898 -0.033435203 -0.093278974 0.0063096196 -0.029341627 0.0519621 0.027047949
-0.04255028 -0.019952402 -0.031803146 0.051329557 -0.006628882 -0.025147982 -0.055346776 -0.027020475
0.03754719 -0.023518514 0.12031277 0.059135772 -0.0066248053 0.02178614 -0.013698259 -0.00083428645
0.1089345 -0.22769983 -0.07624001 -0.08301386 -0.12399661 -0.042540755 -0.015534052 -0.20931488
-0.15367939 -0.10091934 -0.015685868 -0.06301931 -0.02388654 -0.0812599 -0.07293833 -0.002065024
-0.07625654 -0.10971925 -0.12053568 -0.20492588 -0.13342597 -0.14149235 -0.16611558 -0.082757205
-0.071025655 -0.13871713 -0.10438221 -0.07755251 0.090217374 -0.054533683 -0.083853714 0.0573622
0.05293422 0.011826514 0.14804144 0.11122427 0.039558288 0.006479044 -0.016556894 -0.0023544664
-0.009509326 0.017720405 -0.08869268 0.024668628 -0.0058273016 -0.042909127 0.1624708 0.05863903
0.10290517 0.07834905 0.059221063 0.06913598 0.15099584 0.02906328 0.25345153 -0.08967502
-0.05293741 -0.042811986 -0.117819145 -0.08176985 0.001448056 -0.13274106 -0.1668731 -0.021677619
-0.05305279 -0.04913297 0.030604903 0.08219606 0.065794334 0.081163034 0.06959017 0.09946271
0.06590423 -0.06553898 -0.03687011 -0.00025776573 0.056212865 0.04276818 0.0071012094 -0.02955043
-0.04495699 -0.04632905 -0.043594304 -0.0092716655 -0.08357816 -0.07213597 -0.09474562 0.012809992
-0.11413457 -0.21079978 -0.13766187 0.08601084 0.025127718 0.02320725 0.078570284 0.026546517
0.017821088 0.19303325 0.049660593 0.13839523 0.22541288 0.086033165 0.097079754 0.18208636
00000000: 57c9 c7bd 1ae4 b3bd e4c1 1dbe 6ec9 febd
00000010: 5f48 04bd 862f d1bd 2d78 f8bd 21ce a5bd
00000020: fca9 76bd e2e7 693e fddb 8d3e 0cf1 8c3e
00000030: f76c 823e 99b4 7c3e 23d7 483e da50 4d3e
00000040: ee35 4a3e 4790 7c3e 1bfc 28bd 6c22 753d
00000050: 9cb4 1bbc 68a6 1ebb f227 4e3c 4686 093d
00000060: bf5c 943b c056 5b3a 7c9e 8abc 3a47 b63d
00000070: d025 b8bd da03 023c 912c da3d fd09 0d3d
00000080: c8bd be3d fcc9 c63d 90c3 3f3d 30c4 073e
00000090: 1ec7 2cbe e4fe e1bd 2699 3abd d10d e2bd
000000a0: 3459 3cbd 2082 6c3d 2d7c 95bd 2f8e d0bc
000000b0: d286 b2bc d02b 7bbd 50aa e3bd 508d afbd
000000c0: db4a 48bd 7534 6cbe 9826 e1bd d28e 99ba
000000d0: 771d 30bc 87a4 9cbd ef26 10bd 9e52 483d
000000e0: e9ae ce3c b5c9 91bd 6c17 02bc da8f 27bd
000000f0: 5eb2 1ebd 213d f2bc f270 f4bb ad38 2ebb
00000100: f973 ee3c aeee 33bd 627a a93d 253d bf3d
00000110: 25af 803d 0869 bb3d ac67 553d c0ac d73d
00000120: c74b de3d 6ab7 c43d 1e74 8c3d 4806 c83d
00000130: 1e10 b43c 995c 303c 054f 0a3d 5f1f 2dba
00000140: 8df8 3d3d aedd a33d 2509 ec3c 31e6 083d
00000150: 32dd df3c df54 0abc 05d4 d7bb ca75 1b3d
00000160: 0a68 16bd be9a ddbd 1201 4bbd 9b61 c4bd
00000170: 783b 87bc e968 bd3d 1f24 5bbd 91a8 a8bd
00000180: 7c24 063e c74a 823d 207e 633d 5486 0c3c
00000190: dafe 87bd d783 3b3e cebb b63d d771 92bd
000001a0: 8d4f cc3d 9575 f03d 4355 093e bdeb 443e
000001b0: f6f6 383e a750 063d ec27 463e 81a9 6c3d
000001c0: 1531 42bc be0e a0bc 4236 1d3e 21cd 153d
000001d0: 3478 0f3d b7de 8a3d c84b 9d3d 8705 f63d
000001e0: b1b9 083e 2e16 0d3e 643f 1b3e bb5a 8b3d
000001f0: a7f5 0e3e 677d 013e de8a eebc 1c2d 01bd
00000200: a388 9bbd 6ddd 54bd 5af3 08bd 0c09 bfbd
00000210: edc0 ce3b da5d f0bc 36d6 543d a993 dd3c
00000220: 3449 2ebd 3873 a3bc 0444 02bd f13e 523d
00000230: 1837 d9bb 2403 cebc 4db3 62bd 0b5a ddbc
00000240: 15cb 193d e6a9 c0bc 8b66 f63d 5a38 723d
00000250: e514 d9bb d978 b23c aa6e 60bc 04b4 5aba
00000260: 0d19 df3d 252a 69be b923 9cbd 2c03 aabd
00000270: eff1 fdbd 373f 2ebd 8982 7ebc a456 56be
00000280: 215e 1dbe cdae cebd a67f 80bc 4510 81bd
00000290: b5ad c3bc 976b a6bd b160 95bd 5b55 07bb
000002a0: 642c 9cbd 7cb4 e0bd 69db f6bd 17d8 51be
000002b0: d1a0 08be 5fe3 10be 341a 2abe 9c7c a9bd
000002c0: e675 91bd dd0b 0ebe 57c6 d5bd dad3 9ebd
000002d0: e3c3 b83d b65e 5fbd 7fbb abbd a0f4 6a3d
000002e0: 8dd1 583d ffc3 413c 2d98 173e 8dc9 e33d
000002f0: df07 223d 294e d43b 53a2 87bc 644d 1abb
00000300: 01cd 1bbc 622a 913c 82a4 b5bd dd15 ca3c
00000310: f3f2 bebb 7bc1 2fbd bf5e 263e 7b2f 703d
00000320: f2bf d23d 7775 a03d c991 723d 2a97 8d3d
00000330: a79e 1a3e 1e16 ee3c 66c4 813e 89a7 b7bd
00000340: e6d4 58bd 9f5b 2fbd 2a4b f1bd f376 a7bd
00000350: b2cc bd3a 46ed 07be c8e0 2abe 4395 b1bc
00000360: e24d 59bd a73f 49bd 22b7 fa3c 6856 a83d
00000370: 2ebf 863d ce38 a63d 4b85 8e3d 1bb3 cb3d
00000380: ccf8 863d 4d39 86bd 1d05 17bd bb24 87b9
00000390: 763f 663d b02d 2f3d 43b1 e83b be13 f2bc
000003a0: d224 38bd 88c3 3dbd f18f 32bd 2fe8 17bc
000003b0: 072b abbd 06bc 93bd fe09 c2bd 00e1 513c
000003c0: 63bf e9bd e6db 57be 3cf7 0cbe 7426 b03d
000003d0: a5d8 cd3c 211d be3c 75e9 a03d 1578 d93c
000003e0: 88fd 913c 82aa 453e e868 4b3d 7bb7 0d3e
000003f0: a2d2 663e 2832 b03d c0d1 c63d d974 3a3e

net.layer4.0.bias f4 [64]
0.031180235 -0.0009024441 0.015541442 -0.037208244 -0.02262987 0.01340036 0.023398101 0.036555853
-0.013512917 0.021131262 0.009450958 0.036141846 -0.022759981 0.016897291 0.03395098 0.010769638
-0.010929097 0.0062644016 -0.019691698 -0.021409867 -0.018702026 -0.028371578 -0.02994689 -0.030368246
-0.029914316 -0.0070165894 -0.0461527 -0.018628223 -0.013298604 -0.0067434562 -0.03940899 -0.028986461
0.028063402 -0.038379166 0.010616139 -0.013626046 0.021485845 0.042982906 0.0011129113 -0.010796732
-0.008733286 -0.022798896 0.0033969642 -0.010881436 -0.0010233871 -0.014514776 0.0012295933 -0.030190142
-0.035130385 -0.01894364 0.029476762 0.019415516 0.027742382 0.01446043 0.011508093 0.022352045
-0.036812466 -0.017523767 0.02889075 0.02075199 -0.0029541324 0.036146306 0.005316327 -0.006793582
00000000: b16d ff3c 0092 6cba 88a1 7e3c ac67 18bd
00000010: 4762 b9bc 2f8d 5b3c 60ad bf3c 97bb 153d
00000020: 4865 5dbc 781b ad3c 31d8 1a3c 7909 143d
00000030: 2473 babc 306c 8a3c 2f10 0b3d 2373 303c
00000040: f50f 33bc 9c45 cd3b 7c50 a1bc bf63 afbc
00000050: fe34 99bc 836b e8bc 2e53 f5bc d4c6 f8bc
00000060: de0e f5bc 6beb e5bb 9d0a 3dbd 379a 98bc
00000070: 63e2 59bc 36f8 dcbb 526b 21bd 0475 edbc
00000080: 38e5 e53c 7933 1dbd 50ef 2d3c c73f 5fbc
00000090: 1503 b03c d80e 303d 1bdf 913a c7e4 30bc
000000a0: 0e16 0fbc c0c4 babc 9a9f 5e3b 0d48 32bc
000000b0: 2c23 86ba 62cf 6dbc 4e2a a13a 5151 f7bc
000000c0: e1e4 0fbd b12f 9bbc 4079 f13c 4a0d 9f3c
000000d0: fe43 e33c 70eb 6c3c 718c 3c3c a31b b73c
000000e0: abc8 16bd 018e 8fbc 4bac ec3c 1400 aa3c
000000f0: 1e9a 41bb 260e 143d 9534 ae3b b29c debb

net.layer4.1.weight f4 [64]
1.7323663 1.3563477 1.3677158 1.6647167 1.3686965 1.9776542 1.7534312 1.7729001
1.6422694 0.6308275 1.5525428 0.30050755 1.96605 1.4245396 1.6041402 1.5722007
1.6489738 1.2549529 0.9551529 1.7788517 0.36599335 1.9924716 1.9825997 1.3484782
1.6880949 1.5695515 1.9189159 0.41306323 1.7381192 0.43008724 1.8442416 1.9878358
1.8458707 1.6287248 1.6999556 1.8416775 1.577973 0.59937197 1.4776087 1.9568404
1.7109835 1.0456666 0.39663026 1.8340563 2.1061792 1.6281582 0.43828917 1.8815824
1.8290919 2.152473 1.9343761 1.1293619 0.4284957 1.6439917 1.0771854 1.9887909
1.7883646 1.5249861 1.8804021 1.199519 1.4527647 1.7485279 2.0896628 2.0987992
00000000: 2ebe dd3f cd9c ad3f 5011 af3f 7015 d53f
00000010: 7231 af3f c623 fd3f 6f70 e03f 64ee e23f
00000020: e235 d23f e97d 213f b9b9 c63f 20dc 993e
00000030: 87a7 fb3f 5057 b63f 7754 cd3f df3d c93f
00000040: 9311 d33f 4ca2 a03f e784 743f 6ab1 e33f
00000050: 7b63 bb3e 4f09 ff3f d4c5 fd3f ef9a ac3f
00000060: 7e13 d83f 10e7 c83f 099f f53f 067d d33e
00000070: b17a de3f 6534 dc3e 1c10 ec3f 6771 fe3f
00000080: 7e45 ec3f 0e7a d03f 2598 d93f 17bc eb3f
00000090: 05fb c93f 7170 193f 4822 bd3f bf79 fa3f
000000a0: 8201 db3f 67d8 853f 1f13 cb3e 5bc2 ea3f
000000b0: a4cb 0640 7d67 d03f 7067 e03e b1d7 f03f
000000c0: af1f ea3f 1ec2 0940 a399 f73f ee8e 903f
000000d0: ca63 db3e 526e d23f 36e1 893f b390 fe3f
000000e0: 22e9 e43f bf32 c33f 04b1 f03f d789 993f
000000f0: 32f4 b93f c3cf df3f 09bd 0540 ba52 0640

net.layer4.1.bias f4 [64]
-0.13006839 -0.17489985 -0.055258505 -0.29395828 -0.2707659 0.0017021578 -0.32329848 -0.0711397
-0.06254328 -0.21345888 -0.058506336 -0.40831912 -0.25232953 -0.20219122 -0.19157769 -0.07221928
-0.071185425 -0.2103923 -0.13161843 -0.23089348 -0.4788077 -0.78760815 -0.2828865 -0.31768927
-0.013580473 -0.11781201 -0.33735737 -0.4808583 -0.20505537 -0.6793812 -0.029391544 -0.11887738
-0.33484578 -0.012526582 -0.22626746 -0.074979275 -0.2525405 -1.0667182 -0.11304385 -0.30448455
-0.28642052 -0.39531368 -0.37689155 -0.16941717 -0.57443976 -0.08779463 -0.46176937 -0.1547007
-0.052017245 0.12406729 -0.118631504 -0.20837784 -0.60700125 0.023896683 -0.18191805 -0.40296835
-0.09323125 -0.28408715 -0.8036106 -0.05453621 -0.08521318 -0.10309315 -0.11868771 -0.6300311
00000000: a630 05be f218 33be be56 62bd b381 96be
00000010: d4a1 8abe f01a df3a 6187 a5be b1b1 91bd
00000020: b116 80bd f794 5abe 57a4 6fbd 340f d1be
00000030: 5631 81be 370b 4fbe f12c 44be b4e7 93bd
00000040: aac9 91bd 1471 57be fbc6 06be 576f 6cbe
00000050: 4826 f5be b0a0 49bf 80d6 90be 2ba8 a2be
00000060: a280 5ebc 6c47 f1bd 1bba acbe 0f33 f6be
00000070: 09fa 51be edeb 2dbf 89c6 f0bc fc75 f3bd
00000080: e870 abbe 4b3c 4dbc a8b2 67be bc8e 99bd
00000090: fd4c 81be 398a 88bf 8983 e7bd 66e5 9bbe
000000a0: b6a5 92be 8e66 cabe eef7 c0be b27b 2dbe
000000b0: 7c0e 13bf accd b3bd 096d ecbe dc69 1ebe
000000c0: 0910 55bd fe16 fe3d 13f5 f2bd 0061 55be
000000d0: 6f64 1bbf fac2 c33c ba48 3abe de51 cebe
000000e0: 07f0 bebd df73 91be 6db9 4dbf 5c61 5fbd
000000f0: 3f84 aebd 8022 d3bd 8b12 f3bd b849 21bf
