mp/maml_omni_5way_1shot_best_step3750_conv_second.pt (torch, 462698 bytes, 26 tensors)

net.layer1.0.weight f4 [64, 1, 3, 3]
000000 45 60 84 3e 7d 9a 21 bd 5b 19 c7 be e3 19 36 3e
       0.25854698 -0.039453972 -0.38886532 0.17783312
000010 f1 e7 c2 3e e7 33 45 3e 8b 1f 6c be 71 f5 d5 3c
       0.38067582 0.1925808 -0.23058908 0.026118012
000020 a2 b7 47 3e f8 39 db bd f0 8b 51 be ab 59 87 bd
       0.19503644 -0.10704416 -0.20463538 -0.066089
000030 77 47 a3 bd ad de b6 3e 5c 99 41 3e be 6c 81 bd
       -0.07972615 0.35716763 0.18906158 -0.06319569
000040 a3 38 76 bd 5c 3d 54 be 18 ab 85 bd 0e b4 fb bd
       -0.060112607 -0.20726532 -0.06526774 -0.12290202
000050 05 4e 32 be dc 25 f4 bb ac 76 8f be 73 c7 33 bc
       -0.17412575 -0.0074508023 -0.28020227 -0.010972845
000060 b6 47 9b 3e f4 ad ae 3e 3e ce 72 3e 08 2b 66 3e
       0.3032815 0.3411709 0.23711488 0.22477353
000070 17 3b 89 3e e2 5d 85 3e da 29 72 bd cf 21 8d be
       0.26802894 0.2604819 -0.059121944 -0.27564856
000080 f2 d5 a7 be 5c 24 8a bd 17 b0 87 bc 1d 2c 88 3d
       -0.32780415 -0.06745216 -0.016563458 0.06649039
000090 16 e0 91 3e 28 20 3c 3e 6c 54 69 bd 91 62 04 be
       0.28491277 0.18371642 -0.056965277 -0.12928225
0000a0 52 b9 d2 3d 27 08 a5 3c 62 c2 41 be c5 58 6c be
       0.10289253 0.020145489 -0.18921807 -0.23080738
0000b0 c3 10 08 3d 20 ed bb bd 53 3d fb 3d 99 99 98 3e
       0.03321911 -0.091760874 0.12267556 0.29804686
0000c0 f8 da 4b bd 2b 9e a2 be 9d f6 84 be 5a 6e 25 3e
       -0.04976937 -0.31761298 -0.259694 0.16155377
0000d0 03 65 79 3e d4 ee aa ba 7a bd b3 bd a7 52 2d be
       0.24354939 -0.0013041147 -0.08776374 -0.1692606
0000e0 ce c0 7c 3e 31 c1 5d 3e 8a 53 8d be f9 77 58 3e
       0.24682924 0.21655728 -0.27602798 0.21139516
0000f0 c3 f8 53 bd 89 30 59 be 18 7f 92 3e 5d 7a df 3d
       -0.05175091 -0.21209921 0.2861259 0.10912011
000100 a2 3a 41 3e a5 44 9b be c2 a9 c3 bd a3 e8 72 3e
       0.18870023 -0.3032581 -0.09553863 0.23721556
000110 03 82 67 3e d1 8f 2f bb e1 2d 0c be 33 39 17 3e
       0.2260819 -0.0026788602 -0.13689376 0.14767914
000120 f9 6e 0b 3d 1f f2 4b 3d de 35 a3 be 32 4a 23 3e
       0.03404138 0.04979145 -0.31877035 0.15946272
000130 91 80 2c 3e 78 5c e6 bd af 8d ef 3c f0 1c 0d 3e
       0.16845919 -0.11248106 0.029242365 0.1378057
000140 87 15 b2 3e e0 c0 fa 3d f3 7b bb bc 0d c7 7f be
       0.3478205 0.12243819 -0.022886252 -0.24978276
000150 61 f9 a9 3e aa db 7c 3d 4f 0d 61 be 33 d4 c8 bd
       0.33198074 0.061732925 -0.21977733 -0.09806099
000160 38 2a d9 3e f5 ff 26 3e b7 1b 98 bd b1 a2 06 be
       0.42415023 0.16308577 -0.07427161 -0.13148
000170 cd 95 2d be 72 6c d1 bd 8d e8 54 bd 88 9e 3a be
       -0.16951676 -0.102257624 -0.05197959 -0.18224537
000180 3e 0e 30 be 94 ca 4b be 22 a1 c2 bd 44 6e 90 3d
       -0.17192933 -0.19901496 -0.0950339 0.070522815
000190 ad cf 77 3e 30 dc 19 3d 87 c8 26 3e 9c 96 24 be
       0.24200316 0.037563503 0.16287433 -0.16073078
0001a0 dd 6f 8b be 22 8c 17 be 9b 66 41 be 2c 98 3e 3e
       -0.27233782 -0.1479955 -0.18886797 0.18612736
0001b0 18 91 ac 3a 04 57 6a bd ed af 27 be 50 90 21 be
       0.00131658 -0.05721189 -0.16375704 -0.15777707
0001c0 19 25 a0 bd 51 3d 24 be b2 d3 91 3d cf b5 75 3d
       -0.07819576 -0.16039015 0.07120456 0.05998784
0001d0 ba c3 bc 3e 36 af 9b be 8f e1 5e bc 41 76 9f 3e
       0.36868078 -0.30407113 -0.013603582 0.31144908
0001e0 ba d9 11 be 6a f1 9e 3d d2 55 86 3e 4e a0 da 3e
       -0.14243212 0.0776089 0.2623735 0.42700428
0001f0 67 c0 71 3e 83 28 25 3b 92 56 7f 3e c6 32 40 be
       0.23608552 0.0025201149 0.24935368 -0.18769369
000200 34 e2 48 3e 51 79 ab 3d 51 e2 97 be 3e 9c 0d 3d
       0.1961754 0.08372749 -0.29664853 0.034572832
000210 9b 6b 3e 3e 2e cf db bd 66 c7 bc 3d 49 1e cf bd
       0.18595736 -0.10732876 0.0921772 -0.10113198
000220 b8 9a 86 3e bc 35 10 be 8b dd 97 3d 0e ee 0f 3e
       0.26289916 -0.14082998 0.07415303 0.14055654
000230 97 bf 26 be 7b 04 17 be a4 22 cc 3e e5 de 80 be
       -0.16284023 -0.14747803 0.3987018 -0.25170055
000240 2d d6 d8 3d cf 36 17 be bf 1c c5 bd a7 ed 60 bd
       0.10587726 -0.14767002 -0.096246235 -0.054914143
000250 e8 6e 27 be cd 45 0f 3e 80 27 77 be 13 b9 b6 bc
       -0.16350901 0.1399147 -0.24136162 -0.022305047
000260 50 ea 79 3e dc 63 83 be 1c b6 5f 3e fa 94 84 3d
       0.2440579 -0.25662124 0.21846813 0.064737275
000270 56 99 71 be 23 0a 07 3e eb b7 37 3e 96 1e 5a be
       -0.2359365 0.1318746 0.17941253 -0.2130073
000280 de db 38 bd 34 f6 6e 3e 25 f7 20 be e1 1b 91 be
       -0.045131557 0.23336107 -0.15719278 -0.28341582
000290 55 76 64 3c 4a c5 4f 3e 9d d7 d7 3e 2f a7 dc 3e
       0.013944228 0.20290104 0.42156687 0.430963
0002a0 e4 0e ff 3d 98 fd 6f 3d 81 e3 b1 be ba d2 a9 3d
       0.12454012 0.058591455 -0.34743884 0.08292146
0002b0 eb 3a 3c be 4c 7c 81 be 60 bb 67 be f4 aa dd bd
       -0.1838185 -0.25290143 -0.22630072 -0.10823622
0002c0 60 2d 94 3d 94 63 b3 bd b3 8c 18 3d da 2b d3 3d
       0.07235217 -0.087592274 0.037243556 0.103110984
0002d0 58 8b 6b be 13 46 88 be 0d cd 02 be 20 e6 33 3b
       -0.23002374 -0.26615962 -0.12773533 0.0027450398
0002e0 4c c7 d2 3d a9 c4 8b 3e 44 54 52 3e fb df 2d 3e
       0.10291919 0.27298477 0.20539957 0.16979973
0002f0 51 9d 15 3e 9a bd 31 be 5f 9f 41 be 85 45 c8 bd
       0.14610793 -0.17357484 -0.18908451 -0.09778885
000300 4d 27 83 bd 3a f7 a5 bd 08 e6 fc 3d 2d 5c 92 3e
       -0.064039804 -0.08103795 0.123485625 0.2858595
000310 b9 7e 9e 3e 16 7b 9c bc cc 67 91 bd 2f 64 2e 3e
       0.30956057 -0.01910166 -0.07099876 0.17030405
000320 a4 b9 32 3e 82 a8 6e bd 84 8f 4f be b9 55 77 3e
       0.17453629 -0.05826617 -0.2026959 0.24153794
000330 4b c0 34 3e 76 d1 6a be 93 e3 08 be 27 29 d6 3d
       0.17651479 -0.22931466 -0.13368063 0.10457068
000340 48 3f 54 be aa a6 d5 3d f7 62 7e be f5 aa 98 be
       -0.20727265 0.10432179 -0.2484244 -0.2981793
000350 da 21 8f 3e d4 6f ed 3d 6f eb 9a 3e de 5e 3c 3e
       0.27955514 0.11593595 0.30257747 0.18395564
000360 01 a6 94 bd 7b 5d 79 be fc 88 55 bd f6 7c 53 bb
       -0.07258225 -0.24352066 -0.05213259 -0.0032270527
000370 11 71 b4 bd 56 4d 05 be a4 8b c6 bc f6 d3 7d 3b
       -0.08810628 -0.13017783 -0.024236508 0.0038731075
000380 9b 75 a1 be b2 e8 09 bd 0e ba 69 3e cf 54 3e be
       -0.31535038 -0.03366918 0.2282488 -0.1858704
000390 3c 4d 94 be dd 16 e0 3e 61 4e d6 bd 09 f3 9a be
       -0.28965175 0.43767443 -0.10464168 -0.30263546
0003a0 84 f5 ba 3e 6c ef c5 bd a9 e8 e3 3d 09 35 4f 3e
       0.3651544 -0.09664807 0.11128361 0.20235075
0003b0 f7 5f c3 3d e8 f4 89 be 76 63 6a be 1b 53 61 be
       0.09539788 -0.2694466 -0.22889504 -0.22004358
0003c0 58 c6 16 3e e2 a1 59 3e 66 de 41 3e 18 22 e1 3d
       0.147241 0.2125316 0.18932495 0.10992831
0003d0 9b 1f a3 3e e6 71 fe ba ca ff b5 3d 00 2c f8 bc
       0.3186005 -0.0019412606 0.088866785 -0.030294418
0003e0 7d 79 97 be 5f e0 ed 3d 15 e8 7f 3e 9b e0 96 bd
       -0.29584876 0.11615061 0.24990876 -0.07367059
0003f0 25 b4 18 be 8e fe 67 3c dd 71 93 be 34 ef 9e 3d
       -0.1491247 0.014159812 -0.28797808 0.07760468

net.layer1.0.bias f4 [64]
000000 17 a8 8c be 3f c9 0e be b6 88 ba 3d 14 b0 96 3e
       -0.27471992 -0.13943957 0.09108107 0.29431212
000010 b5 d8 25 bd 6e 0b 03 3e dd cb dc bd 75 79 b0 3e
       -0.04048987 0.12797329 -0.10781071 0.34467664
000020 8f b0 3b 3e c9 12 fa 3d e7 74 63 be 74 0d 1d be
       0.1832907 0.12210614 -0.22212563 -0.15337163
000030 b2 c3 34 3a 24 b9 d0 bd 83 9a 7b bd f2 c4 6d 3d
       0.0006895616 -0.10191563 -0.06142665 0.05804915
000040 e7 92 66 be ae 9d a1 be 7c 0a 4e bd 7b da 94 3e
       -0.22516976 -0.31565613 -0.050302967 0.29072937
000050 31 38 8b 3d 05 b7 6b 3e d0 1c 49 3e c4 d4 ad be
       0.06797827 0.23019035 0.19639897 -0.3395139
000060 dc 3a b8 bd 0c ed 38 3e bf e9 00 3e 0f 19 59 be
       -0.089956015 0.18059176 0.12589167 -0.21200965
000070 ad bd e9 bd f0 1e e9 3d 57 75 6c be 88 ac 1f be
       -0.11413131 0.11382854 -0.23091637 -0.15593159
000080 1c 2a 9f be 6a b9 3a be 86 0e a3 3e 7b a5 b5 bd
       -0.31086814 -0.18234792 0.31847018 -0.088694535
000090 5d 20 a4 be a5 e1 81 be 0f 6e 0a 3e 97 99 9c 3c
       -0.3205594 -0.25367466 0.13518547 0.019116206
0000a0 0c 97 4c 3e f7 8e 68 3e 64 01 a7 3c 09 60 4e 3e
       0.19979495 0.22710787 0.020386405 0.20153822
0000b0 86 27 2c bd 92 80 ca 3d 32 3b 2d 3e 1a d1 61 3e
       -0.04202988 0.09887804 0.16917112 0.22052422
0000c0 34 bc 83 be 14 6c b1 3d 05 b6 86 3e 98 85 7b 3d
       -0.25729525 0.086631924 0.26310745 0.0614067
0000d0 58 46 c5 bd 60 4e 99 3e ea f9 8a 3e 77 6d e1 bd
       -0.09632558 0.29942608 0.27143794 -0.11007207
0000e0 7e d9 74 3d 42 6d 78 3e c5 b3 ae 3e c1 6a 8f 3e
       0.05977773 0.24260429 0.34121528 0.28011134
0000f0 9b ae 7c 3d 81 04 26 3d 9f 41 a4 3d 67 1b a4 3e
       0.061689954 0.04053164 0.08020329 0.32052156

net.layer1.1.weight f4 [64]
000000 4c 8a ba 3f 08 26 3e 3f f9 ec 7c 3f b3 b7 62 3f
       1.4573455 0.7427678 0.9879909 0.8856155
000010 e9 a9 37 3f 87 35 46 3f 80 7d 66 3f d1 45 9b 3f
       0.7174364 0.77425426 0.9003525 1.2130681
000020 47 79 a1 3f e1 4c 96 3f a5 f6 56 3f 56 18 3b 3f
       1.2615136 1.1742212 0.839701 0.7308401
000030 60 e2 2b 3f 71 1d c3 3f a7 35 4d 3f f2 4d 61 3f
       0.67142296 1.524336 0.8015999 0.8800956
000040 2d e4 2c 3f 41 f6 63 3f 6f 5b bc 3f 9d 10 2d 3f
       0.6753567 0.8904763 1.4715403 0.67603475
000050 65 54 7a 3f 96 d0 52 3f 45 2d 48 3f 39 16 9f 3f
       0.97785026 0.82349527 0.78194076 1.2428657
000060 55 92 46 3f ad 7e 90 3f 96 c6 46 3f d4 44 7f 3f
       0.77567035 1.1288658 0.7764677 0.997144
000070 f7 50 82 3f 45 33 38 3f 4d 90 6c 3f 57 8c 37 3f
       1.0180959 0.7195323 0.92407686 0.71698517
000080 03 c8 72 3f fe c1 68 3f 29 b3 b4 3f d7 fc 4a 3f
       0.94836444 0.9092101 1.4117175 0.79292053
000090 72 2d d0 3f d9 83 a3 3f 4f 36 74 3f 80 ee 2d 3f
       1.6263869 1.2774612 0.9539537 0.6794205
0000a0 d7 94 92 3f f4 46 89 3f 91 6c 9f 3f ae 5e b9 3f
       1.1451672 1.0724778 1.2455007 1.4482019
0000b0 76 fb 7d 3f 58 4f 6a 3f cc e3 c4 3f 5b d2 4f 3f
       0.99211824 0.9152732 1.5382018 0.8118035
0000c0 db d9 72 3f 84 24 8f 3f fb 23 39 3f 64 ff 66 3f
       0.9486367 1.1183019 0.72320527 0.90233445
0000d0 e0 7f ba 3f 43 60 4f 3f 64 49 bc 3f 13 6a 7c 3f
       1.4570274 0.8100626 1.4709897 0.98599356
0000e0 5a a8 9b 3f 4a ce 3a 3f a3 59 88 3f 72 6c 30 3f
       1.2160752 0.7297102 1.0652355 0.68915474
0000f0 1e 74 66 3f 1b 8b 82 3f 4f 79 75 3f d5 07 91 3f
       0.9002093 1.0198702 0.9588823 1.1330515

net.layer1.1.bias f4 [64]
000000 39 87 7a be 70 96 de be 1d aa 4e be 41 b5 40 be
       -0.24465646 -0.4347415 -0.2018208 -0.18819143
000010 2f bc 8e bd 62 b2 64 be b4 b2 5c be 0f 1d db bd
       -0.06969487 -0.22333673 -0.21552545 -0.10698902
000020 3d 4a 98 be 99 e8 a5 be 52 3b 39 bf d8 75 f4 be
       -0.2974414 -0.3240402 -0.7235614 -0.47746158
000030 0d 73 01 bf 54 85 cb 3d d8 f1 b4 be 42 96 2a 3d
       -0.5056618 0.0993754 -0.35340762 0.041647203
000040 16 ab 4a bf 83 f6 09 bd f6 c9 2f 3d 1f f8 54 bf
       -0.79167306 -0.033682358 0.042917214 -0.831911
000050 15 db 2f be 37 c4 81 bd c0 ab 01 be 91 59 82 be
       -0.17173417 -0.06336253 -0.12663174 -0.2545896
000060 80 e3 45 bf f8 cf 1d 3e bb 49 92 be 43 a9 ad be
       -0.7730026 0.15411365 -0.28571877 -0.339182
000070 58 1d dc be de eb 46 be 61 cf 3c be ce fc 34 bf
       -0.42991138 -0.19425914 -0.18438484 -0.7069825
000080 d6 86 99 3c ec 55 8d 3e 89 b1 25 3e e6 ff 97 be
       0.018741053 0.27604616 0.16181006 -0.29687423
000090 4f 30 82 bd a6 9c 9c be cb cb bb be 87 66 32 bf
       -0.063568704 -0.30588263 -0.3667892 -0.69687694
0000a0 46 ae cd be c2 93 43 be 6d ac e5 bd 73 06 15 3f
       -0.40172023 -0.19099334 -0.11214528 0.58212966
0000b0 e0 c7 46 be b8 f1 f2 3c 65 06 cb 3e eb 46 c3 be
       -0.19412184 0.029656276 0.39653316 -0.38140044
0000c0 27 36 4f bf 80 69 34 be 98 f7 e9 be 75 8e 7b bd
       -0.80942005 -0.1761837 -0.45696712 -0.061415154
0000d0 79 a9 17 3e 18 39 16 bf 33 64 44 3e 08 d3 58 3b
       0.14810742 -0.5868087 0.19178848 0.0033084769
0000e0 d9 63 fb be d2 e6 39 be 63 d1 83 3e 4b b6 32 bf
       -0.49099615 -0.18154457 0.25745687 -0.69809407
0000f0 f8 ee 42 bf 10 cf 9a be f9 07 67 be 60 1b 87 bd
       -0.7614589 -0.302361 -0.22561635 -0.06597018

net.layer1.1.running_mean f4 [64]
000000 00 00 00 00 00 00 00 00 00 00 00 00 00 00 00 00
       0.0 0.0 0.0 0.0
000010 00 00 00 00 00 00 00 00 00 00 00 00 00 00 00 00
       0.0 0.0 0.0 0.0
000020 00 00 00 00 00 00 00 00 00 00 00 00 00 00 00 00
       0.0 0.0 0.0 0.0
000030 00 00 00 00 00 00 00 00 00 00 00 00 00 00 00 00
       0.0 0.0 0.0 0.0
000040 00 00 00 00 00 00 00 00 00 00 00 00 00 00 00 00
       0.0 0.0 0.0 0.0
000050 00 00 00 00 00 00 00 00 00 00 00 00 00 00 00 00
       0.0 0.0 0.0 0.0
000060 00 00 00 00 00 00 00 00 00 00 00 00 00 00 00 00
       0.0 0.0 0.0 0.0
000070 00 00 00 00 00 00 00 00 00 00 00 00 00 00 00 00
       0.0 0.0 0.0 0.0
000080 00 00 00 00 00 00 00 00 00 00 00 00 00 00 00 00
       0.0 0.0 0.0 0.0
000090 00 00 00 00 00 00 00 00 00 00 00 00 00 00 00 00
       0.0 0.0 0.0 0.0
0000a0 00 00 00 00 00 00 00 00 00 00 00 00 00 00 00 00
       0.0 0.0 0.0 0.0
0000b0 00 00 00 00 00 00 00 00 00 00 00 00 00 00 00 00
       0.0 0.0 0.0 0.0
0000c0 00 00 00 00 00 00 00 00 00 00 00 00 00 00 00 00
       0.0 0.0 0.0 0.0
0000d0 00 00 00 00 00 00 00 00 00 00 00 00 00 00 00 00
       0.0 0.0 0.0 0.0
0000e0 00 00 00 00 00 00 00 00 00 00 00 00 00 00 00 00
       0.0 0.0 0.0 0.0
0000f0 00 00 00 00 00 00 00 00 00 00 00 00 00 00 00 00
       0.0 0.0 0.0 0.0

net.layer1.1.running_var f4 [64]
000000 00 00 80 3f 00 00 80 3f 00 00 80 3f 00 00 80 3f
       1.0 1.0 1.0 1.0
000010 00 00 80 3f 00 00 80 3f 00 00 80 3f 00 00 80 3f
       1.0 1.0 1.0 1.0
000020 00 00 80 3f 00 00 80 3f 00 00 80 3f 00 00 80 3f
       1.0 1.0 1.0 1.0
000030 00 00 80 3f 00 00 80 3f 00 00 80 3f 00 00 80 3f
       1.0 1.0 1.0 1.0
000040 00 00 80 3f 00 00 80 3f 00 00 80 3f 00 00 80 3f
       1.0 1.0 1.0 1.0
000050 00 00 80 3f 00 00 80 3f 00 00 80 3f 00 00 80 3f
       1.0 1.0 1.0 1.0
000060 00 00 80 3f 00 00 80 3f 00 00 80 3f 00 00 80 3f
       1.0 1.0 1.0 1.0
000070 00 00 80 3f 00 00 80 3f 00 00 80 3f 00 00 80 3f
       1.0 1.0 1.0 1.0
000080 00 00 80 3f 00 00 80 3f 00 00 80 3f 00 00 80 3f
       1.0 1.0 1.0 1.0
000090 00 00 80 3f 00 00 80 3f 00 00 80 3f 00 00 80 3f
       1.0 1.0 1.0 1.0
0000a0 00 00 80 3f 00 00 80 3f 00 00 80 3f 00 00 80 3f
       1.0 1.0 1.0 1.0
0000b0 00 00 80 3f 00 00 80 3f 00 00 80 3f 00 00 80 3f
       1.0 1.0 1.0 1.0
0000c0 00 00 80 3f 00 00 80 3f 00 00 80 3f 00 00 80 3f
       1.0 1.0 1.0 1.0
0000d0 00 00 80 3f 00 00 80 3f 00 00 80 3f 00 00 80 3f
       1.0 1.0 1.0 1.0
0000e0 00 00 80 3f 00 00 80 3f 00 00 80 3f 00 00 80 3f
       1.0 1.0 1.0 1.0
0000f0 00 00 80 3f 00 00 80 3f 00 00 80 3f 00 00 80 3f
       1.0 1.0 1.0 1.0

net.layer2.0.weight f4 [64, 64, 3, 3]
000000 b7 3a 1f bc 7e 9b b7 bd bc fd 3a bd 5c d1 cf bd
       -0.009718589 -0.08965205 -0.045652136 -0.10147354
000010 35 1a af bd 16 2d 77 be ef 72 79 bd 05 45 7d bd
       -0.085499205 -0.24138293 -0.060900625 -0.0618334
000020 6e 4b 08 be 18 2e db 3d b8 cc aa 3d 15 b9 8c 3d
       -0.13310024 0.10702151 0.08339828 0.06871239
000030 78 c5 f0 3d 4c 14 54 3e 1b d5 20 3d e7 1a 9c 3b
       0.11756414 0.20710868 0.039265733 0.004763949
000040 a3 3d 8f 3d 81 f9 cb 3d 82 ee b1 3d 13 93 4e 3d
       0.06994178 0.099596985 0.0868807 0.05043323
000050 5b 3b 42 bd b8 df 8e bd 53 f0 cd 3c 4c cf b7 3d
       -0.047419887 -0.06976265 0.02513901 0.089750856
000060 48 5a 2f 3e 14 bc 37 3d f4 3d bc 3c 3e dc e4 b7
       0.17124283 0.0448571 0.02297876 -2.7282276e-05
000070 39 00 93 3c 39 3b 9a bd cb e7 bb bd e8 44 05 3e
       0.017944442 -0.07530827 -0.091750704 0.13014567
000080 31 91 19 3d 87 ca 9e 3d 6c 20 12 3e bd 2d 9c 3d
       0.03749198 0.07753473 0.1427018 0.076259114
000090 2d 59 6a bd 61 fc 4f bc 36 68 56 3b 77 69 cb bd
       -0.05721395 -0.012694449 0.0032715923 -0.09932225
0000a0 9e ff b7 bc 9a 7d cd 3c 11 30 ee 3d 81 93 cf 3c
       -0.022460755 0.025084306 0.11630262 0.02533889
0000b0 05 e7 c6 3d 5a e4 9e bc cc 99 ce 3c 66 31 5b 3d
       0.09712032 -0.019395996 0.02521982 0.053513907
0000c0 f5 91 0d bd 09 ec b9 3d 61 d2 10 be 07 64 ec 3d
       -0.034563024 0.09078223 -0.14142753 0.11542516
0000d0 d9 18 69 3d 5d c0 ef bd 9c b8 db 3d 44 78 14 3d
       0.056908462 -0.11706612 0.10728571 0.036247507
0000e0 bc 6c 4c 3d 5e 23 2d bd 8c 96 f2 bd 9f 09 c5 bc
       0.049908385 -0.042270057 -0.11845121 -0.02405244
0000f0 b5 02 2e be cf 5e a4 bd 12 2f 86 3d 33 ca 4f bd
       -0.1699322 -0.08025896 0.06551947 -0.05072994
000100 7b 38 83 bc 8e 56 12 bc de d5 dd bd 3f c4 27 be
       -0.016018143 -0.008931769 -0.108318076 -0.16383456
000110 e8 f3 2b be 01 9c 42 3d a0 26 83 bd f6 d1 57 be
       -0.16792262 0.04751206 -0.064038515 -0.21076187
000120 75 6a 65 3b e4 ab e0 bd f6 60 96 bd 86 60 cf bc
       0.003500608 -0.109702855 -0.073427126 -0.02531458
000130 67 d3 c9 bd 67 7e 17 be 2a bf cc bd e7 de 9d bd
       -0.09854775 -0.14794312 -0.09997399 -0.07708531
000140 3d 8b bc bd 41 a9 02 3e a9 51 9b bc 4c 10 83 bd
       -0.09206245 0.12759878 -0.018959837 -0.06399593
000150 05 36 d9 bc 4b e7 f0 bd dd 83 0f be 9e 8f 9f bd
       -0.026515016 -0.11762866 -0.14015146 -0.07791065
000160 2b 58 b4 bd ba 64 0c be 8e be fc 3b 62 0c 3d 3c
       -0.08805879 -0.13710299 0.0077131456 0.011538597
000170 68 55 38 3c 3a c9 80 bc 7c be f2 3d 02 59 9d 3d
       0.011250831 -0.015720952 0.11852738 0.076829925
000180 53 0c 48 bc 30 ae 07 3c 8e 06 1b bd d3 86 47 3d
       -0.01220997 0.008281276 -0.037848048 0.048712563
000190 a5 32 e0 3c 50 d8 3d 3d 2e 9c 57 bc a6 76 cb 3d
       0.0273679 0.04634887 -0.013159795 0.0993474
0001a0 64 00 dd 3d fd 5c c7 bc 8f 8c c2 3d e8 8e 0e 3e
       0.1079109 -0.024336332 0.09499466 0.13921702
0001b0 37 32 0c 3c 64 6a b1 3c 76 e4 7b bc 42 c2 43 3b
       0.008556894 0.021657176 -0.015374294 0.0029870425
0001c0 7e 1b e3 3d c1 6c 0f 3d 10 dc e1 3d 5d 7a 01 3e
       0.11089228 0.035015825 0.11028302 0.12644334
0001d0 e7 09 60 3d bb 5c c4 3c 8c bb 4a 3d 79 2a c2 3d
       0.054696944 0.023969999 0.049495265 0.09480757
0001e0 3c 74 78 bd c1 46 b4 bb cd 13 11 3e 1c 3c 57 be
       -0.060657725 -0.0055015986 0.1416771 -0.21019024
0001f0 59 ab d0 bc 69 2d 4e bd 46 0f 2a 3d 78 e0 d0 3c
       -0.02547233 -0.050336275 0.041518472 0.02549766
000200 14 4d 20 3d d3 c0 29 3c b5 c3 4e bd d4 80 ba bc
       0.039136007 0.010360914 -0.05047961 -0.022766508
000210 d7 d7 48 bd cb 61 ed bc cc d0 77 bc fe 10 e8 3d
       -0.049033966 -0.028977295 -0.015125465 0.11331366
000220 80 75 89 3d e7 82 13 3c e7 1b 2c bd 37 33 3d bd
       0.067118645 0.0090033775 -0.042018797 -0.04619142
000230 9b b4 d2 3c c5 f3 0f be 8e 0e ac bb 51 21 3b bd
       0.025720885 -0.14057834 -0.0052507585 -0.04568607
000240 b7 06 8a 3d f6 c9 db 3d 1b 28 d7 bb 7c ad 3f 3d
       0.06739562 0.1073188 -0.0065660602 0.046796307
000250 af 09 a9 3d 20 24 85 3d 6d 9a f4 3c 5e 06 59 3d
       0.082538 0.06501031 0.029858792 0.052984588
000260 d8 98 05 3d 2a f1 ac 3d 60 a2 8d 3d e1 f6 60 3c
       0.032616466 0.08444436 0.06915736 0.0137307355
000270 fc 4c 9a 3d c0 f2 0f bd cc 5f ee bd 73 07 63 bd
       0.07534215 -0.035143614 -0.116393656 -0.055427026
000280 0a fd 02 be 39 24 63 ba 41 ed 57 bd be 55 49 bc
       -0.12791839 -0.00086647604 -0.052716497 -0.012288509
000290 c2 c2 35 bd 71 19 00 bd 77 9c 08 3e 66 80 d0 3d
       -0.04437519 -0.031274263 0.13340937 0.1018074
0002a0 4c 23 31 3d 0b 5c 3d 3e 01 a9 33 3e 4e a4 18 3d
       0.043246552 0.18492143 0.17544939 0.03726607
0002b0 1a 12 1c 3e 68 fe 59 3d 23 ae 2a 3d 79 26 1f 3d
       0.1524128 0.053221136 0.041669976 0.03885505
0002c0 21 83 0f 3e 68 da 12 3d 62 70 1f 3e 68 c7 50 3d
       0.14014865 0.03585282 0.15570214 0.05097142
0002d0 99 13 75 3c 1b 5e b2 3d a9 b3 eb b8 d0 89 c5 bd
       0.014958286 0.087093554 -0.000112391375 -0.09645426
0002e0 0a 8e e0 3d a4 d2 7f 3d 5e e0 59 3b 26 d3 3f 3e
       0.10964592 0.062456742 0.0033245306 0.1873289
0002f0 56 c0 45 3d c5 38 1f 3d ad 25 e8 bb ce 9c 45 bd
       0.04827913 0.0388725 -0.0070845694 -0.048245244
000300 d5 28 46 bd 9a b7 96 3d 3b a7 98 3d 87 fa 3b 3d
       -0.048378784 0.07359238 0.07453772 0.04589322
000310 86 8b e1 3d 9c 55 2d 3d 0c 75 47 3d d3 76 79 bc
       0.1101294 0.04231797 0.04869561 -0.015226084
000320 2a 20 3b 3d 6c c7 8a bc e8 da 70 bd 3b 1a 62 bd
       0.04568497 -0.016940795 -0.058802515 -0.055200797
000330 c2 52 9c bb 8d 94 5d bd 26 84 36 bd e8 9d d1 bc
       -0.0047706077 -0.054096747 -0.04455962 -0.02558799
000340 32 a2 57 3d de e3 4f 3c c5 61 2a bd f4 9c 64 3d
       0.052644916 0.012688605 -0.041597147 0.055813745
000350 9b 07 b0 3d 37 b7 75 bd 46 6b 20 3c 9e e9 9d 3d
       0.08595201 -0.05998918 0.009791201 0.077105746
000360 87 03 9a 3c b8 a2 7a bd 94 ba a6 bd 89 ef c9 3d
       0.01880051 -0.061190337 -0.08141056 0.09860141
000370 8f 88 23 bd 9a 41 95 bc 12 ef 57 3d 81 eb ce 3c
       -0.039925154 -0.018219758 0.05271823 0.025258781
000380 1d 37 bf 3b ab 8b 18 3e 24 d7 ae 3d 44 f6 ee 3b
       0.0058354274 0.14897029 0.085371286 0.0072925407
000390 cb 57 a2 bc 5b e5 27 bd b1 38 ff bd 53 24 c7 bd
       -0.019817254 -0.040990215 -0.12461985 -0.09723725
0003a0 62 79 fe bd 67 fa 11 bc a4 b4 96 bc bf bb 09 3d
       -0.12425496 -0.008909798 -0.018396683 0.033626314
0003b0 20 a8 95 bc 16 5d 94 3d 2b 41 e0 3d 0d c8 2a 3d
       -0.018268645 0.07244317 0.1094993 0.04169469
0003c0 84 bc a4 3d 93 57 ab 3d 02 3b 7a 3d d5 57 2c 3d
       0.08043769 0.08366313 0.06109143 0.04207595
0003d0 3e 8c 2e 3d 4d 16 c7 3d cd f8 74 3d 8f 3e 34 3d
       0.042614214 0.097210504 0.059807587 0.044004973
0003e0 cc 1e 9f 3d 25 e7 82 bd 2a e5 67 bc 99 98 3d bd
       0.07769546 -0.063917436 -0.014153758 -0.046288107
0003f0 1a 3e d6 3d 30 e2 6f 3d 47 fd c4 3d a5 95 d6 3d
       0.10461064 0.05856532 0.09618621 0.10477761

net.layer2.0.bias f4 [64]
000000 fb 83 b1 3b ab ee 11 bd 8e 3f 0c bd 29 bb fb bc
       0.0054173446 -0.035628002 -0.034240298 -0.030728893
000010 2b bb 12 3b 4b e1 b6 3b b9 66 de 3c 93 02 56 bc
       0.0022389393 0.0055810562 0.027148591 -0.013062137
000020 19 6d e8 bc 48 ce d1 bc 1e 53 11 3d 21 1f 5f bb
       -0.028372334 -0.025611058 0.035479657 -0.0034045654
000030 31 3a 05 3d 9d af 80 bc 0b 22 97 bc b7 e9 d1 bc
       0.0325262 -0.015708739 -0.01844885 -0.02562414
000040 5f ea 29 bd 5f 44 b0 3c 97 fa 5b bc fc 6c e7 bc
       -0.04148328 0.021516977 -0.0134264445 -0.02825021
000050 2d b8 23 3d 17 4e 94 ba 89 32 be 3b 29 33 0e 3c
       0.039970566 -0.0011314776 0.005804364 0.00867919
000060 dc 8a 23 3d bc 3b 6b b9 42 1f 93 bb ed f1 a0 bc
       0.03992735 -0.00022433599 -0.00448981 -0.01964661
000070 d8 f1 0e bb c4 88 b4 3c 6b 5c 26 bc 60 b0 ee bc
       -0.002181163 0.022037871 -0.01015387 -0.029136837
000080 04 f8 af 3b 19 17 cc bb 0e eb 1d bb ab 51 75 3b
       0.005370142 -0.0062283394 -0.0024096402 0.003743271
000090 a4 ca 17 bd 2a fa 86 3c 62 7f 08 3d 02 b8 6b 3a
       -0.037058488 0.01647671 0.033324607 0.0008991958
0000a0 b6 7f 05 3d 20 5a 8b 3c 6f 35 28 bd 32 ba ad 3c
       0.032592498 0.017010748 -0.041066583 0.021206949
0000b0 2c 0c 09 bd 8f 9c 90 3c 37 69 c6 3c 77 66 80 3c
       -0.033458874 0.017652778 0.024220092 0.015673859
0000c0 93 b5 2a 3d ec 71 10 bd ac 82 81 3c 26 9f 68 3c
       0.04167707 -0.035264894 0.01580938 0.0141981
0000d0 7b 98 e3 3c 13 24 b2 3c b8 b6 0a 3d 75 90 db 3c
       0.02778267 0.021745717 0.03386566 0.02680228
0000e0 e7 bb 23 bd cb ac 10 bd d9 ad bc 3c 33 37 63 3b
       -0.03997412 -0.03532104 0.023032116 0.0034670352
0000f0 16 60 cb 3c 2d ae dd 3c e3 1e c1 3c 67 3f 18 bd
       0.02482609 0.027060593 0.023574298 -0.03716984

net.layer2.1.weight f4 [64]
000000 54 6b 5c 3f 4f a6 a2 3f 74 b2 8b 3f c4 41 97 3f
       0.8610127 1.2707003 1.0913835 1.1816945
000010 f2 e2 98 3f ff 8c 57 3f 75 73 96 3f ba f9 8e 3f
       1.1944258 0.8419952 1.1753985 1.116996
000020 6e 15 9d 3f 70 a8 5b 3f 5f 06 91 3f db 9a 8e 3f
       1.2272165 0.8580389 1.1330069 1.1141008
000030 cb 0d 46 3f 62 06 9c 3f 90 2f 6a 3f a4 9e 81 3f
       0.77364796 1.2189448 0.91478825 1.0126538
000040 c4 49 9f 3f bb 5e 77 3f 59 1d 58 3f e4 e1 a4 3f
       1.2444386 0.9662892 0.8441978 1.2881436
000050 70 84 92 3f 47 63 60 3f 9b ca 51 3f 33 fc 64 3f
       1.1446667 0.87651485 0.81949776 0.89447325
000060 f8 36 5b 3f 08 db 79 3f 9e 26 6f 3f 94 2d 4a 3f
       0.8563075 0.9759984 0.934183 0.78975797
000070 9d b2 44 3f 80 fb 68 3f c5 b0 69 3f ff 4a 5d 3f
       0.7683504 0.9100876 0.91285354 0.8644256
000080 9a ad 93 3f 63 31 6b 3f 28 90 8d 3f 27 61 59 3f
       1.1537354 0.91872233 1.1059618 0.8491387
000090 0f 79 79 3f e1 ba 6c 3f 49 78 86 3f a9 90 8c 3f
       0.97450346 0.92472655 1.0505458 1.0981647
0000a0 08 bd 93 3f ac aa 4a 3f d7 5f 5b 3f e1 62 82 3f
       1.1542063 0.79166675 0.85693115 1.0186425
0000b0 45 85 58 3f cb dd 7e 3f 60 c8 9b 3f 95 96 84 3f
       0.84578353 0.9955718 1.2170525 1.0358454
0000c0 ce 13 4d 3f 3c 5c 7d 3f bd 99 52 3f 0b 81 89 3f
       0.80108345 0.98968863 0.82265836 1.0742506
0000d0 51 2f 8b 3f 66 b5 84 3f 78 9f 7f 3f e9 49 82 3f
       1.0873815 1.0367858 0.99852705 1.0178806
0000e0 ec 6b 7f 3f 83 ac 8e 3f 66 77 6c 3f f5 41 52 3f
       0.9977405 1.1146396 0.9236969 0.8213189
0000f0 d9 4d 6b 3f b1 0d 9c 3f 61 01 9a 3f 6e 7e 8a 3f
       0.9191566 1.2191678 1.2031671 1.0819833

net.layer2.1.bias f4 [64]
000000 74 f9 16 bf c3 ca 12 be ad 2d 80 be 3a 8f 60 be
       -0.58974385 -0.1433516 -0.25034848 -0.21929637
000010 d6 dc a2 be 03 d6 05 bf ab b9 a1 be 6a 25 85 be
       -0.3180911 -0.5227968 -0.31586966 -0.26005107
000020 59 3b 8b bd e6 85 c3 be 39 f7 68 be b4 2b 59 3c
       -0.06798429 -0.38188094 -0.22750558 0.013255049
000030 94 ef 2b bf 12 76 bf be 03 90 f6 be e5 9a 8c be
       -0.6716244 -0.37394768 -0.48156747 -0.27461925
000040 e5 61 d0 3d f5 33 8f be fa 71 a1 be c0 15 b8 be
       0.10174922 -0.27969328 -0.3153227 -0.35954094
000050 f1 c0 4b be 51 4f 59 bf 04 5a 1c be b2 6d 27 bf
       -0.1989782 -0.8488665 -0.15268713 -0.65401757
000060 e6 39 19 bf 3c 05 70 be 3e d1 90 be cb ec 66 be
       -0.5985397 -0.23439497 -0.2828464 -0.22551267
000070 2a 83 bb be 84 9d f9 be 1f 56 14 bf fe 0a f0 be
       -0.36623508 -0.48752987 -0.5794391 -0.46883386
000080 7e db 0d be e5 dd 41 be 12 7d 96 be 4b cc 56 bf
       -0.13853261 -0.18932302 -0.29392296 -0.83905476
000090 da 14 a3 be 3f b3 3b bf cd f4 60 be b5 4e a1 be
       -0.31851846 -0.7332038 -0.21968384 -0.3150536
0000a0 77 d8 aa bd 48 5f fe be 40 02 34 bf b0 30 73 be
       -0.08342069 -0.4968207 -0.70315933 -0.23749042
0000b0 78 d1 9f be c0 ef 28 3c 8a 64 af be b6 2d be be
       -0.312145 0.010311067 -0.34256393 -0.3714425
0000c0 ab 15 29 bf 37 00 1d be 30 41 24 bf 16 e9 6e be
       -0.6604869 -0.15332113 -0.6416197 -0.23331103
0000d0 e5 e4 f2 be 65 e9 70 be 58 34 07 bf e6 04 a3 be
       -0.47440258 -0.23526533 -0.52814245 -0.31839675
0000e0 9a 0d 8d be fa 0c 0d be 59 09 6f be 84 0c d9 be
       -0.2754944 -0.13774481 -0.2334341 -0.4239236
0000f0 63 99 d1 be 86 56 c7 be 6d 2f 63 bc d9 ee 47 be
       -0.40937337 -0.389332 -0.013866288 -0.19524707

net.layer2.1.running_mean f4 [64]
000000 00 00 00 00 00 00 00 00 00 00 00 00 00 00 00 00
       0.0 0.0 0.0 0.0
000010 00 00 00 00 00 00 00 00 00 00 00 00 00 00 00 00
       0.0 0.0 0.0 0.0
000020 00 00 00 00 00 00 00 00 00 00 00 00 00 00 00 00
       0.0 0.0 0.0 0.0
000030 00 00 00 00 00 00 00 00 00 00 00 00 00 00 00 00
       0.0 0.0 0.0 0.0
000040 00 00 00 00 00 00 00 00 00 00 00 00 00 00 00 00
       0.0 0.0 0.0 0.0
000050 00 00 00 00 00 00 00 00 00 00 00 00 00 00 00 00
       0.0 0.0 0.0 0.0
000060 00 00 00 00 00 00 00 00 00 00 00 00 00 00 00 00
       0.0 0.0 0.0 0.0
000070 00 00 00 00 00 00 00 00 00 00 00 00 00 00 00 00
       0.0 0.0 0.0 0.0
000080 00 00 00 00 00 00 00 00 00 00 00 00 00 00 00 00
       0.0 0.0 0.0 0.0
000090 00 00 00 00 00 00 00 00 00 00 00 00 00 00 00 00
       0.0 0.0 0.0 0.0
0000a0 00 00 00 00 00 00 00 00 00 00 00 00 00 00 00 00
       0.0 0.0 0.0 0.0
0000b0 00 00 00 00 00 00 00 00 00 00 00 00 00 00 00 00
       0.0 0.0 0.0 0.0
0000c0 00 00 00 00 00 00 00 00 00 00 00 00 00 00 00 00
       0.0 0.0 0.0 0.0
0000d0 00 00 00 00 00 00 00 00 00 00 00 00 00 00 00 00
       0.0 0.0 0.0 0.0
0000e0 00 00 00 00 00 00 00 00 00 00 00 00 00 00 00 00
       0.0 0.0 0.0 0.0
0000f0 00 00 00 00 00 00 00 00 00 00 00 00 00 00 00 00
       0.0 0.0 0.0 0.0

net.layer2.1.running_var f4 [64]
000000 00 00 80 3f 00 00 80 3f 00 00 80 3f 00 00 80 3f
       1.0 1.0 1.0 1.0
000010 00 00 80 3f 00 00 80 3f 00 00 80 3f 00 00 80 3f
       1.0 1.0 1.0 1.0
000020 00 00 80 3f 00 00 80 3f 00 00 80 3f 00 00 80 3f
       1.0 1.0 1.0 1.0
000030 00 00 80 3f 00 00 80 3f 00 00 80 3f 00 00 80 3f
       1.0 1.0 1.0 1.0
000040 00 00 80 3f 00 00 80 3f 00 00 80 3f 00 00 80 3f
       1.0 1.0 1.0 1.0
000050 00 00 80 3f 00 00 80 3f 00 00 80 3f 00 00 80 3f
       1.0 1.0 1.0 1.0
000060 00 00 80 3f 00 00 80 3f 00 00 80 3f 00 00 80 3f
       1.0 1.0 1.0 1.0
000070 00 00 80 3f 00 00 80 3f 00 00 80 3f 00 00 80 3f
       1.0 1.0 1.0 1.0
000080 00 00 80 3f 00 00 80 3f 00 00 80 3f 00 00 80 3f
       1.0 1.0 1.0 1.0
000090 00 00 80 3f 00 00 80 3f 00 00 80 3f 00 00 80 3f
       1.0 1.0 1.0 1.0
0000a0 00 00 80 3f 00 00 80 3f 00 00 80 3f 00 00 80 3f
       1.0 1.0 1.0 1.0
0000b0 00 00 80 3f 00 00 80 3f 00 00 80 3f 00 00 80 3f
       1.0 1.0 1.0 1.0
0000c0 00 00 80 3f 00 00 80 3f 00 00 80 3f 00 00 80 3f
       1.0 1.0 1.0 1.0
0000d0 00 00 80 3f 00 00 80 3f 00 00 80 3f 00 00 80 3f
       1.0 1.0 1.0 1.0
0000e0 00 00 80 3f 00 00 80 3f 00 00 80 3f 00 00 80 3f
       1.0 1.0 1.0 1.0
0000f0 00 00 80 3f 00 00 80 3f 00 00 80 3f 00 00 80 3f
       1.0 1.0 1.0 1.0

net.layer3.0.weight f4 [64, 64, 3, 3]
000000 da 32 3e bd 35 0f d4 3c 9a 26 91 3b cb 75 89 bb
       -0.046435215 0.025886158 0.0044296505 -0.00419495
000010 d9 de 28 be b8 bc 5e bd ae b0 00 bd 3a 16 ef bd
       -0.1649126 -0.054379195 -0.031418495 -0.11674161
000020 49 ab 34 bc 70 5d 0d 3d b9 fd 2e bc 65 d0 44 bc
       -0.011027166 0.034512937 -0.010680609 -0.012012576
000030 af 9c d6 3b d2 fa 55 bc 23 6a c9 3d fb 83 46 bc
       0.00654944 -0.0130602885 0.09834697 -0.0121164275
000040 d7 03 cf bd 36 e9 55 3c 18 84 fe bd 21 44 9a 3c
       -0.10108154 0.01305609 -0.12427539 0.018831315
000050 3f 7a d4 3c 3b 5b d0 3d e9 45 47 3d 5b c7 ca bd
       0.025937198 0.10173651 0.048650656 -0.09901305
000060 b5 bd 00 3e cc 22 fb 3d 9e 62 ac bd da b5 fa bd
       0.12572367 0.12262496 -0.08417247 -0.12241717
000070 16 8b 35 bd 62 1b 46 3d c3 ba e8 bd 29 a3 8a bd
       -0.044322096 0.048365958 -0.11363747 -0.067694016
000080 04 30 0d 3d 14 2c 01 3c 11 c1 1f bc 52 11 33 3c
       0.03446962 0.007884044 -0.00975062 0.010929422
000090 c9 be 89 3d f8 28 06 3e e4 10 40 3d c4 2c 82 3d
       0.067258425 0.13101566 0.04689111 0.063561946
0000a0 c3 89 01 3e 4e 8b 11 3e 4f bd 02 3e 10 d0 0e 3e
       0.12650208 0.14213297 0.12767528 0.13946557
0000b0 5e 97 4b 3d a2 00 a7 bd 72 08 c5 3c 9a 7d ce bc
       0.049704902 -0.081544176 0.024051879 -0.025206376
0000c0 b0 00 ef bb 68 8a 7a bd 03 3a c3 bd ea 8d 38 bd
       -0.007293783 -0.06116715 -0.09532549 -0.045057215
0000d0 b1 c6 06 be 16 72 fc bc 38 32 e9 bd 52 2e 37 bd
       -0.13161732 -0.03081612 -0.113865316 -0.04472191
0000e0 2a 1e 12 bd c9 36 78 bd 15 87 d5 bd 49 90 a6 bc
       -0.035673298 -0.060599122 -0.104261555 -0.020332472
0000f0 da 8a 31 3d 02 25 fc 3c a5 f7 1b bd 47 52 a2 3d
       0.04334531 0.030779365 -0.03807797 0.079258494
000100 03 d5 26 bd b9 34 e8 3c 81 0b a4 3c 72 f4 9e 3d
       -0.040730488 0.028345453 0.020025017 0.07761468
000110 e2 a7 20 bd 30 c4 1e 3d e1 f6 b8 3d b7 f0 20 bd
       -0.039222606 0.038761318 0.090314634 -0.039292064
000120 77 9c e0 3d 36 64 46 3d 71 b2 eb bc f7 48 5d 3d
       0.10967343 0.048435412 -0.02877161 0.054024663
000130 6d a3 8b 3d ed e9 04 bd 62 c7 0b bd f6 52 93 bd
       0.0681828 -0.03244965 -0.034125693 -0.07193558
000140 11 dc 6b bd 28 be 6a 3d 0c 46 86 3c f0 81 22 3b
       -0.05758292 0.057310253 0.016390823 0.0024796687
000150 c0 62 4b 3d 3d 6e 0e bd f8 81 2e bd c0 11 ba bc
       0.049654722 -0.0347731 -0.042604417 -0.022713542
000160 39 ed f8 bd c3 19 a8 bd 41 73 cd 3c 31 19 3d bd
       -0.12154622 -0.08208039 0.025079371 -0.046166603
000170 6a 35 15 3d 9c f9 28 3a 8b 45 9f bd 6a 23 bc bd
       0.036427893 0.0006445886 -0.07776936 -0.09186442
000180 72 b0 18 3c 1e c8 ff bd f2 ef 2a bd 98 8f 07 3d
       0.009319412 -0.12489341 -0.041732736 0.033095926
000190 60 90 44 3d 44 29 56 3c 68 28 28 bd 28 70 38 bd
       0.04798925 0.013071362 -0.04105416 -0.045028836
0001a0 aa 33 52 be 96 8a f0 3c 4d da 0e be 7c 62 3b be
       -0.20527521 0.029362958 -0.13950463 -0.18299288
0001b0 f1 99 00 be 2e 9f 33 3d 15 da 43 bd 7d e2 b1 bd
       -0.12558724 0.043852977 -0.0478154 -0.08685777
0001c0 96 a6 3e bd 4f 59 0d bb 13 2e fd bd 6f 4d 09 be
       -0.046545587 -0.0021568125 -0.123623036 -0.13408445
0001d0 c9 f6 4e 3d 8a 2b 91 3d b7 ad c1 bb 3f 7c 1a 3b
       0.05052832 0.070883825 -0.005910601 0.0023572592
0001e0 6f b4 8e bb c0 f7 15 bd cf 62 07 be ec f9 5a 3d
       -0.0043550055 -0.036613226 -0.13221286 0.053461
0001f0 b8 6e 8d bd 46 54 a5 bc 3a c6 3c bd 5d 7a 8f bd
       -0.069058836 -0.020181786 -0.04608748 -0.07005761
000200 39 59 3c bc 2f 50 ec 3c db d6 5b bd 2b 92 8b bd
       -0.011495882 0.028846828 -0.0536717 -0.06814989
000210 de f3 6c 3d 69 b1 88 3d 55 c9 a4 bd 34 a9 ec bc
       0.057849757 0.06674463 -0.080462135 -0.028889276
000220 1e f2 fe bd 09 41 50 bc dd 74 61 bd 86 2c 89 bd
       -0.12448524 -0.012710818 -0.05504309 -0.06697945
000230 39 79 24 be 65 2f f3 bc be d8 a7 bd 86 c2 08 be
       -0.16061868 -0.029685685 -0.08195637 -0.13355455
000240 34 0a 23 3d 2d c6 29 3d 59 a8 5d 3c 32 32 46 3d
       0.039804652 0.04144876 0.013528907 0.048387714
000250 88 75 13 bd 7a f6 59 3a fa 50 42 bd 1a 50 f6 bd
       -0.03600076 0.0008314621 -0.047440507 -0.12026997
000260 65 6d 1e be 92 7f 17 bd 75 b9 6d bc 67 4c 53 bd
       -0.15471418 -0.036986895 -0.014509548 -0.051586535
000270 3f 92 7f bd 62 5b c3 bc ed 88 1d be 3e 9b 89 3d
       -0.06239533 -0.023847286 -0.15384264 0.06719063
000280 4a 5e 7a 3d 41 86 1e be d8 da 2c bc f9 ab 87 3d
       0.061125077 -0.15480901 -0.010550223 0.06624598
000290 10 8f be 3c aa f5 98 3d 7f 0d a5 3c bf 45 ee 3b
       0.023261577 0.07468732 0.020148037 0.007271498
0002a0 4f 95 36 bd 0e fe 9b 3d 74 ee cd 3c 27 f6 39 3d
       -0.044575986 0.076168165 0.025138117 0.045400765
0002b0 5a 69 47 bd 4c b3 0c be 0d f2 a0 bb a3 c9 12 be
       -0.048684455 -0.13740271 -0.004911667 -0.14334731
0002c0 4d 17 5d be 13 b2 a9 3d f1 48 05 be fe 58 3d be
       -0.2159092 0.08285918 -0.13016106 -0.18490979
0002d0 ca d4 a8 3c 3b d1 e4 3d 83 cd 83 bd 93 48 81 3d
       0.020609278 0.1117272 -0.064356826 0.063126706
0002e0 0c 99 bc 3d af ad 92 bd 3f c0 13 3e 5f 5d ab 3d
       0.09208879 -0.07162034 0.14428805 0.083674185
0002f0 f3 37 b1 3c cd bc 0b be 40 b2 fa bd 3b 93 e4 bd
       0.021633124 -0.1364624 -0.1224103 -0.111608945
000300 1c c3 65 bc 2c 6e 13 bc 46 5a 4e 3c 46 8f d4 3c
       -0.0140235685 -0.008998435 0.012594765 0.025947224
000310 be f4 d1 bc 7c 8b 36 3d bf 64 04 be 1b a8 9d bd
       -0.025629397 0.044566616 -0.12929057 -0.07698079
000320 aa cc f4 bc f7 9d c2 bb 8d 0b b3 bd 7c be a3 3d
       -0.029882748 -0.005939241 -0.087424375 0.079953164
000330 0e 6f 95 3d 63 1f df bc 29 12 1b bd 41 96 9c bd
       0.072965726 -0.027236646 -0.037859116 -0.07645846
000340 e3 35 c1 3b e6 e1 20 bd 43 0a 45 be b1 ac 34 be
       0.0058963164 -0.039277934 -0.19242196 -0.17644002
000350 37 36 d0 bd bc 67 1f be 30 a2 0b be 8d 7d 9e bc
       -0.10166591 -0.15566915 -0.13636088 -0.019346977
000360 9b 21 8e bc a8 22 5e bd a3 52 c8 bd f9 3d 28 3c
       -0.017350009 -0.05423227 -0.09781387 0.010268682
000370 01 8c 78 bd ec f2 a8 bd 22 ef 25 bd b2 c9 f2 bc
       -0.060680393 -0.08249459 -0.040511258 -0.029637191
000380 81 5f 88 bd 93 ea 7b 3d d1 20 99 3d 88 41 b5 bb
       -0.06658841 0.061503004 0.07476962 -0.0055314936
000390 04 f8 b6 bc ef a2 d1 3c be 6e 62 3d 9a e1 a8 bd
       -0.02233506 0.025590388 0.055281393 -0.08246155
0003a0 cc ea 23 bc dd 4f 83 3d d2 e4 47 3d f1 18 e1 bd
       -0.01000471 0.06411717 0.048802204 -0.10991085
0003b0 4d c1 fb 3c a1 b4 1a 3c 8f 1c 36 bd 6d e0 0b bc
       0.030731821 0.009442479 -0.04446083 -0.008537394
0003c0 ef bd 71 3c 60 ce 34 3c 67 b5 1c 3b 2f 01 a6 bd
       0.014754756 0.011035532 0.0023911835 -0.081056945
0003d0 5c d7 3c bd 60 f1 5a 3c 3f af 65 bd 99 22 83 bd
       -0.04610382 0.013363212 -0.05607533 -0.06403083
0003e0 d0 e7 59 bc 82 1d 0c 3d d9 92 8e 3d 68 7b 06 bd
       -0.013299897 0.03420783 0.06961603 -0.032832533
0003f0 0b d5 65 3c 59 5e e4 bd 30 33 ca bb e4 ae c1 bc
       0.014027844 -0.11150808 -0.006170653 -0.023642965

net.layer3.0.bias f4 [64]
000000 16 d5 c9 bc 64 e4 2a 3d 78 03 0e 3d 80 81 1d 3d
       -0.02463774 0.041721717 0.034671277 0.03845358
000010 bc b5 28 3d b6 31 6a 3c cc c6 c3 bb 29 83 31 3d
       0.04118894 0.014294079 -0.005974626 0.043337975
000020 84 0d e1 bc c8 b4 31 3c 49 b3 13 3d 60 a8 1c 3d
       -0.027472265 0.010846324 0.03605965 0.038246512
000030 85 5a 32 3b 15 4a 66 3a 93 86 b8 bc 62 16 b1 3c
       0.0027214598 0.0008784843 -0.022525107 0.021617118
000040 c5 39 a5 3c b2 77 03 3d f5 ce 7d 3c f8 70 1c bd
       0.020169148 0.032096572 0.015491237 -0.038193673
000050 e3 6e e6 ba 7a 80 e7 3c 11 90 0f 3b 79 57 a8 bc
       -0.0017580654 0.028259505 0.0021905939 -0.020549523
000060 55 63 1a 3d 3a 61 23 bc cc 6b 10 3d 86 47 6f 3c
       0.037692387 -0.009971911 0.035259053 0.014604455
000070 0d 1c 2a 3d b4 e7 39 3c 35 57 d2 bc ea c5 b7 bc
       0.041530658 0.011346746 -0.02567635 -0.02243324
000080 91 15 d6 bc 5e e0 da bb 84 f3 49 3c 7b 30 a2 3c
       -0.02613333 -0.0066795787 0.012326125 0.019798508
000090 ca 16 33 bc 21 44 7f bc 11 9e 30 bd bf f0 ad 3c
       -0.010930726 -0.015580208 -0.043119494 0.02123296
0000a0 e1 15 8c 3c 78 f8 bf ba 14 56 d3 bb 41 f3 6b 3c
       0.017100276 -0.0014646193 -0.0064494703 0.014401258
0000b0 8a 04 e3 bb 4b 41 22 3c 40 9e 8d bc c0 6c 7c 3c
       -0.0069280313 0.009903262 -0.017287374 0.015406787
0000c0 75 4d 05 3d 34 6d a4 bc ed 69 18 bd 08 d1 16 3d
       0.032544572 -0.020071603 -0.037210394 0.03682044
0000d0 79 ab 27 bb 8c 3d a7 bc 22 c4 70 bc 4e 75 75 3c
       -0.0025584383 -0.02041509 -0.014695199 0.014981581
0000e0 d0 63 12 3d c2 a6 f4 3c 05 92 13 bd 54 66 93 bc
       0.03573972 0.029864673 -0.036027927 -0.01799313
0000f0 9f 9f 18 3d 49 8f c5 bc ef 8d ab 3c 45 81 53 3c
       0.0372616 -0.024116175 0.020941703 0.012909238

net.layer3.1.weight f4 [64]
000000 ec 85 70 3f d7 a1 80 3f 41 19 9f 3f c5 75 66 3f
       0.9395435 1.004939 1.2429582 0.9002345
000010 0d 4d 84 3f 2d 8b 92 3f 0a 4a 60 3f 5c 83 40 3f
       1.0336014 1.1448723 0.87612975 0.7520044
000020 f0 f7 4b 3f 59 cb 46 3f cc ff 8e 3f c3 16 59 3f
       0.796752 0.77654034 1.1171813 0.84800357
000030 15 bf 6f 3f 15 ed 85 3f 7a fc 6e 3f 73 d0 84 3f
       0.93650943 1.0462977 0.93354 1.0376114
000040 af 2f 64 3f f8 4d ad 3f 7d 56 51 3f dd 77 85 3f
       0.8913526 1.3539419 0.81772596 1.0427204
000050 ce 8e 88 3f 9f bf 52 3f 42 e7 87 3f 70 d5 85 3f
       1.066858 0.8232364 1.0617449 1.0455761
000060 91 30 8b 3f d7 5b 83 3f d9 af 49 3f df 94 53 3f
       1.0874196 1.0262402 0.7878395 0.82649034
000070 9d 56 84 3f 60 07 73 3f b3 95 93 3f dd d9 65 3f
       1.0338932 0.9493313 1.153006 0.8978556
000080 53 ef 94 3f d1 c5 7f 3f 8c 36 70 3f 2a a6 68 3f
       1.1635536 0.9991122 0.9383323 0.90878546
000090 d2 9e 2f 3f 3a a0 82 3f 8c 50 72 3f 6f bf 66 3f
       0.68601716 1.0205147 0.94654155 0.90135854
0000a0 da 6c 7d 3f 0a ce 82 3f 22 bd 6e 3f 23 ae 7a 3f
       0.9899422 1.0219128 0.93257344 0.9792196
0000b0 49 8e 54 3f 14 f0 83 3f a0 65 61 3f 28 63 8f 3f
       0.8302961 1.0307641 0.8804569 1.1202135
0000c0 18 c5 83 3f d6 87 94 3f ba b3 45 3f 89 be 56 3f
       1.0294523 1.1603954 0.77227366 0.83884484
0000d0 93 4c 3a 3f 1d 8d 7b 3f 5e 35 5b 3f be b5 54 3f
       0.72773093 0.98262197 0.85628307 0.83089817
0000e0 b0 6e 81 3f ff 5a a1 3f 2e 69 38 3f 8b 14 83 3f
       1.0111904 1.2605895 0.7203549 1.0240644
0000f0 2f 46 88 3f e2 09 88 3f f5 6c 3c 3f a2 43 6d 3f
       1.0646418 1.0628016 0.73603755 0.92681324

net.layer3.1.bias f4 [64]
000000 2b 39 ad be cb e7 87 be a2 73 33 be 4b a9 48 be
       -0.33832678 -0.26544032 -0.17524579 -0.1959583
000010 d3 f2 a0 be 97 0e 98 be 9c 24 e7 be d5 02 c1 be
       -0.3143526 -0.2969863 -0.45145118 -0.37697473
000020 ff f1 95 be c1 53 cb be f4 4d d6 be 1e 6d a7 be
       -0.2928619 -0.39712337 -0.4185635 -0.32700437
000030 e2 cc 82 be 1d 83 b6 be cb d8 91 be 1e cd aa be
       -0.25546938 -0.35646906 -0.28485712 -0.33359617
000040 d8 dc 9f be 9f f4 d6 be 56 33 4d be 6e 60 a1 be
       -0.31223178 -0.41983506 -0.20039114 -0.31518883
000050 fc 95 ae be 49 97 aa be 3f eb a1 be e1 bc ab be
       -0.34098804 -0.33318546 -0.3162479 -0.3354254
000060 b0 62 ea be 20 44 8d be 16 c2 6b be 7c 37 40 be
       -0.45778418 -0.27591038 -0.23023257 -0.18771166
000070 e8 79 bc be 3f 7c c5 be 64 77 8b be b9 c9 61 be
       -0.36811757 -0.38571355 -0.27239525 -0.22049607
000080 66 e5 69 be 67 a9 a0 be da 28 97 be 0e c4 4e be
       -0.22841415 -0.31379244 -0.29523355 -0.20191976
000090 45 61 00 bf 95 34 f0 be 80 e0 76 be 8f 8e 98 be
       -0.5014842 -0.46915117 -0.24109077 -0.29796264
0000a0 d3 6e c2 be d3 2e e8 be 28 d1 70 be 4a 6d aa be
       -0.37975177 -0.45348224 -0.23517287 -0.33286506
0000b0 23 19 57 be 0d d8 6c be 84 7f 83 be 1d 56 a9 be
       -0.21005683 -0.23129292 -0.25683224 -0.33073512
0000c0 47 51 9a be 30 3d e5 be 06 5e f2 be 8b 73 a7 be
       -0.30140135 -0.44773245 -0.4733736 -0.3270534
0000d0 54 d2 37 be 72 8b a9 be 86 0e c4 be 4d 5a d4 be
       -0.17951328 -0.331142 -0.3829233 -0.41475144
0000e0 4a 2e b4 be 49 c0 c9 be 55 86 49 be 6c e1 4b be
       -0.35191566 -0.39404514 -0.1968015 -0.1991021
0000f0 b0 c8 9a be cd 2b 83 be 31 2a 54 be 36 94 81 be
       -0.30231237 -0.25619355 -0.2071922 -0.25308388

net.layer3.1.running_mean f4 [64]
000000 00 00 00 00 00 00 00 00 00 00 00 00 00 00 00 00
       0.0 0.0 0.0 0.0
000010 00 00 00 00 00 00 00 00 00 00 00 00 00 00 00 00
       0.0 0.0 0.0 0.0
000020 00 00 00 00 00 00 00 00 00 00 00 00 00 00 00 00
       0.0 0.0 0.0 0.0
000030 00 00 00 00 00 00 00 00 00 00 00 00 00 00 00 00
       0.0 0.0 0.0 0.0
000040 00 00 00 00 00 00 00 00 00 00 00 00 00 00 00 00
       0.0 0.0 0.0 0.0
000050 00 00 00 00 00 00 00 00 00 00 00 00 00 00 00 00
       0.0 0.0 0.0 0.0
000060 00 00 00 00 00 00 00 00 00 00 00 00 00 00 00 00
       0.0 0.0 0.0 0.0
000070 00 00 00 00 00 00 00 00 00 00 00 00 00 00 00 00
       0.0 0.0 0.0 0.0
000080 00 00 00 00 00 00 00 00 00 00 00 00 00 00 00 00
       0.0 0.0 0.0 0.0
000090 00 00 00 00 00 00 00 00 00 00 00 00 00 00 00 00
       0.0 0.0 0.0 0.0
0000a0 00 00 00 00 00 00 00 00 00 00 00 00 00 00 00 00
       0.0 0.0 0.0 0.0
0000b0 00 00 00 00 00 00 00 00 00 00 00 00 00 00 00 00
       0.0 0.0 0.0 0.0
0000c0 00 00 00 00 00 00 00 00 00 00 00 00 00 00 00 00
       0.0 0.0 0.0 0.0
0000d0 00 00 00 00 00 00 00 00 00 00 00 00 00 00 00 00
       0.0 0.0 0.0 0.0
0000e0 00 00 00 00 00 00 00 00 00 00 00 00 00 00 00 00
       0.0 0.0 0.0 0.0
0000f0 00 00 00 00 00 00 00 00 00 00 00 00 00 00 00 00
       0.0 0.0 0.0 0.0

net.layer3.1.running_var f4 [64]
000000 00 00 80 3f 00 00 80 3f 00 00 80 3f 00 00 80 3f
       1.0 1.0 1.0 1.0
000010 00 00 80 3f 00 00 80 3f 00 00 80 3f 00 00 80 3f
       1.0 1.0 1.0 1.0
000020 00 00 80 3f 00 00 80 3f 00 00 80 3f 00 00 80 3f
       1.0 1.0 1.0 1.0
000030 00 00 80 3f 00 00 80 3f 00 00 80 3f 00 00 80 3f
       1.0 1.0 1.0 1.0
000040 00 00 80 3f 00 00 80 3f 00 00 80 3f 00 00 80 3f
       1.0 1.0 1.0 1.0
000050 00 00 80 3f 00 00 80 3f 00 00 80 3f 00 00 80 3f
       1.0 1.0 1.0 1.0
000060 00 00 80 3f 00 00 80 3f 00 00 80 3f 00 00 80 3f
       1.0 1.0 1.0 1.0
000070 00 00 80 3f 00 00 80 3f 00 00 80 3f 00 00 80 3f
       1.0 1.0 1.0 1.0
000080 00 00 80 3f 00 00 80 3f 00 00 80 3f 00 00 80 3f
       1.0 1.0 1.0 1.0
000090 00 00 80 3f 00 00 80 3f 00 00 80 3f 00 00 80 3f
       1.0 1.0 1.0 1.0
0000a0 00 00 80 3f 00 00 80 3f 00 00 80 3f 00 00 80 3f
       1.0 1.0 1.0 1.0
0000b0 00 00 80 3f 00 00 80 3f 00 00 80 3f 00 00 80 3f
       1.0 1.0 1.0 1.0
0000c0 00 00 80 3f 00 00 80 3f 00 00 80 3f 00 00 80 3f
       1.0 1.0 1.0 1.0
0000d0 00 00 80 3f 00 00 80 3f 00 00 80 3f 00 00 80 3f
       1.0 1.0 1.0 1.0
0000e0 00 00 80 3f 00 00 80 3f 00 00 80 3f 00 00 80 3f
       1.0 1.0 1.0 1.0
0000f0 00 00 80 3f 00 00 80 3f 00 00 80 3f 00 00 80 3f
       1.0 1.0 1.0 1.0
