mp/maml_mini_5way_1shot_best_step12500_conv_second.pt (torch, 498060 bytes, 26 tensors)

net.layer1.0.weight f4 [64, 3, 3, 3]
0.058474746 -0.20826279 0.100633815 0.22228491 -0.2546979 0.09880156 0.013516268 -0.11992797
0.098576955 0.15034685 -0.21509711 0.10407698 0.12639268 -0.26980472 0.15331668 0.12831096
-0.24110536 0.08641449 0.02549691 -0.2039204 0.18315865 0.10034167 -0.2604419 0.10477624
-0.08026892 -0.026326122 0.13049619 -0.059262518 0.05357571 -0.0308444 -0.027082851 -0.05093401
0.0008654183 -0.050966866 0.0063609625 -0.064552374 0.04934717 0.1648555 0.15752663 -0.009199417
0.14628744 0.16906676 0.088038325 0.1043594 0.0970286 -0.23214431 -0.16931523 0.15619299
-0.20850241 -0.3647802 0.00085423567 -0.17757186 -0.34263247 -0.2630536 -0.17763576 0.039429348
0.10863614 -0.087220006 0.01772448 0.10524747 0.22691979 -0.0024756845 -0.21679504 -0.19239731
-0.075936146 0.2285957 -0.013501122 0.001853933 -0.06404059 0.3205534 0.04326674 -0.3190083
-0.13861702 0.05440722 0.20426841 -0.12596503 0.01691832 0.1344567 0.19642195 -0.07645583
-0.21211597 -0.018902022 0.11933136 -0.0064723394 -0.17330281 -0.07066472 -0.08588669 -0.24838237
-0.26613292 -0.20919496 0.07260427 0.048921466 0.17734285 0.039843306 -0.064305685 0.13660751
-0.07991095 -0.050818507 -0.11108554 0.07652431 0.09540279 0.15353368 0.10034068 0.05980022
0.11170134 -0.045596287 0.045709237 0.076978594 0.06796062 -0.14868946 -0.056918975 0.11156304
-0.068596944 -0.3130399 0.22280245 -0.01011147 -0.23280227 0.22228834 0.008774581 -0.023450755
0.23591073 0.041881867 -0.053802345 0.20473757 0.051112533 -0.086366 0.022087775 -0.09345102
-0.06894969 0.15795402 0.030870162 -0.22449675 0.05045001 -0.031233655 -0.033456042 -0.11812865
0.019000225 -0.12974313 0.03230688 0.06181028 -0.0049874447 -0.026725512 -0.081152596 -0.02087107
0.082504 0.14334396 0.08157139 0.13063875 0.20500551 0.16739559 0.110607296 0.1529637
-0.0089881215 0.1419251 0.16272855 0.07770674 0.27764663 0.3614136 0.13974988 0.118005
0.13440394 0.023328688 0.11463665 0.12157988 0.083921425 0.06704442 0.075806335 -0.060782045
0.14587215 -0.001970425 -0.05160195 -0.07366024 -0.12701337 -0.032555416 -0.1474675 -0.25403613
-0.14413826 -0.20215283 -0.14577669 -0.22426042 0.23360549 0.17625177 0.077317156 0.093419865
0.062226553 0.04643981 0.018602598 -0.0882988 -0.03978399 0.07430213 -0.09848093 -0.22072873
0.059238553 -0.034513332 0.07897009 -0.074078314 0.19557926 0.1123088 0.18515547 -0.120989695
-0.26629168 0.065486684 -0.096532464 0.0040788795 -0.19574659 0.13893454 0.26194608 0.037096795
-0.048714764 -0.31445345 0.06895072 -0.094351396 0.03669412 -0.14883433 0.21324831 0.2854709
-0.07895592 -0.102717906 -0.013693796 -0.15053102 -0.010414521 0.054385092 0.014537945 0.08688593
0.050136343 -0.13741127 -0.034615647 0.088662565 -0.112864524 -0.04344036 0.12469444 -0.079086855
0.11097039 0.18087283 -0.20178844 -0.26101002 -0.18899205 -0.15248734 -0.061708294 -0.042347368
0.08320325 0.1952907 0.15605752 0.18053643 0.029681006 -0.20129453 -0.14128824 -0.0156797
0.1423066 -0.16770774 -0.02486499 0.17671321 0.21021049 0.0057920245 -0.22228478 -0.06339891
00000000: 3783 6f3d d742 55be 1a19 ce3d a89e 633e
00000010: c367 82be 7958 ca3d 5673 5d3c cc9c f5bd
00000020: b7e2 c93d 86f4 193e 6b42 5cbe 5026 d53d
00000030: 156d 013e d823 8abe 0cff 1c3e f363 033e
00000040: 53e4 76be 15fa b03d e5de d03c 82d0 50be
00000050: f18d 3b3e ef7f cd3d a458 85be ed94 d63d
00000060: 0864 a4bd e1a9 d7bc cba0 053e 41bd 72bd
00000070: 3472 5b3d 65ad fcbc dbdc ddbc 2ea0 50bd
00000080: 3ddd 623a a2c2 50bd 9f6f d03b 0934 84bd
00000090: 4220 4a3d e1cf 283e a94e 213e 27b9 16bc
000000a0: 60cc 153e d61f 2d3e 704d b43d 62ba d53d
000000b0: eeb6 c63d 3db7 6dbe f960 2dbe 0ef1 1f3e
000000c0: a881 55be 78c4 babe c9ee 5f3a 66d5 35be
000000d0: 866d afbe f6ae 86be 26e6 35be ab80 213d
000000e0: a07c de3d 67a0 b2bd ee32 913c fc8b d73d
000000f0: a95d 683e 183f 22bb 85ff 5dbe cd03 45be
00000100: 6984 9bbd fe14 6a3e cf33 5dbc abff f23a
00000110: b627 83bd 931f a43e 7738 313d 0e55 a3be
00000120: 9ff1 0dbe 1bda 5e3d bd2b 513e fafc 00be
00000130: 4a98 8a3c 04af 093e d622 493e e094 9cbd
00000140: ee34 59be 6ad8 9abc 0064 f43d eb15 d4bb
00000150: 4b76 31be aab8 90bd 5ce5 afbd f357 7ebe
00000160: 9342 88be 3437 56be 8cb1 943d e061 483d
00000170: 5d99 353e bc32 233d b3b2 83bd d7e2 0b3e
00000180: 5aa8 a3bd 1127 50bd d180 e3bd c7b8 9c3d
00000190: 8a62 c33d ef37 1d3e 6a7f cd3d 13f1 743d
000001a0: acc3 e43d 2cc3 3abd 9c39 3b3d f4a6 9d3d
000001b0: f02e 8b3d 0d42 18be df23 69bd 2a7b e43d
000001c0: 8e7c 8cbd c446 a0be 5326 643e 94aa 25bc
000001d0: b863 6ebe 8e9f 633e 43c3 0f3c cc1b c0bc
000001e0: 9592 713e 528c 2b3d d95f 5cbd baa6 513e
000001f0: 605b 513d a8e0 b0bd 6cf1 b43c 4063 bfbd
00000200: 7f35 8dbd b3be 213e 6ce3 fc3c 7ae2 65be
00000210: aba4 4e3d b9dd ffbc 3409 09bd 6fed f1bd
00000220: 5ca6 9b3c 62db 04be 3854 043d c72c 7d3d
00000230: b86d a3bb 76ef dabc 5533 a6bd cef9 aabc
00000240: dbf7 a83d c2c8 123e e70e a73d 2ac6 053e
00000250: f7ec 513e c069 2b3e 1486 e23d 84a2 1c3e
00000260: ea42 13bc d054 113e 50a2 263e b624 9f3d
00000270: b327 8e3e 340b b93e 981a 0f3e 9bac f13d
00000280: 30a1 093e ce1b bf3c 9fc6 ea3d dffe f83d
00000290: ffde ab3d 964e 893d 5a40 9b3d 98f6 78bd
000002a0: 825f 153e 3f22 01bb 915c 53bd 2edb 96bd
000002b0: cb0f 02be d458 05bd b801 17be 0611 82be
000002c0: fb98 13be 2701 4fbe 7c46 15be 86a4 65be
000002d0: 4736 6f3e 587b 343e 7558 9e3d ea52 bf3d
000002e0: 45e1 7e3d ac37 3e3d 7a64 983c 00d6 b4bd
000002f0: 89f4 22bd b72b 983d 5fb0 c9bd b606 62be
00000300: 20a4 723d da5d 0dbd 12bb a13d 5fb6 97bd
00000310: ee45 483e 2802 e63d 6599 3d3e 72c9 f7bd
00000320: 6257 88be e21d 863d d0b2 c5bd 1fa8 853b
00000330: cb71 48be db44 0e3e cc1d 863e cff2 173d
00000340: 2289 47bd 0b00 a1be 0936 8d3d 4e3b c1bd
00000350: 934c 163d 0768 18be c45d 5a3e 3e29 923e
00000360: a4b3 a1bd c45d d2bd f15b 60bc ce24 1abe
00000370: aba1 2abc e7c2 5e3d 9030 6e3c 40f1 b13d
00000380: c45b 4d3d 8ab5 0cbe 23c9 0dbd b894 b53d
00000390: 8425 e7bd 85ee 31bd cc5f ff3d 4af8 a1bd
000003a0: 7244 e33d ba36 393e a1a1 4ebe 1ba3 85be
000003b0: 2287 41be a425 1cbe d6c1 7cbd 6f74 2dbd
000003c0: 7766 aa3d 49fa 473e 8bcd 1f3e 8bde 383e
000003d0: 9525 f33c 2720 4ebe ddad 10be b772 80bc
000003e0: d2b8 113e 94bb 2bbe aab1 cbbc 4ff4 343e
000003f0: 6b41 573e 06cb bd3b 9f9e 63be 4ad7 81bd

net.layer1.0.bias f4 [64]
0.14229137 -0.13857801 -0.03859039 0.1450195 0.023062194 0.016204866 -0.15071952 0.12372679
0.17684576 -0.15087481 -0.13514027 0.195265 -0.16258058 0.061879784 -0.052068114 -0.15746513
-0.18843442 0.19199763 -0.014403095 -0.21537338 0.022832312 0.026730882 -0.06374791 -0.021733876
-0.004570652 -0.11035213 0.13378268 -0.085952245 -0.1143143 -0.067489326 -0.05524602 0.10508325
-0.057564687 0.04228476 0.14158458 -0.14100127 -0.07972847 -0.134852 -0.17223832 0.11665091
-0.121488914 -0.058874153 -0.17791912 0.035730526 -0.05551684 0.12431396 -0.045644 0.120541565
-0.1467255 0.16912179 0.04390897 0.12629128 -0.19503698 0.1090447 -0.14774823 -0.09301509
-0.19808432 -0.13114238 -0.18632342 -0.15881495 -0.15680331 0.00065044296 -0.1696053 -0.1202187
00000000: d4b4 113e 65e7 0dbe f510 1ebd fe7f 143e
00000010: edec bc3c 11c0 843c 3856 1abe 7964 fd3d
00000020: 0e17 353e ed7e 1abe 3662 0abe 8cf3 473e
00000030: 867b 26be a875 7d3d 6045 55bd 8a3e 21be
00000040: f4f4 40be 079b 443e f5fa 6bbc d78a 5cbe
00000050: d40a bb3c b9fa da3c 448e 82bd 3e0b b2bc
00000060: 68c5 95bb 4c00 e2bd 54fe 083e bb07 b0bd
00000070: 9e1d eabd d837 8abd a749 62bd e335 d73d
00000080: f3c8 6bbd c932 2d3d 8cfb 103e a362 10be
00000090: ae48 a3bd a516 0abe 3e5f 30be ace6 ee3d
000000a0: 2ecf f8bd 0626 71bd 6e30 36be 2c5a 123d
000000b0: a065 63bd 5198 fe3d 34f5 3abd 7fde f63d
000000c0: 363f 16be 432e 2d3e e4d9 333d 8052 013e
000000d0: c6b7 47be d452 df3d 504b 17be b27e bebd
000000e0: 9ed6 4abe 304a 06be 91cb 3ebe 63a0 22be
000000f0: 0c91 20be 7d82 2a3a 03ad 2dbe 3935 f6bd

net.layer1.1.weight f4 [64]
1.4688208 0.8990414 1.0777775 0.5855098 0.99721104 0.7477038 0.9342113 1.2109686
0.7047952 1.1127645 0.7704995 1.2955518 0.8674119 1.0142735 1.3380419 1.4292517
1.1994035 0.7937918 0.89447325 1.2335784 0.7485811 0.5930492 0.9353737 0.85621214
0.8809653 0.669286 0.7282899 0.7578189 0.8993113 1.3820474 0.8437991 0.8543967
0.8454914 1.4051031 0.5994631 0.7431379 1.3685728 0.7842969 0.9726794 0.80286616
0.6358813 1.065295 0.72312075 0.5891591 0.96272045 0.87823355 1.1695579 0.9314231
0.6779101 0.8092578 0.5713268 0.51055944 1.4024713 0.86164606 1.3340269 0.90971494
0.9412077 0.9166465 0.8684523 1.0759655 0.6785195 1.1648138 1.0374517 0.7537756
00000000: 5202 bc3f 9427 663f 9df4 893f f8e3 153f
00000010: 3949 7f3f 8469 3f3f 7928 6f3f 0501 9b3f
00000020: 756d 343f 116f 8e3f 753f 453f a4d4 a53f
00000030: b50e 5e3f b7d3 813f f544 ab3f b8f1 b63f
00000040: 0e86 993f f035 4b3f 33fc 643f e6e5 9d3f
00000050: 03a3 3f3f 13d2 173f a774 6f3f b830 5b3f
00000060: f186 613f 5456 2b3f 3571 3a3f 6b00 423f
00000070: 4439 663f eee6 b03f 3803 583f beb9 5a3f
00000080: 2072 583f 6bda b33f 6a76 193f 493e 3e3f
00000090: 652d af3f aec7 483f 8401 793f a388 4d3f
000000a0: 1ec9 223f 965b 883f 711e 393f 21d3 163f
000000b0: d974 763f ead3 603f 13b4 953f bf71 6e3f
000000c0: 848b 2d3f 852b 4f3f 7942 123f 06b4 023f
000000d0: 2e84 b33f d694 5c3f 65c1 aa3f 14e3 683f
000000e0: fdf2 703f 58a9 6a3f e452 5e3f 3db9 893f
000000f0: 74b3 2d3f 9e18 953f 38cb 843f 70f7 403f

net.layer1.1.bias f4 [64]
0.07900582 -0.1481889 0.23842146 0.0909846 0.7801266 -0.25204933 -0.17291139 0.34131688
-0.35396615 0.34305704 -0.5454534 0.44403157 0.12862323 0.0212867 -0.055531647 0.9422028
0.25520357 -0.21252356 -0.07298301 0.20325613 -0.4536907 -0.076667085 0.6702077 -0.045774464
-0.052188594 -0.62373847 0.12310134 -0.2980788 -0.28527167 1.1154232 0.35335562 -0.29710525
-0.0037078385 0.4125575 -0.12913325 -0.4969129 -0.05194398 -0.4479138 -0.40895873 -0.37787452
-0.35608807 0.73902035 -0.50560963 -0.5947485 0.38073486 1.2031289 0.0052011944 0.29491144
0.09114947 -0.08992193 -0.456653 -0.2962426 0.741413 -0.08140438 0.15781346 -0.30395898
0.31215048 0.15383995 0.22788663 1.1324778 -0.13239497 -0.17758201 -0.13176863 0.31925446
00000000: cecd a13d d5be 17be c124 743e 2256 ba3d
00000010: 60b6 473f 9c0c 81be af0f 31be 16c1 ae3e
00000020: 0d3b b5be 2ca5 af3e d6a2 0bbf 1b58 e33e
00000030: cfb5 033e 7261 ae3c 2775 63bd 3434 713f
00000040: 0baa 823e c79f 59be 1e78 95bd 6022 503e
00000050: 264a e8be a203 9dbd bb92 2b3f 017e 3bbd
00000060: b5c3 55bd 53ad 1fbf 8e1c fc3d c99d 98be
00000070: 210f 92be 30c6 8e3f 07eb b43e 2e1e 98be
00000080: 35ff 72bb bd3a d33e 823b 04be 5e6b febe
00000090: 36c3 54bd f554 e5be 0a63 d1be c578 c1be
000000a0: 2d51 b6be 7030 3d3f a26f 01bf 7041 18bf
000000b0: aeef c23e 2100 9a3f c86e aa3b a2fe 963e
000000c0: 93ac ba3d fd28 b8bd 6cce e9be 1cad 97be
000000d0: 3ecd 3d3f 57b7 a6bd da99 213e 83a0 9bbe
000000e0: 30d2 9f3e 3888 1d3e 1d5b 693e 08f5 903f
000000f0: 8c92 07be 0fd8 35be 5bee 06be 5275 a33e

net.layer1.1.running_mean f4 [64]
0.0 0.0 0.0 0.0 0.0 0.0 0.0 0.0
0.0 0.0 0.0 0.0 0.0 0.0 0.0 0.0
0.0 0.0 0.0 0.0 0.0 0.0 0.0 0.0
0.0 0.0 0.0 0.0 0.0 0.0 0.0 0.0
0.0 0.0 0.0 0.0 0.0 0.0 0.0 0.0
0.0 0.0 0.0 0.0 0.0 0.0 0.0 0.0
0.0 0.0 0.0 0.0 0.0 0.0 0.0 0.0
0.0 0.0 0.0 0.0 0.0 0.0 0.0 0.0
00000000: 0000 0000 0000 0000 0000 0000 0000 0000
00000010: 0000 0000 0000 0000 0000 0000 0000 0000
00000020: 0000 0000 0000 0000 0000 0000 0000 0000
00000030: 0000 0000 0000 0000 0000 0000 0000 0000
00000040: 0000 0000 0000 0000 0000 0000 0000 0000
00000050: 0000 0000 0000 0000 0000 0000 0000 0000
00000060: 0000 0000 0000 0000 0000 0000 0000 0000
00000070: 0000 0000 0000 0000 0000 0000 0000 0000
00000080: 0000 0000 0000 0000 0000 0000 0000 0000
00000090: 0000 0000 0000 0000 0000 0000 0000 0000
000000a0: 0000 0000 0000 0000 0000 0000 0000 0000
000000b0: 0000 0000 0000 0000 0000 0000 0000 0000
000000c0: 0000 0000 0000 0000 0000 0000 0000 0000
000000d0: 0000 0000 0000 0000 0000 0000 0000 0000
000000e0: 0000 0000 0000 0000 0000 0000 0000 0000
000000f0: 0000 0000 0000 0000 0000 0000 0000 0000

net.layer1.1.running_var f4 [64]
1.0 1.0 1.0 1.0 1.0 1.0 1.0 1.0
1.0 1.0 1.0 1.0 1.0 1.0 1.0 1.0
1.0 1.0 1.0 1.0 1.0 1.0 1.0 1.0
1.0 1.0 1.0 1.0 1.0 1.0 1.0 1.0
1.0 1.0 1.0 1.0 1.0 1.0 1.0 1.0
1.0 1.0 1.0 1.0 1.0 1.0 1.0 1.0
1.0 1.0 1.0 1.0 1.0 1.0 1.0 1.0
1.0 1.0 1.0 1.0 1.0 1.0 1.0 1.0
00000000: 0000 803f 0000 803f 0000 803f 0000 803f
00000010: 0000 803f 0000 803f 0000 803f 0000 803f
00000020: 0000 803f 0000 803f 0000 803f 0000 803f
00000030: 0000 803f 0000 803f 0000 803f 0000 803f
00000040: 0000 803f 0000 803f 0000 803f 0000 803f
00000050: 0000 803f 0000 803f 0000 803f 0000 803f
00000060: 0000 803f 0000 803f 0000 803f 0000 803f
00000070: 0000 803f 0000 803f 0000 803f 0000 803f
00000080: 0000 803f 0000 803f 0000 803f 0000 803f
00000090: 0000 803f 0000 803f 0000 803f 0000 803f
000000a0: 0000 803f 0000 803f 0000 803f 0000 803f
000000b0: 0000 803f 0000 803f 0000 803f 0000 803f
000000c0: 0000 803f 0000 803f 0000 803f 0000 803f
000000d0: 0000 803f 0000 803f 0000 803f 0000 803f
000000e0: 0000 803f 0000 803f 0000 803f 0000 803f
000000f0: 0000 803f 0000 803f 0000 803f 0000 803f

net.layer2.0.weight f4 [64, 64, 3, 3]
-0.14068091 -0.038397048 0.026548022 -0.0873903 -0.13449189 0.046758994 0.110906616 -0.026421025
-0.062190752 -0.047092758 -0.088159986 -0.038313735 -0.0074919458 -0.011404828 -0.00095149153 0.067858115
0.13254209 -0.040831815 -0.045713928 0.2167394 0.010428259 0.15163504 -0.4928774 0.21016078
-0.13967869 0.33420557 -0.18642277 0.086822204 -0.052185003 0.05938414 0.015855461 -0.05745858
-0.057216812 0.04226623 0.042146243 0.04657768 -0.17928618 0.24805483 -0.23045439 -0.13626786
-0.053296447 0.08513842 0.102927335 -0.322077 0.1717242 0.053263582 -0.0075212326 0.019095745
-0.057154015 0.0142442705 0.027691007 -0.11528511 -0.1115263 -0.028774126 -0.09490194 0.023786105
-0.026443774 -0.022866307 -0.10183377 -0.07303051 0.03181241 -0.08822001 0.036836576 0.20683159
-0.032379787 0.16698495 -0.5681754 0.13925089 -0.1982582 0.1446514 -0.15989129 0.25840992
0.02320599 -0.042471454 0.048824053 -0.049303163 -0.045286573 -0.07659008 0.11050209 -0.038183868
-0.1194902 0.2623264 -0.42857116 0.2571043 -0.29354668 0.24157985 -0.35803896 0.10484266
0.09506202 0.14651737 0.04035678 -0.15338114 0.034159068 -0.094073184 -0.08107444 -0.109914556
-0.025790887 -0.0022001653 -0.0754855 -0.10469897 0.21438634 -0.41857442 0.0146922525 -0.13261427
0.1259303 0.064852946 -0.32810238 0.13979395 -0.123886906 0.0037792888 -0.13560428 -0.08893979
-0.10732714 -0.072046176 -0.014687334 -0.06713656 -0.017729675 0.014195897 -0.06820348 -0.031972118
-0.061567947 0.02739004 -0.11530885 -0.02183321 0.06439859 -0.14473702 0.14592311 0.049632274
0.1718143 0.17487742 -0.20923987 0.06119441 -0.03991134 0.14135504 -0.018784434 0.051865317
-0.024956156 -0.074716486 -0.049068417 0.008196324 -0.09337154 -0.12436013 -0.10417027 0.026817769
-0.12698193 0.21426922 -0.3283767 -0.015853345 -0.056541942 0.05817102 0.14177226 -0.32187256
0.15188536 -0.12007318 0.014785919 0.05919132 -0.0019597607 -0.003996765 0.05918111 0.01962508
0.09470279 0.026269473 0.007682013 -0.041439533 -0.03964399 0.07256084 0.051069513 -0.064367056
0.112289555 -0.0065220175 0.022154026 0.08039779 -0.016567701 0.038154103 -0.11141084 -0.19440332
0.021767836 -0.056826726 -0.0069703977 -0.074616 0.0059883334 -0.09884523 0.032313947 0.054392748
-0.079035066 -0.029492123 -0.0010018487 0.026445944 -0.066600494 -0.042677812 -0.06168983 0.003237855
0.019405369 0.002015157 0.06559214 0.06695761 0.11006648 0.07153726 -0.02930074 -0.04161558
-0.04467552 -0.0477764 -0.11195588 -0.037936628 0.06115619 -0.07690584 0.08151251 -0.054283936
0.0022251136 -0.09802045 -0.034346554 -0.16972367 -0.02798999 0.12688887 -0.16356422 -0.010112001
0.1112145 -0.07871412 0.14130694 -0.036234934 0.057841223 -0.039116587 -0.06904603 -0.028241824
-0.050470762 0.05277775 0.0042701336 0.057496294 0.0802674 -0.0003175568 0.063023604 -0.070215754
0.048546247 0.040356234 0.026677689 0.02580511 0.057368245 -0.25683576 0.06315976 -0.10036906
0.10181662 -0.054303557 0.060146205 -0.013006694 0.05314097 -0.16306458 -0.027742567 0.017394586
-0.034097183 0.065400876 -0.018572895 0.038034014 -0.03342166 0.004503373 0.00077236677 -0.06195392
00000000: a80e 10be 3946 1dbd 3d7b d93c b0f9 b2bd
00000010: 3eb8 09be 5c86 3f3d 0223 e33d e870 d8bc
00000020: bbbb 7ebd 56e4 40bd 398d b4bd ddee 1cbd
00000030: ff7e f5bb 51db 3abc 846d 79ba 32f9 8a3d
00000040: 1db9 073e 433f 27bd 873e 3bbd eff0 5d3e
00000050: 4adb 2a3c 3746 1b3e 6d5a fcbe 6334 573e
00000060: ee07 0fbe fe1c ab3e 9ce5 3ebe d7cf b13d
00000070: f1bf 55bd c93c 733d 50e3 813c b059 6bbd
00000080: 2d5c 6abd 5b1f 2d3d 8aa1 2c3d 3dc8 3e3d
00000090: cc96 37be 1602 7e3e 3cfc 6bbe cd89 0bbe
000000a0: 604d 5abd 0d5d ae3d 91cb d23d 47e7 a4be
000000b0: 78d8 2f3e ea2a 5a3d ac74 f6bb ae6e 9c3c
000000c0: 541a 6abd cd60 693c 40d8 e23c 9a1a ecbd
000000d0: e767 e4bd b7b7 ebbc f35b c2bd 14db c23c
000000e0: 9da0 d8bc 1f52 bbbc 398e d0bd 0591 95bd
000000f0: bb4d 023d b1ac b4bd f3e1 163d a9cb 533e
00000100: aba0 04bd 1afe 2a3e f173 11bf c997 0e3e
00000110: 3304 4bbe 7f1f 143e 8bba 23be 4e4e 843e
00000120: 7d1a be3c 8cf6 2dbd bbfb 473d 1df2 49bd
00000130: 6a7e 39bd 43db 9cbd eb4e e23d b066 1cbd
00000140: 47b7 f4bd a54f 863e ae6d dbbe 2da3 833e
00000150: c04b 96be b560 773e e250 b7be c0b7 d63d
00000160: e0af c23d a608 163e 274d 253d f20f 1dbe
00000170: 61ea 0b3d 71a9 c0bd 5b0a a6bd e21a e1bd
00000180: 6947 d3bc a630 10bb 2498 9abd 6a6c d6bd
00000190: 1888 5b3e 634f d6be c6b7 703c 09cc 07be
000001a0: dff3 003e 9fd1 843d 09fd a7be 2526 0f3e
000001b0: 6bb8 fdbd f2ad 773b d9db 0abe 1126 b6bd
000001c0: 55ce dbbd f28c 93bd 25a3 70bc e57e 89bd
000001d0: d33d 91bc e895 683c 44ae 8bbd 32f5 02bd
000001e0: ac2e 7cbd 1461 e03c 0c27 ecbd 8fdb b2bc
000001f0: 68e3 833d f135 14be de6c 153e 364b 4b3d
00000200: 16f0 2f3e 1113 333e fa42 56be fda6 7a3d
00000210: 137a 23bd 60bf 103e d0e1 99bc ba70 543d
00000220: da70 ccbc f504 99bd f7fb 48bd e049 063c
00000230: 9439 bfbd 86b0 febd 3957 d5bd f0b0 db3c
00000240: 8d07 02be 6469 5b3e fe20 a8be e0de 81bc
00000250: 8698 67bd bc44 6e3d bf2c 113e 7bcc a4be
00000260: d687 1b3e ede8 f5bd a440 723c 9972 723d
00000270: 546f 00bb 4bf7 82bb e467 723d c7c4 a03c
00000280: 89f3 c13d 1433 d73c 65b9 fb3b 80bc 29bd
00000290: bd61 22bd c79a 943d 442e 513d e0d2 83bd
000002a0: 11f8 e53d a6b6 d5bb 5c7c b53c 99a7 a43d
000002b0: fdb8 87bc 7a47 1c3d 5e2b e4bd aa11 47be
000002c0: 7652 b23c 24c3 68bd ef67 e4bb 46d0 98bd
000002d0: c839 c43b 5e6f cabd a15b 043d eeca 5e3d
000002e0: 23dd a1bd 7799 f1bc 7750 83ba 2aa5 d83c
000002f0: d765 88bd eece 2ebd 7aae 7cbd 3132 543b
00000300: 02f8 9e3c b910 043b 2c55 863d 1221 893d
00000310: 896a e13d 2182 923d 1b08 f0bc 1975 2abd
00000320: aefd 36bd 30b1 43bd 2049 e5bd 7063 1bbd
00000330: ea7e 7a3d cf80 9dbd 08f0 a63d d558 5ebd
00000340: 36d3 113b f2be c8bd f9ae 0cbd 0bcc 2dbe
00000350: 434b e5bc 28ef 013e 617d 27be ceac 25bc
00000360: 6ec4 e33d de34 a1bd c4b2 103e 156b 14bd
00000370: ebea 6c3d b738 20bd 0168 8dbd 665b e7bc
00000380: 6eba 4ebd 7b2d 583d 7aec 8b3b 3c81 6b3d
00000390: 3c63 a43d c17d a6b9 8512 813d 47cd 8fbd
000003a0: 6ed8 463d 944c 253d 2b8b da3c 3d65 d33c
000003b0: f7fa 6a3d fa7f 83be e759 813d 4b8e cdbd
000003c0: 3b85 d03d 686d 5ebd de5b 763d 071a 55bc
000003d0: 59aa 593d 67fa 26be 6144 e3bc 177f 8e3c
000003e0: 7da9 0bbd e5f0 853d 2f26 98bc 8ec9 1b3d
000003f0: 27e5 08bd 0891 933b a878 4a3a 65c3 7dbd

net.layer2.0.bias f4 [64]
0.0017335586 -0.03029732 0.038945813 0.019706156 -0.009825694 -0.02319442 0.008526779 -0.002001623
-0.015329385 -0.027341109 -0.009215971 -0.0048830993 -0.020456105 0.015192065 -0.03237504 0.026315661
0.014933698 0.03740889 0.0050928835 0.035718348 -0.009604925 0.028977636 0.023746891 -0.0031761213
-0.0028642854 0.0048720567 -0.024005001 -0.011897738 0.02456175 -0.03773965 0.03619643 -0.028776769
0.023076948 -0.013922852 -0.025004854 0.03326918 -0.023822267 0.01783875 -0.029909719 -0.002172277
-0.036993068 0.017570011 -0.030493138 -0.031752728 -0.0009143818 0.013773077 -0.029115217 0.027430369
-0.0027880499 -0.003331895 -0.0032640533 -0.009532334 -0.006703286 -3.501477e-05 -0.01825149 0.030717915
-0.014251169 0.03797457 0.038964644 -0.02034813 -0.04206291 -0.002371441 0.026518302 0.03607502
00000000: 9338 e33a 1632 f8bc a585 1f3d ce6e a13c
00000010: f3fb 20bc 3902 bebc e7b3 0b3c a92d 03bb
00000020: 1a28 7bbc 76fa dfbc 96fe 16bc 6802 a0bb
00000030: 9093 a7bc 24e8 783c b19b 04bd f193 d73c
00000040: 78ac 743c 103a 193d 34e2 a63b 674d 123d
00000050: fa5d 1dbc 8262 ed3c d788 c23c 7926 50bb
00000060: bcb6 3bbb c6a5 9f3b 23a6 c4bc bbee 42bc
00000070: b935 c93c e494 1abd b542 143d 42bd ebbc
00000080: de0b bd3c ad1c 64bc fbd6 ccbc 4445 083d
00000090: ea26 c3bc 9222 923c 3a05 f5bc c35c 0ebb
000000a0: 0b86 17bd fcee 8f3c bfcc f9bc 260f 02bd
000000b0: 20b3 6fba 79a8 613c 0983 eebc a7b5 e03c
000000c0: b7b7 36bb ec5b 5abb bae9 55bb 822d 1cbc
000000d0: 3da7 dbbb d3dc 12b8 2684 95bc 23a4 fb3c
000000e0: bc7d 69bc 398b 1b3d 6499 1f3d 1fb1 a6bc
000000f0: 284a 2cbd 2e6a 1bbb e93c d93c 66c3 133d

net.layer2.1.weight f4 [64]
1.0980178 0.9089403 0.87584865 1.2618062 0.94375116 0.99419725 0.9653597 1.1492777
0.82414013 0.9676679 1.0432298 1.2944418 0.8297902 1.133878 0.93345785 0.87905073
0.9194969 1.0302156 0.7094637 1.2786691 1.1814038 0.860681 0.952052 0.8614639
0.6945978 0.9260466 0.77412724 1.1270611 0.9629931 0.7638676 1.153558 0.876799
1.1355569 0.93640643 1.0215309 0.9992987 0.878845 0.7811735 0.83160084 0.876222
0.9743436 0.90678334 0.9232366 0.8140904 1.1389165 1.3085027 0.8376573 1.032868
0.9303769 1.1383681 0.85758567 1.1465795 1.0214953 1.1013656 0.93364376 1.0452534
0.8282606 1.1813698 0.99651235 1.0552603 0.83344793 1.0151484 0.9276759 0.95034873
00000000: d98b 8c3f 50b0 683f 9e37 603f de82 a13f
00000010: ad99 713f b683 7e3f d021 773f 881b 933f
00000020: d9fa 523f 15b9 773f 8e88 853f 45b0 a53f
00000030: 216d 543f ea22 913f 18f7 6e3f 7809 613f
00000040: 2664 6b3f 1bde 833f 6a9f 353f 6eab a33f
00000050: 3d38 973f 9755 5c3f aeb9 733f e688 5c3f
00000060: 29d1 313f 6411 6d3f 342d 463f 8a43 903f
00000070: b786 763f d48c 433f caa7 933f e675 603f
00000080: ee59 913f 55b8 6f3f 86c1 823f 0ad2 7f3f
00000090: fcfb 603f fdfa 473f cbe3 543f 1650 603f
000000a0: 956e 793f f422 683f 3c59 6c3f 3a68 503f
000000b0: 04c8 913f 047d a73f b570 563f 0535 843f
000000c0: 2e2d 6e3f 0cb6 913f bc8a 5b3f 1ec3 923f
000000d0: 5cc0 823f 8cf9 8c3f 4703 6f3f ddca 853f
000000e0: e308 543f 2037 973f 6f1b 7f3f c512 873f
000000f0: d85c 553f 62f0 813f 2b7c 6d3f 0e4a 733f

net.layer2.1.bias f4 [64]
-0.19186515 -0.23097968 -0.36323282 -0.049958155 -0.22545867 -0.27936602 -0.3227147 -0.21948932
-0.38818058 -0.40172508 -0.38711116 0.06468961 -0.19992419 -0.2764124 -0.5323519 -0.3544709
-0.22527538 -0.29585716 0.15406388 -0.45117012 -0.3792957 -0.1995317 -0.4607223 -0.33383736
-0.43877184 -0.030560523 -0.19072789 -0.41042012 -0.4188237 -0.39252144 -0.24659814 -0.08619802
-0.4925368 -0.19840568 -0.38424873 -0.2592858 -0.44100425 -0.4082646 -0.06470344 -0.3710454
-0.22214547 -0.17598344 -0.35109082 -0.39042324 -0.5618075 -0.44749248 -0.51986563 -0.22999954
-0.33388233 -0.3325934 -0.34491727 -0.26813906 -0.18563908 -0.1484298 -0.29259145 -0.30784702
-0.32602474 -0.35399973 -0.32867068 -0.30684537 0.19102708 -0.27244407 -0.18128678 -0.2775328
00000000: 4c78 44be f085 6cbe a7f9 b9be eca0 4cbd
00000010: a3de 66be 1009 8fbe dc3a a5be cfc1 60be
00000020: 9bbf c6be e9ae cdbe 6f33 c6be fc7b 843d
00000030: edb8 4cbe ed85 8dbe 3748 08bf 367d b5be
00000040: 97ae 66be 977a 97be ecc2 1d3e c5ff e6be
00000050: 0c33 c2be 0a52 4cbe cbe3 ebbe bbec aabe
00000060: b4a6 e0be 105a fabc 2c4e 43be 9622 d2be
00000070: 0f70 d6be 92f8 c8be 3984 7cbe 9688 b0bd
00000080: c92d fcbe dc2a 4bbe 40bc c4be 1cc1 84be
00000090: 4fcb e1be 0f08 d1be 3d83 84bd aaf9 bdbe
000000a0: 1a7a 63be 0135 34be 2dc2 b3be 8ee5 c7be
000000b0: 9ed2 0fbf bc1d e5be ea15 05bf 0085 6bbe
000000c0: a0f2 aabe af49 aabe ff98 b0be 8649 89be
000000d0: 2c18 3ebe fbfd 17be 8cce 95be 209e 9dbe
000000e0: b7ec a6be 743f b5be 8647 a8be d61a 9dbe
000000f0: 9a9c 433e ca7d 8bbe 3ea3 39be c718 8ebe

net.layer2.1.running_mean f4 [64]
0.0 0.0 0.0 0.0 0.0 0.0 0.0 0.0
0.0 0.0 0.0 0.0 0.0 0.0 0.0 0.0
0.0 0.0 0.0 0.0 0.0 0.0 0.0 0.0
0.0 0.0 0.0 0.0 0.0 0.0 0.0 0.0
0.0 0.0 0.0 0.0 0.0 0.0 0.0 0.0
0.0 0.0 0.0 0.0 0.0 0.0 0.0 0.0
0.0 0.0 0.0 0.0 0.0 0.0 0.0 0.0
0.0 0.0 0.0 0.0 0.0 0.0 0.0 0.0
00000000: 0000 0000 0000 0000 0000 0000 0000 0000
00000010: 0000 0000 0000 0000 0000 0000 0000 0000
00000020: 0000 0000 0000 0000 0000 0000 0000 0000
00000030: 0000 0000 0000 0000 0000 0000 0000 0000
00000040: 0000 0000 0000 0000 0000 0000 0000 0000
00000050: 0000 0000 0000 0000 0000 0000 0000 0000
00000060: 0000 0000 0000 0000 0000 0000 0000 0000
00000070: 0000 0000 0000 0000 0000 0000 0000 0000
00000080: 0000 0000 0000 0000 0000 0000 0000 0000
00000090: 0000 0000 0000 0000 0000 0000 0000 0000
000000a0: 0000 0000 0000 0000 0000 0000 0000 0000
000000b0: 0000 0000 0000 0000 0000 0000 0000 0000
000000c0: 0000 0000 0000 0000 0000 0000 0000 0000
000000d0: 0000 0000 0000 0000 0000 0000 0000 0000
000000e0: 0000 0000 0000 0000 0000 0000 0000 0000
000000f0: 0000 0000 0000 0000 0000 0000 0000 0000

net.layer2.1.running_var f4 [64]
1.0 1.0 1.0 1.0 1.0 1.0 1.0 1.0
1.0 1.0 1.0 1.0 1.0 1.0 1.0 1.0
1.0 1.0 1.0 1.0 1.0 1.0 1.0 1.0
1.0 1.0 1.0 1.0 1.0 1.0 1.0 1.0
1.0 1.0 1.0 1.0 1.0 1.0 1.0 1.0
1.0 1.0 1.0 1.0 1.0 1.0 1.0 1.0
1.0 1.0 1.0 1.0 1.0 1.0 1.0 1.0
1.0 1.0 1.0 1.0 1.0 1.0 1.0 1.0
00000000: 0000 803f 0000 803f 0000 803f 0000 803f
00000010: 0000 803f 0000 803f 0000 803f 0000 803f
00000020: 0000 803f 0000 803f 0000 803f 0000 803f
00000030: 0000 803f 0000 803f 0000 803f 0000 803f
00000040: 0000 803f 0000 803f 0000 803f 0000 803f
00000050: 0000 803f 0000 803f 0000 803f 0000 803f
00000060: 0000 803f 0000 803f 0000 803f 0000 803f
00000070: 0000 803f 0000 803f 0000 803f 0000 803f
00000080: 0000 803f 0000 803f 0000 803f 0000 803f
00000090: 0000 803f 0000 803f 0000 803f 0000 803f
000000a0: 0000 803f 0000 803f 0000 803f 0000 803f
000000b0: 0000 803f 0000 803f 0000 803f 0000 803f
000000c0: 0000 803f 0000 803f 0000 803f 0000 803f
000000d0: 0000 803f 0000 803f 0000 803f 0000 803f
000000e0: 0000 803f 0000 803f 0000 803f 0000 803f
000000f0: 0000 803f 0000 803f 0000 803f 0000 803f

net.layer3.0.weight f4 [64, 64, 3, 3]
0.031157222 0.19718252 -0.05884746 -0.08674028 -0.16041669 -0.10668411 -0.035073142 0.035047773
-0.010463478 -0.0022486944 -0.054359946 -0.1054433 0.04046425 -0.07477885 -0.07874991 0.15389197
-0.05847708 -0.029513475 -0.08936859 0.080209546 -0.001469589 -0.0031916741 0.13915882 -0.030116798
0.009506151 0.053222626 0.060350843 -0.087093845 -0.14034083 -0.09870976 0.13107097 -0.11117902
-0.118089244 0.07779331 -0.086996384 -0.09051388 -0.072017446 -0.0034249795 -0.013269753 -0.025426833
-0.0060826614 -0.056414273 -0.09850021 -0.06313337 -0.104568824 0.03143961 -0.17374775 0.055190947
0.11935814 0.051334463 0.16471298 0.18882906 0.10364811 0.12309461 0.061348565 -0.029438812
-0.052232355 0.103560835 0.1910832 -0.004352144 -0.11643285 -0.137259 -0.20142792 -0.113892905
-0.1337283 -7.843525e-07 -0.08843676 -0.12315557 -0.009286085 -0.098536424 -0.1690384 -0.1463581
0.12524593 -0.18503553 -0.06913931 0.036892638 -0.1317641 -0.09826614 0.051997114 -0.05720028
-0.08110217 -0.06431094 -0.05572437 -0.18859899 -0.0073946407 -0.02522794 -0.060657166 -0.038979504
-0.009785352 -0.06149573 -0.05133719 0.023259886 -0.10462719 -0.10866495 -0.13775775 -0.02080155
-0.23444352 -0.110520706 -0.067616954 0.0808342 -0.07748487 -0.11164448 0.06159902 -0.13612528
-0.05732611 0.009666356 -0.12215665 -0.13687557 -0.04963383 -0.18576714 -0.10143113 0.019125134
-0.017029338 -0.0070261876 -0.023085812 0.09189223 0.12242353 0.04152555 0.21482229 0.15842962
-0.11658918 -0.09183599 -0.09531438 -0.048900414 -0.13652124 -0.23083945 0.10356561 -0.24323724
-0.3082864 0.089573406 -0.12609437 -0.10252762 0.075633846 0.05818031 0.10012291 0.14609702
0.12904432 -0.03848493 0.09833579 -0.041657917 -0.041840974 -0.21863943 -0.18233489 -0.114234686
0.0058045713 0.035311423 0.03510919 -0.012252565 0.008089726 -0.047538064 -0.060015142 -0.041075874
-0.054664537 0.05883051 0.12498688 0.0521774 0.14612536 0.15824458 0.20069644 0.12411819
0.10893008 -0.06214052 0.009480162 -0.003012921 -0.05571995 -0.12867036 -0.04155958 -0.03223264
-0.03697768 -0.011007795 0.0070074103 0.1436246 -0.042116627 -0.077541664 -0.047232967 -0.1585569
-0.038761098 -0.24128655 -0.00270162 0.14638074 0.35196128 0.094873115 -0.074901976 0.14998646
-0.008741066 0.05780335 0.09262645 0.09361292 0.0042522578 -0.018243697 -0.10467233 -0.25358382
-0.12300384 -0.00034486759 -0.069034554 -0.05405468 0.050888903 -0.030664021 -0.02986642 0.021850908
-0.15923181 0.100900926 0.18854535 -0.041114617 -0.023362245 0.032144733 0.0038497478 0.13096398
0.25409552 0.21560141 -0.03698555 0.06548209 0.040041715 -0.18769781 0.06068352 -0.011584594
-0.056715142 0.05076238 0.13802046 0.0377733 -0.008787404 0.00940642 -0.029749982 -0.105342574
-0.07775652 0.07167056 -0.13020274 -0.22344552 0.109729476 -0.14010802 -0.200557 0.1336583
-0.014812284 -0.03740682 -0.11030619 -0.11614976 0.09827504 -0.17721786 -0.05421184 -0.12513235
-0.031696256 0.038988717 -0.058788553 0.07781459 0.03598818 0.18736011 0.13592485 0.14879891
0.17545776 -0.03376003 0.10666214 0.036409017 0.108359285 0.037502594 0.028652776 -0.06654937
00000000: 6e3d ff3c 37ea 493e 090a 71bd e3a4 b1bd
00000010: 4644 24be 337d dabd dba8 0fbd 418e 0f3d
00000020: 026f 2bbc d55e 13bb 89a8 5ebd a8f2 d7bd
00000030: d7bd 253d a725 99bd a247 a1bd db95 1d3e
00000040: aa85 6fbd 3ec6 f1bc e106 b7bd e744 a43d
00000050: 399f c0ba 682b 51bb a67f 0e3e 81b7 f6bc
00000060: b0bf 1b3c f8ff 593d 7232 773d 425e b2bd
00000070: 82b5 0fbe 5828 cabd 7837 063e d3b1 e3bd
00000080: c6d8 f1bd 1952 9f3d 292b b2bd 575f b9bd
00000090: e27d 93bd 9f75 60bb 6169 59bc ef4b d0bc
000000a0: 1051 c7bb a712 67bd 7aba c9bd 114c 81bd
000000b0: 2e28 d6bd d2c6 003d eeea 31be e70f 623d
000000c0: 0a72 f43d 1644 523d 85aa 283e 685c 413e
000000d0: 7645 d43d 0719 fc3d a248 7b3d aa29 f1bc
000000e0: 98f1 55bd b417 d43d 50ab 433e 6e9c 8ebb
000000f0: 5974 eebd a08d 0cbe 1f43 4ebe af40 e9bd
00000100: 12f0 08be 4b8c 52b5 551e b5bd fd38 fcbd
00000110: aa24 18bc 77cd c9bd 6718 2dbe e6de 15be
00000120: 7840 003e f479 3dbe e998 8dbd bc1c 173d
00000130: 2bed 06be c23f c9bd edfa 543d d74a 6abd
00000140: e518 a6bd 74b5 83bd 3d3f 64bd 1820 41be
00000150: be4e f2bb d3aa cebc a673 78bd f9a8 1fbd
00000160: be52 20bc f2e2 7bbd f246 52bd 848b be3c
00000170: c846 d6bd bb8b debd 5e10 0dbe 0368 aabc
00000180: f611 70be ae58 e2bd c27a 8abd 678c a53d
00000190: 63b0 9ebd dca5 e4bd 414f 7c3d 6d64 0bbe
000001a0: c8ce 6abd a35f 1e3c 442d fabd 1c29 0cbe
000001b0: d84c 4bbd be39 3ebe 20bb cfbd 50ac 9c3c
000001c0: 1c81 8bbc ef3b e6bb 751e bdbc fe31 bc3d
000001d0: 30b9 fa3d b216 2a3d 60fa 5b3e 603b 223e
000001e0: 4fc6 eebd 8214 bcbd 3034 c3bd cd4b 48bd
000001f0: 39cc 0bbe 2d61 6cbe 351a d43d 2f13 79be
00000200: b7d7 9dbe 4372 b73d e21e 01be 00fa d1bd
00000210: ebe5 9a3d 7a4e 6e3d 3e0d cd3d 759a 153e
00000220: 3224 043e 60a2 1dbd 4664 c93d 7ea1 2abd
00000230: 7161 2bbd 04e3 5fbe ffb5 3abe e0f3 e9bd
00000240: 4634 be3b b6a2 103d a7ce 0f3d fbbe 48bc
00000250: c58a 043c 46b7 42bd 70d2 75bd 2d3f 28bd
00000260: ece7 5fbd 43f8 703d 1ff9 ff3d f8b7 553d
00000270: e3a1 153e de0a 223e 5e83 4d3e ad31 fe3d
00000280: bc16 df3d 0f87 7ebd ae52 1b3c 6d74 45bb
00000290: 9a3a 64bd 2ac2 03be 613a 2abd 5f06 04bd
000002a0: e875 17bd 0a5a 34bc 6b9e e53b 5412 133e
000002b0: 7c82 2cbd 2ace 9ebd 5b77 41bd bd5c 22be
000002c0: f5c3 1ebd d213 77be aa0d 31bb d5e4 153e
000002d0: 4534 b43e d64c c23d 3566 99bd 0d96 193e
000002e0: b036 0fbc 35c3 6c3d f0b2 bd3d 21b8 bf3d
000002f0: 8656 8b3b ce73 95bc 725e d6bd bdd5 81be
00000300: 70e9 fbbd 58cf b4b9 fd61 8dbd 7168 5dbd
00000310: e270 503d 1d33 fbbc 6caa f4bc ad00 b33c
00000320: aa0d 23be 25a5 ce3d 0812 413e cd67 28bd
00000330: 2e62 bfbc 32aa 033d 0d4c 7c3b 6c1b 063e
00000340: cf18 823e 9ec6 5c3e 297e 17bd 791b 863d
00000350: c802 243d db33 40be 488f 783d 4fcd 3dbc
00000360: 234e 68bd 37ec 4f3d 3c55 0d3e 2db8 1a3d
00000370: 0bf9 0fbc 631d 1a3c 3cb6 f3bc d9bd d7bd
00000380: cf3e 9fbd 04c8 923d de53 05be e7ce 64be
00000390: d9b9 e03d 7a78 0fbe d05e 4dbe b9dd 083e
000003a0: 39af 72bc e537 19bd 36e8 e1bd eddf edbd
000003b0: 6d44 c93d 9978 35be 3c0d 5ebd b222 00be
000003c0: efd3 01bd a2b2 1f3d 44cc 70bd 415d 9f3d
000003d0: 5868 133d 54db 3f3e e22f 0b3e be5e 183e
000003e0: 33ab 333e f547 0abd ae71 da3d 9f21 153d
000003f0: 79eb dd3d 529c 193d 3ab9 ea3c 094b 88bd

net.layer3.0.bias f4 [64]
0.004387591 -0.0067931972 -0.017896395 -0.035965227 -0.0054225046 -0.033784643 0.04369802 0.008857603
-0.031019403 -0.016693927 -0.01905651 0.020111024 -0.019241007 -0.015099692 -0.027397642 0.040327284
0.0013065436 0.01736079 0.026100928 -0.02500101 0.03692313 0.038518284 0.017928733 -0.011567464
0.00067936827 -0.02912918 -0.024142498 0.025300821 -0.029773956 0.006555775 -0.03747459 -0.0001320864
-0.022850467 -0.012130301 -0.004520173 0.037731398 0.041181713 -0.00062263623 0.019322239 -0.030736396
0.007890152 0.013501096 0.017485283 0.035604455 -0.0015189833 0.036943816 -0.021037262 0.011023707
-0.012790287 0.04006975 0.011790498 0.039419226 -0.035980698 0.033109237 0.031172339 -0.0075871474
0.009178207 0.029305842 -0.039117154 -0.015475526 0.008081512 0.016940916 -0.016353162 -0.028347503
00000000: c8c5 8f3b 7899 debb 769b 92bc 4650 13bd
00000010: 44af b1bb c461 0abd b2fc 323d 7b1f 113c
00000020: 671c febc b4c1 88bc 661c 9cbc e0bf a43c
00000030: 519f 9dbc b364 77bc 0571 e0bc 392e 253d
00000040: 5440 ab3a 3738 8e3c 9dd1 d53c ebce ccbc
00000050: b53c 173d 59c5 1d3d 47df 923c 7685 3dbc
00000060: a217 323a 51a0 eebc 7dc6 c5bc ab43 cf3c
00000070: 83e8 f3bc d4d1 d63b f57e 19bd ac80 0ab9
00000080: e730 bbbc 2cbe 46bc f61d 94bb 3d8c 1a3d
00000090: 28ae 283d 6938 23ba ac49 9e3c e5ca fbbc
000000a0: b245 013c b333 5d3c 4c3d 8f3c fad5 113d
000000b0: 9f18 c7ba 6652 173d 5656 acbc c79c 343c
000000c0: 5a8e 51bc 2e20 243d ef2c 413c 0e76 213d
000000d0: 7f60 13bd 8d9d 073d 225d ff3c 9b9d f8bb
000000e0: 3160 163c ce12 f03c 4f39 20bd 108d 7dbc
000000f0: 5168 043c adc7 8a3c 11f7 85bc 0639 e8bc

net.layer3.1.weight f4 [64]
1.1471165 0.92326945 0.8413163 1.0805252 1.1134484 0.9033449 0.902555 0.8834251
0.8006134 0.782096 0.9021104 0.82406056 0.99727 0.911829 0.98488533 0.71687144
0.85521 0.950394 0.9860646 0.98108697 0.957157 0.94824904 1.2504954 1.0097487
0.9337675 0.86310613 1.0133208 0.7737316 1.151682 0.8677843 0.8507113 1.0034345
1.0350478 0.8219106 0.9381833 0.9446633 0.97824806 0.9063455 0.9674999 0.8840982
1.1278098 0.76816684 0.8285587 0.8283765 1.1033465 0.89115 0.9449735 1.0221442
0.8620943 0.84078664 1.0421641 0.9168475 0.96061313 0.8626037 0.96113664 1.1878185
0.99408466 1.0770922 1.1525743 0.8488563 0.95540416 0.8665542 0.94967335 0.94027627
00000000: b7d4 923f 635b 6c3f 8160 573f a64e 8a3f
00000010: 7a85 8e3f 9d41 673f d80d 673f 2628 623f
00000020: 00f5 4c3f 7237 483f b5f0 663f a2f5 523f
00000030: 164d 7f3f a06d 693f 7221 7c3f e384 373f
00000040: 0bef 5a3f 054d 733f bb6e 7c3f 8428 7b3f
00000050: 3e08 753f 73c0 723f 3c10 a03f 723f 813f
00000060: 630b 6f3f 86f4 5c3f 7fb4 813f 4613 463f
00000070: 516a 933f 1d27 5e3f 37c8 593f 8b70 803f
00000080: 727c 843f bc68 523f c82c 703f 74d5 713f
00000090: 776e 7a3f 4206 683f 13ae 773f 4254 623f
000000a0: 125c 903f 95a6 443f 6c1c 543f 7b10 543f
000000b0: 753a 8d3f 6822 643f c9e9 713f 9fd5 823f
000000c0: 36b2 5c3f cb3d 573f a265 853f 85b6 6a3f
000000d0: beea 753f 99d3 5c3f 0d0d 763f 700a 983f
000000e0: 557c 7e3f 28de 893f 8e87 933f a54e 593f
000000f0: 5e95 743f 7fd6 5d3f cb1d 733f f2b5 703f

net.layer3.1.bias f4 [64]
-0.5047292 -0.8201145 0.04439265 -0.37250075 -0.7005869 -0.5909089 -0.41708937 -0.26133132
-0.4618996 -0.39106327 -0.34045345 -0.34293813 -0.35396597 -0.35962445 -0.40033525 -0.22303878
-0.3344491 -0.24164563 -0.32516825 -0.48798808 -0.3140911 -0.32010615 -0.30484125 -0.54164654
-0.40698987 -0.32699117 -0.5163317 -0.029111337 -0.25403136 -0.23688225 -0.33276328 -0.43654498
-0.62983406 -0.20297047 -0.14093858 -0.30808842 -0.45954326 -0.28531095 -0.60517514 -0.25334212
-0.68749887 -0.20088546 -0.32395762 -0.07572542 -0.44117337 -0.11251455 -0.22818094 -0.3579179
-0.1407107 -0.36128893 -0.40550908 -0.4661245 -0.43578264 -0.24739346 -0.4447341 -0.7381302
-0.14517592 -0.4629112 -0.2978103 -0.20436025 -0.2771831 -0.017723797 -0.4366851 -0.1930473
00000000: ef35 01bf 06f3 51bf 11d5 353d 6bb8 bebe
00000010: aa59 33bf ce45 17bf bd8c d5be 38cd 85be
00000020: 1b7e ecbe 7239 c8be ea4f aebe 9695 afbe
00000030: 073b b5be b220 b8be bef8 ccbe 4764 64be
00000040: ea3c abbe f471 77be 747c a6be 93d9 f9be
00000050: 8cd0 a0be f4e4 a3be 2714 9cbe 59a9 0abf
00000060: fa60 d0be 636b a7be 502e 04bf e67a eebc
00000070: 6610 82be 4391 72be f35f aabe d382 dfbe
00000080: ce3c 21bf 7ed7 4fbe 3452 10be c4bd 9dbe
00000090: 4149 ebbe 4714 92be c2ec 1abf 0fb6 81be
000000a0: edff 2fbf ebb4 4dbe c6dd a5be ee15 9bbd
000000b0: 7ae1 e1be 076e e6bd 44a8 69be 0441 b7be
000000c0: 7716 10be ddfa b8be e39e cfbe dfa7 eebe
000000d0: e71e dfbe b654 7dbe 30b4 e3be 1af6 3cbf
000000e0: ffa8 14be b202 edbe 977a 98be d043 51be
000000f0: f1ea 8dbe 7f31 91bc 3095 dfbe 31ae 45be

net.layer3.1.running_mean f4 [64]
0.0 0.0 0.0 0.0 0.0 0.0 0.0 0.0
0.0 0.0 0.0 0.0 0.0 0.0 0.0 0.0
0.0 0.0 0.0 0.0 0.0 0.0 0.0 0.0
0.0 0.0 0.0 0.0 0.0 0.0 0.0 0.0
0.0 0.0 0.0 0.0 0.0 0.0 0.0 0.0
0.0 0.0 0.0 0.0 0.0 0.0 0.0 0.0
0.0 0.0 0.0 0.0 0.0 0.0 0.0 0.0
0.0 0.0 0.0 0.0 0.0 0.0 0.0 0.0
00000000: 0000 0000 0000 0000 0000 0000 0000 0000
00000010: 0000 0000 0000 0000 0000 0000 0000 0000
00000020: 0000 0000 0000 0000 0000 0000 0000 0000
00000030: 0000 0000 0000 0000 0000 0000 0000 0000
00000040: 0000 0000 0000 0000 0000 0000 0000 0000
00000050: 0000 0000 0000 0000 0000 0000 0000 0000
00000060: 0000 0000 0000 0000 0000 0000 0000 0000
00000070: 0000 0000 0000 0000 0000 0000 0000 0000
00000080: 0000 0000 0000 0000 0000 0000 0000 0000
00000090: 0000 0000 0000 0000 0000 0000 0000 0000
000000a0: 0000 0000 0000 0000 0000 0000 0000 0000
000000b0: 0000 0000 0000 0000 0000 0000 0000 0000
000000c0: 0000 0000 0000 0000 0000 0000 0000 0000
000000d0: 0000 0000 0000 0000 0000 0000 0000 0000
000000e0: 0000 0000 0000 0000 0000 0000 0000 0000
000000f0: 0000 0000 0000 0000 0000 0000 0000 0000

net.layer3.1.running_var f4 [64]
1.0 1.0 1.0 1.0 1.0 1.0 1.0 1.0
1.0 1.0 1.0 1.0 1.0 1.0 1.0 1.0
1.0 1.0 1.0 1.0 1.0 1.0 1.0 1.0
1.0 1.0 1.0 1.0 1.0 1.0 1.0 1.0
1.0 1.0 1.0 1.0 1.0 1.0 1.0 1.0
1.0 1.0 1.0 1.0 1.0 1.0 1.0 1.0
1.0 1.0 1.0 1.0 1.0 1.0 1.0 1.0
1.0 1.0 1.0 1.0 1.0 1.0 1.0 1.0
00000000: 0000 803f 0000 803f 0000 803f 0000 803f
00000010: 0000 803f 0000 803f 0000 803f 0000 803f
00000020: 0000 803f 0000 803f 0000 803f 0000 803f
00000030: 0000 803f 0000 803f 0000 803f 0000 803f
00000040: 0000 803f 0000 803f 0000 803f 0000 803f
00000050: 0000 803f 0000 803f 0000 803f 0000 803f
00000060: 0000 803f 0000 803f 0000 803f 0000 803f
00000070: 0000 803f 0000 803f 0000 803f 0000 803f
00000080: 0000 803f 0000 803f 0000 803f 0000 803f
00000090: 0000 803f 0000 803f 0000 803f 0000 803f
000000a0: 0000 803f 0000 803f 0000 803f 0000 803f
000000b0: 0000 803f 0000 803f 0000 803f 0000 803f
000000c0: 0000 803f 0000 803f 0000 803f 0000 803f
000000d0: 0000 803f 0000 803f 0000 803f 0000 803f
000000e0: 0000 803f 0000 803f 0000 803f 0000 803f
000000f0: 0000 803f 0000 803f 0000 803f 0000 803f

net.layer4.0.weight f4 [64, 64, 3, 3]
0.28376275 0.14049132 0.06687206 0.16102122 0.05058481 0.16088511 0.19636492 0.09289327
0.013427817 -0.08379187 -0.01692904 -0.10196761 -0.07223365 -0.066609174 -0.05984162 -0.19552197
-0.10257109 -0.10824787 -0.06586443 -0.039280992 -0.15188673 -0.07896241 -0.01836066 -0.089371346
-0.11508357 -0.046368066 -0.13548069 -0.049486753 -0.09312683 -0.15900885 -0.06405387 -0.012127776
-0.025159653 -0.03153393 0.011809528 -0.015859442 -0.19609803 -0.11457446 -0.20923541 -0.18978459
-0.09273172 -0.08127242 -0.14088266 -0.15577719 -0.1688026 0.028744323 0.043074563 0.13048378
0.15198107 0.03096954 0.20907424 0.10039593 0.04862948 0.12613343 -0.18336618 -0.09668782
-0.123128176 -0.21182531 -0.046534423 -0.051710356 -0.22405028 -0.09321849 -0.17223088 -0.017617375
-0.034150373 0.076166 -0.033899426 -0.08537247 0.025795527 0.066340856 0.08454494 0.05432354
-0.054441527 -0.13855247 -0.042149335 -0.036600363 -0.14883284 -0.10589307 -0.20324552 -0.1371394
-0.085961655 -0.024339823 -0.05279661 0.047013097 -0.17561555 -0.12652457 -0.020625766 -0.026065022
-0.03199313 -0.004866211 0.4184663 0.28522077 0.3994568 0.18870506 0.012563122 0.1323135
0.22084442 0.2837451 0.37413082 0.06239354 0.0366512 0.012500572 0.090809606 0.016844064
0.08423859 0.06698852 0.070907146 0.025490364 -0.09338597 -0.08764764 -0.10001156 -0.08552954
-0.1260977 -0.08053148 0.09424561 -0.01997009 -0.11572226 0.077696934 0.053485285 0.12378165
0.002913024 -0.02962136 -0.0031416635 0.04892102 0.15093093 0.124092676 0.0033876682 -0.18266307
-0.101735376 0.011471656 -0.11357327 -0.09195138 0.15270063 -0.03134013 0.07883331 0.06467103
0.051146466 0.040673867 0.013505035 0.048548482 0.018986592 0.050006937 0.03503154 -0.0022244463
0.15004306 0.13518657 0.15230437 0.03620482 0.025392627 -0.00316593 -0.021806045 -0.005993712
0.03635846 0.05558642 0.04466881 0.042516325 0.051133487 -0.0072274837 -0.011805672 0.067415096
0.03952843 0.1008012 0.06347427 0.014518345 -0.069371775 -0.0472963 -0.018241044 0.026261184
0.02659484 -0.047218475 0.060178883 -0.10966758 -0.18764679 -0.013643227 -0.1446443 -0.11146628
-0.13796505 -0.30121696 -0.30328184 -0.2226506 0.40561724 0.23294608 0.33527294 0.10109888
0.0066222106 0.07162016 0.13265395 -0.0033329555 0.0998546 -0.029835828 -0.1575062 -0.10725939
-0.049229883 -0.062963255 -0.11058806 -0.11249173 -0.17056043 -0.18489572 -0.118555374 -0.191174
-0.11092866 -0.041180465 -0.11592512 -0.075376615 -0.07107462 -0.017976575 -0.069767505 -0.18456128
-0.1519704 -0.17699262 0.023752583 0.002425485 -0.052931715 0.15112732 0.034023594 0.039913855
0.15119408 0.19906452 0.34212962 0.13253406 -0.0018932292 0.13164665 0.08554211 0.14397348
0.14766079 -0.048519198 0.043028753 0.015969662 -0.022942083 -0.004172941 -0.098768145 -0.08335938
0.016515769 -0.068494126 0.15185629 0.14488108 0.06879346 0.10979401 0.061034277 0.06393597
0.09557907 0.10220401 0.03999833 0.11159764 0.06275029 0.12489997 0.061331894 -0.016037954
-0.034808468 0.159968 0.016461229 0.13580014 0.043669976 -0.037042864 -0.030603826 0.018407008
00000000: 5a49 913e f5dc 0f3e 38f4 883d bfe2 243e
00000010: 0532 4f3d 11bf 243e e313 493e d43e be3d
00000020: 5900 5c3c 129b abbd c5ae 8abc 65d4 d0bd
00000030: 3cef 93bd 646a 88bd 7d1c 75bd e936 48be
00000040: cb10 d2bd 0fb1 ddbd eee3 86bd 1be5 20bd
00000050: 3288 1bbe 0bb7 a1bd 1869 96bc 5308 b7bd
00000060: efb0 ebbd 71ec 3dbd 73bb 0abe 9fb2 4abd
00000070: 48b9 bebd 37d3 22be ad2e 83bd 94b3 46bc
00000080: 9e1b cebc b929 01bd c07c 413c a9eb 81bc
00000090: eccd 48be 04a6 eabd cf41 56be e456 42be
000000a0: 21ea bdbd 2872 a6bd 8b43 10be 0e84 1fbe
000000b0: 97da 2cbe 3779 eb3c f46e 303d 8a9d 053e
000000c0: eda0 1b3e d5b3 fd3c 8f17 563e 629c cd3d
000000d0: b52f 473d 1f29 013e 58c4 3bbe 4404 c6bd
000000e0: a02a fcbd bce8 58be e19a 3ebd 3dce 53bd
000000f0: 706d 65be 56e9 bebd 4b5d 30be 5052 90bc
00000100: 43e1 0bbd ebfc 9b3d 20da 0abd c3d7 aebd
00000110: 2451 d33c b7dd 873d e625 ad3d 5c82 5e3d
00000120: 14fe 5ebd b3e0 0dbe c8a4 2cbd 43ea 15bd
00000130: a367 18be 77de d8bd 981f 50be 456e 0cbe
00000140: aa0c b0bd 4f64 c7bc 4241 58bd ce90 403d
00000150: 90d4 33be a88f 01be 5ef7 a8bc 5086 d5bc
00000160: 3a0b 03bd bd74 9fbb 3741 d63e 7508 923e
00000170: 9a85 cc3e e63b 413e 8ed5 4d3c 317d 073e
00000180: 0a25 623e 0a47 913e 138e bf3e 5e90 7f3d
00000190: 921f 163d 33cf 4c3c 63fa b93d 90fc 893c
000001a0: 4885 ac3d 4731 893d c437 913d 2bd1 d03c
000001b0: 2541 bfbd 9b80 b3bd dcd2 ccbd 1d2a afbd
000001c0: c11f 01be b0ed a4bd d803 c13d 5098 a3bc
000001d0: cbff ecbd 921f 9f3d 6313 5b3d 3c81 fd3d
000001e0: 6fe8 3e3b 7fa8 f2bc 5ee4 4dbb 6861 483d
000001f0: a38d 1a3e 4d24 fe3d a403 5e3b 070c 3bbe
00000200: a35a d0bd 9df3 3b3c 1a99 e8bd 0151 bcbd
00000210: 8e5d 1c3e 825e 00bd 5c73 a13d 3f72 843d
00000220: f57e 513d a499 263d 3944 5d3c c6da 463d
00000230: c589 9b3c 13d4 4c3d 3b7d 0f3d 04c8 11bb
00000240: e3a4 193e 596e 0a3e adf5 1b3e 814b 143d
00000250: 3304 d03c 7e7b 4fbb 97a2 b2bc e766 c4bb
00000260: 9cec 143d 96ae 633d a4f6 363d 9925 2e3d
00000270: 5971 513d 87d4 ecbb 946c 41bc ed10 8a3d
00000280: 90e8 213d dc70 ce3d ccfe 813d 5ade 6d3c
00000290: ca12 8ebd c4b9 41bd 3e6e 95bc b221 d73c
000002a0: 6cdd d93c 2968 41bd 227e 763d 6599 e0bd
000002b0: 7b26 40be d787 5fbc a31d 14be 6f48 e4bd
000002c0: b646 0dbe 1c39 9abe c247 9bbe 85fe 63be
000002d0: 10ad cf3e 6b89 6e3e e5a8 ab3e ee0c cf3d
000002e0: 21ff d83b 97ad 923d 70d6 073e b76d 5abb
000002f0: 9280 cc3d 446a f4bc 4e49 21be d0aa dbbd
00000300: 46a5 49bd e1f2 80bd fe7b e2bd 1062 e6bd
00000310: 65a7 2ebe 4e55 3dbe 29cd f2bd 1ec3 43be
00000320: 912e e3bd d9ac 28bd 266a edbd 0e5f 9abd
00000330: 928f 91bd 9c43 93bc 44e2 8ebd a2fd 3cbe
00000340: 219e 1bbe 8e3d 35be c794 c23c e3f4 1e3b
00000350: edce 58bd 1fc1 1a3e 535c 0b3d b67c 233d
00000360: 9fd2 1a3e 92d7 4b3e 9d2b af3e 02b7 073e
00000370: 3b26 f8ba 61ce 063e b430 af3d c96d 133e
00000380: 6434 173e 11bc 46bd eb3e 303d cfd2 823c
00000390: 09f1 bbbc 2bbd 88bb f446 cabd 53b8 aabd
000003a0: 144c 873c a646 8cbd 3780 1b3e b55b 143e
000003b0: 96e3 8c3d afdb e03d 14ff 793d ddf0 823d
000003c0: f6be c33d 5650 d13d 4ad5 233d 4e8d e43d
000003d0: 3983 803d 8ecb ff3d 2737 7b3d 0762 83bc
000003e0: 5393 0ebd a7ce 233e b3d9 863c 310f 0b3e
000003f0: 4adf 323d 42ba 17bd e0b4 fabc 4bca 963c

net.layer4.0.bias f4 [64]
0.0301933 -0.0005194941 0.013094771 -0.03653033 -0.020679306 0.013098704 0.024932476 0.04066039
-0.013503467 0.021128505 0.008783162 0.036132906 -0.016981646 0.023626212 0.030248132 0.012024963
-0.011372454 0.007075395 -0.014983248 -0.014808313 -0.016787931 -0.026207646 -0.030352747 -0.03424326
-0.025469821 -0.0012225797 -0.041792285 -0.021435484 -0.012864423 -0.012417318 -0.037131928 -0.022585895
0.030785011 -0.03402794 0.011410149 -0.012150663 0.022367451 0.035485495 -0.001871817 -0.0062105306
-0.004890321 -0.021690898 0.0025790487 -0.00945527 -0.00049342576 -0.011974849 0.0055075116 -0.029238146
-0.031114439 -0.021764958 0.030165456 0.019800462 0.025363024 0.022956515 0.00755072 0.02103565
-0.034838215 -0.01462578 0.03013201 0.022629471 -0.00518815 0.033022806 0.005653973 -0.0033051183
00000000: f157 f73c a92e 08ba 738b 563c d4a0 15bd
00000010: a667 a9bc f29b 563c 313f cc3c 828b 263d
00000020: a53d 5dbc b015 ad3c 40e7 0f3c 1900 143d
00000030: 181d 8bbc c28b c13c eeca f73c 5a04 453c
00000040: 8853 3abc b7d8 e73b 4c7c 75bc 919e 72bc
00000050: d886 89bc 6bb1 d6bc 53a6 f8bc a942 0cbd
00000060: 16a6 d0bc f83e a0ba 632e 2bbd 7899 afbc
00000070: 4dc5 52bc 0272 4bbc a617 18bd 0e06 b9bc
00000080: d930 fc3c e260 0bbd a2f1 3a3c 9313 47bc
00000090: f23b b73c 3d59 113d c257 f5ba b581 cbbb
000000a0: fc3e a0bb 1cb1 b1bc 4205 293b 47ea 1abc
000000b0: 3e59 01ba 2832 44bc 5b78 b43b d684 efbc
000000c0: b5e3 febc 6d4c b2bc 8c1d f73c 9434 a23c
000000d0: 1ec6 cf3c 4d0f bc3c 086c f73b f552 ac3c
000000e0: 84b2 0ebd f8a0 6fbc 68d7 f63c 7161 b93c
000000f0: 5b01 aabb ec42 073d f744 b93b af9a 58bb

net.layer4.1.weight f4 [64]
1.6435972 0.27980798 0.30898726 0.22934642 0.5593188 0.27820644 0.23347169 0.27633488
1.0849812 0.24165334 0.20502521 0.2661391 1.7516769 2.501701 0.25905862 2.0467675
0.20440619 0.33265898 2.4842517 1.4041985 2.2572472 0.35666817 2.2748003 1.0555795
0.25263926 1.9501067 1.2323985 0.35281682 1.9477272 0.22582741 0.23821737 1.7702506
0.1881941 1.8862658 2.1833482 2.242363 0.24640214 0.25452217 1.70381 1.7464192
1.3199742 0.25681552 0.24670629 1.6104405 0.19173487 1.9305006 2.1741772 1.0011902
2.0647843 2.0843391 0.26004016 0.22820874 0.24204414 2.143979 2.230024 0.23673187
0.23411995 2.4026542 0.22802414 0.23141876 0.24619804 2.4484277 0.26401418 0.23206697
00000000: 6561 d23f fe42 8f3e 9433 9e3e cad9 6a3e
00000010: 842f 0f3f 1371 8e3e 3413 6f3e c47b 8d3e
00000020: aae0 8a3f f973 773e 21f2 513e 6243 883e
00000030: f336 e03f df1b 2040 55a3 843e 3dfe 0240
00000040: db4f 513e 4752 aa3e fbfd 1e40 c7bc b33f
00000050: bd76 1040 369d b63e 5496 1140 3b1d 873f
00000060: ef59 813e 199d f93f 3cbf 9d3f 68a4 b43e
00000070: 204f f93f 4d3f 673e 41ef 733e 9297 e23f
00000080: f4b5 403e 2871 f13f fabb 0b40 e082 0f40
00000090: d850 7c3e bb50 823e 7216 da3f aa8a df3f
000000a0: eaf4 a83f 537d 833e 93a0 7c3e ea22 ce3f
000000b0: 2556 443e a51a f73f b825 0b40 0027 803f
000000c0: 6d25 0440 d065 0540 fc23 853e 8daf 693e
000000d0: 6bda 773e f436 0940 b7b8 0e40 d769 723e
000000e0: 24bd 6f3e 16c5 1940 297f 693e 0af9 6c3e
000000f0: 571b 7c3e 0ab3 1c40 de2c 873e f7a2 6d3e

net.layer4.1.bias f4 [64]
0.05146376 -0.5293052 -0.43663406 -0.41605306 -0.46401712 -0.49390888 -0.45209765 -0.4875287
-0.17393206 -0.5045473 -0.43311447 -0.5061989 -0.32471004 -0.6079968 -0.47200882 0.6256875
-0.44890618 -0.43338448 -0.32138893 0.22607669 -1.0123557 -0.41508007 0.5844185 -0.2431677
-0.49341342 0.41372785 -0.59786093 -0.55150205 -0.1529634 -0.51007915 -0.508208 -0.22278984
-0.33929458 0.5835535 0.4742147 0.20129421 -0.5058978 -0.57097566 0.6754686 -0.62704897
-0.32407936 -0.48128745 -0.5150136 0.337361 -0.4495459 0.013393471 -0.13860644 -0.62178916
-0.22152962 0.7138999 -0.57386124 -0.46755406 -0.5272403 -0.4201394 0.5249919 -0.42913955
-0.53440505 -0.3617899 -0.56845295 -0.4732983 -0.48578778 0.26411128 -0.44551578 -0.50695395
00000000: aacb 523d 8c80 07bf 808e dfbe e804 d5be
00000010: a793 edbe a0e1 fcbe 5879 e7be 5d9d f9be
00000020: 3f1b 32be 032a 01bf 2ec1 ddbe 4096 01bf
00000030: 6540 a6be aea5 1bbf 24ab f1be 0e2d 203f
00000040: 08d7 e5be 92e4 ddbe 178d a4be a680 673e
00000050: df94 81bf 6085 d4be 739c 153f f400 79be
00000060: afa0 fcbe 23d4 d33e 6a0d 19bf 3d2f 0dbf
00000070: 70a2 1cbe 8c94 02bf eb19 02bf 0523 64be
00000080: 05b8 adbe c363 153f 45cc f23e 1220 4e3e
00000090: 8582 01bf 762b 12bf 83eb 2c3f 4886 20bf
000000a0: bbed a5be 4f6b f6be eed7 03bf 95ba ac3e
000000b0: e12a e6be 4a70 5b3c d9ee 0dbe 932d 1fbf
000000c0: a9d8 62be 25c2 363f 92e8 12bf 3f63 efbe
000000d0: 38f9 06bf 831c d7be df65 063f 2eb8 dbbe
000000e0: c5ce 08bf 873c b9be 2286 11bf 2854 f2be
000000f0: 2db9 f8be 9839 873e a51a e4be bcc7 01bf
