mp/maml_mini_5way_5shot_best_step32500_conv_first.pt (torch, 144234 bytes, 26 tensors)

net.layer1.0.weight f4 [32, 3, 3, 3]
000000 13 77 83 be de 95 de be 09 69 60 be 55 df 8e 3d
       -0.25676784 -0.43473715 -0.21915068 0.06976191
000010 c9 be 92 3d 40 b6 29 3c 4e d2 73 3e 60 8e c5 3e
       0.07165296 0.010358393 0.23810694 0.38585186
000020 40 4e 6a 3e e3 84 a5 be 46 52 e5 be 6a 05 19 be
       0.22881413 -0.32327947 -0.44789332 -0.14943472
000030 11 38 86 3d 35 36 89 bd 3d 09 94 bd da 9e 53 3e
       0.065536626 -0.06699792 -0.072283246 0.20666066
000040 8a b3 c7 3e 32 f4 8f 3e b6 df f1 bd bc 9a 91 be
       0.39004165 0.28115994 -0.118102476 -0.28438365
000050 26 a3 3d be 64 6d 3e 3e 8e 8b 61 3d af 71 46 be
       -0.18519267 0.18596417 0.05506473 -0.19379304
000060 01 64 f5 3c 14 fa 86 3e b0 15 2e 3e 24 c3 0e 3e
       0.029954912 0.2636267 0.1700046 0.13941628
000070 ce c1 99 3d a6 69 ca 3d 7e e3 94 3e 88 e2 dd 3e
       0.075076684 0.09883432 0.29079813 0.43336892
000080 9e 81 36 3d 21 97 45 3e 8f 60 00 3e 6b e9 35 be
       0.044557206 0.19295932 0.12536834 -0.17764823
000090 79 19 90 be e4 62 ad be 1f 28 e4 bd fb e4 cd bd
       -0.28144434 -0.3386451 -0.11140465 -0.1005344
0000a0 25 5e 9f be f7 77 7e bc 62 df 86 be a9 84 a2 be
       -0.31126514 -0.015531532 -0.26342303 -0.31741837
0000b0 2f fe 5c bd e6 38 2e 3e 32 e4 73 bd 0e 61 71 3c
       -0.053953346 0.17013893 -0.059543796 0.014732612
0000c0 68 37 19 3e b9 82 49 3e ae 85 5e 3e 6c 48 7a 3d
       0.14962542 0.19678773 0.21730682 0.061104223
0000d0 c6 67 ff 3d df cd ae 3c 94 35 48 be 96 31 03 be
       0.12470965 0.021338401 -0.19551688 -0.12811884
0000e0 78 9e c7 3e af 52 4a 3c c6 17 82 3d 48 0d 75 be
       0.3898809 0.012348815 0.06352191 -0.23930848
0000f0 c1 b1 b7 3d e2 f4 f6 3d 5e 78 13 be e4 94 a0 be
       0.08969451 0.120584264 -0.14401385 -0.31363595
000100 0a 1e 8e be 4c 31 f5 3e 7f 3a 28 3e 74 5b 51 3d
       -0.27757293 0.47889173 0.16428564 0.051112607
000110 18 ae ad be f3 62 1b 3e fb 8d 70 3e 7e 16 0a be
       -0.33921885 0.15174465 0.23491661 -0.13485143
000120 63 ca 39 bd 94 1e 76 bd 7d 0e 34 3f 86 3c 45 3e
       -0.045359027 -0.060087755 0.7033461 0.19261369
000130 6d 02 6b 3e e0 6b 69 be 39 0d 17 be 12 92 05 be
       0.22950144 -0.22795057 -0.14751138 -0.13044003
000140 89 60 03 bf 42 69 ad 3e 78 8c 36 3e 6c 5a 1d be
       -0.51319176 0.33869368 0.17827022 -0.15366524
000150 78 9b 16 3f 87 00 92 3e 9b 84 21 be 7f 65 46 3c
       0.58830976 0.28516027 -0.15773241 0.0121091595
000160 03 e3 01 be 30 e7 ba be 6b 7a 9e 3d af 87 c8 3d
       -0.12684254 -0.36504507 0.07738193 0.097915046
000170 68 38 aa 3a fc ce 0b 3e 0b aa 24 3d 05 28 00 be
       0.0012986781 0.13653177 0.040201228 -0.12515266
000180 bc b1 bd 3d da eb fe bd b2 1a 44 be f5 b4 0a bc
       0.09262416 -0.12447329 -0.19150808 -0.008465995
000190 6d 0f 2c 3e 71 60 03 bd e4 49 2e 3e ab f5 9a 3b
       0.1680276 -0.032074396 0.17020375 0.004728993
0001a0 d2 64 e0 3c 26 d9 5a be 36 a0 b6 be aa 3f bc 3c
       0.027391825 -0.21371898 -0.35669106 0.022979576
0001b0 3b 19 53 3e bc 09 f2 bc bb 0b 97 3c 14 80 bf 3c
       0.20615093 -0.029545657 0.01843821 0.023376502
0001c0 a5 71 c6 bc 11 92 4a bd a1 6e da 3d 71 92 64 bd
       -0.024224112 -0.049455706 0.10665632 -0.05580372
0001d0 01 1d 21 be 43 bf af 3d 5f 25 8d be bc b3 89 bd
       -0.1573372 0.08581402 -0.27567574 -0.06723735
0001e0 96 03 4b be 0a f6 82 be 40 16 0c be 04 e2 a3 3d
       -0.19825587 -0.25578338 -0.13680363 0.080020934
0001f0 40 81 7f bc 50 94 12 3e d0 4b a9 be 75 36 ed be
       -0.01559478 0.14314389 -0.33065653 -0.4633061
000200 a3 75 20 be d9 82 25 be cb 70 65 b9 07 bc 22 3e
       -0.15669875 -0.16163196 -0.0002188116 0.15892039
000210 f2 33 32 3e b8 a7 a1 3e 0f 2b d2 3e 24 4e a3 be
       0.17402628 0.31573272 0.41048476 -0.31895554
000220 3e 33 98 be 49 22 b8 be 89 fe 15 be eb 1c 03 bd
       -0.29726595 -0.35963657 -0.14647879 -0.03201
000230 2d cb 3b bc e9 f6 29 be d0 7a fd bd 81 2b 57 3c
       -0.011462015 -0.16598095 -0.1237694 0.013132931
000240 6e 6c 65 3e f1 49 b4 3e 54 4e 1d 3e 43 c7 05 3e
       0.22404644 0.35212663 0.15361911 0.13064294
000250 bf 3a 5c 3e b6 08 bb 3e bc 62 0f bd ca 55 db 3d
       0.21506785 0.36530083 -0.03500627 0.10709722
000260 2b d2 2b 3e 12 ed 7d be e8 75 1d 3d 06 fb 45 be
       0.16779391 -0.24797466 0.038442522 -0.19334039
000270 ea ea 81 bd c1 6e 61 3e 02 36 9e 3d 76 3d be bd
       -0.063436344 0.22014906 0.07725145 -0.092890665
000280 73 1b 83 bc 20 13 e5 3d 42 ee 57 3e aa ed c0 be
       -0.0160043 0.111852884 0.21086982 -0.37681323
000290 ea 7e aa bd c2 88 04 bd 97 67 a4 3e ee b1 d4 be
       -0.08324988 -0.032356985 0.32110283 -0.41542
0002a0 ac 46 c3 3e 77 ad f4 bc f2 81 91 3d d3 ef 28 3e
       0.38139856 -0.02986787 0.07104863 0.16497736
0002b0 af d3 60 be cb 8d 9e 3e d8 bf c7 be d5 d3 db 3e
       -0.21955751 0.30967554 -0.39013553 0.42935053
0002c0 5e 7a 33 be d6 ee 07 be 4b e2 63 be 13 a3 d9 3d
       -0.17527148 -0.13274702 -0.22254293 0.10626807
0002d0 5c 01 14 3e 64 ed 77 be 98 f9 9b 3d b7 30 64 be
       0.14453644 -0.24211651 0.076159656 -0.22284208
0002e0 6c 8c be 3e 3f 16 3f 3d ac 75 24 3d b9 b8 63 be
       0.37216508 0.046652075 0.040151283 -0.22238435
0002f0 e8 1e fa 3d 91 a5 fb bd d3 a8 6e 3d 17 eb bc 3d
       0.12212926 -0.12287439 0.058266472 0.09224527
000300 b1 b3 d9 be 74 c3 34 3c 40 74 d2 3e 6c 8a b5 be
       -0.42519906 0.011032928 0.41104317 -0.3545717
000310 a0 17 cc bd e8 77 cd 3e 53 72 0c 3d 14 9e 05 be
       -0.099654436 0.40130544 0.034288716 -0.13048583
000320 50 f6 3e bd de 91 a0 be d9 14 06 3e ee e1 98 3e
       -0.04662162 -0.31361288 0.1309389 0.2985987
000330 8d 95 82 be 36 0c 0b 3d e3 e0 9d 3e d5 48 80 3e
       -0.25504723 0.033947192 0.30835637 0.25055566
000340 c8 a6 8a bd 94 8c 87 3d f6 83 95 be bb 48 0a 3d
       -0.06770092 0.0661861 -0.2920224 0.033760767
000350 e9 37 1a 3e 8d 5f b2 be 65 4b 09 be 38 28 80 3e
       0.1506039 -0.34838524 -0.13407667 0.25030684
000360 0d 1e 1f 3f 62 78 bb 3d c2 ad 2c be 8f cc e4 3e
       0.6215523 0.091538206 -0.16863158 0.44687316
000370 d8 8c e4 bd dc 1e a5 be c6 92 74 3d 44 7b b1 be
       -0.11159676 -0.32250106 0.059710287 -0.34664357
000380 54 ad 61 be 85 d0 55 be fa 14 ce 3d 2a f8 97 3e
       -0.22038776 -0.20880325 0.10062595 0.29681522
000390 c8 90 74 be a8 6c ba bd 66 b1 33 3e 1f 70 44 be
       -0.23883355 -0.09102756 0.17548141 -0.19183396
0003a0 5f fc fd 3d 1f fb 8a bb f2 22 cf be 88 f9 76 be
       0.124016516 -0.0042413617 -0.4045635 -0.24118626
0003b0 5a 10 f6 bd 9e 74 39 be 89 56 4b 3e 8a e2 1b 3e
       -0.120148376 -0.18110892 0.1985723 0.15223137
0003c0 c2 bd 2c 3e 56 27 77 3e 1b c8 60 3e 50 56 9f 3e
       0.16869262 0.24136099 0.21951334 0.3112054
0003d0 64 7d 40 3e 7e 9e eb 3d 47 94 d8 bc df 66 ef bd
       0.18797833 0.11504839 -0.026437892 -0.11689543
0003e0 2e 4f 40 bd 48 b1 ad be ab 61 16 bf 7b 99 a8 bd
       -0.04695051 -0.33924317 -0.5874278 -0.08232399
0003f0 be 2e 2f bd 09 39 d9 3d ae 00 1c bd 73 f0 0c ba
       -0.042769186 0.10606582 -0.038086586 -0.0005376406

net.layer1.0.bias f4 [32]
000000 3e f2 d5 bd 85 87 0a bd 31 4f 33 be 29 1e 28 3d
       -0.10446595 -0.033820648 -0.17510678 0.041044388
000010 7f a5 59 3e 29 44 34 be 2c c0 ed 3d de 12 b7 bd
       0.21254538 -0.17604126 0.116089195 -0.089391455
000020 02 e1 52 bd 28 2e 03 3e 62 16 5f 3d d4 0f 45 3d
       -0.051484115 0.12810576 0.054464705 0.048110798
000030 25 75 63 3d a3 1d da bc b9 ea 80 bc c0 f3 e2 3d
       0.05553164 -0.02662546 -0.015736924 0.11081648
000040 7c 80 40 bc f9 d3 1c bd 36 da 9b bd 47 a0 3f bd
       -0.011749383 -0.03828809 -0.0760998 -0.04678371
000050 ef 73 26 3e bb 48 82 3d 48 5e c8 3d 7f 37 37 be
       0.16255163 0.063615285 0.09783608 -0.17892264
000060 8b 40 19 3e d6 6a 34 3e 49 e3 4a 3d 78 f5 a4 bd
       0.14966027 0.1761888 0.049533162 -0.08054632
000070 a7 a0 27 be c0 29 66 bd 0b 95 d4 bd 02 4a 50 be
       -0.16369878 -0.05619216 -0.1037999 -0.20340732

net.layer1.1.weight f4 [32]
000000 13 bc 99 3f a4 c0 26 3f 05 57 62 3f 03 52 50 3f
       1.2010521 0.65137696 0.8841403 0.8137514
000010 94 98 74 3f 3c 89 50 3f 2d fe 44 3f 8a 26 92 3f
       0.95545316 0.81459403 0.7695034 1.1418011
000020 05 2d 9a 3f d7 5b 54 3f 05 86 81 3f f8 f1 6f 3f
       1.2044989 0.82952636 1.0119025 0.9372859
000030 fb fa ab 3f 49 f0 30 3f 47 3b 1c 3f 49 f0 8e 3f
       1.3435968 0.69116646 0.6102795 1.1167079
000040 8e ff a5 3f 00 e3 41 3f f0 96 8e 3f 5e 4d 64 3f
       1.2968614 0.75737 1.1139812 0.8918055
000050 6e 20 88 3f b6 80 3c 3f 16 e3 8b 3f 58 7e 7f 3f
       1.0634897 0.736339 1.0928676 0.9980216
000060 d4 8c 29 3f 56 5e 9c 3f 10 14 68 3f 83 30 59 3f
       0.6623051 1.2216289 0.9065561 0.8483965
000070 d1 f0 8b 3f aa 80 70 3f 3a 4d 81 3f dd a9 63 3f
       1.0932866 0.93946326 1.0101693 0.88931066

net.layer1.1.bias f4 [32]
000000 86 5a 64 3e fa f1 8e be 23 c4 6b bd 95 72 1c bf
       0.22300157 -0.27918988 -0.057560097 -0.6111234
000010 6b e9 f6 be 37 95 09 bf db 64 bd bd fb 33 32 bd
       -0.4822496 -0.5374331 -0.09247752 -0.043506604
000020 2a 7f 90 be a5 3b 77 be b9 cc aa bd 51 9b 41 bf
       -0.28222018 -0.24143846 -0.08339829 -0.7562762
000030 61 66 f9 bd d5 b7 7f be e4 ed 69 bd f0 92 17 be
       -0.1217773 -0.2497247 -0.057111636 -0.14802146
000040 7b 33 a5 bd 7b 03 05 3e 25 d2 f3 bc fe 57 45 3e
       -0.0806646 0.12989609 -0.02976329 0.19271848
000050 bf f3 2f 3f eb 7b e3 bd 5f 28 93 be ed 09 db bd
       0.687313 -0.1110762 -0.28741738 -0.106952526
000060 93 46 a6 be 78 37 eb be 57 1a 91 bd d6 ca 17 bf
       -0.3247572 -0.45940757 -0.07085102 -0.5929388
000070 54 12 0b bf 75 b7 80 be 6b 3b 05 3d 2c ed 84 bd
       -0.5432484 -0.25139967 0.03252737 -0.064905494

net.layer1.1.running_mean f4 [32]
000000 00 00 00 00 00 00 00 00 00 00 00 00 00 00 00 00
       0.0 0.0 0.0 0.0
000010 00 00 00 00 00 00 00 00 00 00 00 00 00 00 00 00
       0.0 0.0 0.0 0.0
000020 00 00 00 00 00 00 00 00 00 00 00 00 00 00 00 00
       0.0 0.0 0.0 0.0
000030 00 00 00 00 00 00 00 00 00 00 00 00 00 00 00 00
       0.0 0.0 0.0 0.0
000040 00 00 00 00 00 00 00 00 00 00 00 00 00 00 00 00
       0.0 0.0 0.0 0.0
000050 00 00 00 00 00 00 00 00 00 00 00 00 00 00 00 00
       0.0 0.0 0.0 0.0
000060 00 00 00 00 00 00 00 00 00 00 00 00 00 00 00 00
       0.0 0.0 0.0 0.0
000070 00 00 00 00 00 00 00 00 00 00 00 00 00 00 00 00
       0.0 0.0 0.0 0.0

net.layer1.1.running_var f4 [32]
000000 00 00 80 3f 00 00 80 3f 00 00 80 3f 00 00 80 3f
       1.0 1.0 1.0 1.0
000010 00 00 80 3f 00 00 80 3f 00 00 80 3f 00 00 80 3f
       1.0 1.0 1.0 1.0
000020 00 00 80 3f 00 00 80 3f 00 00 80 3f 00 00 80 3f
       1.0 1.0 1.0 1.0
000030 00 00 80 3f 00 00 80 3f 00 00 80 3f 00 00 80 3f
       1.0 1.0 1.0 1.0
000040 00 00 80 3f 00 00 80 3f 00 00 80 3f 00 00 80 3f
       1.0 1.0 1.0 1.0
000050 00 00 80 3f 00 00 80 3f 00 00 80 3f 00 00 80 3f
       1.0 1.0 1.0 1.0
000060 00 00 80 3f 00 00 80 3f 00 00 80 3f 00 00 80 3f
       1.0 1.0 1.0 1.0
000070 00 00 80 3f 00 00 80 3f 00 00 80 3f 00 00 80 3f
       1.0 1.0 1.0 1.0

net.layer2.0.weight f4 [32, 32, 3, 3]
000000 62 35 d9 bd 51 05 c0 bb 07 a4 e3 3d 9a 05 ac bd
       -0.10605885 -0.0058600088 0.1111527 -0.08399506
000010 91 45 3b 3d c9 86 6f 3c d3 c4 ac 3d af 72 3f be
       0.04572064 0.014619538 0.08435979 -0.18696092
000020 2b 49 78 bd 88 53 dd 3e b9 d7 0c 3e 61 37 7a 3e
       -0.060616653 0.43227792 0.13754167 0.24435188
000030 cd de e5 bd 3d 1b 9c bd 5b 96 b0 3b 70 e9 6c be
       -0.112241365 -0.07622383 0.0053890175 -0.23135924
000040 0e ee bf bd 47 13 04 3e 95 67 ce 3e ee e1 10 3e
       -0.09371577 0.12897979 0.40313402 0.14148685
000050 07 97 5b 3d ff 2f 17 be 65 28 52 bd 7b 60 6f 3d
       0.053610828 -0.14764403 -0.051308054 0.05844162
000060 96 c5 eb bd 22 b1 02 3e 64 e2 e8 3d 47 1d d5 3e
       -0.11512296 0.12762883 0.113713056 0.416239
000070 b5 68 82 3e 0d 12 ad bd f5 b6 9d 3e 9f 32 24 bf
       0.2547051 -0.084507085 0.30803648 -0.6413974
000080 d0 42 67 be 85 29 99 3e 1c ce 77 bd aa d4 c5 3e
       -0.2258408 0.2991449 -0.060499296 0.38638812
000090 2f 34 c6 bd 67 2a 24 3e 04 53 c9 3e 61 57 79 3d
       -0.09677922 0.160318 0.39321148 0.060874347
0000a0 57 dc df bd e9 ac 93 3e 5d 4d af bd e6 1d 3c 3d
       -0.10930698 0.28842857 -0.08559678 0.04592695
0000b0 0b 6d 07 3e b9 08 2c be 20 75 8e be 92 68 85 be
       0.1322519 -0.16800202 -0.27823734 -0.26056343
0000c0 76 fd c0 be 24 bf 65 3c 06 40 04 be 94 d7 77 bd
       -0.37693375 0.014022622 -0.12915048 -0.060508326
0000d0 29 9e d0 3d b8 10 74 3e 90 fd b6 3d 68 1c 8c bd
       0.10186417 0.23834503 0.08935082 -0.068413556
0000e0 27 1e ea bc 0c a7 e0 bc 73 6c 32 be ad 11 53 be
       -0.02857883 -0.027423404 -0.17424183 -0.20612212
0000f0 88 b9 24 3c 45 f8 de 3b 71 e9 8b 3e aa 5a 26 be
       0.010054 0.0068044984 0.2732654 -0.16245523
000100 53 81 d1 3d cd a0 82 bd 22 87 7a be 87 26 4a be
       0.10229745 -0.063783266 -0.24465612 -0.1974126
000110 4b 54 d2 bd 66 2f f6 3c 78 c9 26 bd 97 c8 12 3e
       -0.10269984 0.030051898 -0.04071948 0.14334331
000120 55 ca 00 be ab 46 08 3e 9c be 83 3d 89 ca 5d 3e
       -0.12577184 0.13308208 0.0643284 0.21659292
000130 3e db 95 be 70 ce 16 3e 2e 95 6c be 62 b9 1f bf
       -0.2926883 0.14727187 -0.23103783 -0.62392247
000140 5e f4 18 3e 0e bb 11 bc 80 6b 28 bd ca 10 35 3e
       0.14936969 -0.008894695 -0.041118145 0.17682186
000150 49 73 16 be a4 ed 1b bc 49 bc 3d 3e 42 c7 82 3d
       -0.14692415 -0.009517107 0.18528856 0.06385662
000160 c1 f7 79 bd 40 c3 5c bd b5 b9 7e 3e 6a d3 a2 3d
       -0.061027292 -0.053897142 0.24875529 0.0795048
000170 8a 94 9d 3d 03 5f 2f 3e 66 8e 0a bc e6 67 2c 3e
       0.07694347 0.17126088 -0.008456802 0.16836509
000180 6c df d6 3d 5a 50 c5 3d ec 8d 26 3e 89 d3 e9 3d
       0.10491833 0.096344665 0.16265076 0.114173
000190 c8 af de bd 63 4e 91 bd f9 e6 80 be bb cc 88 bb
       -0.10873371 -0.07095029 -0.25176218 -0.0041747964
0001a0 37 db 41 be 94 86 80 3e 90 55 cf 3d 92 b9 05 3c
       -0.1893128 0.25102675 0.101237416 0.008161919
0001b0 47 ae c5 be 87 e8 32 be 62 f7 a8 be 3f b5 20 bf
       -0.38609526 -0.17471515 -0.33001238 -0.6277656
0001c0 0b b9 ab bf 2c e8 23 be ad 25 32 bf 2b ef 54 bf
       -1.3415846 -0.16006535 -0.6958874 -0.8317744
0001d0 1c 10 d3 3d 1c ee 62 be c7 69 ab be 56 f6 93 be
       0.10305807 -0.22161144 -0.3347914 -0.28898877
0001e0 5e 6a b0 be 33 67 4e be e7 b6 b1 bc 60 50 15 3d
       -0.34456152 -0.20156555 -0.02169366 0.036453605
0001f0 fc af 93 3d 16 8a 49 3e f9 08 91 3d 9b ec b4 3d
       0.07211301 0.19681582 0.070817895 0.088341914
000200 b5 9d 14 3d 69 82 31 bc 03 03 46 be 2a d5 7b be
       0.036283214 -0.010834315 -0.19337086 -0.24593034
000210 a1 fc fe bd ff af 8b bd 58 dc e0 bd 3e 84 0f 3b
       -0.12450529 -0.06820678 -0.10979527 0.002189889
000220 b1 c2 16 be 7d a5 e0 3d ca 23 15 be cf f0 87 be
       -0.14722706 0.109690644 -0.14564434 -0.2655091
000230 7c 01 b8 bd d6 e6 f6 bd 0c bd 20 bd f3 93 e0 3c
       -0.08984658 -0.12055747 -0.03924279 0.027414298
000240 18 f9 c3 3e 62 01 a3 3e d7 3c e0 bd 46 0b 0f 3e
       0.3827598 0.31836993 -0.10949104 0.13969144
000250 92 5e 11 be f7 cc 6f 3e a9 66 0b 3d ef 18 d9 3d
       -0.14196232 0.23418032 0.03403345 0.10600459
000260 1b 5a 06 3e c2 7f c6 3d 8e b2 b1 3d ca fe a0 3e
       0.1312031 0.096923366 0.08676635 0.3144439
000270 6e 08 94 bc 5b 25 22 bd d6 e6 48 bd 54 13 04 3d
       -0.018070426 -0.039586406 -0.049048267 0.032244995
000280 53 be d1 bc df 70 04 3e 38 1b d1 3d d3 1c ea bc
       -0.025603449 0.12933682 0.1021027 -0.028578198
000290 07 37 25 be 49 70 4b 3e 0c 9f 5e bd d7 e9 16 3c
       -0.16134273 0.19867052 -0.054350898 0.009211025
0002a0 2b 3c 54 3e e4 92 d7 bd 16 f4 82 bd 77 1a 73 be
       0.20726077 -0.10526064 -0.06394212 -0.23740564
0002b0 3c f1 8f bd b4 69 26 bd 87 0a 93 be 27 d1 6e be
       -0.07028434 -0.04062815 -0.2871897 -0.23321973
0002c0 27 96 0d be 45 5c 3c bd 1a f3 72 be 85 c9 9d 3d
       -0.1382681 -0.045986433 -0.23725548 0.077044524
0002d0 a1 81 68 3e c5 25 c1 3d bf 46 ec bd d4 1e df 3d
       0.227057 0.09431032 -0.11536931 0.10894552
0002e0 51 68 11 be 2a 0c 9d bd 23 b9 e1 3d d3 db fd 3c
       -0.1419995 -0.07668336 0.1102164 0.03098861
0002f0 fd bb 24 3d df d8 1c be 74 f6 4e bd cf 8e fd bc
       0.040218342 -0.15317105 -0.050528005 -0.030951886
000300 25 5a 3e be c1 96 8c 3d 6e 22 36 be 5f 08 20 3d
       -0.18589075 0.068646915 -0.17786571 0.039070483
000310 54 ed 75 3e f2 8b 90 bc a0 e1 d4 bd f1 af b2 3e
       0.24016315 -0.017644856 -0.10394597 0.34899858
000320 04 e4 3d 3d e4 1d 9f bd 8c 67 04 be 86 4b ca 3c
       0.04636003 -0.07769373 -0.12930125 0.024694216
000330 7f 55 ed bc c7 1c ec bd 95 1c 87 3d 69 1f 1d 3e
       -0.028971432 -0.11528926 0.065972485 0.15344013
000340 0c 01 16 bd d9 ce 38 bb 21 e5 c1 3d 44 2c bc bd
       -0.036622092 -0.0028199463 0.09467531 -0.091881305
000350 02 14 a6 bd 25 d7 87 3d 71 5a 3a bd 01 e4 80 be
       -0.08109285 0.066328324 -0.045496408 -0.25173953
000360 e2 c1 b5 bc af d0 35 be c1 26 74 3c 87 81 44 bd
       -0.022187177 -0.17755388 0.014901818 -0.04797509
000370 1a a5 e6 bd 01 09 9f 3d 27 13 de bd 99 36 26 bd
       -0.112619594 0.07765389 -0.10843497 -0.040579412
000380 6f 9a 6e 3c 1c e5 41 be 86 56 4d be ce 1d 2f 3b
       0.014563187 -0.18935055 -0.20052537 0.0026720646
000390 53 1a 1d bf ca bc 68 be fd cb 29 be cb 3b 44 be
       -0.6136829 -0.22728267 -0.16581722 -0.19163434
0003a0 cc 1b 1c bf 9b 7a 48 be 0e ea 3f bd 49 76 1e be
       -0.60979915 -0.1957802 -0.04685407 -0.1547481
0003b0 be a7 af bc 9c 87 53 be 00 3d c3 be 7e a4 08 bc
       -0.02144229 -0.206572 -0.38132477 -0.008339999
0003c0 0d 4c 1f 3e fa c2 a8 be 87 41 58 be fe e0 30 3d
       0.15556355 -0.32961255 -0.21118747 0.04318332
0003d0 57 18 d4 3d 98 07 d8 bc 8a 05 f4 bd 0f 1b 89 be
       0.10356205 -0.026370808 -0.11915119 -0.26778457
0003e0 2c 16 96 be f5 69 0b be a2 dd 14 be 31 67 58 be
       -0.2931379 -0.13614638 -0.14537671 -0.21133114
0003f0 42 b7 81 3e b5 74 23 3d 8e 0d 47 3e 2b d3 92 be
       0.25335127 0.039906222 0.19438764 -0.28676733

net.layer2.0.bias f4 [32]
000000 d7 04 e8 bc 11 eb 02 bd 5d ad bc bb e4 24 ba bc
       -0.02832262 -0.031962458 -0.005757971 -0.022722669
000010 31 36 38 bd 5b f5 1d bd 4d d5 4e bd 19 ff 44 bb
       -0.044973556 -0.038564067 -0.05049639 -0.0030059277
000020 98 ee 0a bb 51 93 5a 3d a8 8e 42 3d 08 c6 af bc
       -0.0021199342 0.053363148 0.04749933 -0.021456733
000030 54 ea a5 bc 29 8c 03 bd 74 4a 42 3d 57 55 47 3d
       -0.020253338 -0.03211609 0.047434285 0.04866537
000040 6c 96 cf 3b 11 71 b0 bc 62 f6 4c 3d 80 13 50 bc
       0.0063350704 -0.02153829 0.050039656 -0.012699962
000050 ed d9 dd 3c 8d 50 8e 3d c0 96 6f 3c 85 f1 0a bd
       0.027081454 0.069489576 0.014623344 -0.033921737
000060 0b 35 7b bd 39 76 56 bd 89 1d 7f bd f2 c7 a1 bc
       -0.061329883 -0.05235884 -0.062284026 -0.019748662
000070 ad e4 b1 bc cc 84 4b bc b8 bf ae 3c 31 d9 43 3d
       -0.021715486 -0.012421798 0.021331653 0.04781455

net.layer2.1.weight f4 [32]
000000 f7 b2 90 3f 7b 05 89 3f 75 1e 7d 3f c5 2a 4f 3f
       1.1304616 1.0704798 0.988746 0.80924636
000010 1e 8e 77 3f d7 9f 69 3f 04 15 57 3f ea 19 4d 3f
       0.9670123 0.9125952 0.8401644 0.80117667
000020 4e 1c 8e 3f cd 1c b6 3f c1 cc 45 3f 13 da 84 3f
       1.1102388 1.4227539 0.77265555 1.0379051
000030 ec 10 6f 3f ea 80 42 3f f2 69 8d 3f 9e 41 41 3f
       0.93385196 0.7597796 1.1047957 0.7549075
000040 f9 57 73 3f 2d 98 92 3f 91 8c 52 3f 0c 7c 62 3f
       0.9505611 1.145269 0.8224574 0.8847053
000050 90 11 4a 3f 3e 79 5f 3f 85 f7 73 3f 1e 2b 82 3f
       0.7893305 0.87294376 0.9529956 1.0169408
000060 e6 e5 6a 3f 31 f2 7f 3f b9 cd a0 3f ff ac 78 3f
       0.9175705 0.9997893 1.2562782 0.9713897
000070 a7 60 66 3f 73 e4 4f 3f 8f 1a 56 3f cc bd 45 3f
       0.8999123 0.8120796 0.83634275 0.7724273

net.layer2.1.bias f4 [32]
000000 14 89 b6 bd 39 ee 0c bf e3 98 2d bf 0f 6b f1 be
       -0.08912864 -0.55051 -0.6781141 -0.47151992
000010 34 f7 eb be b2 35 6b be 81 0e b1 be 9a e6 33 be
       -0.4608704 -0.22969702 -0.34581378 -0.17568436
000020 c8 3c d4 be b7 a8 fc be be 8e 2e bf 70 57 b7 be
       -0.41452622 -0.4934747 -0.6818656 -0.35808897
000030 ab a9 c3 be b4 09 c5 bd 76 f6 d2 be 74 45 99 be
       -0.38215384 -0.09620991 -0.4120366 -0.299358
000040 e9 2a 1e bf 95 4e 3c bf 9e b6 73 be 04 e9 e3 bd
       -0.61784226 -0.73557407 -0.23800132 -0.111284286
000050 b0 8e f2 be b0 8b b7 be ce 79 dd be 8b 48 95 bd
       -0.47374487 -0.3584876 -0.43256992 -0.07289227
000060 bc d5 c7 be 8c 0b e3 be fe 55 c2 be 87 5c 08 bf
       -0.39030254 -0.44344747 -0.37956232 -0.53266186
000070 d3 f2 da be ea bf a6 be 47 46 08 bf 97 b0 b1 be
       -0.42763385 -0.32568294 -0.53232235 -0.3470504

net.layer2.1.running_mean f4 [32]
000000 00 00 00 00 00 00 00 00 00 00 00 00 00 00 00 00
       0.0 0.0 0.0 0.0
000010 00 00 00 00 00 00 00 00 00 00 00 00 00 00 00 00
       0.0 0.0 0.0 0.0
000020 00 00 00 00 00 00 00 00 00 00 00 00 00 00 00 00
       0.0 0.0 0.0 0.0
000030 00 00 00 00 00 00 00 00 00 00 00 00 00 00 00 00
       0.0 0.0 0.0 0.0
000040 00 00 00 00 00 00 00 00 00 00 00 00 00 00 00 00
       0.0 0.0 0.0 0.0
000050 00 00 00 00 00 00 00 00 00 00 00 00 00 00 00 00
       0.0 0.0 0.0 0.0
000060 00 00 00 00 00 00 00 00 00 00 00 00 00 00 00 00
       0.0 0.0 0.0 0.0
000070 00 00 00 00 00 00 00 00 00 00 00 00 00 00 00 00
       0.0 0.0 0.0 0.0

net.layer2.1.running_var f4 [32]
000000 00 00 80 3f 00 00 80 3f 00 00 80 3f 00 00 80 3f
       1.0 1.0 1.0 1.0
000010 00 00 80 3f 00 00 80 3f 00 00 80 3f 00 00 80 3f
       1.0 1.0 1.0 1.0
000020 00 00 80 3f 00 00 80 3f 00 00 80 3f 00 00 80 3f
       1.0 1.0 1.0 1.0
000030 00 00 80 3f 00 00 80 3f 00 00 80 3f 00 00 80 3f
       1.0 1.0 1.0 1.0
000040 00 00 80 3f 00 00 80 3f 00 00 80 3f 00 00 80 3f
       1.0 1.0 1.0 1.0
000050 00 00 80 3f 00 00 80 3f 00 00 80 3f 00 00 80 3f
       1.0 1.0 1.0 1.0
000060 00 00 80 3f 00 00 80 3f 00 00 80 3f 00 00 80 3f
       1.0 1.0 1.0 1.0
000070 00 00 80 3f 00 00 80 3f 00 00 80 3f 00 00 80 3f
       1.0 1.0 1.0 1.0

net.layer3.0.weight f4 [32, 32, 3, 3]
000000 0f 24 4c 3d d8 bc 0a bd 7b 93 0a bd f2 4e 98 bd
       0.049839076 -0.0338715 -0.033832055 -0.074369326
000010 66 bc 2c be 6c 09 cb bd f5 df ca bd aa 29 9d be
       -0.16868743 -0.099139065 -0.09905998 -0.3069585
000020 1f b5 cb be 5e ac 44 3e e3 09 80 3d 72 82 74 3d
       -0.39786622 0.19206378 0.06251886 0.059694715
000030 73 55 c9 3d 4e 28 8f 3d 95 b8 3f 3e e7 7f e7 3d
       0.09830751 0.069901094 0.18722756 0.11303692
000040 3f 17 a6 3e f1 9b 20 be 7a 82 6c 3e 3b ad 16 be
       0.3243961 -0.15684487 0.23096648 -0.1471452
000050 b8 c0 ac be 2c ba da bd 09 51 f7 3d 93 07 93 3d
       -0.33740783 -0.10680041 0.12076003 0.07179179
000060 3e b8 01 be 24 9b c3 bd 44 22 b2 bd 5b 89 d4 be
       -0.12667939 -0.09551075 -0.08697942 -0.41511044
000070 d3 97 6c be e6 e2 3f bc e7 ea af bc ba cc 4b 3e
       -0.23104791 -0.011711812 -0.021474315 0.19902316
000080 89 ef 14 3d ec 2d 0f 3d 8b a0 90 3d 08 d6 b2 3e
       0.03636125 0.034955904 0.07061871 0.34928918
000090 c9 16 e0 be bb d4 a9 be 0a d0 69 be 1c 9b 0a 3d
       -0.43767384 -0.33170113 -0.22833267 0.03383933
0000a0 bf 35 23 3e 34 8c ce 3c 22 53 13 3e 07 9b f7 3d
       0.15938471 0.025213338 0.14387181 0.12090116
0000b0 e4 a8 d0 bd 61 4d 47 be 3d a8 b6 bd 28 ad 55 3e
       -0.10188463 -0.19463111 -0.08918808 0.20866835
0000c0 f7 97 00 be 3c cf de bd 98 0c 24 3e fb 69 a7 bd
       -0.1255797 -0.108793706 0.16020429 -0.08174511
0000d0 c7 ee f3 bd 7f 3c ac 3d 25 35 96 3e 1c d8 d0 3d
       -0.119107775 0.08409976 0.2933742 0.101974696
0000e0 57 7c f0 bc 96 62 82 3e f0 b5 d4 bc 3b 1e 29 bd
       -0.029356165 0.2546584 -0.02596566 -0.041288596
0000f0 a2 e9 d8 3c 54 fd 13 3e 60 c4 00 3e 22 78 8e bb
       0.026478592 0.14452106 0.12574911 -0.004347817
000100 8b fa 47 be 43 49 83 be 4c f7 4e be 69 f1 c5 be
       -0.19529168 -0.25641832 -0.20211524 -0.38660744
000110 c8 c5 ce bd ae 15 37 be 53 cf 8f be d2 47 ad 3d
       -0.100963175 -0.17879364 -0.28087863 0.08460964
000120 cf b8 84 3c 3f 48 0f 3d 43 df f1 3d a7 39 b5 bd
       0.016201405 0.03498101 0.11810162 -0.08848887
000130 6a 1e 8b 3e 64 61 ac 3e f7 7b 74 bd f2 1a e8 3c
       0.27171642 0.33668053 -0.059688535 0.028333161
000140 fe cc 2b 3b f0 e3 bd 3d eb aa 54 3e d7 a4 3d 3e
       0.0026214714 0.09271991 0.20768325 0.18519913
000150 30 d4 52 bd eb 02 43 3d 8b f7 39 bd 76 85 64 be
       -0.05147189 0.047610205 -0.04540209 -0.22316536
000160 61 2a 84 bd a9 f3 51 3b 83 97 ee 3d 86 62 9c be
       -0.06453396 0.0032036102 0.11649992 -0.30543917
000170 f7 c0 68 be a2 38 64 3d f3 ff 9a be c3 f4 fe bd
       -0.2272986 0.05571807 -0.302734 -0.12449028
000180 1e 64 0b be 68 6d eb be ee 4c aa 3d 1a 86 94 3e
       -0.1361241 -0.45981908 0.083154544 0.2900856
000190 b3 2d 39 3e 73 ba 06 bd cb 5e c4 3d 94 59 2d 3e
       0.18083839 -0.032892656 0.09588393 0.16928703
0001a0 da 2e 12 be b0 73 11 bd 1d 19 35 be e5 f0 cf bd
       -0.14275685 -0.03551072 -0.17685361 -0.10153369
0001b0 27 c5 90 be 8d d4 92 3e 56 46 55 3d 9c 6a a7 be
       -0.28275415 0.28677788 0.05206903 -0.32698524
0001c0 d9 53 a7 3e 9a 0d 38 3e ba 64 83 be 02 c6 58 be
       0.32681158 0.17973939 -0.25662786 -0.21169284
0001d0 a6 b0 cf be e1 f4 48 3e b8 96 2a 3e af 0f db 3d
       -0.4056446 0.19624664 0.16659057 0.10696351
0001e0 aa 3e 12 3e 5d 1d bc 3d 2c 9f 9a 3e 92 18 9b 3b
       0.14281717 0.09185288 0.30199564 0.0047331536
0001f0 e4 56 11 3e f1 21 2a bd f2 a4 dd bd fa 2c 94 bd
       0.14193302 -0.041536275 -0.108224764 -0.07235141
000200 9c e2 b0 bd 1d 16 b6 bd 51 12 13 be 8f 5c c9 bc
       -0.08636972 -0.088909365 -0.14362456 -0.024580268
000210 7b 0c 87 be 29 b0 57 be f9 2b e8 bd b5 a0 65 3d
       -0.2637671 -0.21063294 -0.11336512 0.056061465
000220 7a 51 02 3e f9 44 b2 3d 89 43 cb 3d 11 5a c8 3d
       0.12726393 0.08704562 0.09924991 0.09782804
000230 a0 35 70 3d 27 06 3f 3e b6 be b6 3d 3f 6a d6 3d
       0.05864489 0.1865469 0.08923094 0.104694836
000240 52 fb d2 3e 00 91 03 3c d5 a0 55 be d0 9e c9 3e
       0.41207367 0.008030176 -0.20862134 0.39378977
000250 c7 1e 05 3f 6e d9 04 be ce fb b4 3d d8 77 5e 3e
       0.5200009 -0.12973568 0.088370904 0.21725404
000260 b5 af 59 bd 83 1b 93 bc ee ae ea 3c 7a b3 d4 3d
       -0.053146083 -0.017957455 0.028647866 0.10385795
000270 6b 43 a5 bd a5 7f 40 3e c7 39 97 3c 5c 36 a2 be
       -0.080694996 0.18798693 0.018460168 -0.31682098
000280 2a 89 e5 be b7 14 3d be d5 33 25 be d0 d2 69 3d
       -0.4483121 -0.18464933 -0.16133054 0.057085812
000290 aa 0a 1c be e9 eb ae 3c 4e ed 8c bd 39 41 1c be
       -0.15238443 0.021352725 -0.068812 -0.15259255
0002a0 ab b8 61 3e 7d 68 46 3e 3f 29 b4 3d bc 6c c6 3e
       0.22043101 0.19375797 0.087969296 0.38754833
0002b0 51 30 32 3e d7 10 f4 bd e3 e7 75 be d8 ad c3 bd
       0.17401244 -0.119172744 -0.24014239 -0.095546424
0002c0 7f 50 04 be 2d 3e fc bd c0 f2 96 be 40 9a 68 3e
       -0.12921332 -0.123165466 -0.2948208 0.22715092
0002d0 50 c6 5d 3d 24 e1 18 bd d4 37 74 3e 66 75 f6 bb
       0.054144204 -0.037324086 0.23849422 -0.007521319
0002e0 8b f2 8e bd f1 55 de bd e0 6f 74 be 30 17 72 bd
       -0.06979855 -0.10856236 -0.23870802 -0.059104145
0002f0 38 e2 80 be 68 8d 1e be b6 10 23 3d 71 77 48 3e
       -0.2517259 -0.1548363 0.03981086 0.19576813
000300 a3 d8 47 3e eb 81 75 3e b9 9d 8f bc 08 11 3b 3d
       0.19516234 0.23975341 -0.017531263 0.04567054
000310 8d 26 6d be 8d 4b 8f be f3 24 fe 3d b4 fe 8a 3d
       -0.23159237 -0.27987328 0.12409391 0.06786862
000320 e1 d9 37 be 56 9b 5c be 0e a1 b4 be e4 79 36 bd
       -0.17954208 -0.21543631 -0.35279125 -0.044549838
000330 41 e6 9b be f1 ad 0e bf 9b a6 e3 bd 58 a8 6c 3d
       -0.30449107 -0.55734164 -0.11115762 0.057777733
000340 da 06 44 3e f4 ec 5e 3e 56 9d bd be 34 6d 73 bd
       0.19143239 0.21770078 -0.370341 -0.059430316
000350 4e da 42 bd e9 d1 bc bd 09 2d c1 3c fc 8e 97 bd
       -0.047571473 -0.09219725 0.023581045 -0.07400319
000360 e3 24 f7 3d 5d 89 81 3e eb af 27 3e b3 6d 1a 3e
       0.120675825 0.25300112 0.16375701 0.1508091
000370 9c 1f 23 3e 97 e0 fd 3d 7d 54 0a be a4 9a a9 bd
       0.15930027 0.12396353 -0.13508792 -0.082814485
000380 a3 9f 12 be 35 cf 92 be f7 70 3e be 5a 47 a1 be
       -0.14318709 -0.2867371 -0.1859778 -0.3149975
000390 30 f3 30 3d 53 39 70 3e d6 e7 74 3e 5f ae 2a bf
       0.04320067 0.23459367 0.23916563 -0.6667232
0003a0 29 fb f2 be 5c bd 4f be 86 ad 0a 3e d2 27 4c 3e
       -0.47457245 -0.20287079 0.13542756 0.19937065
0003b0 7d 14 4c 3e bb 6c e8 bb 43 c9 60 3e 40 2a 4e 3e
       0.1992969 -0.00709304 0.21951775 0.20133305
0003c0 db e6 dc 3d 7b 2b 9f bd 87 c5 01 3d c6 53 b8 bd
       0.1078622 -0.07771965 0.031682517 -0.090003535
0003d0 29 73 2e be 3d d2 55 be 9b 29 20 3e 8f b8 1a 3e
       -0.17036118 -0.20880981 0.15640871 0.15109466
0003e0 db 62 37 3d 83 b2 08 bd da 73 54 3e f0 66 47 be
       0.04477201 -0.033373367 0.20747319 -0.19472861
0003f0 22 ae e2 bd 34 2a f9 bd 18 61 7d 3d c5 29 8f 3d
       -0.110683694 -0.12166253 0.061860174 0.06990389

net.layer3.0.bias f4 [32]
000000 c5 98 63 3d 60 24 af bc 7c 87 6d bb 0c 0c c6 3c
       0.055565614 -0.02137965 -0.0036244085 0.024175666
000010 a0 0a 48 3d 94 e7 64 3d d2 e6 3d bd af 5f 6c bd
       0.048838258 0.055884913 -0.046362706 -0.05770844
000020 02 50 c3 bb f7 50 63 bc 19 9f 46 bc 4c c9 62 bc
       -0.0059604654 -0.013874284 -0.012122893 -0.013841938
000030 ca 45 26 bd 5b 91 28 3b 34 a4 44 3d 2d 6f 5c bb
       -0.0405939 0.0025721404 0.04800816 -0.0033635602
000040 29 74 ee bc f5 59 97 3a e5 1b 6a 3d a7 e0 8f 3c
       -0.029108124 0.0011547195 0.05715551 0.017563177
000050 1a 06 15 3c ac 87 47 37 c2 9b f1 3c a3 67 81 3c
       0.009095693 1.1892913e-05 0.029493216 0.015796488
000060 cc 41 5c 3c 02 6a 3b bd 12 e4 2e 3d 9a 8f 8b 3c
       0.013443422 -0.045755394 0.042697974 0.017036248
000070 66 4a ba 3c c6 71 51 3d 5f aa 35 bc 75 f3 e6 bc
       0.022740554 0.051133893 -0.011087983 -0.028192261

net.layer3.1.weight f4 [32]
000000 c9 ab 50 3f 6a fb 32 3f 71 46 5d 3f 79 6c 90 3f
       0.81512123 0.6991488 0.8643561 1.1283103
000010 53 73 97 3f 4c bc 1b 3f f3 4d 8e 3f a6 4f 41 3f
       1.1832069 0.60834193 1.1117538 0.7551216
000020 78 cb 00 3f 44 60 62 3f a6 88 0a 3f f4 e3 07 3f
       0.5031047 0.8842814 0.5411476 0.53082204
000030 eb 5b d5 3e 24 ea 03 3f d7 cc 32 3f c4 a6 dc 3e
       0.4167169 0.51529145 0.6984381 0.43095982
000040 67 bc 4b 3f ed aa 13 3f 1f 91 68 3f a8 fa 5d 3f
       0.79584354 0.5768269 0.9084644 0.86710596
000050 48 ab a7 3f 68 20 8d 3f 29 a4 04 3f 9d 70 f0 3e
       1.3099146 1.1025515 0.5181299 0.46960917
000060 ba 4b 34 3f 5d be 4d 3f 55 bb 1b 3f 8f 59 27 3f
       0.7042805 0.80368596 0.6083272 0.6537103
000070 47 17 35 3f 96 e1 35 3f 73 3f 24 3f bc d9 92 3f
       0.70738643 0.7104734 0.64159316 1.1472697

net.layer3.1.bias f4 [32]
000000 25 71 3c bf a0 88 28 bf c3 6d 4c bf c5 74 8c bf
       -0.73610145 -0.65833473 -0.79854983 -1.0973135
000010 85 63 9a bf d0 85 fa be d9 c3 7c bf b5 96 44 bf
       -1.2061621 -0.48930216 -0.9873634 -0.7679246
000020 f8 89 b3 be d1 fb 59 bf 48 4d d1 be a2 ad f5 be
       -0.350662 -0.85149866 -0.40879273 -0.47984034
000030 39 05 9d be aa 62 b3 be fc ad 1f bf 90 bc 10 bf
       -0.30668047 -0.35036212 -0.62374854 -0.56537724
000040 9f 1a 54 bf 65 64 d6 be 2d 85 37 bf d4 25 75 bf
       -0.8285312 -0.4187347 -0.71687585 -0.95760846
000050 35 d2 a6 bf 3f e2 a8 bf 88 ca e5 be 2c ae 86 be
       -1.30329 -1.3194045 -0.44881082 -0.26304758
000060 7d b5 1c bf 3c 51 26 bf 41 81 3a bf d3 27 2e bf
       -0.6121443 -0.64967704 -0.72853476 -0.68029517
000070 e8 15 00 bf 22 e9 21 bf 6f e5 53 bf 43 27 5a bf
       -0.50033426 -0.6324636 -0.8277196 -0.8521616

net.layer3.1.running_mean f4 [32]
000000 00 00 00 00 00 00 00 00 00 00 00 00 00 00 00 00
       0.0 0.0 0.0 0.0
000010 00 00 00 00 00 00 00 00 00 00 00 00 00 00 00 00
       0.0 0.0 0.0 0.0
000020 00 00 00 00 00 00 00 00 00 00 00 00 00 00 00 00
       0.0 0.0 0.0 0.0
000030 00 00 00 00 00 00 00 00 00 00 00 00 00 00 00 00
       0.0 0.0 0.0 0.0
000040 00 00 00 00 00 00 00 00 00 00 00 00 00 00 00 00
       0.0 0.0 0.0 0.0
000050 00 00 00 00 00 00 00 00 00 00 00 00 00 00 00 00
       0.0 0.0 0.0 0.0
000060 00 00 00 00 00 00 00 00 00 00 00 00 00 00 00 00
       0.0 0.0 0.0 0.0
000070 00 00 00 00 00 00 00 00 00 00 00 00 00 00 00 00
       0.0 0.0 0.0 0.0

net.layer3.1.running_var f4 [32]
000000 00 00 80 3f 00 00 80 3f 00 00 80 3f 00 00 80 3f
       1.0 1.0 1.0 1.0
000010 00 00 80 3f 00 00 80 3f 00 00 80 3f 00 00 80 3f
       1.0 1.0 1.0 1.0
000020 00 00 80 3f 00 00 80 3f 00 00 80 3f 00 00 80 3f
       1.0 1.0 1.0 1.0
000030 00 00 80 3f 00 00 80 3f 00 00 80 3f 00 00 80 3f
       1.0 1.0 1.0 1.0
000040 00 00 80 3f 00 00 80 3f 00 00 80 3f 00 00 80 3f
       1.0 1.0 1.0 1.0
000050 00 00 80 3f 00 00 80 3f 00 00 80 3f 00 00 80 3f
       1.0 1.0 1.0 1.0
000060 00 00 80 3f 00 00 80 3f 00 00 80 3f 00 00 80 3f
       1.0 1.0 1.0 1.0
000070 00 00 80 3f 00 00 80 3f 00 00 80 3f 00 00 80 3f
       1.0 1.0 1.0 1.0

net.layer4.0.weight f4 [32, 32, 3, 3]
000000 73 a3 15 3c 4a 6c 87 3d 20 82 99 3d 3a 79 34 bc
       0.009133208 0.066124514 0.074955225 -0.011015231
000010 2b 2c 6c 3d 71 35 52 bd f5 1c 30 be f6 7d 74 bd
       0.05765931 -0.051320497 -0.17198546 -0.05969044
000020 3b 4f 31 bd 18 3c 70 be 42 ef 77 be 69 01 22 be
       -0.04328845 -0.23460424 -0.24212363 -0.1582085
000030 92 ab ad be 65 9d 15 be ff b1 29 be 86 a8 2f be
       -0.3391996 -0.14610822 -0.16571806 -0.1715413
000040 14 20 92 3b 5e 7f 6c 3d c5 36 43 3e 54 79 5b 3e
       0.0044593904 0.057738654 0.19063862 0.21433002
000050 0f 94 76 3e 26 a7 4e 3e 1b e7 34 3e db c9 22 3c
       0.24079917 0.2018095 0.17666285 0.009935821
000060 aa f2 3d 3e 52 f8 7a 3e fd f2 19 3c 3c 1b 1a bd
       0.185496 0.24508789 0.009396312 -0.03762363
000070 9b 49 0f be 22 b4 a5 bd da 0d 20 be f8 61 5b be
       -0.13992922 -0.08090998 -0.15630284 -0.21424091
000080 af 40 95 bd 06 74 fe bd a2 7f 4b be cb 11 15 be
       -0.07287728 -0.124244735 -0.19872907 -0.14557569
000090 3f e2 e0 3d f7 1f af 3e f8 6a b2 3e 3c 86 b0 3d
       0.10980653 0.34204075 0.34847236 0.08619353
0000a0 d1 f5 5f 3e 61 e8 c5 3e 77 e1 9a 3e da 90 af 3e
       0.21871115 0.38653854 0.3025014 0.342902
0000b0 ba 60 d6 3e 7f 8c e0 bd 80 36 d8 bd 40 55 4e bd
       0.41870672 -0.109642975 -0.1055727 -0.05037427
0000c0 ca 0d 17 bc bb fd c0 bc 1a 1d 54 bc 4e 99 92 3c
       -0.009219596 -0.023558488 -0.0129463915 0.017895367
0000d0 5e db 4e bd 8e 7b b0 bd 74 0c b2 bd 2f 0e e4 bd
       -0.050502174 -0.08617316 -0.086937815 -0.11135518
0000e0 7d bd f7 bd ce dc ed bd 5d 22 91 bd 78 38 9c 3b
       -0.12096689 -0.11614381 -0.070866324 0.004767474
0000f0 66 7e aa bd 90 54 91 bd a8 de 5d 3d d2 16 d1 be
       -0.0832489 -0.07096207 0.05416742 -0.40837723
000100 2a 6c 5e be da 40 1c be 9a 19 c5 be 29 81 2e be
       -0.21720949 -0.15259114 -0.38496095 -0.17041458
000110 67 a2 8e 3d 58 83 dd bd 0d ef 13 3d 1f d5 1b 3e
       0.069645695 -0.108160675 0.03611665 0.15218018
000120 a3 36 ae 3e 05 65 3b 3e 24 33 81 3e 13 2e 49 3e
       0.3402606 0.18300255 0.2523433 0.19646482
000130 56 22 16 be eb d8 ce bc 5d e5 ab 3e cd 02 a2 3c
       -0.14661536 -0.025249919 0.33573428 0.019776726
000140 94 fa a2 3d 22 02 50 3e 13 83 99 3e 30 b7 9b 3e
       0.0795795 0.20313314 0.29982814 0.30413198
000150 08 3e 93 3e 72 cc 1a 3e 17 b6 3d 3e a5 11 a5 3e
       0.28758264 0.15117052 0.18526493 0.32240024
000160 70 d4 63 3e 2e 93 3d 3e d1 47 f2 bd 9a 44 91 be
       0.22249007 0.18513176 -0.11830104 -0.2837265
000170 5a 9a 1b be 49 70 ff bd 93 7a cb bd 2e 44 5c 3d
       -0.15195599 -0.124725886 -0.099354886 0.05377596
000180 e8 91 bf bd 0c 7f 07 3d cb 54 45 3d 7a 8e 18 bf
       -0.09354001 0.033080146 0.048176568 -0.595924
000190 79 c2 a8 be 1d 7c 75 be 23 47 f2 be 48 41 83 be
       -0.3296087 -0.23973127 -0.47319898 -0.25635743
0001a0 13 14 1d be 11 5f 05 bf ce 6e 83 be c6 7e 4a be
       -0.15339689 -0.52098185 -0.25670475 -0.19774923
0001b0 f5 fe e6 3d 2e 6a 3c bd eb ca 43 bd 97 75 09 3d
       0.11279098 -0.0459997 -0.04780094 0.033559408
0001c0 79 01 35 3d c3 64 fa bd a3 3b 93 3d 8c df c6 3d
       0.044190858 -0.1222625 0.07189109 0.09710607
0001d0 44 a5 02 3d 34 87 3a 3e 68 67 9a 3d e8 ac f2 bd
       0.03189589 0.18215638 0.075392544 -0.118493855
0001e0 13 52 47 3c b7 ab 17 be 7c 5c 15 bd 92 40 2b bd
       0.012165564 -0.14811598 -0.036465153 -0.041809626
0001f0 3e b2 f3 bd 44 49 0c be 34 4b 49 be 74 1c 23 be
       -0.118992314 -0.13699824 -0.19657594 -0.15928823
000200 6a ca 4c bd 24 43 ec bd 6d 6f 95 bd 75 68 a2 bd
       -0.049997725 -0.115362436 -0.072966434 -0.0793008
000210 2a 1e ee bd 9c 45 10 be f4 12 41 bd 76 71 9e be
       -0.11626847 -0.14089054 -0.047137216 -0.3094594
000220 ec 40 b2 be eb 9d fc be 93 c3 77 be cf 4e bd be
       -0.34815156 -0.49339232 -0.241957 -0.3697419
000230 ef 98 9f be 0b 9f 96 be 7a a9 a6 be 9c 6d 91 be
       -0.31171367 -0.29418215 -0.32551175 -0.28403938
000240 0a 2d d1 bb 08 19 b8 3d 8c 41 16 bd 7f c4 15 3c
       -0.006383543 0.08989149 -0.036683604 0.009141087
000250 1c 4d 22 be 4e 57 77 bd 67 6c 0b be 39 15 6d be
       -0.15849727 -0.060385995 -0.13615571 -0.23152627
000260 9b 2a 85 bd 55 29 35 3e 41 de 81 3e d7 d5 97 3e
       -0.06502267 0.17691548 0.2536488 0.29655334
000270 90 44 82 3d df 83 03 bd 1f bc c3 3d 72 82 8b bd
       0.063607335 -0.032108184 0.095573656 -0.0681199
000280 70 d6 58 bd e4 8b de bb 46 68 41 3d 2b 74 40 3d
       -0.05293888 -0.0067915786 0.047218584 0.046985786
000290 30 ed 69 3d c3 05 61 3e ea 16 0c 3e 31 98 57 bc
       0.057110965 0.21974854 0.13680616 -0.013158844
0002a0 7f 21 fb 3d 5a 31 01 3e 9d ce 10 3e 54 f9 c1 3d
       0.12262248 0.12616482 0.14141317 0.09471384
0002b0 38 b4 22 3e 03 5d 55 3e 0a b3 4a 3d 06 71 a8 3d
       0.1588906 0.20836262 0.04948715 0.082246825
0002c0 b1 a4 5e 3e 0d fd 90 bd 0f 85 11 3d 41 38 97 bc
       0.21742512 -0.070795156 0.035527285 -0.018459441
0002d0 3b c2 71 be 01 02 9c be c0 cb d4 bd 48 1f 13 be
       -0.2360925 -0.3047028 -0.10390425 -0.14367402
0002e0 11 47 ff bd d8 4b 0e be ce 05 27 be 0d 3d ff bd
       -0.12464727 -0.1389612 -0.16310808 -0.124628164
0002f0 45 8b 94 bd 2d 5a 35 bb 1f 26 8d bd 74 3e 30 be
       -0.07253126 -0.0027672157 -0.06892037 -0.17211324
000300 06 0f a7 bd 7f 54 8f 3c 58 29 ad 3c 6e 08 62 bd
       -0.08157162 0.017496346 0.021137878 -0.05518382
000310 4b b2 9c bd 6a 07 71 3d dc 5d 90 3e bd 82 7f 3e
       -0.07651194 0.05884496 0.2819661 0.24952216
000320 71 ff c7 3e 0e 8e 38 3d 47 4f 40 3d b2 0b 95 3e
       0.39062074 0.04505735 0.046950605 0.29110485
000330 51 17 4b 3e 54 9e b7 3e 61 fc fd 3e 1d 0e ff bd
       0.19833113 0.35862982 0.49606612 -0.12453864
000340 44 50 81 be f5 88 6c be ff a0 c8 bd 3e cf f6 bd
       -0.2525655 -0.2309912 -0.097963326 -0.12051247
000350 89 9d b5 bd aa ae c9 bd 72 a8 25 be 75 f4 20 3d
       -0.08867938 -0.09847768 -0.16177538 0.039295632
000360 ad 7b 54 3d 7e e9 22 3d a4 e3 af 3d 94 8d 3a bc
       0.05187576 0.039773457 0.08588341 -0.011386294
000370 e3 e2 a0 3d 27 be 42 3d b8 65 7f 3d 12 82 f6 3c
       0.07855775 0.047544625 0.062352866 0.03009132
000380 f7 84 a6 bc ce a3 0a 3e 7c fe df 3d f9 32 14 3e
       -0.020327074 0.13539049 0.10937211 0.1447257
000390 61 0d fa 3d 85 10 c9 3d ac 9f 55 3d f2 64 24 3e
       0.12209583 0.09817604 0.052154228 0.16054133
0003a0 cc 70 9f 3d ba 60 ab 3d 3f 4d c1 bc fc fa ef bd
       0.07785186 0.083680585 -0.023596404 -0.11717793
0003b0 25 12 ee bd ec b4 bd bc 2d 25 8b 3c e2 d4 3c be
       -0.116245545 -0.02315756 0.0169855 -0.18440583
0003c0 1a 2e bd 3d 61 88 7d 3d d9 f4 20 bd 78 fb 7e be
       0.09237309 0.06189764 -0.039296005 -0.24900615
0003d0 e7 15 a6 be 5d a7 0e bf ba 76 0c be 8c 26 57 be
       -0.32438585 -0.55724126 -0.13717166 -0.21010798
0003e0 01 6f c1 be 0e 80 b1 be 6e 58 83 be 5a 48 e4 be
       -0.37780002 -0.3466801 -0.25653404 -0.4458645
0003f0 e2 0f 03 be 2e 34 9a bd cd 6e 59 be e1 5d cc bd
       -0.12799028 -0.07529484 -0.21233673 -0.099788435

net.layer4.0.bias f4 [32]
000000 9c 8b d7 39 06 76 e2 bc f0 0c bf bc 37 cb 96 bd
       0.00041112013 -0.027644169 -0.023321599 -0.07362979
000010 4e 05 40 3c 0e a7 b9 3c 44 57 3f bd a1 04 dd 3c
       0.011720015 0.022662666 -0.046714082 0.026979746
000020 f8 35 14 be a2 b3 07 bd 99 94 09 3d 4f 29 77 bb
       -0.14473712 -0.033130296 0.03358898 -0.003771383
000030 48 00 8c bc 7d 65 df 3b 97 89 4e 3d f6 a6 92 bc
       -0.017089978 0.0068175183 0.050424185 -0.017901879
000040 41 27 26 3c 59 ef 66 3d 88 ae 97 3c 3e fa b0 3c
       0.010141195 0.056380603 0.01851584 0.0216037
000050 70 92 34 3d 54 4a 25 bd 56 b6 29 3c 54 52 38 3d
       0.044084966 -0.040354088 0.010358414 0.04500039
000060 5a 26 d3 3c b6 e5 2a bd 64 0c 35 3d e2 c5 11 3d
       0.025775123 -0.041722976 0.04420127 0.035589106
000070 89 14 10 bd 74 5d 15 3d ea 65 49 3d 2f b2 f4 3c
       -0.035175834 0.036466077 0.04916946 0.02987012

net.layer4.1.weight f4 [32]
000000 e2 59 be 3f 57 73 6d 40 1d b1 6b 40 b8 4d 4f 3f
       1.487118 3.7101648 3.6826851 0.80977964
000010 de 11 80 40 60 90 91 3e f1 58 80 40 b5 94 85 40
       4.002181 0.28430462 4.010857 4.1744027
000020 1e e5 54 3f d0 17 83 40 31 fe 65 40 3c 0b 86 40
       0.83162105 4.096657 3.5936396 4.1888714
000030 41 d6 50 40 3e 3a 6d 40 df d9 20 3f 33 d9 56 40
       3.263077 3.7066798 0.62832445 3.3570068
000040 d4 7f 78 40 29 db 44 40 e8 43 58 40 1c d9 6e 3e
       3.882802 3.0758765 3.3791447 0.23325008
000050 ee 11 14 40 b5 00 4c 40 b1 c2 61 40 c4 95 a2 3e
       2.3135943 3.1875432 3.527508 0.31754887
000060 ff 6a 6c 40 c2 dd 8e 40 fa 8e 6b 40 c7 6f 6f 40
       3.6940305 4.46457 3.6806016 3.7411973
000070 05 32 50 40 07 bf 93 40 88 2d 34 40 6f 5f 1f 40
       3.253053 4.617069 2.815279 2.4901998

net.layer4.1.bias f4 [32]
000000 4b 33 8a bf 1c 08 73 bf e1 8e 02 bf 81 76 cc be
       -1.0796903 -0.9493425 -0.50999266 -0.3993416
000010 46 b8 66 bf b1 4b 5f bf 17 d1 32 bf 66 c4 72 bf
       -0.9012493 -0.8722487 -0.69850296 -0.9483093
000020 03 a2 e6 be d6 31 2d bf db 18 80 bf 76 c0 93 bf
       -0.4504548 -0.6765417 -1.0007585 -1.154311
000030 3d f7 d3 bf a6 ad 56 bf 84 0d 58 bf 24 81 86 bf
       -1.6559826 -0.83858716 -0.84395623 -1.050816
000040 ac 2a a8 bf 59 b6 8e bf 94 51 a3 bf eb ec 4b bf
       -1.3138022 -1.1149398 -1.2759271 -0.79658383
000050 bf f7 67 bf d3 b8 91 bf 87 9c e0 bf 10 eb 20 bf
       -0.90612406 -1.1384529 -1.7547768 -0.62858677
000060 76 c3 87 bf 86 c7 02 c0 05 47 94 bf 2f 88 5b bf
       -1.0606525 -2.043428 -1.1584173 -0.85754675
000070 65 11 3f bf c9 90 a1 bf b2 ff a3 bf 1f 51 6e bf
       -0.74635917 -1.262231 -1.2812407 -0.9309253

net.layer4.1.running_mean f4 [32]
000000 00 00 00 00 00 00 00 00 00 00 00 00 00 00 00 00
       0.0 0.0 0.0 0.0
000010 00 00 00 00 00 00 00 00 00 00 00 00 00 00 00 00
       0.0 0.0 0.0 0.0
000020 00 00 00 00 00 00 00 00 00 00 00 00 00 00 00 00
       0.0 0.0 0.0 0.0
000030 00 00 00 00 00 00 00 00 00 00 00 00 00 00 00 00
       0.0 0.0 0.0 0.0
000040 00 00 00 00 00 00 00 00 00 00 00 00 00 00 00 00
       0.0 0.0 0.0 0.0
000050 00 00 00 00 00 00 00 00 00 00 00 00 00 00 00 00
       0.0 0.0 0.0 0.0
000060 00 00 00 00 00 00 00 00 00 00 00 00 00 00 00 00
       0.0 0.0 0.0 0.0
000070 00 00 00 00 00 00 00 00 00 00 00 00 00 00 00 00
       0.0 0.0 0.0 0.0

net.layer4.1.running_var f4 [32]
000000 00 00 80 3f 00 00 80 3f 00 00 80 3f 00 00 80 3f
       1.0 1.0 1.0 1.0
000010 00 00 80 3f 00 00 80 3f 00 00 80 3f 00 00 80 3f
       1.0 1.0 1.0 1.0
000020 00 00 80 3f 00 00 80 3f 00 00 80 3f 00 00 80 3f
       1.0 1.0 1.0 1.0
000030 00 00 80 3f 00 00 80 3f 00 00 80 3f 00 00 80 3f
       1.0 1.0 1.0 1.0
000040 00 00 80 3f 00 00 80 3f 00 00 80 3f 00 00 80 3f
       1.0 1.0 1.0 1.0
000050 00 00 80 3f 00 00 80 3f 00 00 80 3f 00 00 80 3f
       1.0 1.0 1.0 1.0
000060 00 00 80 3f 00 00 80 3f 00 00 80 3f 00 00 80 3f
       1.0 1.0 1.0 1.0
000070 00 00 80 3f 00 00 80 3f 00 00 80 3f 00 00 80 3f
       1.0 1.0 1.0 1.0
