mp/maml_omni_5way_1shot_best_step90000_conv_second.pt (torch, 462732 bytes, 26 tensors)

net.layer1.0.weight f4 [64, 1, 3, 3]
0.45607948 0.07378115 0.048823822 -0.52113724 0.34700227 -0.0023651007 -0.059351288 0.36860877
-0.058254275 -0.16771781 -0.1137752 -0.18348423 -0.06534493 0.89935154 0.45706475 -0.22046895
0.4055382 0.23122863 -0.20024097 -0.06304759 -0.2750476 -0.06318866 -0.48586643 0.28655258
0.26572397 0.52353764 0.18199517 0.19859008 0.3349874 0.5553385 0.16596693 -0.17852867
-0.49073222 -0.26318577 -0.16562441 -0.025054317 0.48824474 0.059374098 -0.18582973 -0.20084378
0.63348407 -0.14432769 -0.32092512 0.17224179 0.09835897 -0.63007814 -0.31118405 -0.118901365
-0.10064606 -0.25728273 -0.48357877 0.1640658 -0.086893514 -0.074066274 -0.019167047 -0.36204457
0.4164765 0.46062902 -0.26285335 0.167623 -0.10648335 -0.24772276 0.36181554 0.13939527
0.5944181 -0.047784124 -0.14513074 -0.4254999 0.49545002 0.17441861 -0.30738476 0.10691861
-0.02496115 0.040197123 -0.02403085 0.16671307 0.34932336 0.11357117 0.2602228 -0.5362772
0.30441064 -0.036418084 -0.22535843 -0.15895343 0.15331773 -0.2785658 -0.34579003 0.2633322
0.30018973 -0.6226605 0.025877913 -0.070727214 -0.23847403 0.055856016 0.7450138 -0.3067762
-0.16990893 -0.3603843 0.017992286 -0.15955977 0.13901861 1.0667654 -0.03946618 0.04854248
0.18489839 -0.1554429 0.21527326 1.2021343 0.097241096 0.13166462 -0.22600244 -0.25428334
-0.03500356 -0.30787662 0.42172882 -0.11090436 0.71659845 -0.39905405 0.080170184 0.37188447
0.037376367 0.49601138 -0.22243524 0.37199265 -0.18401182 0.042986114 0.12533255 0.3826805
0.50169367 0.4050256 -0.41700193 0.0059522097 0.30994526 -0.28591603 -0.041519564 -0.2989104
0.4926397 -0.19324654 0.17750748 -0.4679401 0.17417605 -0.1939437 0.3793895 -0.24316828
0.14408533 -0.0312634 -0.5084522 0.050561424 -0.37126088 0.359633 -0.324895 -0.06682047
0.40665412 -0.3808549 0.039606437 0.50517046 -0.06373907 0.10436524 -0.12583901 -0.24151137
-0.22336732 0.66080636 0.11091573 -0.52904594 0.4434384 0.20795323 0.4773858 0.15222462
0.07169433 -0.095053166 -0.07431905 -0.024330795 -0.081491694 0.052180026 0.045912903 -0.5973433
0.42430696 0.35526183 0.4365181 0.17977956 -0.2835223 -0.38206166 0.18035093 0.049007505
0.27028444 0.59414715 0.21489297 0.18322806 -0.21966863 0.17509021 -0.36276016 0.09599321
0.37743932 -0.3043767 0.4265278 0.12905167 0.4349734 -0.017422209 -0.18712065 0.06774964
0.33361557 0.011795649 -0.38079226 0.37699944 0.5388133 -0.35087508 0.022495952 0.29691678
-0.23103586 0.055784285 -0.08861912 0.16924351 0.40287462 -0.067542486 0.4789616 -0.39838836
0.13617924 -0.23087047 0.118876085 -0.037947506 -0.027339233 -0.142084 -0.43821225 0.78208804
-0.34763408 -0.36342275 0.3477399 -0.0904573 -0.3352933 0.4117884 -0.014666783 -0.28580084
0.44768935 -0.17851874 0.49232218 0.27318576 0.25926363 -0.1896679 -0.101790495 -0.49426156
-0.025155457 0.22633949 0.3250994 0.85877377 0.3999159 -0.17651007 -0.20245668 -0.28847516
-0.032852247 -0.10042089 0.06755923 0.39667207 -0.06558741 0.59258497 -0.1968074 0.050332304
00000000: 4083 e93e 921a 973d 7dfb 473d 4069 05bf
00000010: 48aa b13e ceff 1abb 561a 73bd 4aba bc3e
00000020: 099c 6ebd 38be 2bbe f902 e9bd 4ae3 3bbe
00000030: 90d3 85bd e73b 663f 6404 ea3e 9dc2 61be
00000040: b4a2 cf3e 33c7 6c3e f80b 4dbe 181f 81bd
00000050: 0ad3 8cbe 0e69 81bd 7cc3 f8be 05b7 923e
00000060: f90c 883e 9006 063f f15c 3a3e 335b 4b3e
00000070: 7883 ab3e aa2a 0e3f 3cf3 293e 38d0 36be
00000080: 4141 fbbe 49c0 86be 7299 29be b63e cdbc
00000090: 37fb f93e 4132 733d 264a 3ebe fea9 4dbe
000000a0: 032c 223f a3ca 13be 4c50 a4be 2760 303e
000000b0: 6d70 c93d cd4c 21bf 8453 9fbe 8f82 f3bd
000000c0: 861f cebd 90ba 83be a397 f7be dd00 283e
000000d0: 3af5 b1bd 0fb0 97bd 3604 9dbc e85d b9be
000000e0: 683c d53e 91d7 eb3e b794 86be 5da5 2b3e
000000f0: f113 dabd 09ab 7dbe e33f b93e a2bd 0e3e
00000100: c92b 183f 49b9 43bd 279d 14be 1fdb d9be
00000110: a0ab fd3e cb9a 323e 8961 9dbe 25f8 da3d
00000120: 537b ccbc bda5 243d 58dc c4bc d5b6 2a3e
00000130: 83da b23e 0098 e83d ec3b 853e 7649 09bf
00000140: b6db 9b3e 212b 15bd 5cc4 66be b0c4 22be
00000150: 53ff 1c3e 2da0 8ebe 640b b1be 7ad3 863e
00000160: 78b2 993e ae66 1fbf ebfd d33c 6ed9 90bd
00000170: 8932 74be 47c9 643d 39b9 3e3f c511 9dbe
00000180: 9bfc 2dbe 4a84 b8be 8f64 933c a363 23be
00000190: e55a 0e3e c58b 883f 4aa7 21bd 7bd4 463d
000001a0: 0156 3d3e 6c2c 1fbe 9870 5c3e 89df 993f
000001b0: 5726 c73d 17d3 063e 2f6d 67be 6d31 82be
000001c0: e55f 0fbd 01a2 9dbe d7ec d73e d321 e3bd
000001d0: ff72 373f d050 ccbe 4430 a43d a467 be3e
000001e0: f617 193d 34f5 fd3e 10c6 63be d275 be3e
000001f0: 986d 3cbe 3512 303d 2d57 003e b3ee c33e
00000200: ff6e 003f 845f cf3e 4781 d5be c10a c33b
00000210: 25b1 9e3e 9663 92be 6b10 2abd c90a 99be
00000220: 453b fc3e 6ce2 45be 85c4 353e d895 efbe
00000230: 355b 323e 2d99 46be 573f c23e 1b01 79be
00000240: 1b8b 133e 0d0e 00bd ec29 02bf 7f19 4f3d
00000250: e815 bebe d121 b83e a358 a6be 2cd9 88bd
00000260: f834 d03e 6aff c2be 5c3a 223d da52 013f
00000270: a189 82bd 71bd d53d f1db 00be c24e 77be
00000280: 67ba 64be 9b2a 293f c927 e33d 8e6f 07bf
00000290: 5c0a e33e b1f1 543e e96b f43e c5e0 1b3e
000002a0: 7ad4 923d 3cab c2bd 9634 98bd 6051 c7bc
000002b0: 1ee5 a6bd b9ba 553d 2b0f 3c3d 7eeb 18bf
000002c0: c33e d93e e1e4 b53e 4d7f df3e 2218 383e
000002d0: d629 91be 969d c3be eaad 383e 18bc 483d
000002e0: b962 8a3e 071a 183f e70c 5c3e 23a0 3b3e
000002f0: d0f0 60be d94a 333e b3bb b9be 1798 c43d
00000300: ba3f c13e 43d7 9bbe da61 da3e 1f26 043e
00000310: d5b4 de3e 05b9 8ebc 8e9c 3fbe 53c0 8a3d
00000320: a9cf aa3e 8a42 413c 34f7 c2be 1206 c13e
00000330: abef 093f e6a5 b3be 6e49 b83c 7a05 983e
00000340: aa94 6cbe 107e 643d f17d b5bd 2c4e 2d3e
00000350: 9545 ce3e b753 8abd 743a f53e 8ff9 cbbe
00000360: 9272 0b3e 4f69 6cbe 4e75 f33d d86e 1bbd
00000370: 87f6 dfbc 787e 11be 5b5d e0be ec36 483f
00000380: 18fd b1be 8c12 babe f70a b23e ad41 b9bd
00000390: 90ab abbe eed5 d23e f24c 70bc 7d54 92be
000003a0: 8a37 e53e 9ecd 36be a711 fc3e 01df 8b3e
000003b0: 34be 843e 4d38 42be 8977 d0bd da0f fdbe
000003c0: d112 cebc 8ac5 673e 6e73 a63e 99d8 5b3f
000003d0: c7c1 cc3e 0ebf 34be ce50 4fbe 04b3 93be
000003e0: 1490 06bd 78a9 cdbd 7e5c 8a3d 9a18 cb3e
000003f0: b152 86bd a6b3 173f e187 49be 3f29 4e3d

net.layer1.0.bias f4 [64]
-0.36370042 -0.17028192 0.09368557 0.3905988 0.059270356 0.18061565 -0.068317235 0.45295238
0.38483346 0.10683958 -0.030879498 -0.18055125 0.107481435 0.021228718 -0.075009674 0.096461676
-0.17703818 -0.30459663 0.036598425 0.34157524 -0.080435164 0.1369672 0.33414492 -0.42507434
0.029829828 0.20769818 0.2644193 -0.2192978 -0.110428736 0.30367154 -0.24027613 -0.115004025
-0.10195236 -0.21910834 0.096402965 -0.058813334 -0.37311476 -0.23919472 0.08445445 0.07201374
0.37048444 0.2738665 -0.09733457 0.4240635 0.08375696 0.07517476 0.16417462 0.23665543
-0.120123915 0.18925492 0.30852205 0.108297706 -0.20451699 0.38378474 0.47386116 -0.15976278
0.14275648 0.20140618 0.35948786 0.22454433 -0.029556362 0.09559065 -0.04528066 0.44091296
00000000: f136 babe 625e 2ebe 38de bf3d 91fc c73e
00000010: 79c5 723d 4ff3 383e e8e9 8bbd 60e9 e73e
00000020: e408 c53e b6ce da3d 00f7 fcbc 6de2 38be
00000030: 3a1f dc3d d9e7 ad3c ac9e 99bd b38d c53d
00000040: 7f49 35be 17f4 9bbe 3be8 153d f3e2 ae3e
00000050: 31bb a4bd 2141 0c3e 0b15 ab3e 58a3 d9be
00000060: af5d f43c d5ae 543e f761 873e 9a8f 60be
00000070: 7628 e2bd d67a 9b3e f20a 76be 3b87 ebbd
00000080: 66cc d0bd f05d 60be eb6e c53d 40e6 70bd
00000090: e608 bfbe 76ef 74be 74f6 ac3d f17b 933d
000000a0: 23b0 bd3e 3b38 8c3e 5957 c7bd da1e d93e
000000b0: c588 ab3d 39f5 993d 641d 283e cd55 723e
000000c0: 8703 f6bd 0bcc 413e 9af6 9d3e 30cb dd3d
000000d0: e76c 51be 6f7f c43e ee9d f23e db98 23be
000000e0: c12e 123e 6c3d 4e3e cb0e b83e f3ee 653e
000000f0: 2f20 f2bc 08c5 c33d 3778 39bd 58bf e13e

net.layer1.1.weight f4 [64]
1.4490026 1.2944463 0.5724985 0.5080519 0.73284155 0.51211804 0.7236288 0.8480344
1.7000185 0.5720578 0.6458631 1.2352235 0.4711988 1.1668202 1.5547067 0.46712148
0.62484074 0.48988163 1.182205 1.2248502 0.8186942 1.3930144 0.3727888 1.2672541
0.62204945 0.5533612 0.7495685 0.13891903 1.629991 0.68758035 0.7601232 0.95896405
0.71077895 0.92449343 1.3446251 1.5342827 1.1928792 1.0681664 0.8870971 0.5496173
1.5443063 1.3293133 0.83413845 0.78830343 0.68057907 0.81043845 1.4493965 0.24935046
0.7492578 0.85631824 1.6874082 0.6323239 1.458491 0.5411002 0.7773446 0.59453404
0.65281063 0.6145214 0.93235636 0.68639034 0.5069336 1.4494828 1.0291826 1.5450101
00000000: eb78 b93f 6bb0 a53f 438f 123f b00f 023f
00000010: 819b 3b3f 2b1a 033f bd3f 393f c818 593f
00000020: 359a d93f 6172 123f 4957 253f ce1b 9e3f
00000030: f840 f13e 5d5a 953f a100 c73f 8c2a ef3e
00000040: 90f5 1f3f c4d1 fa3e 7e52 973f e4c7 9c3f
00000050: f195 513f 4c4e b23f 2cde be3e 6235 a23f
00000060: a23e 1f3f 14a9 0d3f b9e3 3f3f ca40 0e3e
00000070: 8ca3 d03f 4405 303f 6f97 423f ab7e 753f
00000080: 9cf5 353f 9aab 6c3f ad1c ac3f 6063 c43f
00000090: 44b0 983f adb9 883f cc18 633f b8b3 0c3f
000000a0: d4ab c53f f026 aa3f 198a 553f 41ce 493f
000000b0: 6e3a 2e3f e578 4f3f d385 b93f ba55 7f3e
000000c0: 5ccf 3f3f ac37 5b3f fefc d73f fbdf 213f
000000d0: d5af ba3f 8b85 0a3f 0e00 473f 6233 183f
000000e0: 991e 273f 4651 1d3f e8ae 6e3f 47b7 2f3f
000000f0: 67c6 013f a788 b93f 41bc 833f e4c2 c53f

net.layer1.1.bias f4 [64]
-0.6848776 -0.7426347 -0.08371999 0.22007349 -0.19820789 -1.1883894 -0.21039452 -0.42229426
-0.97088015 -1.1016016 -1.5819318 -0.02253853 0.12612145 -0.5205945 -0.6969596 -0.8675649
-1.2740067 -0.047455635 -0.58526915 -0.66225606 -0.2293555 -0.69169205 -0.083024904 -0.5614065
-1.050492 0.07634724 -0.33228743 0.90370756 -0.48709416 -0.31667778 -0.24537854 -0.3502515
-0.6374452 -0.46169984 -0.60798603 -0.29079142 -0.63031125 -0.46834284 -0.26710126 -1.3698231
-0.84776205 -0.5921421 -0.15693922 -0.34744838 -0.022854306 -0.32523933 -0.3017059 1.3952843
-1.6831737 -0.24803188 -0.6917672 -1.2678494 -0.6462806 -0.124034084 -0.29224616 -0.1764696
-1.2834562 -0.015930837 -0.51841927 -1.1729406 0.1629839 -0.7632576 -0.32801202 -0.7140095
00000000: 2354 2fbf 4f1d 3ebf 6375 abbd f25a 613e
00000010: 02f7 4abe 251d 98bf a971 57be f436 d8be
00000020: 9a8b 78bf 4801 8dbf be7c cabf b9a2 b8bc
00000030: fb25 013e ae45 05bf f26b 32bf bc18 5ebf
00000040: a712 a3bf d760 42bd 33d4 15bf 9d89 29bf
00000050: 2bdc 6abe bb12 31bf f608 aabd 56b8 0fbf
00000060: 8676 86bf f15b 9c3d 9421 aabe 6159 673f
00000070: 6864 f9be 9723 a2be 8344 7bbe 2a54 b3be
00000080: 9c2f 23bf ec63 ecbe f9a4 1bbf 9de2 94be
00000090: 145c 21bf a2ca efbe 7fc1 88be 5d56 afbf
000000a0: ef06 59bf a096 17bf adb4 20be c1e4 b1be
000000b0: f438 bbbc c585 a6be 3279 9abe ad98 b23f
000000c0: 3c72 d7bf 12fc 7dbe a817 31bf e448 a2bf
000000d0: a572 25bf 9505 febd 4aa1 95be 72b4 34be
000000e0: 4b48 a4bf 6381 82bc 20b7 04bf eb22 96bf
000000f0: 40e5 263e da64 43bf 31f1 a7be 54c9 36bf

net.layer1.1.running_mean f4 [64]
0.0 0.0 0.0 0.0 0.0 0.0 0.0 0.0
0.0 0.0 0.0 0.0 0.0 0.0 0.0 0.0
0.0 0.0 0.0 0.0 0.0 0.0 0.0 0.0
0.0 0.0 0.0 0.0 0.0 0.0 0.0 0.0
0.0 0.0 0.0 0.0 0.0 0.0 0.0 0.0
0.0 0.0 0.0 0.0 0.0 0.0 0.0 0.0
0.0 0.0 0.0 0.0 0.0 0.0 0.0 0.0
0.0 0.0 0.0 0.0 0.0 0.0 0.0 0.0
00000000: 0000 0000 0000 0000 0000 0000 0000 0000
00000010: 0000 0000 0000 0000 0000 0000 0000 0000
00000020: 0000 0000 0000 0000 0000 0000 0000 0000
00000030: 0000 0000 0000 0000 0000 0000 0000 0000
00000040: 0000 0000 0000 0000 0000 0000 0000 0000
00000050: 0000 0000 0000 0000 0000 0000 0000 0000
00000060: 0000 0000 0000 0000 0000 0000 0000 0000
00000070: 0000 0000 0000 0000 0000 0000 0000 0000
00000080: 0000 0000 0000 0000 0000 0000 0000 0000
00000090: 0000 0000 0000 0000 0000 0000 0000 0000
000000a0: 0000 0000 0000 0000 0000 0000 0000 0000
000000b0: 0000 0000 0000 0000 0000 0000 0000 0000
000000c0: 0000 0000 0000 0000 0000 0000 0000 0000
000000d0: 0000 0000 0000 0000 0000 0000 0000 0000
000000e0: 0000 0000 0000 0000 0000 0000 0000 0000
000000f0: 0000 0000 0000 0000 0000 0000 0000 0000

net.layer1.1.running_var f4 [64]
1.0 1.0 1.0 1.0 1.0 1.0 1.0 1.0
1.0 1.0 1.0 1.0 1.0 1.0 1.0 1.0
1.0 1.0 1.0 1.0 1.0 1.0 1.0 1.0
1.0 1.0 1.0 1.0 1.0 1.0 1.0 1.0
1.0 1.0 1.0 1.0 1.0 1.0 1.0 1.0
1.0 1.0 1.0 1.0 1.0 1.0 1.0 1.0
1.0 1.0 1.0 1.0 1.0 1.0 1.0 1.0
1.0 1.0 1.0 1.0 1.0 1.0 1.0 1.0
00000000: 0000 803f 0000 803f 0000 803f 0000 803f
00000010: 0000 803f 0000 803f 0000 803f 0000 803f
00000020: 0000 803f 0000 803f 0000 803f 0000 803f
00000030: 0000 803f 0000 803f 0000 803f 0000 803f
00000040: 0000 803f 0000 803f 0000 803f 0000 803f
00000050: 0000 803f 0000 803f 0000 803f 0000 803f
00000060: 0000 803f 0000 803f 0000 803f 0000 803f
00000070: 0000 803f 0000 803f 0000 803f 0000 803f
00000080: 0000 803f 0000 803f 0000 803f 0000 803f
00000090: 0000 803f 0000 803f 0000 803f 0000 803f
000000a0: 0000 803f 0000 803f 0000 803f 0000 803f
000000b0: 0000 803f 0000 803f 0000 803f 0000 803f
000000c0: 0000 803f 0000 803f 0000 803f 0000 803f
000000d0: 0000 803f 0000 803f 0000 803f 0000 803f
000000e0: 0000 803f 0000 803f 0000 803f 0000 803f
000000f0: 0000 803f 0000 803f 0000 803f 0000 803f

net.layer2.0.weight f4 [64, 64, 3, 3]
-0.22093278 -0.63349116 -0.2012124 -0.8233187 0.026626809 -0.41191596 -0.14841047 -0.16892916
-0.6926836 -0.24530743 -0.51411337 0.1758269 -0.6753439 -0.1359639 0.010520436 -0.13801748
-0.17309023 -0.19572921 -0.092138484 -0.28776076 -0.25679123 -0.10649151 -0.006860702 0.03679873
0.2966335 0.22153366 -0.04401226 0.12145997 -0.032616142 -0.18381676 0.117588386 -0.039851017
-0.22054361 0.1017952 0.061731044 -0.08981585 -0.7496792 -0.26560506 -0.27301237 -0.269274
0.05877925 -0.06820022 -0.44627693 -0.21653141 -0.07392371 -0.048354905 0.09251513 -0.009542568
-0.08271509 0.09856341 0.015799109 0.053989206 0.08586322 0.3991947 -0.13504443 -0.14196825
-0.55892396 0.083758086 -0.01244735 -0.16058232 -0.7153132 -0.15180676 -0.58266175 0.10006318
-0.21456909 -0.39074302 -0.21829157 0.022492113 0.15701437 0.09190634 0.3769941 -0.20936199
0.32009676 0.13040382 -0.30508745 0.38733283 0.44227186 0.09314055 -0.23799983 0.52560973
-0.6690533 0.09147152 0.039334845 -0.5615047 -0.18439656 -0.15891795 -0.4976813 0.22496524
-0.31539023 0.092826836 0.070216976 0.15498918 0.19494516 0.069478534 0.5961428 -0.005755201
0.01380827 -0.30730772 -0.30519205 0.28316045 -0.15804054 0.42256874 -0.20641455 -0.21647641
0.5292335 -0.12820318 -0.00973688 0.3078413 -0.12439721 -0.49029723 -0.5551077 0.035478335
0.2852843 -0.23011059 0.39851746 0.23039356 0.042746004 -0.16239712 -0.40801248 -0.68023694
0.2921776 -0.11944344 0.043313585 0.20116632 0.15283862 -0.31098717 0.22834596 0.25245938
0.015453353 -0.054489866 -0.09583494 -0.095333874 0.19112237 -0.081149414 0.18076801 -0.123716995
-0.35056692 0.02674694 -0.44465366 0.25635242 0.16475876 0.30004254 -0.003589499 0.35502648
-0.07731803 0.11451135 -0.025668152 -0.0033628775 0.36712778 -0.08365311 0.11598834 -0.21711543
-0.14131081 -0.68403083 -0.99647 -0.40987277 -0.46288207 -0.26639554 -0.02272859 -0.3994246
-0.25855473 -0.15425077 0.13628069 -0.08932921 -0.29465017 0.015366143 0.028593635 -0.041916523
0.102102354 -0.20598303 -0.46031117 0.26906997 -0.25341943 -0.205839 0.28519985 0.36606792
-0.0640792 0.0102524385 0.2234449 -0.6022149 -0.02520005 -0.0017277357 -0.16208304 -0.2800209
0.10386149 -0.005347728 0.2982912 0.031257644 -0.18788242 0.17326315 0.042893726 0.23812948
-0.44815314 -0.031377133 -0.084043846 -0.4077292 -0.026936423 0.30730128 -0.27004147 -0.5134911
-0.5353173 -0.6671033 0.07608071 -0.077065654 0.025967954 0.249519 0.11228003 0.21290559
-0.034094393 -0.19257899 0.09077075 0.25321826 -0.6319472 -0.18611129 -0.31898776 -0.43027666
-0.06863442 -0.28448653 -0.40630814 -0.2457199 0.11743906 -0.8340686 0.26467228 -0.009744016
-0.13550463 -0.7444117 -1.0782571 -0.2285598 -0.9497896 -0.27020922 -0.12909183 -0.5437384
-0.26190376 -0.416022 -0.1401724 -0.15567861 0.11431425 0.35200125 0.18237555 -0.1965674
0.3680259 0.11125597 0.16710047 0.11671947 -0.118111424 -0.06974553 0.13960566 0.14557742
-0.28962234 0.29499936 0.20064393 0.17458995 -0.3886232 -0.32838234 -0.01080274 -0.26662862
00000000: 343c 62be 7a2c 22bf a00a 4ebe 04c5 52bf
00000010: 7720 da3c a6e6 d2be eaf8 17be c4fb 2cbe
00000020: b653 31bf df31 7bbe ef9c 03bf f80b 343e
00000030: 56e3 2cbf 1f3a 0bbe e85d 2c3c 7454 0dbe
00000040: 913e 31be 3d6d 48be 1ab3 bcbd 6155 93be
00000050: 247a 83be 3918 dabd bdcf e0bb 44ba 163d
00000060: 59e0 973e b8d9 623e 3346 34bd 01c0 f83d
00000070: 8198 05bd 763a 3cbe 2ed2 f03d d23a 23bd
00000080: 2fd6 61be 007a d03d b1d9 7c3d 5ff1 b7bd
00000090: faea 3fbf 63fd 87be 47c8 8bbe 48de 89be
000000a0: 83c2 703d 8fac 8bbd 697e e4be 69ba 5dbe
000000b0: 5065 97bd cb0f 46bd 9378 bd3d 6e58 1cbc
000000c0: 8766 a9bd 9ddb c93d 226d 813c c923 5d3d
000000d0: 0ed9 af3d 3f63 cc3e 1649 0abe 2060 11be
000000e0: a415 0fbf 5c89 ab3d f8ef 4bbc b16f 24be
000000f0: c41e 37bf 3b73 1bbe 5229 15bf eded cc3d
00000100: 00b8 5bbe 780f c8be d387 5fbe 6141 b83c
00000110: 60c8 203e 6439 bc3d 5f05 c13e fd62 56be
00000120: b9e3 a33e 9488 053e 6c34 9cbe 7d50 c63e
00000130: 7571 e23e 79c0 be3d 3ab6 73be 5c8e 063f
00000140: 1447 2bbf 6c55 bb3d 931d 213d c6be 0fbf
00000150: 74d2 3cbe 63bb 22be 15d0 febe 4a5d 663e
00000160: d47a a1be ff1b be3d ebcd 8f3d 7cb5 1e3e
00000170: b49f 473e c34a 8e3d d19c 183f 2096 bcbb
00000180: 153c 623c 7057 9dbe 2242 9cbe 68fa 903e
00000190: 61d5 21be ee5a d83e 565e 53be feab 5dbe
000001a0: d97b 073f b247 03be 6f87 1fbc 609d 9d3e
000001b0: f7c3 febd 3d08 fbbe 8a1b 0ebf bb51 113d
000001c0: c910 923e 1ca2 6bbe 7b0a cc3e 4aec 6b3e
000001d0: 6f16 2f3d 6e4b 26be 03e7 d0be 0224 2ebf
000001e0: 4d98 953e c39e f4bd 9669 313d 8bfe 4d3e
000001f0: ba81 1c3e b639 9fbe 86d3 693e 5b42 813e
00000200: 0f30 7d3c c430 5fbd 1c45 c4bd 683e c3bd
00000210: 95b5 433e aa31 a6bd 401b 393e 565f fdbd
00000220: 827d b3be 661c db3c a5a9 e3be a040 833e
00000230: 85b6 283e 2d9f 993e cd3d 6bbb 08c6 b53e
00000240: ea58 9ebd ed84 ea3d 0446 d2bc b963 5cbb
00000250: 2cf8 bb3e 5252 abbd 4b8b ed3d 8253 5ebe
00000260: c8b3 10be a51c 2fbf a818 7fbf d8da d1be
00000270: e1fe ecbe ff64 88be 4f31 babc 6281 ccbe
00000280: 4961 84be eaf3 1dbe 2a8d 0b3e 3cf2 b6bd
00000290: 63dc 96be 46c2 7b3c 333d ea3c a9b0 2bbd
000002a0: 0a1b d13d 37ed 52be e8ad ebbe 8ac3 893e
000002b0: 31c0 81be 75c7 52be b705 923e 416d bb3e
000002c0: f53b 83bd d8f9 273c bdce 643e c12a 1abf
000002d0: 5670 cebc 3175 e2ba 19f9 25be e65e 8fbe
000002e0: 55b5 d43d fe3b afbb a0b9 983e 0408 003d
000002f0: 4064 40be e56b 313e 55b1 2f3d 37d8 733e
00000300: 5474 e5be 4f85 00bd 2e1f acbd e2c1 d0be
00000310: c6a9 dcbc 9856 9d3e e042 8abe 2774 03bf
00000320: 8e0a 09bf 48c7 2abf 34d0 9b3d 99d4 9dbd
00000330: bfba d43c e981 7f3e 13f3 e53d ec03 5a3e
00000340: 90a6 0bbd 6d33 45be 04e6 b93d d3a5 813e
00000350: 4bc7 21bf f593 3ebe 5d52 a3be 394d dcbe
00000360: 3490 8cbd 38a8 91be 9f07 d0be ff9d 7bbe
00000370: e483 f03d 8585 55bf 2083 873e 5ea5 1fbc
00000380: bac1 0abe c491 3ebf 5404 8abf 950b 6abe
00000390: 6925 73bf dd58 8abe a630 04be 7132 0bbf
000003a0: 4018 86be d600 d5be 5b89 0fbe 376a 1fbe
000003b0: 971d ea3d 8239 b43e a8c0 3a3e f748 49be
000003c0: e46d bc3e 2cda e33d 631c 2b3e 9e0a ef3d
000003d0: 67e4 f1bd bfd6 8ebd c9f4 0e3e 3f12 153e
000003e0: 6149 94be 280a 973e 9a75 4d3e b5c7 323e
000003f0: 9ff9 c6be bb21 a8be fafd 30bc 8c83 88be

net.layer2.0.bias f4 [64]
0.016914533 -0.013377788 -0.031905763 -0.018383438 0.0069608716 0.005198984 0.0267655 -0.006253844
-0.028134424 -0.019432195 0.073541895 0.0021147537 0.032056652 -0.00634959 -0.013980801 -0.008720697
-0.029504979 0.023904802 -0.0017334368 -0.029405588 0.043834228 0.00044601833 0.016578007 0.0137794195
0.040222645 0.0026369072 -0.009064181 -0.015549444 0.006108135 0.030717093 -0.0005930482 -0.03031738
0.0054709124 0.0042828023 -0.004743878 -0.0043212976 -0.030509705 0.014704828 0.03667114 0.0019021761
0.029988952 0.010979618 -0.040572498 0.00817464 -0.02679976 0.018755663 0.014760328 0.011084607
0.040016554 -0.044372845 0.020804403 0.07712322 0.032712895 0.020148119 0.03653036 0.038460545
-0.033027016 -0.0290518 0.022665108 0.007396345 0.030530471 0.02151412 0.021230781 -0.03244338
00000000: 5990 8a3c 822e 5bbc 9eaf 02bd dd98 96bc
00000010: 0618 e43b 3d5c aa3b 5243 db3c 0ced ccbb
00000020: 2a7a e6bc 4430 9fbc 229d 963d ae97 0a3b
00000030: d64d 033d 3910 d0bb bb0f 65bc 41e1 0ebc
00000040: 6db4 f1bc 01d4 c33c 7d34 e3ba fde3 f0bc
00000050: 858b 333d 91d7 e939 9ace 873c 13c3 613c
00000060: 80c0 243d f6cf 2c3b ee81 14bc 18c3 7ebc
00000070: c026 c83b 6aa2 fb3c ca76 1bba 275c f8bc
00000080: 5745 b33b c056 8c3b 8872 9bbb ac99 8dbb
00000090: 7def f9bc 85ec 703c 7a34 163d 7052 f93a
000000a0: 64ab f53c dbe3 333c 592f 26bd edee 053c
000000b0: 2c8b dbbc 7aa5 993c 4ed5 713c 369c 353c
000000c0: 66e8 233d 4dc0 35bd ff6d aa3c c7f2 9d3d
000000d0: f5fd 053d ab0d a53c dca0 153d ce88 1d3d
000000e0: 5647 07bd 0afe edbc 2dac b93c 0a5d f23b
000000f0: 0a1b fa3c 613e b03c 2dec ad3c 5ae3 04bd

net.layer2.1.weight f4 [64]
0.9227216 2.3443706 0.8139654 0.8037237 0.914068 0.70643765 0.7583597 0.83369386
0.5998413 1.1922041 0.87590855 0.80501395 0.78846735 1.0700245 0.7156566 0.64809674
0.7707406 0.74855655 0.58655846 0.7931528 0.73851407 0.7302227 0.82032835 0.7912343
0.5944424 1.3660334 1.132679 0.5515563 0.8578498 0.80889565 1.0804695 0.55872387
0.71153164 1.2464668 0.8766277 0.9552887 0.9961823 0.7637846 1.0384009 0.90600985
1.1874894 1.1656672 0.7795017 1.1715735 0.7506669 0.8141531 1.0242541 1.0520461
1.0232476 1.0176668 0.590119 1.5771548 0.813154 0.7978661 0.8944834 0.8421963
0.8880074 0.67564684 1.1252406 0.7825503 0.5429515 0.97744226 1.1797423 0.6466975
00000000: 7c37 6c3f 2b0a 1640 0960 503f d6c0 4d3f
00000010: 5c00 6a3f 19d9 343f dc23 423f f66c 553f
00000020: 338f 193f 259a 983f 8b3b 603f 6515 4e3f
00000030: ffd8 493f 90f6 883f 4535 373f abe9 253f
00000040: 424f 453f 67a1 3f3f b228 163f 100c 4b3f
00000050: 420f 3d3f e0ef 3a3f 0a01 523f 558e 4a3f
00000060: 612d 183f 2fda ae3f a0fb 903f cb32 0d3f
00000070: 0b9c 5b3f c913 4f3f d34c 8a3f 8708 0f3f
00000080: f026 363f 398c 9f3f ac6a 603f cd8d 743f
00000090: ce05 7f3f 6387 433f 52ea 843f 43f0 673f
000000a0: a7ff 973f 9534 953f 6c8d 473f 1ff6 953f
000000b0: b52b 403f 566c 503f c21a 833f 72a9 863f
000000c0: c7f9 823f e842 823f 0a12 173f 35e0 c93f
000000d0: dc2a 503f f440 4c3f ddfc 643f 2d9a 573f
000000e0: 7454 633f 31f7 2c3f e207 903f 3755 483f
000000f0: dffe 0a3f a839 7a3f cc01 973f f88d 253f

net.layer2.1.bias f4 [64]
-0.27541617 -0.70774776 -0.3960689 -0.44022155 -0.4489798 -0.6248879 -0.9258151 -0.77305454
-0.06078102 -0.7815728 0.02389792 -0.82221913 -0.7032378 -0.8009325 -0.17804576 -0.50045127
-0.109831244 -0.45429188 0.5250178 -0.871618 -0.78040296 -0.34139127 -0.12688139 -1.0394261
-0.48536018 -0.8312896 -1.0601244 -0.04015334 -1.3608656 -0.43361264 -0.7417451 -0.5268515
-0.96492517 -0.34371135 -0.88164455 -1.1020939 -0.71715355 -1.0377012 -0.91163737 -0.8318857
-0.8515988 -0.89243126 -1.0185411 -0.69511825 -0.28475177 -0.4685479 -0.42219967 -0.89674217
-1.1291251 -0.6035243 -0.5366372 -0.7135142 -0.41306704 -0.8603889 -1.1724391 -1.4496064
-0.64728355 -0.2880063 -1.3804028 0.15473309 -0.25008577 -1.3109742 -0.56642246 0.19581024
00000000: 5903 8dbe f52e 35bf 8bc9 cabe b864 e1be
00000010: aee0 e5be a7f8 1fbf 3802 6dbf e7e6 45bf
00000020: 85f5 78bd 2815 48bf 92c5 c33c f47c 52bf
00000030: 6407 34bf ea09 4dbf a151 36be 931d 00bf
00000040: 34ef e0bd f298 e8be 9167 063f 5b22 5fbf
00000050: 7dc8 47bf d6ca aebe 32ed 01be ea0b 85bf
00000060: 2181 f8be 65cf 54bf 28b2 87bf d477 24bd
00000070: d830 aebf 7a02 debe 02e3 3dbf bddf 06bf
00000080: 5605 77bf effa afbe 75b3 61bf 6a11 8dbf
00000090: 6097 37bf 65d3 84bf 1161 69bf 76f6 54bf
000000a0: 6102 5abf 6076 64bf 8e5f 82bf 45f3 31bf
000000b0: fcca 91be 83e5 efbe 8e2a d8be e590 65bf
000000c0: 2c87 90bf 9280 1abf 0e61 09bf dea8 36bf
000000d0: 867d d3be 7242 5cbf 7c12 96bf b48c b9bf
000000e0: 60b4 25bf 9075 93be 0ab1 b0bf 5a72 1e3e
000000f0: 3e0b 80be 01ce a7bf 1001 11bf 7b82 483e

net.layer2.1.running_mean f4 [64]
0.0 0.0 0.0 0.0 0.0 0.0 0.0 0.0
0.0 0.0 0.0 0.0 0.0 0.0 0.0 0.0
0.0 0.0 0.0 0.0 0.0 0.0 0.0 0.0
0.0 0.0 0.0 0.0 0.0 0.0 0.0 0.0
0.0 0.0 0.0 0.0 0.0 0.0 0.0 0.0
0.0 0.0 0.0 0.0 0.0 0.0 0.0 0.0
0.0 0.0 0.0 0.0 0.0 0.0 0.0 0.0
0.0 0.0 0.0 0.0 0.0 0.0 0.0 0.0
00000000: 0000 0000 0000 0000 0000 0000 0000 0000
00000010: 0000 0000 0000 0000 0000 0000 0000 0000
00000020: 0000 0000 0000 0000 0000 0000 0000 0000
00000030: 0000 0000 0000 0000 0000 0000 0000 0000
00000040: 0000 0000 0000 0000 0000 0000 0000 0000
00000050: 0000 0000 0000 0000 0000 0000 0000 0000
00000060: 0000 0000 0000 0000 0000 0000 0000 0000
00000070: 0000 0000 0000 0000 0000 0000 0000 0000
00000080: 0000 0000 0000 0000 0000 0000 0000 0000
00000090: 0000 0000 0000 0000 0000 0000 0000 0000
000000a0: 0000 0000 0000 0000 0000 0000 0000 0000
000000b0: 0000 0000 0000 0000 0000 0000 0000 0000
000000c0: 0000 0000 0000 0000 0000 0000 0000 0000
000000d0: 0000 0000 0000 0000 0000 0000 0000 0000
000000e0: 0000 0000 0000 0000 0000 0000 0000 0000
000000f0: 0000 0000 0000 0000 0000 0000 0000 0000

net.layer2.1.running_var f4 [64]
1.0 1.0 1.0 1.0 1.0 1.0 1.0 1.0
1.0 1.0 1.0 1.0 1.0 1.0 1.0 1.0
1.0 1.0 1.0 1.0 1.0 1.0 1.0 1.0
1.0 1.0 1.0 1.0 1.0 1.0 1.0 1.0
1.0 1.0 1.0 1.0 1.0 1.0 1.0 1.0
1.0 1.0 1.0 1.0 1.0 1.0 1.0 1.0
1.0 1.0 1.0 1.0 1.0 1.0 1.0 1.0
1.0 1.0 1.0 1.0 1.0 1.0 1.0 1.0
00000000: 0000 803f 0000 803f 0000 803f 0000 803f
00000010: 0000 803f 0000 803f 0000 803f 0000 803f
00000020: 0000 803f 0000 803f 0000 803f 0000 803f
00000030: 0000 803f 0000 803f 0000 803f 0000 803f
00000040: 0000 803f 0000 803f 0000 803f 0000 803f
00000050: 0000 803f 0000 803f 0000 803f 0000 803f
00000060: 0000 803f 0000 803f 0000 803f 0000 803f
00000070: 0000 803f 0000 803f 0000 803f 0000 803f
00000080: 0000 803f 0000 803f 0000 803f 0000 803f
00000090: 0000 803f 0000 803f 0000 803f 0000 803f
000000a0: 0000 803f 0000 803f 0000 803f 0000 803f
000000b0: 0000 803f 0000 803f 0000 803f 0000 803f
000000c0: 0000 803f 0000 803f 0000 803f 0000 803f
000000d0: 0000 803f 0000 803f 0000 803f 0000 803f
000000e0: 0000 803f 0000 803f 0000 803f 0000 803f
000000f0: 0000 803f 0000 803f 0000 803f 0000 803f

net.layer3.0.weight f4 [64, 64, 3, 3]
0.13922654 0.14375086 -0.14870499 0.36667088 0.19517688 -0.08262093 -0.00025360502 -0.011893241
-0.1907898 0.0143911475 0.37361068 -0.063400954 0.40494603 0.4949328 0.15029782 0.0085268
0.35734302 -0.027159343 -0.080623165 -0.042556338 -0.12269116 0.05622516 0.042228233 -0.112169065
0.09162034 0.02366806 -0.010660169 0.076456904 -0.11441747 0.00038559485 0.17849967 0.17723335
0.06521018 0.07357416 0.050255302 -0.12759446 -0.08978363 0.16716819 -0.12068985 0.03878224
0.2656126 0.04430096 0.029950565 0.19369082 -0.1571317 -0.0036473877 0.09192568 0.0026707675
-0.097691916 -0.024364633 -0.13846692 -0.034512494 -0.13477847 -0.13653181 -0.1266085 0.012531406
-0.038166046 -0.20750135 -0.17150912 -0.034566708 -0.13095501 -0.0137172 -0.027429065 0.15342498
-0.13017707 -0.06433354 -0.0954475 0.0040108194 -0.15319994 -0.04788878 -0.005702033 -0.16503376
0.071463816 0.114628606 -0.043647684 -0.17023075 0.10303428 -0.12525445 -0.09053552 -0.12663609
-0.20857932 0.0699922 0.071056075 0.027183473 0.087360285 0.11428277 0.08222125 -0.0039809234
-0.09487779 -0.06960844 0.24172573 0.1556194 0.08146422 0.021280425 -0.12020579 -0.2712086
-0.063122064 -0.2533764 -0.23276137 0.030579176 0.18121506 -0.043935593 0.007955474 0.19362547
-0.01880447 -0.039614998 0.013562549 -0.2106914 -0.11472916 -0.062159613 -0.024011547 -0.093880825
-0.078297265 -0.07695689 0.030974614 -0.11222285 -0.22896048 0.02928302 -0.072595686 -0.16089697
0.03502007 0.06274523 -0.18722245 -0.042874377 -0.0992998 -0.004379012 0.16998413 -0.06078469
-0.15864876 0.17700939 -0.045761913 -0.22657053 0.02140214 -0.12317154 -0.29543042 0.06534514
-0.020956246 0.023464553 -0.03162516 0.010253968 -0.0019072705 -0.064746946 -0.039655488 -0.12671939
-0.05106891 -0.03624567 0.056480274 -0.04262444 -0.059085216 0.022736348 -0.107160404 -0.11626733
-0.11890007 -0.07291369 0.009962423 -0.1509226 0.026544906 0.08497825 -0.1530759 -0.07507634
-0.076085165 -0.16409375 -0.15749747 0.040816065 -0.01766082 -0.102659196 -0.08379866 -0.06465388
-0.1361223 0.059304085 -0.03735553 0.07146275 0.11153 -0.0022222265 -0.0853337 -0.091096595
0.049470443 -0.062288504 -0.09962819 -0.15501471 -0.013855178 -0.068367325 -0.08308267 -0.15838172
-0.2675264 -0.22485688 0.012247674 -0.2415631 -0.08331945 -0.06743351 -0.10237814 -0.03552905
-0.118418775 -0.027759036 -0.108090565 0.009290786 -0.2694945 -0.09025433 0.063865215 -0.05837441
-0.05584073 -0.07928814 -0.13183434 0.04023406 0.039915007 -0.030999104 -0.3238653 -0.057225008
0.053979613 0.0048301117 -0.18119568 -0.09491139 -0.06486384 -0.12095441 -0.1612462 -0.22710188
0.09368015 -0.04315517 -0.07029746 -0.072797865 -0.030230043 0.0017279055 -0.021179033 -0.082110435
-0.17370883 -0.018767627 -0.12591425 -0.14198841 -0.07351539 -0.15659034 0.007876515 -0.121282615
-0.038276736 -0.16202384 -0.06814834 -0.19258039 0.0029962568 -0.06761223 -0.01671661 0.015104281
0.019892447 -0.064051494 -0.04057891 -0.054524638 -0.052014902 -0.060140476 -0.043095443 -0.032414168
-0.05238561 -0.11198647 0.06326203 -0.12702563 -0.07970859 -0.17679279 -0.06184428 -0.104072824
00000000: 6791 0e3e 6d33 133e 1f46 18be 49bc bb3e
00000010: 73dc 473e 2a35 a9bd 4af6 84b9 dedb 42bc
00000020: 675e 43be d9c8 6b3c e649 bf3e 5cd8 81bd
00000030: 1655 cf3e d567 fd3e ace7 193e feb3 0b3c
00000040: aaf5 b63e 457d debc c21d a5bd 8e4f 2ebd
00000050: 8145 fbbd 5a4c 663d 83f7 2c3d e5b8 e5bd
00000060: 72a3 bb3d 85e3 c13c fda7 2ebc 7095 9c3d
00000070: b553 eabd aa29 ca39 9ec8 363e a97c 353e
00000080: ea8c 853d 0dae 963d 81d8 4d3d 1fa8 02be
00000090: 7be0 b7bd 232e 2b3e 3d2c f7bd 20da 1e3d
000000a0: 60fe 873e ec74 353d e35a f53c e356 463e
000000b0: 22e7 20be 0309 6fbb 8843 bc3d 0b08 2f3b
000000c0: b312 c8bd 5798 c7bc 46ca 0dbe f95c 0dbd
000000d0: 5e03 0abe ffce 0bbe a9a5 01be 8750 4d3c
000000e0: 0054 1cbd 3c7b 54be 16a0 2fbe d295 0dbd
000000f0: 1219 06be 1bbe 60bc ebb2 e0bc 701b 1d3e
00000100: 234d 05be 4ec1 83bd fb79 c3bd 316d 833b
00000110: 72e0 1cbe 0627 44bd 1fd8 babb 9cfe 28be
00000120: 9f5b 923d 67c2 ea3d eac7 32bd f850 2ebe
00000130: a303 d33d b442 00be b06a b9bd e4ac 01be
00000140: d195 55be 1258 8f3d d985 913d e0af de3c
00000150: f3e9 b23d 160d ea3d 9d63 a83d 6872 82bb
00000160: 494f c2bd df8e 8ebd f386 773e b15a 1f3e
00000170: b7d6 a63d 4954 ae3c 742e f6bd dbdb 8abe
00000180: 2446 81bd 8dba 81be ff58 6ebe 2e81 fa3c
00000190: 7190 393e cff5 33bd ad57 023c c145 463e
000001a0: d50b 9abc 5643 22bd 7435 5e3c 7dbf 57be
000001b0: 1ff7 eabd 149b 7ebd ddb3 c4bc 9744 c0bd
000001c0: 515a a0bd 939b 9dbd 79be fd3c 18d5 e5bd
000001d0: 9e74 6abe f2e2 ef3c 0cad 94bd 2dc2 24be
000001e0: 3471 0f3d 9280 803d 3eb7 3fbe 0b9d 2fbd
000001f0: b25d cbbd d17d 8fbb 5210 2e3e 5ef9 78bd
00000200: d274 22be f341 353e d870 3bbd 1b02 68be
00000210: 8a53 af3c 5c41 fcbd a842 97be acd3 853d
00000220: 6fac abbc bc38 c03c 6289 01bd 4200 283c
00000230: 61fd f9ba 0c9a 84bd cb6d 22bd bac2 01be
00000240: a22d 51bd 5776 14bd dc57 673d f796 2ebd
00000250: 5703 72bd 9441 ba3c ea76 dbbd 911d eebd
00000260: e181 f3bd c653 95bd 6e39 233c 748b 1abe
00000270: b474 d93c 1409 ae3d eebf 1cbe a0c1 99bd
00000280: 8ad2 9bbd 3108 28be 0447 21be bf2e 273d
00000290: 6dad 90bc fc3e d2bd a29e abbd 4169 84bd
000002a0: a563 0bbe d7e8 723d 1d02 19bd 105b 923d
000002b0: d769 e43d c6a2 11bb 6fc3 aebd da90 babd
000002c0: 85a1 4a3d 3b22 7fbd dd09 ccbd 2dbc 1ebe
000002d0: d400 63bc 2b04 8cbd 3f27 aabd d12e 22be
000002e0: 38f9 88be e240 66be 78aa 483c 515c 77be
000002f0: 63a3 aabd 951a 8abd a1ab d1bd e986 11bd
00000300: 8b85 f2bd eb66 e3bc 965e ddbd 6238 183c
00000310: 2ffb 89be 43d7 b8bd c4cb 823d 011a 6fbd
00000320: 40b9 64bd d261 a2bd 95ff 06be 78cc 243d
00000330: eb7d 233d d5f1 fdbc acd1 a5be c564 6abd
00000340: ba19 5d3d ea45 9e3b 5c8b 39be e760 c2bd
00000350: 55d7 84bd f2b6 f7bd b91d 25be 658d 68be
00000360: 61db bf3d 7ac3 30bd 1df8 8fbd 0c17 95bd
00000370: ffa4 f7bc e37a e23a a77f adbc 8429 a8bd
00000380: bae0 31be 91be 99bc aaef 00be 6965 11be
00000390: 3d8f 96bd 3859 20be 800c 013c 0563 f8bd
000003a0: 11c8 1cbd 94e9 25be 5b91 8bbd cb33 45be
000003b0: d95c 443b 4878 8abd 46f1 88bc f277 773c
000003c0: 7cf5 a23c 6e2d 83bd 1236 26bd 3a55 5fbd
000003d0: 940d 55bd dc55 76bd d984 30bd b8c4 04bd
000003e0: 4b92 56bd 2a59 e5bd 868f 813d 0213 02be
000003f0: 423e a3bd 2b09 35be 6e50 7dbd 2224 d5bd

net.layer3.0.bias f4 [64]
-0.023199346 0.11404981 0.031837553 0.06089662 0.03945497 0.018950129 -0.009018077 0.03746516
-0.0120888855 0.0128799565 0.029015254 0.037742656 0.0010375144 0.008968062 0.15745227 0.019985123
0.020976057 0.03155812 0.024104474 -0.040829096 -0.0030908748 0.016801314 -0.018053386 -0.046290096
0.052190747 -0.014113435 0.037205573 0.015756 0.04178366 0.011792514 -0.01104829 -0.022191742
-0.013101551 0.0021952195 0.04306194 0.022559348 -0.016983489 -0.017006615 -0.03919613 0.036614448
0.015270845 -0.0017560069 -0.004001051 0.014302195 -0.0021837149 -0.0048465426 -0.020527087 0.0595477
0.021075822 -0.040057708 -0.039487578 0.034651686 0.027710177 -0.005236776 -0.015534157 0.0148129165
0.038180828 0.027502267 -0.0326507 -0.01760859 0.03713118 -0.019540027 0.0227413 0.012454168
00000000: 8e0c bebc f292 e93d 1868 023d bc6e 793d
00000010: 899b 213d 4d3d 9b3c 8ec0 13bc 1175 193d
00000020: 7610 46bc 7406 533c 66b1 ed3c 0b98 1a3d
00000030: 35fd 873a c7ee 123c 2b3b 213e d7b7 a33c
00000040: fbd5 ab3c 1643 013d bf76 c53c 693c 27bd
00000050: 4690 4abb e9a2 893c b2e4 93bc af9a 3dbd
00000060: f7c5 553d 093c 67bc df64 183d ba12 813c
00000070: 5825 2b3d 6335 413c e303 35bc 75cb b5bc
00000080: e3a7 56bc acdd 0f3b b861 303d 62ce b83c
00000090: f520 8bbc 7551 8bbc 1f8c 20bd 08f9 153d
000000a0: 9132 7a3c d029 e6ba 401b 83bb c153 6a3c
000000b0: a81c 0fbb bfcf 9ebb 6c28 a8bc 4ae8 733d
000000c0: 34a7 ac3c 8d13 24bd babd 21bd edee 0d3d
000000d0: 7400 e33c 4399 abbb fa82 7ebc e0b1 723c
000000e0: 8063 1c3d 6f4c e13c bebc 05bd e43f 90bc
000000f0: dd16 183d 6812 a0bc f64b ba3c 910c 4c3c

net.layer3.1.weight f4 [64]
0.38970155 0.3070131 0.34385625 1.1006424 0.4179941 0.98765546 0.4292892 0.4094184
0.9537709 1.3263687 1.235609 1.4114114 0.39573684 0.8205239 0.49076623 0.37093914
0.45833874 0.411036 0.9999825 0.40082735 0.39547664 0.6641233 1.5699406 1.3361522
1.3213476 0.64707685 0.43814388 0.42576212 0.25287914 0.3721436 1.2730517 0.47084257
1.1971686 1.247082 1.1498761 0.40490738 1.312936 0.43295148 0.43683383 1.2525357
0.4604326 0.3801596 0.42290488 0.3946452 0.36268163 1.1139929 0.38209727 1.1769141
1.2456945 1.5482725 0.348008 0.42932007 1.1590198 0.98877835 0.4099033 0.47647247
0.33853772 0.39969715 0.4106589 0.49533594 1.3716269 1.1930301 1.0808009 0.5134728
00000000: f686 c73e d230 9d3e ed0d b03e dae1 8c3f
00000010: 5303 d63e fdd6 7c3f cbcb db3e 4a9f d13e
00000020: 542a 743f 73c6 a93f 7028 9e3f 21a9 b43f
00000030: 059e ca3e db0d 523f b645 fb3e bceb bd3e
00000040: 60ab ea3e 5073 d23e dafe 7f3f 3e39 cd3e
00000050: ea7b ca3e fc03 2a3f d0f3 c83f 0907 ab3f
00000060: eb21 a93f d4a6 253f 6554 e03e 7efd d93e
00000070: 6079 813e 9b89 be3e 5cf3 a23f 4712 f13e
00000080: d23c 993f 62a0 9f3f 242f 933f 0550 cf3e
00000090: 490e a83f d1ab dd3e afa8 df3e 1753 a03f
000000a0: d2bd eb3e 47a4 c23e fd86 d83e f00e ca3e
000000b0: 68b1 b93e 5297 8e3f 41a2 c33e 1fa5 963f
000000c0: eb72 9f3f cb2d c63f 1b2e b23e d7cf db3e
000000d0: c35a 943f 9420 7d3f d8de d13e 33f4 f33e
000000e0: d154 ad3e 1ba5 cc3e e241 d23e ac9c fd3e
000000f0: 7891 af3f 36b5 983f af57 8a3f f472 033f

net.layer3.1.bias f4 [64]
-0.49440524 -0.24978974 -0.5446829 -0.1731197 -0.4370201 0.12620784 -0.53910404 -0.4313356
-0.2173295 -0.39932016 -0.09914578 0.04650528 -0.5456137 -0.31204948 -0.1954033 -0.40075725
-0.51828456 -0.48446462 -0.18147288 -0.4392682 -0.5215731 -0.5837578 -0.7458973 -0.78568405
-0.1928145 -0.555731 -0.467742 -0.4560232 -0.41949457 -0.48565847 -0.3401562 -0.4544675
0.17000797 -0.40339616 0.037096526 -0.47238868 -0.38023874 -0.45970777 -0.43180475 -0.41529897
-0.39984897 -0.41562337 -0.528912 -0.4669143 -0.47792643 -0.26790398 -0.46127713 0.32490912
-0.31845546 -0.5400402 -0.5513247 -0.47170436 -0.22154362 -0.24106339 -0.48306945 -0.45734742
-0.5544339 -0.51584566 -0.46803847 -0.42988193 -0.36495468 0.055466693 -0.20456487 -0.48443398
00000000: af22 fdbe e2c8 7fbe 5770 0bbf 4a46 31be
00000010: 19c1 dfbe a13c 013e b902 0abf 05d8 dcbe
00000020: a08b 5ebe b173 ccbe f10c cbbd 527c 3e3d
00000030: 57ad 0bbf f3c4 9fbe cd17 48be 0e30 cdbe
00000040: 4cae 04bf bf0b f8be 07d4 39be c3e7 e0be
00000050: d185 05bf 2771 15bf 20f3 3ebf 9722 49bf
00000060: 2a71 45be 6344 0ebf e17b efbe df7b e9be
00000070: fec7 d6be 3aa8 f8be f428 aebe f7af e8be
00000080: 9216 2e3e f189 cebe 87f2 173d eedc f1be
00000090: a7ae c2be d15e ebbe 8315 ddbe 11a2 d4be
000000a0: 01b9 ccbe 96cc d4be c766 07bf 640f efbe
000000b0: c6b2 f4be b62a 89be 842c ecbe 7d5a a63e
000000c0: 980c a3be 1340 0abf 9e23 0dbf 3c83 f1be
000000d0: 55dc 62be 52d9 76be e154 f7be 7129 eabe
000000e0: 61ef 0dbf 760e 04bf bda2 efbe 7c19 dcbe
000000f0: 57db babe 0b31 633d 7479 51be bb07 f8be

net.layer3.1.running_mean f4 [64]
0.0 0.0 0.0 0.0 0.0 0.0 0.0 0.0
0.0 0.0 0.0 0.0 0.0 0.0 0.0 0.0
0.0 0.0 0.0 0.0 0.0 0.0 0.0 0.0
0.0 0.0 0.0 0.0 0.0 0.0 0.0 0.0
0.0 0.0 0.0 0.0 0.0 0.0 0.0 0.0
0.0 0.0 0.0 0.0 0.0 0.0 0.0 0.0
0.0 0.0 0.0 0.0 0.0 0.0 0.0 0.0
0.0 0.0 0.0 0.0 0.0 0.0 0.0 0.0
00000000: 0000 0000 0000 0000 0000 0000 0000 0000
00000010: 0000 0000 0000 0000 0000 0000 0000 0000
00000020: 0000 0000 0000 0000 0000 0000 0000 0000
00000030: 0000 0000 0000 0000 0000 0000 0000 0000
00000040: 0000 0000 0000 0000 0000 0000 0000 0000
00000050: 0000 0000 0000 0000 0000 0000 0000 0000
00000060: 0000 0000 0000 0000 0000 0000 0000 0000
00000070: 0000 0000 0000 0000 0000 0000 0000 0000
00000080: 0000 0000 0000 0000 0000 0000 0000 0000
00000090: 0000 0000 0000 0000 0000 0000 0000 0000
000000a0: 0000 0000 0000 0000 0000 0000 0000 0000
000000b0: 0000 0000 0000 0000 0000 0000 0000 0000
000000c0: 0000 0000 0000 0000 0000 0000 0000 0000
000000d0: 0000 0000 0000 0000 0000 0000 0000 0000
000000e0: 0000 0000 0000 0000 0000 0000 0000 0000
000000f0: 0000 0000 0000 0000 0000 0000 0000 0000

net.layer3.1.running_var f4 [64]
1.0 1.0 1.0 1.0 1.0 1.0 1.0 1.0
1.0 1.0 1.0 1.0 1.0 1.0 1.0 1.0
1.0 1.0 1.0 1.0 1.0 1.0 1.0 1.0
1.0 1.0 1.0 1.0 1.0 1.0 1.0 1.0
1.0 1.0 1.0 1.0 1.0 1.0 1.0 1.0
1.0 1.0 1.0 1.0 1.0 1.0 1.0 1.0
1.0 1.0 1.0 1.0 1.0 1.0 1.0 1.0
1.0 1.0 1.0 1.0 1.0 1.0 1.0 1.0
00000000: 0000 803f 0000 803f 0000 803f 0000 803f
00000010: 0000 803f 0000 803f 0000 803f 0000 803f
00000020: 0000 803f 0000 803f 0000 803f 0000 803f
00000030: 0000 803f 0000 803f 0000 803f 0000 803f
00000040: 0000 803f 0000 803f 0000 803f 0000 803f
00000050: 0000 803f 0000 803f 0000 803f 0000 803f
00000060: 0000 803f 0000 803f 0000 803f 0000 803f
00000070: 0000 803f 0000 803f 0000 803f 0000 803f
00000080: 0000 803f 0000 803f 0000 803f 0000 803f
00000090: 0000 803f 0000 803f 0000 803f 0000 803f
000000a0: 0000 803f 0000 803f 0000 803f 0000 803f
000000b0: 0000 803f 0000 803f 0000 803f 0000 803f
000000c0: 0000 803f 0000 803f 0000 803f 0000 803f
000000d0: 0000 803f 0000 803f 0000 803f 0000 803f
000000e0: 0000 803f 0000 803f 0000 803f 0000 803f
000000f0: 0000 803f 0000 803f 0000 803f 0000 803f

net.layer4.0.weight f4 [64, 64, 3, 3]
0.07164346 -0.123275995 0.0391077 -0.04135031 0.037267406 0.013279799 -0.059838437 0.013413279
0.0494032 -0.26014256 0.27084148 0.2471403 0.03555997 -0.09964941 0.2070845 0.443871
-0.066247515 0.124033555 0.16813806 0.18963602 0.18586949 0.187346 -0.027834414 -0.020352338
0.07582394 0.068527766 -0.016249234 0.013310628 0.0028785043 0.007481407 0.0042578746 -0.00094696914
0.005096889 -0.015575259 0.0114999795 0.015673755 -0.015593647 -0.005454744 -0.021919578 -0.027702846
-0.084517375 -0.01125352 0.06074385 -0.05937768 -0.008066752 0.0016448968 0.014322139 0.009216476
0.0027560315 0.0012186017 0.003865594 0.0055862945 0.0033435624 0.015599467 0.0356937 0.04477348
-0.016240256 0.07014448 0.07808541 -0.029599527 -0.06258072 -0.052782416 -0.023961244 0.06097757
-0.014268584 0.016274655 -0.04235038 0.051818103 0.026064888 -0.01612522 -0.0016721832 0.018853763
-0.0038532454 -0.004650619 0.0030778733 -0.052596282 0.0056517487 0.0037011032 0.027661936 0.0014334285
0.0002245859 0.035699666 -0.001516607 -0.0034556608 -0.024827685 -0.004304235 0.0042162593 -0.0053084535
0.003048994 0.0031428833 0.00015827012 0.0015093187 0.0012973848 0.011281976 -0.001837483 -0.009470247
-0.011282948 0.0033232118 -0.0008711605 -0.0021976826 0.00425857 0.004553823 0.021526014 0.005239331
-0.00551716 0.007975738 -0.00662814 0.010586433 -0.015333576 0.041648302 0.09378483 0.061204564
-0.08203159 0.04295062 -0.06787634 -0.05392264 -0.017529747 0.019708958 0.027950414 -0.034506157
-0.028988233 -0.0037727077 0.009530005 -0.003071159 -0.012867722 0.0039924113 -0.19778682 0.20376444
0.28340912 0.041355707 -0.011295961 -0.057275653 0.12781674 0.05784953 0.07697084 0.005019388
0.026222313 0.037642077 0.08128268 -0.058910426 -0.011104202 -0.024352616 -0.016813962 0.03780984
-0.04293217 -0.0876527 0.05825868 0.20550781 0.109593004 0.009200785 0.19123504 0.03601919
-0.07400989 0.020703074 0.022448985 -0.021895014 0.042186692 0.123814136 0.04249215 -0.0722699
-0.13058749 0.0057146256 5.584611e-05 0.007505549 0.0064051226 -0.011968497 0.011088147 -0.00326367
-0.0020581335 -0.006199462 -0.006893786 -0.007554485 -0.021697067 0.02744896 -0.035249934 -0.030233722
0.026994433 -0.08955247 -0.035942893 0.007423822 -0.09420999 0.062691264 0.050757017 -0.030304102
-0.09398225 0.078422524 -0.10386803 -0.019612383 0.0947771 0.013876872 0.013259131 0.05793534
0.065997295 -0.038293466 0.06861386 -0.06871429 -0.10435597 0.051995937 0.019694347 -0.021334
0.00020030847 -0.0127843395 -0.003999975 -0.007279349 0.0083305 0.001586721 -0.0011536025 -0.012125094
-0.013042598 0.014881169 -0.015187528 0.012348613 0.005041907 0.022912849 0.0054245866 -0.0015245959
-0.0057495805 -0.0026903185 0.0024663655 0.010151885 0.007731187 -0.007891529 0.0001426198 0.0001763508
0.0052724974 -0.023957584 -0.0022905795 0.013310832 -0.055582147 0.08596192 -0.05691726 -0.010328676
-0.060143054 0.099191494 0.0012603956 0.04366485 0.06387612 0.10746269 0.081848085 -0.050595336
0.08494725 0.03358953 0.05583858 0.016480671 -0.011529033 0.048140906 0.07189253 -0.026321493
-0.11746329 0.02804375 -0.0134770805 -0.06601377 -0.23323688 -0.040131953 -0.055756256 -0.008482972
00000000: ceb9 923d 2078 fcbd 652f 203d f15e 29bd
00000010: b5a5 183d 8493 593c 2619 75bd 5fc3 5b3c
00000020: 035b 4a3d 6831 85be bcab 8a3e 5912 7d3e
00000030: 55a7 113d fd14 ccbd f60d 543e 0f43 e33e
00000040: c7ac 87bd 4e05 fe3d 622c 2c3e f22f 423e
00000050: 9254 3e3e a1d7 3f3e ff04 e4bc f2b9 a6bc
00000060: 9549 9b3d 4958 8c3d 1d1d 85bc d214 5a3c
00000070: 4aa5 3c3b 9726 f53b a485 8b3b 063e 78ba
00000080: ce03 a73b 5f2f 7fbc 696a 3c3c 3f66 803c
00000090: 7f7c 7fbc b6bd b2bb b090 b3bc 14f1 e2bc
000000a0: 7217 adbd af60 38bc 8bce 783d 0336 73bd
000000b0: 692a 04bc 9499 d73a 68a7 6a3c b400 173c
000000c0: 899e 343b 7db9 9f3a e855 7d3b 3c0d b73b
000000d0: ab1f 5b3b e894 7f3c 8f33 123d 6664 373d
000000e0: 490a 85bc e9a7 8f3d 3eeb 9f3d b57a f2bc
000000f0: 522a 80bd 6032 58bd 5f4a c4bc 9ec3 793d
00000100: c7c6 69bc 6d52 853c 9877 2dbd 383f 543d
00000110: 0886 d53c 0a19 84bc 282d dbba 3573 9a3c
00000120: bb86 7cbb 3864 98bb 25b6 493b 336f 57bd
00000130: 4e32 b93b 358e 723b 499b e23c e1e1 bb3a
00000140: d27e 6b39 d039 123d e3c8 c6ba 5e78 62bb
00000150: 6e63 cbbc 8a0a 8dbb 8c28 8a3b 89f2 adbb
00000160: a2d1 473b d5f8 4d3b 50f5 2539 55d4 c53a
00000170: 030d aa3a 09d8 383c b3d7 f0ba 1829 1bbc
00000180: 1ddc 38bc 3eca 593b 975e 64ba ff06 10bb
00000190: 798b 8b3b 3c38 953b 5357 b03c b2ae ab3b
000001a0: 4bc9 b4bb abac 023c de30 d9bb b872 2d3c
000001b0: ae39 7bbc 6997 2a3d 4312 c03d a3b1 7a3d
000001c0: 2e00 a8bd fdec 2f3d c002 8bbd fcdd 5cbd
000001d0: 8b9a 8fbc ae74 a13c 44f8 e43c 5456 0dbd
000001e0: bb78 edbc 883f 77bb bd23 1c3c 7f45 49bb
000001f0: 23d3 52bc c6d2 823b a188 4abe a0a7 503e
00000200: 001b 913e 9a64 293d b212 39bc e099 6abd
00000210: 64e2 023e a1f3 6c3d e3a2 9d3d ae79 a43b
00000220: 2dd0 d63c 942e 1a3d 8977 a63d 0f4c 71bd
00000230: 66ee 35bc 237f c7bc 6fbd 89bc 7ede 1a3d
00000240: a5d9 2fbd 4283 b3bd a7a0 6e3d a470 523e
00000250: 4c72 e03d e4be 163c 1ed3 433e dc88 133d
00000260: 7f92 97bd 7e99 a93c efe6 b73c 2c5d b3bc
00000270: f4cb 2c3d 4492 fd3d 400c 2e3d 3e02 94bd
00000280: bab8 05be c141 bb3b 4e3c 6a38 1cf1 f53b
00000290: 10e2 d13b 8417 44bc 0fab 353c 4ce3 55bb
000002a0: c0e1 06bb db24 cbbb 45e5 e1bb 9d8b f7bb
000002b0: 0cbe b1bc a4dc e03c 3c62 10bd b6ac f7bc
000002c0: 6e23 dd3c 4967 b7bd db38 13bd 8843 f33b
000002d0: 2bf1 c0bd 4764 803d 97e6 4f3d 4f40 f8bc
000002e0: c479 c0bd fd9b a03d c3b8 d4bd 26aa a0bc
000002f0: 7f1a c23d d25b 633c d43c 593c 9b4d 6d3d
00000300: 9729 873d 9cd9 1cbd 6c85 8c3d 14ba 8cbd
00000310: 95b8 d5bd b1f9 543d 0a56 a13c a4c4 aebc
00000320: e509 5239 6875 51bc 3912 83bb 9b87 eebb
00000330: a67c 083c 86f9 cf3a 7a34 97ba 55a8 46bc
00000340: 9fb0 55bc 26d0 733c 1cd5 78bc d651 4a3c
00000350: 9536 a53b bab3 bb3c bbc0 b13b f3d4 c7ba
00000360: fa66 bcbb 0e50 30bb bfa2 213b 1854 263c
00000370: e655 fd3b 794b 01bc 368c 1539 cfea 3839
00000380: eac4 ac3b b242 c4bc 8c1d 16bb ad15 5a3c
00000390: 1baa 63bd ce0c b03d 1322 69bd 9b39 29bc
000003a0: 9058 76bd e924 cb3d dc33 a53a ead9 323d
000003b0: 7cd1 823d 6615 dc3d f89f a73d 0e3d 4fbd
000003c0: d3f8 ad3d 2d95 093d ffb6 643d 7902 873c
000003d0: 45e4 3cbc 662f 453d 643c 933d 2ca0 d7bc
000003e0: 9890 f0bd 02bc e53c f9ce 5cbc 3a32 87bd
000003f0: a6d5 6ebe 6761 24bd ac60 64bd 2afc 0abc

net.layer4.0.bias f4 [64]
0.120499715 -0.029487226 -0.037039384 -0.023049857 -0.03534021 0.022825 -0.027025785 -0.25619593
0.012837181 0.0012152898 0.036913913 -0.009231139 -0.0003401089 -0.03976676 -0.29048282 -0.06417464
0.007540491 -0.01578583 0.024352679 -0.33578688 -0.12512918 0.026130714 -0.00023058844 -0.028543144
0.015245765 0.01899917 -0.033170458 -0.056983523 0.030052526 -0.0042369063 0.0066011674 0.0062726624
0.025406579 -0.022379195 -0.30295458 0.026402887 0.018060457 0.028141307 0.018926747 0.020310055
-0.011504451 -0.014837131 0.022440532 -0.009849122 0.004590747 -0.017542742 -0.007771554 0.016166128
0.038949855 0.0070174276 0.002929687 -0.017806675 -0.10263305 -0.040738024 -0.026355226 0.010003062
0.016348533 0.009588966 0.017532205 -0.050686408 -0.032068927 -0.015927836 -0.015901757 -0.023542091
00000000: 8ec8 f63d 328f f1bc 9cb6 17bd 0ed3 bcbc
00000010: e5c0 10bd 7ffb ba3c 2e65 ddbc 1d2c 83be
00000020: 0a53 523c 5c4a 9f3a 0b33 173d 343e 17bc
00000030: a550 b2b9 78e2 22bd 2aba 94be fe6d 83bd
00000040: 3916 f73b 4951 81bc 457f c73c 42ec abbe
00000050: dd21 00be 1410 d63c 1dca 71b9 50d3 e9bc
00000060: 60c9 793c 26a4 9b3c bfdd 07bd 8e67 69bd
00000070: b730 f63c bfd5 8abb 9b4e d83b e88a cd3b
00000080: 7521 d03c 9354 b7bc dd1c 9bbe de4a d83c
00000090: 86f3 933c 9988 e63c 440c 9b3c 4661 a63c
000000a0: 2a7d 3cbc 7017 73bc 35d5 b73c 365e 21bc
000000b0: fa6d 963b ccb5 8fbc 85a8 febb d46e 843c
000000c0: e289 1f3d 73f2 e53b feff 3f3b 4edf 91bc
000000d0: 4731 d2bd eadc 26bd eae6 d7bc e2e3 233c
000000e0: 5ced 853c 0a1b 1d3c b39f 8f3c 8d9c 4fbd
000000f0: b55a 03bd 187b 82bc 6744 82bc 58db c0bc

net.layer4.1.weight f4 [64]
3.0155861 0.33681965 1.8236779 0.7706736 1.1380796 2.0321646 0.61314046 2.1030347
0.66884816 0.58840805 2.8480895 0.8543445 0.55003184 3.0936089 2.3788774 1.8510722
0.6968349 0.65630996 0.6887895 2.510041 2.059747 0.6033422 0.7701508 0.83183825
0.6519049 0.8074714 0.7470755 1.3512665 0.22622965 1.1163343 0.7242089 0.32930985
0.7187947 0.73002756 2.4305627 0.7689074 0.60997474 0.544501 0.42727605 0.48998615
0.45734772 0.5307186 0.90565956 0.5898666 1.5734916 0.6073231 0.7834664 0.75352347
0.35090283 2.2771213 0.5744623 0.39301676 1.8752594 2.0377092 0.6094173 0.7203346
2.8641741 0.4781947 1.6121852 1.870528 0.3535344 1.1035446 0.62841296 0.9455029
00000000: 5dff 4040 a073 ac3e 476e e93f dd4a 453f
00000010: 98ac 913f fc0e 0240 c6f6 1c3f 1f98 0640
00000020: a239 2b3f e9a1 163f 1947 3640 52b6 5a3f
00000030: e3ce 0c3f b0fd 4540 873f 1840 efef ec3f
00000040: c663 323f ee03 283f 8254 303f 83a4 2040
00000050: e5d2 0340 a274 1a3f 9a28 453f 5af3 543f
00000060: 3de3 263f 72b6 4e3f 5740 3f3f 4df6 ac3f
00000070: bfa8 673e 0be4 8e3f c165 393f 4d9b a83e
00000080: ee02 383f 16e3 3a3f 578e 1b40 1ed7 443f
00000090: 4e27 1c3f 6b64 0b3f edc3 da3e 77df fa3e
000000a0: 7b29 ea3e 2ddd 073f 4ed9 673f 7f01 173f
000000b0: 2c68 c93f 8779 1b3f 4191 483f eae6 403f
000000c0: 89a9 b33e 5bbc 1140 f60f 133f 7e39 c93e
000000d0: 8008 f03f d469 0240 c602 1c3f d967 383f
000000e0: a14e 3740 f0d5 f43e 165c ce3f 766d ef3f
000000f0: 7602 b53e f340 8d3f acdf 203f 7a0c 723f

net.layer4.1.bias f4 [64]
0.11907881 -0.50321615 -0.32462367 -0.55033535 -0.5743607 -0.26102284 -0.33943245 -0.08071861
-0.5890948 -0.41367716 -0.7410841 -0.35029882 -0.43336484 -0.38983247 0.06348781 -0.3393434
-0.47414646 -0.61415255 -0.5636553 -0.103359096 -0.17687446 -0.5165326 -0.3419608 -0.5093607
-0.61405885 -0.49410993 -0.5099446 -0.663706 -0.6325708 -0.56256366 -0.5441794 -0.47982326
-0.46474096 -0.36237913 0.084826 -0.35482976 -0.32875586 -0.44226122 -0.44321218 -0.49724612
-0.7523578 -0.48247436 -0.572178 -0.37550795 -0.1516766 -0.60613286 -0.32533917 -0.6354915
-0.4749958 -0.2760545 -0.5373179 -0.43262038 -0.2537793 -0.013315675 -0.40570298 -0.6421038
-0.14868458 -0.44528934 -0.35229063 -0.30370733 -0.5732002 -0.69224745 -0.3304249 -0.27462322
00000000: 97df f33d c6d2 00bf 1335 a6be c7e2 0cbf
00000010: 4e09 13bf c9a4 85be 17ca adbe cc4f a5bd
00000020: ebce 16bf 7ecd d3be b0b7 3dbf 5e5a b3be
00000030: ffe1 ddbe 1f98 c7be e605 823d 6bbe adbe
00000040: 53c3 f2be 1a39 1dbf b74b 10bf efad d3bd
00000050: 941e 35be 7b3b 04bf 7c15 afbe 7665 02bf
00000060: f632 1dbf fafb fcbe bb8b 02bf a3e8 29bf
00000070: 29f0 21bf 2c04 10bf 574f 0bbf 65ab f5be
00000080: 87f2 edbe c289 b9be 41b9 ad3d 3fac b5be
00000090: b052 a8be 1070 e2be b5ec e2be 0b97 febe
000000a0: 859a 40bf e106 f7be 427a 12bf 9442 c0be
000000b0: 1c51 1bbe 862b 1bbf db92 a6be 92af 22bf
000000c0: a632 f3be 0457 8dbe aa8d 09bf 6b80 ddbe
000000d0: 5cef 81be fd29 5abc 4db8 cfbe ea60 24bf
000000e0: c540 18be f7fc e3be 705f b4be 877f 9bbe
000000f0: 40bd 12bf 2137 31bf 742d a9be 6a9b 8cbe
