mp/maml_mini_5way_5shot_best_step12500_conv_first.pt (torch, 144234 bytes, 26 tensors)

net.layer1.0.weight f4 [32, 3, 3, 3]
0	0xbe3048b6	-0.17215237
1	0xbe87ca7a	-0.26521665
2	0xbe3bc5b4	-0.18337137
3	0x3d29eae8	0.04148379
4	0x3d78060e	0.06055265
5	0x3cd36361	0.025804223
6	0x3e3684be	0.17824075
7	0x3e82a3ff	0.25515744
8	0x3e019303	0.12653737
9	0xbe502c6c	-0.20329446
10	0xbe7432b0	-0.23847461
11	0xbd9f5edb	-0.07781764
12	0x3d3098a9	0.043114338
13	0xbd940d24	-0.07229069
14	0xbd35d1dd	-0.044389594
15	0x3dfd6939	0.12373585
16	0x3e6f8945	0.23392208
17	0x3e26870f	0.16262458
18	0xbd8978c7	-0.067124896
19	0xbe25a683	-0.161768
20	0xbdea0ac8	-0.114278376
21	0x3e09c34b	0.13453405
22	0x3d156d7f	0.036481377
23	0xbe005666	-0.12532958
24	0xbd28d7c0	-0.04122138
25	0x3e17f865	0.14840849
26	0x3e099636	0.13436207
27	0x3deb49c6	0.114886805
28	0x3ddb13ef	0.106971614
29	0x3dfe5cbd	0.12420032
30	0x3ddac6c9	0.106824465
31	0x3e8e6caa	0.2781728
32	0xba41c596	-0.00073918083
33	0x3e2d3494	0.16914588
34	0x3dc841f0	0.097782016
35	0xbe0ec4c0	-0.13942242
36	0xbe59fc03	-0.21287541
37	0xbe58a6fa	-0.21157447
38	0xbe1945ef	-0.14968084
39	0x3bfd8514	0.0077368114
40	0xbe2a8b1c	-0.16654629
41	0xbd2ef874	-0.042717412
42	0xbdfff485	-0.1249781
43	0xbe637c16	-0.22215304
44	0xbdf253be	-0.11832379
45	0x3ddeda73	0.1088151
46	0xbd927264	-0.071507245
47	0x3cd60437	0.026125057
48	0x3d9fb59a	0.077983096
49	0x3e191e86	0.1495305
50	0x3e2e7e83	0.17040448
51	0x3d98e836	0.07466166
52	0x3dc1ea20	0.09468484
53	0xbb67097b	-0.0035253454
54	0xbe050a9a	-0.12992325
55	0xbbf8e1c3	-0.0075952723
56	0x3e84d054	0.25940192
57	0xbc0933df	-0.008374183
58	0x3d6df7c9	0.058097634
59	0xbe075cd2	-0.13219002
60	0x3d879f15	0.06622139
61	0x3d61182f	0.054954704
62	0xbe15c43a	-0.14625636
63	0xbe8eb677	-0.27873585
64	0xbe5332e7	-0.20624886
65	0x3e9943db	0.29934582
66	0x3dfb904a	0.1228338
67	0x3ae732fa	0.0017639094
68	0xbe4d0e9a	-0.20025101
69	0x3e19bda6	0.15013751
70	0x3e351bde	0.17686412
71	0xbd73d725	-0.05953135
72	0xbda2d78f	-0.07951271
73	0xbdb8f64c	-0.090313524
74	0x3ee91bdd	0.4552907
75	0x3e276a84	0.16349226
76	0x3e2ecf8d	0.17071362
77	0xbe103d77	-0.14085947
78	0xbd14a358	-0.03628859
79	0xbd80f1f8	-0.06296152
80	0xbeb131ac	-0.3460821
81	0x3e6774d9	0.22603168
82	0x3d991bc8	0.07476002
83	0xbe0f4278	-0.139902
84	0x3ec2d015	0.3804938
85	0x3e31824f	0.17334865
86	0xbdd07d32	-0.10180129
87	0x3d155197	0.036454763
88	0xbccee805	-0.02525712
89	0xbe565ead	-0.20934553
90	0x3bf80d93	0.0075699775
91	0x3dbde8df	0.09272932
92	0x3d3a3f42	0.045470484
93	0x3d711553	0.058858227
94	0x3c7f74cc	0.015591811
95	0xbd8d2ef2	-0.0689372
96	0x3df1cebe	0.11807011
97	0xbdae18c4	-0.085008174
98	0xbe190a49	-0.1494533
99	0xbd89ec72	-0.067345515
100	0x3e2d5508	0.16926968
101	0xbd1415c9	-0.03615359
102	0x3e0accac	0.13554639
103	0xbb403f7a	-0.002933471
104	0x3d500132	0.05078239
105	0xbe1aae0a	-0.15105453
106	0xbe937cda	-0.28806192
107	0x3d5aad97	0.053388204
108	0x3db1e8a1	0.086869486
109	0xbce535b4	-0.02797971
110	0xbc028aa0	-0.007967621
111	0x3c7f1087	0.015567905
112	0x3ceb86f8	0.028750882
113	0xbd411c8b	-0.04714636
114	0x3d7a6b49	0.06113747
115	0xbcb12e01	-0.021628382
116	0xbdcb8dbe	-0.099391446
117	0x3d8b23a0	0.06793904
118	0xbde5e841	-0.112259395
119	0xbd0f53c5	-0.034992
120	0xbddb02c0	-0.10693884
121	0xbe04b637	-0.12960134
122	0xbe182f4c	-0.14861792
123	0x3d0ec448	0.034855157
124	0x3c9b2afa	0.018941391
125	0x3e1fce8d	0.15606137
126	0xbe8c1925	-0.27362934
127	0xbe9b5ce8	-0.3034432
128	0xbd6a6ef5	-0.057234723
129	0xbdb4da8e	-0.088307485
130	0x3cdb9ded	0.026808703
131	0x3dd68da9	0.10476238
132	0x3db99e99	0.09063453
133	0x3e4a172c	0.19735402
134	0x3e8eed54	0.27915442
135	0xbe5f3350	-0.21796918
136	0xbe65785f	-0.22409199
137	0xbe786b3f	-0.24259661
138	0xbda08437	-0.07837718
139	0x3d1cf3ab	0.038318317
140	0x3d0b5f3d	0.034026373
141	0xbe1f7797	-0.15572964
142	0xbd7f8da6	-0.062390946
143	0xbd247a75	-0.040155847
144	0x3e420f7a	0.18951216
145	0x3e2d3264	0.16913754
146	0x3d8c29ce	0.06843911
147	0x3db4fcef	0.08837306
148	0x3dc2c6b2	0.095105544
149	0x3e8ee4c9	0.27908924
150	0xbc544f43	-0.012958351
151	0x3e06ebcf	0.13175891
152	0x3e04243e	0.1290445
153	0xbdf5b021	-0.119964845
154	0x3dc21355	0.094763435
155	0xbd494900	-0.049141884
156	0xbd4754e1	-0.04866493
157	0x3e3bdd26	0.1834608
158	0x3da99548	0.08280426
159	0xbde1d5c5	-0.110271014
160	0xbd4f4579	-0.050603364
161	0x3d5525ec	0.05203812
162	0x3e3546a3	0.17702727
163	0xbe707f79	-0.23486127
164	0xbd03c00b	-0.03216557
165	0x3cf0e65b	0.029406717
166	0x3e00e435	0.12587054
167	0xbe813fed	-0.25244084
168	0x3e85c3ed	0.26126042
169	0xbd365ddd	-0.04452311
170	0xbb56d9f1	-0.0032783712
171	0x3e10beb8	0.14135253
172	0xbe19266f	-0.14956068
173	0x3e482968	0.19547045
174	0xbe3d64c4	-0.1849547
175	0x3e784ffd	0.24249263
176	0xbe292aa1	-0.16520168
177	0xbda41155	-0.08011118
178	0xbdf5c832	-0.12001075
179	0x3c66c082	0.014083983
180	0x3d33464b	0.04376821
181	0xbe428536	-0.18996128
182	0x3d982b8d	0.07430182
183	0xbe10bf68	-0.14135516
184	0x3e4d72c2	0.20063308
185	0x3da0d092	0.07852282
186	0x3c12400b	0.008926402
187	0xbe0e6eb6	-0.1390942
188	0x3db0e7f0	0.086379886
189	0xbd52220a	-0.051301993
190	0x3ca3b935	0.019985775
191	0xbd051582	-0.032491215
192	0xbe83db3b	-0.25753197
193	0xbc85e323	-0.016343659
194	0x3e79616c	0.2435357
195	0xbe427ea3	-0.1899362
196	0xbdd62760	-0.10456729
197	0x3e825bb6	0.25460595
198	0x3dc55f22	0.09637286
199	0xbdd6f66f	-0.10496222
200	0xbd3c3c16	-0.04595574
201	0xbe4ba40b	-0.19886796
202	0x3dd35a67	0.10319977
203	0x3e664f52	0.22491196
204	0xbe0d16c8	-0.13778222
205	0x3c50a23c	0.012733992
206	0x3e64b14b	0.22333257
207	0x3e3884de	0.18019435
208	0xbdf4fa04	-0.11961749
209	0x3d11202f	0.035431083
210	0xbe7754f8	-0.24153507
211	0xbbd5c910	-0.0065242127
212	0x3d85c096	0.065308735
213	0xbe69b427	-0.22822629
214	0xbdbe4602	-0.09290697
215	0x3e448bbf	0.19193934
216	0x3ec0eb3f	0.3767948
217	0x3d6db62a	0.058035053
218	0xbd92f0c5	-0.071748294
219	0x3e8c904d	0.27453843
220	0xbd287e2c	-0.041135952
221	0xbe3a2b6b	-0.18180625
222	0xba0998b2	-0.00052488886
223	0xbe764fc0	-0.2405386
224	0xbe20baf0	-0.15696311
225	0xbe200059	-0.15625133
226	0x3d961486	0.07328133
227	0x3e2f8871	0.17141892
228	0xbe00c579	-0.1257533
229	0xbd9ecbee	-0.0775374
230	0x3e0a8242	0.13526252
231	0xbe11c8b1	-0.14236714
232	0x3df935a8	0.12168437
233	0xbd202539	-0.039098
234	0xbe658cb7	-0.2241696
235	0xbe11d845	-0.14242657
236	0xbdcb5284	-0.09927848
237	0xbe039235	-0.12848742
238	0x3da52e37	0.080654554
239	0x3d8ad6aa	0.06779225
240	0x3e0d6cfa	0.13811103
241	0x3e129fa7	0.14318715
242	0x3e4d75ba	0.2006444
243	0x3e6a4f22	0.2288175
244	0x3dc5d612	0.09659971
245	0x3db57545	0.08860258
246	0xbda9a1a2	-0.08282782
247	0xbca5cae8	-0.020238355
248	0xbd535ddb	-0.05160318
249	0xbe815adc	-0.25264633
250	0xbeb29f69	-0.34887245
251	0xbdbc819e	-0.0920441
252	0xbd98227d	-0.07428453
253	0x3de8f83f	0.11375474
254	0x3d02e849	0.031959806
255	0xbde20963	-0.110369466

net.layer1.0.bias f4 [32]
0	0xbd7e169d	-0.062033284
1	0xbd187c5f	-0.037227985
2	0xbe1ed1a9	-0.15509667
3	0x3d34692c	0.044045612
4	0x3e60a1b4	0.21936685
5	0xbe332dd3	-0.1749795
6	0x3e0e1ff8	0.13879383
7	0xbdd45c69	-0.10369188
8	0xbd2db795	-0.042411406
9	0x3e08a06d	0.13342448
10	0x3da9ce56	0.082913086
11	0x3d59b821	0.053154115
12	0x3d021bb8	0.031764716
13	0xbccecd28	-0.02524431
14	0xbc48bd7b	-0.012252207
15	0x3d81e705	0.063428916
16	0xbc385123	-0.011249813
17	0xbd35ab49	-0.044352803
18	0xbe01eb93	-0.1268752
19	0xbd2854bc	-0.041096434
20	0x3e07eebd	0.13274665
21	0x3d82c0a3	0.06384399
22	0x3dda8b37	0.106710844
23	0xbe3e585f	-0.18588398
24	0x3e113708	0.14181149
25	0x3e1c9e31	0.1529472
26	0x3db6b84b	0.0892187
27	0xbda3bc38	-0.07994884
28	0xbe27c018	-0.16381872
29	0xbd8bb294	-0.068211704
30	0xbdc602e5	-0.09668521
31	0xbe42e042	-0.1903086

net.layer1.1.weight f4 [32]
0	0x3f93f6a1	1.155964
1	0x3f4ed3b5	0.8079179
2	0x3f76763f	0.9627418
3	0x3f3b57b3	0.73180693
4	0x3f746acc	0.9547546
5	0x3f482bab	0.7819163
6	0x3f4fb9c3	0.81142825
7	0x3f961da2	1.1727793
8	0x3f9dede4	1.2338223
9	0x3f5d717d	0.86501294
10	0x3f8d9479	1.1060935
11	0x3f5526ef	0.8326253
12	0x3faab337	1.3335942
13	0x3f4b866a	0.79501975
14	0x3f3816c2	0.71909726
15	0x3f869948	1.0515528
16	0x3f8f1bf7	1.1180409
17	0x3f70e73a	0.94102824
18	0x3f8e9f28	1.1142321
19	0x3f7fa170	0.9985571
20	0x3f7a461d	0.97763234
21	0x3f5eeb22	0.87077534
22	0x3f8619f1	1.0476667
23	0x3f872ed4	1.0561166
24	0x3f326573	0.6968605
25	0x3f925c4e	1.1434419
26	0x3f71da83	0.9447405
27	0x3f5971fb	0.84939545
28	0x3f6ca3ae	0.92437255
29	0x3f7f52ec	0.99735904
30	0x3f842764	1.0324521
31	0x3f331cb6	0.69965684

net.layer1.1.bias f4 [32]
0	0x3e30b7af	0.1725757
1	0xbe50d077	-0.20392023
2	0xbd9fa9e4	-0.07796076
3	0xbedefd80	-0.4355278
4	0xbe66a362	-0.22523263
5	0xbe4cf1c6	-0.20014104
6	0xbe2dd81a	-0.16976967
7	0x3ea8261b	0.32841572
8	0xbe8a25bd	-0.26981917
9	0xbdb30195	-0.08740536
10	0xbdd8f59d	-0.10593722
11	0xbf0b9ca8	-0.54535913
12	0xbe0b7e96	-0.13622507
13	0xbe2ee561	-0.17079689
14	0xbc480901	-0.012209178
15	0xbe437371	-0.19087006
16	0xbbf69e90	-0.0075262263
17	0xbd1f96e1	-0.03896225
18	0x3d407993	0.046990942
19	0x3e4b2e93	0.19841985
20	0x3e968908	0.29401422
21	0xbd3e5ec9	-0.046477113
22	0xbe7e19c4	-0.24814516
23	0xbbefd0be	-0.007318585
24	0xbe54d10d	-0.20782872
25	0xbecbe2b0	-0.39821386
26	0xbd7d41eb	-0.061830442
27	0xbeaaeabc	-0.33382213
28	0xbedfacbe	-0.4368648
29	0xbe3590f8	-0.17731082
30	0xbabe1e22	-0.001450483
31	0xbdc5738d	-0.0964118

net.layer1.1.running_mean f4 [32]
0	0x00000000	0.0
1	0x00000000	0.0
2	0x00000000	0.0
3	0x00000000	0.0
4	0x00000000	0.0
5	0x00000000	0.0
6	0x00000000	0.0
7	0x00000000	0.0
8	0x00000000	0.0
9	0x00000000	0.0
10	0x00000000	0.0
11	0x00000000	0.0
12	0x00000000	0.0
13	0x00000000	0.0
14	0x00000000	0.0
15	0x00000000	0.0
16	0x00000000	0.0
17	0x00000000	0.0
18	0x00000000	0.0
19	0x00000000	0.0
20	0x00000000	0.0
21	0x00000000	0.0
22	0x00000000	0.0
23	0x00000000	0.0
24	0x00000000	0.0
25	0x00000000	0.0
26	0x00000000	0.0
27	0x00000000	0.0
28	0x00000000	0.0
29	0x00000000	0.0
30	0x00000000	0.0
31	0x00000000	0.0

net.layer1.1.running_var f4 [32]
0	0x3f800000	1.0
1	0x3f800000	1.0
2	0x3f800000	1.0
3	0x3f800000	1.0
4	0x3f800000	1.0
5	0x3f800000	1.0
6	0x3f800000	1.0
7	0x3f800000	1.0
8	0x3f800000	1.0
9	0x3f800000	1.0
10	0x3f800000	1.0
11	0x3f800000	1.0
12	0x3f800000	1.0
13	0x3f800000	1.0
14	0x3f800000	1.0
15	0x3f800000	1.0
16	0x3f800000	1.0
17	0x3f800000	1.0
18	0x3f800000	1.0
19	0x3f800000	1.0
20	0x3f800000	1.0
21	0x3f800000	1.0
22	0x3f800000	1.0
23	0x3f800000	1.0
24	0x3f800000	1.0
25	0x3f800000	1.0
26	0x3f800000	1.0
27	0x3f800000	1.0
28	0x3f800000	1.0
29	0x3f800000	1.0
30	0x3f800000	1.0
31	0x3f800000	1.0

net.layer2.0.weight f4 [32, 32, 3, 3]
0	0xbdd97778	-0.1061849
1	0xbdfb4c87	-0.12270456
2	0x3e069fa0	0.1314683
3	0xbdbf5d1d	-0.09343932
4	0x3ba340db	0.0049820966
5	0x3d71e21f	0.059053537
6	0xbd8b4646	-0.06800513
7	0xbe313272	-0.173044
8	0x3cbf0fa0	0.02332288
9	0x3e860819	0.26178053
10	0x3d4bfcbc	0.049801573
11	0x3e13bdd3	0.14427881
12	0xbd041d7b	-0.032254677
13	0xbc806e89	-0.015677707
14	0xbda2bd62	-0.07946278
15	0xbe45d4cf	-0.19319461
16	0xbe05df8b	-0.13073556
17	0xbc5dd0e1	-0.01353857
18	0x3e152938	0.14566505
19	0x3d9faec0	0.07797003
20	0x3d6572c5	0.056017656
21	0x3c789a6f	0.015173539
22	0x3e073e8e	0.13207456
23	0x3debbe70	0.115109324
24	0x3dc29ed0	0.09502947
25	0x3e2f0849	0.17093004
26	0x3e2a6803	0.1664124
27	0x3e2bb572	0.16768435
28	0x3da5fa51	0.08104385
29	0xbd252aff	-0.040324207
30	0x3dc4a3c1	0.09601546
31	0xbe40f87e	-0.18844792
32	0xbe121072	-0.14264086
33	0xbd3cfd71	-0.046140138
34	0xbd830dcc	-0.06399116
35	0x3d99ea2a	0.075153664
36	0x3bdc0b99	0.0067152497
37	0x3de88100	0.1135273
38	0x3e7ec518	0.24879873
39	0x3ba08c58	0.004899543
40	0xbdc98955	-0.09840647
41	0x3d57f7c7	0.052726533
42	0xbda7ee55	-0.08199755
43	0xbce4a9da	-0.027913023
44	0x3d686455	0.05673631
45	0x3d9eab48	0.07747513
46	0xbdc94e34	-0.09829369
47	0xbdf78964	-0.12086752
48	0xbe05a96e	-0.13052914
49	0xbcaf9f2d	-0.021438206
50	0xbdf8cbc4	-0.1214824
51	0x3cd5da8a	0.026105184
52	0x3d44343c	0.047901377
53	0x3dc218c8	0.09477383
54	0x3caf9acd	0.02143612
55	0xbc8ee1cb	-0.01744165
56	0x3a10ba24	0.0005520901
57	0xbda005aa	-0.0781358
58	0xbd414b36	-0.047190867
59	0xbd4e1c2f	-0.050319847
60	0x3d49712f	0.049180206
61	0x3d497c90	0.049191058
62	0x3e5dd061	0.21661521
63	0xbe39602b	-0.18103091
64	0x3bb9fb27	0.0056756916
65	0x3cb4d2e7	0.022073222
66	0xbe1824f8	-0.14857852
67	0xbd6fa35d	-0.058505405
68	0x3cfa8acd	0.030583763
69	0xbda0248d	-0.078194715
70	0xbd7348cb	-0.059395593
71	0x3df5888e	0.11988936
72	0x3c6a1113	0.014286297
73	0x3dd81ba2	0.105521455
74	0x3e0f833e	0.14014909
75	0xbd8ccfb9	-0.068755575
76	0xbe4e47db	-0.20144598
77	0x3d8381f4	0.06421271
78	0xbe3476e2	-0.17623475
79	0xbe8d847c	-0.2764014
80	0x3d89c249	0.0672651
81	0xbb88ec01	-0.0041785245
82	0x3acbb155	0.001554052
83	0x3d59ed21	0.05320466
84	0x3cd8f593	0.026484286
85	0x3cc6f0bf	0.024284719
86	0x3e0d9bb9	0.13828935
87	0x3d90ab46	0.07063918
88	0xbbaf0fd4	-0.005342463
89	0x3da07e93	0.07836642
90	0x3e244620	0.16042376
91	0x3d59ea85	0.05320217
92	0x3da362a3	0.07977798
93	0x3e6bf78c	0.2304365
94	0x3d02a091	0.03189141
95	0x3dd4fec3	0.104001544
96	0x3e17bdf6	0.14818558
97	0x3db0e7b4	0.08637944
98	0x3e0964fb	0.13417427
99	0xbcd28f94	-0.025703229
100	0x3ce776b6	0.028254848
101	0x3d387ec0	0.045042753
102	0xbce6178e	-0.028087404
103	0x3c9ae058	0.018905804
104	0xbc58591b	-0.013204838
105	0x3e3902b0	0.18067431
106	0x3e16e2cb	0.14734952
107	0x3e243a4b	0.16037862
108	0xbe507de4	-0.20360523
109	0xbe35b4e2	-0.17744783
110	0xbe8c0962	-0.2735091
111	0xbe862741	-0.26201823
112	0xbf14ccb2	-0.5812484
113	0xbe8fda04	-0.2809602
114	0xbef7d47b	-0.48404297
115	0xbf008e7a	-0.502174
116	0xbe3302b2	-0.17481497
117	0xbcd3b33a	-0.025842298
118	0xbe4249fa	-0.18973532
119	0xbe2e832c	-0.17042226
120	0xbe0ce0a8	-0.13757575
121	0xbe48a87e	-0.19595525
122	0xbca71586	-0.020396005
123	0xb984863b	-0.0002527701
124	0xbdc52a16	-0.09627168
125	0x3d41c631	0.04730815
126	0xbc777af7	-0.015105001
127	0x3d6345e6	0.055486582
128	0xbaa9ab8b	-0.00129448
129	0x3d85d7a1	0.065352686
130	0xbdb1e60d	-0.08686457
131	0xbe1c6869	-0.15274204
132	0xbd028037	-0.031860556
133	0x3ca85c3c	0.020551793
134	0xbdb78625	-0.08961133
135	0xbd3c4c94	-0.045971468
136	0xbe053e38	-0.13012016
137	0xbdfbd44c	-0.12296352
138	0x3d3117e6	0.043235682
139	0xbe2829ed	-0.16422243
140	0xbe08685e	-0.13321063
141	0xbdfc1938	-0.123094976
142	0xbe18e458	-0.14930856
143	0xbb78cd57	-0.003796419
144	0x3eb04a28	0.34431577
145	0x3e8f154a	0.2794593
146	0x3d5a1509	0.053242717
147	0xbdeadba6	-0.11467676
148	0xbe37df96	-0.17956385
149	0x3ddc1eee	0.10748087
150	0xbdd6b027	-0.10482817
151	0x3bc7f148	0.006101761
152	0x3dd03c71	0.10167778
153	0x3d7c6f2b	0.061629456
154	0xbd5281cc	-0.051393315
155	0x3e47efe6	0.19525108
156	0x3da689f3	0.081317805
157	0x3c5f23d0	0.013619378
158	0x3c83c927	0.016087128
159	0x3de46169	0.11151392
160	0xbbd2fadc	-0.006438596
161	0x3dea2934	0.1143364
162	0x3e41bd2b	0.18919818
163	0x3d82b772	0.06382646
164	0xbdaf437c	-0.085577935
165	0x3cea692d	0.028614605
166	0xbe42d703	-0.19027333
167	0x3d006d63	0.03135432
168	0xbbc49c4e	-0.0060000783
169	0xbd24c84a	-0.040230073
170	0xbd3d223c	-0.046175227
171	0xbe02a777	-0.12759195
172	0xbcc7efa5	-0.024406264
173	0xbd549218	-0.05189714
174	0xbeb60650	-0.3555169
175	0xbe5079e3	-0.20358996
176	0xbe5c536c	-0.21516198
177	0xbe517db8	-0.20458114
178	0xbe826093	-0.25464305
179	0xbdd6f599	-0.10496063
180	0x3e484225	0.19556482
181	0x3e200771	0.15627839
182	0xbc081bd6	-0.008307418
183	0x3d5fc977	0.05463549
184	0xbdecf639	-0.11570401
185	0xbcbd4892	-0.023105893
186	0x3d12336c	0.03569357
187	0x3d21ea66	0.03953018
188	0x3d5c300f	0.05375677
189	0xbe0e08f8	-0.13870609
190	0x3c7e5684	0.015523557
191	0x3cd2fcab	0.025755247
192	0xbdab5946	-0.08366637
193	0x3d8163e9	0.063178845
194	0xbe25c6dc	-0.1618914
195	0x3d4c881a	0.049934484
196	0x3df5746e	0.11985098
197	0x3d192920	0.037392735
198	0xbe066e5d	-0.13128038
199	0x3e4a45d7	0.19753204
200	0x3dba808a	0.09106548
201	0xbe4aa69c	-0.19790119
202	0xbd18a047	-0.037262227
203	0x3d13edd8	0.036115497
204	0xbd904b44	-0.07045606
205	0xbcee8301	-0.029115202
206	0x3d5bfddd	0.0537089
207	0x3db85315	0.09000222
208	0x3d258385	0.04040863
209	0x3da408ee	0.08009516
210	0x3d249530	0.04018134
211	0xbbfe36b5	-0.0077579864
212	0x3d1f4733	0.03888626
213	0x3d3d2eb0	0.046187103
214	0x3c989b35	0.018628696
215	0xbd6cd84e	-0.05782347
216	0x3d77ebb5	0.060527522
217	0xbd37c114	-0.044861868
218	0x3dc1fb6b	0.09471782
219	0xbd24faed	-0.040278364
220	0xbe0a2ae9	-0.13492931
221	0x3d9e23df	0.077216856
222	0xbe4fd9cd	-0.20297928
223	0xbdfd1b26	-0.12358694
224	0xbd92d5b6	-0.071696684
225	0xbe29f55a	-0.165975
226	0xba5d9034	-0.0008451969
227	0xbde90c7a	-0.11379333
228	0xbe6e7bde	-0.23289439
229	0xbe4fc9ce	-0.20291826
230	0xbdab538e	-0.08365546
231	0xbdf3a5ee	-0.11896883
232	0xbe80b244	-0.25136006
233	0xbe0ce15b	-0.13757841
234	0x3ce6f986	0.028195154
235	0xbe14849e	-0.14503714
236	0xbe430ca0	-0.19047785
237	0xbe1a47ae	-0.15066406
238	0xbea31bd3	-0.31857166
239	0xbd59ee2d	-0.053205658
240	0xbb266725	-0.0025391069
241	0xbe577c4b	-0.21043508
242	0xbe0a71d4	-0.13519984
243	0x3b5a6d5f	0.003332935
244	0x3d0854ff	0.033284184
245	0xbe0e777d	-0.13912769
246	0x3d386f40	0.04502797
247	0xbde7ab64	-0.11311987
248	0xbe464f87	-0.19366275
249	0xbcdf64df	-0.027269779
250	0xbce2b88f	-0.027675895
251	0xbd52d365	-0.051471133
252	0x3e08ac62	0.13347009
253	0x3da6a2e3	0.08136537
254	0x3e163c38	0.14671409
255	0xbe3e3ba3	-0.18577437

net.layer2.0.bias f4 [32]
0	0xbd00c295	-0.031435568
1	0xbd0aed14	-0.0339175
2	0xbb3e6b40	-0.0029055625
3	0xbcb9e082	-0.022690061
4	0xbd4576ff	-0.048209187
5	0xbd1b4e2c	-0.037916347
6	0xbd4e497b	-0.050363045
7	0xbba3749f	-0.0049882676
8	0xbba39eff	-0.004993319
9	0x3d59d1f4	0.053178743
10	0x3d43c998	0.047799677
11	0xbcba9d72	-0.022780154
12	0xbccd3330	-0.025048822
13	0xbd0c01e3	-0.034181487
14	0x3d410c2c	0.04713075
15	0x3d4ba2f1	0.04971594
16	0x3c0f52a2	0.008747729
17	0xbcb1e666	-0.021716308
18	0x3d5370d5	0.051621277
19	0xbc64eaa6	-0.01397196
20	0x3cd040f3	0.025421595
21	0x3d882eb1	0.06649531
22	0x3c3ea886	0.011636859
23	0xbd185e2f	-0.037199195
24	0xbd8034b7	-0.062600546
25	0xbd6ae73e	-0.057349436
26	0xbd7e5ce8	-0.06210032
27	0xbcdb08bc	-0.026737563
28	0xbca2943e	-0.019846078
29	0xbc40b46e	-0.011761768
30	0x3cbcc40e	0.023042705
31	0x3d360a6c	0.044443533

net.layer2.1.weight f4 [32]
0	0x3f9413f8	1.1568594
1	0x3f8269fe	1.0188596
2	0x3f7b95b4	0.98275304
3	0x3f58eac3	0.8473322
4	0x3f7d5bfe	0.98968494
5	0x3f6be71c	0.9214952
6	0x3f73d7c8	0.9525113
7	0x3f741642	0.9534646
8	0x3f8b79b9	1.0896522
9	0x3f91f0ca	1.1401608
10	0x3f5da339	0.86577183
11	0x3f86bc0e	1.052614
12	0x3f76462a	0.9620081
13	0x3f69e821	0.91369826
14	0x3f8f816e	1.1211374
15	0x3f61a77b	0.8814618
16	0x3f75ce26	0.9601768
17	0x3f863f19	1.0488006
18	0x3f65f6fd	0.8983
19	0x3f6cfd6b	0.92574185
20	0x3f544b9b	0.82927865
21	0x3f78d761	0.9720364
22	0x3f8315cb	1.0241026
23	0x3f852ac6	1.0403678
24	0x3f60d486	0.87824285
25	0x3f69f4b9	0.9138904
26	0x3f91b3cd	1.1382996
27	0x3f804871	1.0022107
28	0x3f7ffea0	0.999979
29	0x3f7e4acc	0.9933288
30	0x3f562a2a	0.8365809
31	0x3f671939	0.9027286

net.layer2.1.bias f4 [32]
0	0x3d7f739f	0.062366124
1	0xbe991197	-0.29896232
2	0xbef4e3d5	-0.47830072
3	0xbec2b146	-0.38025874
4	0xbe9a9d3c	-0.30198085
5	0xbe54a539	-0.20766152
6	0xbe9e0297	-0.3086135
7	0x3c96e09a	0.018417645
8	0xbeabc756	-0.3355052
9	0xbe4d52a0	-0.2005105
10	0xbec65578	-0.38737082
11	0xbec095b9	-0.3761423
12	0xbe3a3331	-0.1818359
13	0x3ba8ca64	0.00515108
14	0xbe3bb810	-0.18331933
15	0xbe191d60	-0.14952612
16	0xbefc71f4	-0.4930569
17	0xbf1743b3	-0.59087676
18	0xbe09a3b0	-0.13441348
19	0xbe4bba6d	-0.19895335
20	0xbeb431e9	-0.35194328
21	0xbe2dd4e7	-0.16975747
22	0xbea18b5c	-0.31551635
23	0xbdf9f27d	-0.12204454
24	0xbe924879	-0.28570917
25	0xbec37b5b	-0.3818005
26	0xbe298325	-0.16553934
27	0xbeb66c25	-0.35629383
28	0xbea62ee8	-0.32457662
29	0xbe948cbe	-0.29013628
30	0xbed6d605	-0.4196016
31	0xbe42d14c	-0.19025153

net.layer2.1.running_mean f4 [32]
0	0x00000000	0.0
1	0x00000000	0.0
2	0x00000000	0.0
3	0x00000000	0.0
4	0x00000000	0.0
5	0x00000000	0.0
6	0x00000000	0.0
7	0x00000000	0.0
8	0x00000000	0.0
9	0x00000000	0.0
10	0x00000000	0.0
11	0x00000000	0.0
12	0x00000000	0.0
13	0x00000000	0.0
14	0x00000000	0.0
15	0x00000000	0.0
16	0x00000000	0.0
17	0x00000000	0.0
18	0x00000000	0.0
19	0x00000000	0.0
20	0x00000000	0.0
21	0x00000000	0.0
22	0x00000000	0.0
23	0x00000000	0.0
24	0x00000000	0.0
25	0x00000000	0.0
26	0x00000000	0.0
27	0x00000000	0.0
28	0x00000000	0.0
29	0x00000000	0.0
30	0x00000000	0.0
31	0x00000000	0.0

net.layer2.1.running_var f4 [32]
0	0x3f800000	1.0
1	0x3f800000	1.0
2	0x3f800000	1.0
3	0x3f800000	1.0
4	0x3f800000	1.0
5	0x3f800000	1.0
6	0x3f800000	1.0
7	0x3f800000	1.0
8	0x3f800000	1.0
9	0x3f800000	1.0
10	0x3f800000	1.0
11	0x3f800000	1.0
12	0x3f800000	1.0
13	0x3f800000	1.0
14	0x3f800000	1.0
15	0x3f800000	1.0
16	0x3f800000	1.0
17	0x3f800000	1.0
18	0x3f800000	1.0
19	0x3f800000	1.0
20	0x3f800000	1.0
21	0x3f800000	1.0
22	0x3f800000	1.0
23	0x3f800000	1.0
24	0x3f800000	1.0
25	0x3f800000	1.0
26	0x3f800000	1.0
27	0x3f800000	1.0
28	0x3f800000	1.0
29	0x3f800000	1.0
30	0x3f800000	1.0
31	0x3f800000	1.0

net.layer3.0.weight f4 [32, 32, 3, 3]
0	0xbe69e21f	-0.22840165
1	0xbdc93eb7	-0.09826415
2	0xbda756c3	-0.08170845
3	0xbe1d4137	-0.15356909
4	0xbe53ed0d	-0.20695896
5	0xbe279d25	-0.1636854
6	0xbd810702	-0.06300165
7	0xbd93bc96	-0.07213704
8	0xbdf63192	-0.120211735
9	0x3c944ffe	0.01810455
10	0xbc47087d	-0.01214802
11	0x3cce0645	0.025149474
12	0x3e004f4b	0.12530248
13	0x3dfdc595	0.123912014
14	0x3e3a08e5	0.18167455
15	0x3ce092f3	0.02741382
16	0x3dbfb47c	0.093605965
17	0xbd8a4c65	-0.06752852
18	0x3e41e524	0.18935066
19	0xbcfbf36a	-0.030755717
20	0x3d893109	0.06698806
21	0xbce19f85	-0.027541885
22	0xbcefd2ec	-0.02927538
23	0xbbb74793	-0.005593249
24	0xbddecfce	-0.10879479
25	0xbb7b41a6	-0.003833869
26	0xbd5b8da1	-0.053601865
27	0xbe3ec415	-0.18629487
28	0xbe2c5236	-0.16828236
29	0xbd457682	-0.04820872
30	0xbd8734c2	-0.0660186
31	0x3e51459e	0.20436713
32	0x3d96382e	0.07334934
33	0x3d8e3bf5	0.0694503
34	0x3e23db61	0.16001655
35	0x3dd50228	0.10400802
36	0xbe37a3ae	-0.17933533
37	0xbe22f9cd	-0.15915604
38	0xbe41baaa	-0.18918863
39	0xbdeb0a89	-0.11476619
40	0x3d7f54f7	0.06233689
41	0x3ceb7ed9	0.02874701
42	0x3cd0b637	0.025477512
43	0x3d5ee5ce	0.054418378
44	0xbe05d9a9	-0.13071312
45	0xbe33950e	-0.17537329
46	0xbe7966c5	-0.2435561
47	0xbcedcd45	-0.029028544
48	0x3c9cefce	0.019157317
49	0xbdb78342	-0.08960582
50	0xbc9af3df	-0.018915115
51	0xbd902bfe	-0.07039641
52	0xbdc6c752	-0.09705986
53	0x3c840f2e	0.01612052
54	0x3e5604f0	0.20900321
55	0x3e4e7e79	0.20165433
56	0x3dda2f68	0.10653573
57	0x3e58b2d0	0.21161962
58	0xbd64cb00	-0.05585766
59	0x3c6454b6	0.013936212
60	0x3d2e8f11	0.042616908
61	0x3d76e039	0.06027243
62	0x3e0aff78	0.13574016
63	0xbe6f47c9	-0.23367228
64	0xbe381829	-0.17977966
65	0xbe6ac13d	-0.22925277
66	0xbe7fcca7	-0.24980412
67	0xbe555d48	-0.20836365
68	0xbe2cdbdb	-0.16880743
69	0xbe262c2d	-0.16227789
70	0xbe2f8073	-0.17138843
71	0xbdce21c7	-0.10065036
72	0x3d0da46e	0.03458064
73	0x3e09dd62	0.13463357
74	0x3c081fbf	0.00830835
75	0x3e0cd3ca	0.13752666
76	0x3e84febd	0.259756
77	0x3b69c7e5	0.0035672125
78	0xbc41116f	-0.011783942
79	0x3d6d7ee1	0.05798233
80	0x3cf1e2c2	0.029527072
81	0xbd26e7f1	-0.04074854
82	0x3d6fe85b	0.0585712
83	0x3d362b14	0.044474676
84	0xbda89305	-0.08231167
85	0xbe3822e7	-0.17982064
86	0xbccb973a	-0.024852384
87	0xbd0a362b	-0.033743065
88	0xbe07c652	-0.13259247
89	0xbd7a566c	-0.061117575
90	0x3d88edb8	0.06685966
91	0xbdf40041	-0.11914111
92	0xbdf640b3	-0.12024059
93	0x3dc2875b	0.09498473
94	0xbe2f87ea	-0.17141691
95	0xbd110c15	-0.035411913
96	0xbe01aaeb	-0.12662856
97	0xbd8d1bb9	-0.06890053
98	0x3d4924aa	0.04910723
99	0x3d2a056f	0.041509088
100	0xbd808c17	-0.0627672
101	0xbc88945c	-0.016672306
102	0x3dce48d7	0.10072487
103	0x3e04db2b	0.12974231
104	0x3dada437	0.08478587
105	0x3d82da71	0.06389321
106	0x3bc7fc5a	0.0061030807
107	0xbd83ebcb	-0.06441458
108	0xbe6e95e7	-0.2329937
109	0xbd78cef9	-0.06074426
110	0xbd8b433d	-0.06799934
111	0xbd9e9a3d	-0.07744262
112	0x3e4fcc63	0.20292811
113	0xbdaa19d7	-0.0830571
114	0xbd2d21b5	-0.042268474
115	0xbca2cfdc	-0.019874506
116	0xbe82a41d	-0.25515833
117	0x3e37bef6	0.1794394
118	0x3e564549	0.20924868
119	0x3e787f8b	0.24267404
120	0x3da74547	0.081675105
121	0x3cd6a521	0.026201786
122	0x3e5c9f05	0.21545036
123	0xbc525f67	-0.0128401285
124	0x3e2ff193	0.17181997
125	0xbd0a21b0	-0.033723533
126	0xbda11393	-0.078650616
127	0xbdf4ebed	-0.11959062
128	0xbdd0b600	-0.10190964
129	0xbc687314	-0.014187593
130	0xbdbc23f0	-0.09186542
131	0xbd011e90	-0.031523287
132	0x3cf85754	0.030315079
133	0x3dba79e4	0.0910528
134	0xbd5e45f2	-0.054265924
135	0x3cdf6bd1	0.02727309
136	0x3db2e61f	0.08735298
137	0x3d8b4f29	0.06802208
138	0x3dc1991b	0.09453031
139	0x3bd113dd	0.0063805417
140	0x3b8fc99b	0.004388047
141	0x3e307dc3	0.17235474
142	0x3dbfec8c	0.093712896
143	0x3d9e9eab	0.07745107
144	0x3e9b62a7	0.30348703
145	0x3d4ac94b	0.049508374
146	0x3bd3adbf	0.006459921
147	0x3dbfafb4	0.093596846
148	0x3dfbe95a	0.12300368
149	0x3cdea9f1	0.027180644
150	0xbe2d0af3	-0.16898708
151	0xbcca0b5b	-0.024663618
152	0xbd0ce091	-0.03439385
153	0xbe1cc457	-0.15309273
154	0xbe144b1e	-0.1448178
155	0xbe339c3c	-0.17540067
156	0xbe029e52	-0.12755707
157	0xbdc2f6b8	-0.09519714
158	0xbe55ea65	-0.20890196
159	0xbea3d06a	-0.31994945
160	0xbe61b38d	-0.2204115
161	0xbe0f8d65	-0.14018781
162	0xbdfd0182	-0.12353803
163	0x3d68c5e6	0.056829356
164	0xbdbe2e5b	-0.09286185
165	0x3ddf7af6	0.10912125
166	0x3d2b28d2	0.041786976
167	0xbd0d9427	-0.034565117
168	0xbcebd9ff	-0.028790472
169	0xbc863de8	-0.016386941
170	0xbc9433ad	-0.018091047
171	0x3e6ef4d5	0.23335584
172	0x3dc6155b	0.09672042
173	0x3c0a7e81	0.008453012
174	0x3d279ee9	0.040923033
175	0x3cd72ff7	0.026267989
176	0x3d80d9d0	0.062915444
177	0xbd98c391	-0.07459176
178	0xbd468b77	-0.048472848
179	0x3dbc043e	0.09180497
180	0xbcd0d677	-0.02549289
181	0xbd2de1c8	-0.04245165
182	0x3c4084cf	0.011750414
183	0xbd9c1a03	-0.07622149
184	0xbd5e8b7e	-0.05433225
185	0xbd50a367	-0.050937083
186	0xbd0b0f6f	-0.033950265
187	0xbd53d907	-0.051720645
188	0xbe012c8a	-0.12614647
189	0xbe0fea80	-0.14054298
190	0xbd26006b	-0.040527742
191	0x3c3644ee	0.011124833
192	0xbd3b0648	-0.045660287
193	0x3d14e1c9	0.036348138
194	0xbc684073	-0.014175522
195	0xbd7c8ec4	-0.06165959
196	0xbdf25296	-0.11832158
197	0xbdec99e5	-0.115527906
198	0xbd8fc23b	-0.070194684
199	0xbe12aaa6	-0.1432291
200	0xbe1eeb4c	-0.15519446
201	0xbd64c2a5	-0.05584969
202	0xbdb774e2	-0.089578405
203	0xbd67c139	-0.056580756
204	0xbe6cecba	-0.23137179
205	0xbe6dad2b	-0.2321059
206	0xbe5928ce	-0.21206972
207	0xbc3a2cb5	-0.011363198
208	0xbb8fd81b	-0.0043897755
209	0x3de616b0	0.11234796
210	0xbe58532f	-0.21125482
211	0xbc079102	-0.008274319
212	0xbd8c917a	-0.06863685
213	0xbdb1bdcf	-0.08678781
214	0xbd0dd3b6	-0.03462573
215	0xbde9364f	-0.11387312
216	0x3d4eb0f8	0.05046174
217	0x3e59dbc9	0.21275248
218	0x3e1b43aa	0.1516253
219	0x3e092612	0.13393429
220	0x3e0bc45d	0.13649125
221	0x3e098e8b	0.13433282
222	0xbd4492f8	-0.047991723
223	0x3db333c8	0.08750111
224	0xbd5230fb	-0.051316243
225	0xbd3fe4e5	-0.04684915
226	0xbe1e2ab0	-0.15445971
227	0xbdc8c699	-0.098035045
228	0xbcd47886	-0.025936376
229	0x3dc004c8	0.09375912
230	0xbdb1b977	-0.08677953
231	0xbdd6be79	-0.104855485
232	0xbdb1f112	-0.08688559
233	0xbd3f1b29	-0.04665676
234	0x3d6c5d42	0.057706125
235	0x3d098a55	0.03357919
236	0x3d8d1556	0.06888835
237	0xbdaf10a9	-0.085480995
238	0x3d137eda	0.036009647
239	0x3d8bb387	0.068213515
240	0xbdc5dcbf	-0.096612446
241	0xbd66e1fb	-0.056367856
242	0xbd99672d	-0.07490382
243	0xbbcdc4a3	-0.0062795444
244	0xbdae088d	-0.08497725
245	0xbe3d0f79	-0.18462934
246	0x3d21dfdd	0.039520133
247	0x3e3daab4	0.1852215
248	0xbc26474c	-0.010148834
249	0xbcac1409	-0.021005647
250	0x3d953613	0.072857045
251	0xbdbb130a	-0.09134491
252	0xbc559d94	-0.013038058
253	0x3d5d2793	0.05399282
254	0xbc7ad2cd	-0.015309048
255	0x3d9913d2	0.074744835

net.layer3.0.bias f4 [32]
0	0x3d5c276c	0.053748533
1	0xbcbe6368	-0.02324076
2	0xbc1ea91b	-0.009683873
3	0x3cdf90d1	0.027290734
4	0x3d471b58	0.04861006
5	0x3d4e9cd8	0.050442547
6	0xbd46da08	-0.048547775
7	0xbd7bb76d	-0.061454225
8	0xbbd71283	-0.006563486
9	0xbc00321f	-0.00782445
10	0xbc6f2036	-0.014595082
11	0xbc4e5d96	-0.012595555
12	0xbd2b8069	-0.04187051
13	0x3b1f5d24	0.002431699
14	0x3d3fa2d8	0.04678616
15	0xbb755040	-0.0037431866
16	0xbce15a2d	-0.02750882
17	0x3b5aff4a	0.0033416324
18	0x3d668abd	0.056284655
19	0x3c8c7124	0.017143793
20	0x3c224e5e	0.0099063795
21	0xbad1e0b3	-0.00160124
22	0x3d074c94	0.033032015
23	0x3c8f6ced	0.017507995
24	0x3c3cbdd9	0.011519873
25	0xbd30ea61	-0.04319227
26	0x3d2b7fc2	0.041869886
27	0x3c8c355c	0.017115287
28	0x3cae415b	0.021271398
29	0x3d4332f9	0.047656033
30	0xbc3b0044	-0.011413638
31	0xbcee6dcf	-0.029105095

net.layer3.1.weight f4 [32]
0	0x3f8a8fe1	1.0825158
1	0x3f5c0a1d	0.8595293
2	0x3f5aed83	0.85518664
3	0x3f703457	0.93829864
4	0x3f87db39	1.0613776
5	0x3f371ddd	0.7152994
6	0x3f8d1b93	1.102404
7	0x3f53ee3c	0.8278539
8	0x3f376527	0.7163872
9	0x3f7fa75f	0.99864763
10	0x3f35569c	0.7083528
11	0x3f3ddcd7	0.741651
12	0x3f10e747	0.566029
13	0x3f373c63	0.7157652
14	0x3f8079fe	1.0037229
15	0x3f0bf96b	0.54677457
16	0x3f79cbf3	0.97576827
17	0x3f2ad245	0.66727096
18	0x3f6ab34e	0.9167985
19	0x3f671f46	0.90282094
20	0x3fb5d1ce	1.4204652
21	0x3f9b35f1	1.2125837
22	0x3f1c4d8d	0.61055833
23	0x3f4237c0	0.7586632
24	0x3f6df831	0.92956835
25	0x3f8349c8	1.0256891
26	0x3f4f51ea	0.80984366
27	0x3f3a9f2e	0.7289914
28	0x3f80ac7e	1.005264
29	0x3f6e0c43	0.9298746
30	0x3f72bc6d	0.94818765
31	0x3f94ec9a	1.1634705

net.layer3.1.bias f4 [32]
0	0xbecfed2e	-0.4061064
1	0xbefd24c9	-0.49442127
2	0xbf243c31	-0.64154345
3	0xbf21fa0f	-0.63272184
4	0xbf24b944	-0.6434519
5	0xbece145d	-0.4024991
6	0xbf176e9d	-0.5915316
7	0xbf0e6b67	-0.5563263
8	0xbe24abed	-0.1608121
9	0xbf237899	-0.6385589
10	0xbe806b14	-0.25081694
11	0xbeaf7150	-0.34266138
12	0xbddb940b	-0.10721596
13	0xbec0f7df	-0.3768911
14	0xbe854949	-0.26032475
15	0xbee1bbb7	-0.44088528
16	0xbf156eef	-0.58372396
17	0xbe9d7b3d	-0.30758086
18	0xbeec0341	-0.46096233
19	0xbf4c950f	-0.79914945
20	0xbf6ee95f	-0.93324846
21	0xbf23a557	-0.63924164
22	0xbea1ba31	-0.31587365
23	0xbe5d4dd8	-0.21611726
24	0xbedd620f	-0.43238875
25	0xbef478a3	-0.4774829
26	0xbef9063b	-0.48637566
27	0xbedb962e	-0.42888016
28	0xbeaa8865	-0.33307186
29	0xbeba1432	-0.36343533
30	0xbf03766c	-0.5135257
31	0xbefaffed	-0.4902338

net.layer3.1.running_mean f4 [32]
0	0x00000000	0.0
1	0x00000000	0.0
2	0x00000000	0.0
3	0x00000000	0.0
4	0x00000000	0.0
5	0x00000000	0.0
6	0x00000000	0.0
7	0x00000000	0.0
8	0x00000000	0.0
9	0x00000000	0.0
10	0x00000000	0.0
11	0x00000000	0.0
12	0x00000000	0.0
13	0x00000000	0.0
14	0x00000000	0.0
15	0x00000000	0.0
16	0x00000000	0.0
17	0x00000000	0.0
18	0x00000000	0.0
19	0x00000000	0.0
20	0x00000000	0.0
21	0x00000000	0.0
22	0x00000000	0.0
23	0x00000000	0.0
24	0x00000000	0.0
25	0x00000000	0.0
26	0x00000000	0.0
27	0x00000000	0.0
28	0x00000000	0.0
29	0x00000000	0.0
30	0x00000000	0.0
31	0x00000000	0.0

net.layer3.1.running_var f4 [32]
0	0x3f800000	1.0
1	0x3f800000	1.0
2	0x3f800000	1.0
3	0x3f800000	1.0
4	0x3f800000	1.0
5	0x3f800000	1.0
6	0x3f800000	1.0
7	0x3f800000	1.0
8	0x3f800000	1.0
9	0x3f800000	1.0
10	0x3f800000	1.0
11	0x3f800000	1.0
12	0x3f800000	1.0
13	0x3f800000	1.0
14	0x3f800000	1.0
15	0x3f800000	1.0
16	0x3f800000	1.0
17	0x3f800000	1.0
18	0x3f800000	1.0
19	0x3f800000	1.0
20	0x3f800000	1.0
21	0x3f800000	1.0
22	0x3f800000	1.0
23	0x3f800000	1.0
24	0x3f800000	1.0
25	0x3f800000	1.0
26	0x3f800000	1.0
27	0x3f800000	1.0
28	0x3f800000	1.0
29	0x3f800000	1.0
30	0x3f800000	1.0
31	0x3f800000	1.0

net.layer4.0.weight f4 [32, 32, 3, 3]
0	0xbdf26e47	-0.1183744
1	0xbdf2ad0d	-0.11849413
2	0xbd6f18a0	-0.058373094
3	0xbd160b16	-0.036631666
4	0x3c016923	0.007898602
5	0xbdf93c34	-0.12169686
6	0xbd99be04	-0.07506946
7	0xbd547e71	-0.051878396
8	0xbd48acde	-0.048992984
9	0x3d01075c	0.03150116
10	0xbbf9541e	-0.0076089045
11	0xbd181a36	-0.03713437
12	0xbe05fcc7	-0.13084708
13	0xbd002ec5	-0.031294603
14	0xbdae49c0	-0.085101604
15	0x3cdf3f32	0.027251814
16	0x3ce19a30	0.027539343
17	0x3dcc3b0b	0.09972199
18	0x3e24eaa0	0.16105127
19	0x3da3faed	0.08006845
20	0x3df16f80	0.11788845
21	0xbdac0269	-0.08398897
22	0x3b94e73e	0.004544168
23	0xbd39cba7	-0.045360234
24	0xbab2999b	-0.00136261
25	0xbe10d626	-0.14144191
26	0xbd79f4d2	-0.061024494
27	0xbc6443b3	-0.013932156
28	0x3cfdc2da	0.030976702
29	0xbd167d60	-0.03674066
30	0x3d32020f	0.043458994
31	0xbcb8a06b	-0.02253743
32	0x3c6edaa2	0.014578493
33	0xbd68eb0d	-0.056864787
34	0xbd92c1c0	-0.07165861
35	0xbdcbdc8d	-0.09954176
36	0xbdb0e7c9	-0.086379595
37	0x3d5933ce	0.05302792
38	0x3ca5b620	0.020228446
39	0x3cd03f29	0.025420742
40	0x3d7bf5d7	0.061513748
41	0x3d523d7b	0.051328164
42	0xbdba667c	-0.091015786
43	0x3b82cf5e	0.0039920053
44	0xbb2ba2ee	-0.0026189643
45	0xbe2558ec	-0.16147202
46	0xbd9c3547	-0.07627349
47	0xbceaeb1a	-0.028676558
48	0xbdb97908	-0.09056288
49	0xbc4b9117	-0.012424729
50	0x3c225db9	0.009910041
51	0xbc4738ed	-0.012159568
52	0xbc0d716c	-0.008632999
53	0x3cdad549	0.02671303
54	0xbe1f71cf	-0.15570758
55	0xbe079674	-0.13240987
56	0xbd6e1475	-0.058124978
57	0xbc3c1f06	-0.011482006
58	0xbbcf74da	-0.0063310685
59	0xbd502ceb	-0.050824087
60	0xbbac21da	-0.005253059
61	0x3cc7f01a	0.024406482
62	0x3deb6780	0.114943504
63	0x3cb5fa1d	0.02221399
64	0x3e02e6c4	0.12783343
65	0x3d9994d4	0.0749909
66	0x3d50a515	0.050938684
67	0x3d0a7b83	0.033809196
68	0x3e08931a	0.13337365
69	0x3d513700	0.051077843
70	0x3d2dc3bf	0.042423006
71	0x3d924237	0.07141536
72	0x3e974e70	0.2955203
73	0x3e6284de	0.22120997
74	0x3e820d95	0.25400987
75	0x3e91a17a	0.2844351
76	0x3e560558	0.20900476
77	0x3e82f5c7	0.25578138
78	0x3e851d64	0.25998986
79	0x3e78c84d	0.24295159
80	0x3e208c51	0.15678526
81	0x3ea409de	0.32038778
82	0x3e6b1493	0.22957067
83	0x3e999860	0.29999065
84	0x3e8f97d6	0.2804553
85	0x3e148e6f	0.14507459
86	0x3e723663	0.2365356
87	0x3e9bdb5e	0.304408
88	0x3e97e9c6	0.29670542
89	0x3ea336c4	0.3187772
90	0x3d65413f	0.055970427
91	0x3d298fb3	0.041396808
92	0xbdecf4db	-0.1157014
93	0x3ab89d7a	0.0014085018
94	0xbd029ae5	-0.031886
95	0x3d5144cb	0.051090997
96	0xbd64b0dc	-0.05583273
97	0xbbeeb7db	-0.007285101
98	0xbc263209	-0.010143765
99	0xbe065eab	-0.1312205
100	0xbd0c05f2	-0.034185357
101	0xbd9d2247	-0.076725535
102	0xbe71259d	-0.23549505
103	0xbe2ad5e5	-0.16683157
104	0xbe2de80b	-0.16983049
105	0xbe33658d	-0.17519207
106	0xbe196cca	-0.14982906
107	0xbe66ad6a	-0.2252709
108	0xbd1d13ac	-0.03834884
109	0xbe11447c	-0.14186281
110	0xbd95eac8	-0.073201716
111	0xbdd776c2	-0.10520698
112	0xbca771bd	-0.020439977
113	0xbd01e5ae	-0.03171318
114	0xbca64ba5	-0.020299742
115	0x3da95fe3	0.08270242
116	0x3cab5011	0.020912202
117	0xbd3c4349	-0.045962606
118	0x3d0d388b	0.03447775
119	0xbbc30acd	-0.0059522153
120	0xbc956357	-0.018235845
121	0x3b4fd1d4	0.003171076
122	0x3ac8f830	0.0015332755
123	0x3cb159ed	0.021649325
124	0xbc6b2cc0	-0.014353931
125	0xbdc9cc09	-0.0985337
126	0xbdf33266	-0.11874847
127	0xbdf89661	-0.121380575
128	0xbc7af18b	-0.015316377
129	0xbdddc38b	-0.108283125
130	0xbd8f0403	-0.06983187
131	0xbdc2a9cd	-0.09505043
132	0x3b7a821a	0.003822452
133	0xbd8baa51	-0.06819595
134	0x3cf4b382	0.029870752
135	0xbd81c735	-0.06336824
136	0xbc12dcd1	-0.00896378
137	0xbdb1becb	-0.08678969
138	0xbdc66ce9	-0.09688742
139	0xbe0b1b78	-0.13584697
140	0xbe0e7223	-0.13910727
141	0xbdfb3790	-0.12266457
142	0xbd8bddad	-0.06829391
143	0xbdeeb7b4	-0.11656132
144	0xbd18c2ef	-0.03729528
145	0xbdd161f1	-0.10223759
146	0xbd60fe2f	-0.05492991
147	0xbe2fb8fb	-0.17160408
148	0xbe1408f5	-0.14456542
149	0xbdfb4b54	-0.12270227
150	0xbdcc01ac	-0.099612564
151	0xbe474dde	-0.19463298
152	0xbe0acc03	-0.13554387
153	0x3deeb0f9	0.116548486
154	0x3db592ed	0.088659145
155	0x3e11e042	0.14245704
156	0x3d39f99e	0.04540407
157	0x3d56c9fc	0.05243872
158	0x3e4109bc	0.1885137
159	0xbb2573d8	-0.002524605
160	0xbd8746b9	-0.06605286
161	0x3d2e8a48	0.042612344
162	0x3e1a54f9	0.15071477
163	0x3dab20b4	0.08355847
164	0x3d4a8190	0.049439967
165	0x3dff58fc	0.12468144
166	0x3e24f55e	0.16109225
167	0x3e015c28	0.12632811
168	0x3dbd2ece	0.09237443
169	0x3dd52945	0.10408262
170	0x3b75d164	0.003750884
171	0xbc666ef3	-0.014064538
172	0xbc817a0e	-0.01580527
173	0xbd89fffc	-0.06738278
174	0x3d895664	0.06705931
175	0x3d41e680	0.047338963
176	0x3ca9fe2e	0.020751085
177	0x3d52ca03	0.051462185
178	0x3cfdaac8	0.030965224
179	0x3acab9ec	0.0015466786
180	0xbd7c8f15	-0.06165989
181	0xbd50badb	-0.05095945
182	0xbd379989	-0.044824157
183	0xbda4704b	-0.08029231
184	0xbcec35d3	-0.02883426
185	0xbd02fc79	-0.031979058
186	0xbca1cdad	-0.019751394
187	0xbd97dfe1	-0.074157484
188	0xbd4d4578	-0.05011508
189	0xbd1dc81e	-0.038520925
190	0x3cc57ee5	0.02410836
191	0xbda0ae2d	-0.078457214
192	0xbd1006a2	-0.035162576
193	0xbc46fc2f	-0.012145086
194	0xbd9355af	-0.07194077
195	0xbdd87460	-0.10569072
196	0xbda0fc24	-0.07860592
197	0xbd94c82f	-0.072647445
198	0x3e172647	0.14760695
199	0x3e351b2a	0.17686144
200	0x3e88944b	0.2667564
201	0x3dc2cbb7	0.09511512
202	0x3e45b628	0.19307768
203	0x3de76f48	0.11300522
204	0x3dad15d0	0.08451426
205	0x3e24d83c	0.16098112
206	0x3df8d5dc	0.121501654
207	0x3ca3f387	0.020013584
208	0x3cc81acc	0.02442684
209	0x3db2248a	0.086983755
210	0x3b59493b	0.003315522
211	0x3c5077b7	0.012723855
212	0x3d3b4a72	0.045725293
213	0x3d5fc0e9	0.054627333
214	0xbc89c38b	-0.016816875
215	0x3d8cb96c	0.06871304
216	0x3e586abe	0.21134469
217	0x3d9dce69	0.07705385
218	0x3e03e58e	0.12880537
219	0x3d8a8d7e	0.06765269
220	0x3d717736	0.05895158
221	0x3d500989	0.050790343
222	0x3d134706	0.035956405
223	0x3b4e261b	0.0031455818
224	0xbd88abe9	-0.06673414
225	0xbdd6f425	-0.104957856
226	0xbd90b7ef	-0.070663325
227	0xbdab2b7f	-0.083579056
228	0xb8ade444	-8.2918006e-05
229	0xbd1c8b1e	-0.03821861
230	0xbdfc1c92	-0.12310137
231	0xbb30ecef	-0.0026996692
232	0xbc4b3ea0	-0.012405068
233	0xbc8e573f	-0.017375587
234	0x3d0239ef	0.03179353
235	0xbd451ff9	-0.048126195
236	0xbc59d57a	-0.013295526
237	0x3d9b931c	0.07596418
238	0x3d1e8f31	0.038710777
239	0xbca793de	-0.02045625
240	0x3e1d67a1	0.15371563
241	0x3da79257	0.08182209
242	0x3cfb196d	0.030651772
243	0xbda3ec72	-0.08004083
244	0xbda9623a	-0.08270688
245	0xbe23171d	-0.15926786
246	0xbda7637b	-0.08173271
247	0xbda1b07c	-0.0789499
248	0xbe0d4e58	-0.13799417
249	0xbe162b3f	-0.14664935
250	0xbe042932	-0.1290634
251	0xbdde34e0	-0.10849929
252	0x3a97973f	0.0011565461
253	0xbb9eb17d	-0.0048429356
254	0xbdbd6cfc	-0.09249303
255	0xbd7fc620	-0.062444806

net.layer4.0.bias f4 [32]
0	0x3af03c54	0.0018328526
1	0xbce2e530	-0.027697176
2	0xbcd8a7bb	-0.026447168
3	0x3cdb65bd	0.026781911
4	0x3c128fd8	0.008945428
5	0x3cb8f05b	0.022575548
6	0xbd52d8ad	-0.05147617
7	0x3ca5ca23	0.020237988
8	0xbc988508	-0.018618122
9	0xbd0446db	-0.032294136
10	0x3cfb07a4	0.030643292
11	0xbc163cd6	-0.009169778
12	0xbc874603	-0.016512876
13	0x3b230678	0.0024875682
14	0x3d53d876	0.051720105
15	0xbcb976d1	-0.022639664
16	0x3bcbd19a	0.006220055
17	0x3d638589	0.05554727
18	0x3caa571e	0.020793494
19	0x3caf91e3	0.021431869
20	0x3d23d9fa	0.0400028
21	0xbd2bfa3e	-0.041986696
22	0x3c0ae14a	0.008476565
23	0x3d35e4fc	0.04440783
24	0x3caff6d1	0.021479996
25	0xbd29e7ba	-0.041480757
26	0x3d2f66f2	0.042822786
27	0x3cefccf5	0.029272536
28	0xbd140ecc	-0.036146924
29	0x3ce682af	0.028138487
30	0x3d444817	0.047920313
31	0x3ce3f363	0.027826017

net.layer4.1.weight f4 [32]
0	0x3fb80251	1.4375707
1	0x4017f9ad	2.374614
2	0x401fd227	2.4972017
3	0x3f7c1280	0.9846573
4	0x40274bd6	2.6140037
5	0x3f366087	0.7124104
6	0x40270b5c	2.6100683
7	0x403795c3	2.8685157
8	0x3f8792a5	1.0591627
9	0x40238aef	2.5553548
10	0x4009e5ca	2.1546502
11	0x40388509	2.8831198
12	0x3fe27ee5	1.7694975
13	0x401ed6af	2.4818532
14	0x3f82b661	1.0211908
15	0x3fdaa66f	1.7082042
16	0x3ffbeb06	1.9681098
17	0x3fdb6dd4	1.7142892
18	0x4003afd2	2.0576062
19	0x3f1b0144	0.60548806
20	0x3ff49d3d	1.9110485
21	0x3fcfb5e7	1.6227387
22	0x3ff13fe8	1.8847628
23	0x3eda8d38	0.42685866
24	0x40095aef	2.1461751
25	0x4053d311	3.3097575
26	0x4019836a	2.3986459
27	0x403c0049	2.9375174
28	0x400f02cc	2.2345457
29	0x40590cd1	3.3914073
30	0x3ffd9b43	1.9813007
31	0x400a9c87	2.1658037

net.layer4.1.bias f4 [32]
0	0xbe07e7b9	-0.13271989
1	0x3e332776	0.17495522
2	0x3df33326	0.1187499
3	0xbe3a1e68	-0.18175662
4	0x3dd07026	0.101776406
5	0xbf00713c	-0.5017278
6	0x3e4cbb12	0.19993237
7	0x3e043fd7	0.12914978
8	0xbd5d4d85	-0.054029007
9	0x3e20ec6f	0.15715192
10	0xbe4f822a	-0.20264497
11	0x3e6b25d9	0.22963656
12	0xbee5fb74	-0.44918406
13	0x3ca62892	0.020283017
14	0xbeb71c3e	-0.35763735
15	0xbe8f21dd	-0.27955523
16	0xbdb89392	-0.09012522
17	0xbeaef41e	-0.34170622
18	0xbe0a7c9b	-0.13524096
19	0xbedf32b3	-0.43593368
20	0x3d33d4a6	0.04390397
21	0xbe019e18	-0.12657964
22	0xbe22879e	-0.15872046
23	0xbf09680c	-0.5367439
24	0xbe0a7329	-0.13520493
25	0xbf0b3eb7	-0.5439257
26	0xbc852df2	-0.01625726
27	0x3e6bee43	0.23040108
28	0xbe64b38d	-0.22334118
29	0x3e93a270	0.28834867
30	0xbe87cee9	-0.26525047
31	0xbd66cdbd	-0.05634855

net.layer4.1.running_mean f4 [32]
0	0x00000000	0.0
1	0x00000000	0.0
2	0x00000000	0.0
3	0x00000000	0.0
4	0x00000000	0.0
5	0x00000000	0.0
6	0x00000000	0.0
7	0x00000000	0.0
8	0x00000000	0.0
9	0x00000000	0.0
10	0x00000000	0.0
11	0x00000000	0.0
12	0x00000000	0.0
13	0x00000000	0.0
14	0x00000000	0.0
15	0x00000000	0.0
16	0x00000000	0.0
17	0x00000000	0.0
18	0x00000000	0.0
19	0x00000000	0.0
20	0x00000000	0.0
21	0x00000000	0.0
22	0x00000000	0.0
23	0x00000000	0.0
24	0x00000000	0.0
25	0x00000000	0.0
26	0x00000000	0.0
27	0x00000000	0.0
28	0x00000000	0.0
29	0x00000000	0.0
30	0x00000000	0.0
31	0x00000000	0.0

net.layer4.1.running_var f4 [32]
0	0x3f800000	1.0
1	0x3f800000	1.0
2	0x3f800000	1.0
3	0x3f800000	1.0
4	0x3f800000	1.0
5	0x3f800000	1.0
6	0x3f800000	1.0
7	0x3f800000	1.0
8	0x3f800000	1.0
9	0x3f800000	1.0
10	0x3f800000	1.0
11	0x3f800000	1.0
12	0x3f800000	1.0
13	0x3f800000	1.0
14	0x3f800000	1.0
15	0x3f800000	1.0
16	0x3f800000	1.0
17	0x3f800000	1.0
18	0x3f800000	1.0
19	0x3f800000	1.0
20	0x3f800000	1.0
21	0x3f800000	1.0
22	0x3f800000	1.0
23	0x3f800000	1.0
24	0x3f800000	1.0
25	0x3f800000	1.0
26	0x3f800000	1.0
27	0x3f800000	1.0
28	0x3f800000	1.0
29	0x3f800000	1.0
30	0x3f800000	1.0
31	0x3f800000	1.0

net.classifier.weight f4 [5, 800]
0	0x3caabdff	0.02084255
1	0x3ae6075f	0.0017549804
2	0x3cb8af0c	0.022544406
3	0xbc4d1201	-0.0125164995
4	0x3bcb450c	0.0062032994
5	0x3c23daf6	0.010000935
6	0x3d82a6f1	0.06379498
7	0xbbc07aa3	-0.0058739944
8	0x3b9aba84	0.0047219414
9	0x3b34a711	0.00275654
10	0xbc323802	-0.010877611
11	0xb9c3e659	-0.0003736492
12	0x3d281653	0.041036915
13	0x3b623564	0.0034516687
14	0xbc966097	-0.018356605
15	0xbd182934	-0.03714867
16	0xbc3872f2	-0.011257874
17	0x3ce19443	0.027536517
18	0xb8ca08ea	-9.633771e-05
19	0xbb8cf49c	-0.0043016206
20	0xbc2c1614	-0.010503311
21	0xbd27e314	-0.040988043
22	0xbc12bd22	-0.008956226
23	0x3d7e229b	0.06204472
24	0x3aaa4ce6	0.0012992888
25	0x3c73ec5f	0.014887898
26	0x3cc4d90d	0.02402928
27	0xbc85505e	-0.016273674
28	0xbc000397	-0.007813356
29	0x3d487dbb	0.04894803
30	0x3caa5a10	0.020794898
31	0xbd138716	-0.0360175
32	0x3a832264	0.0010004756
33	0xbcbaaacc	-0.02278652
34	0x3c011b6f	0.007880076
35	0xbd0bfbe0	-0.034175754
36	0xbc553522	-0.013013156
37	0xbb80eb60	-0.003934309
38	0xbc34bb3c	-0.011030968
39	0xbc5c7f88	-0.01345814
40	0x3c9eaf11	0.019370588
41	0xbc42e462	-0.011895271
42	0xbb133a79	-0.0022465272
43	0xbcef9fc5	-0.029250989
44	0xbc8be42f	-0.01707658
45	0x3c5f703f	0.013637601
46	0x3b43d582	0.00298819
47	0xbcec61f2	-0.028855298
48	0xbd215c6f	-0.039394792
49	0x3c1ed5db	0.009694542
50	0x3d0a1fb3	0.033721637
51	0x3d38fc7b	0.04516266
52	0xbac74d14	-0.0015205466
53	0xbc940f48	-0.018073693
54	0xbce3792e	-0.027767744
55	0x3cf2154e	0.029551174
56	0x3beeaaf3	0.0072835623
57	0xbd0e3324	-0.03471674
58	0x39a0c3b4	0.00030663388
59	0xbcc4c849	-0.024021285
60	0xbd11d765	-0.035605807
61	0xbaa6ade3	-0.0012716617
62	0xbd306312	-0.04306323
63	0xbcb280e7	-0.021789981
64	0x3d36168f	0.044455107
65	0xbc4a3627	-0.0123420125
66	0xbca676f6	-0.020320397
67	0x3cb1d1d9	0.021706508
68	0xbd369c35	-0.044582564
69	0xbb924695	-0.0044639804
70	0xbc2359c9	-0.009970137
71	0xbc8fda95	-0.017560283
72	0x3c2430d7	0.01002141
73	0x3c6f98c3	0.014623824
74	0xbc2f9757	-0.010717235
75	0xbc64b2c8	-0.01395864
76	0x3c29c927	0.0103629
77	0xbd605bb0	-0.05477494
78	0x3cf0fa9b	0.029416373
79	0xbb28f677	-0.002578167
80	0x3d406657	0.0469726
81	0xbd255bf9	-0.040370915
82	0xbca47de1	-0.020079555
83	0xbd98af01	-0.07455254
84	0xbc95e3c6	-0.018297087
85	0xbcfa0ae1	-0.030522766
86	0xbd84a786	-0.06477265
87	0xbdabda1a	-0.08391209
88	0xbdab9e48	-0.08379799
89	0xbd30a95f	-0.043130275
90	0xbc8c27cd	-0.017108822
91	0xbb8b210a	-0.004245882
92	0xbdb9a5c0	-0.090648174
93	0xbd139181	-0.036027435
94	0xbcca2113	-0.024673974
95	0xbbf49f32	-0.0074652666
96	0xbd060d8d	-0.032727767
97	0xbd08811b	-0.03332625
98	0xbc95377e	-0.018214937
99	0xbd309ae6	-0.043116473
100	0xbb411562	-0.0029462208
101	0xbc2b56b8	-0.010457687
102	0xbcc93607	-0.024561895
103	0xbcf4b3d2	-0.029870901
104	0xbad9ef6e	-0.0016627142
105	0x3cc1cf64	0.023658462
106	0x3d67030b	0.056399386
107	0x3c890d07	0.016729845
108	0x3cada74c	0.021197937
109	0x3ce825c5	0.028338322
110	0xbc9af825	-0.018917153
111	0x3bd31aec	0.0064424183
112	0xbd0a90c1	-0.033829454
113	0x3c4e577b	0.012594099
114	0x3cc1d9b1	0.023663374
115	0xbd1b0ccb	-0.037853997
116	0x3c91d5a4	0.017802067
117	0xbc2170c1	-0.009853543
118	0xbc9978cf	-0.018734364
119	0x3cae71cc	0.021294497
120	0xbaafda5e	-0.0013416519
121	0xbaaaeb25	-0.0013040049
122	0xba872153	-0.0010309614
123	0xbd0be36a	-0.034152426
124	0x3b4deb6b	0.0031420838
125	0xbd138c7f	-0.03602266
126	0x3c94f50c	0.018183254
127	0xbc0c507d	-0.008564112
128	0xbb209aac	-0.0024506254
129	0xbc889c17	-0.016675992
130	0x3c962fcd	0.01833334
131	0xbb89846e	-0.004196695
132	0x3ce51bbb	0.027967324
133	0xbcb6c066	-0.02230854
134	0x3d8d2dda	0.06893511
135	0xbb5bfc81	-0.0033567252
136	0xbc7698e3	-0.0150510995
137	0x3d0cb529	0.034352455
138	0x3ca05be4	0.019575067
139	0xb9235449	-0.0001557629
140	0x3bb8ea42	0.00564316
141	0x3a3d1949	0.00072135456
142	0x398c6e5e	0.0002678511
143	0x3b73edb0	0.003722053
144	0x3c87aadb	0.016560962
145	0x3d1005e9	0.035161886
146	0xbd64eaf1	-0.05588812
147	0x3cdb76e6	0.026790094
148	0xbc26b3ec	-0.010174733
149	0xbba73cf9	-0.005103704
150	0x3c865029	0.016395645
151	0xbc42265d	-0.011849967
152	0xbd20418d	-0.039125014
153	0xbc79cf8c	-0.015247237
154	0xbbeb8146	-0.0071870415
155	0x3af28150	0.0018501673
156	0x3cb8f972	0.022579882
157	0x3bc2dee9	0.005946983
158	0xbd0fb890	-0.035088122
159	0x3c623f70	0.01380907
160	0x3d1049e9	0.035226736
161	0x3bf836de	0.0075749
162	0xbc7c8e67	-0.015414811
163	0xbd526c32	-0.051372714
164	0xbb1afb46	-0.0023648306
165	0xbb5a9ed5	-0.0033358831
166	0xbb429d92	-0.002969597
167	0xbbdf4597	-0.0068137157
168	0x3cf19066	0.0294878
169	0xbc8ddec2	-0.017318133
170	0x3c992f33	0.018699264
171	0x3cb1feea	0.021727998
172	0xbc3e9f48	-0.011634655
173	0xbc9d0a31	-0.019169899
174	0x3d37256a	0.044713415
175	0xbcc1d4cb	-0.023661038
176	0x3c540711	0.012941138
177	0x3b9e0e0c	0.004823452
178	0xbca7039a	-0.02038746
179	0x3a32e1bc	0.0006823798
180	0x3d181b1b	0.037135225
181	0x3cdd9380	0.027047873
182	0x3c81bdac	0.015837513
183	0xbcf2e5d0	-0.029650599
184	0x3c255c4d	0.010092807
185	0xbd037a86	-0.03209927
186	0xbbf4544e	-0.007456339
187	0x3c00d5c5	0.007863467
188	0xbca55a2c	-0.020184599
189	0x3cd6e959	0.026234316
190	0x3bfb97ec	0.0076780226
191	0x3c0d4e94	0.0086246915
192	0x3be72d5a	0.007054967
193	0x3ab7308a	0.0013976258
194	0xbd00061e	-0.031255834
195	0x3ca027e2	0.019550268
196	0x3b5399d3	0.0032287731
197	0xbcfffeae	-0.03124937
198	0xbd312d64	-0.04325618
199	0xbc8767fa	-0.016529072
200	0x3d0f12aa	0.03492991
201	0x3d20c603	0.03925134
202	0x3ceee2ec	0.02916094
203	0xbc991cf3	-0.018690562
204	0x3d4cc09c	0.049988374
205	0xb93bf420	-0.00017924653
206	0x3ce7c755	0.028293291
207	0xbc90e66d	-0.017688
208	0xbcd96e0e	-0.026541736
209	0xbb358e5f	-0.0027703268
210	0x3d6fcf9d	0.058547605
211	0xbd24d7b4	-0.040244773
212	0xbd327ab4	-0.04357405
213	0x3c54d119	0.012989306
214	0x3a6549d0	0.00087466557
215	0x3cbd6ee5	0.023124168
216	0x3c915d7a	0.017744768
217	0xbcf5915d	-0.029976541
218	0xbd425292	-0.047442026
219	0xbcaad599	-0.020853804
220	0xbd17fedd	-0.03710829
221	0x3ceea170	0.029129714
222	0xbcabec00	-0.020986557
223	0xbc2c1809	-0.010503777
224	0x3d0a67c5	0.03379037
225	0x3d540c41	0.0517695
226	0xbc546177	-0.012962691
227	0xbcc3968b	-0.023875495
228	0xbb9d0b49	-0.004792605
229	0xbc4d9543	-0.012547794
230	0x3aa3e652	0.0012504554
231	0xbd06f61b	-0.03294955
232	0xbc25d5e3	-0.010121795
233	0xbd027808	-0.031852752
234	0xbc7f2b6e	-0.015574319
235	0xbc26d5e5	-0.010182832
236	0xbc620926	-0.0137961265
237	0x3c8b3666	0.016993713
238	0xbcaf3293	-0.02138642
239	0xbc1cb500	-0.009564638
240	0x3cc49937	0.02399884
241	0x3b0d14b8	0.0021527242
242	0xbd4e9d94	-0.050443247
243	0x3c96ca55	0.018407026
244	0xbc0586cf	-0.008149817
245	0x3cd95f3d	0.026534671
246	0x3cfa007c	0.03051781
247	0x3c77dc44	0.015128199
248	0x3d3bfed1	0.04589731
249	0xbcb34f33	-0.021888351
250	0x3d0b6783	0.034034263
251	0xbb27b950	-0.0025592633
252	0x3cb4728c	0.022027276
253	0x3b4776e4	0.0030435855
254	0x3cd5f08c	0.026115678
255	0xbcebabbb	-0.02876841

net.classifier.bias f4 [5]
0	0x3d7fe82a	0.06247727
1	0x3d917402	0.07102205
2	0xbe0a78f8	-0.13522708
3	0xbca07546	-0.01958717
4	0x3d4b77a4	0.049674645
