mp/maml_mini_5way_1shot_best_step2500_conv_first.pt (torch, 497992 bytes, 26 tensors)

net.layer1.0.weight f4 [64, 3, 3, 3]
0	0xbd2aa683	-0.041662704
1	0xbd7456e6	-0.059653185
2	0x3d817a6c	0.06322178
3	0x3df87c7e	0.1213312
4	0xbd8fe274	-0.070256144
5	0x3cb9a3ee	0.022661176
6	0xbccd52fb	-0.025063982
7	0xbc8e273e	-0.017352697
8	0x3d806424	0.062691
9	0x3d3c68d9	0.045998428
10	0xbd6679ea	-0.05626861
11	0x3dbe3a0e	0.09288417
12	0x3ca0c659	0.01962583
13	0xbd9dbf5a	-0.07702513
14	0x3db912e3	0.090368055
15	0x3d83b226	0.064304635
16	0xbe13b9df	-0.14426373
17	0x3d7da9e7	0.06192961
18	0xbc94930d	-0.018136526
19	0xbd600bcf	-0.05469876
20	0x3e328b83	0.17436032
21	0x3d7dc7d2	0.06195814
22	0xbdc4b0c9	-0.096040316
23	0x3d18ac2e	0.03727358
24	0xbde64791	-0.11244119
25	0x3d488c32	0.048961826
26	0x3dac2f1f	0.08407425
27	0xbdb28787	-0.08717256
28	0x3d51ea0f	0.051248606
29	0xbd09247b	-0.033482056
30	0x3bbf95df	0.0058467234
31	0xbd0e3a51	-0.034723584
32	0x3d1eabad	0.03873794
33	0x3c956fe3	0.018241828
34	0x3d79cfe1	0.060989264
35	0xbbff203d	-0.0077858255
36	0xbdea2097	-0.11431997
37	0x3c96e172	0.018418048
38	0x3d212850	0.039345086
39	0xbd96202e	-0.073303565
40	0x3d94b38d	0.07260809
41	0x3e0664b2	0.1312435
42	0x3da6ae8e	0.081387624
43	0x3dd1cb4c	0.10243854
44	0x3df16446	0.11786704
45	0xbe15ed92	-0.14641407
46	0xbda08c8a	-0.07839306
47	0x3d3ef313	0.046618532
48	0x3d2f78c4	0.04283978
49	0xbd018784	-0.03162338
50	0x3e0543fc	0.13014215
51	0xbdcc8d4d	-0.099878885
52	0xbdd539f5	-0.10411445
53	0xbd999afd	-0.07500265
54	0xbd5a493a	-0.05329249
55	0x3d596dbe	0.053083174
56	0xbcb571bb	-0.022148957
57	0xbdb01c6c	-0.08599171
58	0x3d355ba9	0.044276867
59	0x3dc958c5	0.098313846
60	0x3d198987	0.037484672
61	0x3cb7a667	0.022418214
62	0xbd551a8f	-0.05202728
63	0xbdc8c7a6	-0.09803705
64	0xbd9910d8	-0.07473916
65	0x3e110110	0.14160562
66	0xbcc304bb	-0.023805967
67	0x3d7529fa	0.059854485
68	0x3bfd92d8	0.0077384524
69	0x3ddd0669	0.10792238
70	0x3dd1481e	0.102188334
71	0xbd625d40	-0.05526471
72	0xbdb5a7e1	-0.08869911
73	0xbba84b21	-0.005135909
74	0x3d8016d8	0.06254357
75	0xbe21f88a	-0.15817466
76	0x3d1efd5d	0.038815845
77	0x3e2c19c4	0.16806704
78	0xbdbe48fd	-0.09291265
79	0xbdbb39e5	-0.09141902
80	0xbb89caf3	-0.0042051016
81	0x3d636b2b	0.055522125
82	0x3e1b3cda	0.15159932
83	0xbc0df3e0	-0.008664101
84	0xbd20fcf8	-0.03930375
85	0x3d5a5f82	0.05331374
86	0xba3f21c7	-0.0007291105
87	0xbdfdb849	-0.12388665
88	0xbdf6f9f2	-0.12059392
89	0xbdf42bc1	-0.11922408
90	0x3d8a1fd3	0.06744351
91	0xba3761d8	-0.0006995476
92	0x3dd22a92	0.10262026
93	0x3d81b712	0.06333746
94	0xbd7296f7	-0.059226003
95	0x3df51181	0.11966229
96	0xbd5152e7	-0.051104452
97	0xbc623105	-0.0138056325
98	0xbdf2da95	-0.118580975
99	0x3ba728d0	0.005101301
100	0xbc29f1e2	-0.010372611
101	0x3ca0a664	0.019610591
102	0x3d3b80fb	0.045777302
103	0xbc937256	-0.017998856
104	0x3c59567b	0.013265247
105	0xbdb1fcb8	-0.086907804
106	0xbb8c3c66	-0.004279661
107	0xbc7f06dc	-0.0155656
108	0xbc7b5bc0	-0.015341699
109	0xbda11f2e	-0.07867275
110	0x3d6d5086	0.05793812
111	0x3c2a0ea6	0.010379469
112	0xbc12ab9c	-0.008952048
113	0xbe293577	-0.16524301
114	0x3e0303a8	0.12794363
115	0xbc4b9a14	-0.012426872
116	0xbdf81836	-0.12113993
117	0x3de3993e	0.11113213
118	0xbc5b09b5	-0.013369014
119	0xbc5a5563	-0.013326022
120	0x3e08dbb3	0.13365059
121	0x3c60cfcd	0.013721419
122	0xbcbbd937	-0.022930725
123	0x3e08f7e1	0.13375808
124	0xbc3fd732	-0.011709021
125	0xbd7638bc	-0.0601127
126	0xbd0cf1fb	-0.034410458
127	0xbd595f86	-0.053069614
128	0xbc261116	-0.01013591
129	0x3deb954c	0.115030855
130	0x3d923852	0.071396485
131	0xbe0a5aef	-0.13511251
132	0x3c1cbe33	0.009566831
133	0xbd5964fb	-0.053074818
134	0x3cc0bf5d	0.02352875
135	0xbe0f443b	-0.13990872
136	0x3d411c5d	0.04714619
137	0xbdeaa597	-0.11457365
138	0xbd000937	-0.031258788
139	0xbc468870	-0.01211749
140	0xbc768cac	-0.015048187
141	0xbd413fee	-0.04718011
142	0xbdda02e3	-0.10645082
143	0xbacb32d5	-0.001550282
144	0xbcd63b9a	-0.026151467
145	0x3d5fd570	0.05464691
146	0xbcc7ec64	-0.024404712
147	0x3a4132fd	0.00073699636
148	0x3cc9b21d	0.024621064
149	0x3dbcdbc3	0.09221604
150	0x3c877b3a	0.016538251
151	0x3d444a8c	0.047922656
152	0xbd90b73d	-0.070662
153	0x3dc67302	0.09689905
154	0x3daeaa2b	0.08528551
155	0x3dcc8807	0.09986883
156	0x3db8969e	0.09013103
157	0x3d404d4e	0.046948723
158	0x3de92c7a	0.11385436
159	0x3d522e81	0.05131388
160	0x3d83b903	0.064317726
161	0x3dd1da92	0.10246767
162	0x3d112029	0.03543106
163	0x3cb72d02	0.022360329
164	0x3c34020b	0.010986815
165	0x3d6e77c9	0.058219705
166	0x3d36c28d	0.04461913
167	0xbdbb38cc	-0.091416925
168	0x3db5343b	0.08847853
169	0xbbed3f21	-0.0072401916
170	0x3be1c178	0.0068895184
171	0xbc61059a	-0.013734246
172	0xbdbc0084	-0.09179786
173	0xbd809034	-0.062775046
174	0x3d795695	0.060873587
175	0xbd6f94c7	-0.058491495
176	0xbd961548	-0.07328278
177	0xbd8fa092	-0.07013048
178	0x3d8d180b	0.068893515
179	0xbcdfca11	-0.027318032
180	0x3e3ac1d4	0.18238002
181	0x3d81f86d	0.063462116
182	0xbdf96460	-0.12177348
183	0x3de78557	0.113047294
184	0x3d2f286f	0.04276317
185	0xbdb204a0	-0.086922884
186	0xbcea5fcf	-0.028610138
187	0xbd71ec8d	-0.059063483
188	0x3c3df428	0.011593856
189	0x3bdbb151	0.0067044874
190	0xbd5a5432	-0.05330295
191	0xbde20d5d	-0.11037705
192	0x3db928fd	0.09041021
193	0x3cae65cd	0.021288777
194	0x3dab5eff	0.083677284
195	0x3c316e4d	0.01082952
196	0x3dd8d9fd	0.10588453
197	0xbda35e63	-0.07976987
198	0x3daf2537	0.0855202
199	0xbdf09f6b	-0.117491566
200	0xbe048b01	-0.12943651
201	0x3dbf5c62	0.093437925
202	0xbd97c1e9	-0.07410032
203	0x3d279236	0.040910922
204	0xbda53df7	-0.080684595
205	0x3d270ce1	0.040783767
206	0x3e0553a2	0.13020185
207	0xbd522137	-0.051301207
208	0xbc805b82	-0.015668634
209	0xbdfb9dc7	-0.12285953
210	0x3dbcadfe	0.09212874
211	0xbdaa2f1e	-0.08309768
212	0x3d93504e	0.07193051
213	0xbd0e5f2d	-0.034758735
214	0x3d984d23	0.07436588
215	0x3defc0d6	0.117067024
216	0x3d8c5bf6	0.06853478
217	0x3d4b44a1	0.049625997
218	0x3c8c15a8	0.01710017
219	0xbd934eb6	-0.07192747
220	0x3d615356	0.055011116
221	0x3ce21d5d	0.027601892
222	0x3ccacf64	0.024757095
223	0x3d8930f4	0.0669879
224	0xbc9f084d	-0.019413138
225	0xbc802a2d	-0.015645111
226	0x3d6d17e8	0.057884127
227	0x3d6aecc8	0.05735472
228	0x3ba6e196	0.00509281
229	0xbcbc094e	-0.022953656
230	0x3d3c457f	0.045964714
231	0xbd1eb55a	-0.03874717
232	0x3d65f282	0.056139477
233	0x3dba0c0b	0.09084328
234	0xbb0f1f39	-0.0021838679
235	0xbc6f3096	-0.014598986
236	0xbcd28140	-0.025696397
237	0x3d36a404	0.04459001
238	0x3d5cf92e	0.053948574
239	0x3bec0e97	0.0072038877
240	0x3de07de7	0.10961514
241	0x3deed239	0.116611905
242	0x3de3c12d	0.1112083
243	0x3da57a8b	0.08080014
244	0x3d7907e1	0.06079853
245	0xbd3c8e63	-0.046034228
246	0xbd3d3345	-0.046191473
247	0x3c09b113	0.008404034
248	0x3d97db1f	0.07414841
249	0x3c0b9d07	0.008521325
250	0xbd8751eb	-0.066074215
251	0x3c71ef8c	0.014766585
252	0x3e1f85f3	0.15578441
253	0x3db19c55	0.08672396
254	0xbc4ed705	-0.012624507
255	0xbc579bdd	-0.013159719

net.layer1.0.bias f4 [64]
0	0x3e0368af	0.12832902
1	0xbe00a5c5	-0.12563236
2	0xbd69b499	-0.057056997
3	0x3e118985	0.14212616
4	0x3c57199d	0.013128665
5	0x3ca9cb6c	0.020726882
6	0xbe224060	-0.1584487
7	0x3df7c74f	0.12098562
8	0x3e372c7e	0.17888066
9	0xbe2a6352	-0.1663945
10	0xbe052c76	-0.13005242
11	0x3e4409ff	0.19144438
12	0xbe2edb4d	-0.17075844
13	0x3d7ddca4	0.061977997
14	0xbd21ecd1	-0.039532486
15	0xbe0cbedb	-0.1374468
16	0xbe428b0a	-0.18998352
17	0x3e3ca291	0.18421389
18	0xbc79ec6b	-0.01525412
19	0xbe42eb4f	-0.19035076
20	0x3c87cb67	0.016576482
21	0x3c804d80	0.015661955
22	0xbd6e42c3	-0.058169138
23	0xbc5c2b32	-0.013438033
24	0xba11299d	-0.0005537512
25	0xbded5720	-0.115888834
26	0x3e101a0f	0.1407244
27	0xbdba6384	-0.09101012
28	0xbdefe54c	-0.11713657
29	0xbdb305e9	-0.08741362
30	0xbd372b10	-0.044718802
31	0x3ddd2f85	0.10800079
32	0xbd550896	-0.05201014
33	0x3d8040c7	0.06262355
34	0x3e09faa4	0.13474518
35	0xbe133cd4	-0.14378673
36	0xbdc4c824	-0.09608486
37	0xbe082dbc	-0.13298696
38	0xbe392293	-0.18079595
39	0x3df65b57	0.120291404
40	0xbdfd26d9	-0.12360925
41	0xbd8f2e16	-0.06991212
42	0xbe30bf6b	-0.1726052
43	0x3d27d07f	0.04097032
44	0xbd2a4c68	-0.041576773
45	0x3de93526	0.113870904
46	0xbd1d8199	-0.038453672
47	0x3de6e90d	0.1127492
48	0xbe09914d	-0.13434334
49	0x3e2905ac	0.1650607
50	0x3d3714a3	0.044697415
51	0x3e01bfa5	0.12670763
52	0xbe40719b	-0.18793337
53	0x3dc279dc	0.09495899
54	0xbe2024fc	-0.15639108
55	0xbdcabe87	-0.098996215
56	0xbe39e433	-0.18153457
57	0xbe052a76	-0.13004479
58	0xbe41856a	-0.1889855
59	0xbe327d21	-0.17430545
60	0xbe23cee1	-0.15996887
61	0x3c5efcdd	0.013610092
62	0xbe2c4826	-0.16824397
63	0xbde62c0a	-0.112388685

net.layer1.1.weight f4 [64]
0	0x3f5e2fec	0.8679187
1	0x3f84c800	1.0373535
2	0x3f8c3640	1.0954056
3	0x3f908ed5	1.1293589
4	0x3f8c6424	1.096806
5	0x3f5cf2ba	0.8630787
6	0x3f869c8b	1.0516523
7	0x3f8e59ae	1.1121118
8	0x3f64d3f1	0.89385897
9	0x3f83440e	1.0255144
10	0x3f81c287	1.013749
11	0x3f667f36	0.9003786
12	0x3f74b106	0.95582616
13	0x3f8b989d	1.0905949
14	0x3f5fccb2	0.87421715
15	0x3f58f801	0.84753424
16	0x3f75e3ea	0.96050894
17	0x3f8785f5	1.0587755
18	0x3f6b957f	0.9202499
19	0x3f858bc5	1.0433279
20	0x3f6720c7	0.9028439
21	0x3f74984d	0.9554489
22	0x3f764fd3	0.9621555
23	0x3f57a46e	0.84235275
24	0x3f76220b	0.96145695
25	0x3f6532ab	0.8953044
26	0x3f867e5d	1.0507313
27	0x3f68c7e0	0.90929985
28	0x3f7a4fd3	0.9777805
29	0x3f72b413	0.9480602
30	0x3f7484d8	0.95515203
31	0x3f5b22bd	0.8559988
32	0x3f691a7c	0.91056037
33	0x3f8ffda9	1.1249286
34	0x3f72f059	0.9489799
35	0x3f7788d3	0.9669315
36	0x3f65d6b7	0.89780754
37	0x3f43b1f2	0.764434
38	0x3f839b71	1.0281812
39	0x3f7c8fff	0.9865722
40	0x3f675a66	0.9037231
41	0x3f68e38b	0.90972203
42	0x3f653c15	0.895448
43	0x3f84cc6a	1.0374882
44	0x3f76963f	0.9632301
45	0x3f89be48	1.0761194
46	0x3f67b7de	0.90514934
47	0x3f8ad260	1.0845451
48	0x3f767644	0.9627421
49	0x3f73ee51	0.95285517
50	0x3f65b73b	0.8973271
51	0x3f6a85fe	0.91610706
52	0x3f91bd1d	1.1385838
53	0x3f78cc99	0.9718719
54	0x3f8e779c	1.1130252
55	0x3f67ea3b	0.9059178
56	0x3f72ccd5	0.948438
57	0x3f73404c	0.95019984
58	0x3f6c9a4b	0.9242293
59	0x3f7588e6	0.95912015
60	0x3f6455cc	0.89193416
61	0x3f953301	1.165619
62	0x3f716837	0.94299644
63	0x3f742e20	0.9538288

net.layer1.1.bias f4 [64]
0	0xbe0cbd72	-0.13744143
1	0x3e235d82	0.15953639
2	0x3e1494b3	0.14509849
3	0x3df0be3e	0.11755036
4	0x3e41a298	0.18909681
5	0xbdaba9ae	-0.08381973
6	0x3cef2d02	0.029196266
7	0x3e6ec5c9	0.23317637
8	0xbe8bb670	-0.27287626
9	0x3d4a2782	0.049354084
10	0x3dbbddd2	0.09173168
11	0x3d241f2f	0.0400688
12	0xbde277a8	-0.11057979
13	0x3dadfeca	0.08495863
14	0xbe680249	-0.22657122
15	0xbdcc91ba	-0.09988733
16	0xbe025f41	-0.12731649
17	0x3c1ef066	0.00970087
18	0xbe3631e8	-0.17792475
19	0x3df7b54b	0.12095126
20	0xbe17d8c5	-0.14828785
21	0xbe43998d	-0.19101544
22	0xbcf85edf	-0.030318676
23	0xbe04de2d	-0.12975378
24	0xbdb2f27d	-0.08737657
25	0xbe6beeca	-0.2304031
26	0x3e1daaf3	0.15397243
27	0xbdfafc76	-0.12255184
28	0x3b04a06c	0.002023722
29	0xbcf38b18	-0.029729411
30	0x3da6a7b7	0.08137458
31	0xbe675d5f	-0.22594212
32	0xbe60417a	-0.21899977
33	0xbe13c7df	-0.14431714
34	0xbe4bacc2	-0.1989012
35	0xbc0870ea	-0.008327702
36	0xbda75f82	-0.081725135
37	0xbe2642e8	-0.1623646
38	0xba19c668	-0.00058660517
39	0xbd343f71	-0.044005815
40	0xbe5904bb	-0.21193211
41	0x3bc2fc8e	0.005950517
42	0xbe1d07cc	-0.15335006
43	0x3dbc319c	0.0918915
44	0xbd2e4a6e	-0.04255145
45	0x3dc5b49b	0.096535884
46	0xbcd87927	-0.026424957
47	0xbe31c683	-0.17360882
48	0xbd03bb4b	-0.03216104
49	0xbdcfad43	-0.10140469
50	0xbd9a841a	-0.075447276
51	0xbd9b8d5c	-0.075953215
52	0x3e276033	0.16345291
53	0x3c087742	0.0083292145
54	0x3d2efec2	0.042723425
55	0xbe52eb0b	-0.20597474
56	0x3cde5213	0.027138745
57	0x3ce1582b	0.027507862
58	0xbdfec557	-0.12439983
59	0xbcd06b07	-0.02544166
60	0xbe79970d	-0.24374028
61	0xbd9eec9e	-0.07759975
62	0x3bbb270b	0.0057114414
63	0x3e0da20a	0.13831344

net.layer1.1.running_mean f4 [64]
0	0x00000000	0.0
1	0x00000000	0.0
2	0x00000000	0.0
3	0x00000000	0.0
4	0x00000000	0.0
5	0x00000000	0.0
6	0x00000000	0.0
7	0x00000000	0.0
8	0x00000000	0.0
9	0x00000000	0.0
10	0x00000000	0.0
11	0x00000000	0.0
12	0x00000000	0.0
13	0x00000000	0.0
14	0x00000000	0.0
15	0x00000000	0.0
16	0x00000000	0.0
17	0x00000000	0.0
18	0x00000000	0.0
19	0x00000000	0.0
20	0x00000000	0.0
21	0x00000000	0.0
22	0x00000000	0.0
23	0x00000000	0.0
24	0x00000000	0.0
25	0x00000000	0.0
26	0x00000000	0.0
27	0x00000000	0.0
28	0x00000000	0.0
29	0x00000000	0.0
30	0x00000000	0.0
31	0x00000000	0.0
32	0x00000000	0.0
33	0x00000000	0.0
34	0x00000000	0.0
35	0x00000000	0.0
36	0x00000000	0.0
37	0x00000000	0.0
38	0x00000000	0.0
39	0x00000000	0.0
40	0x00000000	0.0
41	0x00000000	0.0
42	0x00000000	0.0
43	0x00000000	0.0
44	0x00000000	0.0
45	0x00000000	0.0
46	0x00000000	0.0
47	0x00000000	0.0
48	0x00000000	0.0
49	0x00000000	0.0
50	0x00000000	0.0
51	0x00000000	0.0
52	0x00000000	0.0
53	0x00000000	0.0
54	0x00000000	0.0
55	0x00000000	0.0
56	0x00000000	0.0
57	0x00000000	0.0
58	0x00000000	0.0
59	0x00000000	0.0
60	0x00000000	0.0
61	0x00000000	0.0
62	0x00000000	0.0
63	0x00000000	0.0

net.layer1.1.running_var f4 [64]
0	0x3f800000	1.0
1	0x3f800000	1.0
2	0x3f800000	1.0
3	0x3f800000	1.0
4	0x3f800000	1.0
5	0x3f800000	1.0
6	0x3f800000	1.0
7	0x3f800000	1.0
8	0x3f800000	1.0
9	0x3f800000	1.0
10	0x3f800000	1.0
11	0x3f800000	1.0
12	0x3f800000	1.0
13	0x3f800000	1.0
14	0x3f800000	1.0
15	0x3f800000	1.0
16	0x3f800000	1.0
17	0x3f800000	1.0
18	0x3f800000	1.0
19	0x3f800000	1.0
20	0x3f800000	1.0
21	0x3f800000	1.0
22	0x3f800000	1.0
23	0x3f800000	1.0
24	0x3f800000	1.0
25	0x3f800000	1.0
26	0x3f800000	1.0
27	0x3f800000	1.0
28	0x3f800000	1.0
29	0x3f800000	1.0
30	0x3f800000	1.0
31	0x3f800000	1.0
32	0x3f800000	1.0
33	0x3f800000	1.0
34	0x3f800000	1.0
35	0x3f800000	1.0
36	0x3f800000	1.0
37	0x3f800000	1.0
38	0x3f800000	1.0
39	0x3f800000	1.0
40	0x3f800000	1.0
41	0x3f800000	1.0
42	0x3f800000	1.0
43	0x3f800000	1.0
44	0x3f800000	1.0
45	0x3f800000	1.0
46	0x3f800000	1.0
47	0x3f800000	1.0
48	0x3f800000	1.0
49	0x3f800000	1.0
50	0x3f800000	1.0
51	0x3f800000	1.0
52	0x3f800000	1.0
53	0x3f800000	1.0
54	0x3f800000	1.0
55	0x3f800000	1.0
56	0x3f800000	1.0
57	0x3f800000	1.0
58	0x3f800000	1.0
59	0x3f800000	1.0
60	0x3f800000	1.0
61	0x3f800000	1.0
62	0x3f800000	1.0
63	0x3f800000	1.0

net.layer2.0.weight f4 [64, 64, 3, 3]
0	0xbd4a3485	-0.049366493
1	0x3da7cb2c	0.08193049
2	0xbc56cee6	-0.013110852
3	0xbd0bdb03	-0.034144413
4	0xbd1415eb	-0.036153715
5	0x3cdb44ca	0.0267662
6	0x3cdda12e	0.027054396
7	0xbde92e77	-0.113858156
8	0xbd0363a4	-0.032077447
9	0xbd525e8d	-0.051359702
10	0x3cc7a03c	0.024368398
11	0x3c0c123a	0.008549267
12	0xbd6afbb4	-0.05736895
13	0x3d6849fa	0.056711175
14	0x3cbf7f7e	0.023376223
15	0x3dcdd77e	0.100508675
16	0x3da3da96	0.08000676
17	0x3c33aab1	0.010965989
18	0xbd924814	-0.07142654
19	0x3db80411	0.089851506
20	0x3df86098	0.12127799
21	0xbd44c687	-0.048040893
22	0xbccc2f93	-0.024925029
23	0x3d3f40de	0.04669272
24	0x3cdffa92	0.02734116
25	0x3db71115	0.08938805
26	0xbc9d61fb	-0.01921176
27	0x3bcb6594	0.0062071774
28	0xbd3233a0	-0.043506265
29	0x3d25df64	0.040496245
30	0xbceda98c	-0.02901151
31	0xbd9c0e8b	-0.07619961
32	0xbc635e32	-0.013877438
33	0x3d4fd7ef	0.05074304
34	0xbd9bd3de	-0.0760877
35	0x3b29002e	0.002578746
36	0x3d3920d4	0.045197323
37	0x3da6d22f	0.08145558
38	0xbd659090	-0.05604607
39	0xbcb0bc43	-0.021574145
40	0xbc3a1f74	-0.011360038
41	0xbd3d39dd	-0.04619776
42	0xbc69deb5	-0.014274289
43	0xbbcc957a	-0.006243405
44	0x3dcac36c	0.09900555
45	0x3c8aee99	0.016959475
46	0xbcc56ac3	-0.02409876
47	0x3d05f033	0.032699775
48	0xbc1b1550	-0.0094655305
49	0x3d55d4d4	0.05220492
50	0x3d40f48c	0.047108218
51	0xbd0137ab	-0.03154723
52	0xbd2bbb3d	-0.04192661
53	0xbc52a5dc	-0.012856927
54	0x3d17bd76	0.03704592
55	0xbc3c3957	-0.01148828
56	0xbd19c4f0	-0.03754133
57	0x3d12fb6d	0.03588431
58	0xbcff5d57	-0.031172438
59	0xbd2b8437	-0.041874137
60	0xbcbb96a4	-0.02289898
61	0x3d5ce849	0.053932462
62	0x3c3dc265	0.011581992
63	0xbc65fdbf	-0.014037549
64	0xbd4eb7d4	-0.05046828
65	0x3be3ccca	0.006951903
66	0x3d4c884e	0.049934678
67	0x3d99d915	0.07512108
68	0xbd042d75	-0.032269914
69	0x3c2897c2	0.010290088
70	0x3c1b1485	0.009465341
71	0x3dd6ac5c	0.10482094
72	0xbd46d660	-0.048544288
73	0x3d33eed4	0.043928936
74	0x3c8966bf	0.016772626
75	0xbb8b30a6	-0.0042477427
76	0x3d0473c9	0.032336984
77	0xbdcc63f5	-0.09980003
78	0x3d236437	0.039890494
79	0xbcc67865	-0.02422733
80	0xbd39baa6	-0.045344017
81	0xbcfa58d7	-0.03055994
82	0xbd831597	-0.06400602
83	0x3d46bf86	0.048522495
84	0xbcf2b972	-0.029629443
85	0xbd3d6a28	-0.046243817
86	0x3bb27846	0.0054464666
87	0x3d510446	0.051029466
88	0xbd3e1135	-0.04640313
89	0x3d587455	0.052845318
90	0x3d9d21f3	0.07672491
91	0xbda5c92d	-0.08095012
92	0xbd003979	-0.03130481
93	0x3d0df688	0.03465894
94	0x3d2614ea	0.04054729
95	0xbdda7d71	-0.10668457
96	0xbd82412e	-0.06360088
97	0x3d72d7f5	0.059287984
98	0x3d8a0a89	0.06740291
99	0x3cfe5c74	0.031049944
100	0x3db74746	0.08949141
101	0xbb9b1d91	-0.004733749
102	0x3d1b3089	0.037888084
103	0xbbe10ef3	-0.006868237
104	0xbd24cc6f	-0.040234026
105	0xbda528c2	-0.080644146
106	0xbc7cdad9	-0.015433037
107	0x3d62f469	0.05540887
108	0xbd1394ef	-0.036030706
109	0x3a0d0781	0.00053798413
110	0xbd81c448	-0.06336266
111	0xbd8d9c86	-0.0691462
112	0x3bbc6fcc	0.005750632
113	0xbd79c3d2	-0.060977764
114	0x3bfc6ca4	0.0077033807
115	0xbc425355	-0.011860688
116	0x3cb2235d	0.021745378
117	0x3d017427	0.031604912
118	0x3d60cd06	0.054883026
119	0xbc983af2	-0.018582795
120	0x3d5d6939	0.054055426
121	0x3dcafa1f	0.09910988
122	0xbd7a1c1a	-0.061061956
123	0x3c334c26	0.010943448
124	0x3daeaffe	0.085296616
125	0xbbe06ef5	-0.0068491646
126	0x3d0294a6	0.031880043
127	0x3ba5c606	0.0050590066
128	0x3cbc66d0	0.022998244
129	0x3d8defce	0.06930505
130	0xbd81bd84	-0.06334975
131	0xbb82581a	-0.0039777877
132	0xbc460b09	-0.012087592
133	0x3d857b75	0.06517688
134	0x3c631aa7	0.013861335
135	0xbd18b8c5	-0.037285585
136	0x3cc95d78	0.024580702
137	0x3d2d2bb5	0.04227801
138	0xbd408109	-0.046998058
139	0x3d566b5f	0.05234849
140	0xbd3028d6	-0.043007694
141	0x3d290121	0.041260842
142	0xbcc24a0e	-0.023716953
143	0xbcdd3f23	-0.027007645
144	0x3d8743e6	0.066047475
145	0x3d01b1ba	0.031663634
146	0x3d796739	0.060889456
147	0x3d1aceb0	0.03779477
148	0x3d18df92	0.03732259
149	0xbd4686fd	-0.04846858
150	0x3cc8b45d	0.024500066
151	0x3d90b673	0.070660494
152	0x3d3990d8	0.04530415
153	0xbdde7311	-0.10861791
154	0x3cbcd9ba	0.023053039
155	0x3ce18bc5	0.027532468
156	0xbd4ab592	-0.049489565
157	0xbd6ebcc3	-0.058285486
158	0xbba3961c	-0.0049922597
159	0xbdab1eb2	-0.08355464
160	0xbd2a8f99	-0.04164085
161	0xbd68d498	-0.05684337
162	0x3db07806	0.08616643
163	0xbbe28560	-0.006912872
164	0x3ca0000a	0.019531269
165	0x3d81f0c4	0.063447505
166	0x3cffb145	0.031212458
167	0x3d2f4c02	0.042797096
168	0x3dab38f9	0.08360476
169	0x3d43e43c	0.047825083
170	0x3cf79d22	0.030226294
171	0xbde8003f	-0.11328172
172	0xbd1aa181	-0.03775168
173	0x3d57f9aa	0.052728333
174	0xbd37a6c9	-0.044836793
175	0xbd8e0357	-0.06934231
176	0x3da93fa8	0.082640946
177	0x3d01e705	0.031714458
178	0xbc80a742	-0.015704755
179	0xbdb18978	-0.08668798
180	0xbca4c7eb	-0.02011486
181	0xbd97ff1c	-0.07421705
182	0x3d1ad749	0.03780297
183	0x3cdbcd8b	0.026831409
184	0xbd3c9666	-0.04604187
185	0xbd55003b	-0.052002173
186	0x3be19614	0.006884346
187	0xbd0774e5	-0.033070464
188	0xbd67afe6	-0.056564234
189	0xbbbfce3a	-0.0058534415
190	0x3c057b1f	0.00814703
191	0x3cc9857c	0.024599783
192	0x3d0509c2	0.03248001
193	0xbc75206d	-0.014961344
194	0x3d5874d1	0.05284578
195	0x3cf78397	0.030214114
196	0x3c3d0107	0.0115358895
197	0x3c972287	0.018449081
198	0x3bd25664	0.00641899
199	0xbd5c7500	-0.053822517
200	0xbd9f08ad	-0.07765327
201	0xbd906842	-0.070511356
202	0xbdace79a	-0.08442612
203	0xbc9e1e7e	-0.01930165
204	0xbb59545b	-0.0033161852
205	0xbcc65667	-0.024211122
206	0x3e076427	0.13221799
207	0xbb9fb38b	-0.004873698
208	0xb9c203b3	-0.0003700532
209	0x3d7c1466	0.06154289
210	0xbd432045	-0.047638196
211	0xbdc32915	-0.0952932
212	0xbd9c1d40	-0.076227665
213	0x3bc3e302	0.005977989
214	0xbc8a12c4	-0.016854651
215	0xbdb0cbdc	-0.08632633
216	0xbad0268a	-0.0015880626
217	0xbc91dc0c	-0.017805122
218	0x3d6a204c	0.057159707
219	0x3d5cfcd5	0.053952057
220	0x3d291c38	0.041286677
221	0x3ce96546	0.028490674
222	0x3da4ef0f	0.08053409
223	0xbab5e020	-0.0013875999
224	0xbda052cd	-0.07828293
225	0xbd3d4e5b	-0.046217304
226	0xbcc9a54d	-0.024614954
227	0x3d261170	0.040543973
228	0x3d5e7c4c	0.054317757
229	0xbd2ca57f	-0.042150017
230	0x3c45dafb	0.012076135
231	0x3bebb69b	0.007193399
232	0x3cafc5d2	0.021456633
233	0xbcd56aec	-0.02605196
234	0x3cae501b	0.021278432
235	0x3d379656	0.044821106
236	0x3de489c2	0.11159088
237	0x3b3c2c69	0.0028712994
238	0x3dc8606d	0.09784017
239	0xbcdc5bcd	-0.026899243
240	0x3d5ae2ff	0.053439137
241	0x3cc379b3	0.023861742
242	0xbb95b322	-0.0045684734
243	0xbc69aaf6	-0.014261952
244	0x3d0041ff	0.03131294
245	0xbd6f69ca	-0.058450498
246	0xbd009e03	-0.03140069
247	0xbcb7dadf	-0.022443233
248	0xbc86f2e0	-0.016473234
249	0x3c2ac1fe	0.010422228
250	0x3c03ac94	0.008036751
251	0xbda3aa82	-0.07991506
252	0x3d8faf47	0.070158534
253	0x3dc70eeb	0.09719642
254	0x39b301aa	0.0003414278
255	0xbbdf6683	-0.0068176403

net.layer2.0.bias f4 [64]
0	0x3b0f12ee	0.0021831351
1	0xbcf3d8e8	-0.029766515
2	0x3d1b21f0	0.037874162
3	0x3ca06175	0.019577721
4	0xbc42a147	-0.011879272
5	0xbcaef90f	-0.021358995
6	0x3c3dd5d5	0.011586626
7	0xbb25c0e8	-0.0025291983
8	0xbc6fae33	-0.014628935
9	0xbcd9d0a5	-0.026588747
10	0xbc358a69	-0.011080363
11	0xbb5a4df2	-0.003331062
12	0xbc9ea762	-0.019366924
13	0x3c7e5250	0.0155225545
14	0xbcfe19a8	-0.031018093
15	0x3ccf13c1	0.025277974
16	0x3c6cc727	0.0144517785
17	0x3d1a5e59	0.037687633
18	0x3be7ca89	0.0070737046
19	0x3d022b3b	0.03177951
20	0xbc197976	-0.009367337
21	0x3ce3b2c5	0.027795205
22	0x3cb32baa	0.021871407
23	0xbb88da27	-0.0041763964
24	0xbb7033cf	-0.0036651974
25	0x3b52b803	0.0032153137
26	0xbcccbf8d	-0.024993682
27	0xbc53e84f	-0.012933805
28	0x3cc6df11	0.024276288
29	0xbd16655a	-0.03671775
30	0x3d0ef9c6	0.03490617
31	0xbcf195e2	-0.029490415
32	0x3cb7bca6	0.022428822
33	0xbc6aec9e	-0.0143386405
34	0xbcbd8310	-0.023133785
35	0x3d099834	0.033592418
36	0xbcc0a18e	-0.023514535
37	0x3c8a472e	0.016879644
38	0xbcf5190c	-0.02991917
39	0xba19e26c	-0.00058702263
40	0xbd19a2cb	-0.037508767
41	0x3c94b8f5	0.0181546
42	0xbcf618f6	-0.0300412
43	0xbd031a54	-0.03200753
44	0xb9fe06fe	-0.00048451865
45	0x3c4ee22e	0.012627168
46	0xbcdea17e	-0.027176615
47	0x3cfef3ad	0.031122053
48	0xba2a3a2f	-0.00064936554
49	0xbb8b49dc	-0.004250748
50	0xbbbd3adb	-0.0057748384
51	0xbbe59e5e	-0.007007404
52	0xbbe15449	-0.0068765027
53	0xba35167c	-0.00069079525
54	0xbc95eda8	-0.0183018
55	0x3cf4f9bf	0.029904244
56	0xbc46454c	-0.012101483
57	0x3d21f736	0.0395424
58	0x3d2587bd	0.040412653
59	0xbc8ce17e	-0.017197367
60	0xbd1ccc9e	-0.038281076
61	0xbba6b023	-0.005086915
62	0x3ccf0e63	0.025275415
63	0x3d1495ef	0.0362758

net.layer2.1.weight f4 [64]
0	0x3f6a6e7c	0.91574836
1	0x3f7e1403	0.99249285
2	0x3f82fb49	1.0232936
3	0x3f74ff30	0.95701885
4	0x3f66a331	0.9009276
5	0x3f8047bd	1.0021893
6	0x3f6bf2e7	0.92167515
7	0x3f821084	1.016129
8	0x3f70ac89	0.9401327
9	0x3f714e89	0.9426046
10	0x3f8483a8	1.0352678
11	0x3f7c3888	0.9852376
12	0x3f7f0ed2	0.9963199
13	0x3f75981b	0.9593522
14	0x3f775b23	0.9662344
15	0x3f6a70ac	0.91578174
16	0x3f79b19a	0.97536623
17	0x3f8009d6	1.0003002
18	0x3f7fd2a5	0.99930793
19	0x3f7bc5ac	0.983485
20	0x3f7f44d9	0.9971443
21	0x3f799ed9	0.9750801
22	0x3f84ac90	1.0365162
23	0x3f7499aa	0.9554697
24	0x3f7ef4ea	0.9959246
25	0x3f800e4a	1.0004361
26	0x3f800f44	1.0004659
27	0x3f71d38a	0.9446341
28	0x3f7a93d3	0.9788181
29	0x3f76a3c0	0.9634361
30	0x3f8c9748	1.0983667
31	0x3f6a9c44	0.9164469
32	0x3f829d84	1.020432
33	0x3f7f10ab	0.9963481
34	0x3f8a1a38	1.0789251
35	0x3f7fe7cc	0.9996307
36	0x3f75fccb	0.96088856
37	0x3f7a45a9	0.9776254
38	0x3f6c466c	0.92294955
39	0x3f7ae3f9	0.9800411
40	0x3f859489	1.0435954
41	0x3f8573f1	1.0426008
42	0x3f7f8bbe	0.99822605
43	0x3f81c1fc	1.0137324
44	0x3f6c6f85	0.92357665
45	0x3f79a3de	0.97515666
46	0x3f7856fb	0.9700772
47	0x3f6b31b8	0.9187274
48	0x3f851b2f	1.0398921
49	0x3f8136f5	1.0094897
50	0x3f79a519	0.97517544
51	0x3f7e9a4a	0.99454176
52	0x3f8a2afa	1.0794365
53	0x3f80baee	1.0057046
54	0x3f818050	1.0117283
55	0x3f782428	0.9693017
56	0x3f77fbf0	0.968688
57	0x3f5cf93d	0.8631781
58	0x3f80afde	1.005367
59	0x3f6eb3b5	0.9324296
60	0x3f824868	1.0178347
61	0x3f8b0b37	1.0862797
62	0x3f7cfee4	0.9882643
63	0x3f6dfd5e	0.9296473

net.layer2.1.bias f4 [64]
0	0xbdd8d3c2	-0.105872646
1	0xbe8194c9	-0.25308827
2	0xbd968fcb	-0.07351645
3	0xbde242df	-0.11047911
4	0xbe1d479d	-0.1535935
5	0x3b0dc9b7	0.0021635124
6	0xbe9c8e15	-0.3057715
7	0x3cea0cff	0.02857065
8	0xbcbbc06c	-0.022918902
9	0xbe826090	-0.25464296
10	0xbea8fa97	-0.33003685
11	0xbd7eec17	-0.06223687
12	0xbd904e9b	-0.07046243
13	0xbdee5e46	-0.11639075
14	0xbd80affc	-0.06283566
15	0xbda67233	-0.081272505
16	0xbd9eaa2f	-0.07747304
17	0xbc924711	-0.017856153
18	0xbe985134	-0.29749453
19	0xbcd7e0db	-0.026352337
20	0xbea6acfb	-0.3255385
21	0xbd8c5547	-0.06852203
22	0xbd8a40c5	-0.06750635
23	0xbd6dbee5	-0.05804338
24	0xbdcc0000	-0.099609375
25	0xbbf8476f	-0.007576875
26	0xbd948dbb	-0.072535954
27	0xbdb078a0	-0.086167574
28	0x3a7957a4	0.00095116557
29	0x3c395880	0.011312604
30	0xbcbed1df	-0.023293434
31	0xbd5598fe	-0.052147858
32	0xbe15f790	-0.14645219
33	0x3d026653	0.031835865
34	0xbd4d0253	-0.050051045
35	0xbd2a38d3	-0.041558098
36	0xbe8f864c	-0.28032148
37	0x3ce3f97c	0.027828924
38	0xbdb88fdb	-0.09011813
39	0xbebcf942	-0.3690892
40	0x3bc2c375	0.0059437105
41	0xbbc0410d	-0.0058671297
42	0xbea320f9	-0.31861094
43	0xbda88f98	-0.08230513
44	0xbd4371ba	-0.04771588
45	0x3d116885	0.03550007
46	0x3d32794c	0.04357271
47	0xbdea57b6	-0.11442511
48	0xbe9a467e	-0.30131906
49	0xbd12db03	-0.035853397
50	0xbd0a300e	-0.033737235
51	0xbdb46692	-0.08808626
52	0x3d0fc179	0.03509662
53	0xbe8c764e	-0.2743401
54	0x3d00b660	0.031423926
55	0xbea1bc67	-0.31589052
56	0xbca308a5	-0.019901583
57	0xbddf5661	-0.10905147
58	0xbe854b86	-0.26034182
59	0xbe0d2588	-0.13783848
60	0xbcee54db	-0.029093197
61	0xbdb3c10a	-0.08777054
62	0xbcba4842	-0.022739533
63	0xbdb44a1f	-0.088032

net.layer2.1.running_mean f4 [64]
0	0x00000000	0.0
1	0x00000000	0.0
2	0x00000000	0.0
3	0x00000000	0.0
4	0x00000000	0.0
5	0x00000000	0.0
6	0x00000000	0.0
7	0x00000000	0.0
8	0x00000000	0.0
9	0x00000000	0.0
10	0x00000000	0.0
11	0x00000000	0.0
12	0x00000000	0.0
13	0x00000000	0.0
14	0x00000000	0.0
15	0x00000000	0.0
16	0x00000000	0.0
17	0x00000000	0.0
18	0x00000000	0.0
19	0x00000000	0.0
20	0x00000000	0.0
21	0x00000000	0.0
22	0x00000000	0.0
23	0x00000000	0.0
24	0x00000000	0.0
25	0x00000000	0.0
26	0x00000000	0.0
27	0x00000000	0.0
28	0x00000000	0.0
29	0x00000000	0.0
30	0x00000000	0.0
31	0x00000000	0.0
32	0x00000000	0.0
33	0x00000000	0.0
34	0x00000000	0.0
35	0x00000000	0.0
36	0x00000000	0.0
37	0x00000000	0.0
38	0x00000000	0.0
39	0x00000000	0.0
40	0x00000000	0.0
41	0x00000000	0.0
42	0x00000000	0.0
43	0x00000000	0.0
44	0x00000000	0.0
45	0x00000000	0.0
46	0x00000000	0.0
47	0x00000000	0.0
48	0x00000000	0.0
49	0x00000000	0.0
50	0x00000000	0.0
51	0x00000000	0.0
52	0x00000000	0.0
53	0x00000000	0.0
54	0x00000000	0.0
55	0x00000000	0.0
56	0x00000000	0.0
57	0x00000000	0.0
58	0x00000000	0.0
59	0x00000000	0.0
60	0x00000000	0.0
61	0x00000000	0.0
62	0x00000000	0.0
63	0x00000000	0.0

net.layer2.1.running_var f4 [64]
0	0x3f800000	1.0
1	0x3f800000	1.0
2	0x3f800000	1.0
3	0x3f800000	1.0
4	0x3f800000	1.0
5	0x3f800000	1.0
6	0x3f800000	1.0
7	0x3f800000	1.0
8	0x3f800000	1.0
9	0x3f800000	1.0
10	0x3f800000	1.0
11	0x3f800000	1.0
12	0x3f800000	1.0
13	0x3f800000	1.0
14	0x3f800000	1.0
15	0x3f800000	1.0
16	0x3f800000	1.0
17	0x3f800000	1.0
18	0x3f800000	1.0
19	0x3f800000	1.0
20	0x3f800000	1.0
21	0x3f800000	1.0
22	0x3f800000	1.0
23	0x3f800000	1.0
24	0x3f800000	1.0
25	0x3f800000	1.0
26	0x3f800000	1.0
27	0x3f800000	1.0
28	0x3f800000	1.0
29	0x3f800000	1.0
30	0x3f800000	1.0
31	0x3f800000	1.0
32	0x3f800000	1.0
33	0x3f800000	1.0
34	0x3f800000	1.0
35	0x3f800000	1.0
36	0x3f800000	1.0
37	0x3f800000	1.0
38	0x3f800000	1.0
39	0x3f800000	1.0
40	0x3f800000	1.0
41	0x3f800000	1.0
42	0x3f800000	1.0
43	0x3f800000	1.0
44	0x3f800000	1.0
45	0x3f800000	1.0
46	0x3f800000	1.0
47	0x3f800000	1.0
48	0x3f800000	1.0
49	0x3f800000	1.0
50	0x3f800000	1.0
51	0x3f800000	1.0
52	0x3f800000	1.0
53	0x3f800000	1.0
54	0x3f800000	1.0
55	0x3f800000	1.0
56	0x3f800000	1.0
57	0x3f800000	1.0
58	0x3f800000	1.0
59	0x3f800000	1.0
60	0x3f800000	1.0
61	0x3f800000	1.0
62	0x3f800000	1.0
63	0x3f800000	1.0

net.layer3.0.weight f4 [64, 64, 3, 3]
0	0x3d2c23f1	0.042026464
1	0x3d8c1314	0.06839576
2	0xbcf5ef55	-0.030021349
3	0x3c895bcb	0.016767403
4	0x3cbf2811	0.023334535
5	0xbb461742	-0.0030226265
6	0x3d58d961	0.052941684
7	0xbce84004	-0.028350838
8	0xbc53863a	-0.01291042
9	0xb9837e6d	-0.00025080462
10	0x3d65604d	0.056000043
11	0x3dac0b4d	0.08400593
12	0x3b2b268c	0.0026115505
13	0xbb96cbf7	-0.004601951
14	0xbbb59910	-0.005541928
15	0x3d66e8a9	0.056374226
16	0xbd30d424	-0.043171063
17	0x3d7aa141	0.06118894
18	0xbc11ad66	-0.008891439
19	0xbd184462	-0.03717459
20	0x3cbd0586	0.023073923
21	0xbcab741b	-0.020929387
22	0x3da29622	0.07938792
23	0xbda1b76a	-0.078963116
24	0x3d0aef22	0.03391946
25	0x3d08278d	0.033240844
26	0x3d442350	0.04788524
27	0x3c8add9d	0.016951377
28	0x3dfff2ef	0.12497508
29	0x3dafac27	0.08577757
30	0x3dba8ce2	0.091089025
31	0xbbe69fbb	-0.0070380843
32	0xbc917a45	-0.017758498
33	0xbc73f715	-0.014890452
34	0xbd38100f	-0.04493719
35	0x3d66bf29	0.05633465
36	0xbcf3039f	-0.029664813
37	0x3d93dc32	0.07219733
38	0x3cedea90	0.029042512
39	0xbc675f01	-0.014121772
40	0xbabc505f	-0.0014367214
41	0xbc818964	-0.015812583
42	0xbc49197d	-0.012274143
43	0xbd200936	-0.039071284
44	0xbd1cfffe	-0.03833007
45	0x3cc2c694	0.02377633
46	0xbc866cc5	-0.016409287
47	0x3d9f2ef7	0.0777263
48	0xbd1837ad	-0.03716247
49	0xbd70d7fc	-0.05879973
50	0x3d515f9b	0.051116567
51	0x3d861658	0.065472305
52	0xbb5a0666	-0.0033267974
53	0x3d1fca0e	0.039011054
54	0x3d071efa	0.032988526
55	0xbcfbe3db	-0.030748298
56	0x3d78ec49	0.060772214
57	0xbd8c362d	-0.06846271
58	0x3d18130c	0.03712754
59	0xbd991185	-0.07474045
60	0xba2b1456	-0.00065261626
61	0xbd2d4918	-0.042306036
62	0x3cf76695	0.030200282
63	0x3d0ea317	0.034823503
64	0x3d1cdc5a	0.03829608
65	0xbc61ec23	-0.01378921
66	0xbdb9598d	-0.090502836
67	0xbd80428e	-0.06262694
68	0xbc681ed4	-0.014167506
69	0xbdd279d6	-0.102771446
70	0xbdc2ceeb	-0.09512123
71	0xbc8d705b	-0.01726549
72	0x3d63da78	0.05562827
73	0x3a919828	0.0011107968
74	0x3dd23d8f	0.102656476
75	0xbc2aff64	-0.010436866
76	0x3d385f56	0.045012794
77	0x3d9642b2	0.0733694
78	0x3d0a039a	0.03369484
79	0x3cef3db3	0.029204225
80	0x3ca850e3	0.020546382
81	0xbc941dd6	-0.018080633
82	0x3d109c4f	0.035305317
83	0xbd1a3d6f	-0.037656244
84	0x3d1e1293	0.038591933
85	0xbd155ecd	-0.036467362
86	0x3d584cc8	0.0528076
87	0x3d2cb9ec	0.042169496
88	0xbd55e809	-0.05222324
89	0xbd6c3f14	-0.057677343
90	0xbd951d5b	-0.0728099
91	0x3d129432	0.03578586
92	0xbd3cc4ef	-0.046086248
93	0xbd5b4adb	-0.053538185
94	0xbdfe9d5a	-0.12432356
95	0xbd852fda	-0.065032676
96	0xbcbd8586	-0.023134958
97	0xba9f8e9f	-0.0012173242
98	0xbd106652	-0.03525383
99	0x3d29ab60	0.0414232
100	0x3d71319f	0.058885213
101	0xbc2cad8c	-0.010539424
102	0x3cfce54c	0.030871056
103	0xbdc72b5a	-0.097250655
104	0xbd28b09a	-0.041184045
105	0xbde6a013	-0.112610005
106	0x3d1f0f15	0.038832743
107	0xbbfa99ba	-0.00764772
108	0xbd2e0372	-0.042483754
109	0xbda0533e	-0.07828377
110	0xbd9deec4	-0.077115566
111	0xbd316165	-0.043305773
112	0xbcb9da62	-0.02268714
113	0xbd99cd2d	-0.07509837
114	0xbd3e667d	-0.04648446
115	0x3d823e8b	0.063595854
116	0xbb7bcd94	-0.0038422095
117	0xbc655cdd	-0.013999191
118	0x3db07839	0.08616681
119	0x3d8fe02b	0.070251785
120	0xbbd66ebe	-0.006543963
121	0xbd048a00	-0.03235817
122	0xbc92a92e	-0.017902937
123	0xbd3cf1bf	-0.046128985
124	0xbbe43ceb	-0.00696527
125	0xbd7737f2	-0.060356088
126	0x3e0cdbfd	0.13755794
127	0xbba02c26	-0.0048880754
128	0x3c8f653b	0.017504325
129	0x3d5aaed6	0.053389393
130	0x3c09e19e	0.008415608
131	0x3d9c352e	0.07627331
132	0x3dc830d6	0.0977494
133	0x3da3e3b6	0.08002417
134	0x3cb1ac7f	0.021688698
135	0x3cc5e39c	0.024156384
136	0x3d93e4eb	0.07221397
137	0xbd8fc39c	-0.070197314
138	0x3ddaabb7	0.10677283
139	0x3ccdddf8	0.025130257
140	0x3c9421ff	0.018082617
141	0xbd4ee3c8	-0.050510198
142	0xbbd83833	-0.0065984963
143	0xbcd870a2	-0.026420895
144	0x3bf648d4	0.007516006
145	0xbd944879	-0.072403856
146	0xbdcd9539	-0.100382276
147	0x3ca7e87c	0.0204966
148	0x3c0d3522	0.008618625
149	0xbda0e1cf	-0.078555696
150	0xbdbb9df9	-0.0916099
151	0xbd8cf45a	-0.06882544
152	0xbd8fb63d	-0.07017181
153	0x3c6e4e9e	0.014545111
154	0x3d3b6470	0.04575008
155	0xbd8393c0	-0.064246655
156	0x3d720176	0.059083425
157	0xbd9f1e50	-0.077694535
158	0x3caa2bc8	0.02077283
159	0x3d6c07ec	0.057624742
160	0x3d00875f	0.0313791
161	0xbd019896	-0.031639658
162	0x3cfcdf28	0.030868128
163	0x3c977883	0.018490082
164	0x3d18d9c4	0.037317052
165	0xbd9227b9	-0.07136483
166	0xbdb18ecc	-0.086698145
167	0xbd7c3aa8	-0.061579376
168	0x3c8bdd90	0.017073423
169	0xbd9b80fb	-0.075929604
170	0x3d3c7152	0.04600651
171	0x3dc627a7	0.09675532
172	0xba07bcee	-0.0005177994
173	0xbd821179	-0.06350989
174	0x3d718b90	0.058970988
175	0x3d880b5c	0.06642792
176	0x3dae9613	0.08524718
177	0x392faea2	0.00016754356
178	0xbc36dfde	-0.0111617725
179	0x3dda8d19	0.106714435
180	0x3c75a0fa	0.014991993
181	0xbcb6db01	-0.022321226
182	0xbd852715	-0.06501595
183	0xbdb27a66	-0.08714752
184	0xbdd5f8f6	-0.10447876
185	0x3ce9199a	0.02845459
186	0xbd92c147	-0.07165771
187	0xbc0e5155	-0.008686383
188	0x3bae7077	0.0053234654
189	0xbbe20fe5	-0.0068988674
190	0xbd7ddf43	-0.061980497
191	0xbd4b9dc0	-0.04971099
192	0x3b64aa6a	0.0034891614
193	0xbc5aa684	-0.0133453645
194	0x3d2e9ccf	0.042630013
195	0x3d5e82e7	0.054324057
196	0x3d4e06cc	0.05029945
197	0xbd2482c9	-0.04016379
198	0xbb33c897	-0.0027432793
199	0xbd504f82	-0.050857075
200	0xbd5d1d57	-0.05398306
201	0xbdaca0cb	-0.08429106
202	0x3be70b37	0.0070508975
203	0xbdcc704f	-0.09982359
204	0xbc77762c	-0.015103858
205	0xbd4e7636	-0.050405703
206	0xbd22f113	-0.039780688
207	0x3dd506d6	0.104016945
208	0x3d3b3012	0.04570014
209	0x3d940a90	0.07228577
210	0x3dcaf578	0.09910101
211	0x3d10f5a7	0.035390522
212	0xbd74579f	-0.059653874
213	0x3d66d9a3	0.0563599
214	0x3d7b3f65	0.061339755
215	0xbc9f63d8	-0.019456789
216	0xbd90e893	-0.0707561
217	0x3c901c60	0.017591655
218	0x3d995bfa	0.07488246
219	0xbc808170	-0.01568672
220	0xbd96f748	-0.07371384
221	0x3cdfd11e	0.027321395
222	0x3a93f5c8	0.0011288458
223	0xbda67c7b	-0.081292115
224	0x3c8abf24	0.016936846
225	0x3dac5e53	0.084164284
226	0x3d73943a	0.05946753
227	0x3df5a061	0.119934805
228	0x3cc0b1ad	0.023522222
229	0xbd8093f3	-0.06278219
230	0xbd636ece	-0.055525593
231	0xbd9c47d6	-0.07630889
232	0xbdcb673d	-0.099318005
233	0xbb0b5082	-0.0021257703
234	0xbd15fbef	-0.036617216
235	0xbdf6afb4	-0.120452315
236	0x3d8ec485	0.06971077
237	0xbdc7ef39	-0.09762425
238	0xbb9cdd01	-0.004787088
239	0xbd2feaeb	-0.042948645
240	0xbcce5c5d	-0.025190527
241	0x3c85e78f	0.016345767
242	0xbcaaafc8	-0.020835772
243	0xbb3621fa	-0.0027791248
244	0xbdd949af	-0.10609757
245	0xbd09bc92	-0.0336271
246	0x3d1d7284	0.03843929
247	0xbb721727	-0.003694007
248	0xbdc8dd73	-0.09807863
249	0x3d8ecc15	0.06972519
250	0x3dff009d	0.12451289
251	0x3d1321f1	0.03592104
252	0x3d2a85d2	0.041631527
253	0xbe0d2198	-0.13782346
254	0xbdb12d68	-0.08651239
255	0x3ca37efe	0.019958016

net.layer3.0.bias f4 [64]
0	0x3b9539be	0.0045540025
1	0xbbb8f00f	-0.0056438516
2	0xbc83d901	-0.016094686
3	0xbd0ee9ad	-0.03489082
4	0xbc30928f	-0.01077713
5	0xbd12bd5a	-0.03582511
6	0x3d2eb00e	0.042648368
7	0x3bbeb94a	0.005820428
8	0xbcfc5a3a	-0.030804742
9	0xbc85d0c4	-0.016334899
10	0xbca09c5b	-0.019605806
11	0x3ca94e08	0.020667091
12	0xbca9f08b	-0.020744583
13	0xbc6fbaa7	-0.014631904
14	0xbcd9540a	-0.02652933
15	0x3d23f97f	0.04003286
16	0x3af74791	0.0018865933
17	0x3c94277b	0.018085232
18	0x3cd94a49	0.02652468
19	0xbcd1072f	-0.02551612
20	0x3d1d3cc4	0.03838803
21	0x3d19f646	0.03758838
22	0x3caded0d	0.021231199
23	0xbc34a057	-0.011024556
24	0xbb014200	-0.0019723177
25	0xbcfffe74	-0.031249262
26	0xbcd1bb96	-0.025602143
27	0x3cbbf9fa	0.022946347
28	0xbce6fb8e	-0.028196122
29	0x3bc5f5f9	0.006041285
30	0xbd1f333e	-0.038867228
31	0xba59c891	-0.000830778
32	0xbcb9bad6	-0.022672098
33	0xbc491981	-0.012274147
34	0xbb8b756a	-0.00425594
35	0x3d17e17a	0.037080266
36	0x3d263bce	0.040584378
37	0xbb2fd67f	-0.002683073
38	0x3ca26ac0	0.019826293
39	0xbd0357d3	-0.032066178
40	0x3c0f1f75	0.008735527
41	0x3c40ce29	0.011767902
42	0x3c931004	0.017951973
43	0x3d0e5b63	0.034755122
44	0xbac0b24f	-0.0014701578
45	0x3d1c975d	0.03823029
46	0xbcb61650	-0.022227436
47	0x3c43d2c7	0.011952109
48	0xbc3e6bf3	-0.011622417
49	0x3d1ed940	0.038781404
50	0x3c4b38ee	0.01240371
51	0x3d1fd696	0.039023004
52	0xbd16ac80	-0.036785603
53	0x3d0d5c9f	0.03451216
54	0x3d00c7ce	0.03144055
55	0xbbf28955	-0.007401625
56	0x3c14d3ab	0.009083669
57	0x3cef8fbc	0.029243343
58	0xbd2a5c0f	-0.0415917
59	0xbc938704	-0.018008716
60	0x3c2510fa	0.010074848
61	0x3c94f78d	0.018184448
62	0xbc89efac	-0.016837917
63	0xbcea7dca	-0.028624434

net.layer3.1.weight f4 [64]
0	0x3f8007a0	1.0002327
1	0x3f75b4f0	0.95979214
2	0x3f7f5e3c	0.99753165
3	0x3f87e5fc	1.0617061
4	0x3f82d125	1.0220076
5	0x3f86ffd5	1.0546824
6	0x3f7077aa	0.9393259
7	0x3f76d4fd	0.96418744
8	0x3f772170	0.96535397
9	0x3f78f2fb	0.9724576
10	0x3f876232	1.0576842
11	0x3f80439b	1.0020632
12	0x3f8d7beb	1.1053442
13	0x3f7044d7	0.9385504
14	0x3f6fa0bc	0.93604636
15	0x3f7ab42b	0.97931165
16	0x3f74cd96	0.956262
17	0x3f7d9975	0.9906228
18	0x3f7ce3aa	0.9878489
19	0x3f8ef88f	1.1169604
20	0x3f864cf2	1.0492232
21	0x3f6b8474	0.9199898
22	0x3f6cd938	0.9251895
23	0x3f7c64a1	0.9859105
24	0x3f812b96	1.0091426
25	0x3f6088dc	0.8770883
26	0x3f6dbb05	0.92863494
27	0x3f8a1e66	1.0790527
28	0x3f820611	1.0158101
29	0x3f882d93	1.0638908
30	0x3f6bc1f6	0.92092836
31	0x3f740665	0.9532226
32	0x3f8b1a7c	1.0867457
33	0x3f79d92d	0.9759701
34	0x3f85fdcd	1.0468079
35	0x3f5ac87f	0.8546218
36	0x3f82b65a	1.0211899
37	0x3f671c3d	0.90277463
38	0x3f897510	1.073885
39	0x3f724a6c	0.9464481
40	0x3f84905d	1.0356556
41	0x3f76831c	0.9629381
42	0x3f7890b3	0.97095793
43	0x3f787fd6	0.9707006
44	0x3f7db6b5	0.99106914
45	0x3f74be9d	0.9560335
46	0x3f7e7ec0	0.99412155
47	0x3f8994be	1.0748518
48	0x3f812fee	1.0092752
49	0x3f85a0cd	1.0439698
50	0x3f81e90d	1.0149246
51	0x3f630da0	0.88692665
52	0x3f8acdd2	1.0844061
53	0x3f693c0a	0.9110724
54	0x3f6f685c	0.93518615
55	0x3f6a4630	0.9151335
56	0x3f838d77	1.0277547
57	0x3f83a6a9	1.0285236
58	0x3f7bfdeb	0.98434323
59	0x3f812363	1.0088924
60	0x3f7c7428	0.9861474
61	0x3f6838b8	0.90711546
62	0x3f904bef	1.1273173
63	0x3f7aba8f	0.97940916

net.layer3.1.bias f4 [64]
0	0xbce85472	-0.02836058
1	0xbd83ef13	-0.06442084
2	0xbd608198	-0.05481109
3	0xbd3c2bf4	-0.045940354
4	0x3dcaeb23	0.0990813
5	0xbe4236d3	-0.18966226
6	0x3c9fcf92	0.019508157
7	0xbd70b173	-0.05876298
8	0xbd645037	-0.05574056
9	0xbcdf1066	-0.0272295
10	0x3d4612d0	0.048357785
11	0xbdee9610	-0.11649716
12	0xbe5b1a63	-0.21396784
13	0xbd8aab94	-0.06771007
14	0xbd1596dc	-0.036520824
15	0xbd518e2c	-0.051160976
16	0xbd924aad	-0.071431495
17	0xbdabd0c7	-0.083894305
18	0xbe216cbb	-0.15764134
19	0xbe6dc694	-0.23220283
20	0x3cbab38d	0.022790695
21	0xbe202742	-0.15639976
22	0x3d09a66c	0.033605978
23	0xbe2e2004	-0.170044
24	0xbd5d4dc4	-0.05402924
25	0xbd2c4003	-0.042053234
26	0xbdcda6ef	-0.10041606
27	0x3d26438f	0.040591773
28	0xbd4f8b2d	-0.050669838
29	0x3bcbfc96	0.006225179
30	0xbe22941a	-0.15876809
31	0xbd9e5264	-0.077305585
32	0xbdf04a70	-0.11732948
33	0xbc5a14d0	-0.013310626
34	0xbe291374	-0.16511327
35	0xbe3d7818	-0.18502843
36	0xbe45ab5d	-0.19303651
37	0xbcf65044	-0.03006757
38	0xbe402a87	-0.18766223
39	0xbd1aea21	-0.03782094
40	0xbe10d18c	-0.14142436
41	0xbcf5b149	-0.029991763
42	0x3da03ac0	0.07823706
43	0xbe3c1449	-0.18367113
44	0xbc8adbb0	-0.016950458
45	0xbdb460cb	-0.08807524
46	0xbc9328a7	-0.01796372
47	0xbe5a7a42	-0.213357
48	0xbe3bebc2	-0.18351653
49	0xbe237c7a	-0.15965453
50	0xbd21625b	-0.03940044
51	0xbdf58662	-0.11988522
52	0xbe19c96b	-0.15018241
53	0xbc1a80c5	-0.009430115
54	0xbccbb38c	-0.024865888
55	0xbdca50f5	-0.098787226
56	0xbcee7839	-0.029110061
57	0xbb7e38ee	-0.0038791257
58	0xbe4ce225	-0.20008142
59	0xbe2a6bae	-0.16642639
60	0xbb2018a9	-0.002442876
61	0xbdadcb80	-0.0848608
62	0xbe78c65e	-0.24294421
63	0xbdc0d6b1	-0.09415949

net.layer3.1.running_mean f4 [64]
0	0x00000000	0.0
1	0x00000000	0.0
2	0x00000000	0.0
3	0x00000000	0.0
4	0x00000000	0.0
5	0x00000000	0.0
6	0x00000000	0.0
7	0x00000000	0.0
8	0x00000000	0.0
9	0x00000000	0.0
10	0x00000000	0.0
11	0x00000000	0.0
12	0x00000000	0.0
13	0x00000000	0.0
14	0x00000000	0.0
15	0x00000000	0.0
16	0x00000000	0.0
17	0x00000000	0.0
18	0x00000000	0.0
19	0x00000000	0.0
20	0x00000000	0.0
21	0x00000000	0.0
22	0x00000000	0.0
23	0x00000000	0.0
24	0x00000000	0.0
25	0x00000000	0.0
26	0x00000000	0.0
27	0x00000000	0.0
28	0x00000000	0.0
29	0x00000000	0.0
30	0x00000000	0.0
31	0x00000000	0.0
32	0x00000000	0.0
33	0x00000000	0.0
34	0x00000000	0.0
35	0x00000000	0.0
36	0x00000000	0.0
37	0x00000000	0.0
38	0x00000000	0.0
39	0x00000000	0.0
40	0x00000000	0.0
41	0x00000000	0.0
42	0x00000000	0.0
43	0x00000000	0.0
44	0x00000000	0.0
45	0x00000000	0.0
46	0x00000000	0.0
47	0x00000000	0.0
48	0x00000000	0.0
49	0x00000000	0.0
50	0x00000000	0.0
51	0x00000000	0.0
52	0x00000000	0.0
53	0x00000000	0.0
54	0x00000000	0.0
55	0x00000000	0.0
56	0x00000000	0.0
57	0x00000000	0.0
58	0x00000000	0.0
59	0x00000000	0.0
60	0x00000000	0.0
61	0x00000000	0.0
62	0x00000000	0.0
63	0x00000000	0.0

net.layer3.1.running_var f4 [64]
0	0x3f800000	1.0
1	0x3f800000	1.0
2	0x3f800000	1.0
3	0x3f800000	1.0
4	0x3f800000	1.0
5	0x3f800000	1.0
6	0x3f800000	1.0
7	0x3f800000	1.0
8	0x3f800000	1.0
9	0x3f800000	1.0
10	0x3f800000	1.0
11	0x3f800000	1.0
12	0x3f800000	1.0
13	0x3f800000	1.0
14	0x3f800000	1.0
15	0x3f800000	1.0
16	0x3f800000	1.0
17	0x3f800000	1.0
18	0x3f800000	1.0
19	0x3f800000	1.0
20	0x3f800000	1.0
21	0x3f800000	1.0
22	0x3f800000	1.0
23	0x3f800000	1.0
24	0x3f800000	1.0
25	0x3f800000	1.0
26	0x3f800000	1.0
27	0x3f800000	1.0
28	0x3f800000	1.0
29	0x3f800000	1.0
30	0x3f800000	1.0
31	0x3f800000	1.0
32	0x3f800000	1.0
33	0x3f800000	1.0
34	0x3f800000	1.0
35	0x3f800000	1.0
36	0x3f800000	1.0
37	0x3f800000	1.0
38	0x3f800000	1.0
39	0x3f800000	1.0
40	0x3f800000	1.0
41	0x3f800000	1.0
42	0x3f800000	1.0
43	0x3f800000	1.0
44	0x3f800000	1.0
45	0x3f800000	1.0
46	0x3f800000	1.0
47	0x3f800000	1.0
48	0x3f800000	1.0
49	0x3f800000	1.0
50	0x3f800000	1.0
51	0x3f800000	1.0
52	0x3f800000	1.0
53	0x3f800000	1.0
54	0x3f800000	1.0
55	0x3f800000	1.0
56	0x3f800000	1.0
57	0x3f800000	1.0
58	0x3f800000	1.0
59	0x3f800000	1.0
60	0x3f800000	1.0
61	0x3f800000	1.0
62	0x3f800000	1.0
63	0x3f800000	1.0

net.layer4.0.weight f4 [64, 64, 3, 3]
0	0x3d3065f8	0.043065995
1	0x3d0de512	0.034642287
2	0x3c753415	0.014966031
3	0x3c64c892	0.013963835
4	0x3d36cfd6	0.0446318
5	0xbb8f8109	-0.004379396
6	0xbceab51c	-0.028650813
7	0x3cd6f78f	0.026241092
8	0xbc8faf44	-0.017539628
9	0xbd61dd11	-0.055142466
10	0x3d095d65	0.033536334
11	0xbd0e95bc	-0.034810767
12	0xbcf19870	-0.029491633
13	0x3c51b2ca	0.012798974
14	0x3c0065d1	0.007836775
15	0x3d33f808	0.043937713
16	0xbc0181ab	-0.00790445
17	0xbd2374dd	-0.03990637
18	0xbd0a5c78	-0.03377959
19	0x3d1ac449	0.03778485
20	0x3d16c13d	0.03680538
21	0xbc42461f	-0.0118575385
22	0x3a877ab3	0.001033625
23	0x3daba407	0.08380895
24	0xbd777624	-0.060415402
25	0x3d226806	0.039649986
26	0x3d2a4838	0.04157278
27	0x3d82dfad	0.06390319
28	0xbce2e1e0	-0.027695596
29	0x3d5deb0f	0.054179247
30	0x3d24b64e	0.04021292
31	0x3c84609d	0.01615935
32	0x3dbfcc00	0.09365082
33	0x3cc109dd	0.023564273
34	0xbc93a226	-0.018021654
35	0x3cdc60db	0.026901653
36	0x3dd84c9a	0.105614856
37	0x3d916109	0.07098586
38	0x3dc37f75	0.09545795
39	0x3d82b05c	0.06381294
40	0x3d008875	0.031380136
41	0x3e00787d	0.12545963
42	0x3e48bbdb	0.19602911
43	0x3de61f7f	0.11236476
44	0x3e203731	0.15646054
45	0x3cc0176d	0.02344867
46	0x3d4033ce	0.046924405
47	0xbb4daf70	-0.0031385086
48	0x3c87ed4f	0.01659265
49	0xbda9a502	-0.08283426
50	0x3cf694bb	0.030100217
51	0x3c2b3238	0.010448985
52	0x3cbb926a	0.022896964
53	0xbc60039a	-0.013672734
54	0x3d7af9cf	0.061273392
55	0x3c4c13b5	0.01245587
56	0x3db295a3	0.08719947
57	0x3dba553c	0.090982884
58	0x3d5b1215	0.05348404
59	0x3d843140	0.06454706
60	0x3dab1912	0.08354391
61	0x3cfbeffe	0.030754086
62	0x3d819c5d	0.06328652
63	0x3be5191c	0.0069915187
64	0xbcd3ec7e	-0.025869604
65	0xbdba8175	-0.09106723
66	0x3d45e068	0.048309714
67	0xbce314c3	-0.02771986
68	0xbcc004b8	-0.02343975
69	0x3bc1ed0d	0.0059181512
70	0x3c1ee2f9	0.009697669
71	0xbc09e6fe	-0.008416889
72	0xbcf16024	-0.029464789
73	0xbd3dffbf	-0.046386477
74	0x3ce327e4	0.027728982
75	0x3d512422	0.05105985
76	0xbd0162e9	-0.03158847
77	0xbc0c2a92	-0.008555071
78	0xbcf20b2a	-0.029546339
79	0x3bf3fdd8	0.007446032
80	0x3d27826d	0.040895868
81	0xbd97c0b8	-0.07409805
82	0xbd962e30	-0.07333028
83	0xbceb18b4	-0.028698303
84	0xbdd25701	-0.10270501
85	0xbdf2eb82	-0.11861326
86	0xbdbbb00f	-0.0916444
87	0xbd774589	-0.06036905
88	0xbc90ee74	-0.017691828
89	0xbda4e09a	-0.08050652
90	0x3e1f7184	0.15570647
91	0x3dc5ad14	0.09652153
92	0x3e81b973	0.253368
93	0x3e5ee94f	0.21768688
94	0x3d91e6c3	0.071240924
95	0x3e35cec1	0.17754652
96	0x3e39706c	0.18109292
97	0x3e532a82	0.20621684
98	0x3e8bc48d	0.27298394
99	0xbbeff585	-0.0073229694
100	0xbd4e98d2	-0.05043871
101	0x3d5dc377	0.054141488
102	0x3c48f557	0.012265525
103	0xbd43bd09	-0.0477877
104	0x3cc981a5	0.024597952
105	0x3c4b631b	0.012413765
106	0x3d929c8c	0.07158765
107	0x3d29f52e	0.041493587
108	0x3d6be769	0.057593737
109	0x3cb92cf4	0.022604443
110	0x3ddb5c15	0.10710923
111	0x3c13a9f5	0.009012689
112	0x3cf9c525	0.030489514
113	0x3d4a54ce	0.049397282
114	0x3dd52936	0.10408251
115	0x3d94a20d	0.07257471
116	0x3c814fd4	0.015785135
117	0xbc45cf3a	-0.012073332
118	0xbd5be21c	-0.05368243
119	0x3d66dd7b	0.056363564
120	0xbd4299c1	-0.047509912
121	0xbd2b0416	-0.041751944
122	0xbc7de993	-0.015497583
123	0xbd31c905	-0.043404598
124	0x3b70602d	0.003667842
125	0xbc3b5350	-0.0114334375
126	0x3bebcdc8	0.007196162
127	0xbd86668d	-0.06562529
128	0xbdc69311	-0.096960194
129	0xbd487621	-0.04894078
130	0xbd3c9892	-0.04604394
131	0xbd7524cc	-0.059849545
132	0xbd6f64e5	-0.05844583
133	0xbda7bd14	-0.08190361
134	0x3d098f79	0.03358409
135	0xbd1a5828	-0.03768173
136	0xbd1ea253	-0.038729023
137	0xbd133e26	-0.03594794
138	0xbdb6ec23	-0.08931758
139	0xbc8d9f9b	-0.01728802
140	0xbdc9dbe4	-0.09856394
141	0xbd3e34a8	-0.046436936
142	0xbdb97eb2	-0.09057368
143	0xbcbff63f	-0.023432849
144	0x3d275ce4	0.04086007
145	0xbcff53fd	-0.031167978
146	0xba563d3d	-0.00081725774
147	0x3ca8eb25	0.020619938
148	0xbd305c4d	-0.043056775
149	0xbdcbaf77	-0.09945577
150	0xbcedc96e	-0.029026713
151	0xbc5f93a3	-0.013646039
152	0x3cb22ef0	0.021750897
153	0xbd1cd73f	-0.038291212
154	0x3d6268b4	0.055275634
155	0xbd37303d	-0.044723738
156	0xbc0659c6	-0.008200115
157	0x3c48da25	0.012259041
158	0xbddace6c	-0.10683903
159	0xbd97247a	-0.07380004
160	0xbdb3c992	-0.08778681
161	0xbcc07c24	-0.023496695
162	0x3daa6c91	0.08321489
163	0xbc0f8d54	-0.008761723
164	0xbcca5573	-0.024698948
165	0xbd77c0fe	-0.060486786
166	0xbd203954	-0.039117172
167	0x3cfbb9f6	0.030728322
168	0xbc4d9e2f	-0.012549921
169	0x3c0d4d52	0.008624392
170	0xbc47025b	-0.012146558
171	0x3da8ce33	0.082424544
172	0xbb338abf	-0.0027395932
173	0x3dfded63	0.123987935
174	0x3bc05dae	0.0058705425
175	0xbcc3708f	-0.023857383
176	0xbbe0328b	-0.0068419627
177	0xbc854fb6	-0.01627336
178	0xbd0f6443	-0.035007726
179	0x3b41beec	0.0029563261
180	0x3dc9ee3c	0.09859893
181	0x3d3811e2	0.04493893
182	0x3c8518a6	0.016247105
183	0x3d6dcd86	0.05805733
184	0xbbf0129e	-0.007326438
185	0x3c589498	0.013219021
186	0x3e173ecd	0.1477005
187	0x3df46204	0.119327575
188	0x3e130e37	0.14360891
189	0x3d45a45f	0.04825246
190	0x3cf4bf04	0.02987624
191	0x3d1e65ad	0.038671184
192	0x3d3f35b9	0.046682093
193	0x3d088ccd	0.033337403
194	0xbd061732	-0.032736965
195	0x3da7c980	0.0819273
196	0x3cf57e13	0.029967343
197	0x3d572d4f	0.052533444
198	0x3c87d1ea	0.016579587
199	0xbcdcd2da	-0.02695601
200	0x3c0ff0b5	0.008785416
201	0xbcefcf36	-0.02927361
202	0xbd026969	-0.03183881
203	0xba735589	-0.000928246
204	0xbd27fb17	-0.041010942
205	0xbd9db3e4	-0.07700327
206	0x3ca07009	0.019584673
207	0x3d3688bd	0.044563998
208	0x3c863112	0.01638082
209	0xbc6054b2	-0.013692068
210	0xbd1c9789	-0.038230453
211	0xbd47353f	-0.048634764
212	0x3cf3ed87	0.029776348
213	0x3dc07d68	0.09398919
214	0xbd5f6875	-0.054542977
215	0x3ce041dd	0.027375156
216	0xbccd9f51	-0.025100382
217	0xbd31c770	-0.04340309
218	0x3dd834c3	0.105569385
219	0x3d3bf7c1	0.045890573
220	0xbd808a6c	-0.06276402
221	0x3d588a3f	0.052866217
222	0x3db894be	0.09012745
223	0x3d2d0fb7	0.042251315
224	0x3d36cf05	0.044631023
225	0xbca571dd	-0.020195896
226	0xbd2b2dde	-0.04179179
227	0xbaf01734	-0.0018317462
228	0x3c56f895	0.01312079
229	0xbc903cd3	-0.017607128
230	0xbc6389bb	-0.013887818
231	0xbd077620	-0.033071637
232	0xbd1061a6	-0.035249375
233	0x3b432d67	0.00297817
234	0x3d4e0d08	0.050305396
235	0x3d8e211d	0.069399096
236	0xbb34b1c0	-0.0027571768
237	0x3c696d4a	0.014247248
238	0xbd80e37a	-0.06293388
239	0x3cff21ef	0.03114411
240	0x3daf2925	0.085527696
241	0xbd53b6ab	-0.051687878
242	0xbd1ac18e	-0.037782244
243	0xbd198dbe	-0.03748869
244	0xbce89fe0	-0.028396547
245	0xbd571578	-0.05251071
246	0xbd9655fe	-0.073406205
247	0xbe070643	-0.13185982
248	0xbe02b809	-0.12765516
249	0xbc80cbb7	-0.015722139
250	0xbdb7522e	-0.089512214
251	0xbc8416b3	-0.016124105
252	0x3deb2e87	0.11483484
253	0x3c08b002	0.008342745
254	0x3c6a23a2	0.014290722
255	0xbbd9889d	-0.0066386
