mp/maml_mini_5way_5shot_best_step7500_conv_first.pt (torch, 144200 bytes, 26 tensors)

net.layer1.0.weight f4 [32, 3, 3, 3]
0	0xbe106acb	-0.14103238
1	0xbe52709a	-0.20550767
2	0xbe2b336e	-0.16718838
3	0x3d047049	0.032333646
4	0x3d7483ab	0.05969588
5	0x3cf352c9	0.029702561
6	0x3e2cc747	0.16872893
7	0x3e54fa48	0.207986
8	0x3dceb1f8	0.100925386
9	0xbe227b0e	-0.15867254
10	0xbe2dfbff	-0.1699066
11	0xbd3fd08b	-0.04682974
12	0x3d1ecddd	0.038770545
13	0xbd971f05	-0.073789634
14	0xbce64ca5	-0.028112719
15	0x3dd941e2	0.10608269
16	0x3e308c55	0.17241032
17	0x3e0da34f	0.13831829
18	0xbd4a7cce	-0.04943543
19	0xbdd8d5aa	-0.10587628
20	0xbd91753d	-0.071024396
21	0x3de14e05	0.11001209
22	0x3d191244	0.037370935
23	0xbdb36b7b	-0.08760735
24	0xbd8ef3f3	-0.06980123
25	0x3dd30cd4	0.10305181
26	0x3e0a8d7e	0.13530537
27	0x3df16a47	0.11787849
28	0x3e0437fe	0.12911984
29	0x3e1d4c40	0.15361118
30	0x3da05e80	0.078305244
31	0x3e644493	0.22291784
32	0xbcbdbbb5	-0.023160795
33	0x3e2feea5	0.1718088
34	0x3dcd6aee	0.10030161
35	0xbdf37b8b	-0.11888798
36	0xbe2d20cd	-0.16907044
37	0xbe284f3a	-0.16436473
38	0xbe07c80a	-0.13259903
39	0x3d8107ae	0.06300293
40	0xbe129459	-0.14314403
41	0xbd6a1f51	-0.057158772
42	0xbd91bb2b	-0.071157776
43	0xbe3d14ec	-0.18465012
44	0xbdf31124	-0.11868504
45	0x3db56194	0.08856502
46	0xbdb94f73	-0.09048357
47	0x3c3c70de	0.011501519
48	0x3d4d2c7c	0.05009125
49	0x3dc51ee6	0.09625034
50	0x3de340fc	0.11096379
51	0x3d6f817b	0.05847309
52	0x3d8789ca	0.06618078
53	0xbd1aa98f	-0.03775936
54	0xbdcb760d	-0.09934626
55	0x3c9fe021	0.019516053
56	0x3e4ca860	0.19986105
57	0xbc5b6f13	-0.013393181
58	0x3d3d713c	0.046250567
59	0xbdcdcdf7	-0.1004905
60	0x3d7037d0	0.058646977
61	0x3d355c70	0.04427761
62	0xbddbbd33	-0.10729446
63	0xbe742973	-0.23843937
64	0xbe3d3684	-0.18477827
65	0x3e63bbdd	0.22239633
66	0x3de9fa37	0.11424678
67	0xbcb28964	-0.021794029
68	0xbe230623	-0.1592031
69	0x3e135a43	0.14389901
70	0x3e213f1c	0.1574673
71	0xbc11e6f5	-0.008905162
72	0xbd76e494	-0.060276583
73	0xbdbdac48	-0.09261376
74	0x3ebcb666	0.3685791
75	0x3e1936ef	0.14962362
76	0x3e15fae2	0.14646485
77	0xbdd73aa5	-0.105092324
78	0xbccedb14	-0.025250949
79	0xbd8079e7	-0.06273251
80	0xbe9021ed	-0.28150883
81	0x3e5977c9	0.212371
82	0x3cdde46d	0.027086461
83	0xbddebbba	-0.1087565
84	0x3e9cfc58	0.30661273
85	0x3e194234	0.1496666
86	0xbd9080eb	-0.07055839
87	0x3d2429e2	0.040079005
88	0x3c97bb4f	0.018521933
89	0xbe1ce05d	-0.15319963
90	0x3c0852cd	0.0083205225
91	0x3d8922db	0.06696101
92	0x3d816ccd	0.0631958
93	0x3d098e45	0.033582944
94	0x3c753aa2	0.014967592
95	0xbd5a685d	-0.053322185
96	0x3e04f904	0.12985617
97	0xbd4539c0	-0.048150778
98	0xbe0d4604	-0.1379624
99	0xbd416189	-0.047212157
100	0x3e13cb1a	0.14432946
101	0xbd5bb65e	-0.053640716
102	0x3e14b12d	0.14520712
103	0x3b3f4aea	0.002918894
104	0x3d334d9f	0.043775197
105	0xbdf4e67f	-0.11958026
106	0xbe7ad6b0	-0.2449596
107	0x3d5616c2	0.052267797
108	0x3d3c605a	0.045990326
109	0xbd2f1e7e	-0.04275369
110	0xbbead395	-0.007166336
111	0x3cc80dd8	0.024420664
112	0x3d7a58ed	0.061119962
113	0xbcecaece	-0.028891947
114	0x3d361e9c	0.044462785
115	0xbc9a192d	-0.018810833
116	0xbdb466d6	-0.08808677
117	0x3dc146ab	0.09437307
118	0xbd9d5181	-0.07681561
119	0xbcedb166	-0.029015254
120	0xbd6a62dc	-0.057223186
121	0xbdbf72db	-0.09348079
122	0xbe2b3767	-0.16720353
123	0x3c67fadd	0.014158932
124	0xbc1e6373	-0.009667265
125	0x3df11f9f	0.11773609
126	0xbe80c705	-0.2515184
127	0xbe848cbb	-0.2588862
128	0xbce22903	-0.027607447
129	0xbd700c56	-0.058605514
130	0x3d174b6b	0.03693716
131	0x3db55812	0.08854689
132	0x3d3f018c	0.046632335
133	0x3e0b9484	0.13630873
134	0x3e5abd82	0.21361354
135	0xbe3be567	-0.18349229
136	0xbe3f4ab7	-0.18680845
137	0xbe3acdd4	-0.1824258
138	0xbd3a7f23	-0.045531403
139	0x3d88375a	0.066511825
140	0x3d8d5e43	0.069027446
141	0xbdf0c2c6	-0.117559
142	0xbd10ad21	-0.03532136
143	0xbd055b03	-0.0325575
144	0x3e2a6357	0.16639458
145	0x3deff882	0.11717321
146	0x3d464829	0.04840866
147	0x3d99fafe	0.07518576
148	0x3d6a19f0	0.057153642
149	0x3e86bbf8	0.26315284
150	0xbb1eaa2a	-0.0024210312
151	0x3def3146	0.1167932
152	0x3dcf8da1	0.101344354
153	0xbdaf0957	-0.08546703
154	0x3de64e4b	0.11245402
155	0xbb4a1a78	-0.003083853
156	0xbcf141e9	-0.029450374
157	0x3e3c057d	0.18361469
158	0x3dd06ec2	0.101773754
159	0xbda21705	-0.07914547
160	0xbd3bff55	-0.0458978
161	0x3d49ad85	0.049237747
162	0x3e2a081a	0.16604653
163	0xbe30f0ef	-0.17279409
164	0xbae16213	-0.0017195366
165	0x3d184644	0.037176386
166	0x3d7edfca	0.06222514
167	0xbe47f410	-0.19526696
168	0x3e6c4fae	0.2307727
169	0xbd38a0b0	-0.04507512
170	0xbc496cde	-0.012294022
171	0x3dfcef68	0.123503506
172	0xbdfd3632	-0.123638526
173	0x3e3a8b0a	0.18217102
174	0xbe0c8d1d	-0.13725705
175	0x3e1d18b7	0.15341459
176	0xbe192fc8	-0.14959633
177	0xbd5aa7a0	-0.053382516
178	0xbdd37ace	-0.103261575
179	0xbc043a47	-0.008070535
180	0x3d3ae9ac	0.045633003
181	0xbe15b4a9	-0.14619698
182	0x3ddc0f63	0.10745122
183	0xbdd2934b	-0.10282
184	0x3e0c4c91	0.13701083
185	0x3dd1cc81	0.10244084
186	0x3cfbdbc4	0.03074444
187	0xbde051f4	-0.10953131
188	0x3dc0a3b0	0.09406221
189	0xbc9d696a	-0.019215304
190	0x3c9acc4b	0.018896243
191	0xbd85e419	-0.06537647
192	0xbe584e9a	-0.21123734
193	0xbd1e19e0	-0.038598895
194	0x3e3662a2	0.17811063
195	0xbe03087a	-0.12796202
196	0xbde859cd	-0.11345253
197	0x3e450ae7	0.1924244
198	0x3dfa39f3	0.12218084
199	0xbdc06d5d	-0.093958594
200	0xbd4c6f39	-0.049910758
201	0xbe24605a	-0.1605238
202	0x3db6d01f	0.08926415
203	0x3e424603	0.1897202
204	0xbd9a9052	-0.07547058
205	0x3c928d30	0.01788959
206	0x3e47e77d	0.195219
207	0x3e465817	0.19369541
208	0xbddc9988	-0.10771471
209	0x3d59f07f	0.05320787
210	0xbe4aef9b	-0.19817965
211	0xbbf7e00c	-0.0075645503
212	0x3d4e9660	0.050436378
213	0xbe29667b	-0.16543
214	0xbda29ebd	-0.07940433
215	0x3e2d5105	0.16925438
216	0x3e90a472	0.28250462
217	0x3d1223f8	0.035678834
218	0xbd4a533a	-0.049395777
219	0x3e733977	0.2375239
220	0xbca052cd	-0.019570732
221	0xbdfa477f	-0.12220668
222	0xbbf27a90	-0.0073998645
223	0xbe2b1520	-0.16707277
224	0xbde71aae	-0.112843856
225	0xbe0cc258	-0.13746011
226	0x3d809315	0.06278054
227	0x3e0d9792	0.1382735
228	0xbdad67fd	-0.084671
229	0xbdb2a9b4	-0.087237746
230	0x3df73c9a	0.12072106
231	0xbe01865f	-0.12648915
232	0x3e0707d4	0.1318658
233	0xbd814fa1	-0.06314016
234	0xbe2ce71a	-0.16885033
235	0xbde7c175	-0.11316196
236	0xbdb9f846	-0.090805575
237	0xbdf8f2f5	-0.121557154
238	0x3d1d3eef	0.038390096
239	0x3d36a4d3	0.044590782
240	0x3de3f303	0.11130335
241	0x3e09a86b	0.13443153
242	0x3e44587d	0.1917438
243	0x3e0b7746	0.13619718
244	0xbbd58b6c	-0.0065168645
245	0x3bc3a784	0.005970897
246	0xbe070224	-0.1318441
247	0xbc58e2cc	-0.013237666
248	0xbd96e337	-0.073675565
249	0xbe5393f6	-0.20661911
250	0xbe8c63ec	-0.27419984
251	0xbd84247a	-0.0645227
252	0xbe1302e2	-0.14356568
253	0x3d2a5bd9	0.0415915
254	0xbcbe8336	-0.023255926
255	0xbe238d5f	-0.15971898

net.layer1.0.bias f4 [32]
0	0xbd719a2b	-0.058984917
1	0xbd17d8cd	-0.03707199
2	0xbe2762d8	-0.163463
3	0x3d28486c	0.041084692
4	0x3e5b6fb5	0.21429332
5	0xbe35dd59	-0.17760219
6	0x3de6d9bf	0.112720005
7	0xbddae054	-0.106873184
8	0xbd189219	-0.037248705
9	0x3e090dc2	0.13384154
10	0x3de84482	0.11341192
11	0x3d59a3fe	0.05313491
12	0x3d297d92	0.04137952
13	0xbcde6064	-0.027145572
14	0xbc545b23	-0.012961182
15	0x3db15659	0.08659048
16	0xbc75d04f	-0.015003278
17	0xbd08a1fb	-0.0333576
18	0xbe13d38d	-0.14436169
19	0xbcabee1c	-0.020987563
20	0x3e0cc440	0.13746738
21	0x3d80f788	0.06297213
22	0x3dd45aa8	0.10368854
23	0xbe392410	-0.18080163
24	0x3e14a72d	0.14516897
25	0x3e1c2c9b	0.1525139
26	0x3d91644b	0.070992075
27	0xbda4428b	-0.080205046
28	0xbe1f4d3b	-0.15556805
29	0xbd92730c	-0.0715085
30	0xbdd64b65	-0.10463599
31	0xbe3854de	-0.18001124

net.layer1.1.weight f4 [32]
0	0x3f87e631	1.0617124
1	0x3f69f867	0.91394657
2	0x3f7eab48	0.99480104
3	0x3f391ac0	0.7230644
4	0x3f78d80c	0.9720466
5	0x3f4cf961	0.8006802
6	0x3f609b2c	0.87736773
7	0x3f86487b	1.0490869
8	0x3f94439e	1.1583135
9	0x3f639374	0.8889687
10	0x3f8bf997	1.0935544
11	0x3f6250eb	0.8840472
12	0x3fa0a2b0	1.2549648
13	0x3f6f6918	0.93519735
14	0x3f4ed073	0.8078682
15	0x3f7d5ef6	0.98973024
16	0x3f89ca3e	1.0764844
17	0x3f7b8117	0.9824385
18	0x3f8ccedf	1.1000632
19	0x3f85860d	1.0431534
20	0x3f83686c	1.0266242
21	0x3f72edcc	0.948941
22	0x3f7fd8e1	0.99940306
23	0x3f87ae2e	1.060003
24	0x3f481e67	0.7817139
25	0x3f8b6a8e	1.0891893
26	0x3f79757b	0.97444886
27	0x3f67d6d6	0.9056219
28	0x3f65ede6	0.8981613
29	0x3f85de5b	1.0458483
30	0x3f7eb4cf	0.9949464
31	0x3f2a7e0f	0.665986

net.layer1.1.bias f4 [32]
0	0x3e235ef5	0.15954192
1	0xbdbe2906	-0.09285168
2	0xbdc48053	-0.095947884
3	0xbea2799d	-0.3173341
4	0xbd0e1552	-0.0346883
5	0xbe136030	-0.14392161
6	0xbcfba352	-0.030717526
7	0x3ec78d38	0.3897493
8	0xbe0f9806	-0.14022836
9	0xbda423c9	-0.08014638
10	0xbd845354	-0.06461206
11	0xbec77c1c	-0.38961875
12	0xbe1e69b6	-0.15470013
13	0xbd83bce6	-0.06432514
14	0xbca531b7	-0.020165307
15	0xbd68b8e4	-0.05681695
16	0xbd0edc19	-0.03487787
17	0xbd8c6992	-0.068560734
18	0x3e095c0d	0.13414021
19	0x3e79a712	0.24380139
20	0x3e04bcba	0.12962618
21	0xbd3d0636	-0.0461485
22	0xbde5ef30	-0.11227262
23	0xbcfb1629	-0.030650215
24	0xbe1afe33	-0.15136032
25	0xbe72a13f	-0.23694323
26	0x3c2849fb	0.010271545
27	0xbe2cc25b	-0.16871016
28	0xbe9c7da1	-0.30564597
29	0xbe15c7f9	-0.14627065
30	0xbcb618d8	-0.022228643
31	0xbe2759de	-0.16342875

net.layer1.1.running_mean f4 [32]
0	0x00000000	0.0
1	0x00000000	0.0
2	0x00000000	0.0
3	0x00000000	0.0
4	0x00000000	0.0
5	0x00000000	0.0
6	0x00000000	0.0
7	0x00000000	0.0
8	0x00000000	0.0
9	0x00000000	0.0
10	0x00000000	0.0
11	0x00000000	0.0
12	0x00000000	0.0
13	0x00000000	0.0
14	0x00000000	0.0
15	0x00000000	0.0
16	0x00000000	0.0
17	0x00000000	0.0
18	0x00000000	0.0
19	0x00000000	0.0
20	0x00000000	0.0
21	0x00000000	0.0
22	0x00000000	0.0
23	0x00000000	0.0
24	0x00000000	0.0
25	0x00000000	0.0
26	0x00000000	0.0
27	0x00000000	0.0
28	0x00000000	0.0
29	0x00000000	0.0
30	0x00000000	0.0
31	0x00000000	0.0

net.layer1.1.running_var f4 [32]
0	0x3f800000	1.0
1	0x3f800000	1.0
2	0x3f800000	1.0
3	0x3f800000	1.0
4	0x3f800000	1.0
5	0x3f800000	1.0
6	0x3f800000	1.0
7	0x3f800000	1.0
8	0x3f800000	1.0
9	0x3f800000	1.0
10	0x3f800000	1.0
11	0x3f800000	1.0
12	0x3f800000	1.0
13	0x3f800000	1.0
14	0x3f800000	1.0
15	0x3f800000	1.0
16	0x3f800000	1.0
17	0x3f800000	1.0
18	0x3f800000	1.0
19	0x3f800000	1.0
20	0x3f800000	1.0
21	0x3f800000	1.0
22	0x3f800000	1.0
23	0x3f800000	1.0
24	0x3f800000	1.0
25	0x3f800000	1.0
26	0x3f800000	1.0
27	0x3f800000	1.0
28	0x3f800000	1.0
29	0x3f800000	1.0
30	0x3f800000	1.0
31	0x3f800000	1.0

net.layer2.0.weight f4 [32, 32, 3, 3]
0	0xbbbd2ff8	-0.0057735406
1	0xbdefe490	-0.11713517
2	0x3d17b9ba	0.037042357
3	0xbdbdfe04	-0.09276965
4	0xbcbc1ce8	-0.022963002
5	0xbc92e819	-0.017932938
6	0xbddba356	-0.10724513
7	0xbe2c6bff	-0.16838072
8	0x3a926e42	0.0011171775
9	0x3e351a5a	0.17685834
10	0xbcc6661f	-0.024218617
11	0x3d936e51	0.071987756
12	0xbca228c5	-0.019794831
13	0x3c5da4ba	0.013528043
14	0xbe084323	-0.1330686
15	0xbe442bf2	-0.19157389
16	0xbe0757c1	-0.13217069
17	0xbd67c523	-0.05658449
18	0x3d9a719c	0.075412005
19	0x3d8de4aa	0.0692838
20	0x3c383626	0.011243379
21	0x3b93d01f	0.004510894
22	0x3dec1e24	0.11529186
23	0x3d8a3a9d	0.06749461
24	0x3dd6de29	0.104915924
25	0x3dadea87	0.08491998
26	0x3e0bf7d4	0.13668758
27	0x3d331afa	0.0437269
28	0x3d250691	0.040289465
29	0xbd19e18d	-0.037568618
30	0x3da8017e	0.082034096
31	0xbd10a6a7	-0.035315182
32	0xbd53aec9	-0.05168036
33	0xbd675d02	-0.056485184
34	0xbd0fdb76	-0.035121404
35	0x3d40404e	0.046936326
36	0xbb2ce75f	-0.0026383025
37	0x3d455ee1	0.048186187
38	0x3df0224a	0.1172529
39	0x3c542059	0.012947165
40	0xbdd91b04	-0.10600856
41	0x3c3733b5	0.0111817615
42	0xbdc72ffb	-0.097259484
43	0xbcb338b6	-0.021877628
44	0x3cffa78e	0.031207826
45	0x3de8f59f	0.113749735
46	0xbd98b40c	-0.07456216
47	0xbda28174	-0.079348475
48	0xbde39220	-0.111118555
49	0xbc128997	-0.008943937
50	0xbdcff411	-0.10153974
51	0xbced73aa	-0.028985817
52	0x3c43ecc1	0.011958302
53	0x3d8193b1	0.06326998
54	0x3a8c5744	0.001070716
55	0xbd32e569	-0.043675814
56	0xbd7aa732	-0.061194606
57	0xbd666426	-0.056247853
58	0x3cbd1d33	0.023085212
59	0xbd97958e	-0.07401572
60	0x3bb6b409	0.005575661
61	0x3d0fe95e	0.035134666
62	0x3dd4d94a	0.10393007
63	0xbd634f3b	-0.055495482
64	0xbd015d71	-0.031583253
65	0x3d26a0a0	0.040680528
66	0xbdf127b3	-0.1177515
67	0xbd636264	-0.055513754
68	0x3d6cf589	0.057851348
69	0xbe2abffa	-0.16674796
70	0xbd4e9331	-0.05043334
71	0x3d98b6a1	0.07456709
72	0x3d8772a3	0.06613662
73	0x3ddc9b9d	0.107718684
74	0x3e01ca5f	0.12674855
75	0xbdf2fe44	-0.118649036
76	0xbe2c5fa9	-0.16833366
77	0xbcca52a0	-0.024697602
78	0xbdf4acb8	-0.11947006
79	0xbe19830a	-0.14991394
80	0xbd2e2c36	-0.04252263
81	0xbc5f2ac3	-0.013621035
82	0xbcb00ef5	-0.021491507
83	0x3c4f432c	0.012650292
84	0x3d2c0d9b	0.042005163
85	0x3d3041f4	0.043031648
86	0x3e0ec5fc	0.13942713
87	0x3d3a39ff	0.045465466
88	0xbc93da76	-0.018048506
89	0x3d4e7d93	0.050412726
90	0x3e29cd24	0.16582161
91	0x3db031df	0.08603262
92	0x3d84bcfe	0.0648136
93	0x3e367857	0.17819344
94	0x3cc6e7d9	0.024280475
95	0x3d6f8602	0.05847741
96	0x3e1d6f12	0.15374401
97	0x3d5ea798	0.05435905
98	0x3deeae13	0.11654296
99	0xbc99e1fd	-0.018784517
100	0x3d5d9161	0.054093722
101	0x3db3123e	0.08743714
102	0x3c175152	0.009235697
103	0x3d764b05	0.060130138
104	0x3cbd629f	0.023118315
105	0x3e307919	0.17233695
106	0x3e1ff464	0.15620571
107	0x3e17327c	0.14765352
108	0xbe02564b	-0.1272823
109	0xbe63412d	-0.22192831
110	0xbe867f2b	-0.26268896
111	0xbe801512	-0.25016075
112	0xbed360ce	-0.41284794
113	0xbe8d9a74	-0.276569
114	0xbec9de11	-0.39427236
115	0xbecde97f	-0.40217206
116	0xbe5612a1	-0.20905544
117	0x3d2d6bd0	0.042339146
118	0xbe0ef80c	-0.1396181
119	0xbe26b942	-0.16281608
120	0xbd91dc89	-0.07122142
121	0xbe1fabaa	-0.15592828
122	0xbcf219fc	-0.029553406
123	0xbc87e8e4	-0.016590543
124	0xbdf29994	-0.11845699
125	0x3abb8e59	0.0014309391
126	0xbca9e704	-0.02074004
127	0x3dc37830	0.09544408
128	0x3d8a4ca6	0.06752901
129	0x3dc51c33	0.09624519
130	0xbc977924	-0.018490382
131	0xbd87d078	-0.06631559
132	0xbd51d4a5	-0.051228184
133	0x3cd4d9f9	0.025982844
134	0xbd61d29d	-0.055132497
135	0x3b1f310d	0.002429071
136	0xbe0128b7	-0.12613188
137	0xbd76604a	-0.060150422
138	0x3d8711fc	0.06595227
139	0xbddf4a2b	-0.10902818
140	0xbd651fff	-0.055938717
141	0xbdca4e47	-0.098782115
142	0xbd638595	-0.055547316
143	0x3d6af05a	0.057358123
144	0x3e58427a	0.21119109
145	0x3e41e974	0.18936712
146	0x3d8e4aa6	0.06947832
147	0xbe1663e3	-0.14686541
148	0xbdf3c9c8	-0.11903721
149	0x3d0e173e	0.034690134
150	0xbdf5c0b3	-0.11999645
151	0x3d4ae46f	0.049534258
152	0x3e045509	0.12923063
153	0x3c8ccd71	0.017187806
154	0xbd844d3a	-0.06460042
155	0x3dfd6b84	0.123740226
156	0x3d97e396	0.074164554
157	0x3c0a3b51	0.008436994
158	0x3ba1463e	0.0049217036
159	0x3d985efd	0.074399926
160	0xbd0789ac	-0.03309028
161	0x3d4b2f32	0.049605556
162	0x3e117677	0.14205347
163	0x3d8e94fa	0.06962009
164	0xbd9aba45	-0.07555059
165	0x3c854412	0.01626781
166	0xbe0d64e2	-0.13808015
167	0xbd78f214	-0.06077774
168	0xbd9bd838	-0.076096
169	0xbd61e9bc	-0.055154547
170	0xbc6d211f	-0.014473229
171	0xbdd2237f	-0.102606766
172	0xbd6f1661	-0.05837095
173	0xbd23cae6	-0.03998842
174	0xbe8f0fea	-0.2794183
175	0xbdfe58f0	-0.12419307
176	0xbe19cf40	-0.15020466
177	0xbe783235	-0.24237902
178	0xbe3bc9a4	-0.18338639
179	0xbd1c9ec7	-0.03823736
180	0x3e56e918	0.20987356
181	0x3e512abd	0.2042646
182	0x3d43c223	0.047792565
183	0x3d94460f	0.07239925
184	0xbd571a54	-0.052515343
185	0x3caa81bc	0.020813815
186	0x3ca93d30	0.02065906
187	0x3d819881	0.06327916
188	0x3d782dd2	0.060590573
189	0xbdd338cf	-0.1031357
190	0x3d35e7bc	0.044410452
191	0x3d8bd9ea	0.06828673
192	0xbd5eb2a6	-0.05436959
193	0x3d969ef3	0.07354536
194	0xbe0c815d	-0.13721223
195	0x3d54a629	0.051916275
196	0x3dc6318d	0.0967742
197	0x3d2cec16	0.042217337
198	0xbcb42d65	-0.021994302
199	0x3e01dfdb	0.1268305
200	0x3da47a25	0.0803111
201	0xbdebaaea	-0.11507209
202	0xbd11e9d9	-0.035623405
203	0x3d52e4ba	0.051487662
204	0xbc288f3c	-0.010288056
205	0x3bfd3821	0.0077276384
206	0x3c05f4b0	0.008176014
207	0x3db88c1e	0.090111
208	0x3d896d07	0.067102484
209	0x3dd8db10	0.10588658
210	0x3d6dfe1c	0.058103666
211	0x3d317fc7	0.04333475
212	0x3db89cb6	0.09014265
213	0x3d7a6eb8	0.061140746
214	0x3d595fdc	0.053069934
215	0x3c2ccfb2	0.010547565
216	0x3d5d123d	0.05397247
217	0xbd58d212	-0.052934714
218	0x3dafb68d	0.08579741
219	0xbd139e65	-0.03603973
220	0xbe0f371c	-0.13985866
221	0x3d5cd76f	0.05391639
222	0xbe55c4ce	-0.20875856
223	0xbe054baf	-0.13017152
224	0xbda652d0	-0.08121264
225	0xbd9fc5bf	-0.07801389
226	0x3d27013c	0.04077266
227	0xbe0b55c3	-0.13606934
228	0xbda703be	-0.08155011
229	0xbde17ae3	-0.11009767
230	0xbd353c85	-0.04424717
231	0xbdd789b4	-0.10524312
232	0xbdc7437b	-0.09729668
233	0xbdf08c25	-0.117454804
234	0x3d401099	0.04689083
235	0xbe08e855	-0.13369878
236	0xbe22db80	-0.15904045
237	0xbe06fb99	-0.13181914
238	0xbe71b4b9	-0.23604096
239	0xbd3ad598	-0.045613855
240	0xbda78142	-0.08178951
241	0xbe1ba5b1	-0.15199925
242	0xbd1ea282	-0.0387292
243	0x3d07b002	0.03312684
244	0x3d9cddf9	0.076595254
245	0xbd9dac20	-0.07698846
246	0x3db05009	0.086090155
247	0xbd4dd713	-0.05025394
248	0xbdd6e591	-0.10493005
249	0xbd1b4f01	-0.03791714
250	0xbc946f13	-0.01811937
251	0xbc506729	-0.012719908
252	0x3d57b39d	0.052661527
253	0xbd036e89	-0.032087836
254	0xbc63ae13	-0.013896483
255	0xbe292351	-0.16517378

net.layer2.0.bias f4 [32]
0	0xbcef1096	-0.029182713
1	0xbd065cae	-0.03280323
2	0xbb6b42f7	-0.0035898068
3	0xbcb50819	-0.022098588
4	0xbd4c3e84	-0.049864307
5	0xbd13d1b4	-0.03608866
6	0xbd469393	-0.04848058
7	0xbba71452	-0.005098858
8	0xbb7534d7	-0.0037415528
9	0x3d5a1e2a	0.053251423
10	0x3d44dfff	0.04806518
11	0xbcc3bfc3	-0.02389515
12	0xbcc8eac2	-0.024526004
13	0xbd141dbe	-0.036161177
14	0x3d3ddf31	0.04635543
15	0x3d486ffc	0.04893492
16	0x3c239bc6	0.00998587
17	0xbcb47bdc	-0.022031717
18	0x3d493a47	0.049127843
19	0xbc804e8e	-0.015662458
20	0x3cd3b9a1	0.02584535
21	0x3d889cbd	0.066705205
22	0x3c25a776	0.010110727
23	0xbd1820bc	-0.037140593
24	0xbd7c764c	-0.061636254
25	0xbd637d45	-0.05553939
26	0xbd8077e3	-0.062728666
27	0xbcee49a3	-0.029087847
28	0xbc98b4cc	-0.018640898
29	0xbc411811	-0.011785523
30	0x3cbfe8d6	0.023426455
31	0x3d377345	0.044787664

net.layer2.1.weight f4 [32]
0	0x3f8a1aad	1.0789391
1	0x3f6f7541	0.9353829
2	0x3f803e84	1.0019078
3	0x3f61dbd6	0.8822607
4	0x3f81bc80	1.0135651
5	0x3f6f9596	0.93587625
6	0x3f7b5c5b	0.981878
7	0x3f807b92	1.0037711
8	0x3f889af4	1.0672288
9	0x3f875d33	1.0575317
10	0x3f62f7ea	0.88659537
11	0x3f83e0d4	1.0302987
12	0x3f73c5fa	0.95223963
13	0x3f78f1af	0.9724378
14	0x3f90c99f	1.131153
15	0x3f7ad798	0.9798522
16	0x3f7ff0d4	0.9997685
17	0x3f81b762	1.0134089
18	0x3f732570	0.94979
19	0x3f702955	0.9381307
20	0x3f600310	0.87504673
21	0x3f73f039	0.95288426
22	0x3f86ea37	1.0540227
23	0x3f84f64c	1.0387664
24	0x3f6bee2d	0.921603
25	0x3f6bfda6	0.9218391
26	0x3f95d57e	1.1705778
27	0x3f82d685	1.0221716
28	0x3f83451e	1.0255468
29	0x3f8af753	1.0856727
30	0x3f57ec36	0.84344804
31	0x3f784602	0.96981823

net.layer2.1.bias f4 [32]
0	0x3c6275dc	0.013822045
1	0xbe32f3e6	-0.17475852
2	0xbea2c93e	-0.3179416
3	0xbe68fcf6	-0.22752747
4	0xbdb8db9c	-0.09026262
5	0xbddf9df2	-0.109187976
6	0xbe88fc53	-0.26755008
7	0x3d92997b	0.0715818
8	0xbe8d0a27	-0.27546808
9	0xbe03a8c5	-0.12857349
10	0xbe640f76	-0.22271523
11	0xbe32a058	-0.17443979
12	0xbd23e416	-0.04001244
13	0xbc6cca97	-0.014452598
14	0xbd8b8d09	-0.0681401
15	0xbb26c5c8	-0.0025447477
16	0xbeaa198f	-0.33222625
17	0xbf05997a	-0.5218731
18	0xbdabd0c7	-0.083894305
19	0xbde9958e	-0.114054784
20	0xbe6382a7	-0.22217809
21	0xbdfefca9	-0.12450535
22	0xbe332083	-0.17492871
23	0xbc943798	-0.018092915
24	0xbe2b370c	-0.16720217
25	0xbe7643d0	-0.24049306
26	0xbde1301c	-0.10995504
27	0xbe43e74f	-0.19131206
28	0xbe6d55a5	-0.23177202
29	0xbe0cad0a	-0.13737884
30	0xbea70523	-0.32621107
31	0xbd9600e9	-0.07324392

net.layer2.1.running_mean f4 [32]
0	0x00000000	0.0
1	0x00000000	0.0
2	0x00000000	0.0
3	0x00000000	0.0
4	0x00000000	0.0
5	0x00000000	0.0
6	0x00000000	0.0
7	0x00000000	0.0
8	0x00000000	0.0
9	0x00000000	0.0
10	0x00000000	0.0
11	0x00000000	0.0
12	0x00000000	0.0
13	0x00000000	0.0
14	0x00000000	0.0
15	0x00000000	0.0
16	0x00000000	0.0
17	0x00000000	0.0
18	0x00000000	0.0
19	0x00000000	0.0
20	0x00000000	0.0
21	0x00000000	0.0
22	0x00000000	0.0
23	0x00000000	0.0
24	0x00000000	0.0
25	0x00000000	0.0
26	0x00000000	0.0
27	0x00000000	0.0
28	0x00000000	0.0
29	0x00000000	0.0
30	0x00000000	0.0
31	0x00000000	0.0

net.layer2.1.running_var f4 [32]
0	0x3f800000	1.0
1	0x3f800000	1.0
2	0x3f800000	1.0
3	0x3f800000	1.0
4	0x3f800000	1.0
5	0x3f800000	1.0
6	0x3f800000	1.0
7	0x3f800000	1.0
8	0x3f800000	1.0
9	0x3f800000	1.0
10	0x3f800000	1.0
11	0x3f800000	1.0
12	0x3f800000	1.0
13	0x3f800000	1.0
14	0x3f800000	1.0
15	0x3f800000	1.0
16	0x3f800000	1.0
17	0x3f800000	1.0
18	0x3f800000	1.0
19	0x3f800000	1.0
20	0x3f800000	1.0
21	0x3f800000	1.0
22	0x3f800000	1.0
23	0x3f800000	1.0
24	0x3f800000	1.0
25	0x3f800000	1.0
26	0x3f800000	1.0
27	0x3f800000	1.0
28	0x3f800000	1.0
29	0x3f800000	1.0
30	0x3f800000	1.0
31	0x3f800000	1.0

net.layer3.0.weight f4 [32, 32, 3, 3]
0	0xbe314e6e	-0.17315075
1	0xbd633f1f	-0.05548012
2	0xbd304d12	-0.04304225
3	0xbdf206dc	-0.118177146
4	0xbe1dfb2c	-0.15427846
5	0xbe2e766b	-0.1703736
6	0xbd779434	-0.060444072
7	0xbd524576	-0.051335774
8	0xbdff354c	-0.124613374
9	0xbc1493e0	-0.009068459
10	0xbcec1695	-0.028819362
11	0x3d9cc4c4	0.076547176
12	0x3dcc591a	0.09977932
13	0x3d78d9ba	0.060754515
14	0x3e3964dd	0.18104883
15	0x3d25cced	0.040478636
16	0x3de275a4	0.110575944
17	0xbcc12f49	-0.023582118
18	0x3e0ba404	0.13636786
19	0xbaf47b9d	-0.0018652562
20	0x3d5eaabd	0.054362047
21	0xbb4191fe	-0.002953648
22	0xbc412507	-0.011788613
23	0xbb305f43	-0.002691225
24	0xbd7b1151	-0.06129581
25	0x3dadaa92	0.08479799
26	0xbc9b1ce6	-0.018934678
27	0xbdc2d4af	-0.095132224
28	0xbdefc4f8	-0.11707491
29	0xbd21f415	-0.039539415
30	0xbd8cf1fe	-0.06882094
31	0x3e33e675	0.17568381
32	0x3ce57ea8	0.028014496
33	0x3d66b768	0.056327254
34	0x3e084b92	0.13310078
35	0x3dcd0767	0.100111775
36	0xbdee33ea	-0.116309956
37	0xbd4b8322	-0.049685605
38	0xbd45e88d	-0.04831748
39	0xbdb229c9	-0.08699376
40	0x3d56153f	0.052266356
41	0x3d355b8c	0.04427676
42	0x3ca4ffba	0.020141471
43	0x3be0d3c3	0.0068611815
44	0xbce606fd	-0.028079504
45	0xbe0cd7af	-0.13754152
46	0xbe115801	-0.14193727
47	0xbc3a4b5c	-0.011370506
48	0xbd5451fa	-0.05183599
49	0xbd91f72a	-0.07127221
50	0xbc94010e	-0.01806691
51	0xbdacd500	-0.08439064
52	0xbe070e52	-0.13189057
53	0xbd443317	-0.047900286
54	0x3e58ce50	0.21172452
55	0x3e822dc3	0.25425538
56	0x3e2d5885	0.16928299
57	0x3e522e91	0.20525576
58	0xbcb43dc3	-0.022002107
59	0x3d5a1460	0.053242087
60	0x3b492ca8	0.0030696783
61	0x3d1e1038	0.038589686
62	0x3e23c52c	0.15993184
63	0xbe51ffbd	-0.20507713
64	0xbdf9a59e	-0.12189792
65	0xbe293d40	-0.16527271
66	0xbe4fadc9	-0.20281138
67	0xbe2bd1f0	-0.16779304
68	0xbde1151c	-0.109903544
69	0xbdbe58f3	-0.092943095
70	0xbe3bf444	-0.18354899
71	0xbdc1bb02	-0.09459497
72	0xbcbebdec	-0.023283921
73	0x3d45dda4	0.048307076
74	0xbddd46d6	-0.108045265
75	0x3c669872	0.014074432
76	0x3d0ea4c3	0.034825098
77	0xbe22381a	-0.15841714
78	0xbdd45769	-0.10368235
79	0xbd47285e	-0.04862248
80	0xbd479bcd	-0.048732568
81	0xbd808bbf	-0.062766545
82	0x3cbed187	0.02329327
83	0xbd1e541b	-0.038654428
84	0xbdd76357	-0.105169944
85	0xbe29d3a5	-0.16584642
86	0xbbbd2b2e	-0.0057729697
87	0xbd6a92f1	-0.05726904
88	0xbdae8201	-0.0852089
89	0xbcde53f5	-0.027139643
90	0xbc6c147b	-0.01440918
91	0xbd75ceca	-0.060011663
92	0xbd887faf	-0.06664979
93	0x3d62b4d4	0.055348232
94	0xbdbd0456	-0.09229343
95	0x3cf949de	0.03043073
96	0xbd984c72	-0.07436456
97	0x3ca31711	0.01990846
98	0x3dcc54ad	0.09977088
99	0xbc37a464	-0.011208627
100	0xbda0a796	-0.078444645
101	0x3a3f003d	0.0007286107
102	0x3de6dac1	0.11272193
103	0x3e352b11	0.1769221
104	0x3dc3b226	0.095554635
105	0x3de113aa	0.10990079
106	0x3ddd3e72	0.10802926
107	0xbd469fcd	-0.04849224
108	0xbe3a88d4	-0.18216258
109	0xbdb3ce4e	-0.08779584
110	0xbd6320c5	-0.055451173
111	0xbd45f20f	-0.04832655
112	0x3de5d4ba	0.11222215
113	0xbda7d9a1	-0.08195806
114	0xbc182cae	-0.009287996
115	0xbc955f66	-0.018233966
116	0xbe0e0a8d	-0.13871212
117	0x3da215c9	0.079143114
118	0x3e25e7bd	0.16201682
119	0x3e2aee83	0.16692548
120	0x3d846a32	0.06465568
121	0xba8612a5	-0.0010228945
122	0x3e1a3e69	0.1506287
123	0x3d4507c4	0.04810311
124	0x3e0b9bd6	0.13633665
125	0xbc686ed6	-0.014186582
126	0xbd03a2f8	-0.03213784
127	0xbd30bab9	-0.043146823
128	0xbd835f9b	-0.0641472
129	0x3d0d112e	0.034440212
130	0xbd4d4e99	-0.050123785
131	0xbc60233f	-0.013680278
132	0x3d87a8d5	0.06623999
133	0x3e15e916	0.14639696
134	0x3957f93c	0.00020596845
135	0xbc70d841	-0.014699996
136	0x3dd906ac	0.10596976
137	0x3dff5ff3	0.12469473
138	0x3e35765e	0.17720935
139	0x3c4b1c83	0.012396934
140	0x3d58266f	0.052771028
141	0x3e42b03c	0.1901254
142	0x3ddc277b	0.10749718
143	0x3c91c78f	0.017795352
144	0x3e5c8037	0.21533285
145	0x3daf3c33	0.08556404
146	0x3d5adb4f	0.053431805
147	0x3dd83b7c	0.10558221
148	0x3e116e7f	0.14202307
149	0x3d8e95c2	0.06962158
150	0xbe1570a1	-0.14593746
151	0xbc919f39	-0.017776119
152	0xbcd720cd	-0.026260758
153	0xbdf1a085	-0.11798195
154	0xbd9896ab	-0.07450613
155	0xbe2eb375	-0.17060645
156	0xbe08ce6a	-0.1335999
157	0xbd9c567b	-0.07633682
158	0xbe0f4b9a	-0.13993683
159	0xbe499e7b	-0.19689362
160	0xbdca6f09	-0.098844595
161	0xbd9b5562	-0.07584645
162	0x3c8dacf6	0.017294388
163	0x3dcdcdb3	0.10049
164	0xbca3cd7d	-0.019995445
165	0x3ddd3934	0.10801926
166	0x3c5d9aa9	0.013525643
167	0xbcf6c32d	-0.030122364
168	0xbc05f6ab	-0.008176486
169	0x3b9d8e05	0.00480819
170	0xbd91875a	-0.071058944
171	0x3e3749ba	0.17899218
172	0x3dc3a51b	0.09552976
173	0x3d94ca56	0.07265155
174	0x3d3876fd	0.04503535
175	0x3da5b573	0.08091249
176	0x3da87cfa	0.082269624
177	0xbd94433a	-0.07239385
178	0xba14d29b	-0.00056771346
179	0x3d889cec	0.066705555
180	0xbdda5451	-0.10660613
181	0xbd1f50ea	-0.038895525
182	0xbce5577b	-0.027995816
183	0xbde42f70	-0.111418605
184	0xbd18cbac	-0.03730361
185	0x3cb816e2	0.022471849
186	0xbd102bc6	-0.035197996
187	0x3c6e5648	0.014546938
188	0xbd7d00ea	-0.06176845
189	0xbe0fdcce	-0.14049074
190	0xbd61b9e2	-0.055108912
191	0xbd8bb512	-0.06821646
192	0xbdfc95f8	-0.12333292
193	0x3c95b99d	0.018276984
194	0xbdc82fe2	-0.09774758
195	0xbdb24230	-0.087040305
196	0xbdfbaeb9	-0.12289185
197	0xbd8e9e0e	-0.0696374
198	0xbd811976	-0.063036844
199	0xbe0bc9e9	-0.13651241
200	0xbe09840c	-0.13429278
201	0xbc6ab3a0	-0.0143250525
202	0xbd8b0f17	-0.067899875
203	0xbcf8ae47	-0.03035654
204	0xbdfdf135	-0.12399522
205	0xbe0e1061	-0.13873436
206	0xbe0d2445	-0.13783367
207	0xbca09c9a	-0.019605923
208	0xbca9739c	-0.02068501
209	0x3dab4208	0.08362204
210	0xbe2da48d	-0.16957302
211	0xbce2e1fc	-0.027695648
212	0xbd295fbb	-0.04135106
213	0xbd16d3f3	-0.036823224
214	0xbd3050fd	-0.043045986
215	0xbdef780f	-0.11692821
216	0x3d8159bd	0.06315944
217	0x3dfd7952	0.12376656
218	0x3d68daa6	0.056849144
219	0x3d5d894e	0.054086022
220	0x3d6e10d5	0.05812152
221	0x3db5c6b8	0.08875793
222	0xbc929178	-0.01789163
223	0x3e00465a	0.12526837
224	0xbab6f6b9	-0.0013959027
225	0x3d65631a	0.056002714
226	0xbd30b01d	-0.043136705
227	0xbd48f2d4	-0.049059704
228	0xbcb0d4d7	-0.021585865
229	0x3d6436f1	0.05571646
230	0xbd26a60c	-0.0406857
231	0xbcdf24f9	-0.02723931
232	0xbcd5d86f	-0.02610418
233	0x3b88b5e6	0.0041720746
234	0x3c792cf2	0.01520847
235	0xbd558b89	-0.052135024
236	0x3bf53125	0.007482665
237	0xbdab9296	-0.083775684
238	0xbca2fe3b	-0.019896617
239	0x3cc2e0c7	0.023788823
240	0xbdc0aef4	-0.0940837
241	0xbd9c271b	-0.07624646
242	0xbddd21d0	-0.10797465
243	0xb98f9869	-0.0002738864
244	0xbd9ec3b5	-0.07752172
245	0xbdba6268	-0.09100801
246	0xbb9a4c5a	-0.004708809
247	0x3dfd5c7b	0.12371155
248	0x3c1624b5	0.009164025
249	0xbcafbac5	-0.021451363
250	0x3d72f17e	0.059312336
251	0xbd393e76	-0.045225583
252	0x3e0abeac	0.13549298
253	0x3e25bda8	0.1618563
254	0x3cdd332a	0.027001936
255	0x3d43614e	0.04770022

net.layer3.0.bias f4 [32]
0	0x3d590be9	0.052989874
1	0xbcbedb5a	-0.023297954
2	0xbc244a56	-0.010027489
3	0x3cd82045	0.026382575
4	0x3d4b6f90	0.04966694
5	0x3d4a49b9	0.049386714
6	0xbd42d59c	-0.047566995
7	0xbd7a2c7c	-0.06107758
8	0xbbc55a85	-0.0060227537
9	0xbbf121df	-0.007358774
10	0xbc69b9c9	-0.014265486
11	0xbc508ab4	-0.012728382
12	0xbd2a71bc	-0.04161237
13	0x3a283ec5	0.0006418045
14	0x3d3b9b5b	0.045802455
15	0xbb68456b	-0.0035441767
16	0xbcd3a470	-0.025835246
17	0x3b463a7e	0.0030247266
18	0x3d5c4069	0.053772364
19	0x3c861c41	0.016370894
20	0x3c3b4690	0.011430398
21	0xbb1a519f	-0.0023547185
22	0x3d0a6e96	0.03379687
23	0x3c925a59	0.017865347
24	0x3c2c50f6	0.0105173495
25	0xbd30d36b	-0.043170374
26	0x3d255be2	0.04037083
27	0x3c89e44b	0.016832491
28	0x3cc2fa9e	0.023801144
29	0x3d466161	0.04843271
30	0xbc4295ed	-0.011876565
31	0xbcdddcd1	-0.027082833

net.layer3.1.weight f4 [32]
0	0x3f985753	1.1901649
1	0x3f70ea89	0.9410787
2	0x3f6399d3	0.8890659
3	0x3f6bc154	0.9209187
4	0x3f80ae9a	1.0053284
5	0x3f5d000a	0.86328185
6	0x3f962363	1.1729549
7	0x3f64c456	0.89362085
8	0x3f54d3d9	0.83135754
9	0x3f82bd28	1.0213976
10	0x3f5e2161	0.8676968
11	0x3f52f905	0.82411224
12	0x3f363848	0.7117963
13	0x3f5ecd77	0.87032264
14	0x3f8a9543	1.0826801
15	0x3f3afb3e	0.73039615
16	0x3f7b4b2b	0.9816157
17	0x3f3c82ec	0.7363727
18	0x3f6e52f3	0.9309532
19	0x3f7281c6	0.9472927
20	0x3fafb060	1.37257
21	0x3fa7e2f1	1.3116132
22	0x3f371bf0	0.71527004
23	0x3f755263	0.9582884
24	0x3f86d9d2	1.0535223
25	0x3f82d0d2	1.0219977
26	0x3f70221d	0.9380205
27	0x3f3e968e	0.7444848
28	0x3f925a59	1.1433822
29	0x3f800fb1	1.0004789
30	0x3f8b55de	1.088558
31	0x3f912763	1.1340145

net.layer3.1.bias f4 [32]
0	0xbe476c89	-0.19474997
1	0xbea23bd7	-0.3168628
2	0xbec99b52	-0.39376312
3	0xbea66a3a	-0.3250292
4	0xbecd10a8	-0.4005177
5	0xbdf65690	-0.12028229
6	0xbe0567db	-0.13027899
7	0xbe9f5332	-0.3111816
8	0x3b295de5	0.002584332
9	0xbea1223e	-0.31471437
10	0xbdd5ce88	-0.10439783
11	0xbe1e4b26	-0.15458354
12	0x3c9ff12e	0.019524183
13	0xbe1b641b	-0.15174906
14	0xbd3e41ad	-0.046449352
15	0xbe72eaee	-0.23722431
16	0xbe4d0fb7	-0.20025526
17	0xbe3c8933	-0.18411712
18	0xbe7b58e2	-0.24545625
19	0xbf029ab0	-0.51017284
20	0xbeeba0c9	-0.46021107
21	0xbe486dc8	-0.19573128
22	0xbe2d656b	-0.16933219
23	0xbd06a60e	-0.032873206
24	0xbe102559	-0.14076747
25	0xbe9a7dc1	-0.30174068
26	0xbe288c86	-0.16459855
27	0xbe6a12dc	-0.22858757
28	0xbdd2f494	-0.10300556
29	0xbd6b232f	-0.0574066
30	0xbc52d080	-0.012867093
31	0xbe9e3fea	-0.30908138

net.layer3.1.running_mean f4 [32]
0	0x00000000	0.0
1	0x00000000	0.0
2	0x00000000	0.0
3	0x00000000	0.0
4	0x00000000	0.0
5	0x00000000	0.0
6	0x00000000	0.0
7	0x00000000	0.0
8	0x00000000	0.0
9	0x00000000	0.0
10	0x00000000	0.0
11	0x00000000	0.0
12	0x00000000	0.0
13	0x00000000	0.0
14	0x00000000	0.0
15	0x00000000	0.0
16	0x00000000	0.0
17	0x00000000	0.0
18	0x00000000	0.0
19	0x00000000	0.0
20	0x00000000	0.0
21	0x00000000	0.0
22	0x00000000	0.0
23	0x00000000	0.0
24	0x00000000	0.0
25	0x00000000	0.0
26	0x00000000	0.0
27	0x00000000	0.0
28	0x00000000	0.0
29	0x00000000	0.0
30	0x00000000	0.0
31	0x00000000	0.0

net.layer3.1.running_var f4 [32]
0	0x3f800000	1.0
1	0x3f800000	1.0
2	0x3f800000	1.0
3	0x3f800000	1.0
4	0x3f800000	1.0
5	0x3f800000	1.0
6	0x3f800000	1.0
7	0x3f800000	1.0
8	0x3f800000	1.0
9	0x3f800000	1.0
10	0x3f800000	1.0
11	0x3f800000	1.0
12	0x3f800000	1.0
13	0x3f800000	1.0
14	0x3f800000	1.0
15	0x3f800000	1.0
16	0x3f800000	1.0
17	0x3f800000	1.0
18	0x3f800000	1.0
19	0x3f800000	1.0
20	0x3f800000	1.0
21	0x3f800000	1.0
22	0x3f800000	1.0
23	0x3f800000	1.0
24	0x3f800000	1.0
25	0x3f800000	1.0
26	0x3f800000	1.0
27	0x3f800000	1.0
28	0x3f800000	1.0
29	0x3f800000	1.0
30	0x3f800000	1.0
31	0x3f800000	1.0

net.layer4.0.weight f4 [32, 32, 3, 3]
0	0xbda12827	-0.078689866
1	0xbe051c68	-0.12999117
2	0xbcf63bde	-0.030057844
3	0x3c450834	0.012025882
4	0xbbfc213a	-0.0076943906
5	0xbdbc137b	-0.09183403
6	0xbd6970b2	-0.05699224
7	0xbd3d7f48	-0.046263963
8	0xbd8d7cf8	-0.069086015
9	0x3e1417a5	0.14462145
10	0x3ce70c02	0.028203968
11	0x3d7ff7c2	0.06249214
12	0xbcbab1be	-0.022789832
13	0x3d20937a	0.039203145
14	0x3d551290	0.052019656
15	0x3d94527d	0.07242296
16	0xbcd9a450	-0.026567608
17	0x3e04ed29	0.12981094
18	0x3d32218f	0.043489035
19	0x3dd177d9	0.10227937
20	0x3d99b8db	0.075059615
21	0xbdeb8169	-0.114992924
22	0x3ce9ed4c	0.028555535
23	0x3cb9cd37	0.022680862
24	0xbde56913	-0.11201682
25	0xbe0103a3	-0.12599044
26	0x3c5b4d67	0.013385153
27	0xbc531bf9	-0.012885087
28	0x3bb5d7d4	0.0055494104
29	0xbd80eb3d	-0.06294868
30	0x3ae7c50e	0.0017682628
31	0x3c1f537f	0.009724497
32	0x3d9a9dd7	0.07549637
33	0xbde13afc	-0.109975785
34	0xbd5191df	-0.051164504
35	0xbd1aad7a	-0.037763096
36	0xbb94d665	-0.0045421594
37	0x3dbbfe4a	0.09179361
38	0x3d31ca97	0.043406095
39	0x3cdafb20	0.026731074
40	0x3dda03ee	0.10645281
41	0x3d040589	0.03223184
42	0x3d1b50ef	0.03791898
43	0x3dd7e41f	0.105415575
44	0x3d041c03	0.032253277
45	0xbd071a6b	-0.03298418
46	0x3d2106ff	0.039313313
47	0x3d9c04b7	0.07618087
48	0xbd910b64	-0.07082251
49	0x3cfdc7fe	0.030979153
50	0x3c78de67	0.015189744
51	0xbdbca4aa	-0.09211095
52	0x3c74a76f	0.014932497
53	0x3d0c7415	0.034290392
54	0xbe2e53fa	-0.17024222
55	0xbe2b9b95	-0.16758569
56	0xbd9e9f2d	-0.07745204
57	0xbb1d5ff2	-0.0024013487
58	0xba1458a7	-0.0005658962
59	0xbd864c5e	-0.06557535
60	0xbd22e0a0	-0.039765
61	0xbcd3298d	-0.025776649
62	0x3d8c14d1	0.06839908
63	0x3c943d78	0.018095717
64	0x3dd4da1f	0.10393166
65	0x3ccd1c89	0.02503802
66	0x3dcdd8d1	0.1005112
67	0xbd09ed01	-0.03367329
68	0x3d95ec41	0.073204525
69	0x3dd81272	0.10550393
70	0xbb472bb0	-0.003039103
71	0x3d511cfd	0.051053036
72	0x3dd4c338	0.103887975
73	0x3dbb37db	0.09141513
74	0x3e08c26f	0.1335542
75	0x3e36a353	0.17835741
76	0x3e4df951	0.20114638
77	0x3e4bd7b9	0.1990651
78	0x3dc56a96	0.0963947
79	0x3d203841	0.039116148
80	0x3d060a32	0.032724567
81	0x3ea3dc2f	0.32003924
82	0x3e877ebe	0.26463884
83	0x3e3fa7b4	0.18716317
84	0x3e3751e6	0.17902336
85	0x3e26574d	0.1624424
86	0x3e82cd68	0.25547338
87	0x3e6fc884	0.23416334
88	0x3e7daf0c	0.24773806
89	0x3e594697	0.21218334
90	0x3d033cb6	0.03204032
91	0x3d1560eb	0.03646938
92	0xbddf3c53	-0.10900178
93	0x3bc6f13f	0.0060712392
94	0xbd0819bd	-0.03322767
95	0x3bb78baa	0.005601366
96	0xbdc34ee1	-0.09536529
97	0xbd0455fc	-0.032308564
98	0xbd7b1d02	-0.06130696
99	0xbd0e0a15	-0.034677584
100	0x3ce8535b	0.02836006
101	0xbd265780	-0.04061079
102	0xbdc87303	-0.09787562
103	0xbdc880a6	-0.09790163
104	0xbdfd2a18	-0.12361544
105	0xbcd266d6	-0.025683802
106	0xbd611faf	-0.054961856
107	0xbe1cffa1	-0.1533189
108	0xbda69ac5	-0.08134989
109	0xbe0ca838	-0.13736045
110	0xbcd02e9e	-0.025412854
111	0xbde8dc8a	-0.113701895
112	0xbdb1ee75	-0.0868806
113	0xbdb72a99	-0.08943672
114	0xbdc40f98	-0.09573287
115	0x3d6de96d	0.05808394
116	0xbd559f4e	-0.052153878
117	0xbae3237e	-0.0017329303
118	0x3d440872	0.047859617
119	0x3d0b86db	0.034064155
120	0xbc6acaf4	-0.014330614
121	0x3cf3052f	0.029665558
122	0x3c2c5ac0	0.010519683
123	0x3c8ac70c	0.016940616
124	0x3d80cace	0.06288682
125	0xbdac9c4e	-0.0842825
126	0xbd5c7c5a	-0.05382953
127	0xbda180da	-0.078859046
128	0xbba6d04c	-0.005090749
129	0xbd010ab8	-0.031504363
130	0xbd3e9535	-0.046529014
131	0xbdeb123c	-0.11478087
132	0x3a9c861f	0.0011941827
133	0xbd8b9aba	-0.06816621
134	0x3cc71635	0.024302581
135	0x3d17325b	0.036913257
136	0x3dbf6306	0.09345059
137	0x3d26ec2f	0.040752586
138	0xbcb9fa8b	-0.022702476
139	0xbd309854	-0.04311402
140	0xbd43a0c1	-0.04776073
141	0xbd24eab4	-0.040262893
142	0x3d055bae	0.032558136
143	0xbc649055	-0.013950427
144	0x3d274ca6	0.040844582
145	0xbb6dbf10	-0.0036277212
146	0x3985ccdb	0.00025520366
147	0xbdc144b4	-0.09436932
148	0xbbca9e3f	-0.006183415
149	0xbcf1c03a	-0.029510606
150	0xbd0a96ab	-0.033835094
151	0xbe1d9a37	-0.1539086
152	0x3d0cc85d	0.03437077
153	0x3dfe825b	0.12427207
154	0x3db56e3a	0.08858915
155	0x3dbb63d4	0.091499
156	0x3dbed3d6	0.09317748
157	0x3ce2435f	0.027620016
158	0x3e0d9d37	0.13829504
159	0x3dc67cc3	0.09691765
160	0xbccc399c	-0.024929814
161	0x3d81edae	0.06344162
162	0x3dbc92d2	0.09207691
163	0x3c54386d	0.012952906
164	0xbced12e9	-0.028939681
165	0x3e0591a0	0.13043833
166	0x3dcae671	0.099072345
167	0x3df3a24a	0.118961886
168	0x3d284995	0.0410858
169	0x3dd083d7	0.101813965
170	0x3dc1ded1	0.09466327
171	0xbdd7d8b2	-0.10539378
172	0xbdce2f05	-0.10067562
173	0xbd37fda4	-0.044919625
174	0xbc46c6fd	-0.012132403
175	0xbbcf92e1	-0.006334648
176	0xbd7fd78e	-0.06246143
177	0xbd28ec18	-0.04124078
178	0xbc965083	-0.018348938
179	0xbd7f639b	-0.06235085
180	0xbd4c9df5	-0.049955327
181	0xbc727623	-0.014798674
182	0xbd177380	-0.036975384
183	0xbc6b3901	-0.0143568525
184	0xbb8af0d8	-0.0042401366
185	0xbd04c07c	-0.03241013
186	0xbd3ac988	-0.04560235
187	0x3c1d3711	0.009595648
188	0xbac0beeb	-0.0014705335
189	0xbdb7f3f4	-0.08982077
190	0xbde5c63c	-0.11219451
191	0xbe1bf4e2	-0.15230134
192	0xbc4a3aef	-0.012343152
193	0xbc7b03e6	-0.015320754
194	0xbe01074f	-0.12600444
195	0xbe00b706	-0.12569818
196	0xbd139ccd	-0.03603821
197	0xbd153008	-0.03642276
198	0x3c93122b	0.017953
199	0x3c2a634f	0.010399654
200	0x3e0df99b	0.13864748
201	0xbb0c0ca0	-0.002136983
202	0x3db307d9	0.08741731
203	0x3d930dd4	0.07180372
204	0x3d9d3206	0.07675557
205	0x3de3b2db	0.11118098
206	0x3dedbfe6	0.11608867
207	0x3d05334d	0.032519627
208	0x3d8ef542	0.06980373
209	0x3dfdc699	0.12391395
210	0x3cb37e2c	0.02191075
211	0x3d3826e6	0.04495897
212	0x3d21cd76	0.039502583
213	0x3cd3eb58	0.025869057
214	0xbd8e771a	-0.069563106
215	0x3d850b66	0.06496315
216	0x3e3a4889	0.18191732
217	0x3dad8b95	0.08473889
218	0x3dd8f1f6	0.105930254
219	0x3dcf8b6e	0.10134016
220	0x3dafde2a	0.08587296
221	0x3e11ac60	0.14225912
222	0x3da4a1a3	0.08038642
223	0x3da7b7ae	0.08189331
224	0xbc0c8d03	-0.008578542
225	0x3bf9acd3	0.007619479
226	0x3db8915a	0.090120986
227	0x3cf01c12	0.02931026
228	0x3d7706f5	0.06030937
229	0x3db58129	0.08862526
230	0xbcca47db	-0.024692466
231	0xbd1be32f	-0.038058456
232	0xbcfab022	-0.030601565
233	0xbce9d94a	-0.028545994
234	0x3d25a7db	0.040443283
235	0xbcdbe8f4	-0.02684448
236	0x3d309566	0.043111227
237	0x3d15f238	0.03660795
238	0x3d6a90b4	0.057266906
239	0xbc30c88b	-0.010790001
240	0x3e20d5a1	0.15706493
241	0x3d44c860	0.048042655
242	0xbcc067b4	-0.02348695
243	0x3d7fa553	0.062413525
244	0xbd319e0a	-0.04336361
245	0xbd96812b	-0.073488556
246	0x3c69c92e	0.014269156
247	0xbc9ab822	-0.01888663
248	0x3d2ac40c	0.04169087
249	0xbd34463f	-0.044012304
250	0xbd1a97d5	-0.037742455
251	0x3d87ec2a	0.066368416
252	0xbcd93c72	-0.02651808
253	0xbd4d4b97	-0.050120916
254	0xbd91be01	-0.071163185
255	0xbd90d2a1	-0.07071424

net.layer4.0.bias f4 [32]
0	0x3b0ad2a4	0.002118268
1	0xbce20e3b	-0.027594676
2	0xbcd1b655	-0.025599638
3	0x3c87c101	0.016571524
4	0x3c0d4171	0.0086215595
5	0x3cb6859e	0.02228051
6	0xbd52f50c	-0.051503226
7	0x3c9913f3	0.01868627
8	0x3c971ef9	0.018447386
9	0xbd044872	-0.03229565
10	0x3cf34000	0.029693604
11	0xbc0f8445	-0.008759563
12	0xbc90abee	-0.017660107
13	0x3b626874	0.0034547122
14	0x3d54caab	0.05195109
15	0xbcbfb00e	-0.02339938
16	0x3bbb5fbb	0.005718199
17	0x3d630a6d	0.055429865
18	0x3caf2a49	0.021382468
19	0x3ca86377	0.020555241
20	0x3d1e4da4	0.038648263
21	0xbd28a048	-0.04116848
22	0x3c05b674	0.008161176
23	0x3d349f2d	0.044097114
24	0x3cb10c96	0.021612447
25	0xbd2ff12b	-0.042954605
26	0x3d319e3f	0.043363806
27	0x3ced4f6c	0.028968535
28	0xbd12310c	-0.035691306
29	0x3ce6720a	0.02813055
30	0x3d42c0cb	0.047547143
31	0x3cea1884	0.028576143

net.layer4.1.weight f4 [32]
0	0x3fa18d6f	1.2621287
1	0x3fda1786	1.7038429
2	0x4008bcd0	2.1365242
3	0x3f86b2fb	1.052337
4	0x3ff0060c	1.8751845
5	0x3f82a43b	1.0206369
6	0x4001b5ee	2.026729
7	0x4014aa0e	2.3228793
8	0x3f92cf69	1.1469547
9	0x3fe2a250	1.7705784
10	0x3fe2ac3a	1.7708809
11	0x4012d0f1	2.2940028
12	0x3fac2950	1.3450108
13	0x3ff1aade	1.888027
14	0x3f8f97b4	1.1218171
15	0x3fb936a4	1.44698
16	0x3fb16978	1.3860312
17	0x3fadda99	1.3582336
18	0x3fc78585	1.5587622
19	0x3f7e9300	0.99443054
20	0x3fd6ffe5	1.6796843
21	0x3fa7b8d2	1.3103278
22	0x3fcc2456	1.5948589
23	0x3f5dc956	0.8663534
24	0x3fd78a0b	1.6839002
25	0x402222b7	2.5333688
26	0x3fe87339	1.8160163
27	0x402460a1	2.5683978
28	0x3fd7c39b	1.6856569
29	0x402e65d4	2.724965
30	0x3fc0e434	1.5069642
31	0x3ff25da5	1.8934828

net.layer4.1.bias f4 [32]
0	0x3db1a7f0	0.0867461
1	0x3e843024	0.25817978
2	0x3f038b93	0.5138485
3	0xbd1938b7	-0.037407603
4	0x3eb0388a	0.34418136
5	0xbd49fc2d	-0.04931276
6	0x3eee5101	0.46546176
7	0x3f0d2f44	0.55150247
8	0x3e1a30a2	0.15057614
9	0x3eace417	0.3376777
10	0x3df3d66d	0.11906133
11	0x3f287af8	0.65812635
12	0xbcfa5b47	-0.030561103
13	0x3e7fa092	0.24963596
14	0x3d44a4c4	0.048008695
15	0xbcc65d67	-0.02421446
16	0x3dc0a2d3	0.09406056
17	0xbd9885ad	-0.07447372
18	0x3da2dc69	0.07952196
19	0xbc48e397	-0.012261293
20	0x3e98812b	0.29786047
21	0x3dcf50de	0.10122846
22	0x3e78390e	0.24240515
23	0xbe055914	-0.13022262
24	0x3d9811af	0.07425248
25	0x3d933889	0.071885176
26	0x3e70c1ea	0.23511472
27	0x3f24c3d5	0.64361316
28	0xbd27317d	-0.04081868
29	0x3f33e706	0.7027439
30	0x3dcd5003	0.10025027
31	0x3e99653f	0.29960057

net.layer4.1.running_mean f4 [32]
0	0x00000000	0.0
1	0x00000000	0.0
2	0x00000000	0.0
3	0x00000000	0.0
4	0x00000000	0.0
5	0x00000000	0.0
6	0x00000000	0.0
7	0x00000000	0.0
8	0x00000000	0.0
9	0x00000000	0.0
10	0x00000000	0.0
11	0x00000000	0.0
12	0x00000000	0.0
13	0x00000000	0.0
14	0x00000000	0.0
15	0x00000000	0.0
16	0x00000000	0.0
17	0x00000000	0.0
18	0x00000000	0.0
19	0x00000000	0.0
20	0x00000000	0.0
21	0x00000000	0.0
22	0x00000000	0.0
23	0x00000000	0.0
24	0x00000000	0.0
25	0x00000000	0.0
26	0x00000000	0.0
27	0x00000000	0.0
28	0x00000000	0.0
29	0x00000000	0.0
30	0x00000000	0.0
31	0x00000000	0.0

net.layer4.1.running_var f4 [32]
0	0x3f800000	1.0
1	0x3f800000	1.0
2	0x3f800000	1.0
3	0x3f800000	1.0
4	0x3f800000	1.0
5	0x3f800000	1.0
6	0x3f800000	1.0
7	0x3f800000	1.0
8	0x3f800000	1.0
9	0x3f800000	1.0
10	0x3f800000	1.0
11	0x3f800000	1.0
12	0x3f800000	1.0
13	0x3f800000	1.0
14	0x3f800000	1.0
15	0x3f800000	1.0
16	0x3f800000	1.0
17	0x3f800000	1.0
18	0x3f800000	1.0
19	0x3f800000	1.0
20	0x3f800000	1.0
21	0x3f800000	1.0
22	0x3f800000	1.0
23	0x3f800000	1.0
24	0x3f800000	1.0
25	0x3f800000	1.0
26	0x3f800000	1.0
27	0x3f800000	1.0
28	0x3f800000	1.0
29	0x3f800000	1.0
30	0x3f800000	1.0
31	0x3f800000	1.0

net.classifier.weight f4 [5, 800]
0	0x3d0144be	0.0315597
1	0xbc1eb6b1	-0.009687112
2	0x3cf8b0df	0.030357776
3	0x3bcfcd4b	0.0063416115
4	0x3c4a6f57	0.012355647
5	0xbbdb349d	-0.0066896216
6	0x3d97d3da	0.07413454
7	0xbc3ad204	-0.011402611
8	0x3b6df8dd	0.0036311664
9	0xbc205404	-0.009785656
10	0xbc8fdfc8	-0.017562762
11	0xbc0b5405	-0.008503919
12	0x3d469945	0.048486013
13	0x3c20c1bf	0.009811818
14	0xbc0d6c12	-0.008631723
15	0xbc69ddb7	-0.014274052
16	0x391e8dd0	0.00015120883
17	0x3be2e712	0.0069245184
18	0x3c2e8e8c	0.010654103
19	0xbc52c741	-0.012864889
20	0xbcf5ee2b	-0.030020794
21	0xbd75e52b	-0.060033005
22	0xbc8abc86	-0.016935598
23	0x3d827db5	0.06371633
24	0x3c38e529	0.011285105
25	0x3b4a6c23	0.0030887208
26	0x3d30faf4	0.043208078
27	0xbc3d50d9	-0.01155492
28	0xbc69c89b	-0.0142690195
29	0x3d936762	0.07197453
30	0x3c4b4259	0.012405955
31	0xbd40f79c	-0.04711114
32	0x3c7e8415	0.0155344205
33	0xbcb3e985	-0.021961937
34	0x3b48e964	0.003065669
35	0xbcc70741	-0.024295451
36	0xb735c294	-1.0833744e-05
37	0xbc1ba8f2	-0.009500729
38	0xbc3ab24a	-0.0113950465
39	0xbc2bd64e	-0.010488106
40	0x3ca8825e	0.020569976
41	0xbc49078f	-0.0122698685
42	0x3cd19403	0.025583273
43	0xbd0610d7	-0.032730903
44	0xbbd5807a	-0.0065155597
45	0x3c18f299	0.009335184
46	0x3c416054	0.011802752
47	0xbd119d0d	-0.035550166
48	0xbcbe8e8d	-0.023261333
49	0x3c4f17bd	0.012639937
50	0x3c8c9b28	0.017163828
51	0x3d22d9d5	0.039758522
52	0xbc15af41	-0.009136022
53	0xbcdc4515	-0.02688841
54	0xbc9d6a2f	-0.019215671
55	0x3d45f89b	0.04833279
56	0x3c293f1d	0.010329989
57	0xbd37277a	-0.044715382
58	0xbc30c0a7	-0.010788119
59	0xbcc145fa	-0.023592938
60	0xbd223513	-0.039601397
61	0x3c02912c	0.007969182
62	0xbd4966dc	-0.04917036
63	0xbd13a5da	-0.03604684
64	0x3d31e97a	0.04343555
65	0xbbc3941f	-0.005968585
66	0xbcddbea1	-0.027068438
67	0x3d265511	0.04060847
68	0xbd5ae02f	-0.053436454
69	0xbac067e8	-0.0014679404
70	0xbcde2572	-0.027117465
71	0xbc2ddb1e	-0.010611324
72	0x3c9ebe89	0.019377964
73	0x3cc7132c	0.024301134
74	0xb9fca6e3	-0.00048189526
75	0xbd00d254	-0.031450585
76	0x3ba9e604	0.0051848907
77	0xbca9c78e	-0.020725038
78	0x3ce6c5a5	0.028170416
79	0xbce3905a	-0.027778793
80	0x3d5c116c	0.053727552
81	0xbd4e3b9b	-0.050349813
82	0xbbdc6f07	-0.0067271027
83	0xbda1ed16	-0.07906549
84	0xbd055844	-0.03255488
85	0xbd0b6ae6	-0.034037493
86	0xbd8b4bca	-0.06801565
87	0xbd7529e9	-0.05985442
88	0xbdaa47d5	-0.08314482
89	0xbd832cf5	-0.06405059
90	0xbc773985	-0.015089397
91	0xbc0fdcbf	-0.008780657
92	0xbda646af	-0.081189506
93	0xbd2ea857	-0.04264101
94	0xbd1baac5	-0.038004655
95	0xbbf42a60	-0.0074513406
96	0xbd2d2235	-0.04226895
97	0xbcf789a0	-0.030216992
98	0xbd1f1b54	-0.03884442
99	0xbd08524b	-0.033281606
100	0x3b74d73e	0.003735974
101	0xbc77c69d	-0.015123037
102	0xbca0fd3e	-0.019652005
103	0xbcd380b0	-0.025818199
104	0x3c556abb	0.013025935
105	0x3cd95aa3	0.026532477
106	0x3d82267a	0.06354995
107	0x3cae5ce0	0.02128452
108	0x3bee8b7e	0.0072798124
109	0x3d2a4968	0.041573912
110	0xbbe40389	-0.0069584292
111	0x3c3c80df	0.011505335
112	0xbd1a0c30	-0.03760928
113	0x3c2f33a5	0.010693465
114	0x3c7574f9	0.014981502
115	0xbcb02315	-0.021501103
116	0x3c5dcd9d	0.013537792
117	0x3bb2ca2a	0.0054562287
118	0xbc3737f3	-0.011182773
119	0x3c081631	0.008306072
120	0xbc13ed55	-0.009028752
121	0x3cb2ce30	0.021826833
122	0x3b0a7a2e	0.0021129954
123	0xbcf7357b	-0.030176869
124	0xbb6b5231	-0.0035907144
125	0xbd6cba5a	-0.057794906
126	0x3c0f818c	0.008758914
127	0xbbdfbe42	-0.0068281004
128	0xbbd375a5	-0.0064532333
129	0xbc8d3b09	-0.017240064
130	0x3d4f0dc9	0.050550256
131	0xbbef8026	-0.0073089777
132	0x3c113117	0.008861802
133	0xbc84e961	-0.016224565
134	0x3d89f952	0.06737007
135	0xbcd05bd3	-0.02543441
136	0xbd05df3b	-0.032683592
137	0x3ca67600	0.020319939
138	0xbc78bf5a	-0.0151823405
139	0xbce61d3b	-0.02809011
140	0x3c3482d7	0.011017523
141	0x3c1ae3cf	0.009453728
142	0x3c51db08	0.012808569
143	0x3b8cdec4	0.0042990167
144	0x3bbe694f	0.0058108936
145	0x3d1724a9	0.036900196
146	0xbd2303af	-0.039798435
147	0x3d137df6	0.036008798
148	0xbc58d524	-0.01323441
149	0xbc7e9e3c	-0.015540656
150	0x3c5652e4	0.013081286
151	0xbccab3a0	-0.024743855
152	0xbd1d9768	-0.03847447
153	0xbc564cf8	-0.013079874
154	0xbbc48a8b	-0.005997961
155	0x3b6137e5	0.003436559
156	0x3c9c9711	0.019115003
157	0x3c75ef33	0.015010643
158	0xbd004a5c	-0.031320915
159	0x3c23ae6a	0.009990314
160	0x3d0ec17b	0.034852486
161	0x3c52fd46	0.012877768
162	0xbbfb9f7c	-0.007678924
163	0xbd57d951	-0.052697483
164	0x3ab839f8	0.0014055362
165	0xbb5bf560	-0.0033563003
166	0xbbcedd1e	-0.0063129803
167	0xbaba5de3	-0.0014218654
168	0x3ceaeb25	0.028676579
169	0xbc8f842e	-0.017519083
170	0x3cfd5fb2	0.03092942
171	0x3aa4ec05	0.0012582546
172	0xbbfee351	-0.007778563
173	0xbd07ddfd	-0.03317069
174	0x3d479315	0.048724253
175	0xbca30d59	-0.019903826
176	0x3c2a081e	0.010377912
177	0x3c4720f1	0.01215385
178	0xbcc16146	-0.023605954
179	0x3c1c1a51	0.009527759
180	0x3cceda6d	0.025250638
181	0x3c9caa0e	0.019124057
182	0x3ccc0a37	0.024907215
183	0xbcc273ed	-0.023736918
184	0x3c5a6019	0.0133285755
185	0xbd244b23	-0.04011072
186	0xbb2bd316	-0.0026218346
187	0x3c2617fe	0.010137556
188	0xbcf50e9f	-0.029914198
189	0x3d1428f1	0.036171857
190	0x3c9f05a3	0.019411867
191	0xbc214e30	-0.0098453015
192	0x3bf2169f	0.0073879506
193	0x3b652170	0.0034962557
194	0xbcd66988	-0.026173368
195	0x3cd44e22	0.025916163
196	0x3cc469ed	0.02397629
197	0xbcdf74c7	-0.027277363
198	0xbd07481a	-0.033027746
199	0xbc46841b	-0.012116457
200	0x3cbea66d	0.023272717
201	0x3cf04903	0.02933169
202	0x3be6e319	0.007046115
203	0xbcd97bd4	-0.026548304
204	0x3d1cd0c8	0.038285047
205	0x3c990e3a	0.018683542
206	0x3c93bbfd	0.018033976
207	0xbd552d81	-0.05204535
208	0xbcc10180	-0.023560286
209	0xbc5eb460	-0.013592809
210	0x3d5a7040	0.053329706
211	0xbd5ccfa0	-0.053908944
212	0xbd5be938	-0.05368921
213	0x3bfd8457	0.0077367234
214	0xbc7f99ad	-0.015600604
215	0x3d182ca8	0.037151963
216	0x3b3452a1	0.002751507
217	0xbd256c76	-0.04038664
218	0xbd5c1973	-0.053735208
219	0xbd3bc0d0	-0.045838177
220	0xbd2cc796	-0.042182527
221	0x3ce90fd1	0.028449925
222	0xbce42f01	-0.027854444
223	0xbc3bb252	-0.011456089
224	0x3c669a40	0.014074862
225	0x3d56179e	0.052268617
226	0xbc972fa7	-0.01845534
227	0xbd0428b7	-0.03226539
228	0xbc92535b	-0.017862013
229	0xb8d785ca	-0.00010276919
230	0xbacb5eed	-0.0015515961
231	0xbd29a6d9	-0.041418884
232	0xbbb9ed56	-0.0056740446
233	0xbcb19087	-0.021675361
234	0xbd2054d0	-0.039143384
235	0x3b7aa11f	0.0038243008
236	0xbc92b6e4	-0.017909475
237	0x3c5900a2	0.01324478
238	0xbd389875	-0.04506727
239	0xbc84c8db	-0.016209057
240	0x3c9b0cfd	0.018927092
241	0xbc6a051e	-0.014283447
242	0xbd68c4a1	-0.056828145
243	0x3c80b61d	0.015711838
244	0xbb68bf92	-0.0035514575
245	0x3cc61900	0.024181843
246	0x3cef06bd	0.029178018
247	0x3c6f0f40	0.014591038
248	0x3d2442fd	0.040102948
249	0xbccaee50	-0.02477184
250	0x3cf2564d	0.029582167
251	0xbbf33360	-0.007421896
252	0x3cfa1834	0.03052912
253	0x3bb4b9a6	0.005515295
254	0x3cc15242	0.023598794
255	0xbd2e0074	-0.0424809

net.classifier.bias f4 [5]
0	0x3d12f4ce	0.035877995
1	0x3d6c61a4	0.057710305
2	0xbdbea952	-0.09309639
3	0x3c4ef692	0.012632029
4	0x3ce54340	0.027986169
