mp/maml_omni_5way_5shot_best_step5625_conv_second.pt (torch, 462698 bytes, 26 tensors)

net.layer1.0.weight f4 [64, 1, 3, 3]
000000 ec 22 5b 3e d8 01 94 3d 4e 78 bd be 0f 23 f2 3d
       0.2140004 0.07226914 -0.37005848 0.11823093
000010 b3 fb de 3e cb 35 87 3e 1c 30 87 be 43 55 28 bd
       0.43551406 0.26408228 -0.26403892 -0.041096937
000020 0f 93 ce 3d 6c d1 3b be 0a 2c 3e bd ef 7e 10 3e
       0.10086643 -0.18341607 -0.046428718 0.14110921
000030 8f d4 8c bd 89 ec ed 3e 86 df b9 3d d4 f2 49 3d
       -0.0687648 0.46469525 0.09075837 0.049303845
000040 31 e7 c3 3d 6a f2 b6 be e0 76 16 bd a7 80 fb bd
       0.09565581 -0.35731822 -0.03673446 -0.12280398
000050 1f 91 92 bd b3 9c 03 be 76 03 b0 be 91 3b e0 3d
       -0.07156586 -0.12852745 -0.3437764 0.109488614
000060 a9 17 97 3e 1c 64 bc 3e f9 9a 8d 3e d8 9e 7c 3e
       0.2951024 0.36795127 0.27657297 0.24669969
000070 d8 1b 99 3e 96 8a 96 3e 21 c5 ef 3d 12 49 8d be
       0.29904056 0.29402608 0.11707521 -0.2759481
000080 a4 53 aa be ad 51 b4 bc 00 92 47 bc f6 4b 1e 3d
       -0.33266938 -0.022011602 -0.012180805 0.03864666
000090 11 69 96 3e 48 99 51 3e 04 8b 21 3d 08 0e cb bd
       0.29377034 0.20468628 0.039439216 -0.099147856
0000a0 37 26 17 3e 7f f5 3d 3e ea 2b 52 be f4 db 45 be
       0.14760672 0.1855068 -0.20524564 -0.19322187
0000b0 8b 2f 13 bc 1d 12 f3 bd 87 a3 ca 3d c3 8a 6d 3e
       -0.008983503 -0.11868689 0.098944716 0.23197465
0000c0 81 fd a6 bd 58 f1 97 be 68 57 5c be 68 41 08 3e
       -0.08153821 -0.29676318 -0.21517718 0.133062
0000d0 ff 54 39 3e a7 b1 7a bd cb 60 f4 bc 92 83 5c be
       0.1809883 -0.06120458 -0.02983131 -0.21534565
0000e0 e2 44 6f 3e 1a 57 3a 3e ae ed a6 be 5e c0 69 3e
       0.2336612 0.18197289 -0.3260321 0.22827289
0000f0 a3 d0 13 3d 34 7a 8c be 5f ae 70 3e e7 6f 8a 3e
       0.036087643 -0.27436984 0.23504017 0.270385
000100 15 00 f7 3d 3e db c5 be 4c 47 28 3d d6 ad f1 3e
       0.120605625 -0.3864383 0.04108362 0.4720294
000110 51 69 06 3e 95 b3 2a be 04 7a ab bc c6 35 8b 3e
       0.13126113 -0.16670068 -0.020932205 0.27189463
000120 81 a4 74 3d 7e 1a 59 bc e5 08 a8 be a1 d2 87 3e
       0.059727196 -0.013250945 -0.32819286 0.26527885
000130 29 a5 79 3d 56 58 05 be 57 cb a8 3d 6b d6 37 3e
       0.060948525 -0.13021979 0.08241909 0.17952888
000140 ed 68 af 3e d1 b7 0f bc 12 0b e0 3d 08 2c fd bd
       0.3425974 -0.008771853 0.109396115 -0.12361914
000150 63 10 50 3e 64 3a 39 3e f6 f2 95 be 42 a5 85 be
       0.20318751 0.1808868 -0.29286927 -0.26102644
000160 c6 93 e4 3e 95 c6 3a be 96 12 36 3d ff 42 b5 3c
       0.44643992 -0.18239816 0.04445132 0.022126673
000170 07 4b 49 be af 23 cf 3d 02 01 cf 3e b0 27 59 be
       -0.19657527 0.10114228 0.40430456 -0.21206546
000180 3b 17 a1 be 68 49 72 3e 70 77 40 3d 8a b5 42 3e
       -0.31463036 0.23660815 0.046988904 0.19014564
000190 47 65 82 3d 8d 51 a0 3e a5 53 d1 3d 10 56 9a be
       0.06366973 0.31312218 0.10221032 -0.30143785
0001a0 94 6a 75 3d af 81 c6 3c 16 d2 64 be d9 60 3f 3e
       0.059916094 0.02423176 -0.22345766 0.18689288
0001b0 a1 07 b0 3d 69 f1 e9 bd 43 fa 1b be 12 fd 83 3d
       0.08595205 -0.114229985 -0.15232186 0.06444754
0001c0 a0 3e 3d bc 08 2c 70 be 4c d3 4d 3e 41 30 28 3e
       -0.0115505755 -0.23454297 0.20100135 0.16424657
0001d0 f8 5b b7 3e 2b ab 92 be 84 87 4f bc 2e 77 8f 3e
       0.35812354 -0.28646216 -0.012666587 0.28020614
0001e0 8a a9 25 be 8d 43 af bb e6 56 97 3e d1 5b e1 3e
       -0.16177955 -0.005348629 0.29558486 0.44015363
0001f0 80 ff 8f 3e 11 d9 c2 3c 1d 4e ba 3e 4b 1c 95 3d
       0.2812462 0.023785146 0.3638772 0.07280787
000200 3a b3 16 3e a8 f3 78 3e 39 e5 79 be 6b de aa bd
       0.14716807 0.24311697 -0.24403848 -0.08343204
000210 93 42 8d 3e ac 6f 48 be b8 ee 82 bd ac 1c d8 bd
       0.27589855 -0.1957385 -0.06393188 -0.10552344
000220 fb 7a bc 3e 7d 3c 94 bd a3 4b f5 3d e9 22 2c 3e
       0.36812577 -0.072381 0.11977317 0.16810192
000230 4e 99 85 be 6f 74 f7 bd 85 91 b9 3e 7f 95 52 be
       -0.26093525 -0.12082755 0.36243835 -0.2056484
000240 0f 30 93 3d d8 68 0d be 16 f4 05 be 59 b7 b3 bd
       0.07186901 -0.13809526 -0.13081393 -0.08775205
000250 55 4e fb bd ba ea eb 3d f9 b8 8e be 3b 70 58 bd
       -0.122708 0.1151938 -0.27875498 -0.052841406
000260 a7 ed 7d 3e 0b 74 3e be c9 a0 7e 3e 7a 0a 40 3c
       0.24797688 -0.18598954 0.24866022 0.011721248
000270 a4 92 80 be 9f e8 13 3e b9 38 39 3e 83 00 87 be
       -0.25111878 0.14444207 0.18088044 -0.26367578
000280 cf 4e 79 bc d9 6a 95 3e da 30 12 be 04 15 a7 be
       -0.015216543 0.2918308 -0.14276448 -0.3263322
000290 2d bd 88 bb 7d 20 5f 3e 11 c3 e5 3e dd 31 05 3f
       -0.004172942 0.21789737 0.44875386 0.5202921
0002a0 ea 50 ff 3d 3b 2c 50 3d 43 e3 d1 be ab 96 2f 3e
       0.12466605 0.05082343 -0.409937 0.17147319
0002b0 8c 7f 65 be 37 1c 43 bd 88 e1 6b be f5 8f 30 be
       -0.22411937 -0.04763433 -0.23035252 -0.17242415
0002c0 09 0a 89 3e d0 7d 36 3d 02 e3 68 3e de e9 9a 3d
       0.2676547 0.044553578 0.22742847 0.07564138
0002d0 65 86 8b be 7a d6 93 be 39 5c 3d 3d 13 75 62 3d
       -0.27250972 -0.2887457 0.04623053 0.055287432
0002e0 84 a5 3b 3e 64 aa b5 3e 16 fd 80 3e 07 7f 1e 3e
       0.18324858 0.3548156 0.2519309 0.15478145
0002f0 6b 7c 97 3c 84 e4 29 be ee ad 32 be 24 74 de bd
       0.018491944 -0.16591078 -0.17449161 -0.10861996
000300 90 cd 44 bd 03 f4 c1 bd 83 6a 67 3d e4 d4 91 3e
       -0.048047602 -0.0947037 0.056498062 0.28482735
000310 5f 40 ba 3e d0 a8 55 3d de be 94 bd 8b d4 5c 3e
       0.36377236 0.052162945 -0.072629675 0.21565454
000320 1e 62 de 3d 64 db cf bd 64 5a 8a be ec 90 96 3e
       0.10858558 -0.10149267 -0.27022088 0.29407442
000330 17 cb 53 3e 46 4c 68 be 46 c4 3c bc ad af 0c 3e
       0.20682941 -0.22685346 -0.011521405 0.1373889
000340 90 0c 3a be a0 c5 d3 3d 9f a8 6a be da bc 8e be
       -0.18168855 0.10340428 -0.22915886 -0.27878457
000350 40 6e 8a 3e b4 31 9f 3d 60 6e 84 3e 53 e7 11 3e
       0.2703724 0.07773152 0.2586546 0.142484
000360 1e 3a 28 be ae 3c 24 be a0 8b 0a be e9 eb 36 be
       -0.1642842 -0.16038772 -0.13529825 -0.1786343
000370 65 5b c0 bd db 6b 20 be 2a fd 33 be 9d f6 f9 bd
       -0.09392432 -0.15666144 -0.17577043 -0.12205241
000380 2a 72 32 be 55 41 ac bd 2f 71 96 3e a6 ab 3d be
       -0.17426363 -0.084108986 0.29383227 -0.1852251
000390 07 e6 81 be 92 d1 ea 3e da 95 22 be 15 55 99 be
       -0.2537081 0.45863014 -0.15877476 -0.29947725
0003a0 3f 26 a0 3e 10 5d 3b bd 41 e5 39 3e c6 64 7d 3e
       0.3127918 -0.04574305 0.1815386 0.24745473
0003b0 4a 22 71 3e 76 0e 8b be 4e 26 84 be 47 3d 90 be
       0.23548236 -0.2715947 -0.25810474 -0.2817175
0003c0 16 bb c7 3d d0 72 97 3e 63 bb cc 3d 98 46 f1 3d
       0.09752481 0.29579782 0.09996679 0.11781043
0003d0 a2 be 85 3e 2c 9c e9 3d 94 e8 c2 3d e5 e3 07 be
       0.26122004 0.114067405 0.09517017 -0.13270529
0003e0 02 e3 b6 be 6e 5b 1c 3e 5b 9b 4e 3e 4a 3f b1 3c
       -0.35720068 0.15269253 0.20176451 0.021636624
0003f0 96 73 63 be 18 b0 d9 3d 5d 66 6a be 34 a1 93 bd
       -0.22212061 0.1062929 -0.22890611 -0.072084814

net.layer1.0.bias f4 [64]
000000 5b 62 8a be f0 92 08 be ae 3e dd 3d b3 3b a3 3e
       -0.27028164 -0.13337302 0.10802971 0.31881484
000010 07 2a d1 bc c7 5e 06 3e 37 65 c1 bd d7 74 b1 3e
       -0.025532736 0.13122092 -0.09443133 0.34659454
000020 31 ad 48 3e 4a b2 0a 3e 55 ba 6f be a1 e3 19 be
       0.19597317 0.13544574 -0.23410924 -0.1502824
000030 18 67 a6 3b fd 9b a8 bd 5f 20 8a bd f1 88 8a 3d
       0.0050782077 -0.082328774 -0.067444555 0.06764401
000040 ab e5 51 be 92 39 a7 be f7 35 87 bd 92 f1 8d 3e
       -0.20497768 -0.3266111 -0.0660209 0.27723366
000050 ae bd 82 3d fe 03 63 3e 2b 80 56 3e 5c 38 a3 be
       0.06383835 0.22169492 0.2094733 -0.31878936
000060 1c f8 99 bd b6 64 37 3e 4c d4 01 3e cb 87 4d be
       -0.07518026 0.17909512 0.12678641 -0.20071332
000070 bb 26 b9 bd d2 38 e7 3d 04 e3 65 be e4 17 07 be
       -0.090405904 0.112901345 -0.22449881 -0.13192707
000080 e6 bf 9d be 65 90 46 be 8e 00 a4 3e cd be bf bd
       -0.3081047 -0.1939102 0.32031673 -0.09362564
000090 6a 8f 9f be 4f 67 87 be 5f bc f6 3d 6d 9a f2 3c
       -0.31164104 -0.26446006 0.12047648 0.029614652
0000a0 e6 29 5e 3e 9a 3a 6a 3e 8a 4c d7 3b 15 b8 4b 3e
       0.2169567 0.22873917 0.0065704035 0.1989444
0000b0 8b 2a 40 bd ee 3d ca 3d ab a5 21 3e 24 3d 5c 3e
       -0.046915572 0.098750934 0.15785854 0.21507698
0000c0 1a 6b 61 be cd 6a c6 3d 3e 5a 89 3e aa 62 6f 3d
       -0.22013512 0.096883394 0.26826662 0.058443703
0000d0 a5 21 b2 bd 62 21 a4 3e ae f8 91 3e c6 29 e3 bd
       -0.086978234 0.3205672 0.2851004 -0.11091952
0000e0 7e 4e 70 3d f1 56 6e 3e eb 65 a6 3e 42 b4 8a 3e
       0.058668606 0.23275353 0.32499632 0.2709065
0000f0 20 52 ac 3d b9 80 01 3d d6 ae a0 3d 3f 5d a9 3e
       0.084141016 0.0316169 0.07845847 0.33078954

net.layer1.1.weight f4 [64]
000000 e1 b5 af 3f ad 52 78 3f 01 55 83 3f 92 69 79 3f
       1.372738 0.97001153 1.0260316 0.9742671
000010 9f 1e 61 3f c9 9b 1e 3f b5 7b 57 3f 87 ef b7 3f
       0.8793735 0.6195646 0.84173137 1.4369973
000020 ef 70 96 3f c3 50 6e 3f a3 fa 67 3f b3 c4 81 3f
       1.1753215 0.9309198 0.90616816 1.0138153
000030 65 70 81 3f d3 40 b3 3f 2b c1 90 3f e5 ab 7d 3f
       1.0112425 1.4004158 1.130895 0.99090415
000040 9c c5 31 3f 08 36 69 3f 4d 6b ba 3f 95 36 37 3f
       0.6944215 0.9109807 1.4563996 0.7156766
000050 34 2f 87 3f 3c 48 46 3f 81 0f 4b 3f 2e b0 6f 3f
       1.056128 0.7745397 0.7932053 0.93628204
000060 ef af 6b 3f 4a 5a 83 3f 92 66 69 3f 91 68 83 3f
       0.9206533 1.0261929 0.91172135 1.0266286
000070 ab 35 4e 3f 49 73 2c 3f 6c 8a 7b 3f 05 26 39 3f
       0.8055064 0.6736341 0.9825809 0.7232364
000080 79 ff 77 3f 19 9a bb 3f 47 d4 c7 3f 42 9d 60 3f
       0.96874195 1.4656402 1.5611657 0.87739956
000090 58 6c b7 3f 72 05 95 3f b3 0f 31 3f ac f8 33 3f
       1.4329939 1.1642287 0.6916458 0.7030132
0000a0 40 f2 29 3f c2 26 88 3f 92 bc 67 3f ec 52 b7 3f
       0.6638527 1.0636828 0.9052211 1.4322181
0000b0 f8 d1 82 3f ea a2 6b 3f 31 45 bc 3f da 4f 41 3f
       1.0220327 0.9204546 1.4708616 0.7551247
0000c0 84 0b 7f 3f a8 68 8a 3f 44 71 7c 3f d0 7c 42 3f
       0.99626946 1.0813189 0.9861033 0.759717
0000d0 bb 08 b2 3f 0e 32 56 3f 21 70 c6 3f 73 4f 82 3f
       1.3908914 0.8367013 1.5502969 1.0180496
0000e0 8f b3 a3 3f 1f 2b 3e 3f 35 36 8c 3f 60 fe 7f 3f
       1.2789172 0.7428455 1.0954043 0.9999752
0000f0 d0 39 3e 3f a7 e5 82 3f a2 38 4c 3f ea 17 92 3f
       0.74306965 1.0226334 0.79773915 1.1413548

net.layer1.1.bias f4 [64]
000000 c9 aa 0d be f1 98 23 3b bc 11 9c be 12 f7 b0 be
       -0.1383468 0.0024962986 -0.3048228 -0.345635
000010 59 b1 41 be 16 57 1d bf 3a df 78 be 64 23 58 3e
       -0.18915309 -0.6146101 -0.24303904 0.2110725
000020 1d 80 c2 be 0e 74 96 bc 9c 67 e7 3c bb 62 85 be
       -0.37988368 -0.018365886 0.028247647 -0.26051888
000030 c1 f4 a8 be 17 fe 43 bc 47 f8 42 be f6 ef fc bd
       -0.32999232 -0.011962435 -0.19040023 -0.123504564
000040 04 de 4e bf 5c d8 a7 bd c4 21 c9 3c 28 63 57 be
       -0.8080752 -0.08195564 0.024552234 -0.21033919
000050 3d e4 8c be 54 a8 fd bd 8a e8 8a be bb 0d b5 be
       -0.27517882 -0.12385622 -0.27130538 -0.35362038
000060 1b fc 64 bf 25 5f 17 3d d0 0a ae be 80 00 f1 be
       -0.8944718 0.03695597 -0.33992624 -0.47070694
000070 8e 81 da be 02 c5 1d bf db 3c 95 be 78 10 29 bf
       -0.42676967 -0.61628735 -0.29147992 -0.66040754
000080 0d 75 a7 3b 89 5b 6d 3d 05 63 c3 3d ee a8 b5 be
       0.005110389 0.057948623 0.09540371 -0.35480446
000090 95 bc 11 be 7a 7f 79 be 28 aa 61 be d7 73 6b bf
       -0.14232095 -0.24365035 -0.22037566 -0.9197363
0000a0 54 41 b0 be 70 a8 8b be a4 99 74 bc dc ff d3 3e
       -0.3442484 -0.27276945 -0.014929209 0.41406143
0000b0 b1 e9 40 be 9b 21 f2 ba 3e 3e 9f 3e b0 22 34 bf
       -0.18839146 -0.001847315 0.31102175 -0.7036543
0000c0 01 97 46 bf d7 51 98 bd 16 f0 a4 be 19 40 1e be
       -0.77574164 -0.07437485 -0.3221442 -0.15454139
0000d0 41 39 11 3e 9d cb 4a bf 8a fd 06 3e bc 9c 94 bd
       0.14181997 -0.7921694 0.13182655 -0.07256457
0000e0 7f 08 f0 be d2 4d fa be 7e 59 8a 3e 12 d2 8f be
       -0.46881482 -0.48887497 0.27021402 -0.28089958
0000f0 6d 53 46 bf 21 4a 75 be 72 55 d7 bd 2a 67 7b bc
       -0.7747105 -0.23954059 -0.10514344 -0.01534442

net.layer1.1.running_mean f4 [64]
000000 00 00 00 00 00 00 00 00 00 00 00 00 00 00 00 00
       0.0 0.0 0.0 0.0
000010 00 00 00 00 00 00 00 00 00 00 00 00 00 00 00 00
       0.0 0.0 0.0 0.0
000020 00 00 00 00 00 00 00 00 00 00 00 00 00 00 00 00
       0.0 0.0 0.0 0.0
000030 00 00 00 00 00 00 00 00 00 00 00 00 00 00 00 00
       0.0 0.0 0.0 0.0
000040 00 00 00 00 00 00 00 00 00 00 00 00 00 00 00 00
       0.0 0.0 0.0 0.0
000050 00 00 00 00 00 00 00 00 00 00 00 00 00 00 00 00
       0.0 0.0 0.0 0.0
000060 00 00 00 00 00 00 00 00 00 00 00 00 00 00 00 00
       0.0 0.0 0.0 0.0
000070 00 00 00 00 00 00 00 00 00 00 00 00 00 00 00 00
       0.0 0.0 0.0 0.0
000080 00 00 00 00 00 00 00 00 00 00 00 00 00 00 00 00
       0.0 0.0 0.0 0.0
000090 00 00 00 00 00 00 00 00 00 00 00 00 00 00 00 00
       0.0 0.0 0.0 0.0
0000a0 00 00 00 00 00 00 00 00 00 00 00 00 00 00 00 00
       0.0 0.0 0.0 0.0
0000b0 00 00 00 00 00 00 00 00 00 00 00 00 00 00 00 00
       0.0 0.0 0.0 0.0
0000c0 00 00 00 00 00 00 00 00 00 00 00 00 00 00 00 00
       0.0 0.0 0.0 0.0
0000d0 00 00 00 00 00 00 00 00 00 00 00 00 00 00 00 00
       0.0 0.0 0.0 0.0
0000e0 00 00 00 00 00 00 00 00 00 00 00 00 00 00 00 00
       0.0 0.0 0.0 0.0
0000f0 00 00 00 00 00 00 00 00 00 00 00 00 00 00 00 00
       0.0 0.0 0.0 0.0

net.layer1.1.running_var f4 [64]
000000 00 00 80 3f 00 00 80 3f 00 00 80 3f 00 00 80 3f
       1.0 1.0 1.0 1.0
000010 00 00 80 3f 00 00 80 3f 00 00 80 3f 00 00 80 3f
       1.0 1.0 1.0 1.0
000020 00 00 80 3f 00 00 80 3f 00 00 80 3f 00 00 80 3f
       1.0 1.0 1.0 1.0
000030 00 00 80 3f 00 00 80 3f 00 00 80 3f 00 00 80 3f
       1.0 1.0 1.0 1.0
000040 00 00 80 3f 00 00 80 3f 00 00 80 3f 00 00 80 3f
       1.0 1.0 1.0 1.0
000050 00 00 80 3f 00 00 80 3f 00 00 80 3f 00 00 80 3f
       1.0 1.0 1.0 1.0
000060 00 00 80 3f 00 00 80 3f 00 00 80 3f 00 00 80 3f
       1.0 1.0 1.0 1.0
000070 00 00 80 3f 00 00 80 3f 00 00 80 3f 00 00 80 3f
       1.0 1.0 1.0 1.0
000080 00 00 80 3f 00 00 80 3f 00 00 80 3f 00 00 80 3f
       1.0 1.0 1.0 1.0
000090 00 00 80 3f 00 00 80 3f 00 00 80 3f 00 00 80 3f
       1.0 1.0 1.0 1.0
0000a0 00 00 80 3f 00 00 80 3f 00 00 80 3f 00 00 80 3f
       1.0 1.0 1.0 1.0
0000b0 00 00 80 3f 00 00 80 3f 00 00 80 3f 00 00 80 3f
       1.0 1.0 1.0 1.0
0000c0 00 00 80 3f 00 00 80 3f 00 00 80 3f 00 00 80 3f
       1.0 1.0 1.0 1.0
0000d0 00 00 80 3f 00 00 80 3f 00 00 80 3f 00 00 80 3f
       1.0 1.0 1.0 1.0
0000e0 00 00 80 3f 00 00 80 3f 00 00 80 3f 00 00 80 3f
       1.0 1.0 1.0 1.0
0000f0 00 00 80 3f 00 00 80 3f 00 00 80 3f 00 00 80 3f
       1.0 1.0 1.0 1.0

net.layer2.0.weight f4 [64, 64, 3, 3]
000000 c3 fc 51 3d 84 58 b1 3b f7 bf 55 3c 83 b1 d1 3c
       0.051266443 0.005412163 0.013046256 0.02559734
000010 44 09 36 3d 76 35 21 be 70 fc 04 3b 57 7f 82 bc
       0.04444243 -0.1574305 0.0020292066 -0.015929861
000020 d8 42 49 bb 99 a7 22 3d 14 f4 d2 bc d5 29 21 3d
       -0.0030710008 0.039710615 -0.025751151 0.039346535
000030 ee e2 0d bc db 73 73 bd 20 21 95 bd 2e 32 9d bd
       -0.008660061 -0.05943666 -0.07281709 -0.07675587
000040 d4 ba cf bd 36 e4 3d bc b4 38 db 3d 83 f6 0b 3d
       -0.101430565 -0.011590054 0.10704175 0.03417064
000050 ad 7c 05 bd 43 a9 24 bd 0c cb dc 3c 97 3e c3 3d
       -0.032589603 -0.040200483 0.026952289 0.095334224
000060 4b 21 fc 3d 37 34 3b 3d 13 2c bf 3d a8 bb d2 3d
       0.12311038 0.045704093 0.09334578 0.10289699
000070 bf 36 9d 3a 5a d0 6a bd 44 e8 9a bc 63 8e 85 3d
       0.0011994465 -0.057327606 -0.018909581 0.06521299
000080 aa 1b 8f 3d 80 19 23 3c bc 74 20 3d e3 49 08 3d
       0.069876984 0.00995481 0.039173827 0.03327359
000090 c9 34 fa 3d da a6 00 3d 48 57 45 bd 3d 4d 2b bc
       0.12217099 0.031409122 -0.04817894 -0.010455427
0000a0 fd 8e 88 bc 16 8f b0 3b d3 8b 05 3e af f1 1d bd
       -0.016669745 0.005388151 0.1304162 -0.038560566
0000b0 fd c6 75 3d d9 9f 89 3c a2 9e 89 3d ed 58 01 3d
       0.060004223 0.016799854 0.0671971 0.031578947
0000c0 f7 26 61 3d 9b 7d 05 3e ce e2 8c bc 83 87 b8 3d
       0.0549688 0.13036196 -0.017197993 0.09010222
0000d0 06 00 07 3e 48 76 95 bd f8 1a ad bd 14 38 23 bd
       0.13183603 -0.07297951 -0.084524095 -0.039848402
0000e0 a4 d2 7b 3d 04 ce 0f bd bd 86 80 bd af b0 80 bc
       0.06148018 -0.03510858 -0.06275699 -0.01570925
0000f0 db 63 bb bd 36 dc 1a be 02 74 4e bd bf 0a 91 bc
       -0.09149905 -0.15123066 -0.050403602 -0.01770532
000100 93 c5 ae bb dd d2 cc 3b ca 41 90 bd 1f 9d 91 bd
       -0.0053336113 0.006250723 -0.07043798 -0.071100466
000110 71 e3 3f be b1 2a 06 3d 36 9b 8b bd e7 bd 04 be
       -0.18739106 0.032755557 -0.068167135 -0.12963067
000120 39 0d d0 3d 5d 72 0b bd dd 9e 04 3c 06 30 36 3d
       0.10158772 -0.034044612 0.008094517 0.044479392
000130 eb e2 a3 bd d3 60 88 bd c2 d2 10 bd 08 db 83 3d
       -0.080022655 -0.06659093 -0.035357244 0.06438261
000140 66 f5 db bb d9 62 9a bc ac 72 5e bd 38 a1 ef bc
       -0.0067126034 -0.018845962 -0.05430858 -0.02925168
000150 d9 c0 46 bd 23 3a d6 bd ad f3 07 be d6 a6 d6 bd
       -0.048523758 -0.104603074 -0.13276549 -0.1048104
000160 0e 3f b1 bd 40 18 2e be e2 22 41 3d 5f bd 01 bc
       -0.08654605 -0.17001438 0.047152407 -0.007918685
000170 e8 0d 0f 3d df 73 1b 3d fe c5 c4 b9 0b d1 1d be
       0.03492537 0.0379523 -0.0003753155 -0.15411775
000180 6f 33 01 3d 46 45 6d bd ed d0 b1 bd 60 02 94 ba
       0.03154319 -0.057927392 -0.086824276 -0.0011292212
000190 35 8e 56 bd 8a 63 be bc 61 26 4c 3c 17 a0 a3 3b
       -0.052381713 -0.023240823 0.012460322 0.0049934494
0001a0 da 1a 4d 3d 60 73 26 ba 69 08 0b 3c 5b b3 c1 3c
       0.050074436 -0.00063495897 0.008485892 0.023645094
0001b0 5f 55 b7 3a ff c6 73 bd 43 08 5d 3d ef 44 74 3b
       0.0013987235 -0.05951595 0.053962957 0.0037272533
0001c0 9e 1b 9e 3d a7 3f 9d bd 32 79 1e 3d 67 9a 84 3d
       0.07720111 -0.07678156 0.0386898 0.064747624
0001d0 d5 55 db bc 71 41 0d 3d c2 59 e5 3c d3 fb f7 3d
       -0.026774326 0.034486238 0.027996901 0.121085785
0001e0 cf 5e 89 bd 10 14 40 bd 32 7d 4d 3e 80 62 c9 bd
       -0.067075364 -0.046894133 0.2006729 -0.098332405
0001f0 6e 7f 89 bd 1d d1 b4 bc c3 0a 05 be b0 6f 35 bd
       -0.067137584 -0.02207237 -0.12992387 -0.044295967
000200 ff 1b 41 3d fe d1 54 bd 50 1c 15 bd 4a 08 83 3c
       0.04714584 -0.051958077 -0.036403954 0.015995163
000210 78 03 9f bd cd 44 11 3c 37 d8 cb bb 10 4f 1c bd
       -0.077643335 0.008866501 -0.006220843 -0.038161337
000220 1b d4 12 3c 30 3f 85 3d f0 86 9d bd 1d 1d df bd
       0.008961703 0.06506193 -0.07691753 -0.10894225
000230 91 8d 7c bc ab 5f 5e be 61 5b d7 bd 17 77 61 be
       -0.015414611 -0.21716182 -0.10515476 -0.22018085
000240 0e a4 ae bd 65 b3 22 3c c0 b2 e2 bb b0 9a 34 bd
       -0.08527385 0.009930466 -0.0069182813 -0.044092834
000250 90 78 12 3d 02 c3 02 bd 34 d4 43 3c 1a 7f c1 bd
       0.03575951 -0.031924255 0.011952449 -0.09448071
000260 67 7b 0b be 03 18 a7 3c 45 0a 39 bd 98 95 5f bd
       -0.13621293 0.020397192 -0.04517581 -0.054586023
000270 a2 32 da 3d 6a 73 85 bd 31 35 40 bd f2 4d 22 3d
       0.10654189 -0.06516154 -0.046925727 0.039625116
000280 f7 a1 2e be f3 ad b6 bd be e6 d6 bc 9c b7 f1 bc
       -0.17053972 -0.08919897 -0.026233073 -0.029506497
000290 85 37 0b be 7a 58 ff 3c 0c f7 ae 3d 49 fc 55 3d
       -0.13595398 0.031170119 0.08543214 0.05224255
0002a0 80 45 06 3e a6 b7 99 3d 67 59 d1 3d 7d 64 67 bd
       0.1311245 0.07505731 0.1022213 -0.056492317
0002b0 84 df 19 3d 17 7b 9b 3d 69 bc 9c bd c6 92 52 bd
       0.037566677 0.07591837 -0.07653124 -0.051409505
0002c0 17 a2 86 3d 6c 71 fd bc 0a 86 13 bc f0 81 bb bc
       0.06573885 -0.030937873 -0.009004125 -0.022889107
0002d0 50 27 37 3d dc 91 f7 3c c3 94 66 bc ce fb eb bb
       0.044715226 0.030220918 -0.0140735535 -0.0072016483
0002e0 38 06 b7 3d a0 c5 ab 3d db 5a 20 bd c4 09 b0 3d
       0.08936733 0.08387303 -0.039149147 0.08595613
0002f0 b4 f4 6c 3d 37 96 bd 3d f2 99 96 bc 19 6d c2 bc
       0.057850555 0.09257167 -0.018383954 -0.023733662
000300 56 bd 42 3d ed fe c4 3d 4c a7 d8 3d 18 46 53 3d
       0.047543846 0.09618936 0.10578784 0.05158052
000310 39 95 d6 3d e4 88 69 3d fd 84 31 3d 31 49 b6 bb
       0.10477681 0.057015315 0.043339718 -0.0055629243
000320 b2 26 57 bd 3d 4f 85 3d e0 ef 9b bc fb bc 1b be
       -0.052527137 0.06509254 -0.01903528 -0.15208809
000330 cd 61 9a 3d 92 91 56 3b 50 21 50 bd 59 56 88 bd
       0.07538185 0.0032740575 -0.05081302 -0.066570945
000340 44 8f 39 bc ad d4 af bb f3 c8 11 be 73 92 3d bd
       -0.011325661 -0.005365929 -0.14236812 -0.046282243
000350 3f 0a 7d 3d f1 c0 ff bd af 6b dd bd 43 85 81 3c
       0.06177735 -0.124879725 -0.10811555 0.015810614
000360 67 e1 91 bc 19 91 1a bd 54 cb 92 bd 1e fe 92 3d
       -0.017807676 -0.037736032 -0.07167688 0.07177375
000370 aa ff 68 bd c1 b1 05 bd 1d c9 9c bd ce 24 32 bd
       -0.056884445 -0.032640222 -0.07655547 -0.04349213
000380 50 c7 6e bd bb 79 58 3d a3 55 46 bd 97 72 a2 3c
       -0.058295548 0.052850466 -0.048421513 0.019830031
000390 94 51 aa 3c a9 f6 b0 bd c7 52 0c be a0 a8 8b 3d
       0.020790853 -0.08640797 -0.13703452 0.06819272
0003a0 a0 d2 b0 bd 7c ea 10 be a2 b0 e6 3d a5 84 1d 3d
       -0.086339235 -0.14151949 0.11264159 0.038456578
0003b0 d9 a3 49 bd e8 8c 2b 3e f3 db 85 3d 9e 76 a4 3d
       -0.049228523 0.1675297 0.065360926 0.08030437
0003c0 0a 98 e9 3d 30 76 ab 3d ec 58 12 3d 81 e5 4d bd
       0.11405952 0.08372152 0.035729334 -0.0502677
0003d0 59 01 11 bd 1c 43 9b 3d e3 89 00 3d b1 1e 98 bc
       -0.035401676 0.075811595 0.0313815 -0.018569322
0003e0 2e d0 d8 3d 4f 0a 97 bd a0 aa 0a bd 89 51 35 bd
       0.10586582 -0.07375013 -0.033854127 -0.04426721
0003f0 c6 df 06 3e 5a 75 ca 3d d3 d8 b0 3d 68 13 17 3e
       0.131713 0.09885664 0.08635106 0.14753497

net.layer2.0.bias f4 [64]
000000 d2 a3 ac 3b 97 1a 11 bd 9d ca 0c bd ef 45 05 bd
       0.0052685523 -0.03542575 -0.034372915 -0.032537397
000010 df e2 0c 3b 56 3f ac 3b 6d 7f db 3c b1 b3 6c bc
       0.002149753 0.0052565737 0.02679416 -0.014447139
000020 ec 11 e5 bc 8d 59 d9 bc 31 2a 10 3d ff 71 14 bb
       -0.027962647 -0.026531959 0.035196487 -0.0022650955
000030 24 1e 04 3d f0 6b 84 bc 40 42 94 bc ed e2 ce bc
       0.032255307 -0.01616475 -0.018097997 -0.025254691
000040 d6 5a 1f bd 96 1a b6 3c 2c ac 4d bc 20 6b f1 bc
       -0.038904987 0.022229474 -0.012553256 -0.029470026
000050 12 40 23 3d 64 84 9e ba 01 b7 9a 3b a1 d7 00 3c
       0.039856024 -0.0012093899 0.004721523 0.00786391
000060 00 3e 1d 3d 4c 42 66 ba 2e cb 8b bb 32 54 a8 bc
       0.038389206 -0.0008783683 -0.0042661643 -0.02054796
000070 f7 6e c8 ba 2f 15 b8 3c 93 cd 3e bc f6 45 ef bc
       -0.0015291859 0.022471039 -0.011645692 -0.029208165
000080 9f cb 7b 3b a7 21 d2 bb d5 90 1b bb 57 fb 4a 3b
       0.0038420928 -0.006412703 -0.002373745 0.0030972564
000090 bc 87 17 bd 1f 1a 6b 3c 87 22 0b 3d 7f 94 e9 3a
       -0.03699468 0.0143494895 0.033968475 0.0017820745
0000a0 ad b4 00 3d 17 b6 8d 3c f4 c4 28 bd 3e 36 ae 3c
       0.031422306 0.017298741 -0.041203454 0.021266099
0000b0 05 2f 0b bd 9f 57 90 3c 4f 98 d1 3c b6 c4 7b 3c
       -0.03398039 0.017619906 0.025585322 0.015366724
0000c0 c0 c7 29 3d d2 81 05 bd fb 1e 86 3c d7 aa 70 3c
       0.041450262 -0.03259451 0.016372195 0.014689169
0000d0 95 2e e5 3c 77 20 b4 3c c6 10 08 3d 8f 1c d5 3c
       0.027976314 0.021988137 0.03321912 0.026014594
0000e0 20 ab 24 bd 2f 05 0c bd 2f ad bc 3c 94 69 55 3b
       -0.04020226 -0.03418463 0.0230318 0.003256415
0000f0 b2 89 cb 3c 65 26 e1 3c d5 8c c2 3c 11 19 11 bd
       0.024845932 0.027484128 0.023748795 -0.035424296

net.layer2.1.weight f4 [64]
000000 82 68 62 3f f0 5d a8 3f 56 5f 65 3f d0 98 91 3f
       0.88440716 1.3153667 0.89598596 1.137476
000010 3c 8d 93 3f 34 4a 65 3f 3d bf 84 3f 4e 44 9b 3f
       1.1527476 0.8956635 1.0370861 1.213022
000020 3c dd 9b 3f ce 17 54 3f 97 0f 90 3f 73 99 8c 3f
       1.217689 0.82848823 1.1254758 1.0984329
000030 2d ba 63 3f d2 2d 75 3f a3 f0 4f 3f 02 ed 5c 3f
       0.88955957 0.9577304 0.8122656 0.86299145
000040 c4 a3 8e 3f ee a4 6f 3f 7c b0 82 3f 1a 2c 89 3f
       1.1143727 0.9361104 1.0210109 1.0716584
000050 e6 7e 99 3f 47 a9 44 3f 04 fa 3a 3f 56 15 53 3f
       1.1991851 0.76820797 0.73037744 0.8245443
000060 49 72 8e 3f 2d 7e 71 3f 71 cf 79 3f 59 4a 63 3f
       1.1128627 0.94333154 0.97582155 0.8878532
000070 27 8e 54 3f 84 33 5e 3f 97 67 66 3f 8d 44 8c 3f
       0.8302941 0.86797357 0.90001816 1.095842
000080 dc 7e 86 3f 40 20 7d 3f 06 ac 87 3f 95 ee 4b 3f
       1.0507464 0.98877335 1.0599372 0.7966092
000090 1d 41 8f 3f 61 ce 5b 3f 2a d0 65 3f 9b 43 8d 3f
       1.1191746 0.85861784 0.8977076 1.1036257
0000a0 a6 07 8e 3f 7a 22 56 3f 60 69 52 3f 7e 0f 7e 3f
       1.1096084 0.8364636 0.8219204 0.9924239
0000b0 7b 52 98 3f 36 1d 58 3f d0 4e 7a 3f 03 e4 78 3f
       1.1900171 0.8441957 0.9777651 0.9722292
0000c0 86 03 83 3f 23 95 9b 3f b7 11 2d 3f dc 15 83 3f
       1.023545 1.2154888 0.67605156 1.0241046
0000d0 10 e0 92 3f 8f 9b 91 3f 82 e5 3f 3f ae 5a 83 3f
       1.1474628 1.1375598 0.74959576 1.0262048
0000e0 48 e6 87 3f 95 4f 6c 3f e8 ab 75 3f 19 01 6a 3f
       1.0617151 0.9230893 0.95965433 0.91407925
0000f0 7d d5 78 3f eb 67 8b 3f 67 fe 91 3f 0c 38 98 3f
       0.9720076 1.0891088 1.1405762 1.1892104

net.layer2.1.bias f4 [64]
000000 86 d9 a8 be 47 1d 36 be 88 52 98 be 88 3a 84 be
       -0.32978457 -0.17784606 -0.29750466 -0.25825906
000010 3c 91 99 be 79 ad c3 be 2f 8e 9d be ff 38 a9 be
       -0.29993618 -0.38218287 -0.3077254 -0.33051297
000020 58 78 2e be 1f 51 ec be d6 3f cd bd 00 56 4c be
       -0.17038095 -0.4615564 -0.10021941 -0.19954681
000030 d7 69 35 bf 1b 47 83 be 89 61 d0 be 6b 01 55 bf
       -0.70864624 -0.25640187 -0.40699413 -0.8320529
000040 e3 01 82 3d ee a8 7a bd 7d 59 66 be 23 f1 cc be
       0.06348016 -0.06119626 -0.22495075 -0.40027723
000050 3c 78 87 bd 75 7f 3f bf ab db 01 bf ff d4 40 bf
       -0.0661473 -0.7480386 -0.5072581 -0.75325006
000060 75 25 f3 bd 6b ea 81 be 89 a5 83 be 00 3f 94 be
       -0.11872379 -0.2537416 -0.2571223 -0.28954315
000070 66 58 a1 be 82 f3 a3 be 53 6f 11 bf 82 6f 92 be
       -0.31512755 -0.3202172 -0.5681049 -0.286007
000080 9f 08 b3 be aa 0d 88 be fe a0 8c be 75 6b 64 bf
       -0.34967515 -0.26572925 -0.27466577 -0.89226466
000090 22 16 c2 be bf e6 b1 bd 55 71 fc be c7 7d da bb
       -0.3790751 -0.086865894 -0.49305215 -0.006667826
0000a0 77 e9 9a be a4 2e 43 bf 84 d0 19 bf 2f fd d4 bd
       -0.30256245 -0.7624304 -0.60083795 -0.103998534
0000b0 cd 35 7f be fc 20 bf be 70 fe a5 be 3e 1b 3c be
       -0.24922867 -0.37329853 -0.32420683 -0.18369767
0000c0 8f e2 f5 bc 10 ed 41 bd 8b 0a 60 bf e1 bb db bd
       -0.030015258 -0.04734522 -0.8751609 -0.107291944
0000d0 16 0d 88 be eb fb c3 be 23 4e 69 bf 8c 41 b7 be
       -0.26572484 -0.38278136 -0.9113485 -0.35792196
0000e0 c1 2e be be 5f e4 ad be 54 f4 52 be bb b6 41 bf
       -0.37145045 -0.33963296 -0.20601016 -0.7566945
0000f0 f5 87 97 be 8e 5a d1 be c2 2c a7 be 81 4d 9a be
       -0.29595914 -0.408894 -0.32651335 -0.30137256

net.layer2.1.running_mean f4 [64]
000000 00 00 00 00 00 00 00 00 00 00 00 00 00 00 00 00
       0.0 0.0 0.0 0.0
000010 00 00 00 00 00 00 00 00 00 00 00 00 00 00 00 00
       0.0 0.0 0.0 0.0
000020 00 00 00 00 00 00 00 00 00 00 00 00 00 00 00 00
       0.0 0.0 0.0 0.0
000030 00 00 00 00 00 00 00 00 00 00 00 00 00 00 00 00
       0.0 0.0 0.0 0.0
000040 00 00 00 00 00 00 00 00 00 00 00 00 00 00 00 00
       0.0 0.0 0.0 0.0
000050 00 00 00 00 00 00 00 00 00 00 00 00 00 00 00 00
       0.0 0.0 0.0 0.0
000060 00 00 00 00 00 00 00 00 00 00 00 00 00 00 00 00
       0.0 0.0 0.0 0.0
000070 00 00 00 00 00 00 00 00 00 00 00 00 00 00 00 00
       0.0 0.0 0.0 0.0
000080 00 00 00 00 00 00 00 00 00 00 00 00 00 00 00 00
       0.0 0.0 0.0 0.0
000090 00 00 00 00 00 00 00 00 00 00 00 00 00 00 00 00
       0.0 0.0 0.0 0.0
0000a0 00 00 00 00 00 00 00 00 00 00 00 00 00 00 00 00
       0.0 0.0 0.0 0.0
0000b0 00 00 00 00 00 00 00 00 00 00 00 00 00 00 00 00
       0.0 0.0 0.0 0.0
0000c0 00 00 00 00 00 00 00 00 00 00 00 00 00 00 00 00
       0.0 0.0 0.0 0.0
0000d0 00 00 00 00 00 00 00 00 00 00 00 00 00 00 00 00
       0.0 0.0 0.0 0.0
0000e0 00 00 00 00 00 00 00 00 00 00 00 00 00 00 00 00
       0.0 0.0 0.0 0.0
0000f0 00 00 00 00 00 00 00 00 00 00 00 00 00 00 00 00
       0.0 0.0 0.0 0.0

net.layer2.1.running_var f4 [64]
000000 00 00 80 3f 00 00 80 3f 00 00 80 3f 00 00 80 3f
       1.0 1.0 1.0 1.0
000010 00 00 80 3f 00 00 80 3f 00 00 80 3f 00 00 80 3f
       1.0 1.0 1.0 1.0
000020 00 00 80 3f 00 00 80 3f 00 00 80 3f 00 00 80 3f
       1.0 1.0 1.0 1.0
000030 00 00 80 3f 00 00 80 3f 00 00 80 3f 00 00 80 3f
       1.0 1.0 1.0 1.0
000040 00 00 80 3f 00 00 80 3f 00 00 80 3f 00 00 80 3f
       1.0 1.0 1.0 1.0
000050 00 00 80 3f 00 00 80 3f 00 00 80 3f 00 00 80 3f
       1.0 1.0 1.0 1.0
000060 00 00 80 3f 00 00 80 3f 00 00 80 3f 00 00 80 3f
       1.0 1.0 1.0 1.0
000070 00 00 80 3f 00 00 80 3f 00 00 80 3f 00 00 80 3f
       1.0 1.0 1.0 1.0
000080 00 00 80 3f 00 00 80 3f 00 00 80 3f 00 00 80 3f
       1.0 1.0 1.0 1.0
000090 00 00 80 3f 00 00 80 3f 00 00 80 3f 00 00 80 3f
       1.0 1.0 1.0 1.0
0000a0 00 00 80 3f 00 00 80 3f 00 00 80 3f 00 00 80 3f
       1.0 1.0 1.0 1.0
0000b0 00 00 80 3f 00 00 80 3f 00 00 80 3f 00 00 80 3f
       1.0 1.0 1.0 1.0
0000c0 00 00 80 3f 00 00 80 3f 00 00 80 3f 00 00 80 3f
       1.0 1.0 1.0 1.0
0000d0 00 00 80 3f 00 00 80 3f 00 00 80 3f 00 00 80 3f
       1.0 1.0 1.0 1.0
0000e0 00 00 80 3f 00 00 80 3f 00 00 80 3f 00 00 80 3f
       1.0 1.0 1.0 1.0
0000f0 00 00 80 3f 00 00 80 3f 00 00 80 3f 00 00 80 3f
       1.0 1.0 1.0 1.0

net.layer3.0.weight f4 [64, 64, 3, 3]
000000 16 45 1d 3d 27 5a ec 3c 5a 90 ac 3b 6c b2 3c 3d
       0.038395964 0.028851582 0.0052662315 0.046068594
000010 4e 6f c2 bd f3 f2 a1 3c b2 66 6c bd 72 d0 8f bd
       -0.09493886 0.019769168 -0.057715125 -0.0702218
000020 76 64 66 3d 95 e4 75 3d 39 3e 5d 3d 21 5f 36 3d
       0.05624815 0.060032446 0.05401442 0.044524316
000030 0b b8 58 3d fc 72 6b 3b a9 0a 75 3c 58 5d 8a bc
       0.052909892 0.003592669 0.014956155 -0.016890213
000040 10 ac fe bc 4a e7 8a bd 18 8b 3f bc 33 6d 1a 3d
       -0.031087905 -0.06782396 -0.011690877 0.037701797
000050 5f 31 72 3c 9f 26 97 3d 30 4e 06 3d 54 c8 ee bd
       0.014782279 0.07380413 0.03278941 -0.11659303
000060 23 44 6b 3d a5 a0 06 3d 01 9b 72 bd 92 d8 81 3d
       0.057438027 0.032868046 -0.059229854 0.06340136
000070 a8 f5 d3 3b 15 52 30 3d 9a da 2a 3c 9c f7 84 3d
       0.0064684935 0.04304703 0.010428095 0.0649254
000080 1b 74 72 bd ac d9 b1 bc 32 f3 05 3c 03 6b c2 bb
       -0.059192758 -0.02171024 0.008175658 -0.005933167
000090 ed 48 94 3d 3c d5 a0 3d 42 46 6b bd 86 1c 6d 3d
       0.07240472 0.07853171 -0.05744005 0.05788853
0000a0 94 eb 4f 3d 31 10 64 3d 2f f6 95 3d b8 78 b3 bc
       0.050761774 0.055679504 0.073223464 -0.02190815
0000b0 d9 fe f8 bd c7 52 82 bd 87 06 ac 3c b5 b8 12 3b
       -0.12157983 -0.06363445 0.020999206 0.0022387926
0000c0 7e f8 0c 3d 55 ee f2 3c c8 a1 9a bd a8 7c b3 bd
       0.034416668 0.029654661 -0.075503886 -0.08764011
0000d0 7b e0 8f bd 2f be 10 3d 6f 51 07 3c 0d df 88 bd
       -0.07025238 0.035337623 0.008259161 -0.066831686
0000e0 42 91 26 bd 20 9b df bb 03 d2 08 be dc 69 5b bd
       -0.040665872 -0.0068239123 -0.13361363 -0.053567752
0000f0 2e 93 d9 ba 30 d2 b9 bc 3d 8d e5 bd 53 b4 e0 3d
       -0.0016599649 -0.022683233 -0.1120858 0.10971894
000100 bd b5 c3 bd d0 0d 0e bd 95 3f 53 3c b8 60 0e 3d
       -0.09556148 -0.03468114 0.012893577 0.034760207
000110 18 42 8e 3c 26 4f 52 bd cc 50 bf bc cb 7c 6c bd
       0.0173655 -0.051345013 -0.023353957 -0.0577362
000120 f4 3c 8f bc da 79 6c 3d 73 14 f5 bc 1e 3f 2e 3d
       -0.01748512 0.057733394 -0.029916978 0.042540662
000130 02 41 4c 3d 40 e6 af 3c d5 44 97 bd d8 02 a2 bd
       0.049866684 0.021472096 -0.073861755 -0.07910699
000140 92 39 da bd 68 4c 68 3d c3 67 1c 3c 79 8f 07 3c
       -0.10655512 0.05671349 0.009546223 0.008273953
000150 4c b1 f3 3c d2 bf 14 3d 40 2b 66 3b 3e a0 69 bd
       0.029747628 0.036315747 0.0035120994 -0.057037584
000160 11 76 bc bd 8c 45 14 bd 1c 7f 08 3d cf ee 34 3d
       -0.09202207 -0.036199138 0.033324346 0.044173058
000170 c3 19 8a 3b 80 20 07 3d f4 7f 1c bc f4 f9 d9 bd
       0.004214497 0.03298998 -0.009551991 -0.10643378
000180 0b 76 55 3d 81 a5 57 bc 77 e4 f4 bc e4 28 cf 3d
       0.052114528 -0.013162018 -0.029894097 0.10115221
000190 ac ca b9 3c fa 86 87 bd 1a 3d f4 3c f8 28 6a bd
       0.02267965 -0.066175416 0.029814292 -0.057167977
0001a0 3e c8 06 be e3 5e ed 3c 31 42 ce bd db d0 3c be
       -0.13162324 0.02897591 -0.10071219 -0.18439047
0001b0 57 ae 7e bd c2 af ff ba 76 f7 bc 3c 4c df 07 bd
       -0.062177982 -0.0019507336 0.023067217 -0.033171937
0001c0 e3 11 c4 3c eb 03 0b 3b 87 d5 71 bd 41 89 a7 bd
       0.02393431 0.0021212052 -0.059041526 -0.08180476
0001d0 0e de 2f bc 0d 95 c2 3c be d2 29 bd 2a ac 7d bd
       -0.010734094 0.023752714 -0.041460745 -0.061931767
0001e0 24 50 de bb f1 1f 13 bd 81 b2 79 bd fd c7 68 bd
       -0.006784456 -0.035919134 -0.06096125 -0.05683135
0001f0 b9 dd 75 bd e8 44 9e 3c 69 c2 58 bd 3b 7f 9c bd
       -0.060025904 0.019319966 -0.05291978 -0.07641455
000200 62 91 d7 bc 0f 71 00 b7 68 00 e7 bb f0 6e a0 bd
       -0.026314441 -7.655718e-06 -0.007049609 -0.0783366
000210 bb 89 ac bc a1 b3 6c 3d ff 1c 8a bd 8e 01 37 bd
       -0.021061769 0.057788495 -0.06743812 -0.044679217
000220 43 ac 86 bd 98 15 7f bd a8 45 89 bc ba 58 d2 bb
       -0.06575825 -0.062276453 -0.016756848 -0.0064192684
000230 49 bd 61 bd bb 16 6f bd 72 b7 55 3d e5 d1 f9 bc
       -0.055112157 -0.058371287 0.0521769 -0.030495593
000240 6c 9a 51 3d 93 d4 bd 3d 2c 25 21 bc be 90 0b 3e
       0.05117266 0.09269061 -0.009835523 0.13629434
000250 6d b0 04 bd e5 64 95 bd e1 aa 8d 3d a7 70 c1 bd
       -0.032394815 -0.07294635 0.06917358 -0.09445315
000260 86 f8 23 be 33 0e f5 bc 51 5a 15 3b 0c ca a8 bd
       -0.16012773 -0.029913997 0.0022789428 -0.082416624
000270 b9 59 a5 bd 01 7d 62 3d c9 dc 33 be c9 9b 9d 3c
       -0.08073754 0.055294994 -0.17564692 0.019239323
000280 65 8c 70 bd 7c 3c e1 bd 8e 05 04 bd 79 0e ed bc
       -0.05872764 -0.109978646 -0.03223186 -0.028937565
000290 a9 b0 94 bd dd 24 30 3d 6f 4f d6 bd 32 3b c0 bd
       -0.07260258 0.043003906 -0.104643695 -0.093862906
0002a0 ef 50 6b bd e4 90 26 bc 52 47 2f bd 9a 56 8a 3d
       -0.05745023 -0.010166381 -0.042792626 0.06754799
0002b0 53 27 23 bc 28 d6 b9 3c f0 d5 55 bc e3 40 92 bd
       -0.009958106 0.022685125 -0.013051495 -0.071412824
0002c0 68 a2 8b bc 93 bf 0b 3b f6 ea f7 bc e8 30 91 bc
       -0.017045215 0.0021323904 -0.030263405 -0.017723516
0002d0 ef 9e 7e 3b be c8 a3 3d cc 99 e3 bd d5 12 85 bb
       0.0038852056 0.07997273 -0.11113319 -0.004061083
0002e0 d5 53 d2 3d 61 53 95 bd 76 82 29 bd 7c 47 b4 bd
       0.10269896 -0.07291294 -0.041384183 -0.08802697
0002f0 58 22 34 be 65 5d 89 bd e3 a1 1d bd 19 07 83 bd
       -0.17591226 -0.06707267 -0.038484465 -0.06397838
000300 27 c3 ac 3b 99 20 70 3d 94 e2 08 3b fb af f8 bc
       0.0052722874 0.058624838 0.0020887004 -0.030357352
000310 7a a5 03 bd ca 59 fd bc 4e 4c bd bd 47 5c 89 bd
       -0.032140233 -0.030926604 -0.092430696 -0.06707054
000320 1b af 8c bd 0e 9b c9 3c 72 c4 e7 bc 1b 61 87 bc
       -0.06869336 0.024610069 -0.028291915 -0.016525796
000330 15 98 5c ba 45 46 99 bc 37 bf a5 bd 9d f8 8a bc
       -0.0008414996 -0.018710265 -0.08093112 -0.016964251
000340 28 10 24 3d 4f 55 50 bd 9c d3 8a bd ad 52 85 bc
       0.04005447 -0.050862607 -0.067786425 -0.016274774
000350 ea 7a 29 be 33 f7 c3 bd 2c 19 c4 bd de 1b 50 bd
       -0.16550794 -0.09568634 -0.09575114 -0.050807826
000360 25 61 87 3c 7d b2 0f bc 23 1a 00 be cc e2 cd bb
       0.016525814 -0.008770582 -0.1250997 -0.00628314
000370 af 52 bb 3c d2 1e fd bd 98 ef e9 3a a4 c6 e2 3c
       0.022866575 -0.12359394 0.0017847894 0.02768261
000380 e4 ba ed bd 5d c4 b2 3c da 8c b3 3c 6e 45 49 bd
       -0.11607912 0.021822149 0.02191775 -0.04913848
000390 de 98 c5 3c 54 f1 eb 3a dc 1c ec bc a4 7c cf bd
       0.024120744 0.0018000999 -0.028822355 -0.10131195
0003a0 ec b8 fc bc 2f 72 18 be 4a 3d 2e 3d 31 96 b2 bd
       -0.030849896 -0.14887308 0.04253892 -0.08720053
0003b0 a9 74 e4 3c f7 01 a0 bc 82 f8 82 bd b4 ef 13 bd
       0.02788766 -0.019532187 -0.06395055 -0.03611727
0003c0 25 0b 70 bd a0 f6 ab bc f7 e6 0b bd 6f 72 7e 3b
       -0.05860438 -0.020991623 -0.034155812 0.0038825532
0003d0 a9 b1 11 3c f8 71 4d bd 97 58 fe bc 39 1c 81 bd
       0.008892455 -0.050157517 -0.031048102 -0.06304211
0003e0 53 e7 45 3c 93 86 42 bd 60 18 13 3d ef 33 a5 bd
       0.012079078 -0.04749162 0.035911918 -0.08066546
0003f0 db 24 6f 3c 6a a2 b9 bd 8c f2 69 bd 20 3b 3e 3d
       0.014596189 -0.09064181 -0.057116076 0.046443105

net.layer3.0.bias f4 [64]
000000 c2 16 c8 bc b8 54 24 3d 7d 5f 08 3d 9e 28 0b 3d
       -0.024424914 0.040119857 0.03329419 0.033974282
000010 9f cb 23 3d 21 46 69 3c 41 b6 24 bc 00 be 21 3d
       0.03998911 0.014237911 -0.010053218 0.03948784
000020 06 6e e0 bc a2 7d 09 3c 74 4d 0e 3d 8e c0 14 3d
       -0.027396213 0.00839177 0.034741834 0.036316447
000030 1c e5 2f 3b 9d ac 1f 35 03 23 c0 bc 66 3a a5 3c
       0.002683944 5.94833e-07 -0.023454195 0.020169448
000040 8f b9 a6 3c c3 46 00 3d 7c e7 86 3c b1 73 24 bd
       0.020352153 0.031317484 0.016467802 -0.040149394
000050 2e e4 2e bb 3e ab cf 3c 75 fe 70 3b 78 55 a1 bc
       -0.0026686299 0.02535021 0.0036772762 -0.019694075
000060 d7 2c 23 3d a1 b9 0f bc 63 f4 1a 3d de f9 70 3c
       0.039837684 -0.008772285 0.03783072 0.0147080105
000070 ce f5 22 3d 5a 81 49 3c 49 ff e7 bc bb 40 b9 bc
       0.0397852 0.012298906 -0.028319972 -0.022613874
000080 fa 05 e6 bc 59 06 e4 bb 7b 4f 4d 3c 80 66 ac 3c
       -0.028079022 -0.0069587645 0.012531157 0.02104497
000090 80 48 e2 bb 27 44 76 bc a6 1b 31 bd 21 7a a3 3c
       -0.0069056153 -0.015030897 -0.04323926 0.019955697
0000a0 1b 6b 7b 3c a2 37 9a b9 72 ef 9d bb f7 f2 61 3c
       0.01534536 -0.0002941462 -0.004819804 0.0137908375
0000b0 db 2a c5 bb 93 ca 18 3c 46 18 a9 bc c2 d3 85 3c
       -0.0060170717 0.009325641 -0.020641457 0.016336326
0000c0 25 ec 08 3d ba 2e b1 bc 85 2c 1f bd 8d 40 15 3d
       0.03342833 -0.021628726 -0.038860817 0.036438514
0000d0 f9 73 18 3a 14 e5 bb bc be 45 5c bc 37 14 79 3c
       0.0005815621 -0.022936381 -0.013444362 0.0152025735
0000e0 aa 25 0a 3d 13 0e e9 3c 9e 51 0a bd 9b 50 94 bc
       0.033727325 0.028449094 -0.033769242 -0.018104842
0000f0 c2 fc 1a 3d f2 69 ab bc b0 23 c3 3c 28 62 46 3c
       0.037838705 -0.020924542 0.023820728 0.012108363

net.layer3.1.weight f4 [64]
000000 e5 06 55 3f f3 5f 95 3f 81 62 8d 3f 2a 8c 7c 3f
       0.83213645 1.1669906 1.1045686 0.98651373
000010 9c 29 65 3f 0e db 99 3f 48 dd 3b 3f eb 7d 57 3f
       0.89516616 1.2019975 0.73384523 0.8417651
000020 5a a1 68 3f 27 44 72 3f ed 76 8f 3f 54 0f 71 3f
       0.908712 0.9463524 1.1208168 0.94164014
000030 cc 15 87 3f ae cf 70 3f c2 96 4b 3f 5f 1b 77 3f
       1.0553527 0.94066894 0.79526913 0.9652614
000040 43 a9 6f 3f 35 3e 84 3f 62 80 77 3f 76 f6 6e 3f
       0.9361765 1.0331484 0.9668027 0.9334482
000050 00 1c 4c 3f 30 41 5b 3f c9 b5 84 3f 20 4b 6d 3f
       0.79730225 0.85646343 1.0367976 0.92692757
000060 8c 7b 58 3f 21 c7 80 3f 3d 1e 70 3f c6 44 75 3f
       0.8456352 1.0060769 0.9379614 0.95808065
000070 e8 d8 88 3f f4 b5 63 3f b7 d9 80 3f 02 6d 81 3f
       1.0691195 0.88949513 1.0066441 1.0111392
000080 8b 3c 6c 3f 0a a3 61 3f cf 4c 83 3f b0 9b 4f 3f
       0.9227988 0.881394 1.0257815 0.81096935
000090 6f 0f 2e 3f 47 f6 61 3f 3b e9 50 3f 09 40 89 3f
       0.679923 0.88266414 0.8160588 1.0722667
0000a0 8b 0e 85 3f f1 76 90 3f 59 ec 73 3f 04 7f 9a 3f
       1.0395063 1.1286298 0.9528251 1.2070012
0000b0 38 b2 90 3f 29 96 80 3f e1 25 60 3f 6e 69 85 3f
       1.1304388 1.0045825 0.875578 1.04228
0000c0 f6 f8 9c 3f a6 91 8b 3f 7c 37 35 3f 06 2a 79 3f
       1.2263477 1.0903823 0.7078779 0.9732975
0000d0 d2 38 6f 3f 7a 1d 6b 3f b5 ad ab 3f 42 3f a5 3f
       0.93446076 0.9184185 1.3412386 1.290993
0000e0 39 78 4f 3f 1a 4c 85 3f 51 15 85 3f 9b 33 75 3f
       0.8104282 1.0413849 1.039713 0.9578187
0000f0 5e ab 70 3f 9c f4 3b 3f 24 cb 88 3f 95 3d 82 3f
       0.94011486 0.7342012 1.0686994 1.0175043

net.layer3.1.bias f4 [64]
000000 9c 72 6d be f6 0f e5 be 9f cc a0 be 5c 4b ba be
       -0.23188251 -0.4473874 -0.31406114 -0.3638562
000010 a7 b2 94 be 3a f8 f4 be 44 f4 23 bf 33 aa 57 be
       -0.2904255 -0.47845632 -0.64044595 -0.2106102
000020 dc bd 92 be 10 3c b1 be 18 7e ab be 58 66 b4 be
       -0.28660476 -0.34616137 -0.3349464 -0.35234332
000030 c9 ac f1 be b7 39 8d be 54 45 44 be 15 fb 96 be
       -0.47202137 -0.27583095 -0.19167072 -0.29488435
000040 b3 da 8a be 47 4b 88 be 9b 8e 7a be b8 0a 4b be
       -0.2711998 -0.26619932 -0.24468462 -0.19828308
000050 bf be b5 be 24 43 a5 be aa fc c2 be 45 f6 a1 be
       -0.3549709 -0.32277787 -0.38083392 -0.316332
000060 f4 a8 e9 be d4 26 c2 be bb 02 5c be 9e 36 7d be
       -0.45636714 -0.37920249 -0.21485417 -0.24727866
000070 ec f8 e4 be e3 17 80 be da dc 8e be 42 ec a6 be
       -0.44721162 -0.25018224 -0.2790287 -0.32602125
000080 8a 12 7a be e0 e0 e8 be a5 85 c7 be 1e 8d 23 be
       -0.24421135 -0.45484066 -0.3896915 -0.159718
000090 2c 3e 3f bf f9 60 c9 be 96 6d 0e be 38 40 bf be
       -0.7470424 -0.39331797 -0.13908991 -0.37353683
0000a0 e3 8f dc be a1 20 22 bf e9 3a 4a be 01 7c 06 bf
       -0.43078527 -0.6333104 -0.19749035 -0.52532965
0000b0 e0 4a 86 be 0c 21 87 be 13 43 82 be 74 43 a5 be
       -0.26229 -0.263924 -0.254418 -0.32278025
0000c0 ef ea d0 be 33 ee 15 bf a6 c1 2e bf 49 7d 7c be
       -0.4080424 -0.5856659 -0.68264234 -0.24657167
0000d0 bf e0 ca be bb 74 8e be f4 35 e6 be 43 a7 e0 be
       -0.39624593 -0.27823433 -0.44963038 -0.4387761
0000e0 f3 bc 63 be 49 74 ab be 67 51 96 be f5 3d 88 be
       -0.22240047 -0.33487156 -0.2935898 -0.2660977
0000f0 65 8a 6b be 51 7e 19 bf 08 50 b9 be ce 5d 75 be
       -0.23002012 -0.5995837 -0.36193871 -0.23961565

net.layer3.1.running_mean f4 [64]
000000 00 00 00 00 00 00 00 00 00 00 00 00 00 00 00 00
       0.0 0.0 0.0 0.0
000010 00 00 00 00 00 00 00 00 00 00 00 00 00 00 00 00
       0.0 0.0 0.0 0.0
000020 00 00 00 00 00 00 00 00 00 00 00 00 00 00 00 00
       0.0 0.0 0.0 0.0
000030 00 00 00 00 00 00 00 00 00 00 00 00 00 00 00 00
       0.0 0.0 0.0 0.0
000040 00 00 00 00 00 00 00 00 00 00 00 00 00 00 00 00
       0.0 0.0 0.0 0.0
000050 00 00 00 00 00 00 00 00 00 00 00 00 00 00 00 00
       0.0 0.0 0.0 0.0
000060 00 00 00 00 00 00 00 00 00 00 00 00 00 00 00 00
       0.0 0.0 0.0 0.0
000070 00 00 00 00 00 00 00 00 00 00 00 00 00 00 00 00
       0.0 0.0 0.0 0.0
000080 00 00 00 00 00 00 00 00 00 00 00 00 00 00 00 00
       0.0 0.0 0.0 0.0
000090 00 00 00 00 00 00 00 00 00 00 00 00 00 00 00 00
       0.0 0.0 0.0 0.0
0000a0 00 00 00 00 00 00 00 00 00 00 00 00 00 00 00 00
       0.0 0.0 0.0 0.0
0000b0 00 00 00 00 00 00 00 00 00 00 00 00 00 00 00 00
       0.0 0.0 0.0 0.0
0000c0 00 00 00 00 00 00 00 00 00 00 00 00 00 00 00 00
       0.0 0.0 0.0 0.0
0000d0 00 00 00 00 00 00 00 00 00 00 00 00 00 00 00 00
       0.0 0.0 0.0 0.0
0000e0 00 00 00 00 00 00 00 00 00 00 00 00 00 00 00 00
       0.0 0.0 0.0 0.0
0000f0 00 00 00 00 00 00 00 00 00 00 00 00 00 00 00 00
       0.0 0.0 0.0 0.0

net.layer3.1.running_var f4 [64]
000000 00 00 80 3f 00 00 80 3f 00 00 80 3f 00 00 80 3f
       1.0 1.0 1.0 1.0
000010 00 00 80 3f 00 00 80 3f 00 00 80 3f 00 00 80 3f
       1.0 1.0 1.0 1.0
000020 00 00 80 3f 00 00 80 3f 00 00 80 3f 00 00 80 3f
       1.0 1.0 1.0 1.0
000030 00 00 80 3f 00 00 80 3f 00 00 80 3f 00 00 80 3f
       1.0 1.0 1.0 1.0
000040 00 00 80 3f 00 00 80 3f 00 00 80 3f 00 00 80 3f
       1.0 1.0 1.0 1.0
000050 00 00 80 3f 00 00 80 3f 00 00 80 3f 00 00 80 3f
       1.0 1.0 1.0 1.0
000060 00 00 80 3f 00 00 80 3f 00 00 80 3f 00 00 80 3f
       1.0 1.0 1.0 1.0
000070 00 00 80 3f 00 00 80 3f 00 00 80 3f 00 00 80 3f
       1.0 1.0 1.0 1.0
000080 00 00 80 3f 00 00 80 3f 00 00 80 3f 00 00 80 3f
       1.0 1.0 1.0 1.0
000090 00 00 80 3f 00 00 80 3f 00 00 80 3f 00 00 80 3f
       1.0 1.0 1.0 1.0
0000a0 00 00 80 3f 00 00 80 3f 00 00 80 3f 00 00 80 3f
       1.0 1.0 1.0 1.0
0000b0 00 00 80 3f 00 00 80 3f 00 00 80 3f 00 00 80 3f
       1.0 1.0 1.0 1.0
0000c0 00 00 80 3f 00 00 80 3f 00 00 80 3f 00 00 80 3f
       1.0 1.0 1.0 1.0
0000d0 00 00 80 3f 00 00 80 3f 00 00 80 3f 00 00 80 3f
       1.0 1.0 1.0 1.0
0000e0 00 00 80 3f 00 00 80 3f 00 00 80 3f 00 00 80 3f
       1.0 1.0 1.0 1.0
0000f0 00 00 80 3f 00 00 80 3f 00 00 80 3f 00 00 80 3f
       1.0 1.0 1.0 1.0
