mp/maml_mini_5way_5shot_best_step20000_conv_second.pt (torch, 498060 bytes, 26 tensors)

net.layer1.0.weight f4 [64, 3, 3, 3]
0	0x3d3c3641	0.045950178
1	0xbe544f47	-0.20733367
2	0x3db911b2	0.09036578
3	0x3e62a71c	0.2213406
4	0xbe6ba819	-0.23013343
5	0x3d845650	0.06461775
6	0x3d3de362	0.046359427
7	0xbdc11e42	-0.09429599
8	0x3d57fa0d	0.0527287
9	0x3e0b97c8	0.13632119
10	0xbe4fa246	-0.20276746
11	0x3dd72a0e	0.10506068
12	0x3e01557a	0.12630263
13	0xbe751dfd	-0.23937221
14	0x3e04c071	0.12964036
15	0x3e1080eb	0.14111678
16	0xbe69ef84	-0.22845274
17	0x3d055c4c	0.032558724
18	0x3c604d42	0.013690295
19	0xbe533ef2	-0.2062948
20	0x3e4a59f4	0.19760877
21	0x3de588d9	0.11207742
22	0xbe7ce7d1	-0.24697806
23	0x3dc6548c	0.09684095
24	0xbd9cecd8	-0.07662362
25	0xbc85b308	-0.01632072
26	0x3dd05649	0.101727076
27	0xbdaa1871	-0.08305443
28	0x3cb42fef	0.021995513
29	0xbe05990e	-0.13046667
30	0xbcadffb0	-0.021240085
31	0xbdb7a981	-0.08967877
32	0xbd9c5f76	-0.07635395
33	0x3ce5967b	0.028025856
34	0x3d630f5d	0.055434573
35	0xbd27a527	-0.040928986
36	0xbdd3a173	-0.10333528
37	0x3e0b33a6	0.13593921
38	0x3e145b16	0.14487872
39	0xbdd03fba	-0.10168405
40	0x3e253205	0.16132362
41	0x3e70ad2e	0.23503563
42	0x3d44d4b9	0.04805443
43	0x3e320075	0.17382987
44	0x3e6d94cd	0.23201294
45	0xbdb7d713	-0.08976569
46	0x3d4e14c6	0.05031278
47	0x3e715690	0.23568177
48	0xbdd26472	-0.10273065
49	0xbe006aa4	-0.1254068
50	0x3e34fd92	0.17674854
51	0xbe9f3665	-0.31096187
52	0xbea092b0	-0.31361914
53	0xbe131afb	-0.14365761
54	0xba9452ed	-0.0011316218
55	0x3db6a95a	0.0891902
56	0x3caf4626	0.021395754
57	0xbd9e6d24	-0.07735661
58	0xbba371b4	-0.0049879197
59	0x3d8af080	0.06784153
60	0xbd566bc0	-0.052348852
61	0xbd8f6262	-0.07001187
62	0xbd991213	-0.074741505
63	0x3c905b2a	0.017621595
64	0x3bbb7aab	0.0057214103
65	0x3e4ebc44	0.20189005
66	0xbc00873b	-0.007844741
67	0xbc431996	-0.011907956
68	0xbd0af6be	-0.033926718
69	0x3b251de5	0.002519482
70	0xbb90df0d	-0.004421121
71	0xbd3e6e44	-0.046491876
72	0xbf29acca	-0.6627928
73	0xbec06874	-0.3757969
74	0x3df0db51	0.11760581
75	0xbf597efa	-0.84959376
76	0xbf1f11d8	-0.621366
77	0x3dded430	0.10880315
78	0xbeeaba48	-0.45845246
79	0xbeafceb9	-0.34337404
80	0x3e5e3ed4	0.21703655
81	0x3dc993f4	0.09842673
82	0x3e9d9c85	0.30783477
83	0x3e0ad8b5	0.1355923
84	0xbe0b4724	-0.13601357
85	0x3c997850	0.018734127
86	0x3ddee082	0.10882665
87	0xbeaa7c1b	-0.3329781
88	0xbe90b727	-0.28264734
89	0xbda4504e	-0.080231294
90	0x3c8eed3b	0.017447105
91	0x3d92ef12	0.07174505
92	0x3e1144fa	0.14186469
93	0xbcba7a2e	-0.022763338
94	0xbd844528	-0.06458503
95	0x3e65dea1	0.22448207
96	0xbe1c16fe	-0.15243146
97	0xbd59aac3	-0.053141367
98	0x3be14408	0.006874565
99	0xbd4704bb	-0.048588496
100	0xbc45e63c	-0.012078818
101	0xbd4ab215	-0.04948624
102	0x3d390847	0.04517391
103	0x3cb0f9ca	0.021603484
104	0x3dac80be	0.08422993
105	0xbd788265	-0.06067123
106	0x3d76decb	0.060271066
107	0x3dfddcb0	0.123956084
108	0x3d099f6e	0.03359931
109	0xbe39f3b5	-0.18159373
110	0x3d4ef75d	0.050528873
111	0x3dee7335	0.11643068
112	0xbe06191a	-0.13095513
113	0xbe80e368	-0.25173497
114	0x3e978238	0.29591537
115	0xbdbc4bdb	-0.09194156
116	0xbe152009	-0.14563002
117	0x3e4094d3	0.18806772
118	0xbd76d175	-0.060258348
119	0x3c44feb3	0.012023616
120	0x3e86e76d	0.2634844
121	0xbd183571	-0.03716034
122	0xbd61d301	-0.05513287
123	0x3e92eb87	0.28695318
124	0xbd544472	-0.051823087
125	0xbd6a35c7	-0.057180192
126	0xbd522fee	-0.05131524
127	0xbe0519b2	-0.12998083
128	0x3d5fc17f	0.05462789
129	0x3e0c4a64	0.13700253
130	0xbcb9112a	-0.022591192
131	0xbe1b43aa	-0.1516253
132	0x3d6251c6	0.055253766
133	0xbdfd3410	-0.12363446
134	0x3d464d70	0.048413694
135	0xbe86e74d	-0.26348343
136	0xbc1cb869	-0.009565451
137	0xbe859e31	-0.26097253
138	0x3e1fe1f3	0.15613537
139	0x3e46b355	0.19404347
140	0x3e2e59fc	0.17026514
141	0xbd061316	-0.032733046
142	0xbdfdda89	-0.12395198
143	0xbda70b08	-0.08156401
144	0xbdf70751	-0.12061942
145	0x3cbeba98	0.023282334
146	0xbe14c3ae	-0.14527771
147	0x3e73b62b	0.2379996
148	0x3e8eb29b	0.2787064
149	0x3e94ab77	0.29037067
150	0x3d520d07	0.051281955
151	0x3d1c616c	0.038178846
152	0xbe4ad4dc	-0.19807762
153	0xbd8367fd	-0.064163186
154	0xbd804cc2	-0.062646404
155	0xbd4ffed9	-0.05078015
156	0x3dffb358	0.12485379
157	0x3d5d065c	0.053961143
158	0x3e126211	0.14295222
159	0xbd963351	-0.073340066
160	0xbd95ee23	-0.073208116
161	0xbdd0d2fd	-0.10196493
162	0x3e8e0785	0.27740112
163	0x3e8ca997	0.27473137
164	0x3e22a052	0.1588147
165	0x3e9d6fd2	0.30749375
166	0x3e944850	0.2896142
167	0x3ce26e2e	0.027640428
168	0x3e9432c2	0.28944975
169	0x3e1216c9	0.14266504
170	0xbd1cf4ab	-0.03831927
171	0xbced0025	-0.028930733
172	0xbda70c08	-0.08156592
173	0xbc59786f	-0.0132733425
174	0x3c45b217	0.012066386
175	0xbdc88e0f	-0.097927205
176	0xbd9e3dd0	-0.077266335
177	0xbd96b4aa	-0.07358678
178	0x3c2b7337	0.010464481
179	0xbe25bee8	-0.16186106
180	0x3c83b92b	0.016079506
181	0xbd48017b	-0.048829537
182	0xbe08c3b5	-0.13355906
183	0xbd50374a	-0.050833978
184	0xbdaa04ca	-0.08301695
185	0xbdfe56b9	-0.12418885
186	0xbdc18a77	-0.09450238
187	0xbe350382	-0.1767712
188	0xbe346a31	-0.17618634
189	0xbd96a7fc	-0.07356259
190	0xbd6536b6	-0.05596038
191	0xbd44f5b9	-0.048085902
192	0x3c99f4f2	0.018793557
193	0x3d37a2e6	0.044833086
194	0x3d339955	0.0438474
195	0x3dd4a927	0.10383826
196	0x3e264245	0.16236217
197	0xbcb2051e	-0.021730956
198	0x3dafcd6e	0.085841045
199	0xbaf01efb	-0.001831978
200	0x3c77df6a	0.01512895
201	0x3e460188	0.19336522
202	0x3e4ca937	0.19986425
203	0x3d5777b9	0.05260441
204	0x3eafcec1	0.34337428
205	0x3eacf0b5	0.33777395
206	0x3ea0007a	0.31250364
207	0xbc6df3bb	-0.014523442
208	0x3d5db591	0.054128233
209	0xbe0ad203	-0.13556676
210	0x3e79a4c8	0.24379265
211	0x3e1cf010	0.15325952
212	0xbb0ff390	-0.0021965243
213	0x3e8481e1	0.2588034
214	0x3e7cf51d	0.24702878
215	0x3d64923d	0.055803526
216	0xbd7e1323	-0.06202997
217	0x3c73c268	0.014877893
218	0x3da5fb62	0.08104588
219	0xbdcfe28f	-0.101506345
220	0x3d027ec1	0.031859163
221	0x3dd3630d	0.10321627
222	0xbc05a829	-0.008157768
223	0x3df5d342	0.12003185
224	0x3dd0bc78	0.101921976
225	0xbe5c6ed7	-0.21526657
226	0x3be7b5ee	0.0070712483
227	0x3dec6847	0.11543327
228	0xbd8314b9	-0.06400437
229	0x3b036c4e	0.0020053568
230	0x3e3e05a5	0.1855684
231	0xbd6dab12	-0.058024473
232	0x3e79e607	0.24404155
233	0x3eae0a2b	0.33992133
234	0xbe9dbd72	-0.30808598
235	0xbe6e214c	-0.23254889
236	0xbe42e98b	-0.19034402
237	0xbdb8fbf8	-0.09032434
238	0x39f2bd7a	0.00046299008
239	0xbc5cc7e3	-0.013475391
240	0x3dcbec07	0.09957128
241	0x3e753434	0.23945695
242	0x3e39587e	0.18100163
243	0x3e723550	0.2365315
244	0x3d6c94c7	0.057759073
245	0xbe3d5d6c	-0.18492669
246	0xbdad5e80	-0.0846529
247	0xbcfd05dd	-0.030886585
248	0x3dca73ae	0.098853454
249	0xbbe1186e	-0.0068693673
250	0x3d03492f	0.032052215
251	0x3e04feee	0.12987873
252	0x3e7db388	0.24775517
253	0x3c574596	0.013139149
254	0xbe0b49b8	-0.1360234
255	0xbe703b4d	-0.23460121

net.layer1.0.bias f4 [64]
0	0x3e0c3adf	0.13694333
1	0xbe111bd0	-0.14170766
2	0xbd1844f7	-0.037175145
3	0x3e12037b	0.1425914
4	0x3d8f7584	0.07004836
5	0x3c6d269c	0.014474537
6	0xbe18b353	-0.14912157
7	0x3dfcd5e2	0.123454824
8	0x3e3141a5	0.17310198
9	0xbe262b31	-0.16227414
10	0xbde2a00e	-0.11065684
11	0x3e3dc523	0.18532233
12	0xbe2d758e	-0.16939375
13	0x3d867ace	0.06566392
14	0xbd245f16	-0.040129744
15	0xbe070373	-0.1318491
16	0xbe446669	-0.19179691
17	0x3e4bd95b	0.19907133
18	0xbc31e28e	-0.0108572375
19	0xbe370984	-0.17874724
20	0x3ce5ea47	0.028065814
21	0x3c53cb02	0.012926819
22	0xbd5973c0	-0.053088903
23	0xbbbf854f	-0.005844749
24	0x3b2ea5a1	0.0026649015
25	0xbdebd1c8	-0.11514622
26	0x3e1d83e1	0.15382339
27	0xbdc248a0	-0.09486508
28	0xbdf23b3c	-0.11827704
29	0xbdbf8cd7	-0.09353035
30	0xbd603d65	-0.05474605
31	0x3dd7b380	0.10532284
32	0xbd281960	-0.041039824
33	0x3d50af8a	0.050948657
34	0x3e09bedc	0.13451713
35	0xbe026d7d	-0.12737079
36	0xbdac2f39	-0.084074445
37	0xbdfeaaba	-0.12434907
38	0xbe478382	-0.1948376
39	0x3df5a148	0.119936526
40	0xbdf734e1	-0.12070633
41	0xbd8b307a	-0.067963555
42	0xbe3df12e	-0.18549034
43	0x3d08888d	0.03333335
44	0xbceb92d5	-0.028756538
45	0x3de528b3	0.111894034
46	0x3c45c364	0.012070511
47	0x3dacd35a	0.084387496
48	0xbe16141b	-0.14656107
49	0x3e2c106e	0.16803142
50	0x3d14bc05	0.036312122
51	0x3e0b33a2	0.13593915
52	0xbe4e3996	-0.20139155
53	0x3e0a0bad	0.13481016
54	0xbe45deef	-0.19323324
55	0xbdbe6afe	-0.09297751
56	0xbe3f2ba8	-0.18668997
57	0xbdedd74f	-0.116133325
58	0xbe3f7a5d	-0.18699022
59	0xbe72b7bc	-0.23702902
60	0xbe1ef999	-0.15524901
61	0x3d03d812	0.032188483
62	0xbe19f82c	-0.15036076
63	0xbdd23764	-0.10264471

net.layer1.1.weight f4 [64]
0	0x3fcafcec	1.5858436
1	0x3f6462b0	0.89213085
2	0x3ef78fd0	0.48351908
3	0x3f3211b0	0.6955824
4	0x3f954b93	1.1663688
5	0x3f1ab15b	0.6042687
6	0x3f4c2e1d	0.79757863
7	0x3f1c5ea1	0.6108189
8	0x3f3400d9	0.70313793
9	0x3f51be11	0.81930643
10	0x3f70d444	0.9407389
11	0x3f35c2fe	0.7100066
12	0x3f521734	0.82066655
13	0x3f4b3015	0.7937024
14	0x3fb828d1	1.4387456
15	0x3fab40a8	1.3379107
16	0x3fb562d1	1.4170781
17	0x3f64a0b8	0.8930774
18	0x3f40604a	0.75146925
19	0x3f26f047	0.65210384
20	0x3fa105de	1.2579916
21	0x3f51a6f3	0.8189537
22	0x3ef43211	0.47694448
23	0x3f321043	0.69556063
24	0x3f54255b	0.828695
25	0x3f310c34	0.69159245
26	0x3fab4f64	1.3383603
27	0x3f2a1df3	0.6645195
28	0x3f34cf03	0.70628375
29	0x3fb6ea32	1.4290221
30	0x3f75eaba	0.9606129
31	0x3f3566ad	0.70859796
32	0x3f1640cc	0.5869262
33	0x3f7e3a7a	0.9930798
34	0x3f59032a	0.8477045
35	0x3f397182	0.72438824
36	0x3fa5df45	1.2958761
37	0x3f4bcba4	0.79607606
38	0x3f4aeabf	0.79264444
39	0x3f6d59b6	0.92715013
40	0x3f3b9c6f	0.73285574
41	0x3f13ee50	0.5778551
42	0x3f281393	0.6565487
43	0x3f325630	0.6966276
44	0x3fa4e644	1.2882771
45	0x3faca704	1.3488469
46	0x3f92d886	1.1472328
47	0x3f0b3be3	0.54388255
48	0x3f695ab2	0.91154015
49	0x3f4369d4	0.76333356
50	0x3f18293f	0.59437937
51	0x3f1ff5da	0.62484515
52	0x3f7637a6	0.9617866
53	0x3f833666	1.0250976
54	0x3fa63278	1.2984152
55	0x3f3fc255	0.749059
56	0x3f9d66ce	1.2296999
57	0x3f645912	0.8919841
58	0x3f8dd514	1.1080651
59	0x3f733c13	0.9501354
60	0x3f2ee928	0.6832452
61	0x3fb29090	1.3950367
62	0x3f5c1966	0.85976255
63	0x3fb6127e	1.4224393

net.layer1.1.bias f4 [64]
0	0xbcc804d9	-0.024416374
1	0x3e2a9137	0.16656958
2	0xbf0ba0a7	-0.5454201
3	0xbf0b39b7	-0.5438494
4	0x3fa83f67	1.3144349
5	0xbe87c30f	-0.26516005
6	0xbe4aed42	-0.19817069
7	0xbf352514	-0.707597
8	0xbeb87719	-0.36028364
9	0x3ea9f213	0.331925
10	0x3edbd71d	0.42937556
11	0xbebe8fcc	-0.37219083
12	0xbec5490f	-0.38532302
13	0xbe16fc3e	-0.1474466
14	0xbd2bd32b	-0.041949432
15	0x3e6f4f35	0.23370059
16	0x3e3c3ec6	0.18383321
17	0x3d5e2008	0.054229766
18	0xbe066784	-0.13125426
19	0xbeffc241	-0.4995289
20	0x3f1cdf21	0.6127797
21	0xbefeef30	-0.4979186
22	0xbf07cf62	-0.53050816
23	0xbf25de96	-0.64792764
24	0xbe1f985a	-0.15585461
25	0xbef683f6	-0.48147553
26	0x3f1d9277	0.6155161
27	0xbf228ad5	-0.6349309
28	0xbe891874	-0.2677647
29	0x3f465875	0.77478725
30	0x3e37041d	0.17872663
31	0xbf0efe8f	-0.55857176
32	0x3d895648	0.0670591
33	0xbeccdc33	-0.4001175
34	0x3dcd0473	0.10010614
35	0xbf07f311	-0.53105265
36	0xbd3f336a	-0.04667989
37	0xbf0efda6	-0.55855787
38	0xbef8973a	-0.48552877
39	0xbe9b730c	-0.3036121
40	0xbee5ce13	-0.44883785
41	0xbef5f0fd	-0.48035422
42	0xbe891e2e	-0.26780838
43	0x3e23e8d2	0.16006783
44	0x3dd8bddb	0.10583087
45	0xbe2bff63	-0.16796641
46	0x3eacb055	0.3372828
47	0xbf0b672f	-0.5445432
48	0xbf163996	-0.5868162
49	0xbeea0104	-0.457039
50	0xbef9150d	-0.48648873
51	0xbe817222	-0.2528239
52	0x3f6414a8	0.8909402
53	0x3e921bb5	0.28536764
54	0x3eb3f288	0.35145974
55	0xbe72b230	-0.23700786
56	0x3e954385	0.29153076
57	0xbef223bf	-0.47292897
58	0x3ef80a7e	0.48445505
59	0x3d94d664	0.07267454
60	0xbec36bf6	-0.38168305
61	0xbe2a4478	-0.16627681
62	0x3f0158ea	0.505263
63	0x3f4a1700	0.78941345

net.layer1.1.running_mean f4 [64]
0	0x00000000	0.0
1	0x00000000	0.0
2	0x00000000	0.0
3	0x00000000	0.0
4	0x00000000	0.0
5	0x00000000	0.0
6	0x00000000	0.0
7	0x00000000	0.0
8	0x00000000	0.0
9	0x00000000	0.0
10	0x00000000	0.0
11	0x00000000	0.0
12	0x00000000	0.0
13	0x00000000	0.0
14	0x00000000	0.0
15	0x00000000	0.0
16	0x00000000	0.0
17	0x00000000	0.0
18	0x00000000	0.0
19	0x00000000	0.0
20	0x00000000	0.0
21	0x00000000	0.0
22	0x00000000	0.0
23	0x00000000	0.0
24	0x00000000	0.0
25	0x00000000	0.0
26	0x00000000	0.0
27	0x00000000	0.0
28	0x00000000	0.0
29	0x00000000	0.0
30	0x00000000	0.0
31	0x00000000	0.0
32	0x00000000	0.0
33	0x00000000	0.0
34	0x00000000	0.0
35	0x00000000	0.0
36	0x00000000	0.0
37	0x00000000	0.0
38	0x00000000	0.0
39	0x00000000	0.0
40	0x00000000	0.0
41	0x00000000	0.0
42	0x00000000	0.0
43	0x00000000	0.0
44	0x00000000	0.0
45	0x00000000	0.0
46	0x00000000	0.0
47	0x00000000	0.0
48	0x00000000	0.0
49	0x00000000	0.0
50	0x00000000	0.0
51	0x00000000	0.0
52	0x00000000	0.0
53	0x00000000	0.0
54	0x00000000	0.0
55	0x00000000	0.0
56	0x00000000	0.0
57	0x00000000	0.0
58	0x00000000	0.0
59	0x00000000	0.0
60	0x00000000	0.0
61	0x00000000	0.0
62	0x00000000	0.0
63	0x00000000	0.0

net.layer1.1.running_var f4 [64]
0	0x3f800000	1.0
1	0x3f800000	1.0
2	0x3f800000	1.0
3	0x3f800000	1.0
4	0x3f800000	1.0
5	0x3f800000	1.0
6	0x3f800000	1.0
7	0x3f800000	1.0
8	0x3f800000	1.0
9	0x3f800000	1.0
10	0x3f800000	1.0
11	0x3f800000	1.0
12	0x3f800000	1.0
13	0x3f800000	1.0
14	0x3f800000	1.0
15	0x3f800000	1.0
16	0x3f800000	1.0
17	0x3f800000	1.0
18	0x3f800000	1.0
19	0x3f800000	1.0
20	0x3f800000	1.0
21	0x3f800000	1.0
22	0x3f800000	1.0
23	0x3f800000	1.0
24	0x3f800000	1.0
25	0x3f800000	1.0
26	0x3f800000	1.0
27	0x3f800000	1.0
28	0x3f800000	1.0
29	0x3f800000	1.0
30	0x3f800000	1.0
31	0x3f800000	1.0
32	0x3f800000	1.0
33	0x3f800000	1.0
34	0x3f800000	1.0
35	0x3f800000	1.0
36	0x3f800000	1.0
37	0x3f800000	1.0
38	0x3f800000	1.0
39	0x3f800000	1.0
40	0x3f800000	1.0
41	0x3f800000	1.0
42	0x3f800000	1.0
43	0x3f800000	1.0
44	0x3f800000	1.0
45	0x3f800000	1.0
46	0x3f800000	1.0
47	0x3f800000	1.0
48	0x3f800000	1.0
49	0x3f800000	1.0
50	0x3f800000	1.0
51	0x3f800000	1.0
52	0x3f800000	1.0
53	0x3f800000	1.0
54	0x3f800000	1.0
55	0x3f800000	1.0
56	0x3f800000	1.0
57	0x3f800000	1.0
58	0x3f800000	1.0
59	0x3f800000	1.0
60	0x3f800000	1.0
61	0x3f800000	1.0
62	0x3f800000	1.0
63	0x3f800000	1.0

net.layer2.0.weight f4 [64, 64, 3, 3]
0	0xbd5f98c3	-0.054589044
1	0xbdd07b29	-0.10179741
2	0x3d38eac4	0.045145765
3	0xbd66151a	-0.056172468
4	0xbd954567	-0.07288628
5	0x3e2331b3	0.15936927
6	0xbe0bdf2a	-0.13659349
7	0xbd990456	-0.0747153
8	0x3d9c0bb5	0.076194204
9	0x3c8306ce	0.015994456
10	0x3d257e51	0.040403668
11	0xbdacba65	-0.084339894
12	0xbd3a49a7	-0.045480397
13	0x3d82aac2	0.06380226
14	0xbd876b2c	-0.06612238
15	0xbb8e0439	-0.0043339995
16	0x3d54e73a	0.051978327
17	0xbd5cab24	-0.05387415
18	0xbc3caa22	-0.011515172
19	0x3dbacf12	0.09121527
20	0x3d468b33	0.048472594
21	0x3b2869c0	0.0025697798
22	0xbba71456	-0.00509886
23	0x3d042537	0.032262053
24	0x3d145548	0.036214143
25	0x3e25625d	0.16150804
26	0x3dbe0403	0.09278109
27	0xbd387287	-0.045031097
28	0xbe06c1ba	-0.13159838
29	0xbdbcc1ec	-0.09216675
30	0xbddadc1c	-0.10686514
31	0xbd9036f6	-0.07041733
32	0xbe206517	-0.15663563
33	0xbd9b1cb4	-0.07573834
34	0xbd98f7ad	-0.074691154
35	0xbde845ff	-0.11341476
36	0x3d2cb64e	0.042166047
37	0x3cde1224	0.02710826
38	0xbcc689be	-0.024235602
39	0xbcf55550	-0.029947907
40	0xbcc74ce6	-0.02432866
41	0xbdd3671b	-0.103224
42	0x3d32bbd8	0.043636173
43	0xbd2ecbe6	-0.04267492
44	0x3b33a924	0.0027414048
45	0x3ca085e4	0.019595094
46	0xbc6eed68	-0.014582969
47	0x3d9c344e	0.07627164
48	0xbd688990	-0.056771815
49	0x3c268fc2	0.0101661105
50	0x3ccb47a4	0.024814434
51	0xbe0373b7	-0.1283711
52	0xbdc897f2	-0.09794606
53	0xbdacc3ef	-0.08435809
54	0x3d946749	0.072462626
55	0x3e1683be	0.14698693
56	0x3ddd2456	0.10797946
57	0x3d1cf5b7	0.03832027
58	0x3d17eb3b	0.037089568
59	0x3cc1a722	0.023639265
60	0x3b9ccff4	0.004785532
61	0x3cc9f567	0.02465315
62	0xbd0a3462	-0.033741362
63	0xbed40ab2	-0.4141441
64	0xbeaf12ba	-0.34193975
65	0xbea47151	-0.32117704
66	0xbeadda23	-0.33955488
67	0xbe610a6b	-0.2197663
68	0xbe9b695c	-0.3035382
69	0xbec8c47f	-0.39212415
70	0xbe9a1a25	-0.30098072
71	0xbe76c021	-0.24096729
72	0xbe88f6ec	-0.26750886
73	0xbe18e27b	-0.14930145
74	0xbe8c1e77	-0.27366993
75	0xbe57a728	-0.21059859
76	0xbe05f6df	-0.13082455
77	0xbeb06003	-0.3444825
78	0xbdad475a	-0.08460875
79	0xbdc2ea60	-0.0951736
80	0xbe64d3bc	-0.22346395
81	0xbca9bebd	-0.020720834
82	0xbd831415	-0.06400315
83	0x3ce074a1	0.027399363
84	0xbd51756a	-0.051137365
85	0xbcc9df6c	-0.024642669
86	0xbbbd693b	-0.0057803667
87	0xbd3e1c00	-0.04641342
88	0xbd1fd1b8	-0.039018363
89	0x3c7d8ba7	0.01547519
90	0xbe3aa5f1	-0.18227364
91	0xbe507ef6	-0.20360932
92	0x3c14967d	0.009069082
93	0xbe94eba3	-0.29086027
94	0xbe8348de	-0.2564153
95	0xbe3305ca	-0.17482677
96	0xbe8930d8	-0.26795077
97	0xbe095228	-0.13410246
98	0xbdb869b8	-0.09004539
99	0x3d2b4ba6	0.04182019
100	0x3d3d6bf5	0.046245534
101	0x3bf13fea	0.0073623555
102	0x3d84e4ca	0.064889506
103	0xbd1ae1bc	-0.037812933
104	0xbd320dfe	-0.043470375
105	0x3cc5f716	0.024165671
106	0x3d290981	0.04126883
107	0x3d7e8e62	0.062147506
108	0x3d4c0a5a	0.04981456
109	0x3a0f69ab	0.0005470763
110	0xbdb63fa6	-0.08898859
111	0xbc42802f	-0.011871382
112	0x3d7bb661	0.061453227
113	0xbd3779b6	-0.044793807
114	0x3b95b741	0.0045689647
115	0x3dd87b65	0.10570411
116	0x3d00e745	0.031470556
117	0x3dac4717	0.08411997
118	0x3db02980	0.086016655
119	0x3d857fa3	0.065184854
120	0x3d7f98c0	0.062401533
121	0x3d651f6e	0.055938177
122	0x3c93b3b7	0.01803003
123	0x3c417081	0.011806608
124	0x3d24131e	0.040057294
125	0x3b1df425	0.002410182
126	0x3cf218c4	0.029552825
127	0xbc22bce4	-0.00993273
128	0x3c7f3357	0.015576205
129	0x3d86b71f	0.06577896
130	0xbd3ba21e	-0.045808904
131	0x3d6728c0	0.056435347
132	0xbde38d15	-0.11110894
133	0x3b1adc54	0.002362986
134	0x3d4d8480	0.05017519
135	0x3d054b9a	0.032542802
136	0x3dc49468	0.09598619
137	0x3d26f5ed	0.040761877
138	0x3d1d55b6	0.03841182
139	0x3ce87847	0.028377665
140	0xbd5f31a2	-0.054490693
141	0x3d596c7c	0.053081974
142	0xbe12ae72	-0.14324358
143	0xbc4cde59	-0.012504184
144	0x3e7eed2e	0.24895164
145	0x3e59d683	0.21273236
146	0x3e713c1e	0.23558089
147	0x3e150a1c	0.14554638
148	0x3df0ff23	0.117674135
149	0xbcd701dd	-0.026246006
150	0x3e0b9981	0.13632776
151	0x3db55d03	0.08855631
152	0x3d804392	0.06262888
153	0x3d802046	0.06256156
154	0x3e6712b8	0.22565734
155	0x3e66fd81	0.22557642
156	0x3d61502b	0.055008095
157	0x3db7f780	0.08982754
158	0x3e243581	0.16036035
159	0xbbd01fbf	-0.0063514407
160	0x3dd00b21	0.10158373
161	0x3dc0531e	0.09390853
162	0x3e219e4c	0.15783042
163	0x3d8c44f9	0.06849093
164	0x3d80f8f8	0.06297487
165	0x3e3e8ef4	0.1860922
166	0x3e291603	0.16512303
167	0x3e0431d5	0.12909634
168	0x3e76c6f1	0.24099328
169	0x3e4786d3	0.19485025
170	0x3e2890fd	0.16461559
171	0x3e295e21	0.16539814
172	0x3e3a0c8f	0.18168853
173	0x3e6be2c1	0.23035719
174	0x3e26f6b3	0.16305046
175	0x3d8a3110	0.06747639
176	0x3e77e552	0.24208573
177	0x3e218968	0.15775073
178	0x3da0829d	0.078374125
179	0x3e038506	0.12843713
180	0xbcffcb86	-0.031224977
181	0xbe3c328e	-0.1837866
182	0xbd4c646c	-0.049900457
183	0xbc80f13d	-0.015740031
184	0xbe44e1de	-0.19226786
185	0xbdc97911	-0.09837545
186	0xbd2352a4	-0.039873734
187	0xbe4d6412	-0.20057705
188	0xbdcf6e6a	-0.10128482
189	0x3d90ee6b	0.070767246
190	0x3e1b8293	0.15186529
191	0x3e4f2ce8	0.20231974
192	0x3c4a7809	0.01235772
193	0x3c558f13	0.0130346
194	0x3e13bcea	0.14427534
195	0xbbd48319	-0.0064853546
196	0x3cd48071	0.025940152
197	0x3d88af12	0.06674017
198	0xbd350d97	-0.044202413
199	0xbde9d234	-0.11417046
200	0xbe113f32	-0.14184263
201	0xbe148528	-0.1450392
202	0xbd83abe7	-0.06429272
203	0xbdef2d09	-0.11678512
204	0xbca04a4d	-0.01956668
205	0x3b6e8d1d	0.0036400028
206	0x3c44e338	0.012017064
207	0xbcb22072	-0.021743987
208	0x3cf3cdd5	0.029761234
209	0x3d310988	0.04322198
210	0xbd4873d0	-0.048938572
211	0xbd1fcbac	-0.039012596
212	0xbce34394	-0.027742185
213	0x3d8799f1	0.06621159
214	0x3d7de975	0.06199022
215	0xb76e9d27	-1.4222495e-05
216	0xbd9e0ade	-0.077169165
217	0xbbe82bb4	-0.007085288
218	0x3d3677e5	0.044547934
219	0xbda07c26	-0.078361794
220	0xbd27dff2	-0.040985055
221	0x3d46331b	0.04838858
222	0xbe076166	-0.13220748
223	0xbdd76327	-0.10516959
224	0xbd5b1ccd	-0.053494263
225	0xbf066e8a	-0.5251242
226	0xbeadaa1a	-0.3391884
227	0xbeb70d47	-0.35752317
228	0xbee95b88	-0.45577645
229	0xbeb7dd84	-0.3591119
230	0xbec28d6e	-0.37998527
231	0xbef7c2e8	-0.4839089
232	0xbe9a38a3	-0.30121335
233	0xbec441c9	-0.3833144
234	0xbea5d666	-0.32390136
235	0xbe8204da	-0.25394326
236	0xbddda1f7	-0.10821908
237	0xbec6751e	-0.38761228
238	0xbeba282f	-0.36358783
239	0xbe74e6d3	-0.23916177
240	0xbea50356	-0.32229108
241	0xbe96cb17	-0.2945182
242	0xbe6ea16b	-0.23303764
243	0xbcb2ae81	-0.021811726
244	0x3e235fe9	0.15954556
245	0xbc8b0c10	-0.016973525
246	0xbe177996	-0.14792475
247	0xbd8c6891	-0.06855882
248	0xbe18ed07	-0.14934169
249	0xbe2cb6d9	-0.16866626
250	0xbdfbc810	-0.12294018
251	0xbe62b470	-0.22139144
252	0x3e6b65d1	0.22988059
253	0x3e6e3c65	0.23265226
254	0x3e1a6d81	0.15080835
255	0x3e28ea39	0.16495599

net.layer2.0.bias f4 [64]
0	0x3ad4c54f	0.0016233119
1	0xbcea7703	-0.028621202
2	0x3d2575a0	0.04039538
3	0x3c97b69b	0.01851969
4	0xbc384796	-0.011247536
5	0xbcaf2f84	-0.021384962
6	0x3c1e76ec	0.009671908
7	0x3a196b08	0.0005852436
8	0xbc402ecf	-0.01172991
9	0xbcae55f7	-0.021281226
10	0xbc28ce7d	-0.010303137
11	0xbbcc1cff	-0.0062290425
12	0xbc93c024	-0.018035956
13	0x3c95e23f	0.01829636
14	0xbcee8f82	-0.029121164
15	0x3d028905	0.031868953
16	0x3c50d55e	0.012746183
17	0x3d145ea1	0.036223058
18	0x3bbc9506	0.0057550697
19	0x3d09795b	0.033563
20	0xbc1715a4	-0.009221468
21	0x3cec269b	0.028827002
22	0x3cb176e2	0.021663133
23	0x395241ce	0.00020051675
24	0xbb131dae	-0.002244811
25	0x3ba5d8f7	0.0050612646
26	0xbcbed529	-0.023295002
27	0xbc80f5a8	-0.015742138
28	0x3cc7823a	0.024354089
29	0xbd0ef7bc	-0.034904227
30	0x3d06a1a9	0.032869015
31	0xbcecf7c9	-0.028926747
32	0x3cd612cf	0.026132016
33	0xbc72ae76	-0.014812103
34	0xbcabfd4e	-0.020994809
35	0x3d05ad2a	0.032635845
36	0xbcbca3fe	-0.023027416
37	0x3c97f6a3	0.018550223
38	0xbce40b10	-0.027837306
39	0xbb51591b	-0.003194398
40	0xbd28faa1	-0.041254643
41	0x3cac4abe	0.021031734
42	0xbcd2bf42	-0.025725964
43	0xbd01a2fc	-0.031649575
44	0x3935058c	0.00017263571
45	0x3c3b5f92	0.01143636
46	0xbcfb9bda	-0.030713964
47	0x3ce5bf49	0.028045313
48	0xbb2bae3f	-0.0026196388
49	0xbb924eb6	-0.0044649495
50	0xbb7e774d	-0.0038828433
51	0xbc08cd4c	-0.008349728
52	0xbbd213e1	-0.006411061
53	0x3b2da4e5	0.002649599
54	0xbcad3d2b	-0.021147331
55	0x3ce8e419	0.028429078
56	0xbc2e3823	-0.010633501
57	0x3d2e22f5	0.042513806
58	0x3d2073a3	0.03917278
59	0xbc90312d	-0.017601574
60	0xbd26c8f8	-0.040719002
61	0xbb8f85bd	-0.0043799565
62	0x3cab771f	0.020930825
63	0x3d18c2cb	0.037295144

net.layer2.1.weight f4 [64]
0	0x3f5af3f6	0.85528505
1	0x3f412b5e	0.754568
2	0x3f6ac25a	0.91702807
3	0x3f6b208c	0.9184654
4	0x3f56412f	0.8369321
5	0x3f61b2b3	0.881633
6	0x3f8de446	1.1085289
7	0x3f591d17	0.8481001
8	0x3f6a4438	0.91510344
9	0x3f9ced29	1.2259876
10	0x3fa01f9a	1.2509644
11	0x3f8b93a1	1.0904428
12	0x3f8b5137	1.088416
13	0x3f5486d8	0.83018255
14	0x3f8e6c7c	1.1126857
15	0x3f90155f	1.1256522
16	0x3f8558fb	1.041778
17	0x3f7a851f	0.97859377
18	0x3f5bdbec	0.8588245
19	0x3f9de922	1.2336771
20	0x3f5da9a8	0.86587
21	0x3f920548	1.1407862
22	0x3f80e476	1.0069721
23	0x3fa9147b	1.3209375
24	0x3f8e9386	1.113877
25	0x3f4814d8	0.78156805
26	0x3f59ee70	0.8512945
27	0x3f864e0c	1.0492568
28	0x3f874f52	1.0571082
29	0x3f620275	0.88285
30	0x3f796a7c	0.9742811
31	0x3f67e0ed	0.90577585
32	0x3f5b7a4d	0.8573349
33	0x3f58e366	0.8472198
34	0x3f7ab457	0.97931427
35	0x3f646826	0.8922142
36	0x3f5ac544	0.85457253
37	0x3f7343e2	0.95025456
38	0x3f7bd396	0.9836973
39	0x3f6999bc	0.91250205
40	0x3f5467c4	0.82970834
41	0x3f49095a	0.78529894
42	0x3f84fa40	1.038887
43	0x3f52bd72	0.8232032
44	0x3f76a0d4	0.96339154
45	0x3f789b50	0.9711199
46	0x3f8bf85d	1.093517
47	0x3f84a636	1.0363224
48	0x3f7fe091	0.99952036
49	0x3f9a43bf	1.2051924
50	0x3f496868	0.78674936
51	0x3f8f774a	1.1208279
52	0x3f8865b0	1.0656033
53	0x3f46465d	0.77451116
54	0x3f8d0b4f	1.1019076
55	0x3f47b402	0.78009045
56	0x3f6f759c	0.9353883
57	0x3f534e54	0.82541394
58	0x3f3886d8	0.72080755
59	0x3f7324d2	0.9497806
60	0x3f83743f	1.026985
61	0x3f3b0010	0.7304697
62	0x3f4045b4	0.7510636
63	0x3f3f1b04	0.746506

net.layer2.1.bias f4 [64]
0	0xbee268a7	-0.44220468
1	0xbe9afc84	-0.3027078
2	0xbeead976	-0.45869035
3	0xbe72ed71	-0.23723389
4	0xbeb2021a	-0.34767228
5	0xbe672cc4	-0.2257567
6	0xbe73ea52	-0.23819855
7	0xbf23545b	-0.6380059
8	0xbebaf788	-0.36516976
9	0xbf227399	-0.6345764
10	0xbf1445c3	-0.5791895
11	0xbea8a758	-0.32940173
12	0xbefe642e	-0.49685806
13	0xbebfa1f2	-0.37428242
14	0xbf34682e	-0.70471466
15	0xbf0426ed	-0.51621896
16	0xbf0f5977	-0.5599589
17	0xbeb506f8	-0.3535688
18	0xbea247ef	-0.31695506
19	0xbf10a0f8	-0.5649562
20	0xbeda0efe	-0.42589563
21	0xbf1e6506	-0.618729
22	0xbecdd72a	-0.4020322
23	0xbeb5e46a	-0.3552583
24	0xbeab4f4d	-0.3345894
25	0xbee25935	-0.44208685
26	0xbedffd43	-0.4374791
27	0xbb650a26	-0.0034948676
28	0xbf14cee0	-0.58128166
29	0xbec9c206	-0.3940584
30	0xbf001f15	-0.5004743
31	0xbe61ba21	-0.22043659
32	0xbd87e4cd	-0.06635437
33	0xbec67c7b	-0.38766846
34	0xbee6996d	-0.4503893
35	0xbe3c2543	-0.18373589
36	0xbef1a5db	-0.4719685
37	0xbecc640f	-0.3992009
38	0xbf13375c	-0.57506347
39	0xbf17e8c0	-0.59339523
40	0xbe95cadf	-0.2925634
41	0xbed076c3	-0.40715608
42	0xbecea6f8	-0.40361762
43	0xbea2291f	-0.31671998
44	0xbf025347	-0.5090832
45	0xbeea4bcc	-0.45760953
46	0xbf17f641	-0.5936013
47	0xbef1e665	-0.4724609
48	0xbefefca1	-0.49802116
49	0xbf1ccfc0	-0.612545
50	0xbe9d75c5	-0.30753914
51	0xbef29964	-0.47382653
52	0xbf271843	-0.65271395
53	0xbec5b40d	-0.3861393
54	0xbe5ac3b6	-0.2136372
55	0xbf150455	-0.58209735
56	0xbf07bed0	-0.5302553
57	0xbeb7fabb	-0.3593348
58	0xbe921af5	-0.28536192
59	0xbee35705	-0.44402328
60	0xbec312ea	-0.38100368
61	0xbeae55fe	-0.34049982
62	0xbef257d1	-0.47332624
63	0xbeaa3639	-0.33244494

net.layer2.1.running_mean f4 [64]
0	0x00000000	0.0
1	0x00000000	0.0
2	0x00000000	0.0
3	0x00000000	0.0
4	0x00000000	0.0
5	0x00000000	0.0
6	0x00000000	0.0
7	0x00000000	0.0
8	0x00000000	0.0
9	0x00000000	0.0
10	0x00000000	0.0
11	0x00000000	0.0
12	0x00000000	0.0
13	0x00000000	0.0
14	0x00000000	0.0
15	0x00000000	0.0
16	0x00000000	0.0
17	0x00000000	0.0
18	0x00000000	0.0
19	0x00000000	0.0
20	0x00000000	0.0
21	0x00000000	0.0
22	0x00000000	0.0
23	0x00000000	0.0
24	0x00000000	0.0
25	0x00000000	0.0
26	0x00000000	0.0
27	0x00000000	0.0
28	0x00000000	0.0
29	0x00000000	0.0
30	0x00000000	0.0
31	0x00000000	0.0
32	0x00000000	0.0
33	0x00000000	0.0
34	0x00000000	0.0
35	0x00000000	0.0
36	0x00000000	0.0
37	0x00000000	0.0
38	0x00000000	0.0
39	0x00000000	0.0
40	0x00000000	0.0
41	0x00000000	0.0
42	0x00000000	0.0
43	0x00000000	0.0
44	0x00000000	0.0
45	0x00000000	0.0
46	0x00000000	0.0
47	0x00000000	0.0
48	0x00000000	0.0
49	0x00000000	0.0
50	0x00000000	0.0
51	0x00000000	0.0
52	0x00000000	0.0
53	0x00000000	0.0
54	0x00000000	0.0
55	0x00000000	0.0
56	0x00000000	0.0
57	0x00000000	0.0
58	0x00000000	0.0
59	0x00000000	0.0
60	0x00000000	0.0
61	0x00000000	0.0
62	0x00000000	0.0
63	0x00000000	0.0

net.layer2.1.running_var f4 [64]
0	0x3f800000	1.0
1	0x3f800000	1.0
2	0x3f800000	1.0
3	0x3f800000	1.0
4	0x3f800000	1.0
5	0x3f800000	1.0
6	0x3f800000	1.0
7	0x3f800000	1.0
8	0x3f800000	1.0
9	0x3f800000	1.0
10	0x3f800000	1.0
11	0x3f800000	1.0
12	0x3f800000	1.0
13	0x3f800000	1.0
14	0x3f800000	1.0
15	0x3f800000	1.0
16	0x3f800000	1.0
17	0x3f800000	1.0
18	0x3f800000	1.0
19	0x3f800000	1.0
20	0x3f800000	1.0
21	0x3f800000	1.0
22	0x3f800000	1.0
23	0x3f800000	1.0
24	0x3f800000	1.0
25	0x3f800000	1.0
26	0x3f800000	1.0
27	0x3f800000	1.0
28	0x3f800000	1.0
29	0x3f800000	1.0
30	0x3f800000	1.0
31	0x3f800000	1.0
32	0x3f800000	1.0
33	0x3f800000	1.0
34	0x3f800000	1.0
35	0x3f800000	1.0
36	0x3f800000	1.0
37	0x3f800000	1.0
38	0x3f800000	1.0
39	0x3f800000	1.0
40	0x3f800000	1.0
41	0x3f800000	1.0
42	0x3f800000	1.0
43	0x3f800000	1.0
44	0x3f800000	1.0
45	0x3f800000	1.0
46	0x3f800000	1.0
47	0x3f800000	1.0
48	0x3f800000	1.0
49	0x3f800000	1.0
50	0x3f800000	1.0
51	0x3f800000	1.0
52	0x3f800000	1.0
53	0x3f800000	1.0
54	0x3f800000	1.0
55	0x3f800000	1.0
56	0x3f800000	1.0
57	0x3f800000	1.0
58	0x3f800000	1.0
59	0x3f800000	1.0
60	0x3f800000	1.0
61	0x3f800000	1.0
62	0x3f800000	1.0
63	0x3f800000	1.0

net.layer3.0.weight f4 [64, 64, 3, 3]
0	0x3b1d0518	0.0023959335
1	0xbdcc875d	-0.09986756
2	0xbe730fe2	-0.23736528
3	0xbda98c52	-0.08278717
4	0xbdfbfaed	-0.1230372
5	0xbe4fa240	-0.20276737
6	0x3de63115	0.112398304
7	0x3c7c63de	0.01540467
8	0xbcda83c6	-0.026674163
9	0x3ce057f7	0.027385695
10	0x3db1202f	0.08648717
11	0x3e231830	0.15927196
12	0xbe81c9de	-0.25349325
13	0xbe699102	-0.22809222
14	0xbe27f9b5	-0.1640385
15	0xbd257c73	-0.040401887
16	0xbe5b98cb	-0.21445005
17	0xbda4f76a	-0.08055003
18	0x3c87f803	0.016597753
19	0xbcf18d69	-0.029486375
20	0xbd514437	-0.051090445
21	0xbe4d8b7d	-0.20072742
22	0xbe012578	-0.1261195
23	0xbe589a27	-0.21152554
24	0xbe3a5dea	-0.18199888
25	0xbe7c25d0	-0.246238
26	0xbd76ca7f	-0.06025171
27	0x3d986e94	0.07442966
28	0x3db96fd7	0.09054535
29	0x3d00a08f	0.03140312
30	0x3db0806e	0.08618246
31	0xbd927d96	-0.0715286
32	0xbe56074d	-0.20901223
33	0xbe1637c2	-0.14669707
34	0xbd54c014	-0.051940992
35	0xbdc9e004	-0.09857181
36	0xbe1e8b77	-0.15482889
37	0xbcac3e30	-0.021025747
38	0xbe3035b4	-0.17207986
39	0x3d2bb758	0.041922897
40	0xbe45cce6	-0.19316444
41	0xbedab1cb	-0.4271377
42	0x3c76e177	0.015068403
43	0xbe0b1abf	-0.13584422
44	0xbea7aa98	-0.3274734
45	0xbdf0bd0e	-0.11754809
46	0xbd75c582	-0.06000281
47	0x3dc91f49	0.0982042
48	0xbe60b49b	-0.21943896
49	0xbdcd53a2	-0.10025717
50	0xbde522b7	-0.11188262
51	0xbc969b83	-0.0183847
52	0xbd9481c0	-0.0725131
53	0xbe78b217	-0.24286686
54	0x3d9a9e62	0.075497404
55	0xbce2691c	-0.02763801
56	0xbd9afe41	-0.07568026
57	0xbb822d99	-0.003972721
58	0x3bb21e2b	0.005435725
59	0xbd988798	-0.074477375
60	0x3e4149ef	0.1887586
61	0x3cd34ecb	0.025794407
62	0x3de86da3	0.113490365
63	0xbdbdc4e3	-0.09266069
64	0xbdcc61f7	-0.09979623
65	0xbe11c555	-0.14235432
66	0xbe501be8	-0.20323145
67	0xbe879fe7	-0.26489183
68	0xbe54f4d0	-0.20796514
69	0xbe334bf1	-0.17509438
70	0xbe609dfd	-0.21935268
71	0xbdee3edf	-0.116330855
72	0x3defbabb	0.11705538
73	0xbe010d80	-0.12602806
74	0xbd160cdb	-0.036633354
75	0x3daa95b1	0.083293326
76	0xbd0bb207	-0.034105327
77	0xbd184817	-0.037178125
78	0x3dc904db	0.09815379
79	0x3e1ff0f9	0.15619268
80	0x3d138a52	0.036020584
81	0xbe59e2aa	-0.21277872
82	0x3d1224ee	0.03567975
83	0x3cd88c43	0.02643407
84	0xbd8535a0	-0.06504369
85	0xbd430458	-0.047611564
86	0x3de89d02	0.11358072
87	0x3e37ccd9	0.17949237
88	0x3e1324af	0.14369462
89	0x3e31f5fa	0.17378989
90	0xbe4fa174	-0.20276433
91	0xba25f9fa	-0.00063315
92	0x3dc55b5c	0.09636566
93	0x3e3598b3	0.17734031
94	0xbdc21893	-0.094773434
95	0x3d8197cb	0.0632778
96	0x3dae46a4	0.085095674
97	0x3e44b7d9	0.19210757
98	0x3d064db2	0.03278894
99	0xbd46b4c7	-0.048512246
100	0x3d00fd5b	0.03149162
101	0xbd95f0dd	-0.07321332
102	0x3d86f2dd	0.06589291
103	0xbdb57d9f	-0.08861851
104	0xbe3baaa4	-0.18326813
105	0xbcb566cd	-0.022143746
106	0x3ddaa2f9	0.10675616
107	0xbe5d4391	-0.21607806
108	0xbe1cfd91	-0.15331103
109	0xbea13a1c	-0.31489646
110	0xbe998518	-0.29984355
111	0xbde366b9	-0.11103577
112	0x3bb2ed1e	0.0054603955
113	0xbe4b2774	-0.19839269
114	0xb94399b6	-0.00018653911
115	0x3e86dbb9	0.2633951
116	0x3cfd7757	0.030940695
117	0xbe1c1ca5	-0.15245302
118	0xbd30a41a	-0.04312525
119	0xbe050696	-0.12990794
120	0xbdad26b1	-0.084546454
121	0xbc6f7871	-0.014616118
122	0xbd284ff1	-0.041091863
123	0xbe0ef464	-0.13960415
124	0xbc326d8d	-0.010890377
125	0xbe7c4b3c	-0.24638075
126	0x3e154205	0.14575966
127	0xbdf44f0a	-0.11929138
128	0xbe066665	-0.13124998
129	0x3de1900a	0.110138014
130	0xbccbad15	-0.024862805
131	0xbd4d4af2	-0.0501203
132	0x3dc05020	0.09390283
133	0x3d0eea6f	0.034891542
134	0xbbfc2e5a	-0.007695955
135	0xbd8b435d	-0.06799958
136	0xbce7905f	-0.028267084
137	0xbe81ff38	-0.2539003
138	0xbd4d40fc	-0.050110802
139	0xbdd8b129	-0.105806656
140	0xbe61b3b1	-0.22041203
141	0xbe3c3a22	-0.18381551
142	0xbd9efdcc	-0.07763252
143	0xbe07b963	-0.13254313
144	0xbe91be77	-0.28465626
145	0xbe4d3df0	-0.20043159
146	0xbe42a834	-0.19009477
147	0xbe485f2c	-0.19567555
148	0xbe3676d4	-0.17818767
149	0xbe432a39	-0.19059075
150	0xbdbc3375	-0.09189502
151	0xbe69f39f	-0.2284684
152	0xbe83cd47	-0.25742552
153	0x3e0b65f6	0.13613114
154	0x3e823363	0.2542983
155	0xbc232b17	-0.009959004
156	0x3de28efb	0.110624276
157	0x3dd7209a	0.10504265
158	0x3b86034f	0.00408975
159	0xbe396888	-0.18106282
160	0x3d5915da	0.052999355
161	0xbe313ebb	-0.17309086
162	0x3d3b91f7	0.0457935
163	0x3c135f6c	0.008994918
164	0xbd877bb5	-0.06615392
165	0xbd79d96f	-0.060998376
166	0xbdc738e9	-0.097276516
167	0x3d9b084d	0.075699426
168	0x3db74a26	0.089496896
169	0x3e46505a	0.19366589
170	0x3e903601	0.28166202
171	0xbc7a037a	-0.015259618
172	0xbd63827f	-0.055544373
173	0xbb130459	-0.0022433011
174	0x3e24bec6	0.160884
175	0xbe399fa1	-0.181273
176	0xbc0ef32c	-0.008724969
177	0x3e99a2fd	0.30007163
178	0xbddc60c4	-0.10760644
179	0x3b064b26	0.002049157
180	0xbd930408	-0.07178503
181	0xbd513f50	-0.05108577
182	0xbddf80ba	-0.109132245
183	0xbeba5f18	-0.36400676
184	0xbe75b333	-0.2399414
185	0xbdca27a6	-0.098708436
186	0xbf200781	-0.6251145
187	0xbed23c50	-0.4106164
188	0xbeac8e67	-0.33702394
189	0x3e74cc85	0.23906143
190	0x3dd9cee5	0.10635165
191	0x3e823768	0.25432897
192	0x3e93dad3	0.28877887
193	0x3d325f36	0.04354783
194	0x3de24008	0.11047369
195	0x3e44f97d	0.19235797
196	0x3d66661f	0.056249734
197	0xbda999c9	-0.08281285
198	0x3c9ecf97	0.019386096
199	0xbd7369e7	-0.05942717
200	0xbd77c379	-0.06048915
201	0xbdf16d89	-0.1178847
202	0xbbb74e67	-0.005594063
203	0xbdc60ec6	-0.096707866
204	0xbd309bb3	-0.043117236
205	0xbe0738b7	-0.13205229
206	0xbe155874	-0.14584523
207	0xbdea9b97	-0.11455458
208	0xbe881ec4	-0.26585972
209	0x3e8420f6	0.25806397
210	0xbd904576	-0.070444986
211	0xbe07eef6	-0.1327475
212	0x3decfdcc	0.115718454
213	0x3e368008	0.17822278
214	0x3da344cd	0.07972107
215	0x3eac7684	0.3368417
216	0xbe13035d	-0.14356752
217	0xbe165e2f	-0.14684366
218	0x3e666af0	0.22501731
219	0xbddc48b7	-0.10756057
220	0x3d74488c	0.0596395
221	0x3e345993	0.17612295
222	0x3dc91159	0.09817762
223	0x3dec53ba	0.11539407
224	0x3e0640d2	0.13110664
225	0xbd5bfe38	-0.05370924
226	0xbcc1b9ba	-0.023648132
227	0x3de2c4ae	0.1107267
228	0xbe27ac73	-0.16374378
229	0xbdf6e82e	-0.120560035
230	0xbe5eb6a1	-0.21749355
231	0xbc8915f4	-0.0167341
232	0xbd586d35	-0.052838523
233	0xbdffcd30	-0.12490308
234	0x3e554565	0.20827253
235	0x3e4c6c4f	0.19963191
236	0x3d84989c	0.064744204
237	0x3d18e963	0.03733195
238	0x3e234b97	0.15946804
239	0xbccf7eff	-0.025329111
240	0x3d4b80b2	0.04968328
241	0xbca210d3	-0.019783413
242	0xbe12ce82	-0.14336589
243	0x3de887c4	0.1135402
244	0xbd95f5da	-0.07322283
245	0xbd5f9a60	-0.054590583
246	0x3e4a5b1d	0.1976132
247	0xbd814f1b	-0.06313916
248	0xbe9e7c4b	-0.30954203
249	0x3e3afba9	0.18260063
250	0x3cc372c1	0.02385843
251	0x3d57ad2f	0.052655395
252	0x3b76efa5	0.003767946
253	0x3e008c76	0.12553582
254	0xbdaa4018	-0.08313006
255	0xbd0af50b	-0.033925097

net.layer3.0.bias f4 [64]
0	0x3bbebfbe	0.0058211973
1	0xbc429ecf	-0.011878683
2	0xbc80c99f	-0.01572114
3	0xbd07a0df	-0.033112403
4	0xbd35a525	-0.044346947
5	0xbd163e7d	-0.036680687
6	0x3d22f091	0.039780203
7	0x3c471fb0	0.012153551
8	0xbd0022c9	-0.031283174
9	0xbc56f94b	-0.0131209595
10	0xbcb733d3	-0.022363579
11	0x3ca6701f	0.020317135
12	0xbcb64a65	-0.022252271
13	0xbc99b826	-0.018764567
14	0xbce5c971	-0.028050156
15	0x3d1cf975	0.03832384
16	0xb8fc3bcf	-0.000120274366
17	0x3cc65347	0.024209632
18	0x3d046c7f	0.032330032
19	0xbcebbfd3	-0.028777992
20	0x3d0f74a7	0.035023358
21	0x3d1a6510	0.037694037
22	0x3ca0f390	0.01964739
23	0xbc45ae5d	-0.012065497
24	0xbb1c2b8b	-0.0023829665
25	0xbd04dad0	-0.03243524
26	0xbccecafa	-0.025243271
27	0x3cbd2385	0.023088226
28	0xbcf39618	-0.029734656
29	0x3c22ccb2	0.0099364985
30	0xbd210716	-0.0393134
31	0xbb811199	-0.0039388654
32	0xbc99407d	-0.018707508
33	0xbc409263	-0.011753651
34	0xba80c1ee	-0.000982342
35	0x3d19c9a0	0.0375458
36	0x3d154bef	0.03644937
37	0xbb600b5b	-0.0034186456
38	0x3c94c429	0.018159943
39	0xbcf85152	-0.030312214
40	0x3c1f8d2a	0.009738246
41	0x3c0ce834	0.008600283
42	0x3c911462	0.017709915
43	0x3d087c4c	0.033321664
44	0xbb552bfd	-0.003252744
45	0x3d1ab9d5	0.03777488
46	0xbccaf142	-0.024773244
47	0x3c28adb2	0.010295318
48	0xbc20ef78	-0.009822719
49	0x3d203a8e	0.039118342
50	0x3c76ec2f	0.015070959
51	0x3d1bbdfe	0.038022988
52	0xbd18a2ca	-0.037264623
53	0x3d01453a	0.03156016
54	0x3cf3405a	0.029693771
55	0xbc0c26f9	-0.008554214
56	0x3bf8afa3	0.007589297
57	0x3cec8482	0.028871778
58	0xbd17b09b	-0.03703366
59	0xbcaea615	-0.021319428
60	0x3c3c9476	0.011510005
61	0x3c89a7c7	0.016803635
62	0xbc8484fb	-0.016176691
63	0xbd00af80	-0.03141737

net.layer3.1.weight f4 [64]
0	0x3f5ed708	0.8704686
1	0x3f85550b	1.0416578
2	0x3f54fe3a	0.8320042
3	0x3f52e43c	0.8237951
4	0x3f96b1d2	1.1773016
5	0x3f437e4e	0.763646
6	0x3f38e234	0.7222016
7	0x3f61d369	0.8821321
8	0x3f51c9df	0.81948656
9	0x3f54d0db	0.8313119
10	0x3f4285b4	0.75985265
11	0x3f51b1a6	0.81911695
12	0x3f3cd956	0.7376913
13	0x3f70a4b1	0.940013
14	0x3f584e78	0.84494734
15	0x3f48d387	0.78447765
16	0x3f6f27e9	0.93420273
17	0x3f8b786b	1.0896124
18	0x3f81f54a	1.0152981
19	0x3f85e4e0	1.0460472
20	0x3f5ddb72	0.8666297
21	0x3f71053c	0.9414861
22	0x3f6875f5	0.9080499
23	0x3f96e0a9	1.1787311
24	0x3f585c8b	0.8451621
25	0x3f59e656	0.8511709
26	0x3f421323	0.7581045
27	0x3f657d53	0.89644355
28	0x3f5daf71	0.8659583
29	0x3f706e5d	0.939184
30	0x3f57c8a3	0.8429052
31	0x3f82fb61	1.0232965
32	0x3f3f5d8b	0.7475211
33	0x3f5cbc0d	0.8622444
34	0x3f4be687	0.7964863
35	0x3f65962f	0.89682287
36	0x3f597971	0.8495093
37	0x3f596870	0.84924984
38	0x3f2ff108	0.6872716
39	0x3f577c86	0.8417438
40	0x3f4e1a13	0.80508536
41	0x3f7f2490	0.99665165
42	0x3f719eeb	0.94383115
43	0x3f8390f4	1.0278611
44	0x3f41cf07	0.75706524
45	0x3f6b5ee7	0.91941684
46	0x3f5684ad	0.837962
47	0x3f42ebc8	0.76141024
48	0x3f4eee9b	0.80832833
49	0x3f3b2465	0.7310241
50	0x3f747110	0.9548502
51	0x3f62154d	0.8831375
52	0x3f618035	0.88086253
53	0x3f4c90a5	0.7990821
54	0x3f71e220	0.94485664
55	0x3f8c1e7e	1.0946805
56	0x3f9287bf	1.1447676
57	0x3f63eaee	0.8903035
58	0x3f88543d	1.0650707
59	0x3f86d9bb	1.0535196
60	0x3f3fce07	0.7492375
61	0x3f4f1d2d	0.80903894
62	0x3f5dd186	0.8664783
63	0x3f4fdf14	0.81199765

net.layer3.1.bias f4 [64]
0	0xbeabb17a	-0.3353384
1	0xbf6d2252	-0.92630494
2	0xbf2a82a8	-0.66605616
3	0xbef009a0	-0.46882343
4	0xbf3bd6cf	-0.73374647
5	0xbf1981de	-0.59963787
6	0xbf08b7e4	-0.53405595
7	0xbf162e1e	-0.5866412
8	0xbf15a975	-0.58461696
9	0xbf024608	-0.5088811
10	0xbeed3dfa	-0.46336347
11	0xbeea9c0b	-0.45822176
12	0xbeab0238	-0.3340013
13	0xbf03204c	-0.51221156
14	0xbcc12c7e	-0.023580786
15	0xbf03c876	-0.51477754
16	0xbf1aad3d	-0.6042059
17	0xbef08c3a	-0.46981984
18	0xbf22bf46	-0.6357311
19	0xbf635f77	-0.8881754
20	0xbf30bb9c	-0.6903627
21	0xbf10a3d9	-0.5650001
22	0xbf16d63c	-0.58920646
23	0xbf4a576d	-0.7903965
24	0xbec545d8	-0.3852985
25	0xbe9c1318	-0.30483317
26	0xbeede52a	-0.464639
27	0xbf161e16	-0.5863966
28	0xbec85cf3	-0.39133415
29	0xbec02028	-0.37524533
30	0xbf0c47b4	-0.5479691
31	0xbeff9b25	-0.49923053
32	0xbf27a39f	-0.6548404
33	0xbf1d3553	-0.6140949
34	0xbf02900a	-0.51001036
35	0xbf2fd9f4	-0.68691945
36	0xbf0c57a5	-0.54821235
37	0xbf373c3a	-0.71576273
38	0xbee244e6	-0.4419319
39	0xbf1714a0	-0.59015846
40	0xbeec63b7	-0.46169826
41	0xbf381bfa	-0.7191769
42	0xbf126f0e	-0.57200706
43	0xbf178fdd	-0.5920389
44	0xbf26147c	-0.64875007
45	0xbf0f877a	-0.56066096
46	0xbf2c4e8a	-0.6730734
47	0xbf2eacdb	-0.68232507
48	0xbee4984b	-0.4464744
49	0xbe99197d	-0.2990226
50	0xbf129560	-0.5725918
51	0xbf3dec60	-0.74188805
52	0xbf09092c	-0.5352962
53	0xbf33fb25	-0.7030509
54	0xbf3507dc	-0.7071512
55	0xbf5226cb	-0.82090443
56	0xbf2bba22	-0.6708089
57	0xbee8cad2	-0.4546724
58	0xbf413603	-0.7547304
59	0xbf66481c	-0.8995378
60	0xbd64b9ef	-0.055841383
61	0xbf06d6ea	-0.5267168
62	0xbf21d3ff	-0.63214105
63	0xbf42dc31	-0.76117235

net.layer3.1.running_mean f4 [64]
0	0x00000000	0.0
1	0x00000000	0.0
2	0x00000000	0.0
3	0x00000000	0.0
4	0x00000000	0.0
5	0x00000000	0.0
6	0x00000000	0.0
7	0x00000000	0.0
8	0x00000000	0.0
9	0x00000000	0.0
10	0x00000000	0.0
11	0x00000000	0.0
12	0x00000000	0.0
13	0x00000000	0.0
14	0x00000000	0.0
15	0x00000000	0.0
16	0x00000000	0.0
17	0x00000000	0.0
18	0x00000000	0.0
19	0x00000000	0.0
20	0x00000000	0.0
21	0x00000000	0.0
22	0x00000000	0.0
23	0x00000000	0.0
24	0x00000000	0.0
25	0x00000000	0.0
26	0x00000000	0.0
27	0x00000000	0.0
28	0x00000000	0.0
29	0x00000000	0.0
30	0x00000000	0.0
31	0x00000000	0.0
32	0x00000000	0.0
33	0x00000000	0.0
34	0x00000000	0.0
35	0x00000000	0.0
36	0x00000000	0.0
37	0x00000000	0.0
38	0x00000000	0.0
39	0x00000000	0.0
40	0x00000000	0.0
41	0x00000000	0.0
42	0x00000000	0.0
43	0x00000000	0.0
44	0x00000000	0.0
45	0x00000000	0.0
46	0x00000000	0.0
47	0x00000000	0.0
48	0x00000000	0.0
49	0x00000000	0.0
50	0x00000000	0.0
51	0x00000000	0.0
52	0x00000000	0.0
53	0x00000000	0.0
54	0x00000000	0.0
55	0x00000000	0.0
56	0x00000000	0.0
57	0x00000000	0.0
58	0x00000000	0.0
59	0x00000000	0.0
60	0x00000000	0.0
61	0x00000000	0.0
62	0x00000000	0.0
63	0x00000000	0.0

net.layer3.1.running_var f4 [64]
0	0x3f800000	1.0
1	0x3f800000	1.0
2	0x3f800000	1.0
3	0x3f800000	1.0
4	0x3f800000	1.0
5	0x3f800000	1.0
6	0x3f800000	1.0
7	0x3f800000	1.0
8	0x3f800000	1.0
9	0x3f800000	1.0
10	0x3f800000	1.0
11	0x3f800000	1.0
12	0x3f800000	1.0
13	0x3f800000	1.0
14	0x3f800000	1.0
15	0x3f800000	1.0
16	0x3f800000	1.0
17	0x3f800000	1.0
18	0x3f800000	1.0
19	0x3f800000	1.0
20	0x3f800000	1.0
21	0x3f800000	1.0
22	0x3f800000	1.0
23	0x3f800000	1.0
24	0x3f800000	1.0
25	0x3f800000	1.0
26	0x3f800000	1.0
27	0x3f800000	1.0
28	0x3f800000	1.0
29	0x3f800000	1.0
30	0x3f800000	1.0
31	0x3f800000	1.0
32	0x3f800000	1.0
33	0x3f800000	1.0
34	0x3f800000	1.0
35	0x3f800000	1.0
36	0x3f800000	1.0
37	0x3f800000	1.0
38	0x3f800000	1.0
39	0x3f800000	1.0
40	0x3f800000	1.0
41	0x3f800000	1.0
42	0x3f800000	1.0
43	0x3f800000	1.0
44	0x3f800000	1.0
45	0x3f800000	1.0
46	0x3f800000	1.0
47	0x3f800000	1.0
48	0x3f800000	1.0
49	0x3f800000	1.0
50	0x3f800000	1.0
51	0x3f800000	1.0
52	0x3f800000	1.0
53	0x3f800000	1.0
54	0x3f800000	1.0
55	0x3f800000	1.0
56	0x3f800000	1.0
57	0x3f800000	1.0
58	0x3f800000	1.0
59	0x3f800000	1.0
60	0x3f800000	1.0
61	0x3f800000	1.0
62	0x3f800000	1.0
63	0x3f800000	1.0

net.layer4.0.weight f4 [64, 64, 3, 3]
0	0xbe09f411	-0.1347201
1	0xbddfec07	-0.109336905
2	0xbe25c2ef	-0.16187643
3	0xbe5e58b3	-0.21713524
4	0xbdbfcb4e	-0.09364949
5	0xbdddb8df	-0.10826277
6	0xbdf871db	-0.12131091
7	0xbd779e0f	-0.06045347
8	0xbaff1333	-0.0019460678
9	0x3ea3cb68	0.31991124
10	0x3eac895c	0.33698547
11	0x3e9b4a9e	0.30330366
12	0x3eab68dd	0.33478442
13	0x3ea90b64	0.33016503
14	0x3eb30e7c	0.34971988
15	0x3e5e7741	0.2172518
16	0x3e9d29fc	0.30696094
17	0x3e1a3190	0.15057969
18	0x3d7065cd	0.058690835
19	0x3e1d292d	0.15347739
20	0xbd0383b9	-0.032108042
21	0xbab5a9de	-0.0013859828
22	0x3e16655b	0.14687102
23	0x3d87982e	0.06620823
24	0x3db52aa3	0.08846023
25	0x3d9f8d73	0.07790651
26	0xbc018174	-0.007904399
27	0x3db81670	0.089886546
28	0x3d025bf5	0.03182598
29	0x3c89a935	0.016804317
30	0x3e1b289b	0.15152209
31	0x3d867d74	0.06566897
32	0x3e2af9a7	0.16696797
33	0x3db9fdaf	0.090815894
34	0x3dc61ef2	0.09673871
35	0x3d0ebbbe	0.034847014
36	0xbda4cc3e	-0.080467686
37	0xbd83c3ef	-0.06433856
38	0xbe01a3c7	-0.12660132
39	0xbc29fe4b	-0.01037557
40	0x3cc9afb0	0.024619907
41	0x3d0118e4	0.03151788
42	0x3c86b760	0.016444862
43	0x3c2e4d8c	0.010638606
44	0xbe3c96ea	-0.18416944
45	0xbe2a20c3	-0.1661406
46	0xbe1b1372	-0.15144137
47	0xbe181b0e	-0.1485407
48	0xbdfe01ad	-0.124026634
49	0xbe83e9bb	-0.2576426
50	0xbe31aaee	-0.17350361
51	0x3cf5feca	0.03002872
52	0xbd2d65ee	-0.042333536
53	0xbd1f31bb	-0.038865786
54	0xbddf083a	-0.10890241
55	0xbc52a82c	-0.012857478
56	0x3d990767	0.07472115
57	0xbdb117fe	-0.08647154
58	0xbd880f24	-0.06643513
59	0xbda18c5e	-0.07888101
60	0xbde92df1	-0.11385716
61	0xbdada566	-0.08478813
62	0xbdcbea07	-0.099567465
63	0x3d668bb2	0.056285568
64	0x3d58e9c8	0.052957326
65	0x3c8d0cc7	0.017218007
66	0x3e18d46f	0.14924787
67	0x3dfbf066	0.12301712
68	0x3d57a183	0.052644264
69	0x3e1db4af	0.15400957
70	0x3d4993c5	0.04921319
71	0x3cbe0283	0.023194557
72	0x3e7a0ce6	0.24418983
73	0x3e2d3969	0.16916431
74	0x3e4e39f5	0.20139296
75	0x3e2ca0c6	0.16858205
76	0x3dd40fee	0.10354601
77	0x3d65a1c4	0.056062475
78	0x3dceef06	0.10104184
79	0x3d8dd2f5	0.069250025
80	0x3de75c20	0.11296868
81	0x3da6331a	0.081152156
82	0x3c3edc28	0.011649169
83	0x3db646a6	0.08900194
84	0xbd464868	-0.048408896
85	0xbd0f1129	-0.034928475
86	0x3c0ef22e	0.008724732
87	0xbda7b2cb	-0.08188399
88	0xbdffc20f	-0.124881856
89	0xbdb41c65	-0.08794478
90	0xbd9b981b	-0.07597371
91	0xbe166ea7	-0.14690648
92	0xbdaff4b7	-0.085915975
93	0x3c6ce930	0.014459893
94	0xbdb8cfd0	-0.09024012
95	0xbd8b65ea	-0.06806548
96	0x3e2a65bc	0.16640371
97	0x3e1d2e37	0.15349661
98	0x3e219da5	0.15782793
99	0xbdc0a41f	-0.094063036
100	0xbca4f795	-0.020137588
101	0x3e331a38	0.1749047
102	0xbcba6b0d	-0.022756124
103	0xbd604230	-0.05475062
104	0x3df64c49	0.12026269
105	0xbb500716	-0.0031742505
106	0x3da75b49	0.08171708
107	0x3e880302	0.26564795
108	0x3e71f837	0.23629843
109	0x3dd18e78	0.10232252
110	0x3eaed542	0.34147078
111	0x3e0750e8	0.13214457
112	0x3c8430ce	0.016136553
113	0x3e08d5e6	0.13362846
114	0x3ea6627e	0.3249702
115	0x3d9bb440	0.07602739
116	0x3e070a13	0.13187437
117	0x3e9bf6a8	0.3046162
118	0x3e65425a	0.22388592
119	0x3e880f8e	0.26574367
120	0x3e80d114	0.25159514
121	0x3e647778	0.22311199
122	0x3e81184d	0.25213853
123	0x3e20c2bd	0.15699287
124	0x3e0875c5	0.13326176
125	0x3e1ee068	0.15515292
126	0x3b853074	0.004064614
127	0xbcf09eb6	-0.029372554
128	0xbda2e6ec	-0.07954201
129	0xbdca4657	-0.098766975
130	0xbd9449f8	-0.07240671
131	0xbd997e88	-0.07494837
132	0x3d1982c6	0.03747823
133	0xbc36be70	-0.011153802
134	0x3ddf0202	0.10889055
135	0xbac94936	-0.0015356902
136	0xbd97434c	-0.07385883
137	0xbb52a9ae	-0.0032144594
138	0xbe0bb27c	-0.13642305
139	0xbdcb843f	-0.09937333
140	0xbdd14a38	-0.10219234
141	0xbe415b61	-0.18882515
142	0xbe56b523	-0.20967536
143	0xbd5ec692	-0.05438859
144	0x3cff3037	0.03115092
145	0x3da85931	0.08220137
146	0x3d827878	0.06370634
147	0xbd221534	-0.039571002
148	0x3dc5c32e	0.09656368
149	0x3d155c5e	0.03646504
150	0xbe1a3f55	-0.15063222
151	0xbd172f8b	-0.036910575
152	0x3e24fd95	0.16112359
153	0xbeb53151	-0.35389188
154	0xbe0be664	-0.13662106
155	0xbcb5e46b	-0.022203645
156	0xbe96959c	-0.29411018
157	0xbe12d8d5	-0.14340527
158	0xbce5bc70	-0.028043956
159	0xbeab117e	-0.33411783
160	0xbe81973c	-0.25310695
161	0xbe3bab68	-0.18327105
162	0xbdc9848b	-0.09839734
163	0xbe0ab736	-0.13546452
164	0xbc9bc527	-0.019014908
165	0xbe49549c	-0.19661182
166	0xbe498ca4	-0.19682556
167	0x3c801f52	0.015639935
168	0xbe236d70	-0.15959716
169	0xbe8c96a4	-0.2745868
170	0xbe1e3581	-0.15450098
171	0xbea6ad24	-0.3255397
172	0xbe1d702b	-0.1537482
173	0xbe6e1de5	-0.23253591
174	0xbe35a862	-0.17740014
175	0xbdbda48e	-0.09259902
176	0xbe3f01c2	-0.18653014
177	0xbe24fb87	-0.16111575
178	0xbe443a85	-0.19162948
179	0xbe629bc0	-0.22129726
180	0x3d9e87f0	0.07740772
181	0xbd2c1c78	-0.042019337
182	0xbe5c0073	-0.21484546
183	0x3cc2f667	0.023799134
184	0x3cbef368	0.023309425
185	0xbce17514	-0.027521648
186	0x3d554295	0.05206545
187	0x3dd65abb	0.10466524
188	0xbd49a876	-0.049232922
189	0xbe088f84	-0.13335997
190	0xbe382b4b	-0.17985265
191	0xbe001945	-0.1250964
192	0xb7f6ac82	-2.9405815e-05
193	0x3d428c73	0.047497224
194	0xbe0d1b73	-0.13780002
195	0x3cbee2e7	0.023301555
196	0x39f4458e	0.0004659113
197	0x3ce8211e	0.028336104
198	0x3e68fa3a	0.22751704
199	0x3de610bc	0.112336606
200	0x3e0e8a56	0.13919958
201	0x3dce57d5	0.100753464
202	0x3d0b1bc5	0.03396203
203	0x3d70a3a3	0.058749806
204	0x3ea805ec	0.32817018
205	0x3d4c7e19	0.049924944
206	0x3e9cf86c	0.3065828
207	0xbe27863f	-0.16359805
208	0xbd86276c	-0.06550488
209	0xbe1843e6	-0.14869651
210	0xbe6fb118	-0.234074
211	0xbe397900	-0.18112564
212	0xbd772481	-0.060337547
213	0xbe6ea563	-0.23305278
214	0xbe600f56	-0.2188085
215	0x3caa2aaa	0.020772297
216	0xbcb52240	-0.022111058
217	0xbd135f88	-0.035979778
218	0xbcfa84a3	-0.030580824
219	0x3dbfc3fa	0.093635514
220	0x3d699089	0.057022605
221	0x3d9a4d41	0.07534266
222	0x3d3d8e26	0.04627814
223	0x3dc3fc0c	0.095695585
224	0x3e47e26a	0.19519964
225	0xbcf951ed	-0.030434573
226	0x3b467774	0.0030283602
227	0xbd86b77f	-0.06577968
228	0x3d2af5b3	0.041738223
229	0x3d178b39	0.036998007
230	0x3d840308	0.06445891
231	0xbd956bc3	-0.072959445
232	0xbdcf9480	-0.10135746
233	0x3af75d2a	0.001887237
234	0xbe18d08d	-0.14923306
235	0xbe784f08	-0.24248898
236	0xbe11fc47	-0.14256392
237	0xbdaefe5d	-0.0854461
238	0xbddc381f	-0.10752892
239	0x3d116fe2	0.03550709
240	0xbe5a56e3	-0.21322207
241	0xbe612d01	-0.21989824
242	0xbd02a500	-0.031895638
243	0x3d3f4731	0.046698753
244	0xbd29cdfd	-0.04145621
245	0xbb8ef5fe	-0.0043628206
246	0xbca7732f	-0.020440666
247	0x3c8c5e1a	0.017134715
248	0x3cf37cde	0.029722627
249	0x3e1568a5	0.145907
250	0x3d7cc8ea	0.061715044
251	0x3ea47865	0.32123104
252	0x3df89ebd	0.12139652
253	0x3d7e1140	0.06202817
254	0x3dea5e8c	0.11443815
255	0x3e22e0ac	0.15906018
