mp/maml_mini_5way_1shot_best_step5000_conv_first.pt (torch, 144200 bytes, 26 tensors)

net.layer1.0.weight f4 [32, 3, 3, 3]
000000 cc de 04 3d ac cf b4 bd 2f 4f 5b be a5 92 11 3e
       0.03243904 -0.08828673 -0.21416925 0.14216097
000010 8d cc 94 3d be e7 d8 bd 4d 54 4b 3e b0 10 d8 3d
       0.072655775 -0.10591076 0.19856377 0.10550058
000020 16 c7 b1 bd 66 7f 2e bd 88 60 bc bd 66 90 de bd
       -0.08680551 -0.042601965 -0.091980994 -0.108673856
000030 f3 d6 02 3e db dd 87 bd ad db 12 be b5 88 10 3e
       0.12777309 -0.066341124 -0.14341612 0.1411465
000040 32 c9 d6 3d bd b6 1c bc 2e b0 aa bc 71 06 cb bc
       0.10487594 -0.009565053 -0.020835962 -0.024783345
000050 7f df 3c bd bb 33 eb 3d 5d 80 73 3d d1 6d e1 bd
       -0.04611158 0.11484476 0.05944859 -0.11007274
000060 03 4e c9 bd f0 b5 8a 3d a3 27 b6 3d 48 5b 11 bd
       -0.09829333 0.06772983 0.08894279 -0.035487443
000070 d3 13 96 3d 8e bc 39 3e a6 1d 1c be cc 89 27 3e
       0.07328 0.18138334 -0.15245685 0.16361159
000080 0f 78 43 3d a2 0d b1 3d ee a1 d8 3d 10 ce 8f ba
       0.04772192 0.086451784 0.10577761 -0.0010971446
000090 c2 ae 64 be 92 fb 0b be 70 13 9c bd aa bd 1a bc
       -0.2233229 -0.13670185 -0.07620895 -0.0094446335
0000a0 31 b7 c7 bd ef 9c 2f bb 0b 22 7e bd 13 74 08 be
       -0.09751738 -0.002679642 -0.062044185 -0.13325529
0000b0 cc 25 5c bd b7 68 3b bd f0 68 d3 bd 1a d8 7a 3d
       -0.053746983 -0.04575416 -0.103227496 0.061241247
0000c0 1b 46 a1 bd 60 d3 f9 3d 74 38 29 3e 0f 85 24 3d
       -0.078747 0.1219852 0.16525441 0.040165957
0000d0 d9 59 fa 3d 73 28 29 3d b7 8c ac bd da 49 17 3d
       0.12224168 0.04129834 -0.08425277 0.036935665
0000e0 45 c9 16 3e 74 d8 1e bd 79 c0 00 3d 7d 06 86 bd
       0.14725216 -0.038780645 0.031433556 -0.06544206
0000f0 3c b5 3e 3d b2 e1 ed 3c fc f3 9d bd b9 53 6b be
       0.046559557 0.029038284 -0.07712552 -0.22981156
000100 be 74 32 be e4 9a 0b 3e 0c bd c5 3d 95 4a 30 bd
       -0.17427346 0.13633305 0.096551985 -0.043039877
000110 20 83 0d be 8b 16 1d 3e 35 27 0d 3e c4 c2 12 3c
       -0.13819551 0.1534063 0.13784488 0.008957569
000120 79 c5 91 bd 57 c2 ac bd d5 34 94 3e a1 6e 08 3e
       -0.07117743 -0.08435505 0.28946558 0.13323452
000130 60 c6 0e 3e f8 b0 9d bd d5 6f d4 bb e0 18 91 bd
       0.13942862 -0.0769977 -0.006483058 -0.07084823
000140 2e 4e 85 be 56 25 85 3d 92 5a 00 3e 23 ea f5 3d
       -0.2603621 0.06501262 0.1253455 0.12007549
000150 7b 27 32 3d 29 f7 78 3e 6e d6 5b 3e 51 d4 75 bd
       0.043494683 0.24313034 0.21468517 -0.060016934
000160 0b 22 90 3d 9b f6 9b 3c d7 bc 85 bd b2 fa bc 3d
       0.07037743 0.01903849 -0.06530159 0.09227504
000170 0c 82 13 3e 2b 00 e1 bd f3 72 15 3d 55 0d d2 3c
       0.14405078 -0.1098636 0.036486577 0.025641123
000180 66 75 ad 3d 2e 68 cd bc 45 77 ea bd 6a 23 a4 bd
       0.084696576 -0.02507409 -0.1144853 -0.08014567
000190 c2 04 2f 3e 54 08 97 bc 8d 02 be 3d 77 12 77 3d
       0.17091659 -0.018436588 0.0927783 0.060320344
0001a0 91 eb f3 3d 53 c1 d2 bd 9b 8a 47 be 9a 43 ad 3d
       0.11910165 -0.1029078 -0.19486468 0.084601596
0001b0 5a aa 10 3e c2 fa 7f 3d 26 e6 32 3d 66 51 14 3e
       0.14127484 0.062495 0.043676518 0.14484176
0001c0 9b 2c 33 3e e5 cf db 3c ad 5e d8 3d cc 27 e0 3c
       0.17497484 0.02683253 0.10564933 0.027362727
0001d0 5e 94 b2 bd 94 8c 7d 3d e5 df 78 bc de 68 cc 3c
       -0.08719705 0.061901644 -0.015190099 0.024952348
0001e0 ff e8 ee bd 9c aa cc bd c6 0d 28 be 55 69 99 bd
       -0.11665534 -0.09993479 -0.16411504 -0.074907936
0001f0 53 19 ab bd 70 7c 9b 3d 49 19 3c be b2 90 e8 bd
       -0.083544396 0.07592094 -0.1836902 -0.113557234
000200 7e d6 80 39 67 1c b5 bd 74 9a c7 3b ce 14 43 3d
       0.00024573872 -0.08843308 0.0060914103 0.047627263
000210 89 18 46 bd 5d 10 f9 3b 3e 04 c3 3d 34 e6 1f be
       -0.048363242 0.0076008276 0.095222935 -0.1561516
000220 4c dc 24 be e6 9d 35 be af 23 5f 3c 21 f4 d1 3d
       -0.16099662 -0.17736015 0.0136193475 0.10251642
000230 7a 20 2b 3d da b0 26 bd 67 13 a3 3c bc eb 29 bd
       0.04177902 -0.040696003 0.019906713 -0.04148458
000240 4c c5 2f 3e 93 e9 6a 3d b2 ab 67 bd c9 e0 24 3e
       0.17165107 0.05735166 -0.056560226 0.16101374
000250 b7 38 88 3d d6 84 3c 3e 76 6d 88 3d dc 3c 13 3e
       0.066514425 0.18410048 0.06661503 0.14378685
000260 2b c0 69 3d 3a a8 c3 3c 54 d4 1d 3e ac 6a 0d 3d
       0.05706803 0.023883928 0.15413028 0.03452556
000270 db bb a9 3d 16 cf fd 3d 79 16 a5 3c f7 97 f0 3c
       0.08287784 0.12393014 0.020152317 0.029369337
000280 ad 55 a9 bc a0 5d 17 3d 12 d3 06 3e 1c 2f f9 bd
       -0.020670736 0.036954522 0.13166454 -0.121671885
000290 3a 10 00 3d 3c 20 24 3c 9a c7 f6 3c 28 de fc bd
       0.031265475 0.010017451 0.030124474 -0.123470604
0002a0 b4 08 27 3e db cc 54 bd 4c 07 01 b9 7c 7c a0 3d
       0.16311914 -0.051953178 -0.00012305117 0.078362435
0002b0 02 c1 ce bd cb 20 2f 3e 36 49 19 be 2a 13 99 3d
       -0.10095407 0.17102353 -0.14969334 0.074743584
0002c0 97 26 00 be d5 f0 f0 bd 4a d2 1b be 35 ab 39 bd
       -0.12514721 -0.11764685 -0.15216938 -0.04532929
0002d0 84 65 9e 3d 9e ac d7 bd 0d d0 dd 3d 8b 14 27 bd
       0.07734206 -0.10530971 0.10830698 -0.040791076
0002e0 1d 72 b7 3d b9 55 eb 3d f8 15 17 3d 0b 37 f3 bd
       0.08957312 0.1149096 0.036886185 -0.11875733
0002f0 71 2c 8f 3d 9f 0d 6c 3d 1a 84 de 3c d6 6e 2b be
       0.069908984 0.057630178 0.0271626 -0.167415
000300 bb 41 e8 bd 90 ca 47 bd 3b dc 66 3d bd 54 b0 bd
       -0.11340662 -0.048777163 0.056362372 -0.086099125
000310 fa 1a ed bd f0 37 ce 3d f0 33 55 3e 87 cc 8a bd
       -0.11577411 0.10069263 0.20820594 -0.06777292
000320 43 cf 00 be 92 ee 78 bd b1 bf e3 3d d9 ce fb 3d
       -0.12579064 -0.060774393 0.111205466 0.122953124
000330 c3 ae d0 bc e5 32 6b 3d 3f 3b 30 3e ae 50 60 3e
       -0.025473958 0.057421584 0.172101 0.21905777
000340 70 4f e1 bd 19 ab f6 bb cb ef 0d be a7 52 c7 b9
       -0.110014796 -0.0075277206 -0.13861005 -0.0003801782
000350 07 ac 8e 3a 55 4c 0e be 3c 4b 5b bd 41 c5 1d 3e
       0.0010885008 -0.13896306 -0.053538546 0.15407278
000360 3e 81 6b 3e e7 b0 fe bd df df 82 bd d3 14 a1 3e
       0.2299852 -0.12436085 -0.06390356 0.314612
000370 aa a3 68 bc c7 9f 7e bc 2e e2 64 bb 56 94 65 be
       -0.014199177 -0.015541024 -0.0034924853 -0.22419867
000380 bb b2 fa bd 30 e8 5c bd 6b d4 8d bb bc df ac 3d
       -0.122411214 -0.05393237 -0.0043283007 0.084411114
000390 f9 f6 90 3d bc 0f f1 bc 14 e7 30 3e 05 44 17 be
       0.07078356 -0.029426448 0.1727565 -0.14772041
0003a0 f5 74 d9 3c 22 3e 19 be b2 e5 de bd dc 92 a1 bd
       0.026545027 -0.14965108 -0.10883655 -0.07889339
0003b0 d3 5b 5e bd 9a d9 d8 bd 74 43 6d 3d eb 2a 80 3d
       -0.05428679 -0.10588379 0.057925656 0.06258186
0003c0 32 71 d4 3c c3 f1 6a 3d 6f 8f fb 3d a6 2a 5f 3e
       0.025932882 0.05735947 0.12283217 0.21793613
0003d0 4c e0 87 bc de d1 b8 bd 37 59 1d 3d 2d 1b e3 3d
       -0.016586445 -0.09024404 0.03841516 0.11089168
0003e0 a5 0c 9c bd fa b3 5e 3d 2e ae cd bd c0 aa cd bb
       -0.07619599 0.054370858 -0.10042988 -0.0062764585
0003f0 df f5 9f bd ec 4f 00 bc 20 90 f2 bd 0a 15 08 bd
       -0.07810568 -0.007831555 -0.11843896 -0.03322319

net.layer1.0.bias f4 [32]
000000 c7 5c 90 bd a9 2c 37 bd 4b b8 3d be 6d 93 cb 3c
       -0.07048946 -0.044720326 -0.18527333 0.024850572
000010 db 71 31 3e c1 91 42 be b8 ed f1 3d 0b 07 bd bd
       0.17328589 -0.19000913 0.118129194 -0.09229859
000020 f0 4d 97 bd 99 af 10 3e b7 d5 eb 3d 6c 0b 78 3d
       -0.07387912 0.14129485 0.11515372 0.060557768
000030 ec 53 44 3d 18 6b 05 bc 30 08 03 bd 46 f3 c9 3d
       0.047931597 -0.008143209 -0.03199023 0.09860854
000040 38 c4 e1 bc 9a 70 86 bd 15 60 00 be 28 ca b3 bc
       -0.027559385 -0.06564446 -0.12536652 -0.021946982
000050 2d 16 0a 3e ea 62 82 3d 80 a6 bf 3d 39 3c 56 be
       0.13485022 0.063665226 0.09357929 -0.2092141
000060 e7 88 2a 3e 4b 44 42 3e b5 c2 cc 3d 13 92 74 bd
       0.16653787 0.18971364 0.09998075 -0.05970962
000070 53 3e 12 be 40 2a 78 bd 12 65 cd bd e6 ac 3b be
       -0.14281587 -0.060587168 -0.10029043 -0.18327674

net.layer1.1.weight f4 [32]
000000 11 e2 4b 3f c4 1d 5e 3f d8 c8 86 3f 93 ca 62 3f
       0.79641825 0.8676417 1.0530043 0.88590354
000010 20 83 85 3f de d5 57 3f 11 d2 68 3f 6c 55 7a 3f
       1.0430641 0.8431071 0.90945536 0.97786593
000020 04 51 83 3f 14 a5 70 3f 13 62 7a 3f a5 46 7a 3f
       1.0259099 0.9400189 0.978059 0.97764045
000030 36 4b 8c 3f 21 6a 71 3f 1f c0 66 3f 7c f8 8c 3f
       1.0960453 0.94302565 0.90136904 1.1013331
000040 af ac 8e 3f c0 1d 90 3f 83 3d 89 3f 8b 0a 9b 3f
       1.1146449 1.1259079 1.0721897 1.2112592
000050 2b 1b 85 3f 7c 8d 5d 3f 12 c9 68 3f 9d b0 82 3f
       1.0398916 0.86544013 0.9093181 1.0210148
000060 00 28 85 3f c9 17 83 3f 47 97 79 3f ec af 48 3f
       1.0402832 1.0241634 0.97496456 0.78393435
000070 49 19 51 3f d4 00 8b 3f 29 bb 61 3f 18 db 7b 3f
       0.8167921 1.0859628 0.8817621 0.98381186

net.layer1.1.bias f4 [32]
000000 fc c9 e4 3c 6d b8 0c 3c 5d 80 0c bd 7e d3 c1 3d
       0.027928345 0.008588892 -0.034302104 0.09464167
000010 f8 d1 46 bd a2 b2 a8 bc 9a ac b8 bd dd 4f 00 3e
       -0.048540086 -0.020592991 -0.09017296 0.12530465
000020 07 32 3d bd a8 70 80 be 00 40 b5 bd 9f 38 36 be
       -0.046190288 -0.2508595 -0.08850098 -0.17795037
000030 5e 2d 53 3d fd 37 29 bc 36 70 e7 bd bf c3 11 3e
       0.051556937 -0.01032829 -0.113006994 0.14234827
000040 03 45 2e 3c 56 6d 89 3d 66 f8 8c 3d d8 2a ed 3d
       0.010636571 0.06710307 0.06883316 0.115804374
000050 65 3d 58 3c 6b 46 20 be 9e 23 ab bd 2b d2 17 3e
       0.013198231 -0.15651862 -0.08356403 0.14826266
000060 45 fb 12 be e6 2e ad 3d f0 e0 80 be 76 a6 55 be
       -0.14353664 0.08456211 -0.25171614 -0.20864281
000070 89 0e 56 be 57 e9 77 bd 59 b3 49 3d 02 39 82 bb
       -0.20903982 -0.060525265 0.049243305 -0.003974081

net.layer1.1.running_mean f4 [32]
000000 00 00 00 00 00 00 00 00 00 00 00 00 00 00 00 00
       0.0 0.0 0.0 0.0
000010 00 00 00 00 00 00 00 00 00 00 00 00 00 00 00 00
       0.0 0.0 0.0 0.0
000020 00 00 00 00 00 00 00 00 00 00 00 00 00 00 00 00
       0.0 0.0 0.0 0.0
000030 00 00 00 00 00 00 00 00 00 00 00 00 00 00 00 00
       0.0 0.0 0.0 0.0
000040 00 00 00 00 00 00 00 00 00 00 00 00 00 00 00 00
       0.0 0.0 0.0 0.0
000050 00 00 00 00 00 00 00 00 00 00 00 00 00 00 00 00
       0.0 0.0 0.0 0.0
000060 00 00 00 00 00 00 00 00 00 00 00 00 00 00 00 00
       0.0 0.0 0.0 0.0
000070 00 00 00 00 00 00 00 00 00 00 00 00 00 00 00 00
       0.0 0.0 0.0 0.0

net.layer1.1.running_var f4 [32]
000000 00 00 80 3f 00 00 80 3f 00 00 80 3f 00 00 80 3f
       1.0 1.0 1.0 1.0
000010 00 00 80 3f 00 00 80 3f 00 00 80 3f 00 00 80 3f
       1.0 1.0 1.0 1.0
000020 00 00 80 3f 00 00 80 3f 00 00 80 3f 00 00 80 3f
       1.0 1.0 1.0 1.0
000030 00 00 80 3f 00 00 80 3f 00 00 80 3f 00 00 80 3f
       1.0 1.0 1.0 1.0
000040 00 00 80 3f 00 00 80 3f 00 00 80 3f 00 00 80 3f
       1.0 1.0 1.0 1.0
000050 00 00 80 3f 00 00 80 3f 00 00 80 3f 00 00 80 3f
       1.0 1.0 1.0 1.0
000060 00 00 80 3f 00 00 80 3f 00 00 80 3f 00 00 80 3f
       1.0 1.0 1.0 1.0
000070 00 00 80 3f 00 00 80 3f 00 00 80 3f 00 00 80 3f
       1.0 1.0 1.0 1.0

net.layer2.0.weight f4 [32, 32, 3, 3]
000000 38 9d 69 3d 8e 5a 04 be 27 cf a9 bd ba a8 9b bd
       0.0570347 -0.12925169 -0.08291464 -0.076005414
000010 aa 60 fa 3b 4b 1c 4e bd 11 57 05 be 7f cf 0e be
       0.007640918 -0.05031995 -0.13021494 -0.13946341
000020 a0 66 d8 3c d5 c8 3f 3c 3a 6c 08 be c9 e7 7b bd
       0.026416123 0.011705597 -0.13322535 -0.061500344
000030 f6 3b 57 bd 94 bd 06 3d 78 b2 44 be 1f 16 25 be
       -0.052547418 0.03289564 -0.19208705 -0.1612172
000040 40 65 f5 bd cb 0a ec bd 2e 6f da 3d b1 6e 37 3e
       -0.119822025 -0.11525496 0.10665737 0.17913319
000050 9f d9 0b 3e 0a 78 9d 3c 92 75 fc 3d d2 8b 96 3d
       0.13657235 0.019222278 0.12327112 0.07350887
000060 c4 04 e7 3d 79 c4 43 3c 80 64 04 3d 5e 77 06 be
       0.11280206 0.011948698 0.032322407 -0.13131472
000070 18 cd 6b bd 5d 7f e6 bd e3 b8 1f 3c f2 38 fc bc
       -0.05756864 -0.11254761 0.00974867 -0.030788872
000080 88 c1 9b bd e6 ba 0e be eb 2c be bd 46 49 36 bd
       -0.076052725 -0.13938484 -0.09285911 -0.044503473
000090 f4 73 b7 bd c7 ef a6 bd ae 03 69 bd f1 20 3a bd
       -0.08957663 -0.08151203 -0.056888275 -0.04544157
0000a0 5a 20 1a be 00 16 7f bd ff 34 25 be d8 74 57 bd
       -0.15051404 -0.06227684 -0.16133498 -0.052601665
0000b0 22 d6 1c bd 6a 3b 5f 3d d8 80 0d be c0 da 06 be
       -0.03829015 0.05450002 -0.13818681 -0.13169384
0000c0 7e 94 11 be ce 60 e3 bc 01 5c 01 be fc 30 bd bd
       -0.14216802 -0.027756121 -0.12632753 -0.09237859
0000d0 bd dd 21 bd 6d e6 0a 3c a8 66 2e bd 07 a7 37 bd
       -0.039518107 0.008477789 -0.04257837 -0.044837024
0000e0 9c b8 a0 bd 7a fc e1 bd e0 27 be 3d 89 57 8f bd
       -0.078477114 -0.11034484 0.09284949 -0.06999118
0000f0 a9 b1 94 3c e0 31 da 3d 0b c6 9a 3d cb 8e 08 3e
       0.018151121 0.10654044 0.07557305 0.13335721
000100 14 ad f5 3c 45 59 68 3c 1d 85 d4 3d b3 ee 19 3e
       0.029989757 0.01418144 0.10376952 0.15032463
000110 a3 80 ac 3d 0c 0c 74 3b 9d 1c 29 3e d3 70 64 3d
       0.08422973 0.0037238626 0.16514821 0.05577166
000120 f2 4b 3e bd b3 3f b1 bd 61 bf 1b bd 88 47 49 bd
       -0.046459146 -0.08654728 -0.03802431 -0.049140483
000130 fb c0 5d bd cf 9e cb bc 1b 1e 2d 3d 86 aa 41 3d
       -0.05413912 -0.024856 0.04226504 0.047281764
000140 d4 bc 08 3d a7 de db bb ab ff 45 bd 0e 1e 56 3c
       0.033383206 -0.006709892 -0.048339527 0.013068689
000150 5c 1b 87 3d 51 37 15 3c 8f 93 fd 3d 94 bf dd bc
       0.06597015 0.009107427 0.1238166 -0.02706889
000160 70 1e d5 bd c1 5d 28 bd 8c 01 d5 3d 3c 16 e8 3d
       -0.10406196 -0.041105036 0.10400686 0.11332366
000170 56 73 da 3d 95 da cc 3d f5 01 ef bc f3 fc 9f 3b
       0.1066653 0.10002629 -0.029175738 0.004882449
000180 2a 70 1f 3e 9d 40 93 3c f9 09 35 bc 96 bb b5 bd
       0.15570131 0.017975146 -0.011049741 -0.0887367
000190 19 19 34 39 0f cf 25 3d ca 68 7a bc bf 48 92 3c
       0.00017175487 0.04048067 -0.015283773 0.017856954
0001a0 1d d0 d5 bc 7c 8a b2 3d e8 de 70 3d d7 b4 48 3d
       -0.026100213 0.0871782 0.05880633 0.049000587
0001b0 87 35 60 3c f2 49 12 bd 5d 3b 02 bd af 7d b9 bd
       0.013684637 -0.03571505 -0.031794894 -0.09057175
0001c0 09 df 9b bd 87 94 c1 bb a5 79 f4 bd dc 37 83 bd
       -0.076109 -0.0059075984 -0.11937264 -0.06407139
0001d0 4a 1f 06 3d ba b9 9d 3d 97 d9 c0 bd 1d 94 ed bd
       0.032744683 0.0770144 -0.09416502 -0.11600516
0001e0 53 0a 98 bb 21 74 be bd 7c c9 d1 3c 72 ff c7 3c
       -0.0046399026 -0.092994936 0.02560877 0.024413798
0001f0 bf 8d a8 bd 91 ae 0f 3d 61 3d d5 bd 40 f4 ba 3c
       -0.08230161 0.03507859 -0.10412098 0.022821546
000200 e4 7d c4 3b 28 1f 3e 3d ef c5 22 bd 30 22 e8 bd
       0.0059964526 0.04641643 -0.039739545 -0.11334646
000210 ea 63 0a be 5d 13 b4 bc ac 10 f7 bd 8c f2 6c bc
       -0.13514677 -0.02198189 -0.12063727 -0.014462125
000220 33 51 93 3c 47 86 82 bc 04 a1 15 3d fb 12 9a 3c
       0.017983055 -0.015933169 0.03653051 0.018807879
000230 0e a8 12 bd 8f 9b 01 be 1b eb 3a 3d 26 e4 46 3d
       -0.0358048 -0.12656997 0.04563437 0.048557423
000240 09 07 94 3d 8e d7 ce 3b 66 27 6b 3d a7 59 31 bd
       0.07227904 0.006312317 0.05741062 -0.04329839
000250 06 bd a8 bd 83 af 21 bd 8f 5d 21 bd 81 83 82 3d
       -0.08239178 -0.03947402 -0.039395865 0.06372739
000260 0d 39 f0 3c e3 a5 80 bd 22 27 fd bd b4 d5 18 bc
       0.029324079 -0.062816404 -0.123609796 -0.009328295
000270 9c cc f5 3d f2 b1 83 3d c9 2c 8c bd 48 fc a6 3d
       0.12001917 0.06430425 -0.068444796 0.081535876
000280 69 09 00 3d a7 e0 97 b9 9c 5b 4b bd 4a 0d 89 bd
       0.031258974 -0.00028968343 -0.049647912 -0.06691988
000290 aa f6 f1 bd 0f a5 2e 3d fe b3 02 bd 80 83 7c bd
       -0.118146256 0.04263788 -0.031909935 -0.061648846
0002a0 5e cd b5 bc c5 a8 1e bd d7 d7 18 bd 59 0c f1 bd
       -0.022192653 -0.03873517 -0.037315216 -0.11769933
0002b0 ab 06 8e 3c e1 7d 32 bd 33 dc eb bd b4 81 83 3d
       0.017337164 -0.04357708 -0.11516609 0.06421223
0002c0 f0 ee 24 be c2 37 bf bd f0 fa 1c bc 93 69 47 bd
       -0.16106772 -0.09336807 -0.009581313 -0.048684668
0002d0 db f3 c1 3d b6 1c f7 3d 2f a1 66 bd 09 ab a6 3d
       0.0947034 0.12066023 -0.05630606 0.08138091
0002e0 75 c3 cc 3c 45 9b 29 3d 2d db cb b9 a7 f4 00 3e
       0.024995545 0.041407842 -0.00038882476 0.12593327
0002f0 08 b9 a3 3d 05 20 1d be 60 26 ca bc d3 39 24 3d
       0.07994276 -0.15344246 -0.024676502 0.040094208
000300 7c 7d 1a bd ac 57 41 3d 32 32 17 be de b1 5e 3d
       -0.037717327 0.04720275 -0.14765242 0.054368846
000310 88 25 69 3d 0e 90 23 3d 42 d8 a6 bb f0 7b a4 3d
       0.05692056 0.039932303 -0.005091698 0.08031452
000320 75 b1 0e 3d ee a9 d0 bd 31 bd 49 3b 41 26 0c 3d
       0.034837205 -0.101886615 0.0030782933 0.03421617
000330 73 6c d0 3c 69 71 f5 3c 31 d6 9f bd 79 5a d5 3c
       0.025442338 0.029961305 -0.07804526 0.026044117
000340 88 a0 40 bc 1e 93 27 bd 5f f4 c4 3d 2d b9 76 3c
       -0.011757024 -0.040911786 0.096169226 0.015058798
000350 28 7d 7b 3c a0 f0 58 3d 62 ab fc 3c 84 b1 af bd
       0.015349664 0.052963853 0.03084344 -0.0857878
000360 9b a9 cd bc 61 5d fb bd 1b af 86 3c 5d fa 5f bd
       -0.025105288 -0.1227367 0.016440919 -0.054682124
000370 4c 2c 1e be 94 d5 1d 3d 34 2b 41 be d1 28 06 be
       -0.15446585 0.038533762 -0.18864137 -0.13101508
000380 be 20 83 bd 72 4f 87 3b 22 5f cd 3d d3 b9 b1 bd
       -0.064027295 0.0041293437 0.10027911 -0.08678021
000390 28 2c 15 3d 3a 9b 47 3d bb dd c6 3d cd be 3d bc
       0.036419064 0.04873202 0.097102605 -0.011581135
0003a0 37 91 04 3e 22 7f 99 3c 69 fd 14 bd 3b 03 e0 bd
       0.1294602 0.01873738 -0.036374483 -0.10938116
0003b0 73 67 cb bd 5c 37 27 be 4a f4 c1 bd f8 15 86 3c
       -0.09931841 -0.16329712 -0.094704226 0.016367897
0003c0 ac 5f 18 be 2c c3 d1 bd ba 8d 48 3d 9b e7 e3 bc
       -0.14880246 -0.10242304 0.048963286 -0.027820399
0003d0 41 d5 f2 3c 3e 6e 0d be 64 43 99 3d ae 0f 7a bd
       0.029642703 -0.13811585 0.07483557 -0.06105011
0003e0 ac 00 29 be 0a 1b 82 bd 4c 68 3b bd e2 71 b5 bd
       -0.16504163 -0.063528135 -0.045753762 -0.08859612
0003f0 d0 7c 82 bd 43 0e 18 be 63 34 22 be 47 6d 19 be
       -0.06371462 -0.1484919 -0.15840296 -0.14983092

net.layer2.0.bias f4 [32]
000000 1c ef f0 bc e0 58 16 bd c9 0b 13 bc 42 ba ad bc
       -0.029410891 -0.03670585 -0.008974978 -0.021206979
000010 0c 85 48 bd 05 fe 13 bd eb 28 47 bd 1f 50 0c bc
       -0.04895501 -0.036130924 -0.048623007 -0.008564024
000020 ad 4d 80 bb c4 1a 57 3d 28 63 3f 3d 59 a6 cb bc
       -0.0039155097 0.05251576 0.046725422 -0.024859594
000030 fd b5 b5 bc dc 2f 1c bd a9 23 35 3d 8f 61 53 3d
       -0.022181505 -0.03813158 0.04422346 0.05160671
000040 39 7e a0 3c e7 e8 9b bc 63 2e 49 3d bc ff b1 bc
       0.019591438 -0.019031955 0.049116503 -0.021728389
000050 4c 86 ab 3c 68 ab 6b 3d 57 a1 9e 3c 6e 7e ed bc
       0.020938061 0.057536513 0.019364042 -0.02899095
000060 b7 66 70 bd de d3 55 bd 68 4c 55 bd 11 98 e8 bc
       -0.058691707 -0.052204005 -0.05207482 -0.028392823
000070 a9 4c 95 bc 2d fd 9f bc c1 84 93 3c 83 b8 37 3d
       -0.018225031 -0.019529903 0.018007638 0.0448537

net.layer2.1.weight f4 [32]
000000 54 2e 55 3f 76 4e 7a 3f 1d 79 7a 3f 19 cd 77 3f
       0.83273816 0.9777597 0.97841054 0.9679733
000010 c3 88 86 3f 41 07 6a 3f de 47 6d 3f 9e a5 7b 3f
       1.0510486 0.9141732 0.92687786 0.98299587
000020 6f 34 88 3f b4 da 78 3f 07 fb 70 3f 59 33 78 3f
       1.0641001 0.97208714 0.9413304 0.9695335
000030 c7 ec 82 3f 48 e1 8c 3f ab f4 77 3f c1 ae 77 3f
       1.0228509 1.100625 0.9685771 0.9675103
000040 57 0a 89 3f fa ca 61 3f 7a b3 7d 3f b2 dd 89 3f
       1.070628 0.8820034 0.99101985 1.0770781
000050 7c 9c 77 3f d6 6f 73 3f 8e 27 7b 3f b0 ef 84 3f
       0.9672315 0.95092523 0.9810723 1.0385647
000060 5c 9b 88 3f 71 1b 7b 3f c6 29 81 3f 06 71 93 3f
       1.0672412 0.9808875 1.0090873 1.1518867
000070 b1 9c 76 3f 18 10 68 3f 26 fa 86 3f fa 38 74 3f
       0.9633284 0.9064956 1.0545089 0.9539944

net.layer2.1.bias f4 [32]
000000 e9 74 2b be 9d 9d a2 be 34 a6 1f 3d ab 80 08 bd
       -0.16743816 -0.31760874 0.038976863 -0.033325832
000010 7f d0 35 3d 13 4f 9f bd 62 02 62 bd e3 76 38 be
       0.04438829 -0.07778754 -0.055178054 -0.18014102
000020 ef 1f cb bd 1d d8 22 be 1a d0 23 be a0 84 b4 bd
       -0.099182 -0.15902753 -0.15997353 -0.08814359
000030 3d b4 2b be 13 c6 96 be e1 f7 03 be cb a4 8b 3d
       -0.16767974 -0.29447994 -0.12887527 0.06818541
000040 8b b2 47 be 4e 16 76 be f6 10 16 bd 34 28 73 bd
       -0.19501702 -0.24031946 -0.03663727 -0.059364513
000050 b8 45 2b 3c 46 69 80 ba a5 ad 0a be 3e 1a 31 be
       0.010453634 -0.0009796999 -0.13542803 -0.17295167
000060 c6 e3 61 be b8 4b 58 bd 4d ac ff bc 15 20 c8 be
       -0.22059545 -0.052806586 -0.03121009 -0.39086977
000070 2d 85 01 bd 1b 5d d1 bd 56 a3 26 be 0e e8 82 bd
       -0.031621147 -0.102228366 -0.16273245 -0.06391917

net.layer2.1.running_mean f4 [32]
000000 00 00 00 00 00 00 00 00 00 00 00 00 00 00 00 00
       0.0 0.0 0.0 0.0
000010 00 00 00 00 00 00 00 00 00 00 00 00 00 00 00 00
       0.0 0.0 0.0 0.0
000020 00 00 00 00 00 00 00 00 00 00 00 00 00 00 00 00
       0.0 0.0 0.0 0.0
000030 00 00 00 00 00 00 00 00 00 00 00 00 00 00 00 00
       0.0 0.0 0.0 0.0
000040 00 00 00 00 00 00 00 00 00 00 00 00 00 00 00 00
       0.0 0.0 0.0 0.0
000050 00 00 00 00 00 00 00 00 00 00 00 00 00 00 00 00
       0.0 0.0 0.0 0.0
000060 00 00 00 00 00 00 00 00 00 00 00 00 00 00 00 00
       0.0 0.0 0.0 0.0
000070 00 00 00 00 00 00 00 00 00 00 00 00 00 00 00 00
       0.0 0.0 0.0 0.0

net.layer2.1.running_var f4 [32]
000000 00 00 80 3f 00 00 80 3f 00 00 80 3f 00 00 80 3f
       1.0 1.0 1.0 1.0
000010 00 00 80 3f 00 00 80 3f 00 00 80 3f 00 00 80 3f
       1.0 1.0 1.0 1.0
000020 00 00 80 3f 00 00 80 3f 00 00 80 3f 00 00 80 3f
       1.0 1.0 1.0 1.0
000030 00 00 80 3f 00 00 80 3f 00 00 80 3f 00 00 80 3f
       1.0 1.0 1.0 1.0
000040 00 00 80 3f 00 00 80 3f 00 00 80 3f 00 00 80 3f
       1.0 1.0 1.0 1.0
000050 00 00 80 3f 00 00 80 3f 00 00 80 3f 00 00 80 3f
       1.0 1.0 1.0 1.0
000060 00 00 80 3f 00 00 80 3f 00 00 80 3f 00 00 80 3f
       1.0 1.0 1.0 1.0
000070 00 00 80 3f 00 00 80 3f 00 00 80 3f 00 00 80 3f
       1.0 1.0 1.0 1.0

net.layer3.0.weight f4 [32, 32, 3, 3]
000000 9a ea d7 bd 5e 68 14 bd 7b c0 75 bc 11 55 43 bd
       -0.105427936 -0.036232345 -0.014999504 -0.047688548
000010 8f 72 d7 bd 3c 8e 1d be 14 4f 0a bc 81 f6 40 3c
       -0.10519897 -0.1538629 -0.008441705 0.011777521
000020 c6 70 1c be 70 5e 14 be 15 79 a7 bd b0 0d 98 3d
       -0.15277395 -0.1448915 -0.081773914 0.07424486
000030 e5 28 8e bd 1c 8c b4 bd bf 52 b6 3d 4d af 2f bd
       -0.06941394 -0.08815786 0.08902501 -0.04289179
000040 73 2f a9 3c db db 7b bd 49 b6 79 3d ce 48 24 3c
       0.020652508 -0.061488967 0.060964856 0.010027124
000050 c7 aa dc 3d d6 db c3 3d 5d f1 ab 3d 4c 69 b8 3d
       0.10774761 0.09563415 0.08395646 0.09004459
000060 19 9b 0b 3d 06 51 56 3e 2e a7 d1 3c f1 d5 77 3d
       0.03408346 0.20929345 0.025592413 0.060506765
000070 7e 59 53 bd 1e b1 14 bd 21 ea 54 bd 75 35 b6 3d
       -0.05159902 -0.036301725 -0.051981095 0.08896915
000080 97 b5 09 bc 16 b4 b5 38 c3 83 44 bc 01 15 f2 3a
       -0.008405111 8.664296e-05 -0.011994305 0.0018469394
000090 08 d2 81 3d 9b bd cc 3d 27 85 28 3d 28 bf 0a 3c
       0.063388884 0.09997102 0.04114261 0.008468427
0000a0 e1 55 93 3b 75 fa 6d 3d d8 5c 93 3a 87 7a 4c bd
       0.0044963215 0.058100183 0.001124288 -0.04992154
0000b0 7e 80 cb 3d db 66 e0 bd 47 7c da bd 99 e7 e4 bc
       0.09936617 -0.10957118 -0.10668235 -0.027942466
0000c0 79 f5 e3 bc 97 09 16 be dc 67 a4 bd 18 b8 5a 3d
       -0.027827011 -0.14652096 -0.08027622 0.05339822
0000d0 bf c9 d4 bd 49 62 69 3c 71 2b 08 bd 4e 54 b2 3d
       -0.103900425 0.014244624 -0.033244554 0.08707486
0000e0 0a de 09 bd 85 61 8c 3d f5 02 d3 bc cd f5 2e bd
       -0.03365902 0.06854538 -0.025758246 -0.042714883
0000f0 d5 4e de bd ef a9 a7 bc d9 7b a4 3d fc 96 3f bd
       -0.1085488 -0.020466773 0.080314346 -0.04677485
000100 bc 3d e8 bb 7f 0d 2e be ee 39 17 be 79 2e b7 bd
       -0.0070874374 -0.16997336 -0.14768192 -0.08944411
000110 3e e0 40 bd a3 dc 55 bd b1 09 24 be 11 9e f8 bd
       -0.047088854 -0.05221237 -0.16019322 -0.12139524
000120 05 b7 7d bd 09 d4 02 3b 7d 53 5c bd 1f fa 65 bd
       -0.06194212 0.0019962809 -0.053790558 -0.056146737
000130 5c 07 b7 3c dc 8b d4 bd 09 3b 08 be f4 19 f9 bc
       0.022342376 -0.103782386 -0.1330377 -0.030407883
000140 7d 17 9b 3d a2 f7 00 3d 89 bb f9 3d 41 9a 86 3d
       0.075728394 0.03148616 0.121939726 0.0657239
000150 91 d6 2a 3d 0f d6 c7 bb 4e 32 f7 3d 49 27 f2 3d
       0.041708533 -0.006098516 0.12070142 0.11823899
000160 69 7c ea 3d 96 b6 e8 3d 31 5b 0a be d0 23 8b bd
       0.114495106 0.113629505 -0.1351135 -0.0679394
000170 cf f9 fb bc c0 9c d1 bc ab bf 90 bc b7 b7 0e 3e
       -0.030758766 -0.02558744 -0.01766952 0.13937269
000180 f8 be 80 bc bf 1d e9 3d c1 36 4d 3e 28 42 d2 3d
       -0.015716061 0.11382627 0.20040418 0.102665246
000190 f3 c0 ac bd d1 92 48 bd 37 55 b5 3d 89 be b8 bc
       -0.0843524 -0.04896814 0.08854144 -0.022551792
0001a0 56 94 a1 bc 75 72 7d 3c 12 09 67 bd 48 47 1b be
       -0.019724052 0.015469183 -0.056405134 -0.1516391
0001b0 23 6e c7 3b 75 90 b6 3d 2b cd 01 3e f6 70 f3 bc
       0.0060861274 0.08914272 0.12675922 -0.02971695
0001c0 cd 33 1e 3e 41 ae 2f 3c c4 d8 74 3a e4 7e 9f bc
       0.15449448 0.010722698 0.0009340162 -0.019469686
0001d0 82 96 85 bd e1 9b 82 bd 1e d6 1f 3e 17 b3 1e 3e
       -0.06522848 -0.06377388 0.15609023 0.15498005
0001e0 74 e7 1d bc 96 29 a0 3c e9 0d 2d 3e b3 9d 8b bd
       -0.009637702 0.01955108 0.16899838 -0.06817188
0001f0 aa 24 6f ba 8e f9 18 ba a5 ee da bd 2a da 58 bd
       -0.000912259 -0.00058355264 -0.10690049 -0.052942432
000200 00 e0 cb bd 67 97 59 bc 63 66 9d bc 4c 81 50 3c
       -0.09954834 -0.013280726 -0.01921386 0.012726139
000210 b1 19 05 bd 03 e0 ea 3d e9 05 fc 3c 74 b7 4e bd
       -0.032495204 0.11468508 0.030764537 -0.050467923
000220 b7 8b 8b 3d f2 f4 6a 3b fe 09 bf 3d 79 87 bf bd
       0.06813758 0.0035851565 0.09328078 -0.09352011
000230 f5 35 80 bd 93 c4 90 3d 58 f9 1f bc 63 99 33 bd
       -0.062602915 0.070687436 -0.009764038 -0.043847453
000240 cd fc 4a 3e 94 51 3e 3d 04 34 8b bd 13 2c 30 3e
       0.19822998 0.046464518 -0.067970306 0.17204313
000250 58 6b 48 3e f8 cb 9f 3c 34 03 02 bd 66 ed 1c bd
       0.19572198 0.01950644 -0.031741336 -0.03831234
000260 ed 20 06 bd bc bc c5 bd 3c 3f b2 bd 7a 8a 78 bd
       -0.032746244 -0.09655139 -0.08703467 -0.060678937
000270 ae e1 4d bc 9f b5 b0 bc 8f ac f9 3c f3 7e 5b 3c
       -0.012566013 -0.021570979 0.03047779 0.013396966
000280 22 34 70 3d a8 5f 0c 3e 80 8c cf 3d 6a f3 62 3e
       0.058643468 0.13708365 0.1013422 0.22163168
000290 a5 4b 16 3e 43 34 1b 3e e1 06 0f 3e c1 c5 2a 3e
       0.14677294 0.15156655 0.13967468 0.16677
0002a0 da 2f 4b bc c4 82 0a 3e 73 b5 80 3d e0 07 80 3e
       -0.012401545 0.13526446 0.06284609 0.25006008
0002b0 d7 22 04 3e 3b 7f 99 3b 12 cc a5 3b 1b 7a eb ba
       0.12903915 0.0046843565 0.0050597275 -0.0017965467
0002c0 82 be 03 bd 87 87 f2 bd 23 b8 a3 bd 48 f5 a9 bd
       -0.032164104 -0.11842256 -0.07994106 -0.08298737
0002d0 12 1c 56 bd ca 73 bb 3c fc 0a 96 bd 89 22 dd bd
       -0.052272864 0.022882361 -0.07326314 -0.10797603
0002e0 d2 57 75 bd 9c 7e 3b 3d 42 9c 62 bd 63 c8 a9 bd
       -0.059898205 0.04577504 -0.0553248 -0.08290174
0002f0 26 a4 2a be 09 bd f9 bc 1a 5e bd 3d 44 ad 1d 3d
       -0.1666418 -0.030485647 0.09246464 0.038495317
000300 91 b4 0b be e5 85 b2 3d 92 f1 ab 3c 4e a6 dc bd
       -0.136431 0.087169446 0.020989213 -0.107739076
000310 ed 16 80 bd 87 a3 05 3e 78 c2 ca bc 22 92 d2 bd
       -0.06254373 0.13050662 -0.024750933 -0.10281779
000320 70 32 20 be 00 b9 95 bc 15 34 96 bc 56 8d e7 ba
       -0.1564424 -0.018276691 -0.018335382 -0.0017666023
000330 e7 25 a1 3c e5 c3 d2 3c 8c 76 7f bd 19 d9 2a 3d
       0.019671394 0.025728175 -0.062368914 0.041710947
000340 cf 5f 18 3c 6e 65 e6 3d 1d 60 23 bc 92 c5 26 3d
       0.009300186 0.11249815 -0.009971646 0.04071576
000350 6c ec 43 bb 2e 6f f1 3d d5 ae b2 3d 1c 31 8b bd
       -0.0029895557 0.11788784 0.08724753 -0.06796476
000360 49 f4 22 bd 3d 41 b1 3c d3 8f 50 bd d0 f1 64 bd
       -0.03978375 0.021637553 -0.05091841 -0.055894673
000370 c0 50 1d bc 72 af 04 3d 8e 65 25 be be e0 5c 3d
       -0.009601772 0.03239388 -0.16152021 0.05392527
000380 89 f6 8b bd 36 7f b4 3d 60 8e cd bc 6d 29 ac 3d
       -0.06834132 0.08813326 -0.025092304 0.08406339
000390 28 1b 79 3d df 94 9c 3d 8d 57 5d 3d 9f 0d c9 3d
       0.060816914 0.076455824 0.054038573 0.09817051
0003a0 5a 37 a3 3a 21 81 ef 3d 27 38 5a bd 8c ee 03 be
       0.0012452409 0.11694551 -0.053276207 -0.12883967
0003b0 d9 9c d6 bd 9d 86 ba bd b3 38 01 3c 1a 6f 81 3c
       -0.10479135 -0.09107707 0.007887053 0.015800048
0003c0 63 98 62 bd 22 ee d9 3c 98 71 bc bd df 84 db 3d
       -0.05532111 0.026602808 -0.09201354 0.107187025
0003d0 fd 1f a7 3c 12 72 19 3d c7 35 77 ba 64 e9 cf 3d
       0.020400995 0.0374623 -0.00094303157 0.101519376
0003e0 32 87 eb 3c 88 0c fa bd 0d a9 a2 bd 0e 6d 90 bd
       0.02875099 -0.122094214 -0.079424 -0.070520505
0003f0 0d 03 2f bd 8f 43 0a 3e 33 ec d2 3d 48 50 2a 3d
       -0.04272752 0.13502334 0.10298958 0.04158047

net.layer3.0.bias f4 [32]
000000 f7 77 53 3d 3d 66 9b bc 73 be 44 bc 78 fd ae 3c
       0.05162808 -0.01896965 -0.012008297 0.021361098
000010 4b de 4d 3d e5 c0 64 3d 06 a9 45 bd 5b 67 75 bd
       0.050260823 0.05584802 -0.048256896 -0.05991302
000020 d7 46 82 bb 68 c7 3e bc ac a0 7b bc 74 b4 52 bc
       -0.00397573 -0.011644222 -0.015358131 -0.012860406
000030 66 31 49 bd 93 b8 9f 3b b5 91 3e 3d 7c f0 68 bb
       -0.049119376 0.004874298 0.046525676 -0.003554373
000040 83 6c e4 bc 25 94 b1 3a aa 07 46 3d 16 10 61 3c
       -0.027883774 0.0013548179 0.048347153 0.013736745
000050 48 e5 4b 3c d9 24 b9 bb b1 1e 02 3d 70 dc c8 3c
       0.012444802 -0.0056501445 0.03176755 0.024519175
000060 4d 7e 3e 3c 35 0c 3c bd 1a 4b 30 3d 40 a7 a2 3c
       0.011626792 -0.04591008 0.043040372 0.019855142
000070 38 bf a2 3c d4 ef 59 3d 6f 9c 09 bc 97 1f ce bc
       0.01986657 0.053207234 -0.008399113 -0.025161548

net.layer3.1.weight f4 [32]
000000 32 34 7a 3f cd d9 88 3f c2 8b 70 3f 7f 8e 7e 3f
       0.97735894 1.0691468 0.93963253 0.9943618
000010 6b 6b 70 3f 1b 21 77 3f b8 aa 89 3f fc d6 89 3f
       0.93913907 0.9653489 1.0755224 1.0768733
000020 31 88 84 3f c7 23 80 3f 52 39 76 3f 29 bc 64 3f
       1.0354062 1.0010918 0.96181214 0.8934961
000030 4a 5b 73 3f bb 5c 78 3f a2 ca 6b 3f 0b 4d 50 3f
       0.9506117 0.97016495 0.9210607 0.8136756
000040 c9 91 64 3f c1 ef 85 3f d0 ff 72 3f ca b7 70 3f
       0.8928495 1.0463792 0.9492159 0.9403044
000050 78 d3 7e 3f 63 66 78 3f 87 3b 83 3f 2e 6c 7b 3f
       0.99541426 0.9703123 1.0252541 0.98211944
000060 71 69 81 3f 9e 98 7e 3f b7 6e 88 3f 8a 0e 6f 3f
       1.0110303 0.99451625 1.0658787 0.9338156
000070 02 e9 75 3f 45 4b 85 3f f1 d2 92 3f 94 fa 92 3f
       0.96058667 1.0413595 1.1470624 1.148272

net.layer3.1.bias f4 [32]
000000 72 99 82 bd 8c 54 12 be 70 70 94 bd 67 a7 3a be
       -0.063769236 -0.14290065 -0.07248008 -0.18227921
000010 81 fe c8 bd cf 46 e7 bd ef da 77 3d 34 1d 9c bd
       -0.09814168 -0.112928025 0.060511526 -0.076227576
000020 62 89 d5 be 95 00 7b 3d 65 e1 4e bb c2 da e1 3d
       -0.41706377 0.061279852 -0.003156745 0.11028053
000030 48 66 6d 3d 4b 65 86 bc b2 ca 1c 3e 54 09 e4 bd
       0.05795887 -0.016405722 0.15311697 -0.11134592
000040 0a 0c 37 be 62 d3 7f bd 88 23 e3 3c 16 0f 42 be
       -0.17875686 -0.06245745 0.027726904 -0.18951067
000050 e7 e7 1a bd 4d 4e a8 be 30 4f 9c 3c f7 b8 91 bd
       -0.037818816 -0.3287224 0.019080728 -0.07115357
000060 3e d0 5e 3d 9d c8 a3 bd 70 d6 a8 3d 04 7b 35 bd
       0.054397814 -0.07997248 0.08244026 -0.04430677
000070 4e f2 c1 bb be df 03 be ec 0d 81 3d 2e c0 3a be
       -0.0059187775 -0.1287832 0.063014835 -0.18237373

net.layer3.1.running_mean f4 [32]
000000 00 00 00 00 00 00 00 00 00 00 00 00 00 00 00 00
       0.0 0.0 0.0 0.0
000010 00 00 00 00 00 00 00 00 00 00 00 00 00 00 00 00
       0.0 0.0 0.0 0.0
000020 00 00 00 00 00 00 00 00 00 00 00 00 00 00 00 00
       0.0 0.0 0.0 0.0
000030 00 00 00 00 00 00 00 00 00 00 00 00 00 00 00 00
       0.0 0.0 0.0 0.0
000040 00 00 00 00 00 00 00 00 00 00 00 00 00 00 00 00
       0.0 0.0 0.0 0.0
000050 00 00 00 00 00 00 00 00 00 00 00 00 00 00 00 00
       0.0 0.0 0.0 0.0
000060 00 00 00 00 00 00 00 00 00 00 00 00 00 00 00 00
       0.0 0.0 0.0 0.0
000070 00 00 00 00 00 00 00 00 00 00 00 00 00 00 00 00
       0.0 0.0 0.0 0.0

net.layer3.1.running_var f4 [32]
000000 00 00 80 3f 00 00 80 3f 00 00 80 3f 00 00 80 3f
       1.0 1.0 1.0 1.0
000010 00 00 80 3f 00 00 80 3f 00 00 80 3f 00 00 80 3f
       1.0 1.0 1.0 1.0
000020 00 00 80 3f 00 00 80 3f 00 00 80 3f 00 00 80 3f
       1.0 1.0 1.0 1.0
000030 00 00 80 3f 00 00 80 3f 00 00 80 3f 00 00 80 3f
       1.0 1.0 1.0 1.0
000040 00 00 80 3f 00 00 80 3f 00 00 80 3f 00 00 80 3f
       1.0 1.0 1.0 1.0
000050 00 00 80 3f 00 00 80 3f 00 00 80 3f 00 00 80 3f
       1.0 1.0 1.0 1.0
000060 00 00 80 3f 00 00 80 3f 00 00 80 3f 00 00 80 3f
       1.0 1.0 1.0 1.0
000070 00 00 80 3f 00 00 80 3f 00 00 80 3f 00 00 80 3f
       1.0 1.0 1.0 1.0

net.layer4.0.weight f4 [32, 32, 3, 3]
000000 0e 77 7c bd 08 0b a5 bd c7 bb d8 3c df 73 f4 3b
       -0.061636977 -0.08058745 0.026456727 0.007460102
000010 78 ef 80 bd 8e a6 a6 bd 17 d3 2f 3d b6 fe 6b bd
       -0.06295675 -0.081372365 0.04292592 -0.05761596
000020 50 0f b4 bd 4b 64 5e bd e2 24 55 be 8c 1e 80 bd
       -0.08791983 -0.054294866 -0.20814851 -0.06255826
000030 7c 87 4a be 14 b2 2e be a8 10 c2 bd 9a 2d cf bd
       -0.19778246 -0.17060119 -0.09475833 -0.1011612
000040 d3 15 54 be 7f 41 54 bd be a3 51 3c 14 cf 1a bc
       -0.2071145 -0.051820274 0.012795387 -0.009448785
000050 78 f6 6c 3d 43 3c da bd f9 68 a7 bd 05 af e1 3c
       0.05785224 -0.10656025 -0.08174319 0.027549276
000060 77 2e 6b bd ff 19 9e bd d8 28 85 3d 16 0c 82 bd
       -0.05741736 -0.07719802 0.06501931 -0.063499615
000070 38 98 62 bd 34 0c df bd cf 1a cd bd 41 dd f8 bd
       -0.05532095 -0.108909994 -0.10014879 -0.12151576
000080 e7 81 75 bc 2c 16 60 bd fa 2f 32 be d4 f0 18 be
       -0.014984584 -0.054708645 -0.17401114 -0.14935619
000090 c2 c3 f9 bd ca 08 0e 3d b1 46 e9 bc 60 ca 51 bc
       -0.12195541 0.03467635 -0.028476091 -0.012804598
0000a0 a0 cb 6a 3d cc 69 63 3d bd 4a b8 3a fa 12 ab 3c
       0.0573231 0.055520818 0.001406036 0.020883072
0000b0 2b b0 33 bd d7 c2 b4 3d bb 0f b9 3d a3 ef 58 3d
       -0.04386918 0.08826225 0.090362035 0.05296291
0000c0 08 be 89 bd a5 f6 85 3d 59 f1 af bc 2e f1 75 bd
       -0.06725699 0.06541184 -0.021477388 -0.06004446
0000d0 e6 2c 08 bc 73 a7 e7 3c 74 7e b0 bd 5e aa 50 bd
       -0.008311486 0.028278088 -0.08617869 -0.050943725
0000e0 09 17 4b bd ec c0 04 3c 37 c7 da bb a9 d1 c1 bd
       -0.049582515 0.008102637 -0.0066765803 -0.094638176
0000f0 c4 ec 66 3d 8d f2 2e ba b3 fb c9 3d 39 ba b6 bd
       0.05637814 -0.0006673716 0.09862461 -0.08922238
000100 ae b6 94 bd 50 ea 19 be e9 59 86 bd 4e 42 22 be
       -0.07261406 -0.1503079 -0.06560118 -0.15845606
000110 61 5f 2f be b6 15 b1 bc 03 05 b7 bd 84 3a 8a bd
       -0.17126228 -0.021616798 -0.08936503 -0.06749442
000120 65 6d 04 be f2 6f d2 bd 36 fa 92 bd 9a 5e 15 bd
       -0.12932356 -0.10275258 -0.0717663 -0.036467172
000130 84 90 32 bd 0c b6 ee 3c 1b a7 c0 bc 3f 2e 0b be
       -0.043594852 0.029139541 -0.023517182 -0.1359186
000140 ca a4 d6 bd 4b 41 06 3b 13 86 40 3d 81 e3 1d bb
       -0.1048065 0.0020485695 0.047002863 -0.0024091902
000150 47 37 43 bc f4 ca 03 bd a5 9d b6 3d d5 8d 51 3c
       -0.011915035 -0.032175973 0.08916787 0.012790163
000160 2d 74 a2 3b 08 35 f8 3c c2 46 86 3d 48 25 58 3d
       0.004957697 0.030298725 0.06556465 0.05276993
000170 89 4c 39 bd e4 9c 01 bd ea 85 ca bd 4b 15 33 bd
       -0.045239005 -0.031643763 -0.09888823 -0.04372148
000180 4e 9b ac bd 6a 8e d7 3c ff ee 62 3c 78 fb 4f 3c
       -0.084280595 0.026313026 0.013850926 0.012694232
000190 b1 a0 02 3d 60 c4 a9 bc 6b 9d 5c bd 7d d7 37 bd
       0.03189153 -0.020723522 -0.053861063 -0.04488324
0001a0 34 67 55 bc 17 92 24 3d bf 53 14 3d 7f 1e 7c bc
       -0.013025094 0.040178385 0.03621268 -0.01538813
0001b0 99 27 20 ba 81 03 8c bd 50 5b 84 3d e6 48 dc bc
       -0.0006109416 -0.06836606 0.06462729 -0.02689023
0001c0 13 64 80 bc 83 06 9b 3c 58 63 9f bd b2 3f 2c 3d
       -0.01567272 0.018924003 -0.0778262 0.042052932
0001d0 e1 dd 8a 3c 53 91 92 bc 37 2c 38 bd cc 85 11 bd
       0.016951503 -0.017891562 -0.04496404 -0.03552799
0001e0 40 56 19 bd d8 c9 9c bd 06 f9 95 bd 27 2f 88 3d
       -0.03743577 -0.07655686 -0.07322888 0.066496186
0001f0 de d0 97 3d ca f4 5d bd a4 6f 04 be f3 d1 65 3d
       0.07412885 -0.054188527 -0.12933213 0.056108426
000200 fe 6a 33 3d b3 31 72 3c 92 08 d8 3c 88 ab 0a bc
       0.043803208 0.014782357 0.026371274 -0.008463748
000210 44 9e 71 3c 04 58 e5 bd ad f8 ae 3b bf 9b ad bd
       0.014747206 -0.11198428 0.005339703 -0.08476972
000220 d6 e0 11 3d de 84 43 bc ed 4b e8 bd b2 13 a6 bd
       0.03561481 -0.0119335335 -0.11342607 -0.08109225
000230 62 c3 8b bd 97 08 80 bd d4 8e 5e bc bf 14 ec bd
       -0.06824376 -0.062516384 -0.013583858 -0.115273945
000240 34 c6 6c 3d d8 a2 2d bd 18 b9 1f be d2 66 06 be
       0.05780621 -0.042391628 -0.15597951 -0.1312516
000250 9b 20 0d 3c 0d fd 96 bd 5c c1 3b bb a5 e8 18 be
       0.008613731 -0.07372484 -0.0028649187 -0.14932497
000260 0f 62 00 3d 74 1d ab 3d ea e5 bb 3d bc 91 88 3c
       0.031343516 0.08355227 0.09174712 0.016671054
000270 29 98 8f 3c d7 87 b4 bc 07 84 af 3d 6e 2d 0a 3d
       0.01752861 -0.02203743 0.08570104 0.03373473
000280 d9 e1 ae bd ac d3 15 3d 2d dd b5 bd cc 00 ea bd
       -0.08539171 0.03657882 -0.088800766 -0.11425933
000290 c6 52 d9 bd f6 28 1f bd 24 e1 8e 3c a5 b9 1f bd
       -0.10611491 -0.038857423 0.01744134 -0.038995404
0002a0 56 b2 36 be 61 2c 14 bd c2 f8 aa bd 02 a1 cd bd
       -0.17841467 -0.036175136 -0.08348228 -0.100404754
0002b0 f7 54 a2 bd be d0 a4 3c 4b 32 c9 3c 08 8d 5b bd
       -0.07926362 0.020119067 0.024560114 -0.053601295
0002c0 3c 06 fc bc a7 71 7c bc 39 d4 b0 3c a6 15 94 bd
       -0.030764692 -0.015407956 0.02158557 -0.072306916
0002d0 00 fd 6d 3b 36 32 22 bd 66 5f 31 bd e3 ea 8b 3d
       0.003631413 -0.039598666 -0.04330387 0.068319105
0002e0 65 6a f5 bc a1 c6 aa bd b4 11 23 bd 71 2d 1f bd
       -0.02995796 -0.08338667 -0.039811805 -0.038861696
0002f0 19 b1 4f 3d e9 53 90 bd 93 c2 01 be b6 a7 ec 39
       0.050706003 -0.070472546 -0.1267188 0.00045138382
000300 2a f5 cc bd dc 57 f7 bd 30 2a fc bd 78 7c c3 bd
       -0.10007699 -0.12077305 -0.12312734 -0.09545225
000310 2f 31 6d bc b4 35 20 3d fe 8e 03 be dc 5c 01 be
       -0.014477058 0.039113715 -0.12847516 -0.1263308
000320 bd bd 9f 3d 1d 69 8e bd f9 cb 2f bd d7 c4 3f bd
       0.077998616 -0.069536425 -0.042919133 -0.04681858
000330 bf e3 20 bb 90 85 49 bd ac c1 da bc 03 d7 0d 3d
       -0.002454981 -0.04919964 -0.026703678 0.03462888
000340 ab 93 01 3e e7 cc c0 3d 6b 2b 66 3c b9 84 2f 3d
       0.12653987 0.09414082 0.014048438 0.042851184
000350 9b 4b 80 3d 29 ac 03 3e cf 26 76 bd 89 ae ce 3d
       0.062644206 0.12858643 -0.060095605 0.10091884
000360 8c 90 bc 3d 86 4c b2 3a 54 0b 93 3d 23 9a dd bc
       0.09207258 0.0013603128 0.07179895 -0.027051037
000370 66 ac 2c 3d 04 89 85 3d ad be d4 bc 05 4c 3c 3d
       0.0421566 0.06520274 -0.025969828 0.045970935
000380 5b 91 30 bd 13 42 e3 bc 9c 58 1a bc cc ed d5 bb
       -0.04310737 -0.027741468 -0.00942054 -0.0065285917
000390 ac df 12 3d 33 e1 0d 3d 12 81 f7 3c ba 26 83 3d
       0.03585784 0.034638595 0.030212913 0.06403871
0003a0 47 9f b5 bc 19 ba 91 3d ac fb 84 bd 2c 1a 51 be
       -0.022170676 0.071155734 -0.06493315 -0.2042014
0003b0 01 e6 98 bc 72 79 1a be 18 24 44 be 0d db a7 bd
       -0.018664362 -0.1508539 -0.19154394 -0.081960775
0003c0 56 b5 12 bc 77 2f cb bd 9c 41 eb bd 82 87 58 3d
       -0.008954367 -0.099211626 -0.11487123 0.052863605
0003d0 25 9f 1d bc 0e 55 aa bd a1 1e 80 3d 77 71 8a 3d
       -0.009620463 -0.08317004 0.06255842 0.06759923
0003e0 b0 e1 44 3d 9b 36 3f bd fd 32 1e bb 02 cb a2 3d
       0.048066795 -0.046682935 -0.0024139278 0.07948877
0003f0 d2 8b bc 3c 6b 15 11 3d 09 b7 b4 3c fc d6 73 bd
       0.02301589 0.035420816 0.022059934 -0.059531197

net.layer4.0.bias f4 [32]
000000 54 5a 43 3b d8 1a 6c bc 4c 0a 0c bd 71 df b2 3c
       0.0029808478 -0.014410697 -0.034189507 0.02183506
000010 66 f9 0b 3c c7 24 d9 3c 2d 07 6e bd d3 1f 85 3c
       0.008543348 0.026506795 -0.058112312 0.016250527
000020 15 30 09 3d eb e9 f4 bc ad 19 05 3d 13 9b 25 bc
       0.03349312 -0.029896697 0.03249519 -0.010107773
000030 f9 3b 65 bc 76 62 09 3c ee e6 4e 3d 0a 54 c5 bc
       -0.013991349 0.008385291 0.0505132 -0.024087925
000040 9e bc dc 3b c2 59 53 3d 05 94 c4 3c fd 62 b6 3c
       0.006736352 0.05159927 0.023996362 0.022263998
000050 a8 86 21 3d 5b f5 2b bd 46 ee 2f 3b f2 94 27 3d
       0.03943506 -0.041982036 0.0026844903 0.04091353
000060 e2 29 ac 3c d2 c7 10 bd 4e 8f 2b 3d ba 5e da 3c
       0.021016065 -0.035346813 0.041884713 0.026656497
000070 c7 b9 14 bd 25 a6 fd 3c 52 c9 4a 3d b4 0a db 3c
       -0.036309984 0.030963013 0.0495084 0.026738502

net.layer4.1.weight f4 [32]
000000 1a 87 17 3f 12 16 40 3f 5f ef 10 40 6a 69 19 3f
       0.59190524 0.75033677 2.26461 0.59926474
000010 7f a1 2b 3f d6 2b 32 3f df dd 4b 3f ac a2 1f 3f
       0.670433 0.6959814 0.79635423 0.6235759
000020 fb 0e 1d 3f 74 ad 15 3f 60 d8 32 3f 50 f8 20 3f
       0.61350983 0.58467793 0.6986141 0.62878895
000030 b6 de 93 3f a0 05 e2 3f 26 c1 18 3f fa ae 0f 3f
       1.1552341 1.7657967 0.5966972 0.5612637
000040 fa 69 15 3f c0 48 36 3f e1 6d 55 3f 6f 50 2a 3f
       0.5836483 0.7120476 0.83370787 0.6652898
000050 7c ca 29 3f 76 fe 1d 3f 2b a8 b5 3f 3b d9 17 3f
       0.6632459 0.617164 1.4191946 0.5931584
000060 54 78 11 3f cd 8c 08 40 13 08 0e 3f bf dd f0 3f
       0.5682423 2.1335938 0.5548107 1.8817672
000070 a9 0f 2c 3f e7 f0 e6 3f 20 36 20 3f 4b 7a 87 3f
       0.67211396 1.8042268 0.6258259 1.0584196

net.layer4.1.bias f4 [32]
000000 cf 87 d1 be 6f f1 0b be fe 68 84 3f e8 3e d6 be
       -0.40923926 -0.13666318 1.0344541 -0.4184487
000010 3d 86 c3 be d9 c5 85 be 75 7f 5d be b1 50 b5 be
       -0.38188353 -0.26127508 -0.21630652 -0.35413125
000020 3e 66 ca be 8c 22 df be c6 e1 81 be 00 d3 c1 be
       -0.3953113 -0.43581045 -0.25367564 -0.37856293
000030 f6 bb 67 3e 6d ed f8 3e 0a 89 b8 be 8b 3e db be
       0.22630295 0.48618641 -0.36042053 -0.42821154
000040 3e 38 d9 be 9b d4 93 be 06 57 59 be 03 ee b5 be
       -0.42425722 -0.28873143 -0.21224603 -0.3553315
000050 99 58 a9 be ea 92 d6 be ce bf a6 3e 08 00 dd be
       -0.33075407 -0.41908962 0.3256821 -0.43164086
000060 25 1c e2 be 59 b2 80 3f 85 86 d1 be 78 fb 56 3f
       -0.44162098 1.0054427 -0.40922943 0.8397746
000070 53 df c4 be 15 af 0a 3f 18 71 a5 be a0 5a 01 3e
       -0.38451633 0.54173404 -0.32312846 0.12632227

net.layer4.1.running_mean f4 [32]
000000 00 00 00 00 00 00 00 00 00 00 00 00 00 00 00 00
       0.0 0.0 0.0 0.0
000010 00 00 00 00 00 00 00 00 00 00 00 00 00 00 00 00
       0.0 0.0 0.0 0.0
000020 00 00 00 00 00 00 00 00 00 00 00 00 00 00 00 00
       0.0 0.0 0.0 0.0
000030 00 00 00 00 00 00 00 00 00 00 00 00 00 00 00 00
       0.0 0.0 0.0 0.0
000040 00 00 00 00 00 00 00 00 00 00 00 00 00 00 00 00
       0.0 0.0 0.0 0.0
000050 00 00 00 00 00 00 00 00 00 00 00 00 00 00 00 00
       0.0 0.0 0.0 0.0
000060 00 00 00 00 00 00 00 00 00 00 00 00 00 00 00 00
       0.0 0.0 0.0 0.0
000070 00 00 00 00 00 00 00 00 00 00 00 00 00 00 00 00
       0.0 0.0 0.0 0.0

net.layer4.1.running_var f4 [32]
000000 00 00 80 3f 00 00 80 3f 00 00 80 3f 00 00 80 3f
       1.0 1.0 1.0 1.0
000010 00 00 80 3f 00 00 80 3f 00 00 80 3f 00 00 80 3f
       1.0 1.0 1.0 1.0
000020 00 00 80 3f 00 00 80 3f 00 00 80 3f 00 00 80 3f
       1.0 1.0 1.0 1.0
000030 00 00 80 3f 00 00 80 3f 00 00 80 3f 00 00 80 3f
       1.0 1.0 1.0 1.0
000040 00 00 80 3f 00 00 80 3f 00 00 80 3f 00 00 80 3f
       1.0 1.0 1.0 1.0
000050 00 00 80 3f 00 00 80 3f 00 00 80 3f 00 00 80 3f
       1.0 1.0 1.0 1.0
000060 00 00 80 3f 00 00 80 3f 00 00 80 3f 00 00 80 3f
       1.0 1.0 1.0 1.0
000070 00 00 80 3f 00 00 80 3f 00 00 80 3f 00 00 80 3f
       1.0 1.0 1.0 1.0
