mp/maml_mini_5way_5shot_best_step27500_conv_first.pt (torch, 144234 bytes, 26 tensors)

net.layer1.0.weight f4 [32, 3, 3, 3]
00000000: cc49 78be 970a ccbe 05b3 51be 3f5b 7f3d
00000010: 4072 8e3d cb56 8f3c 6099 603e 2516 b43e
00000020: 207a 493e 1dab 9cbe 173a d2be 61c7 0abe
00000030: ac16 833d a30a 8dbd c674 8ebd 82ea 443e
00000040: 7175 b83e 27e0 7f3e 100d e3bd 8ec0 88be
00000050: 0927 36be 8c3c 3b3e e8c4 4a3d e4bf 41be
00000060: 24e7 ad3c 072e 7b3e 07cb 223e 1b51 0a3e
00000070: a4c8 8d3d 95b2 e53d 2240 7d3e 9036 cd3e
00000080: b03d 363d c1ba 423e 4100 0a3e fdc2 29be
00000090: c5ad 88be 0d2d a5be 3fc3 e9bd f11d 9fbd
000000a0: 396a 8dbe 6282 7ebc 05a4 6ebe 2ae1 96be
000000b0: af97 a5bd d623 283e c3a1 95bd 818d 083d
000000c0: 535a 0c3e 490f 3c3e 3684 5d3e 94da 8f3d
000000d0: 2c33 f23d ac82 113c 3b41 3cbe 318b d0bd
000000e0: f9af bb3e e9a9 233c 0431 7e3d a207 67be
000000f0: 3d05 ae3d cf75 d03d 128f 24be 0de3 9ebe
00000100: 7927 85be a854 e53e 815c 1f3e 8429 263d
00000110: 570c a0be ff71 1b3e f93a 5e3e 0214 00be
00000120: f31d 84bd 5433 8fbd 8aeb 253f c237 3c3e
00000130: 2331 5d3e b0d7 58be eb2e 02be 2244 f5bd
00000140: c6c1 f2be 00f4 a33e 1d78 133e e315 27be
00000150: 3614 0a3f 5530 853e bdff 15be f716 f63b
00000160: 8304 d4bd fb50 adbe 4bfa 8c3d 3f3e b43d
00000170: 8316 27bb fd81 ff3d cfed fd3c e82d ebbd
00000180: ee9d be3d 43c0 fabd 146a 47be b247 ccbc
00000190: e672 2a3e f1b7 29bd 323c 2b3e 01e8 503a
000001a0: 9e8f 0c3d 5e3a 46be 588f adbe 771f c33c
000001b0: c7c5 2e3e b785 03bd 817b 1d3a 32a1 dc3c
000001c0: 9bc7 17bc 23b1 64bd 2191 cb3d 3ca1 1abd
000001d0: d47d 04be b809 7d3d 20e7 6dbe dd6d 81bd
000001e0: 1a7e 33be 3b24 5dbe 3b24 0abe 31f2 913d
000001f0: 89de 303c 6fd5 2e3e e926 a6be 7138 dabe
00000200: e5f9 11be a2ff 07be f811 943c cd8f 143e
00000210: f698 273e b4f6 9c3e 2744 cb3e ed89 97be
00000220: b223 99be 6c0a b7be b2a7 0ebe e126 05bd
00000230: e500 e1bc 6b3f 14be cfb4 d7bd da76 d0bb
00000240: df4e 663e 2142 9d3e 6c24 033e 1b09 dd3d
00000250: 5f4f 343e 6970 a83e e68d c2bc 92ca ef3d
00000260: 4201 2c3e 451c 59be f511 843d 7b63 0ebe
00000270: 1027 9dbd 2871 593e a709 af3d 1f26 bebd
00000280: ac4c b5bc 8ae2 e33d ddda 513e 6b99 b1be
00000290: 82ed 9fbd 399a 8dbc b895 903e a2c4 c2be
000002a0: 49fe b13e daeb ffbc e5bd 693d 6a16 253e
000002b0: f499 4bbe 72e4 923e a611 b0be 6bb2 c93e
000002c0: c294 37be f0e8 09be 4ffa 4bbe 6530 b13d
000002d0: 4813 fc3d c222 6cbe 2b66 913d da6c 4fbe
000002e0: afce ab3e 4aa2 333d 02ca b53c e869 53be
000002f0: ce58 e73d 4ef1 e2bd a745 193d 731f 533d
00000300: 8c05 c5be e19e 1ebb 3e3f be3e 8f94 a4be
00000310: d047 debd 38ce be3e c7c3 3d3d ebad f7bd
00000320: 9805 22bd cd75 92be ba59 013e 5af7 973e
00000330: 8d70 6fbe afbe e93c d12b 9c3e c520 6f3e
00000340: 34ac a3bd aa8f 693d 70f4 8ebe bbfb b03c
00000350: e9f6 0a3e 9d41 a5be 3148 01be 9c6c 7b3e
00000360: a79c 143f e8a1 a73d 415b 13be c81a d53e
00000370: 7e9b acbd baf8 92be e38f 563d d646 a1be
00000380: 874a 5dbe a3c5 4cbe ba26 aa3d e5b1 8a3e
00000390: fe8b 64be 0b2d b8bd e413 2f3e 1de2 43be
000003a0: 2634 fd3d 91ff 19bc e432 b8be 500a 6abe
000003b0: 0020 fdbd b239 2abe 9d11 313e 53ae 0b3e
000003c0: 65e0 1e3e 0708 5c3e 7136 5e3e 9e52 913e
000003d0: ec6d 193e d96f c23d 5fb7 1cbd 13ae d0bd
000003e0: 78d9 8bbd 1f7a adbe 1508 0ebf f1db edbd
000003f0: 642c 6fbd b829 c23d ccd2 2bbd 6ff1 e1bc
-0.24246901 -0.3985183 -0.20478447 0.06234288 0.06955385 0.01749744 0.21933508 0.35173145
0.19675493 -0.305993 -0.41059944 -0.1355262 0.06400809 -0.068867944 -0.069558665 0.19230083
0.360271 0.24987851 -0.11086476 -0.26709408 -0.17788328 0.18284816 0.04950419 -0.18920857
0.02122838 0.24529277 0.15897761 0.13507502 0.06923035 0.112157024 0.24731496 0.4008069
0.044492424 0.19016553 0.1347666 -0.16578288 -0.26695076 -0.32260934 -0.11414193 -0.07769383
-0.27620104 -0.015534015 -0.23304756 -0.29468662 -0.08085572 0.1641992 -0.07306244 0.033338074
0.13706331 0.18365206 0.21632466 0.07024112 0.118261665 0.008881252 -0.18384258 -0.10182799
0.36657694 0.00998924 0.062058464 -0.22561505 0.08497093 0.1017872 -0.16070202 -0.310326
-0.26006678 0.4479115 0.15562631 0.040566936 -0.31259415 0.15180205 0.21702184 -0.12507632
-0.06451025 -0.06992212 0.6481253 0.18380645 0.21600775 -0.21176028 -0.1271321 -0.11975886
-0.47413462 0.32022095 0.14401288 -0.16316943 0.5393709 0.26013437 -0.14648338 0.007510062
-0.10352423 -0.33850846 0.06883677 0.08800935 -0.0025495596 0.12475965 0.030997185 -0.11483365
0.093074664 -0.12243702 -0.1947406 -0.02493653 0.16645393 -0.041435186 0.16722181 0.00079691416
0.03431665 -0.19358203 -0.33898425 0.023818715 0.17067634 -0.032109942 0.0006007478 0.026932333
-0.009263898 -0.055832993 0.099397905 -0.03775142 -0.12938625 0.061776847 -0.23232698 -0.06319783
-0.17528573 -0.21595852 -0.13490383 0.071262725 0.010795244 0.17073606 -0.3245156 -0.42621186
-0.14255483 -0.1328111 0.018074974 0.1450798 0.16366944 0.3065697 0.39700434 -0.29597417
-0.29910046 -0.3575014 -0.13931158 -0.03250778 -0.027466247 -0.14477317 -0.105325334 -0.0063618245
0.22491024 0.30714515 0.12806863 0.10792752 0.17608403 0.32898262 -0.023749303 0.11708559
0.16797355 -0.2120219 0.064487375 -0.13905136 -0.07673466 0.21234572 0.08546763 -0.09284615
-0.022131287 0.11127193 0.20493646 -0.3468736 -0.07808973 -0.017285453 0.28239226 -0.38040644
0.34764317 -0.031240392 0.057065863 0.16121832 -0.19882947 0.28689915 -0.34388465 0.39393935
-0.1792784 -0.13467765 -0.19919704 0.08651809 0.12308365 -0.23060134 0.07099565 -0.20256367
0.33556125 0.043855943 0.022191051 -0.20645869 0.11296235 -0.110811815 0.03741994 0.051543664
-0.38480794 -0.0024203586 0.37157625 -0.3214459 -0.10853541 0.37266707 0.046329286 -0.12093719
-0.039556116 -0.286055 0.12631884 0.29680902 -0.23382778 0.028533308 0.3050218 0.23352344
-0.079918295 0.057021774 -0.27920866 0.02160441 0.13570751 -0.3227662 -0.12625195 0.2455315
0.5805153 0.08185178 -0.1439028 0.41621995 -0.08428095 -0.28705388 0.052383315 -0.31499356
-0.21610461 -0.19997267 0.08308168 0.27088848 -0.22319028 -0.08992966 0.17097431 -0.19129224
0.12363462 -0.009399311 -0.35976326 -0.22855496 -0.12359619 -0.16623572 0.17291875 0.13640718
0.15515287 0.21487437 0.21700455 0.28383344 0.14983338 0.094939895 -0.038260814 -0.10189452
-0.06828588 -0.33882234 -0.5548108 -0.11614216 -0.058391944 0.094806135 -0.04194908 -0.027580945

net.layer1.0.bias f4 [32]
00000000: cf35 b8bd 2232 0cbd afc6 2ebe 2b44 303d
00000010: 75f8 5c3e 6f0a 34be 53b2 093e e03f abbd
00000020: 4e6f b6bc db17 063e a16c 9a3d cb28 443d
00000030: 5d3e 603d 7813 f1bc ff91 6dbc 3703 d83d
00000040: 3964 eaba aa6c e6bc 3c9c 9ebd 8551 33bd
00000050: 7bba 293e 4979 733d 5fb7 d53d 88f7 39be
00000060: 265c 153e 7302 1d3e eaa9 5f3d 07f8 a4bd
00000070: 3b61 26be 1e8e 6abd 2d45 abbd 8cfc 4dbe
-0.08994638 -0.034227498 -0.1706798 0.04303376 0.21579154 -0.17582105 0.13446932 -0.083617926
-0.022269871 0.13095038 0.075402506 0.047890466 0.054746974 -0.029428229 -0.01450014 0.10547488
-0.0017882652 -0.028127987 -0.07744643 -0.043778915 0.16575043 0.05944184 0.10435366 -0.18160832
0.14585933 0.15332966 0.054605402 -0.0805512 -0.16248028 -0.05726444 -0.083628036 -0.2011587

net.layer1.1.weight f4 [32]
00000000: 9c76 993f e330 2a3f 86ce 683f 5a8c 4a3f
00000010: c6a7 703f 9e97 463f 7709 4d3f e696 933f
00000020: 100a 993f 80f7 4f3f 06ba 833f ceb6 643f
00000030: 0ce4 ab3f 944b 343f 191c 173f 6ff4 8e3f
00000040: 6726 a03f 434d 423f a40e 903f 2af2 6b3f
00000050: f387 843f 1551 453f abd7 8d3f abb1 813f
00000060: 8847 293f 49e8 9d3f e42d 6b3f 3bb8 563f
00000070: 87a7 8d3f 8216 703f 1f19 813f 6593 5f3f
1.1989322 0.66480845 0.9094013 0.7912041 0.94006 0.775751 0.8009257 1.1530426
1.1956196 0.8123703 1.0291145 0.8934144 1.3428969 0.70427823 0.5902725 1.1168345
1.251172 0.7589914 1.1254468 0.9216639 1.0353988 0.77076846 1.1081442 1.0132345
0.66124773 1.2336513 0.918669 0.83874863 1.106675 0.93784344 1.0085791 0.8733428

net.layer1.1.bias f4 [32]
00000000: 5979 693e b94c 92be b7ff 81bd 8c6e 17bf
00000010: a3ac e2be 344b fbbe 5bfc d3bd 6410 6a3d
00000020: edc2 a4be 8931 66be 1a86 c4bd c4d2 39bf
00000030: fd87 13be 9d5a 64be d6ba 63bd c0d5 1bbe
00000040: c329 a3bd ed69 d43d 52a8 11bd bcfd 4b3e
00000050: c4da 1a3f 70dd e4bd 90c6 87be 2e6f b8bd
00000060: ff3f 97be c8d5 f1be 4dc6 12bd 8cfb 14bf
00000070: c21b 06bf c402 76be 640e 9d3d e6ee b3bd
0.22800197 -0.2857416 -0.06347602 -0.59153056 -0.44272336 -0.49080813 -0.10350867 0.057144538
-0.32179967 -0.22479834 -0.0959589 -0.7258723 -0.14407344 -0.22300191 -0.055598103 -0.15218258
-0.0796695 0.10371766 -0.035560913 0.1992101 0.6049006 -0.11175048 -0.2651868 -0.09005581
-0.29541013 -0.47233415 -0.035833646 -0.5819633 -0.52386105 -0.24024493 0.076687604 -0.08785801

net.layer1.1.running_mean f4 [32]
00000000: 0000 0000 0000 0000 0000 0000 0000 0000
00000010: 0000 0000 0000 0000 0000 0000 0000 0000
00000020: 0000 0000 0000 0000 0000 0000 0000 0000
00000030: 0000 0000 0000 0000 0000 0000 0000 0000
00000040: 0000 0000 0000 0000 0000 0000 0000 0000
00000050: 0000 0000 0000 0000 0000 0000 0000 0000
00000060: 0000 0000 0000 0000 0000 0000 0000 0000
00000070: 0000 0000 0000 0000 0000 0000 0000 0000
0.0 0.0 0.0 0.0 0.0 0.0 0.0 0.0
0.0 0.0 0.0 0.0 0.0 0.0 0.0 0.0
0.0 0.0 0.0 0.0 0.0 0.0 0.0 0.0
0.0 0.0 0.0 0.0 0.0 0.0 0.0 0.0

net.layer1.1.running_var f4 [32]
00000000: 0000 803f 0000 803f 0000 803f 0000 803f
00000010: 0000 803f 0000 803f 0000 803f 0000 803f
00000020: 0000 803f 0000 803f 0000 803f 0000 803f
00000030: 0000 803f 0000 803f 0000 803f 0000 803f
00000040: 0000 803f 0000 803f 0000 803f 0000 803f
00000050: 0000 803f 0000 803f 0000 803f 0000 803f
00000060: 0000 803f 0000 803f 0000 803f 0000 803f
00000070: 0000 803f 0000 803f 0000 803f 0000 803f
1.0 1.0 1.0 1.0 1.0 1.0 1.0 1.0
1.0 1.0 1.0 1.0 1.0 1.0 1.0 1.0
1.0 1.0 1.0 1.0 1.0 1.0 1.0 1.0
1.0 1.0 1.0 1.0 1.0 1.0 1.0 1.0

net.layer2.0.weight f4 [32, 32, 3, 3]
00000000: 342e e1bd 4b29 cdbc ebc0 0e3e aad0 bebd
00000010: 962c 7f3d 7e0f 833c 9c75 033d 82c5 39be
00000020: 2121 5dbc 2f73 ba3e fe43 d63d 1b9d 693e
00000030: 1804 e8bd 5375 98bd fc0a 24bc d595 73be
00000040: 8b64 d8bd 7953 ff3d 2e19 bd3e 3c9f ff3d
00000050: da6d a03d 1e0e 0abe 811a 88bc 3058 8c3d
00000060: bd57 d4bd 7e24 173e 306a d53d cc79 c53e
00000070: 6580 703e c103 4ebd d497 993e 07c0 03bf
00000080: cbf6 65be b938 503e 726e abbd 3c3b 9b3e
00000090: c829 74bd 87a4 5a3e 9bbb cf3e b7be 873d
000000a0: c70c a2bd 6a3c 773e 0850 86bd f964 aa3c
000000b0: b6aa b93d 7470 b5bd 9fa1 5fbe c281 77be
000000c0: d861 9abe b677 f03c 5854 e5bd e387 5d3a
000000d0: 5143 043e 61a6 5f3e 1606 d53d 42e2 16bd
000000e0: 9569 03bd 4d1c b0bc 6be2 09be 5de4 59be
000000f0: 671a 5bbc 5583 a63b 499d 7c3e dc24 0dbe
00000100: 4cbc cc3d 676f 39bd bd99 4abe 5538 14be
00000110: e739 debd bf2a f03c a87d 8e3c c35c 073e
00000120: 62e5 11be 2737 0a3e be41 273d f9d7 4f3e
00000130: 689c 75be ef3b f43d 7c24 57be 0cd3 12bf
00000140: 0619 d83d b8f6 9ebb 2032 bfbc 6cb5 273e
00000150: f0ad e2bd c26f 2dbd fd28 193e b48f 9d3d
00000160: 5aa8 5abd 2cc6 5abc 422d 8b3e a6d1 f93d
00000170: d089 c83d 9d94 5b3e 0b9c eabc 2ef7 293e
00000180: e894 e03d 4b91 963d 91e0 083e 13b0 9b3d
00000190: 95d1 dfbd f7a0 d7bd fd39 6cbe 8102 acbd
000001a0: d568 43be 6672 8c3e 6288 e83d 667d 353d
000001b0: b55d a9be bce9 3cbe b47b bbbe faac 09bf
000001c0: 2ea9 93bf ee18 62be 2e9d 28bf 7cbc 49bf
000001d0: ebb0 2c3d 4b5a 30be a820 93be 9d38 65be
000001e0: 8ead 95be 0a4b 3ebe 119a d93b 9adb 673d
000001f0: fae8 9d3d c392 523e b986 683d df1d 993d
00000200: 25b8 943c f285 543c c243 33be 1d49 74be
00000210: d06e c5bd a074 38bd 7660 f4bd 1d2f 84bd
00000220: c5fc 1abe a4f0 9b3d d055 fcbd 05b6 5cbe
00000230: 7e03 d3bd 15f7 abbd 5092 a9bd 24b2 493d
00000240: d795 c53e 7af6 a93e 7398 43bd d908 b93d
00000250: 8c68 3ebe 7088 403e 8cdf 5b3c 126d a93d
00000260: 6b61 d63d d585 b93d da1d 5e3d 6747 8f3e
00000270: 76e2 de3b 7f57 36bd 0776 83bd 0a3f 233d
00000280: 504d 0fbd 2196 d23d 6937 ec3d 3511 da3b
00000290: 61ff ffbd c2bb 533e fdca 84bd 3752 153d
000002a0: 737b 193e 1f84 a1bd 3e93 e9bc b85a 5bbe
000002b0: 165d 0cbd ea47 6cbc a20a acbe 51a3 89be
000002c0: 7b74 45be 1293 5cbd 3095 7fbe 8e73 c43c
000002d0: faf3 5d3e 0336 de3d a1ed d8bd ff6b c73d
000002e0: 73bd 14be 2090 b3bd 89bc cb3d 3ee5 143d
000002f0: d7df 2c3d 30c0 30be f8be 23bd 5d2b 00bd
00000300: 61d0 39be 40e9 673d c053 3cbe 3f7a 193d
00000310: 6c98 593e cb5c 89ba e321 dbbd bb5c 9c3e
00000320: 88b8 9f3d a857 03be ccf1 efbd 71e3 0bbc
00000330: bd60 36bd 829f 73bd 5b4f 533d 7717 183e
00000340: e5f0 bebc a17b ab3b 1a0f 943d 8d5c d5bd
00000350: f90a acbd 1e3e 913d ad4e 33bd b65e 6abe
00000360: afc4 1a3c 8396 0cbe 972f 453d 5cae e9bc
00000370: d3de cdbd 3edd ce3d e994 fdbd 24ab 2fbd
00000380: 4b06 e63c 4049 61be b081 10be 33f5 0abd
00000390: 2dcd 10bf af7f 3abe e7d4 27be b98e 3cbe
000003a0: b9be 05bf 45e3 55be a429 1abd 2404 20be
000003b0: 5e0c 4bbd dc57 33be cc80 c6be d968 513c
000003c0: 0ccd e53d 4964 a1be c2c6 0cbe fffe b63c
000003d0: 5718 a73d 2ce4 44bd b581 a5bd 7ea0 68be
000003e0: 8bc3 8abe ca4c c9bd 740b d7bd 0e53 25be
000003f0: fdaa 573e 4c30 383d 99eb 713e 8838 9fbe
-0.10995141 -0.025044104 0.1394078 -0.09317143 0.06229838 0.015998598 0.032094583 -0.1814175
-0.013496668 0.36416003 0.10462187 0.22813837 -0.11328906 -0.07444253 -0.0100123845 -0.23787625
-0.10566052 0.12467093 0.36933273 0.124815434 0.078334525 -0.13481948 -0.0166142 0.06852758
-0.10368297 0.14760014 0.10420644 0.38569486 0.23486479 -0.05029655 0.29998648 -0.51464885
-0.22457425 0.20334138 -0.08370675 0.3031863 -0.05961016 0.21351825 0.4057282 0.06628173
-0.07912593 0.2414414 -0.065582335 0.0208001 0.09065764 -0.08859339 -0.21838997 -0.24170592
-0.30152774 0.029353958 -0.11197728 0.00084507297 0.12916304 0.21840812 0.104015514 -0.03683687
-0.032083113 -0.02149787 -0.13465278 -0.2127852 -0.013372994 0.005081574 0.24669375 -0.13783592
0.09996852 -0.045272257 -0.19785209 -0.14474614 -0.10850888 0.029317258 0.017393902 0.1321898
-0.14247659 0.13497601 0.04083418 0.20297231 -0.23985445 0.11925494 -0.21010011 -0.5735328
0.10551648 -0.0048511885 -0.023339331 0.163778 -0.11068332 -0.04234291 0.14957042 0.07693425
-0.05338321 -0.013352912 0.27182966 0.121981904 0.09791911 0.2144341 -0.02863886 0.16598198
0.109659016 0.07351931 0.13366915 0.07601943 -0.109286465 -0.105287485 -0.23068996 -0.08398915
-0.19082959 0.2743103 0.11354138 0.044309042 -0.33079305 -0.18448538 -0.36617815 -0.53779566
-1.1536005 -0.22079822 -0.6586484 -0.7880323 0.04216091 -0.17221944 -0.28735852 -0.22384878
-0.29233974 -0.18583313 0.0066406806 0.056605913 0.077104524 0.20563798 0.056769107 0.074764006
0.018154213 0.012971388 -0.17506316 -0.23856016 -0.096402764 -0.045033097 -0.11932461 -0.06454299
-0.15135486 0.07614258 -0.12321055 -0.2155381 -0.103034005 -0.083967365 -0.0827986 0.049242154
0.3859088 0.3319586 -0.04775281 0.09034891 -0.18594569 0.18802047 0.013419997 0.08272757
0.104678 0.090587296 0.054227687 0.27984163 0.0068018986 -0.044517037 -0.06418996 0.03985504
-0.03498584 0.10282541 0.11534006 0.0066548833 -0.124998815 0.20677093 -0.064840294 0.03645536
0.14988498 -0.07886528 -0.028512593 -0.21421325 -0.03426846 -0.0144214425 -0.33601862 -0.26882413
-0.19282715 -0.053851195 -0.24959254 0.023980882 0.21675101 0.10850146 -0.10592199 0.097373955
-0.14525394 -0.08767724 0.099480696 0.036351435 0.042205658 -0.17260814 -0.039977044 -0.031291354
-0.18145896 0.05661893 -0.18391323 0.0374701 0.2124955 -0.0010479925 -0.10699823 0.30539498
0.077988684 -0.12826407 -0.11716041 -0.008538113 -0.04452585 -0.05947829 0.05158935 0.14852701
-0.023308227 0.0052332436 0.07229443 -0.10418043 -0.0840053 0.07091926 -0.043776203 -0.22887692
0.009446307 -0.1372929 0.04814109 -0.028525524 -0.10052266 0.10100792 -0.12381918 -0.04288782
0.028079173 -0.22000599 -0.14111972 -0.033925246 -0.56563073 -0.1821277 -0.1638981 -0.1841382
-0.52244145 -0.20887478 -0.037637368 -0.1562658 -0.04957234 -0.17513984 -0.3877014 0.012781345
0.1122075 -0.31521824 -0.13747695 0.022338388 0.08158939 -0.048069164 -0.0808138 -0.22717473
-0.27102312 -0.098290995 -0.105002314 -0.16144964 0.2106132 0.044967934 0.2362503 -0.31097817

net.layer2.0.bias f4 [32]
00000000: 2f33 ebbc a2a9 07bd 63d7 8dbb 4744 b5bc
00000010: b7e6 3abd 3cf2 20bd ae4c 51bd 9a4a b0bb
00000020: fef1 87bb 3e26 593d 0844 413d 3304 adbc
00000030: afaa adbc c3e9 00bd 939b 3d3d 8835 413d
00000040: be06 be3b 87f9 b9bc 47c2 483d 41a9 6ebc
00000050: 8547 df3c f558 8d3d 8cf6 623c 3dc1 13bd
00000060: 587d 7dbd 21d2 53bd 9fd9 81bd 7a36 bcbc
00000070: f0e7 9ebc 7aa8 36bc cfc3 a53c 1758 413d
-0.02871093 -0.03312076 -0.0043286546 -0.022127284 -0.045630183 -0.039293513 -0.051098518 -0.005379987
-0.0041487208 0.053014986 0.04718402 -0.021120166 -0.021199552 -0.031472933 0.046290945 0.047170192
0.0057991436 -0.022701992 0.049013402 -0.01456672 0.027255783 0.06901733 0.013852727 -0.03607296
-0.061887115 -0.051714066 -0.06340336 -0.022975195 -0.019397706 -0.011148566 0.02023497 0.04720315

net.layer2.1.weight f4 [32]
00000000: ddd0 903f 8c85 8a3f 267f 793f 577e 523f
00000010: dc58 7a3f c45a 6c3f ef24 5d3f 400b 533f
00000020: 3f9a 8b3f 64de af3f dec9 473f 1481 873f
00000030: 76ee 703f 0192 4e3f a5e3 883f b961 423f
00000040: 65a5 723f 0508 8d3f da6e 533f 339d 613f
00000050: e2f2 473f a9cb 623f 8c68 743f b4ae 843f
00000060: daf8 683f 620a 803f 5e64 993f c9ba 793f
00000070: f5f1 6b3f 205a 583f 1302 553f 5cc0 493f
1.131374 1.0822005 0.9745964 0.8222403 0.9779184 0.92326 0.8638448 0.8243904
1.0906447 1.3739743 0.780424 1.0586267 0.9411386 0.80691534 1.0694472 0.7593036
0.9478362 1.1018072 0.8259102 0.8813049 0.78104985 0.8859201 0.95472026 1.0365815
0.9100472 1.0003169 1.1983755 0.97550637 0.9216607 0.8451252 0.8320629 0.7880914

net.layer2.1.bias f4 [32]
00000000: 74a2 99bd ddc0 03bf 6c07 28bf 7e31 ecbe
00000010: 0553 f5be b06e 76be 0336 9fbe b887 1fbe
00000020: 1f38 e0be 66b2 dbbe 29f6 21bf 063b c9be
00000030: ee93 bebe 82ef c8bd c097 c6be 124d a5be
00000040: 730d 1cbf a80d 3bbf ebac 63be f3df c2bd
00000050: add4 e5be 9fca 9cbe bfe6 d7be ed71 8abd
00000060: 3c10 ccbe 54ba eebe 87e6 c4be 5796 02bf
00000070: 27de c3be 6a30 abbe 2703 0abf 1ed1 a5be
-0.075016886 -0.5146616 -0.65636325 -0.4613151 -0.479149 -0.24065661 -0.31095895 -0.15579116
-0.43792817 -0.42909545 -0.63266236 -0.39302844 -0.37222236 -0.098113075 -0.3878765 -0.32285362
-0.6095802 -0.7306771 -0.22233932 -0.09515371 -0.4488882 -0.30623338 -0.42168233 -0.06760011
-0.39856136 -0.46626532 -0.38457128 -0.5101065 -0.38255426 -0.33435374 -0.5391106 -0.32386106

net.layer2.1.running_mean f4 [32]
00000000: 0000 0000 0000 0000 0000 0000 0000 0000
00000010: 0000 0000 0000 0000 0000 0000 0000 0000
00000020: 0000 0000 0000 0000 0000 0000 0000 0000
00000030: 0000 0000 0000 0000 0000 0000 0000 0000
00000040: 0000 0000 0000 0000 0000 0000 0000 0000
00000050: 0000 0000 0000 0000 0000 0000 0000 0000
00000060: 0000 0000 0000 0000 0000 0000 0000 0000
00000070: 0000 0000 0000 0000 0000 0000 0000 0000
0.0 0.0 0.0 0.0 0.0 0.0 0.0 0.0
0.0 0.0 0.0 0.0 0.0 0.0 0.0 0.0
0.0 0.0 0.0 0.0 0.0 0.0 0.0 0.0
0.0 0.0 0.0 0.0 0.0 0.0 0.0 0.0

net.layer2.1.running_var f4 [32]
00000000: 0000 803f 0000 803f 0000 803f 0000 803f
00000010: 0000 803f 0000 803f 0000 803f 0000 803f
00000020: 0000 803f 0000 803f 0000 803f 0000 803f
00000030: 0000 803f 0000 803f 0000 803f 0000 803f
00000040: 0000 803f 0000 803f 0000 803f 0000 803f
00000050: 0000 803f 0000 803f 0000 803f 0000 803f
00000060: 0000 803f 0000 803f 0000 803f 0000 803f
00000070: 0000 803f 0000 803f 0000 803f 0000 803f
1.0 1.0 1.0 1.0 1.0 1.0 1.0 1.0
1.0 1.0 1.0 1.0 1.0 1.0 1.0 1.0
1.0 1.0 1.0 1.0 1.0 1.0 1.0 1.0
1.0 1.0 1.0 1.0 1.0 1.0 1.0 1.0

net.layer3.0.weight f4 [32, 32, 3, 3]
00000000: cbb7 60bd 8fcf 82bd 0f73 3dbd 3427 a0bd
00000010: ee34 3dbe 5add cdbd e7e0 bbbd a62c 63be
00000020: 71a7 a5be 494d 233e 1f3e 153d 58b8 993d
00000030: 2fdb 8d3d 2853 d43d 2381 103e 8ecd a93d
00000040: 3407 803e 7099 4abe a327 5e3e e965 07be
00000050: 7380 56be b04d f5bd d90f a13d d4f4 813d
00000060: 7ff4 35be ca41 49bd f9bc bbbd 6739 a6be
00000070: acae 1ebe a7fb a93c a6c9 c6bc 43f0 533e
00000080: 4000 933d 46d7 2a3c 0868 b63d 6df1 893e
00000090: 353f b6be 21cd 8dbe 28ef 83be 228c c7bc
000000a0: 3629 dc3d 4f89 793d e287 ea3d 7af9 bc3d
000000b0: 0f01 cabd 8dcf 74be 3b33 b8bd 7e3e 253e
000000c0: aa6e 4fbd 899f 2dbd 1a01 903d 9219 e3bd
000000d0: 981f f1bd 6f8c 6c3d 75c8 8b3e 97b6 de3d
000000e0: 16d1 44bb f9d7 3e3e 7006 92bd 8efe 1fbd
000000f0: 4f9e 9a3c acd4 ed3d 6f8c 963d e4da 8abd
00000100: a4c1 57be bcfc 5fbe c1aa 66be 5b0f bfbe
00000110: a563 f0bd 5a0d 4dbe 11f6 5dbe 4476 883d
00000120: 1d8a d6bc fc37 1d3e 4bed 103e 2593 11bd
00000130: c8fb c13e 81f6 993e 8710 bebd 2721 993d
00000140: b17f 0f3b 6628 9b3d 988b 5a3e 9372 3c3e
00000150: d548 3ebd 710c 683c c62e fabc 559b 25be
00000160: 1db9 50bd 2d5b 943b 8d5a 0e3e f132 a5be
00000170: b800 9ebe 0a4b b63d fc18 afbe 1d3d 0dbe
00000180: b4c8 1bbe 035e c9be e0c0 7d3d 37a3 853e
00000190: 55c7 e93d 4e1e afbc 21ce 053e e9f7 413e
000001a0: 6f0c a7bc 9986 10bd 7ec3 4dbe e21f f9bd
000001b0: aeba a3be 0890 673e 78c8 af3d 5c17 7bbe
000001c0: 26eb 963e 4c72 ee3d 5899 5dbe f7ee 29be
000001d0: 2d30 b4be 391d 213e 526f 1b3e 59fc e23d
000001e0: 75ca 143e 4800 963d c463 9e3e 54d0 9a3c
000001f0: b21f 093e 5762 4cbd bf11 f1bd 7aad 91bd
00000200: 7b95 c7bd d06f b2bd 0ab3 fbbd 2b24 a2bc
00000210: aac1 55be f738 c9bd b69a 6fbd fa66 9f3d
00000220: 8cd8 023e 2ea2 ba3d 759e a23d 5ada ae3d
00000230: 264a 153d 322c 2e3e ab66 a43d af67 bd3d
00000240: 74e8 cf3e 6039 143d e792 2fbe 7496 bd3e
00000250: a174 f73e 8301 71bd 9242 203d b0e1 6c3e
00000260: 5d9f afbc 52de a1bb 482d 863d bbb1 013e
00000270: 3abd b3bd 532e 113e 8287 f8bc d0b2 8dbe
00000280: f1a3 b8be 3bf0 4cbe 7504 3fbe 7d86 843d
00000290: 793b 50be cdc3 453d 4c99 72bc a2bf c5bd
000002a0: 4651 063e 6722 0b3e 6839 653d 26bc a63e
000002b0: b3aa 1d3e ff3f 06be 0435 3dbe d306 fcbd
000002c0: 0c66 e6bd 058b 1cbe 3457 94be 309c 4a3e
000002d0: b35f 053d 542d 193c 48c7 803e 785a 31bd
000002e0: 61a8 c2bc 6e95 51bd a307 42be 416e d0bd
000002f0: b795 21be c76d b7bd 4b7d 5e3d aeb3 303e
00000300: a877 303e 6315 3d3e 4cbd d53c 804f 4dbc
00000310: e17c 69be 6fee 9bbe 7b10 ca3d 56d9 d7bb
00000320: f53e dcbd 8a38 c7bd bfa3 89be 9ab2 bbbc
00000330: f625 90be 7387 fbbe 57ee 0cbe 509f 713d
00000340: 22b8 e23d 5363 483e 1b01 cabe 1910 3cbd
00000350: b9be 9fbd 52f0 0abe f303 123d 18ae 35bd
00000360: 7924 933d 43c5 873e 49d2 403e 76f8 163e
00000370: 16cb 393e deb5 203e df43 57be 621b 01be
00000380: 470a 35be 5486 80be 1f05 44be bfa6 8ebe
00000390: ec9a 26bc 91df 663e 7681 323e f4bc 12bf
000003a0: 45cb c9be 442e 7bbe 25c6 1e3e c503 373e
000003b0: e24a 553e 45aa 90bc 9ed2 143e a6e1 343e
000003c0: 7e3c 2d3d dc43 59bd 5e75 c23c d44c 0fbd
000003d0: 5415 0cbe d375 77be f70a ed3d cd7e 053e
000003e0: ad05 0bbb 3d7c bbbc ee88 463e 1347 37be
000003f0: 4643 8bbd 13a5 c2bd 3726 553c 9a93 ef3d
-0.05486278 -0.06387245 -0.046252307 -0.078199774 -0.18477222 -0.10051985 -0.09173756 -0.22185001
-0.3235431 0.1594745 0.036436196 0.07505864 0.069265716 0.10367423 0.14111762 0.082911596
0.25005496 -0.19785094 0.21694808 -0.1322247 -0.20947437 -0.11977708 0.07864351 0.063455254
-0.17769049 -0.049135007 -0.09166903 -0.3246567 -0.1549632 0.02074988 -0.024266075 0.20697121
0.07177782 0.010427302 0.08906561 0.26942006 -0.35595098 -0.27695563 -0.257684 -0.024358813
0.10750048 0.060921963 0.11451699 0.092272714 -0.09863483 -0.239073 -0.089941464 0.1613712
-0.050642647 -0.042388473 0.0703146 -0.110888615 -0.11773604 0.057751115 0.27301374 0.1087467
-0.0030031851 0.18637075 -0.07130134 -0.03906112 0.018874316 0.116128296 0.07351004 -0.06780031
-0.21069962 -0.21873754 -0.22526075 -0.37316403 -0.11737756 -0.20024624 -0.21675898 0.066631824
-0.026188904 0.15353388 0.1415302 -0.03554072 0.37887406 0.3007088 -0.09280496 0.074770264
0.0021896178 0.07576065 0.21342313 0.18403082 -0.046456177 0.0141631225 -0.030539881 -0.16172536
-0.050957788 0.0045274706 0.1390173 -0.32265428 -0.30859923 0.08901031 -0.3419875 -0.13792844
-0.15213281 -0.39329538 0.061951518 0.26101086 0.11414973 -0.021376755 0.13066913 0.18942226
-0.020391671 -0.035284612 -0.20094106 -0.12164284 -0.31978363 0.22613537 0.08583158 -0.2452063
0.2947628 0.11642894 -0.21640527 -0.16595064 -0.35193005 0.15733804 0.15179184 0.11083288
0.14530356 0.073242724 0.3093549 0.018898167 0.13390997 -0.04989847 -0.11770963 -0.07113166
-0.09745308 -0.08712733 -0.12290008 -0.019792637 -0.20874658 -0.09825318 -0.058497153 0.07783313
0.12777919 0.091129646 0.079403795 0.08537741 0.036447667 0.17009047 0.08027395 0.09248292
0.40607035 0.03618753 -0.17145883 0.3702885 0.48331168 -0.058839332 0.039125986 0.23132968
-0.021438295 -0.0049398327 0.065516055 0.12665455 -0.087763265 0.14177828 -0.030338053 -0.27675486
-0.36062577 -0.20013516 -0.18654044 0.06470964 -0.20335187 0.048282433 -0.014807057 -0.09655692
0.13116941 0.13587342 0.05596295 0.3256542 0.15397148 -0.1311035 -0.18477255 -0.12305989
-0.11249933 -0.15287407 -0.2897278 0.19786143 0.03256197 0.009349186 0.2515204 -0.04329917
-0.02376193 -0.051167898 -0.18948226 -0.10177279 -0.15779768 -0.08956485 0.054318707 0.17256042
0.17233145 0.1846519 0.02609124 -0.012531161 -0.22801544 -0.30455348 0.09866425 -0.0065871878
-0.107541956 -0.09727581 -0.2688274 -0.022912312 -0.28153962 -0.49126777 -0.13762794 0.058989823
0.11070277 0.19569139 -0.39453968 -0.04591379 -0.07800049 -0.13568237 0.035648298 -0.044355482
0.07184691 0.26517686 0.18830217 0.14743218 0.18143877 0.15694377 -0.21021985 -0.12608102
-0.17679702 -0.25102484 -0.19142579 -0.27861592 -0.010168772 0.22546221 0.17432198 -0.5731957
-0.39412895 -0.24529368 0.15505274 0.17872532 0.20829347 -0.017659316 0.14533469 0.17664203
0.042294018 -0.05304323 0.023737606 -0.03498538 -0.13680011 -0.2416604 0.11574357 0.13036652
-0.00212131 -0.02288639 0.19388172 -0.17898206 -0.06799941 -0.09504142 0.013009599 0.11698075

net.layer3.0.bias f4 [32]
00000000: 5f0a 633d 6d9c b4bc 2ad2 79bb 9175 d83c
00000010: 4e93 4b3d d338 5c3d 4389 3fbd 0cc8 6dbd
00000020: f1ff b4bb c26f 60bc 9e4d 62bc 68b0 55bc
00000030: aceb 29bd d4b5 6e3b 4281 443d 49dd 11bb
00000040: af87 fbbc 8fe0 283b 21c9 5e3d cdc0 8d3c
00000050: 7c6f fa3b 1e13 96ba af44 003d 61de 873c
00000060: b8bf 323c 9961 35bd 2cda 2e3d 5529 853c
00000070: 78b0 b33c 0e9f 533d eb26 34bc 4d1b e7bc
0.055429813 -0.022047246 -0.0038119652 0.026423248 0.049701028 0.05376513 -0.046761762 -0.058052108
-0.0055236747 -0.01369852 -0.013812451 -0.013042547 -0.04148452 0.0036424296 0.047974832 -0.002225714
-0.030704347 0.0025768613 0.05439103 0.017303849 0.0076426845 -0.0011449789 0.0313155 0.01658553
0.010909967 -0.04428253 0.042688534 0.01625506 0.021934733 0.05166536 -0.010995607 -0.02821126

net.layer3.1.weight f4 [32]
00000000: 8b20 543f 5506 383f a186 5e3f 5bb0 8e3f
00000010: 341a 933f 1913 273f 0135 8b3f 3a13 463f
00000020: 04db 063f a09f 693f 27cd 0e3f 3e6a 123f
00000030: e40b d43e dfba 0e3f 6311 393f 857b e43e
00000040: 274b 533f d11f 173f 06ae 693f 9e05 5f3f
00000050: 1b7c aa3f d187 8b3f 020c 043f 4b6e 023f
00000060: da14 393f d0c4 543f c5f4 213f a4c5 273f
00000070: e8db 3b3f 8dbe 373f bad0 333f 967d 923f
0.82862157 0.7188466 0.8692418 1.114757 1.1492372 0.65263516 1.087555 0.7737309
0.5267794 0.91259193 0.5578179 0.5719336 0.41415322 0.5575389 0.72292155 0.44625488
0.8253655 0.59032923 0.91281164 0.87117946 1.3319124 1.0900823 0.5158082 0.50949544
0.7229744 0.8311281 0.63264114 0.6553595 0.73382425 0.7177513 0.70240366 1.1444576

net.layer3.1.bias f4 [32]
00000000: c2f0 34bf f450 1ebf 78a6 45bf 6df0 83bf
00000010: 7c10 91bf 2c2e f8be 0577 75bf f81f 3ebf
00000020: f69f b9be 5dac 4dbf 4798 c1be 1605 e8be
00000030: eb31 89be fd21 c9be 1fe9 1abf 4f7a 15bf
00000040: a133 59bf e9a4 cebe 2bb8 2cbf 9b29 73bf
00000050: 9ee1 a3bf 3c27 9dbf 191d e6be 459d 86be
00000060: d6dd 1ebf a5fe 21bf 9cd4 31bf ea38 2abf
00000070: 6516 f9be 35ce 18bf 1396 44bf f752 48bf
-0.7067987 -0.61842275 -0.77207136 -1.0307747 -1.1333156 -0.48472726 -0.95884734 -0.7426753
-0.36254853 -0.8034113 -0.3781149 -0.4531638 -0.26795897 -0.39283744 -0.60511965 -0.58389753
-0.84844404 -0.4036019 -0.6746852 -0.9498536 -1.2803228 -1.2277598 -0.44944075 -0.26291862
-0.62057245 -0.6327918 -0.6946504 -0.66493094 -0.48649898 -0.59689647 -0.76791495 -0.78251594

net.layer3.1.running_mean f4 [32]
00000000: 0000 0000 0000 0000 0000 0000 0000 0000
00000010: 0000 0000 0000 0000 0000 0000 0000 0000
00000020: 0000 0000 0000 0000 0000 0000 0000 0000
00000030: 0000 0000 0000 0000 0000 0000 0000 0000
00000040: 0000 0000 0000 0000 0000 0000 0000 0000
00000050: 0000 0000 0000 0000 0000 0000 0000 0000
00000060: 0000 0000 0000 0000 0000 0000 0000 0000
00000070: 0000 0000 0000 0000 0000 0000 0000 0000
0.0 0.0 0.0 0.0 0.0 0.0 0.0 0.0
0.0 0.0 0.0 0.0 0.0 0.0 0.0 0.0
0.0 0.0 0.0 0.0 0.0 0.0 0.0 0.0
0.0 0.0 0.0 0.0 0.0 0.0 0.0 0.0

net.layer3.1.running_var f4 [32]
00000000: 0000 803f 0000 803f 0000 803f 0000 803f
00000010: 0000 803f 0000 803f 0000 803f 0000 803f
00000020: 0000 803f 0000 803f 0000 803f 0000 803f
00000030: 0000 803f 0000 803f 0000 803f 0000 803f
00000040: 0000 803f 0000 803f 0000 803f 0000 803f
00000050: 0000 803f 0000 803f 0000 803f 0000 803f
00000060: 0000 803f 0000 803f 0000 803f 0000 803f
00000070: 0000 803f 0000 803f 0000 803f 0000 803f
1.0 1.0 1.0 1.0 1.0 1.0 1.0 1.0
1.0 1.0 1.0 1.0 1.0 1.0 1.0 1.0
1.0 1.0 1.0 1.0 1.0 1.0 1.0 1.0
1.0 1.0 1.0 1.0 1.0 1.0 1.0 1.0

net.layer4.0.weight f4 [32, 32, 3, 3]
00000000: c555 473d 3d5e cfbb 1390 043d 290b 60bd
00000010: c60b dabc dc97 9dbd a01d 3fbe d070 55bd
00000020: 1971 a5bd 5009 1bbe d64e 67be 1197 11be
00000030: ae9f b3be dd59 34be c615 0dbe 76c3 67be
00000040: 9e6c 7abc 4a1e 863d 34a5 753e 60a7 123e
00000050: 2bc0 133e e70f 663e 08b5 193e 1576 313d
00000060: 4608 6e3e ebe5 813e 83a0 8e3d 5e96 ddbc
00000070: 8875 99bd f95c 09bd eb65 f5bd 5b48 4ebe
00000080: 1c4a 84bd 31dd b0bd ebce 32be 2ec5 41be
00000090: fe39 cc3d f53a 6b3e 37e8 6c3e 3dcd 083e
000000a0: ae9e 453e 39e5 a33e d01a 713e 826a ae3e
000000b0: 7a0a c73e 4946 2fbe b393 bcbd 33ae 40bd
000000c0: edf4 9dbd 3019 4dbd b070 85ba 642d 2ebc
000000d0: 4c42 a4bd 163d 05bb a29f 4bbd 6688 1e3a
000000e0: 4c3c 333c d2b5 51bd 056c b0bc 654d e33c
000000f0: 9366 0bbe 759f aabd 48f2 913d 380f 87be
00000100: f566 1cbe 2785 bbbd ab17 5cbe 0174 e1bd
00000110: e5f8 273e abf8 80bd 63af 753d 43e4 5d3e
00000120: cbac b03e 58b0 733e 8435 763e f957 913e
00000130: 13dd 323c b6e5 103d de2b a13e cab2 423d
00000140: 853a 9c3d 014a 6a3e f6fc 573e c199 743e
00000150: f261 623e a676 383e 59a3 823e dfb7 ab3e
00000160: 05ea 6d3e 6f2c 6a3e e3a9 dcbd 30b1 80be
00000170: 3cf6 28be bd84 bbbd 7105 1bbe e63a 41bc
00000180: f1c5 cdbd a0db 85bd 3580 b7bb 2b6d f0be
00000190: 0c4a 43be fc2d afbd 5e91 debe 1695 6fbe
000001a0: 0a79 efbd d072 f7be c82a 73be a0a9 65be
000001b0: e233 db3d b96a 9fbc 06ba 54bd 16c4 df3c
000001c0: e7c0 453d 9c84 90bd 6b00 823d 78fe 643d
000001d0: 46aa 38bc edf8 d83d 1b74 993c d2d1 cebd
000001e0: 8b6e fcbc 41a8 d0bd 7390 aebd d3ff c9bd
000001f0: df1a 11be 5c69 20be 538f 39be caf0 f0bd
00000200: 30fc acbd 00ae d5bd 5791 febc 0516 9cbd
00000210: c136 9ebd 63da 08be 2ea0 923a 3db4 53be
00000220: dfe4 a1be b21c a9be 9cba f2bd c6fe 85be
00000230: bc61 2dbe bcda 83be a15f 94be 3855 89be
00000240: 1799 6bbc 57ba 46bb e481 0dbd b139 cfbd
00000250: 1e08 40be ebdb b7bb d5af 22be 624d 5cbe
00000260: 4fa2 22be f6f2 663e a388 8b3e 2944 923e
00000270: 46ba 613d 1663 d7bb c15b 133e 4586 79bd
00000280: de12 b1bd fc2e bbba 29b0 153e b322 b93d
00000290: 5f1c fe3d 3b28 203e 66af c43d 8c24 343d
000002a0: f609 093e 5f4a 083e 0152 263e bdb1 d93d
000002b0: c40b d73d 1e5a 153e 0ee7 bc3c f8c5 463d
000002c0: 9a15 dc3d 215d 6ebb 7235 d8bb b3a9 dcbc
000002d0: 40eb 3abe c02d 6abe 48bd 24be 4776 42be
000002e0: 2fa4 fabd 0352 eabd b972 2dbe 120b 12be
000002f0: 1703 8abd 413c dd3c a087 3cbd ef1e dcbd
00000300: a273 11be 4e6d e3bc 394c 7e3c cedd a4bd
00000310: 0018 aebd 4816 74ba cac6 993e 0fdb 833e
00000320: 5d41 cd3e 0374 163e 7d1e 333e 8aea a13e
00000330: 71ef 4b3e 4cc9 bb3e 4eee f63e cfa5 e0bd
00000340: fe98 edbd 1a03 02be 0c10 a1bd 109c 71bd
00000350: 491c ebbc 4929 9cbd 4cb0 e5bd ff29 a13d
00000360: 5003 093e d513 a53d 7c3c 183e dec5 893a
00000370: 7d32 a63d 17af 013d f25a 9c3d cfe5 653d
00000380: e0b6 c33b 7dbd bc3d 9627 f73d 645c 123e
00000390: f9a0 c03d f9f6 cb3d f432 8d3d 7cdd ee3d
000003a0: 545b e33d 2c2f cb3d 98a4 d73a 2059 13be
000003b0: 8795 3cbe 8cf2 33bd fff9 58bd 830c 41be
000003c0: f2fa c73d 1aa7 223c 1eeb 10be 255e 73be
000003d0: d388 2fbe 414f f5be 0be5 edbd 2647 01be
000003e0: a017 a3be 0dbc b8be 8e42 6cbe f271 cbbe
000003f0: 4481 d9bd 1332 38bd 1fa7 53be 428d e5bd
0.04866578 -0.0063283728 0.032363962 -0.054698143 -0.026616942 -0.076949805 -0.18663645 -0.05210954
-0.08078212 -0.15140271 -0.22588667 -0.14217784 -0.35082763 -0.17612405 -0.13777837 -0.22633156
-0.015284685 0.06548746 0.23988801 0.14321661 0.14428775 0.22467004 0.15010464 0.043325502
0.23245344 0.25370726 0.06964209 -0.02704924 -0.074931204 -0.03353593 -0.1198233 -0.20144789
-0.06459448 -0.08635939 -0.17461745 -0.18922874 0.09971999 0.22971709 0.23135458 0.13359542
0.19298813 0.3201082 0.23545384 0.34065634 0.3887518 -0.17116655 -0.09207859 -0.04704113
-0.077127315 -0.05007285 -0.0010180678 -0.010630939 -0.080204576 -0.00203306 -0.049712785 0.00060475466
0.010939669 -0.051198788 -0.021535883 0.027746866 -0.13613348 -0.08331195 0.071262896 -0.26378798
-0.1527365 -0.09156256 -0.21493404 -0.11008454 0.1640354 -0.0629743 0.059981715 0.21669106
0.3450683 0.23797739 0.24043852 0.2838743 0.010916966 0.03537532 0.3147878 0.047533788
0.07628349 0.22879793 0.2109259 0.23886777 0.22107676 0.18014011 0.2551525 0.3353872
0.23233803 0.22868513 -0.10774591 -0.25135183 -0.16500181 -0.09156177 -0.15138794 -0.011793828
-0.1004752 -0.06536031 -0.0056000003 -0.4695829 -0.19071215 -0.08553693 -0.4347028 -0.23396716
-0.11693008 -0.48329782 -0.23746789 -0.22427988 0.10703255 -0.019460069 -0.05193522 0.02731518
0.04827967 -0.07056543 0.06347736 0.055906743 -0.011271065 0.10594354 0.018732121 -0.10098614
-0.03081443 -0.10188342 -0.08523645 -0.09863248 -0.14170407 -0.15665191 -0.1812108 -0.11764677
-0.084465384 -0.104335785 -0.031075163 -0.076213874 -0.07725287 -0.13364558 0.0011186653 -0.20674224
-0.31619927 -0.33029705 -0.11851999 -0.2617094 -0.16931814 -0.2575282 -0.2897921 -0.2682283
-0.014379761 -0.003032347 -0.0345477 -0.10118426 -0.18753096 -0.005610933 -0.15887387 -0.21513894
-0.15882228 0.2255362 0.27252683 0.28567627 0.055109285 -0.0065730913 0.1439047 -0.060919065
-0.08646177 -0.001428097 0.14617981 0.090398215 0.12407755 0.15640347 0.09603767 0.043980166
0.13382706 0.1330962 0.1624222 0.10629604 0.10500291 0.14585158 0.023059394 0.04852864
0.10746308 -0.0036371427 -0.006598168 -0.026936388 -0.18253803 -0.22869015 -0.1608783 -0.18990432
-0.12238347 -0.11441424 -0.16938294 -0.14262035 -0.067388706 0.02700627 -0.04602778 -0.107480876
-0.14204267 -0.027762081 0.015521103 -0.080501184 -0.085006714 -0.00093111815 0.30034477 0.25753066
0.4008893 0.14692692 0.17492099 0.31624252 0.19915558 0.36677015 0.48228687 -0.109691255
-0.116014466 -0.12696496 -0.07864389 -0.058986723 -0.02870001 -0.07625062 -0.112152666 0.07869338
0.1338017 0.08060423 0.14866823 0.001051124 0.081150986 0.03166112 0.07634534 0.056127366
0.005972728 0.092158295 0.12068097 0.14293057 0.09405703 0.09959216 0.06894484 0.116633385
0.11101404 0.09921107 0.0016452251 -0.14389467 -0.18416415 -0.043932483 -0.05297279 -0.18852429
0.09764661 0.009927535 -0.1415219 -0.23766382 -0.17142038 -0.47912028 -0.11615952 -0.12624797
-0.31853962 -0.3608097 -0.23072264 -0.3973537 -0.106203586 -0.04496963 -0.2066922 -0.112085834

net.layer4.0.bias f4 [32]
00000000: 8c5c 993a 6edf dbbc 7c82 cdbc 16e8 1fbb
00000010: 59b8 153c be9f b93c 9790 3fbd 7c16 c43c
00000020: f8d2 dbbd a47a 04bd 2d8b 073d dfd4 e2bb
00000030: 9c20 85bc 389b 833b 4c01 503d 606b 97bc
00000040: 083d 163c 2920 683d f1f0 a03c dcfb b03c
00000050: 2f8b 323d 0201 2abd 8f6b 2c3c 66d7 373d
00000060: 9814 c03c b5bc 2cbd 8d5f 373d 172e 083d
00000070: aac2 16bd d725 153d 59ae 473d 180c f63c
0.0011700555 -0.026839938 -0.025086634 -0.0024399809 0.00913819 0.022659179 -0.04676875 0.023936503
-0.107335985 -0.03234352 0.033091713 -0.006922349 -0.0162509 0.0040163063 0.050782487 -0.018483818
0.009169824 0.056671295 0.01964614 0.02160447 0.043589767 -0.041504867 0.010523691 0.044883154
0.02344732 -0.042172153 0.04476886 0.03324708 -0.03680674 0.03641304 0.048750255 0.030035064

net.layer4.1.weight f4 [32]
00000000: ce63 c13f 6955 5d40 6d89 5440 4a3c 573f
00000010: 9911 7340 4e77 a53e 723e 7540 4b43 7b40
00000020: 3ffa 613f cbc2 7140 a8bb 4e40 755d 7940
00000030: 8c4f 3b40 f6bc 5f40 bdbb 203f 1105 4240
00000040: e0b3 5e40 4efc 2a40 c9d7 4b40 b876 8a3e
00000050: 7e28 0d40 db93 3240 7490 4c40 86b7 b13e
00000060: 951b 6040 be0e 8a40 21ec 5e40 7f7d 6a40
00000070: 7e41 4440 9c5d 8a40 0a51 2640 51b5 1c40
1.5108583 3.458338 3.3208878 0.8407637 3.797949 0.32317585 3.8319364 3.9259822
0.8827247 3.7775142 3.2302036 3.8963292 2.9267302 3.4959083 0.62786466 3.0315592
3.4797287 2.6716495 3.1850455 0.270437 2.2055964 2.7902744 3.1963167 0.3471033
3.5016835 4.3142996 3.4831622 3.6639097 3.0664973 4.323927 2.5986962 2.4485667

net.layer4.1.bias f4 [32]
00000000: 04d2 68bf c93f 2ebf 7176 e7be 8346 bdbe
00000010: 32da 1cbf 5779 56bf 97ba e0be 98da 30bf
00000020: df19 dcbe 7dd1 08bf 3594 60bf aa90 71bf
00000030: cf22 b8bf df05 1fbf 521f 64bf e076 66bf
00000040: 2a0d 8ebf 479d 86bf 56b9 6dbf 2513 42bf
00000050: 2916 38bf b3ef 76bf 4730 bdbf d52f 1dbf
00000060: d760 4cbf 0b81 ddbf b4b4 66bf 2c67 09bf
00000070: ad71 25bf ca20 82bf aa77 91bf 31c9 3fbf
-0.9094546 -0.6806608 -0.4520755 -0.3696786 -0.6127044 -0.837789 -0.43892357 -0.6908355
-0.42988488 -0.53444654 -0.87726146 -0.94361365 -1.4385623 -0.62118334 -0.8911029 -0.9002514
-1.1097767 -1.0516747 -0.92860925 -0.7581046 -0.71908814 -0.964595 -1.4780358 -0.6140111
-0.79835266 -1.7305006 -0.9011948 -0.5367305 -0.6462658 -1.0166256 -1.1364644 -0.7491637

net.layer4.1.running_mean f4 [32]
00000000: 0000 0000 0000 0000 0000 0000 0000 0000
00000010: 0000 0000 0000 0000 0000 0000 0000 0000
00000020: 0000 0000 0000 0000 0000 0000 0000 0000
00000030: 0000 0000 0000 0000 0000 0000 0000 0000
00000040: 0000 0000 0000 0000 0000 0000 0000 0000
00000050: 0000 0000 0000 0000 0000 0000 0000 0000
00000060: 0000 0000 0000 0000 0000 0000 0000 0000
00000070: 0000 0000 0000 0000 0000 0000 0000 0000
0.0 0.0 0.0 0.0 0.0 0.0 0.0 0.0
0.0 0.0 0.0 0.0 0.0 0.0 0.0 0.0
0.0 0.0 0.0 0.0 0.0 0.0 0.0 0.0
0.0 0.0 0.0 0.0 0.0 0.0 0.0 0.0

net.layer4.1.running_var f4 [32]
00000000: 0000 803f 0000 803f 0000 803f 0000 803f
00000010: 0000 803f 0000 803f 0000 803f 0000 803f
00000020: 0000 803f 0000 803f 0000 803f 0000 803f
00000030: 0000 803f 0000 803f 0000 803f 0000 803f
00000040: 0000 803f 0000 803f 0000 803f 0000 803f
00000050: 0000 803f 0000 803f 0000 803f 0000 803f
00000060: 0000 803f 0000 803f 0000 803f 0000 803f
00000070: 0000 803f 0000 803f 0000 803f 0000 803f
1.0 1.0 1.0 1.0 1.0 1.0 1.0 1.0
1.0 1.0 1.0 1.0 1.0 1.0 1.0 1.0
1.0 1.0 1.0 1.0 1.0 1.0 1.0 1.0
1.0 1.0 1.0 1.0 1.0 1.0 1.0 1.0

net.classifier.weight f4 [5, 800]
00000000: 20ba da3c 6a19 a43b ec25 123d ea73 3abb
00000010: 015c 0c3d 1b5c 373d 444a 813d aeb0 c4ba
00000020: 839c 8b39 e18e 1a3b 748f 76bc 6c29 9d3c
00000030: 2f9e d93c 9bf8 d03b 1f73 3ebc 2d8e 13bd
00000040: a81c 2cbd 7652 333d d648 f1bb 6670 e93b
00000050: 4f55 b938 8d94 2fbd 7d7c 35bc e091 823d
00000060: 2c60 53bb 2677 573c 951e d03c 930f ffbb
00000070: c15d 38bc 4eb4 273d 817c f53b 103e fbbc
00000080: ae06 11bc c90f d9bc 23a8 813c 9fb3 d2bc
00000090: ea2d 09bc de22 5e3b 87bc ebbb 3610 1dbb
000000a0: 0712 7f3c b99f babb c6f1 92bb bf35 bebc
000000b0: 27c2 b5bc 354a c33c d1d6 09bc 40f2 67bc
000000c0: b877 1ebd 7ff4 b83c f9ca ea3c fe90 363d
000000d0: 381b c2bc 1470 36bc 8426 05bd b506 c13c
000000e0: 3640 073c 102e fabc 18a0 83bc 0bc0 44bc
000000f0: 6118 06bd 7a5e b2bc e488 1ebd a77b a23a
00000100: 220a 0f3d d489 87bc a792 0dbc 95bc 1c3b
00000110: c6f7 f9bc c7ca 843b de61 fabb cfa5 c4bb
00000120: 9678 de3b 2263 6b3c fb00 4bb7 2f46 fdbc
00000130: 2de5 263a 4034 0cbd 301f c33c 4b66 a7bc
00000140: 20bd e43c 793f 85bd 287c c2bc d596 b0bd
00000150: 0236 21bd a6f0 99bd 020a 63bd 201c c4bd
00000160: cead a8bd 158d 90bd 71ff 2bbd 573d 0dba
00000170: b23d abbd b842 73bd 77ee 5dbd 0005 e4bb
00000180: 7de2 1dbd 2ad8 04bd 17cd 0ebd e217 4abd
00000190: b733 ff3a 8822 57bc 7ffe 8dbc 221c a2bc
000001a0: e59c 053c a87f cb3c 58fe 933d 2b57 d13c
000001b0: e3f5 c33c 5973 0c3d 19d4 8fbb 53dd 183c
000001c0: 6f4e fbbc 4a99 493c b4a0 f23c 1812 1ebd
000001d0: 1f00 033d 9f0a e0bb 70bd b9bb 866d d33c
000001e0: 9e94 7e3a 55f8 28bc 8388 0e3c 633c e3bc
000001f0: 2fe9 85bb 203d 203d f818 2abc 01fd a9bd
00000200: 5d44 51bd 34f7 23bd 4c49 323b 597b 26bd
00000210: 2a5f 963c f580 003b 4136 b73d a9cc 5bbc
00000220: 7310 b4bc 7930 87bd b750 773c c567 4f3a
00000230: 1629 343c 5efc 673d 6944 613d 3967 e43b
00000240: 65ca 3bbd 3f31 843d ba78 25bd 7b18 d0bc
00000250: a1e8 41bd af34 e43c de4b 063a 1765 9bbc
00000260: 80d4 1ebd 16c0 aebc 7658 62bc b387 923b
00000270: 5089 923c 1d48 b63b e2ec 02bd ac66 d23b
00000280: 162d 1f3d 771d 693a d568 87bc d4a5 49bd
00000290: ee34 c8bb 4acf dabb c115 4dbc dff0 afba
000002a0: 5638 c93c 303f 83bc abf5 6d3b 5765 c53c
000002b0: 1a76 aabc 37f1 5fbb f215 073d 17e9 babc
000002c0: 8954 813c 74af 9e3c fb88 c5bc 0038 98b9
000002d0: 1626 023d 76c1 013d 8a37 c73c df48 b5bc
000002e0: 025a b63c 1d37 c4bc 265a 45bc 7b22 143c
000002f0: 1af2 f8bc bf7b d33c 64ab 623c de9d 61b9
00000300: 14eb 883a 3f7b b83a 77c8 01bd d7de e23c
00000310: 9a24 4b3b f4bc 7dbc 09d0 27bd 20c4 f8bb
00000320: ad5f 17bc 0639 f93a 079d 833b be72 4cbd
00000330: 7e7f 363c b5d8 bbbc 41ba b6bc e642 a2bd
00000340: c8ff a6bd a29c 5cbd 9e7a 7e3c 0813 b2bd
00000350: 3e7f cfbd 57e1 43bd 8599 49bd 43be 03bc
00000360: 639e 0fbd c4a1 c8bd b48e b3bd 138c bebd
00000370: 446f bcbd 8956 88bc e514 7bbd a299 84bd
00000380: 7ba5 21bd a6f5 3a3d 2e22 9dbc 5bfd a9bc
00000390: 3e45 2fbc 9a76 3cbc 0293 ac3b 609b ebbc
000003a0: ca0a c5b8 cee1 22bd 50a4 fbbc 77be a6ba
000003b0: 6df5 62bc 38ee cf3c d01a 52bc fe18 31bc
000003c0: f60e c93c ec26 5cbb bb55 53bd 7cd7 733c
000003d0: dc4e 3cbc 5729 993c 5cb8 273d 8a88 5b3c
000003e0: 91e5 323d e60c c3bc f587 783c 91b8 b9bb
000003f0: b1aa 763c dca0 013b 99f6 323c dc7d f9bc
0.02670008 0.0050079124 0.035680696 -0.0028450438 0.03426743 0.044765573 0.06312993 -0.0015006268
0.00026628756 0.0023583698 -0.01504885 0.01918479 0.026564686 0.0063772923 -0.011624127 -0.03602426
-0.042019516 0.043779813 -0.007363419 0.0071239946 8.8373774e-05 -0.04286628 -0.011077044 0.0637548
-0.0032253368 0.013150966 0.025405208 -0.007783839 -0.011252821 0.040943436 0.0074916487 -0.030669242
-0.00885169 -0.026496785 0.015827244 -0.025720416 -0.008372763 0.0033895294 -0.007194105 -0.0023965961
0.015568263 -0.00569531 -0.004484388 -0.023218988 -0.022187306 0.023839096 -0.008413033 -0.014156878
-0.03868839 0.022577522 0.028661238 0.04457187 -0.02369462 -0.01113512 -0.032507434 0.023562768
0.008255055 -0.030539542 -0.01606755 -0.012008677 -0.032738093 -0.021773566 -0.038704768 0.001239647
0.034921773 -0.016545214 -0.008640922 0.0023916115 -0.030513655 0.0040524933 -0.007641061 -0.0060012112
0.0067892773 0.014366897 -1.2099971e-05 -0.030917255 0.00063665473 -0.034229517 0.023818582 -0.02043452
0.027922213 -0.06506247 -0.023740843 -0.08622519 -0.039358146 -0.07516603 -0.055429466 -0.09575677
-0.082362756 -0.07058159 -0.041991655 -0.00053878635 -0.08361377 -0.0593898 -0.054182496 -0.006958604
-0.038546074 -0.032432713 -0.034863558 -0.049339183 0.0019470368 -0.0131307915 -0.017333267 -0.019788805
0.008155082 0.024841145 0.072262466 0.02555426 0.023920959 0.03428969 -0.0043892977 0.009330112
-0.030677048 0.012304613 0.029617645 -0.038591474 0.031982537 -0.0068372036 -0.0056683347 0.02580906
0.0009711477 -0.010313113 0.008699539 -0.027738756 -0.0040866355 0.039120793 -0.01038193 -0.0830021
-0.051090587 -0.040030673 0.0027204333 -0.040644977 0.018355925 0.0019608114 0.08945895 -0.013415494
-0.0219805 -0.06601042 0.0150949275 0.0007911886 0.010996124 0.05663716 0.05499688 0.006970313
-0.045847315 0.064547054 -0.040398337 -0.025402298 -0.047340993 0.027857153 0.00051229994 -0.018969102
-0.038776875 -0.021331828 -0.013815036 0.004471743 0.017887741 0.005562796 -0.03196419 0.006420931
0.038861357 0.0008892635 -0.01652948 -0.04923041 -0.0061098253 -0.006677543 -0.012517394 -0.0013423226
0.024562996 -0.016021341 0.003630976 0.024096174 -0.020808268 -0.0034170875 0.032979913 -0.022816224
0.01578738 0.019370772 -0.024113169 -0.00029033422 0.031774603 0.03167864 0.024318475 -0.022129474
0.022259716 -0.023952061 -0.012045419 0.009041424 -0.03038888 0.025815843 0.013834808 -0.00021516482
0.0010446035 0.0014074816 -0.03168532 0.027694149 0.0030997158 -0.0154869445 -0.040969882 -0.0075917393
-0.0092391195 0.0019014187 0.004016522 -0.049914114 0.011138795 -0.022930482 -0.02230561 -0.07922916
-0.08154255 -0.053860314 0.015532164 -0.08695036 -0.101316914 -0.047822323 -0.049218673 -0.008040967
-0.03506316 -0.09796479 -0.08767453 -0.09304061 -0.0920091 -0.016642826 -0.061299223 -0.06474616
-0.039464455 0.045644425 -0.019181337 -0.020750692 -0.010697661 -0.011502886 0.005266548 -0.028760612
-9.3957016e-05 -0.039766125 -0.030717999 -0.0012721558 -0.013852459 0.025382146 -0.012823775 -0.010809181
0.024543267 -0.0033592535 -0.05159543 0.014882918 -0.011493411 0.01869647 0.040947303 0.013399253
0.043675963 -0.023809861 0.015169133 -0.005667754 0.015055344 0.0019779718 0.010923051 -0.030455522

net.classifier.bias f4 [5]
00000000: 16a5 b43d 6ab3 c43d c547 2cbe 2a25 e1bd
00000010: 2714 b03d
0.0882055 0.09604533 -0.16824253 -0.109934166 0.08597594
